…
test_initialization: false
average_loss: 20
iter_size: 1
I0209 11:04:39.170912  1717 solver.cpp:81] Creating training net from train_net file: train.prototxt
I0209 11:04:39.193429  1717 net.cpp:58] Initializing net from parameters: 
state {
  phase: TRAIN
}
layer {
  name: "data"
  type: "Python"
  top: "data"
  top: "label"
  python_param {
    module: "voc_layers"
    layer: "PartialSBDDSegDataLayer"
    param_str: "{\'sbdd_dir\': \'../data/sbdd/dataset\', \'seed\': 1337, \'split\': \'train5\', \'mean\': (104.00699, 116.66877, 122.67892)}"
  }
}
layer {
  name: "conv1_1"
  type: "Convolution"
  bottom: "data"
  top: "conv1_1"
  param {
    lr_mult: 1
    decay_mult: 1
  }
  param {
    lr_mult: 2
    decay_mult: 0
  }
  convolution_param {
    num_output: 64
    pad: 100
    kernel_size: 3
    stride: 1
    weight_filler {
      type: "xavier"
    }
  }
}
layer {
  name: "relu1_1"
  type: "ReLU"
  bottom: "conv1_1"
  top: "conv1_1"
}
layer {
  name: "conv1_2"
  type: "Convolution"
  bottom: "conv1_1"
  top: "conv1_2"
  param {
    lr_mult: 1
    decay_mult: 1
  }
  param {
    lr_mult: 2
    decay_mult: 0
  }
  convolution_param {
    num_output: 64
    pad: 1
    kernel_size: 3
    stride: 1
    weight_filler {
      type: "xavier"
    }
  }
}
layer {
  name: "relu1_2"
  type: "ReLU"
  bottom: "conv1_2"
  top: "conv1_2"
}
layer {
  name: "pool1"
  type: "Pooling"
  bottom: "conv1_2"
  top: "pool1"
  pooling_param {
    pool: MAX
    kernel_size: 2
    stride: 2
  }
}
layer {
  name: "conv2_1"
  type: "Convolution"
  bottom: "pool1"
  top: "conv2_1"
  param {
    lr_mult: 1
    decay_mult: 1
  }
  param {
    lr_mult: 2
    decay_mult: 0
  }
  convolution_param {
    num_output: 128
    pad: 1
    kernel_size: 3
    stride: 1
    weight_filler {
      type: "xavier"
    }
  }
}
layer {
  name: "relu2_1"
  type: "ReLU"
  bottom: "conv2_1"
  top: "conv2_1"
}
layer {
  name: "conv2_2"
  type: "Convolution"
  bottom: "conv2_1"
  top: "conv2_2"
  param {
    lr_mult: 1
    decay_mult: 1
  }
  param {
    lr_mult: 2
    decay_mult: 0
  }
  convolution_param {
    num_output: 128
    pad: 1
    kernel_size: 3
    stride: 1
    weight_filler {
      type: "xavier"
    }
  }
}
layer {
  name: "relu2_2"
  type: "ReLU"
  bottom: "conv2_2"
  top: "conv2_2"
}
layer {
  name: "pool2"
  type: "Pooling"
  bottom: "conv2_2"
  top: "pool2"
  pooling_param {
    pool: MAX
    kernel_size: 2
    stride: 2
  }
}
layer {
  name: "conv3_1"
  type: "Convolution"
  bottom: "pool2"
  top: "conv3_1"
  param {
    lr_mult: 1
    decay_mult: 1
  }
  param {
    lr_mult: 2
    decay_mult: 0
  }
  convolution_param {
    num_output: 256
    pad: 1
    kernel_size: 3
    stride: 1
    weight_filler {
      type: "xavier"
    }
  }
}
layer {
  name: "relu3_1"
  type: "ReLU"
  bottom: "conv3_1"
  top: "conv3_1"
}
layer {
  name: "conv3_2"
  type: "Convolution"
  bottom: "conv3_1"
  top: "conv3_2"
  param {
    lr_mult: 1
    decay_mult: 1
  }
  param {
    lr_mult: 2
    decay_mult: 0
  }
  convolution_param {
    num_output: 256
    pad: 1
    kernel_size: 3
    stride: 1
    weight_filler {
      type: "xavier"
    }
  }
}
layer {
  name: "relu3_2"
  type: "ReLU"
  bottom: "conv3_2"
  top: "conv3_2"
}
layer {
  name: "conv3_3"
  type: "Convolution"
  bottom: "conv3_2"
  top: "conv3_3"
  param {
    lr_mult: 1
    decay_mult: 1
  }
  param {
    lr_mult: 2
    decay_mult: 0
  }
  convolution_param {
    num_output: 256
    pad: 1
    kernel_size: 3
    stride: 1
    weight_filler {
      type: "xavier"
    }
  }
}
layer {
  name: "relu3_3"
  type: "ReLU"
  bottom: "conv3_3"
  top: "conv3_3"
}
layer {
  name: "pool3"
  type: "Pooling"
  bottom: "conv3_3"
  top: "pool3"
  pooling_param {
    pool: MAX
    kernel_size: 2
    stride: 2
  }
}
layer {
  name: "conv4_1"
  type: "Convolution"
  bottom: "pool3"
  top: "conv4_1"
  param {
    lr_mult: 1
    decay_mult: 1
  }
  param {
    lr_mult: 2
    decay_mult: 0
  }
  convolution_param {
    num_output: 512
    pad: 1
    kernel_size: 3
    stride: 1
    weight_filler {
      type: "xavier"
    }
  }
}
layer {
  name: "relu4_1"
  type: "ReLU"
  bottom: "conv4_1"
  top: "conv4_1"
}
layer {
  name: "conv4_2"
  type: "Convolution"
  bottom: "conv4_1"
  top: "conv4_2"
  param {
    lr_mult: 1
    decay_mult: 1
  }
  param {
    lr_mult: 2
    decay_mult: 0
  }
  convolution_param {
    num_output: 512
    pad: 1
    kernel_size: 3
    stride: 1
    weight_filler {
      type: "xavier"
    }
  }
}
layer {
  name: "relu4_2"
  type: "ReLU"
  bottom: "conv4_2"
  top: "conv4_2"
}
layer {
  name: "conv4_3"
  type: "Convolution"
  bottom: "conv4_2"
  top: "conv4_3"
  param {
    lr_mult: 1
    decay_mult: 1
  }
  param {
    lr_mult: 2
    decay_mult: 0
  }
  convolution_param {
    num_output: 512
    pad: 1
    kernel_size: 3
    stride: 1
    weight_filler {
      type: "xavier"
    }
  }
}
layer {
  name: "relu4_3"
  type: "ReLU"
  bottom: "conv4_3"
  top: "conv4_3"
}
layer {
  name: "pool4"
  type: "Pooling"
  bottom: "conv4_3"
  top: "pool4"
  pooling_param {
    pool: MAX
    kernel_size: 2
    stride: 2
  }
}
layer {
  name: "conv5_1"
  type: "Convolution"
  bottom: "pool4"
  top: "conv5_1"
  param {
    lr_mult: 1
    decay_mult: 1
  }
  param {
    lr_mult: 2
    decay_mult: 0
  }
  convolution_param {
    num_output: 512
    pad: 1
    kernel_size: 3
    stride: 1
    weight_filler {
      type: "xavier"
    }
  }
}
layer {
  name: "relu5_1"
  type: "ReLU"
  bottom: "conv5_1"
  top: "conv5_1"
}
layer {
  name: "conv5_2"
  type: "Convolution"
  bottom: "conv5_1"
  top: "conv5_2"
  param {
    lr_mult: 1
    decay_mult: 1
  }
  param {
    lr_mult: 2
    decay_mult: 0
  }
  convolution_param {
    num_output: 512
    pad: 1
    kernel_size: 3
    stride: 1
    weight_filler {
      type: "xavier"
    }
  }
}
layer {
  name: "relu5_2"
  type: "ReLU"
  bottom: "conv5_2"
  top: "conv5_2"
}
layer {
  name: "conv5_3"
  type: "Convolution"
  bottom: "conv5_2"
  top: "conv5_3"
  param {
    lr_mult: 1
    decay_mult: 1
  }
  param {
    lr_mult: 2
    decay_mult: 0
  }
  convolution_param {
    num_output: 512
    pad: 1
    kernel_size: 3
    stride: 1
    weight_filler {
      type: "xavier"
    }
  }
}
layer {
  name: "relu5_3"
  type: "ReLU"
  bottom: "conv5_3"
  top: "conv5_3"
}
layer {
  name: "pool5"
  type: "Pooling"
  bottom: "conv5_3"
  top: "pool5"
  pooling_param {
    pool: MAX
    kernel_size: 2
    stride: 2
  }
}
layer {
  name: "fc6"
  type: "Convolution"
  bottom: "pool5"
  top: "fc6"
  param {
    lr_mult: 1
    decay_mult: 1
  }
  param {
    lr_mult: 2
    decay_mult: 0
  }
  convolution_param {
    num_output: 4096
    pad: 0
    kernel_size: 7
    stride: 1
    weight_filler {
      type: "xavier"
    }
  }
}
layer {
  name: "relu6"
  type: "ReLU"
  bottom: "fc6"
  top: "fc6"
}
layer {
  name: "drop6"
  type: "Dropout"
  bottom: "fc6"
  top: "fc6"
  dropout_param {
    dropout_ratio: 0.5
  }
}
layer {
  name: "fc7"
  type: "Convolution"
  bottom: "fc6"
  top: "fc7"
  param {
    lr_mult: 1
    decay_mult: 1
  }
  param {
    lr_mult: 2
    decay_mult: 0
  }
  convolution_param {
    num_output: 4096
    pad: 0
    kernel_size: 1
    stride: 1
    weight_filler {
      type: "xavier"
    }
  }
}
layer {
  name: "relu7"
  type: "ReLU"
  bottom: "fc7"
  top: "fc7"
}
layer {
  name: "drop7"
  type: "Dropout"
  bottom: "fc7"
  top: "fc7"
  dropout_param {
    dropout_ratio: 0.5
  }
}
layer {
  name: "score_fr"
  type: "Convolution"
  bottom: "fc7"
  top: "score_fr"
  param {
    lr_mult: 1
    decay_mult: 1
  }
  param {
    lr_mult: 2
    decay_mult: 0
  }
  convolution_param {
    num_output: 6
    pad: 0
    kernel_size: 1
    weight_filler {
      type: "xavier"
    }
  }
}
layer {
  name: "upscore2"
  type: "Deconvolution"
  bottom: "score_fr"
  top: "upscore2"
  param {
    lr_mult: 0
  }
  convolution_param {
    num_output: 6
    bias_term: false
    kernel_size: 4
    stride: 2
    weight_filler {
      type: "xavier"
    }
  }
}
layer {
  name: "scale_pool4"
  type: "Scale"
  bottom: "pool4"
  top: "scale_pool4"
  param {
    lr_mult: 0
  }
  scale_param {
    filler {
      type: "constant"
      value: 0.01
    }
  }
}
layer {
  name: "score_pool4"
  type: "Convolution"
  bottom: "scale_pool4"
  top: "score_pool4"
  param {
    lr_mult: 1
    decay_mult: 1
  }
  param {
    lr_mult: 2
    decay_mult: 0
  }
  convolution_param {
    num_output: 6
    pad: 0
    kernel_size: 1
    weight_filler {
      type: "xavier"
    }
  }
}
layer {
  name: "score_pool4c"
  type: "Crop"
  bottom: "score_pool4"
  bottom: "upscore2"
  top: "score_pool4c"
  crop_param {
    axis: 2
    offset: 5
  }
}
layer {
  name: "fuse_pool4"
  type: "Eltwise"
  bottom: "upscore2"
  bottom: "score_pool4c"
  top: "fuse_pool4"
  eltwise_param {
    operation: SUM
  }
}
layer {
  name: "upscore_pool4"
  type: "Deconvolution"
  bottom: "fuse_pool4"
  top: "upscore_pool4"
  param {
    lr_mult: 0
  }
  convolution_param {
    num_output: 6
    bias_term: false
    kernel_size: 4
    stride: 2
    weight_filler {
      type: "xavier"
    }
  }
}
layer {
  name: "scale_pool3"
  type: "Scale"
  bottom: "pool3"
  top: "scale_pool3"
  param {
    lr_mult: 0
  }
  scale_param {
    filler {
      type: "constant"
      value: 0.0001
    }
  }
}
layer {
  name: "score_pool3"
  type: "Convolution"
  bottom: "scale_pool3"
  top: "score_pool3"
  param {
    lr_mult: 1
    decay_mult: 1
  }
  param {
    lr_mult: 2
    decay_mult: 0
  }
  convolution_param {
    num_output: 6
    pad: 0
    kernel_size: 1
    weight_filler {
      type: "xavier"
    }
  }
}
layer {
  name: "score_pool3c"
  type: "Crop"
  bottom: "score_pool3"
  bottom: "upscore_pool4"
  top: "score_pool3c"
  crop_param {
    axis: 2
    offset: 9
  }
}
layer {
  name: "fuse_pool3"
  type: "Eltwise"
  bottom: "upscore_pool4"
  bottom: "score_pool3c"
  top: "fuse_pool3"
  eltwise_param {
    operation: SUM
  }
}
layer {
  name: "upscore8"
  type: "Deconvolution"
  bottom: "fuse_pool3"
  top: "upscore8"
  param {
    lr_mult: 0
  }
  convolution_param {
    num_output: 6
    bias_term: false
    kernel_size: 16
    stride: 8
    weight_filler {
      type: "xavier"
    }
  }
}
layer {
  name: "score"
  type: "Crop"
  bottom: "upscore8"
  bottom: "data"
  top: "score"
  crop_param {
    axis: 2
    offset: 31
  }
}
layer {
  name: "loss"
  type: "SoftmaxWithLoss"
  bottom: "score"
  bottom: "label"
  top: "loss"
  loss_param {
    ignore_label: 255
    normalize: false
  }
}
I0209 11:04:39.193819  1717 layer_factory.hpp:77] Creating layer data
I0209 11:04:39.204082  1717 net.cpp:100] Creating Layer data
I0209 11:04:39.204105  1717 net.cpp:408] data -> data
I0209 11:04:39.204128  1717 net.cpp:408] data -> label
I0209 11:04:39.492997  1717 net.cpp:150] Setting up data
I0209 11:04:39.493041  1717 net.cpp:157] Top shape: 1 3 375 500 (562500)
I0209 11:04:39.493052  1717 net.cpp:157] Top shape: 1 1 375 500 (187500)
I0209 11:04:39.493059  1717 net.cpp:165] Memory required for data: 3000000
I0209 11:04:39.493072  1717 layer_factory.hpp:77] Creating layer data_data_0_split
I0209 11:04:39.493090  1717 net.cpp:100] Creating Layer data_data_0_split
I0209 11:04:39.493098  1717 net.cpp:434] data_data_0_split <- data
I0209 11:04:39.493110  1717 net.cpp:408] data_data_0_split -> data_data_0_split_0
I0209 11:04:39.493127  1717 net.cpp:408] data_data_0_split -> data_data_0_split_1
I0209 11:04:39.493180  1717 net.cpp:150] Setting up data_data_0_split
I0209 11:04:39.493194  1717 net.cpp:157] Top shape: 1 3 375 500 (562500)
I0209 11:04:39.493203  1717 net.cpp:157] Top shape: 1 3 375 500 (562500)
I0209 11:04:39.493209  1717 net.cpp:165] Memory required for data: 7500000
I0209 11:04:39.493217  1717 layer_factory.hpp:77] Creating layer conv1_1
I0209 11:04:39.493239  1717 net.cpp:100] Creating Layer conv1_1
I0209 11:04:39.493247  1717 net.cpp:434] conv1_1 <- data_data_0_split_0
I0209 11:04:39.493269  1717 net.cpp:408] conv1_1 -> conv1_1
I0209 11:04:40.429930  1717 net.cpp:150] Setting up conv1_1
I0209 11:04:40.429992  1717 net.cpp:157] Top shape: 1 64 573 698 (25597056)
I0209 11:04:40.429999  1717 net.cpp:165] Memory required for data: 109888224
I0209 11:04:40.430030  1717 layer_factory.hpp:77] Creating layer relu1_1
I0209 11:04:40.430052  1717 net.cpp:100] Creating Layer relu1_1
I0209 11:04:40.430060  1717 net.cpp:434] relu1_1 <- conv1_1
I0209 11:04:40.430070  1717 net.cpp:395] relu1_1 -> conv1_1 (in-place)
I0209 11:04:40.430686  1717 net.cpp:150] Setting up relu1_1
I0209 11:04:40.430706  1717 net.cpp:157] Top shape: 1 64 573 698 (25597056)
I0209 11:04:40.430711  1717 net.cpp:165] Memory required for data: 212276448
I0209 11:04:40.430714  1717 layer_factory.hpp:77] Creating layer conv1_2
I0209 11:04:40.430735  1717 net.cpp:100] Creating Layer conv1_2
I0209 11:04:40.430740  1717 net.cpp:434] conv1_2 <- conv1_1
I0209 11:04:40.430749  1717 net.cpp:408] conv1_2 -> conv1_2
I0209 11:04:40.437562  1717 net.cpp:150] Setting up conv1_2
I0209 11:04:40.437613  1717 net.cpp:157] Top shape: 1 64 573 698 (25597056)
I0209 11:04:40.437618  1717 net.cpp:165] Memory required for data: 314664672
I0209 11:04:40.437650  1717 layer_factory.hpp:77] Creating layer relu1_2
I0209 11:04:40.437670  1717 net.cpp:100] Creating Layer relu1_2
I0209 11:04:40.437676  1717 net.cpp:434] relu1_2 <- conv1_2
I0209 11:04:40.437685  1717 net.cpp:395] relu1_2 -> conv1_2 (in-place)
I0209 11:04:40.438233  1717 net.cpp:150] Setting up relu1_2
I0209 11:04:40.438249  1717 net.cpp:157] Top shape: 1 64 573 698 (25597056)
I0209 11:04:40.438254  1717 net.cpp:165] Memory required for data: 417052896
I0209 11:04:40.438259  1717 layer_factory.hpp:77] Creating layer pool1
I0209 11:04:40.438273  1717 net.cpp:100] Creating Layer pool1
I0209 11:04:40.438277  1717 net.cpp:434] pool1 <- conv1_2
I0209 11:04:40.438284  1717 net.cpp:408] pool1 -> pool1
I0209 11:04:40.438354  1717 net.cpp:150] Setting up pool1
I0209 11:04:40.438360  1717 net.cpp:157] Top shape: 1 64 287 349 (6410432)
I0209 11:04:40.438364  1717 net.cpp:165] Memory required for data: 442694624
I0209 11:04:40.438369  1717 layer_factory.hpp:77] Creating layer conv2_1
I0209 11:04:40.438385  1717 net.cpp:100] Creating Layer conv2_1
I0209 11:04:40.438388  1717 net.cpp:434] conv2_1 <- pool1
I0209 11:04:40.438397  1717 net.cpp:408] conv2_1 -> conv2_1
I0209 11:04:40.441042  1717 net.cpp:150] Setting up conv2_1
I0209 11:04:40.441062  1717 net.cpp:157] Top shape: 1 128 287 349 (12820864)
I0209 11:04:40.441067  1717 net.cpp:165] Memory required for data: 493978080
I0209 11:04:40.441082  1717 layer_factory.hpp:77] Creating layer relu2_1
I0209 11:04:40.441094  1717 net.cpp:100] Creating Layer relu2_1
I0209 11:04:40.441099  1717 net.cpp:434] relu2_1 <- conv2_1
I0209 11:04:40.441107  1717 net.cpp:395] relu2_1 -> conv2_1 (in-place)
I0209 11:04:40.441329  1717 net.cpp:150] Setting up relu2_1
I0209 11:04:40.441342  1717 net.cpp:157] Top shape: 1 128 287 349 (12820864)
I0209 11:04:40.441349  1717 net.cpp:165] Memory required for data: 545261536
I0209 11:04:40.441354  1717 layer_factory.hpp:77] Creating layer conv2_2
I0209 11:04:40.441370  1717 net.cpp:100] Creating Layer conv2_2
I0209 11:04:40.441373  1717 net.cpp:434] conv2_2 <- conv2_1
I0209 11:04:40.441383  1717 net.cpp:408] conv2_2 -> conv2_2
I0209 11:04:40.443938  1717 net.cpp:150] Setting up conv2_2
I0209 11:04:40.443975  1717 net.cpp:157] Top shape: 1 128 287 349 (12820864)
I0209 11:04:40.443980  1717 net.cpp:165] Memory required for data: 596544992
I0209 11:04:40.443992  1717 layer_factory.hpp:77] Creating layer relu2_2
I0209 11:04:40.444008  1717 net.cpp:100] Creating Layer relu2_2
I0209 11:04:40.444015  1717 net.cpp:434] relu2_2 <- conv2_2
I0209 11:04:40.444022  1717 net.cpp:395] relu2_2 -> conv2_2 (in-place)
I0209 11:04:40.444383  1717 net.cpp:150] Setting up relu2_2
I0209 11:04:40.444397  1717 net.cpp:157] Top shape: 1 128 287 349 (12820864)
I0209 11:04:40.444401  1717 net.cpp:165] Memory required for data: 647828448
I0209 11:04:40.444422  1717 layer_factory.hpp:77] Creating layer pool2
I0209 11:04:40.444435  1717 net.cpp:100] Creating Layer pool2
I0209 11:04:40.444439  1717 net.cpp:434] pool2 <- conv2_2
I0209 11:04:40.444447  1717 net.cpp:408] pool2 -> pool2
I0209 11:04:40.444496  1717 net.cpp:150] Setting up pool2
I0209 11:04:40.444504  1717 net.cpp:157] Top shape: 1 128 144 175 (3225600)
I0209 11:04:40.444507  1717 net.cpp:165] Memory required for data: 660730848
I0209 11:04:40.444511  1717 layer_factory.hpp:77] Creating layer conv3_1
I0209 11:04:40.444526  1717 net.cpp:100] Creating Layer conv3_1
I0209 11:04:40.444530  1717 net.cpp:434] conv3_1 <- pool2
I0209 11:04:40.444538  1717 net.cpp:408] conv3_1 -> conv3_1
I0209 11:04:40.447808  1717 net.cpp:150] Setting up conv3_1
I0209 11:04:40.447859  1717 net.cpp:157] Top shape: 1 256 144 175 (6451200)
I0209 11:04:40.447863  1717 net.cpp:165] Memory required for data: 686535648
I0209 11:04:40.447883  1717 layer_factory.hpp:77] Creating layer relu3_1
I0209 11:04:40.447901  1717 net.cpp:100] Creating Layer relu3_1
I0209 11:04:40.447907  1717 net.cpp:434] relu3_1 <- conv3_1
I0209 11:04:40.447914  1717 net.cpp:395] relu3_1 -> conv3_1 (in-place)
I0209 11:04:40.448284  1717 net.cpp:150] Setting up relu3_1
I0209 11:04:40.448299  1717 net.cpp:157] Top shape: 1 256 144 175 (6451200)
I0209 11:04:40.448304  1717 net.cpp:165] Memory required for data: 712340448
I0209 11:04:40.448309  1717 layer_factory.hpp:77] Creating layer conv3_2
I0209 11:04:40.448325  1717 net.cpp:100] Creating Layer conv3_2
I0209 11:04:40.448330  1717 net.cpp:434] conv3_2 <- conv3_1
I0209 11:04:40.448339  1717 net.cpp:408] conv3_2 -> conv3_2
I0209 11:04:40.454016  1717 net.cpp:150] Setting up conv3_2
I0209 11:04:40.454085  1717 net.cpp:157] Top shape: 1 256 144 175 (6451200)
I0209 11:04:40.454092  1717 net.cpp:165] Memory required for data: 738145248
I0209 11:04:40.454107  1717 layer_factory.hpp:77] Creating layer relu3_2
I0209 11:04:40.454128  1717 net.cpp:100] Creating Layer relu3_2
I0209 11:04:40.454134  1717 net.cpp:434] relu3_2 <- conv3_2
I0209 11:04:40.454149  1717 net.cpp:395] relu3_2 -> conv3_2 (in-place)
I0209 11:04:40.454349  1717 net.cpp:150] Setting up relu3_2
I0209 11:04:40.454360  1717 net.cpp:157] Top shape: 1 256 144 175 (6451200)
I0209 11:04:40.454365  1717 net.cpp:165] Memory required for data: 763950048
I0209 11:04:40.454368  1717 layer_factory.hpp:77] Creating layer conv3_3
I0209 11:04:40.454392  1717 net.cpp:100] Creating Layer conv3_3
I0209 11:04:40.454397  1717 net.cpp:434] conv3_3 <- conv3_2
I0209 11:04:40.454407  1717 net.cpp:408] conv3_3 -> conv3_3
I0209 11:04:40.460086  1717 net.cpp:150] Setting up conv3_3
I0209 11:04:40.460168  1717 net.cpp:157] Top shape: 1 256 144 175 (6451200)
I0209 11:04:40.460175  1717 net.cpp:165] Memory required for data: 789754848
I0209 11:04:40.460191  1717 layer_factory.hpp:77] Creating layer relu3_3
I0209 11:04:40.460211  1717 net.cpp:100] Creating Layer relu3_3
I0209 11:04:40.460219  1717 net.cpp:434] relu3_3 <- conv3_3
I0209 11:04:40.460232  1717 net.cpp:395] relu3_3 -> conv3_3 (in-place)
I0209 11:04:40.460609  1717 net.cpp:150] Setting up relu3_3
I0209 11:04:40.460623  1717 net.cpp:157] Top shape: 1 256 144 175 (6451200)
I0209 11:04:40.460628  1717 net.cpp:165] Memory required for data: 815559648
I0209 11:04:40.460633  1717 layer_factory.hpp:77] Creating layer pool3
I0209 11:04:40.460645  1717 net.cpp:100] Creating Layer pool3
I0209 11:04:40.460650  1717 net.cpp:434] pool3 <- conv3_3
I0209 11:04:40.460657  1717 net.cpp:408] pool3 -> pool3
I0209 11:04:40.460710  1717 net.cpp:150] Setting up pool3
I0209 11:04:40.460717  1717 net.cpp:157] Top shape: 1 256 72 88 (1622016)
I0209 11:04:40.460721  1717 net.cpp:165] Memory required for data: 822047712
I0209 11:04:40.460726  1717 layer_factory.hpp:77] Creating layer pool3_pool3_0_split
I0209 11:04:40.460734  1717 net.cpp:100] Creating Layer pool3_pool3_0_split
I0209 11:04:40.460738  1717 net.cpp:434] pool3_pool3_0_split <- pool3
I0209 11:04:40.460744  1717 net.cpp:408] pool3_pool3_0_split -> pool3_pool3_0_split_0
I0209 11:04:40.460753  1717 net.cpp:408] pool3_pool3_0_split -> pool3_pool3_0_split_1
I0209 11:04:40.460810  1717 net.cpp:150] Setting up pool3_pool3_0_split
I0209 11:04:40.460817  1717 net.cpp:157] Top shape: 1 256 72 88 (1622016)
I0209 11:04:40.460822  1717 net.cpp:157] Top shape: 1 256 72 88 (1622016)
I0209 11:04:40.460826  1717 net.cpp:165] Memory required for data: 835023840
I0209 11:04:40.460830  1717 layer_factory.hpp:77] Creating layer conv4_1
I0209 11:04:40.460849  1717 net.cpp:100] Creating Layer conv4_1
I0209 11:04:40.460855  1717 net.cpp:434] conv4_1 <- pool3_pool3_0_split_0
I0209 11:04:40.460861  1717 net.cpp:408] conv4_1 -> conv4_1
I0209 11:04:40.472071  1717 net.cpp:150] Setting up conv4_1
I0209 11:04:40.472146  1717 net.cpp:157] Top shape: 1 512 72 88 (3244032)
I0209 11:04:40.472152  1717 net.cpp:165] Memory required for data: 847999968
I0209 11:04:40.472169  1717 layer_factory.hpp:77] Creating layer relu4_1
I0209 11:04:40.472190  1717 net.cpp:100] Creating Layer relu4_1
I0209 11:04:40.472198  1717 net.cpp:434] relu4_1 <- conv4_1
I0209 11:04:40.472209  1717 net.cpp:395] relu4_1 -> conv4_1 (in-place)
I0209 11:04:40.472616  1717 net.cpp:150] Setting up relu4_1
I0209 11:04:40.472630  1717 net.cpp:157] Top shape: 1 512 72 88 (3244032)
I0209 11:04:40.472635  1717 net.cpp:165] Memory required for data: 860976096
I0209 11:04:40.472640  1717 layer_factory.hpp:77] Creating layer conv4_2
I0209 11:04:40.472661  1717 net.cpp:100] Creating Layer conv4_2
I0209 11:04:40.472666  1717 net.cpp:434] conv4_2 <- conv4_1
I0209 11:04:40.472674  1717 net.cpp:408] conv4_2 -> conv4_2
I0209 11:04:40.491554  1717 net.cpp:150] Setting up conv4_2
I0209 11:04:40.491629  1717 net.cpp:157] Top shape: 1 512 72 88 (3244032)
I0209 11:04:40.491636  1717 net.cpp:165] Memory required for data: 873952224
I0209 11:04:40.491662  1717 layer_factory.hpp:77] Creating layer relu4_2
I0209 11:04:40.491685  1717 net.cpp:100] Creating Layer relu4_2
I0209 11:04:40.491693  1717 net.cpp:434] relu4_2 <- conv4_2
I0209 11:04:40.491703  1717 net.cpp:395] relu4_2 -> conv4_2 (in-place)
I0209 11:04:40.491912  1717 net.cpp:150] Setting up relu4_2
I0209 11:04:40.491922  1717 net.cpp:157] Top shape: 1 512 72 88 (3244032)
I0209 11:04:40.491927  1717 net.cpp:165] Memory required for data: 886928352
I0209 11:04:40.491931  1717 layer_factory.hpp:77] Creating layer conv4_3
I0209 11:04:40.491950  1717 net.cpp:100] Creating Layer conv4_3
I0209 11:04:40.491956  1717 net.cpp:434] conv4_3 <- conv4_2
I0209 11:04:40.491966  1717 net.cpp:408] conv4_3 -> conv4_3
I0209 11:04:40.510517  1717 net.cpp:150] Setting up conv4_3
I0209 11:04:40.510599  1717 net.cpp:157] Top shape: 1 512 72 88 (3244032)
I0209 11:04:40.510606  1717 net.cpp:165] Memory required for data: 899904480
I0209 11:04:40.510622  1717 layer_factory.hpp:77] Creating layer relu4_3
I0209 11:04:40.510643  1717 net.cpp:100] Creating Layer relu4_3
I0209 11:04:40.510651  1717 net.cpp:434] relu4_3 <- conv4_3
I0209 11:04:40.510663  1717 net.cpp:395] relu4_3 -> conv4_3 (in-place)
I0209 11:04:40.511051  1717 net.cpp:150] Setting up relu4_3
I0209 11:04:40.511065  1717 net.cpp:157] Top shape: 1 512 72 88 (3244032)
I0209 11:04:40.511070  1717 net.cpp:165] Memory required for data: 912880608
I0209 11:04:40.511075  1717 layer_factory.hpp:77] Creating layer pool4
I0209 11:04:40.511090  1717 net.cpp:100] Creating Layer pool4
I0209 11:04:40.511096  1717 net.cpp:434] pool4 <- conv4_3
I0209 11:04:40.511106  1717 net.cpp:408] pool4 -> pool4
I0209 11:04:40.511158  1717 net.cpp:150] Setting up pool4
I0209 11:04:40.511165  1717 net.cpp:157] Top shape: 1 512 36 44 (811008)
I0209 11:04:40.511169  1717 net.cpp:165] Memory required for data: 916124640
I0209 11:04:40.511174  1717 layer_factory.hpp:77] Creating layer pool4_pool4_0_split
I0209 11:04:40.511184  1717 net.cpp:100] Creating Layer pool4_pool4_0_split
I0209 11:04:40.511188  1717 net.cpp:434] pool4_pool4_0_split <- pool4
I0209 11:04:40.511194  1717 net.cpp:408] pool4_pool4_0_split -> pool4_pool4_0_split_0
I0209 11:04:40.511201  1717 net.cpp:408] pool4_pool4_0_split -> pool4_pool4_0_split_1
I0209 11:04:40.511240  1717 net.cpp:150] Setting up pool4_pool4_0_split
I0209 11:04:40.511263  1717 net.cpp:157] Top shape: 1 512 36 44 (811008)
I0209 11:04:40.511268  1717 net.cpp:157] Top shape: 1 512 36 44 (811008)
I0209 11:04:40.511272  1717 net.cpp:165] Memory required for data: 922612704
I0209 11:04:40.511276  1717 layer_factory.hpp:77] Creating layer conv5_1
I0209 11:04:40.511296  1717 net.cpp:100] Creating Layer conv5_1
I0209 11:04:40.511301  1717 net.cpp:434] conv5_1 <- pool4_pool4_0_split_0
I0209 11:04:40.511309  1717 net.cpp:408] conv5_1 -> conv5_1
I0209 11:04:40.529633  1717 net.cpp:150] Setting up conv5_1
I0209 11:04:40.529724  1717 net.cpp:157] Top shape: 1 512 36 44 (811008)
I0209 11:04:40.529732  1717 net.cpp:165] Memory required for data: 925856736
I0209 11:04:40.529750  1717 layer_factory.hpp:77] Creating layer relu5_1
I0209 11:04:40.529774  1717 net.cpp:100] Creating Layer relu5_1
I0209 11:04:40.529783  1717 net.cpp:434] relu5_1 <- conv5_1
I0209 11:04:40.529794  1717 net.cpp:395] relu5_1 -> conv5_1 (in-place)
I0209 11:04:40.530194  1717 net.cpp:150] Setting up relu5_1
I0209 11:04:40.530210  1717 net.cpp:157] Top shape: 1 512 36 44 (811008)
I0209 11:04:40.530215  1717 net.cpp:165] Memory required for data: 929100768
I0209 11:04:40.530220  1717 layer_factory.hpp:77] Creating layer conv5_2
I0209 11:04:40.530239  1717 net.cpp:100] Creating Layer conv5_2
I0209 11:04:40.530244  1717 net.cpp:434] conv5_2 <- conv5_1
I0209 11:04:40.530254  1717 net.cpp:408] conv5_2 -> conv5_2
I0209 11:04:40.548961  1717 net.cpp:150] Setting up conv5_2
I0209 11:04:40.549046  1717 net.cpp:157] Top shape: 1 512 36 44 (811008)
I0209 11:04:40.549052  1717 net.cpp:165] Memory required for data: 932344800
I0209 11:04:40.549070  1717 layer_factory.hpp:77] Creating layer relu5_2
I0209 11:04:40.549095  1717 net.cpp:100] Creating Layer relu5_2
I0209 11:04:40.549103  1717 net.cpp:434] relu5_2 <- conv5_2
I0209 11:04:40.549115  1717 net.cpp:395] relu5_2 -> conv5_2 (in-place)
I0209 11:04:40.549326  1717 net.cpp:150] Setting up relu5_2
I0209 11:04:40.549336  1717 net.cpp:157] Top shape: 1 512 36 44 (811008)
I0209 11:04:40.549341  1717 net.cpp:165] Memory required for data: 935588832
I0209 11:04:40.549345  1717 layer_factory.hpp:77] Creating layer conv5_3
I0209 11:04:40.549374  1717 net.cpp:100] Creating Layer conv5_3
I0209 11:04:40.549379  1717 net.cpp:434] conv5_3 <- conv5_2
I0209 11:04:40.549388  1717 net.cpp:408] conv5_3 -> conv5_3
I0209 11:04:40.568259  1717 net.cpp:150] Setting up conv5_3
I0209 11:04:40.568343  1717 net.cpp:157] Top shape: 1 512 36 44 (811008)
I0209 11:04:40.568349  1717 net.cpp:165] Memory required for data: 938832864
I0209 11:04:40.568367  1717 layer_factory.hpp:77] Creating layer relu5_3
I0209 11:04:40.568387  1717 net.cpp:100] Creating Layer relu5_3
I0209 11:04:40.568397  1717 net.cpp:434] relu5_3 <- conv5_3
I0209 11:04:40.568409  1717 net.cpp:395] relu5_3 -> conv5_3 (in-place)
I0209 11:04:40.569000  1717 net.cpp:150] Setting up relu5_3
I0209 11:04:40.569016  1717 net.cpp:157] Top shape: 1 512 36 44 (811008)
I0209 11:04:40.569020  1717 net.cpp:165] Memory required for data: 942076896
I0209 11:04:40.569025  1717 layer_factory.hpp:77] Creating layer pool5
I0209 11:04:40.569039  1717 net.cpp:100] Creating Layer pool5
I0209 11:04:40.569044  1717 net.cpp:434] pool5 <- conv5_3
I0209 11:04:40.569051  1717 net.cpp:408] pool5 -> pool5
I0209 11:04:40.569110  1717 net.cpp:150] Setting up pool5
I0209 11:04:40.569118  1717 net.cpp:157] Top shape: 1 512 18 22 (202752)
I0209 11:04:40.569123  1717 net.cpp:165] Memory required for data: 942887904
I0209 11:04:40.569126  1717 layer_factory.hpp:77] Creating layer fc6
I0209 11:04:40.569149  1717 net.cpp:100] Creating Layer fc6
I0209 11:04:40.569152  1717 net.cpp:434] fc6 <- pool5
I0209 11:04:40.569159  1717 net.cpp:408] fc6 -> fc6
I0209 11:04:41.369730  1717 net.cpp:150] Setting up fc6
I0209 11:04:41.369791  1717 net.cpp:157] Top shape: 1 4096 12 16 (786432)
I0209 11:04:41.369796  1717 net.cpp:165] Memory required for data: 946033632
I0209 11:04:41.369814  1717 layer_factory.hpp:77] Creating layer relu6
I0209 11:04:41.369849  1717 net.cpp:100] Creating Layer relu6
I0209 11:04:41.369859  1717 net.cpp:434] relu6 <- fc6
I0209 11:04:41.369868  1717 net.cpp:395] relu6 -> fc6 (in-place)
I0209 11:04:41.370270  1717 net.cpp:150] Setting up relu6
I0209 11:04:41.370287  1717 net.cpp:157] Top shape: 1 4096 12 16 (786432)
I0209 11:04:41.370292  1717 net.cpp:165] Memory required for data: 949179360
I0209 11:04:41.370297  1717 layer_factory.hpp:77] Creating layer drop6
I0209 11:04:41.370316  1717 net.cpp:100] Creating Layer drop6
I0209 11:04:41.370321  1717 net.cpp:434] drop6 <- fc6
I0209 11:04:41.370326  1717 net.cpp:395] drop6 -> fc6 (in-place)
I0209 11:04:41.370388  1717 net.cpp:150] Setting up drop6
I0209 11:04:41.370398  1717 net.cpp:157] Top shape: 1 4096 12 16 (786432)
I0209 11:04:41.370401  1717 net.cpp:165] Memory required for data: 952325088
I0209 11:04:41.370406  1717 layer_factory.hpp:77] Creating layer fc7
I0209 11:04:41.370422  1717 net.cpp:100] Creating Layer fc7
I0209 11:04:41.370427  1717 net.cpp:434] fc7 <- fc6
I0209 11:04:41.370435  1717 net.cpp:408] fc7 -> fc7
I0209 11:04:41.496546  1717 net.cpp:150] Setting up fc7
I0209 11:04:41.496613  1717 net.cpp:157] Top shape: 1 4096 12 16 (786432)
I0209 11:04:41.496618  1717 net.cpp:165] Memory required for data: 955470816
I0209 11:04:41.496637  1717 layer_factory.hpp:77] Creating layer relu7
I0209 11:04:41.496665  1717 net.cpp:100] Creating Layer relu7
I0209 11:04:41.496675  1717 net.cpp:434] relu7 <- fc7
I0209 11:04:41.496686  1717 net.cpp:395] relu7 -> fc7 (in-place)
I0209 11:04:41.496914  1717 net.cpp:150] Setting up relu7
I0209 11:04:41.496927  1717 net.cpp:157] Top shape: 1 4096 12 16 (786432)
I0209 11:04:41.496930  1717 net.cpp:165] Memory required for data: 958616544
I0209 11:04:41.496937  1717 layer_factory.hpp:77] Creating layer drop7
I0209 11:04:41.496951  1717 net.cpp:100] Creating Layer drop7
I0209 11:04:41.496956  1717 net.cpp:434] drop7 <- fc7
I0209 11:04:41.496963  1717 net.cpp:395] drop7 -> fc7 (in-place)
I0209 11:04:41.497000  1717 net.cpp:150] Setting up drop7
I0209 11:04:41.497007  1717 net.cpp:157] Top shape: 1 4096 12 16 (786432)
I0209 11:04:41.497011  1717 net.cpp:165] Memory required for data: 961762272
I0209 11:04:41.497015  1717 layer_factory.hpp:77] Creating layer score_fr
I0209 11:04:41.497035  1717 net.cpp:100] Creating Layer score_fr
I0209 11:04:41.497040  1717 net.cpp:434] score_fr <- fc7
I0209 11:04:41.497047  1717 net.cpp:408] score_fr -> score_fr
I0209 11:04:41.498613  1717 net.cpp:150] Setting up score_fr
I0209 11:04:41.498633  1717 net.cpp:157] Top shape: 1 6 12 16 (1152)
I0209 11:04:41.498638  1717 net.cpp:165] Memory required for data: 961766880
I0209 11:04:41.498649  1717 layer_factory.hpp:77] Creating layer upscore2
I0209 11:04:41.498672  1717 net.cpp:100] Creating Layer upscore2
I0209 11:04:41.498677  1717 net.cpp:434] upscore2 <- score_fr
I0209 11:04:41.498683  1717 net.cpp:408] upscore2 -> upscore2
I0209 11:04:41.498950  1717 net.cpp:150] Setting up upscore2
I0209 11:04:41.498958  1717 net.cpp:157] Top shape: 1 6 26 34 (5304)
I0209 11:04:41.498962  1717 net.cpp:165] Memory required for data: 961788096
I0209 11:04:41.498982  1717 layer_factory.hpp:77] Creating layer upscore2_upscore2_0_split
I0209 11:04:41.498993  1717 net.cpp:100] Creating Layer upscore2_upscore2_0_split
I0209 11:04:41.498997  1717 net.cpp:434] upscore2_upscore2_0_split <- upscore2
I0209 11:04:41.499003  1717 net.cpp:408] upscore2_upscore2_0_split -> upscore2_upscore2_0_split_0
I0209 11:04:41.499018  1717 net.cpp:408] upscore2_upscore2_0_split -> upscore2_upscore2_0_split_1
I0209 11:04:41.499058  1717 net.cpp:150] Setting up upscore2_upscore2_0_split
I0209 11:04:41.499064  1717 net.cpp:157] Top shape: 1 6 26 34 (5304)
I0209 11:04:41.499070  1717 net.cpp:157] Top shape: 1 6 26 34 (5304)
I0209 11:04:41.499074  1717 net.cpp:165] Memory required for data: 961830528
I0209 11:04:41.499078  1717 layer_factory.hpp:77] Creating layer scale_pool4
I0209 11:04:41.499100  1717 net.cpp:100] Creating Layer scale_pool4
I0209 11:04:41.499105  1717 net.cpp:434] scale_pool4 <- pool4_pool4_0_split_1
I0209 11:04:41.499135  1717 net.cpp:408] scale_pool4 -> scale_pool4
I0209 11:04:41.499267  1717 net.cpp:150] Setting up scale_pool4
I0209 11:04:41.499279  1717 net.cpp:157] Top shape: 1 512 36 44 (811008)
I0209 11:04:41.499284  1717 net.cpp:165] Memory required for data: 965074560
I0209 11:04:41.499289  1717 layer_factory.hpp:77] Creating layer score_pool4
I0209 11:04:41.499303  1717 net.cpp:100] Creating Layer score_pool4
I0209 11:04:41.499307  1717 net.cpp:434] score_pool4 <- scale_pool4
I0209 11:04:41.499315  1717 net.cpp:408] score_pool4 -> score_pool4
I0209 11:04:41.500700  1717 net.cpp:150] Setting up score_pool4
I0209 11:04:41.500718  1717 net.cpp:157] Top shape: 1 6 36 44 (9504)
I0209 11:04:41.500723  1717 net.cpp:165] Memory required for data: 965112576
I0209 11:04:41.500731  1717 layer_factory.hpp:77] Creating layer score_pool4c
I0209 11:04:41.500749  1717 net.cpp:100] Creating Layer score_pool4c
I0209 11:04:41.500754  1717 net.cpp:434] score_pool4c <- score_pool4
I0209 11:04:41.500761  1717 net.cpp:434] score_pool4c <- upscore2_upscore2_0_split_0
I0209 11:04:41.500767  1717 net.cpp:408] score_pool4c -> score_pool4c
I0209 11:04:41.500808  1717 net.cpp:150] Setting up score_pool4c
I0209 11:04:41.500815  1717 net.cpp:157] Top shape: 1 6 26 34 (5304)
I0209 11:04:41.500819  1717 net.cpp:165] Memory required for data: 965133792
I0209 11:04:41.500824  1717 layer_factory.hpp:77] Creating layer fuse_pool4
I0209 11:04:41.500836  1717 net.cpp:100] Creating Layer fuse_pool4
I0209 11:04:41.500841  1717 net.cpp:434] fuse_pool4 <- upscore2_upscore2_0_split_1
I0209 11:04:41.500846  1717 net.cpp:434] fuse_pool4 <- score_pool4c
I0209 11:04:41.500856  1717 net.cpp:408] fuse_pool4 -> fuse_pool4
I0209 11:04:41.500891  1717 net.cpp:150] Setting up fuse_pool4
I0209 11:04:41.500898  1717 net.cpp:157] Top shape: 1 6 26 34 (5304)
I0209 11:04:41.500902  1717 net.cpp:165] Memory required for data: 965155008
I0209 11:04:41.500906  1717 layer_factory.hpp:77] Creating layer upscore_pool4
I0209 11:04:41.500921  1717 net.cpp:100] Creating Layer upscore_pool4
I0209 11:04:41.500926  1717 net.cpp:434] upscore_pool4 <- fuse_pool4
I0209 11:04:41.500932  1717 net.cpp:408] upscore_pool4 -> upscore_pool4
I0209 11:04:41.501142  1717 net.cpp:150] Setting up upscore_pool4
I0209 11:04:41.501150  1717 net.cpp:157] Top shape: 1 6 54 70 (22680)
I0209 11:04:41.501154  1717 net.cpp:165] Memory required for data: 965245728
I0209 11:04:41.501160  1717 layer_factory.hpp:77] Creating layer upscore_pool4_upscore_pool4_0_split
I0209 11:04:41.501168  1717 net.cpp:100] Creating Layer upscore_pool4_upscore_pool4_0_split
I0209 11:04:41.501173  1717 net.cpp:434] upscore_pool4_upscore_pool4_0_split <- upscore_pool4
I0209 11:04:41.501178  1717 net.cpp:408] upscore_pool4_upscore_pool4_0_split -> upscore_pool4_upscore_pool4_0_split_0
I0209 11:04:41.501185  1717 net.cpp:408] upscore_pool4_upscore_pool4_0_split -> upscore_pool4_upscore_pool4_0_split_1
I0209 11:04:41.501226  1717 net.cpp:150] Setting up upscore_pool4_upscore_pool4_0_split
I0209 11:04:41.501232  1717 net.cpp:157] Top shape: 1 6 54 70 (22680)
I0209 11:04:41.501237  1717 net.cpp:157] Top shape: 1 6 54 70 (22680)
I0209 11:04:41.501241  1717 net.cpp:165] Memory required for data: 965427168
I0209 11:04:41.501245  1717 layer_factory.hpp:77] Creating layer scale_pool3
I0209 11:04:41.501260  1717 net.cpp:100] Creating Layer scale_pool3
I0209 11:04:41.501263  1717 net.cpp:434] scale_pool3 <- pool3_pool3_0_split_1
I0209 11:04:41.501271  1717 net.cpp:408] scale_pool3 -> scale_pool3
I0209 11:04:41.501389  1717 net.cpp:150] Setting up scale_pool3
I0209 11:04:41.501396  1717 net.cpp:157] Top shape: 1 256 72 88 (1622016)
I0209 11:04:41.501400  1717 net.cpp:165] Memory required for data: 971915232
I0209 11:04:41.501405  1717 layer_factory.hpp:77] Creating layer score_pool3
I0209 11:04:41.501421  1717 net.cpp:100] Creating Layer score_pool3
I0209 11:04:41.501426  1717 net.cpp:434] score_pool3 <- scale_pool3
I0209 11:04:41.501435  1717 net.cpp:408] score_pool3 -> score_pool3
I0209 11:04:41.502815  1717 net.cpp:150] Setting up score_pool3
I0209 11:04:41.502851  1717 net.cpp:157] Top shape: 1 6 72 88 (38016)
I0209 11:04:41.502856  1717 net.cpp:165] Memory required for data: 972067296
I0209 11:04:41.502864  1717 layer_factory.hpp:77] Creating layer score_pool3c
I0209 11:04:41.502876  1717 net.cpp:100] Creating Layer score_pool3c
I0209 11:04:41.502881  1717 net.cpp:434] score_pool3c <- score_pool3
I0209 11:04:41.502885  1717 net.cpp:434] score_pool3c <- upscore_pool4_upscore_pool4_0_split_0
I0209 11:04:41.502895  1717 net.cpp:408] score_pool3c -> score_pool3c
I0209 11:04:41.502929  1717 net.cpp:150] Setting up score_pool3c
I0209 11:04:41.502938  1717 net.cpp:157] Top shape: 1 6 54 70 (22680)
I0209 11:04:41.502941  1717 net.cpp:165] Memory required for data: 972158016
I0209 11:04:41.502945  1717 layer_factory.hpp:77] Creating layer fuse_pool3
I0209 11:04:41.502956  1717 net.cpp:100] Creating Layer fuse_pool3
I0209 11:04:41.502960  1717 net.cpp:434] fuse_pool3 <- upscore_pool4_upscore_pool4_0_split_1
I0209 11:04:41.502966  1717 net.cpp:434] fuse_pool3 <- score_pool3c
I0209 11:04:41.502971  1717 net.cpp:408] fuse_pool3 -> fuse_pool3
I0209 11:04:41.503002  1717 net.cpp:150] Setting up fuse_pool3
I0209 11:04:41.503010  1717 net.cpp:157] Top shape: 1 6 54 70 (22680)
I0209 11:04:41.503013  1717 net.cpp:165] Memory required for data: 972248736
I0209 11:04:41.503017  1717 layer_factory.hpp:77] Creating layer upscore8
I0209 11:04:41.503031  1717 net.cpp:100] Creating Layer upscore8
I0209 11:04:41.503036  1717 net.cpp:434] upscore8 <- fuse_pool3
I0209 11:04:41.503044  1717 net.cpp:408] upscore8 -> upscore8
I0209 11:04:41.503307  1717 net.cpp:150] Setting up upscore8
I0209 11:04:41.503317  1717 net.cpp:157] Top shape: 1 6 440 568 (1499520)
I0209 11:04:41.503321  1717 net.cpp:165] Memory required for data: 978246816
I0209 11:04:41.503326  1717 layer_factory.hpp:77] Creating layer score
I0209 11:04:41.503334  1717 net.cpp:100] Creating Layer score
I0209 11:04:41.503338  1717 net.cpp:434] score <- upscore8
I0209 11:04:41.503343  1717 net.cpp:434] score <- data_data_0_split_1
I0209 11:04:41.503351  1717 net.cpp:408] score -> score
I0209 11:04:41.503381  1717 net.cpp:150] Setting up score
I0209 11:04:41.503388  1717 net.cpp:157] Top shape: 1 6 375 500 (1125000)
I0209 11:04:41.503392  1717 net.cpp:165] Memory required for data: 982746816
I0209 11:04:41.503396  1717 layer_factory.hpp:77] Creating layer loss
I0209 11:04:41.503412  1717 net.cpp:100] Creating Layer loss
I0209 11:04:41.503415  1717 net.cpp:434] loss <- score
I0209 11:04:41.503420  1717 net.cpp:434] loss <- label
I0209 11:04:41.503429  1717 net.cpp:408] loss -> loss
I0209 11:04:41.503443  1717 layer_factory.hpp:77] Creating layer loss
…
I0209 11:04:41.509604  1717 net.cpp:283] Network initialization done.
I0209 11:04:41.525506  1717 solver.cpp:181] Creating test net (#0) specified by test_net file: val.prototxt
I0209 11:04:41.526003  1717 net.cpp:58] Initializing net from parameters: 
state {
  phase: TEST
}
layer {
  name: "data"
  type: "Python"
  top: "data"
  top: "label"
  python_param {
    module: "voc_layers"
    layer: "PartialVOCSegDataLayer"
    param_str: "{\'voc_dir\': \'../data/pascal-obfuscated/VOC2011\', \'seed\': 1337, \'split\': \'seg11valid5\', \'mean\': (104.00699, 116.66877, 122.67892)}"
  }
}
layer {
  name: "conv1_1"
  type: "Convolution"
  bottom: "data"
  top: "conv1_1"
  param {
    lr_mult: 1
    decay_mult: 1
  }
  param {
    lr_mult: 2
    decay_mult: 0
  }
  convolution_param {
    num_output: 64
    pad: 100
    kernel_size: 3
    stride: 1
    weight_filler {
      type: "xavier"
    }
  }
}
layer {
  name: "relu1_1"
  type: "ReLU"
  bottom: "conv1_1"
  top: "conv1_1"
}
layer {
  name: "conv1_2"
  type: "Convolution"
  bottom: "conv1_1"
  top: "conv1_2"
  param {
    lr_mult: 1
    decay_mult: 1
  }
  param {
    lr_mult: 2
    decay_mult: 0
  }
  convolution_param {
    num_output: 64
    pad: 1
    kernel_size: 3
    stride: 1
    weight_filler {
      type: "xavier"
    }
  }
}
layer {
  name: "relu1_2"
  type: "ReLU"
  bottom: "conv1_2"
  top: "conv1_2"
}
layer {
  name: "pool1"
  type: "Pooling"
  bottom: "conv1_2"
  top: "pool1"
  pooling_param {
    pool: MAX
    kernel_size: 2
    stride: 2
  }
}
layer {
  name: "conv2_1"
  type: "Convolution"
  bottom: "pool1"
  top: "conv2_1"
  param {
    lr_mult: 1
    decay_mult: 1
  }
  param {
    lr_mult: 2
    decay_mult: 0
  }
  convolution_param {
    num_output: 128
    pad: 1
    kernel_size: 3
    stride: 1
    weight_filler {
      type: "xavier"
    }
  }
}
layer {
  name: "relu2_1"
  type: "ReLU"
  bottom: "conv2_1"
  top: "conv2_1"
}
layer {
  name: "conv2_2"
  type: "Convolution"
  bottom: "conv2_1"
  top: "conv2_2"
  param {
    lr_mult: 1
    decay_mult: 1
  }
  param {
    lr_mult: 2
    decay_mult: 0
  }
  convolution_param {
    num_output: 128
    pad: 1
    kernel_size: 3
    stride: 1
    weight_filler {
      type: "xavier"
    }
  }
}
layer {
  name: "relu2_2"
  type: "ReLU"
  bottom: "conv2_2"
  top: "conv2_2"
}
layer {
  name: "pool2"
  type: "Pooling"
  bottom: "conv2_2"
  top: "pool2"
  pooling_param {
    pool: MAX
    kernel_size: 2
    stride: 2
  }
}
layer {
  name: "conv3_1"
  type: "Convolution"
  bottom: "pool2"
  top: "conv3_1"
  param {
    lr_mult: 1
    decay_mult: 1
  }
  param {
    lr_mult: 2
    decay_mult: 0
  }
  convolution_param {
    num_output: 256
    pad: 1
    kernel_size: 3
    stride: 1
    weight_filler {
      type: "xavier"
    }
  }
}
layer {
  name: "relu3_1"
  type: "ReLU"
  bottom: "conv3_1"
  top: "conv3_1"
}
layer {
  name: "conv3_2"
  type: "Convolution"
  bottom: "conv3_1"
  top: "conv3_2"
  param {
    lr_mult: 1
    decay_mult: 1
  }
  param {
    lr_mult: 2
    decay_mult: 0
  }
  convolution_param {
    num_output: 256
    pad: 1
    kernel_size: 3
    stride: 1
    weight_filler {
      type: "xavier"
    }
  }
}
layer {
  name: "relu3_2"
  type: "ReLU"
  bottom: "conv3_2"
  top: "conv3_2"
}
layer {
  name: "conv3_3"
  type: "Convolution"
  bottom: "conv3_2"
  top: "conv3_3"
  param {
    lr_mult: 1
    decay_mult: 1
  }
  param {
    lr_mult: 2
    decay_mult: 0
  }
  convolution_param {
    num_output: 256
    pad: 1
    kernel_size: 3
    stride: 1
    weight_filler {
      type: "xavier"
    }
  }
}
layer {
  name: "relu3_3"
  type: "ReLU"
  bottom: "conv3_3"
  top: "conv3_3"
}
layer {
  name: "pool3"
  type: "Pooling"
  bottom: "conv3_3"
  top: "pool3"
  pooling_param {
    pool: MAX
    kernel_size: 2
    stride: 2
  }
}
layer {
  name: "conv4_1"
  type: "Convolution"
  bottom: "pool3"
  top: "conv4_1"
  param {
    lr_mult: 1
    decay_mult: 1
  }
  param {
    lr_mult: 2
    decay_mult: 0
  }
  convolution_param {
    num_output: 512
    pad: 1
    kernel_size: 3
    stride: 1
    weight_filler {
      type: "xavier"
    }
  }
}
layer {
  name: "relu4_1"
  type: "ReLU"
  bottom: "conv4_1"
  top: "conv4_1"
}
layer {
  name: "conv4_2"
  type: "Convolution"
  bottom: "conv4_1"
  top: "conv4_2"
  param {
    lr_mult: 1
    decay_mult: 1
  }
  param {
    lr_mult: 2
    decay_mult: 0
  }
  convolution_param {
    num_output: 512
    pad: 1
    kernel_size: 3
    stride: 1
    weight_filler {
      type: "xavier"
    }
  }
}
layer {
  name: "relu4_2"
  type: "ReLU"
  bottom: "conv4_2"
  top: "conv4_2"
}
layer {
  name: "conv4_3"
  type: "Convolution"
  bottom: "conv4_2"
  top: "conv4_3"
  param {
    lr_mult: 1
    decay_mult: 1
  }
  param {
    lr_mult: 2
    decay_mult: 0
  }
  convolution_param {
    num_output: 512
    pad: 1
    kernel_size: 3
    stride: 1
    weight_filler {
      type: "xavier"
    }
  }
}
layer {
  name: "relu4_3"
  type: "ReLU"
  bottom: "conv4_3"
  top: "conv4_3"
}
layer {
  name: "pool4"
  type: "Pooling"
  bottom: "conv4_3"
  top: "pool4"
  pooling_param {
    pool: MAX
    kernel_size: 2
    stride: 2
  }
}
layer {
  name: "conv5_1"
  type: "Convolution"
  bottom: "pool4"
  top: "conv5_1"
  param {
    lr_mult: 1
    decay_mult: 1
  }
  param {
    lr_mult: 2
    decay_mult: 0
  }
  convolution_param {
    num_output: 512
    pad: 1
    kernel_size: 3
    stride: 1
    weight_filler {
      type: "xavier"
    }
  }
}
layer {
  name: "relu5_1"
  type: "ReLU"
  bottom: "conv5_1"
  top: "conv5_1"
}
layer {
  name: "conv5_2"
  type: "Convolution"
  bottom: "conv5_1"
  top: "conv5_2"
  param {
    lr_mult: 1
    decay_mult: 1
  }
  param {
    lr_mult: 2
    decay_mult: 0
  }
  convolution_param {
    num_output: 512
    pad: 1
    kernel_size: 3
    stride: 1
    weight_filler {
      type: "xavier"
    }
  }
}
layer {
  name: "relu5_2"
  type: "ReLU"
  bottom: "conv5_2"
  top: "conv5_2"
}
layer {
  name: "conv5_3"
  type: "Convolution"
  bottom: "conv5_2"
  top: "conv5_3"
  param {
    lr_mult: 1
    decay_mult: 1
  }
  param {
    lr_mult: 2
    decay_mult: 0
  }
  convolution_param {
    num_output: 512
    pad: 1
    kernel_size: 3
    stride: 1
    weight_filler {
      type: "xavier"
    }
  }
}
layer {
  name: "relu5_3"
  type: "ReLU"
  bottom: "conv5_3"
  top: "conv5_3"
}
layer {
  name: "pool5"
  type: "Pooling"
  bottom: "conv5_3"
  top: "pool5"
  pooling_param {
    pool: MAX
    kernel_size: 2
    stride: 2
  }
}
layer {
  name: "fc6"
  type: "Convolution"
  bottom: "pool5"
  top: "fc6"
  param {
    lr_mult: 1
    decay_mult: 1
  }
  param {
    lr_mult: 2
    decay_mult: 0
  }
  convolution_param {
    num_output: 4096
    pad: 0
    kernel_size: 7
    stride: 1
    weight_filler {
      type: "xavier"
    }
  }
}
layer {
  name: "relu6"
  type: "ReLU"
  bottom: "fc6"
  top: "fc6"
}
layer {
  name: "drop6"
  type: "Dropout"
  bottom: "fc6"
  top: "fc6"
  dropout_param {
    dropout_ratio: 0.5
  }
}
layer {
  name: "fc7"
  type: "Convolution"
  bottom: "fc6"
  top: "fc7"
  param {
    lr_mult: 1
    decay_mult: 1
  }
  param {
    lr_mult: 2
    decay_mult: 0
  }
  convolution_param {
    num_output: 4096
    pad: 0
    kernel_size: 1
    stride: 1
    weight_filler {
      type: "xavier"
    }
  }
}
layer {
  name: "relu7"
  type: "ReLU"
  bottom: "fc7"
  top: "fc7"
}
layer {
  name: "drop7"
  type: "Dropout"
  bottom: "fc7"
  top: "fc7"
  dropout_param {
    dropout_ratio: 0.5
  }
}
layer {
  name: "score_fr"
  type: "Convolution"
  bottom: "fc7"
  top: "score_fr"
  param {
    lr_mult: 1
    decay_mult: 1
  }
  param {
    lr_mult: 2
    decay_mult: 0
  }
  convolution_param {
    num_output: 6
    pad: 0
    kernel_size: 1
    weight_filler {
      type: "xavier"
    }
  }
}
layer {
  name: "upscore2"
  type: "Deconvolution"
  bottom: "score_fr"
  top: "upscore2"
  param {
    lr_mult: 0
  }
  convolution_param {
    num_output: 6
    bias_term: false
    kernel_size: 4
    stride: 2
    weight_filler {
      type: "xavier"
    }
  }
}
layer {
  name: "scale_pool4"
  type: "Scale"
  bottom: "pool4"
  top: "scale_pool4"
  param {
    lr_mult: 0
  }
  scale_param {
    filler {
      type: "constant"
      value: 0.01
    }
  }
}
layer {
  name: "score_pool4"
  type: "Convolution"
  bottom: "scale_pool4"
  top: "score_pool4"
  param {
    lr_mult: 1
    decay_mult: 1
  }
  param {
    lr_mult: 2
    decay_mult: 0
  }
  convolution_param {
    num_output: 6
    pad: 0
    kernel_size: 1
    weight_filler {
      type: "xavier"
    }
  }
}
layer {
  name: "score_pool4c"
  type: "Crop"
  bottom: "score_pool4"
  bottom: "upscore2"
  top: "score_pool4c"
  crop_param {
    axis: 2
    offset: 5
  }
}
layer {
  name: "fuse_pool4"
  type: "Eltwise"
  bottom: "upscore2"
  bottom: "score_pool4c"
  top: "fuse_pool4"
  eltwise_param {
    operation: SUM
  }
}
layer {
  name: "upscore_pool4"
  type: "Deconvolution"
  bottom: "fuse_pool4"
  top: "upscore_pool4"
  param {
    lr_mult: 0
  }
  convolution_param {
    num_output: 6
    bias_term: false
    kernel_size: 4
    stride: 2
    weight_filler {
      type: "xavier"
    }
  }
}
layer {
  name: "scale_pool3"
  type: "Scale"
  bottom: "pool3"
  top: "scale_pool3"
  param {
    lr_mult: 0
  }
  scale_param {
    filler {
      type: "constant"
      value: 0.0001
    }
  }
}
layer {
  name: "score_pool3"
  type: "Convolution"
  bottom: "scale_pool3"
  top: "score_pool3"
  param {
    lr_mult: 1
    decay_mult: 1
  }
  param {
    lr_mult: 2
    decay_mult: 0
  }
  convolution_param {
    num_output: 6
    pad: 0
    kernel_size: 1
    weight_filler {
      type: "xavier"
    }
  }
}
layer {
  name: "score_pool3c"
  type: "Crop"
  bottom: "score_pool3"
  bottom: "upscore_pool4"
  top: "score_pool3c"
  crop_param {
    axis: 2
    offset: 9
  }
}
layer {
  name: "fuse_pool3"
  type: "Eltwise"
  bottom: "upscore_pool4"
  bottom: "score_pool3c"
  top: "fuse_pool3"
  eltwise_param {
    operation: SUM
  }
}
layer {
  name: "upscore8"
  type: "Deconvolution"
  bottom: "fuse_pool3"
  top: "upscore8"
  param {
    lr_mult: 0
  }
  convolution_param {
    num_output: 6
    bias_term: false
    kernel_size: 16
    stride: 8
    weight_filler {
      type: "xavier"
    }
  }
}
layer {
  name: "score"
  type: "Crop"
  bottom: "upscore8"
  bottom: "data"
  top: "score"
  crop_param {
    axis: 2
    offset: 31
  }
}
layer {
  name: "loss"
  type: "SoftmaxWithLoss"
  bottom: "score"
  bottom: "label"
  top: "loss"
  loss_param {
    ignore_label: 255
    normalize: false
  }
}
I0209 11:04:41.526319  1717 layer_factory.hpp:77] Creating layer data
I0209 11:04:41.526511  1717 net.cpp:100] Creating Layer data
I0209 11:04:41.526521  1717 net.cpp:408] data -> data
I0209 11:04:41.526535  1717 net.cpp:408] data -> label
I0209 11:04:41.585877  1717 net.cpp:150] Setting up data
I0209 11:04:41.585940  1717 net.cpp:157] Top shape: 1 3 335 500 (502500)
I0209 11:04:41.585948  1717 net.cpp:157] Top shape: 1 1 335 500 (167500)
I0209 11:04:41.585953  1717 net.cpp:165] Memory required for data: 2680000
I0209 11:04:41.585963  1717 layer_factory.hpp:77] Creating layer data_data_0_split
I0209 11:04:41.585983  1717 net.cpp:100] Creating Layer data_data_0_split
I0209 11:04:41.585989  1717 net.cpp:434] data_data_0_split <- data
I0209 11:04:41.585999  1717 net.cpp:408] data_data_0_split -> data_data_0_split_0
I0209 11:04:41.586012  1717 net.cpp:408] data_data_0_split -> data_data_0_split_1
I0209 11:04:41.586056  1717 net.cpp:150] Setting up data_data_0_split
I0209 11:04:41.586064  1717 net.cpp:157] Top shape: 1 3 335 500 (502500)
I0209 11:04:41.586071  1717 net.cpp:157] Top shape: 1 3 335 500 (502500)
I0209 11:04:41.586074  1717 net.cpp:165] Memory required for data: 6700000
I0209 11:04:41.586079  1717 layer_factory.hpp:77] Creating layer conv1_1
I0209 11:04:41.586094  1717 net.cpp:100] Creating Layer conv1_1
I0209 11:04:41.586099  1717 net.cpp:434] conv1_1 <- data_data_0_split_0
I0209 11:04:41.586107  1717 net.cpp:408] conv1_1 -> conv1_1
I0209 11:04:41.588704  1717 net.cpp:150] Setting up conv1_1
I0209 11:04:41.588757  1717 net.cpp:157] Top shape: 1 64 533 698 (23810176)
I0209 11:04:41.588762  1717 net.cpp:165] Memory required for data: 101940704
I0209 11:04:41.588784  1717 layer_factory.hpp:77] Creating layer relu1_1
I0209 11:04:41.588802  1717 net.cpp:100] Creating Layer relu1_1
I0209 11:04:41.588809  1717 net.cpp:434] relu1_1 <- conv1_1
I0209 11:04:41.588817  1717 net.cpp:395] relu1_1 -> conv1_1 (in-place)
I0209 11:04:41.589084  1717 net.cpp:150] Setting up relu1_1
I0209 11:04:41.589097  1717 net.cpp:157] Top shape: 1 64 533 698 (23810176)
I0209 11:04:41.589102  1717 net.cpp:165] Memory required for data: 197181408
I0209 11:04:41.589107  1717 layer_factory.hpp:77] Creating layer conv1_2
I0209 11:04:41.589125  1717 net.cpp:100] Creating Layer conv1_2
I0209 11:04:41.589129  1717 net.cpp:434] conv1_2 <- conv1_1
I0209 11:04:41.589139  1717 net.cpp:408] conv1_2 -> conv1_2
I0209 11:04:41.591913  1717 net.cpp:150] Setting up conv1_2
I0209 11:04:41.591967  1717 net.cpp:157] Top shape: 1 64 533 698 (23810176)
I0209 11:04:41.591974  1717 net.cpp:165] Memory required for data: 292422112
I0209 11:04:41.591995  1717 layer_factory.hpp:77] Creating layer relu1_2
I0209 11:04:41.592012  1717 net.cpp:100] Creating Layer relu1_2
I0209 11:04:41.592020  1717 net.cpp:434] relu1_2 <- conv1_2
I0209 11:04:41.592027  1717 net.cpp:395] relu1_2 -> conv1_2 (in-place)
I0209 11:04:41.592524  1717 net.cpp:150] Setting up relu1_2
I0209 11:04:41.592543  1717 net.cpp:157] Top shape: 1 64 533 698 (23810176)
I0209 11:04:41.592548  1717 net.cpp:165] Memory required for data: 387662816
I0209 11:04:41.592555  1717 layer_factory.hpp:77] Creating layer pool1
I0209 11:04:41.592566  1717 net.cpp:100] Creating Layer pool1
I0209 11:04:41.592571  1717 net.cpp:434] pool1 <- conv1_2
I0209 11:04:41.592581  1717 net.cpp:408] pool1 -> pool1
I0209 11:04:41.592660  1717 net.cpp:150] Setting up pool1
I0209 11:04:41.592669  1717 net.cpp:157] Top shape: 1 64 267 349 (5963712)
I0209 11:04:41.592674  1717 net.cpp:165] Memory required for data: 411517664
I0209 11:04:41.592679  1717 layer_factory.hpp:77] Creating layer conv2_1
I0209 11:04:41.592695  1717 net.cpp:100] Creating Layer conv2_1
I0209 11:04:41.592700  1717 net.cpp:434] conv2_1 <- pool1
I0209 11:04:41.592708  1717 net.cpp:408] conv2_1 -> conv2_1
I0209 11:04:41.595490  1717 net.cpp:150] Setting up conv2_1
I0209 11:04:41.595541  1717 net.cpp:157] Top shape: 1 128 267 349 (11927424)
I0209 11:04:41.595546  1717 net.cpp:165] Memory required for data: 459227360
I0209 11:04:41.595568  1717 layer_factory.hpp:77] Creating layer relu2_1
I0209 11:04:41.595587  1717 net.cpp:100] Creating Layer relu2_1
I0209 11:04:41.595593  1717 net.cpp:434] relu2_1 <- conv2_1
I0209 11:04:41.595602  1717 net.cpp:395] relu2_1 -> conv2_1 (in-place)
I0209 11:04:41.596051  1717 net.cpp:150] Setting up relu2_1
I0209 11:04:41.596068  1717 net.cpp:157] Top shape: 1 128 267 349 (11927424)
I0209 11:04:41.596073  1717 net.cpp:165] Memory required for data: 506937056
I0209 11:04:41.596078  1717 layer_factory.hpp:77] Creating layer conv2_2
I0209 11:04:41.596096  1717 net.cpp:100] Creating Layer conv2_2
I0209 11:04:41.596102  1717 net.cpp:434] conv2_2 <- conv2_1
I0209 11:04:41.596112  1717 net.cpp:408] conv2_2 -> conv2_2
I0209 11:04:41.599334  1717 net.cpp:150] Setting up conv2_2
I0209 11:04:41.599388  1717 net.cpp:157] Top shape: 1 128 267 349 (11927424)
I0209 11:04:41.599395  1717 net.cpp:165] Memory required for data: 554646752
I0209 11:04:41.599411  1717 layer_factory.hpp:77] Creating layer relu2_2
I0209 11:04:41.599428  1717 net.cpp:100] Creating Layer relu2_2
I0209 11:04:41.599434  1717 net.cpp:434] relu2_2 <- conv2_2
I0209 11:04:41.599444  1717 net.cpp:395] relu2_2 -> conv2_2 (in-place)
I0209 11:04:41.599690  1717 net.cpp:150] Setting up relu2_2
I0209 11:04:41.599702  1717 net.cpp:157] Top shape: 1 128 267 349 (11927424)
I0209 11:04:41.599706  1717 net.cpp:165] Memory required for data: 602356448
I0209 11:04:41.599711  1717 layer_factory.hpp:77] Creating layer pool2
I0209 11:04:41.599722  1717 net.cpp:100] Creating Layer pool2
I0209 11:04:41.599727  1717 net.cpp:434] pool2 <- conv2_2
I0209 11:04:41.599735  1717 net.cpp:408] pool2 -> pool2
I0209 11:04:41.599807  1717 net.cpp:150] Setting up pool2
I0209 11:04:41.599817  1717 net.cpp:157] Top shape: 1 128 134 175 (3001600)
I0209 11:04:41.599820  1717 net.cpp:165] Memory required for data: 614362848
I0209 11:04:41.599825  1717 layer_factory.hpp:77] Creating layer conv3_1
I0209 11:04:41.599841  1717 net.cpp:100] Creating Layer conv3_1
I0209 11:04:41.599846  1717 net.cpp:434] conv3_1 <- pool2
I0209 11:04:41.599855  1717 net.cpp:408] conv3_1 -> conv3_1
I0209 11:04:41.604028  1717 net.cpp:150] Setting up conv3_1
I0209 11:04:41.604084  1717 net.cpp:157] Top shape: 1 256 134 175 (6003200)
I0209 11:04:41.604090  1717 net.cpp:165] Memory required for data: 638375648
I0209 11:04:41.604112  1717 layer_factory.hpp:77] Creating layer relu3_1
I0209 11:04:41.604151  1717 net.cpp:100] Creating Layer relu3_1
I0209 11:04:41.604158  1717 net.cpp:434] relu3_1 <- conv3_1
I0209 11:04:41.604167  1717 net.cpp:395] relu3_1 -> conv3_1 (in-place)
I0209 11:04:41.604583  1717 net.cpp:150] Setting up relu3_1
I0209 11:04:41.604598  1717 net.cpp:157] Top shape: 1 256 134 175 (6003200)
I0209 11:04:41.604604  1717 net.cpp:165] Memory required for data: 662388448
I0209 11:04:41.604609  1717 layer_factory.hpp:77] Creating layer conv3_2
I0209 11:04:41.604625  1717 net.cpp:100] Creating Layer conv3_2
I0209 11:04:41.604630  1717 net.cpp:434] conv3_2 <- conv3_1
I0209 11:04:41.604640  1717 net.cpp:408] conv3_2 -> conv3_2
I0209 11:04:41.611276  1717 net.cpp:150] Setting up conv3_2
I0209 11:04:41.611335  1717 net.cpp:157] Top shape: 1 256 134 175 (6003200)
I0209 11:04:41.611340  1717 net.cpp:165] Memory required for data: 686401248
I0209 11:04:41.611356  1717 layer_factory.hpp:77] Creating layer relu3_2
I0209 11:04:41.611374  1717 net.cpp:100] Creating Layer relu3_2
I0209 11:04:41.611382  1717 net.cpp:434] relu3_2 <- conv3_2
I0209 11:04:41.611390  1717 net.cpp:395] relu3_2 -> conv3_2 (in-place)
I0209 11:04:41.611593  1717 net.cpp:150] Setting up relu3_2
I0209 11:04:41.611604  1717 net.cpp:157] Top shape: 1 256 134 175 (6003200)
I0209 11:04:41.611608  1717 net.cpp:165] Memory required for data: 710414048
I0209 11:04:41.611613  1717 layer_factory.hpp:77] Creating layer conv3_3
I0209 11:04:41.611634  1717 net.cpp:100] Creating Layer conv3_3
I0209 11:04:41.611639  1717 net.cpp:434] conv3_3 <- conv3_2
I0209 11:04:41.611646  1717 net.cpp:408] conv3_3 -> conv3_3
I0209 11:04:41.618293  1717 net.cpp:150] Setting up conv3_3
I0209 11:04:41.618351  1717 net.cpp:157] Top shape: 1 256 134 175 (6003200)
I0209 11:04:41.618357  1717 net.cpp:165] Memory required for data: 734426848
I0209 11:04:41.618372  1717 layer_factory.hpp:77] Creating layer relu3_3
I0209 11:04:41.618391  1717 net.cpp:100] Creating Layer relu3_3
I0209 11:04:41.618397  1717 net.cpp:434] relu3_3 <- conv3_3
I0209 11:04:41.618407  1717 net.cpp:395] relu3_3 -> conv3_3 (in-place)
I0209 11:04:41.618610  1717 net.cpp:150] Setting up relu3_3
I0209 11:04:41.618621  1717 net.cpp:157] Top shape: 1 256 134 175 (6003200)
I0209 11:04:41.618626  1717 net.cpp:165] Memory required for data: 758439648
I0209 11:04:41.618631  1717 layer_factory.hpp:77] Creating layer pool3
I0209 11:04:41.618641  1717 net.cpp:100] Creating Layer pool3
I0209 11:04:41.618645  1717 net.cpp:434] pool3 <- conv3_3
I0209 11:04:41.618654  1717 net.cpp:408] pool3 -> pool3
I0209 11:04:41.618711  1717 net.cpp:150] Setting up pool3
I0209 11:04:41.618719  1717 net.cpp:157] Top shape: 1 256 67 88 (1509376)
I0209 11:04:41.618723  1717 net.cpp:165] Memory required for data: 764477152
I0209 11:04:41.618727  1717 layer_factory.hpp:77] Creating layer pool3_pool3_0_split
I0209 11:04:41.618736  1717 net.cpp:100] Creating Layer pool3_pool3_0_split
I0209 11:04:41.618741  1717 net.cpp:434] pool3_pool3_0_split <- pool3
I0209 11:04:41.618747  1717 net.cpp:408] pool3_pool3_0_split -> pool3_pool3_0_split_0
I0209 11:04:41.618755  1717 net.cpp:408] pool3_pool3_0_split -> pool3_pool3_0_split_1
I0209 11:04:41.618798  1717 net.cpp:150] Setting up pool3_pool3_0_split
I0209 11:04:41.618805  1717 net.cpp:157] Top shape: 1 256 67 88 (1509376)
I0209 11:04:41.618810  1717 net.cpp:157] Top shape: 1 256 67 88 (1509376)
I0209 11:04:41.618814  1717 net.cpp:165] Memory required for data: 776552160
I0209 11:04:41.618819  1717 layer_factory.hpp:77] Creating layer conv4_1
I0209 11:04:41.618834  1717 net.cpp:100] Creating Layer conv4_1
I0209 11:04:41.618839  1717 net.cpp:434] conv4_1 <- pool3_pool3_0_split_0
I0209 11:04:41.618847  1717 net.cpp:408] conv4_1 -> conv4_1
I0209 11:04:41.631045  1717 net.cpp:150] Setting up conv4_1
I0209 11:04:41.631132  1717 net.cpp:157] Top shape: 1 512 67 88 (3018752)
I0209 11:04:41.631142  1717 net.cpp:165] Memory required for data: 788627168
I0209 11:04:41.631165  1717 layer_factory.hpp:77] Creating layer relu4_1
I0209 11:04:41.631193  1717 net.cpp:100] Creating Layer relu4_1
I0209 11:04:41.631202  1717 net.cpp:434] relu4_1 <- conv4_1
I0209 11:04:41.631238  1717 net.cpp:395] relu4_1 -> conv4_1 (in-place)
I0209 11:04:41.631657  1717 net.cpp:150] Setting up relu4_1
I0209 11:04:41.631671  1717 net.cpp:157] Top shape: 1 512 67 88 (3018752)
I0209 11:04:41.631675  1717 net.cpp:165] Memory required for data: 800702176
I0209 11:04:41.631680  1717 layer_factory.hpp:77] Creating layer conv4_2
I0209 11:04:41.631700  1717 net.cpp:100] Creating Layer conv4_2
I0209 11:04:41.631706  1717 net.cpp:434] conv4_2 <- conv4_1
I0209 11:04:41.631716  1717 net.cpp:408] conv4_2 -> conv4_2
I0209 11:04:41.659569  1717 net.cpp:150] Setting up conv4_2
I0209 11:04:41.659657  1717 net.cpp:157] Top shape: 1 512 67 88 (3018752)
I0209 11:04:41.659663  1717 net.cpp:165] Memory required for data: 812777184
I0209 11:04:41.659694  1717 layer_factory.hpp:77] Creating layer relu4_2
I0209 11:04:41.659715  1717 net.cpp:100] Creating Layer relu4_2
I0209 11:04:41.659724  1717 net.cpp:434] relu4_2 <- conv4_2
I0209 11:04:41.659735  1717 net.cpp:395] relu4_2 -> conv4_2 (in-place)
I0209 11:04:41.659955  1717 net.cpp:150] Setting up relu4_2
I0209 11:04:41.659965  1717 net.cpp:157] Top shape: 1 512 67 88 (3018752)
I0209 11:04:41.659970  1717 net.cpp:165] Memory required for data: 824852192
I0209 11:04:41.659975  1717 layer_factory.hpp:77] Creating layer conv4_3
I0209 11:04:41.659992  1717 net.cpp:100] Creating Layer conv4_3
I0209 11:04:41.659997  1717 net.cpp:434] conv4_3 <- conv4_2
I0209 11:04:41.660006  1717 net.cpp:408] conv4_3 -> conv4_3
I0209 11:04:41.683612  1717 net.cpp:150] Setting up conv4_3
I0209 11:04:41.683694  1717 net.cpp:157] Top shape: 1 512 67 88 (3018752)
I0209 11:04:41.683701  1717 net.cpp:165] Memory required for data: 836927200
I0209 11:04:41.683720  1717 layer_factory.hpp:77] Creating layer relu4_3
I0209 11:04:41.683748  1717 net.cpp:100] Creating Layer relu4_3
I0209 11:04:41.683759  1717 net.cpp:434] relu4_3 <- conv4_3
I0209 11:04:41.683775  1717 net.cpp:395] relu4_3 -> conv4_3 (in-place)
I0209 11:04:41.683991  1717 net.cpp:150] Setting up relu4_3
I0209 11:04:41.684002  1717 net.cpp:157] Top shape: 1 512 67 88 (3018752)
I0209 11:04:41.684006  1717 net.cpp:165] Memory required for data: 849002208
I0209 11:04:41.684011  1717 layer_factory.hpp:77] Creating layer pool4
I0209 11:04:41.684023  1717 net.cpp:100] Creating Layer pool4
I0209 11:04:41.684027  1717 net.cpp:434] pool4 <- conv4_3
I0209 11:04:41.684036  1717 net.cpp:408] pool4 -> pool4
I0209 11:04:41.684094  1717 net.cpp:150] Setting up pool4
I0209 11:04:41.684103  1717 net.cpp:157] Top shape: 1 512 34 44 (765952)
I0209 11:04:41.684106  1717 net.cpp:165] Memory required for data: 852066016
I0209 11:04:41.684111  1717 layer_factory.hpp:77] Creating layer pool4_pool4_0_split
I0209 11:04:41.684120  1717 net.cpp:100] Creating Layer pool4_pool4_0_split
I0209 11:04:41.684125  1717 net.cpp:434] pool4_pool4_0_split <- pool4
I0209 11:04:41.684131  1717 net.cpp:408] pool4_pool4_0_split -> pool4_pool4_0_split_0
I0209 11:04:41.684139  1717 net.cpp:408] pool4_pool4_0_split -> pool4_pool4_0_split_1
I0209 11:04:41.684181  1717 net.cpp:150] Setting up pool4_pool4_0_split
I0209 11:04:41.684188  1717 net.cpp:157] Top shape: 1 512 34 44 (765952)
I0209 11:04:41.684195  1717 net.cpp:157] Top shape: 1 512 34 44 (765952)
I0209 11:04:41.684198  1717 net.cpp:165] Memory required for data: 858193632
I0209 11:04:41.684202  1717 layer_factory.hpp:77] Creating layer conv5_1
I0209 11:04:41.684221  1717 net.cpp:100] Creating Layer conv5_1
I0209 11:04:41.684226  1717 net.cpp:434] conv5_1 <- pool4_pool4_0_split_0
I0209 11:04:41.684234  1717 net.cpp:408] conv5_1 -> conv5_1
I0209 11:04:41.703892  1717 net.cpp:150] Setting up conv5_1
I0209 11:04:41.703980  1717 net.cpp:157] Top shape: 1 512 34 44 (765952)
I0209 11:04:41.703986  1717 net.cpp:165] Memory required for data: 861257440
I0209 11:04:41.704005  1717 layer_factory.hpp:77] Creating layer relu5_1
I0209 11:04:41.704031  1717 net.cpp:100] Creating Layer relu5_1
I0209 11:04:41.704041  1717 net.cpp:434] relu5_1 <- conv5_1
I0209 11:04:41.704056  1717 net.cpp:395] relu5_1 -> conv5_1 (in-place)
I0209 11:04:41.704474  1717 net.cpp:150] Setting up relu5_1
I0209 11:04:41.704489  1717 net.cpp:157] Top shape: 1 512 34 44 (765952)
I0209 11:04:41.704493  1717 net.cpp:165] Memory required for data: 864321248
I0209 11:04:41.704499  1717 layer_factory.hpp:77] Creating layer conv5_2
I0209 11:04:41.704519  1717 net.cpp:100] Creating Layer conv5_2
I0209 11:04:41.704524  1717 net.cpp:434] conv5_2 <- conv5_1
I0209 11:04:41.704531  1717 net.cpp:408] conv5_2 -> conv5_2
I0209 11:04:41.724076  1717 net.cpp:150] Setting up conv5_2
I0209 11:04:41.724159  1717 net.cpp:157] Top shape: 1 512 34 44 (765952)
I0209 11:04:41.724165  1717 net.cpp:165] Memory required for data: 867385056
I0209 11:04:41.724187  1717 layer_factory.hpp:77] Creating layer relu5_2
I0209 11:04:41.724211  1717 net.cpp:100] Creating Layer relu5_2
I0209 11:04:41.724225  1717 net.cpp:434] relu5_2 <- conv5_2
I0209 11:04:41.724237  1717 net.cpp:395] relu5_2 -> conv5_2 (in-place)
I0209 11:04:41.724452  1717 net.cpp:150] Setting up relu5_2
I0209 11:04:41.724462  1717 net.cpp:157] Top shape: 1 512 34 44 (765952)
I0209 11:04:41.724467  1717 net.cpp:165] Memory required for data: 870448864
I0209 11:04:41.724472  1717 layer_factory.hpp:77] Creating layer conv5_3
I0209 11:04:41.724500  1717 net.cpp:100] Creating Layer conv5_3
I0209 11:04:41.724505  1717 net.cpp:434] conv5_3 <- conv5_2
I0209 11:04:41.724514  1717 net.cpp:408] conv5_3 -> conv5_3
I0209 11:04:41.743641  1717 net.cpp:150] Setting up conv5_3
I0209 11:04:41.743726  1717 net.cpp:157] Top shape: 1 512 34 44 (765952)
I0209 11:04:41.743732  1717 net.cpp:165] Memory required for data: 873512672
I0209 11:04:41.743752  1717 layer_factory.hpp:77] Creating layer relu5_3
I0209 11:04:41.743775  1717 net.cpp:100] Creating Layer relu5_3
I0209 11:04:41.743784  1717 net.cpp:434] relu5_3 <- conv5_3
I0209 11:04:41.743796  1717 net.cpp:395] relu5_3 -> conv5_3 (in-place)
I0209 11:04:41.744009  1717 net.cpp:150] Setting up relu5_3
I0209 11:04:41.744019  1717 net.cpp:157] Top shape: 1 512 34 44 (765952)
I0209 11:04:41.744024  1717 net.cpp:165] Memory required for data: 876576480
I0209 11:04:41.744029  1717 layer_factory.hpp:77] Creating layer pool5
I0209 11:04:41.744042  1717 net.cpp:100] Creating Layer pool5
I0209 11:04:41.744050  1717 net.cpp:434] pool5 <- conv5_3
I0209 11:04:41.744060  1717 net.cpp:408] pool5 -> pool5
I0209 11:04:41.744132  1717 net.cpp:150] Setting up pool5
I0209 11:04:41.744139  1717 net.cpp:157] Top shape: 1 512 17 22 (191488)
I0209 11:04:41.744143  1717 net.cpp:165] Memory required for data: 877342432
I0209 11:04:41.744148  1717 layer_factory.hpp:77] Creating layer fc6
I0209 11:04:41.744168  1717 net.cpp:100] Creating Layer fc6
I0209 11:04:41.744173  1717 net.cpp:434] fc6 <- pool5
I0209 11:04:41.744180  1717 net.cpp:408] fc6 -> fc6
I0209 11:04:42.789822  1717 net.cpp:150] Setting up fc6
I0209 11:04:42.789901  1717 net.cpp:157] Top shape: 1 4096 11 16 (720896)
I0209 11:04:42.789909  1717 net.cpp:165] Memory required for data: 880226016
I0209 11:04:42.789930  1717 layer_factory.hpp:77] Creating layer relu6
I0209 11:04:42.789954  1717 net.cpp:100] Creating Layer relu6
I0209 11:04:42.789964  1717 net.cpp:434] relu6 <- fc6
I0209 11:04:42.789978  1717 net.cpp:395] relu6 -> fc6 (in-place)
I0209 11:04:42.790499  1717 net.cpp:150] Setting up relu6
I0209 11:04:42.790518  1717 net.cpp:157] Top shape: 1 4096 11 16 (720896)
I0209 11:04:42.790526  1717 net.cpp:165] Memory required for data: 883109600
I0209 11:04:42.790534  1717 layer_factory.hpp:77] Creating layer drop6
I0209 11:04:42.790547  1717 net.cpp:100] Creating Layer drop6
I0209 11:04:42.790555  1717 net.cpp:434] drop6 <- fc6
I0209 11:04:42.790565  1717 net.cpp:395] drop6 -> fc6 (in-place)
I0209 11:04:42.790621  1717 net.cpp:150] Setting up drop6
I0209 11:04:42.790632  1717 net.cpp:157] Top shape: 1 4096 11 16 (720896)
I0209 11:04:42.790639  1717 net.cpp:165] Memory required for data: 885993184
I0209 11:04:42.790647  1717 layer_factory.hpp:77] Creating layer fc7
I0209 11:04:42.790665  1717 net.cpp:100] Creating Layer fc7
I0209 11:04:42.790673  1717 net.cpp:434] fc7 <- fc6
I0209 11:04:42.790701  1717 net.cpp:408] fc7 -> fc7
I0209 11:04:42.957672  1717 net.cpp:150] Setting up fc7
I0209 11:04:42.957725  1717 net.cpp:157] Top shape: 1 4096 11 16 (720896)
I0209 11:04:42.957731  1717 net.cpp:165] Memory required for data: 888876768
I0209 11:04:42.957744  1717 layer_factory.hpp:77] Creating layer relu7
I0209 11:04:42.957762  1717 net.cpp:100] Creating Layer relu7
I0209 11:04:42.957768  1717 net.cpp:434] relu7 <- fc7
I0209 11:04:42.957777  1717 net.cpp:395] relu7 -> fc7 (in-place)
I0209 11:04:42.957983  1717 net.cpp:150] Setting up relu7
I0209 11:04:42.957993  1717 net.cpp:157] Top shape: 1 4096 11 16 (720896)
I0209 11:04:42.957998  1717 net.cpp:165] Memory required for data: 891760352
I0209 11:04:42.958001  1717 layer_factory.hpp:77] Creating layer drop7
I0209 11:04:42.958012  1717 net.cpp:100] Creating Layer drop7
I0209 11:04:42.958017  1717 net.cpp:434] drop7 <- fc7
I0209 11:04:42.958024  1717 net.cpp:395] drop7 -> fc7 (in-place)
I0209 11:04:42.958062  1717 net.cpp:150] Setting up drop7
I0209 11:04:42.958070  1717 net.cpp:157] Top shape: 1 4096 11 16 (720896)
I0209 11:04:42.958073  1717 net.cpp:165] Memory required for data: 894643936
I0209 11:04:42.958078  1717 layer_factory.hpp:77] Creating layer score_fr
I0209 11:04:42.958091  1717 net.cpp:100] Creating Layer score_fr
I0209 11:04:42.958096  1717 net.cpp:434] score_fr <- fc7
I0209 11:04:42.958103  1717 net.cpp:408] score_fr -> score_fr
I0209 11:04:42.960324  1717 net.cpp:150] Setting up score_fr
I0209 11:04:42.960340  1717 net.cpp:157] Top shape: 1 6 11 16 (1056)
I0209 11:04:42.960345  1717 net.cpp:165] Memory required for data: 894648160
I0209 11:04:42.960355  1717 layer_factory.hpp:77] Creating layer upscore2
I0209 11:04:42.960366  1717 net.cpp:100] Creating Layer upscore2
I0209 11:04:42.960371  1717 net.cpp:434] upscore2 <- score_fr
I0209 11:04:42.960379  1717 net.cpp:408] upscore2 -> upscore2
I0209 11:04:42.960638  1717 net.cpp:150] Setting up upscore2
I0209 11:04:42.960649  1717 net.cpp:157] Top shape: 1 6 24 34 (4896)
I0209 11:04:42.960652  1717 net.cpp:165] Memory required for data: 894667744
I0209 11:04:42.960666  1717 layer_factory.hpp:77] Creating layer upscore2_upscore2_0_split
I0209 11:04:42.960675  1717 net.cpp:100] Creating Layer upscore2_upscore2_0_split
I0209 11:04:42.960680  1717 net.cpp:434] upscore2_upscore2_0_split <- upscore2
I0209 11:04:42.960686  1717 net.cpp:408] upscore2_upscore2_0_split -> upscore2_upscore2_0_split_0
I0209 11:04:42.960695  1717 net.cpp:408] upscore2_upscore2_0_split -> upscore2_upscore2_0_split_1
I0209 11:04:42.960741  1717 net.cpp:150] Setting up upscore2_upscore2_0_split
I0209 11:04:42.960747  1717 net.cpp:157] Top shape: 1 6 24 34 (4896)
I0209 11:04:42.960753  1717 net.cpp:157] Top shape: 1 6 24 34 (4896)
I0209 11:04:42.960757  1717 net.cpp:165] Memory required for data: 894706912
I0209 11:04:42.960762  1717 layer_factory.hpp:77] Creating layer scale_pool4
I0209 11:04:42.960772  1717 net.cpp:100] Creating Layer scale_pool4
I0209 11:04:42.960777  1717 net.cpp:434] scale_pool4 <- pool4_pool4_0_split_1
I0209 11:04:42.960783  1717 net.cpp:408] scale_pool4 -> scale_pool4
I0209 11:04:42.960907  1717 net.cpp:150] Setting up scale_pool4
I0209 11:04:42.960916  1717 net.cpp:157] Top shape: 1 512 34 44 (765952)
I0209 11:04:42.960921  1717 net.cpp:165] Memory required for data: 897770720
I0209 11:04:42.960927  1717 layer_factory.hpp:77] Creating layer score_pool4
I0209 11:04:42.960937  1717 net.cpp:100] Creating Layer score_pool4
I0209 11:04:42.960942  1717 net.cpp:434] score_pool4 <- scale_pool4
I0209 11:04:42.960948  1717 net.cpp:408] score_pool4 -> score_pool4
I0209 11:04:42.962278  1717 net.cpp:150] Setting up score_pool4
I0209 11:04:42.962296  1717 net.cpp:157] Top shape: 1 6 34 44 (8976)
I0209 11:04:42.962301  1717 net.cpp:165] Memory required for data: 897806624
I0209 11:04:42.962309  1717 layer_factory.hpp:77] Creating layer score_pool4c
I0209 11:04:42.962319  1717 net.cpp:100] Creating Layer score_pool4c
I0209 11:04:42.962324  1717 net.cpp:434] score_pool4c <- score_pool4
I0209 11:04:42.962342  1717 net.cpp:434] score_pool4c <- upscore2_upscore2_0_split_0
I0209 11:04:42.962349  1717 net.cpp:408] score_pool4c -> score_pool4c
I0209 11:04:42.962386  1717 net.cpp:150] Setting up score_pool4c
I0209 11:04:42.962393  1717 net.cpp:157] Top shape: 1 6 24 34 (4896)
I0209 11:04:42.962397  1717 net.cpp:165] Memory required for data: 897826208
I0209 11:04:42.962402  1717 layer_factory.hpp:77] Creating layer fuse_pool4
I0209 11:04:42.962411  1717 net.cpp:100] Creating Layer fuse_pool4
I0209 11:04:42.962415  1717 net.cpp:434] fuse_pool4 <- upscore2_upscore2_0_split_1
I0209 11:04:42.962421  1717 net.cpp:434] fuse_pool4 <- score_pool4c
I0209 11:04:42.962427  1717 net.cpp:408] fuse_pool4 -> fuse_pool4
I0209 11:04:42.962460  1717 net.cpp:150] Setting up fuse_pool4
I0209 11:04:42.962466  1717 net.cpp:157] Top shape: 1 6 24 34 (4896)
I0209 11:04:42.962471  1717 net.cpp:165] Memory required for data: 897845792
I0209 11:04:42.962474  1717 layer_factory.hpp:77] Creating layer upscore_pool4
I0209 11:04:42.962482  1717 net.cpp:100] Creating Layer upscore_pool4
I0209 11:04:42.962486  1717 net.cpp:434] upscore_pool4 <- fuse_pool4
I0209 11:04:42.962493  1717 net.cpp:408] upscore_pool4 -> upscore_pool4
I0209 11:04:42.962735  1717 net.cpp:150] Setting up upscore_pool4
I0209 11:04:42.962743  1717 net.cpp:157] Top shape: 1 6 50 70 (21000)
I0209 11:04:42.962748  1717 net.cpp:165] Memory required for data: 897929792
I0209 11:04:42.962754  1717 layer_factory.hpp:77] Creating layer upscore_pool4_upscore_pool4_0_split
I0209 11:04:42.962760  1717 net.cpp:100] Creating Layer upscore_pool4_upscore_pool4_0_split
I0209 11:04:42.962765  1717 net.cpp:434] upscore_pool4_upscore_pool4_0_split <- upscore_pool4
I0209 11:04:42.962771  1717 net.cpp:408] upscore_pool4_upscore_pool4_0_split -> upscore_pool4_upscore_pool4_0_split_0
I0209 11:04:42.962779  1717 net.cpp:408] upscore_pool4_upscore_pool4_0_split -> upscore_pool4_upscore_pool4_0_split_1
I0209 11:04:42.962822  1717 net.cpp:150] Setting up upscore_pool4_upscore_pool4_0_split
I0209 11:04:42.962829  1717 net.cpp:157] Top shape: 1 6 50 70 (21000)
I0209 11:04:42.962834  1717 net.cpp:157] Top shape: 1 6 50 70 (21000)
I0209 11:04:42.962838  1717 net.cpp:165] Memory required for data: 898097792
I0209 11:04:42.962842  1717 layer_factory.hpp:77] Creating layer scale_pool3
I0209 11:04:42.962851  1717 net.cpp:100] Creating Layer scale_pool3
I0209 11:04:42.962854  1717 net.cpp:434] scale_pool3 <- pool3_pool3_0_split_1
I0209 11:04:42.962862  1717 net.cpp:408] scale_pool3 -> scale_pool3
I0209 11:04:42.962978  1717 net.cpp:150] Setting up scale_pool3
I0209 11:04:42.962986  1717 net.cpp:157] Top shape: 1 256 67 88 (1509376)
I0209 11:04:42.962990  1717 net.cpp:165] Memory required for data: 904135296
I0209 11:04:42.962996  1717 layer_factory.hpp:77] Creating layer score_pool3
I0209 11:04:42.963006  1717 net.cpp:100] Creating Layer score_pool3
I0209 11:04:42.963011  1717 net.cpp:434] score_pool3 <- scale_pool3
I0209 11:04:42.963017  1717 net.cpp:408] score_pool3 -> score_pool3
I0209 11:04:42.964303  1717 net.cpp:150] Setting up score_pool3
I0209 11:04:42.964318  1717 net.cpp:157] Top shape: 1 6 67 88 (35376)
I0209 11:04:42.964323  1717 net.cpp:165] Memory required for data: 904276800
I0209 11:04:42.964330  1717 layer_factory.hpp:77] Creating layer score_pool3c
I0209 11:04:42.964339  1717 net.cpp:100] Creating Layer score_pool3c
I0209 11:04:42.964344  1717 net.cpp:434] score_pool3c <- score_pool3
I0209 11:04:42.964350  1717 net.cpp:434] score_pool3c <- upscore_pool4_upscore_pool4_0_split_0
I0209 11:04:42.964357  1717 net.cpp:408] score_pool3c -> score_pool3c
I0209 11:04:42.964393  1717 net.cpp:150] Setting up score_pool3c
I0209 11:04:42.964401  1717 net.cpp:157] Top shape: 1 6 50 70 (21000)
I0209 11:04:42.964406  1717 net.cpp:165] Memory required for data: 904360800
I0209 11:04:42.964409  1717 layer_factory.hpp:77] Creating layer fuse_pool3
I0209 11:04:42.964416  1717 net.cpp:100] Creating Layer fuse_pool3
I0209 11:04:42.964421  1717 net.cpp:434] fuse_pool3 <- upscore_pool4_upscore_pool4_0_split_1
I0209 11:04:42.964432  1717 net.cpp:434] fuse_pool3 <- score_pool3c
I0209 11:04:42.964439  1717 net.cpp:408] fuse_pool3 -> fuse_pool3
I0209 11:04:42.964473  1717 net.cpp:150] Setting up fuse_pool3
I0209 11:04:42.964479  1717 net.cpp:157] Top shape: 1 6 50 70 (21000)
I0209 11:04:42.964483  1717 net.cpp:165] Memory required for data: 904444800
I0209 11:04:42.964488  1717 layer_factory.hpp:77] Creating layer upscore8
I0209 11:04:42.964495  1717 net.cpp:100] Creating Layer upscore8
I0209 11:04:42.964500  1717 net.cpp:434] upscore8 <- fuse_pool3
I0209 11:04:42.964507  1717 net.cpp:408] upscore8 -> upscore8
I0209 11:04:42.964807  1717 net.cpp:150] Setting up upscore8
I0209 11:04:42.964814  1717 net.cpp:157] Top shape: 1 6 408 568 (1390464)
I0209 11:04:42.964818  1717 net.cpp:165] Memory required for data: 910006656
I0209 11:04:42.964824  1717 layer_factory.hpp:77] Creating layer score
I0209 11:04:42.964831  1717 net.cpp:100] Creating Layer score
I0209 11:04:42.964836  1717 net.cpp:434] score <- upscore8
I0209 11:04:42.964841  1717 net.cpp:434] score <- data_data_0_split_1
I0209 11:04:42.964848  1717 net.cpp:408] score -> score
I0209 11:04:42.964876  1717 net.cpp:150] Setting up score
I0209 11:04:42.964884  1717 net.cpp:157] Top shape: 1 6 335 500 (1005000)
I0209 11:04:42.964887  1717 net.cpp:165] Memory required for data: 914026656
I0209 11:04:42.964891  1717 layer_factory.hpp:77] Creating layer loss
I0209 11:04:42.964900  1717 net.cpp:100] Creating Layer loss
I0209 11:04:42.964905  1717 net.cpp:434] loss <- score
I0209 11:04:42.964910  1717 net.cpp:434] loss <- label
I0209 11:04:42.964915  1717 net.cpp:408] loss -> loss
I0209 11:04:42.964926  1717 layer_factory.hpp:77] Creating layer loss
…
