…
test_initialization: false
average_loss: 20
iter_size: 1
I0206 10:31:09.065928 13943 solver.cpp:81] Creating training net from train_net file: train.prototxt
I0206 10:31:09.067239 13943 net.cpp:58] Initializing net from parameters: 
state {
  phase: TRAIN
}
layer {
  name: "data"
  type: "Python"
  top: "data"
  top: "label"
  python_param {
    module: "voc_layers"
    layer: "PartialSBDDSegDataLayer"
    param_str: "{\'sbdd_dir\': \'../data/sbdd/dataset\', \'seed\': 1337, \'split\': \'train5\', \'mean\': (104.00699, 116.66877, 122.67892)}"
  }
}
layer {
  name: "conv1_1"
  type: "Convolution"
  bottom: "data"
  top: "conv1_1"
  param {
    lr_mult: 1
    decay_mult: 1
  }
  param {
    lr_mult: 2
    decay_mult: 0
  }
  convolution_param {
    num_output: 64
    pad: 100
    kernel_size: 3
    stride: 1
    weight_filler {
      type: "xavier"
    }
  }
}
layer {
  name: "relu1_1"
  type: "ReLU"
  bottom: "conv1_1"
  top: "conv1_1"
}
layer {
  name: "conv1_2"
  type: "Convolution"
  bottom: "conv1_1"
  top: "conv1_2"
  param {
    lr_mult: 1
    decay_mult: 1
  }
  param {
    lr_mult: 2
    decay_mult: 0
  }
  convolution_param {
    num_output: 64
    pad: 1
    kernel_size: 3
    stride: 1
    weight_filler {
      type: "xavier"
    }
  }
}
layer {
  name: "relu1_2"
  type: "ReLU"
  bottom: "conv1_2"
  top: "conv1_2"
}
layer {
  name: "pool1"
  type: "Pooling"
  bottom: "conv1_2"
  top: "pool1"
  pooling_param {
    pool: MAX
    kernel_size: 2
    stride: 2
  }
}
layer {
  name: "conv2_1"
  type: "Convolution"
  bottom: "pool1"
  top: "conv2_1"
  param {
    lr_mult: 1
    decay_mult: 1
  }
  param {
    lr_mult: 2
    decay_mult: 0
  }
  convolution_param {
    num_output: 128
    pad: 1
    kernel_size: 3
    stride: 1
    weight_filler {
      type: "xavier"
    }
  }
}
layer {
  name: "relu2_1"
  type: "ReLU"
  bottom: "conv2_1"
  top: "conv2_1"
}
layer {
  name: "conv2_2"
  type: "Convolution"
  bottom: "conv2_1"
  top: "conv2_2"
  param {
    lr_mult: 1
    decay_mult: 1
  }
  param {
    lr_mult: 2
    decay_mult: 0
  }
  convolution_param {
    num_output: 128
    pad: 1
    kernel_size: 3
    stride: 1
    weight_filler {
      type: "xavier"
    }
  }
}
layer {
  name: "relu2_2"
  type: "ReLU"
  bottom: "conv2_2"
  top: "conv2_2"
}
layer {
  name: "pool2"
  type: "Pooling"
  bottom: "conv2_2"
  top: "pool2"
  pooling_param {
    pool: MAX
    kernel_size: 2
    stride: 2
  }
}
layer {
  name: "conv3_1"
  type: "Convolution"
  bottom: "pool2"
  top: "conv3_1"
  param {
    lr_mult: 1
    decay_mult: 1
  }
  param {
    lr_mult: 2
    decay_mult: 0
  }
  convolution_param {
    num_output: 256
    pad: 1
    kernel_size: 3
    stride: 1
    weight_filler {
      type: "xavier"
    }
  }
}
layer {
  name: "relu3_1"
  type: "ReLU"
  bottom: "conv3_1"
  top: "conv3_1"
}
layer {
  name: "conv3_2"
  type: "Convolution"
  bottom: "conv3_1"
  top: "conv3_2"
  param {
    lr_mult: 1
    decay_mult: 1
  }
  param {
    lr_mult: 2
    decay_mult: 0
  }
  convolution_param {
    num_output: 256
    pad: 1
    kernel_size: 3
    stride: 1
    weight_filler {
      type: "xavier"
    }
  }
}
layer {
  name: "relu3_2"
  type: "ReLU"
  bottom: "conv3_2"
  top: "conv3_2"
}
layer {
  name: "conv3_3"
  type: "Convolution"
  bottom: "conv3_2"
  top: "conv3_3"
  param {
    lr_mult: 1
    decay_mult: 1
  }
  param {
    lr_mult: 2
    decay_mult: 0
  }
  convolution_param {
    num_output: 256
    pad: 1
    kernel_size: 3
    stride: 1
    weight_filler {
      type: "xavier"
    }
  }
}
layer {
  name: "relu3_3"
  type: "ReLU"
  bottom: "conv3_3"
  top: "conv3_3"
}
layer {
  name: "pool3"
  type: "Pooling"
  bottom: "conv3_3"
  top: "pool3"
  pooling_param {
    pool: MAX
    kernel_size: 2
    stride: 2
  }
}
layer {
  name: "conv4_1"
  type: "Convolution"
  bottom: "pool3"
  top: "conv4_1"
  param {
    lr_mult: 1
    decay_mult: 1
  }
  param {
    lr_mult: 2
    decay_mult: 0
  }
  convolution_param {
    num_output: 512
    pad: 1
    kernel_size: 3
    stride: 1
    weight_filler {
      type: "xavier"
    }
  }
}
layer {
  name: "relu4_1"
  type: "ReLU"
  bottom: "conv4_1"
  top: "conv4_1"
}
layer {
  name: "conv4_2"
  type: "Convolution"
  bottom: "conv4_1"
  top: "conv4_2"
  param {
    lr_mult: 1
    decay_mult: 1
  }
  param {
    lr_mult: 2
    decay_mult: 0
  }
  convolution_param {
    num_output: 512
    pad: 1
    kernel_size: 3
    stride: 1
    weight_filler {
      type: "xavier"
    }
  }
}
layer {
  name: "relu4_2"
  type: "ReLU"
  bottom: "conv4_2"
  top: "conv4_2"
}
layer {
  name: "conv4_3"
  type: "Convolution"
  bottom: "conv4_2"
  top: "conv4_3"
  param {
    lr_mult: 1
    decay_mult: 1
  }
  param {
    lr_mult: 2
    decay_mult: 0
  }
  convolution_param {
    num_output: 512
    pad: 1
    kernel_size: 3
    stride: 1
    weight_filler {
      type: "xavier"
    }
  }
}
layer {
  name: "relu4_3"
  type: "ReLU"
  bottom: "conv4_3"
  top: "conv4_3"
}
layer {
  name: "pool4"
  type: "Pooling"
  bottom: "conv4_3"
  top: "pool4"
  pooling_param {
    pool: MAX
    kernel_size: 2
    stride: 2
  }
}
layer {
  name: "conv5_1"
  type: "Convolution"
  bottom: "pool4"
  top: "conv5_1"
  param {
    lr_mult: 1
    decay_mult: 1
  }
  param {
    lr_mult: 2
    decay_mult: 0
  }
  convolution_param {
    num_output: 512
    pad: 1
    kernel_size: 3
    stride: 1
    weight_filler {
      type: "xavier"
    }
  }
}
layer {
  name: "relu5_1"
  type: "ReLU"
  bottom: "conv5_1"
  top: "conv5_1"
}
layer {
  name: "conv5_2"
  type: "Convolution"
  bottom: "conv5_1"
  top: "conv5_2"
  param {
    lr_mult: 1
    decay_mult: 1
  }
  param {
    lr_mult: 2
    decay_mult: 0
  }
  convolution_param {
    num_output: 512
    pad: 1
    kernel_size: 3
    stride: 1
    weight_filler {
      type: "xavier"
    }
  }
}
layer {
  name: "relu5_2"
  type: "ReLU"
  bottom: "conv5_2"
  top: "conv5_2"
}
layer {
  name: "conv5_3"
  type: "Convolution"
  bottom: "conv5_2"
  top: "conv5_3"
  param {
    lr_mult: 1
    decay_mult: 1
  }
  param {
    lr_mult: 2
    decay_mult: 0
  }
  convolution_param {
    num_output: 512
    pad: 1
    kernel_size: 3
    stride: 1
    weight_filler {
      type: "xavier"
    }
  }
}
layer {
  name: "relu5_3"
  type: "ReLU"
  bottom: "conv5_3"
  top: "conv5_3"
}
layer {
  name: "pool5"
  type: "Pooling"
  bottom: "conv5_3"
  top: "pool5"
  pooling_param {
    pool: MAX
    kernel_size: 2
    stride: 2
  }
}
layer {
  name: "fc6"
  type: "Convolution"
  bottom: "pool5"
  top: "fc6"
  param {
    lr_mult: 1
    decay_mult: 1
  }
  param {
    lr_mult: 2
    decay_mult: 0
  }
  convolution_param {
    num_output: 4096
    pad: 0
    kernel_size: 7
    stride: 1
    weight_filler {
      type: "xavier"
    }
  }
}
layer {
  name: "relu6"
  type: "ReLU"
  bottom: "fc6"
  top: "fc6"
}
layer {
  name: "drop6"
  type: "Dropout"
  bottom: "fc6"
  top: "fc6"
  dropout_param {
    dropout_ratio: 0.5
  }
}
layer {
  name: "fc7"
  type: "Convolution"
  bottom: "fc6"
  top: "fc7"
  param {
    lr_mult: 1
    decay_mult: 1
  }
  param {
    lr_mult: 2
    decay_mult: 0
  }
  convolution_param {
    num_output: 4096
    pad: 0
    kernel_size: 1
    stride: 1
    weight_filler {
      type: "xavier"
    }
  }
}
layer {
  name: "relu7"
  type: "ReLU"
  bottom: "fc7"
  top: "fc7"
}
layer {
  name: "drop7"
  type: "Dropout"
  bottom: "fc7"
  top: "fc7"
  dropout_param {
    dropout_ratio: 0.5
  }
}
layer {
  name: "score_fr"
  type: "Convolution"
  bottom: "fc7"
  top: "score_fr"
  param {
    lr_mult: 1
    decay_mult: 1
  }
  param {
    lr_mult: 2
    decay_mult: 0
  }
  convolution_param {
    num_output: 6
    pad: 0
    kernel_size: 1
    weight_filler {
      type: "xavier"
    }
  }
}
layer {
  name: "upscore2"
  type: "Deconvolution"
  bottom: "score_fr"
  top: "upscore2"
  param {
    lr_mult: 0
  }
  convolution_param {
    num_output: 6
    bias_term: false
    kernel_size: 4
    stride: 2
    weight_filler {
      type: "xavier"
    }
  }
}
layer {
  name: "scale_pool4"
  type: "Scale"
  bottom: "pool4"
  top: "scale_pool4"
  param {
    lr_mult: 0
  }
  scale_param {
    filler {
      type: "constant"
      value: 0.01
    }
  }
}
layer {
  name: "score_pool4"
  type: "Convolution"
  bottom: "scale_pool4"
  top: "score_pool4"
  param {
    lr_mult: 1
    decay_mult: 1
  }
  param {
    lr_mult: 2
    decay_mult: 0
  }
  convolution_param {
    num_output: 6
    pad: 0
    kernel_size: 1
    weight_filler {
      type: "xavier"
    }
  }
}
layer {
  name: "score_pool4c"
  type: "Crop"
  bottom: "score_pool4"
  bottom: "upscore2"
  top: "score_pool4c"
  crop_param {
    axis: 2
    offset: 5
  }
}
layer {
  name: "fuse_pool4"
  type: "Eltwise"
  bottom: "upscore2"
  bottom: "score_pool4c"
  top: "fuse_pool4"
  eltwise_param {
    operation: SUM
  }
}
layer {
  name: "upscore_pool4"
  type: "Deconvolution"
  bottom: "fuse_pool4"
  top: "upscore_pool4"
  param {
    lr_mult: 0
  }
  convolution_param {
    num_output: 6
    bias_term: false
    kernel_size: 4
    stride: 2
    weight_filler {
      type: "xavier"
    }
  }
}
layer {
  name: "scale_pool3"
  type: "Scale"
  bottom: "pool3"
  top: "scale_pool3"
  param {
    lr_mult: 0
  }
  scale_param {
    filler {
      type: "constant"
      value: 0.0001
    }
  }
}
layer {
  name: "score_pool3"
  type: "Convolution"
  bottom: "scale_pool3"
  top: "score_pool3"
  param {
    lr_mult: 1
    decay_mult: 1
  }
  param {
    lr_mult: 2
    decay_mult: 0
  }
  convolution_param {
    num_output: 6
    pad: 0
    kernel_size: 1
    weight_filler {
      type: "xavier"
    }
  }
}
layer {
  name: "score_pool3c"
  type: "Crop"
  bottom: "score_pool3"
  bottom: "upscore_pool4"
  top: "score_pool3c"
  crop_param {
    axis: 2
    offset: 9
  }
}
layer {
  name: "fuse_pool3"
  type: "Eltwise"
  bottom: "upscore_pool4"
  bottom: "score_pool3c"
  top: "fuse_pool3"
  eltwise_param {
    operation: SUM
  }
}
layer {
  name: "upscore8"
  type: "Deconvolution"
  bottom: "fuse_pool3"
  top: "upscore8"
  param {
    lr_mult: 0
  }
  convolution_param {
    num_output: 6
    bias_term: false
    kernel_size: 16
    stride: 8
    weight_filler {
      type: "xavier"
    }
  }
}
layer {
  name: "score"
  type: "Crop"
  bottom: "upscore8"
  bottom: "data"
  top: "score"
  crop_param {
    axis: 2
    offset: 31
  }
}
layer {
  name: "loss"
  type: "SoftmaxWithLoss"
  bottom: "score"
  bottom: "label"
  top: "loss"
  loss_param {
    ignore_label: 255
    normalize: false
  }
}
I0206 10:31:09.067487 13943 layer_factory.hpp:77] Creating layer data
I0206 10:31:09.067984 13943 net.cpp:100] Creating Layer data
I0206 10:31:09.067999 13943 net.cpp:408] data -> data
I0206 10:31:09.068017 13943 net.cpp:408] data -> label
I0206 10:31:09.108939 13943 net.cpp:150] Setting up data
I0206 10:31:09.108980 13943 net.cpp:157] Top shape: 1 3 375 500 (562500)
I0206 10:31:09.108988 13943 net.cpp:157] Top shape: 1 1 375 500 (187500)
I0206 10:31:09.108991 13943 net.cpp:165] Memory required for data: 3000000
I0206 10:31:09.109000 13943 layer_factory.hpp:77] Creating layer data_data_0_split
I0206 10:31:09.109016 13943 net.cpp:100] Creating Layer data_data_0_split
I0206 10:31:09.109022 13943 net.cpp:434] data_data_0_split <- data
I0206 10:31:09.109031 13943 net.cpp:408] data_data_0_split -> data_data_0_split_0
I0206 10:31:09.109043 13943 net.cpp:408] data_data_0_split -> data_data_0_split_1
I0206 10:31:09.109084 13943 net.cpp:150] Setting up data_data_0_split
I0206 10:31:09.109092 13943 net.cpp:157] Top shape: 1 3 375 500 (562500)
I0206 10:31:09.109097 13943 net.cpp:157] Top shape: 1 3 375 500 (562500)
I0206 10:31:09.109102 13943 net.cpp:165] Memory required for data: 7500000
I0206 10:31:09.109105 13943 layer_factory.hpp:77] Creating layer conv1_1
I0206 10:31:09.109124 13943 net.cpp:100] Creating Layer conv1_1
I0206 10:31:09.109129 13943 net.cpp:434] conv1_1 <- data_data_0_split_0
I0206 10:31:09.109145 13943 net.cpp:408] conv1_1 -> conv1_1
I0206 10:31:09.293809 13943 net.cpp:150] Setting up conv1_1
I0206 10:31:09.293889 13943 net.cpp:157] Top shape: 1 64 573 698 (25597056)
I0206 10:31:09.293895 13943 net.cpp:165] Memory required for data: 109888224
I0206 10:31:09.293920 13943 layer_factory.hpp:77] Creating layer relu1_1
I0206 10:31:09.293977 13943 net.cpp:100] Creating Layer relu1_1
I0206 10:31:09.293987 13943 net.cpp:434] relu1_1 <- conv1_1
I0206 10:31:09.293993 13943 net.cpp:395] relu1_1 -> conv1_1 (in-place)
I0206 10:31:09.294353 13943 net.cpp:150] Setting up relu1_1
I0206 10:31:09.294368 13943 net.cpp:157] Top shape: 1 64 573 698 (25597056)
I0206 10:31:09.294373 13943 net.cpp:165] Memory required for data: 212276448
I0206 10:31:09.294379 13943 layer_factory.hpp:77] Creating layer conv1_2
I0206 10:31:09.294412 13943 net.cpp:100] Creating Layer conv1_2
I0206 10:31:09.294419 13943 net.cpp:434] conv1_2 <- conv1_1
I0206 10:31:09.294425 13943 net.cpp:408] conv1_2 -> conv1_2
I0206 10:31:09.297124 13943 net.cpp:150] Setting up conv1_2
I0206 10:31:09.297140 13943 net.cpp:157] Top shape: 1 64 573 698 (25597056)
I0206 10:31:09.297145 13943 net.cpp:165] Memory required for data: 314664672
I0206 10:31:09.297157 13943 layer_factory.hpp:77] Creating layer relu1_2
I0206 10:31:09.297164 13943 net.cpp:100] Creating Layer relu1_2
I0206 10:31:09.297169 13943 net.cpp:434] relu1_2 <- conv1_2
I0206 10:31:09.297176 13943 net.cpp:395] relu1_2 -> conv1_2 (in-place)
I0206 10:31:09.297526 13943 net.cpp:150] Setting up relu1_2
I0206 10:31:09.297539 13943 net.cpp:157] Top shape: 1 64 573 698 (25597056)
I0206 10:31:09.297544 13943 net.cpp:165] Memory required for data: 417052896
I0206 10:31:09.297549 13943 layer_factory.hpp:77] Creating layer pool1
I0206 10:31:09.297562 13943 net.cpp:100] Creating Layer pool1
I0206 10:31:09.297567 13943 net.cpp:434] pool1 <- conv1_2
I0206 10:31:09.297574 13943 net.cpp:408] pool1 -> pool1
I0206 10:31:09.297619 13943 net.cpp:150] Setting up pool1
I0206 10:31:09.297626 13943 net.cpp:157] Top shape: 1 64 287 349 (6410432)
I0206 10:31:09.297631 13943 net.cpp:165] Memory required for data: 442694624
I0206 10:31:09.297634 13943 layer_factory.hpp:77] Creating layer conv2_1
I0206 10:31:09.297652 13943 net.cpp:100] Creating Layer conv2_1
I0206 10:31:09.297658 13943 net.cpp:434] conv2_1 <- pool1
I0206 10:31:09.297664 13943 net.cpp:408] conv2_1 -> conv2_1
I0206 10:31:09.299916 13943 net.cpp:150] Setting up conv2_1
I0206 10:31:09.299932 13943 net.cpp:157] Top shape: 1 128 287 349 (12820864)
I0206 10:31:09.299937 13943 net.cpp:165] Memory required for data: 493978080
I0206 10:31:09.299948 13943 layer_factory.hpp:77] Creating layer relu2_1
I0206 10:31:09.299960 13943 net.cpp:100] Creating Layer relu2_1
I0206 10:31:09.299965 13943 net.cpp:434] relu2_1 <- conv2_1
I0206 10:31:09.299973 13943 net.cpp:395] relu2_1 -> conv2_1 (in-place)
I0206 10:31:09.300153 13943 net.cpp:150] Setting up relu2_1
I0206 10:31:09.300163 13943 net.cpp:157] Top shape: 1 128 287 349 (12820864)
I0206 10:31:09.300166 13943 net.cpp:165] Memory required for data: 545261536
I0206 10:31:09.300171 13943 layer_factory.hpp:77] Creating layer conv2_2
I0206 10:31:09.300184 13943 net.cpp:100] Creating Layer conv2_2
I0206 10:31:09.300189 13943 net.cpp:434] conv2_2 <- conv2_1
I0206 10:31:09.300195 13943 net.cpp:408] conv2_2 -> conv2_2
I0206 10:31:09.302656 13943 net.cpp:150] Setting up conv2_2
I0206 10:31:09.302673 13943 net.cpp:157] Top shape: 1 128 287 349 (12820864)
I0206 10:31:09.302678 13943 net.cpp:165] Memory required for data: 596544992
I0206 10:31:09.302687 13943 layer_factory.hpp:77] Creating layer relu2_2
I0206 10:31:09.302695 13943 net.cpp:100] Creating Layer relu2_2
I0206 10:31:09.302700 13943 net.cpp:434] relu2_2 <- conv2_2
I0206 10:31:09.302706 13943 net.cpp:395] relu2_2 -> conv2_2 (in-place)
I0206 10:31:09.303056 13943 net.cpp:150] Setting up relu2_2
I0206 10:31:09.303068 13943 net.cpp:157] Top shape: 1 128 287 349 (12820864)
I0206 10:31:09.303073 13943 net.cpp:165] Memory required for data: 647828448
I0206 10:31:09.303087 13943 layer_factory.hpp:77] Creating layer pool2
I0206 10:31:09.303098 13943 net.cpp:100] Creating Layer pool2
I0206 10:31:09.303102 13943 net.cpp:434] pool2 <- conv2_2
I0206 10:31:09.303109 13943 net.cpp:408] pool2 -> pool2
I0206 10:31:09.303155 13943 net.cpp:150] Setting up pool2
I0206 10:31:09.303163 13943 net.cpp:157] Top shape: 1 128 144 175 (3225600)
I0206 10:31:09.303166 13943 net.cpp:165] Memory required for data: 660730848
I0206 10:31:09.303171 13943 layer_factory.hpp:77] Creating layer conv3_1
I0206 10:31:09.303181 13943 net.cpp:100] Creating Layer conv3_1
I0206 10:31:09.303185 13943 net.cpp:434] conv3_1 <- pool2
I0206 10:31:09.303192 13943 net.cpp:408] conv3_1 -> conv3_1
I0206 10:31:09.306273 13943 net.cpp:150] Setting up conv3_1
I0206 10:31:09.306289 13943 net.cpp:157] Top shape: 1 256 144 175 (6451200)
I0206 10:31:09.306294 13943 net.cpp:165] Memory required for data: 686535648
I0206 10:31:09.306308 13943 layer_factory.hpp:77] Creating layer relu3_1
I0206 10:31:09.306315 13943 net.cpp:100] Creating Layer relu3_1
I0206 10:31:09.306319 13943 net.cpp:434] relu3_1 <- conv3_1
I0206 10:31:09.306325 13943 net.cpp:395] relu3_1 -> conv3_1 (in-place)
I0206 10:31:09.306694 13943 net.cpp:150] Setting up relu3_1
I0206 10:31:09.306707 13943 net.cpp:157] Top shape: 1 256 144 175 (6451200)
I0206 10:31:09.306711 13943 net.cpp:165] Memory required for data: 712340448
I0206 10:31:09.306716 13943 layer_factory.hpp:77] Creating layer conv3_2
I0206 10:31:09.306730 13943 net.cpp:100] Creating Layer conv3_2
I0206 10:31:09.306735 13943 net.cpp:434] conv3_2 <- conv3_1
I0206 10:31:09.306742 13943 net.cpp:408] conv3_2 -> conv3_2
I0206 10:31:09.311939 13943 net.cpp:150] Setting up conv3_2
I0206 10:31:09.311956 13943 net.cpp:157] Top shape: 1 256 144 175 (6451200)
I0206 10:31:09.311961 13943 net.cpp:165] Memory required for data: 738145248
I0206 10:31:09.311969 13943 layer_factory.hpp:77] Creating layer relu3_2
I0206 10:31:09.311976 13943 net.cpp:100] Creating Layer relu3_2
I0206 10:31:09.311981 13943 net.cpp:434] relu3_2 <- conv3_2
I0206 10:31:09.311987 13943 net.cpp:395] relu3_2 -> conv3_2 (in-place)
I0206 10:31:09.312180 13943 net.cpp:150] Setting up relu3_2
I0206 10:31:09.312188 13943 net.cpp:157] Top shape: 1 256 144 175 (6451200)
I0206 10:31:09.312192 13943 net.cpp:165] Memory required for data: 763950048
I0206 10:31:09.312198 13943 layer_factory.hpp:77] Creating layer conv3_3
I0206 10:31:09.312211 13943 net.cpp:100] Creating Layer conv3_3
I0206 10:31:09.312216 13943 net.cpp:434] conv3_3 <- conv3_2
I0206 10:31:09.312224 13943 net.cpp:408] conv3_3 -> conv3_3
I0206 10:31:09.317414 13943 net.cpp:150] Setting up conv3_3
I0206 10:31:09.317430 13943 net.cpp:157] Top shape: 1 256 144 175 (6451200)
I0206 10:31:09.317435 13943 net.cpp:165] Memory required for data: 789754848
I0206 10:31:09.317442 13943 layer_factory.hpp:77] Creating layer relu3_3
I0206 10:31:09.317451 13943 net.cpp:100] Creating Layer relu3_3
I0206 10:31:09.317456 13943 net.cpp:434] relu3_3 <- conv3_3
I0206 10:31:09.317463 13943 net.cpp:395] relu3_3 -> conv3_3 (in-place)
I0206 10:31:09.317837 13943 net.cpp:150] Setting up relu3_3
I0206 10:31:09.317852 13943 net.cpp:157] Top shape: 1 256 144 175 (6451200)
I0206 10:31:09.317857 13943 net.cpp:165] Memory required for data: 815559648
I0206 10:31:09.317862 13943 layer_factory.hpp:77] Creating layer pool3
I0206 10:31:09.317868 13943 net.cpp:100] Creating Layer pool3
I0206 10:31:09.317873 13943 net.cpp:434] pool3 <- conv3_3
I0206 10:31:09.317881 13943 net.cpp:408] pool3 -> pool3
I0206 10:31:09.317927 13943 net.cpp:150] Setting up pool3
I0206 10:31:09.317934 13943 net.cpp:157] Top shape: 1 256 72 88 (1622016)
I0206 10:31:09.317939 13943 net.cpp:165] Memory required for data: 822047712
I0206 10:31:09.317942 13943 layer_factory.hpp:77] Creating layer pool3_pool3_0_split
I0206 10:31:09.317950 13943 net.cpp:100] Creating Layer pool3_pool3_0_split
I0206 10:31:09.317955 13943 net.cpp:434] pool3_pool3_0_split <- pool3
I0206 10:31:09.317960 13943 net.cpp:408] pool3_pool3_0_split -> pool3_pool3_0_split_0
I0206 10:31:09.317968 13943 net.cpp:408] pool3_pool3_0_split -> pool3_pool3_0_split_1
I0206 10:31:09.318011 13943 net.cpp:150] Setting up pool3_pool3_0_split
I0206 10:31:09.318018 13943 net.cpp:157] Top shape: 1 256 72 88 (1622016)
I0206 10:31:09.318023 13943 net.cpp:157] Top shape: 1 256 72 88 (1622016)
I0206 10:31:09.318027 13943 net.cpp:165] Memory required for data: 835023840
I0206 10:31:09.318032 13943 layer_factory.hpp:77] Creating layer conv4_1
I0206 10:31:09.318045 13943 net.cpp:100] Creating Layer conv4_1
I0206 10:31:09.318049 13943 net.cpp:434] conv4_1 <- pool3_pool3_0_split_0
I0206 10:31:09.318058 13943 net.cpp:408] conv4_1 -> conv4_1
I0206 10:31:09.328258 13943 net.cpp:150] Setting up conv4_1
I0206 10:31:09.328276 13943 net.cpp:157] Top shape: 1 512 72 88 (3244032)
I0206 10:31:09.328280 13943 net.cpp:165] Memory required for data: 847999968
I0206 10:31:09.328289 13943 layer_factory.hpp:77] Creating layer relu4_1
I0206 10:31:09.328299 13943 net.cpp:100] Creating Layer relu4_1
I0206 10:31:09.328305 13943 net.cpp:434] relu4_1 <- conv4_1
I0206 10:31:09.328310 13943 net.cpp:395] relu4_1 -> conv4_1 (in-place)
I0206 10:31:09.328685 13943 net.cpp:150] Setting up relu4_1
I0206 10:31:09.328701 13943 net.cpp:157] Top shape: 1 512 72 88 (3244032)
I0206 10:31:09.328704 13943 net.cpp:165] Memory required for data: 860976096
I0206 10:31:09.328709 13943 layer_factory.hpp:77] Creating layer conv4_2
I0206 10:31:09.328721 13943 net.cpp:100] Creating Layer conv4_2
I0206 10:31:09.328725 13943 net.cpp:434] conv4_2 <- conv4_1
I0206 10:31:09.328734 13943 net.cpp:408] conv4_2 -> conv4_2
I0206 10:31:09.345583 13943 net.cpp:150] Setting up conv4_2
I0206 10:31:09.345608 13943 net.cpp:157] Top shape: 1 512 72 88 (3244032)
I0206 10:31:09.345613 13943 net.cpp:165] Memory required for data: 873952224
I0206 10:31:09.345628 13943 layer_factory.hpp:77] Creating layer relu4_2
I0206 10:31:09.345648 13943 net.cpp:100] Creating Layer relu4_2
I0206 10:31:09.345654 13943 net.cpp:434] relu4_2 <- conv4_2
I0206 10:31:09.345660 13943 net.cpp:395] relu4_2 -> conv4_2 (in-place)
I0206 10:31:09.345851 13943 net.cpp:150] Setting up relu4_2
I0206 10:31:09.345861 13943 net.cpp:157] Top shape: 1 512 72 88 (3244032)
I0206 10:31:09.345865 13943 net.cpp:165] Memory required for data: 886928352
I0206 10:31:09.345871 13943 layer_factory.hpp:77] Creating layer conv4_3
I0206 10:31:09.345883 13943 net.cpp:100] Creating Layer conv4_3
I0206 10:31:09.345888 13943 net.cpp:434] conv4_3 <- conv4_2
I0206 10:31:09.345897 13943 net.cpp:408] conv4_3 -> conv4_3
I0206 10:31:09.362730 13943 net.cpp:150] Setting up conv4_3
I0206 10:31:09.362753 13943 net.cpp:157] Top shape: 1 512 72 88 (3244032)
I0206 10:31:09.362758 13943 net.cpp:165] Memory required for data: 899904480
I0206 10:31:09.362767 13943 layer_factory.hpp:77] Creating layer relu4_3
I0206 10:31:09.362778 13943 net.cpp:100] Creating Layer relu4_3
I0206 10:31:09.362784 13943 net.cpp:434] relu4_3 <- conv4_3
I0206 10:31:09.362790 13943 net.cpp:395] relu4_3 -> conv4_3 (in-place)
I0206 10:31:09.363160 13943 net.cpp:150] Setting up relu4_3
I0206 10:31:09.363176 13943 net.cpp:157] Top shape: 1 512 72 88 (3244032)
I0206 10:31:09.363180 13943 net.cpp:165] Memory required for data: 912880608
I0206 10:31:09.363185 13943 layer_factory.hpp:77] Creating layer pool4
I0206 10:31:09.363194 13943 net.cpp:100] Creating Layer pool4
I0206 10:31:09.363199 13943 net.cpp:434] pool4 <- conv4_3
I0206 10:31:09.363205 13943 net.cpp:408] pool4 -> pool4
I0206 10:31:09.363256 13943 net.cpp:150] Setting up pool4
I0206 10:31:09.363263 13943 net.cpp:157] Top shape: 1 512 36 44 (811008)
I0206 10:31:09.363267 13943 net.cpp:165] Memory required for data: 916124640
I0206 10:31:09.363271 13943 layer_factory.hpp:77] Creating layer pool4_pool4_0_split
I0206 10:31:09.363278 13943 net.cpp:100] Creating Layer pool4_pool4_0_split
I0206 10:31:09.363282 13943 net.cpp:434] pool4_pool4_0_split <- pool4
I0206 10:31:09.363291 13943 net.cpp:408] pool4_pool4_0_split -> pool4_pool4_0_split_0
I0206 10:31:09.363296 13943 net.cpp:408] pool4_pool4_0_split -> pool4_pool4_0_split_1
I0206 10:31:09.363335 13943 net.cpp:150] Setting up pool4_pool4_0_split
I0206 10:31:09.363350 13943 net.cpp:157] Top shape: 1 512 36 44 (811008)
I0206 10:31:09.363355 13943 net.cpp:157] Top shape: 1 512 36 44 (811008)
I0206 10:31:09.363359 13943 net.cpp:165] Memory required for data: 922612704
I0206 10:31:09.363364 13943 layer_factory.hpp:77] Creating layer conv5_1
I0206 10:31:09.363379 13943 net.cpp:100] Creating Layer conv5_1
I0206 10:31:09.363384 13943 net.cpp:434] conv5_1 <- pool4_pool4_0_split_0
I0206 10:31:09.363389 13943 net.cpp:408] conv5_1 -> conv5_1
I0206 10:31:09.380051 13943 net.cpp:150] Setting up conv5_1
I0206 10:31:09.380076 13943 net.cpp:157] Top shape: 1 512 36 44 (811008)
I0206 10:31:09.380081 13943 net.cpp:165] Memory required for data: 925856736
I0206 10:31:09.380090 13943 layer_factory.hpp:77] Creating layer relu5_1
I0206 10:31:09.380100 13943 net.cpp:100] Creating Layer relu5_1
I0206 10:31:09.380106 13943 net.cpp:434] relu5_1 <- conv5_1
I0206 10:31:09.380113 13943 net.cpp:395] relu5_1 -> conv5_1 (in-place)
I0206 10:31:09.380483 13943 net.cpp:150] Setting up relu5_1
I0206 10:31:09.380496 13943 net.cpp:157] Top shape: 1 512 36 44 (811008)
I0206 10:31:09.380501 13943 net.cpp:165] Memory required for data: 929100768
I0206 10:31:09.380506 13943 layer_factory.hpp:77] Creating layer conv5_2
I0206 10:31:09.380518 13943 net.cpp:100] Creating Layer conv5_2
I0206 10:31:09.380523 13943 net.cpp:434] conv5_2 <- conv5_1
I0206 10:31:09.380532 13943 net.cpp:408] conv5_2 -> conv5_2
I0206 10:31:09.397493 13943 net.cpp:150] Setting up conv5_2
I0206 10:31:09.397516 13943 net.cpp:157] Top shape: 1 512 36 44 (811008)
I0206 10:31:09.397521 13943 net.cpp:165] Memory required for data: 932344800
I0206 10:31:09.397531 13943 layer_factory.hpp:77] Creating layer relu5_2
I0206 10:31:09.397541 13943 net.cpp:100] Creating Layer relu5_2
I0206 10:31:09.397547 13943 net.cpp:434] relu5_2 <- conv5_2
I0206 10:31:09.397553 13943 net.cpp:395] relu5_2 -> conv5_2 (in-place)
I0206 10:31:09.397753 13943 net.cpp:150] Setting up relu5_2
I0206 10:31:09.397764 13943 net.cpp:157] Top shape: 1 512 36 44 (811008)
I0206 10:31:09.397768 13943 net.cpp:165] Memory required for data: 935588832
I0206 10:31:09.397775 13943 layer_factory.hpp:77] Creating layer conv5_3
I0206 10:31:09.397794 13943 net.cpp:100] Creating Layer conv5_3
I0206 10:31:09.397799 13943 net.cpp:434] conv5_3 <- conv5_2
I0206 10:31:09.397809 13943 net.cpp:408] conv5_3 -> conv5_3
I0206 10:31:09.414647 13943 net.cpp:150] Setting up conv5_3
I0206 10:31:09.414670 13943 net.cpp:157] Top shape: 1 512 36 44 (811008)
I0206 10:31:09.414675 13943 net.cpp:165] Memory required for data: 938832864
I0206 10:31:09.414683 13943 layer_factory.hpp:77] Creating layer relu5_3
I0206 10:31:09.414691 13943 net.cpp:100] Creating Layer relu5_3
I0206 10:31:09.414700 13943 net.cpp:434] relu5_3 <- conv5_3
I0206 10:31:09.414706 13943 net.cpp:395] relu5_3 -> conv5_3 (in-place)
I0206 10:31:09.415262 13943 net.cpp:150] Setting up relu5_3
I0206 10:31:09.415277 13943 net.cpp:157] Top shape: 1 512 36 44 (811008)
I0206 10:31:09.415280 13943 net.cpp:165] Memory required for data: 942076896
I0206 10:31:09.415285 13943 layer_factory.hpp:77] Creating layer pool5
I0206 10:31:09.415297 13943 net.cpp:100] Creating Layer pool5
I0206 10:31:09.415302 13943 net.cpp:434] pool5 <- conv5_3
I0206 10:31:09.415308 13943 net.cpp:408] pool5 -> pool5
I0206 10:31:09.415360 13943 net.cpp:150] Setting up pool5
I0206 10:31:09.415367 13943 net.cpp:157] Top shape: 1 512 18 22 (202752)
I0206 10:31:09.415371 13943 net.cpp:165] Memory required for data: 942887904
I0206 10:31:09.415375 13943 layer_factory.hpp:77] Creating layer fc6
I0206 10:31:09.415390 13943 net.cpp:100] Creating Layer fc6
I0206 10:31:09.415395 13943 net.cpp:434] fc6 <- pool5
I0206 10:31:09.415402 13943 net.cpp:408] fc6 -> fc6
I0206 10:31:10.116992 13943 net.cpp:150] Setting up fc6
I0206 10:31:10.117041 13943 net.cpp:157] Top shape: 1 4096 12 16 (786432)
I0206 10:31:10.117048 13943 net.cpp:165] Memory required for data: 946033632
I0206 10:31:10.117060 13943 layer_factory.hpp:77] Creating layer relu6
I0206 10:31:10.117084 13943 net.cpp:100] Creating Layer relu6
I0206 10:31:10.117091 13943 net.cpp:434] relu6 <- fc6
I0206 10:31:10.117100 13943 net.cpp:395] relu6 -> fc6 (in-place)
I0206 10:31:10.117485 13943 net.cpp:150] Setting up relu6
I0206 10:31:10.117497 13943 net.cpp:157] Top shape: 1 4096 12 16 (786432)
I0206 10:31:10.117502 13943 net.cpp:165] Memory required for data: 949179360
I0206 10:31:10.117506 13943 layer_factory.hpp:77] Creating layer drop6
I0206 10:31:10.117522 13943 net.cpp:100] Creating Layer drop6
I0206 10:31:10.117527 13943 net.cpp:434] drop6 <- fc6
I0206 10:31:10.117532 13943 net.cpp:395] drop6 -> fc6 (in-place)
I0206 10:31:10.117570 13943 net.cpp:150] Setting up drop6
I0206 10:31:10.117578 13943 net.cpp:157] Top shape: 1 4096 12 16 (786432)
I0206 10:31:10.117583 13943 net.cpp:165] Memory required for data: 952325088
I0206 10:31:10.117586 13943 layer_factory.hpp:77] Creating layer fc7
I0206 10:31:10.117599 13943 net.cpp:100] Creating Layer fc7
I0206 10:31:10.117604 13943 net.cpp:434] fc7 <- fc6
I0206 10:31:10.117612 13943 net.cpp:408] fc7 -> fc7
I0206 10:31:10.234073 13943 net.cpp:150] Setting up fc7
I0206 10:31:10.234114 13943 net.cpp:157] Top shape: 1 4096 12 16 (786432)
I0206 10:31:10.234119 13943 net.cpp:165] Memory required for data: 955470816
I0206 10:31:10.234132 13943 layer_factory.hpp:77] Creating layer relu7
I0206 10:31:10.234148 13943 net.cpp:100] Creating Layer relu7
I0206 10:31:10.234154 13943 net.cpp:434] relu7 <- fc7
I0206 10:31:10.234164 13943 net.cpp:395] relu7 -> fc7 (in-place)
I0206 10:31:10.234375 13943 net.cpp:150] Setting up relu7
I0206 10:31:10.234385 13943 net.cpp:157] Top shape: 1 4096 12 16 (786432)
I0206 10:31:10.234388 13943 net.cpp:165] Memory required for data: 958616544
I0206 10:31:10.234392 13943 layer_factory.hpp:77] Creating layer drop7
I0206 10:31:10.234401 13943 net.cpp:100] Creating Layer drop7
I0206 10:31:10.234405 13943 net.cpp:434] drop7 <- fc7
I0206 10:31:10.234412 13943 net.cpp:395] drop7 -> fc7 (in-place)
I0206 10:31:10.234449 13943 net.cpp:150] Setting up drop7
I0206 10:31:10.234455 13943 net.cpp:157] Top shape: 1 4096 12 16 (786432)
I0206 10:31:10.234459 13943 net.cpp:165] Memory required for data: 961762272
I0206 10:31:10.234463 13943 layer_factory.hpp:77] Creating layer score_fr
I0206 10:31:10.234477 13943 net.cpp:100] Creating Layer score_fr
I0206 10:31:10.234480 13943 net.cpp:434] score_fr <- fc7
I0206 10:31:10.234488 13943 net.cpp:408] score_fr -> score_fr
I0206 10:31:10.235860 13943 net.cpp:150] Setting up score_fr
I0206 10:31:10.235875 13943 net.cpp:157] Top shape: 1 6 12 16 (1152)
I0206 10:31:10.235880 13943 net.cpp:165] Memory required for data: 961766880
I0206 10:31:10.235888 13943 layer_factory.hpp:77] Creating layer upscore2
I0206 10:31:10.235905 13943 net.cpp:100] Creating Layer upscore2
I0206 10:31:10.235910 13943 net.cpp:434] upscore2 <- score_fr
I0206 10:31:10.235918 13943 net.cpp:408] upscore2 -> upscore2
I0206 10:31:10.236129 13943 net.cpp:150] Setting up upscore2
I0206 10:31:10.236136 13943 net.cpp:157] Top shape: 1 6 26 34 (5304)
I0206 10:31:10.236140 13943 net.cpp:165] Memory required for data: 961788096
I0206 10:31:10.236158 13943 layer_factory.hpp:77] Creating layer upscore2_upscore2_0_split
I0206 10:31:10.236166 13943 net.cpp:100] Creating Layer upscore2_upscore2_0_split
I0206 10:31:10.236171 13943 net.cpp:434] upscore2_upscore2_0_split <- upscore2
I0206 10:31:10.236177 13943 net.cpp:408] upscore2_upscore2_0_split -> upscore2_upscore2_0_split_0
I0206 10:31:10.236184 13943 net.cpp:408] upscore2_upscore2_0_split -> upscore2_upscore2_0_split_1
I0206 10:31:10.236225 13943 net.cpp:150] Setting up upscore2_upscore2_0_split
I0206 10:31:10.236232 13943 net.cpp:157] Top shape: 1 6 26 34 (5304)
I0206 10:31:10.236238 13943 net.cpp:157] Top shape: 1 6 26 34 (5304)
I0206 10:31:10.236241 13943 net.cpp:165] Memory required for data: 961830528
I0206 10:31:10.236245 13943 layer_factory.hpp:77] Creating layer scale_pool4
I0206 10:31:10.236258 13943 net.cpp:100] Creating Layer scale_pool4
I0206 10:31:10.236263 13943 net.cpp:434] scale_pool4 <- pool4_pool4_0_split_1
I0206 10:31:10.236279 13943 net.cpp:408] scale_pool4 -> scale_pool4
I0206 10:31:10.236388 13943 net.cpp:150] Setting up scale_pool4
I0206 10:31:10.236399 13943 net.cpp:157] Top shape: 1 512 36 44 (811008)
I0206 10:31:10.236403 13943 net.cpp:165] Memory required for data: 965074560
I0206 10:31:10.236408 13943 layer_factory.hpp:77] Creating layer score_pool4
I0206 10:31:10.236419 13943 net.cpp:100] Creating Layer score_pool4
I0206 10:31:10.236424 13943 net.cpp:434] score_pool4 <- scale_pool4
I0206 10:31:10.236430 13943 net.cpp:408] score_pool4 -> score_pool4
I0206 10:31:10.237713 13943 net.cpp:150] Setting up score_pool4
I0206 10:31:10.237728 13943 net.cpp:157] Top shape: 1 6 36 44 (9504)
I0206 10:31:10.237733 13943 net.cpp:165] Memory required for data: 965112576
I0206 10:31:10.237741 13943 layer_factory.hpp:77] Creating layer score_pool4c
I0206 10:31:10.237751 13943 net.cpp:100] Creating Layer score_pool4c
I0206 10:31:10.237756 13943 net.cpp:434] score_pool4c <- score_pool4
I0206 10:31:10.237762 13943 net.cpp:434] score_pool4c <- upscore2_upscore2_0_split_0
I0206 10:31:10.237771 13943 net.cpp:408] score_pool4c -> score_pool4c
I0206 10:31:10.237808 13943 net.cpp:150] Setting up score_pool4c
I0206 10:31:10.237817 13943 net.cpp:157] Top shape: 1 6 26 34 (5304)
I0206 10:31:10.237820 13943 net.cpp:165] Memory required for data: 965133792
I0206 10:31:10.237825 13943 layer_factory.hpp:77] Creating layer fuse_pool4
I0206 10:31:10.237834 13943 net.cpp:100] Creating Layer fuse_pool4
I0206 10:31:10.237838 13943 net.cpp:434] fuse_pool4 <- upscore2_upscore2_0_split_1
I0206 10:31:10.237843 13943 net.cpp:434] fuse_pool4 <- score_pool4c
I0206 10:31:10.237849 13943 net.cpp:408] fuse_pool4 -> fuse_pool4
I0206 10:31:10.237880 13943 net.cpp:150] Setting up fuse_pool4
I0206 10:31:10.237887 13943 net.cpp:157] Top shape: 1 6 26 34 (5304)
I0206 10:31:10.237891 13943 net.cpp:165] Memory required for data: 965155008
I0206 10:31:10.237895 13943 layer_factory.hpp:77] Creating layer upscore_pool4
I0206 10:31:10.237905 13943 net.cpp:100] Creating Layer upscore_pool4
I0206 10:31:10.237910 13943 net.cpp:434] upscore_pool4 <- fuse_pool4
I0206 10:31:10.237916 13943 net.cpp:408] upscore_pool4 -> upscore_pool4
I0206 10:31:10.238118 13943 net.cpp:150] Setting up upscore_pool4
I0206 10:31:10.238126 13943 net.cpp:157] Top shape: 1 6 54 70 (22680)
I0206 10:31:10.238131 13943 net.cpp:165] Memory required for data: 965245728
I0206 10:31:10.238137 13943 layer_factory.hpp:77] Creating layer upscore_pool4_upscore_pool4_0_split
I0206 10:31:10.238144 13943 net.cpp:100] Creating Layer upscore_pool4_upscore_pool4_0_split
I0206 10:31:10.238149 13943 net.cpp:434] upscore_pool4_upscore_pool4_0_split <- upscore_pool4
I0206 10:31:10.238154 13943 net.cpp:408] upscore_pool4_upscore_pool4_0_split -> upscore_pool4_upscore_pool4_0_split_0
I0206 10:31:10.238162 13943 net.cpp:408] upscore_pool4_upscore_pool4_0_split -> upscore_pool4_upscore_pool4_0_split_1
I0206 10:31:10.238200 13943 net.cpp:150] Setting up upscore_pool4_upscore_pool4_0_split
I0206 10:31:10.238207 13943 net.cpp:157] Top shape: 1 6 54 70 (22680)
I0206 10:31:10.238212 13943 net.cpp:157] Top shape: 1 6 54 70 (22680)
I0206 10:31:10.238215 13943 net.cpp:165] Memory required for data: 965427168
I0206 10:31:10.238219 13943 layer_factory.hpp:77] Creating layer scale_pool3
I0206 10:31:10.238226 13943 net.cpp:100] Creating Layer scale_pool3
I0206 10:31:10.238231 13943 net.cpp:434] scale_pool3 <- pool3_pool3_0_split_1
I0206 10:31:10.238236 13943 net.cpp:408] scale_pool3 -> scale_pool3
I0206 10:31:10.238338 13943 net.cpp:150] Setting up scale_pool3
I0206 10:31:10.238346 13943 net.cpp:157] Top shape: 1 256 72 88 (1622016)
I0206 10:31:10.238350 13943 net.cpp:165] Memory required for data: 971915232
I0206 10:31:10.238355 13943 layer_factory.hpp:77] Creating layer score_pool3
I0206 10:31:10.238368 13943 net.cpp:100] Creating Layer score_pool3
I0206 10:31:10.238371 13943 net.cpp:434] score_pool3 <- scale_pool3
I0206 10:31:10.238379 13943 net.cpp:408] score_pool3 -> score_pool3
I0206 10:31:10.239609 13943 net.cpp:150] Setting up score_pool3
I0206 10:31:10.239631 13943 net.cpp:157] Top shape: 1 6 72 88 (38016)
I0206 10:31:10.239636 13943 net.cpp:165] Memory required for data: 972067296
I0206 10:31:10.239645 13943 layer_factory.hpp:77] Creating layer score_pool3c
I0206 10:31:10.239652 13943 net.cpp:100] Creating Layer score_pool3c
I0206 10:31:10.239657 13943 net.cpp:434] score_pool3c <- score_pool3
I0206 10:31:10.239662 13943 net.cpp:434] score_pool3c <- upscore_pool4_upscore_pool4_0_split_0
I0206 10:31:10.239670 13943 net.cpp:408] score_pool3c -> score_pool3c
I0206 10:31:10.239702 13943 net.cpp:150] Setting up score_pool3c
I0206 10:31:10.239711 13943 net.cpp:157] Top shape: 1 6 54 70 (22680)
I0206 10:31:10.239713 13943 net.cpp:165] Memory required for data: 972158016
I0206 10:31:10.239717 13943 layer_factory.hpp:77] Creating layer fuse_pool3
I0206 10:31:10.239727 13943 net.cpp:100] Creating Layer fuse_pool3
I0206 10:31:10.239730 13943 net.cpp:434] fuse_pool3 <- upscore_pool4_upscore_pool4_0_split_1
I0206 10:31:10.239735 13943 net.cpp:434] fuse_pool3 <- score_pool3c
I0206 10:31:10.239742 13943 net.cpp:408] fuse_pool3 -> fuse_pool3
I0206 10:31:10.239768 13943 net.cpp:150] Setting up fuse_pool3
I0206 10:31:10.239775 13943 net.cpp:157] Top shape: 1 6 54 70 (22680)
I0206 10:31:10.239778 13943 net.cpp:165] Memory required for data: 972248736
I0206 10:31:10.239783 13943 layer_factory.hpp:77] Creating layer upscore8
I0206 10:31:10.239792 13943 net.cpp:100] Creating Layer upscore8
I0206 10:31:10.239796 13943 net.cpp:434] upscore8 <- fuse_pool3
I0206 10:31:10.239802 13943 net.cpp:408] upscore8 -> upscore8
I0206 10:31:10.240066 13943 net.cpp:150] Setting up upscore8
I0206 10:31:10.240074 13943 net.cpp:157] Top shape: 1 6 440 568 (1499520)
I0206 10:31:10.240077 13943 net.cpp:165] Memory required for data: 978246816
I0206 10:31:10.240083 13943 layer_factory.hpp:77] Creating layer score
I0206 10:31:10.240090 13943 net.cpp:100] Creating Layer score
I0206 10:31:10.240094 13943 net.cpp:434] score <- upscore8
I0206 10:31:10.240101 13943 net.cpp:434] score <- data_data_0_split_1
I0206 10:31:10.240108 13943 net.cpp:408] score -> score
I0206 10:31:10.240134 13943 net.cpp:150] Setting up score
I0206 10:31:10.240140 13943 net.cpp:157] Top shape: 1 6 375 500 (1125000)
I0206 10:31:10.240144 13943 net.cpp:165] Memory required for data: 982746816
I0206 10:31:10.240147 13943 layer_factory.hpp:77] Creating layer loss
I0206 10:31:10.240157 13943 net.cpp:100] Creating Layer loss
I0206 10:31:10.240162 13943 net.cpp:434] loss <- score
I0206 10:31:10.240166 13943 net.cpp:434] loss <- label
I0206 10:31:10.240176 13943 net.cpp:408] loss -> loss
I0206 10:31:10.240188 13943 layer_factory.hpp:77] Creating layer loss
…
I0206 10:31:10.244153 13943 net.cpp:283] Network initialization done.
I0206 10:31:10.245340 13943 solver.cpp:181] Creating test net (#0) specified by test_net file: val.prototxt
I0206 10:31:10.245733 13943 net.cpp:58] Initializing net from parameters: 
state {
  phase: TEST
}
layer {
  name: "data"
  type: "Python"
  top: "data"
  top: "label"
  python_param {
    module: "voc_layers"
    layer: "PartialVOCSegDataLayer"
    param_str: "{\'voc_dir\': \'../data/pascal-obfuscated/VOC2011\', \'seed\': 1337, \'split\': \'seg11valid5\', \'mean\': (104.00699, 116.66877, 122.67892)}"
  }
}
layer {
  name: "conv1_1"
  type: "Convolution"
  bottom: "data"
  top: "conv1_1"
  param {
    lr_mult: 1
    decay_mult: 1
  }
  param {
    lr_mult: 2
    decay_mult: 0
  }
  convolution_param {
    num_output: 64
    pad: 100
    kernel_size: 3
    stride: 1
    weight_filler {
      type: "xavier"
    }
  }
}
layer {
  name: "relu1_1"
  type: "ReLU"
  bottom: "conv1_1"
  top: "conv1_1"
}
layer {
  name: "conv1_2"
  type: "Convolution"
  bottom: "conv1_1"
  top: "conv1_2"
  param {
    lr_mult: 1
    decay_mult: 1
  }
  param {
    lr_mult: 2
    decay_mult: 0
  }
  convolution_param {
    num_output: 64
    pad: 1
    kernel_size: 3
    stride: 1
    weight_filler {
      type: "xavier"
    }
  }
}
layer {
  name: "relu1_2"
  type: "ReLU"
  bottom: "conv1_2"
  top: "conv1_2"
}
layer {
  name: "pool1"
  type: "Pooling"
  bottom: "conv1_2"
  top: "pool1"
  pooling_param {
    pool: MAX
    kernel_size: 2
    stride: 2
  }
}
layer {
  name: "conv2_1"
  type: "Convolution"
  bottom: "pool1"
  top: "conv2_1"
  param {
    lr_mult: 1
    decay_mult: 1
  }
  param {
    lr_mult: 2
    decay_mult: 0
  }
  convolution_param {
    num_output: 128
    pad: 1
    kernel_size: 3
    stride: 1
    weight_filler {
      type: "xavier"
    }
  }
}
layer {
  name: "relu2_1"
  type: "ReLU"
  bottom: "conv2_1"
  top: "conv2_1"
}
layer {
  name: "conv2_2"
  type: "Convolution"
  bottom: "conv2_1"
  top: "conv2_2"
  param {
    lr_mult: 1
    decay_mult: 1
  }
  param {
    lr_mult: 2
    decay_mult: 0
  }
  convolution_param {
    num_output: 128
    pad: 1
    kernel_size: 3
    stride: 1
    weight_filler {
      type: "xavier"
    }
  }
}
layer {
  name: "relu2_2"
  type: "ReLU"
  bottom: "conv2_2"
  top: "conv2_2"
}
layer {
  name: "pool2"
  type: "Pooling"
  bottom: "conv2_2"
  top: "pool2"
  pooling_param {
    pool: MAX
    kernel_size: 2
    stride: 2
  }
}
layer {
  name: "conv3_1"
  type: "Convolution"
  bottom: "pool2"
  top: "conv3_1"
  param {
    lr_mult: 1
    decay_mult: 1
  }
  param {
    lr_mult: 2
    decay_mult: 0
  }
  convolution_param {
    num_output: 256
    pad: 1
    kernel_size: 3
    stride: 1
    weight_filler {
      type: "xavier"
    }
  }
}
layer {
  name: "relu3_1"
  type: "ReLU"
  bottom: "conv3_1"
  top: "conv3_1"
}
layer {
  name: "conv3_2"
  type: "Convolution"
  bottom: "conv3_1"
  top: "conv3_2"
  param {
    lr_mult: 1
    decay_mult: 1
  }
  param {
    lr_mult: 2
    decay_mult: 0
  }
  convolution_param {
    num_output: 256
    pad: 1
    kernel_size: 3
    stride: 1
    weight_filler {
      type: "xavier"
    }
  }
}
layer {
  name: "relu3_2"
  type: "ReLU"
  bottom: "conv3_2"
  top: "conv3_2"
}
layer {
  name: "conv3_3"
  type: "Convolution"
  bottom: "conv3_2"
  top: "conv3_3"
  param {
    lr_mult: 1
    decay_mult: 1
  }
  param {
    lr_mult: 2
    decay_mult: 0
  }
  convolution_param {
    num_output: 256
    pad: 1
    kernel_size: 3
    stride: 1
    weight_filler {
      type: "xavier"
    }
  }
}
layer {
  name: "relu3_3"
  type: "ReLU"
  bottom: "conv3_3"
  top: "conv3_3"
}
layer {
  name: "pool3"
  type: "Pooling"
  bottom: "conv3_3"
  top: "pool3"
  pooling_param {
    pool: MAX
    kernel_size: 2
    stride: 2
  }
}
layer {
  name: "conv4_1"
  type: "Convolution"
  bottom: "pool3"
  top: "conv4_1"
  param {
    lr_mult: 1
    decay_mult: 1
  }
  param {
    lr_mult: 2
    decay_mult: 0
  }
  convolution_param {
    num_output: 512
    pad: 1
    kernel_size: 3
    stride: 1
    weight_filler {
      type: "xavier"
    }
  }
}
layer {
  name: "relu4_1"
  type: "ReLU"
  bottom: "conv4_1"
  top: "conv4_1"
}
layer {
  name: "conv4_2"
  type: "Convolution"
  bottom: "conv4_1"
  top: "conv4_2"
  param {
    lr_mult: 1
    decay_mult: 1
  }
  param {
    lr_mult: 2
    decay_mult: 0
  }
  convolution_param {
    num_output: 512
    pad: 1
    kernel_size: 3
    stride: 1
    weight_filler {
      type: "xavier"
    }
  }
}
layer {
  name: "relu4_2"
  type: "ReLU"
  bottom: "conv4_2"
  top: "conv4_2"
}
layer {
  name: "conv4_3"
  type: "Convolution"
  bottom: "conv4_2"
  top: "conv4_3"
  param {
    lr_mult: 1
    decay_mult: 1
  }
  param {
    lr_mult: 2
    decay_mult: 0
  }
  convolution_param {
    num_output: 512
    pad: 1
    kernel_size: 3
    stride: 1
    weight_filler {
      type: "xavier"
    }
  }
}
layer {
  name: "relu4_3"
  type: "ReLU"
  bottom: "conv4_3"
  top: "conv4_3"
}
layer {
  name: "pool4"
  type: "Pooling"
  bottom: "conv4_3"
  top: "pool4"
  pooling_param {
    pool: MAX
    kernel_size: 2
    stride: 2
  }
}
layer {
  name: "conv5_1"
  type: "Convolution"
  bottom: "pool4"
  top: "conv5_1"
  param {
    lr_mult: 1
    decay_mult: 1
  }
  param {
    lr_mult: 2
    decay_mult: 0
  }
  convolution_param {
    num_output: 512
    pad: 1
    kernel_size: 3
    stride: 1
    weight_filler {
      type: "xavier"
    }
  }
}
layer {
  name: "relu5_1"
  type: "ReLU"
  bottom: "conv5_1"
  top: "conv5_1"
}
layer {
  name: "conv5_2"
  type: "Convolution"
  bottom: "conv5_1"
  top: "conv5_2"
  param {
    lr_mult: 1
    decay_mult: 1
  }
  param {
    lr_mult: 2
    decay_mult: 0
  }
  convolution_param {
    num_output: 512
    pad: 1
    kernel_size: 3
    stride: 1
    weight_filler {
      type: "xavier"
    }
  }
}
layer {
  name: "relu5_2"
  type: "ReLU"
  bottom: "conv5_2"
  top: "conv5_2"
}
layer {
  name: "conv5_3"
  type: "Convolution"
  bottom: "conv5_2"
  top: "conv5_3"
  param {
    lr_mult: 1
    decay_mult: 1
  }
  param {
    lr_mult: 2
    decay_mult: 0
  }
  convolution_param {
    num_output: 512
    pad: 1
    kernel_size: 3
    stride: 1
    weight_filler {
      type: "xavier"
    }
  }
}
layer {
  name: "relu5_3"
  type: "ReLU"
  bottom: "conv5_3"
  top: "conv5_3"
}
layer {
  name: "pool5"
  type: "Pooling"
  bottom: "conv5_3"
  top: "pool5"
  pooling_param {
    pool: MAX
    kernel_size: 2
    stride: 2
  }
}
layer {
  name: "fc6"
  type: "Convolution"
  bottom: "pool5"
  top: "fc6"
  param {
    lr_mult: 1
    decay_mult: 1
  }
  param {
    lr_mult: 2
    decay_mult: 0
  }
  convolution_param {
    num_output: 4096
    pad: 0
    kernel_size: 7
    stride: 1
    weight_filler {
      type: "xavier"
    }
  }
}
layer {
  name: "relu6"
  type: "ReLU"
  bottom: "fc6"
  top: "fc6"
}
layer {
  name: "drop6"
  type: "Dropout"
  bottom: "fc6"
  top: "fc6"
  dropout_param {
    dropout_ratio: 0.5
  }
}
layer {
  name: "fc7"
  type: "Convolution"
  bottom: "fc6"
  top: "fc7"
  param {
    lr_mult: 1
    decay_mult: 1
  }
  param {
    lr_mult: 2
    decay_mult: 0
  }
  convolution_param {
    num_output: 4096
    pad: 0
    kernel_size: 1
    stride: 1
    weight_filler {
      type: "xavier"
    }
  }
}
layer {
  name: "relu7"
  type: "ReLU"
  bottom: "fc7"
  top: "fc7"
}
layer {
  name: "drop7"
  type: "Dropout"
  bottom: "fc7"
  top: "fc7"
  dropout_param {
    dropout_ratio: 0.5
  }
}
layer {
  name: "score_fr"
  type: "Convolution"
  bottom: "fc7"
  top: "score_fr"
  param {
    lr_mult: 1
    decay_mult: 1
  }
  param {
    lr_mult: 2
    decay_mult: 0
  }
  convolution_param {
    num_output: 6
    pad: 0
    kernel_size: 1
    weight_filler {
      type: "xavier"
    }
  }
}
layer {
  name: "upscore2"
  type: "Deconvolution"
  bottom: "score_fr"
  top: "upscore2"
  param {
    lr_mult: 0
  }
  convolution_param {
    num_output: 6
    bias_term: false
    kernel_size: 4
    stride: 2
    weight_filler {
      type: "xavier"
    }
  }
}
layer {
  name: "scale_pool4"
  type: "Scale"
  bottom: "pool4"
  top: "scale_pool4"
  param {
    lr_mult: 0
  }
  scale_param {
    filler {
      type: "constant"
      value: 0.01
    }
  }
}
layer {
  name: "score_pool4"
  type: "Convolution"
  bottom: "scale_pool4"
  top: "score_pool4"
  param {
    lr_mult: 1
    decay_mult: 1
  }
  param {
    lr_mult: 2
    decay_mult: 0
  }
  convolution_param {
    num_output: 6
    pad: 0
    kernel_size: 1
    weight_filler {
      type: "xavier"
    }
  }
}
layer {
  name: "score_pool4c"
  type: "Crop"
  bottom: "score_pool4"
  bottom: "upscore2"
  top: "score_pool4c"
  crop_param {
    axis: 2
    offset: 5
  }
}
layer {
  name: "fuse_pool4"
  type: "Eltwise"
  bottom: "upscore2"
  bottom: "score_pool4c"
  top: "fuse_pool4"
  eltwise_param {
    operation: SUM
  }
}
layer {
  name: "upscore_pool4"
  type: "Deconvolution"
  bottom: "fuse_pool4"
  top: "upscore_pool4"
  param {
    lr_mult: 0
  }
  convolution_param {
    num_output: 6
    bias_term: false
    kernel_size: 4
    stride: 2
    weight_filler {
      type: "xavier"
    }
  }
}
layer {
  name: "scale_pool3"
  type: "Scale"
  bottom: "pool3"
  top: "scale_pool3"
  param {
    lr_mult: 0
  }
  scale_param {
    filler {
      type: "constant"
      value: 0.0001
    }
  }
}
layer {
  name: "score_pool3"
  type: "Convolution"
  bottom: "scale_pool3"
  top: "score_pool3"
  param {
    lr_mult: 1
    decay_mult: 1
  }
  param {
    lr_mult: 2
    decay_mult: 0
  }
  convolution_param {
    num_output: 6
    pad: 0
    kernel_size: 1
    weight_filler {
      type: "xavier"
    }
  }
}
layer {
  name: "score_pool3c"
  type: "Crop"
  bottom: "score_pool3"
  bottom: "upscore_pool4"
  top: "score_pool3c"
  crop_param {
    axis: 2
    offset: 9
  }
}
layer {
  name: "fuse_pool3"
  type: "Eltwise"
  bottom: "upscore_pool4"
  bottom: "score_pool3c"
  top: "fuse_pool3"
  eltwise_param {
    operation: SUM
  }
}
layer {
  name: "upscore8"
  type: "Deconvolution"
  bottom: "fuse_pool3"
  top: "upscore8"
  param {
    lr_mult: 0
  }
  convolution_param {
    num_output: 6
    bias_term: false
    kernel_size: 16
    stride: 8
    weight_filler {
      type: "xavier"
    }
  }
}
layer {
  name: "score"
  type: "Crop"
  bottom: "upscore8"
  bottom: "data"
  top: "score"
  crop_param {
    axis: 2
    offset: 31
  }
}
layer {
  name: "loss"
  type: "SoftmaxWithLoss"
  bottom: "score"
  bottom: "label"
  top: "loss"
  loss_param {
    ignore_label: 255
    normalize: false
  }
}
I0206 10:31:10.245968 13943 layer_factory.hpp:77] Creating layer data
I0206 10:31:10.246234 13943 net.cpp:100] Creating Layer data
I0206 10:31:10.246244 13943 net.cpp:408] data -> data
I0206 10:31:10.246253 13943 net.cpp:408] data -> label
I0206 10:31:10.265164 13943 net.cpp:150] Setting up data
I0206 10:31:10.265187 13943 net.cpp:157] Top shape: 1 3 335 500 (502500)
I0206 10:31:10.265193 13943 net.cpp:157] Top shape: 1 1 335 500 (167500)
I0206 10:31:10.265197 13943 net.cpp:165] Memory required for data: 2680000
I0206 10:31:10.265203 13943 layer_factory.hpp:77] Creating layer data_data_0_split
I0206 10:31:10.265213 13943 net.cpp:100] Creating Layer data_data_0_split
I0206 10:31:10.265218 13943 net.cpp:434] data_data_0_split <- data
I0206 10:31:10.265225 13943 net.cpp:408] data_data_0_split -> data_data_0_split_0
I0206 10:31:10.265234 13943 net.cpp:408] data_data_0_split -> data_data_0_split_1
I0206 10:31:10.265276 13943 net.cpp:150] Setting up data_data_0_split
I0206 10:31:10.265285 13943 net.cpp:157] Top shape: 1 3 335 500 (502500)
I0206 10:31:10.265290 13943 net.cpp:157] Top shape: 1 3 335 500 (502500)
I0206 10:31:10.265292 13943 net.cpp:165] Memory required for data: 6700000
I0206 10:31:10.265296 13943 layer_factory.hpp:77] Creating layer conv1_1
I0206 10:31:10.265307 13943 net.cpp:100] Creating Layer conv1_1
I0206 10:31:10.265312 13943 net.cpp:434] conv1_1 <- data_data_0_split_0
I0206 10:31:10.265318 13943 net.cpp:408] conv1_1 -> conv1_1
I0206 10:31:10.267521 13943 net.cpp:150] Setting up conv1_1
I0206 10:31:10.267540 13943 net.cpp:157] Top shape: 1 64 533 698 (23810176)
I0206 10:31:10.267545 13943 net.cpp:165] Memory required for data: 101940704
I0206 10:31:10.267557 13943 layer_factory.hpp:77] Creating layer relu1_1
I0206 10:31:10.267566 13943 net.cpp:100] Creating Layer relu1_1
I0206 10:31:10.267571 13943 net.cpp:434] relu1_1 <- conv1_1
I0206 10:31:10.267577 13943 net.cpp:395] relu1_1 -> conv1_1 (in-place)
I0206 10:31:10.267765 13943 net.cpp:150] Setting up relu1_1
I0206 10:31:10.267774 13943 net.cpp:157] Top shape: 1 64 533 698 (23810176)
I0206 10:31:10.267778 13943 net.cpp:165] Memory required for data: 197181408
I0206 10:31:10.267783 13943 layer_factory.hpp:77] Creating layer conv1_2
I0206 10:31:10.267794 13943 net.cpp:100] Creating Layer conv1_2
I0206 10:31:10.267798 13943 net.cpp:434] conv1_2 <- conv1_1
I0206 10:31:10.267805 13943 net.cpp:408] conv1_2 -> conv1_2
I0206 10:31:10.270089 13943 net.cpp:150] Setting up conv1_2
I0206 10:31:10.270107 13943 net.cpp:157] Top shape: 1 64 533 698 (23810176)
I0206 10:31:10.270112 13943 net.cpp:165] Memory required for data: 292422112
I0206 10:31:10.270123 13943 layer_factory.hpp:77] Creating layer relu1_2
I0206 10:31:10.270129 13943 net.cpp:100] Creating Layer relu1_2
I0206 10:31:10.270134 13943 net.cpp:434] relu1_2 <- conv1_2
I0206 10:31:10.270141 13943 net.cpp:395] relu1_2 -> conv1_2 (in-place)
I0206 10:31:10.270515 13943 net.cpp:150] Setting up relu1_2
I0206 10:31:10.270529 13943 net.cpp:157] Top shape: 1 64 533 698 (23810176)
I0206 10:31:10.270534 13943 net.cpp:165] Memory required for data: 387662816
I0206 10:31:10.270539 13943 layer_factory.hpp:77] Creating layer pool1
I0206 10:31:10.270547 13943 net.cpp:100] Creating Layer pool1
I0206 10:31:10.270551 13943 net.cpp:434] pool1 <- conv1_2
I0206 10:31:10.270558 13943 net.cpp:408] pool1 -> pool1
I0206 10:31:10.270611 13943 net.cpp:150] Setting up pool1
I0206 10:31:10.270617 13943 net.cpp:157] Top shape: 1 64 267 349 (5963712)
I0206 10:31:10.270622 13943 net.cpp:165] Memory required for data: 411517664
I0206 10:31:10.270625 13943 layer_factory.hpp:77] Creating layer conv2_1
I0206 10:31:10.270635 13943 net.cpp:100] Creating Layer conv2_1
I0206 10:31:10.270640 13943 net.cpp:434] conv2_1 <- pool1
I0206 10:31:10.270648 13943 net.cpp:408] conv2_1 -> conv2_1
I0206 10:31:10.272860 13943 net.cpp:150] Setting up conv2_1
I0206 10:31:10.272876 13943 net.cpp:157] Top shape: 1 128 267 349 (11927424)
I0206 10:31:10.272881 13943 net.cpp:165] Memory required for data: 459227360
I0206 10:31:10.272891 13943 layer_factory.hpp:77] Creating layer relu2_1
I0206 10:31:10.272899 13943 net.cpp:100] Creating Layer relu2_1
I0206 10:31:10.272904 13943 net.cpp:434] relu2_1 <- conv2_1
I0206 10:31:10.272910 13943 net.cpp:395] relu2_1 -> conv2_1 (in-place)
I0206 10:31:10.273298 13943 net.cpp:150] Setting up relu2_1
I0206 10:31:10.273311 13943 net.cpp:157] Top shape: 1 128 267 349 (11927424)
I0206 10:31:10.273316 13943 net.cpp:165] Memory required for data: 506937056
I0206 10:31:10.273320 13943 layer_factory.hpp:77] Creating layer conv2_2
I0206 10:31:10.273331 13943 net.cpp:100] Creating Layer conv2_2
I0206 10:31:10.273336 13943 net.cpp:434] conv2_2 <- conv2_1
I0206 10:31:10.273344 13943 net.cpp:408] conv2_2 -> conv2_2
I0206 10:31:10.275964 13943 net.cpp:150] Setting up conv2_2
I0206 10:31:10.275981 13943 net.cpp:157] Top shape: 1 128 267 349 (11927424)
I0206 10:31:10.275986 13943 net.cpp:165] Memory required for data: 554646752
I0206 10:31:10.275995 13943 layer_factory.hpp:77] Creating layer relu2_2
I0206 10:31:10.276002 13943 net.cpp:100] Creating Layer relu2_2
I0206 10:31:10.276007 13943 net.cpp:434] relu2_2 <- conv2_2
I0206 10:31:10.276013 13943 net.cpp:395] relu2_2 -> conv2_2 (in-place)
I0206 10:31:10.276203 13943 net.cpp:150] Setting up relu2_2
I0206 10:31:10.276212 13943 net.cpp:157] Top shape: 1 128 267 349 (11927424)
I0206 10:31:10.276217 13943 net.cpp:165] Memory required for data: 602356448
I0206 10:31:10.276221 13943 layer_factory.hpp:77] Creating layer pool2
I0206 10:31:10.276228 13943 net.cpp:100] Creating Layer pool2
I0206 10:31:10.276233 13943 net.cpp:434] pool2 <- conv2_2
I0206 10:31:10.276239 13943 net.cpp:408] pool2 -> pool2
I0206 10:31:10.276289 13943 net.cpp:150] Setting up pool2
I0206 10:31:10.276296 13943 net.cpp:157] Top shape: 1 128 134 175 (3001600)
I0206 10:31:10.276300 13943 net.cpp:165] Memory required for data: 614362848
I0206 10:31:10.276305 13943 layer_factory.hpp:77] Creating layer conv3_1
I0206 10:31:10.276314 13943 net.cpp:100] Creating Layer conv3_1
I0206 10:31:10.276319 13943 net.cpp:434] conv3_1 <- pool2
I0206 10:31:10.276326 13943 net.cpp:408] conv3_1 -> conv3_1
I0206 10:31:10.279758 13943 net.cpp:150] Setting up conv3_1
I0206 10:31:10.279775 13943 net.cpp:157] Top shape: 1 256 134 175 (6003200)
I0206 10:31:10.279780 13943 net.cpp:165] Memory required for data: 638375648
I0206 10:31:10.279791 13943 layer_factory.hpp:77] Creating layer relu3_1
I0206 10:31:10.279805 13943 net.cpp:100] Creating Layer relu3_1
I0206 10:31:10.279811 13943 net.cpp:434] relu3_1 <- conv3_1
I0206 10:31:10.279817 13943 net.cpp:395] relu3_1 -> conv3_1 (in-place)
I0206 10:31:10.280187 13943 net.cpp:150] Setting up relu3_1
I0206 10:31:10.280201 13943 net.cpp:157] Top shape: 1 256 134 175 (6003200)
I0206 10:31:10.280205 13943 net.cpp:165] Memory required for data: 662388448
I0206 10:31:10.280210 13943 layer_factory.hpp:77] Creating layer conv3_2
I0206 10:31:10.280220 13943 net.cpp:100] Creating Layer conv3_2
I0206 10:31:10.280225 13943 net.cpp:434] conv3_2 <- conv3_1
I0206 10:31:10.280233 13943 net.cpp:408] conv3_2 -> conv3_2
I0206 10:31:10.285724 13943 net.cpp:150] Setting up conv3_2
I0206 10:31:10.285742 13943 net.cpp:157] Top shape: 1 256 134 175 (6003200)
I0206 10:31:10.285747 13943 net.cpp:165] Memory required for data: 686401248
I0206 10:31:10.285754 13943 layer_factory.hpp:77] Creating layer relu3_2
I0206 10:31:10.285763 13943 net.cpp:100] Creating Layer relu3_2
I0206 10:31:10.285768 13943 net.cpp:434] relu3_2 <- conv3_2
I0206 10:31:10.285774 13943 net.cpp:395] relu3_2 -> conv3_2 (in-place)
I0206 10:31:10.285961 13943 net.cpp:150] Setting up relu3_2
I0206 10:31:10.285971 13943 net.cpp:157] Top shape: 1 256 134 175 (6003200)
I0206 10:31:10.285976 13943 net.cpp:165] Memory required for data: 710414048
I0206 10:31:10.285980 13943 layer_factory.hpp:77] Creating layer conv3_3
I0206 10:31:10.285991 13943 net.cpp:100] Creating Layer conv3_3
I0206 10:31:10.285996 13943 net.cpp:434] conv3_3 <- conv3_2
I0206 10:31:10.286002 13943 net.cpp:408] conv3_3 -> conv3_3
I0206 10:31:10.291477 13943 net.cpp:150] Setting up conv3_3
I0206 10:31:10.291494 13943 net.cpp:157] Top shape: 1 256 134 175 (6003200)
I0206 10:31:10.291499 13943 net.cpp:165] Memory required for data: 734426848
I0206 10:31:10.291507 13943 layer_factory.hpp:77] Creating layer relu3_3
I0206 10:31:10.291515 13943 net.cpp:100] Creating Layer relu3_3
I0206 10:31:10.291520 13943 net.cpp:434] relu3_3 <- conv3_3
I0206 10:31:10.291527 13943 net.cpp:395] relu3_3 -> conv3_3 (in-place)
I0206 10:31:10.291719 13943 net.cpp:150] Setting up relu3_3
I0206 10:31:10.291728 13943 net.cpp:157] Top shape: 1 256 134 175 (6003200)
I0206 10:31:10.291733 13943 net.cpp:165] Memory required for data: 758439648
I0206 10:31:10.291738 13943 layer_factory.hpp:77] Creating layer pool3
I0206 10:31:10.291745 13943 net.cpp:100] Creating Layer pool3
I0206 10:31:10.291749 13943 net.cpp:434] pool3 <- conv3_3
I0206 10:31:10.291756 13943 net.cpp:408] pool3 -> pool3
I0206 10:31:10.291807 13943 net.cpp:150] Setting up pool3
I0206 10:31:10.291815 13943 net.cpp:157] Top shape: 1 256 67 88 (1509376)
I0206 10:31:10.291818 13943 net.cpp:165] Memory required for data: 764477152
I0206 10:31:10.291822 13943 layer_factory.hpp:77] Creating layer pool3_pool3_0_split
I0206 10:31:10.291829 13943 net.cpp:100] Creating Layer pool3_pool3_0_split
I0206 10:31:10.291833 13943 net.cpp:434] pool3_pool3_0_split <- pool3
I0206 10:31:10.291839 13943 net.cpp:408] pool3_pool3_0_split -> pool3_pool3_0_split_0
I0206 10:31:10.291846 13943 net.cpp:408] pool3_pool3_0_split -> pool3_pool3_0_split_1
I0206 10:31:10.291885 13943 net.cpp:150] Setting up pool3_pool3_0_split
I0206 10:31:10.291893 13943 net.cpp:157] Top shape: 1 256 67 88 (1509376)
I0206 10:31:10.291898 13943 net.cpp:157] Top shape: 1 256 67 88 (1509376)
I0206 10:31:10.291901 13943 net.cpp:165] Memory required for data: 776552160
I0206 10:31:10.291905 13943 layer_factory.hpp:77] Creating layer conv4_1
I0206 10:31:10.291914 13943 net.cpp:100] Creating Layer conv4_1
I0206 10:31:10.291919 13943 net.cpp:434] conv4_1 <- pool3_pool3_0_split_0
I0206 10:31:10.291926 13943 net.cpp:408] conv4_1 -> conv4_1
I0206 10:31:10.301491 13943 net.cpp:150] Setting up conv4_1
I0206 10:31:10.301508 13943 net.cpp:157] Top shape: 1 512 67 88 (3018752)
I0206 10:31:10.301513 13943 net.cpp:165] Memory required for data: 788627168
I0206 10:31:10.301522 13943 layer_factory.hpp:77] Creating layer relu4_1
I0206 10:31:10.301529 13943 net.cpp:100] Creating Layer relu4_1
I0206 10:31:10.301534 13943 net.cpp:434] relu4_1 <- conv4_1
I0206 10:31:10.301548 13943 net.cpp:395] relu4_1 -> conv4_1 (in-place)
I0206 10:31:10.301934 13943 net.cpp:150] Setting up relu4_1
I0206 10:31:10.301949 13943 net.cpp:157] Top shape: 1 512 67 88 (3018752)
I0206 10:31:10.301952 13943 net.cpp:165] Memory required for data: 800702176
I0206 10:31:10.301957 13943 layer_factory.hpp:77] Creating layer conv4_2
I0206 10:31:10.301967 13943 net.cpp:100] Creating Layer conv4_2
I0206 10:31:10.301972 13943 net.cpp:434] conv4_2 <- conv4_1
I0206 10:31:10.301980 13943 net.cpp:408] conv4_2 -> conv4_2
I0206 10:31:10.320015 13943 net.cpp:150] Setting up conv4_2
I0206 10:31:10.320039 13943 net.cpp:157] Top shape: 1 512 67 88 (3018752)
I0206 10:31:10.320044 13943 net.cpp:165] Memory required for data: 812777184
I0206 10:31:10.320058 13943 layer_factory.hpp:77] Creating layer relu4_2
I0206 10:31:10.320068 13943 net.cpp:100] Creating Layer relu4_2
I0206 10:31:10.320073 13943 net.cpp:434] relu4_2 <- conv4_2
I0206 10:31:10.320080 13943 net.cpp:395] relu4_2 -> conv4_2 (in-place)
I0206 10:31:10.320276 13943 net.cpp:150] Setting up relu4_2
I0206 10:31:10.320286 13943 net.cpp:157] Top shape: 1 512 67 88 (3018752)
I0206 10:31:10.320291 13943 net.cpp:165] Memory required for data: 824852192
I0206 10:31:10.320294 13943 layer_factory.hpp:77] Creating layer conv4_3
I0206 10:31:10.320307 13943 net.cpp:100] Creating Layer conv4_3
I0206 10:31:10.320312 13943 net.cpp:434] conv4_3 <- conv4_2
I0206 10:31:10.320319 13943 net.cpp:408] conv4_3 -> conv4_3
I0206 10:31:10.338377 13943 net.cpp:150] Setting up conv4_3
I0206 10:31:10.338402 13943 net.cpp:157] Top shape: 1 512 67 88 (3018752)
I0206 10:31:10.338407 13943 net.cpp:165] Memory required for data: 836927200
I0206 10:31:10.338416 13943 layer_factory.hpp:77] Creating layer relu4_3
I0206 10:31:10.338426 13943 net.cpp:100] Creating Layer relu4_3
I0206 10:31:10.338431 13943 net.cpp:434] relu4_3 <- conv4_3
I0206 10:31:10.338439 13943 net.cpp:395] relu4_3 -> conv4_3 (in-place)
I0206 10:31:10.338649 13943 net.cpp:150] Setting up relu4_3
I0206 10:31:10.338660 13943 net.cpp:157] Top shape: 1 512 67 88 (3018752)
I0206 10:31:10.338665 13943 net.cpp:165] Memory required for data: 849002208
I0206 10:31:10.338668 13943 layer_factory.hpp:77] Creating layer pool4
I0206 10:31:10.338677 13943 net.cpp:100] Creating Layer pool4
I0206 10:31:10.338681 13943 net.cpp:434] pool4 <- conv4_3
I0206 10:31:10.338688 13943 net.cpp:408] pool4 -> pool4
I0206 10:31:10.338744 13943 net.cpp:150] Setting up pool4
I0206 10:31:10.338752 13943 net.cpp:157] Top shape: 1 512 34 44 (765952)
I0206 10:31:10.338755 13943 net.cpp:165] Memory required for data: 852066016
I0206 10:31:10.338759 13943 layer_factory.hpp:77] Creating layer pool4_pool4_0_split
I0206 10:31:10.338768 13943 net.cpp:100] Creating Layer pool4_pool4_0_split
I0206 10:31:10.338771 13943 net.cpp:434] pool4_pool4_0_split <- pool4
I0206 10:31:10.338778 13943 net.cpp:408] pool4_pool4_0_split -> pool4_pool4_0_split_0
I0206 10:31:10.338784 13943 net.cpp:408] pool4_pool4_0_split -> pool4_pool4_0_split_1
I0206 10:31:10.338827 13943 net.cpp:150] Setting up pool4_pool4_0_split
I0206 10:31:10.338835 13943 net.cpp:157] Top shape: 1 512 34 44 (765952)
I0206 10:31:10.338840 13943 net.cpp:157] Top shape: 1 512 34 44 (765952)
I0206 10:31:10.338843 13943 net.cpp:165] Memory required for data: 858193632
I0206 10:31:10.338847 13943 layer_factory.hpp:77] Creating layer conv5_1
I0206 10:31:10.338858 13943 net.cpp:100] Creating Layer conv5_1
I0206 10:31:10.338862 13943 net.cpp:434] conv5_1 <- pool4_pool4_0_split_0
I0206 10:31:10.338871 13943 net.cpp:408] conv5_1 -> conv5_1
I0206 10:31:10.356765 13943 net.cpp:150] Setting up conv5_1
I0206 10:31:10.356788 13943 net.cpp:157] Top shape: 1 512 34 44 (765952)
I0206 10:31:10.356793 13943 net.cpp:165] Memory required for data: 861257440
I0206 10:31:10.356802 13943 layer_factory.hpp:77] Creating layer relu5_1
I0206 10:31:10.356812 13943 net.cpp:100] Creating Layer relu5_1
I0206 10:31:10.356817 13943 net.cpp:434] relu5_1 <- conv5_1
I0206 10:31:10.356824 13943 net.cpp:395] relu5_1 -> conv5_1 (in-place)
I0206 10:31:10.357213 13943 net.cpp:150] Setting up relu5_1
I0206 10:31:10.357226 13943 net.cpp:157] Top shape: 1 512 34 44 (765952)
I0206 10:31:10.357230 13943 net.cpp:165] Memory required for data: 864321248
I0206 10:31:10.357235 13943 layer_factory.hpp:77] Creating layer conv5_2
I0206 10:31:10.357246 13943 net.cpp:100] Creating Layer conv5_2
I0206 10:31:10.357251 13943 net.cpp:434] conv5_2 <- conv5_1
I0206 10:31:10.357259 13943 net.cpp:408] conv5_2 -> conv5_2
I0206 10:31:10.375283 13943 net.cpp:150] Setting up conv5_2
I0206 10:31:10.375308 13943 net.cpp:157] Top shape: 1 512 34 44 (765952)
I0206 10:31:10.375313 13943 net.cpp:165] Memory required for data: 867385056
I0206 10:31:10.375322 13943 layer_factory.hpp:77] Creating layer relu5_2
I0206 10:31:10.375334 13943 net.cpp:100] Creating Layer relu5_2
I0206 10:31:10.375339 13943 net.cpp:434] relu5_2 <- conv5_2
I0206 10:31:10.375346 13943 net.cpp:395] relu5_2 -> conv5_2 (in-place)
I0206 10:31:10.375541 13943 net.cpp:150] Setting up relu5_2
I0206 10:31:10.375551 13943 net.cpp:157] Top shape: 1 512 34 44 (765952)
I0206 10:31:10.375555 13943 net.cpp:165] Memory required for data: 870448864
I0206 10:31:10.375560 13943 layer_factory.hpp:77] Creating layer conv5_3
I0206 10:31:10.375576 13943 net.cpp:100] Creating Layer conv5_3
I0206 10:31:10.375581 13943 net.cpp:434] conv5_3 <- conv5_2
I0206 10:31:10.375588 13943 net.cpp:408] conv5_3 -> conv5_3
I0206 10:31:10.393450 13943 net.cpp:150] Setting up conv5_3
I0206 10:31:10.393474 13943 net.cpp:157] Top shape: 1 512 34 44 (765952)
I0206 10:31:10.393478 13943 net.cpp:165] Memory required for data: 873512672
I0206 10:31:10.393487 13943 layer_factory.hpp:77] Creating layer relu5_3
I0206 10:31:10.393496 13943 net.cpp:100] Creating Layer relu5_3
I0206 10:31:10.393502 13943 net.cpp:434] relu5_3 <- conv5_3
I0206 10:31:10.393509 13943 net.cpp:395] relu5_3 -> conv5_3 (in-place)
I0206 10:31:10.393712 13943 net.cpp:150] Setting up relu5_3
I0206 10:31:10.393723 13943 net.cpp:157] Top shape: 1 512 34 44 (765952)
I0206 10:31:10.393726 13943 net.cpp:165] Memory required for data: 876576480
I0206 10:31:10.393730 13943 layer_factory.hpp:77] Creating layer pool5
I0206 10:31:10.393739 13943 net.cpp:100] Creating Layer pool5
I0206 10:31:10.393744 13943 net.cpp:434] pool5 <- conv5_3
I0206 10:31:10.393751 13943 net.cpp:408] pool5 -> pool5
I0206 10:31:10.393806 13943 net.cpp:150] Setting up pool5
I0206 10:31:10.393813 13943 net.cpp:157] Top shape: 1 512 17 22 (191488)
I0206 10:31:10.393817 13943 net.cpp:165] Memory required for data: 877342432
I0206 10:31:10.393821 13943 layer_factory.hpp:77] Creating layer fc6
I0206 10:31:10.393833 13943 net.cpp:100] Creating Layer fc6
I0206 10:31:10.393838 13943 net.cpp:434] fc6 <- pool5
I0206 10:31:10.393846 13943 net.cpp:408] fc6 -> fc6
I0206 10:31:11.136109 13943 net.cpp:150] Setting up fc6
I0206 10:31:11.136152 13943 net.cpp:157] Top shape: 1 4096 11 16 (720896)
I0206 10:31:11.136157 13943 net.cpp:165] Memory required for data: 880226016
I0206 10:31:11.136168 13943 layer_factory.hpp:77] Creating layer relu6
I0206 10:31:11.136181 13943 net.cpp:100] Creating Layer relu6
I0206 10:31:11.136188 13943 net.cpp:434] relu6 <- fc6
I0206 10:31:11.136198 13943 net.cpp:395] relu6 -> fc6 (in-place)
I0206 10:31:11.136592 13943 net.cpp:150] Setting up relu6
I0206 10:31:11.136605 13943 net.cpp:157] Top shape: 1 4096 11 16 (720896)
I0206 10:31:11.136610 13943 net.cpp:165] Memory required for data: 883109600
I0206 10:31:11.136615 13943 layer_factory.hpp:77] Creating layer drop6
I0206 10:31:11.136625 13943 net.cpp:100] Creating Layer drop6
I0206 10:31:11.136628 13943 net.cpp:434] drop6 <- fc6
I0206 10:31:11.136636 13943 net.cpp:395] drop6 -> fc6 (in-place)
I0206 10:31:11.136675 13943 net.cpp:150] Setting up drop6
I0206 10:31:11.136683 13943 net.cpp:157] Top shape: 1 4096 11 16 (720896)
I0206 10:31:11.136687 13943 net.cpp:165] Memory required for data: 885993184
I0206 10:31:11.136692 13943 layer_factory.hpp:77] Creating layer fc7
I0206 10:31:11.136703 13943 net.cpp:100] Creating Layer fc7
I0206 10:31:11.136708 13943 net.cpp:434] fc7 <- fc6
I0206 10:31:11.136729 13943 net.cpp:408] fc7 -> fc7
I0206 10:31:11.259627 13943 net.cpp:150] Setting up fc7
I0206 10:31:11.259670 13943 net.cpp:157] Top shape: 1 4096 11 16 (720896)
I0206 10:31:11.259675 13943 net.cpp:165] Memory required for data: 888876768
I0206 10:31:11.259686 13943 layer_factory.hpp:77] Creating layer relu7
I0206 10:31:11.259701 13943 net.cpp:100] Creating Layer relu7
I0206 10:31:11.259707 13943 net.cpp:434] relu7 <- fc7
I0206 10:31:11.259716 13943 net.cpp:395] relu7 -> fc7 (in-place)
I0206 10:31:11.259912 13943 net.cpp:150] Setting up relu7
I0206 10:31:11.259922 13943 net.cpp:157] Top shape: 1 4096 11 16 (720896)
I0206 10:31:11.259927 13943 net.cpp:165] Memory required for data: 891760352
I0206 10:31:11.259930 13943 layer_factory.hpp:77] Creating layer drop7
I0206 10:31:11.259939 13943 net.cpp:100] Creating Layer drop7
I0206 10:31:11.259943 13943 net.cpp:434] drop7 <- fc7
I0206 10:31:11.259949 13943 net.cpp:395] drop7 -> fc7 (in-place)
I0206 10:31:11.259989 13943 net.cpp:150] Setting up drop7
I0206 10:31:11.259996 13943 net.cpp:157] Top shape: 1 4096 11 16 (720896)
I0206 10:31:11.260000 13943 net.cpp:165] Memory required for data: 894643936
I0206 10:31:11.260004 13943 layer_factory.hpp:77] Creating layer score_fr
I0206 10:31:11.260016 13943 net.cpp:100] Creating Layer score_fr
I0206 10:31:11.260020 13943 net.cpp:434] score_fr <- fc7
I0206 10:31:11.260028 13943 net.cpp:408] score_fr -> score_fr
I0206 10:31:11.262291 13943 net.cpp:150] Setting up score_fr
I0206 10:31:11.262307 13943 net.cpp:157] Top shape: 1 6 11 16 (1056)
I0206 10:31:11.262312 13943 net.cpp:165] Memory required for data: 894648160
I0206 10:31:11.262321 13943 layer_factory.hpp:77] Creating layer upscore2
I0206 10:31:11.262332 13943 net.cpp:100] Creating Layer upscore2
I0206 10:31:11.262337 13943 net.cpp:434] upscore2 <- score_fr
I0206 10:31:11.262344 13943 net.cpp:408] upscore2 -> upscore2
I0206 10:31:11.262598 13943 net.cpp:150] Setting up upscore2
I0206 10:31:11.262606 13943 net.cpp:157] Top shape: 1 6 24 34 (4896)
I0206 10:31:11.262610 13943 net.cpp:165] Memory required for data: 894667744
I0206 10:31:11.262624 13943 layer_factory.hpp:77] Creating layer upscore2_upscore2_0_split
I0206 10:31:11.262632 13943 net.cpp:100] Creating Layer upscore2_upscore2_0_split
I0206 10:31:11.262637 13943 net.cpp:434] upscore2_upscore2_0_split <- upscore2
I0206 10:31:11.262645 13943 net.cpp:408] upscore2_upscore2_0_split -> upscore2_upscore2_0_split_0
I0206 10:31:11.262651 13943 net.cpp:408] upscore2_upscore2_0_split -> upscore2_upscore2_0_split_1
I0206 10:31:11.262697 13943 net.cpp:150] Setting up upscore2_upscore2_0_split
I0206 10:31:11.262704 13943 net.cpp:157] Top shape: 1 6 24 34 (4896)
I0206 10:31:11.262709 13943 net.cpp:157] Top shape: 1 6 24 34 (4896)
I0206 10:31:11.262713 13943 net.cpp:165] Memory required for data: 894706912
I0206 10:31:11.262717 13943 layer_factory.hpp:77] Creating layer scale_pool4
I0206 10:31:11.262727 13943 net.cpp:100] Creating Layer scale_pool4
I0206 10:31:11.262732 13943 net.cpp:434] scale_pool4 <- pool4_pool4_0_split_1
I0206 10:31:11.262738 13943 net.cpp:408] scale_pool4 -> scale_pool4
I0206 10:31:11.262861 13943 net.cpp:150] Setting up scale_pool4
I0206 10:31:11.262871 13943 net.cpp:157] Top shape: 1 512 34 44 (765952)
I0206 10:31:11.262874 13943 net.cpp:165] Memory required for data: 897770720
I0206 10:31:11.262881 13943 layer_factory.hpp:77] Creating layer score_pool4
I0206 10:31:11.262890 13943 net.cpp:100] Creating Layer score_pool4
I0206 10:31:11.262895 13943 net.cpp:434] score_pool4 <- scale_pool4
I0206 10:31:11.262902 13943 net.cpp:408] score_pool4 -> score_pool4
I0206 10:31:11.264211 13943 net.cpp:150] Setting up score_pool4
I0206 10:31:11.264227 13943 net.cpp:157] Top shape: 1 6 34 44 (8976)
I0206 10:31:11.264231 13943 net.cpp:165] Memory required for data: 897806624
I0206 10:31:11.264240 13943 layer_factory.hpp:77] Creating layer score_pool4c
I0206 10:31:11.264248 13943 net.cpp:100] Creating Layer score_pool4c
I0206 10:31:11.264255 13943 net.cpp:434] score_pool4c <- score_pool4
I0206 10:31:11.264268 13943 net.cpp:434] score_pool4c <- upscore2_upscore2_0_split_0
I0206 10:31:11.264276 13943 net.cpp:408] score_pool4c -> score_pool4c
I0206 10:31:11.264313 13943 net.cpp:150] Setting up score_pool4c
I0206 10:31:11.264322 13943 net.cpp:157] Top shape: 1 6 24 34 (4896)
I0206 10:31:11.264324 13943 net.cpp:165] Memory required for data: 897826208
I0206 10:31:11.264328 13943 layer_factory.hpp:77] Creating layer fuse_pool4
I0206 10:31:11.264338 13943 net.cpp:100] Creating Layer fuse_pool4
I0206 10:31:11.264343 13943 net.cpp:434] fuse_pool4 <- upscore2_upscore2_0_split_1
I0206 10:31:11.264348 13943 net.cpp:434] fuse_pool4 <- score_pool4c
I0206 10:31:11.264353 13943 net.cpp:408] fuse_pool4 -> fuse_pool4
I0206 10:31:11.264385 13943 net.cpp:150] Setting up fuse_pool4
I0206 10:31:11.264391 13943 net.cpp:157] Top shape: 1 6 24 34 (4896)
I0206 10:31:11.264395 13943 net.cpp:165] Memory required for data: 897845792
I0206 10:31:11.264400 13943 layer_factory.hpp:77] Creating layer upscore_pool4
I0206 10:31:11.264407 13943 net.cpp:100] Creating Layer upscore_pool4
I0206 10:31:11.264412 13943 net.cpp:434] upscore_pool4 <- fuse_pool4
I0206 10:31:11.264420 13943 net.cpp:408] upscore_pool4 -> upscore_pool4
I0206 10:31:11.264660 13943 net.cpp:150] Setting up upscore_pool4
I0206 10:31:11.264669 13943 net.cpp:157] Top shape: 1 6 50 70 (21000)
I0206 10:31:11.264673 13943 net.cpp:165] Memory required for data: 897929792
I0206 10:31:11.264678 13943 layer_factory.hpp:77] Creating layer upscore_pool4_upscore_pool4_0_split
I0206 10:31:11.264685 13943 net.cpp:100] Creating Layer upscore_pool4_upscore_pool4_0_split
I0206 10:31:11.264690 13943 net.cpp:434] upscore_pool4_upscore_pool4_0_split <- upscore_pool4
I0206 10:31:11.264696 13943 net.cpp:408] upscore_pool4_upscore_pool4_0_split -> upscore_pool4_upscore_pool4_0_split_0
I0206 10:31:11.264703 13943 net.cpp:408] upscore_pool4_upscore_pool4_0_split -> upscore_pool4_upscore_pool4_0_split_1
I0206 10:31:11.264746 13943 net.cpp:150] Setting up upscore_pool4_upscore_pool4_0_split
I0206 10:31:11.264755 13943 net.cpp:157] Top shape: 1 6 50 70 (21000)
I0206 10:31:11.264760 13943 net.cpp:157] Top shape: 1 6 50 70 (21000)
I0206 10:31:11.264763 13943 net.cpp:165] Memory required for data: 898097792
I0206 10:31:11.264767 13943 layer_factory.hpp:77] Creating layer scale_pool3
I0206 10:31:11.264775 13943 net.cpp:100] Creating Layer scale_pool3
I0206 10:31:11.264780 13943 net.cpp:434] scale_pool3 <- pool3_pool3_0_split_1
I0206 10:31:11.264786 13943 net.cpp:408] scale_pool3 -> scale_pool3
I0206 10:31:11.264904 13943 net.cpp:150] Setting up scale_pool3
I0206 10:31:11.264910 13943 net.cpp:157] Top shape: 1 256 67 88 (1509376)
I0206 10:31:11.264914 13943 net.cpp:165] Memory required for data: 904135296
I0206 10:31:11.264919 13943 layer_factory.hpp:77] Creating layer score_pool3
I0206 10:31:11.264930 13943 net.cpp:100] Creating Layer score_pool3
I0206 10:31:11.264935 13943 net.cpp:434] score_pool3 <- scale_pool3
I0206 10:31:11.264941 13943 net.cpp:408] score_pool3 -> score_pool3
I0206 10:31:11.266242 13943 net.cpp:150] Setting up score_pool3
I0206 10:31:11.266258 13943 net.cpp:157] Top shape: 1 6 67 88 (35376)
I0206 10:31:11.266263 13943 net.cpp:165] Memory required for data: 904276800
I0206 10:31:11.266270 13943 layer_factory.hpp:77] Creating layer score_pool3c
I0206 10:31:11.266279 13943 net.cpp:100] Creating Layer score_pool3c
I0206 10:31:11.266284 13943 net.cpp:434] score_pool3c <- score_pool3
I0206 10:31:11.266290 13943 net.cpp:434] score_pool3c <- upscore_pool4_upscore_pool4_0_split_0
I0206 10:31:11.266297 13943 net.cpp:408] score_pool3c -> score_pool3c
I0206 10:31:11.266333 13943 net.cpp:150] Setting up score_pool3c
I0206 10:31:11.266340 13943 net.cpp:157] Top shape: 1 6 50 70 (21000)
I0206 10:31:11.266345 13943 net.cpp:165] Memory required for data: 904360800
I0206 10:31:11.266350 13943 layer_factory.hpp:77] Creating layer fuse_pool3
I0206 10:31:11.266356 13943 net.cpp:100] Creating Layer fuse_pool3
I0206 10:31:11.266360 13943 net.cpp:434] fuse_pool3 <- upscore_pool4_upscore_pool4_0_split_1
I0206 10:31:11.266371 13943 net.cpp:434] fuse_pool3 <- score_pool3c
I0206 10:31:11.266378 13943 net.cpp:408] fuse_pool3 -> fuse_pool3
I0206 10:31:11.266410 13943 net.cpp:150] Setting up fuse_pool3
I0206 10:31:11.266417 13943 net.cpp:157] Top shape: 1 6 50 70 (21000)
I0206 10:31:11.266420 13943 net.cpp:165] Memory required for data: 904444800
I0206 10:31:11.266424 13943 layer_factory.hpp:77] Creating layer upscore8
I0206 10:31:11.266433 13943 net.cpp:100] Creating Layer upscore8
I0206 10:31:11.266438 13943 net.cpp:434] upscore8 <- fuse_pool3
I0206 10:31:11.266443 13943 net.cpp:408] upscore8 -> upscore8
I0206 10:31:11.266739 13943 net.cpp:150] Setting up upscore8
I0206 10:31:11.266748 13943 net.cpp:157] Top shape: 1 6 408 568 (1390464)
I0206 10:31:11.266752 13943 net.cpp:165] Memory required for data: 910006656
I0206 10:31:11.266758 13943 layer_factory.hpp:77] Creating layer score
I0206 10:31:11.266765 13943 net.cpp:100] Creating Layer score
I0206 10:31:11.266769 13943 net.cpp:434] score <- upscore8
I0206 10:31:11.266774 13943 net.cpp:434] score <- data_data_0_split_1
I0206 10:31:11.266780 13943 net.cpp:408] score -> score
I0206 10:31:11.266810 13943 net.cpp:150] Setting up score
I0206 10:31:11.266816 13943 net.cpp:157] Top shape: 1 6 335 500 (1005000)
I0206 10:31:11.266820 13943 net.cpp:165] Memory required for data: 914026656
I0206 10:31:11.266824 13943 layer_factory.hpp:77] Creating layer loss
I0206 10:31:11.266832 13943 net.cpp:100] Creating Layer loss
I0206 10:31:11.266837 13943 net.cpp:434] loss <- score
I0206 10:31:11.266842 13943 net.cpp:434] loss <- label
I0206 10:31:11.266849 13943 net.cpp:408] loss -> loss
I0206 10:31:11.266857 13943 layer_factory.hpp:77] Creating layer loss
…
