…
snapshot_prefix: "snapshot/train"
test_initialization: false
average_loss: 20
iter_size: 1
I0129 17:37:30.472098 26374 solver.cpp:81] Creating training net from train_net file: train.prototxt
I0129 17:37:30.473407 26374 net.cpp:58] Initializing net from parameters: 
state {
  phase: TRAIN
}
layer {
  name: "data"
  type: "Python"
  top: "data"
  top: "label"
  python_param {
    module: "voc_layers"
    layer: "IncSBDDSegDataLayer"
    param_str: "{\'sbdd_dir\': \'../data/sbdd/dataset\', \'seed\': 1337, \'split\': \'train\', \'mean\': (104.00699, 116.66877, 122.67892)}"
  }
}
layer {
  name: "conv1_1"
  type: "Convolution"
  bottom: "data"
  top: "conv1_1"
  param {
    lr_mult: 1
    decay_mult: 1
  }
  param {
    lr_mult: 2
    decay_mult: 0
  }
  convolution_param {
    num_output: 64
    pad: 100
    kernel_size: 3
    stride: 1
    weight_filler {
      type: "xavier"
    }
  }
}
layer {
  name: "relu1_1"
  type: "ReLU"
  bottom: "conv1_1"
  top: "conv1_1"
}
layer {
  name: "conv1_2"
  type: "Convolution"
  bottom: "conv1_1"
  top: "conv1_2"
  param {
    lr_mult: 1
    decay_mult: 1
  }
  param {
    lr_mult: 2
    decay_mult: 0
  }
  convolution_param {
    num_output: 64
    pad: 1
    kernel_size: 3
    stride: 1
    weight_filler {
      type: "xavier"
    }
  }
}
layer {
  name: "relu1_2"
  type: "ReLU"
  bottom: "conv1_2"
  top: "conv1_2"
}
layer {
  name: "pool1"
  type: "Pooling"
  bottom: "conv1_2"
  top: "pool1"
  pooling_param {
    pool: MAX
    kernel_size: 2
    stride: 2
  }
}
layer {
  name: "conv2_1"
  type: "Convolution"
  bottom: "pool1"
  top: "conv2_1"
  param {
    lr_mult: 1
    decay_mult: 1
  }
  param {
    lr_mult: 2
    decay_mult: 0
  }
  convolution_param {
    num_output: 128
    pad: 1
    kernel_size: 3
    stride: 1
    weight_filler {
      type: "xavier"
    }
  }
}
layer {
  name: "relu2_1"
  type: "ReLU"
  bottom: "conv2_1"
  top: "conv2_1"
}
layer {
  name: "conv2_2"
  type: "Convolution"
  bottom: "conv2_1"
  top: "conv2_2"
  param {
    lr_mult: 1
    decay_mult: 1
  }
  param {
    lr_mult: 2
    decay_mult: 0
  }
  convolution_param {
    num_output: 128
    pad: 1
    kernel_size: 3
    stride: 1
    weight_filler {
      type: "xavier"
    }
  }
}
layer {
  name: "relu2_2"
  type: "ReLU"
  bottom: "conv2_2"
  top: "conv2_2"
}
layer {
  name: "pool2"
  type: "Pooling"
  bottom: "conv2_2"
  top: "pool2"
  pooling_param {
    pool: MAX
    kernel_size: 2
    stride: 2
  }
}
layer {
  name: "conv3_1"
  type: "Convolution"
  bottom: "pool2"
  top: "conv3_1"
  param {
    lr_mult: 1
    decay_mult: 1
  }
  param {
    lr_mult: 2
    decay_mult: 0
  }
  convolution_param {
    num_output: 256
    pad: 1
    kernel_size: 3
    stride: 1
    weight_filler {
      type: "xavier"
    }
  }
}
layer {
  name: "relu3_1"
  type: "ReLU"
  bottom: "conv3_1"
  top: "conv3_1"
}
layer {
  name: "conv3_2"
  type: "Convolution"
  bottom: "conv3_1"
  top: "conv3_2"
  param {
    lr_mult: 1
    decay_mult: 1
  }
  param {
    lr_mult: 2
    decay_mult: 0
  }
  convolution_param {
    num_output: 256
    pad: 1
    kernel_size: 3
    stride: 1
    weight_filler {
      type: "xavier"
    }
  }
}
layer {
  name: "relu3_2"
  type: "ReLU"
  bottom: "conv3_2"
  top: "conv3_2"
}
layer {
  name: "conv3_3"
  type: "Convolution"
  bottom: "conv3_2"
  top: "conv3_3"
  param {
    lr_mult: 1
    decay_mult: 1
  }
  param {
    lr_mult: 2
    decay_mult: 0
  }
  convolution_param {
    num_output: 256
    pad: 1
    kernel_size: 3
    stride: 1
    weight_filler {
      type: "xavier"
    }
  }
}
layer {
  name: "relu3_3"
  type: "ReLU"
  bottom: "conv3_3"
  top: "conv3_3"
}
layer {
  name: "pool3"
  type: "Pooling"
  bottom: "conv3_3"
  top: "pool3"
  pooling_param {
    pool: MAX
    kernel_size: 2
    stride: 2
  }
}
layer {
  name: "conv4_1"
  type: "Convolution"
  bottom: "pool3"
  top: "conv4_1"
  param {
    lr_mult: 1
    decay_mult: 1
  }
  param {
    lr_mult: 2
    decay_mult: 0
  }
  convolution_param {
    num_output: 512
    pad: 1
    kernel_size: 3
    stride: 1
    weight_filler {
      type: "xavier"
    }
  }
}
layer {
  name: "relu4_1"
  type: "ReLU"
  bottom: "conv4_1"
  top: "conv4_1"
}
layer {
  name: "conv4_2"
  type: "Convolution"
  bottom: "conv4_1"
  top: "conv4_2"
  param {
    lr_mult: 1
    decay_mult: 1
  }
  param {
    lr_mult: 2
    decay_mult: 0
  }
  convolution_param {
    num_output: 512
    pad: 1
    kernel_size: 3
    stride: 1
    weight_filler {
      type: "xavier"
    }
  }
}
layer {
  name: "relu4_2"
  type: "ReLU"
  bottom: "conv4_2"
  top: "conv4_2"
}
layer {
  name: "conv4_3"
  type: "Convolution"
  bottom: "conv4_2"
  top: "conv4_3"
  param {
    lr_mult: 1
    decay_mult: 1
  }
  param {
    lr_mult: 2
    decay_mult: 0
  }
  convolution_param {
    num_output: 512
    pad: 1
    kernel_size: 3
    stride: 1
    weight_filler {
      type: "xavier"
    }
  }
}
layer {
  name: "relu4_3"
  type: "ReLU"
  bottom: "conv4_3"
  top: "conv4_3"
}
layer {
  name: "pool4"
  type: "Pooling"
  bottom: "conv4_3"
  top: "pool4"
  pooling_param {
    pool: MAX
    kernel_size: 2
    stride: 2
  }
}
layer {
  name: "conv5_1"
  type: "Convolution"
  bottom: "pool4"
  top: "conv5_1"
  param {
    lr_mult: 1
    decay_mult: 1
  }
  param {
    lr_mult: 2
    decay_mult: 0
  }
  convolution_param {
    num_output: 512
    pad: 1
    kernel_size: 3
    stride: 1
    weight_filler {
      type: "xavier"
    }
  }
}
layer {
  name: "relu5_1"
  type: "ReLU"
  bottom: "conv5_1"
  top: "conv5_1"
}
layer {
  name: "conv5_2"
  type: "Convolution"
  bottom: "conv5_1"
  top: "conv5_2"
  param {
    lr_mult: 1
    decay_mult: 1
  }
  param {
    lr_mult: 2
    decay_mult: 0
  }
  convolution_param {
    num_output: 512
    pad: 1
    kernel_size: 3
    stride: 1
    weight_filler {
      type: "xavier"
    }
  }
}
layer {
  name: "relu5_2"
  type: "ReLU"
  bottom: "conv5_2"
  top: "conv5_2"
}
layer {
  name: "conv5_3"
  type: "Convolution"
  bottom: "conv5_2"
  top: "conv5_3"
  param {
    lr_mult: 1
    decay_mult: 1
  }
  param {
    lr_mult: 2
    decay_mult: 0
  }
  convolution_param {
    num_output: 512
    pad: 1
    kernel_size: 3
    stride: 1
    weight_filler {
      type: "xavier"
    }
  }
}
layer {
  name: "relu5_3"
  type: "ReLU"
  bottom: "conv5_3"
  top: "conv5_3"
}
layer {
  name: "pool5"
  type: "Pooling"
  bottom: "conv5_3"
  top: "pool5"
  pooling_param {
    pool: MAX
    kernel_size: 2
    stride: 2
  }
}
layer {
  name: "fc6"
  type: "Convolution"
  bottom: "pool5"
  top: "fc6"
  param {
    lr_mult: 1
    decay_mult: 1
  }
  param {
    lr_mult: 2
    decay_mult: 0
  }
  convolution_param {
    num_output: 4096
    pad: 0
    kernel_size: 7
    stride: 1
    weight_filler {
      type: "xavier"
    }
  }
}
layer {
  name: "relu6"
  type: "ReLU"
  bottom: "fc6"
  top: "fc6"
}
layer {
  name: "drop6"
  type: "Dropout"
  bottom: "fc6"
  top: "fc6"
  dropout_param {
    dropout_ratio: 0.5
  }
}
layer {
  name: "fc7"
  type: "Convolution"
  bottom: "fc6"
  top: "fc7"
  param {
    lr_mult: 1
    decay_mult: 1
  }
  param {
    lr_mult: 2
    decay_mult: 0
  }
  convolution_param {
    num_output: 4096
    pad: 0
    kernel_size: 1
    stride: 1
    weight_filler {
      type: "xavier"
    }
  }
}
layer {
  name: "relu7"
  type: "ReLU"
  bottom: "fc7"
  top: "fc7"
}
layer {
  name: "drop7"
  type: "Dropout"
  bottom: "fc7"
  top: "fc7"
  dropout_param {
    dropout_ratio: 0.5
  }
}
layer {
  name: "score_fr"
  type: "Convolution"
  bottom: "fc7"
  top: "score_fr"
  param {
    lr_mult: 1
    decay_mult: 1
  }
  param {
    lr_mult: 2
    decay_mult: 0
  }
  convolution_param {
    num_output: 21
    pad: 0
    kernel_size: 1
    weight_filler {
      type: "xavier"
    }
  }
}
layer {
  name: "upscore2"
  type: "Deconvolution"
  bottom: "score_fr"
  top: "upscore2"
  param {
    lr_mult: 0
  }
  convolution_param {
    num_output: 21
    bias_term: false
    kernel_size: 4
    stride: 2
    weight_filler {
      type: "xavier"
    }
  }
}
layer {
  name: "scale_pool4"
  type: "Scale"
  bottom: "pool4"
  top: "scale_pool4"
  param {
    lr_mult: 0
  }
  scale_param {
    filler {
      type: "constant"
      value: 0.01
    }
  }
}
layer {
  name: "score_pool4"
  type: "Convolution"
  bottom: "scale_pool4"
  top: "score_pool4"
  param {
    lr_mult: 1
    decay_mult: 1
  }
  param {
    lr_mult: 2
    decay_mult: 0
  }
  convolution_param {
    num_output: 21
    pad: 0
    kernel_size: 1
    weight_filler {
      type: "xavier"
    }
  }
}
layer {
  name: "score_pool4c"
  type: "Crop"
  bottom: "score_pool4"
  bottom: "upscore2"
  top: "score_pool4c"
  crop_param {
    axis: 2
    offset: 5
  }
}
layer {
  name: "fuse_pool4"
  type: "Eltwise"
  bottom: "upscore2"
  bottom: "score_pool4c"
  top: "fuse_pool4"
  eltwise_param {
    operation: SUM
  }
}
layer {
  name: "upscore_pool4"
  type: "Deconvolution"
  bottom: "fuse_pool4"
  top: "upscore_pool4"
  param {
    lr_mult: 0
  }
  convolution_param {
    num_output: 21
    bias_term: false
    kernel_size: 4
    stride: 2
    weight_filler {
      type: "xavier"
    }
  }
}
layer {
  name: "scale_pool3"
  type: "Scale"
  bottom: "pool3"
  top: "scale_pool3"
  param {
    lr_mult: 0
  }
  scale_param {
    filler {
      type: "constant"
      value: 0.0001
    }
  }
}
layer {
  name: "score_pool3"
  type: "Convolution"
  bottom: "scale_pool3"
  top: "score_pool3"
  param {
    lr_mult: 1
    decay_mult: 1
  }
  param {
    lr_mult: 2
    decay_mult: 0
  }
  convolution_param {
    num_output: 21
    pad: 0
    kernel_size: 1
    weight_filler {
      type: "xavier"
    }
  }
}
layer {
  name: "score_pool3c"
  type: "Crop"
  bottom: "score_pool3"
  bottom: "upscore_pool4"
  top: "score_pool3c"
  crop_param {
    axis: 2
    offset: 9
  }
}
layer {
  name: "fuse_pool3"
  type: "Eltwise"
  bottom: "upscore_pool4"
  bottom: "score_pool3c"
  top: "fuse_pool3"
  eltwise_param {
    operation: SUM
  }
}
layer {
  name: "upscore8"
  type: "Deconvolution"
  bottom: "fuse_pool3"
  top: "upscore8"
  param {
    lr_mult: 0
  }
  convolution_param {
    num_output: 21
    bias_term: false
    kernel_size: 16
    stride: 8
    weight_filler {
      type: "xavier"
    }
  }
}
layer {
  name: "score"
  type: "Crop"
  bottom: "upscore8"
  bottom: "data"
  top: "score"
  crop_param {
    axis: 2
    offset: 31
  }
}
layer {
  name: "loss"
  type: "SoftmaxWithLoss"
  bottom: "score"
  bottom: "label"
  top: "loss"
  loss_param {
    ignore_label: 255
    normalize: false
  }
}
I0129 17:37:30.473670 26374 layer_factory.hpp:77] Creating layer data
I0129 17:37:30.476572 26374 net.cpp:100] Creating Layer data
I0129 17:37:30.476588 26374 net.cpp:408] data -> data
I0129 17:37:30.476605 26374 net.cpp:408] data -> label
I0129 17:37:30.526789 26374 net.cpp:150] Setting up data
I0129 17:37:30.526834 26374 net.cpp:157] Top shape: 1 3 500 330 (495000)
I0129 17:37:30.526841 26374 net.cpp:157] Top shape: 1 1 500 330 (165000)
I0129 17:37:30.526845 26374 net.cpp:165] Memory required for data: 2640000
I0129 17:37:30.526855 26374 layer_factory.hpp:77] Creating layer data_data_0_split
I0129 17:37:30.526875 26374 net.cpp:100] Creating Layer data_data_0_split
I0129 17:37:30.526880 26374 net.cpp:434] data_data_0_split <- data
I0129 17:37:30.526890 26374 net.cpp:408] data_data_0_split -> data_data_0_split_0
I0129 17:37:30.526902 26374 net.cpp:408] data_data_0_split -> data_data_0_split_1
I0129 17:37:30.526944 26374 net.cpp:150] Setting up data_data_0_split
I0129 17:37:30.526953 26374 net.cpp:157] Top shape: 1 3 500 330 (495000)
I0129 17:37:30.526958 26374 net.cpp:157] Top shape: 1 3 500 330 (495000)
I0129 17:37:30.526962 26374 net.cpp:165] Memory required for data: 6600000
I0129 17:37:30.526967 26374 layer_factory.hpp:77] Creating layer conv1_1
I0129 17:37:30.526986 26374 net.cpp:100] Creating Layer conv1_1
I0129 17:37:30.526991 26374 net.cpp:434] conv1_1 <- data_data_0_split_0
I0129 17:37:30.527009 26374 net.cpp:408] conv1_1 -> conv1_1
I0129 17:37:30.707623 26374 net.cpp:150] Setting up conv1_1
I0129 17:37:30.707672 26374 net.cpp:157] Top shape: 1 64 698 528 (23586816)
I0129 17:37:30.707679 26374 net.cpp:165] Memory required for data: 100947264
I0129 17:37:30.707697 26374 layer_factory.hpp:77] Creating layer relu1_1
I0129 17:37:30.707718 26374 net.cpp:100] Creating Layer relu1_1
I0129 17:37:30.707725 26374 net.cpp:434] relu1_1 <- conv1_1
I0129 17:37:30.707732 26374 net.cpp:395] relu1_1 -> conv1_1 (in-place)
I0129 17:37:30.708094 26374 net.cpp:150] Setting up relu1_1
I0129 17:37:30.708109 26374 net.cpp:157] Top shape: 1 64 698 528 (23586816)
I0129 17:37:30.708114 26374 net.cpp:165] Memory required for data: 195294528
I0129 17:37:30.708120 26374 layer_factory.hpp:77] Creating layer conv1_2
I0129 17:37:30.708139 26374 net.cpp:100] Creating Layer conv1_2
I0129 17:37:30.708144 26374 net.cpp:434] conv1_2 <- conv1_1
I0129 17:37:30.708153 26374 net.cpp:408] conv1_2 -> conv1_2
I0129 17:37:30.710852 26374 net.cpp:150] Setting up conv1_2
I0129 17:37:30.710870 26374 net.cpp:157] Top shape: 1 64 698 528 (23586816)
I0129 17:37:30.710875 26374 net.cpp:165] Memory required for data: 289641792
I0129 17:37:30.710886 26374 layer_factory.hpp:77] Creating layer relu1_2
I0129 17:37:30.710894 26374 net.cpp:100] Creating Layer relu1_2
I0129 17:37:30.710899 26374 net.cpp:434] relu1_2 <- conv1_2
I0129 17:37:30.710906 26374 net.cpp:395] relu1_2 -> conv1_2 (in-place)
I0129 17:37:30.711256 26374 net.cpp:150] Setting up relu1_2
I0129 17:37:30.711269 26374 net.cpp:157] Top shape: 1 64 698 528 (23586816)
I0129 17:37:30.711274 26374 net.cpp:165] Memory required for data: 383989056
I0129 17:37:30.711282 26374 layer_factory.hpp:77] Creating layer pool1
I0129 17:37:30.711294 26374 net.cpp:100] Creating Layer pool1
I0129 17:37:30.711299 26374 net.cpp:434] pool1 <- conv1_2
I0129 17:37:30.711307 26374 net.cpp:408] pool1 -> pool1
I0129 17:37:30.711354 26374 net.cpp:150] Setting up pool1
I0129 17:37:30.711362 26374 net.cpp:157] Top shape: 1 64 349 264 (5896704)
I0129 17:37:30.711367 26374 net.cpp:165] Memory required for data: 407575872
I0129 17:37:30.711371 26374 layer_factory.hpp:77] Creating layer conv2_1
I0129 17:37:30.711385 26374 net.cpp:100] Creating Layer conv2_1
I0129 17:37:30.711388 26374 net.cpp:434] conv2_1 <- pool1
I0129 17:37:30.711395 26374 net.cpp:408] conv2_1 -> conv2_1
I0129 17:37:30.713704 26374 net.cpp:150] Setting up conv2_1
I0129 17:37:30.713721 26374 net.cpp:157] Top shape: 1 128 349 264 (11793408)
I0129 17:37:30.713726 26374 net.cpp:165] Memory required for data: 454749504
I0129 17:37:30.713737 26374 layer_factory.hpp:77] Creating layer relu2_1
I0129 17:37:30.713749 26374 net.cpp:100] Creating Layer relu2_1
I0129 17:37:30.713754 26374 net.cpp:434] relu2_1 <- conv2_1
I0129 17:37:30.713762 26374 net.cpp:395] relu2_1 -> conv2_1 (in-place)
I0129 17:37:30.713945 26374 net.cpp:150] Setting up relu2_1
I0129 17:37:30.713956 26374 net.cpp:157] Top shape: 1 128 349 264 (11793408)
I0129 17:37:30.713961 26374 net.cpp:165] Memory required for data: 501923136
I0129 17:37:30.713966 26374 layer_factory.hpp:77] Creating layer conv2_2
I0129 17:37:30.713979 26374 net.cpp:100] Creating Layer conv2_2
I0129 17:37:30.713984 26374 net.cpp:434] conv2_2 <- conv2_1
I0129 17:37:30.713992 26374 net.cpp:408] conv2_2 -> conv2_2
I0129 17:37:30.716483 26374 net.cpp:150] Setting up conv2_2
I0129 17:37:30.716500 26374 net.cpp:157] Top shape: 1 128 349 264 (11793408)
I0129 17:37:30.716506 26374 net.cpp:165] Memory required for data: 549096768
I0129 17:37:30.716514 26374 layer_factory.hpp:77] Creating layer relu2_2
I0129 17:37:30.716524 26374 net.cpp:100] Creating Layer relu2_2
I0129 17:37:30.716529 26374 net.cpp:434] relu2_2 <- conv2_2
I0129 17:37:30.716536 26374 net.cpp:395] relu2_2 -> conv2_2 (in-place)
I0129 17:37:30.716895 26374 net.cpp:150] Setting up relu2_2
I0129 17:37:30.716909 26374 net.cpp:157] Top shape: 1 128 349 264 (11793408)
I0129 17:37:30.716913 26374 net.cpp:165] Memory required for data: 596270400
I0129 17:37:30.716933 26374 layer_factory.hpp:77] Creating layer pool2
I0129 17:37:30.716943 26374 net.cpp:100] Creating Layer pool2
I0129 17:37:30.716946 26374 net.cpp:434] pool2 <- conv2_2
I0129 17:37:30.716955 26374 net.cpp:408] pool2 -> pool2
I0129 17:37:30.717002 26374 net.cpp:150] Setting up pool2
I0129 17:37:30.717011 26374 net.cpp:157] Top shape: 1 128 175 132 (2956800)
I0129 17:37:30.717015 26374 net.cpp:165] Memory required for data: 608097600
I0129 17:37:30.717020 26374 layer_factory.hpp:77] Creating layer conv3_1
I0129 17:37:30.717032 26374 net.cpp:100] Creating Layer conv3_1
I0129 17:37:30.717037 26374 net.cpp:434] conv3_1 <- pool2
I0129 17:37:30.717044 26374 net.cpp:408] conv3_1 -> conv3_1
I0129 17:37:30.720193 26374 net.cpp:150] Setting up conv3_1
I0129 17:37:30.720209 26374 net.cpp:157] Top shape: 1 256 175 132 (5913600)
I0129 17:37:30.720214 26374 net.cpp:165] Memory required for data: 631752000
I0129 17:37:30.720226 26374 layer_factory.hpp:77] Creating layer relu3_1
I0129 17:37:30.720237 26374 net.cpp:100] Creating Layer relu3_1
I0129 17:37:30.720242 26374 net.cpp:434] relu3_1 <- conv3_1
I0129 17:37:30.720248 26374 net.cpp:395] relu3_1 -> conv3_1 (in-place)
I0129 17:37:30.720615 26374 net.cpp:150] Setting up relu3_1
I0129 17:37:30.720630 26374 net.cpp:157] Top shape: 1 256 175 132 (5913600)
I0129 17:37:30.720634 26374 net.cpp:165] Memory required for data: 655406400
I0129 17:37:30.720639 26374 layer_factory.hpp:77] Creating layer conv3_2
I0129 17:37:30.720652 26374 net.cpp:100] Creating Layer conv3_2
I0129 17:37:30.720657 26374 net.cpp:434] conv3_2 <- conv3_1
I0129 17:37:30.720667 26374 net.cpp:408] conv3_2 -> conv3_2
I0129 17:37:30.725958 26374 net.cpp:150] Setting up conv3_2
I0129 17:37:30.725976 26374 net.cpp:157] Top shape: 1 256 175 132 (5913600)
I0129 17:37:30.725981 26374 net.cpp:165] Memory required for data: 679060800
I0129 17:37:30.725991 26374 layer_factory.hpp:77] Creating layer relu3_2
I0129 17:37:30.725998 26374 net.cpp:100] Creating Layer relu3_2
I0129 17:37:30.726003 26374 net.cpp:434] relu3_2 <- conv3_2
I0129 17:37:30.726009 26374 net.cpp:395] relu3_2 -> conv3_2 (in-place)
I0129 17:37:30.726199 26374 net.cpp:150] Setting up relu3_2
I0129 17:37:30.726213 26374 net.cpp:157] Top shape: 1 256 175 132 (5913600)
I0129 17:37:30.726217 26374 net.cpp:165] Memory required for data: 702715200
I0129 17:37:30.726222 26374 layer_factory.hpp:77] Creating layer conv3_3
I0129 17:37:30.726236 26374 net.cpp:100] Creating Layer conv3_3
I0129 17:37:30.726241 26374 net.cpp:434] conv3_3 <- conv3_2
I0129 17:37:30.726253 26374 net.cpp:408] conv3_3 -> conv3_3
I0129 17:37:30.731508 26374 net.cpp:150] Setting up conv3_3
I0129 17:37:30.731524 26374 net.cpp:157] Top shape: 1 256 175 132 (5913600)
I0129 17:37:30.731529 26374 net.cpp:165] Memory required for data: 726369600
I0129 17:37:30.731539 26374 layer_factory.hpp:77] Creating layer relu3_3
I0129 17:37:30.731549 26374 net.cpp:100] Creating Layer relu3_3
I0129 17:37:30.731554 26374 net.cpp:434] relu3_3 <- conv3_3
I0129 17:37:30.731562 26374 net.cpp:395] relu3_3 -> conv3_3 (in-place)
I0129 17:37:30.731931 26374 net.cpp:150] Setting up relu3_3
I0129 17:37:30.731946 26374 net.cpp:157] Top shape: 1 256 175 132 (5913600)
I0129 17:37:30.731950 26374 net.cpp:165] Memory required for data: 750024000
I0129 17:37:30.731956 26374 layer_factory.hpp:77] Creating layer pool3
I0129 17:37:30.731966 26374 net.cpp:100] Creating Layer pool3
I0129 17:37:30.731969 26374 net.cpp:434] pool3 <- conv3_3
I0129 17:37:30.731978 26374 net.cpp:408] pool3 -> pool3
I0129 17:37:30.732025 26374 net.cpp:150] Setting up pool3
I0129 17:37:30.732033 26374 net.cpp:157] Top shape: 1 256 88 66 (1486848)
I0129 17:37:30.732038 26374 net.cpp:165] Memory required for data: 755971392
I0129 17:37:30.732041 26374 layer_factory.hpp:77] Creating layer pool3_pool3_0_split
I0129 17:37:30.732050 26374 net.cpp:100] Creating Layer pool3_pool3_0_split
I0129 17:37:30.732054 26374 net.cpp:434] pool3_pool3_0_split <- pool3
I0129 17:37:30.732060 26374 net.cpp:408] pool3_pool3_0_split -> pool3_pool3_0_split_0
I0129 17:37:30.732067 26374 net.cpp:408] pool3_pool3_0_split -> pool3_pool3_0_split_1
I0129 17:37:30.732116 26374 net.cpp:150] Setting up pool3_pool3_0_split
I0129 17:37:30.732123 26374 net.cpp:157] Top shape: 1 256 88 66 (1486848)
I0129 17:37:30.732128 26374 net.cpp:157] Top shape: 1 256 88 66 (1486848)
I0129 17:37:30.732132 26374 net.cpp:165] Memory required for data: 767866176
I0129 17:37:30.732136 26374 layer_factory.hpp:77] Creating layer conv4_1
I0129 17:37:30.732151 26374 net.cpp:100] Creating Layer conv4_1
I0129 17:37:30.732156 26374 net.cpp:434] conv4_1 <- pool3_pool3_0_split_0
I0129 17:37:30.732163 26374 net.cpp:408] conv4_1 -> conv4_1
I0129 17:37:30.742566 26374 net.cpp:150] Setting up conv4_1
I0129 17:37:30.742586 26374 net.cpp:157] Top shape: 1 512 88 66 (2973696)
I0129 17:37:30.742590 26374 net.cpp:165] Memory required for data: 779760960
I0129 17:37:30.742599 26374 layer_factory.hpp:77] Creating layer relu4_1
I0129 17:37:30.742610 26374 net.cpp:100] Creating Layer relu4_1
I0129 17:37:30.742615 26374 net.cpp:434] relu4_1 <- conv4_1
I0129 17:37:30.742622 26374 net.cpp:395] relu4_1 -> conv4_1 (in-place)
I0129 17:37:30.742996 26374 net.cpp:150] Setting up relu4_1
I0129 17:37:30.743010 26374 net.cpp:157] Top shape: 1 512 88 66 (2973696)
I0129 17:37:30.743016 26374 net.cpp:165] Memory required for data: 791655744
I0129 17:37:30.743019 26374 layer_factory.hpp:77] Creating layer conv4_2
I0129 17:37:30.743034 26374 net.cpp:100] Creating Layer conv4_2
I0129 17:37:30.743039 26374 net.cpp:434] conv4_2 <- conv4_1
I0129 17:37:30.743048 26374 net.cpp:408] conv4_2 -> conv4_2
I0129 17:37:30.760221 26374 net.cpp:150] Setting up conv4_2
I0129 17:37:30.760246 26374 net.cpp:157] Top shape: 1 512 88 66 (2973696)
I0129 17:37:30.760251 26374 net.cpp:165] Memory required for data: 803550528
I0129 17:37:30.760268 26374 layer_factory.hpp:77] Creating layer relu4_2
I0129 17:37:30.760280 26374 net.cpp:100] Creating Layer relu4_2
I0129 17:37:30.760287 26374 net.cpp:434] relu4_2 <- conv4_2
I0129 17:37:30.760293 26374 net.cpp:395] relu4_2 -> conv4_2 (in-place)
I0129 17:37:30.760483 26374 net.cpp:150] Setting up relu4_2
I0129 17:37:30.760493 26374 net.cpp:157] Top shape: 1 512 88 66 (2973696)
I0129 17:37:30.760498 26374 net.cpp:165] Memory required for data: 815445312
I0129 17:37:30.760504 26374 layer_factory.hpp:77] Creating layer conv4_3
I0129 17:37:30.760516 26374 net.cpp:100] Creating Layer conv4_3
I0129 17:37:30.760521 26374 net.cpp:434] conv4_3 <- conv4_2
I0129 17:37:30.760530 26374 net.cpp:408] conv4_3 -> conv4_3
I0129 17:37:30.777643 26374 net.cpp:150] Setting up conv4_3
I0129 17:37:30.777673 26374 net.cpp:157] Top shape: 1 512 88 66 (2973696)
I0129 17:37:30.777678 26374 net.cpp:165] Memory required for data: 827340096
I0129 17:37:30.777688 26374 layer_factory.hpp:77] Creating layer relu4_3
I0129 17:37:30.777698 26374 net.cpp:100] Creating Layer relu4_3
I0129 17:37:30.777704 26374 net.cpp:434] relu4_3 <- conv4_3
I0129 17:37:30.777711 26374 net.cpp:395] relu4_3 -> conv4_3 (in-place)
I0129 17:37:30.778086 26374 net.cpp:150] Setting up relu4_3
I0129 17:37:30.778100 26374 net.cpp:157] Top shape: 1 512 88 66 (2973696)
I0129 17:37:30.778105 26374 net.cpp:165] Memory required for data: 839234880
I0129 17:37:30.778110 26374 layer_factory.hpp:77] Creating layer pool4
I0129 17:37:30.778121 26374 net.cpp:100] Creating Layer pool4
I0129 17:37:30.778126 26374 net.cpp:434] pool4 <- conv4_3
I0129 17:37:30.778133 26374 net.cpp:408] pool4 -> pool4
I0129 17:37:30.778185 26374 net.cpp:150] Setting up pool4
I0129 17:37:30.778194 26374 net.cpp:157] Top shape: 1 512 44 33 (743424)
I0129 17:37:30.778198 26374 net.cpp:165] Memory required for data: 842208576
I0129 17:37:30.778203 26374 layer_factory.hpp:77] Creating layer pool4_pool4_0_split
I0129 17:37:30.778209 26374 net.cpp:100] Creating Layer pool4_pool4_0_split
I0129 17:37:30.778213 26374 net.cpp:434] pool4_pool4_0_split <- pool4
I0129 17:37:30.778221 26374 net.cpp:408] pool4_pool4_0_split -> pool4_pool4_0_split_0
I0129 17:37:30.778228 26374 net.cpp:408] pool4_pool4_0_split -> pool4_pool4_0_split_1
I0129 17:37:30.778267 26374 net.cpp:150] Setting up pool4_pool4_0_split
I0129 17:37:30.778287 26374 net.cpp:157] Top shape: 1 512 44 33 (743424)
I0129 17:37:30.778292 26374 net.cpp:157] Top shape: 1 512 44 33 (743424)
I0129 17:37:30.778296 26374 net.cpp:165] Memory required for data: 848155968
I0129 17:37:30.778301 26374 layer_factory.hpp:77] Creating layer conv5_1
I0129 17:37:30.778316 26374 net.cpp:100] Creating Layer conv5_1
I0129 17:37:30.778321 26374 net.cpp:434] conv5_1 <- pool4_pool4_0_split_0
I0129 17:37:30.778328 26374 net.cpp:408] conv5_1 -> conv5_1
I0129 17:37:30.795311 26374 net.cpp:150] Setting up conv5_1
I0129 17:37:30.795339 26374 net.cpp:157] Top shape: 1 512 44 33 (743424)
I0129 17:37:30.795343 26374 net.cpp:165] Memory required for data: 851129664
I0129 17:37:30.795353 26374 layer_factory.hpp:77] Creating layer relu5_1
I0129 17:37:30.795366 26374 net.cpp:100] Creating Layer relu5_1
I0129 17:37:30.795370 26374 net.cpp:434] relu5_1 <- conv5_1
I0129 17:37:30.795378 26374 net.cpp:395] relu5_1 -> conv5_1 (in-place)
I0129 17:37:30.795754 26374 net.cpp:150] Setting up relu5_1
I0129 17:37:30.795768 26374 net.cpp:157] Top shape: 1 512 44 33 (743424)
I0129 17:37:30.795773 26374 net.cpp:165] Memory required for data: 854103360
I0129 17:37:30.795778 26374 layer_factory.hpp:77] Creating layer conv5_2
I0129 17:37:30.795792 26374 net.cpp:100] Creating Layer conv5_2
I0129 17:37:30.795797 26374 net.cpp:434] conv5_2 <- conv5_1
I0129 17:37:30.795807 26374 net.cpp:408] conv5_2 -> conv5_2
I0129 17:37:30.813045 26374 net.cpp:150] Setting up conv5_2
I0129 17:37:30.813071 26374 net.cpp:157] Top shape: 1 512 44 33 (743424)
I0129 17:37:30.813076 26374 net.cpp:165] Memory required for data: 857077056
I0129 17:37:30.813084 26374 layer_factory.hpp:77] Creating layer relu5_2
I0129 17:37:30.813094 26374 net.cpp:100] Creating Layer relu5_2
I0129 17:37:30.813102 26374 net.cpp:434] relu5_2 <- conv5_2
I0129 17:37:30.813109 26374 net.cpp:395] relu5_2 -> conv5_2 (in-place)
I0129 17:37:30.813302 26374 net.cpp:150] Setting up relu5_2
I0129 17:37:30.813313 26374 net.cpp:157] Top shape: 1 512 44 33 (743424)
I0129 17:37:30.813318 26374 net.cpp:165] Memory required for data: 860050752
I0129 17:37:30.813324 26374 layer_factory.hpp:77] Creating layer conv5_3
I0129 17:37:30.813347 26374 net.cpp:100] Creating Layer conv5_3
I0129 17:37:30.813352 26374 net.cpp:434] conv5_3 <- conv5_2
I0129 17:37:30.813360 26374 net.cpp:408] conv5_3 -> conv5_3
I0129 17:37:30.830538 26374 net.cpp:150] Setting up conv5_3
I0129 17:37:30.830565 26374 net.cpp:157] Top shape: 1 512 44 33 (743424)
I0129 17:37:30.830570 26374 net.cpp:165] Memory required for data: 863024448
I0129 17:37:30.830579 26374 layer_factory.hpp:77] Creating layer relu5_3
I0129 17:37:30.830588 26374 net.cpp:100] Creating Layer relu5_3
I0129 17:37:30.830593 26374 net.cpp:434] relu5_3 <- conv5_3
I0129 17:37:30.830602 26374 net.cpp:395] relu5_3 -> conv5_3 (in-place)
I0129 17:37:30.831166 26374 net.cpp:150] Setting up relu5_3
I0129 17:37:30.831179 26374 net.cpp:157] Top shape: 1 512 44 33 (743424)
I0129 17:37:30.831183 26374 net.cpp:165] Memory required for data: 865998144
I0129 17:37:30.831188 26374 layer_factory.hpp:77] Creating layer pool5
I0129 17:37:30.831198 26374 net.cpp:100] Creating Layer pool5
I0129 17:37:30.831203 26374 net.cpp:434] pool5 <- conv5_3
I0129 17:37:30.831213 26374 net.cpp:408] pool5 -> pool5
I0129 17:37:30.831266 26374 net.cpp:150] Setting up pool5
I0129 17:37:30.831276 26374 net.cpp:157] Top shape: 1 512 22 17 (191488)
I0129 17:37:30.831280 26374 net.cpp:165] Memory required for data: 866764096
I0129 17:37:30.831285 26374 layer_factory.hpp:77] Creating layer fc6
I0129 17:37:30.831297 26374 net.cpp:100] Creating Layer fc6
I0129 17:37:30.831302 26374 net.cpp:434] fc6 <- pool5
I0129 17:37:30.831313 26374 net.cpp:408] fc6 -> fc6
I0129 17:37:31.550915 26374 net.cpp:150] Setting up fc6
I0129 17:37:31.550967 26374 net.cpp:157] Top shape: 1 4096 16 11 (720896)
I0129 17:37:31.550972 26374 net.cpp:165] Memory required for data: 869647680
I0129 17:37:31.550986 26374 layer_factory.hpp:77] Creating layer relu6
I0129 17:37:31.551014 26374 net.cpp:100] Creating Layer relu6
I0129 17:37:31.551021 26374 net.cpp:434] relu6 <- fc6
I0129 17:37:31.551029 26374 net.cpp:395] relu6 -> fc6 (in-place)
I0129 17:37:31.551415 26374 net.cpp:150] Setting up relu6
I0129 17:37:31.551430 26374 net.cpp:157] Top shape: 1 4096 16 11 (720896)
I0129 17:37:31.551434 26374 net.cpp:165] Memory required for data: 872531264
I0129 17:37:31.551440 26374 layer_factory.hpp:77] Creating layer drop6
I0129 17:37:31.551455 26374 net.cpp:100] Creating Layer drop6
I0129 17:37:31.551460 26374 net.cpp:434] drop6 <- fc6
I0129 17:37:31.551468 26374 net.cpp:395] drop6 -> fc6 (in-place)
I0129 17:37:31.551509 26374 net.cpp:150] Setting up drop6
I0129 17:37:31.551517 26374 net.cpp:157] Top shape: 1 4096 16 11 (720896)
I0129 17:37:31.551522 26374 net.cpp:165] Memory required for data: 875414848
I0129 17:37:31.551525 26374 layer_factory.hpp:77] Creating layer fc7
I0129 17:37:31.551540 26374 net.cpp:100] Creating Layer fc7
I0129 17:37:31.551544 26374 net.cpp:434] fc7 <- fc6
I0129 17:37:31.551553 26374 net.cpp:408] fc7 -> fc7
I0129 17:37:31.670367 26374 net.cpp:150] Setting up fc7
I0129 17:37:31.670418 26374 net.cpp:157] Top shape: 1 4096 16 11 (720896)
I0129 17:37:31.670424 26374 net.cpp:165] Memory required for data: 878298432
I0129 17:37:31.670436 26374 layer_factory.hpp:77] Creating layer relu7
I0129 17:37:31.670449 26374 net.cpp:100] Creating Layer relu7
I0129 17:37:31.670455 26374 net.cpp:434] relu7 <- fc7
I0129 17:37:31.670464 26374 net.cpp:395] relu7 -> fc7 (in-place)
I0129 17:37:31.670680 26374 net.cpp:150] Setting up relu7
I0129 17:37:31.670692 26374 net.cpp:157] Top shape: 1 4096 16 11 (720896)
I0129 17:37:31.670696 26374 net.cpp:165] Memory required for data: 881182016
I0129 17:37:31.670703 26374 layer_factory.hpp:77] Creating layer drop7
I0129 17:37:31.670712 26374 net.cpp:100] Creating Layer drop7
I0129 17:37:31.670717 26374 net.cpp:434] drop7 <- fc7
I0129 17:37:31.670724 26374 net.cpp:395] drop7 -> fc7 (in-place)
I0129 17:37:31.670760 26374 net.cpp:150] Setting up drop7
I0129 17:37:31.670770 26374 net.cpp:157] Top shape: 1 4096 16 11 (720896)
I0129 17:37:31.670774 26374 net.cpp:165] Memory required for data: 884065600
I0129 17:37:31.670778 26374 layer_factory.hpp:77] Creating layer score_fr
I0129 17:37:31.670790 26374 net.cpp:100] Creating Layer score_fr
I0129 17:37:31.670794 26374 net.cpp:434] score_fr <- fc7
I0129 17:37:31.670804 26374 net.cpp:408] score_fr -> score_fr
I0129 17:37:31.689728 26374 net.cpp:150] Setting up score_fr
I0129 17:37:31.689751 26374 net.cpp:157] Top shape: 1 21 16 11 (3696)
I0129 17:37:31.689756 26374 net.cpp:165] Memory required for data: 884080384
I0129 17:37:31.689765 26374 layer_factory.hpp:77] Creating layer upscore2
I0129 17:37:31.689782 26374 net.cpp:100] Creating Layer upscore2
I0129 17:37:31.689788 26374 net.cpp:434] upscore2 <- score_fr
I0129 17:37:31.689797 26374 net.cpp:408] upscore2 -> upscore2
I0129 17:37:31.690081 26374 net.cpp:150] Setting up upscore2
I0129 17:37:31.690093 26374 net.cpp:157] Top shape: 1 21 34 24 (17136)
I0129 17:37:31.690096 26374 net.cpp:165] Memory required for data: 884148928
I0129 17:37:31.690115 26374 layer_factory.hpp:77] Creating layer upscore2_upscore2_0_split
I0129 17:37:31.690124 26374 net.cpp:100] Creating Layer upscore2_upscore2_0_split
I0129 17:37:31.690129 26374 net.cpp:434] upscore2_upscore2_0_split <- upscore2
I0129 17:37:31.690135 26374 net.cpp:408] upscore2_upscore2_0_split -> upscore2_upscore2_0_split_0
I0129 17:37:31.690143 26374 net.cpp:408] upscore2_upscore2_0_split -> upscore2_upscore2_0_split_1
I0129 17:37:31.690186 26374 net.cpp:150] Setting up upscore2_upscore2_0_split
I0129 17:37:31.690194 26374 net.cpp:157] Top shape: 1 21 34 24 (17136)
I0129 17:37:31.690199 26374 net.cpp:157] Top shape: 1 21 34 24 (17136)
I0129 17:37:31.690203 26374 net.cpp:165] Memory required for data: 884286016
I0129 17:37:31.690207 26374 layer_factory.hpp:77] Creating layer scale_pool4
I0129 17:37:31.690222 26374 net.cpp:100] Creating Layer scale_pool4
I0129 17:37:31.690227 26374 net.cpp:434] scale_pool4 <- pool4_pool4_0_split_1
I0129 17:37:31.690243 26374 net.cpp:408] scale_pool4 -> scale_pool4
I0129 17:37:31.690356 26374 net.cpp:150] Setting up scale_pool4
I0129 17:37:31.690367 26374 net.cpp:157] Top shape: 1 512 44 33 (743424)
I0129 17:37:31.690371 26374 net.cpp:165] Memory required for data: 887259712
I0129 17:37:31.690376 26374 layer_factory.hpp:77] Creating layer score_pool4
I0129 17:37:31.690387 26374 net.cpp:100] Creating Layer score_pool4
I0129 17:37:31.690392 26374 net.cpp:434] score_pool4 <- scale_pool4
I0129 17:37:31.690400 26374 net.cpp:408] score_pool4 -> score_pool4
I0129 17:37:31.691753 26374 net.cpp:150] Setting up score_pool4
I0129 17:37:31.691769 26374 net.cpp:157] Top shape: 1 21 44 33 (30492)
I0129 17:37:31.691773 26374 net.cpp:165] Memory required for data: 887381680
I0129 17:37:31.691782 26374 layer_factory.hpp:77] Creating layer score_pool4c
I0129 17:37:31.691794 26374 net.cpp:100] Creating Layer score_pool4c
I0129 17:37:31.691799 26374 net.cpp:434] score_pool4c <- score_pool4
I0129 17:37:31.691807 26374 net.cpp:434] score_pool4c <- upscore2_upscore2_0_split_0
I0129 17:37:31.691814 26374 net.cpp:408] score_pool4c -> score_pool4c
I0129 17:37:31.691854 26374 net.cpp:150] Setting up score_pool4c
I0129 17:37:31.691862 26374 net.cpp:157] Top shape: 1 21 34 24 (17136)
I0129 17:37:31.691866 26374 net.cpp:165] Memory required for data: 887450224
I0129 17:37:31.691871 26374 layer_factory.hpp:77] Creating layer fuse_pool4
I0129 17:37:31.691881 26374 net.cpp:100] Creating Layer fuse_pool4
I0129 17:37:31.691885 26374 net.cpp:434] fuse_pool4 <- upscore2_upscore2_0_split_1
I0129 17:37:31.691891 26374 net.cpp:434] fuse_pool4 <- score_pool4c
I0129 17:37:31.691900 26374 net.cpp:408] fuse_pool4 -> fuse_pool4
I0129 17:37:31.691931 26374 net.cpp:150] Setting up fuse_pool4
I0129 17:37:31.691941 26374 net.cpp:157] Top shape: 1 21 34 24 (17136)
I0129 17:37:31.691943 26374 net.cpp:165] Memory required for data: 887518768
I0129 17:37:31.691948 26374 layer_factory.hpp:77] Creating layer upscore_pool4
I0129 17:37:31.691956 26374 net.cpp:100] Creating Layer upscore_pool4
I0129 17:37:31.691962 26374 net.cpp:434] upscore_pool4 <- fuse_pool4
I0129 17:37:31.691970 26374 net.cpp:408] upscore_pool4 -> upscore_pool4
I0129 17:37:31.692219 26374 net.cpp:150] Setting up upscore_pool4
I0129 17:37:31.692229 26374 net.cpp:157] Top shape: 1 21 70 50 (73500)
I0129 17:37:31.692232 26374 net.cpp:165] Memory required for data: 887812768
I0129 17:37:31.692239 26374 layer_factory.hpp:77] Creating layer upscore_pool4_upscore_pool4_0_split
I0129 17:37:31.692247 26374 net.cpp:100] Creating Layer upscore_pool4_upscore_pool4_0_split
I0129 17:37:31.692251 26374 net.cpp:434] upscore_pool4_upscore_pool4_0_split <- upscore_pool4
I0129 17:37:31.692258 26374 net.cpp:408] upscore_pool4_upscore_pool4_0_split -> upscore_pool4_upscore_pool4_0_split_0
I0129 17:37:31.692265 26374 net.cpp:408] upscore_pool4_upscore_pool4_0_split -> upscore_pool4_upscore_pool4_0_split_1
I0129 17:37:31.692306 26374 net.cpp:150] Setting up upscore_pool4_upscore_pool4_0_split
I0129 17:37:31.692313 26374 net.cpp:157] Top shape: 1 21 70 50 (73500)
I0129 17:37:31.692318 26374 net.cpp:157] Top shape: 1 21 70 50 (73500)
I0129 17:37:31.692322 26374 net.cpp:165] Memory required for data: 888400768
I0129 17:37:31.692327 26374 layer_factory.hpp:77] Creating layer scale_pool3
I0129 17:37:31.692335 26374 net.cpp:100] Creating Layer scale_pool3
I0129 17:37:31.692340 26374 net.cpp:434] scale_pool3 <- pool3_pool3_0_split_1
I0129 17:37:31.692348 26374 net.cpp:408] scale_pool3 -> scale_pool3
I0129 17:37:31.692451 26374 net.cpp:150] Setting up scale_pool3
I0129 17:37:31.692458 26374 net.cpp:157] Top shape: 1 256 88 66 (1486848)
I0129 17:37:31.692462 26374 net.cpp:165] Memory required for data: 894348160
I0129 17:37:31.692468 26374 layer_factory.hpp:77] Creating layer score_pool3
I0129 17:37:31.692481 26374 net.cpp:100] Creating Layer score_pool3
I0129 17:37:31.692486 26374 net.cpp:434] score_pool3 <- scale_pool3
I0129 17:37:31.692493 26374 net.cpp:408] score_pool3 -> score_pool3
I0129 17:37:31.693819 26374 net.cpp:150] Setting up score_pool3
I0129 17:37:31.693840 26374 net.cpp:157] Top shape: 1 21 88 66 (121968)
I0129 17:37:31.693848 26374 net.cpp:165] Memory required for data: 894836032
I0129 17:37:31.693856 26374 layer_factory.hpp:77] Creating layer score_pool3c
I0129 17:37:31.693866 26374 net.cpp:100] Creating Layer score_pool3c
I0129 17:37:31.693871 26374 net.cpp:434] score_pool3c <- score_pool3
I0129 17:37:31.693876 26374 net.cpp:434] score_pool3c <- upscore_pool4_upscore_pool4_0_split_0
I0129 17:37:31.693883 26374 net.cpp:408] score_pool3c -> score_pool3c
I0129 17:37:31.693919 26374 net.cpp:150] Setting up score_pool3c
I0129 17:37:31.693928 26374 net.cpp:157] Top shape: 1 21 70 50 (73500)
I0129 17:37:31.693933 26374 net.cpp:165] Memory required for data: 895130032
I0129 17:37:31.693936 26374 layer_factory.hpp:77] Creating layer fuse_pool3
I0129 17:37:31.693948 26374 net.cpp:100] Creating Layer fuse_pool3
I0129 17:37:31.693953 26374 net.cpp:434] fuse_pool3 <- upscore_pool4_upscore_pool4_0_split_1
I0129 17:37:31.693958 26374 net.cpp:434] fuse_pool3 <- score_pool3c
I0129 17:37:31.693964 26374 net.cpp:408] fuse_pool3 -> fuse_pool3
I0129 17:37:31.693991 26374 net.cpp:150] Setting up fuse_pool3
I0129 17:37:31.693998 26374 net.cpp:157] Top shape: 1 21 70 50 (73500)
I0129 17:37:31.694002 26374 net.cpp:165] Memory required for data: 895424032
I0129 17:37:31.694006 26374 layer_factory.hpp:77] Creating layer upscore8
I0129 17:37:31.694018 26374 net.cpp:100] Creating Layer upscore8
I0129 17:37:31.694023 26374 net.cpp:434] upscore8 <- fuse_pool3
I0129 17:37:31.694030 26374 net.cpp:408] upscore8 -> upscore8
I0129 17:37:31.695456 26374 net.cpp:150] Setting up upscore8
I0129 17:37:31.695469 26374 net.cpp:157] Top shape: 1 21 568 408 (4866624)
I0129 17:37:31.695474 26374 net.cpp:165] Memory required for data: 914890528
I0129 17:37:31.695482 26374 layer_factory.hpp:77] Creating layer score
I0129 17:37:31.695492 26374 net.cpp:100] Creating Layer score
I0129 17:37:31.695497 26374 net.cpp:434] score <- upscore8
I0129 17:37:31.695502 26374 net.cpp:434] score <- data_data_0_split_1
I0129 17:37:31.695508 26374 net.cpp:408] score -> score
I0129 17:37:31.695538 26374 net.cpp:150] Setting up score
I0129 17:37:31.695545 26374 net.cpp:157] Top shape: 1 21 500 330 (3465000)
I0129 17:37:31.695549 26374 net.cpp:165] Memory required for data: 928750528
I0129 17:37:31.695554 26374 layer_factory.hpp:77] Creating layer loss
I0129 17:37:31.695564 26374 net.cpp:100] Creating Layer loss
I0129 17:37:31.695569 26374 net.cpp:434] loss <- score
I0129 17:37:31.695576 26374 net.cpp:434] loss <- label
I0129 17:37:31.695585 26374 net.cpp:408] loss -> loss
I0129 17:37:31.695596 26374 layer_factory.hpp:77] Creating layer loss
…
I0129 17:37:31.704478 26374 net.cpp:283] Network initialization done.
I0129 17:37:31.705708 26374 solver.cpp:181] Creating test net (#0) specified by test_net file: val.prototxt
I0129 17:37:31.706089 26374 net.cpp:58] Initializing net from parameters: 
state {
  phase: TEST
}
layer {
  name: "data"
  type: "Python"
  top: "data"
  top: "label"
  python_param {
    module: "voc_layers"
    layer: "VOCSegDataLayer"
    param_str: "{\'voc_dir\': \'../data/pascal-obfuscated/VOC2011\', \'seed\': 1337, \'split\': \'seg11valid\', \'mean\': (104.00699, 116.66877, 122.67892)}"
  }
}
layer {
  name: "conv1_1"
  type: "Convolution"
  bottom: "data"
  top: "conv1_1"
  param {
    lr_mult: 1
    decay_mult: 1
  }
  param {
    lr_mult: 2
    decay_mult: 0
  }
  convolution_param {
    num_output: 64
    pad: 100
    kernel_size: 3
    stride: 1
    weight_filler {
      type: "xavier"
    }
  }
}
layer {
  name: "relu1_1"
  type: "ReLU"
  bottom: "conv1_1"
  top: "conv1_1"
}
layer {
  name: "conv1_2"
  type: "Convolution"
  bottom: "conv1_1"
  top: "conv1_2"
  param {
    lr_mult: 1
    decay_mult: 1
  }
  param {
    lr_mult: 2
    decay_mult: 0
  }
  convolution_param {
    num_output: 64
    pad: 1
    kernel_size: 3
    stride: 1
    weight_filler {
      type: "xavier"
    }
  }
}
layer {
  name: "relu1_2"
  type: "ReLU"
  bottom: "conv1_2"
  top: "conv1_2"
}
layer {
  name: "pool1"
  type: "Pooling"
  bottom: "conv1_2"
  top: "pool1"
  pooling_param {
    pool: MAX
    kernel_size: 2
    stride: 2
  }
}
layer {
  name: "conv2_1"
  type: "Convolution"
  bottom: "pool1"
  top: "conv2_1"
  param {
    lr_mult: 1
    decay_mult: 1
  }
  param {
    lr_mult: 2
    decay_mult: 0
  }
  convolution_param {
    num_output: 128
    pad: 1
    kernel_size: 3
    stride: 1
    weight_filler {
      type: "xavier"
    }
  }
}
layer {
  name: "relu2_1"
  type: "ReLU"
  bottom: "conv2_1"
  top: "conv2_1"
}
layer {
  name: "conv2_2"
  type: "Convolution"
  bottom: "conv2_1"
  top: "conv2_2"
  param {
    lr_mult: 1
    decay_mult: 1
  }
  param {
    lr_mult: 2
    decay_mult: 0
  }
  convolution_param {
    num_output: 128
    pad: 1
    kernel_size: 3
    stride: 1
    weight_filler {
      type: "xavier"
    }
  }
}
layer {
  name: "relu2_2"
  type: "ReLU"
  bottom: "conv2_2"
  top: "conv2_2"
}
layer {
  name: "pool2"
  type: "Pooling"
  bottom: "conv2_2"
  top: "pool2"
  pooling_param {
    pool: MAX
    kernel_size: 2
    stride: 2
  }
}
layer {
  name: "conv3_1"
  type: "Convolution"
  bottom: "pool2"
  top: "conv3_1"
  param {
    lr_mult: 1
    decay_mult: 1
  }
  param {
    lr_mult: 2
    decay_mult: 0
  }
  convolution_param {
    num_output: 256
    pad: 1
    kernel_size: 3
    stride: 1
    weight_filler {
      type: "xavier"
    }
  }
}
layer {
  name: "relu3_1"
  type: "ReLU"
  bottom: "conv3_1"
  top: "conv3_1"
}
layer {
  name: "conv3_2"
  type: "Convolution"
  bottom: "conv3_1"
  top: "conv3_2"
  param {
    lr_mult: 1
    decay_mult: 1
  }
  param {
    lr_mult: 2
    decay_mult: 0
  }
  convolution_param {
    num_output: 256
    pad: 1
    kernel_size: 3
    stride: 1
    weight_filler {
      type: "xavier"
    }
  }
}
layer {
  name: "relu3_2"
  type: "ReLU"
  bottom: "conv3_2"
  top: "conv3_2"
}
layer {
  name: "conv3_3"
  type: "Convolution"
  bottom: "conv3_2"
  top: "conv3_3"
  param {
    lr_mult: 1
    decay_mult: 1
  }
  param {
    lr_mult: 2
    decay_mult: 0
  }
  convolution_param {
    num_output: 256
    pad: 1
    kernel_size: 3
    stride: 1
    weight_filler {
      type: "xavier"
    }
  }
}
layer {
  name: "relu3_3"
  type: "ReLU"
  bottom: "conv3_3"
  top: "conv3_3"
}
layer {
  name: "pool3"
  type: "Pooling"
  bottom: "conv3_3"
  top: "pool3"
  pooling_param {
    pool: MAX
    kernel_size: 2
    stride: 2
  }
}
layer {
  name: "conv4_1"
  type: "Convolution"
  bottom: "pool3"
  top: "conv4_1"
  param {
    lr_mult: 1
    decay_mult: 1
  }
  param {
    lr_mult: 2
    decay_mult: 0
  }
  convolution_param {
    num_output: 512
    pad: 1
    kernel_size: 3
    stride: 1
    weight_filler {
      type: "xavier"
    }
  }
}
layer {
  name: "relu4_1"
  type: "ReLU"
  bottom: "conv4_1"
  top: "conv4_1"
}
layer {
  name: "conv4_2"
  type: "Convolution"
  bottom: "conv4_1"
  top: "conv4_2"
  param {
    lr_mult: 1
    decay_mult: 1
  }
  param {
    lr_mult: 2
    decay_mult: 0
  }
  convolution_param {
    num_output: 512
    pad: 1
    kernel_size: 3
    stride: 1
    weight_filler {
      type: "xavier"
    }
  }
}
layer {
  name: "relu4_2"
  type: "ReLU"
  bottom: "conv4_2"
  top: "conv4_2"
}
layer {
  name: "conv4_3"
  type: "Convolution"
  bottom: "conv4_2"
  top: "conv4_3"
  param {
    lr_mult: 1
    decay_mult: 1
  }
  param {
    lr_mult: 2
    decay_mult: 0
  }
  convolution_param {
    num_output: 512
    pad: 1
    kernel_size: 3
    stride: 1
    weight_filler {
      type: "xavier"
    }
  }
}
layer {
  name: "relu4_3"
  type: "ReLU"
  bottom: "conv4_3"
  top: "conv4_3"
}
layer {
  name: "pool4"
  type: "Pooling"
  bottom: "conv4_3"
  top: "pool4"
  pooling_param {
    pool: MAX
    kernel_size: 2
    stride: 2
  }
}
layer {
  name: "conv5_1"
  type: "Convolution"
  bottom: "pool4"
  top: "conv5_1"
  param {
    lr_mult: 1
    decay_mult: 1
  }
  param {
    lr_mult: 2
    decay_mult: 0
  }
  convolution_param {
    num_output: 512
    pad: 1
    kernel_size: 3
    stride: 1
    weight_filler {
      type: "xavier"
    }
  }
}
layer {
  name: "relu5_1"
  type: "ReLU"
  bottom: "conv5_1"
  top: "conv5_1"
}
layer {
  name: "conv5_2"
  type: "Convolution"
  bottom: "conv5_1"
  top: "conv5_2"
  param {
    lr_mult: 1
    decay_mult: 1
  }
  param {
    lr_mult: 2
    decay_mult: 0
  }
  convolution_param {
    num_output: 512
    pad: 1
    kernel_size: 3
    stride: 1
    weight_filler {
      type: "xavier"
    }
  }
}
layer {
  name: "relu5_2"
  type: "ReLU"
  bottom: "conv5_2"
  top: "conv5_2"
}
layer {
  name: "conv5_3"
  type: "Convolution"
  bottom: "conv5_2"
  top: "conv5_3"
  param {
    lr_mult: 1
    decay_mult: 1
  }
  param {
    lr_mult: 2
    decay_mult: 0
  }
  convolution_param {
    num_output: 512
    pad: 1
    kernel_size: 3
    stride: 1
    weight_filler {
      type: "xavier"
    }
  }
}
layer {
  name: "relu5_3"
  type: "ReLU"
  bottom: "conv5_3"
  top: "conv5_3"
}
layer {
  name: "pool5"
  type: "Pooling"
  bottom: "conv5_3"
  top: "pool5"
  pooling_param {
    pool: MAX
    kernel_size: 2
    stride: 2
  }
}
layer {
  name: "fc6"
  type: "Convolution"
  bottom: "pool5"
  top: "fc6"
  param {
    lr_mult: 1
    decay_mult: 1
  }
  param {
    lr_mult: 2
    decay_mult: 0
  }
  convolution_param {
    num_output: 4096
    pad: 0
    kernel_size: 7
    stride: 1
    weight_filler {
      type: "xavier"
    }
  }
}
layer {
  name: "relu6"
  type: "ReLU"
  bottom: "fc6"
  top: "fc6"
}
layer {
  name: "drop6"
  type: "Dropout"
  bottom: "fc6"
  top: "fc6"
  dropout_param {
    dropout_ratio: 0.5
  }
}
layer {
  name: "fc7"
  type: "Convolution"
  bottom: "fc6"
  top: "fc7"
  param {
    lr_mult: 1
    decay_mult: 1
  }
  param {
    lr_mult: 2
    decay_mult: 0
  }
  convolution_param {
    num_output: 4096
    pad: 0
    kernel_size: 1
    stride: 1
    weight_filler {
      type: "xavier"
    }
  }
}
layer {
  name: "relu7"
  type: "ReLU"
  bottom: "fc7"
  top: "fc7"
}
layer {
  name: "drop7"
  type: "Dropout"
  bottom: "fc7"
  top: "fc7"
  dropout_param {
    dropout_ratio: 0.5
  }
}
layer {
  name: "score_fr"
  type: "Convolution"
  bottom: "fc7"
  top: "score_fr"
  param {
    lr_mult: 1
    decay_mult: 1
  }
  param {
    lr_mult: 2
    decay_mult: 0
  }
  convolution_param {
    num_output: 21
    pad: 0
    kernel_size: 1
    weight_filler {
      type: "xavier"
    }
  }
}
layer {
  name: "upscore2"
  type: "Deconvolution"
  bottom: "score_fr"
  top: "upscore2"
  param {
    lr_mult: 0
  }
  convolution_param {
    num_output: 21
    bias_term: false
    kernel_size: 4
    stride: 2
    weight_filler {
      type: "xavier"
    }
  }
}
layer {
  name: "scale_pool4"
  type: "Scale"
  bottom: "pool4"
  top: "scale_pool4"
  param {
    lr_mult: 0
  }
  scale_param {
    filler {
      type: "constant"
      value: 0.01
    }
  }
}
layer {
  name: "score_pool4"
  type: "Convolution"
  bottom: "scale_pool4"
  top: "score_pool4"
  param {
    lr_mult: 1
    decay_mult: 1
  }
  param {
    lr_mult: 2
    decay_mult: 0
  }
  convolution_param {
    num_output: 21
    pad: 0
    kernel_size: 1
    weight_filler {
      type: "xavier"
    }
  }
}
layer {
  name: "score_pool4c"
  type: "Crop"
  bottom: "score_pool4"
  bottom: "upscore2"
  top: "score_pool4c"
  crop_param {
    axis: 2
    offset: 5
  }
}
layer {
  name: "fuse_pool4"
  type: "Eltwise"
  bottom: "upscore2"
  bottom: "score_pool4c"
  top: "fuse_pool4"
  eltwise_param {
    operation: SUM
  }
}
layer {
  name: "upscore_pool4"
  type: "Deconvolution"
  bottom: "fuse_pool4"
  top: "upscore_pool4"
  param {
    lr_mult: 0
  }
  convolution_param {
    num_output: 21
    bias_term: false
    kernel_size: 4
    stride: 2
    weight_filler {
      type: "xavier"
    }
  }
}
layer {
  name: "scale_pool3"
  type: "Scale"
  bottom: "pool3"
  top: "scale_pool3"
  param {
    lr_mult: 0
  }
  scale_param {
    filler {
      type: "constant"
      value: 0.0001
    }
  }
}
layer {
  name: "score_pool3"
  type: "Convolution"
  bottom: "scale_pool3"
  top: "score_pool3"
  param {
    lr_mult: 1
    decay_mult: 1
  }
  param {
    lr_mult: 2
    decay_mult: 0
  }
  convolution_param {
    num_output: 21
    pad: 0
    kernel_size: 1
    weight_filler {
      type: "xavier"
    }
  }
}
layer {
  name: "score_pool3c"
  type: "Crop"
  bottom: "score_pool3"
  bottom: "upscore_pool4"
  top: "score_pool3c"
  crop_param {
    axis: 2
    offset: 9
  }
}
layer {
  name: "fuse_pool3"
  type: "Eltwise"
  bottom: "upscore_pool4"
  bottom: "score_pool3c"
  top: "fuse_pool3"
  eltwise_param {
    operation: SUM
  }
}
layer {
  name: "upscore8"
  type: "Deconvolution"
  bottom: "fuse_pool3"
  top: "upscore8"
  param {
    lr_mult: 0
  }
  convolution_param {
    num_output: 21
    bias_term: false
    kernel_size: 16
    stride: 8
    weight_filler {
      type: "xavier"
    }
  }
}
layer {
  name: "score"
  type: "Crop"
  bottom: "upscore8"
  bottom: "data"
  top: "score"
  crop_param {
    axis: 2
    offset: 31
  }
}
layer {
  name: "loss"
  type: "SoftmaxWithLoss"
  bottom: "score"
  bottom: "label"
  top: "loss"
  loss_param {
    ignore_label: 255
    normalize: false
  }
}
I0129 17:37:31.706321 26374 layer_factory.hpp:77] Creating layer data
I0129 17:37:31.706542 26374 net.cpp:100] Creating Layer data
I0129 17:37:31.706554 26374 net.cpp:408] data -> data
I0129 17:37:31.706564 26374 net.cpp:408] data -> label
I0129 17:37:31.741688 26374 net.cpp:150] Setting up data
I0129 17:37:31.741708 26374 net.cpp:157] Top shape: 1 3 366 500 (549000)
I0129 17:37:31.741714 26374 net.cpp:157] Top shape: 1 1 366 500 (183000)
I0129 17:37:31.741719 26374 net.cpp:165] Memory required for data: 2928000
I0129 17:37:31.741724 26374 layer_factory.hpp:77] Creating layer data_data_0_split
I0129 17:37:31.741734 26374 net.cpp:100] Creating Layer data_data_0_split
I0129 17:37:31.741739 26374 net.cpp:434] data_data_0_split <- data
I0129 17:37:31.741746 26374 net.cpp:408] data_data_0_split -> data_data_0_split_0
I0129 17:37:31.741756 26374 net.cpp:408] data_data_0_split -> data_data_0_split_1
I0129 17:37:31.741801 26374 net.cpp:150] Setting up data_data_0_split
I0129 17:37:31.741809 26374 net.cpp:157] Top shape: 1 3 366 500 (549000)
I0129 17:37:31.741814 26374 net.cpp:157] Top shape: 1 3 366 500 (549000)
I0129 17:37:31.741818 26374 net.cpp:165] Memory required for data: 7320000
I0129 17:37:31.741822 26374 layer_factory.hpp:77] Creating layer conv1_1
I0129 17:37:31.741835 26374 net.cpp:100] Creating Layer conv1_1
I0129 17:37:31.741839 26374 net.cpp:434] conv1_1 <- data_data_0_split_0
I0129 17:37:31.741847 26374 net.cpp:408] conv1_1 -> conv1_1
I0129 17:37:31.744277 26374 net.cpp:150] Setting up conv1_1
I0129 17:37:31.744294 26374 net.cpp:157] Top shape: 1 64 564 698 (25195008)
I0129 17:37:31.744299 26374 net.cpp:165] Memory required for data: 108100032
I0129 17:37:31.744312 26374 layer_factory.hpp:77] Creating layer relu1_1
I0129 17:37:31.744320 26374 net.cpp:100] Creating Layer relu1_1
I0129 17:37:31.744324 26374 net.cpp:434] relu1_1 <- conv1_1
I0129 17:37:31.744331 26374 net.cpp:395] relu1_1 -> conv1_1 (in-place)
I0129 17:37:31.744529 26374 net.cpp:150] Setting up relu1_1
I0129 17:37:31.744541 26374 net.cpp:157] Top shape: 1 64 564 698 (25195008)
I0129 17:37:31.744545 26374 net.cpp:165] Memory required for data: 208880064
I0129 17:37:31.744550 26374 layer_factory.hpp:77] Creating layer conv1_2
I0129 17:37:31.744561 26374 net.cpp:100] Creating Layer conv1_2
I0129 17:37:31.744565 26374 net.cpp:434] conv1_2 <- conv1_1
I0129 17:37:31.744580 26374 net.cpp:408] conv1_2 -> conv1_2
I0129 17:37:31.746979 26374 net.cpp:150] Setting up conv1_2
I0129 17:37:31.746996 26374 net.cpp:157] Top shape: 1 64 564 698 (25195008)
I0129 17:37:31.747001 26374 net.cpp:165] Memory required for data: 309660096
I0129 17:37:31.747012 26374 layer_factory.hpp:77] Creating layer relu1_2
I0129 17:37:31.747020 26374 net.cpp:100] Creating Layer relu1_2
I0129 17:37:31.747025 26374 net.cpp:434] relu1_2 <- conv1_2
I0129 17:37:31.747031 26374 net.cpp:395] relu1_2 -> conv1_2 (in-place)
I0129 17:37:31.747406 26374 net.cpp:150] Setting up relu1_2
I0129 17:37:31.747421 26374 net.cpp:157] Top shape: 1 64 564 698 (25195008)
I0129 17:37:31.747424 26374 net.cpp:165] Memory required for data: 410440128
I0129 17:37:31.747429 26374 layer_factory.hpp:77] Creating layer pool1
I0129 17:37:31.747437 26374 net.cpp:100] Creating Layer pool1
I0129 17:37:31.747442 26374 net.cpp:434] pool1 <- conv1_2
I0129 17:37:31.747449 26374 net.cpp:408] pool1 -> pool1
I0129 17:37:31.747501 26374 net.cpp:150] Setting up pool1
I0129 17:37:31.747509 26374 net.cpp:157] Top shape: 1 64 282 349 (6298752)
I0129 17:37:31.747514 26374 net.cpp:165] Memory required for data: 435635136
I0129 17:37:31.747517 26374 layer_factory.hpp:77] Creating layer conv2_1
I0129 17:37:31.747527 26374 net.cpp:100] Creating Layer conv2_1
I0129 17:37:31.747531 26374 net.cpp:434] conv2_1 <- pool1
I0129 17:37:31.747539 26374 net.cpp:408] conv2_1 -> conv2_1
I0129 17:37:31.749780 26374 net.cpp:150] Setting up conv2_1
I0129 17:37:31.749799 26374 net.cpp:157] Top shape: 1 128 282 349 (12597504)
I0129 17:37:31.749804 26374 net.cpp:165] Memory required for data: 486025152
I0129 17:37:31.749814 26374 layer_factory.hpp:77] Creating layer relu2_1
I0129 17:37:31.749824 26374 net.cpp:100] Creating Layer relu2_1
I0129 17:37:31.749828 26374 net.cpp:434] relu2_1 <- conv2_1
I0129 17:37:31.749835 26374 net.cpp:395] relu2_1 -> conv2_1 (in-place)
I0129 17:37:31.750228 26374 net.cpp:150] Setting up relu2_1
I0129 17:37:31.750243 26374 net.cpp:157] Top shape: 1 128 282 349 (12597504)
I0129 17:37:31.750247 26374 net.cpp:165] Memory required for data: 536415168
I0129 17:37:31.750252 26374 layer_factory.hpp:77] Creating layer conv2_2
I0129 17:37:31.750262 26374 net.cpp:100] Creating Layer conv2_2
I0129 17:37:31.750267 26374 net.cpp:434] conv2_2 <- conv2_1
I0129 17:37:31.750275 26374 net.cpp:408] conv2_2 -> conv2_2
I0129 17:37:31.752876 26374 net.cpp:150] Setting up conv2_2
I0129 17:37:31.752892 26374 net.cpp:157] Top shape: 1 128 282 349 (12597504)
I0129 17:37:31.752897 26374 net.cpp:165] Memory required for data: 586805184
I0129 17:37:31.752905 26374 layer_factory.hpp:77] Creating layer relu2_2
I0129 17:37:31.752913 26374 net.cpp:100] Creating Layer relu2_2
I0129 17:37:31.752918 26374 net.cpp:434] relu2_2 <- conv2_2
I0129 17:37:31.752924 26374 net.cpp:395] relu2_2 -> conv2_2 (in-place)
I0129 17:37:31.753135 26374 net.cpp:150] Setting up relu2_2
I0129 17:37:31.753146 26374 net.cpp:157] Top shape: 1 128 282 349 (12597504)
I0129 17:37:31.753150 26374 net.cpp:165] Memory required for data: 637195200
I0129 17:37:31.753155 26374 layer_factory.hpp:77] Creating layer pool2
I0129 17:37:31.753162 26374 net.cpp:100] Creating Layer pool2
I0129 17:37:31.753167 26374 net.cpp:434] pool2 <- conv2_2
I0129 17:37:31.753173 26374 net.cpp:408] pool2 -> pool2
I0129 17:37:31.753224 26374 net.cpp:150] Setting up pool2
I0129 17:37:31.753232 26374 net.cpp:157] Top shape: 1 128 141 175 (3158400)
I0129 17:37:31.753235 26374 net.cpp:165] Memory required for data: 649828800
I0129 17:37:31.753239 26374 layer_factory.hpp:77] Creating layer conv3_1
I0129 17:37:31.753249 26374 net.cpp:100] Creating Layer conv3_1
I0129 17:37:31.753253 26374 net.cpp:434] conv3_1 <- pool2
I0129 17:37:31.753260 26374 net.cpp:408] conv3_1 -> conv3_1
I0129 17:37:31.756588 26374 net.cpp:150] Setting up conv3_1
I0129 17:37:31.756605 26374 net.cpp:157] Top shape: 1 256 141 175 (6316800)
I0129 17:37:31.756610 26374 net.cpp:165] Memory required for data: 675096000
I0129 17:37:31.756623 26374 layer_factory.hpp:77] Creating layer relu3_1
I0129 17:37:31.756635 26374 net.cpp:100] Creating Layer relu3_1
I0129 17:37:31.756640 26374 net.cpp:434] relu3_1 <- conv3_1
I0129 17:37:31.756647 26374 net.cpp:395] relu3_1 -> conv3_1 (in-place)
I0129 17:37:31.757014 26374 net.cpp:150] Setting up relu3_1
I0129 17:37:31.757030 26374 net.cpp:157] Top shape: 1 256 141 175 (6316800)
I0129 17:37:31.757033 26374 net.cpp:165] Memory required for data: 700363200
I0129 17:37:31.757038 26374 layer_factory.hpp:77] Creating layer conv3_2
I0129 17:37:31.757050 26374 net.cpp:100] Creating Layer conv3_2
I0129 17:37:31.757053 26374 net.cpp:434] conv3_2 <- conv3_1
I0129 17:37:31.757061 26374 net.cpp:408] conv3_2 -> conv3_2
I0129 17:37:31.762370 26374 net.cpp:150] Setting up conv3_2
I0129 17:37:31.762388 26374 net.cpp:157] Top shape: 1 256 141 175 (6316800)
I0129 17:37:31.762392 26374 net.cpp:165] Memory required for data: 725630400
I0129 17:37:31.762401 26374 layer_factory.hpp:77] Creating layer relu3_2
I0129 17:37:31.762410 26374 net.cpp:100] Creating Layer relu3_2
I0129 17:37:31.762415 26374 net.cpp:434] relu3_2 <- conv3_2
I0129 17:37:31.762421 26374 net.cpp:395] relu3_2 -> conv3_2 (in-place)
I0129 17:37:31.762616 26374 net.cpp:150] Setting up relu3_2
I0129 17:37:31.762627 26374 net.cpp:157] Top shape: 1 256 141 175 (6316800)
I0129 17:37:31.762631 26374 net.cpp:165] Memory required for data: 750897600
I0129 17:37:31.762636 26374 layer_factory.hpp:77] Creating layer conv3_3
I0129 17:37:31.762650 26374 net.cpp:100] Creating Layer conv3_3
I0129 17:37:31.762655 26374 net.cpp:434] conv3_3 <- conv3_2
I0129 17:37:31.762662 26374 net.cpp:408] conv3_3 -> conv3_3
I0129 17:37:31.767983 26374 net.cpp:150] Setting up conv3_3
I0129 17:37:31.768000 26374 net.cpp:157] Top shape: 1 256 141 175 (6316800)
I0129 17:37:31.768005 26374 net.cpp:165] Memory required for data: 776164800
I0129 17:37:31.768014 26374 layer_factory.hpp:77] Creating layer relu3_3
I0129 17:37:31.768023 26374 net.cpp:100] Creating Layer relu3_3
I0129 17:37:31.768028 26374 net.cpp:434] relu3_3 <- conv3_3
I0129 17:37:31.768035 26374 net.cpp:395] relu3_3 -> conv3_3 (in-place)
I0129 17:37:31.768227 26374 net.cpp:150] Setting up relu3_3
I0129 17:37:31.768239 26374 net.cpp:157] Top shape: 1 256 141 175 (6316800)
I0129 17:37:31.768242 26374 net.cpp:165] Memory required for data: 801432000
I0129 17:37:31.768246 26374 layer_factory.hpp:77] Creating layer pool3
I0129 17:37:31.768254 26374 net.cpp:100] Creating Layer pool3
I0129 17:37:31.768260 26374 net.cpp:434] pool3 <- conv3_3
I0129 17:37:31.768266 26374 net.cpp:408] pool3 -> pool3
I0129 17:37:31.768319 26374 net.cpp:150] Setting up pool3
I0129 17:37:31.768326 26374 net.cpp:157] Top shape: 1 256 71 88 (1599488)
I0129 17:37:31.768331 26374 net.cpp:165] Memory required for data: 807829952
I0129 17:37:31.768335 26374 layer_factory.hpp:77] Creating layer pool3_pool3_0_split
I0129 17:37:31.768342 26374 net.cpp:100] Creating Layer pool3_pool3_0_split
I0129 17:37:31.768347 26374 net.cpp:434] pool3_pool3_0_split <- pool3
I0129 17:37:31.768353 26374 net.cpp:408] pool3_pool3_0_split -> pool3_pool3_0_split_0
I0129 17:37:31.768360 26374 net.cpp:408] pool3_pool3_0_split -> pool3_pool3_0_split_1
I0129 17:37:31.768404 26374 net.cpp:150] Setting up pool3_pool3_0_split
I0129 17:37:31.768411 26374 net.cpp:157] Top shape: 1 256 71 88 (1599488)
I0129 17:37:31.768416 26374 net.cpp:157] Top shape: 1 256 71 88 (1599488)
I0129 17:37:31.768419 26374 net.cpp:165] Memory required for data: 820625856
I0129 17:37:31.768424 26374 layer_factory.hpp:77] Creating layer conv4_1
I0129 17:37:31.768435 26374 net.cpp:100] Creating Layer conv4_1
I0129 17:37:31.768440 26374 net.cpp:434] conv4_1 <- pool3_pool3_0_split_0
I0129 17:37:31.768447 26374 net.cpp:408] conv4_1 -> conv4_1
I0129 17:37:31.777649 26374 net.cpp:150] Setting up conv4_1
I0129 17:37:31.777668 26374 net.cpp:157] Top shape: 1 512 71 88 (3198976)
I0129 17:37:31.777673 26374 net.cpp:165] Memory required for data: 833421760
I0129 17:37:31.777681 26374 layer_factory.hpp:77] Creating layer relu4_1
I0129 17:37:31.777690 26374 net.cpp:100] Creating Layer relu4_1
I0129 17:37:31.777701 26374 net.cpp:434] relu4_1 <- conv4_1
I0129 17:37:31.777709 26374 net.cpp:395] relu4_1 -> conv4_1 (in-place)
I0129 17:37:31.778092 26374 net.cpp:150] Setting up relu4_1
I0129 17:37:31.778106 26374 net.cpp:157] Top shape: 1 512 71 88 (3198976)
I0129 17:37:31.778110 26374 net.cpp:165] Memory required for data: 846217664
I0129 17:37:31.778115 26374 layer_factory.hpp:77] Creating layer conv4_2
I0129 17:37:31.778127 26374 net.cpp:100] Creating Layer conv4_2
I0129 17:37:31.778132 26374 net.cpp:434] conv4_2 <- conv4_1
I0129 17:37:31.778141 26374 net.cpp:408] conv4_2 -> conv4_2
I0129 17:37:31.795243 26374 net.cpp:150] Setting up conv4_2
I0129 17:37:31.795267 26374 net.cpp:157] Top shape: 1 512 71 88 (3198976)
I0129 17:37:31.795272 26374 net.cpp:165] Memory required for data: 859013568
I0129 17:37:31.795287 26374 layer_factory.hpp:77] Creating layer relu4_2
I0129 17:37:31.795298 26374 net.cpp:100] Creating Layer relu4_2
I0129 17:37:31.795305 26374 net.cpp:434] relu4_2 <- conv4_2
I0129 17:37:31.795310 26374 net.cpp:395] relu4_2 -> conv4_2 (in-place)
I0129 17:37:31.795526 26374 net.cpp:150] Setting up relu4_2
I0129 17:37:31.795536 26374 net.cpp:157] Top shape: 1 512 71 88 (3198976)
I0129 17:37:31.795541 26374 net.cpp:165] Memory required for data: 871809472
I0129 17:37:31.795545 26374 layer_factory.hpp:77] Creating layer conv4_3
I0129 17:37:31.795560 26374 net.cpp:100] Creating Layer conv4_3
I0129 17:37:31.795565 26374 net.cpp:434] conv4_3 <- conv4_2
I0129 17:37:31.795572 26374 net.cpp:408] conv4_3 -> conv4_3
I0129 17:37:31.813010 26374 net.cpp:150] Setting up conv4_3
I0129 17:37:31.813036 26374 net.cpp:157] Top shape: 1 512 71 88 (3198976)
I0129 17:37:31.813041 26374 net.cpp:165] Memory required for data: 884605376
I0129 17:37:31.813050 26374 layer_factory.hpp:77] Creating layer relu4_3
I0129 17:37:31.813062 26374 net.cpp:100] Creating Layer relu4_3
I0129 17:37:31.813068 26374 net.cpp:434] relu4_3 <- conv4_3
I0129 17:37:31.813078 26374 net.cpp:395] relu4_3 -> conv4_3 (in-place)
I0129 17:37:31.813302 26374 net.cpp:150] Setting up relu4_3
I0129 17:37:31.813313 26374 net.cpp:157] Top shape: 1 512 71 88 (3198976)
I0129 17:37:31.813318 26374 net.cpp:165] Memory required for data: 897401280
I0129 17:37:31.813323 26374 layer_factory.hpp:77] Creating layer pool4
I0129 17:37:31.813331 26374 net.cpp:100] Creating Layer pool4
I0129 17:37:31.813336 26374 net.cpp:434] pool4 <- conv4_3
I0129 17:37:31.813345 26374 net.cpp:408] pool4 -> pool4
I0129 17:37:31.813403 26374 net.cpp:150] Setting up pool4
I0129 17:37:31.813413 26374 net.cpp:157] Top shape: 1 512 36 44 (811008)
I0129 17:37:31.813417 26374 net.cpp:165] Memory required for data: 900645312
I0129 17:37:31.813421 26374 layer_factory.hpp:77] Creating layer pool4_pool4_0_split
I0129 17:37:31.813429 26374 net.cpp:100] Creating Layer pool4_pool4_0_split
I0129 17:37:31.813433 26374 net.cpp:434] pool4_pool4_0_split <- pool4
I0129 17:37:31.813439 26374 net.cpp:408] pool4_pool4_0_split -> pool4_pool4_0_split_0
I0129 17:37:31.813446 26374 net.cpp:408] pool4_pool4_0_split -> pool4_pool4_0_split_1
I0129 17:37:31.813495 26374 net.cpp:150] Setting up pool4_pool4_0_split
I0129 17:37:31.813503 26374 net.cpp:157] Top shape: 1 512 36 44 (811008)
I0129 17:37:31.813508 26374 net.cpp:157] Top shape: 1 512 36 44 (811008)
I0129 17:37:31.813511 26374 net.cpp:165] Memory required for data: 907133376
I0129 17:37:31.813515 26374 layer_factory.hpp:77] Creating layer conv5_1
I0129 17:37:31.813529 26374 net.cpp:100] Creating Layer conv5_1
I0129 17:37:31.813534 26374 net.cpp:434] conv5_1 <- pool4_pool4_0_split_0
I0129 17:37:31.813544 26374 net.cpp:408] conv5_1 -> conv5_1
I0129 17:37:31.830729 26374 net.cpp:150] Setting up conv5_1
I0129 17:37:31.830754 26374 net.cpp:157] Top shape: 1 512 36 44 (811008)
I0129 17:37:31.830760 26374 net.cpp:165] Memory required for data: 910377408
I0129 17:37:31.830768 26374 layer_factory.hpp:77] Creating layer relu5_1
I0129 17:37:31.830780 26374 net.cpp:100] Creating Layer relu5_1
I0129 17:37:31.830785 26374 net.cpp:434] relu5_1 <- conv5_1
I0129 17:37:31.830792 26374 net.cpp:395] relu5_1 -> conv5_1 (in-place)
I0129 17:37:31.831197 26374 net.cpp:150] Setting up relu5_1
I0129 17:37:31.831212 26374 net.cpp:157] Top shape: 1 512 36 44 (811008)
I0129 17:37:31.831217 26374 net.cpp:165] Memory required for data: 913621440
I0129 17:37:31.831221 26374 layer_factory.hpp:77] Creating layer conv5_2
I0129 17:37:31.831235 26374 net.cpp:100] Creating Layer conv5_2
I0129 17:37:31.831243 26374 net.cpp:434] conv5_2 <- conv5_1
I0129 17:37:31.831250 26374 net.cpp:408] conv5_2 -> conv5_2
I0129 17:37:31.848510 26374 net.cpp:150] Setting up conv5_2
I0129 17:37:31.848534 26374 net.cpp:157] Top shape: 1 512 36 44 (811008)
I0129 17:37:31.848538 26374 net.cpp:165] Memory required for data: 916865472
I0129 17:37:31.848548 26374 layer_factory.hpp:77] Creating layer relu5_2
I0129 17:37:31.848557 26374 net.cpp:100] Creating Layer relu5_2
I0129 17:37:31.848562 26374 net.cpp:434] relu5_2 <- conv5_2
I0129 17:37:31.848569 26374 net.cpp:395] relu5_2 -> conv5_2 (in-place)
I0129 17:37:31.848779 26374 net.cpp:150] Setting up relu5_2
I0129 17:37:31.848789 26374 net.cpp:157] Top shape: 1 512 36 44 (811008)
I0129 17:37:31.848794 26374 net.cpp:165] Memory required for data: 920109504
I0129 17:37:31.848798 26374 layer_factory.hpp:77] Creating layer conv5_3
I0129 17:37:31.848817 26374 net.cpp:100] Creating Layer conv5_3
I0129 17:37:31.848824 26374 net.cpp:434] conv5_3 <- conv5_2
I0129 17:37:31.848832 26374 net.cpp:408] conv5_3 -> conv5_3
I0129 17:37:31.865968 26374 net.cpp:150] Setting up conv5_3
I0129 17:37:31.865993 26374 net.cpp:157] Top shape: 1 512 36 44 (811008)
I0129 17:37:31.865998 26374 net.cpp:165] Memory required for data: 923353536
I0129 17:37:31.866006 26374 layer_factory.hpp:77] Creating layer relu5_3
I0129 17:37:31.866017 26374 net.cpp:100] Creating Layer relu5_3
I0129 17:37:31.866024 26374 net.cpp:434] relu5_3 <- conv5_3
I0129 17:37:31.866029 26374 net.cpp:395] relu5_3 -> conv5_3 (in-place)
I0129 17:37:31.866236 26374 net.cpp:150] Setting up relu5_3
I0129 17:37:31.866247 26374 net.cpp:157] Top shape: 1 512 36 44 (811008)
I0129 17:37:31.866251 26374 net.cpp:165] Memory required for data: 926597568
I0129 17:37:31.866256 26374 layer_factory.hpp:77] Creating layer pool5
I0129 17:37:31.866267 26374 net.cpp:100] Creating Layer pool5
I0129 17:37:31.866272 26374 net.cpp:434] pool5 <- conv5_3
I0129 17:37:31.866279 26374 net.cpp:408] pool5 -> pool5
I0129 17:37:31.866338 26374 net.cpp:150] Setting up pool5
I0129 17:37:31.866345 26374 net.cpp:157] Top shape: 1 512 18 22 (202752)
I0129 17:37:31.866349 26374 net.cpp:165] Memory required for data: 927408576
I0129 17:37:31.866354 26374 layer_factory.hpp:77] Creating layer fc6
I0129 17:37:31.866367 26374 net.cpp:100] Creating Layer fc6
I0129 17:37:31.866372 26374 net.cpp:434] fc6 <- pool5
I0129 17:37:31.866381 26374 net.cpp:408] fc6 -> fc6
I0129 17:37:32.716188 26374 net.cpp:150] Setting up fc6
I0129 17:37:32.716250 26374 net.cpp:157] Top shape: 1 4096 12 16 (786432)
I0129 17:37:32.716256 26374 net.cpp:165] Memory required for data: 930554304
I0129 17:37:32.716274 26374 layer_factory.hpp:77] Creating layer relu6
I0129 17:37:32.716294 26374 net.cpp:100] Creating Layer relu6
I0129 17:37:32.716301 26374 net.cpp:434] relu6 <- fc6
I0129 17:37:32.716310 26374 net.cpp:395] relu6 -> fc6 (in-place)
I0129 17:37:32.716730 26374 net.cpp:150] Setting up relu6
I0129 17:37:32.716744 26374 net.cpp:157] Top shape: 1 4096 12 16 (786432)
I0129 17:37:32.716753 26374 net.cpp:165] Memory required for data: 933700032
I0129 17:37:32.716758 26374 layer_factory.hpp:77] Creating layer drop6
I0129 17:37:32.716768 26374 net.cpp:100] Creating Layer drop6
I0129 17:37:32.716773 26374 net.cpp:434] drop6 <- fc6
I0129 17:37:32.716779 26374 net.cpp:395] drop6 -> fc6 (in-place)
I0129 17:37:32.716826 26374 net.cpp:150] Setting up drop6
I0129 17:37:32.716835 26374 net.cpp:157] Top shape: 1 4096 12 16 (786432)
I0129 17:37:32.716838 26374 net.cpp:165] Memory required for data: 936845760
I0129 17:37:32.716843 26374 layer_factory.hpp:77] Creating layer fc7
I0129 17:37:32.716861 26374 net.cpp:100] Creating Layer fc7
I0129 17:37:32.716879 26374 net.cpp:434] fc7 <- fc6
I0129 17:37:32.716891 26374 net.cpp:408] fc7 -> fc7
I0129 17:37:32.865394 26374 net.cpp:150] Setting up fc7
I0129 17:37:32.865450 26374 net.cpp:157] Top shape: 1 4096 12 16 (786432)
I0129 17:37:32.865455 26374 net.cpp:165] Memory required for data: 939991488
I0129 17:37:32.865468 26374 layer_factory.hpp:77] Creating layer relu7
I0129 17:37:32.865481 26374 net.cpp:100] Creating Layer relu7
I0129 17:37:32.865489 26374 net.cpp:434] relu7 <- fc7
I0129 17:37:32.865499 26374 net.cpp:395] relu7 -> fc7 (in-place)
I0129 17:37:32.865746 26374 net.cpp:150] Setting up relu7
I0129 17:37:32.865758 26374 net.cpp:157] Top shape: 1 4096 12 16 (786432)
I0129 17:37:32.865763 26374 net.cpp:165] Memory required for data: 943137216
I0129 17:37:32.865768 26374 layer_factory.hpp:77] Creating layer drop7
I0129 17:37:32.865778 26374 net.cpp:100] Creating Layer drop7
I0129 17:37:32.865783 26374 net.cpp:434] drop7 <- fc7
I0129 17:37:32.865792 26374 net.cpp:395] drop7 -> fc7 (in-place)
I0129 17:37:32.865838 26374 net.cpp:150] Setting up drop7
I0129 17:37:32.865845 26374 net.cpp:157] Top shape: 1 4096 12 16 (786432)
I0129 17:37:32.865849 26374 net.cpp:165] Memory required for data: 946282944
I0129 17:37:32.865854 26374 layer_factory.hpp:77] Creating layer score_fr
I0129 17:37:32.865869 26374 net.cpp:100] Creating Layer score_fr
I0129 17:37:32.865873 26374 net.cpp:434] score_fr <- fc7
I0129 17:37:32.865883 26374 net.cpp:408] score_fr -> score_fr
I0129 17:37:32.867943 26374 net.cpp:150] Setting up score_fr
I0129 17:37:32.867959 26374 net.cpp:157] Top shape: 1 21 12 16 (4032)
I0129 17:37:32.867964 26374 net.cpp:165] Memory required for data: 946299072
I0129 17:37:32.867972 26374 layer_factory.hpp:77] Creating layer upscore2
I0129 17:37:32.867988 26374 net.cpp:100] Creating Layer upscore2
I0129 17:37:32.867993 26374 net.cpp:434] upscore2 <- score_fr
I0129 17:37:32.868001 26374 net.cpp:408] upscore2 -> upscore2
I0129 17:37:32.868319 26374 net.cpp:150] Setting up upscore2
I0129 17:37:32.868330 26374 net.cpp:157] Top shape: 1 21 26 34 (18564)
I0129 17:37:32.868333 26374 net.cpp:165] Memory required for data: 946373328
I0129 17:37:32.868352 26374 layer_factory.hpp:77] Creating layer upscore2_upscore2_0_split
I0129 17:37:32.868361 26374 net.cpp:100] Creating Layer upscore2_upscore2_0_split
I0129 17:37:32.868366 26374 net.cpp:434] upscore2_upscore2_0_split <- upscore2
I0129 17:37:32.868376 26374 net.cpp:408] upscore2_upscore2_0_split -> upscore2_upscore2_0_split_0
I0129 17:37:32.868383 26374 net.cpp:408] upscore2_upscore2_0_split -> upscore2_upscore2_0_split_1
I0129 17:37:32.868430 26374 net.cpp:150] Setting up upscore2_upscore2_0_split
I0129 17:37:32.868438 26374 net.cpp:157] Top shape: 1 21 26 34 (18564)
I0129 17:37:32.868443 26374 net.cpp:157] Top shape: 1 21 26 34 (18564)
I0129 17:37:32.868446 26374 net.cpp:165] Memory required for data: 946521840
I0129 17:37:32.868450 26374 layer_factory.hpp:77] Creating layer scale_pool4
I0129 17:37:32.868465 26374 net.cpp:100] Creating Layer scale_pool4
I0129 17:37:32.868470 26374 net.cpp:434] scale_pool4 <- pool4_pool4_0_split_1
I0129 17:37:32.868479 26374 net.cpp:408] scale_pool4 -> scale_pool4
I0129 17:37:32.868618 26374 net.cpp:150] Setting up scale_pool4
I0129 17:37:32.868628 26374 net.cpp:157] Top shape: 1 512 36 44 (811008)
I0129 17:37:32.868631 26374 net.cpp:165] Memory required for data: 949765872
I0129 17:37:32.868638 26374 layer_factory.hpp:77] Creating layer score_pool4
I0129 17:37:32.868654 26374 net.cpp:100] Creating Layer score_pool4
I0129 17:37:32.868659 26374 net.cpp:434] score_pool4 <- scale_pool4
I0129 17:37:32.868666 26374 net.cpp:408] score_pool4 -> score_pool4
I0129 17:37:32.870134 26374 net.cpp:150] Setting up score_pool4
I0129 17:37:32.870151 26374 net.cpp:157] Top shape: 1 21 36 44 (33264)
I0129 17:37:32.870157 26374 net.cpp:165] Memory required for data: 949898928
I0129 17:37:32.870164 26374 layer_factory.hpp:77] Creating layer score_pool4c
I0129 17:37:32.870174 26374 net.cpp:100] Creating Layer score_pool4c
I0129 17:37:32.870180 26374 net.cpp:434] score_pool4c <- score_pool4
I0129 17:37:32.870203 26374 net.cpp:434] score_pool4c <- upscore2_upscore2_0_split_0
I0129 17:37:32.870209 26374 net.cpp:408] score_pool4c -> score_pool4c
I0129 17:37:32.870251 26374 net.cpp:150] Setting up score_pool4c
I0129 17:37:32.870260 26374 net.cpp:157] Top shape: 1 21 26 34 (18564)
I0129 17:37:32.870263 26374 net.cpp:165] Memory required for data: 949973184
I0129 17:37:32.870268 26374 layer_factory.hpp:77] Creating layer fuse_pool4
I0129 17:37:32.870280 26374 net.cpp:100] Creating Layer fuse_pool4
I0129 17:37:32.870285 26374 net.cpp:434] fuse_pool4 <- upscore2_upscore2_0_split_1
I0129 17:37:32.870290 26374 net.cpp:434] fuse_pool4 <- score_pool4c
I0129 17:37:32.870296 26374 net.cpp:408] fuse_pool4 -> fuse_pool4
I0129 17:37:32.870332 26374 net.cpp:150] Setting up fuse_pool4
I0129 17:37:32.870340 26374 net.cpp:157] Top shape: 1 21 26 34 (18564)
I0129 17:37:32.870344 26374 net.cpp:165] Memory required for data: 950047440
I0129 17:37:32.870349 26374 layer_factory.hpp:77] Creating layer upscore_pool4
I0129 17:37:32.870360 26374 net.cpp:100] Creating Layer upscore_pool4
I0129 17:37:32.870365 26374 net.cpp:434] upscore_pool4 <- fuse_pool4
I0129 17:37:32.870371 26374 net.cpp:408] upscore_pool4 -> upscore_pool4
I0129 17:37:32.870656 26374 net.cpp:150] Setting up upscore_pool4
I0129 17:37:32.870666 26374 net.cpp:157] Top shape: 1 21 54 70 (79380)
I0129 17:37:32.870668 26374 net.cpp:165] Memory required for data: 950364960
I0129 17:37:32.870674 26374 layer_factory.hpp:77] Creating layer upscore_pool4_upscore_pool4_0_split
I0129 17:37:32.870682 26374 net.cpp:100] Creating Layer upscore_pool4_upscore_pool4_0_split
I0129 17:37:32.870687 26374 net.cpp:434] upscore_pool4_upscore_pool4_0_split <- upscore_pool4
I0129 17:37:32.870695 26374 net.cpp:408] upscore_pool4_upscore_pool4_0_split -> upscore_pool4_upscore_pool4_0_split_0
I0129 17:37:32.870702 26374 net.cpp:408] upscore_pool4_upscore_pool4_0_split -> upscore_pool4_upscore_pool4_0_split_1
I0129 17:37:32.870748 26374 net.cpp:150] Setting up upscore_pool4_upscore_pool4_0_split
I0129 17:37:32.870755 26374 net.cpp:157] Top shape: 1 21 54 70 (79380)
I0129 17:37:32.870760 26374 net.cpp:157] Top shape: 1 21 54 70 (79380)
I0129 17:37:32.870764 26374 net.cpp:165] Memory required for data: 951000000
I0129 17:37:32.870767 26374 layer_factory.hpp:77] Creating layer scale_pool3
I0129 17:37:32.870779 26374 net.cpp:100] Creating Layer scale_pool3
I0129 17:37:32.870784 26374 net.cpp:434] scale_pool3 <- pool3_pool3_0_split_1
I0129 17:37:32.870792 26374 net.cpp:408] scale_pool3 -> scale_pool3
I0129 17:37:32.870913 26374 net.cpp:150] Setting up scale_pool3
I0129 17:37:32.870921 26374 net.cpp:157] Top shape: 1 256 71 88 (1599488)
I0129 17:37:32.870925 26374 net.cpp:165] Memory required for data: 957397952
I0129 17:37:32.870931 26374 layer_factory.hpp:77] Creating layer score_pool3
I0129 17:37:32.870947 26374 net.cpp:100] Creating Layer score_pool3
I0129 17:37:32.870952 26374 net.cpp:434] score_pool3 <- scale_pool3
I0129 17:37:32.870959 26374 net.cpp:408] score_pool3 -> score_pool3
I0129 17:37:32.872339 26374 net.cpp:150] Setting up score_pool3
I0129 17:37:32.872354 26374 net.cpp:157] Top shape: 1 21 71 88 (131208)
I0129 17:37:32.872359 26374 net.cpp:165] Memory required for data: 957922784
I0129 17:37:32.872367 26374 layer_factory.hpp:77] Creating layer score_pool3c
I0129 17:37:32.872380 26374 net.cpp:100] Creating Layer score_pool3c
I0129 17:37:32.872385 26374 net.cpp:434] score_pool3c <- score_pool3
I0129 17:37:32.872391 26374 net.cpp:434] score_pool3c <- upscore_pool4_upscore_pool4_0_split_0
I0129 17:37:32.872400 26374 net.cpp:408] score_pool3c -> score_pool3c
I0129 17:37:32.872438 26374 net.cpp:150] Setting up score_pool3c
I0129 17:37:32.872447 26374 net.cpp:157] Top shape: 1 21 54 70 (79380)
I0129 17:37:32.872450 26374 net.cpp:165] Memory required for data: 958240304
I0129 17:37:32.872454 26374 layer_factory.hpp:77] Creating layer fuse_pool3
I0129 17:37:32.872465 26374 net.cpp:100] Creating Layer fuse_pool3
I0129 17:37:32.872470 26374 net.cpp:434] fuse_pool3 <- upscore_pool4_upscore_pool4_0_split_1
I0129 17:37:32.872481 26374 net.cpp:434] fuse_pool3 <- score_pool3c
I0129 17:37:32.872488 26374 net.cpp:408] fuse_pool3 -> fuse_pool3
I0129 17:37:32.872524 26374 net.cpp:150] Setting up fuse_pool3
I0129 17:37:32.872532 26374 net.cpp:157] Top shape: 1 21 54 70 (79380)
I0129 17:37:32.872536 26374 net.cpp:165] Memory required for data: 958557824
I0129 17:37:32.872540 26374 layer_factory.hpp:77] Creating layer upscore8
I0129 17:37:32.872551 26374 net.cpp:100] Creating Layer upscore8
I0129 17:37:32.872555 26374 net.cpp:434] upscore8 <- fuse_pool3
I0129 17:37:32.872565 26374 net.cpp:408] upscore8 -> upscore8
I0129 17:37:32.874240 26374 net.cpp:150] Setting up upscore8
I0129 17:37:32.874256 26374 net.cpp:157] Top shape: 1 21 440 568 (5248320)
I0129 17:37:32.874260 26374 net.cpp:165] Memory required for data: 979551104
I0129 17:37:32.874267 26374 layer_factory.hpp:77] Creating layer score
I0129 17:37:32.874276 26374 net.cpp:100] Creating Layer score
I0129 17:37:32.874281 26374 net.cpp:434] score <- upscore8
I0129 17:37:32.874286 26374 net.cpp:434] score <- data_data_0_split_1
I0129 17:37:32.874295 26374 net.cpp:408] score -> score
I0129 17:37:32.874429 26374 net.cpp:150] Setting up score
I0129 17:37:32.874439 26374 net.cpp:157] Top shape: 1 21 366 500 (3843000)
I0129 17:37:32.874442 26374 net.cpp:165] Memory required for data: 994923104
I0129 17:37:32.874446 26374 layer_factory.hpp:77] Creating layer loss
I0129 17:37:32.874456 26374 net.cpp:100] Creating Layer loss
I0129 17:37:32.874460 26374 net.cpp:434] loss <- score
I0129 17:37:32.874466 26374 net.cpp:434] loss <- label
I0129 17:37:32.874472 26374 net.cpp:408] loss -> loss
I0129 17:37:32.874482 26374 layer_factory.hpp:77] Creating layer loss
…
