…
test_initialization: false
average_loss: 20
iter_size: 1
I0216 14:19:33.409258 31750 solver.cpp:81] Creating training net from train_net file: train.prototxt
I0216 14:19:33.410567 31750 net.cpp:58] Initializing net from parameters: 
state {
  phase: TRAIN
}
layer {
  name: "data"
  type: "Python"
  top: "data"
  top: "label"
  python_param {
    module: "voc_layers"
    layer: "SBDDSegDataLayer"
    param_str: "{\'sbdd_dir\': \'../data/sbdd-subsampl/dataset\', \'seed\': 1337, \'split\': \'train_pt4_sglinst\', \'mean\': (104.00699, 116.66877, 122.67892)}"
  }
}
layer {
  name: "conv1_1"
  type: "Convolution"
  bottom: "data"
  top: "conv1_1"
  param {
    lr_mult: 1
    decay_mult: 1
  }
  param {
    lr_mult: 2
    decay_mult: 0
  }
  convolution_param {
    num_output: 64
    pad: 100
    kernel_size: 3
    stride: 1
    weight_filler {
      type: "xavier"
    }
  }
}
layer {
  name: "relu1_1"
  type: "ReLU"
  bottom: "conv1_1"
  top: "conv1_1"
}
layer {
  name: "conv1_2"
  type: "Convolution"
  bottom: "conv1_1"
  top: "conv1_2"
  param {
    lr_mult: 1
    decay_mult: 1
  }
  param {
    lr_mult: 2
    decay_mult: 0
  }
  convolution_param {
    num_output: 64
    pad: 1
    kernel_size: 3
    stride: 1
    weight_filler {
      type: "xavier"
    }
  }
}
layer {
  name: "relu1_2"
  type: "ReLU"
  bottom: "conv1_2"
  top: "conv1_2"
}
layer {
  name: "pool1"
  type: "Pooling"
  bottom: "conv1_2"
  top: "pool1"
  pooling_param {
    pool: MAX
    kernel_size: 2
    stride: 2
  }
}
layer {
  name: "conv2_1"
  type: "Convolution"
  bottom: "pool1"
  top: "conv2_1"
  param {
    lr_mult: 1
    decay_mult: 1
  }
  param {
    lr_mult: 2
    decay_mult: 0
  }
  convolution_param {
    num_output: 128
    pad: 1
    kernel_size: 3
    stride: 1
    weight_filler {
      type: "xavier"
    }
  }
}
layer {
  name: "relu2_1"
  type: "ReLU"
  bottom: "conv2_1"
  top: "conv2_1"
}
layer {
  name: "conv2_2"
  type: "Convolution"
  bottom: "conv2_1"
  top: "conv2_2"
  param {
    lr_mult: 1
    decay_mult: 1
  }
  param {
    lr_mult: 2
    decay_mult: 0
  }
  convolution_param {
    num_output: 128
    pad: 1
    kernel_size: 3
    stride: 1
    weight_filler {
      type: "xavier"
    }
  }
}
layer {
  name: "relu2_2"
  type: "ReLU"
  bottom: "conv2_2"
  top: "conv2_2"
}
layer {
  name: "pool2"
  type: "Pooling"
  bottom: "conv2_2"
  top: "pool2"
  pooling_param {
    pool: MAX
    kernel_size: 2
    stride: 2
  }
}
layer {
  name: "conv3_1"
  type: "Convolution"
  bottom: "pool2"
  top: "conv3_1"
  param {
    lr_mult: 1
    decay_mult: 1
  }
  param {
    lr_mult: 2
    decay_mult: 0
  }
  convolution_param {
    num_output: 256
    pad: 1
    kernel_size: 3
    stride: 1
    weight_filler {
      type: "xavier"
    }
  }
}
layer {
  name: "relu3_1"
  type: "ReLU"
  bottom: "conv3_1"
  top: "conv3_1"
}
layer {
  name: "conv3_2"
  type: "Convolution"
  bottom: "conv3_1"
  top: "conv3_2"
  param {
    lr_mult: 1
    decay_mult: 1
  }
  param {
    lr_mult: 2
    decay_mult: 0
  }
  convolution_param {
    num_output: 256
    pad: 1
    kernel_size: 3
    stride: 1
    weight_filler {
      type: "xavier"
    }
  }
}
layer {
  name: "relu3_2"
  type: "ReLU"
  bottom: "conv3_2"
  top: "conv3_2"
}
layer {
  name: "conv3_3"
  type: "Convolution"
  bottom: "conv3_2"
  top: "conv3_3"
  param {
    lr_mult: 1
    decay_mult: 1
  }
  param {
    lr_mult: 2
    decay_mult: 0
  }
  convolution_param {
    num_output: 256
    pad: 1
    kernel_size: 3
    stride: 1
    weight_filler {
      type: "xavier"
    }
  }
}
layer {
  name: "relu3_3"
  type: "ReLU"
  bottom: "conv3_3"
  top: "conv3_3"
}
layer {
  name: "pool3"
  type: "Pooling"
  bottom: "conv3_3"
  top: "pool3"
  pooling_param {
    pool: MAX
    kernel_size: 2
    stride: 2
  }
}
layer {
  name: "conv4_1"
  type: "Convolution"
  bottom: "pool3"
  top: "conv4_1"
  param {
    lr_mult: 1
    decay_mult: 1
  }
  param {
    lr_mult: 2
    decay_mult: 0
  }
  convolution_param {
    num_output: 512
    pad: 1
    kernel_size: 3
    stride: 1
    weight_filler {
      type: "xavier"
    }
  }
}
layer {
  name: "relu4_1"
  type: "ReLU"
  bottom: "conv4_1"
  top: "conv4_1"
}
layer {
  name: "conv4_2"
  type: "Convolution"
  bottom: "conv4_1"
  top: "conv4_2"
  param {
    lr_mult: 1
    decay_mult: 1
  }
  param {
    lr_mult: 2
    decay_mult: 0
  }
  convolution_param {
    num_output: 512
    pad: 1
    kernel_size: 3
    stride: 1
    weight_filler {
      type: "xavier"
    }
  }
}
layer {
  name: "relu4_2"
  type: "ReLU"
  bottom: "conv4_2"
  top: "conv4_2"
}
layer {
  name: "conv4_3"
  type: "Convolution"
  bottom: "conv4_2"
  top: "conv4_3"
  param {
    lr_mult: 1
    decay_mult: 1
  }
  param {
    lr_mult: 2
    decay_mult: 0
  }
  convolution_param {
    num_output: 512
    pad: 1
    kernel_size: 3
    stride: 1
    weight_filler {
      type: "xavier"
    }
  }
}
layer {
  name: "relu4_3"
  type: "ReLU"
  bottom: "conv4_3"
  top: "conv4_3"
}
layer {
  name: "pool4"
  type: "Pooling"
  bottom: "conv4_3"
  top: "pool4"
  pooling_param {
    pool: MAX
    kernel_size: 2
    stride: 2
  }
}
layer {
  name: "conv5_1"
  type: "Convolution"
  bottom: "pool4"
  top: "conv5_1"
  param {
    lr_mult: 1
    decay_mult: 1
  }
  param {
    lr_mult: 2
    decay_mult: 0
  }
  convolution_param {
    num_output: 512
    pad: 1
    kernel_size: 3
    stride: 1
    weight_filler {
      type: "xavier"
    }
  }
}
layer {
  name: "relu5_1"
  type: "ReLU"
  bottom: "conv5_1"
  top: "conv5_1"
}
layer {
  name: "conv5_2"
  type: "Convolution"
  bottom: "conv5_1"
  top: "conv5_2"
  param {
    lr_mult: 1
    decay_mult: 1
  }
  param {
    lr_mult: 2
    decay_mult: 0
  }
  convolution_param {
    num_output: 512
    pad: 1
    kernel_size: 3
    stride: 1
    weight_filler {
      type: "xavier"
    }
  }
}
layer {
  name: "relu5_2"
  type: "ReLU"
  bottom: "conv5_2"
  top: "conv5_2"
}
layer {
  name: "conv5_3"
  type: "Convolution"
  bottom: "conv5_2"
  top: "conv5_3"
  param {
    lr_mult: 1
    decay_mult: 1
  }
  param {
    lr_mult: 2
    decay_mult: 0
  }
  convolution_param {
    num_output: 512
    pad: 1
    kernel_size: 3
    stride: 1
    weight_filler {
      type: "xavier"
    }
  }
}
layer {
  name: "relu5_3"
  type: "ReLU"
  bottom: "conv5_3"
  top: "conv5_3"
}
layer {
  name: "pool5"
  type: "Pooling"
  bottom: "conv5_3"
  top: "pool5"
  pooling_param {
    pool: MAX
    kernel_size: 2
    stride: 2
  }
}
layer {
  name: "fc6"
  type: "Convolution"
  bottom: "pool5"
  top: "fc6"
  param {
    lr_mult: 1
    decay_mult: 1
  }
  param {
    lr_mult: 2
    decay_mult: 0
  }
  convolution_param {
    num_output: 4096
    pad: 0
    kernel_size: 7
    stride: 1
    weight_filler {
      type: "xavier"
    }
  }
}
layer {
  name: "relu6"
  type: "ReLU"
  bottom: "fc6"
  top: "fc6"
}
layer {
  name: "drop6"
  type: "Dropout"
  bottom: "fc6"
  top: "fc6"
  dropout_param {
    dropout_ratio: 0.5
  }
}
layer {
  name: "fc7"
  type: "Convolution"
  bottom: "fc6"
  top: "fc7"
  param {
    lr_mult: 1
    decay_mult: 1
  }
  param {
    lr_mult: 2
    decay_mult: 0
  }
  convolution_param {
    num_output: 4096
    pad: 0
    kernel_size: 1
    stride: 1
    weight_filler {
      type: "xavier"
    }
  }
}
layer {
  name: "relu7"
  type: "ReLU"
  bottom: "fc7"
  top: "fc7"
}
layer {
  name: "drop7"
  type: "Dropout"
  bottom: "fc7"
  top: "fc7"
  dropout_param {
    dropout_ratio: 0.5
  }
}
layer {
  name: "score_fr"
  type: "Convolution"
  bottom: "fc7"
  top: "score_fr"
  param {
    lr_mult: 1
    decay_mult: 1
  }
  param {
    lr_mult: 2
    decay_mult: 0
  }
  convolution_param {
    num_output: 16
    pad: 0
    kernel_size: 1
    weight_filler {
      type: "xavier"
    }
  }
}
layer {
  name: "upscore2"
  type: "Deconvolution"
  bottom: "score_fr"
  top: "upscore2"
  param {
    lr_mult: 0
  }
  convolution_param {
    num_output: 16
    bias_term: false
    kernel_size: 4
    stride: 2
    weight_filler {
      type: "xavier"
    }
  }
}
layer {
  name: "scale_pool4"
  type: "Scale"
  bottom: "pool4"
  top: "scale_pool4"
  param {
    lr_mult: 0
  }
  scale_param {
    filler {
      type: "constant"
      value: 0.01
    }
  }
}
layer {
  name: "score_pool4"
  type: "Convolution"
  bottom: "scale_pool4"
  top: "score_pool4"
  param {
    lr_mult: 1
    decay_mult: 1
  }
  param {
    lr_mult: 2
    decay_mult: 0
  }
  convolution_param {
    num_output: 16
    pad: 0
    kernel_size: 1
    weight_filler {
      type: "xavier"
    }
  }
}
layer {
  name: "score_pool4c"
  type: "Crop"
  bottom: "score_pool4"
  bottom: "upscore2"
  top: "score_pool4c"
  crop_param {
    axis: 2
    offset: 5
  }
}
layer {
  name: "fuse_pool4"
  type: "Eltwise"
  bottom: "upscore2"
  bottom: "score_pool4c"
  top: "fuse_pool4"
  eltwise_param {
    operation: SUM
  }
}
layer {
  name: "upscore_pool4"
  type: "Deconvolution"
  bottom: "fuse_pool4"
  top: "upscore_pool4"
  param {
    lr_mult: 0
  }
  convolution_param {
    num_output: 16
    bias_term: false
    kernel_size: 4
    stride: 2
    weight_filler {
      type: "xavier"
    }
  }
}
layer {
  name: "scale_pool3"
  type: "Scale"
  bottom: "pool3"
  top: "scale_pool3"
  param {
    lr_mult: 0
  }
  scale_param {
    filler {
      type: "constant"
      value: 0.0001
    }
  }
}
layer {
  name: "score_pool3"
  type: "Convolution"
  bottom: "scale_pool3"
  top: "score_pool3"
  param {
    lr_mult: 1
    decay_mult: 1
  }
  param {
    lr_mult: 2
    decay_mult: 0
  }
  convolution_param {
    num_output: 16
    pad: 0
    kernel_size: 1
    weight_filler {
      type: "xavier"
    }
  }
}
layer {
  name: "score_pool3c"
  type: "Crop"
  bottom: "score_pool3"
  bottom: "upscore_pool4"
  top: "score_pool3c"
  crop_param {
    axis: 2
    offset: 9
  }
}
layer {
  name: "fuse_pool3"
  type: "Eltwise"
  bottom: "upscore_pool4"
  bottom: "score_pool3c"
  top: "fuse_pool3"
  eltwise_param {
    operation: SUM
  }
}
layer {
  name: "upscore8"
  type: "Deconvolution"
  bottom: "fuse_pool3"
  top: "upscore8"
  param {
    lr_mult: 0
  }
  convolution_param {
    num_output: 16
    bias_term: false
    kernel_size: 16
    stride: 8
    weight_filler {
      type: "xavier"
    }
  }
}
layer {
  name: "score"
  type: "Crop"
  bottom: "upscore8"
  bottom: "data"
  top: "score"
  crop_param {
    axis: 2
    offset: 31
  }
}
layer {
  name: "loss"
  type: "SoftmaxWithLoss"
  bottom: "score"
  bottom: "label"
  top: "loss"
  loss_param {
    ignore_label: 255
    normalize: false
  }
}
I0216 14:19:33.410814 31750 layer_factory.hpp:77] Creating layer data
I0216 14:19:33.411438 31750 net.cpp:100] Creating Layer data
I0216 14:19:33.411454 31750 net.cpp:408] data -> data
I0216 14:19:33.411469 31750 net.cpp:408] data -> label
I0216 14:19:33.533514 31750 net.cpp:150] Setting up data
I0216 14:19:33.533545 31750 net.cpp:157] Top shape: 1 3 94 125 (35250)
I0216 14:19:33.533551 31750 net.cpp:157] Top shape: 1 1 94 125 (11750)
I0216 14:19:33.533555 31750 net.cpp:165] Memory required for data: 188000
I0216 14:19:33.533562 31750 layer_factory.hpp:77] Creating layer data_data_0_split
I0216 14:19:33.533576 31750 net.cpp:100] Creating Layer data_data_0_split
I0216 14:19:33.533581 31750 net.cpp:434] data_data_0_split <- data
I0216 14:19:33.533587 31750 net.cpp:408] data_data_0_split -> data_data_0_split_0
I0216 14:19:33.533597 31750 net.cpp:408] data_data_0_split -> data_data_0_split_1
I0216 14:19:33.533637 31750 net.cpp:150] Setting up data_data_0_split
I0216 14:19:33.533650 31750 net.cpp:157] Top shape: 1 3 94 125 (35250)
I0216 14:19:33.533655 31750 net.cpp:157] Top shape: 1 3 94 125 (35250)
I0216 14:19:33.533659 31750 net.cpp:165] Memory required for data: 470000
I0216 14:19:33.533663 31750 layer_factory.hpp:77] Creating layer conv1_1
I0216 14:19:33.533680 31750 net.cpp:100] Creating Layer conv1_1
I0216 14:19:33.533685 31750 net.cpp:434] conv1_1 <- data_data_0_split_0
I0216 14:19:33.533700 31750 net.cpp:408] conv1_1 -> conv1_1
I0216 14:19:33.950703 31750 net.cpp:150] Setting up conv1_1
I0216 14:19:33.950742 31750 net.cpp:157] Top shape: 1 64 292 323 (6036224)
I0216 14:19:33.950747 31750 net.cpp:165] Memory required for data: 24614896
I0216 14:19:33.950767 31750 layer_factory.hpp:77] Creating layer relu1_1
I0216 14:19:33.950778 31750 net.cpp:100] Creating Layer relu1_1
I0216 14:19:33.950784 31750 net.cpp:434] relu1_1 <- conv1_1
I0216 14:19:33.950791 31750 net.cpp:395] relu1_1 -> conv1_1 (in-place)
I0216 14:19:33.951357 31750 net.cpp:150] Setting up relu1_1
I0216 14:19:33.951371 31750 net.cpp:157] Top shape: 1 64 292 323 (6036224)
I0216 14:19:33.951375 31750 net.cpp:165] Memory required for data: 48759792
I0216 14:19:33.951380 31750 layer_factory.hpp:77] Creating layer conv1_2
I0216 14:19:33.951395 31750 net.cpp:100] Creating Layer conv1_2
I0216 14:19:33.951400 31750 net.cpp:434] conv1_2 <- conv1_1
I0216 14:19:33.951407 31750 net.cpp:408] conv1_2 -> conv1_2
I0216 14:19:33.958880 31750 net.cpp:150] Setting up conv1_2
I0216 14:19:33.958897 31750 net.cpp:157] Top shape: 1 64 292 323 (6036224)
I0216 14:19:33.958902 31750 net.cpp:165] Memory required for data: 72904688
I0216 14:19:33.958914 31750 layer_factory.hpp:77] Creating layer relu1_2
I0216 14:19:33.958920 31750 net.cpp:100] Creating Layer relu1_2
I0216 14:19:33.958925 31750 net.cpp:434] relu1_2 <- conv1_2
I0216 14:19:33.958932 31750 net.cpp:395] relu1_2 -> conv1_2 (in-place)
I0216 14:19:33.961182 31750 net.cpp:150] Setting up relu1_2
I0216 14:19:33.961195 31750 net.cpp:157] Top shape: 1 64 292 323 (6036224)
I0216 14:19:33.961199 31750 net.cpp:165] Memory required for data: 97049584
I0216 14:19:33.961205 31750 layer_factory.hpp:77] Creating layer pool1
I0216 14:19:33.961215 31750 net.cpp:100] Creating Layer pool1
I0216 14:19:33.961220 31750 net.cpp:434] pool1 <- conv1_2
I0216 14:19:33.961225 31750 net.cpp:408] pool1 -> pool1
I0216 14:19:33.961274 31750 net.cpp:150] Setting up pool1
I0216 14:19:33.961282 31750 net.cpp:157] Top shape: 1 64 146 162 (1513728)
I0216 14:19:33.961285 31750 net.cpp:165] Memory required for data: 103104496
I0216 14:19:33.961289 31750 layer_factory.hpp:77] Creating layer conv2_1
I0216 14:19:33.961300 31750 net.cpp:100] Creating Layer conv2_1
I0216 14:19:33.961304 31750 net.cpp:434] conv2_1 <- pool1
I0216 14:19:33.961313 31750 net.cpp:408] conv2_1 -> conv2_1
I0216 14:19:33.966845 31750 net.cpp:150] Setting up conv2_1
I0216 14:19:33.966873 31750 net.cpp:157] Top shape: 1 128 146 162 (3027456)
I0216 14:19:33.966879 31750 net.cpp:165] Memory required for data: 115214320
I0216 14:19:33.966891 31750 layer_factory.hpp:77] Creating layer relu2_1
I0216 14:19:33.966899 31750 net.cpp:100] Creating Layer relu2_1
I0216 14:19:33.966904 31750 net.cpp:434] relu2_1 <- conv2_1
I0216 14:19:33.966910 31750 net.cpp:395] relu2_1 -> conv2_1 (in-place)
I0216 14:19:33.967767 31750 net.cpp:150] Setting up relu2_1
I0216 14:19:33.967777 31750 net.cpp:157] Top shape: 1 128 146 162 (3027456)
I0216 14:19:33.967782 31750 net.cpp:165] Memory required for data: 127324144
I0216 14:19:33.967785 31750 layer_factory.hpp:77] Creating layer conv2_2
I0216 14:19:33.967799 31750 net.cpp:100] Creating Layer conv2_2
I0216 14:19:33.967803 31750 net.cpp:434] conv2_2 <- conv2_1
I0216 14:19:33.967813 31750 net.cpp:408] conv2_2 -> conv2_2
I0216 14:19:33.974428 31750 net.cpp:150] Setting up conv2_2
I0216 14:19:33.974444 31750 net.cpp:157] Top shape: 1 128 146 162 (3027456)
I0216 14:19:33.974449 31750 net.cpp:165] Memory required for data: 139433968
I0216 14:19:33.974457 31750 layer_factory.hpp:77] Creating layer relu2_2
I0216 14:19:33.974467 31750 net.cpp:100] Creating Layer relu2_2
I0216 14:19:33.974472 31750 net.cpp:434] relu2_2 <- conv2_2
I0216 14:19:33.974479 31750 net.cpp:395] relu2_2 -> conv2_2 (in-place)
I0216 14:19:33.975635 31750 net.cpp:150] Setting up relu2_2
I0216 14:19:33.975649 31750 net.cpp:157] Top shape: 1 128 146 162 (3027456)
I0216 14:19:33.975654 31750 net.cpp:165] Memory required for data: 151543792
I0216 14:19:33.975666 31750 layer_factory.hpp:77] Creating layer pool2
I0216 14:19:33.975674 31750 net.cpp:100] Creating Layer pool2
I0216 14:19:33.975679 31750 net.cpp:434] pool2 <- conv2_2
I0216 14:19:33.975685 31750 net.cpp:408] pool2 -> pool2
I0216 14:19:33.975730 31750 net.cpp:150] Setting up pool2
I0216 14:19:33.975739 31750 net.cpp:157] Top shape: 1 128 73 81 (756864)
I0216 14:19:33.975742 31750 net.cpp:165] Memory required for data: 154571248
I0216 14:19:33.975746 31750 layer_factory.hpp:77] Creating layer conv3_1
I0216 14:19:33.975757 31750 net.cpp:100] Creating Layer conv3_1
I0216 14:19:33.975761 31750 net.cpp:434] conv3_1 <- pool2
I0216 14:19:33.975770 31750 net.cpp:408] conv3_1 -> conv3_1
I0216 14:19:33.982854 31750 net.cpp:150] Setting up conv3_1
I0216 14:19:33.982870 31750 net.cpp:157] Top shape: 1 256 73 81 (1513728)
I0216 14:19:33.982877 31750 net.cpp:165] Memory required for data: 160626160
I0216 14:19:33.982887 31750 layer_factory.hpp:77] Creating layer relu3_1
I0216 14:19:33.982895 31750 net.cpp:100] Creating Layer relu3_1
I0216 14:19:33.982900 31750 net.cpp:434] relu3_1 <- conv3_1
I0216 14:19:33.982906 31750 net.cpp:395] relu3_1 -> conv3_1 (in-place)
I0216 14:19:33.984369 31750 net.cpp:150] Setting up relu3_1
I0216 14:19:33.984383 31750 net.cpp:157] Top shape: 1 256 73 81 (1513728)
I0216 14:19:33.984387 31750 net.cpp:165] Memory required for data: 166681072
I0216 14:19:33.984392 31750 layer_factory.hpp:77] Creating layer conv3_2
I0216 14:19:33.984405 31750 net.cpp:100] Creating Layer conv3_2
I0216 14:19:33.984411 31750 net.cpp:434] conv3_2 <- conv3_1
I0216 14:19:33.984417 31750 net.cpp:408] conv3_2 -> conv3_2
I0216 14:19:33.993119 31750 net.cpp:150] Setting up conv3_2
I0216 14:19:33.993135 31750 net.cpp:157] Top shape: 1 256 73 81 (1513728)
I0216 14:19:33.993140 31750 net.cpp:165] Memory required for data: 172735984
I0216 14:19:33.993149 31750 layer_factory.hpp:77] Creating layer relu3_2
I0216 14:19:33.993156 31750 net.cpp:100] Creating Layer relu3_2
I0216 14:19:33.993160 31750 net.cpp:434] relu3_2 <- conv3_2
I0216 14:19:33.993170 31750 net.cpp:395] relu3_2 -> conv3_2 (in-place)
I0216 14:19:33.995190 31750 net.cpp:150] Setting up relu3_2
I0216 14:19:33.995203 31750 net.cpp:157] Top shape: 1 256 73 81 (1513728)
I0216 14:19:33.995206 31750 net.cpp:165] Memory required for data: 178790896
I0216 14:19:33.995210 31750 layer_factory.hpp:77] Creating layer conv3_3
I0216 14:19:33.995225 31750 net.cpp:100] Creating Layer conv3_3
I0216 14:19:33.995229 31750 net.cpp:434] conv3_3 <- conv3_2
I0216 14:19:33.995236 31750 net.cpp:408] conv3_3 -> conv3_3
I0216 14:19:34.001610 31750 net.cpp:150] Setting up conv3_3
I0216 14:19:34.001628 31750 net.cpp:157] Top shape: 1 256 73 81 (1513728)
I0216 14:19:34.001633 31750 net.cpp:165] Memory required for data: 184845808
I0216 14:19:34.001646 31750 layer_factory.hpp:77] Creating layer relu3_3
I0216 14:19:34.001654 31750 net.cpp:100] Creating Layer relu3_3
I0216 14:19:34.001659 31750 net.cpp:434] relu3_3 <- conv3_3
I0216 14:19:34.001665 31750 net.cpp:395] relu3_3 -> conv3_3 (in-place)
I0216 14:19:34.002090 31750 net.cpp:150] Setting up relu3_3
I0216 14:19:34.002104 31750 net.cpp:157] Top shape: 1 256 73 81 (1513728)
I0216 14:19:34.002109 31750 net.cpp:165] Memory required for data: 190900720
I0216 14:19:34.002112 31750 layer_factory.hpp:77] Creating layer pool3
I0216 14:19:34.002122 31750 net.cpp:100] Creating Layer pool3
I0216 14:19:34.002126 31750 net.cpp:434] pool3 <- conv3_3
I0216 14:19:34.002132 31750 net.cpp:408] pool3 -> pool3
I0216 14:19:34.002182 31750 net.cpp:150] Setting up pool3
I0216 14:19:34.002189 31750 net.cpp:157] Top shape: 1 256 37 41 (388352)
I0216 14:19:34.002192 31750 net.cpp:165] Memory required for data: 192454128
I0216 14:19:34.002197 31750 layer_factory.hpp:77] Creating layer pool3_pool3_0_split
I0216 14:19:34.002203 31750 net.cpp:100] Creating Layer pool3_pool3_0_split
I0216 14:19:34.002207 31750 net.cpp:434] pool3_pool3_0_split <- pool3
I0216 14:19:34.002216 31750 net.cpp:408] pool3_pool3_0_split -> pool3_pool3_0_split_0
I0216 14:19:34.002223 31750 net.cpp:408] pool3_pool3_0_split -> pool3_pool3_0_split_1
I0216 14:19:34.002269 31750 net.cpp:150] Setting up pool3_pool3_0_split
I0216 14:19:34.002275 31750 net.cpp:157] Top shape: 1 256 37 41 (388352)
I0216 14:19:34.002280 31750 net.cpp:157] Top shape: 1 256 37 41 (388352)
I0216 14:19:34.002285 31750 net.cpp:165] Memory required for data: 195560944
I0216 14:19:34.002288 31750 layer_factory.hpp:77] Creating layer conv4_1
I0216 14:19:34.002300 31750 net.cpp:100] Creating Layer conv4_1
I0216 14:19:34.002303 31750 net.cpp:434] conv4_1 <- pool3_pool3_0_split_0
I0216 14:19:34.002310 31750 net.cpp:408] conv4_1 -> conv4_1
I0216 14:19:34.015252 31750 net.cpp:150] Setting up conv4_1
I0216 14:19:34.015269 31750 net.cpp:157] Top shape: 1 512 37 41 (776704)
I0216 14:19:34.015275 31750 net.cpp:165] Memory required for data: 198667760
I0216 14:19:34.015282 31750 layer_factory.hpp:77] Creating layer relu4_1
I0216 14:19:34.015292 31750 net.cpp:100] Creating Layer relu4_1
I0216 14:19:34.015297 31750 net.cpp:434] relu4_1 <- conv4_1
I0216 14:19:34.015303 31750 net.cpp:395] relu4_1 -> conv4_1 (in-place)
I0216 14:19:34.016607 31750 net.cpp:150] Setting up relu4_1
I0216 14:19:34.016620 31750 net.cpp:157] Top shape: 1 512 37 41 (776704)
I0216 14:19:34.016624 31750 net.cpp:165] Memory required for data: 201774576
I0216 14:19:34.016629 31750 layer_factory.hpp:77] Creating layer conv4_2
I0216 14:19:34.016641 31750 net.cpp:100] Creating Layer conv4_2
I0216 14:19:34.016646 31750 net.cpp:434] conv4_2 <- conv4_1
I0216 14:19:34.016654 31750 net.cpp:408] conv4_2 -> conv4_2
I0216 14:19:34.037173 31750 net.cpp:150] Setting up conv4_2
I0216 14:19:34.037196 31750 net.cpp:157] Top shape: 1 512 37 41 (776704)
I0216 14:19:34.037201 31750 net.cpp:165] Memory required for data: 204881392
I0216 14:19:34.037217 31750 layer_factory.hpp:77] Creating layer relu4_2
I0216 14:19:34.037228 31750 net.cpp:100] Creating Layer relu4_2
I0216 14:19:34.037235 31750 net.cpp:434] relu4_2 <- conv4_2
I0216 14:19:34.037241 31750 net.cpp:395] relu4_2 -> conv4_2 (in-place)
I0216 14:19:34.039754 31750 net.cpp:150] Setting up relu4_2
I0216 14:19:34.039768 31750 net.cpp:157] Top shape: 1 512 37 41 (776704)
I0216 14:19:34.039772 31750 net.cpp:165] Memory required for data: 207988208
I0216 14:19:34.039777 31750 layer_factory.hpp:77] Creating layer conv4_3
I0216 14:19:34.039789 31750 net.cpp:100] Creating Layer conv4_3
I0216 14:19:34.039794 31750 net.cpp:434] conv4_3 <- conv4_2
I0216 14:19:34.039803 31750 net.cpp:408] conv4_3 -> conv4_3
I0216 14:19:34.057739 31750 net.cpp:150] Setting up conv4_3
I0216 14:19:34.057761 31750 net.cpp:157] Top shape: 1 512 37 41 (776704)
I0216 14:19:34.057766 31750 net.cpp:165] Memory required for data: 211095024
I0216 14:19:34.057775 31750 layer_factory.hpp:77] Creating layer relu4_3
I0216 14:19:34.057786 31750 net.cpp:100] Creating Layer relu4_3
I0216 14:19:34.057792 31750 net.cpp:434] relu4_3 <- conv4_3
I0216 14:19:34.057798 31750 net.cpp:395] relu4_3 -> conv4_3 (in-place)
I0216 14:19:34.058537 31750 net.cpp:150] Setting up relu4_3
I0216 14:19:34.058549 31750 net.cpp:157] Top shape: 1 512 37 41 (776704)
I0216 14:19:34.058554 31750 net.cpp:165] Memory required for data: 214201840
I0216 14:19:34.058558 31750 layer_factory.hpp:77] Creating layer pool4
I0216 14:19:34.058571 31750 net.cpp:100] Creating Layer pool4
I0216 14:19:34.058576 31750 net.cpp:434] pool4 <- conv4_3
I0216 14:19:34.058583 31750 net.cpp:408] pool4 -> pool4
I0216 14:19:34.058634 31750 net.cpp:150] Setting up pool4
I0216 14:19:34.058642 31750 net.cpp:157] Top shape: 1 512 19 21 (204288)
I0216 14:19:34.058645 31750 net.cpp:165] Memory required for data: 215018992
I0216 14:19:34.058650 31750 layer_factory.hpp:77] Creating layer pool4_pool4_0_split
I0216 14:19:34.058656 31750 net.cpp:100] Creating Layer pool4_pool4_0_split
I0216 14:19:34.058661 31750 net.cpp:434] pool4_pool4_0_split <- pool4
I0216 14:19:34.058668 31750 net.cpp:408] pool4_pool4_0_split -> pool4_pool4_0_split_0
I0216 14:19:34.058676 31750 net.cpp:408] pool4_pool4_0_split -> pool4_pool4_0_split_1
I0216 14:19:34.058712 31750 net.cpp:150] Setting up pool4_pool4_0_split
I0216 14:19:34.058727 31750 net.cpp:157] Top shape: 1 512 19 21 (204288)
I0216 14:19:34.058733 31750 net.cpp:157] Top shape: 1 512 19 21 (204288)
I0216 14:19:34.058737 31750 net.cpp:165] Memory required for data: 216653296
I0216 14:19:34.058740 31750 layer_factory.hpp:77] Creating layer conv5_1
I0216 14:19:34.058755 31750 net.cpp:100] Creating Layer conv5_1
I0216 14:19:34.058760 31750 net.cpp:434] conv5_1 <- pool4_pool4_0_split_0
I0216 14:19:34.058768 31750 net.cpp:408] conv5_1 -> conv5_1
I0216 14:19:34.081629 31750 net.cpp:150] Setting up conv5_1
I0216 14:19:34.081655 31750 net.cpp:157] Top shape: 1 512 19 21 (204288)
I0216 14:19:34.081660 31750 net.cpp:165] Memory required for data: 217470448
I0216 14:19:34.081668 31750 layer_factory.hpp:77] Creating layer relu5_1
I0216 14:19:34.081679 31750 net.cpp:100] Creating Layer relu5_1
I0216 14:19:34.081684 31750 net.cpp:434] relu5_1 <- conv5_1
I0216 14:19:34.081693 31750 net.cpp:395] relu5_1 -> conv5_1 (in-place)
I0216 14:19:34.084107 31750 net.cpp:150] Setting up relu5_1
I0216 14:19:34.084121 31750 net.cpp:157] Top shape: 1 512 19 21 (204288)
I0216 14:19:34.084125 31750 net.cpp:165] Memory required for data: 218287600
I0216 14:19:34.084131 31750 layer_factory.hpp:77] Creating layer conv5_2
I0216 14:19:34.084143 31750 net.cpp:100] Creating Layer conv5_2
I0216 14:19:34.084148 31750 net.cpp:434] conv5_2 <- conv5_1
I0216 14:19:34.084156 31750 net.cpp:408] conv5_2 -> conv5_2
I0216 14:19:34.104979 31750 net.cpp:150] Setting up conv5_2
I0216 14:19:34.105001 31750 net.cpp:157] Top shape: 1 512 19 21 (204288)
I0216 14:19:34.105006 31750 net.cpp:165] Memory required for data: 219104752
I0216 14:19:34.105015 31750 layer_factory.hpp:77] Creating layer relu5_2
I0216 14:19:34.105027 31750 net.cpp:100] Creating Layer relu5_2
I0216 14:19:34.105032 31750 net.cpp:434] relu5_2 <- conv5_2
I0216 14:19:34.105039 31750 net.cpp:395] relu5_2 -> conv5_2 (in-place)
I0216 14:19:34.107203 31750 net.cpp:150] Setting up relu5_2
I0216 14:19:34.107218 31750 net.cpp:157] Top shape: 1 512 19 21 (204288)
I0216 14:19:34.107223 31750 net.cpp:165] Memory required for data: 219921904
I0216 14:19:34.107228 31750 layer_factory.hpp:77] Creating layer conv5_3
I0216 14:19:34.107245 31750 net.cpp:100] Creating Layer conv5_3
I0216 14:19:34.107250 31750 net.cpp:434] conv5_3 <- conv5_2
I0216 14:19:34.107259 31750 net.cpp:408] conv5_3 -> conv5_3
I0216 14:19:34.129156 31750 net.cpp:150] Setting up conv5_3
I0216 14:19:34.129179 31750 net.cpp:157] Top shape: 1 512 19 21 (204288)
I0216 14:19:34.129184 31750 net.cpp:165] Memory required for data: 220739056
I0216 14:19:34.129194 31750 layer_factory.hpp:77] Creating layer relu5_3
I0216 14:19:34.129204 31750 net.cpp:100] Creating Layer relu5_3
I0216 14:19:34.129210 31750 net.cpp:434] relu5_3 <- conv5_3
I0216 14:19:34.129217 31750 net.cpp:395] relu5_3 -> conv5_3 (in-place)
I0216 14:19:34.131556 31750 net.cpp:150] Setting up relu5_3
I0216 14:19:34.131572 31750 net.cpp:157] Top shape: 1 512 19 21 (204288)
I0216 14:19:34.131575 31750 net.cpp:165] Memory required for data: 221556208
I0216 14:19:34.131580 31750 layer_factory.hpp:77] Creating layer pool5
I0216 14:19:34.131592 31750 net.cpp:100] Creating Layer pool5
I0216 14:19:34.131597 31750 net.cpp:434] pool5 <- conv5_3
I0216 14:19:34.131603 31750 net.cpp:408] pool5 -> pool5
I0216 14:19:34.131656 31750 net.cpp:150] Setting up pool5
I0216 14:19:34.131664 31750 net.cpp:157] Top shape: 1 512 10 11 (56320)
I0216 14:19:34.131669 31750 net.cpp:165] Memory required for data: 221781488
I0216 14:19:34.131672 31750 layer_factory.hpp:77] Creating layer fc6
I0216 14:19:34.131685 31750 net.cpp:100] Creating Layer fc6
I0216 14:19:34.131690 31750 net.cpp:434] fc6 <- pool5
I0216 14:19:34.131698 31750 net.cpp:408] fc6 -> fc6
I0216 14:19:34.952318 31750 net.cpp:150] Setting up fc6
I0216 14:19:34.952359 31750 net.cpp:157] Top shape: 1 4096 4 5 (81920)
I0216 14:19:34.952365 31750 net.cpp:165] Memory required for data: 222109168
I0216 14:19:34.952376 31750 layer_factory.hpp:77] Creating layer relu6
I0216 14:19:34.952388 31750 net.cpp:100] Creating Layer relu6
I0216 14:19:34.952402 31750 net.cpp:434] relu6 <- fc6
I0216 14:19:34.952412 31750 net.cpp:395] relu6 -> fc6 (in-place)
I0216 14:19:34.954134 31750 net.cpp:150] Setting up relu6
I0216 14:19:34.954149 31750 net.cpp:157] Top shape: 1 4096 4 5 (81920)
I0216 14:19:34.954152 31750 net.cpp:165] Memory required for data: 222436848
I0216 14:19:34.954157 31750 layer_factory.hpp:77] Creating layer drop6
I0216 14:19:34.954170 31750 net.cpp:100] Creating Layer drop6
I0216 14:19:34.954175 31750 net.cpp:434] drop6 <- fc6
I0216 14:19:34.954180 31750 net.cpp:395] drop6 -> fc6 (in-place)
I0216 14:19:34.954219 31750 net.cpp:150] Setting up drop6
I0216 14:19:34.954226 31750 net.cpp:157] Top shape: 1 4096 4 5 (81920)
I0216 14:19:34.954231 31750 net.cpp:165] Memory required for data: 222764528
I0216 14:19:34.954234 31750 layer_factory.hpp:77] Creating layer fc7
I0216 14:19:34.954248 31750 net.cpp:100] Creating Layer fc7
I0216 14:19:34.954252 31750 net.cpp:434] fc7 <- fc6
I0216 14:19:34.954262 31750 net.cpp:408] fc7 -> fc7
I0216 14:19:35.091816 31750 net.cpp:150] Setting up fc7
I0216 14:19:35.091852 31750 net.cpp:157] Top shape: 1 4096 4 5 (81920)
I0216 14:19:35.091857 31750 net.cpp:165] Memory required for data: 223092208
I0216 14:19:35.091871 31750 layer_factory.hpp:77] Creating layer relu7
I0216 14:19:35.091883 31750 net.cpp:100] Creating Layer relu7
I0216 14:19:35.091889 31750 net.cpp:434] relu7 <- fc7
I0216 14:19:35.091897 31750 net.cpp:395] relu7 -> fc7 (in-place)
I0216 14:19:35.094024 31750 net.cpp:150] Setting up relu7
I0216 14:19:35.094038 31750 net.cpp:157] Top shape: 1 4096 4 5 (81920)
I0216 14:19:35.094043 31750 net.cpp:165] Memory required for data: 223419888
I0216 14:19:35.094048 31750 layer_factory.hpp:77] Creating layer drop7
I0216 14:19:35.094056 31750 net.cpp:100] Creating Layer drop7
I0216 14:19:35.094060 31750 net.cpp:434] drop7 <- fc7
I0216 14:19:35.094066 31750 net.cpp:395] drop7 -> fc7 (in-place)
I0216 14:19:35.094101 31750 net.cpp:150] Setting up drop7
I0216 14:19:35.094108 31750 net.cpp:157] Top shape: 1 4096 4 5 (81920)
I0216 14:19:35.094112 31750 net.cpp:165] Memory required for data: 223747568
I0216 14:19:35.094116 31750 layer_factory.hpp:77] Creating layer score_fr
I0216 14:19:35.094130 31750 net.cpp:100] Creating Layer score_fr
I0216 14:19:35.094133 31750 net.cpp:434] score_fr <- fc7
I0216 14:19:35.094142 31750 net.cpp:408] score_fr -> score_fr
I0216 14:19:35.101315 31750 net.cpp:150] Setting up score_fr
I0216 14:19:35.101331 31750 net.cpp:157] Top shape: 1 16 4 5 (320)
I0216 14:19:35.101336 31750 net.cpp:165] Memory required for data: 223748848
I0216 14:19:35.101344 31750 layer_factory.hpp:77] Creating layer upscore2
I0216 14:19:35.101361 31750 net.cpp:100] Creating Layer upscore2
I0216 14:19:35.101366 31750 net.cpp:434] upscore2 <- score_fr
I0216 14:19:35.101375 31750 net.cpp:408] upscore2 -> upscore2
I0216 14:19:35.101609 31750 net.cpp:150] Setting up upscore2
I0216 14:19:35.101619 31750 net.cpp:157] Top shape: 1 16 10 12 (1920)
I0216 14:19:35.101622 31750 net.cpp:165] Memory required for data: 223756528
I0216 14:19:35.101635 31750 layer_factory.hpp:77] Creating layer upscore2_upscore2_0_split
I0216 14:19:35.101649 31750 net.cpp:100] Creating Layer upscore2_upscore2_0_split
I0216 14:19:35.101655 31750 net.cpp:434] upscore2_upscore2_0_split <- upscore2
I0216 14:19:35.101665 31750 net.cpp:408] upscore2_upscore2_0_split -> upscore2_upscore2_0_split_0
I0216 14:19:35.101673 31750 net.cpp:408] upscore2_upscore2_0_split -> upscore2_upscore2_0_split_1
I0216 14:19:35.101713 31750 net.cpp:150] Setting up upscore2_upscore2_0_split
I0216 14:19:35.101721 31750 net.cpp:157] Top shape: 1 16 10 12 (1920)
I0216 14:19:35.101725 31750 net.cpp:157] Top shape: 1 16 10 12 (1920)
I0216 14:19:35.101728 31750 net.cpp:165] Memory required for data: 223771888
I0216 14:19:35.101733 31750 layer_factory.hpp:77] Creating layer scale_pool4
I0216 14:19:35.101747 31750 net.cpp:100] Creating Layer scale_pool4
I0216 14:19:35.101752 31750 net.cpp:434] scale_pool4 <- pool4_pool4_0_split_1
I0216 14:19:35.101760 31750 net.cpp:408] scale_pool4 -> scale_pool4
I0216 14:19:35.101881 31750 net.cpp:150] Setting up scale_pool4
I0216 14:19:35.101889 31750 net.cpp:157] Top shape: 1 512 19 21 (204288)
I0216 14:19:35.101893 31750 net.cpp:165] Memory required for data: 224589040
I0216 14:19:35.101899 31750 layer_factory.hpp:77] Creating layer score_pool4
I0216 14:19:35.101912 31750 net.cpp:100] Creating Layer score_pool4
I0216 14:19:35.101915 31750 net.cpp:434] score_pool4 <- scale_pool4
I0216 14:19:35.101924 31750 net.cpp:408] score_pool4 -> score_pool4
I0216 14:19:35.106729 31750 net.cpp:150] Setting up score_pool4
I0216 14:19:35.106745 31750 net.cpp:157] Top shape: 1 16 19 21 (6384)
I0216 14:19:35.106750 31750 net.cpp:165] Memory required for data: 224614576
I0216 14:19:35.106757 31750 layer_factory.hpp:77] Creating layer score_pool4c
I0216 14:19:35.106768 31750 net.cpp:100] Creating Layer score_pool4c
I0216 14:19:35.106773 31750 net.cpp:434] score_pool4c <- score_pool4
I0216 14:19:35.106779 31750 net.cpp:434] score_pool4c <- upscore2_upscore2_0_split_0
I0216 14:19:35.106788 31750 net.cpp:408] score_pool4c -> score_pool4c
I0216 14:19:35.106822 31750 net.cpp:150] Setting up score_pool4c
I0216 14:19:35.106832 31750 net.cpp:157] Top shape: 1 16 10 12 (1920)
I0216 14:19:35.106837 31750 net.cpp:165] Memory required for data: 224622256
I0216 14:19:35.106840 31750 layer_factory.hpp:77] Creating layer fuse_pool4
I0216 14:19:35.106849 31750 net.cpp:100] Creating Layer fuse_pool4
I0216 14:19:35.106853 31750 net.cpp:434] fuse_pool4 <- upscore2_upscore2_0_split_1
I0216 14:19:35.106858 31750 net.cpp:434] fuse_pool4 <- score_pool4c
I0216 14:19:35.106864 31750 net.cpp:408] fuse_pool4 -> fuse_pool4
I0216 14:19:35.106894 31750 net.cpp:150] Setting up fuse_pool4
I0216 14:19:35.106901 31750 net.cpp:157] Top shape: 1 16 10 12 (1920)
I0216 14:19:35.106905 31750 net.cpp:165] Memory required for data: 224629936
I0216 14:19:35.106909 31750 layer_factory.hpp:77] Creating layer upscore_pool4
I0216 14:19:35.106920 31750 net.cpp:100] Creating Layer upscore_pool4
I0216 14:19:35.106923 31750 net.cpp:434] upscore_pool4 <- fuse_pool4
I0216 14:19:35.106931 31750 net.cpp:408] upscore_pool4 -> upscore_pool4
I0216 14:19:35.107159 31750 net.cpp:150] Setting up upscore_pool4
I0216 14:19:35.107167 31750 net.cpp:157] Top shape: 1 16 22 26 (9152)
I0216 14:19:35.107172 31750 net.cpp:165] Memory required for data: 224666544
I0216 14:19:35.107177 31750 layer_factory.hpp:77] Creating layer upscore_pool4_upscore_pool4_0_split
I0216 14:19:35.107183 31750 net.cpp:100] Creating Layer upscore_pool4_upscore_pool4_0_split
I0216 14:19:35.107187 31750 net.cpp:434] upscore_pool4_upscore_pool4_0_split <- upscore_pool4
I0216 14:19:35.107195 31750 net.cpp:408] upscore_pool4_upscore_pool4_0_split -> upscore_pool4_upscore_pool4_0_split_0
I0216 14:19:35.107203 31750 net.cpp:408] upscore_pool4_upscore_pool4_0_split -> upscore_pool4_upscore_pool4_0_split_1
I0216 14:19:35.107239 31750 net.cpp:150] Setting up upscore_pool4_upscore_pool4_0_split
I0216 14:19:35.107244 31750 net.cpp:157] Top shape: 1 16 22 26 (9152)
I0216 14:19:35.107249 31750 net.cpp:157] Top shape: 1 16 22 26 (9152)
I0216 14:19:35.107254 31750 net.cpp:165] Memory required for data: 224739760
I0216 14:19:35.107257 31750 layer_factory.hpp:77] Creating layer scale_pool3
I0216 14:19:35.107267 31750 net.cpp:100] Creating Layer scale_pool3
I0216 14:19:35.107271 31750 net.cpp:434] scale_pool3 <- pool3_pool3_0_split_1
I0216 14:19:35.107277 31750 net.cpp:408] scale_pool3 -> scale_pool3
I0216 14:19:35.107373 31750 net.cpp:150] Setting up scale_pool3
I0216 14:19:35.107380 31750 net.cpp:157] Top shape: 1 256 37 41 (388352)
I0216 14:19:35.107384 31750 net.cpp:165] Memory required for data: 226293168
I0216 14:19:35.107389 31750 layer_factory.hpp:77] Creating layer score_pool3
I0216 14:19:35.107401 31750 net.cpp:100] Creating Layer score_pool3
I0216 14:19:35.107408 31750 net.cpp:434] score_pool3 <- scale_pool3
I0216 14:19:35.107414 31750 net.cpp:408] score_pool3 -> score_pool3
I0216 14:19:35.114164 31750 net.cpp:150] Setting up score_pool3
I0216 14:19:35.114181 31750 net.cpp:157] Top shape: 1 16 37 41 (24272)
I0216 14:19:35.114192 31750 net.cpp:165] Memory required for data: 226390256
I0216 14:19:35.114200 31750 layer_factory.hpp:77] Creating layer score_pool3c
I0216 14:19:35.114210 31750 net.cpp:100] Creating Layer score_pool3c
I0216 14:19:35.114215 31750 net.cpp:434] score_pool3c <- score_pool3
I0216 14:19:35.114222 31750 net.cpp:434] score_pool3c <- upscore_pool4_upscore_pool4_0_split_0
I0216 14:19:35.114228 31750 net.cpp:408] score_pool3c -> score_pool3c
I0216 14:19:35.114264 31750 net.cpp:150] Setting up score_pool3c
I0216 14:19:35.114271 31750 net.cpp:157] Top shape: 1 16 22 26 (9152)
I0216 14:19:35.114275 31750 net.cpp:165] Memory required for data: 226426864
I0216 14:19:35.114279 31750 layer_factory.hpp:77] Creating layer fuse_pool3
I0216 14:19:35.114286 31750 net.cpp:100] Creating Layer fuse_pool3
I0216 14:19:35.114290 31750 net.cpp:434] fuse_pool3 <- upscore_pool4_upscore_pool4_0_split_1
I0216 14:19:35.114295 31750 net.cpp:434] fuse_pool3 <- score_pool3c
I0216 14:19:35.114303 31750 net.cpp:408] fuse_pool3 -> fuse_pool3
I0216 14:19:35.114329 31750 net.cpp:150] Setting up fuse_pool3
I0216 14:19:35.114338 31750 net.cpp:157] Top shape: 1 16 22 26 (9152)
I0216 14:19:35.114342 31750 net.cpp:165] Memory required for data: 226463472
I0216 14:19:35.114346 31750 layer_factory.hpp:77] Creating layer upscore8
I0216 14:19:35.114353 31750 net.cpp:100] Creating Layer upscore8
I0216 14:19:35.114357 31750 net.cpp:434] upscore8 <- fuse_pool3
I0216 14:19:35.114365 31750 net.cpp:408] upscore8 -> upscore8
I0216 14:19:35.114915 31750 net.cpp:150] Setting up upscore8
I0216 14:19:35.114924 31750 net.cpp:157] Top shape: 1 16 184 216 (635904)
I0216 14:19:35.114928 31750 net.cpp:165] Memory required for data: 229007088
I0216 14:19:35.114934 31750 layer_factory.hpp:77] Creating layer score
I0216 14:19:35.114943 31750 net.cpp:100] Creating Layer score
I0216 14:19:35.114948 31750 net.cpp:434] score <- upscore8
I0216 14:19:35.114953 31750 net.cpp:434] score <- data_data_0_split_1
I0216 14:19:35.114959 31750 net.cpp:408] score -> score
I0216 14:19:35.114984 31750 net.cpp:150] Setting up score
I0216 14:19:35.114991 31750 net.cpp:157] Top shape: 1 16 94 125 (188000)
I0216 14:19:35.114995 31750 net.cpp:165] Memory required for data: 229759088
I0216 14:19:35.114998 31750 layer_factory.hpp:77] Creating layer loss
I0216 14:19:35.115007 31750 net.cpp:100] Creating Layer loss
I0216 14:19:35.115011 31750 net.cpp:434] loss <- score
I0216 14:19:35.115016 31750 net.cpp:434] loss <- label
I0216 14:19:35.115025 31750 net.cpp:408] loss -> loss
I0216 14:19:35.115036 31750 layer_factory.hpp:77] Creating layer loss
…
I0216 14:19:35.117550 31750 net.cpp:283] Network initialization done.
I0216 14:19:35.118659 31750 solver.cpp:181] Creating test net (#0) specified by test_net file: val.prototxt
I0216 14:19:35.119014 31750 net.cpp:58] Initializing net from parameters: 
state {
  phase: TEST
}
layer {
  name: "data"
  type: "Python"
  top: "data"
  top: "label"
  python_param {
    module: "voc_layers"
    layer: "VOCSegDataLayer"
    param_str: "{\'voc_dir\': \'../data/pascal-subsampl/VOC2011\', \'seed\': 1337, \'split\': \'seg11valid_pt4_sglinst\', \'mean\': (104.00699, 116.66877, 122.67892)}"
  }
}
layer {
  name: "conv1_1"
  type: "Convolution"
  bottom: "data"
  top: "conv1_1"
  param {
    lr_mult: 1
    decay_mult: 1
  }
  param {
    lr_mult: 2
    decay_mult: 0
  }
  convolution_param {
    num_output: 64
    pad: 100
    kernel_size: 3
    stride: 1
    weight_filler {
      type: "xavier"
    }
  }
}
layer {
  name: "relu1_1"
  type: "ReLU"
  bottom: "conv1_1"
  top: "conv1_1"
}
layer {
  name: "conv1_2"
  type: "Convolution"
  bottom: "conv1_1"
  top: "conv1_2"
  param {
    lr_mult: 1
    decay_mult: 1
  }
  param {
    lr_mult: 2
    decay_mult: 0
  }
  convolution_param {
    num_output: 64
    pad: 1
    kernel_size: 3
    stride: 1
    weight_filler {
      type: "xavier"
    }
  }
}
layer {
  name: "relu1_2"
  type: "ReLU"
  bottom: "conv1_2"
  top: "conv1_2"
}
layer {
  name: "pool1"
  type: "Pooling"
  bottom: "conv1_2"
  top: "pool1"
  pooling_param {
    pool: MAX
    kernel_size: 2
    stride: 2
  }
}
layer {
  name: "conv2_1"
  type: "Convolution"
  bottom: "pool1"
  top: "conv2_1"
  param {
    lr_mult: 1
    decay_mult: 1
  }
  param {
    lr_mult: 2
    decay_mult: 0
  }
  convolution_param {
    num_output: 128
    pad: 1
    kernel_size: 3
    stride: 1
    weight_filler {
      type: "xavier"
    }
  }
}
layer {
  name: "relu2_1"
  type: "ReLU"
  bottom: "conv2_1"
  top: "conv2_1"
}
layer {
  name: "conv2_2"
  type: "Convolution"
  bottom: "conv2_1"
  top: "conv2_2"
  param {
    lr_mult: 1
    decay_mult: 1
  }
  param {
    lr_mult: 2
    decay_mult: 0
  }
  convolution_param {
    num_output: 128
    pad: 1
    kernel_size: 3
    stride: 1
    weight_filler {
      type: "xavier"
    }
  }
}
layer {
  name: "relu2_2"
  type: "ReLU"
  bottom: "conv2_2"
  top: "conv2_2"
}
layer {
  name: "pool2"
  type: "Pooling"
  bottom: "conv2_2"
  top: "pool2"
  pooling_param {
    pool: MAX
    kernel_size: 2
    stride: 2
  }
}
layer {
  name: "conv3_1"
  type: "Convolution"
  bottom: "pool2"
  top: "conv3_1"
  param {
    lr_mult: 1
    decay_mult: 1
  }
  param {
    lr_mult: 2
    decay_mult: 0
  }
  convolution_param {
    num_output: 256
    pad: 1
    kernel_size: 3
    stride: 1
    weight_filler {
      type: "xavier"
    }
  }
}
layer {
  name: "relu3_1"
  type: "ReLU"
  bottom: "conv3_1"
  top: "conv3_1"
}
layer {
  name: "conv3_2"
  type: "Convolution"
  bottom: "conv3_1"
  top: "conv3_2"
  param {
    lr_mult: 1
    decay_mult: 1
  }
  param {
    lr_mult: 2
    decay_mult: 0
  }
  convolution_param {
    num_output: 256
    pad: 1
    kernel_size: 3
    stride: 1
    weight_filler {
      type: "xavier"
    }
  }
}
layer {
  name: "relu3_2"
  type: "ReLU"
  bottom: "conv3_2"
  top: "conv3_2"
}
layer {
  name: "conv3_3"
  type: "Convolution"
  bottom: "conv3_2"
  top: "conv3_3"
  param {
    lr_mult: 1
    decay_mult: 1
  }
  param {
    lr_mult: 2
    decay_mult: 0
  }
  convolution_param {
    num_output: 256
    pad: 1
    kernel_size: 3
    stride: 1
    weight_filler {
      type: "xavier"
    }
  }
}
layer {
  name: "relu3_3"
  type: "ReLU"
  bottom: "conv3_3"
  top: "conv3_3"
}
layer {
  name: "pool3"
  type: "Pooling"
  bottom: "conv3_3"
  top: "pool3"
  pooling_param {
    pool: MAX
    kernel_size: 2
    stride: 2
  }
}
layer {
  name: "conv4_1"
  type: "Convolution"
  bottom: "pool3"
  top: "conv4_1"
  param {
    lr_mult: 1
    decay_mult: 1
  }
  param {
    lr_mult: 2
    decay_mult: 0
  }
  convolution_param {
    num_output: 512
    pad: 1
    kernel_size: 3
    stride: 1
    weight_filler {
      type: "xavier"
    }
  }
}
layer {
  name: "relu4_1"
  type: "ReLU"
  bottom: "conv4_1"
  top: "conv4_1"
}
layer {
  name: "conv4_2"
  type: "Convolution"
  bottom: "conv4_1"
  top: "conv4_2"
  param {
    lr_mult: 1
    decay_mult: 1
  }
  param {
    lr_mult: 2
    decay_mult: 0
  }
  convolution_param {
    num_output: 512
    pad: 1
    kernel_size: 3
    stride: 1
    weight_filler {
      type: "xavier"
    }
  }
}
layer {
  name: "relu4_2"
  type: "ReLU"
  bottom: "conv4_2"
  top: "conv4_2"
}
layer {
  name: "conv4_3"
  type: "Convolution"
  bottom: "conv4_2"
  top: "conv4_3"
  param {
    lr_mult: 1
    decay_mult: 1
  }
  param {
    lr_mult: 2
    decay_mult: 0
  }
  convolution_param {
    num_output: 512
    pad: 1
    kernel_size: 3
    stride: 1
    weight_filler {
      type: "xavier"
    }
  }
}
layer {
  name: "relu4_3"
  type: "ReLU"
  bottom: "conv4_3"
  top: "conv4_3"
}
layer {
  name: "pool4"
  type: "Pooling"
  bottom: "conv4_3"
  top: "pool4"
  pooling_param {
    pool: MAX
    kernel_size: 2
    stride: 2
  }
}
layer {
  name: "conv5_1"
  type: "Convolution"
  bottom: "pool4"
  top: "conv5_1"
  param {
    lr_mult: 1
    decay_mult: 1
  }
  param {
    lr_mult: 2
    decay_mult: 0
  }
  convolution_param {
    num_output: 512
    pad: 1
    kernel_size: 3
    stride: 1
    weight_filler {
      type: "xavier"
    }
  }
}
layer {
  name: "relu5_1"
  type: "ReLU"
  bottom: "conv5_1"
  top: "conv5_1"
}
layer {
  name: "conv5_2"
  type: "Convolution"
  bottom: "conv5_1"
  top: "conv5_2"
  param {
    lr_mult: 1
    decay_mult: 1
  }
  param {
    lr_mult: 2
    decay_mult: 0
  }
  convolution_param {
    num_output: 512
    pad: 1
    kernel_size: 3
    stride: 1
    weight_filler {
      type: "xavier"
    }
  }
}
layer {
  name: "relu5_2"
  type: "ReLU"
  bottom: "conv5_2"
  top: "conv5_2"
}
layer {
  name: "conv5_3"
  type: "Convolution"
  bottom: "conv5_2"
  top: "conv5_3"
  param {
    lr_mult: 1
    decay_mult: 1
  }
  param {
    lr_mult: 2
    decay_mult: 0
  }
  convolution_param {
    num_output: 512
    pad: 1
    kernel_size: 3
    stride: 1
    weight_filler {
      type: "xavier"
    }
  }
}
layer {
  name: "relu5_3"
  type: "ReLU"
  bottom: "conv5_3"
  top: "conv5_3"
}
layer {
  name: "pool5"
  type: "Pooling"
  bottom: "conv5_3"
  top: "pool5"
  pooling_param {
    pool: MAX
    kernel_size: 2
    stride: 2
  }
}
layer {
  name: "fc6"
  type: "Convolution"
  bottom: "pool5"
  top: "fc6"
  param {
    lr_mult: 1
    decay_mult: 1
  }
  param {
    lr_mult: 2
    decay_mult: 0
  }
  convolution_param {
    num_output: 4096
    pad: 0
    kernel_size: 7
    stride: 1
    weight_filler {
      type: "xavier"
    }
  }
}
layer {
  name: "relu6"
  type: "ReLU"
  bottom: "fc6"
  top: "fc6"
}
layer {
  name: "drop6"
  type: "Dropout"
  bottom: "fc6"
  top: "fc6"
  dropout_param {
    dropout_ratio: 0.5
  }
}
layer {
  name: "fc7"
  type: "Convolution"
  bottom: "fc6"
  top: "fc7"
  param {
    lr_mult: 1
    decay_mult: 1
  }
  param {
    lr_mult: 2
    decay_mult: 0
  }
  convolution_param {
    num_output: 4096
    pad: 0
    kernel_size: 1
    stride: 1
    weight_filler {
      type: "xavier"
    }
  }
}
layer {
  name: "relu7"
  type: "ReLU"
  bottom: "fc7"
  top: "fc7"
}
layer {
  name: "drop7"
  type: "Dropout"
  bottom: "fc7"
  top: "fc7"
  dropout_param {
    dropout_ratio: 0.5
  }
}
layer {
  name: "score_fr"
  type: "Convolution"
  bottom: "fc7"
  top: "score_fr"
  param {
    lr_mult: 1
    decay_mult: 1
  }
  param {
    lr_mult: 2
    decay_mult: 0
  }
  convolution_param {
    num_output: 16
    pad: 0
    kernel_size: 1
    weight_filler {
      type: "xavier"
    }
  }
}
layer {
  name: "upscore2"
  type: "Deconvolution"
  bottom: "score_fr"
  top: "upscore2"
  param {
    lr_mult: 0
  }
  convolution_param {
    num_output: 16
    bias_term: false
    kernel_size: 4
    stride: 2
    weight_filler {
      type: "xavier"
    }
  }
}
layer {
  name: "scale_pool4"
  type: "Scale"
  bottom: "pool4"
  top: "scale_pool4"
  param {
    lr_mult: 0
  }
  scale_param {
    filler {
      type: "constant"
      value: 0.01
    }
  }
}
layer {
  name: "score_pool4"
  type: "Convolution"
  bottom: "scale_pool4"
  top: "score_pool4"
  param {
    lr_mult: 1
    decay_mult: 1
  }
  param {
    lr_mult: 2
    decay_mult: 0
  }
  convolution_param {
    num_output: 16
    pad: 0
    kernel_size: 1
    weight_filler {
      type: "xavier"
    }
  }
}
layer {
  name: "score_pool4c"
  type: "Crop"
  bottom: "score_pool4"
  bottom: "upscore2"
  top: "score_pool4c"
  crop_param {
    axis: 2
    offset: 5
  }
}
layer {
  name: "fuse_pool4"
  type: "Eltwise"
  bottom: "upscore2"
  bottom: "score_pool4c"
  top: "fuse_pool4"
  eltwise_param {
    operation: SUM
  }
}
layer {
  name: "upscore_pool4"
  type: "Deconvolution"
  bottom: "fuse_pool4"
  top: "upscore_pool4"
  param {
    lr_mult: 0
  }
  convolution_param {
    num_output: 16
    bias_term: false
    kernel_size: 4
    stride: 2
    weight_filler {
      type: "xavier"
    }
  }
}
layer {
  name: "scale_pool3"
  type: "Scale"
  bottom: "pool3"
  top: "scale_pool3"
  param {
    lr_mult: 0
  }
  scale_param {
    filler {
      type: "constant"
      value: 0.0001
    }
  }
}
layer {
  name: "score_pool3"
  type: "Convolution"
  bottom: "scale_pool3"
  top: "score_pool3"
  param {
    lr_mult: 1
    decay_mult: 1
  }
  param {
    lr_mult: 2
    decay_mult: 0
  }
  convolution_param {
    num_output: 16
    pad: 0
    kernel_size: 1
    weight_filler {
      type: "xavier"
    }
  }
}
layer {
  name: "score_pool3c"
  type: "Crop"
  bottom: "score_pool3"
  bottom: "upscore_pool4"
  top: "score_pool3c"
  crop_param {
    axis: 2
    offset: 9
  }
}
layer {
  name: "fuse_pool3"
  type: "Eltwise"
  bottom: "upscore_pool4"
  bottom: "score_pool3c"
  top: "fuse_pool3"
  eltwise_param {
    operation: SUM
  }
}
layer {
  name: "upscore8"
  type: "Deconvolution"
  bottom: "fuse_pool3"
  top: "upscore8"
  param {
    lr_mult: 0
  }
  convolution_param {
    num_output: 16
    bias_term: false
    kernel_size: 16
    stride: 8
    weight_filler {
      type: "xavier"
    }
  }
}
layer {
  name: "score"
  type: "Crop"
  bottom: "upscore8"
  bottom: "data"
  top: "score"
  crop_param {
    axis: 2
    offset: 31
  }
}
layer {
  name: "loss"
  type: "SoftmaxWithLoss"
  bottom: "score"
  bottom: "label"
  top: "loss"
  loss_param {
    ignore_label: 255
    normalize: false
  }
}
I0216 14:19:35.119241 31750 layer_factory.hpp:77] Creating layer data
I0216 14:19:35.119318 31750 net.cpp:100] Creating Layer data
I0216 14:19:35.119326 31750 net.cpp:408] data -> data
I0216 14:19:35.119334 31750 net.cpp:408] data -> label
I0216 14:19:35.120973 31750 net.cpp:150] Setting up data
I0216 14:19:35.120990 31750 net.cpp:157] Top shape: 1 3 84 125 (31500)
I0216 14:19:35.120996 31750 net.cpp:157] Top shape: 1 1 84 125 (10500)
I0216 14:19:35.121001 31750 net.cpp:165] Memory required for data: 168000
I0216 14:19:35.121006 31750 layer_factory.hpp:77] Creating layer data_data_0_split
I0216 14:19:35.121013 31750 net.cpp:100] Creating Layer data_data_0_split
I0216 14:19:35.121017 31750 net.cpp:434] data_data_0_split <- data
I0216 14:19:35.121024 31750 net.cpp:408] data_data_0_split -> data_data_0_split_0
I0216 14:19:35.121032 31750 net.cpp:408] data_data_0_split -> data_data_0_split_1
I0216 14:19:35.121074 31750 net.cpp:150] Setting up data_data_0_split
I0216 14:19:35.121081 31750 net.cpp:157] Top shape: 1 3 84 125 (31500)
I0216 14:19:35.121086 31750 net.cpp:157] Top shape: 1 3 84 125 (31500)
I0216 14:19:35.121090 31750 net.cpp:165] Memory required for data: 420000
I0216 14:19:35.121094 31750 layer_factory.hpp:77] Creating layer conv1_1
I0216 14:19:35.121104 31750 net.cpp:100] Creating Layer conv1_1
I0216 14:19:35.121109 31750 net.cpp:434] conv1_1 <- data_data_0_split_0
I0216 14:19:35.121114 31750 net.cpp:408] conv1_1 -> conv1_1
I0216 14:19:35.124075 31750 net.cpp:150] Setting up conv1_1
I0216 14:19:35.124094 31750 net.cpp:157] Top shape: 1 64 282 323 (5829504)
I0216 14:19:35.124099 31750 net.cpp:165] Memory required for data: 23738016
I0216 14:19:35.124110 31750 layer_factory.hpp:77] Creating layer relu1_1
I0216 14:19:35.124119 31750 net.cpp:100] Creating Layer relu1_1
I0216 14:19:35.124122 31750 net.cpp:434] relu1_1 <- conv1_1
I0216 14:19:35.124128 31750 net.cpp:395] relu1_1 -> conv1_1 (in-place)
I0216 14:19:35.125413 31750 net.cpp:150] Setting up relu1_1
I0216 14:19:35.125423 31750 net.cpp:157] Top shape: 1 64 282 323 (5829504)
I0216 14:19:35.125428 31750 net.cpp:165] Memory required for data: 47056032
I0216 14:19:35.125432 31750 layer_factory.hpp:77] Creating layer conv1_2
I0216 14:19:35.125442 31750 net.cpp:100] Creating Layer conv1_2
I0216 14:19:35.125447 31750 net.cpp:434] conv1_2 <- conv1_1
I0216 14:19:35.125453 31750 net.cpp:408] conv1_2 -> conv1_2
I0216 14:19:35.132052 31750 net.cpp:150] Setting up conv1_2
I0216 14:19:35.132076 31750 net.cpp:157] Top shape: 1 64 282 323 (5829504)
I0216 14:19:35.132081 31750 net.cpp:165] Memory required for data: 70374048
I0216 14:19:35.132091 31750 layer_factory.hpp:77] Creating layer relu1_2
I0216 14:19:35.132097 31750 net.cpp:100] Creating Layer relu1_2
I0216 14:19:35.132102 31750 net.cpp:434] relu1_2 <- conv1_2
I0216 14:19:35.132112 31750 net.cpp:395] relu1_2 -> conv1_2 (in-place)
I0216 14:19:35.134097 31750 net.cpp:150] Setting up relu1_2
I0216 14:19:35.134112 31750 net.cpp:157] Top shape: 1 64 282 323 (5829504)
I0216 14:19:35.134116 31750 net.cpp:165] Memory required for data: 93692064
I0216 14:19:35.134121 31750 layer_factory.hpp:77] Creating layer pool1
I0216 14:19:35.134129 31750 net.cpp:100] Creating Layer pool1
I0216 14:19:35.134133 31750 net.cpp:434] pool1 <- conv1_2
I0216 14:19:35.134141 31750 net.cpp:408] pool1 -> pool1
I0216 14:19:35.134196 31750 net.cpp:150] Setting up pool1
I0216 14:19:35.134202 31750 net.cpp:157] Top shape: 1 64 141 162 (1461888)
I0216 14:19:35.134207 31750 net.cpp:165] Memory required for data: 99539616
I0216 14:19:35.134210 31750 layer_factory.hpp:77] Creating layer conv2_1
I0216 14:19:35.134223 31750 net.cpp:100] Creating Layer conv2_1
I0216 14:19:35.134227 31750 net.cpp:434] conv2_1 <- pool1
I0216 14:19:35.134234 31750 net.cpp:408] conv2_1 -> conv2_1
I0216 14:19:35.141480 31750 net.cpp:150] Setting up conv2_1
I0216 14:19:35.141496 31750 net.cpp:157] Top shape: 1 128 141 162 (2923776)
I0216 14:19:35.141500 31750 net.cpp:165] Memory required for data: 111234720
I0216 14:19:35.141511 31750 layer_factory.hpp:77] Creating layer relu2_1
I0216 14:19:35.141522 31750 net.cpp:100] Creating Layer relu2_1
I0216 14:19:35.141527 31750 net.cpp:434] relu2_1 <- conv2_1
I0216 14:19:35.141533 31750 net.cpp:395] relu2_1 -> conv2_1 (in-place)
I0216 14:19:35.143072 31750 net.cpp:150] Setting up relu2_1
I0216 14:19:35.143088 31750 net.cpp:157] Top shape: 1 128 141 162 (2923776)
I0216 14:19:35.143093 31750 net.cpp:165] Memory required for data: 122929824
I0216 14:19:35.143097 31750 layer_factory.hpp:77] Creating layer conv2_2
I0216 14:19:35.143107 31750 net.cpp:100] Creating Layer conv2_2
I0216 14:19:35.143111 31750 net.cpp:434] conv2_2 <- conv2_1
I0216 14:19:35.143121 31750 net.cpp:408] conv2_2 -> conv2_2
I0216 14:19:35.147935 31750 net.cpp:150] Setting up conv2_2
I0216 14:19:35.147955 31750 net.cpp:157] Top shape: 1 128 141 162 (2923776)
I0216 14:19:35.147960 31750 net.cpp:165] Memory required for data: 134624928
I0216 14:19:35.147969 31750 layer_factory.hpp:77] Creating layer relu2_2
I0216 14:19:35.147976 31750 net.cpp:100] Creating Layer relu2_2
I0216 14:19:35.147980 31750 net.cpp:434] relu2_2 <- conv2_2
I0216 14:19:35.147986 31750 net.cpp:395] relu2_2 -> conv2_2 (in-place)
I0216 14:19:35.149976 31750 net.cpp:150] Setting up relu2_2
I0216 14:19:35.149991 31750 net.cpp:157] Top shape: 1 128 141 162 (2923776)
I0216 14:19:35.149996 31750 net.cpp:165] Memory required for data: 146320032
I0216 14:19:35.149999 31750 layer_factory.hpp:77] Creating layer pool2
I0216 14:19:35.150007 31750 net.cpp:100] Creating Layer pool2
I0216 14:19:35.150010 31750 net.cpp:434] pool2 <- conv2_2
I0216 14:19:35.150017 31750 net.cpp:408] pool2 -> pool2
I0216 14:19:35.150071 31750 net.cpp:150] Setting up pool2
I0216 14:19:35.150079 31750 net.cpp:157] Top shape: 1 128 71 81 (736128)
I0216 14:19:35.150084 31750 net.cpp:165] Memory required for data: 149264544
I0216 14:19:35.150087 31750 layer_factory.hpp:77] Creating layer conv3_1
I0216 14:19:35.150099 31750 net.cpp:100] Creating Layer conv3_1
I0216 14:19:35.150102 31750 net.cpp:434] conv3_1 <- pool2
I0216 14:19:35.150110 31750 net.cpp:408] conv3_1 -> conv3_1
I0216 14:19:35.154829 31750 net.cpp:150] Setting up conv3_1
I0216 14:19:35.154846 31750 net.cpp:157] Top shape: 1 256 71 81 (1472256)
I0216 14:19:35.154851 31750 net.cpp:165] Memory required for data: 155153568
I0216 14:19:35.154865 31750 layer_factory.hpp:77] Creating layer relu3_1
I0216 14:19:35.154871 31750 net.cpp:100] Creating Layer relu3_1
I0216 14:19:35.154881 31750 net.cpp:434] relu3_1 <- conv3_1
I0216 14:19:35.154887 31750 net.cpp:395] relu3_1 -> conv3_1 (in-place)
I0216 14:19:35.156900 31750 net.cpp:150] Setting up relu3_1
I0216 14:19:35.156914 31750 net.cpp:157] Top shape: 1 256 71 81 (1472256)
I0216 14:19:35.156919 31750 net.cpp:165] Memory required for data: 161042592
I0216 14:19:35.156924 31750 layer_factory.hpp:77] Creating layer conv3_2
I0216 14:19:35.156937 31750 net.cpp:100] Creating Layer conv3_2
I0216 14:19:35.156942 31750 net.cpp:434] conv3_2 <- conv3_1
I0216 14:19:35.156949 31750 net.cpp:408] conv3_2 -> conv3_2
I0216 14:19:35.166021 31750 net.cpp:150] Setting up conv3_2
I0216 14:19:35.166039 31750 net.cpp:157] Top shape: 1 256 71 81 (1472256)
I0216 14:19:35.166044 31750 net.cpp:165] Memory required for data: 166931616
I0216 14:19:35.166052 31750 layer_factory.hpp:77] Creating layer relu3_2
I0216 14:19:35.166059 31750 net.cpp:100] Creating Layer relu3_2
I0216 14:19:35.166064 31750 net.cpp:434] relu3_2 <- conv3_2
I0216 14:19:35.166070 31750 net.cpp:395] relu3_2 -> conv3_2 (in-place)
I0216 14:19:35.167026 31750 net.cpp:150] Setting up relu3_2
I0216 14:19:35.167037 31750 net.cpp:157] Top shape: 1 256 71 81 (1472256)
I0216 14:19:35.167042 31750 net.cpp:165] Memory required for data: 172820640
I0216 14:19:35.167045 31750 layer_factory.hpp:77] Creating layer conv3_3
I0216 14:19:35.167058 31750 net.cpp:100] Creating Layer conv3_3
I0216 14:19:35.167063 31750 net.cpp:434] conv3_3 <- conv3_2
I0216 14:19:35.167073 31750 net.cpp:408] conv3_3 -> conv3_3
I0216 14:19:35.176404 31750 net.cpp:150] Setting up conv3_3
I0216 14:19:35.176421 31750 net.cpp:157] Top shape: 1 256 71 81 (1472256)
I0216 14:19:35.176426 31750 net.cpp:165] Memory required for data: 178709664
I0216 14:19:35.176434 31750 layer_factory.hpp:77] Creating layer relu3_3
I0216 14:19:35.176441 31750 net.cpp:100] Creating Layer relu3_3
I0216 14:19:35.176445 31750 net.cpp:434] relu3_3 <- conv3_3
I0216 14:19:35.176455 31750 net.cpp:395] relu3_3 -> conv3_3 (in-place)
I0216 14:19:35.179131 31750 net.cpp:150] Setting up relu3_3
I0216 14:19:35.179142 31750 net.cpp:157] Top shape: 1 256 71 81 (1472256)
I0216 14:19:35.179147 31750 net.cpp:165] Memory required for data: 184598688
I0216 14:19:35.179150 31750 layer_factory.hpp:77] Creating layer pool3
I0216 14:19:35.179160 31750 net.cpp:100] Creating Layer pool3
I0216 14:19:35.179164 31750 net.cpp:434] pool3 <- conv3_3
I0216 14:19:35.179172 31750 net.cpp:408] pool3 -> pool3
I0216 14:19:35.179226 31750 net.cpp:150] Setting up pool3
I0216 14:19:35.179234 31750 net.cpp:157] Top shape: 1 256 36 41 (377856)
I0216 14:19:35.179237 31750 net.cpp:165] Memory required for data: 186110112
I0216 14:19:35.179241 31750 layer_factory.hpp:77] Creating layer pool3_pool3_0_split
I0216 14:19:35.179247 31750 net.cpp:100] Creating Layer pool3_pool3_0_split
I0216 14:19:35.179251 31750 net.cpp:434] pool3_pool3_0_split <- pool3
I0216 14:19:35.179256 31750 net.cpp:408] pool3_pool3_0_split -> pool3_pool3_0_split_0
I0216 14:19:35.179265 31750 net.cpp:408] pool3_pool3_0_split -> pool3_pool3_0_split_1
I0216 14:19:35.179307 31750 net.cpp:150] Setting up pool3_pool3_0_split
I0216 14:19:35.179313 31750 net.cpp:157] Top shape: 1 256 36 41 (377856)
I0216 14:19:35.179318 31750 net.cpp:157] Top shape: 1 256 36 41 (377856)
I0216 14:19:35.179322 31750 net.cpp:165] Memory required for data: 189132960
I0216 14:19:35.179327 31750 layer_factory.hpp:77] Creating layer conv4_1
I0216 14:19:35.179337 31750 net.cpp:100] Creating Layer conv4_1
I0216 14:19:35.179343 31750 net.cpp:434] conv4_1 <- pool3_pool3_0_split_0
I0216 14:19:35.179350 31750 net.cpp:408] conv4_1 -> conv4_1
I0216 14:19:35.194279 31750 net.cpp:150] Setting up conv4_1
I0216 14:19:35.194296 31750 net.cpp:157] Top shape: 1 512 36 41 (755712)
I0216 14:19:35.194300 31750 net.cpp:165] Memory required for data: 192155808
I0216 14:19:35.194308 31750 layer_factory.hpp:77] Creating layer relu4_1
I0216 14:19:35.194316 31750 net.cpp:100] Creating Layer relu4_1
I0216 14:19:35.194321 31750 net.cpp:434] relu4_1 <- conv4_1
I0216 14:19:35.194330 31750 net.cpp:395] relu4_1 -> conv4_1 (in-place)
I0216 14:19:35.196948 31750 net.cpp:150] Setting up relu4_1
I0216 14:19:35.196961 31750 net.cpp:157] Top shape: 1 512 36 41 (755712)
I0216 14:19:35.196965 31750 net.cpp:165] Memory required for data: 195178656
I0216 14:19:35.196970 31750 layer_factory.hpp:77] Creating layer conv4_2
I0216 14:19:35.196982 31750 net.cpp:100] Creating Layer conv4_2
I0216 14:19:35.196987 31750 net.cpp:434] conv4_2 <- conv4_1
I0216 14:19:35.196997 31750 net.cpp:408] conv4_2 -> conv4_2
I0216 14:19:35.214995 31750 net.cpp:150] Setting up conv4_2
I0216 14:19:35.215018 31750 net.cpp:157] Top shape: 1 512 36 41 (755712)
I0216 14:19:35.215023 31750 net.cpp:165] Memory required for data: 198201504
I0216 14:19:35.215039 31750 layer_factory.hpp:77] Creating layer relu4_2
I0216 14:19:35.215046 31750 net.cpp:100] Creating Layer relu4_2
I0216 14:19:35.215052 31750 net.cpp:434] relu4_2 <- conv4_2
I0216 14:19:35.215060 31750 net.cpp:395] relu4_2 -> conv4_2 (in-place)
I0216 14:19:35.215934 31750 net.cpp:150] Setting up relu4_2
I0216 14:19:35.215942 31750 net.cpp:157] Top shape: 1 512 36 41 (755712)
I0216 14:19:35.215946 31750 net.cpp:165] Memory required for data: 201224352
I0216 14:19:35.215951 31750 layer_factory.hpp:77] Creating layer conv4_3
I0216 14:19:35.215963 31750 net.cpp:100] Creating Layer conv4_3
I0216 14:19:35.215968 31750 net.cpp:434] conv4_3 <- conv4_2
I0216 14:19:35.215977 31750 net.cpp:408] conv4_3 -> conv4_3
I0216 14:19:35.239727 31750 net.cpp:150] Setting up conv4_3
I0216 14:19:35.239750 31750 net.cpp:157] Top shape: 1 512 36 41 (755712)
I0216 14:19:35.239755 31750 net.cpp:165] Memory required for data: 204247200
I0216 14:19:35.239764 31750 layer_factory.hpp:77] Creating layer relu4_3
I0216 14:19:35.239773 31750 net.cpp:100] Creating Layer relu4_3
I0216 14:19:35.239778 31750 net.cpp:434] relu4_3 <- conv4_3
I0216 14:19:35.239791 31750 net.cpp:395] relu4_3 -> conv4_3 (in-place)
I0216 14:19:35.240751 31750 net.cpp:150] Setting up relu4_3
I0216 14:19:35.240761 31750 net.cpp:157] Top shape: 1 512 36 41 (755712)
I0216 14:19:35.240764 31750 net.cpp:165] Memory required for data: 207270048
I0216 14:19:35.240769 31750 layer_factory.hpp:77] Creating layer pool4
I0216 14:19:35.240780 31750 net.cpp:100] Creating Layer pool4
I0216 14:19:35.240784 31750 net.cpp:434] pool4 <- conv4_3
I0216 14:19:35.240792 31750 net.cpp:408] pool4 -> pool4
I0216 14:19:35.240849 31750 net.cpp:150] Setting up pool4
I0216 14:19:35.240857 31750 net.cpp:157] Top shape: 1 512 18 21 (193536)
I0216 14:19:35.240861 31750 net.cpp:165] Memory required for data: 208044192
I0216 14:19:35.240865 31750 layer_factory.hpp:77] Creating layer pool4_pool4_0_split
I0216 14:19:35.240872 31750 net.cpp:100] Creating Layer pool4_pool4_0_split
I0216 14:19:35.240876 31750 net.cpp:434] pool4_pool4_0_split <- pool4
I0216 14:19:35.240882 31750 net.cpp:408] pool4_pool4_0_split -> pool4_pool4_0_split_0
I0216 14:19:35.240891 31750 net.cpp:408] pool4_pool4_0_split -> pool4_pool4_0_split_1
I0216 14:19:35.240936 31750 net.cpp:150] Setting up pool4_pool4_0_split
I0216 14:19:35.240942 31750 net.cpp:157] Top shape: 1 512 18 21 (193536)
I0216 14:19:35.240947 31750 net.cpp:157] Top shape: 1 512 18 21 (193536)
I0216 14:19:35.240950 31750 net.cpp:165] Memory required for data: 209592480
I0216 14:19:35.240954 31750 layer_factory.hpp:77] Creating layer conv5_1
I0216 14:19:35.240970 31750 net.cpp:100] Creating Layer conv5_1
I0216 14:19:35.240974 31750 net.cpp:434] conv5_1 <- pool4_pool4_0_split_0
I0216 14:19:35.240981 31750 net.cpp:408] conv5_1 -> conv5_1
I0216 14:19:35.263399 31750 net.cpp:150] Setting up conv5_1
I0216 14:19:35.263422 31750 net.cpp:157] Top shape: 1 512 18 21 (193536)
I0216 14:19:35.263429 31750 net.cpp:165] Memory required for data: 210366624
I0216 14:19:35.263442 31750 layer_factory.hpp:77] Creating layer relu5_1
I0216 14:19:35.263456 31750 net.cpp:100] Creating Layer relu5_1
I0216 14:19:35.263463 31750 net.cpp:434] relu5_1 <- conv5_1
I0216 14:19:35.263468 31750 net.cpp:395] relu5_1 -> conv5_1 (in-place)
I0216 14:19:35.266424 31750 net.cpp:150] Setting up relu5_1
I0216 14:19:35.266448 31750 net.cpp:157] Top shape: 1 512 18 21 (193536)
I0216 14:19:35.266453 31750 net.cpp:165] Memory required for data: 211140768
I0216 14:19:35.266458 31750 layer_factory.hpp:77] Creating layer conv5_2
I0216 14:19:35.266470 31750 net.cpp:100] Creating Layer conv5_2
I0216 14:19:35.266477 31750 net.cpp:434] conv5_2 <- conv5_1
I0216 14:19:35.266484 31750 net.cpp:408] conv5_2 -> conv5_2
I0216 14:19:35.288516 31750 net.cpp:150] Setting up conv5_2
I0216 14:19:35.288543 31750 net.cpp:157] Top shape: 1 512 18 21 (193536)
I0216 14:19:35.288548 31750 net.cpp:165] Memory required for data: 211914912
I0216 14:19:35.288558 31750 layer_factory.hpp:77] Creating layer relu5_2
I0216 14:19:35.288566 31750 net.cpp:100] Creating Layer relu5_2
I0216 14:19:35.288571 31750 net.cpp:434] relu5_2 <- conv5_2
I0216 14:19:35.288578 31750 net.cpp:395] relu5_2 -> conv5_2 (in-place)
I0216 14:19:35.290660 31750 net.cpp:150] Setting up relu5_2
I0216 14:19:35.290673 31750 net.cpp:157] Top shape: 1 512 18 21 (193536)
I0216 14:19:35.290676 31750 net.cpp:165] Memory required for data: 212689056
I0216 14:19:35.290680 31750 layer_factory.hpp:77] Creating layer conv5_3
I0216 14:19:35.290699 31750 net.cpp:100] Creating Layer conv5_3
I0216 14:19:35.290704 31750 net.cpp:434] conv5_3 <- conv5_2
I0216 14:19:35.290714 31750 net.cpp:408] conv5_3 -> conv5_3
I0216 14:19:35.312310 31750 net.cpp:150] Setting up conv5_3
I0216 14:19:35.312330 31750 net.cpp:157] Top shape: 1 512 18 21 (193536)
I0216 14:19:35.312335 31750 net.cpp:165] Memory required for data: 213463200
I0216 14:19:35.312343 31750 layer_factory.hpp:77] Creating layer relu5_3
I0216 14:19:35.312355 31750 net.cpp:100] Creating Layer relu5_3
I0216 14:19:35.312360 31750 net.cpp:434] relu5_3 <- conv5_3
I0216 14:19:35.312366 31750 net.cpp:395] relu5_3 -> conv5_3 (in-place)
I0216 14:19:35.314368 31750 net.cpp:150] Setting up relu5_3
I0216 14:19:35.314379 31750 net.cpp:157] Top shape: 1 512 18 21 (193536)
I0216 14:19:35.314383 31750 net.cpp:165] Memory required for data: 214237344
I0216 14:19:35.314388 31750 layer_factory.hpp:77] Creating layer pool5
I0216 14:19:35.314399 31750 net.cpp:100] Creating Layer pool5
I0216 14:19:35.314404 31750 net.cpp:434] pool5 <- conv5_3
I0216 14:19:35.314409 31750 net.cpp:408] pool5 -> pool5
I0216 14:19:35.314468 31750 net.cpp:150] Setting up pool5
I0216 14:19:35.314476 31750 net.cpp:157] Top shape: 1 512 9 11 (50688)
I0216 14:19:35.314481 31750 net.cpp:165] Memory required for data: 214440096
I0216 14:19:35.314484 31750 layer_factory.hpp:77] Creating layer fc6
I0216 14:19:35.314496 31750 net.cpp:100] Creating Layer fc6
I0216 14:19:35.314502 31750 net.cpp:434] fc6 <- pool5
I0216 14:19:35.314509 31750 net.cpp:408] fc6 -> fc6
I0216 14:19:36.081974 31750 net.cpp:150] Setting up fc6
I0216 14:19:36.082029 31750 net.cpp:157] Top shape: 1 4096 3 5 (61440)
I0216 14:19:36.082036 31750 net.cpp:165] Memory required for data: 214685856
I0216 14:19:36.082063 31750 layer_factory.hpp:77] Creating layer relu6
I0216 14:19:36.082082 31750 net.cpp:100] Creating Layer relu6
I0216 14:19:36.082093 31750 net.cpp:434] relu6 <- fc6
I0216 14:19:36.082101 31750 net.cpp:395] relu6 -> fc6 (in-place)
I0216 14:19:36.083770 31750 net.cpp:150] Setting up relu6
I0216 14:19:36.083786 31750 net.cpp:157] Top shape: 1 4096 3 5 (61440)
I0216 14:19:36.083791 31750 net.cpp:165] Memory required for data: 214931616
I0216 14:19:36.083796 31750 layer_factory.hpp:77] Creating layer drop6
I0216 14:19:36.083808 31750 net.cpp:100] Creating Layer drop6
I0216 14:19:36.083812 31750 net.cpp:434] drop6 <- fc6
I0216 14:19:36.083819 31750 net.cpp:395] drop6 -> fc6 (in-place)
I0216 14:19:36.083887 31750 net.cpp:150] Setting up drop6
I0216 14:19:36.083895 31750 net.cpp:157] Top shape: 1 4096 3 5 (61440)
I0216 14:19:36.083899 31750 net.cpp:165] Memory required for data: 215177376
I0216 14:19:36.083905 31750 layer_factory.hpp:77] Creating layer fc7
I0216 14:19:36.083920 31750 net.cpp:100] Creating Layer fc7
I0216 14:19:36.083923 31750 net.cpp:434] fc7 <- fc6
I0216 14:19:36.083932 31750 net.cpp:408] fc7 -> fc7
I0216 14:19:36.207525 31750 net.cpp:150] Setting up fc7
I0216 14:19:36.207573 31750 net.cpp:157] Top shape: 1 4096 3 5 (61440)
I0216 14:19:36.207578 31750 net.cpp:165] Memory required for data: 215423136
I0216 14:19:36.207589 31750 layer_factory.hpp:77] Creating layer relu7
I0216 14:19:36.207602 31750 net.cpp:100] Creating Layer relu7
I0216 14:19:36.207607 31750 net.cpp:434] relu7 <- fc7
I0216 14:19:36.207617 31750 net.cpp:395] relu7 -> fc7 (in-place)
I0216 14:19:36.210098 31750 net.cpp:150] Setting up relu7
I0216 14:19:36.210110 31750 net.cpp:157] Top shape: 1 4096 3 5 (61440)
I0216 14:19:36.210114 31750 net.cpp:165] Memory required for data: 215668896
I0216 14:19:36.210119 31750 layer_factory.hpp:77] Creating layer drop7
I0216 14:19:36.210134 31750 net.cpp:100] Creating Layer drop7
I0216 14:19:36.210139 31750 net.cpp:434] drop7 <- fc7
I0216 14:19:36.210146 31750 net.cpp:395] drop7 -> fc7 (in-place)
I0216 14:19:36.210186 31750 net.cpp:150] Setting up drop7
I0216 14:19:36.210193 31750 net.cpp:157] Top shape: 1 4096 3 5 (61440)
I0216 14:19:36.210197 31750 net.cpp:165] Memory required for data: 215914656
I0216 14:19:36.210202 31750 layer_factory.hpp:77] Creating layer score_fr
I0216 14:19:36.210217 31750 net.cpp:100] Creating Layer score_fr
I0216 14:19:36.210222 31750 net.cpp:434] score_fr <- fc7
I0216 14:19:36.210237 31750 net.cpp:408] score_fr -> score_fr
I0216 14:19:36.217559 31750 net.cpp:150] Setting up score_fr
I0216 14:19:36.217576 31750 net.cpp:157] Top shape: 1 16 3 5 (240)
I0216 14:19:36.217581 31750 net.cpp:165] Memory required for data: 215915616
I0216 14:19:36.217588 31750 layer_factory.hpp:77] Creating layer upscore2
I0216 14:19:36.217603 31750 net.cpp:100] Creating Layer upscore2
I0216 14:19:36.217608 31750 net.cpp:434] upscore2 <- score_fr
I0216 14:19:36.217615 31750 net.cpp:408] upscore2 -> upscore2
I0216 14:19:36.217902 31750 net.cpp:150] Setting up upscore2
I0216 14:19:36.217912 31750 net.cpp:157] Top shape: 1 16 8 12 (1536)
I0216 14:19:36.217916 31750 net.cpp:165] Memory required for data: 215921760
I0216 14:19:36.217963 31750 layer_factory.hpp:77] Creating layer upscore2_upscore2_0_split
I0216 14:19:36.217972 31750 net.cpp:100] Creating Layer upscore2_upscore2_0_split
I0216 14:19:36.217977 31750 net.cpp:434] upscore2_upscore2_0_split <- upscore2
I0216 14:19:36.217983 31750 net.cpp:408] upscore2_upscore2_0_split -> upscore2_upscore2_0_split_0
I0216 14:19:36.217990 31750 net.cpp:408] upscore2_upscore2_0_split -> upscore2_upscore2_0_split_1
I0216 14:19:36.218039 31750 net.cpp:150] Setting up upscore2_upscore2_0_split
I0216 14:19:36.218045 31750 net.cpp:157] Top shape: 1 16 8 12 (1536)
I0216 14:19:36.218050 31750 net.cpp:157] Top shape: 1 16 8 12 (1536)
I0216 14:19:36.218055 31750 net.cpp:165] Memory required for data: 215934048
I0216 14:19:36.218058 31750 layer_factory.hpp:77] Creating layer scale_pool4
I0216 14:19:36.218068 31750 net.cpp:100] Creating Layer scale_pool4
I0216 14:19:36.218072 31750 net.cpp:434] scale_pool4 <- pool4_pool4_0_split_1
I0216 14:19:36.218078 31750 net.cpp:408] scale_pool4 -> scale_pool4
I0216 14:19:36.218266 31750 net.cpp:150] Setting up scale_pool4
I0216 14:19:36.218276 31750 net.cpp:157] Top shape: 1 512 18 21 (193536)
I0216 14:19:36.218279 31750 net.cpp:165] Memory required for data: 216708192
I0216 14:19:36.218286 31750 layer_factory.hpp:77] Creating layer score_pool4
I0216 14:19:36.218299 31750 net.cpp:100] Creating Layer score_pool4
I0216 14:19:36.218304 31750 net.cpp:434] score_pool4 <- scale_pool4
I0216 14:19:36.218312 31750 net.cpp:408] score_pool4 -> score_pool4
I0216 14:19:36.224036 31750 net.cpp:150] Setting up score_pool4
I0216 14:19:36.224052 31750 net.cpp:157] Top shape: 1 16 18 21 (6048)
I0216 14:19:36.224057 31750 net.cpp:165] Memory required for data: 216732384
I0216 14:19:36.224066 31750 layer_factory.hpp:77] Creating layer score_pool4c
I0216 14:19:36.224074 31750 net.cpp:100] Creating Layer score_pool4c
I0216 14:19:36.224079 31750 net.cpp:434] score_pool4c <- score_pool4
I0216 14:19:36.224086 31750 net.cpp:434] score_pool4c <- upscore2_upscore2_0_split_0
I0216 14:19:36.224092 31750 net.cpp:408] score_pool4c -> score_pool4c
I0216 14:19:36.224135 31750 net.cpp:150] Setting up score_pool4c
I0216 14:19:36.224143 31750 net.cpp:157] Top shape: 1 16 8 12 (1536)
I0216 14:19:36.224148 31750 net.cpp:165] Memory required for data: 216738528
I0216 14:19:36.224151 31750 layer_factory.hpp:77] Creating layer fuse_pool4
I0216 14:19:36.224160 31750 net.cpp:100] Creating Layer fuse_pool4
I0216 14:19:36.224164 31750 net.cpp:434] fuse_pool4 <- upscore2_upscore2_0_split_1
I0216 14:19:36.224169 31750 net.cpp:434] fuse_pool4 <- score_pool4c
I0216 14:19:36.224175 31750 net.cpp:408] fuse_pool4 -> fuse_pool4
I0216 14:19:36.224210 31750 net.cpp:150] Setting up fuse_pool4
I0216 14:19:36.224217 31750 net.cpp:157] Top shape: 1 16 8 12 (1536)
I0216 14:19:36.224221 31750 net.cpp:165] Memory required for data: 216744672
I0216 14:19:36.224225 31750 layer_factory.hpp:77] Creating layer upscore_pool4
I0216 14:19:36.224238 31750 net.cpp:100] Creating Layer upscore_pool4
I0216 14:19:36.224243 31750 net.cpp:434] upscore_pool4 <- fuse_pool4
I0216 14:19:36.224249 31750 net.cpp:408] upscore_pool4 -> upscore_pool4
I0216 14:19:36.224512 31750 net.cpp:150] Setting up upscore_pool4
I0216 14:19:36.224521 31750 net.cpp:157] Top shape: 1 16 18 26 (7488)
I0216 14:19:36.224524 31750 net.cpp:165] Memory required for data: 216774624
I0216 14:19:36.224530 31750 layer_factory.hpp:77] Creating layer upscore_pool4_upscore_pool4_0_split
I0216 14:19:36.224537 31750 net.cpp:100] Creating Layer upscore_pool4_upscore_pool4_0_split
I0216 14:19:36.224541 31750 net.cpp:434] upscore_pool4_upscore_pool4_0_split <- upscore_pool4
I0216 14:19:36.224550 31750 net.cpp:408] upscore_pool4_upscore_pool4_0_split -> upscore_pool4_upscore_pool4_0_split_0
I0216 14:19:36.224556 31750 net.cpp:408] upscore_pool4_upscore_pool4_0_split -> upscore_pool4_upscore_pool4_0_split_1
I0216 14:19:36.224599 31750 net.cpp:150] Setting up upscore_pool4_upscore_pool4_0_split
I0216 14:19:36.224606 31750 net.cpp:157] Top shape: 1 16 18 26 (7488)
I0216 14:19:36.224611 31750 net.cpp:157] Top shape: 1 16 18 26 (7488)
I0216 14:19:36.224614 31750 net.cpp:165] Memory required for data: 216834528
I0216 14:19:36.224618 31750 layer_factory.hpp:77] Creating layer scale_pool3
I0216 14:19:36.224627 31750 net.cpp:100] Creating Layer scale_pool3
I0216 14:19:36.224632 31750 net.cpp:434] scale_pool3 <- pool3_pool3_0_split_1
I0216 14:19:36.224639 31750 net.cpp:408] scale_pool3 -> scale_pool3
I0216 14:19:36.224747 31750 net.cpp:150] Setting up scale_pool3
I0216 14:19:36.224756 31750 net.cpp:157] Top shape: 1 256 36 41 (377856)
I0216 14:19:36.224758 31750 net.cpp:165] Memory required for data: 218345952
I0216 14:19:36.224764 31750 layer_factory.hpp:77] Creating layer score_pool3
I0216 14:19:36.224776 31750 net.cpp:100] Creating Layer score_pool3
I0216 14:19:36.224781 31750 net.cpp:434] score_pool3 <- scale_pool3
I0216 14:19:36.224788 31750 net.cpp:408] score_pool3 -> score_pool3
I0216 14:19:36.230892 31750 net.cpp:150] Setting up score_pool3
I0216 14:19:36.230908 31750 net.cpp:157] Top shape: 1 16 36 41 (23616)
I0216 14:19:36.230913 31750 net.cpp:165] Memory required for data: 218440416
I0216 14:19:36.230921 31750 layer_factory.hpp:77] Creating layer score_pool3c
I0216 14:19:36.230929 31750 net.cpp:100] Creating Layer score_pool3c
I0216 14:19:36.230934 31750 net.cpp:434] score_pool3c <- score_pool3
I0216 14:19:36.230940 31750 net.cpp:434] score_pool3c <- upscore_pool4_upscore_pool4_0_split_0
I0216 14:19:36.230950 31750 net.cpp:408] score_pool3c -> score_pool3c
I0216 14:19:36.230988 31750 net.cpp:150] Setting up score_pool3c
I0216 14:19:36.230994 31750 net.cpp:157] Top shape: 1 16 18 26 (7488)
I0216 14:19:36.230998 31750 net.cpp:165] Memory required for data: 218470368
I0216 14:19:36.231003 31750 layer_factory.hpp:77] Creating layer fuse_pool3
I0216 14:19:36.231012 31750 net.cpp:100] Creating Layer fuse_pool3
I0216 14:19:36.231016 31750 net.cpp:434] fuse_pool3 <- upscore_pool4_upscore_pool4_0_split_1
I0216 14:19:36.231021 31750 net.cpp:434] fuse_pool3 <- score_pool3c
I0216 14:19:36.231027 31750 net.cpp:408] fuse_pool3 -> fuse_pool3
I0216 14:19:36.231065 31750 net.cpp:150] Setting up fuse_pool3
I0216 14:19:36.231073 31750 net.cpp:157] Top shape: 1 16 18 26 (7488)
I0216 14:19:36.231076 31750 net.cpp:165] Memory required for data: 218500320
I0216 14:19:36.231086 31750 layer_factory.hpp:77] Creating layer upscore8
I0216 14:19:36.231096 31750 net.cpp:100] Creating Layer upscore8
I0216 14:19:36.231101 31750 net.cpp:434] upscore8 <- fuse_pool3
I0216 14:19:36.231108 31750 net.cpp:408] upscore8 -> upscore8
I0216 14:19:36.231708 31750 net.cpp:150] Setting up upscore8
I0216 14:19:36.231716 31750 net.cpp:157] Top shape: 1 16 152 216 (525312)
I0216 14:19:36.231720 31750 net.cpp:165] Memory required for data: 220601568
I0216 14:19:36.231725 31750 layer_factory.hpp:77] Creating layer score
I0216 14:19:36.231734 31750 net.cpp:100] Creating Layer score
I0216 14:19:36.231739 31750 net.cpp:434] score <- upscore8
I0216 14:19:36.231745 31750 net.cpp:434] score <- data_data_0_split_1
I0216 14:19:36.231750 31750 net.cpp:408] score -> score
I0216 14:19:36.231778 31750 net.cpp:150] Setting up score
I0216 14:19:36.231784 31750 net.cpp:157] Top shape: 1 16 84 125 (168000)
I0216 14:19:36.231788 31750 net.cpp:165] Memory required for data: 221273568
I0216 14:19:36.231792 31750 layer_factory.hpp:77] Creating layer loss
I0216 14:19:36.231802 31750 net.cpp:100] Creating Layer loss
I0216 14:19:36.231807 31750 net.cpp:434] loss <- score
I0216 14:19:36.231812 31750 net.cpp:434] loss <- label
I0216 14:19:36.231817 31750 net.cpp:408] loss -> loss
I0216 14:19:36.231827 31750 layer_factory.hpp:77] Creating layer loss
…
