…
snapshot_prefix: "snapshot/train"
test_initialization: false
average_loss: 20
iter_size: 1
I0112 12:45:20.946408  3030 solver.cpp:81] Creating training net from train_net file: train.prototxt
I0112 12:45:20.947938  3030 net.cpp:58] Initializing net from parameters: 
state {
  phase: TRAIN
}
layer {
  name: "data"
  type: "Python"
  top: "data"
  top: "label"
  python_param {
    module: "voc_layers"
    layer: "ObfSBDDSegDataLayer"
    param_str: "{\'sbdd_dir\': \'../data/sbdd/dataset\', \'seed\': 1337, \'split\': \'train15\', \'mean\': (104.00699, 116.66877, 122.67892)}"
  }
}
layer {
  name: "conv1_1"
  type: "Convolution"
  bottom: "data"
  top: "conv1_1"
  param {
    lr_mult: 1
    decay_mult: 1
  }
  param {
    lr_mult: 2
    decay_mult: 0
  }
  convolution_param {
    num_output: 64
    pad: 100
    kernel_size: 3
    stride: 1
    weight_filler {
      type: "xavier"
    }
  }
}
layer {
  name: "relu1_1"
  type: "ReLU"
  bottom: "conv1_1"
  top: "conv1_1"
}
layer {
  name: "conv1_2"
  type: "Convolution"
  bottom: "conv1_1"
  top: "conv1_2"
  param {
    lr_mult: 1
    decay_mult: 1
  }
  param {
    lr_mult: 2
    decay_mult: 0
  }
  convolution_param {
    num_output: 64
    pad: 1
    kernel_size: 3
    stride: 1
    weight_filler {
      type: "xavier"
    }
  }
}
layer {
  name: "relu1_2"
  type: "ReLU"
  bottom: "conv1_2"
  top: "conv1_2"
}
layer {
  name: "pool1"
  type: "Pooling"
  bottom: "conv1_2"
  top: "pool1"
  pooling_param {
    pool: MAX
    kernel_size: 2
    stride: 2
  }
}
layer {
  name: "conv2_1"
  type: "Convolution"
  bottom: "pool1"
  top: "conv2_1"
  param {
    lr_mult: 1
    decay_mult: 1
  }
  param {
    lr_mult: 2
    decay_mult: 0
  }
  convolution_param {
    num_output: 128
    pad: 1
    kernel_size: 3
    stride: 1
    weight_filler {
      type: "xavier"
    }
  }
}
layer {
  name: "relu2_1"
  type: "ReLU"
  bottom: "conv2_1"
  top: "conv2_1"
}
layer {
  name: "conv2_2"
  type: "Convolution"
  bottom: "conv2_1"
  top: "conv2_2"
  param {
    lr_mult: 1
    decay_mult: 1
  }
  param {
    lr_mult: 2
    decay_mult: 0
  }
  convolution_param {
    num_output: 128
    pad: 1
    kernel_size: 3
    stride: 1
    weight_filler {
      type: "xavier"
    }
  }
}
layer {
  name: "relu2_2"
  type: "ReLU"
  bottom: "conv2_2"
  top: "conv2_2"
}
layer {
  name: "pool2"
  type: "Pooling"
  bottom: "conv2_2"
  top: "pool2"
  pooling_param {
    pool: MAX
    kernel_size: 2
    stride: 2
  }
}
layer {
  name: "conv3_1"
  type: "Convolution"
  bottom: "pool2"
  top: "conv3_1"
  param {
    lr_mult: 1
    decay_mult: 1
  }
  param {
    lr_mult: 2
    decay_mult: 0
  }
  convolution_param {
    num_output: 256
    pad: 1
    kernel_size: 3
    stride: 1
    weight_filler {
      type: "xavier"
    }
  }
}
layer {
  name: "relu3_1"
  type: "ReLU"
  bottom: "conv3_1"
  top: "conv3_1"
}
layer {
  name: "conv3_2"
  type: "Convolution"
  bottom: "conv3_1"
  top: "conv3_2"
  param {
    lr_mult: 1
    decay_mult: 1
  }
  param {
    lr_mult: 2
    decay_mult: 0
  }
  convolution_param {
    num_output: 256
    pad: 1
    kernel_size: 3
    stride: 1
    weight_filler {
      type: "xavier"
    }
  }
}
layer {
  name: "relu3_2"
  type: "ReLU"
  bottom: "conv3_2"
  top: "conv3_2"
}
layer {
  name: "conv3_3"
  type: "Convolution"
  bottom: "conv3_2"
  top: "conv3_3"
  param {
    lr_mult: 1
    decay_mult: 1
  }
  param {
    lr_mult: 2
    decay_mult: 0
  }
  convolution_param {
    num_output: 256
    pad: 1
    kernel_size: 3
    stride: 1
    weight_filler {
      type: "xavier"
    }
  }
}
layer {
  name: "relu3_3"
  type: "ReLU"
  bottom: "conv3_3"
  top: "conv3_3"
}
layer {
  name: "pool3"
  type: "Pooling"
  bottom: "conv3_3"
  top: "pool3"
  pooling_param {
    pool: MAX
    kernel_size: 2
    stride: 2
  }
}
layer {
  name: "conv4_1"
  type: "Convolution"
  bottom: "pool3"
  top: "conv4_1"
  param {
    lr_mult: 1
    decay_mult: 1
  }
  param {
    lr_mult: 2
    decay_mult: 0
  }
  convolution_param {
    num_output: 512
    pad: 1
    kernel_size: 3
    stride: 1
    weight_filler {
      type: "xavier"
    }
  }
}
layer {
  name: "relu4_1"
  type: "ReLU"
  bottom: "conv4_1"
  top: "conv4_1"
}
layer {
  name: "conv4_2"
  type: "Convolution"
  bottom: "conv4_1"
  top: "conv4_2"
  param {
    lr_mult: 1
    decay_mult: 1
  }
  param {
    lr_mult: 2
    decay_mult: 0
  }
  convolution_param {
    num_output: 512
    pad: 1
    kernel_size: 3
    stride: 1
    weight_filler {
      type: "xavier"
    }
  }
}
layer {
  name: "relu4_2"
  type: "ReLU"
  bottom: "conv4_2"
  top: "conv4_2"
}
layer {
  name: "conv4_3"
  type: "Convolution"
  bottom: "conv4_2"
  top: "conv4_3"
  param {
    lr_mult: 1
    decay_mult: 1
  }
  param {
    lr_mult: 2
    decay_mult: 0
  }
  convolution_param {
    num_output: 512
    pad: 1
    kernel_size: 3
    stride: 1
    weight_filler {
      type: "xavier"
    }
  }
}
layer {
  name: "relu4_3"
  type: "ReLU"
  bottom: "conv4_3"
  top: "conv4_3"
}
layer {
  name: "pool4"
  type: "Pooling"
  bottom: "conv4_3"
  top: "pool4"
  pooling_param {
    pool: MAX
    kernel_size: 2
    stride: 2
  }
}
layer {
  name: "conv5_1"
  type: "Convolution"
  bottom: "pool4"
  top: "conv5_1"
  param {
    lr_mult: 1
    decay_mult: 1
  }
  param {
    lr_mult: 2
    decay_mult: 0
  }
  convolution_param {
    num_output: 512
    pad: 1
    kernel_size: 3
    stride: 1
    weight_filler {
      type: "xavier"
    }
  }
}
layer {
  name: "relu5_1"
  type: "ReLU"
  bottom: "conv5_1"
  top: "conv5_1"
}
layer {
  name: "conv5_2"
  type: "Convolution"
  bottom: "conv5_1"
  top: "conv5_2"
  param {
    lr_mult: 1
    decay_mult: 1
  }
  param {
    lr_mult: 2
    decay_mult: 0
  }
  convolution_param {
    num_output: 512
    pad: 1
    kernel_size: 3
    stride: 1
    weight_filler {
      type: "xavier"
    }
  }
}
layer {
  name: "relu5_2"
  type: "ReLU"
  bottom: "conv5_2"
  top: "conv5_2"
}
layer {
  name: "conv5_3"
  type: "Convolution"
  bottom: "conv5_2"
  top: "conv5_3"
  param {
    lr_mult: 1
    decay_mult: 1
  }
  param {
    lr_mult: 2
    decay_mult: 0
  }
  convolution_param {
    num_output: 512
    pad: 1
    kernel_size: 3
    stride: 1
    weight_filler {
      type: "xavier"
    }
  }
}
layer {
  name: "relu5_3"
  type: "ReLU"
  bottom: "conv5_3"
  top: "conv5_3"
}
layer {
  name: "pool5"
  type: "Pooling"
  bottom: "conv5_3"
  top: "pool5"
  pooling_param {
    pool: MAX
    kernel_size: 2
    stride: 2
  }
}
layer {
  name: "fc6"
  type: "Convolution"
  bottom: "pool5"
  top: "fc6"
  param {
    lr_mult: 1
    decay_mult: 1
  }
  param {
    lr_mult: 2
    decay_mult: 0
  }
  convolution_param {
    num_output: 4096
    pad: 0
    kernel_size: 7
    stride: 1
    weight_filler {
      type: "xavier"
    }
  }
}
layer {
  name: "relu6"
  type: "ReLU"
  bottom: "fc6"
  top: "fc6"
}
layer {
  name: "drop6"
  type: "Dropout"
  bottom: "fc6"
  top: "fc6"
  dropout_param {
    dropout_ratio: 0.5
  }
}
layer {
  name: "fc7"
  type: "Convolution"
  bottom: "fc6"
  top: "fc7"
  param {
    lr_mult: 1
    decay_mult: 1
  }
  param {
    lr_mult: 2
    decay_mult: 0
  }
  convolution_param {
    num_output: 4096
    pad: 0
    kernel_size: 1
    stride: 1
    weight_filler {
      type: "xavier"
    }
  }
}
layer {
  name: "relu7"
  type: "ReLU"
  bottom: "fc7"
  top: "fc7"
}
layer {
  name: "drop7"
  type: "Dropout"
  bottom: "fc7"
  top: "fc7"
  dropout_param {
    dropout_ratio: 0.5
  }
}
layer {
  name: "score_fr"
  type: "Convolution"
  bottom: "fc7"
  top: "score_fr"
  param {
    lr_mult: 1
    decay_mult: 1
  }
  param {
    lr_mult: 2
    decay_mult: 0
  }
  convolution_param {
    num_output: 2
    pad: 0
    kernel_size: 1
    weight_filler {
      type: "xavier"
    }
  }
}
layer {
  name: "upscore2"
  type: "Deconvolution"
  bottom: "score_fr"
  top: "upscore2"
  param {
    lr_mult: 0
  }
  convolution_param {
    num_output: 2
    bias_term: false
    kernel_size: 4
    stride: 2
    weight_filler {
      type: "xavier"
    }
  }
}
layer {
  name: "scale_pool4"
  type: "Scale"
  bottom: "pool4"
  top: "scale_pool4"
  param {
    lr_mult: 0
  }
  scale_param {
    filler {
      type: "constant"
      value: 0.01
    }
  }
}
layer {
  name: "score_pool4"
  type: "Convolution"
  bottom: "scale_pool4"
  top: "score_pool4"
  param {
    lr_mult: 1
    decay_mult: 1
  }
  param {
    lr_mult: 2
    decay_mult: 0
  }
  convolution_param {
    num_output: 2
    pad: 0
    kernel_size: 1
    weight_filler {
      type: "xavier"
    }
  }
}
layer {
  name: "score_pool4c"
  type: "Crop"
  bottom: "score_pool4"
  bottom: "upscore2"
  top: "score_pool4c"
  crop_param {
    axis: 2
    offset: 5
  }
}
layer {
  name: "fuse_pool4"
  type: "Eltwise"
  bottom: "upscore2"
  bottom: "score_pool4c"
  top: "fuse_pool4"
  eltwise_param {
    operation: SUM
  }
}
layer {
  name: "upscore_pool4"
  type: "Deconvolution"
  bottom: "fuse_pool4"
  top: "upscore_pool4"
  param {
    lr_mult: 0
  }
  convolution_param {
    num_output: 2
    bias_term: false
    kernel_size: 4
    stride: 2
    weight_filler {
      type: "xavier"
    }
  }
}
layer {
  name: "scale_pool3"
  type: "Scale"
  bottom: "pool3"
  top: "scale_pool3"
  param {
    lr_mult: 0
  }
  scale_param {
    filler {
      type: "constant"
      value: 0.0001
    }
  }
}
layer {
  name: "score_pool3"
  type: "Convolution"
  bottom: "scale_pool3"
  top: "score_pool3"
  param {
    lr_mult: 1
    decay_mult: 1
  }
  param {
    lr_mult: 2
    decay_mult: 0
  }
  convolution_param {
    num_output: 2
    pad: 0
    kernel_size: 1
    weight_filler {
      type: "xavier"
    }
  }
}
layer {
  name: "score_pool3c"
  type: "Crop"
  bottom: "score_pool3"
  bottom: "upscore_pool4"
  top: "score_pool3c"
  crop_param {
    axis: 2
    offset: 9
  }
}
layer {
  name: "fuse_pool3"
  type: "Eltwise"
  bottom: "upscore_pool4"
  bottom: "score_pool3c"
  top: "fuse_pool3"
  eltwise_param {
    operation: SUM
  }
}
layer {
  name: "upscore8"
  type: "Deconvolution"
  bottom: "fuse_pool3"
  top: "upscore8"
  param {
    lr_mult: 0
  }
  convolution_param {
    num_output: 2
    bias_term: false
    kernel_size: 16
    stride: 8
    weight_filler {
      type: "xavier"
    }
  }
}
layer {
  name: "score"
  type: "Crop"
  bottom: "upscore8"
  bottom: "data"
  top: "score"
  crop_param {
    axis: 2
    offset: 31
  }
}
layer {
  name: "loss"
  type: "SoftmaxWithLoss"
  bottom: "score"
  bottom: "label"
  top: "loss"
  loss_param {
    ignore_label: 255
    normalize: false
  }
}
I0112 12:45:20.948197  3030 layer_factory.hpp:77] Creating layer data
I0112 12:45:20.948778  3030 net.cpp:100] Creating Layer data
I0112 12:45:20.948794  3030 net.cpp:408] data -> data
I0112 12:45:20.948812  3030 net.cpp:408] data -> label
I0112 12:45:21.099714  3030 net.cpp:150] Setting up data
I0112 12:45:21.099750  3030 net.cpp:157] Top shape: 1 3 500 333 (499500)
I0112 12:45:21.099758  3030 net.cpp:157] Top shape: 1 1 500 333 (166500)
I0112 12:45:21.099762  3030 net.cpp:165] Memory required for data: 2664000
I0112 12:45:21.099771  3030 layer_factory.hpp:77] Creating layer data_data_0_split
I0112 12:45:21.099787  3030 net.cpp:100] Creating Layer data_data_0_split
I0112 12:45:21.099793  3030 net.cpp:434] data_data_0_split <- data
I0112 12:45:21.099802  3030 net.cpp:408] data_data_0_split -> data_data_0_split_0
I0112 12:45:21.099815  3030 net.cpp:408] data_data_0_split -> data_data_0_split_1
I0112 12:45:21.099860  3030 net.cpp:150] Setting up data_data_0_split
I0112 12:45:21.099871  3030 net.cpp:157] Top shape: 1 3 500 333 (499500)
I0112 12:45:21.099876  3030 net.cpp:157] Top shape: 1 3 500 333 (499500)
I0112 12:45:21.099880  3030 net.cpp:165] Memory required for data: 6660000
I0112 12:45:21.099885  3030 layer_factory.hpp:77] Creating layer conv1_1
I0112 12:45:21.099905  3030 net.cpp:100] Creating Layer conv1_1
I0112 12:45:21.099910  3030 net.cpp:434] conv1_1 <- data_data_0_split_0
I0112 12:45:21.099925  3030 net.cpp:408] conv1_1 -> conv1_1
I0112 12:45:21.603945  3030 net.cpp:150] Setting up conv1_1
I0112 12:45:21.603996  3030 net.cpp:157] Top shape: 1 64 698 531 (23720832)
I0112 12:45:21.604002  3030 net.cpp:165] Memory required for data: 101543328
I0112 12:45:21.604023  3030 layer_factory.hpp:77] Creating layer relu1_1
I0112 12:45:21.604039  3030 net.cpp:100] Creating Layer relu1_1
I0112 12:45:21.604048  3030 net.cpp:434] relu1_1 <- conv1_1
I0112 12:45:21.604055  3030 net.cpp:395] relu1_1 -> conv1_1 (in-place)
I0112 12:45:21.605062  3030 net.cpp:150] Setting up relu1_1
I0112 12:45:21.605077  3030 net.cpp:157] Top shape: 1 64 698 531 (23720832)
I0112 12:45:21.605082  3030 net.cpp:165] Memory required for data: 196426656
I0112 12:45:21.605087  3030 layer_factory.hpp:77] Creating layer conv1_2
I0112 12:45:21.605104  3030 net.cpp:100] Creating Layer conv1_2
I0112 12:45:21.605109  3030 net.cpp:434] conv1_2 <- conv1_1
I0112 12:45:21.605116  3030 net.cpp:408] conv1_2 -> conv1_2
I0112 12:45:21.613283  3030 net.cpp:150] Setting up conv1_2
I0112 12:45:21.613301  3030 net.cpp:157] Top shape: 1 64 698 531 (23720832)
I0112 12:45:21.613307  3030 net.cpp:165] Memory required for data: 291309984
I0112 12:45:21.613319  3030 layer_factory.hpp:77] Creating layer relu1_2
I0112 12:45:21.613328  3030 net.cpp:100] Creating Layer relu1_2
I0112 12:45:21.613333  3030 net.cpp:434] relu1_2 <- conv1_2
I0112 12:45:21.613340  3030 net.cpp:395] relu1_2 -> conv1_2 (in-place)
I0112 12:45:21.614452  3030 net.cpp:150] Setting up relu1_2
I0112 12:45:21.614467  3030 net.cpp:157] Top shape: 1 64 698 531 (23720832)
I0112 12:45:21.614472  3030 net.cpp:165] Memory required for data: 386193312
I0112 12:45:21.614477  3030 layer_factory.hpp:77] Creating layer pool1
I0112 12:45:21.614490  3030 net.cpp:100] Creating Layer pool1
I0112 12:45:21.614495  3030 net.cpp:434] pool1 <- conv1_2
I0112 12:45:21.614502  3030 net.cpp:408] pool1 -> pool1
I0112 12:45:21.614550  3030 net.cpp:150] Setting up pool1
I0112 12:45:21.614558  3030 net.cpp:157] Top shape: 1 64 349 266 (5941376)
I0112 12:45:21.614563  3030 net.cpp:165] Memory required for data: 409958816
I0112 12:45:21.614568  3030 layer_factory.hpp:77] Creating layer conv2_1
I0112 12:45:21.614579  3030 net.cpp:100] Creating Layer conv2_1
I0112 12:45:21.614584  3030 net.cpp:434] conv2_1 <- pool1
I0112 12:45:21.614591  3030 net.cpp:408] conv2_1 -> conv2_1
I0112 12:45:21.621925  3030 net.cpp:150] Setting up conv2_1
I0112 12:45:21.621942  3030 net.cpp:157] Top shape: 1 128 349 266 (11882752)
I0112 12:45:21.621948  3030 net.cpp:165] Memory required for data: 457489824
I0112 12:45:21.621958  3030 layer_factory.hpp:77] Creating layer relu2_1
I0112 12:45:21.621971  3030 net.cpp:100] Creating Layer relu2_1
I0112 12:45:21.621976  3030 net.cpp:434] relu2_1 <- conv2_1
I0112 12:45:21.621983  3030 net.cpp:395] relu2_1 -> conv2_1 (in-place)
I0112 12:45:21.623857  3030 net.cpp:150] Setting up relu2_1
I0112 12:45:21.623869  3030 net.cpp:157] Top shape: 1 128 349 266 (11882752)
I0112 12:45:21.623874  3030 net.cpp:165] Memory required for data: 505020832
I0112 12:45:21.623878  3030 layer_factory.hpp:77] Creating layer conv2_2
I0112 12:45:21.623893  3030 net.cpp:100] Creating Layer conv2_2
I0112 12:45:21.623898  3030 net.cpp:434] conv2_2 <- conv2_1
I0112 12:45:21.623906  3030 net.cpp:408] conv2_2 -> conv2_2
I0112 12:45:21.631139  3030 net.cpp:150] Setting up conv2_2
I0112 12:45:21.631155  3030 net.cpp:157] Top shape: 1 128 349 266 (11882752)
I0112 12:45:21.631160  3030 net.cpp:165] Memory required for data: 552551840
I0112 12:45:21.631170  3030 layer_factory.hpp:77] Creating layer relu2_2
I0112 12:45:21.631178  3030 net.cpp:100] Creating Layer relu2_2
I0112 12:45:21.631183  3030 net.cpp:434] relu2_2 <- conv2_2
I0112 12:45:21.631192  3030 net.cpp:395] relu2_2 -> conv2_2 (in-place)
I0112 12:45:21.634405  3030 net.cpp:150] Setting up relu2_2
I0112 12:45:21.634420  3030 net.cpp:157] Top shape: 1 128 349 266 (11882752)
I0112 12:45:21.634424  3030 net.cpp:165] Memory required for data: 600082848
I0112 12:45:21.634440  3030 layer_factory.hpp:77] Creating layer pool2
I0112 12:45:21.634450  3030 net.cpp:100] Creating Layer pool2
I0112 12:45:21.634455  3030 net.cpp:434] pool2 <- conv2_2
I0112 12:45:21.634462  3030 net.cpp:408] pool2 -> pool2
I0112 12:45:21.634511  3030 net.cpp:150] Setting up pool2
I0112 12:45:21.634519  3030 net.cpp:157] Top shape: 1 128 175 133 (2979200)
I0112 12:45:21.634523  3030 net.cpp:165] Memory required for data: 611999648
I0112 12:45:21.634527  3030 layer_factory.hpp:77] Creating layer conv3_1
I0112 12:45:21.634541  3030 net.cpp:100] Creating Layer conv3_1
I0112 12:45:21.634544  3030 net.cpp:434] conv3_1 <- pool2
I0112 12:45:21.634552  3030 net.cpp:408] conv3_1 -> conv3_1
I0112 12:45:21.644351  3030 net.cpp:150] Setting up conv3_1
I0112 12:45:21.644368  3030 net.cpp:157] Top shape: 1 256 175 133 (5958400)
I0112 12:45:21.644372  3030 net.cpp:165] Memory required for data: 635833248
I0112 12:45:21.644384  3030 layer_factory.hpp:77] Creating layer relu3_1
I0112 12:45:21.644395  3030 net.cpp:100] Creating Layer relu3_1
I0112 12:45:21.644400  3030 net.cpp:434] relu3_1 <- conv3_1
I0112 12:45:21.644407  3030 net.cpp:395] relu3_1 -> conv3_1 (in-place)
I0112 12:45:21.647516  3030 net.cpp:150] Setting up relu3_1
I0112 12:45:21.647529  3030 net.cpp:157] Top shape: 1 256 175 133 (5958400)
I0112 12:45:21.647536  3030 net.cpp:165] Memory required for data: 659666848
I0112 12:45:21.647541  3030 layer_factory.hpp:77] Creating layer conv3_2
I0112 12:45:21.647552  3030 net.cpp:100] Creating Layer conv3_2
I0112 12:45:21.647557  3030 net.cpp:434] conv3_2 <- conv3_1
I0112 12:45:21.647567  3030 net.cpp:408] conv3_2 -> conv3_2
I0112 12:45:21.658160  3030 net.cpp:150] Setting up conv3_2
I0112 12:45:21.658176  3030 net.cpp:157] Top shape: 1 256 175 133 (5958400)
I0112 12:45:21.658181  3030 net.cpp:165] Memory required for data: 683500448
I0112 12:45:21.658190  3030 layer_factory.hpp:77] Creating layer relu3_2
I0112 12:45:21.658203  3030 net.cpp:100] Creating Layer relu3_2
I0112 12:45:21.658210  3030 net.cpp:434] relu3_2 <- conv3_2
I0112 12:45:21.658217  3030 net.cpp:395] relu3_2 -> conv3_2 (in-place)
I0112 12:45:21.660225  3030 net.cpp:150] Setting up relu3_2
I0112 12:45:21.660236  3030 net.cpp:157] Top shape: 1 256 175 133 (5958400)
I0112 12:45:21.660240  3030 net.cpp:165] Memory required for data: 707334048
I0112 12:45:21.660245  3030 layer_factory.hpp:77] Creating layer conv3_3
I0112 12:45:21.660259  3030 net.cpp:100] Creating Layer conv3_3
I0112 12:45:21.660264  3030 net.cpp:434] conv3_3 <- conv3_2
I0112 12:45:21.660275  3030 net.cpp:408] conv3_3 -> conv3_3
I0112 12:45:21.669656  3030 net.cpp:150] Setting up conv3_3
I0112 12:45:21.669672  3030 net.cpp:157] Top shape: 1 256 175 133 (5958400)
I0112 12:45:21.669677  3030 net.cpp:165] Memory required for data: 731167648
I0112 12:45:21.669685  3030 layer_factory.hpp:77] Creating layer relu3_3
I0112 12:45:21.669693  3030 net.cpp:100] Creating Layer relu3_3
I0112 12:45:21.669698  3030 net.cpp:434] relu3_3 <- conv3_3
I0112 12:45:21.669708  3030 net.cpp:395] relu3_3 -> conv3_3 (in-place)
I0112 12:45:21.671713  3030 net.cpp:150] Setting up relu3_3
I0112 12:45:21.671727  3030 net.cpp:157] Top shape: 1 256 175 133 (5958400)
I0112 12:45:21.671731  3030 net.cpp:165] Memory required for data: 755001248
I0112 12:45:21.671736  3030 layer_factory.hpp:77] Creating layer pool3
I0112 12:45:21.671744  3030 net.cpp:100] Creating Layer pool3
I0112 12:45:21.671749  3030 net.cpp:434] pool3 <- conv3_3
I0112 12:45:21.671759  3030 net.cpp:408] pool3 -> pool3
I0112 12:45:21.671811  3030 net.cpp:150] Setting up pool3
I0112 12:45:21.671818  3030 net.cpp:157] Top shape: 1 256 88 67 (1509376)
I0112 12:45:21.671823  3030 net.cpp:165] Memory required for data: 761038752
I0112 12:45:21.671828  3030 layer_factory.hpp:77] Creating layer pool3_pool3_0_split
I0112 12:45:21.671835  3030 net.cpp:100] Creating Layer pool3_pool3_0_split
I0112 12:45:21.671840  3030 net.cpp:434] pool3_pool3_0_split <- pool3
I0112 12:45:21.671846  3030 net.cpp:408] pool3_pool3_0_split -> pool3_pool3_0_split_0
I0112 12:45:21.671854  3030 net.cpp:408] pool3_pool3_0_split -> pool3_pool3_0_split_1
I0112 12:45:21.671900  3030 net.cpp:150] Setting up pool3_pool3_0_split
I0112 12:45:21.671908  3030 net.cpp:157] Top shape: 1 256 88 67 (1509376)
I0112 12:45:21.671913  3030 net.cpp:157] Top shape: 1 256 88 67 (1509376)
I0112 12:45:21.671917  3030 net.cpp:165] Memory required for data: 773113760
I0112 12:45:21.671921  3030 layer_factory.hpp:77] Creating layer conv4_1
I0112 12:45:21.671934  3030 net.cpp:100] Creating Layer conv4_1
I0112 12:45:21.671938  3030 net.cpp:434] conv4_1 <- pool3_pool3_0_split_0
I0112 12:45:21.671948  3030 net.cpp:408] conv4_1 -> conv4_1
I0112 12:45:21.686316  3030 net.cpp:150] Setting up conv4_1
I0112 12:45:21.686342  3030 net.cpp:157] Top shape: 1 512 88 67 (3018752)
I0112 12:45:21.686347  3030 net.cpp:165] Memory required for data: 785188768
I0112 12:45:21.686355  3030 layer_factory.hpp:77] Creating layer relu4_1
I0112 12:45:21.686364  3030 net.cpp:100] Creating Layer relu4_1
I0112 12:45:21.686370  3030 net.cpp:434] relu4_1 <- conv4_1
I0112 12:45:21.686378  3030 net.cpp:395] relu4_1 -> conv4_1 (in-place)
I0112 12:45:21.687865  3030 net.cpp:150] Setting up relu4_1
I0112 12:45:21.687880  3030 net.cpp:157] Top shape: 1 512 88 67 (3018752)
I0112 12:45:21.687885  3030 net.cpp:165] Memory required for data: 797263776
I0112 12:45:21.687889  3030 layer_factory.hpp:77] Creating layer conv4_2
I0112 12:45:21.687904  3030 net.cpp:100] Creating Layer conv4_2
I0112 12:45:21.687911  3030 net.cpp:434] conv4_2 <- conv4_1
I0112 12:45:21.687918  3030 net.cpp:408] conv4_2 -> conv4_2
I0112 12:45:21.711938  3030 net.cpp:150] Setting up conv4_2
I0112 12:45:21.711964  3030 net.cpp:157] Top shape: 1 512 88 67 (3018752)
I0112 12:45:21.711969  3030 net.cpp:165] Memory required for data: 809338784
I0112 12:45:21.711985  3030 layer_factory.hpp:77] Creating layer relu4_2
I0112 12:45:21.711994  3030 net.cpp:100] Creating Layer relu4_2
I0112 12:45:21.711999  3030 net.cpp:434] relu4_2 <- conv4_2
I0112 12:45:21.712009  3030 net.cpp:395] relu4_2 -> conv4_2 (in-place)
I0112 12:45:21.714895  3030 net.cpp:150] Setting up relu4_2
I0112 12:45:21.714907  3030 net.cpp:157] Top shape: 1 512 88 67 (3018752)
I0112 12:45:21.714912  3030 net.cpp:165] Memory required for data: 821413792
I0112 12:45:21.714917  3030 layer_factory.hpp:77] Creating layer conv4_3
I0112 12:45:21.714933  3030 net.cpp:100] Creating Layer conv4_3
I0112 12:45:21.714938  3030 net.cpp:434] conv4_3 <- conv4_2
I0112 12:45:21.714946  3030 net.cpp:408] conv4_3 -> conv4_3
I0112 12:45:21.736939  3030 net.cpp:150] Setting up conv4_3
I0112 12:45:21.736973  3030 net.cpp:157] Top shape: 1 512 88 67 (3018752)
I0112 12:45:21.736977  3030 net.cpp:165] Memory required for data: 833488800
I0112 12:45:21.736989  3030 layer_factory.hpp:77] Creating layer relu4_3
I0112 12:45:21.736999  3030 net.cpp:100] Creating Layer relu4_3
I0112 12:45:21.737005  3030 net.cpp:434] relu4_3 <- conv4_3
I0112 12:45:21.737012  3030 net.cpp:395] relu4_3 -> conv4_3 (in-place)
I0112 12:45:21.739174  3030 net.cpp:150] Setting up relu4_3
I0112 12:45:21.739189  3030 net.cpp:157] Top shape: 1 512 88 67 (3018752)
I0112 12:45:21.739194  3030 net.cpp:165] Memory required for data: 845563808
I0112 12:45:21.739199  3030 layer_factory.hpp:77] Creating layer pool4
I0112 12:45:21.739212  3030 net.cpp:100] Creating Layer pool4
I0112 12:45:21.739217  3030 net.cpp:434] pool4 <- conv4_3
I0112 12:45:21.739226  3030 net.cpp:408] pool4 -> pool4
I0112 12:45:21.739279  3030 net.cpp:150] Setting up pool4
I0112 12:45:21.739286  3030 net.cpp:157] Top shape: 1 512 44 34 (765952)
I0112 12:45:21.739290  3030 net.cpp:165] Memory required for data: 848627616
I0112 12:45:21.739295  3030 layer_factory.hpp:77] Creating layer pool4_pool4_0_split
I0112 12:45:21.739305  3030 net.cpp:100] Creating Layer pool4_pool4_0_split
I0112 12:45:21.739310  3030 net.cpp:434] pool4_pool4_0_split <- pool4
I0112 12:45:21.739316  3030 net.cpp:408] pool4_pool4_0_split -> pool4_pool4_0_split_0
I0112 12:45:21.739325  3030 net.cpp:408] pool4_pool4_0_split -> pool4_pool4_0_split_1
I0112 12:45:21.739367  3030 net.cpp:150] Setting up pool4_pool4_0_split
I0112 12:45:21.739385  3030 net.cpp:157] Top shape: 1 512 44 34 (765952)
I0112 12:45:21.739392  3030 net.cpp:157] Top shape: 1 512 44 34 (765952)
I0112 12:45:21.739394  3030 net.cpp:165] Memory required for data: 854755232
I0112 12:45:21.739399  3030 layer_factory.hpp:77] Creating layer conv5_1
I0112 12:45:21.739413  3030 net.cpp:100] Creating Layer conv5_1
I0112 12:45:21.739418  3030 net.cpp:434] conv5_1 <- pool4_pool4_0_split_0
I0112 12:45:21.739428  3030 net.cpp:408] conv5_1 -> conv5_1
I0112 12:45:21.763213  3030 net.cpp:150] Setting up conv5_1
I0112 12:45:21.763242  3030 net.cpp:157] Top shape: 1 512 44 34 (765952)
I0112 12:45:21.763247  3030 net.cpp:165] Memory required for data: 857819040
I0112 12:45:21.763257  3030 layer_factory.hpp:77] Creating layer relu5_1
I0112 12:45:21.763270  3030 net.cpp:100] Creating Layer relu5_1
I0112 12:45:21.763278  3030 net.cpp:434] relu5_1 <- conv5_1
I0112 12:45:21.763285  3030 net.cpp:395] relu5_1 -> conv5_1 (in-place)
I0112 12:45:21.765532  3030 net.cpp:150] Setting up relu5_1
I0112 12:45:21.765547  3030 net.cpp:157] Top shape: 1 512 44 34 (765952)
I0112 12:45:21.765552  3030 net.cpp:165] Memory required for data: 860882848
I0112 12:45:21.765557  3030 layer_factory.hpp:77] Creating layer conv5_2
I0112 12:45:21.765570  3030 net.cpp:100] Creating Layer conv5_2
I0112 12:45:21.765576  3030 net.cpp:434] conv5_2 <- conv5_1
I0112 12:45:21.765586  3030 net.cpp:408] conv5_2 -> conv5_2
I0112 12:45:21.786635  3030 net.cpp:150] Setting up conv5_2
I0112 12:45:21.786660  3030 net.cpp:157] Top shape: 1 512 44 34 (765952)
I0112 12:45:21.786665  3030 net.cpp:165] Memory required for data: 863946656
I0112 12:45:21.786675  3030 layer_factory.hpp:77] Creating layer relu5_2
I0112 12:45:21.786687  3030 net.cpp:100] Creating Layer relu5_2
I0112 12:45:21.786694  3030 net.cpp:434] relu5_2 <- conv5_2
I0112 12:45:21.786700  3030 net.cpp:395] relu5_2 -> conv5_2 (in-place)
I0112 12:45:21.788784  3030 net.cpp:150] Setting up relu5_2
I0112 12:45:21.788795  3030 net.cpp:157] Top shape: 1 512 44 34 (765952)
I0112 12:45:21.788800  3030 net.cpp:165] Memory required for data: 867010464
I0112 12:45:21.788805  3030 layer_factory.hpp:77] Creating layer conv5_3
I0112 12:45:21.788826  3030 net.cpp:100] Creating Layer conv5_3
I0112 12:45:21.788831  3030 net.cpp:434] conv5_3 <- conv5_2
I0112 12:45:21.788839  3030 net.cpp:408] conv5_3 -> conv5_3
I0112 12:45:21.811267  3030 net.cpp:150] Setting up conv5_3
I0112 12:45:21.811295  3030 net.cpp:157] Top shape: 1 512 44 34 (765952)
I0112 12:45:21.811300  3030 net.cpp:165] Memory required for data: 870074272
I0112 12:45:21.811311  3030 layer_factory.hpp:77] Creating layer relu5_3
I0112 12:45:21.811321  3030 net.cpp:100] Creating Layer relu5_3
I0112 12:45:21.811326  3030 net.cpp:434] relu5_3 <- conv5_3
I0112 12:45:21.811336  3030 net.cpp:395] relu5_3 -> conv5_3 (in-place)
I0112 12:45:21.814052  3030 net.cpp:150] Setting up relu5_3
I0112 12:45:21.814069  3030 net.cpp:157] Top shape: 1 512 44 34 (765952)
I0112 12:45:21.814074  3030 net.cpp:165] Memory required for data: 873138080
I0112 12:45:21.814077  3030 layer_factory.hpp:77] Creating layer pool5
I0112 12:45:21.814087  3030 net.cpp:100] Creating Layer pool5
I0112 12:45:21.814092  3030 net.cpp:434] pool5 <- conv5_3
I0112 12:45:21.814102  3030 net.cpp:408] pool5 -> pool5
I0112 12:45:21.814157  3030 net.cpp:150] Setting up pool5
I0112 12:45:21.814165  3030 net.cpp:157] Top shape: 1 512 22 17 (191488)
I0112 12:45:21.814169  3030 net.cpp:165] Memory required for data: 873904032
I0112 12:45:21.814173  3030 layer_factory.hpp:77] Creating layer fc6
I0112 12:45:21.814189  3030 net.cpp:100] Creating Layer fc6
I0112 12:45:21.814194  3030 net.cpp:434] fc6 <- pool5
I0112 12:45:21.814201  3030 net.cpp:408] fc6 -> fc6
I0112 12:45:22.637387  3030 net.cpp:150] Setting up fc6
I0112 12:45:22.637434  3030 net.cpp:157] Top shape: 1 4096 16 11 (720896)
I0112 12:45:22.637440  3030 net.cpp:165] Memory required for data: 876787616
I0112 12:45:22.637454  3030 layer_factory.hpp:77] Creating layer relu6
I0112 12:45:22.637480  3030 net.cpp:100] Creating Layer relu6
I0112 12:45:22.637487  3030 net.cpp:434] relu6 <- fc6
I0112 12:45:22.637496  3030 net.cpp:395] relu6 -> fc6 (in-place)
I0112 12:45:22.638298  3030 net.cpp:150] Setting up relu6
I0112 12:45:22.638314  3030 net.cpp:157] Top shape: 1 4096 16 11 (720896)
I0112 12:45:22.638320  3030 net.cpp:165] Memory required for data: 879671200
I0112 12:45:22.638325  3030 layer_factory.hpp:77] Creating layer drop6
I0112 12:45:22.638339  3030 net.cpp:100] Creating Layer drop6
I0112 12:45:22.638345  3030 net.cpp:434] drop6 <- fc6
I0112 12:45:22.638350  3030 net.cpp:395] drop6 -> fc6 (in-place)
I0112 12:45:22.638396  3030 net.cpp:150] Setting up drop6
I0112 12:45:22.638403  3030 net.cpp:157] Top shape: 1 4096 16 11 (720896)
I0112 12:45:22.638407  3030 net.cpp:165] Memory required for data: 882554784
I0112 12:45:22.638411  3030 layer_factory.hpp:77] Creating layer fc7
I0112 12:45:22.638425  3030 net.cpp:100] Creating Layer fc7
I0112 12:45:22.638430  3030 net.cpp:434] fc7 <- fc6
I0112 12:45:22.638439  3030 net.cpp:408] fc7 -> fc7
I0112 12:45:22.779870  3030 net.cpp:150] Setting up fc7
I0112 12:45:22.779928  3030 net.cpp:157] Top shape: 1 4096 16 11 (720896)
I0112 12:45:22.779933  3030 net.cpp:165] Memory required for data: 885438368
I0112 12:45:22.779952  3030 layer_factory.hpp:77] Creating layer relu7
I0112 12:45:22.779969  3030 net.cpp:100] Creating Layer relu7
I0112 12:45:22.779981  3030 net.cpp:434] relu7 <- fc7
I0112 12:45:22.779994  3030 net.cpp:395] relu7 -> fc7 (in-place)
I0112 12:45:22.782759  3030 net.cpp:150] Setting up relu7
I0112 12:45:22.782773  3030 net.cpp:157] Top shape: 1 4096 16 11 (720896)
I0112 12:45:22.782776  3030 net.cpp:165] Memory required for data: 888321952
I0112 12:45:22.782781  3030 layer_factory.hpp:77] Creating layer drop7
I0112 12:45:22.782798  3030 net.cpp:100] Creating Layer drop7
I0112 12:45:22.782802  3030 net.cpp:434] drop7 <- fc7
I0112 12:45:22.782809  3030 net.cpp:395] drop7 -> fc7 (in-place)
I0112 12:45:22.782853  3030 net.cpp:150] Setting up drop7
I0112 12:45:22.782861  3030 net.cpp:157] Top shape: 1 4096 16 11 (720896)
I0112 12:45:22.782866  3030 net.cpp:165] Memory required for data: 891205536
I0112 12:45:22.782871  3030 layer_factory.hpp:77] Creating layer score_fr
I0112 12:45:22.782889  3030 net.cpp:100] Creating Layer score_fr
I0112 12:45:22.782894  3030 net.cpp:434] score_fr <- fc7
I0112 12:45:22.782903  3030 net.cpp:408] score_fr -> score_fr
I0112 12:45:22.790947  3030 net.cpp:150] Setting up score_fr
I0112 12:45:22.790963  3030 net.cpp:157] Top shape: 1 2 16 11 (352)
I0112 12:45:22.790968  3030 net.cpp:165] Memory required for data: 891206944
I0112 12:45:22.790977  3030 layer_factory.hpp:77] Creating layer upscore2
I0112 12:45:22.790994  3030 net.cpp:100] Creating Layer upscore2
I0112 12:45:22.791000  3030 net.cpp:434] upscore2 <- score_fr
I0112 12:45:22.791007  3030 net.cpp:408] upscore2 -> upscore2
I0112 12:45:22.791231  3030 net.cpp:150] Setting up upscore2
I0112 12:45:22.791241  3030 net.cpp:157] Top shape: 1 2 34 24 (1632)
I0112 12:45:22.791246  3030 net.cpp:165] Memory required for data: 891213472
I0112 12:45:22.791265  3030 layer_factory.hpp:77] Creating layer upscore2_upscore2_0_split
I0112 12:45:22.791275  3030 net.cpp:100] Creating Layer upscore2_upscore2_0_split
I0112 12:45:22.791280  3030 net.cpp:434] upscore2_upscore2_0_split <- upscore2
I0112 12:45:22.791293  3030 net.cpp:408] upscore2_upscore2_0_split -> upscore2_upscore2_0_split_0
I0112 12:45:22.791302  3030 net.cpp:408] upscore2_upscore2_0_split -> upscore2_upscore2_0_split_1
I0112 12:45:22.791343  3030 net.cpp:150] Setting up upscore2_upscore2_0_split
I0112 12:45:22.791350  3030 net.cpp:157] Top shape: 1 2 34 24 (1632)
I0112 12:45:22.791355  3030 net.cpp:157] Top shape: 1 2 34 24 (1632)
I0112 12:45:22.791359  3030 net.cpp:165] Memory required for data: 891226528
I0112 12:45:22.791364  3030 layer_factory.hpp:77] Creating layer scale_pool4
I0112 12:45:22.791380  3030 net.cpp:100] Creating Layer scale_pool4
I0112 12:45:22.791385  3030 net.cpp:434] scale_pool4 <- pool4_pool4_0_split_1
I0112 12:45:22.791407  3030 net.cpp:408] scale_pool4 -> scale_pool4
I0112 12:45:22.791537  3030 net.cpp:150] Setting up scale_pool4
I0112 12:45:22.791545  3030 net.cpp:157] Top shape: 1 512 44 34 (765952)
I0112 12:45:22.791549  3030 net.cpp:165] Memory required for data: 894290336
I0112 12:45:22.791556  3030 layer_factory.hpp:77] Creating layer score_pool4
I0112 12:45:22.791571  3030 net.cpp:100] Creating Layer score_pool4
I0112 12:45:22.791576  3030 net.cpp:434] score_pool4 <- scale_pool4
I0112 12:45:22.791584  3030 net.cpp:408] score_pool4 -> score_pool4
I0112 12:45:22.799909  3030 net.cpp:150] Setting up score_pool4
I0112 12:45:22.799926  3030 net.cpp:157] Top shape: 1 2 44 34 (2992)
I0112 12:45:22.799931  3030 net.cpp:165] Memory required for data: 894302304
I0112 12:45:22.799938  3030 layer_factory.hpp:77] Creating layer score_pool4c
I0112 12:45:22.799952  3030 net.cpp:100] Creating Layer score_pool4c
I0112 12:45:22.799958  3030 net.cpp:434] score_pool4c <- score_pool4
I0112 12:45:22.799964  3030 net.cpp:434] score_pool4c <- upscore2_upscore2_0_split_0
I0112 12:45:22.799971  3030 net.cpp:408] score_pool4c -> score_pool4c
I0112 12:45:22.800010  3030 net.cpp:150] Setting up score_pool4c
I0112 12:45:22.800019  3030 net.cpp:157] Top shape: 1 2 34 24 (1632)
I0112 12:45:22.800022  3030 net.cpp:165] Memory required for data: 894308832
I0112 12:45:22.800026  3030 layer_factory.hpp:77] Creating layer fuse_pool4
I0112 12:45:22.800037  3030 net.cpp:100] Creating Layer fuse_pool4
I0112 12:45:22.800042  3030 net.cpp:434] fuse_pool4 <- upscore2_upscore2_0_split_1
I0112 12:45:22.800047  3030 net.cpp:434] fuse_pool4 <- score_pool4c
I0112 12:45:22.800056  3030 net.cpp:408] fuse_pool4 -> fuse_pool4
I0112 12:45:22.800089  3030 net.cpp:150] Setting up fuse_pool4
I0112 12:45:22.800096  3030 net.cpp:157] Top shape: 1 2 34 24 (1632)
I0112 12:45:22.800101  3030 net.cpp:165] Memory required for data: 894315360
I0112 12:45:22.800104  3030 layer_factory.hpp:77] Creating layer upscore_pool4
I0112 12:45:22.800117  3030 net.cpp:100] Creating Layer upscore_pool4
I0112 12:45:22.800122  3030 net.cpp:434] upscore_pool4 <- fuse_pool4
I0112 12:45:22.800130  3030 net.cpp:408] upscore_pool4 -> upscore_pool4
I0112 12:45:22.800375  3030 net.cpp:150] Setting up upscore_pool4
I0112 12:45:22.800387  3030 net.cpp:157] Top shape: 1 2 70 50 (7000)
I0112 12:45:22.800391  3030 net.cpp:165] Memory required for data: 894343360
I0112 12:45:22.800398  3030 layer_factory.hpp:77] Creating layer upscore_pool4_upscore_pool4_0_split
I0112 12:45:22.800405  3030 net.cpp:100] Creating Layer upscore_pool4_upscore_pool4_0_split
I0112 12:45:22.800410  3030 net.cpp:434] upscore_pool4_upscore_pool4_0_split <- upscore_pool4
I0112 12:45:22.800417  3030 net.cpp:408] upscore_pool4_upscore_pool4_0_split -> upscore_pool4_upscore_pool4_0_split_0
I0112 12:45:22.800426  3030 net.cpp:408] upscore_pool4_upscore_pool4_0_split -> upscore_pool4_upscore_pool4_0_split_1
I0112 12:45:22.800467  3030 net.cpp:150] Setting up upscore_pool4_upscore_pool4_0_split
I0112 12:45:22.800473  3030 net.cpp:157] Top shape: 1 2 70 50 (7000)
I0112 12:45:22.800478  3030 net.cpp:157] Top shape: 1 2 70 50 (7000)
I0112 12:45:22.800482  3030 net.cpp:165] Memory required for data: 894399360
I0112 12:45:22.800487  3030 layer_factory.hpp:77] Creating layer scale_pool3
I0112 12:45:22.800498  3030 net.cpp:100] Creating Layer scale_pool3
I0112 12:45:22.800503  3030 net.cpp:434] scale_pool3 <- pool3_pool3_0_split_1
I0112 12:45:22.800511  3030 net.cpp:408] scale_pool3 -> scale_pool3
I0112 12:45:22.800613  3030 net.cpp:150] Setting up scale_pool3
I0112 12:45:22.800622  3030 net.cpp:157] Top shape: 1 256 88 67 (1509376)
I0112 12:45:22.800626  3030 net.cpp:165] Memory required for data: 900436864
I0112 12:45:22.800632  3030 layer_factory.hpp:77] Creating layer score_pool3
I0112 12:45:22.800645  3030 net.cpp:100] Creating Layer score_pool3
I0112 12:45:22.800650  3030 net.cpp:434] score_pool3 <- scale_pool3
I0112 12:45:22.800659  3030 net.cpp:408] score_pool3 -> score_pool3
I0112 12:45:22.811589  3030 net.cpp:150] Setting up score_pool3
I0112 12:45:22.811611  3030 net.cpp:157] Top shape: 1 2 88 67 (11792)
I0112 12:45:22.811617  3030 net.cpp:165] Memory required for data: 900484032
I0112 12:45:22.811626  3030 layer_factory.hpp:77] Creating layer score_pool3c
I0112 12:45:22.811640  3030 net.cpp:100] Creating Layer score_pool3c
I0112 12:45:22.811646  3030 net.cpp:434] score_pool3c <- score_pool3
I0112 12:45:22.811652  3030 net.cpp:434] score_pool3c <- upscore_pool4_upscore_pool4_0_split_0
I0112 12:45:22.811660  3030 net.cpp:408] score_pool3c -> score_pool3c
I0112 12:45:22.811697  3030 net.cpp:150] Setting up score_pool3c
I0112 12:45:22.811704  3030 net.cpp:157] Top shape: 1 2 70 50 (7000)
I0112 12:45:22.811708  3030 net.cpp:165] Memory required for data: 900512032
I0112 12:45:22.811712  3030 layer_factory.hpp:77] Creating layer fuse_pool3
I0112 12:45:22.811720  3030 net.cpp:100] Creating Layer fuse_pool3
I0112 12:45:22.811725  3030 net.cpp:434] fuse_pool3 <- upscore_pool4_upscore_pool4_0_split_1
I0112 12:45:22.811730  3030 net.cpp:434] fuse_pool3 <- score_pool3c
I0112 12:45:22.811739  3030 net.cpp:408] fuse_pool3 -> fuse_pool3
I0112 12:45:22.811770  3030 net.cpp:150] Setting up fuse_pool3
I0112 12:45:22.811777  3030 net.cpp:157] Top shape: 1 2 70 50 (7000)
I0112 12:45:22.811781  3030 net.cpp:165] Memory required for data: 900540032
I0112 12:45:22.811785  3030 layer_factory.hpp:77] Creating layer upscore8
I0112 12:45:22.811794  3030 net.cpp:100] Creating Layer upscore8
I0112 12:45:22.811800  3030 net.cpp:434] upscore8 <- fuse_pool3
I0112 12:45:22.811808  3030 net.cpp:408] upscore8 -> upscore8
I0112 12:45:22.812027  3030 net.cpp:150] Setting up upscore8
I0112 12:45:22.812036  3030 net.cpp:157] Top shape: 1 2 568 408 (463488)
I0112 12:45:22.812041  3030 net.cpp:165] Memory required for data: 902393984
I0112 12:45:22.812047  3030 layer_factory.hpp:77] Creating layer score
I0112 12:45:22.812058  3030 net.cpp:100] Creating Layer score
I0112 12:45:22.812063  3030 net.cpp:434] score <- upscore8
I0112 12:45:22.812068  3030 net.cpp:434] score <- data_data_0_split_1
I0112 12:45:22.812074  3030 net.cpp:408] score -> score
I0112 12:45:22.812105  3030 net.cpp:150] Setting up score
I0112 12:45:22.812113  3030 net.cpp:157] Top shape: 1 2 500 333 (333000)
I0112 12:45:22.812116  3030 net.cpp:165] Memory required for data: 903725984
I0112 12:45:22.812120  3030 layer_factory.hpp:77] Creating layer loss
I0112 12:45:22.812134  3030 net.cpp:100] Creating Layer loss
I0112 12:45:22.812139  3030 net.cpp:434] loss <- score
I0112 12:45:22.812144  3030 net.cpp:434] loss <- label
I0112 12:45:22.812151  3030 net.cpp:408] loss -> loss
I0112 12:45:22.812163  3030 layer_factory.hpp:77] Creating layer loss
…
I0112 12:45:22.816218  3030 net.cpp:283] Network initialization done.
I0112 12:45:22.817714  3030 solver.cpp:181] Creating test net (#0) specified by test_net file: val.prototxt
I0112 12:45:22.818084  3030 net.cpp:58] Initializing net from parameters: 
state {
  phase: TEST
}
layer {
  name: "data"
  type: "Python"
  top: "data"
  top: "label"
  python_param {
    module: "voc_layers"
    layer: "ObfVOCSegDataLayer"
    param_str: "{\'voc_dir\': \'../data/pascal-obfuscated/VOC2011\', \'seed\': 1337, \'split\': \'seg11valid15\', \'mean\': (104.00699, 116.66877, 122.67892)}"
  }
}
layer {
  name: "conv1_1"
  type: "Convolution"
  bottom: "data"
  top: "conv1_1"
  param {
    lr_mult: 1
    decay_mult: 1
  }
  param {
    lr_mult: 2
    decay_mult: 0
  }
  convolution_param {
    num_output: 64
    pad: 100
    kernel_size: 3
    stride: 1
    weight_filler {
      type: "xavier"
    }
  }
}
layer {
  name: "relu1_1"
  type: "ReLU"
  bottom: "conv1_1"
  top: "conv1_1"
}
layer {
  name: "conv1_2"
  type: "Convolution"
  bottom: "conv1_1"
  top: "conv1_2"
  param {
    lr_mult: 1
    decay_mult: 1
  }
  param {
    lr_mult: 2
    decay_mult: 0
  }
  convolution_param {
    num_output: 64
    pad: 1
    kernel_size: 3
    stride: 1
    weight_filler {
      type: "xavier"
    }
  }
}
layer {
  name: "relu1_2"
  type: "ReLU"
  bottom: "conv1_2"
  top: "conv1_2"
}
layer {
  name: "pool1"
  type: "Pooling"
  bottom: "conv1_2"
  top: "pool1"
  pooling_param {
    pool: MAX
    kernel_size: 2
    stride: 2
  }
}
layer {
  name: "conv2_1"
  type: "Convolution"
  bottom: "pool1"
  top: "conv2_1"
  param {
    lr_mult: 1
    decay_mult: 1
  }
  param {
    lr_mult: 2
    decay_mult: 0
  }
  convolution_param {
    num_output: 128
    pad: 1
    kernel_size: 3
    stride: 1
    weight_filler {
      type: "xavier"
    }
  }
}
layer {
  name: "relu2_1"
  type: "ReLU"
  bottom: "conv2_1"
  top: "conv2_1"
}
layer {
  name: "conv2_2"
  type: "Convolution"
  bottom: "conv2_1"
  top: "conv2_2"
  param {
    lr_mult: 1
    decay_mult: 1
  }
  param {
    lr_mult: 2
    decay_mult: 0
  }
  convolution_param {
    num_output: 128
    pad: 1
    kernel_size: 3
    stride: 1
    weight_filler {
      type: "xavier"
    }
  }
}
layer {
  name: "relu2_2"
  type: "ReLU"
  bottom: "conv2_2"
  top: "conv2_2"
}
layer {
  name: "pool2"
  type: "Pooling"
  bottom: "conv2_2"
  top: "pool2"
  pooling_param {
    pool: MAX
    kernel_size: 2
    stride: 2
  }
}
layer {
  name: "conv3_1"
  type: "Convolution"
  bottom: "pool2"
  top: "conv3_1"
  param {
    lr_mult: 1
    decay_mult: 1
  }
  param {
    lr_mult: 2
    decay_mult: 0
  }
  convolution_param {
    num_output: 256
    pad: 1
    kernel_size: 3
    stride: 1
    weight_filler {
      type: "xavier"
    }
  }
}
layer {
  name: "relu3_1"
  type: "ReLU"
  bottom: "conv3_1"
  top: "conv3_1"
}
layer {
  name: "conv3_2"
  type: "Convolution"
  bottom: "conv3_1"
  top: "conv3_2"
  param {
    lr_mult: 1
    decay_mult: 1
  }
  param {
    lr_mult: 2
    decay_mult: 0
  }
  convolution_param {
    num_output: 256
    pad: 1
    kernel_size: 3
    stride: 1
    weight_filler {
      type: "xavier"
    }
  }
}
layer {
  name: "relu3_2"
  type: "ReLU"
  bottom: "conv3_2"
  top: "conv3_2"
}
layer {
  name: "conv3_3"
  type: "Convolution"
  bottom: "conv3_2"
  top: "conv3_3"
  param {
    lr_mult: 1
    decay_mult: 1
  }
  param {
    lr_mult: 2
    decay_mult: 0
  }
  convolution_param {
    num_output: 256
    pad: 1
    kernel_size: 3
    stride: 1
    weight_filler {
      type: "xavier"
    }
  }
}
layer {
  name: "relu3_3"
  type: "ReLU"
  bottom: "conv3_3"
  top: "conv3_3"
}
layer {
  name: "pool3"
  type: "Pooling"
  bottom: "conv3_3"
  top: "pool3"
  pooling_param {
    pool: MAX
    kernel_size: 2
    stride: 2
  }
}
layer {
  name: "conv4_1"
  type: "Convolution"
  bottom: "pool3"
  top: "conv4_1"
  param {
    lr_mult: 1
    decay_mult: 1
  }
  param {
    lr_mult: 2
    decay_mult: 0
  }
  convolution_param {
    num_output: 512
    pad: 1
    kernel_size: 3
    stride: 1
    weight_filler {
      type: "xavier"
    }
  }
}
layer {
  name: "relu4_1"
  type: "ReLU"
  bottom: "conv4_1"
  top: "conv4_1"
}
layer {
  name: "conv4_2"
  type: "Convolution"
  bottom: "conv4_1"
  top: "conv4_2"
  param {
    lr_mult: 1
    decay_mult: 1
  }
  param {
    lr_mult: 2
    decay_mult: 0
  }
  convolution_param {
    num_output: 512
    pad: 1
    kernel_size: 3
    stride: 1
    weight_filler {
      type: "xavier"
    }
  }
}
layer {
  name: "relu4_2"
  type: "ReLU"
  bottom: "conv4_2"
  top: "conv4_2"
}
layer {
  name: "conv4_3"
  type: "Convolution"
  bottom: "conv4_2"
  top: "conv4_3"
  param {
    lr_mult: 1
    decay_mult: 1
  }
  param {
    lr_mult: 2
    decay_mult: 0
  }
  convolution_param {
    num_output: 512
    pad: 1
    kernel_size: 3
    stride: 1
    weight_filler {
      type: "xavier"
    }
  }
}
layer {
  name: "relu4_3"
  type: "ReLU"
  bottom: "conv4_3"
  top: "conv4_3"
}
layer {
  name: "pool4"
  type: "Pooling"
  bottom: "conv4_3"
  top: "pool4"
  pooling_param {
    pool: MAX
    kernel_size: 2
    stride: 2
  }
}
layer {
  name: "conv5_1"
  type: "Convolution"
  bottom: "pool4"
  top: "conv5_1"
  param {
    lr_mult: 1
    decay_mult: 1
  }
  param {
    lr_mult: 2
    decay_mult: 0
  }
  convolution_param {
    num_output: 512
    pad: 1
    kernel_size: 3
    stride: 1
    weight_filler {
      type: "xavier"
    }
  }
}
layer {
  name: "relu5_1"
  type: "ReLU"
  bottom: "conv5_1"
  top: "conv5_1"
}
layer {
  name: "conv5_2"
  type: "Convolution"
  bottom: "conv5_1"
  top: "conv5_2"
  param {
    lr_mult: 1
    decay_mult: 1
  }
  param {
    lr_mult: 2
    decay_mult: 0
  }
  convolution_param {
    num_output: 512
    pad: 1
    kernel_size: 3
    stride: 1
    weight_filler {
      type: "xavier"
    }
  }
}
layer {
  name: "relu5_2"
  type: "ReLU"
  bottom: "conv5_2"
  top: "conv5_2"
}
layer {
  name: "conv5_3"
  type: "Convolution"
  bottom: "conv5_2"
  top: "conv5_3"
  param {
    lr_mult: 1
    decay_mult: 1
  }
  param {
    lr_mult: 2
    decay_mult: 0
  }
  convolution_param {
    num_output: 512
    pad: 1
    kernel_size: 3
    stride: 1
    weight_filler {
      type: "xavier"
    }
  }
}
layer {
  name: "relu5_3"
  type: "ReLU"
  bottom: "conv5_3"
  top: "conv5_3"
}
layer {
  name: "pool5"
  type: "Pooling"
  bottom: "conv5_3"
  top: "pool5"
  pooling_param {
    pool: MAX
    kernel_size: 2
    stride: 2
  }
}
layer {
  name: "fc6"
  type: "Convolution"
  bottom: "pool5"
  top: "fc6"
  param {
    lr_mult: 1
    decay_mult: 1
  }
  param {
    lr_mult: 2
    decay_mult: 0
  }
  convolution_param {
    num_output: 4096
    pad: 0
    kernel_size: 7
    stride: 1
    weight_filler {
      type: "xavier"
    }
  }
}
layer {
  name: "relu6"
  type: "ReLU"
  bottom: "fc6"
  top: "fc6"
}
layer {
  name: "drop6"
  type: "Dropout"
  bottom: "fc6"
  top: "fc6"
  dropout_param {
    dropout_ratio: 0.5
  }
}
layer {
  name: "fc7"
  type: "Convolution"
  bottom: "fc6"
  top: "fc7"
  param {
    lr_mult: 1
    decay_mult: 1
  }
  param {
    lr_mult: 2
    decay_mult: 0
  }
  convolution_param {
    num_output: 4096
    pad: 0
    kernel_size: 1
    stride: 1
    weight_filler {
      type: "xavier"
    }
  }
}
layer {
  name: "relu7"
  type: "ReLU"
  bottom: "fc7"
  top: "fc7"
}
layer {
  name: "drop7"
  type: "Dropout"
  bottom: "fc7"
  top: "fc7"
  dropout_param {
    dropout_ratio: 0.5
  }
}
layer {
  name: "score_fr"
  type: "Convolution"
  bottom: "fc7"
  top: "score_fr"
  param {
    lr_mult: 1
    decay_mult: 1
  }
  param {
    lr_mult: 2
    decay_mult: 0
  }
  convolution_param {
    num_output: 2
    pad: 0
    kernel_size: 1
    weight_filler {
      type: "xavier"
    }
  }
}
layer {
  name: "upscore2"
  type: "Deconvolution"
  bottom: "score_fr"
  top: "upscore2"
  param {
    lr_mult: 0
  }
  convolution_param {
    num_output: 2
    bias_term: false
    kernel_size: 4
    stride: 2
    weight_filler {
      type: "xavier"
    }
  }
}
layer {
  name: "scale_pool4"
  type: "Scale"
  bottom: "pool4"
  top: "scale_pool4"
  param {
    lr_mult: 0
  }
  scale_param {
    filler {
      type: "constant"
      value: 0.01
    }
  }
}
layer {
  name: "score_pool4"
  type: "Convolution"
  bottom: "scale_pool4"
  top: "score_pool4"
  param {
    lr_mult: 1
    decay_mult: 1
  }
  param {
    lr_mult: 2
    decay_mult: 0
  }
  convolution_param {
    num_output: 2
    pad: 0
    kernel_size: 1
    weight_filler {
      type: "xavier"
    }
  }
}
layer {
  name: "score_pool4c"
  type: "Crop"
  bottom: "score_pool4"
  bottom: "upscore2"
  top: "score_pool4c"
  crop_param {
    axis: 2
    offset: 5
  }
}
layer {
  name: "fuse_pool4"
  type: "Eltwise"
  bottom: "upscore2"
  bottom: "score_pool4c"
  top: "fuse_pool4"
  eltwise_param {
    operation: SUM
  }
}
layer {
  name: "upscore_pool4"
  type: "Deconvolution"
  bottom: "fuse_pool4"
  top: "upscore_pool4"
  param {
    lr_mult: 0
  }
  convolution_param {
    num_output: 2
    bias_term: false
    kernel_size: 4
    stride: 2
    weight_filler {
      type: "xavier"
    }
  }
}
layer {
  name: "scale_pool3"
  type: "Scale"
  bottom: "pool3"
  top: "scale_pool3"
  param {
    lr_mult: 0
  }
  scale_param {
    filler {
      type: "constant"
      value: 0.0001
    }
  }
}
layer {
  name: "score_pool3"
  type: "Convolution"
  bottom: "scale_pool3"
  top: "score_pool3"
  param {
    lr_mult: 1
    decay_mult: 1
  }
  param {
    lr_mult: 2
    decay_mult: 0
  }
  convolution_param {
    num_output: 2
    pad: 0
    kernel_size: 1
    weight_filler {
      type: "xavier"
    }
  }
}
layer {
  name: "score_pool3c"
  type: "Crop"
  bottom: "score_pool3"
  bottom: "upscore_pool4"
  top: "score_pool3c"
  crop_param {
    axis: 2
    offset: 9
  }
}
layer {
  name: "fuse_pool3"
  type: "Eltwise"
  bottom: "upscore_pool4"
  bottom: "score_pool3c"
  top: "fuse_pool3"
  eltwise_param {
    operation: SUM
  }
}
layer {
  name: "upscore8"
  type: "Deconvolution"
  bottom: "fuse_pool3"
  top: "upscore8"
  param {
    lr_mult: 0
  }
  convolution_param {
    num_output: 2
    bias_term: false
    kernel_size: 16
    stride: 8
    weight_filler {
      type: "xavier"
    }
  }
}
layer {
  name: "score"
  type: "Crop"
  bottom: "upscore8"
  bottom: "data"
  top: "score"
  crop_param {
    axis: 2
    offset: 31
  }
}
layer {
  name: "loss"
  type: "SoftmaxWithLoss"
  bottom: "score"
  bottom: "label"
  top: "loss"
  loss_param {
    ignore_label: 255
    normalize: false
  }
}
I0112 12:45:22.818312  3030 layer_factory.hpp:77] Creating layer data
I0112 12:45:22.818437  3030 net.cpp:100] Creating Layer data
I0112 12:45:22.818447  3030 net.cpp:408] data -> data
I0112 12:45:22.818456  3030 net.cpp:408] data -> label
I0112 12:45:22.850023  3030 net.cpp:150] Setting up data
I0112 12:45:22.850044  3030 net.cpp:157] Top shape: 1 3 366 500 (549000)
I0112 12:45:22.850051  3030 net.cpp:157] Top shape: 1 1 366 500 (183000)
I0112 12:45:22.850055  3030 net.cpp:165] Memory required for data: 2928000
I0112 12:45:22.850061  3030 layer_factory.hpp:77] Creating layer data_data_0_split
I0112 12:45:22.850069  3030 net.cpp:100] Creating Layer data_data_0_split
I0112 12:45:22.850075  3030 net.cpp:434] data_data_0_split <- data
I0112 12:45:22.850082  3030 net.cpp:408] data_data_0_split -> data_data_0_split_0
I0112 12:45:22.850091  3030 net.cpp:408] data_data_0_split -> data_data_0_split_1
I0112 12:45:22.850136  3030 net.cpp:150] Setting up data_data_0_split
I0112 12:45:22.850143  3030 net.cpp:157] Top shape: 1 3 366 500 (549000)
I0112 12:45:22.850149  3030 net.cpp:157] Top shape: 1 3 366 500 (549000)
I0112 12:45:22.850153  3030 net.cpp:165] Memory required for data: 7320000
I0112 12:45:22.850157  3030 layer_factory.hpp:77] Creating layer conv1_1
I0112 12:45:22.850168  3030 net.cpp:100] Creating Layer conv1_1
I0112 12:45:22.850173  3030 net.cpp:434] conv1_1 <- data_data_0_split_0
I0112 12:45:22.850180  3030 net.cpp:408] conv1_1 -> conv1_1
I0112 12:45:22.867076  3030 net.cpp:150] Setting up conv1_1
I0112 12:45:22.867095  3030 net.cpp:157] Top shape: 1 64 564 698 (25195008)
I0112 12:45:22.867100  3030 net.cpp:165] Memory required for data: 108100032
I0112 12:45:22.867112  3030 layer_factory.hpp:77] Creating layer relu1_1
I0112 12:45:22.867120  3030 net.cpp:100] Creating Layer relu1_1
I0112 12:45:22.867125  3030 net.cpp:434] relu1_1 <- conv1_1
I0112 12:45:22.867131  3030 net.cpp:395] relu1_1 -> conv1_1 (in-place)
I0112 12:45:22.869293  3030 net.cpp:150] Setting up relu1_1
I0112 12:45:22.869305  3030 net.cpp:157] Top shape: 1 64 564 698 (25195008)
I0112 12:45:22.869309  3030 net.cpp:165] Memory required for data: 208880064
I0112 12:45:22.869314  3030 layer_factory.hpp:77] Creating layer conv1_2
I0112 12:45:22.869324  3030 net.cpp:100] Creating Layer conv1_2
I0112 12:45:22.869329  3030 net.cpp:434] conv1_2 <- conv1_1
I0112 12:45:22.869336  3030 net.cpp:408] conv1_2 -> conv1_2
I0112 12:45:22.875859  3030 net.cpp:150] Setting up conv1_2
I0112 12:45:22.875875  3030 net.cpp:157] Top shape: 1 64 564 698 (25195008)
I0112 12:45:22.875880  3030 net.cpp:165] Memory required for data: 309660096
I0112 12:45:22.875892  3030 layer_factory.hpp:77] Creating layer relu1_2
I0112 12:45:22.875900  3030 net.cpp:100] Creating Layer relu1_2
I0112 12:45:22.875905  3030 net.cpp:434] relu1_2 <- conv1_2
I0112 12:45:22.875911  3030 net.cpp:395] relu1_2 -> conv1_2 (in-place)
I0112 12:45:22.876636  3030 net.cpp:150] Setting up relu1_2
I0112 12:45:22.876649  3030 net.cpp:157] Top shape: 1 64 564 698 (25195008)
I0112 12:45:22.876654  3030 net.cpp:165] Memory required for data: 410440128
I0112 12:45:22.876658  3030 layer_factory.hpp:77] Creating layer pool1
I0112 12:45:22.876667  3030 net.cpp:100] Creating Layer pool1
I0112 12:45:22.876672  3030 net.cpp:434] pool1 <- conv1_2
I0112 12:45:22.876677  3030 net.cpp:408] pool1 -> pool1
I0112 12:45:22.876730  3030 net.cpp:150] Setting up pool1
I0112 12:45:22.876739  3030 net.cpp:157] Top shape: 1 64 282 349 (6298752)
I0112 12:45:22.876742  3030 net.cpp:165] Memory required for data: 435635136
I0112 12:45:22.876746  3030 layer_factory.hpp:77] Creating layer conv2_1
I0112 12:45:22.876756  3030 net.cpp:100] Creating Layer conv2_1
I0112 12:45:22.876760  3030 net.cpp:434] conv2_1 <- pool1
I0112 12:45:22.876768  3030 net.cpp:408] conv2_1 -> conv2_1
I0112 12:45:22.883698  3030 net.cpp:150] Setting up conv2_1
I0112 12:45:22.883715  3030 net.cpp:157] Top shape: 1 128 282 349 (12597504)
I0112 12:45:22.883719  3030 net.cpp:165] Memory required for data: 486025152
I0112 12:45:22.883731  3030 layer_factory.hpp:77] Creating layer relu2_1
I0112 12:45:22.883740  3030 net.cpp:100] Creating Layer relu2_1
I0112 12:45:22.883745  3030 net.cpp:434] relu2_1 <- conv2_1
I0112 12:45:22.883751  3030 net.cpp:395] relu2_1 -> conv2_1 (in-place)
I0112 12:45:22.890288  3030 net.cpp:150] Setting up relu2_1
I0112 12:45:22.890303  3030 net.cpp:157] Top shape: 1 128 282 349 (12597504)
I0112 12:45:22.890307  3030 net.cpp:165] Memory required for data: 536415168
I0112 12:45:22.890312  3030 layer_factory.hpp:77] Creating layer conv2_2
I0112 12:45:22.890322  3030 net.cpp:100] Creating Layer conv2_2
I0112 12:45:22.890327  3030 net.cpp:434] conv2_2 <- conv2_1
I0112 12:45:22.890336  3030 net.cpp:408] conv2_2 -> conv2_2
I0112 12:45:22.895699  3030 net.cpp:150] Setting up conv2_2
I0112 12:45:22.895716  3030 net.cpp:157] Top shape: 1 128 282 349 (12597504)
I0112 12:45:22.895721  3030 net.cpp:165] Memory required for data: 586805184
I0112 12:45:22.895730  3030 layer_factory.hpp:77] Creating layer relu2_2
I0112 12:45:22.895737  3030 net.cpp:100] Creating Layer relu2_2
I0112 12:45:22.895742  3030 net.cpp:434] relu2_2 <- conv2_2
I0112 12:45:22.895750  3030 net.cpp:395] relu2_2 -> conv2_2 (in-place)
I0112 12:45:22.896948  3030 net.cpp:150] Setting up relu2_2
I0112 12:45:22.896960  3030 net.cpp:157] Top shape: 1 128 282 349 (12597504)
I0112 12:45:22.896965  3030 net.cpp:165] Memory required for data: 637195200
I0112 12:45:22.896968  3030 layer_factory.hpp:77] Creating layer pool2
I0112 12:45:22.896976  3030 net.cpp:100] Creating Layer pool2
I0112 12:45:22.896981  3030 net.cpp:434] pool2 <- conv2_2
I0112 12:45:22.896987  3030 net.cpp:408] pool2 -> pool2
I0112 12:45:22.897039  3030 net.cpp:150] Setting up pool2
I0112 12:45:22.897047  3030 net.cpp:157] Top shape: 1 128 141 175 (3158400)
I0112 12:45:22.897052  3030 net.cpp:165] Memory required for data: 649828800
I0112 12:45:22.897055  3030 layer_factory.hpp:77] Creating layer conv3_1
I0112 12:45:22.897064  3030 net.cpp:100] Creating Layer conv3_1
I0112 12:45:22.897069  3030 net.cpp:434] conv3_1 <- pool2
I0112 12:45:22.897076  3030 net.cpp:408] conv3_1 -> conv3_1
I0112 12:45:22.901618  3030 net.cpp:150] Setting up conv3_1
I0112 12:45:22.901634  3030 net.cpp:157] Top shape: 1 256 141 175 (6316800)
I0112 12:45:22.901644  3030 net.cpp:165] Memory required for data: 675096000
I0112 12:45:22.901656  3030 layer_factory.hpp:77] Creating layer relu3_1
I0112 12:45:22.901665  3030 net.cpp:100] Creating Layer relu3_1
I0112 12:45:22.901676  3030 net.cpp:434] relu3_1 <- conv3_1
I0112 12:45:22.901684  3030 net.cpp:395] relu3_1 -> conv3_1 (in-place)
I0112 12:45:22.905746  3030 net.cpp:150] Setting up relu3_1
I0112 12:45:22.905761  3030 net.cpp:157] Top shape: 1 256 141 175 (6316800)
I0112 12:45:22.905766  3030 net.cpp:165] Memory required for data: 700363200
I0112 12:45:22.905771  3030 layer_factory.hpp:77] Creating layer conv3_2
I0112 12:45:22.905781  3030 net.cpp:100] Creating Layer conv3_2
I0112 12:45:22.905787  3030 net.cpp:434] conv3_2 <- conv3_1
I0112 12:45:22.905794  3030 net.cpp:408] conv3_2 -> conv3_2
I0112 12:45:22.913049  3030 net.cpp:150] Setting up conv3_2
I0112 12:45:22.913066  3030 net.cpp:157] Top shape: 1 256 141 175 (6316800)
I0112 12:45:22.913071  3030 net.cpp:165] Memory required for data: 725630400
I0112 12:45:22.913079  3030 layer_factory.hpp:77] Creating layer relu3_2
I0112 12:45:22.913089  3030 net.cpp:100] Creating Layer relu3_2
I0112 12:45:22.913094  3030 net.cpp:434] relu3_2 <- conv3_2
I0112 12:45:22.913100  3030 net.cpp:395] relu3_2 -> conv3_2 (in-place)
I0112 12:45:22.916471  3030 net.cpp:150] Setting up relu3_2
I0112 12:45:22.916483  3030 net.cpp:157] Top shape: 1 256 141 175 (6316800)
I0112 12:45:22.916487  3030 net.cpp:165] Memory required for data: 750897600
I0112 12:45:22.916492  3030 layer_factory.hpp:77] Creating layer conv3_3
I0112 12:45:22.916506  3030 net.cpp:100] Creating Layer conv3_3
I0112 12:45:22.916510  3030 net.cpp:434] conv3_3 <- conv3_2
I0112 12:45:22.916517  3030 net.cpp:408] conv3_3 -> conv3_3
I0112 12:45:22.928064  3030 net.cpp:150] Setting up conv3_3
I0112 12:45:22.928082  3030 net.cpp:157] Top shape: 1 256 141 175 (6316800)
I0112 12:45:22.928086  3030 net.cpp:165] Memory required for data: 776164800
I0112 12:45:22.928095  3030 layer_factory.hpp:77] Creating layer relu3_3
I0112 12:45:22.928104  3030 net.cpp:100] Creating Layer relu3_3
I0112 12:45:22.928109  3030 net.cpp:434] relu3_3 <- conv3_3
I0112 12:45:22.928115  3030 net.cpp:395] relu3_3 -> conv3_3 (in-place)
I0112 12:45:22.931242  3030 net.cpp:150] Setting up relu3_3
I0112 12:45:22.931257  3030 net.cpp:157] Top shape: 1 256 141 175 (6316800)
I0112 12:45:22.931262  3030 net.cpp:165] Memory required for data: 801432000
I0112 12:45:22.931267  3030 layer_factory.hpp:77] Creating layer pool3
I0112 12:45:22.931277  3030 net.cpp:100] Creating Layer pool3
I0112 12:45:22.931282  3030 net.cpp:434] pool3 <- conv3_3
I0112 12:45:22.931288  3030 net.cpp:408] pool3 -> pool3
I0112 12:45:22.931342  3030 net.cpp:150] Setting up pool3
I0112 12:45:22.931350  3030 net.cpp:157] Top shape: 1 256 71 88 (1599488)
I0112 12:45:22.931354  3030 net.cpp:165] Memory required for data: 807829952
I0112 12:45:22.931360  3030 layer_factory.hpp:77] Creating layer pool3_pool3_0_split
I0112 12:45:22.931366  3030 net.cpp:100] Creating Layer pool3_pool3_0_split
I0112 12:45:22.931371  3030 net.cpp:434] pool3_pool3_0_split <- pool3
I0112 12:45:22.931377  3030 net.cpp:408] pool3_pool3_0_split -> pool3_pool3_0_split_0
I0112 12:45:22.931385  3030 net.cpp:408] pool3_pool3_0_split -> pool3_pool3_0_split_1
I0112 12:45:22.931427  3030 net.cpp:150] Setting up pool3_pool3_0_split
I0112 12:45:22.931434  3030 net.cpp:157] Top shape: 1 256 71 88 (1599488)
I0112 12:45:22.931439  3030 net.cpp:157] Top shape: 1 256 71 88 (1599488)
I0112 12:45:22.931443  3030 net.cpp:165] Memory required for data: 820625856
I0112 12:45:22.931447  3030 layer_factory.hpp:77] Creating layer conv4_1
I0112 12:45:22.931458  3030 net.cpp:100] Creating Layer conv4_1
I0112 12:45:22.931463  3030 net.cpp:434] conv4_1 <- pool3_pool3_0_split_0
I0112 12:45:22.931471  3030 net.cpp:408] conv4_1 -> conv4_1
I0112 12:45:22.944615  3030 net.cpp:150] Setting up conv4_1
I0112 12:45:22.944635  3030 net.cpp:157] Top shape: 1 512 71 88 (3198976)
I0112 12:45:22.944640  3030 net.cpp:165] Memory required for data: 833421760
I0112 12:45:22.944649  3030 layer_factory.hpp:77] Creating layer relu4_1
I0112 12:45:22.944658  3030 net.cpp:100] Creating Layer relu4_1
I0112 12:45:22.944664  3030 net.cpp:434] relu4_1 <- conv4_1
I0112 12:45:22.944679  3030 net.cpp:395] relu4_1 -> conv4_1 (in-place)
I0112 12:45:22.946792  3030 net.cpp:150] Setting up relu4_1
I0112 12:45:22.946808  3030 net.cpp:157] Top shape: 1 512 71 88 (3198976)
I0112 12:45:22.946812  3030 net.cpp:165] Memory required for data: 846217664
I0112 12:45:22.946817  3030 layer_factory.hpp:77] Creating layer conv4_2
I0112 12:45:22.946831  3030 net.cpp:100] Creating Layer conv4_2
I0112 12:45:22.946836  3030 net.cpp:434] conv4_2 <- conv4_1
I0112 12:45:22.946846  3030 net.cpp:408] conv4_2 -> conv4_2
I0112 12:45:22.967722  3030 net.cpp:150] Setting up conv4_2
I0112 12:45:22.967751  3030 net.cpp:157] Top shape: 1 512 71 88 (3198976)
I0112 12:45:22.967756  3030 net.cpp:165] Memory required for data: 859013568
I0112 12:45:22.967772  3030 layer_factory.hpp:77] Creating layer relu4_2
I0112 12:45:22.967780  3030 net.cpp:100] Creating Layer relu4_2
I0112 12:45:22.967787  3030 net.cpp:434] relu4_2 <- conv4_2
I0112 12:45:22.967797  3030 net.cpp:395] relu4_2 -> conv4_2 (in-place)
I0112 12:45:22.969903  3030 net.cpp:150] Setting up relu4_2
I0112 12:45:22.969915  3030 net.cpp:157] Top shape: 1 512 71 88 (3198976)
I0112 12:45:22.969920  3030 net.cpp:165] Memory required for data: 871809472
I0112 12:45:22.969925  3030 layer_factory.hpp:77] Creating layer conv4_3
I0112 12:45:22.969938  3030 net.cpp:100] Creating Layer conv4_3
I0112 12:45:22.969944  3030 net.cpp:434] conv4_3 <- conv4_2
I0112 12:45:22.969954  3030 net.cpp:408] conv4_3 -> conv4_3
I0112 12:45:22.992316  3030 net.cpp:150] Setting up conv4_3
I0112 12:45:22.992342  3030 net.cpp:157] Top shape: 1 512 71 88 (3198976)
I0112 12:45:22.992347  3030 net.cpp:165] Memory required for data: 884605376
I0112 12:45:22.992358  3030 layer_factory.hpp:77] Creating layer relu4_3
I0112 12:45:22.992368  3030 net.cpp:100] Creating Layer relu4_3
I0112 12:45:22.992374  3030 net.cpp:434] relu4_3 <- conv4_3
I0112 12:45:22.992384  3030 net.cpp:395] relu4_3 -> conv4_3 (in-place)
I0112 12:45:22.994390  3030 net.cpp:150] Setting up relu4_3
I0112 12:45:22.994402  3030 net.cpp:157] Top shape: 1 512 71 88 (3198976)
I0112 12:45:22.994406  3030 net.cpp:165] Memory required for data: 897401280
I0112 12:45:22.994411  3030 layer_factory.hpp:77] Creating layer pool4
I0112 12:45:22.994423  3030 net.cpp:100] Creating Layer pool4
I0112 12:45:22.994428  3030 net.cpp:434] pool4 <- conv4_3
I0112 12:45:22.994436  3030 net.cpp:408] pool4 -> pool4
I0112 12:45:22.994498  3030 net.cpp:150] Setting up pool4
I0112 12:45:22.994506  3030 net.cpp:157] Top shape: 1 512 36 44 (811008)
I0112 12:45:22.994510  3030 net.cpp:165] Memory required for data: 900645312
I0112 12:45:22.994514  3030 layer_factory.hpp:77] Creating layer pool4_pool4_0_split
I0112 12:45:22.994523  3030 net.cpp:100] Creating Layer pool4_pool4_0_split
I0112 12:45:22.994527  3030 net.cpp:434] pool4_pool4_0_split <- pool4
I0112 12:45:22.994536  3030 net.cpp:408] pool4_pool4_0_split -> pool4_pool4_0_split_0
I0112 12:45:22.994544  3030 net.cpp:408] pool4_pool4_0_split -> pool4_pool4_0_split_1
I0112 12:45:22.994588  3030 net.cpp:150] Setting up pool4_pool4_0_split
I0112 12:45:22.994598  3030 net.cpp:157] Top shape: 1 512 36 44 (811008)
I0112 12:45:22.994603  3030 net.cpp:157] Top shape: 1 512 36 44 (811008)
I0112 12:45:22.994607  3030 net.cpp:165] Memory required for data: 907133376
I0112 12:45:22.994611  3030 layer_factory.hpp:77] Creating layer conv5_1
I0112 12:45:22.994626  3030 net.cpp:100] Creating Layer conv5_1
I0112 12:45:22.994632  3030 net.cpp:434] conv5_1 <- pool4_pool4_0_split_0
I0112 12:45:22.994639  3030 net.cpp:408] conv5_1 -> conv5_1
I0112 12:45:23.020277  3030 net.cpp:150] Setting up conv5_1
I0112 12:45:23.020301  3030 net.cpp:157] Top shape: 1 512 36 44 (811008)
I0112 12:45:23.020306  3030 net.cpp:165] Memory required for data: 910377408
I0112 12:45:23.020318  3030 layer_factory.hpp:77] Creating layer relu5_1
I0112 12:45:23.020328  3030 net.cpp:100] Creating Layer relu5_1
I0112 12:45:23.020334  3030 net.cpp:434] relu5_1 <- conv5_1
I0112 12:45:23.020347  3030 net.cpp:395] relu5_1 -> conv5_1 (in-place)
I0112 12:45:23.022622  3030 net.cpp:150] Setting up relu5_1
I0112 12:45:23.022639  3030 net.cpp:157] Top shape: 1 512 36 44 (811008)
I0112 12:45:23.022642  3030 net.cpp:165] Memory required for data: 913621440
I0112 12:45:23.022647  3030 layer_factory.hpp:77] Creating layer conv5_2
I0112 12:45:23.022662  3030 net.cpp:100] Creating Layer conv5_2
I0112 12:45:23.022667  3030 net.cpp:434] conv5_2 <- conv5_1
I0112 12:45:23.022678  3030 net.cpp:408] conv5_2 -> conv5_2
I0112 12:45:23.044379  3030 net.cpp:150] Setting up conv5_2
I0112 12:45:23.044405  3030 net.cpp:157] Top shape: 1 512 36 44 (811008)
I0112 12:45:23.044410  3030 net.cpp:165] Memory required for data: 916865472
I0112 12:45:23.044420  3030 layer_factory.hpp:77] Creating layer relu5_2
I0112 12:45:23.044433  3030 net.cpp:100] Creating Layer relu5_2
I0112 12:45:23.044440  3030 net.cpp:434] relu5_2 <- conv5_2
I0112 12:45:23.044447  3030 net.cpp:395] relu5_2 -> conv5_2 (in-place)
I0112 12:45:23.046586  3030 net.cpp:150] Setting up relu5_2
I0112 12:45:23.046598  3030 net.cpp:157] Top shape: 1 512 36 44 (811008)
I0112 12:45:23.046602  3030 net.cpp:165] Memory required for data: 920109504
I0112 12:45:23.046607  3030 layer_factory.hpp:77] Creating layer conv5_3
I0112 12:45:23.046630  3030 net.cpp:100] Creating Layer conv5_3
I0112 12:45:23.046636  3030 net.cpp:434] conv5_3 <- conv5_2
I0112 12:45:23.046644  3030 net.cpp:408] conv5_3 -> conv5_3
I0112 12:45:23.072649  3030 net.cpp:150] Setting up conv5_3
I0112 12:45:23.072674  3030 net.cpp:157] Top shape: 1 512 36 44 (811008)
I0112 12:45:23.072679  3030 net.cpp:165] Memory required for data: 923353536
I0112 12:45:23.072690  3030 layer_factory.hpp:77] Creating layer relu5_3
I0112 12:45:23.072703  3030 net.cpp:100] Creating Layer relu5_3
I0112 12:45:23.072710  3030 net.cpp:434] relu5_3 <- conv5_3
I0112 12:45:23.072716  3030 net.cpp:395] relu5_3 -> conv5_3 (in-place)
I0112 12:45:23.075006  3030 net.cpp:150] Setting up relu5_3
I0112 12:45:23.075021  3030 net.cpp:157] Top shape: 1 512 36 44 (811008)
I0112 12:45:23.075026  3030 net.cpp:165] Memory required for data: 926597568
I0112 12:45:23.075031  3030 layer_factory.hpp:77] Creating layer pool5
I0112 12:45:23.075042  3030 net.cpp:100] Creating Layer pool5
I0112 12:45:23.075047  3030 net.cpp:434] pool5 <- conv5_3
I0112 12:45:23.075057  3030 net.cpp:408] pool5 -> pool5
I0112 12:45:23.075117  3030 net.cpp:150] Setting up pool5
I0112 12:45:23.075126  3030 net.cpp:157] Top shape: 1 512 18 22 (202752)
I0112 12:45:23.075130  3030 net.cpp:165] Memory required for data: 927408576
I0112 12:45:23.075135  3030 layer_factory.hpp:77] Creating layer fc6
I0112 12:45:23.075148  3030 net.cpp:100] Creating Layer fc6
I0112 12:45:23.075153  3030 net.cpp:434] fc6 <- pool5
I0112 12:45:23.075163  3030 net.cpp:408] fc6 -> fc6
I0112 12:45:23.825026  3030 net.cpp:150] Setting up fc6
I0112 12:45:23.825073  3030 net.cpp:157] Top shape: 1 4096 12 16 (786432)
I0112 12:45:23.825078  3030 net.cpp:165] Memory required for data: 930554304
I0112 12:45:23.825091  3030 layer_factory.hpp:77] Creating layer relu6
I0112 12:45:23.825106  3030 net.cpp:100] Creating Layer relu6
I0112 12:45:23.825112  3030 net.cpp:434] relu6 <- fc6
I0112 12:45:23.825124  3030 net.cpp:395] relu6 -> fc6 (in-place)
I0112 12:45:23.827350  3030 net.cpp:150] Setting up relu6
I0112 12:45:23.827365  3030 net.cpp:157] Top shape: 1 4096 12 16 (786432)
I0112 12:45:23.827370  3030 net.cpp:165] Memory required for data: 933700032
I0112 12:45:23.827375  3030 layer_factory.hpp:77] Creating layer drop6
I0112 12:45:23.827384  3030 net.cpp:100] Creating Layer drop6
I0112 12:45:23.827389  3030 net.cpp:434] drop6 <- fc6
I0112 12:45:23.827397  3030 net.cpp:395] drop6 -> fc6 (in-place)
I0112 12:45:23.827440  3030 net.cpp:150] Setting up drop6
I0112 12:45:23.827448  3030 net.cpp:157] Top shape: 1 4096 12 16 (786432)
I0112 12:45:23.827452  3030 net.cpp:165] Memory required for data: 936845760
I0112 12:45:23.827457  3030 layer_factory.hpp:77] Creating layer fc7
I0112 12:45:23.827473  3030 net.cpp:100] Creating Layer fc7
I0112 12:45:23.827478  3030 net.cpp:434] fc7 <- fc6
I0112 12:45:23.827497  3030 net.cpp:408] fc7 -> fc7
I0112 12:45:23.949259  3030 net.cpp:150] Setting up fc7
I0112 12:45:23.949303  3030 net.cpp:157] Top shape: 1 4096 12 16 (786432)
I0112 12:45:23.949311  3030 net.cpp:165] Memory required for data: 939991488
I0112 12:45:23.949323  3030 layer_factory.hpp:77] Creating layer relu7
I0112 12:45:23.949337  3030 net.cpp:100] Creating Layer relu7
I0112 12:45:23.949344  3030 net.cpp:434] relu7 <- fc7
I0112 12:45:23.949352  3030 net.cpp:395] relu7 -> fc7 (in-place)
I0112 12:45:23.951630  3030 net.cpp:150] Setting up relu7
I0112 12:45:23.951644  3030 net.cpp:157] Top shape: 1 4096 12 16 (786432)
I0112 12:45:23.951649  3030 net.cpp:165] Memory required for data: 943137216
I0112 12:45:23.951654  3030 layer_factory.hpp:77] Creating layer drop7
I0112 12:45:23.951663  3030 net.cpp:100] Creating Layer drop7
I0112 12:45:23.951668  3030 net.cpp:434] drop7 <- fc7
I0112 12:45:23.951673  3030 net.cpp:395] drop7 -> fc7 (in-place)
I0112 12:45:23.951719  3030 net.cpp:150] Setting up drop7
I0112 12:45:23.951727  3030 net.cpp:157] Top shape: 1 4096 12 16 (786432)
I0112 12:45:23.951731  3030 net.cpp:165] Memory required for data: 946282944
I0112 12:45:23.951736  3030 layer_factory.hpp:77] Creating layer score_fr
I0112 12:45:23.951750  3030 net.cpp:100] Creating Layer score_fr
I0112 12:45:23.951756  3030 net.cpp:434] score_fr <- fc7
I0112 12:45:23.951764  3030 net.cpp:408] score_fr -> score_fr
I0112 12:45:23.959141  3030 net.cpp:150] Setting up score_fr
I0112 12:45:23.959157  3030 net.cpp:157] Top shape: 1 2 12 16 (384)
I0112 12:45:23.959162  3030 net.cpp:165] Memory required for data: 946284480
I0112 12:45:23.959172  3030 layer_factory.hpp:77] Creating layer upscore2
I0112 12:45:23.959184  3030 net.cpp:100] Creating Layer upscore2
I0112 12:45:23.959189  3030 net.cpp:434] upscore2 <- score_fr
I0112 12:45:23.959200  3030 net.cpp:408] upscore2 -> upscore2
I0112 12:45:23.959455  3030 net.cpp:150] Setting up upscore2
I0112 12:45:23.959465  3030 net.cpp:157] Top shape: 1 2 26 34 (1768)
I0112 12:45:23.959470  3030 net.cpp:165] Memory required for data: 946291552
I0112 12:45:23.959486  3030 layer_factory.hpp:77] Creating layer upscore2_upscore2_0_split
I0112 12:45:23.959494  3030 net.cpp:100] Creating Layer upscore2_upscore2_0_split
I0112 12:45:23.959498  3030 net.cpp:434] upscore2_upscore2_0_split <- upscore2
I0112 12:45:23.959506  3030 net.cpp:408] upscore2_upscore2_0_split -> upscore2_upscore2_0_split_0
I0112 12:45:23.959513  3030 net.cpp:408] upscore2_upscore2_0_split -> upscore2_upscore2_0_split_1
I0112 12:45:23.959561  3030 net.cpp:150] Setting up upscore2_upscore2_0_split
I0112 12:45:23.959569  3030 net.cpp:157] Top shape: 1 2 26 34 (1768)
I0112 12:45:23.959574  3030 net.cpp:157] Top shape: 1 2 26 34 (1768)
I0112 12:45:23.959578  3030 net.cpp:165] Memory required for data: 946305696
I0112 12:45:23.959583  3030 layer_factory.hpp:77] Creating layer scale_pool4
I0112 12:45:23.959594  3030 net.cpp:100] Creating Layer scale_pool4
I0112 12:45:23.959599  3030 net.cpp:434] scale_pool4 <- pool4_pool4_0_split_1
I0112 12:45:23.959607  3030 net.cpp:408] scale_pool4 -> scale_pool4
I0112 12:45:23.959734  3030 net.cpp:150] Setting up scale_pool4
I0112 12:45:23.959744  3030 net.cpp:157] Top shape: 1 512 36 44 (811008)
I0112 12:45:23.959748  3030 net.cpp:165] Memory required for data: 949549728
I0112 12:45:23.959754  3030 layer_factory.hpp:77] Creating layer score_pool4
I0112 12:45:23.959766  3030 net.cpp:100] Creating Layer score_pool4
I0112 12:45:23.959771  3030 net.cpp:434] score_pool4 <- scale_pool4
I0112 12:45:23.959780  3030 net.cpp:408] score_pool4 -> score_pool4
I0112 12:45:23.965683  3030 net.cpp:150] Setting up score_pool4
I0112 12:45:23.965699  3030 net.cpp:157] Top shape: 1 2 36 44 (3168)
I0112 12:45:23.965704  3030 net.cpp:165] Memory required for data: 949562400
I0112 12:45:23.965713  3030 layer_factory.hpp:77] Creating layer score_pool4c
I0112 12:45:23.965723  3030 net.cpp:100] Creating Layer score_pool4c
I0112 12:45:23.965728  3030 net.cpp:434] score_pool4c <- score_pool4
I0112 12:45:23.965734  3030 net.cpp:434] score_pool4c <- upscore2_upscore2_0_split_0
I0112 12:45:23.965750  3030 net.cpp:408] score_pool4c -> score_pool4c
I0112 12:45:23.965790  3030 net.cpp:150] Setting up score_pool4c
I0112 12:45:23.965797  3030 net.cpp:157] Top shape: 1 2 26 34 (1768)
I0112 12:45:23.965801  3030 net.cpp:165] Memory required for data: 949569472
I0112 12:45:23.965806  3030 layer_factory.hpp:77] Creating layer fuse_pool4
I0112 12:45:23.965817  3030 net.cpp:100] Creating Layer fuse_pool4
I0112 12:45:23.965822  3030 net.cpp:434] fuse_pool4 <- upscore2_upscore2_0_split_1
I0112 12:45:23.965827  3030 net.cpp:434] fuse_pool4 <- score_pool4c
I0112 12:45:23.965834  3030 net.cpp:408] fuse_pool4 -> fuse_pool4
I0112 12:45:23.965868  3030 net.cpp:150] Setting up fuse_pool4
I0112 12:45:23.965876  3030 net.cpp:157] Top shape: 1 2 26 34 (1768)
I0112 12:45:23.965880  3030 net.cpp:165] Memory required for data: 949576544
I0112 12:45:23.965884  3030 layer_factory.hpp:77] Creating layer upscore_pool4
I0112 12:45:23.965898  3030 net.cpp:100] Creating Layer upscore_pool4
I0112 12:45:23.965903  3030 net.cpp:434] upscore_pool4 <- fuse_pool4
I0112 12:45:23.965911  3030 net.cpp:408] upscore_pool4 -> upscore_pool4
I0112 12:45:23.966153  3030 net.cpp:150] Setting up upscore_pool4
I0112 12:45:23.966163  3030 net.cpp:157] Top shape: 1 2 54 70 (7560)
I0112 12:45:23.966167  3030 net.cpp:165] Memory required for data: 949606784
I0112 12:45:23.966173  3030 layer_factory.hpp:77] Creating layer upscore_pool4_upscore_pool4_0_split
I0112 12:45:23.966181  3030 net.cpp:100] Creating Layer upscore_pool4_upscore_pool4_0_split
I0112 12:45:23.966186  3030 net.cpp:434] upscore_pool4_upscore_pool4_0_split <- upscore_pool4
I0112 12:45:23.966192  3030 net.cpp:408] upscore_pool4_upscore_pool4_0_split -> upscore_pool4_upscore_pool4_0_split_0
I0112 12:45:23.966199  3030 net.cpp:408] upscore_pool4_upscore_pool4_0_split -> upscore_pool4_upscore_pool4_0_split_1
I0112 12:45:23.966246  3030 net.cpp:150] Setting up upscore_pool4_upscore_pool4_0_split
I0112 12:45:23.966253  3030 net.cpp:157] Top shape: 1 2 54 70 (7560)
I0112 12:45:23.966259  3030 net.cpp:157] Top shape: 1 2 54 70 (7560)
I0112 12:45:23.966262  3030 net.cpp:165] Memory required for data: 949667264
I0112 12:45:23.966266  3030 layer_factory.hpp:77] Creating layer scale_pool3
I0112 12:45:23.966276  3030 net.cpp:100] Creating Layer scale_pool3
I0112 12:45:23.966281  3030 net.cpp:434] scale_pool3 <- pool3_pool3_0_split_1
I0112 12:45:23.966289  3030 net.cpp:408] scale_pool3 -> scale_pool3
I0112 12:45:23.966406  3030 net.cpp:150] Setting up scale_pool3
I0112 12:45:23.966415  3030 net.cpp:157] Top shape: 1 256 71 88 (1599488)
I0112 12:45:23.966418  3030 net.cpp:165] Memory required for data: 956065216
I0112 12:45:23.966424  3030 layer_factory.hpp:77] Creating layer score_pool3
I0112 12:45:23.966436  3030 net.cpp:100] Creating Layer score_pool3
I0112 12:45:23.966441  3030 net.cpp:434] score_pool3 <- scale_pool3
I0112 12:45:23.966450  3030 net.cpp:408] score_pool3 -> score_pool3
I0112 12:45:23.972373  3030 net.cpp:150] Setting up score_pool3
I0112 12:45:23.972391  3030 net.cpp:157] Top shape: 1 2 71 88 (12496)
I0112 12:45:23.972395  3030 net.cpp:165] Memory required for data: 956115200
I0112 12:45:23.972404  3030 layer_factory.hpp:77] Creating layer score_pool3c
I0112 12:45:23.972414  3030 net.cpp:100] Creating Layer score_pool3c
I0112 12:45:23.972419  3030 net.cpp:434] score_pool3c <- score_pool3
I0112 12:45:23.972424  3030 net.cpp:434] score_pool3c <- upscore_pool4_upscore_pool4_0_split_0
I0112 12:45:23.972434  3030 net.cpp:408] score_pool3c -> score_pool3c
I0112 12:45:23.972470  3030 net.cpp:150] Setting up score_pool3c
I0112 12:45:23.972481  3030 net.cpp:157] Top shape: 1 2 54 70 (7560)
I0112 12:45:23.972486  3030 net.cpp:165] Memory required for data: 956145440
I0112 12:45:23.972489  3030 layer_factory.hpp:77] Creating layer fuse_pool3
I0112 12:45:23.972497  3030 net.cpp:100] Creating Layer fuse_pool3
I0112 12:45:23.972501  3030 net.cpp:434] fuse_pool3 <- upscore_pool4_upscore_pool4_0_split_1
I0112 12:45:23.972507  3030 net.cpp:434] fuse_pool3 <- score_pool3c
I0112 12:45:23.972519  3030 net.cpp:408] fuse_pool3 -> fuse_pool3
I0112 12:45:23.972554  3030 net.cpp:150] Setting up fuse_pool3
I0112 12:45:23.972563  3030 net.cpp:157] Top shape: 1 2 54 70 (7560)
I0112 12:45:23.972566  3030 net.cpp:165] Memory required for data: 956175680
I0112 12:45:23.972570  3030 layer_factory.hpp:77] Creating layer upscore8
I0112 12:45:23.972580  3030 net.cpp:100] Creating Layer upscore8
I0112 12:45:23.972585  3030 net.cpp:434] upscore8 <- fuse_pool3
I0112 12:45:23.972594  3030 net.cpp:408] upscore8 -> upscore8
I0112 12:45:23.972841  3030 net.cpp:150] Setting up upscore8
I0112 12:45:23.972849  3030 net.cpp:157] Top shape: 1 2 440 568 (499840)
I0112 12:45:23.972853  3030 net.cpp:165] Memory required for data: 958175040
I0112 12:45:23.972859  3030 layer_factory.hpp:77] Creating layer score
I0112 12:45:23.972867  3030 net.cpp:100] Creating Layer score
I0112 12:45:23.972872  3030 net.cpp:434] score <- upscore8
I0112 12:45:23.972878  3030 net.cpp:434] score <- data_data_0_split_1
I0112 12:45:23.972885  3030 net.cpp:408] score -> score
I0112 12:45:23.972918  3030 net.cpp:150] Setting up score
I0112 12:45:23.972924  3030 net.cpp:157] Top shape: 1 2 366 500 (366000)
I0112 12:45:23.972929  3030 net.cpp:165] Memory required for data: 959639040
I0112 12:45:23.972932  3030 layer_factory.hpp:77] Creating layer loss
I0112 12:45:23.972940  3030 net.cpp:100] Creating Layer loss
I0112 12:45:23.972945  3030 net.cpp:434] loss <- score
I0112 12:45:23.972950  3030 net.cpp:434] loss <- label
I0112 12:45:23.972959  3030 net.cpp:408] loss -> loss
I0112 12:45:23.972970  3030 layer_factory.hpp:77] Creating layer loss
…
