…
test_initialization: false
average_loss: 20
iter_size: 1
I0202 02:59:09.091039 21257 solver.cpp:81] Creating training net from train_net file: train.prototxt
I0202 02:59:09.092347 21257 net.cpp:58] Initializing net from parameters: 
state {
  phase: TRAIN
}
layer {
  name: "data"
  type: "Python"
  top: "data"
  top: "label"
  python_param {
    module: "voc_layers"
    layer: "ObfSBDDSegDataLayer"
    param_str: "{\'sbdd_dir\': \'../data/sbdd/dataset\', \'seed\': 1337, \'split\': \'train15_single_inst\', \'mean\': (104.00699, 116.66877, 122.67892)}"
  }
}
layer {
  name: "conv1_1"
  type: "Convolution"
  bottom: "data"
  top: "conv1_1"
  param {
    lr_mult: 1
    decay_mult: 1
  }
  param {
    lr_mult: 2
    decay_mult: 0
  }
  convolution_param {
    num_output: 64
    pad: 100
    kernel_size: 3
    stride: 1
    weight_filler {
      type: "xavier"
    }
  }
}
layer {
  name: "relu1_1"
  type: "ReLU"
  bottom: "conv1_1"
  top: "conv1_1"
}
layer {
  name: "conv1_2"
  type: "Convolution"
  bottom: "conv1_1"
  top: "conv1_2"
  param {
    lr_mult: 1
    decay_mult: 1
  }
  param {
    lr_mult: 2
    decay_mult: 0
  }
  convolution_param {
    num_output: 64
    pad: 1
    kernel_size: 3
    stride: 1
    weight_filler {
      type: "xavier"
    }
  }
}
layer {
  name: "relu1_2"
  type: "ReLU"
  bottom: "conv1_2"
  top: "conv1_2"
}
layer {
  name: "pool1"
  type: "Pooling"
  bottom: "conv1_2"
  top: "pool1"
  pooling_param {
    pool: MAX
    kernel_size: 2
    stride: 2
  }
}
layer {
  name: "conv2_1"
  type: "Convolution"
  bottom: "pool1"
  top: "conv2_1"
  param {
    lr_mult: 1
    decay_mult: 1
  }
  param {
    lr_mult: 2
    decay_mult: 0
  }
  convolution_param {
    num_output: 128
    pad: 1
    kernel_size: 3
    stride: 1
    weight_filler {
      type: "xavier"
    }
  }
}
layer {
  name: "relu2_1"
  type: "ReLU"
  bottom: "conv2_1"
  top: "conv2_1"
}
layer {
  name: "conv2_2"
  type: "Convolution"
  bottom: "conv2_1"
  top: "conv2_2"
  param {
    lr_mult: 1
    decay_mult: 1
  }
  param {
    lr_mult: 2
    decay_mult: 0
  }
  convolution_param {
    num_output: 128
    pad: 1
    kernel_size: 3
    stride: 1
    weight_filler {
      type: "xavier"
    }
  }
}
layer {
  name: "relu2_2"
  type: "ReLU"
  bottom: "conv2_2"
  top: "conv2_2"
}
layer {
  name: "pool2"
  type: "Pooling"
  bottom: "conv2_2"
  top: "pool2"
  pooling_param {
    pool: MAX
    kernel_size: 2
    stride: 2
  }
}
layer {
  name: "conv3_1"
  type: "Convolution"
  bottom: "pool2"
  top: "conv3_1"
  param {
    lr_mult: 1
    decay_mult: 1
  }
  param {
    lr_mult: 2
    decay_mult: 0
  }
  convolution_param {
    num_output: 256
    pad: 1
    kernel_size: 3
    stride: 1
    weight_filler {
      type: "xavier"
    }
  }
}
layer {
  name: "relu3_1"
  type: "ReLU"
  bottom: "conv3_1"
  top: "conv3_1"
}
layer {
  name: "conv3_2"
  type: "Convolution"
  bottom: "conv3_1"
  top: "conv3_2"
  param {
    lr_mult: 1
    decay_mult: 1
  }
  param {
    lr_mult: 2
    decay_mult: 0
  }
  convolution_param {
    num_output: 256
    pad: 1
    kernel_size: 3
    stride: 1
    weight_filler {
      type: "xavier"
    }
  }
}
layer {
  name: "relu3_2"
  type: "ReLU"
  bottom: "conv3_2"
  top: "conv3_2"
}
layer {
  name: "conv3_3"
  type: "Convolution"
  bottom: "conv3_2"
  top: "conv3_3"
  param {
    lr_mult: 1
    decay_mult: 1
  }
  param {
    lr_mult: 2
    decay_mult: 0
  }
  convolution_param {
    num_output: 256
    pad: 1
    kernel_size: 3
    stride: 1
    weight_filler {
      type: "xavier"
    }
  }
}
layer {
  name: "relu3_3"
  type: "ReLU"
  bottom: "conv3_3"
  top: "conv3_3"
}
layer {
  name: "pool3"
  type: "Pooling"
  bottom: "conv3_3"
  top: "pool3"
  pooling_param {
    pool: MAX
    kernel_size: 2
    stride: 2
  }
}
layer {
  name: "conv4_1"
  type: "Convolution"
  bottom: "pool3"
  top: "conv4_1"
  param {
    lr_mult: 1
    decay_mult: 1
  }
  param {
    lr_mult: 2
    decay_mult: 0
  }
  convolution_param {
    num_output: 512
    pad: 1
    kernel_size: 3
    stride: 1
    weight_filler {
      type: "xavier"
    }
  }
}
layer {
  name: "relu4_1"
  type: "ReLU"
  bottom: "conv4_1"
  top: "conv4_1"
}
layer {
  name: "conv4_2"
  type: "Convolution"
  bottom: "conv4_1"
  top: "conv4_2"
  param {
    lr_mult: 1
    decay_mult: 1
  }
  param {
    lr_mult: 2
    decay_mult: 0
  }
  convolution_param {
    num_output: 512
    pad: 1
    kernel_size: 3
    stride: 1
    weight_filler {
      type: "xavier"
    }
  }
}
layer {
  name: "relu4_2"
  type: "ReLU"
  bottom: "conv4_2"
  top: "conv4_2"
}
layer {
  name: "conv4_3"
  type: "Convolution"
  bottom: "conv4_2"
  top: "conv4_3"
  param {
    lr_mult: 1
    decay_mult: 1
  }
  param {
    lr_mult: 2
    decay_mult: 0
  }
  convolution_param {
    num_output: 512
    pad: 1
    kernel_size: 3
    stride: 1
    weight_filler {
      type: "xavier"
    }
  }
}
layer {
  name: "relu4_3"
  type: "ReLU"
  bottom: "conv4_3"
  top: "conv4_3"
}
layer {
  name: "pool4"
  type: "Pooling"
  bottom: "conv4_3"
  top: "pool4"
  pooling_param {
    pool: MAX
    kernel_size: 2
    stride: 2
  }
}
layer {
  name: "conv5_1"
  type: "Convolution"
  bottom: "pool4"
  top: "conv5_1"
  param {
    lr_mult: 1
    decay_mult: 1
  }
  param {
    lr_mult: 2
    decay_mult: 0
  }
  convolution_param {
    num_output: 512
    pad: 1
    kernel_size: 3
    stride: 1
    weight_filler {
      type: "xavier"
    }
  }
}
layer {
  name: "relu5_1"
  type: "ReLU"
  bottom: "conv5_1"
  top: "conv5_1"
}
layer {
  name: "conv5_2"
  type: "Convolution"
  bottom: "conv5_1"
  top: "conv5_2"
  param {
    lr_mult: 1
    decay_mult: 1
  }
  param {
    lr_mult: 2
    decay_mult: 0
  }
  convolution_param {
    num_output: 512
    pad: 1
    kernel_size: 3
    stride: 1
    weight_filler {
      type: "xavier"
    }
  }
}
layer {
  name: "relu5_2"
  type: "ReLU"
  bottom: "conv5_2"
  top: "conv5_2"
}
layer {
  name: "conv5_3"
  type: "Convolution"
  bottom: "conv5_2"
  top: "conv5_3"
  param {
    lr_mult: 1
    decay_mult: 1
  }
  param {
    lr_mult: 2
    decay_mult: 0
  }
  convolution_param {
    num_output: 512
    pad: 1
    kernel_size: 3
    stride: 1
    weight_filler {
      type: "xavier"
    }
  }
}
layer {
  name: "relu5_3"
  type: "ReLU"
  bottom: "conv5_3"
  top: "conv5_3"
}
layer {
  name: "pool5"
  type: "Pooling"
  bottom: "conv5_3"
  top: "pool5"
  pooling_param {
    pool: MAX
    kernel_size: 2
    stride: 2
  }
}
layer {
  name: "fc6"
  type: "Convolution"
  bottom: "pool5"
  top: "fc6"
  param {
    lr_mult: 1
    decay_mult: 1
  }
  param {
    lr_mult: 2
    decay_mult: 0
  }
  convolution_param {
    num_output: 4096
    pad: 0
    kernel_size: 7
    stride: 1
    weight_filler {
      type: "xavier"
    }
  }
}
layer {
  name: "relu6"
  type: "ReLU"
  bottom: "fc6"
  top: "fc6"
}
layer {
  name: "drop6"
  type: "Dropout"
  bottom: "fc6"
  top: "fc6"
  dropout_param {
    dropout_ratio: 0.5
  }
}
layer {
  name: "fc7"
  type: "Convolution"
  bottom: "fc6"
  top: "fc7"
  param {
    lr_mult: 1
    decay_mult: 1
  }
  param {
    lr_mult: 2
    decay_mult: 0
  }
  convolution_param {
    num_output: 4096
    pad: 0
    kernel_size: 1
    stride: 1
    weight_filler {
      type: "xavier"
    }
  }
}
layer {
  name: "relu7"
  type: "ReLU"
  bottom: "fc7"
  top: "fc7"
}
layer {
  name: "drop7"
  type: "Dropout"
  bottom: "fc7"
  top: "fc7"
  dropout_param {
    dropout_ratio: 0.5
  }
}
layer {
  name: "score_fr"
  type: "Convolution"
  bottom: "fc7"
  top: "score_fr"
  param {
    lr_mult: 1
    decay_mult: 1
  }
  param {
    lr_mult: 2
    decay_mult: 0
  }
  convolution_param {
    num_output: 2
    pad: 0
    kernel_size: 1
    weight_filler {
      type: "xavier"
    }
  }
}
layer {
  name: "upscore2"
  type: "Deconvolution"
  bottom: "score_fr"
  top: "upscore2"
  param {
    lr_mult: 0
  }
  convolution_param {
    num_output: 2
    bias_term: false
    kernel_size: 4
    stride: 2
    weight_filler {
      type: "xavier"
    }
  }
}
layer {
  name: "scale_pool4"
  type: "Scale"
  bottom: "pool4"
  top: "scale_pool4"
  param {
    lr_mult: 0
  }
  scale_param {
    filler {
      type: "constant"
      value: 0.01
    }
  }
}
layer {
  name: "score_pool4"
  type: "Convolution"
  bottom: "scale_pool4"
  top: "score_pool4"
  param {
    lr_mult: 1
    decay_mult: 1
  }
  param {
    lr_mult: 2
    decay_mult: 0
  }
  convolution_param {
    num_output: 2
    pad: 0
    kernel_size: 1
    weight_filler {
      type: "xavier"
    }
  }
}
layer {
  name: "score_pool4c"
  type: "Crop"
  bottom: "score_pool4"
  bottom: "upscore2"
  top: "score_pool4c"
  crop_param {
    axis: 2
    offset: 5
  }
}
layer {
  name: "fuse_pool4"
  type: "Eltwise"
  bottom: "upscore2"
  bottom: "score_pool4c"
  top: "fuse_pool4"
  eltwise_param {
    operation: SUM
  }
}
layer {
  name: "upscore_pool4"
  type: "Deconvolution"
  bottom: "fuse_pool4"
  top: "upscore_pool4"
  param {
    lr_mult: 0
  }
  convolution_param {
    num_output: 2
    bias_term: false
    kernel_size: 4
    stride: 2
    weight_filler {
      type: "xavier"
    }
  }
}
layer {
  name: "scale_pool3"
  type: "Scale"
  bottom: "pool3"
  top: "scale_pool3"
  param {
    lr_mult: 0
  }
  scale_param {
    filler {
      type: "constant"
      value: 0.0001
    }
  }
}
layer {
  name: "score_pool3"
  type: "Convolution"
  bottom: "scale_pool3"
  top: "score_pool3"
  param {
    lr_mult: 1
    decay_mult: 1
  }
  param {
    lr_mult: 2
    decay_mult: 0
  }
  convolution_param {
    num_output: 2
    pad: 0
    kernel_size: 1
    weight_filler {
      type: "xavier"
    }
  }
}
layer {
  name: "score_pool3c"
  type: "Crop"
  bottom: "score_pool3"
  bottom: "upscore_pool4"
  top: "score_pool3c"
  crop_param {
    axis: 2
    offset: 9
  }
}
layer {
  name: "fuse_pool3"
  type: "Eltwise"
  bottom: "upscore_pool4"
  bottom: "score_pool3c"
  top: "fuse_pool3"
  eltwise_param {
    operation: SUM
  }
}
layer {
  name: "upscore8"
  type: "Deconvolution"
  bottom: "fuse_pool3"
  top: "upscore8"
  param {
    lr_mult: 0
  }
  convolution_param {
    num_output: 2
    bias_term: false
    kernel_size: 16
    stride: 8
    weight_filler {
      type: "xavier"
    }
  }
}
layer {
  name: "score"
  type: "Crop"
  bottom: "upscore8"
  bottom: "data"
  top: "score"
  crop_param {
    axis: 2
    offset: 31
  }
}
layer {
  name: "loss"
  type: "SoftmaxWithLoss"
  bottom: "score"
  bottom: "label"
  top: "loss"
  loss_param {
    ignore_label: 255
    normalize: false
  }
}
I0202 02:59:09.092597 21257 layer_factory.hpp:77] Creating layer data
I0202 02:59:09.093230 21257 net.cpp:100] Creating Layer data
I0202 02:59:09.093245 21257 net.cpp:408] data -> data
I0202 02:59:09.093261 21257 net.cpp:408] data -> label
I0202 02:59:09.483254 21257 net.cpp:150] Setting up data
I0202 02:59:09.483299 21257 net.cpp:157] Top shape: 1 3 375 500 (562500)
I0202 02:59:09.483309 21257 net.cpp:157] Top shape: 1 1 375 500 (187500)
I0202 02:59:09.483316 21257 net.cpp:165] Memory required for data: 3000000
I0202 02:59:09.483328 21257 layer_factory.hpp:77] Creating layer data_data_0_split
I0202 02:59:09.483348 21257 net.cpp:100] Creating Layer data_data_0_split
I0202 02:59:09.483356 21257 net.cpp:434] data_data_0_split <- data
I0202 02:59:09.483371 21257 net.cpp:408] data_data_0_split -> data_data_0_split_0
I0202 02:59:09.483388 21257 net.cpp:408] data_data_0_split -> data_data_0_split_1
I0202 02:59:09.483440 21257 net.cpp:150] Setting up data_data_0_split
I0202 02:59:09.483453 21257 net.cpp:157] Top shape: 1 3 375 500 (562500)
I0202 02:59:09.483461 21257 net.cpp:157] Top shape: 1 3 375 500 (562500)
I0202 02:59:09.483469 21257 net.cpp:165] Memory required for data: 7500000
I0202 02:59:09.483475 21257 layer_factory.hpp:77] Creating layer conv1_1
I0202 02:59:09.483500 21257 net.cpp:100] Creating Layer conv1_1
I0202 02:59:09.483507 21257 net.cpp:434] conv1_1 <- data_data_0_split_0
I0202 02:59:09.483530 21257 net.cpp:408] conv1_1 -> conv1_1
I0202 02:59:09.804116 21257 net.cpp:150] Setting up conv1_1
I0202 02:59:09.804169 21257 net.cpp:157] Top shape: 1 64 573 698 (25597056)
I0202 02:59:09.804178 21257 net.cpp:165] Memory required for data: 109888224
I0202 02:59:09.804204 21257 layer_factory.hpp:77] Creating layer relu1_1
I0202 02:59:09.804221 21257 net.cpp:100] Creating Layer relu1_1
I0202 02:59:09.804230 21257 net.cpp:434] relu1_1 <- conv1_1
I0202 02:59:09.804240 21257 net.cpp:395] relu1_1 -> conv1_1 (in-place)
I0202 02:59:09.804688 21257 net.cpp:150] Setting up relu1_1
I0202 02:59:09.804707 21257 net.cpp:157] Top shape: 1 64 573 698 (25597056)
I0202 02:59:09.804714 21257 net.cpp:165] Memory required for data: 212276448
I0202 02:59:09.804723 21257 layer_factory.hpp:77] Creating layer conv1_2
I0202 02:59:09.804744 21257 net.cpp:100] Creating Layer conv1_2
I0202 02:59:09.804751 21257 net.cpp:434] conv1_2 <- conv1_1
I0202 02:59:09.804762 21257 net.cpp:408] conv1_2 -> conv1_2
I0202 02:59:09.808401 21257 net.cpp:150] Setting up conv1_2
I0202 02:59:09.808423 21257 net.cpp:157] Top shape: 1 64 573 698 (25597056)
I0202 02:59:09.808430 21257 net.cpp:165] Memory required for data: 314664672
I0202 02:59:09.808450 21257 layer_factory.hpp:77] Creating layer relu1_2
I0202 02:59:09.808462 21257 net.cpp:100] Creating Layer relu1_2
I0202 02:59:09.808470 21257 net.cpp:434] relu1_2 <- conv1_2
I0202 02:59:09.808480 21257 net.cpp:395] relu1_2 -> conv1_2 (in-place)
I0202 02:59:09.808979 21257 net.cpp:150] Setting up relu1_2
I0202 02:59:09.808997 21257 net.cpp:157] Top shape: 1 64 573 698 (25597056)
I0202 02:59:09.809005 21257 net.cpp:165] Memory required for data: 417052896
I0202 02:59:09.809011 21257 layer_factory.hpp:77] Creating layer pool1
I0202 02:59:09.809028 21257 net.cpp:100] Creating Layer pool1
I0202 02:59:09.809036 21257 net.cpp:434] pool1 <- conv1_2
I0202 02:59:09.809046 21257 net.cpp:408] pool1 -> pool1
I0202 02:59:09.809113 21257 net.cpp:150] Setting up pool1
I0202 02:59:09.809125 21257 net.cpp:157] Top shape: 1 64 287 349 (6410432)
I0202 02:59:09.809132 21257 net.cpp:165] Memory required for data: 442694624
I0202 02:59:09.809139 21257 layer_factory.hpp:77] Creating layer conv2_1
I0202 02:59:09.809155 21257 net.cpp:100] Creating Layer conv2_1
I0202 02:59:09.809164 21257 net.cpp:434] conv2_1 <- pool1
I0202 02:59:09.809173 21257 net.cpp:408] conv2_1 -> conv2_1
I0202 02:59:09.812393 21257 net.cpp:150] Setting up conv2_1
I0202 02:59:09.812414 21257 net.cpp:157] Top shape: 1 128 287 349 (12820864)
I0202 02:59:09.812422 21257 net.cpp:165] Memory required for data: 493978080
I0202 02:59:09.812441 21257 layer_factory.hpp:77] Creating layer relu2_1
I0202 02:59:09.812454 21257 net.cpp:100] Creating Layer relu2_1
I0202 02:59:09.812461 21257 net.cpp:434] relu2_1 <- conv2_1
I0202 02:59:09.812471 21257 net.cpp:395] relu2_1 -> conv2_1 (in-place)
I0202 02:59:09.812739 21257 net.cpp:150] Setting up relu2_1
I0202 02:59:09.812754 21257 net.cpp:157] Top shape: 1 128 287 349 (12820864)
I0202 02:59:09.812762 21257 net.cpp:165] Memory required for data: 545261536
I0202 02:59:09.812768 21257 layer_factory.hpp:77] Creating layer conv2_2
I0202 02:59:09.812785 21257 net.cpp:100] Creating Layer conv2_2
I0202 02:59:09.812793 21257 net.cpp:434] conv2_2 <- conv2_1
I0202 02:59:09.812804 21257 net.cpp:408] conv2_2 -> conv2_2
I0202 02:59:09.816462 21257 net.cpp:150] Setting up conv2_2
I0202 02:59:09.816484 21257 net.cpp:157] Top shape: 1 128 287 349 (12820864)
I0202 02:59:09.816493 21257 net.cpp:165] Memory required for data: 596544992
I0202 02:59:09.816504 21257 layer_factory.hpp:77] Creating layer relu2_2
I0202 02:59:09.816519 21257 net.cpp:100] Creating Layer relu2_2
I0202 02:59:09.816526 21257 net.cpp:434] relu2_2 <- conv2_2
I0202 02:59:09.816536 21257 net.cpp:395] relu2_2 -> conv2_2 (in-place)
I0202 02:59:09.817939 21257 net.cpp:150] Setting up relu2_2
I0202 02:59:09.817958 21257 net.cpp:157] Top shape: 1 128 287 349 (12820864)
I0202 02:59:09.817965 21257 net.cpp:165] Memory required for data: 647828448
I0202 02:59:09.817986 21257 layer_factory.hpp:77] Creating layer pool2
I0202 02:59:09.817997 21257 net.cpp:100] Creating Layer pool2
I0202 02:59:09.818004 21257 net.cpp:434] pool2 <- conv2_2
I0202 02:59:09.818017 21257 net.cpp:408] pool2 -> pool2
I0202 02:59:09.818078 21257 net.cpp:150] Setting up pool2
I0202 02:59:09.818090 21257 net.cpp:157] Top shape: 1 128 144 175 (3225600)
I0202 02:59:09.818097 21257 net.cpp:165] Memory required for data: 660730848
I0202 02:59:09.818104 21257 layer_factory.hpp:77] Creating layer conv3_1
I0202 02:59:09.818122 21257 net.cpp:100] Creating Layer conv3_1
I0202 02:59:09.818130 21257 net.cpp:434] conv3_1 <- pool2
I0202 02:59:09.818140 21257 net.cpp:408] conv3_1 -> conv3_1
I0202 02:59:09.822940 21257 net.cpp:150] Setting up conv3_1
I0202 02:59:09.822962 21257 net.cpp:157] Top shape: 1 256 144 175 (6451200)
I0202 02:59:09.822969 21257 net.cpp:165] Memory required for data: 686535648
I0202 02:59:09.822988 21257 layer_factory.hpp:77] Creating layer relu3_1
I0202 02:59:09.822999 21257 net.cpp:100] Creating Layer relu3_1
I0202 02:59:09.823006 21257 net.cpp:434] relu3_1 <- conv3_1
I0202 02:59:09.823016 21257 net.cpp:395] relu3_1 -> conv3_1 (in-place)
I0202 02:59:09.823487 21257 net.cpp:150] Setting up relu3_1
I0202 02:59:09.823503 21257 net.cpp:157] Top shape: 1 256 144 175 (6451200)
I0202 02:59:09.823511 21257 net.cpp:165] Memory required for data: 712340448
I0202 02:59:09.823518 21257 layer_factory.hpp:77] Creating layer conv3_2
I0202 02:59:09.823536 21257 net.cpp:100] Creating Layer conv3_2
I0202 02:59:09.823545 21257 net.cpp:434] conv3_2 <- conv3_1
I0202 02:59:09.823557 21257 net.cpp:408] conv3_2 -> conv3_2
I0202 02:59:09.831799 21257 net.cpp:150] Setting up conv3_2
I0202 02:59:09.831822 21257 net.cpp:157] Top shape: 1 256 144 175 (6451200)
I0202 02:59:09.831830 21257 net.cpp:165] Memory required for data: 738145248
I0202 02:59:09.831843 21257 layer_factory.hpp:77] Creating layer relu3_2
I0202 02:59:09.831854 21257 net.cpp:100] Creating Layer relu3_2
I0202 02:59:09.831861 21257 net.cpp:434] relu3_2 <- conv3_2
I0202 02:59:09.831871 21257 net.cpp:395] relu3_2 -> conv3_2 (in-place)
I0202 02:59:09.832137 21257 net.cpp:150] Setting up relu3_2
I0202 02:59:09.832151 21257 net.cpp:157] Top shape: 1 256 144 175 (6451200)
I0202 02:59:09.832159 21257 net.cpp:165] Memory required for data: 763950048
I0202 02:59:09.832165 21257 layer_factory.hpp:77] Creating layer conv3_3
I0202 02:59:09.832185 21257 net.cpp:100] Creating Layer conv3_3
I0202 02:59:09.832191 21257 net.cpp:434] conv3_3 <- conv3_2
I0202 02:59:09.832204 21257 net.cpp:408] conv3_3 -> conv3_3
I0202 02:59:09.840466 21257 net.cpp:150] Setting up conv3_3
I0202 02:59:09.840487 21257 net.cpp:157] Top shape: 1 256 144 175 (6451200)
I0202 02:59:09.840495 21257 net.cpp:165] Memory required for data: 789754848
I0202 02:59:09.840507 21257 layer_factory.hpp:77] Creating layer relu3_3
I0202 02:59:09.840519 21257 net.cpp:100] Creating Layer relu3_3
I0202 02:59:09.840526 21257 net.cpp:434] relu3_3 <- conv3_3
I0202 02:59:09.840538 21257 net.cpp:395] relu3_3 -> conv3_3 (in-place)
I0202 02:59:09.840999 21257 net.cpp:150] Setting up relu3_3
I0202 02:59:09.841017 21257 net.cpp:157] Top shape: 1 256 144 175 (6451200)
I0202 02:59:09.841024 21257 net.cpp:165] Memory required for data: 815559648
I0202 02:59:09.841032 21257 layer_factory.hpp:77] Creating layer pool3
I0202 02:59:09.841043 21257 net.cpp:100] Creating Layer pool3
I0202 02:59:09.841051 21257 net.cpp:434] pool3 <- conv3_3
I0202 02:59:09.841063 21257 net.cpp:408] pool3 -> pool3
I0202 02:59:09.841126 21257 net.cpp:150] Setting up pool3
I0202 02:59:09.841137 21257 net.cpp:157] Top shape: 1 256 72 88 (1622016)
I0202 02:59:09.841145 21257 net.cpp:165] Memory required for data: 822047712
I0202 02:59:09.841151 21257 layer_factory.hpp:77] Creating layer pool3_pool3_0_split
I0202 02:59:09.841163 21257 net.cpp:100] Creating Layer pool3_pool3_0_split
I0202 02:59:09.841171 21257 net.cpp:434] pool3_pool3_0_split <- pool3
I0202 02:59:09.841181 21257 net.cpp:408] pool3_pool3_0_split -> pool3_pool3_0_split_0
I0202 02:59:09.841190 21257 net.cpp:408] pool3_pool3_0_split -> pool3_pool3_0_split_1
I0202 02:59:09.841250 21257 net.cpp:150] Setting up pool3_pool3_0_split
I0202 02:59:09.841262 21257 net.cpp:157] Top shape: 1 256 72 88 (1622016)
I0202 02:59:09.841271 21257 net.cpp:157] Top shape: 1 256 72 88 (1622016)
I0202 02:59:09.841277 21257 net.cpp:165] Memory required for data: 835023840
I0202 02:59:09.841284 21257 layer_factory.hpp:77] Creating layer conv4_1
I0202 02:59:09.841300 21257 net.cpp:100] Creating Layer conv4_1
I0202 02:59:09.841308 21257 net.cpp:434] conv4_1 <- pool3_pool3_0_split_0
I0202 02:59:09.841321 21257 net.cpp:408] conv4_1 -> conv4_1
I0202 02:59:09.857746 21257 net.cpp:150] Setting up conv4_1
I0202 02:59:09.857790 21257 net.cpp:157] Top shape: 1 512 72 88 (3244032)
I0202 02:59:09.857798 21257 net.cpp:165] Memory required for data: 847999968
I0202 02:59:09.857811 21257 layer_factory.hpp:77] Creating layer relu4_1
I0202 02:59:09.857826 21257 net.cpp:100] Creating Layer relu4_1
I0202 02:59:09.857834 21257 net.cpp:434] relu4_1 <- conv4_1
I0202 02:59:09.857844 21257 net.cpp:395] relu4_1 -> conv4_1 (in-place)
I0202 02:59:09.858315 21257 net.cpp:150] Setting up relu4_1
I0202 02:59:09.858335 21257 net.cpp:157] Top shape: 1 512 72 88 (3244032)
I0202 02:59:09.858342 21257 net.cpp:165] Memory required for data: 860976096
I0202 02:59:09.858350 21257 layer_factory.hpp:77] Creating layer conv4_2
I0202 02:59:09.858366 21257 net.cpp:100] Creating Layer conv4_2
I0202 02:59:09.858373 21257 net.cpp:434] conv4_2 <- conv4_1
I0202 02:59:09.858386 21257 net.cpp:408] conv4_2 -> conv4_2
I0202 02:59:09.886157 21257 net.cpp:150] Setting up conv4_2
I0202 02:59:09.886184 21257 net.cpp:157] Top shape: 1 512 72 88 (3244032)
I0202 02:59:09.886191 21257 net.cpp:165] Memory required for data: 873952224
I0202 02:59:09.886214 21257 layer_factory.hpp:77] Creating layer relu4_2
I0202 02:59:09.886229 21257 net.cpp:100] Creating Layer relu4_2
I0202 02:59:09.886237 21257 net.cpp:434] relu4_2 <- conv4_2
I0202 02:59:09.886247 21257 net.cpp:395] relu4_2 -> conv4_2 (in-place)
I0202 02:59:09.886510 21257 net.cpp:150] Setting up relu4_2
I0202 02:59:09.886525 21257 net.cpp:157] Top shape: 1 512 72 88 (3244032)
I0202 02:59:09.886533 21257 net.cpp:165] Memory required for data: 886928352
I0202 02:59:09.886539 21257 layer_factory.hpp:77] Creating layer conv4_3
I0202 02:59:09.886556 21257 net.cpp:100] Creating Layer conv4_3
I0202 02:59:09.886564 21257 net.cpp:434] conv4_3 <- conv4_2
I0202 02:59:09.886577 21257 net.cpp:408] conv4_3 -> conv4_3
I0202 02:59:09.914443 21257 net.cpp:150] Setting up conv4_3
I0202 02:59:09.914479 21257 net.cpp:157] Top shape: 1 512 72 88 (3244032)
I0202 02:59:09.914486 21257 net.cpp:165] Memory required for data: 899904480
I0202 02:59:09.914500 21257 layer_factory.hpp:77] Creating layer relu4_3
I0202 02:59:09.914515 21257 net.cpp:100] Creating Layer relu4_3
I0202 02:59:09.914523 21257 net.cpp:434] relu4_3 <- conv4_3
I0202 02:59:09.914535 21257 net.cpp:395] relu4_3 -> conv4_3 (in-place)
I0202 02:59:09.914999 21257 net.cpp:150] Setting up relu4_3
I0202 02:59:09.915019 21257 net.cpp:157] Top shape: 1 512 72 88 (3244032)
I0202 02:59:09.915025 21257 net.cpp:165] Memory required for data: 912880608
I0202 02:59:09.915033 21257 layer_factory.hpp:77] Creating layer pool4
I0202 02:59:09.915046 21257 net.cpp:100] Creating Layer pool4
I0202 02:59:09.915053 21257 net.cpp:434] pool4 <- conv4_3
I0202 02:59:09.915065 21257 net.cpp:408] pool4 -> pool4
I0202 02:59:09.915132 21257 net.cpp:150] Setting up pool4
I0202 02:59:09.915143 21257 net.cpp:157] Top shape: 1 512 36 44 (811008)
I0202 02:59:09.915150 21257 net.cpp:165] Memory required for data: 916124640
I0202 02:59:09.915158 21257 layer_factory.hpp:77] Creating layer pool4_pool4_0_split
I0202 02:59:09.915168 21257 net.cpp:100] Creating Layer pool4_pool4_0_split
I0202 02:59:09.915175 21257 net.cpp:434] pool4_pool4_0_split <- pool4
I0202 02:59:09.915186 21257 net.cpp:408] pool4_pool4_0_split -> pool4_pool4_0_split_0
I0202 02:59:09.915197 21257 net.cpp:408] pool4_pool4_0_split -> pool4_pool4_0_split_1
I0202 02:59:09.915251 21257 net.cpp:150] Setting up pool4_pool4_0_split
I0202 02:59:09.915273 21257 net.cpp:157] Top shape: 1 512 36 44 (811008)
I0202 02:59:09.915282 21257 net.cpp:157] Top shape: 1 512 36 44 (811008)
I0202 02:59:09.915289 21257 net.cpp:165] Memory required for data: 922612704
I0202 02:59:09.915297 21257 layer_factory.hpp:77] Creating layer conv5_1
I0202 02:59:09.915315 21257 net.cpp:100] Creating Layer conv5_1
I0202 02:59:09.915323 21257 net.cpp:434] conv5_1 <- pool4_pool4_0_split_0
I0202 02:59:09.915334 21257 net.cpp:408] conv5_1 -> conv5_1
I0202 02:59:09.942903 21257 net.cpp:150] Setting up conv5_1
I0202 02:59:09.942932 21257 net.cpp:157] Top shape: 1 512 36 44 (811008)
I0202 02:59:09.942939 21257 net.cpp:165] Memory required for data: 925856736
I0202 02:59:09.942952 21257 layer_factory.hpp:77] Creating layer relu5_1
I0202 02:59:09.942966 21257 net.cpp:100] Creating Layer relu5_1
I0202 02:59:09.942975 21257 net.cpp:434] relu5_1 <- conv5_1
I0202 02:59:09.942986 21257 net.cpp:395] relu5_1 -> conv5_1 (in-place)
I0202 02:59:09.943450 21257 net.cpp:150] Setting up relu5_1
I0202 02:59:09.943469 21257 net.cpp:157] Top shape: 1 512 36 44 (811008)
I0202 02:59:09.943475 21257 net.cpp:165] Memory required for data: 929100768
I0202 02:59:09.943482 21257 layer_factory.hpp:77] Creating layer conv5_2
I0202 02:59:09.943500 21257 net.cpp:100] Creating Layer conv5_2
I0202 02:59:09.943508 21257 net.cpp:434] conv5_2 <- conv5_1
I0202 02:59:09.943521 21257 net.cpp:408] conv5_2 -> conv5_2
I0202 02:59:09.970939 21257 net.cpp:150] Setting up conv5_2
I0202 02:59:09.970965 21257 net.cpp:157] Top shape: 1 512 36 44 (811008)
I0202 02:59:09.970970 21257 net.cpp:165] Memory required for data: 932344800
I0202 02:59:09.970979 21257 layer_factory.hpp:77] Creating layer relu5_2
I0202 02:59:09.970990 21257 net.cpp:100] Creating Layer relu5_2
I0202 02:59:09.970996 21257 net.cpp:434] relu5_2 <- conv5_2
I0202 02:59:09.971004 21257 net.cpp:395] relu5_2 -> conv5_2 (in-place)
I0202 02:59:09.971199 21257 net.cpp:150] Setting up relu5_2
I0202 02:59:09.971210 21257 net.cpp:157] Top shape: 1 512 36 44 (811008)
I0202 02:59:09.971215 21257 net.cpp:165] Memory required for data: 935588832
I0202 02:59:09.971220 21257 layer_factory.hpp:77] Creating layer conv5_3
I0202 02:59:09.971238 21257 net.cpp:100] Creating Layer conv5_3
I0202 02:59:09.971243 21257 net.cpp:434] conv5_3 <- conv5_2
I0202 02:59:09.971251 21257 net.cpp:408] conv5_3 -> conv5_3
I0202 02:59:09.990831 21257 net.cpp:150] Setting up conv5_3
I0202 02:59:09.990857 21257 net.cpp:157] Top shape: 1 512 36 44 (811008)
I0202 02:59:09.990862 21257 net.cpp:165] Memory required for data: 938832864
I0202 02:59:09.990870 21257 layer_factory.hpp:77] Creating layer relu5_3
I0202 02:59:09.990880 21257 net.cpp:100] Creating Layer relu5_3
I0202 02:59:09.990885 21257 net.cpp:434] relu5_3 <- conv5_3
I0202 02:59:09.990893 21257 net.cpp:395] relu5_3 -> conv5_3 (in-place)
I0202 02:59:09.991441 21257 net.cpp:150] Setting up relu5_3
I0202 02:59:09.991456 21257 net.cpp:157] Top shape: 1 512 36 44 (811008)
I0202 02:59:09.991461 21257 net.cpp:165] Memory required for data: 942076896
I0202 02:59:09.991467 21257 layer_factory.hpp:77] Creating layer pool5
I0202 02:59:09.991477 21257 net.cpp:100] Creating Layer pool5
I0202 02:59:09.991482 21257 net.cpp:434] pool5 <- conv5_3
I0202 02:59:09.991492 21257 net.cpp:408] pool5 -> pool5
I0202 02:59:09.991544 21257 net.cpp:150] Setting up pool5
I0202 02:59:09.991552 21257 net.cpp:157] Top shape: 1 512 18 22 (202752)
I0202 02:59:09.991557 21257 net.cpp:165] Memory required for data: 942887904
I0202 02:59:09.991561 21257 layer_factory.hpp:77] Creating layer fc6
I0202 02:59:09.991574 21257 net.cpp:100] Creating Layer fc6
I0202 02:59:09.991578 21257 net.cpp:434] fc6 <- pool5
I0202 02:59:09.991585 21257 net.cpp:408] fc6 -> fc6
I0202 02:59:10.747959 21257 net.cpp:150] Setting up fc6
I0202 02:59:10.748001 21257 net.cpp:157] Top shape: 1 4096 12 16 (786432)
I0202 02:59:10.748008 21257 net.cpp:165] Memory required for data: 946033632
I0202 02:59:10.748020 21257 layer_factory.hpp:77] Creating layer relu6
I0202 02:59:10.748046 21257 net.cpp:100] Creating Layer relu6
I0202 02:59:10.748052 21257 net.cpp:434] relu6 <- fc6
I0202 02:59:10.748060 21257 net.cpp:395] relu6 -> fc6 (in-place)
I0202 02:59:10.748432 21257 net.cpp:150] Setting up relu6
I0202 02:59:10.748446 21257 net.cpp:157] Top shape: 1 4096 12 16 (786432)
I0202 02:59:10.748450 21257 net.cpp:165] Memory required for data: 949179360
I0202 02:59:10.748456 21257 layer_factory.hpp:77] Creating layer drop6
I0202 02:59:10.748471 21257 net.cpp:100] Creating Layer drop6
I0202 02:59:10.748476 21257 net.cpp:434] drop6 <- fc6
I0202 02:59:10.748481 21257 net.cpp:395] drop6 -> fc6 (in-place)
I0202 02:59:10.748522 21257 net.cpp:150] Setting up drop6
I0202 02:59:10.748529 21257 net.cpp:157] Top shape: 1 4096 12 16 (786432)
I0202 02:59:10.748533 21257 net.cpp:165] Memory required for data: 952325088
I0202 02:59:10.748538 21257 layer_factory.hpp:77] Creating layer fc7
I0202 02:59:10.748550 21257 net.cpp:100] Creating Layer fc7
I0202 02:59:10.748555 21257 net.cpp:434] fc7 <- fc6
I0202 02:59:10.748564 21257 net.cpp:408] fc7 -> fc7
I0202 02:59:10.933630 21257 net.cpp:150] Setting up fc7
I0202 02:59:10.933694 21257 net.cpp:157] Top shape: 1 4096 12 16 (786432)
I0202 02:59:10.933701 21257 net.cpp:165] Memory required for data: 955470816
I0202 02:59:10.933715 21257 layer_factory.hpp:77] Creating layer relu7
I0202 02:59:10.933730 21257 net.cpp:100] Creating Layer relu7
I0202 02:59:10.933739 21257 net.cpp:434] relu7 <- fc7
I0202 02:59:10.933750 21257 net.cpp:395] relu7 -> fc7 (in-place)
I0202 02:59:10.933962 21257 net.cpp:150] Setting up relu7
I0202 02:59:10.933974 21257 net.cpp:157] Top shape: 1 4096 12 16 (786432)
I0202 02:59:10.933977 21257 net.cpp:165] Memory required for data: 958616544
I0202 02:59:10.933981 21257 layer_factory.hpp:77] Creating layer drop7
I0202 02:59:10.933993 21257 net.cpp:100] Creating Layer drop7
I0202 02:59:10.933998 21257 net.cpp:434] drop7 <- fc7
I0202 02:59:10.934006 21257 net.cpp:395] drop7 -> fc7 (in-place)
I0202 02:59:10.934046 21257 net.cpp:150] Setting up drop7
I0202 02:59:10.934056 21257 net.cpp:157] Top shape: 1 4096 12 16 (786432)
I0202 02:59:10.934059 21257 net.cpp:165] Memory required for data: 961762272
I0202 02:59:10.934064 21257 layer_factory.hpp:77] Creating layer score_fr
I0202 02:59:10.934077 21257 net.cpp:100] Creating Layer score_fr
I0202 02:59:10.934082 21257 net.cpp:434] score_fr <- fc7
I0202 02:59:10.934092 21257 net.cpp:408] score_fr -> score_fr
I0202 02:59:10.935369 21257 net.cpp:150] Setting up score_fr
I0202 02:59:10.935384 21257 net.cpp:157] Top shape: 1 2 12 16 (384)
I0202 02:59:10.935389 21257 net.cpp:165] Memory required for data: 961763808
I0202 02:59:10.935397 21257 layer_factory.hpp:77] Creating layer upscore2
I0202 02:59:10.935417 21257 net.cpp:100] Creating Layer upscore2
I0202 02:59:10.935422 21257 net.cpp:434] upscore2 <- score_fr
I0202 02:59:10.935431 21257 net.cpp:408] upscore2 -> upscore2
I0202 02:59:10.935647 21257 net.cpp:150] Setting up upscore2
I0202 02:59:10.935654 21257 net.cpp:157] Top shape: 1 2 26 34 (1768)
I0202 02:59:10.935659 21257 net.cpp:165] Memory required for data: 961770880
I0202 02:59:10.935679 21257 layer_factory.hpp:77] Creating layer upscore2_upscore2_0_split
I0202 02:59:10.935688 21257 net.cpp:100] Creating Layer upscore2_upscore2_0_split
I0202 02:59:10.935693 21257 net.cpp:434] upscore2_upscore2_0_split <- upscore2
I0202 02:59:10.935699 21257 net.cpp:408] upscore2_upscore2_0_split -> upscore2_upscore2_0_split_0
I0202 02:59:10.935708 21257 net.cpp:408] upscore2_upscore2_0_split -> upscore2_upscore2_0_split_1
I0202 02:59:10.935750 21257 net.cpp:150] Setting up upscore2_upscore2_0_split
I0202 02:59:10.935756 21257 net.cpp:157] Top shape: 1 2 26 34 (1768)
I0202 02:59:10.935763 21257 net.cpp:157] Top shape: 1 2 26 34 (1768)
I0202 02:59:10.935767 21257 net.cpp:165] Memory required for data: 961785024
I0202 02:59:10.935771 21257 layer_factory.hpp:77] Creating layer scale_pool4
I0202 02:59:10.935782 21257 net.cpp:100] Creating Layer scale_pool4
I0202 02:59:10.935788 21257 net.cpp:434] scale_pool4 <- pool4_pool4_0_split_1
I0202 02:59:10.935806 21257 net.cpp:408] scale_pool4 -> scale_pool4
I0202 02:59:10.935926 21257 net.cpp:150] Setting up scale_pool4
I0202 02:59:10.935938 21257 net.cpp:157] Top shape: 1 512 36 44 (811008)
I0202 02:59:10.935943 21257 net.cpp:165] Memory required for data: 965029056
I0202 02:59:10.935950 21257 layer_factory.hpp:77] Creating layer score_pool4
I0202 02:59:10.935959 21257 net.cpp:100] Creating Layer score_pool4
I0202 02:59:10.935964 21257 net.cpp:434] score_pool4 <- scale_pool4
I0202 02:59:10.935973 21257 net.cpp:408] score_pool4 -> score_pool4
I0202 02:59:10.937242 21257 net.cpp:150] Setting up score_pool4
I0202 02:59:10.937258 21257 net.cpp:157] Top shape: 1 2 36 44 (3168)
I0202 02:59:10.937263 21257 net.cpp:165] Memory required for data: 965041728
I0202 02:59:10.937270 21257 layer_factory.hpp:77] Creating layer score_pool4c
I0202 02:59:10.937281 21257 net.cpp:100] Creating Layer score_pool4c
I0202 02:59:10.937286 21257 net.cpp:434] score_pool4c <- score_pool4
I0202 02:59:10.937294 21257 net.cpp:434] score_pool4c <- upscore2_upscore2_0_split_0
I0202 02:59:10.937301 21257 net.cpp:408] score_pool4c -> score_pool4c
I0202 02:59:10.937340 21257 net.cpp:150] Setting up score_pool4c
I0202 02:59:10.937346 21257 net.cpp:157] Top shape: 1 2 26 34 (1768)
I0202 02:59:10.937350 21257 net.cpp:165] Memory required for data: 965048800
I0202 02:59:10.937355 21257 layer_factory.hpp:77] Creating layer fuse_pool4
I0202 02:59:10.937364 21257 net.cpp:100] Creating Layer fuse_pool4
I0202 02:59:10.937368 21257 net.cpp:434] fuse_pool4 <- upscore2_upscore2_0_split_1
I0202 02:59:10.937374 21257 net.cpp:434] fuse_pool4 <- score_pool4c
I0202 02:59:10.937379 21257 net.cpp:408] fuse_pool4 -> fuse_pool4
I0202 02:59:10.937412 21257 net.cpp:150] Setting up fuse_pool4
I0202 02:59:10.937418 21257 net.cpp:157] Top shape: 1 2 26 34 (1768)
I0202 02:59:10.937422 21257 net.cpp:165] Memory required for data: 965055872
I0202 02:59:10.937427 21257 layer_factory.hpp:77] Creating layer upscore_pool4
I0202 02:59:10.937435 21257 net.cpp:100] Creating Layer upscore_pool4
I0202 02:59:10.937440 21257 net.cpp:434] upscore_pool4 <- fuse_pool4
I0202 02:59:10.937448 21257 net.cpp:408] upscore_pool4 -> upscore_pool4
I0202 02:59:10.937674 21257 net.cpp:150] Setting up upscore_pool4
I0202 02:59:10.937685 21257 net.cpp:157] Top shape: 1 2 54 70 (7560)
I0202 02:59:10.937688 21257 net.cpp:165] Memory required for data: 965086112
I0202 02:59:10.937695 21257 layer_factory.hpp:77] Creating layer upscore_pool4_upscore_pool4_0_split
I0202 02:59:10.937703 21257 net.cpp:100] Creating Layer upscore_pool4_upscore_pool4_0_split
I0202 02:59:10.937708 21257 net.cpp:434] upscore_pool4_upscore_pool4_0_split <- upscore_pool4
I0202 02:59:10.937714 21257 net.cpp:408] upscore_pool4_upscore_pool4_0_split -> upscore_pool4_upscore_pool4_0_split_0
I0202 02:59:10.937722 21257 net.cpp:408] upscore_pool4_upscore_pool4_0_split -> upscore_pool4_upscore_pool4_0_split_1
I0202 02:59:10.937762 21257 net.cpp:150] Setting up upscore_pool4_upscore_pool4_0_split
I0202 02:59:10.937769 21257 net.cpp:157] Top shape: 1 2 54 70 (7560)
I0202 02:59:10.937774 21257 net.cpp:157] Top shape: 1 2 54 70 (7560)
I0202 02:59:10.937778 21257 net.cpp:165] Memory required for data: 965146592
I0202 02:59:10.937783 21257 layer_factory.hpp:77] Creating layer scale_pool3
I0202 02:59:10.937791 21257 net.cpp:100] Creating Layer scale_pool3
I0202 02:59:10.937796 21257 net.cpp:434] scale_pool3 <- pool3_pool3_0_split_1
I0202 02:59:10.937803 21257 net.cpp:408] scale_pool3 -> scale_pool3
I0202 02:59:10.937902 21257 net.cpp:150] Setting up scale_pool3
I0202 02:59:10.937911 21257 net.cpp:157] Top shape: 1 256 72 88 (1622016)
I0202 02:59:10.937914 21257 net.cpp:165] Memory required for data: 971634656
I0202 02:59:10.937921 21257 layer_factory.hpp:77] Creating layer score_pool3
I0202 02:59:10.937932 21257 net.cpp:100] Creating Layer score_pool3
I0202 02:59:10.937937 21257 net.cpp:434] score_pool3 <- scale_pool3
I0202 02:59:10.937943 21257 net.cpp:408] score_pool3 -> score_pool3
I0202 02:59:10.939151 21257 net.cpp:150] Setting up score_pool3
I0202 02:59:10.939170 21257 net.cpp:157] Top shape: 1 2 72 88 (12672)
I0202 02:59:10.939175 21257 net.cpp:165] Memory required for data: 971685344
I0202 02:59:10.939184 21257 layer_factory.hpp:77] Creating layer score_pool3c
I0202 02:59:10.939194 21257 net.cpp:100] Creating Layer score_pool3c
I0202 02:59:10.939199 21257 net.cpp:434] score_pool3c <- score_pool3
I0202 02:59:10.939206 21257 net.cpp:434] score_pool3c <- upscore_pool4_upscore_pool4_0_split_0
I0202 02:59:10.939213 21257 net.cpp:408] score_pool3c -> score_pool3c
I0202 02:59:10.939247 21257 net.cpp:150] Setting up score_pool3c
I0202 02:59:10.939255 21257 net.cpp:157] Top shape: 1 2 54 70 (7560)
I0202 02:59:10.939260 21257 net.cpp:165] Memory required for data: 971715584
I0202 02:59:10.939263 21257 layer_factory.hpp:77] Creating layer fuse_pool3
I0202 02:59:10.939270 21257 net.cpp:100] Creating Layer fuse_pool3
I0202 02:59:10.939275 21257 net.cpp:434] fuse_pool3 <- upscore_pool4_upscore_pool4_0_split_1
I0202 02:59:10.939280 21257 net.cpp:434] fuse_pool3 <- score_pool3c
I0202 02:59:10.939287 21257 net.cpp:408] fuse_pool3 -> fuse_pool3
I0202 02:59:10.939316 21257 net.cpp:150] Setting up fuse_pool3
I0202 02:59:10.939321 21257 net.cpp:157] Top shape: 1 2 54 70 (7560)
I0202 02:59:10.939326 21257 net.cpp:165] Memory required for data: 971745824
I0202 02:59:10.939329 21257 layer_factory.hpp:77] Creating layer upscore8
I0202 02:59:10.939342 21257 net.cpp:100] Creating Layer upscore8
I0202 02:59:10.939347 21257 net.cpp:434] upscore8 <- fuse_pool3
I0202 02:59:10.939353 21257 net.cpp:408] upscore8 -> upscore8
I0202 02:59:10.939568 21257 net.cpp:150] Setting up upscore8
I0202 02:59:10.939576 21257 net.cpp:157] Top shape: 1 2 440 568 (499840)
I0202 02:59:10.939580 21257 net.cpp:165] Memory required for data: 973745184
I0202 02:59:10.939586 21257 layer_factory.hpp:77] Creating layer score
I0202 02:59:10.939594 21257 net.cpp:100] Creating Layer score
I0202 02:59:10.939599 21257 net.cpp:434] score <- upscore8
I0202 02:59:10.939605 21257 net.cpp:434] score <- data_data_0_split_1
I0202 02:59:10.939611 21257 net.cpp:408] score -> score
I0202 02:59:10.939643 21257 net.cpp:150] Setting up score
I0202 02:59:10.939651 21257 net.cpp:157] Top shape: 1 2 375 500 (375000)
I0202 02:59:10.939656 21257 net.cpp:165] Memory required for data: 975245184
I0202 02:59:10.939659 21257 layer_factory.hpp:77] Creating layer loss
I0202 02:59:10.939669 21257 net.cpp:100] Creating Layer loss
I0202 02:59:10.939673 21257 net.cpp:434] loss <- score
I0202 02:59:10.939679 21257 net.cpp:434] loss <- label
I0202 02:59:10.939687 21257 net.cpp:408] loss -> loss
I0202 02:59:10.939697 21257 layer_factory.hpp:77] Creating layer loss
…
I0202 02:59:10.941337 21257 net.cpp:283] Network initialization done.
I0202 02:59:10.942522 21257 solver.cpp:181] Creating test net (#0) specified by test_net file: val.prototxt
I0202 02:59:10.942888 21257 net.cpp:58] Initializing net from parameters: 
state {
  phase: TEST
}
layer {
  name: "data"
  type: "Python"
  top: "data"
  top: "label"
  python_param {
    module: "voc_layers"
    layer: "ObfVOCSegDataLayer"
    param_str: "{\'voc_dir\': \'../data/pascal-obfuscated/VOC2011\', \'seed\': 1337, \'split\': \'seg11valid15\', \'mean\': (104.00699, 116.66877, 122.67892)}"
  }
}
layer {
  name: "conv1_1"
  type: "Convolution"
  bottom: "data"
  top: "conv1_1"
  param {
    lr_mult: 1
    decay_mult: 1
  }
  param {
    lr_mult: 2
    decay_mult: 0
  }
  convolution_param {
    num_output: 64
    pad: 100
    kernel_size: 3
    stride: 1
    weight_filler {
      type: "xavier"
    }
  }
}
layer {
  name: "relu1_1"
  type: "ReLU"
  bottom: "conv1_1"
  top: "conv1_1"
}
layer {
  name: "conv1_2"
  type: "Convolution"
  bottom: "conv1_1"
  top: "conv1_2"
  param {
    lr_mult: 1
    decay_mult: 1
  }
  param {
    lr_mult: 2
    decay_mult: 0
  }
  convolution_param {
    num_output: 64
    pad: 1
    kernel_size: 3
    stride: 1
    weight_filler {
      type: "xavier"
    }
  }
}
layer {
  name: "relu1_2"
  type: "ReLU"
  bottom: "conv1_2"
  top: "conv1_2"
}
layer {
  name: "pool1"
  type: "Pooling"
  bottom: "conv1_2"
  top: "pool1"
  pooling_param {
    pool: MAX
    kernel_size: 2
    stride: 2
  }
}
layer {
  name: "conv2_1"
  type: "Convolution"
  bottom: "pool1"
  top: "conv2_1"
  param {
    lr_mult: 1
    decay_mult: 1
  }
  param {
    lr_mult: 2
    decay_mult: 0
  }
  convolution_param {
    num_output: 128
    pad: 1
    kernel_size: 3
    stride: 1
    weight_filler {
      type: "xavier"
    }
  }
}
layer {
  name: "relu2_1"
  type: "ReLU"
  bottom: "conv2_1"
  top: "conv2_1"
}
layer {
  name: "conv2_2"
  type: "Convolution"
  bottom: "conv2_1"
  top: "conv2_2"
  param {
    lr_mult: 1
    decay_mult: 1
  }
  param {
    lr_mult: 2
    decay_mult: 0
  }
  convolution_param {
    num_output: 128
    pad: 1
    kernel_size: 3
    stride: 1
    weight_filler {
      type: "xavier"
    }
  }
}
layer {
  name: "relu2_2"
  type: "ReLU"
  bottom: "conv2_2"
  top: "conv2_2"
}
layer {
  name: "pool2"
  type: "Pooling"
  bottom: "conv2_2"
  top: "pool2"
  pooling_param {
    pool: MAX
    kernel_size: 2
    stride: 2
  }
}
layer {
  name: "conv3_1"
  type: "Convolution"
  bottom: "pool2"
  top: "conv3_1"
  param {
    lr_mult: 1
    decay_mult: 1
  }
  param {
    lr_mult: 2
    decay_mult: 0
  }
  convolution_param {
    num_output: 256
    pad: 1
    kernel_size: 3
    stride: 1
    weight_filler {
      type: "xavier"
    }
  }
}
layer {
  name: "relu3_1"
  type: "ReLU"
  bottom: "conv3_1"
  top: "conv3_1"
}
layer {
  name: "conv3_2"
  type: "Convolution"
  bottom: "conv3_1"
  top: "conv3_2"
  param {
    lr_mult: 1
    decay_mult: 1
  }
  param {
    lr_mult: 2
    decay_mult: 0
  }
  convolution_param {
    num_output: 256
    pad: 1
    kernel_size: 3
    stride: 1
    weight_filler {
      type: "xavier"
    }
  }
}
layer {
  name: "relu3_2"
  type: "ReLU"
  bottom: "conv3_2"
  top: "conv3_2"
}
layer {
  name: "conv3_3"
  type: "Convolution"
  bottom: "conv3_2"
  top: "conv3_3"
  param {
    lr_mult: 1
    decay_mult: 1
  }
  param {
    lr_mult: 2
    decay_mult: 0
  }
  convolution_param {
    num_output: 256
    pad: 1
    kernel_size: 3
    stride: 1
    weight_filler {
      type: "xavier"
    }
  }
}
layer {
  name: "relu3_3"
  type: "ReLU"
  bottom: "conv3_3"
  top: "conv3_3"
}
layer {
  name: "pool3"
  type: "Pooling"
  bottom: "conv3_3"
  top: "pool3"
  pooling_param {
    pool: MAX
    kernel_size: 2
    stride: 2
  }
}
layer {
  name: "conv4_1"
  type: "Convolution"
  bottom: "pool3"
  top: "conv4_1"
  param {
    lr_mult: 1
    decay_mult: 1
  }
  param {
    lr_mult: 2
    decay_mult: 0
  }
  convolution_param {
    num_output: 512
    pad: 1
    kernel_size: 3
    stride: 1
    weight_filler {
      type: "xavier"
    }
  }
}
layer {
  name: "relu4_1"
  type: "ReLU"
  bottom: "conv4_1"
  top: "conv4_1"
}
layer {
  name: "conv4_2"
  type: "Convolution"
  bottom: "conv4_1"
  top: "conv4_2"
  param {
    lr_mult: 1
    decay_mult: 1
  }
  param {
    lr_mult: 2
    decay_mult: 0
  }
  convolution_param {
    num_output: 512
    pad: 1
    kernel_size: 3
    stride: 1
    weight_filler {
      type: "xavier"
    }
  }
}
layer {
  name: "relu4_2"
  type: "ReLU"
  bottom: "conv4_2"
  top: "conv4_2"
}
layer {
  name: "conv4_3"
  type: "Convolution"
  bottom: "conv4_2"
  top: "conv4_3"
  param {
    lr_mult: 1
    decay_mult: 1
  }
  param {
    lr_mult: 2
    decay_mult: 0
  }
  convolution_param {
    num_output: 512
    pad: 1
    kernel_size: 3
    stride: 1
    weight_filler {
      type: "xavier"
    }
  }
}
layer {
  name: "relu4_3"
  type: "ReLU"
  bottom: "conv4_3"
  top: "conv4_3"
}
layer {
  name: "pool4"
  type: "Pooling"
  bottom: "conv4_3"
  top: "pool4"
  pooling_param {
    pool: MAX
    kernel_size: 2
    stride: 2
  }
}
layer {
  name: "conv5_1"
  type: "Convolution"
  bottom: "pool4"
  top: "conv5_1"
  param {
    lr_mult: 1
    decay_mult: 1
  }
  param {
    lr_mult: 2
    decay_mult: 0
  }
  convolution_param {
    num_output: 512
    pad: 1
    kernel_size: 3
    stride: 1
    weight_filler {
      type: "xavier"
    }
  }
}
layer {
  name: "relu5_1"
  type: "ReLU"
  bottom: "conv5_1"
  top: "conv5_1"
}
layer {
  name: "conv5_2"
  type: "Convolution"
  bottom: "conv5_1"
  top: "conv5_2"
  param {
    lr_mult: 1
    decay_mult: 1
  }
  param {
    lr_mult: 2
    decay_mult: 0
  }
  convolution_param {
    num_output: 512
    pad: 1
    kernel_size: 3
    stride: 1
    weight_filler {
      type: "xavier"
    }
  }
}
layer {
  name: "relu5_2"
  type: "ReLU"
  bottom: "conv5_2"
  top: "conv5_2"
}
layer {
  name: "conv5_3"
  type: "Convolution"
  bottom: "conv5_2"
  top: "conv5_3"
  param {
    lr_mult: 1
    decay_mult: 1
  }
  param {
    lr_mult: 2
    decay_mult: 0
  }
  convolution_param {
    num_output: 512
    pad: 1
    kernel_size: 3
    stride: 1
    weight_filler {
      type: "xavier"
    }
  }
}
layer {
  name: "relu5_3"
  type: "ReLU"
  bottom: "conv5_3"
  top: "conv5_3"
}
layer {
  name: "pool5"
  type: "Pooling"
  bottom: "conv5_3"
  top: "pool5"
  pooling_param {
    pool: MAX
    kernel_size: 2
    stride: 2
  }
}
layer {
  name: "fc6"
  type: "Convolution"
  bottom: "pool5"
  top: "fc6"
  param {
    lr_mult: 1
    decay_mult: 1
  }
  param {
    lr_mult: 2
    decay_mult: 0
  }
  convolution_param {
    num_output: 4096
    pad: 0
    kernel_size: 7
    stride: 1
    weight_filler {
      type: "xavier"
    }
  }
}
layer {
  name: "relu6"
  type: "ReLU"
  bottom: "fc6"
  top: "fc6"
}
layer {
  name: "drop6"
  type: "Dropout"
  bottom: "fc6"
  top: "fc6"
  dropout_param {
    dropout_ratio: 0.5
  }
}
layer {
  name: "fc7"
  type: "Convolution"
  bottom: "fc6"
  top: "fc7"
  param {
    lr_mult: 1
    decay_mult: 1
  }
  param {
    lr_mult: 2
    decay_mult: 0
  }
  convolution_param {
    num_output: 4096
    pad: 0
    kernel_size: 1
    stride: 1
    weight_filler {
      type: "xavier"
    }
  }
}
layer {
  name: "relu7"
  type: "ReLU"
  bottom: "fc7"
  top: "fc7"
}
layer {
  name: "drop7"
  type: "Dropout"
  bottom: "fc7"
  top: "fc7"
  dropout_param {
    dropout_ratio: 0.5
  }
}
layer {
  name: "score_fr"
  type: "Convolution"
  bottom: "fc7"
  top: "score_fr"
  param {
    lr_mult: 1
    decay_mult: 1
  }
  param {
    lr_mult: 2
    decay_mult: 0
  }
  convolution_param {
    num_output: 2
    pad: 0
    kernel_size: 1
    weight_filler {
      type: "xavier"
    }
  }
}
layer {
  name: "upscore2"
  type: "Deconvolution"
  bottom: "score_fr"
  top: "upscore2"
  param {
    lr_mult: 0
  }
  convolution_param {
    num_output: 2
    bias_term: false
    kernel_size: 4
    stride: 2
    weight_filler {
      type: "xavier"
    }
  }
}
layer {
  name: "scale_pool4"
  type: "Scale"
  bottom: "pool4"
  top: "scale_pool4"
  param {
    lr_mult: 0
  }
  scale_param {
    filler {
      type: "constant"
      value: 0.01
    }
  }
}
layer {
  name: "score_pool4"
  type: "Convolution"
  bottom: "scale_pool4"
  top: "score_pool4"
  param {
    lr_mult: 1
    decay_mult: 1
  }
  param {
    lr_mult: 2
    decay_mult: 0
  }
  convolution_param {
    num_output: 2
    pad: 0
    kernel_size: 1
    weight_filler {
      type: "xavier"
    }
  }
}
layer {
  name: "score_pool4c"
  type: "Crop"
  bottom: "score_pool4"
  bottom: "upscore2"
  top: "score_pool4c"
  crop_param {
    axis: 2
    offset: 5
  }
}
layer {
  name: "fuse_pool4"
  type: "Eltwise"
  bottom: "upscore2"
  bottom: "score_pool4c"
  top: "fuse_pool4"
  eltwise_param {
    operation: SUM
  }
}
layer {
  name: "upscore_pool4"
  type: "Deconvolution"
  bottom: "fuse_pool4"
  top: "upscore_pool4"
  param {
    lr_mult: 0
  }
  convolution_param {
    num_output: 2
    bias_term: false
    kernel_size: 4
    stride: 2
    weight_filler {
      type: "xavier"
    }
  }
}
layer {
  name: "scale_pool3"
  type: "Scale"
  bottom: "pool3"
  top: "scale_pool3"
  param {
    lr_mult: 0
  }
  scale_param {
    filler {
      type: "constant"
      value: 0.0001
    }
  }
}
layer {
  name: "score_pool3"
  type: "Convolution"
  bottom: "scale_pool3"
  top: "score_pool3"
  param {
    lr_mult: 1
    decay_mult: 1
  }
  param {
    lr_mult: 2
    decay_mult: 0
  }
  convolution_param {
    num_output: 2
    pad: 0
    kernel_size: 1
    weight_filler {
      type: "xavier"
    }
  }
}
layer {
  name: "score_pool3c"
  type: "Crop"
  bottom: "score_pool3"
  bottom: "upscore_pool4"
  top: "score_pool3c"
  crop_param {
    axis: 2
    offset: 9
  }
}
layer {
  name: "fuse_pool3"
  type: "Eltwise"
  bottom: "upscore_pool4"
  bottom: "score_pool3c"
  top: "fuse_pool3"
  eltwise_param {
    operation: SUM
  }
}
layer {
  name: "upscore8"
  type: "Deconvolution"
  bottom: "fuse_pool3"
  top: "upscore8"
  param {
    lr_mult: 0
  }
  convolution_param {
    num_output: 2
    bias_term: false
    kernel_size: 16
    stride: 8
    weight_filler {
      type: "xavier"
    }
  }
}
layer {
  name: "score"
  type: "Crop"
  bottom: "upscore8"
  bottom: "data"
  top: "score"
  crop_param {
    axis: 2
    offset: 31
  }
}
layer {
  name: "loss"
  type: "SoftmaxWithLoss"
  bottom: "score"
  bottom: "label"
  top: "loss"
  loss_param {
    ignore_label: 255
    normalize: false
  }
}
I0202 02:59:10.943109 21257 layer_factory.hpp:77] Creating layer data
I0202 02:59:10.943217 21257 net.cpp:100] Creating Layer data
I0202 02:59:10.943225 21257 net.cpp:408] data -> data
I0202 02:59:10.943233 21257 net.cpp:408] data -> label
I0202 02:59:11.023339 21257 net.cpp:150] Setting up data
I0202 02:59:11.023363 21257 net.cpp:157] Top shape: 1 3 366 500 (549000)
I0202 02:59:11.023375 21257 net.cpp:157] Top shape: 1 1 366 500 (183000)
I0202 02:59:11.023381 21257 net.cpp:165] Memory required for data: 2928000
I0202 02:59:11.023391 21257 layer_factory.hpp:77] Creating layer data_data_0_split
I0202 02:59:11.023403 21257 net.cpp:100] Creating Layer data_data_0_split
I0202 02:59:11.023411 21257 net.cpp:434] data_data_0_split <- data
I0202 02:59:11.023422 21257 net.cpp:408] data_data_0_split -> data_data_0_split_0
I0202 02:59:11.023434 21257 net.cpp:408] data_data_0_split -> data_data_0_split_1
I0202 02:59:11.023493 21257 net.cpp:150] Setting up data_data_0_split
I0202 02:59:11.023504 21257 net.cpp:157] Top shape: 1 3 366 500 (549000)
I0202 02:59:11.023514 21257 net.cpp:157] Top shape: 1 3 366 500 (549000)
I0202 02:59:11.023520 21257 net.cpp:165] Memory required for data: 7320000
I0202 02:59:11.023527 21257 layer_factory.hpp:77] Creating layer conv1_1
I0202 02:59:11.023542 21257 net.cpp:100] Creating Layer conv1_1
I0202 02:59:11.023550 21257 net.cpp:434] conv1_1 <- data_data_0_split_0
I0202 02:59:11.023561 21257 net.cpp:408] conv1_1 -> conv1_1
I0202 02:59:11.026345 21257 net.cpp:150] Setting up conv1_1
I0202 02:59:11.026368 21257 net.cpp:157] Top shape: 1 64 564 698 (25195008)
I0202 02:59:11.026376 21257 net.cpp:165] Memory required for data: 108100032
I0202 02:59:11.026394 21257 layer_factory.hpp:77] Creating layer relu1_1
I0202 02:59:11.026406 21257 net.cpp:100] Creating Layer relu1_1
I0202 02:59:11.026413 21257 net.cpp:434] relu1_1 <- conv1_1
I0202 02:59:11.026423 21257 net.cpp:395] relu1_1 -> conv1_1 (in-place)
I0202 02:59:11.026684 21257 net.cpp:150] Setting up relu1_1
I0202 02:59:11.026700 21257 net.cpp:157] Top shape: 1 64 564 698 (25195008)
I0202 02:59:11.026706 21257 net.cpp:165] Memory required for data: 208880064
I0202 02:59:11.026715 21257 layer_factory.hpp:77] Creating layer conv1_2
I0202 02:59:11.026729 21257 net.cpp:100] Creating Layer conv1_2
I0202 02:59:11.026736 21257 net.cpp:434] conv1_2 <- conv1_1
I0202 02:59:11.026747 21257 net.cpp:408] conv1_2 -> conv1_2
I0202 02:59:11.029839 21257 net.cpp:150] Setting up conv1_2
I0202 02:59:11.029860 21257 net.cpp:157] Top shape: 1 64 564 698 (25195008)
I0202 02:59:11.029868 21257 net.cpp:165] Memory required for data: 309660096
I0202 02:59:11.029884 21257 layer_factory.hpp:77] Creating layer relu1_2
I0202 02:59:11.029896 21257 net.cpp:100] Creating Layer relu1_2
I0202 02:59:11.029903 21257 net.cpp:434] relu1_2 <- conv1_2
I0202 02:59:11.029912 21257 net.cpp:395] relu1_2 -> conv1_2 (in-place)
I0202 02:59:11.030374 21257 net.cpp:150] Setting up relu1_2
I0202 02:59:11.030391 21257 net.cpp:157] Top shape: 1 64 564 698 (25195008)
I0202 02:59:11.030398 21257 net.cpp:165] Memory required for data: 410440128
I0202 02:59:11.030406 21257 layer_factory.hpp:77] Creating layer pool1
I0202 02:59:11.030417 21257 net.cpp:100] Creating Layer pool1
I0202 02:59:11.030424 21257 net.cpp:434] pool1 <- conv1_2
I0202 02:59:11.030434 21257 net.cpp:408] pool1 -> pool1
I0202 02:59:11.030503 21257 net.cpp:150] Setting up pool1
I0202 02:59:11.030514 21257 net.cpp:157] Top shape: 1 64 282 349 (6298752)
I0202 02:59:11.030521 21257 net.cpp:165] Memory required for data: 435635136
I0202 02:59:11.030529 21257 layer_factory.hpp:77] Creating layer conv2_1
I0202 02:59:11.030541 21257 net.cpp:100] Creating Layer conv2_1
I0202 02:59:11.030550 21257 net.cpp:434] conv2_1 <- pool1
I0202 02:59:11.030560 21257 net.cpp:408] conv2_1 -> conv2_1
I0202 02:59:11.033607 21257 net.cpp:150] Setting up conv2_1
I0202 02:59:11.033627 21257 net.cpp:157] Top shape: 1 128 282 349 (12597504)
I0202 02:59:11.033634 21257 net.cpp:165] Memory required for data: 486025152
I0202 02:59:11.033658 21257 layer_factory.hpp:77] Creating layer relu2_1
I0202 02:59:11.033671 21257 net.cpp:100] Creating Layer relu2_1
I0202 02:59:11.033679 21257 net.cpp:434] relu2_1 <- conv2_1
I0202 02:59:11.033689 21257 net.cpp:395] relu2_1 -> conv2_1 (in-place)
I0202 02:59:11.034173 21257 net.cpp:150] Setting up relu2_1
I0202 02:59:11.034190 21257 net.cpp:157] Top shape: 1 128 282 349 (12597504)
I0202 02:59:11.034198 21257 net.cpp:165] Memory required for data: 536415168
I0202 02:59:11.034205 21257 layer_factory.hpp:77] Creating layer conv2_2
I0202 02:59:11.034220 21257 net.cpp:100] Creating Layer conv2_2
I0202 02:59:11.034227 21257 net.cpp:434] conv2_2 <- conv2_1
I0202 02:59:11.034238 21257 net.cpp:408] conv2_2 -> conv2_2
I0202 02:59:11.037986 21257 net.cpp:150] Setting up conv2_2
I0202 02:59:11.038008 21257 net.cpp:157] Top shape: 1 128 282 349 (12597504)
I0202 02:59:11.038017 21257 net.cpp:165] Memory required for data: 586805184
I0202 02:59:11.038029 21257 layer_factory.hpp:77] Creating layer relu2_2
I0202 02:59:11.038039 21257 net.cpp:100] Creating Layer relu2_2
I0202 02:59:11.038048 21257 net.cpp:434] relu2_2 <- conv2_2
I0202 02:59:11.038058 21257 net.cpp:395] relu2_2 -> conv2_2 (in-place)
I0202 02:59:11.038381 21257 net.cpp:150] Setting up relu2_2
I0202 02:59:11.038396 21257 net.cpp:157] Top shape: 1 128 282 349 (12597504)
I0202 02:59:11.038403 21257 net.cpp:165] Memory required for data: 637195200
I0202 02:59:11.038410 21257 layer_factory.hpp:77] Creating layer pool2
I0202 02:59:11.038421 21257 net.cpp:100] Creating Layer pool2
I0202 02:59:11.038429 21257 net.cpp:434] pool2 <- conv2_2
I0202 02:59:11.038437 21257 net.cpp:408] pool2 -> pool2
I0202 02:59:11.038507 21257 net.cpp:150] Setting up pool2
I0202 02:59:11.038518 21257 net.cpp:157] Top shape: 1 128 141 175 (3158400)
I0202 02:59:11.038525 21257 net.cpp:165] Memory required for data: 649828800
I0202 02:59:11.038532 21257 layer_factory.hpp:77] Creating layer conv3_1
I0202 02:59:11.038547 21257 net.cpp:100] Creating Layer conv3_1
I0202 02:59:11.038554 21257 net.cpp:434] conv3_1 <- pool2
I0202 02:59:11.038564 21257 net.cpp:408] conv3_1 -> conv3_1
I0202 02:59:11.043586 21257 net.cpp:150] Setting up conv3_1
I0202 02:59:11.043606 21257 net.cpp:157] Top shape: 1 256 141 175 (6316800)
I0202 02:59:11.043613 21257 net.cpp:165] Memory required for data: 675096000
I0202 02:59:11.043630 21257 layer_factory.hpp:77] Creating layer relu3_1
I0202 02:59:11.043642 21257 net.cpp:100] Creating Layer relu3_1
I0202 02:59:11.043656 21257 net.cpp:434] relu3_1 <- conv3_1
I0202 02:59:11.043668 21257 net.cpp:395] relu3_1 -> conv3_1 (in-place)
I0202 02:59:11.044132 21257 net.cpp:150] Setting up relu3_1
I0202 02:59:11.044150 21257 net.cpp:157] Top shape: 1 256 141 175 (6316800)
I0202 02:59:11.044157 21257 net.cpp:165] Memory required for data: 700363200
I0202 02:59:11.044165 21257 layer_factory.hpp:77] Creating layer conv3_2
I0202 02:59:11.044179 21257 net.cpp:100] Creating Layer conv3_2
I0202 02:59:11.044188 21257 net.cpp:434] conv3_2 <- conv3_1
I0202 02:59:11.044198 21257 net.cpp:408] conv3_2 -> conv3_2
I0202 02:59:11.052608 21257 net.cpp:150] Setting up conv3_2
I0202 02:59:11.052628 21257 net.cpp:157] Top shape: 1 256 141 175 (6316800)
I0202 02:59:11.052635 21257 net.cpp:165] Memory required for data: 725630400
I0202 02:59:11.052649 21257 layer_factory.hpp:77] Creating layer relu3_2
I0202 02:59:11.052659 21257 net.cpp:100] Creating Layer relu3_2
I0202 02:59:11.052667 21257 net.cpp:434] relu3_2 <- conv3_2
I0202 02:59:11.052678 21257 net.cpp:395] relu3_2 -> conv3_2 (in-place)
I0202 02:59:11.052939 21257 net.cpp:150] Setting up relu3_2
I0202 02:59:11.052954 21257 net.cpp:157] Top shape: 1 256 141 175 (6316800)
I0202 02:59:11.052961 21257 net.cpp:165] Memory required for data: 750897600
I0202 02:59:11.052968 21257 layer_factory.hpp:77] Creating layer conv3_3
I0202 02:59:11.052985 21257 net.cpp:100] Creating Layer conv3_3
I0202 02:59:11.052994 21257 net.cpp:434] conv3_3 <- conv3_2
I0202 02:59:11.053004 21257 net.cpp:408] conv3_3 -> conv3_3
I0202 02:59:11.061415 21257 net.cpp:150] Setting up conv3_3
I0202 02:59:11.061437 21257 net.cpp:157] Top shape: 1 256 141 175 (6316800)
I0202 02:59:11.061444 21257 net.cpp:165] Memory required for data: 776164800
I0202 02:59:11.061457 21257 layer_factory.hpp:77] Creating layer relu3_3
I0202 02:59:11.061468 21257 net.cpp:100] Creating Layer relu3_3
I0202 02:59:11.061476 21257 net.cpp:434] relu3_3 <- conv3_3
I0202 02:59:11.061486 21257 net.cpp:395] relu3_3 -> conv3_3 (in-place)
I0202 02:59:11.061758 21257 net.cpp:150] Setting up relu3_3
I0202 02:59:11.061774 21257 net.cpp:157] Top shape: 1 256 141 175 (6316800)
I0202 02:59:11.061781 21257 net.cpp:165] Memory required for data: 801432000
I0202 02:59:11.061789 21257 layer_factory.hpp:77] Creating layer pool3
I0202 02:59:11.061800 21257 net.cpp:100] Creating Layer pool3
I0202 02:59:11.061807 21257 net.cpp:434] pool3 <- conv3_3
I0202 02:59:11.061817 21257 net.cpp:408] pool3 -> pool3
I0202 02:59:11.061887 21257 net.cpp:150] Setting up pool3
I0202 02:59:11.061897 21257 net.cpp:157] Top shape: 1 256 71 88 (1599488)
I0202 02:59:11.061904 21257 net.cpp:165] Memory required for data: 807829952
I0202 02:59:11.061911 21257 layer_factory.hpp:77] Creating layer pool3_pool3_0_split
I0202 02:59:11.061923 21257 net.cpp:100] Creating Layer pool3_pool3_0_split
I0202 02:59:11.061929 21257 net.cpp:434] pool3_pool3_0_split <- pool3
I0202 02:59:11.061939 21257 net.cpp:408] pool3_pool3_0_split -> pool3_pool3_0_split_0
I0202 02:59:11.061949 21257 net.cpp:408] pool3_pool3_0_split -> pool3_pool3_0_split_1
I0202 02:59:11.062007 21257 net.cpp:150] Setting up pool3_pool3_0_split
I0202 02:59:11.062018 21257 net.cpp:157] Top shape: 1 256 71 88 (1599488)
I0202 02:59:11.062027 21257 net.cpp:157] Top shape: 1 256 71 88 (1599488)
I0202 02:59:11.062033 21257 net.cpp:165] Memory required for data: 820625856
I0202 02:59:11.062041 21257 layer_factory.hpp:77] Creating layer conv4_1
I0202 02:59:11.062055 21257 net.cpp:100] Creating Layer conv4_1
I0202 02:59:11.062062 21257 net.cpp:434] conv4_1 <- pool3_pool3_0_split_0
I0202 02:59:11.062074 21257 net.cpp:408] conv4_1 -> conv4_1
I0202 02:59:11.077029 21257 net.cpp:150] Setting up conv4_1
I0202 02:59:11.077054 21257 net.cpp:157] Top shape: 1 512 71 88 (3198976)
I0202 02:59:11.077061 21257 net.cpp:165] Memory required for data: 833421760
I0202 02:59:11.077074 21257 layer_factory.hpp:77] Creating layer relu4_1
I0202 02:59:11.077085 21257 net.cpp:100] Creating Layer relu4_1
I0202 02:59:11.077093 21257 net.cpp:434] relu4_1 <- conv4_1
I0202 02:59:11.077111 21257 net.cpp:395] relu4_1 -> conv4_1 (in-place)
I0202 02:59:11.077590 21257 net.cpp:150] Setting up relu4_1
I0202 02:59:11.077608 21257 net.cpp:157] Top shape: 1 512 71 88 (3198976)
I0202 02:59:11.077616 21257 net.cpp:165] Memory required for data: 846217664
I0202 02:59:11.077623 21257 layer_factory.hpp:77] Creating layer conv4_2
I0202 02:59:11.077646 21257 net.cpp:100] Creating Layer conv4_2
I0202 02:59:11.077656 21257 net.cpp:434] conv4_2 <- conv4_1
I0202 02:59:11.077667 21257 net.cpp:408] conv4_2 -> conv4_2
I0202 02:59:11.105917 21257 net.cpp:150] Setting up conv4_2
I0202 02:59:11.105953 21257 net.cpp:157] Top shape: 1 512 71 88 (3198976)
I0202 02:59:11.105962 21257 net.cpp:165] Memory required for data: 859013568
I0202 02:59:11.105983 21257 layer_factory.hpp:77] Creating layer relu4_2
I0202 02:59:11.105999 21257 net.cpp:100] Creating Layer relu4_2
I0202 02:59:11.106007 21257 net.cpp:434] relu4_2 <- conv4_2
I0202 02:59:11.106017 21257 net.cpp:395] relu4_2 -> conv4_2 (in-place)
I0202 02:59:11.106307 21257 net.cpp:150] Setting up relu4_2
I0202 02:59:11.106323 21257 net.cpp:157] Top shape: 1 512 71 88 (3198976)
I0202 02:59:11.106329 21257 net.cpp:165] Memory required for data: 871809472
I0202 02:59:11.106354 21257 layer_factory.hpp:77] Creating layer conv4_3
I0202 02:59:11.106376 21257 net.cpp:100] Creating Layer conv4_3
I0202 02:59:11.106387 21257 net.cpp:434] conv4_3 <- conv4_2
I0202 02:59:11.106401 21257 net.cpp:408] conv4_3 -> conv4_3
I0202 02:59:11.134915 21257 net.cpp:150] Setting up conv4_3
I0202 02:59:11.134949 21257 net.cpp:157] Top shape: 1 512 71 88 (3198976)
I0202 02:59:11.134956 21257 net.cpp:165] Memory required for data: 884605376
I0202 02:59:11.134970 21257 layer_factory.hpp:77] Creating layer relu4_3
I0202 02:59:11.134985 21257 net.cpp:100] Creating Layer relu4_3
I0202 02:59:11.134994 21257 net.cpp:434] relu4_3 <- conv4_3
I0202 02:59:11.135004 21257 net.cpp:395] relu4_3 -> conv4_3 (in-place)
I0202 02:59:11.135298 21257 net.cpp:150] Setting up relu4_3
I0202 02:59:11.135313 21257 net.cpp:157] Top shape: 1 512 71 88 (3198976)
I0202 02:59:11.135319 21257 net.cpp:165] Memory required for data: 897401280
I0202 02:59:11.135326 21257 layer_factory.hpp:77] Creating layer pool4
I0202 02:59:11.135341 21257 net.cpp:100] Creating Layer pool4
I0202 02:59:11.135349 21257 net.cpp:434] pool4 <- conv4_3
I0202 02:59:11.135359 21257 net.cpp:408] pool4 -> pool4
I0202 02:59:11.135437 21257 net.cpp:150] Setting up pool4
I0202 02:59:11.135449 21257 net.cpp:157] Top shape: 1 512 36 44 (811008)
I0202 02:59:11.135455 21257 net.cpp:165] Memory required for data: 900645312
I0202 02:59:11.135462 21257 layer_factory.hpp:77] Creating layer pool4_pool4_0_split
I0202 02:59:11.135473 21257 net.cpp:100] Creating Layer pool4_pool4_0_split
I0202 02:59:11.135480 21257 net.cpp:434] pool4_pool4_0_split <- pool4
I0202 02:59:11.135491 21257 net.cpp:408] pool4_pool4_0_split -> pool4_pool4_0_split_0
I0202 02:59:11.135502 21257 net.cpp:408] pool4_pool4_0_split -> pool4_pool4_0_split_1
I0202 02:59:11.135567 21257 net.cpp:150] Setting up pool4_pool4_0_split
I0202 02:59:11.135578 21257 net.cpp:157] Top shape: 1 512 36 44 (811008)
I0202 02:59:11.135587 21257 net.cpp:157] Top shape: 1 512 36 44 (811008)
I0202 02:59:11.135593 21257 net.cpp:165] Memory required for data: 907133376
I0202 02:59:11.135601 21257 layer_factory.hpp:77] Creating layer conv5_1
I0202 02:59:11.135620 21257 net.cpp:100] Creating Layer conv5_1
I0202 02:59:11.135628 21257 net.cpp:434] conv5_1 <- pool4_pool4_0_split_0
I0202 02:59:11.135639 21257 net.cpp:408] conv5_1 -> conv5_1
I0202 02:59:11.163825 21257 net.cpp:150] Setting up conv5_1
I0202 02:59:11.163861 21257 net.cpp:157] Top shape: 1 512 36 44 (811008)
I0202 02:59:11.163868 21257 net.cpp:165] Memory required for data: 910377408
I0202 02:59:11.163882 21257 layer_factory.hpp:77] Creating layer relu5_1
I0202 02:59:11.163894 21257 net.cpp:100] Creating Layer relu5_1
I0202 02:59:11.163903 21257 net.cpp:434] relu5_1 <- conv5_1
I0202 02:59:11.163916 21257 net.cpp:395] relu5_1 -> conv5_1 (in-place)
I0202 02:59:11.164419 21257 net.cpp:150] Setting up relu5_1
I0202 02:59:11.164440 21257 net.cpp:157] Top shape: 1 512 36 44 (811008)
I0202 02:59:11.164448 21257 net.cpp:165] Memory required for data: 913621440
I0202 02:59:11.164455 21257 layer_factory.hpp:77] Creating layer conv5_2
I0202 02:59:11.164472 21257 net.cpp:100] Creating Layer conv5_2
I0202 02:59:11.164480 21257 net.cpp:434] conv5_2 <- conv5_1
I0202 02:59:11.164492 21257 net.cpp:408] conv5_2 -> conv5_2
I0202 02:59:11.192863 21257 net.cpp:150] Setting up conv5_2
I0202 02:59:11.192899 21257 net.cpp:157] Top shape: 1 512 36 44 (811008)
I0202 02:59:11.192908 21257 net.cpp:165] Memory required for data: 916865472
I0202 02:59:11.192921 21257 layer_factory.hpp:77] Creating layer relu5_2
I0202 02:59:11.192934 21257 net.cpp:100] Creating Layer relu5_2
I0202 02:59:11.192944 21257 net.cpp:434] relu5_2 <- conv5_2
I0202 02:59:11.192956 21257 net.cpp:395] relu5_2 -> conv5_2 (in-place)
I0202 02:59:11.193259 21257 net.cpp:150] Setting up relu5_2
I0202 02:59:11.193274 21257 net.cpp:157] Top shape: 1 512 36 44 (811008)
I0202 02:59:11.193280 21257 net.cpp:165] Memory required for data: 920109504
I0202 02:59:11.193289 21257 layer_factory.hpp:77] Creating layer conv5_3
I0202 02:59:11.193315 21257 net.cpp:100] Creating Layer conv5_3
I0202 02:59:11.193322 21257 net.cpp:434] conv5_3 <- conv5_2
I0202 02:59:11.193333 21257 net.cpp:408] conv5_3 -> conv5_3
I0202 02:59:11.221436 21257 net.cpp:150] Setting up conv5_3
I0202 02:59:11.221472 21257 net.cpp:157] Top shape: 1 512 36 44 (811008)
I0202 02:59:11.221479 21257 net.cpp:165] Memory required for data: 923353536
I0202 02:59:11.221493 21257 layer_factory.hpp:77] Creating layer relu5_3
I0202 02:59:11.221505 21257 net.cpp:100] Creating Layer relu5_3
I0202 02:59:11.221514 21257 net.cpp:434] relu5_3 <- conv5_3
I0202 02:59:11.221524 21257 net.cpp:395] relu5_3 -> conv5_3 (in-place)
I0202 02:59:11.221820 21257 net.cpp:150] Setting up relu5_3
I0202 02:59:11.221837 21257 net.cpp:157] Top shape: 1 512 36 44 (811008)
I0202 02:59:11.221844 21257 net.cpp:165] Memory required for data: 926597568
I0202 02:59:11.221851 21257 layer_factory.hpp:77] Creating layer pool5
I0202 02:59:11.221863 21257 net.cpp:100] Creating Layer pool5
I0202 02:59:11.221870 21257 net.cpp:434] pool5 <- conv5_3
I0202 02:59:11.221884 21257 net.cpp:408] pool5 -> pool5
I0202 02:59:11.221966 21257 net.cpp:150] Setting up pool5
I0202 02:59:11.221977 21257 net.cpp:157] Top shape: 1 512 18 22 (202752)
I0202 02:59:11.221984 21257 net.cpp:165] Memory required for data: 927408576
I0202 02:59:11.221992 21257 layer_factory.hpp:77] Creating layer fc6
I0202 02:59:11.222009 21257 net.cpp:100] Creating Layer fc6
I0202 02:59:11.222018 21257 net.cpp:434] fc6 <- pool5
I0202 02:59:11.222029 21257 net.cpp:408] fc6 -> fc6
I0202 02:59:12.001359 21257 net.cpp:150] Setting up fc6
I0202 02:59:12.001405 21257 net.cpp:157] Top shape: 1 4096 12 16 (786432)
I0202 02:59:12.001410 21257 net.cpp:165] Memory required for data: 930554304
I0202 02:59:12.001421 21257 layer_factory.hpp:77] Creating layer relu6
I0202 02:59:12.001433 21257 net.cpp:100] Creating Layer relu6
I0202 02:59:12.001438 21257 net.cpp:434] relu6 <- fc6
I0202 02:59:12.001449 21257 net.cpp:395] relu6 -> fc6 (in-place)
I0202 02:59:12.001855 21257 net.cpp:150] Setting up relu6
I0202 02:59:12.001870 21257 net.cpp:157] Top shape: 1 4096 12 16 (786432)
I0202 02:59:12.001875 21257 net.cpp:165] Memory required for data: 933700032
I0202 02:59:12.001880 21257 layer_factory.hpp:77] Creating layer drop6
I0202 02:59:12.001888 21257 net.cpp:100] Creating Layer drop6
I0202 02:59:12.001893 21257 net.cpp:434] drop6 <- fc6
I0202 02:59:12.001902 21257 net.cpp:395] drop6 -> fc6 (in-place)
I0202 02:59:12.001941 21257 net.cpp:150] Setting up drop6
I0202 02:59:12.001952 21257 net.cpp:157] Top shape: 1 4096 12 16 (786432)
I0202 02:59:12.001956 21257 net.cpp:165] Memory required for data: 936845760
I0202 02:59:12.001961 21257 layer_factory.hpp:77] Creating layer fc7
I0202 02:59:12.001971 21257 net.cpp:100] Creating Layer fc7
I0202 02:59:12.001976 21257 net.cpp:434] fc7 <- fc6
I0202 02:59:12.001996 21257 net.cpp:408] fc7 -> fc7
I0202 02:59:12.125933 21257 net.cpp:150] Setting up fc7
I0202 02:59:12.125978 21257 net.cpp:157] Top shape: 1 4096 12 16 (786432)
I0202 02:59:12.125984 21257 net.cpp:165] Memory required for data: 939991488
I0202 02:59:12.125995 21257 layer_factory.hpp:77] Creating layer relu7
I0202 02:59:12.126009 21257 net.cpp:100] Creating Layer relu7
I0202 02:59:12.126015 21257 net.cpp:434] relu7 <- fc7
I0202 02:59:12.126024 21257 net.cpp:395] relu7 -> fc7 (in-place)
I0202 02:59:12.126235 21257 net.cpp:150] Setting up relu7
I0202 02:59:12.126245 21257 net.cpp:157] Top shape: 1 4096 12 16 (786432)
I0202 02:59:12.126250 21257 net.cpp:165] Memory required for data: 943137216
I0202 02:59:12.126255 21257 layer_factory.hpp:77] Creating layer drop7
I0202 02:59:12.126266 21257 net.cpp:100] Creating Layer drop7
I0202 02:59:12.126271 21257 net.cpp:434] drop7 <- fc7
I0202 02:59:12.126276 21257 net.cpp:395] drop7 -> fc7 (in-place)
I0202 02:59:12.126318 21257 net.cpp:150] Setting up drop7
I0202 02:59:12.126325 21257 net.cpp:157] Top shape: 1 4096 12 16 (786432)
I0202 02:59:12.126329 21257 net.cpp:165] Memory required for data: 946282944
I0202 02:59:12.126333 21257 layer_factory.hpp:77] Creating layer score_fr
I0202 02:59:12.126346 21257 net.cpp:100] Creating Layer score_fr
I0202 02:59:12.126351 21257 net.cpp:434] score_fr <- fc7
I0202 02:59:12.126359 21257 net.cpp:408] score_fr -> score_fr
I0202 02:59:12.127926 21257 net.cpp:150] Setting up score_fr
I0202 02:59:12.127941 21257 net.cpp:157] Top shape: 1 2 12 16 (384)
I0202 02:59:12.127946 21257 net.cpp:165] Memory required for data: 946284480
I0202 02:59:12.127955 21257 layer_factory.hpp:77] Creating layer upscore2
I0202 02:59:12.127969 21257 net.cpp:100] Creating Layer upscore2
I0202 02:59:12.127974 21257 net.cpp:434] upscore2 <- score_fr
I0202 02:59:12.127982 21257 net.cpp:408] upscore2 -> upscore2
I0202 02:59:12.128242 21257 net.cpp:150] Setting up upscore2
I0202 02:59:12.128252 21257 net.cpp:157] Top shape: 1 2 26 34 (1768)
I0202 02:59:12.128257 21257 net.cpp:165] Memory required for data: 946291552
I0202 02:59:12.128269 21257 layer_factory.hpp:77] Creating layer upscore2_upscore2_0_split
I0202 02:59:12.128279 21257 net.cpp:100] Creating Layer upscore2_upscore2_0_split
I0202 02:59:12.128283 21257 net.cpp:434] upscore2_upscore2_0_split <- upscore2
I0202 02:59:12.128290 21257 net.cpp:408] upscore2_upscore2_0_split -> upscore2_upscore2_0_split_0
I0202 02:59:12.128298 21257 net.cpp:408] upscore2_upscore2_0_split -> upscore2_upscore2_0_split_1
I0202 02:59:12.128345 21257 net.cpp:150] Setting up upscore2_upscore2_0_split
I0202 02:59:12.128353 21257 net.cpp:157] Top shape: 1 2 26 34 (1768)
I0202 02:59:12.128358 21257 net.cpp:157] Top shape: 1 2 26 34 (1768)
I0202 02:59:12.128362 21257 net.cpp:165] Memory required for data: 946305696
I0202 02:59:12.128367 21257 layer_factory.hpp:77] Creating layer scale_pool4
I0202 02:59:12.128377 21257 net.cpp:100] Creating Layer scale_pool4
I0202 02:59:12.128382 21257 net.cpp:434] scale_pool4 <- pool4_pool4_0_split_1
I0202 02:59:12.128388 21257 net.cpp:408] scale_pool4 -> scale_pool4
I0202 02:59:12.128515 21257 net.cpp:150] Setting up scale_pool4
I0202 02:59:12.128523 21257 net.cpp:157] Top shape: 1 512 36 44 (811008)
I0202 02:59:12.128527 21257 net.cpp:165] Memory required for data: 949549728
I0202 02:59:12.128533 21257 layer_factory.hpp:77] Creating layer score_pool4
I0202 02:59:12.128545 21257 net.cpp:100] Creating Layer score_pool4
I0202 02:59:12.128551 21257 net.cpp:434] score_pool4 <- scale_pool4
I0202 02:59:12.128558 21257 net.cpp:408] score_pool4 -> score_pool4
I0202 02:59:12.129889 21257 net.cpp:150] Setting up score_pool4
I0202 02:59:12.129905 21257 net.cpp:157] Top shape: 1 2 36 44 (3168)
I0202 02:59:12.129910 21257 net.cpp:165] Memory required for data: 949562400
I0202 02:59:12.129917 21257 layer_factory.hpp:77] Creating layer score_pool4c
I0202 02:59:12.129926 21257 net.cpp:100] Creating Layer score_pool4c
I0202 02:59:12.129931 21257 net.cpp:434] score_pool4c <- score_pool4
I0202 02:59:12.129950 21257 net.cpp:434] score_pool4c <- upscore2_upscore2_0_split_0
I0202 02:59:12.129957 21257 net.cpp:408] score_pool4c -> score_pool4c
I0202 02:59:12.129994 21257 net.cpp:150] Setting up score_pool4c
I0202 02:59:12.130009 21257 net.cpp:157] Top shape: 1 2 26 34 (1768)
I0202 02:59:12.130014 21257 net.cpp:165] Memory required for data: 949569472
I0202 02:59:12.130018 21257 layer_factory.hpp:77] Creating layer fuse_pool4
I0202 02:59:12.130026 21257 net.cpp:100] Creating Layer fuse_pool4
I0202 02:59:12.130031 21257 net.cpp:434] fuse_pool4 <- upscore2_upscore2_0_split_1
I0202 02:59:12.130036 21257 net.cpp:434] fuse_pool4 <- score_pool4c
I0202 02:59:12.130043 21257 net.cpp:408] fuse_pool4 -> fuse_pool4
I0202 02:59:12.130081 21257 net.cpp:150] Setting up fuse_pool4
I0202 02:59:12.130089 21257 net.cpp:157] Top shape: 1 2 26 34 (1768)
I0202 02:59:12.130092 21257 net.cpp:165] Memory required for data: 949576544
I0202 02:59:12.130096 21257 layer_factory.hpp:77] Creating layer upscore_pool4
I0202 02:59:12.130106 21257 net.cpp:100] Creating Layer upscore_pool4
I0202 02:59:12.130111 21257 net.cpp:434] upscore_pool4 <- fuse_pool4
I0202 02:59:12.130118 21257 net.cpp:408] upscore_pool4 -> upscore_pool4
I0202 02:59:12.130368 21257 net.cpp:150] Setting up upscore_pool4
I0202 02:59:12.130376 21257 net.cpp:157] Top shape: 1 2 54 70 (7560)
I0202 02:59:12.130380 21257 net.cpp:165] Memory required for data: 949606784
I0202 02:59:12.130386 21257 layer_factory.hpp:77] Creating layer upscore_pool4_upscore_pool4_0_split
I0202 02:59:12.130395 21257 net.cpp:100] Creating Layer upscore_pool4_upscore_pool4_0_split
I0202 02:59:12.130400 21257 net.cpp:434] upscore_pool4_upscore_pool4_0_split <- upscore_pool4
I0202 02:59:12.130405 21257 net.cpp:408] upscore_pool4_upscore_pool4_0_split -> upscore_pool4_upscore_pool4_0_split_0
I0202 02:59:12.130412 21257 net.cpp:408] upscore_pool4_upscore_pool4_0_split -> upscore_pool4_upscore_pool4_0_split_1
I0202 02:59:12.130460 21257 net.cpp:150] Setting up upscore_pool4_upscore_pool4_0_split
I0202 02:59:12.130466 21257 net.cpp:157] Top shape: 1 2 54 70 (7560)
I0202 02:59:12.130471 21257 net.cpp:157] Top shape: 1 2 54 70 (7560)
I0202 02:59:12.130475 21257 net.cpp:165] Memory required for data: 949667264
I0202 02:59:12.130480 21257 layer_factory.hpp:77] Creating layer scale_pool3
I0202 02:59:12.130486 21257 net.cpp:100] Creating Layer scale_pool3
I0202 02:59:12.130491 21257 net.cpp:434] scale_pool3 <- pool3_pool3_0_split_1
I0202 02:59:12.130497 21257 net.cpp:408] scale_pool3 -> scale_pool3
I0202 02:59:12.130612 21257 net.cpp:150] Setting up scale_pool3
I0202 02:59:12.130620 21257 net.cpp:157] Top shape: 1 256 71 88 (1599488)
I0202 02:59:12.130625 21257 net.cpp:165] Memory required for data: 956065216
I0202 02:59:12.130630 21257 layer_factory.hpp:77] Creating layer score_pool3
I0202 02:59:12.130641 21257 net.cpp:100] Creating Layer score_pool3
I0202 02:59:12.130645 21257 net.cpp:434] score_pool3 <- scale_pool3
I0202 02:59:12.130652 21257 net.cpp:408] score_pool3 -> score_pool3
I0202 02:59:12.132000 21257 net.cpp:150] Setting up score_pool3
I0202 02:59:12.132015 21257 net.cpp:157] Top shape: 1 2 71 88 (12496)
I0202 02:59:12.132020 21257 net.cpp:165] Memory required for data: 956115200
I0202 02:59:12.132028 21257 layer_factory.hpp:77] Creating layer score_pool3c
I0202 02:59:12.132036 21257 net.cpp:100] Creating Layer score_pool3c
I0202 02:59:12.132042 21257 net.cpp:434] score_pool3c <- score_pool3
I0202 02:59:12.132047 21257 net.cpp:434] score_pool3c <- upscore_pool4_upscore_pool4_0_split_0
I0202 02:59:12.132056 21257 net.cpp:408] score_pool3c -> score_pool3c
I0202 02:59:12.132092 21257 net.cpp:150] Setting up score_pool3c
I0202 02:59:12.132100 21257 net.cpp:157] Top shape: 1 2 54 70 (7560)
I0202 02:59:12.132104 21257 net.cpp:165] Memory required for data: 956145440
I0202 02:59:12.132109 21257 layer_factory.hpp:77] Creating layer fuse_pool3
I0202 02:59:12.132118 21257 net.cpp:100] Creating Layer fuse_pool3
I0202 02:59:12.132122 21257 net.cpp:434] fuse_pool3 <- upscore_pool4_upscore_pool4_0_split_1
I0202 02:59:12.132128 21257 net.cpp:434] fuse_pool3 <- score_pool3c
I0202 02:59:12.132139 21257 net.cpp:408] fuse_pool3 -> fuse_pool3
I0202 02:59:12.132174 21257 net.cpp:150] Setting up fuse_pool3
I0202 02:59:12.132180 21257 net.cpp:157] Top shape: 1 2 54 70 (7560)
I0202 02:59:12.132184 21257 net.cpp:165] Memory required for data: 956175680
I0202 02:59:12.132189 21257 layer_factory.hpp:77] Creating layer upscore8
I0202 02:59:12.132203 21257 net.cpp:100] Creating Layer upscore8
I0202 02:59:12.132211 21257 net.cpp:434] upscore8 <- fuse_pool3
I0202 02:59:12.132225 21257 net.cpp:408] upscore8 -> upscore8
I0202 02:59:12.132573 21257 net.cpp:150] Setting up upscore8
I0202 02:59:12.132583 21257 net.cpp:157] Top shape: 1 2 440 568 (499840)
I0202 02:59:12.132587 21257 net.cpp:165] Memory required for data: 958175040
I0202 02:59:12.132593 21257 layer_factory.hpp:77] Creating layer score
I0202 02:59:12.132601 21257 net.cpp:100] Creating Layer score
I0202 02:59:12.132606 21257 net.cpp:434] score <- upscore8
I0202 02:59:12.132611 21257 net.cpp:434] score <- data_data_0_split_1
I0202 02:59:12.132616 21257 net.cpp:408] score -> score
I0202 02:59:12.132658 21257 net.cpp:150] Setting up score
I0202 02:59:12.132670 21257 net.cpp:157] Top shape: 1 2 366 500 (366000)
I0202 02:59:12.132676 21257 net.cpp:165] Memory required for data: 959639040
I0202 02:59:12.132683 21257 layer_factory.hpp:77] Creating layer loss
I0202 02:59:12.132692 21257 net.cpp:100] Creating Layer loss
I0202 02:59:12.132699 21257 net.cpp:434] loss <- score
I0202 02:59:12.132709 21257 net.cpp:434] loss <- label
I0202 02:59:12.132717 21257 net.cpp:408] loss -> loss
I0202 02:59:12.132730 21257 layer_factory.hpp:77] Creating layer loss
…
