…
test_initialization: false
average_loss: 20
iter_size: 1
I0215 15:19:27.089710 17873 solver.cpp:81] Creating training net from train_net file: train.prototxt
I0215 15:19:27.091202 17873 net.cpp:58] Initializing net from parameters: 
state {
  phase: TRAIN
}
layer {
  name: "data"
  type: "Python"
  top: "data"
  top: "label"
  python_param {
    module: "voc_layers"
    layer: "SBDDSegDataLayer"
    param_str: "{\'sbdd_dir\': \'../data/sbdd-subsampl/dataset\', \'seed\': 1337, \'split\': \'train_pt4_sglinst\', \'mean\': (104.00699, 116.66877, 122.67892)}"
  }
}
layer {
  name: "conv1_1"
  type: "Convolution"
  bottom: "data"
  top: "conv1_1"
  param {
    lr_mult: 1
    decay_mult: 1
  }
  param {
    lr_mult: 2
    decay_mult: 0
  }
  convolution_param {
    num_output: 64
    pad: 100
    kernel_size: 3
    stride: 1
    weight_filler {
      type: "xavier"
    }
  }
}
layer {
  name: "relu1_1"
  type: "ReLU"
  bottom: "conv1_1"
  top: "conv1_1"
}
layer {
  name: "conv1_2"
  type: "Convolution"
  bottom: "conv1_1"
  top: "conv1_2"
  param {
    lr_mult: 1
    decay_mult: 1
  }
  param {
    lr_mult: 2
    decay_mult: 0
  }
  convolution_param {
    num_output: 64
    pad: 1
    kernel_size: 3
    stride: 1
    weight_filler {
      type: "xavier"
    }
  }
}
layer {
  name: "relu1_2"
  type: "ReLU"
  bottom: "conv1_2"
  top: "conv1_2"
}
layer {
  name: "pool1"
  type: "Pooling"
  bottom: "conv1_2"
  top: "pool1"
  pooling_param {
    pool: MAX
    kernel_size: 2
    stride: 2
  }
}
layer {
  name: "conv2_1"
  type: "Convolution"
  bottom: "pool1"
  top: "conv2_1"
  param {
    lr_mult: 1
    decay_mult: 1
  }
  param {
    lr_mult: 2
    decay_mult: 0
  }
  convolution_param {
    num_output: 128
    pad: 1
    kernel_size: 3
    stride: 1
    weight_filler {
      type: "xavier"
    }
  }
}
layer {
  name: "relu2_1"
  type: "ReLU"
  bottom: "conv2_1"
  top: "conv2_1"
}
layer {
  name: "conv2_2"
  type: "Convolution"
  bottom: "conv2_1"
  top: "conv2_2"
  param {
    lr_mult: 1
    decay_mult: 1
  }
  param {
    lr_mult: 2
    decay_mult: 0
  }
  convolution_param {
    num_output: 128
    pad: 1
    kernel_size: 3
    stride: 1
    weight_filler {
      type: "xavier"
    }
  }
}
layer {
  name: "relu2_2"
  type: "ReLU"
  bottom: "conv2_2"
  top: "conv2_2"
}
layer {
  name: "pool2"
  type: "Pooling"
  bottom: "conv2_2"
  top: "pool2"
  pooling_param {
    pool: MAX
    kernel_size: 2
    stride: 2
  }
}
layer {
  name: "conv3_1"
  type: "Convolution"
  bottom: "pool2"
  top: "conv3_1"
  param {
    lr_mult: 1
    decay_mult: 1
  }
  param {
    lr_mult: 2
    decay_mult: 0
  }
  convolution_param {
    num_output: 256
    pad: 1
    kernel_size: 3
    stride: 1
    weight_filler {
      type: "xavier"
    }
  }
}
layer {
  name: "relu3_1"
  type: "ReLU"
  bottom: "conv3_1"
  top: "conv3_1"
}
layer {
  name: "conv3_2"
  type: "Convolution"
  bottom: "conv3_1"
  top: "conv3_2"
  param {
    lr_mult: 1
    decay_mult: 1
  }
  param {
    lr_mult: 2
    decay_mult: 0
  }
  convolution_param {
    num_output: 256
    pad: 1
    kernel_size: 3
    stride: 1
    weight_filler {
      type: "xavier"
    }
  }
}
layer {
  name: "relu3_2"
  type: "ReLU"
  bottom: "conv3_2"
  top: "conv3_2"
}
layer {
  name: "conv3_3"
  type: "Convolution"
  bottom: "conv3_2"
  top: "conv3_3"
  param {
    lr_mult: 1
    decay_mult: 1
  }
  param {
    lr_mult: 2
    decay_mult: 0
  }
  convolution_param {
    num_output: 256
    pad: 1
    kernel_size: 3
    stride: 1
    weight_filler {
      type: "xavier"
    }
  }
}
layer {
  name: "relu3_3"
  type: "ReLU"
  bottom: "conv3_3"
  top: "conv3_3"
}
layer {
  name: "pool3"
  type: "Pooling"
  bottom: "conv3_3"
  top: "pool3"
  pooling_param {
    pool: MAX
    kernel_size: 2
    stride: 2
  }
}
layer {
  name: "conv4_1"
  type: "Convolution"
  bottom: "pool3"
  top: "conv4_1"
  param {
    lr_mult: 1
    decay_mult: 1
  }
  param {
    lr_mult: 2
    decay_mult: 0
  }
  convolution_param {
    num_output: 512
    pad: 1
    kernel_size: 3
    stride: 1
    weight_filler {
      type: "xavier"
    }
  }
}
layer {
  name: "relu4_1"
  type: "ReLU"
  bottom: "conv4_1"
  top: "conv4_1"
}
layer {
  name: "conv4_2"
  type: "Convolution"
  bottom: "conv4_1"
  top: "conv4_2"
  param {
    lr_mult: 1
    decay_mult: 1
  }
  param {
    lr_mult: 2
    decay_mult: 0
  }
  convolution_param {
    num_output: 512
    pad: 1
    kernel_size: 3
    stride: 1
    weight_filler {
      type: "xavier"
    }
  }
}
layer {
  name: "relu4_2"
  type: "ReLU"
  bottom: "conv4_2"
  top: "conv4_2"
}
layer {
  name: "conv4_3"
  type: "Convolution"
  bottom: "conv4_2"
  top: "conv4_3"
  param {
    lr_mult: 1
    decay_mult: 1
  }
  param {
    lr_mult: 2
    decay_mult: 0
  }
  convolution_param {
    num_output: 512
    pad: 1
    kernel_size: 3
    stride: 1
    weight_filler {
      type: "xavier"
    }
  }
}
layer {
  name: "relu4_3"
  type: "ReLU"
  bottom: "conv4_3"
  top: "conv4_3"
}
layer {
  name: "pool4"
  type: "Pooling"
  bottom: "conv4_3"
  top: "pool4"
  pooling_param {
    pool: MAX
    kernel_size: 2
    stride: 2
  }
}
layer {
  name: "conv5_1"
  type: "Convolution"
  bottom: "pool4"
  top: "conv5_1"
  param {
    lr_mult: 1
    decay_mult: 1
  }
  param {
    lr_mult: 2
    decay_mult: 0
  }
  convolution_param {
    num_output: 512
    pad: 1
    kernel_size: 3
    stride: 1
    weight_filler {
      type: "xavier"
    }
  }
}
layer {
  name: "relu5_1"
  type: "ReLU"
  bottom: "conv5_1"
  top: "conv5_1"
}
layer {
  name: "conv5_2"
  type: "Convolution"
  bottom: "conv5_1"
  top: "conv5_2"
  param {
    lr_mult: 1
    decay_mult: 1
  }
  param {
    lr_mult: 2
    decay_mult: 0
  }
  convolution_param {
    num_output: 512
    pad: 1
    kernel_size: 3
    stride: 1
    weight_filler {
      type: "xavier"
    }
  }
}
layer {
  name: "relu5_2"
  type: "ReLU"
  bottom: "conv5_2"
  top: "conv5_2"
}
layer {
  name: "conv5_3"
  type: "Convolution"
  bottom: "conv5_2"
  top: "conv5_3"
  param {
    lr_mult: 1
    decay_mult: 1
  }
  param {
    lr_mult: 2
    decay_mult: 0
  }
  convolution_param {
    num_output: 512
    pad: 1
    kernel_size: 3
    stride: 1
    weight_filler {
      type: "xavier"
    }
  }
}
layer {
  name: "relu5_3"
  type: "ReLU"
  bottom: "conv5_3"
  top: "conv5_3"
}
layer {
  name: "pool5"
  type: "Pooling"
  bottom: "conv5_3"
  top: "pool5"
  pooling_param {
    pool: MAX
    kernel_size: 2
    stride: 2
  }
}
layer {
  name: "fc6"
  type: "Convolution"
  bottom: "pool5"
  top: "fc6"
  param {
    lr_mult: 1
    decay_mult: 1
  }
  param {
    lr_mult: 2
    decay_mult: 0
  }
  convolution_param {
    num_output: 4096
    pad: 0
    kernel_size: 7
    stride: 1
    weight_filler {
      type: "xavier"
    }
  }
}
layer {
  name: "relu6"
  type: "ReLU"
  bottom: "fc6"
  top: "fc6"
}
layer {
  name: "drop6"
  type: "Dropout"
  bottom: "fc6"
  top: "fc6"
  dropout_param {
    dropout_ratio: 0.5
  }
}
layer {
  name: "fc7"
  type: "Convolution"
  bottom: "fc6"
  top: "fc7"
  param {
    lr_mult: 1
    decay_mult: 1
  }
  param {
    lr_mult: 2
    decay_mult: 0
  }
  convolution_param {
    num_output: 4096
    pad: 0
    kernel_size: 1
    stride: 1
    weight_filler {
      type: "xavier"
    }
  }
}
layer {
  name: "relu7"
  type: "ReLU"
  bottom: "fc7"
  top: "fc7"
}
layer {
  name: "drop7"
  type: "Dropout"
  bottom: "fc7"
  top: "fc7"
  dropout_param {
    dropout_ratio: 0.5
  }
}
layer {
  name: "score_fr"
  type: "Convolution"
  bottom: "fc7"
  top: "score_fr"
  param {
    lr_mult: 1
    decay_mult: 1
  }
  param {
    lr_mult: 2
    decay_mult: 0
  }
  convolution_param {
    num_output: 16
    pad: 0
    kernel_size: 1
    weight_filler {
      type: "xavier"
    }
  }
}
layer {
  name: "upscore2"
  type: "Deconvolution"
  bottom: "score_fr"
  top: "upscore2"
  param {
    lr_mult: 0
  }
  convolution_param {
    num_output: 16
    bias_term: false
    kernel_size: 4
    stride: 2
    weight_filler {
      type: "xavier"
    }
  }
}
layer {
  name: "scale_pool4"
  type: "Scale"
  bottom: "pool4"
  top: "scale_pool4"
  param {
    lr_mult: 0
  }
  scale_param {
    filler {
      type: "constant"
      value: 0.01
    }
  }
}
layer {
  name: "score_pool4"
  type: "Convolution"
  bottom: "scale_pool4"
  top: "score_pool4"
  param {
    lr_mult: 1
    decay_mult: 1
  }
  param {
    lr_mult: 2
    decay_mult: 0
  }
  convolution_param {
    num_output: 16
    pad: 0
    kernel_size: 1
    weight_filler {
      type: "xavier"
    }
  }
}
layer {
  name: "score_pool4c"
  type: "Crop"
  bottom: "score_pool4"
  bottom: "upscore2"
  top: "score_pool4c"
  crop_param {
    axis: 2
    offset: 5
  }
}
layer {
  name: "fuse_pool4"
  type: "Eltwise"
  bottom: "upscore2"
  bottom: "score_pool4c"
  top: "fuse_pool4"
  eltwise_param {
    operation: SUM
  }
}
layer {
  name: "upscore_pool4"
  type: "Deconvolution"
  bottom: "fuse_pool4"
  top: "upscore_pool4"
  param {
    lr_mult: 0
  }
  convolution_param {
    num_output: 16
    bias_term: false
    kernel_size: 4
    stride: 2
    weight_filler {
      type: "xavier"
    }
  }
}
layer {
  name: "scale_pool3"
  type: "Scale"
  bottom: "pool3"
  top: "scale_pool3"
  param {
    lr_mult: 0
  }
  scale_param {
    filler {
      type: "constant"
      value: 0.0001
    }
  }
}
layer {
  name: "score_pool3"
  type: "Convolution"
  bottom: "scale_pool3"
  top: "score_pool3"
  param {
    lr_mult: 1
    decay_mult: 1
  }
  param {
    lr_mult: 2
    decay_mult: 0
  }
  convolution_param {
    num_output: 16
    pad: 0
    kernel_size: 1
    weight_filler {
      type: "xavier"
    }
  }
}
layer {
  name: "score_pool3c"
  type: "Crop"
  bottom: "score_pool3"
  bottom: "upscore_pool4"
  top: "score_pool3c"
  crop_param {
    axis: 2
    offset: 9
  }
}
layer {
  name: "fuse_pool3"
  type: "Eltwise"
  bottom: "upscore_pool4"
  bottom: "score_pool3c"
  top: "fuse_pool3"
  eltwise_param {
    operation: SUM
  }
}
layer {
  name: "upscore8"
  type: "Deconvolution"
  bottom: "fuse_pool3"
  top: "upscore8"
  param {
    lr_mult: 0
  }
  convolution_param {
    num_output: 16
    bias_term: false
    kernel_size: 16
    stride: 8
    weight_filler {
      type: "xavier"
    }
  }
}
layer {
  name: "score"
  type: "Crop"
  bottom: "upscore8"
  bottom: "data"
  top: "score"
  crop_param {
    axis: 2
    offset: 31
  }
}
layer {
  name: "loss"
  type: "SoftmaxWithLoss"
  bottom: "score"
  bottom: "label"
  top: "loss"
  loss_param {
    ignore_label: 255
    normalize: false
  }
}
I0215 15:19:27.091457 17873 layer_factory.hpp:77] Creating layer data
I0215 15:19:27.091910 17873 net.cpp:100] Creating Layer data
I0215 15:19:27.091928 17873 net.cpp:408] data -> data
I0215 15:19:27.091945 17873 net.cpp:408] data -> label
I0215 15:19:27.119230 17873 net.cpp:150] Setting up data
I0215 15:19:27.119266 17873 net.cpp:157] Top shape: 1 3 188 250 (141000)
I0215 15:19:27.119272 17873 net.cpp:157] Top shape: 1 1 188 250 (47000)
I0215 15:19:27.119277 17873 net.cpp:165] Memory required for data: 752000
I0215 15:19:27.119285 17873 layer_factory.hpp:77] Creating layer data_data_0_split
I0215 15:19:27.119300 17873 net.cpp:100] Creating Layer data_data_0_split
I0215 15:19:27.119307 17873 net.cpp:434] data_data_0_split <- data
I0215 15:19:27.119318 17873 net.cpp:408] data_data_0_split -> data_data_0_split_0
I0215 15:19:27.119329 17873 net.cpp:408] data_data_0_split -> data_data_0_split_1
I0215 15:19:27.119369 17873 net.cpp:150] Setting up data_data_0_split
I0215 15:19:27.119379 17873 net.cpp:157] Top shape: 1 3 188 250 (141000)
I0215 15:19:27.119384 17873 net.cpp:157] Top shape: 1 3 188 250 (141000)
I0215 15:19:27.119387 17873 net.cpp:165] Memory required for data: 1880000
I0215 15:19:27.119391 17873 layer_factory.hpp:77] Creating layer conv1_1
I0215 15:19:27.119412 17873 net.cpp:100] Creating Layer conv1_1
I0215 15:19:27.119417 17873 net.cpp:434] conv1_1 <- data_data_0_split_0
I0215 15:19:27.119434 17873 net.cpp:408] conv1_1 -> conv1_1
I0215 15:19:27.301934 17873 net.cpp:150] Setting up conv1_1
I0215 15:19:27.301985 17873 net.cpp:157] Top shape: 1 64 386 448 (11067392)
I0215 15:19:27.301991 17873 net.cpp:165] Memory required for data: 46149568
I0215 15:19:27.302014 17873 layer_factory.hpp:77] Creating layer relu1_1
I0215 15:19:27.302032 17873 net.cpp:100] Creating Layer relu1_1
I0215 15:19:27.302038 17873 net.cpp:434] relu1_1 <- conv1_1
I0215 15:19:27.302047 17873 net.cpp:395] relu1_1 -> conv1_1 (in-place)
I0215 15:19:27.302402 17873 net.cpp:150] Setting up relu1_1
I0215 15:19:27.302417 17873 net.cpp:157] Top shape: 1 64 386 448 (11067392)
I0215 15:19:27.302422 17873 net.cpp:165] Memory required for data: 90419136
I0215 15:19:27.302428 17873 layer_factory.hpp:77] Creating layer conv1_2
I0215 15:19:27.302444 17873 net.cpp:100] Creating Layer conv1_2
I0215 15:19:27.302450 17873 net.cpp:434] conv1_2 <- conv1_1
I0215 15:19:27.302459 17873 net.cpp:408] conv1_2 -> conv1_2
I0215 15:19:27.304873 17873 net.cpp:150] Setting up conv1_2
I0215 15:19:27.304890 17873 net.cpp:157] Top shape: 1 64 386 448 (11067392)
I0215 15:19:27.304895 17873 net.cpp:165] Memory required for data: 134688704
I0215 15:19:27.304906 17873 layer_factory.hpp:77] Creating layer relu1_2
I0215 15:19:27.304919 17873 net.cpp:100] Creating Layer relu1_2
I0215 15:19:27.304924 17873 net.cpp:434] relu1_2 <- conv1_2
I0215 15:19:27.304931 17873 net.cpp:395] relu1_2 -> conv1_2 (in-place)
I0215 15:19:27.305295 17873 net.cpp:150] Setting up relu1_2
I0215 15:19:27.305311 17873 net.cpp:157] Top shape: 1 64 386 448 (11067392)
I0215 15:19:27.305315 17873 net.cpp:165] Memory required for data: 178958272
I0215 15:19:27.305320 17873 layer_factory.hpp:77] Creating layer pool1
I0215 15:19:27.305332 17873 net.cpp:100] Creating Layer pool1
I0215 15:19:27.305337 17873 net.cpp:434] pool1 <- conv1_2
I0215 15:19:27.305344 17873 net.cpp:408] pool1 -> pool1
I0215 15:19:27.305397 17873 net.cpp:150] Setting up pool1
I0215 15:19:27.305404 17873 net.cpp:157] Top shape: 1 64 193 224 (2766848)
I0215 15:19:27.305409 17873 net.cpp:165] Memory required for data: 190025664
I0215 15:19:27.305413 17873 layer_factory.hpp:77] Creating layer conv2_1
I0215 15:19:27.305425 17873 net.cpp:100] Creating Layer conv2_1
I0215 15:19:27.305430 17873 net.cpp:434] conv2_1 <- pool1
I0215 15:19:27.305438 17873 net.cpp:408] conv2_1 -> conv2_1
I0215 15:19:27.307148 17873 net.cpp:150] Setting up conv2_1
I0215 15:19:27.307165 17873 net.cpp:157] Top shape: 1 128 193 224 (5533696)
I0215 15:19:27.307173 17873 net.cpp:165] Memory required for data: 212160448
I0215 15:19:27.307184 17873 layer_factory.hpp:77] Creating layer relu2_1
I0215 15:19:27.307193 17873 net.cpp:100] Creating Layer relu2_1
I0215 15:19:27.307199 17873 net.cpp:434] relu2_1 <- conv2_1
I0215 15:19:27.307204 17873 net.cpp:395] relu2_1 -> conv2_1 (in-place)
I0215 15:19:27.307404 17873 net.cpp:150] Setting up relu2_1
I0215 15:19:27.307415 17873 net.cpp:157] Top shape: 1 128 193 224 (5533696)
I0215 15:19:27.307420 17873 net.cpp:165] Memory required for data: 234295232
I0215 15:19:27.307423 17873 layer_factory.hpp:77] Creating layer conv2_2
I0215 15:19:27.307435 17873 net.cpp:100] Creating Layer conv2_2
I0215 15:19:27.307441 17873 net.cpp:434] conv2_2 <- conv2_1
I0215 15:19:27.307451 17873 net.cpp:408] conv2_2 -> conv2_2
I0215 15:19:27.309967 17873 net.cpp:150] Setting up conv2_2
I0215 15:19:27.309985 17873 net.cpp:157] Top shape: 1 128 193 224 (5533696)
I0215 15:19:27.309990 17873 net.cpp:165] Memory required for data: 256430016
I0215 15:19:27.309999 17873 layer_factory.hpp:77] Creating layer relu2_2
I0215 15:19:27.310008 17873 net.cpp:100] Creating Layer relu2_2
I0215 15:19:27.310012 17873 net.cpp:434] relu2_2 <- conv2_2
I0215 15:19:27.310019 17873 net.cpp:395] relu2_2 -> conv2_2 (in-place)
I0215 15:19:27.310395 17873 net.cpp:150] Setting up relu2_2
I0215 15:19:27.310408 17873 net.cpp:157] Top shape: 1 128 193 224 (5533696)
I0215 15:19:27.310413 17873 net.cpp:165] Memory required for data: 278564800
I0215 15:19:27.310428 17873 layer_factory.hpp:77] Creating layer pool2
I0215 15:19:27.310437 17873 net.cpp:100] Creating Layer pool2
I0215 15:19:27.310442 17873 net.cpp:434] pool2 <- conv2_2
I0215 15:19:27.310449 17873 net.cpp:408] pool2 -> pool2
I0215 15:19:27.310498 17873 net.cpp:150] Setting up pool2
I0215 15:19:27.310506 17873 net.cpp:157] Top shape: 1 128 97 112 (1390592)
I0215 15:19:27.310510 17873 net.cpp:165] Memory required for data: 284127168
I0215 15:19:27.310515 17873 layer_factory.hpp:77] Creating layer conv3_1
I0215 15:19:27.310528 17873 net.cpp:100] Creating Layer conv3_1
I0215 15:19:27.310531 17873 net.cpp:434] conv3_1 <- pool2
I0215 15:19:27.310540 17873 net.cpp:408] conv3_1 -> conv3_1
I0215 15:19:27.314220 17873 net.cpp:150] Setting up conv3_1
I0215 15:19:27.314236 17873 net.cpp:157] Top shape: 1 256 97 112 (2781184)
I0215 15:19:27.314241 17873 net.cpp:165] Memory required for data: 295251904
I0215 15:19:27.314254 17873 layer_factory.hpp:77] Creating layer relu3_1
I0215 15:19:27.314263 17873 net.cpp:100] Creating Layer relu3_1
I0215 15:19:27.314268 17873 net.cpp:434] relu3_1 <- conv3_1
I0215 15:19:27.314275 17873 net.cpp:395] relu3_1 -> conv3_1 (in-place)
I0215 15:19:27.314637 17873 net.cpp:150] Setting up relu3_1
I0215 15:19:27.314652 17873 net.cpp:157] Top shape: 1 256 97 112 (2781184)
I0215 15:19:27.314657 17873 net.cpp:165] Memory required for data: 306376640
I0215 15:19:27.314662 17873 layer_factory.hpp:77] Creating layer conv3_2
I0215 15:19:27.314674 17873 net.cpp:100] Creating Layer conv3_2
I0215 15:19:27.314680 17873 net.cpp:434] conv3_2 <- conv3_1
I0215 15:19:27.314688 17873 net.cpp:408] conv3_2 -> conv3_2
I0215 15:19:27.319908 17873 net.cpp:150] Setting up conv3_2
I0215 15:19:27.319926 17873 net.cpp:157] Top shape: 1 256 97 112 (2781184)
I0215 15:19:27.319931 17873 net.cpp:165] Memory required for data: 317501376
I0215 15:19:27.319939 17873 layer_factory.hpp:77] Creating layer relu3_2
I0215 15:19:27.319948 17873 net.cpp:100] Creating Layer relu3_2
I0215 15:19:27.319954 17873 net.cpp:434] relu3_2 <- conv3_2
I0215 15:19:27.319962 17873 net.cpp:395] relu3_2 -> conv3_2 (in-place)
I0215 15:19:27.320152 17873 net.cpp:150] Setting up relu3_2
I0215 15:19:27.320163 17873 net.cpp:157] Top shape: 1 256 97 112 (2781184)
I0215 15:19:27.320168 17873 net.cpp:165] Memory required for data: 328626112
I0215 15:19:27.320173 17873 layer_factory.hpp:77] Creating layer conv3_3
I0215 15:19:27.320188 17873 net.cpp:100] Creating Layer conv3_3
I0215 15:19:27.320194 17873 net.cpp:434] conv3_3 <- conv3_2
I0215 15:19:27.320201 17873 net.cpp:408] conv3_3 -> conv3_3
I0215 15:19:27.325402 17873 net.cpp:150] Setting up conv3_3
I0215 15:19:27.325418 17873 net.cpp:157] Top shape: 1 256 97 112 (2781184)
I0215 15:19:27.325423 17873 net.cpp:165] Memory required for data: 339750848
I0215 15:19:27.325431 17873 layer_factory.hpp:77] Creating layer relu3_3
I0215 15:19:27.325441 17873 net.cpp:100] Creating Layer relu3_3
I0215 15:19:27.325446 17873 net.cpp:434] relu3_3 <- conv3_3
I0215 15:19:27.325453 17873 net.cpp:395] relu3_3 -> conv3_3 (in-place)
I0215 15:19:27.325824 17873 net.cpp:150] Setting up relu3_3
I0215 15:19:27.325839 17873 net.cpp:157] Top shape: 1 256 97 112 (2781184)
I0215 15:19:27.325844 17873 net.cpp:165] Memory required for data: 350875584
I0215 15:19:27.325848 17873 layer_factory.hpp:77] Creating layer pool3
I0215 15:19:27.325858 17873 net.cpp:100] Creating Layer pool3
I0215 15:19:27.325863 17873 net.cpp:434] pool3 <- conv3_3
I0215 15:19:27.325870 17873 net.cpp:408] pool3 -> pool3
I0215 15:19:27.325919 17873 net.cpp:150] Setting up pool3
I0215 15:19:27.325927 17873 net.cpp:157] Top shape: 1 256 49 56 (702464)
I0215 15:19:27.325932 17873 net.cpp:165] Memory required for data: 353685440
I0215 15:19:27.325935 17873 layer_factory.hpp:77] Creating layer pool3_pool3_0_split
I0215 15:19:27.325943 17873 net.cpp:100] Creating Layer pool3_pool3_0_split
I0215 15:19:27.325947 17873 net.cpp:434] pool3_pool3_0_split <- pool3
I0215 15:19:27.325955 17873 net.cpp:408] pool3_pool3_0_split -> pool3_pool3_0_split_0
I0215 15:19:27.325963 17873 net.cpp:408] pool3_pool3_0_split -> pool3_pool3_0_split_1
I0215 15:19:27.326010 17873 net.cpp:150] Setting up pool3_pool3_0_split
I0215 15:19:27.326019 17873 net.cpp:157] Top shape: 1 256 49 56 (702464)
I0215 15:19:27.326023 17873 net.cpp:157] Top shape: 1 256 49 56 (702464)
I0215 15:19:27.326027 17873 net.cpp:165] Memory required for data: 359305152
I0215 15:19:27.326032 17873 layer_factory.hpp:77] Creating layer conv4_1
I0215 15:19:27.326045 17873 net.cpp:100] Creating Layer conv4_1
I0215 15:19:27.326050 17873 net.cpp:434] conv4_1 <- pool3_pool3_0_split_0
I0215 15:19:27.326057 17873 net.cpp:408] conv4_1 -> conv4_1
I0215 15:19:27.335733 17873 net.cpp:150] Setting up conv4_1
I0215 15:19:27.335752 17873 net.cpp:157] Top shape: 1 512 49 56 (1404928)
I0215 15:19:27.335757 17873 net.cpp:165] Memory required for data: 364924864
I0215 15:19:27.335765 17873 layer_factory.hpp:77] Creating layer relu4_1
I0215 15:19:27.335775 17873 net.cpp:100] Creating Layer relu4_1
I0215 15:19:27.335782 17873 net.cpp:434] relu4_1 <- conv4_1
I0215 15:19:27.335788 17873 net.cpp:395] relu4_1 -> conv4_1 (in-place)
I0215 15:19:27.336160 17873 net.cpp:150] Setting up relu4_1
I0215 15:19:27.336174 17873 net.cpp:157] Top shape: 1 512 49 56 (1404928)
I0215 15:19:27.336179 17873 net.cpp:165] Memory required for data: 370544576
I0215 15:19:27.336184 17873 layer_factory.hpp:77] Creating layer conv4_2
I0215 15:19:27.336196 17873 net.cpp:100] Creating Layer conv4_2
I0215 15:19:27.336202 17873 net.cpp:434] conv4_2 <- conv4_1
I0215 15:19:27.336211 17873 net.cpp:408] conv4_2 -> conv4_2
I0215 15:19:27.353173 17873 net.cpp:150] Setting up conv4_2
I0215 15:19:27.353200 17873 net.cpp:157] Top shape: 1 512 49 56 (1404928)
I0215 15:19:27.353205 17873 net.cpp:165] Memory required for data: 376164288
I0215 15:19:27.353222 17873 layer_factory.hpp:77] Creating layer relu4_2
I0215 15:19:27.353233 17873 net.cpp:100] Creating Layer relu4_2
I0215 15:19:27.353238 17873 net.cpp:434] relu4_2 <- conv4_2
I0215 15:19:27.353247 17873 net.cpp:395] relu4_2 -> conv4_2 (in-place)
I0215 15:19:27.353440 17873 net.cpp:150] Setting up relu4_2
I0215 15:19:27.353451 17873 net.cpp:157] Top shape: 1 512 49 56 (1404928)
I0215 15:19:27.353456 17873 net.cpp:165] Memory required for data: 381784000
I0215 15:19:27.353461 17873 layer_factory.hpp:77] Creating layer conv4_3
I0215 15:19:27.353474 17873 net.cpp:100] Creating Layer conv4_3
I0215 15:19:27.353479 17873 net.cpp:434] conv4_3 <- conv4_2
I0215 15:19:27.353489 17873 net.cpp:408] conv4_3 -> conv4_3
I0215 15:19:27.370548 17873 net.cpp:150] Setting up conv4_3
I0215 15:19:27.370575 17873 net.cpp:157] Top shape: 1 512 49 56 (1404928)
I0215 15:19:27.370580 17873 net.cpp:165] Memory required for data: 387403712
I0215 15:19:27.370590 17873 layer_factory.hpp:77] Creating layer relu4_3
I0215 15:19:27.370601 17873 net.cpp:100] Creating Layer relu4_3
I0215 15:19:27.370607 17873 net.cpp:434] relu4_3 <- conv4_3
I0215 15:19:27.370615 17873 net.cpp:395] relu4_3 -> conv4_3 (in-place)
I0215 15:19:27.370982 17873 net.cpp:150] Setting up relu4_3
I0215 15:19:27.370996 17873 net.cpp:157] Top shape: 1 512 49 56 (1404928)
I0215 15:19:27.371001 17873 net.cpp:165] Memory required for data: 393023424
I0215 15:19:27.371006 17873 layer_factory.hpp:77] Creating layer pool4
I0215 15:19:27.371018 17873 net.cpp:100] Creating Layer pool4
I0215 15:19:27.371023 17873 net.cpp:434] pool4 <- conv4_3
I0215 15:19:27.371031 17873 net.cpp:408] pool4 -> pool4
I0215 15:19:27.371084 17873 net.cpp:150] Setting up pool4
I0215 15:19:27.371093 17873 net.cpp:157] Top shape: 1 512 25 28 (358400)
I0215 15:19:27.371096 17873 net.cpp:165] Memory required for data: 394457024
I0215 15:19:27.371100 17873 layer_factory.hpp:77] Creating layer pool4_pool4_0_split
I0215 15:19:27.371109 17873 net.cpp:100] Creating Layer pool4_pool4_0_split
I0215 15:19:27.371112 17873 net.cpp:434] pool4_pool4_0_split <- pool4
I0215 15:19:27.371120 17873 net.cpp:408] pool4_pool4_0_split -> pool4_pool4_0_split_0
I0215 15:19:27.371129 17873 net.cpp:408] pool4_pool4_0_split -> pool4_pool4_0_split_1
I0215 15:19:27.371167 17873 net.cpp:150] Setting up pool4_pool4_0_split
I0215 15:19:27.371187 17873 net.cpp:157] Top shape: 1 512 25 28 (358400)
I0215 15:19:27.371193 17873 net.cpp:157] Top shape: 1 512 25 28 (358400)
I0215 15:19:27.371197 17873 net.cpp:165] Memory required for data: 397324224
I0215 15:19:27.371201 17873 layer_factory.hpp:77] Creating layer conv5_1
I0215 15:19:27.371213 17873 net.cpp:100] Creating Layer conv5_1
I0215 15:19:27.371217 17873 net.cpp:434] conv5_1 <- pool4_pool4_0_split_0
I0215 15:19:27.371227 17873 net.cpp:408] conv5_1 -> conv5_1
I0215 15:19:27.387965 17873 net.cpp:150] Setting up conv5_1
I0215 15:19:27.387995 17873 net.cpp:157] Top shape: 1 512 25 28 (358400)
I0215 15:19:27.388000 17873 net.cpp:165] Memory required for data: 398757824
I0215 15:19:27.388010 17873 layer_factory.hpp:77] Creating layer relu5_1
I0215 15:19:27.388020 17873 net.cpp:100] Creating Layer relu5_1
I0215 15:19:27.388025 17873 net.cpp:434] relu5_1 <- conv5_1
I0215 15:19:27.388032 17873 net.cpp:395] relu5_1 -> conv5_1 (in-place)
I0215 15:19:27.388404 17873 net.cpp:150] Setting up relu5_1
I0215 15:19:27.388418 17873 net.cpp:157] Top shape: 1 512 25 28 (358400)
I0215 15:19:27.388422 17873 net.cpp:165] Memory required for data: 400191424
I0215 15:19:27.388427 17873 layer_factory.hpp:77] Creating layer conv5_2
I0215 15:19:27.388443 17873 net.cpp:100] Creating Layer conv5_2
I0215 15:19:27.388449 17873 net.cpp:434] conv5_2 <- conv5_1
I0215 15:19:27.388458 17873 net.cpp:408] conv5_2 -> conv5_2
I0215 15:19:27.406648 17873 net.cpp:150] Setting up conv5_2
I0215 15:19:27.406678 17873 net.cpp:157] Top shape: 1 512 25 28 (358400)
I0215 15:19:27.406684 17873 net.cpp:165] Memory required for data: 401625024
I0215 15:19:27.406694 17873 layer_factory.hpp:77] Creating layer relu5_2
I0215 15:19:27.406705 17873 net.cpp:100] Creating Layer relu5_2
I0215 15:19:27.406711 17873 net.cpp:434] relu5_2 <- conv5_2
I0215 15:19:27.406718 17873 net.cpp:395] relu5_2 -> conv5_2 (in-place)
I0215 15:19:27.406919 17873 net.cpp:150] Setting up relu5_2
I0215 15:19:27.406930 17873 net.cpp:157] Top shape: 1 512 25 28 (358400)
I0215 15:19:27.406934 17873 net.cpp:165] Memory required for data: 403058624
I0215 15:19:27.406939 17873 layer_factory.hpp:77] Creating layer conv5_3
I0215 15:19:27.406958 17873 net.cpp:100] Creating Layer conv5_3
I0215 15:19:27.406963 17873 net.cpp:434] conv5_3 <- conv5_2
I0215 15:19:27.406973 17873 net.cpp:408] conv5_3 -> conv5_3
I0215 15:19:27.424085 17873 net.cpp:150] Setting up conv5_3
I0215 15:19:27.424113 17873 net.cpp:157] Top shape: 1 512 25 28 (358400)
I0215 15:19:27.424118 17873 net.cpp:165] Memory required for data: 404492224
I0215 15:19:27.424129 17873 layer_factory.hpp:77] Creating layer relu5_3
I0215 15:19:27.424140 17873 net.cpp:100] Creating Layer relu5_3
I0215 15:19:27.424145 17873 net.cpp:434] relu5_3 <- conv5_3
I0215 15:19:27.424154 17873 net.cpp:395] relu5_3 -> conv5_3 (in-place)
I0215 15:19:27.424706 17873 net.cpp:150] Setting up relu5_3
I0215 15:19:27.424721 17873 net.cpp:157] Top shape: 1 512 25 28 (358400)
I0215 15:19:27.424726 17873 net.cpp:165] Memory required for data: 405925824
I0215 15:19:27.424731 17873 layer_factory.hpp:77] Creating layer pool5
I0215 15:19:27.424742 17873 net.cpp:100] Creating Layer pool5
I0215 15:19:27.424747 17873 net.cpp:434] pool5 <- conv5_3
I0215 15:19:27.424754 17873 net.cpp:408] pool5 -> pool5
I0215 15:19:27.424809 17873 net.cpp:150] Setting up pool5
I0215 15:19:27.424818 17873 net.cpp:157] Top shape: 1 512 13 14 (93184)
I0215 15:19:27.424823 17873 net.cpp:165] Memory required for data: 406298560
I0215 15:19:27.424826 17873 layer_factory.hpp:77] Creating layer fc6
I0215 15:19:27.424839 17873 net.cpp:100] Creating Layer fc6
I0215 15:19:27.424844 17873 net.cpp:434] fc6 <- pool5
I0215 15:19:27.424854 17873 net.cpp:408] fc6 -> fc6
I0215 15:19:28.129539 17873 net.cpp:150] Setting up fc6
I0215 15:19:28.129612 17873 net.cpp:157] Top shape: 1 4096 7 8 (229376)
I0215 15:19:28.129618 17873 net.cpp:165] Memory required for data: 407216064
I0215 15:19:28.129634 17873 layer_factory.hpp:77] Creating layer relu6
I0215 15:19:28.129691 17873 net.cpp:100] Creating Layer relu6
I0215 15:19:28.129703 17873 net.cpp:434] relu6 <- fc6
I0215 15:19:28.129711 17873 net.cpp:395] relu6 -> fc6 (in-place)
I0215 15:19:28.130098 17873 net.cpp:150] Setting up relu6
I0215 15:19:28.130112 17873 net.cpp:157] Top shape: 1 4096 7 8 (229376)
I0215 15:19:28.130117 17873 net.cpp:165] Memory required for data: 408133568
I0215 15:19:28.130122 17873 layer_factory.hpp:77] Creating layer drop6
I0215 15:19:28.130149 17873 net.cpp:100] Creating Layer drop6
I0215 15:19:28.130154 17873 net.cpp:434] drop6 <- fc6
I0215 15:19:28.130162 17873 net.cpp:395] drop6 -> fc6 (in-place)
I0215 15:19:28.130200 17873 net.cpp:150] Setting up drop6
I0215 15:19:28.130208 17873 net.cpp:157] Top shape: 1 4096 7 8 (229376)
I0215 15:19:28.130211 17873 net.cpp:165] Memory required for data: 409051072
I0215 15:19:28.130215 17873 layer_factory.hpp:77] Creating layer fc7
I0215 15:19:28.130231 17873 net.cpp:100] Creating Layer fc7
I0215 15:19:28.130235 17873 net.cpp:434] fc7 <- fc6
I0215 15:19:28.130244 17873 net.cpp:408] fc7 -> fc7
I0215 15:19:28.246388 17873 net.cpp:150] Setting up fc7
I0215 15:19:28.246441 17873 net.cpp:157] Top shape: 1 4096 7 8 (229376)
I0215 15:19:28.246446 17873 net.cpp:165] Memory required for data: 409968576
I0215 15:19:28.246464 17873 layer_factory.hpp:77] Creating layer relu7
I0215 15:19:28.246492 17873 net.cpp:100] Creating Layer relu7
I0215 15:19:28.246498 17873 net.cpp:434] relu7 <- fc7
I0215 15:19:28.246506 17873 net.cpp:395] relu7 -> fc7 (in-place)
I0215 15:19:28.246719 17873 net.cpp:150] Setting up relu7
I0215 15:19:28.246729 17873 net.cpp:157] Top shape: 1 4096 7 8 (229376)
I0215 15:19:28.246733 17873 net.cpp:165] Memory required for data: 410886080
I0215 15:19:28.246738 17873 layer_factory.hpp:77] Creating layer drop7
I0215 15:19:28.246748 17873 net.cpp:100] Creating Layer drop7
I0215 15:19:28.246753 17873 net.cpp:434] drop7 <- fc7
I0215 15:19:28.246759 17873 net.cpp:395] drop7 -> fc7 (in-place)
I0215 15:19:28.246795 17873 net.cpp:150] Setting up drop7
I0215 15:19:28.246801 17873 net.cpp:157] Top shape: 1 4096 7 8 (229376)
I0215 15:19:28.246805 17873 net.cpp:165] Memory required for data: 411803584
I0215 15:19:28.246810 17873 layer_factory.hpp:77] Creating layer score_fr
I0215 15:19:28.246824 17873 net.cpp:100] Creating Layer score_fr
I0215 15:19:28.246829 17873 net.cpp:434] score_fr <- fc7
I0215 15:19:28.246840 17873 net.cpp:408] score_fr -> score_fr
I0215 15:19:28.248423 17873 net.cpp:150] Setting up score_fr
I0215 15:19:28.248438 17873 net.cpp:157] Top shape: 1 16 7 8 (896)
I0215 15:19:28.248443 17873 net.cpp:165] Memory required for data: 411807168
I0215 15:19:28.248451 17873 layer_factory.hpp:77] Creating layer upscore2
I0215 15:19:28.248468 17873 net.cpp:100] Creating Layer upscore2
I0215 15:19:28.248474 17873 net.cpp:434] upscore2 <- score_fr
I0215 15:19:28.248481 17873 net.cpp:408] upscore2 -> upscore2
I0215 15:19:28.248711 17873 net.cpp:150] Setting up upscore2
I0215 15:19:28.248720 17873 net.cpp:157] Top shape: 1 16 16 18 (4608)
I0215 15:19:28.248724 17873 net.cpp:165] Memory required for data: 411825600
I0215 15:19:28.248746 17873 layer_factory.hpp:77] Creating layer upscore2_upscore2_0_split
I0215 15:19:28.248754 17873 net.cpp:100] Creating Layer upscore2_upscore2_0_split
I0215 15:19:28.248759 17873 net.cpp:434] upscore2_upscore2_0_split <- upscore2
I0215 15:19:28.248765 17873 net.cpp:408] upscore2_upscore2_0_split -> upscore2_upscore2_0_split_0
I0215 15:19:28.248774 17873 net.cpp:408] upscore2_upscore2_0_split -> upscore2_upscore2_0_split_1
I0215 15:19:28.248813 17873 net.cpp:150] Setting up upscore2_upscore2_0_split
I0215 15:19:28.248821 17873 net.cpp:157] Top shape: 1 16 16 18 (4608)
I0215 15:19:28.248827 17873 net.cpp:157] Top shape: 1 16 16 18 (4608)
I0215 15:19:28.248831 17873 net.cpp:165] Memory required for data: 411862464
I0215 15:19:28.248836 17873 layer_factory.hpp:77] Creating layer scale_pool4
I0215 15:19:28.248848 17873 net.cpp:100] Creating Layer scale_pool4
I0215 15:19:28.248852 17873 net.cpp:434] scale_pool4 <- pool4_pool4_0_split_1
I0215 15:19:28.248872 17873 net.cpp:408] scale_pool4 -> scale_pool4
I0215 15:19:28.248993 17873 net.cpp:150] Setting up scale_pool4
I0215 15:19:28.249002 17873 net.cpp:157] Top shape: 1 512 25 28 (358400)
I0215 15:19:28.249006 17873 net.cpp:165] Memory required for data: 413296064
I0215 15:19:28.249012 17873 layer_factory.hpp:77] Creating layer score_pool4
I0215 15:19:28.249023 17873 net.cpp:100] Creating Layer score_pool4
I0215 15:19:28.249028 17873 net.cpp:434] score_pool4 <- scale_pool4
I0215 15:19:28.249037 17873 net.cpp:408] score_pool4 -> score_pool4
I0215 15:19:28.250334 17873 net.cpp:150] Setting up score_pool4
I0215 15:19:28.250349 17873 net.cpp:157] Top shape: 1 16 25 28 (11200)
I0215 15:19:28.250355 17873 net.cpp:165] Memory required for data: 413340864
I0215 15:19:28.250362 17873 layer_factory.hpp:77] Creating layer score_pool4c
I0215 15:19:28.250375 17873 net.cpp:100] Creating Layer score_pool4c
I0215 15:19:28.250380 17873 net.cpp:434] score_pool4c <- score_pool4
I0215 15:19:28.250386 17873 net.cpp:434] score_pool4c <- upscore2_upscore2_0_split_0
I0215 15:19:28.250396 17873 net.cpp:408] score_pool4c -> score_pool4c
I0215 15:19:28.250429 17873 net.cpp:150] Setting up score_pool4c
I0215 15:19:28.250437 17873 net.cpp:157] Top shape: 1 16 16 18 (4608)
I0215 15:19:28.250440 17873 net.cpp:165] Memory required for data: 413359296
I0215 15:19:28.250444 17873 layer_factory.hpp:77] Creating layer fuse_pool4
I0215 15:19:28.250457 17873 net.cpp:100] Creating Layer fuse_pool4
I0215 15:19:28.250461 17873 net.cpp:434] fuse_pool4 <- upscore2_upscore2_0_split_1
I0215 15:19:28.250466 17873 net.cpp:434] fuse_pool4 <- score_pool4c
I0215 15:19:28.250473 17873 net.cpp:408] fuse_pool4 -> fuse_pool4
I0215 15:19:28.250505 17873 net.cpp:150] Setting up fuse_pool4
I0215 15:19:28.250511 17873 net.cpp:157] Top shape: 1 16 16 18 (4608)
I0215 15:19:28.250515 17873 net.cpp:165] Memory required for data: 413377728
I0215 15:19:28.250519 17873 layer_factory.hpp:77] Creating layer upscore_pool4
I0215 15:19:28.250530 17873 net.cpp:100] Creating Layer upscore_pool4
I0215 15:19:28.250535 17873 net.cpp:434] upscore_pool4 <- fuse_pool4
I0215 15:19:28.250541 17873 net.cpp:408] upscore_pool4 -> upscore_pool4
I0215 15:19:28.250769 17873 net.cpp:150] Setting up upscore_pool4
I0215 15:19:28.250777 17873 net.cpp:157] Top shape: 1 16 34 38 (20672)
I0215 15:19:28.250782 17873 net.cpp:165] Memory required for data: 413460416
I0215 15:19:28.250787 17873 layer_factory.hpp:77] Creating layer upscore_pool4_upscore_pool4_0_split
I0215 15:19:28.250794 17873 net.cpp:100] Creating Layer upscore_pool4_upscore_pool4_0_split
I0215 15:19:28.250798 17873 net.cpp:434] upscore_pool4_upscore_pool4_0_split <- upscore_pool4
I0215 15:19:28.250804 17873 net.cpp:408] upscore_pool4_upscore_pool4_0_split -> upscore_pool4_upscore_pool4_0_split_0
I0215 15:19:28.250811 17873 net.cpp:408] upscore_pool4_upscore_pool4_0_split -> upscore_pool4_upscore_pool4_0_split_1
I0215 15:19:28.250849 17873 net.cpp:150] Setting up upscore_pool4_upscore_pool4_0_split
I0215 15:19:28.250855 17873 net.cpp:157] Top shape: 1 16 34 38 (20672)
I0215 15:19:28.250861 17873 net.cpp:157] Top shape: 1 16 34 38 (20672)
I0215 15:19:28.250865 17873 net.cpp:165] Memory required for data: 413625792
I0215 15:19:28.250869 17873 layer_factory.hpp:77] Creating layer scale_pool3
I0215 15:19:28.250877 17873 net.cpp:100] Creating Layer scale_pool3
I0215 15:19:28.250882 17873 net.cpp:434] scale_pool3 <- pool3_pool3_0_split_1
I0215 15:19:28.250890 17873 net.cpp:408] scale_pool3 -> scale_pool3
I0215 15:19:28.250985 17873 net.cpp:150] Setting up scale_pool3
I0215 15:19:28.250993 17873 net.cpp:157] Top shape: 1 256 49 56 (702464)
I0215 15:19:28.250996 17873 net.cpp:165] Memory required for data: 416435648
I0215 15:19:28.251003 17873 layer_factory.hpp:77] Creating layer score_pool3
I0215 15:19:28.251013 17873 net.cpp:100] Creating Layer score_pool3
I0215 15:19:28.251019 17873 net.cpp:434] score_pool3 <- scale_pool3
I0215 15:19:28.251026 17873 net.cpp:408] score_pool3 -> score_pool3
I0215 15:19:28.252434 17873 net.cpp:150] Setting up score_pool3
I0215 15:19:28.252452 17873 net.cpp:157] Top shape: 1 16 49 56 (43904)
I0215 15:19:28.252457 17873 net.cpp:165] Memory required for data: 416611264
I0215 15:19:28.252465 17873 layer_factory.hpp:77] Creating layer score_pool3c
I0215 15:19:28.252475 17873 net.cpp:100] Creating Layer score_pool3c
I0215 15:19:28.252480 17873 net.cpp:434] score_pool3c <- score_pool3
I0215 15:19:28.252486 17873 net.cpp:434] score_pool3c <- upscore_pool4_upscore_pool4_0_split_0
I0215 15:19:28.252492 17873 net.cpp:408] score_pool3c -> score_pool3c
I0215 15:19:28.252528 17873 net.cpp:150] Setting up score_pool3c
I0215 15:19:28.252535 17873 net.cpp:157] Top shape: 1 16 34 38 (20672)
I0215 15:19:28.252539 17873 net.cpp:165] Memory required for data: 416693952
I0215 15:19:28.252543 17873 layer_factory.hpp:77] Creating layer fuse_pool3
I0215 15:19:28.252552 17873 net.cpp:100] Creating Layer fuse_pool3
I0215 15:19:28.252557 17873 net.cpp:434] fuse_pool3 <- upscore_pool4_upscore_pool4_0_split_1
I0215 15:19:28.252562 17873 net.cpp:434] fuse_pool3 <- score_pool3c
I0215 15:19:28.252568 17873 net.cpp:408] fuse_pool3 -> fuse_pool3
I0215 15:19:28.252596 17873 net.cpp:150] Setting up fuse_pool3
I0215 15:19:28.252602 17873 net.cpp:157] Top shape: 1 16 34 38 (20672)
I0215 15:19:28.252606 17873 net.cpp:165] Memory required for data: 416776640
I0215 15:19:28.252610 17873 layer_factory.hpp:77] Creating layer upscore8
I0215 15:19:28.252621 17873 net.cpp:100] Creating Layer upscore8
I0215 15:19:28.252625 17873 net.cpp:434] upscore8 <- fuse_pool3
I0215 15:19:28.252634 17873 net.cpp:408] upscore8 -> upscore8
I0215 15:19:28.253188 17873 net.cpp:150] Setting up upscore8
I0215 15:19:28.253197 17873 net.cpp:157] Top shape: 1 16 280 312 (1397760)
I0215 15:19:28.253201 17873 net.cpp:165] Memory required for data: 422367680
I0215 15:19:28.253207 17873 layer_factory.hpp:77] Creating layer score
I0215 15:19:28.253214 17873 net.cpp:100] Creating Layer score
I0215 15:19:28.253218 17873 net.cpp:434] score <- upscore8
I0215 15:19:28.253224 17873 net.cpp:434] score <- data_data_0_split_1
I0215 15:19:28.253231 17873 net.cpp:408] score -> score
I0215 15:19:28.253258 17873 net.cpp:150] Setting up score
I0215 15:19:28.253264 17873 net.cpp:157] Top shape: 1 16 188 250 (752000)
I0215 15:19:28.253268 17873 net.cpp:165] Memory required for data: 425375680
I0215 15:19:28.253273 17873 layer_factory.hpp:77] Creating layer loss
I0215 15:19:28.253283 17873 net.cpp:100] Creating Layer loss
I0215 15:19:28.253288 17873 net.cpp:434] loss <- score
I0215 15:19:28.253293 17873 net.cpp:434] loss <- label
I0215 15:19:28.253300 17873 net.cpp:408] loss -> loss
I0215 15:19:28.253312 17873 layer_factory.hpp:77] Creating layer loss
…
I0215 15:19:28.255662 17873 net.cpp:283] Network initialization done.
I0215 15:19:28.256863 17873 solver.cpp:181] Creating test net (#0) specified by test_net file: val.prototxt
I0215 15:19:28.257228 17873 net.cpp:58] Initializing net from parameters: 
state {
  phase: TEST
}
layer {
  name: "data"
  type: "Python"
  top: "data"
  top: "label"
  python_param {
    module: "voc_layers"
    layer: "VOCSegDataLayer"
    param_str: "{\'voc_dir\': \'../data/pascal-subsampl/VOC2011\', \'seed\': 1337, \'split\': \'seg11valid_pt4_sglinst\', \'mean\': (104.00699, 116.66877, 122.67892)}"
  }
}
layer {
  name: "conv1_1"
  type: "Convolution"
  bottom: "data"
  top: "conv1_1"
  param {
    lr_mult: 1
    decay_mult: 1
  }
  param {
    lr_mult: 2
    decay_mult: 0
  }
  convolution_param {
    num_output: 64
    pad: 100
    kernel_size: 3
    stride: 1
    weight_filler {
      type: "xavier"
    }
  }
}
layer {
  name: "relu1_1"
  type: "ReLU"
  bottom: "conv1_1"
  top: "conv1_1"
}
layer {
  name: "conv1_2"
  type: "Convolution"
  bottom: "conv1_1"
  top: "conv1_2"
  param {
    lr_mult: 1
    decay_mult: 1
  }
  param {
    lr_mult: 2
    decay_mult: 0
  }
  convolution_param {
    num_output: 64
    pad: 1
    kernel_size: 3
    stride: 1
    weight_filler {
      type: "xavier"
    }
  }
}
layer {
  name: "relu1_2"
  type: "ReLU"
  bottom: "conv1_2"
  top: "conv1_2"
}
layer {
  name: "pool1"
  type: "Pooling"
  bottom: "conv1_2"
  top: "pool1"
  pooling_param {
    pool: MAX
    kernel_size: 2
    stride: 2
  }
}
layer {
  name: "conv2_1"
  type: "Convolution"
  bottom: "pool1"
  top: "conv2_1"
  param {
    lr_mult: 1
    decay_mult: 1
  }
  param {
    lr_mult: 2
    decay_mult: 0
  }
  convolution_param {
    num_output: 128
    pad: 1
    kernel_size: 3
    stride: 1
    weight_filler {
      type: "xavier"
    }
  }
}
layer {
  name: "relu2_1"
  type: "ReLU"
  bottom: "conv2_1"
  top: "conv2_1"
}
layer {
  name: "conv2_2"
  type: "Convolution"
  bottom: "conv2_1"
  top: "conv2_2"
  param {
    lr_mult: 1
    decay_mult: 1
  }
  param {
    lr_mult: 2
    decay_mult: 0
  }
  convolution_param {
    num_output: 128
    pad: 1
    kernel_size: 3
    stride: 1
    weight_filler {
      type: "xavier"
    }
  }
}
layer {
  name: "relu2_2"
  type: "ReLU"
  bottom: "conv2_2"
  top: "conv2_2"
}
layer {
  name: "pool2"
  type: "Pooling"
  bottom: "conv2_2"
  top: "pool2"
  pooling_param {
    pool: MAX
    kernel_size: 2
    stride: 2
  }
}
layer {
  name: "conv3_1"
  type: "Convolution"
  bottom: "pool2"
  top: "conv3_1"
  param {
    lr_mult: 1
    decay_mult: 1
  }
  param {
    lr_mult: 2
    decay_mult: 0
  }
  convolution_param {
    num_output: 256
    pad: 1
    kernel_size: 3
    stride: 1
    weight_filler {
      type: "xavier"
    }
  }
}
layer {
  name: "relu3_1"
  type: "ReLU"
  bottom: "conv3_1"
  top: "conv3_1"
}
layer {
  name: "conv3_2"
  type: "Convolution"
  bottom: "conv3_1"
  top: "conv3_2"
  param {
    lr_mult: 1
    decay_mult: 1
  }
  param {
    lr_mult: 2
    decay_mult: 0
  }
  convolution_param {
    num_output: 256
    pad: 1
    kernel_size: 3
    stride: 1
    weight_filler {
      type: "xavier"
    }
  }
}
layer {
  name: "relu3_2"
  type: "ReLU"
  bottom: "conv3_2"
  top: "conv3_2"
}
layer {
  name: "conv3_3"
  type: "Convolution"
  bottom: "conv3_2"
  top: "conv3_3"
  param {
    lr_mult: 1
    decay_mult: 1
  }
  param {
    lr_mult: 2
    decay_mult: 0
  }
  convolution_param {
    num_output: 256
    pad: 1
    kernel_size: 3
    stride: 1
    weight_filler {
      type: "xavier"
    }
  }
}
layer {
  name: "relu3_3"
  type: "ReLU"
  bottom: "conv3_3"
  top: "conv3_3"
}
layer {
  name: "pool3"
  type: "Pooling"
  bottom: "conv3_3"
  top: "pool3"
  pooling_param {
    pool: MAX
    kernel_size: 2
    stride: 2
  }
}
layer {
  name: "conv4_1"
  type: "Convolution"
  bottom: "pool3"
  top: "conv4_1"
  param {
    lr_mult: 1
    decay_mult: 1
  }
  param {
    lr_mult: 2
    decay_mult: 0
  }
  convolution_param {
    num_output: 512
    pad: 1
    kernel_size: 3
    stride: 1
    weight_filler {
      type: "xavier"
    }
  }
}
layer {
  name: "relu4_1"
  type: "ReLU"
  bottom: "conv4_1"
  top: "conv4_1"
}
layer {
  name: "conv4_2"
  type: "Convolution"
  bottom: "conv4_1"
  top: "conv4_2"
  param {
    lr_mult: 1
    decay_mult: 1
  }
  param {
    lr_mult: 2
    decay_mult: 0
  }
  convolution_param {
    num_output: 512
    pad: 1
    kernel_size: 3
    stride: 1
    weight_filler {
      type: "xavier"
    }
  }
}
layer {
  name: "relu4_2"
  type: "ReLU"
  bottom: "conv4_2"
  top: "conv4_2"
}
layer {
  name: "conv4_3"
  type: "Convolution"
  bottom: "conv4_2"
  top: "conv4_3"
  param {
    lr_mult: 1
    decay_mult: 1
  }
  param {
    lr_mult: 2
    decay_mult: 0
  }
  convolution_param {
    num_output: 512
    pad: 1
    kernel_size: 3
    stride: 1
    weight_filler {
      type: "xavier"
    }
  }
}
layer {
  name: "relu4_3"
  type: "ReLU"
  bottom: "conv4_3"
  top: "conv4_3"
}
layer {
  name: "pool4"
  type: "Pooling"
  bottom: "conv4_3"
  top: "pool4"
  pooling_param {
    pool: MAX
    kernel_size: 2
    stride: 2
  }
}
layer {
  name: "conv5_1"
  type: "Convolution"
  bottom: "pool4"
  top: "conv5_1"
  param {
    lr_mult: 1
    decay_mult: 1
  }
  param {
    lr_mult: 2
    decay_mult: 0
  }
  convolution_param {
    num_output: 512
    pad: 1
    kernel_size: 3
    stride: 1
    weight_filler {
      type: "xavier"
    }
  }
}
layer {
  name: "relu5_1"
  type: "ReLU"
  bottom: "conv5_1"
  top: "conv5_1"
}
layer {
  name: "conv5_2"
  type: "Convolution"
  bottom: "conv5_1"
  top: "conv5_2"
  param {
    lr_mult: 1
    decay_mult: 1
  }
  param {
    lr_mult: 2
    decay_mult: 0
  }
  convolution_param {
    num_output: 512
    pad: 1
    kernel_size: 3
    stride: 1
    weight_filler {
      type: "xavier"
    }
  }
}
layer {
  name: "relu5_2"
  type: "ReLU"
  bottom: "conv5_2"
  top: "conv5_2"
}
layer {
  name: "conv5_3"
  type: "Convolution"
  bottom: "conv5_2"
  top: "conv5_3"
  param {
    lr_mult: 1
    decay_mult: 1
  }
  param {
    lr_mult: 2
    decay_mult: 0
  }
  convolution_param {
    num_output: 512
    pad: 1
    kernel_size: 3
    stride: 1
    weight_filler {
      type: "xavier"
    }
  }
}
layer {
  name: "relu5_3"
  type: "ReLU"
  bottom: "conv5_3"
  top: "conv5_3"
}
layer {
  name: "pool5"
  type: "Pooling"
  bottom: "conv5_3"
  top: "pool5"
  pooling_param {
    pool: MAX
    kernel_size: 2
    stride: 2
  }
}
layer {
  name: "fc6"
  type: "Convolution"
  bottom: "pool5"
  top: "fc6"
  param {
    lr_mult: 1
    decay_mult: 1
  }
  param {
    lr_mult: 2
    decay_mult: 0
  }
  convolution_param {
    num_output: 4096
    pad: 0
    kernel_size: 7
    stride: 1
    weight_filler {
      type: "xavier"
    }
  }
}
layer {
  name: "relu6"
  type: "ReLU"
  bottom: "fc6"
  top: "fc6"
}
layer {
  name: "drop6"
  type: "Dropout"
  bottom: "fc6"
  top: "fc6"
  dropout_param {
    dropout_ratio: 0.5
  }
}
layer {
  name: "fc7"
  type: "Convolution"
  bottom: "fc6"
  top: "fc7"
  param {
    lr_mult: 1
    decay_mult: 1
  }
  param {
    lr_mult: 2
    decay_mult: 0
  }
  convolution_param {
    num_output: 4096
    pad: 0
    kernel_size: 1
    stride: 1
    weight_filler {
      type: "xavier"
    }
  }
}
layer {
  name: "relu7"
  type: "ReLU"
  bottom: "fc7"
  top: "fc7"
}
layer {
  name: "drop7"
  type: "Dropout"
  bottom: "fc7"
  top: "fc7"
  dropout_param {
    dropout_ratio: 0.5
  }
}
layer {
  name: "score_fr"
  type: "Convolution"
  bottom: "fc7"
  top: "score_fr"
  param {
    lr_mult: 1
    decay_mult: 1
  }
  param {
    lr_mult: 2
    decay_mult: 0
  }
  convolution_param {
    num_output: 16
    pad: 0
    kernel_size: 1
    weight_filler {
      type: "xavier"
    }
  }
}
layer {
  name: "upscore2"
  type: "Deconvolution"
  bottom: "score_fr"
  top: "upscore2"
  param {
    lr_mult: 0
  }
  convolution_param {
    num_output: 16
    bias_term: false
    kernel_size: 4
    stride: 2
    weight_filler {
      type: "xavier"
    }
  }
}
layer {
  name: "scale_pool4"
  type: "Scale"
  bottom: "pool4"
  top: "scale_pool4"
  param {
    lr_mult: 0
  }
  scale_param {
    filler {
      type: "constant"
      value: 0.01
    }
  }
}
layer {
  name: "score_pool4"
  type: "Convolution"
  bottom: "scale_pool4"
  top: "score_pool4"
  param {
    lr_mult: 1
    decay_mult: 1
  }
  param {
    lr_mult: 2
    decay_mult: 0
  }
  convolution_param {
    num_output: 16
    pad: 0
    kernel_size: 1
    weight_filler {
      type: "xavier"
    }
  }
}
layer {
  name: "score_pool4c"
  type: "Crop"
  bottom: "score_pool4"
  bottom: "upscore2"
  top: "score_pool4c"
  crop_param {
    axis: 2
    offset: 5
  }
}
layer {
  name: "fuse_pool4"
  type: "Eltwise"
  bottom: "upscore2"
  bottom: "score_pool4c"
  top: "fuse_pool4"
  eltwise_param {
    operation: SUM
  }
}
layer {
  name: "upscore_pool4"
  type: "Deconvolution"
  bottom: "fuse_pool4"
  top: "upscore_pool4"
  param {
    lr_mult: 0
  }
  convolution_param {
    num_output: 16
    bias_term: false
    kernel_size: 4
    stride: 2
    weight_filler {
      type: "xavier"
    }
  }
}
layer {
  name: "scale_pool3"
  type: "Scale"
  bottom: "pool3"
  top: "scale_pool3"
  param {
    lr_mult: 0
  }
  scale_param {
    filler {
      type: "constant"
      value: 0.0001
    }
  }
}
layer {
  name: "score_pool3"
  type: "Convolution"
  bottom: "scale_pool3"
  top: "score_pool3"
  param {
    lr_mult: 1
    decay_mult: 1
  }
  param {
    lr_mult: 2
    decay_mult: 0
  }
  convolution_param {
    num_output: 16
    pad: 0
    kernel_size: 1
    weight_filler {
      type: "xavier"
    }
  }
}
layer {
  name: "score_pool3c"
  type: "Crop"
  bottom: "score_pool3"
  bottom: "upscore_pool4"
  top: "score_pool3c"
  crop_param {
    axis: 2
    offset: 9
  }
}
layer {
  name: "fuse_pool3"
  type: "Eltwise"
  bottom: "upscore_pool4"
  bottom: "score_pool3c"
  top: "fuse_pool3"
  eltwise_param {
    operation: SUM
  }
}
layer {
  name: "upscore8"
  type: "Deconvolution"
  bottom: "fuse_pool3"
  top: "upscore8"
  param {
    lr_mult: 0
  }
  convolution_param {
    num_output: 16
    bias_term: false
    kernel_size: 16
    stride: 8
    weight_filler {
      type: "xavier"
    }
  }
}
layer {
  name: "score"
  type: "Crop"
  bottom: "upscore8"
  bottom: "data"
  top: "score"
  crop_param {
    axis: 2
    offset: 31
  }
}
layer {
  name: "loss"
  type: "SoftmaxWithLoss"
  bottom: "score"
  bottom: "label"
  top: "loss"
  loss_param {
    ignore_label: 255
    normalize: false
  }
}
I0215 15:19:28.257450 17873 layer_factory.hpp:77] Creating layer data
I0215 15:19:28.257606 17873 net.cpp:100] Creating Layer data
I0215 15:19:28.257616 17873 net.cpp:408] data -> data
I0215 15:19:28.257624 17873 net.cpp:408] data -> label
I0215 15:19:28.261806 17873 net.cpp:150] Setting up data
I0215 15:19:28.261823 17873 net.cpp:157] Top shape: 1 3 167 250 (125250)
I0215 15:19:28.261831 17873 net.cpp:157] Top shape: 1 1 167 250 (41750)
I0215 15:19:28.261834 17873 net.cpp:165] Memory required for data: 668000
I0215 15:19:28.261839 17873 layer_factory.hpp:77] Creating layer data_data_0_split
I0215 15:19:28.261848 17873 net.cpp:100] Creating Layer data_data_0_split
I0215 15:19:28.261852 17873 net.cpp:434] data_data_0_split <- data
I0215 15:19:28.261859 17873 net.cpp:408] data_data_0_split -> data_data_0_split_0
I0215 15:19:28.261868 17873 net.cpp:408] data_data_0_split -> data_data_0_split_1
I0215 15:19:28.261909 17873 net.cpp:150] Setting up data_data_0_split
I0215 15:19:28.261916 17873 net.cpp:157] Top shape: 1 3 167 250 (125250)
I0215 15:19:28.261921 17873 net.cpp:157] Top shape: 1 3 167 250 (125250)
I0215 15:19:28.261925 17873 net.cpp:165] Memory required for data: 1670000
I0215 15:19:28.261930 17873 layer_factory.hpp:77] Creating layer conv1_1
I0215 15:19:28.261940 17873 net.cpp:100] Creating Layer conv1_1
I0215 15:19:28.261945 17873 net.cpp:434] conv1_1 <- data_data_0_split_0
I0215 15:19:28.261950 17873 net.cpp:408] conv1_1 -> conv1_1
I0215 15:19:28.263756 17873 net.cpp:150] Setting up conv1_1
I0215 15:19:28.263772 17873 net.cpp:157] Top shape: 1 64 365 448 (10465280)
I0215 15:19:28.263777 17873 net.cpp:165] Memory required for data: 43531120
I0215 15:19:28.263789 17873 layer_factory.hpp:77] Creating layer relu1_1
I0215 15:19:28.263797 17873 net.cpp:100] Creating Layer relu1_1
I0215 15:19:28.263803 17873 net.cpp:434] relu1_1 <- conv1_1
I0215 15:19:28.263808 17873 net.cpp:395] relu1_1 -> conv1_1 (in-place)
I0215 15:19:28.263998 17873 net.cpp:150] Setting up relu1_1
I0215 15:19:28.264008 17873 net.cpp:157] Top shape: 1 64 365 448 (10465280)
I0215 15:19:28.264012 17873 net.cpp:165] Memory required for data: 85392240
I0215 15:19:28.264016 17873 layer_factory.hpp:77] Creating layer conv1_2
I0215 15:19:28.264027 17873 net.cpp:100] Creating Layer conv1_2
I0215 15:19:28.264032 17873 net.cpp:434] conv1_2 <- conv1_1
I0215 15:19:28.264039 17873 net.cpp:408] conv1_2 -> conv1_2
I0215 15:19:28.266559 17873 net.cpp:150] Setting up conv1_2
I0215 15:19:28.266577 17873 net.cpp:157] Top shape: 1 64 365 448 (10465280)
I0215 15:19:28.266582 17873 net.cpp:165] Memory required for data: 127253360
I0215 15:19:28.266593 17873 layer_factory.hpp:77] Creating layer relu1_2
I0215 15:19:28.266600 17873 net.cpp:100] Creating Layer relu1_2
I0215 15:19:28.266605 17873 net.cpp:434] relu1_2 <- conv1_2
I0215 15:19:28.266611 17873 net.cpp:395] relu1_2 -> conv1_2 (in-place)
I0215 15:19:28.266983 17873 net.cpp:150] Setting up relu1_2
I0215 15:19:28.266997 17873 net.cpp:157] Top shape: 1 64 365 448 (10465280)
I0215 15:19:28.267001 17873 net.cpp:165] Memory required for data: 169114480
I0215 15:19:28.267006 17873 layer_factory.hpp:77] Creating layer pool1
I0215 15:19:28.267016 17873 net.cpp:100] Creating Layer pool1
I0215 15:19:28.267020 17873 net.cpp:434] pool1 <- conv1_2
I0215 15:19:28.267027 17873 net.cpp:408] pool1 -> pool1
I0215 15:19:28.267082 17873 net.cpp:150] Setting up pool1
I0215 15:19:28.267089 17873 net.cpp:157] Top shape: 1 64 183 224 (2623488)
I0215 15:19:28.267093 17873 net.cpp:165] Memory required for data: 179608432
I0215 15:19:28.267097 17873 layer_factory.hpp:77] Creating layer conv2_1
I0215 15:19:28.267108 17873 net.cpp:100] Creating Layer conv2_1
I0215 15:19:28.267113 17873 net.cpp:434] conv2_1 <- pool1
I0215 15:19:28.267120 17873 net.cpp:408] conv2_1 -> conv2_1
I0215 15:19:28.268729 17873 net.cpp:150] Setting up conv2_1
I0215 15:19:28.268744 17873 net.cpp:157] Top shape: 1 128 183 224 (5246976)
I0215 15:19:28.268749 17873 net.cpp:165] Memory required for data: 200596336
I0215 15:19:28.268760 17873 layer_factory.hpp:77] Creating layer relu2_1
I0215 15:19:28.268770 17873 net.cpp:100] Creating Layer relu2_1
I0215 15:19:28.268775 17873 net.cpp:434] relu2_1 <- conv2_1
I0215 15:19:28.268782 17873 net.cpp:395] relu2_1 -> conv2_1 (in-place)
I0215 15:19:28.269167 17873 net.cpp:150] Setting up relu2_1
I0215 15:19:28.269181 17873 net.cpp:157] Top shape: 1 128 183 224 (5246976)
I0215 15:19:28.269184 17873 net.cpp:165] Memory required for data: 221584240
I0215 15:19:28.269189 17873 layer_factory.hpp:77] Creating layer conv2_2
I0215 15:19:28.269201 17873 net.cpp:100] Creating Layer conv2_2
I0215 15:19:28.269207 17873 net.cpp:434] conv2_2 <- conv2_1
I0215 15:19:28.269213 17873 net.cpp:408] conv2_2 -> conv2_2
I0215 15:19:28.271775 17873 net.cpp:150] Setting up conv2_2
I0215 15:19:28.271793 17873 net.cpp:157] Top shape: 1 128 183 224 (5246976)
I0215 15:19:28.271798 17873 net.cpp:165] Memory required for data: 242572144
I0215 15:19:28.271806 17873 layer_factory.hpp:77] Creating layer relu2_2
I0215 15:19:28.271813 17873 net.cpp:100] Creating Layer relu2_2
I0215 15:19:28.271818 17873 net.cpp:434] relu2_2 <- conv2_2
I0215 15:19:28.271826 17873 net.cpp:395] relu2_2 -> conv2_2 (in-place)
I0215 15:19:28.272028 17873 net.cpp:150] Setting up relu2_2
I0215 15:19:28.272038 17873 net.cpp:157] Top shape: 1 128 183 224 (5246976)
I0215 15:19:28.272043 17873 net.cpp:165] Memory required for data: 263560048
I0215 15:19:28.272047 17873 layer_factory.hpp:77] Creating layer pool2
I0215 15:19:28.272054 17873 net.cpp:100] Creating Layer pool2
I0215 15:19:28.272058 17873 net.cpp:434] pool2 <- conv2_2
I0215 15:19:28.272066 17873 net.cpp:408] pool2 -> pool2
I0215 15:19:28.272117 17873 net.cpp:150] Setting up pool2
I0215 15:19:28.272125 17873 net.cpp:157] Top shape: 1 128 92 112 (1318912)
I0215 15:19:28.272130 17873 net.cpp:165] Memory required for data: 268835696
I0215 15:19:28.272133 17873 layer_factory.hpp:77] Creating layer conv3_1
I0215 15:19:28.272145 17873 net.cpp:100] Creating Layer conv3_1
I0215 15:19:28.272150 17873 net.cpp:434] conv3_1 <- pool2
I0215 15:19:28.272156 17873 net.cpp:408] conv3_1 -> conv3_1
I0215 15:19:28.275451 17873 net.cpp:150] Setting up conv3_1
I0215 15:19:28.275468 17873 net.cpp:157] Top shape: 1 256 92 112 (2637824)
I0215 15:19:28.275473 17873 net.cpp:165] Memory required for data: 279386992
I0215 15:19:28.275485 17873 layer_factory.hpp:77] Creating layer relu3_1
I0215 15:19:28.275493 17873 net.cpp:100] Creating Layer relu3_1
I0215 15:19:28.275503 17873 net.cpp:434] relu3_1 <- conv3_1
I0215 15:19:28.275509 17873 net.cpp:395] relu3_1 -> conv3_1 (in-place)
I0215 15:19:28.275887 17873 net.cpp:150] Setting up relu3_1
I0215 15:19:28.275899 17873 net.cpp:157] Top shape: 1 256 92 112 (2637824)
I0215 15:19:28.275904 17873 net.cpp:165] Memory required for data: 289938288
I0215 15:19:28.275909 17873 layer_factory.hpp:77] Creating layer conv3_2
I0215 15:19:28.275923 17873 net.cpp:100] Creating Layer conv3_2
I0215 15:19:28.275928 17873 net.cpp:434] conv3_2 <- conv3_1
I0215 15:19:28.275934 17873 net.cpp:408] conv3_2 -> conv3_2
I0215 15:19:28.281153 17873 net.cpp:150] Setting up conv3_2
I0215 15:19:28.281170 17873 net.cpp:157] Top shape: 1 256 92 112 (2637824)
I0215 15:19:28.281175 17873 net.cpp:165] Memory required for data: 300489584
I0215 15:19:28.281183 17873 layer_factory.hpp:77] Creating layer relu3_2
I0215 15:19:28.281191 17873 net.cpp:100] Creating Layer relu3_2
I0215 15:19:28.281196 17873 net.cpp:434] relu3_2 <- conv3_2
I0215 15:19:28.281204 17873 net.cpp:395] relu3_2 -> conv3_2 (in-place)
I0215 15:19:28.281409 17873 net.cpp:150] Setting up relu3_2
I0215 15:19:28.281419 17873 net.cpp:157] Top shape: 1 256 92 112 (2637824)
I0215 15:19:28.281424 17873 net.cpp:165] Memory required for data: 311040880
I0215 15:19:28.281427 17873 layer_factory.hpp:77] Creating layer conv3_3
I0215 15:19:28.281441 17873 net.cpp:100] Creating Layer conv3_3
I0215 15:19:28.281446 17873 net.cpp:434] conv3_3 <- conv3_2
I0215 15:19:28.281455 17873 net.cpp:408] conv3_3 -> conv3_3
I0215 15:19:28.286684 17873 net.cpp:150] Setting up conv3_3
I0215 15:19:28.286701 17873 net.cpp:157] Top shape: 1 256 92 112 (2637824)
I0215 15:19:28.286705 17873 net.cpp:165] Memory required for data: 321592176
I0215 15:19:28.286713 17873 layer_factory.hpp:77] Creating layer relu3_3
I0215 15:19:28.286725 17873 net.cpp:100] Creating Layer relu3_3
I0215 15:19:28.286731 17873 net.cpp:434] relu3_3 <- conv3_3
I0215 15:19:28.286736 17873 net.cpp:395] relu3_3 -> conv3_3 (in-place)
I0215 15:19:28.286934 17873 net.cpp:150] Setting up relu3_3
I0215 15:19:28.286944 17873 net.cpp:157] Top shape: 1 256 92 112 (2637824)
I0215 15:19:28.286948 17873 net.cpp:165] Memory required for data: 332143472
I0215 15:19:28.286953 17873 layer_factory.hpp:77] Creating layer pool3
I0215 15:19:28.286962 17873 net.cpp:100] Creating Layer pool3
I0215 15:19:28.286967 17873 net.cpp:434] pool3 <- conv3_3
I0215 15:19:28.286972 17873 net.cpp:408] pool3 -> pool3
I0215 15:19:28.287026 17873 net.cpp:150] Setting up pool3
I0215 15:19:28.287034 17873 net.cpp:157] Top shape: 1 256 46 56 (659456)
I0215 15:19:28.287039 17873 net.cpp:165] Memory required for data: 334781296
I0215 15:19:28.287042 17873 layer_factory.hpp:77] Creating layer pool3_pool3_0_split
I0215 15:19:28.287048 17873 net.cpp:100] Creating Layer pool3_pool3_0_split
I0215 15:19:28.287052 17873 net.cpp:434] pool3_pool3_0_split <- pool3
I0215 15:19:28.287060 17873 net.cpp:408] pool3_pool3_0_split -> pool3_pool3_0_split_0
I0215 15:19:28.287066 17873 net.cpp:408] pool3_pool3_0_split -> pool3_pool3_0_split_1
I0215 15:19:28.287108 17873 net.cpp:150] Setting up pool3_pool3_0_split
I0215 15:19:28.287116 17873 net.cpp:157] Top shape: 1 256 46 56 (659456)
I0215 15:19:28.287120 17873 net.cpp:157] Top shape: 1 256 46 56 (659456)
I0215 15:19:28.287124 17873 net.cpp:165] Memory required for data: 340056944
I0215 15:19:28.287128 17873 layer_factory.hpp:77] Creating layer conv4_1
I0215 15:19:28.287142 17873 net.cpp:100] Creating Layer conv4_1
I0215 15:19:28.287145 17873 net.cpp:434] conv4_1 <- pool3_pool3_0_split_0
I0215 15:19:28.287153 17873 net.cpp:408] conv4_1 -> conv4_1
I0215 15:19:28.296206 17873 net.cpp:150] Setting up conv4_1
I0215 15:19:28.296224 17873 net.cpp:157] Top shape: 1 512 46 56 (1318912)
I0215 15:19:28.296229 17873 net.cpp:165] Memory required for data: 345332592
I0215 15:19:28.296237 17873 layer_factory.hpp:77] Creating layer relu4_1
I0215 15:19:28.296247 17873 net.cpp:100] Creating Layer relu4_1
I0215 15:19:28.296252 17873 net.cpp:434] relu4_1 <- conv4_1
I0215 15:19:28.296264 17873 net.cpp:395] relu4_1 -> conv4_1 (in-place)
I0215 15:19:28.296645 17873 net.cpp:150] Setting up relu4_1
I0215 15:19:28.296658 17873 net.cpp:157] Top shape: 1 512 46 56 (1318912)
I0215 15:19:28.296663 17873 net.cpp:165] Memory required for data: 350608240
I0215 15:19:28.296669 17873 layer_factory.hpp:77] Creating layer conv4_2
I0215 15:19:28.296680 17873 net.cpp:100] Creating Layer conv4_2
I0215 15:19:28.296685 17873 net.cpp:434] conv4_2 <- conv4_1
I0215 15:19:28.296694 17873 net.cpp:408] conv4_2 -> conv4_2
I0215 15:19:28.313458 17873 net.cpp:150] Setting up conv4_2
I0215 15:19:28.313482 17873 net.cpp:157] Top shape: 1 512 46 56 (1318912)
I0215 15:19:28.313486 17873 net.cpp:165] Memory required for data: 355883888
I0215 15:19:28.313501 17873 layer_factory.hpp:77] Creating layer relu4_2
I0215 15:19:28.313511 17873 net.cpp:100] Creating Layer relu4_2
I0215 15:19:28.313516 17873 net.cpp:434] relu4_2 <- conv4_2
I0215 15:19:28.313524 17873 net.cpp:395] relu4_2 -> conv4_2 (in-place)
I0215 15:19:28.313730 17873 net.cpp:150] Setting up relu4_2
I0215 15:19:28.313742 17873 net.cpp:157] Top shape: 1 512 46 56 (1318912)
I0215 15:19:28.313747 17873 net.cpp:165] Memory required for data: 361159536
I0215 15:19:28.313751 17873 layer_factory.hpp:77] Creating layer conv4_3
I0215 15:19:28.313765 17873 net.cpp:100] Creating Layer conv4_3
I0215 15:19:28.313769 17873 net.cpp:434] conv4_3 <- conv4_2
I0215 15:19:28.313777 17873 net.cpp:408] conv4_3 -> conv4_3
I0215 15:19:28.330706 17873 net.cpp:150] Setting up conv4_3
I0215 15:19:28.330731 17873 net.cpp:157] Top shape: 1 512 46 56 (1318912)
I0215 15:19:28.330736 17873 net.cpp:165] Memory required for data: 366435184
I0215 15:19:28.330745 17873 layer_factory.hpp:77] Creating layer relu4_3
I0215 15:19:28.330756 17873 net.cpp:100] Creating Layer relu4_3
I0215 15:19:28.330762 17873 net.cpp:434] relu4_3 <- conv4_3
I0215 15:19:28.330770 17873 net.cpp:395] relu4_3 -> conv4_3 (in-place)
I0215 15:19:28.330983 17873 net.cpp:150] Setting up relu4_3
I0215 15:19:28.330993 17873 net.cpp:157] Top shape: 1 512 46 56 (1318912)
I0215 15:19:28.330997 17873 net.cpp:165] Memory required for data: 371710832
I0215 15:19:28.331002 17873 layer_factory.hpp:77] Creating layer pool4
I0215 15:19:28.331012 17873 net.cpp:100] Creating Layer pool4
I0215 15:19:28.331017 17873 net.cpp:434] pool4 <- conv4_3
I0215 15:19:28.331024 17873 net.cpp:408] pool4 -> pool4
I0215 15:19:28.331080 17873 net.cpp:150] Setting up pool4
I0215 15:19:28.331089 17873 net.cpp:157] Top shape: 1 512 23 28 (329728)
I0215 15:19:28.331092 17873 net.cpp:165] Memory required for data: 373029744
I0215 15:19:28.331096 17873 layer_factory.hpp:77] Creating layer pool4_pool4_0_split
I0215 15:19:28.331104 17873 net.cpp:100] Creating Layer pool4_pool4_0_split
I0215 15:19:28.331109 17873 net.cpp:434] pool4_pool4_0_split <- pool4
I0215 15:19:28.331116 17873 net.cpp:408] pool4_pool4_0_split -> pool4_pool4_0_split_0
I0215 15:19:28.331122 17873 net.cpp:408] pool4_pool4_0_split -> pool4_pool4_0_split_1
I0215 15:19:28.331166 17873 net.cpp:150] Setting up pool4_pool4_0_split
I0215 15:19:28.331172 17873 net.cpp:157] Top shape: 1 512 23 28 (329728)
I0215 15:19:28.331178 17873 net.cpp:157] Top shape: 1 512 23 28 (329728)
I0215 15:19:28.331182 17873 net.cpp:165] Memory required for data: 375667568
I0215 15:19:28.331185 17873 layer_factory.hpp:77] Creating layer conv5_1
I0215 15:19:28.331202 17873 net.cpp:100] Creating Layer conv5_1
I0215 15:19:28.331207 17873 net.cpp:434] conv5_1 <- pool4_pool4_0_split_0
I0215 15:19:28.331214 17873 net.cpp:408] conv5_1 -> conv5_1
I0215 15:19:28.347918 17873 net.cpp:150] Setting up conv5_1
I0215 15:19:28.347944 17873 net.cpp:157] Top shape: 1 512 23 28 (329728)
I0215 15:19:28.347949 17873 net.cpp:165] Memory required for data: 376986480
I0215 15:19:28.347957 17873 layer_factory.hpp:77] Creating layer relu5_1
I0215 15:19:28.347966 17873 net.cpp:100] Creating Layer relu5_1
I0215 15:19:28.347972 17873 net.cpp:434] relu5_1 <- conv5_1
I0215 15:19:28.347980 17873 net.cpp:395] relu5_1 -> conv5_1 (in-place)
I0215 15:19:28.348367 17873 net.cpp:150] Setting up relu5_1
I0215 15:19:28.348381 17873 net.cpp:157] Top shape: 1 512 23 28 (329728)
I0215 15:19:28.348387 17873 net.cpp:165] Memory required for data: 378305392
I0215 15:19:28.348390 17873 layer_factory.hpp:77] Creating layer conv5_2
I0215 15:19:28.348404 17873 net.cpp:100] Creating Layer conv5_2
I0215 15:19:28.348409 17873 net.cpp:434] conv5_2 <- conv5_1
I0215 15:19:28.348417 17873 net.cpp:408] conv5_2 -> conv5_2
I0215 15:19:28.365293 17873 net.cpp:150] Setting up conv5_2
I0215 15:19:28.365317 17873 net.cpp:157] Top shape: 1 512 23 28 (329728)
I0215 15:19:28.365322 17873 net.cpp:165] Memory required for data: 379624304
I0215 15:19:28.365331 17873 layer_factory.hpp:77] Creating layer relu5_2
I0215 15:19:28.365339 17873 net.cpp:100] Creating Layer relu5_2
I0215 15:19:28.365345 17873 net.cpp:434] relu5_2 <- conv5_2
I0215 15:19:28.365355 17873 net.cpp:395] relu5_2 -> conv5_2 (in-place)
I0215 15:19:28.365556 17873 net.cpp:150] Setting up relu5_2
I0215 15:19:28.365566 17873 net.cpp:157] Top shape: 1 512 23 28 (329728)
I0215 15:19:28.365571 17873 net.cpp:165] Memory required for data: 380943216
I0215 15:19:28.365574 17873 layer_factory.hpp:77] Creating layer conv5_3
I0215 15:19:28.365593 17873 net.cpp:100] Creating Layer conv5_3
I0215 15:19:28.365598 17873 net.cpp:434] conv5_3 <- conv5_2
I0215 15:19:28.365607 17873 net.cpp:408] conv5_3 -> conv5_3
I0215 15:19:28.382424 17873 net.cpp:150] Setting up conv5_3
I0215 15:19:28.382452 17873 net.cpp:157] Top shape: 1 512 23 28 (329728)
I0215 15:19:28.382457 17873 net.cpp:165] Memory required for data: 382262128
I0215 15:19:28.382467 17873 layer_factory.hpp:77] Creating layer relu5_3
I0215 15:19:28.382477 17873 net.cpp:100] Creating Layer relu5_3
I0215 15:19:28.382483 17873 net.cpp:434] relu5_3 <- conv5_3
I0215 15:19:28.382490 17873 net.cpp:395] relu5_3 -> conv5_3 (in-place)
I0215 15:19:28.382691 17873 net.cpp:150] Setting up relu5_3
I0215 15:19:28.382704 17873 net.cpp:157] Top shape: 1 512 23 28 (329728)
I0215 15:19:28.382707 17873 net.cpp:165] Memory required for data: 383581040
I0215 15:19:28.382712 17873 layer_factory.hpp:77] Creating layer pool5
I0215 15:19:28.382720 17873 net.cpp:100] Creating Layer pool5
I0215 15:19:28.382725 17873 net.cpp:434] pool5 <- conv5_3
I0215 15:19:28.382731 17873 net.cpp:408] pool5 -> pool5
I0215 15:19:28.382788 17873 net.cpp:150] Setting up pool5
I0215 15:19:28.382797 17873 net.cpp:157] Top shape: 1 512 12 14 (86016)
I0215 15:19:28.382800 17873 net.cpp:165] Memory required for data: 383925104
I0215 15:19:28.382804 17873 layer_factory.hpp:77] Creating layer fc6
I0215 15:19:28.382817 17873 net.cpp:100] Creating Layer fc6
I0215 15:19:28.382822 17873 net.cpp:434] fc6 <- pool5
I0215 15:19:28.382829 17873 net.cpp:408] fc6 -> fc6
I0215 15:19:29.080703 17873 net.cpp:150] Setting up fc6
I0215 15:19:29.080754 17873 net.cpp:157] Top shape: 1 4096 6 8 (196608)
I0215 15:19:29.080760 17873 net.cpp:165] Memory required for data: 384711536
I0215 15:19:29.080777 17873 layer_factory.hpp:77] Creating layer relu6
I0215 15:19:29.080796 17873 net.cpp:100] Creating Layer relu6
I0215 15:19:29.080806 17873 net.cpp:434] relu6 <- fc6
I0215 15:19:29.080814 17873 net.cpp:395] relu6 -> fc6 (in-place)
I0215 15:19:29.081213 17873 net.cpp:150] Setting up relu6
I0215 15:19:29.081228 17873 net.cpp:157] Top shape: 1 4096 6 8 (196608)
I0215 15:19:29.081233 17873 net.cpp:165] Memory required for data: 385497968
I0215 15:19:29.081238 17873 layer_factory.hpp:77] Creating layer drop6
I0215 15:19:29.081250 17873 net.cpp:100] Creating Layer drop6
I0215 15:19:29.081255 17873 net.cpp:434] drop6 <- fc6
I0215 15:19:29.081261 17873 net.cpp:395] drop6 -> fc6 (in-place)
I0215 15:19:29.081310 17873 net.cpp:150] Setting up drop6
I0215 15:19:29.081318 17873 net.cpp:157] Top shape: 1 4096 6 8 (196608)
I0215 15:19:29.081322 17873 net.cpp:165] Memory required for data: 386284400
I0215 15:19:29.081327 17873 layer_factory.hpp:77] Creating layer fc7
I0215 15:19:29.081342 17873 net.cpp:100] Creating Layer fc7
I0215 15:19:29.081347 17873 net.cpp:434] fc7 <- fc6
I0215 15:19:29.081364 17873 net.cpp:408] fc7 -> fc7
I0215 15:19:29.196686 17873 net.cpp:150] Setting up fc7
I0215 15:19:29.196732 17873 net.cpp:157] Top shape: 1 4096 6 8 (196608)
I0215 15:19:29.196738 17873 net.cpp:165] Memory required for data: 387070832
I0215 15:19:29.196748 17873 layer_factory.hpp:77] Creating layer relu7
I0215 15:19:29.196763 17873 net.cpp:100] Creating Layer relu7
I0215 15:19:29.196769 17873 net.cpp:434] relu7 <- fc7
I0215 15:19:29.196779 17873 net.cpp:395] relu7 -> fc7 (in-place)
I0215 15:19:29.196992 17873 net.cpp:150] Setting up relu7
I0215 15:19:29.197003 17873 net.cpp:157] Top shape: 1 4096 6 8 (196608)
I0215 15:19:29.197007 17873 net.cpp:165] Memory required for data: 387857264
I0215 15:19:29.197012 17873 layer_factory.hpp:77] Creating layer drop7
I0215 15:19:29.197023 17873 net.cpp:100] Creating Layer drop7
I0215 15:19:29.197028 17873 net.cpp:434] drop7 <- fc7
I0215 15:19:29.197033 17873 net.cpp:395] drop7 -> fc7 (in-place)
I0215 15:19:29.197073 17873 net.cpp:150] Setting up drop7
I0215 15:19:29.197080 17873 net.cpp:157] Top shape: 1 4096 6 8 (196608)
I0215 15:19:29.197084 17873 net.cpp:165] Memory required for data: 388643696
I0215 15:19:29.197088 17873 layer_factory.hpp:77] Creating layer score_fr
I0215 15:19:29.197103 17873 net.cpp:100] Creating Layer score_fr
I0215 15:19:29.197106 17873 net.cpp:434] score_fr <- fc7
I0215 15:19:29.197116 17873 net.cpp:408] score_fr -> score_fr
I0215 15:19:29.198988 17873 net.cpp:150] Setting up score_fr
I0215 15:19:29.199004 17873 net.cpp:157] Top shape: 1 16 6 8 (768)
I0215 15:19:29.199009 17873 net.cpp:165] Memory required for data: 388646768
I0215 15:19:29.199018 17873 layer_factory.hpp:77] Creating layer upscore2
I0215 15:19:29.199033 17873 net.cpp:100] Creating Layer upscore2
I0215 15:19:29.199038 17873 net.cpp:434] upscore2 <- score_fr
I0215 15:19:29.199046 17873 net.cpp:408] upscore2 -> upscore2
I0215 15:19:29.199331 17873 net.cpp:150] Setting up upscore2
I0215 15:19:29.199339 17873 net.cpp:157] Top shape: 1 16 14 18 (4032)
I0215 15:19:29.199344 17873 net.cpp:165] Memory required for data: 388662896
I0215 15:19:29.199364 17873 layer_factory.hpp:77] Creating layer upscore2_upscore2_0_split
I0215 15:19:29.199373 17873 net.cpp:100] Creating Layer upscore2_upscore2_0_split
I0215 15:19:29.199376 17873 net.cpp:434] upscore2_upscore2_0_split <- upscore2
I0215 15:19:29.199385 17873 net.cpp:408] upscore2_upscore2_0_split -> upscore2_upscore2_0_split_0
I0215 15:19:29.199393 17873 net.cpp:408] upscore2_upscore2_0_split -> upscore2_upscore2_0_split_1
I0215 15:19:29.199439 17873 net.cpp:150] Setting up upscore2_upscore2_0_split
I0215 15:19:29.199445 17873 net.cpp:157] Top shape: 1 16 14 18 (4032)
I0215 15:19:29.199450 17873 net.cpp:157] Top shape: 1 16 14 18 (4032)
I0215 15:19:29.199455 17873 net.cpp:165] Memory required for data: 388695152
I0215 15:19:29.199460 17873 layer_factory.hpp:77] Creating layer scale_pool4
I0215 15:19:29.199470 17873 net.cpp:100] Creating Layer scale_pool4
I0215 15:19:29.199476 17873 net.cpp:434] scale_pool4 <- pool4_pool4_0_split_1
I0215 15:19:29.199483 17873 net.cpp:408] scale_pool4 -> scale_pool4
I0215 15:19:29.199617 17873 net.cpp:150] Setting up scale_pool4
I0215 15:19:29.199625 17873 net.cpp:157] Top shape: 1 512 23 28 (329728)
I0215 15:19:29.199630 17873 net.cpp:165] Memory required for data: 390014064
I0215 15:19:29.199635 17873 layer_factory.hpp:77] Creating layer score_pool4
I0215 15:19:29.199646 17873 net.cpp:100] Creating Layer score_pool4
I0215 15:19:29.199651 17873 net.cpp:434] score_pool4 <- scale_pool4
I0215 15:19:29.199657 17873 net.cpp:408] score_pool4 -> score_pool4
I0215 15:19:29.201053 17873 net.cpp:150] Setting up score_pool4
I0215 15:19:29.201069 17873 net.cpp:157] Top shape: 1 16 23 28 (10304)
I0215 15:19:29.201073 17873 net.cpp:165] Memory required for data: 390055280
I0215 15:19:29.201081 17873 layer_factory.hpp:77] Creating layer score_pool4c
I0215 15:19:29.201092 17873 net.cpp:100] Creating Layer score_pool4c
I0215 15:19:29.201097 17873 net.cpp:434] score_pool4c <- score_pool4
I0215 15:19:29.201102 17873 net.cpp:434] score_pool4c <- upscore2_upscore2_0_split_0
I0215 15:19:29.201122 17873 net.cpp:408] score_pool4c -> score_pool4c
I0215 15:19:29.201159 17873 net.cpp:150] Setting up score_pool4c
I0215 15:19:29.201167 17873 net.cpp:157] Top shape: 1 16 14 18 (4032)
I0215 15:19:29.201171 17873 net.cpp:165] Memory required for data: 390071408
I0215 15:19:29.201177 17873 layer_factory.hpp:77] Creating layer fuse_pool4
I0215 15:19:29.201185 17873 net.cpp:100] Creating Layer fuse_pool4
I0215 15:19:29.201189 17873 net.cpp:434] fuse_pool4 <- upscore2_upscore2_0_split_1
I0215 15:19:29.201195 17873 net.cpp:434] fuse_pool4 <- score_pool4c
I0215 15:19:29.201200 17873 net.cpp:408] fuse_pool4 -> fuse_pool4
I0215 15:19:29.201233 17873 net.cpp:150] Setting up fuse_pool4
I0215 15:19:29.201241 17873 net.cpp:157] Top shape: 1 16 14 18 (4032)
I0215 15:19:29.201244 17873 net.cpp:165] Memory required for data: 390087536
I0215 15:19:29.201248 17873 layer_factory.hpp:77] Creating layer upscore_pool4
I0215 15:19:29.201258 17873 net.cpp:100] Creating Layer upscore_pool4
I0215 15:19:29.201262 17873 net.cpp:434] upscore_pool4 <- fuse_pool4
I0215 15:19:29.201270 17873 net.cpp:408] upscore_pool4 -> upscore_pool4
I0215 15:19:29.201535 17873 net.cpp:150] Setting up upscore_pool4
I0215 15:19:29.201544 17873 net.cpp:157] Top shape: 1 16 30 38 (18240)
I0215 15:19:29.201547 17873 net.cpp:165] Memory required for data: 390160496
I0215 15:19:29.201553 17873 layer_factory.hpp:77] Creating layer upscore_pool4_upscore_pool4_0_split
I0215 15:19:29.201560 17873 net.cpp:100] Creating Layer upscore_pool4_upscore_pool4_0_split
I0215 15:19:29.201565 17873 net.cpp:434] upscore_pool4_upscore_pool4_0_split <- upscore_pool4
I0215 15:19:29.201572 17873 net.cpp:408] upscore_pool4_upscore_pool4_0_split -> upscore_pool4_upscore_pool4_0_split_0
I0215 15:19:29.201580 17873 net.cpp:408] upscore_pool4_upscore_pool4_0_split -> upscore_pool4_upscore_pool4_0_split_1
I0215 15:19:29.201624 17873 net.cpp:150] Setting up upscore_pool4_upscore_pool4_0_split
I0215 15:19:29.201632 17873 net.cpp:157] Top shape: 1 16 30 38 (18240)
I0215 15:19:29.201642 17873 net.cpp:157] Top shape: 1 16 30 38 (18240)
I0215 15:19:29.201647 17873 net.cpp:165] Memory required for data: 390306416
I0215 15:19:29.201652 17873 layer_factory.hpp:77] Creating layer scale_pool3
I0215 15:19:29.201659 17873 net.cpp:100] Creating Layer scale_pool3
I0215 15:19:29.201664 17873 net.cpp:434] scale_pool3 <- pool3_pool3_0_split_1
I0215 15:19:29.201671 17873 net.cpp:408] scale_pool3 -> scale_pool3
I0215 15:19:29.201784 17873 net.cpp:150] Setting up scale_pool3
I0215 15:19:29.201792 17873 net.cpp:157] Top shape: 1 256 46 56 (659456)
I0215 15:19:29.201797 17873 net.cpp:165] Memory required for data: 392944240
I0215 15:19:29.201802 17873 layer_factory.hpp:77] Creating layer score_pool3
I0215 15:19:29.201815 17873 net.cpp:100] Creating Layer score_pool3
I0215 15:19:29.201820 17873 net.cpp:434] score_pool3 <- scale_pool3
I0215 15:19:29.201827 17873 net.cpp:408] score_pool3 -> score_pool3
I0215 15:19:29.203174 17873 net.cpp:150] Setting up score_pool3
I0215 15:19:29.203189 17873 net.cpp:157] Top shape: 1 16 46 56 (41216)
I0215 15:19:29.203194 17873 net.cpp:165] Memory required for data: 393109104
I0215 15:19:29.203202 17873 layer_factory.hpp:77] Creating layer score_pool3c
I0215 15:19:29.203210 17873 net.cpp:100] Creating Layer score_pool3c
I0215 15:19:29.203217 17873 net.cpp:434] score_pool3c <- score_pool3
I0215 15:19:29.203223 17873 net.cpp:434] score_pool3c <- upscore_pool4_upscore_pool4_0_split_0
I0215 15:19:29.203230 17873 net.cpp:408] score_pool3c -> score_pool3c
I0215 15:19:29.203265 17873 net.cpp:150] Setting up score_pool3c
I0215 15:19:29.203272 17873 net.cpp:157] Top shape: 1 16 30 38 (18240)
I0215 15:19:29.203276 17873 net.cpp:165] Memory required for data: 393182064
I0215 15:19:29.203281 17873 layer_factory.hpp:77] Creating layer fuse_pool3
I0215 15:19:29.203290 17873 net.cpp:100] Creating Layer fuse_pool3
I0215 15:19:29.203295 17873 net.cpp:434] fuse_pool3 <- upscore_pool4_upscore_pool4_0_split_1
I0215 15:19:29.203300 17873 net.cpp:434] fuse_pool3 <- score_pool3c
I0215 15:19:29.203313 17873 net.cpp:408] fuse_pool3 -> fuse_pool3
I0215 15:19:29.203346 17873 net.cpp:150] Setting up fuse_pool3
I0215 15:19:29.203352 17873 net.cpp:157] Top shape: 1 16 30 38 (18240)
I0215 15:19:29.203356 17873 net.cpp:165] Memory required for data: 393255024
I0215 15:19:29.203361 17873 layer_factory.hpp:77] Creating layer upscore8
I0215 15:19:29.203371 17873 net.cpp:100] Creating Layer upscore8
I0215 15:19:29.203375 17873 net.cpp:434] upscore8 <- fuse_pool3
I0215 15:19:29.203383 17873 net.cpp:408] upscore8 -> upscore8
I0215 15:19:29.203969 17873 net.cpp:150] Setting up upscore8
I0215 15:19:29.203977 17873 net.cpp:157] Top shape: 1 16 248 312 (1238016)
I0215 15:19:29.203981 17873 net.cpp:165] Memory required for data: 398207088
I0215 15:19:29.203987 17873 layer_factory.hpp:77] Creating layer score
I0215 15:19:29.203995 17873 net.cpp:100] Creating Layer score
I0215 15:19:29.204000 17873 net.cpp:434] score <- upscore8
I0215 15:19:29.204005 17873 net.cpp:434] score <- data_data_0_split_1
I0215 15:19:29.204011 17873 net.cpp:408] score -> score
I0215 15:19:29.204043 17873 net.cpp:150] Setting up score
I0215 15:19:29.204051 17873 net.cpp:157] Top shape: 1 16 167 250 (668000)
I0215 15:19:29.204054 17873 net.cpp:165] Memory required for data: 400879088
I0215 15:19:29.204058 17873 layer_factory.hpp:77] Creating layer loss
I0215 15:19:29.204067 17873 net.cpp:100] Creating Layer loss
I0215 15:19:29.204071 17873 net.cpp:434] loss <- score
I0215 15:19:29.204077 17873 net.cpp:434] loss <- label
I0215 15:19:29.204082 17873 net.cpp:408] loss -> loss
I0215 15:19:29.204092 17873 layer_factory.hpp:77] Creating layer loss
…
