…
test_initialization: false
average_loss: 20
iter_size: 1
I0215 15:21:20.489151 18051 solver.cpp:81] Creating training net from train_net file: train.prototxt
I0215 15:21:20.490483 18051 net.cpp:58] Initializing net from parameters: 
state {
  phase: TRAIN
}
layer {
  name: "data"
  type: "Python"
  top: "data"
  top: "label"
  python_param {
    module: "voc_layers"
    layer: "ObfSBDDSegDataLayer"
    param_str: "{\'sbdd_dir\': \'../data/sbdd-subsampl/dataset\', \'seed\': 1337, \'split\': \'train_pt4_sglinst\', \'mean\': (104.00699, 116.66877, 122.67892)}"
  }
}
layer {
  name: "conv1_1"
  type: "Convolution"
  bottom: "data"
  top: "conv1_1"
  param {
    lr_mult: 1
    decay_mult: 1
  }
  param {
    lr_mult: 2
    decay_mult: 0
  }
  convolution_param {
    num_output: 64
    pad: 100
    kernel_size: 3
    stride: 1
    weight_filler {
      type: "xavier"
    }
  }
}
layer {
  name: "relu1_1"
  type: "ReLU"
  bottom: "conv1_1"
  top: "conv1_1"
}
layer {
  name: "conv1_2"
  type: "Convolution"
  bottom: "conv1_1"
  top: "conv1_2"
  param {
    lr_mult: 1
    decay_mult: 1
  }
  param {
    lr_mult: 2
    decay_mult: 0
  }
  convolution_param {
    num_output: 64
    pad: 1
    kernel_size: 3
    stride: 1
    weight_filler {
      type: "xavier"
    }
  }
}
layer {
  name: "relu1_2"
  type: "ReLU"
  bottom: "conv1_2"
  top: "conv1_2"
}
layer {
  name: "pool1"
  type: "Pooling"
  bottom: "conv1_2"
  top: "pool1"
  pooling_param {
    pool: MAX
    kernel_size: 2
    stride: 2
  }
}
layer {
  name: "conv2_1"
  type: "Convolution"
  bottom: "pool1"
  top: "conv2_1"
  param {
    lr_mult: 1
    decay_mult: 1
  }
  param {
    lr_mult: 2
    decay_mult: 0
  }
  convolution_param {
    num_output: 128
    pad: 1
    kernel_size: 3
    stride: 1
    weight_filler {
      type: "xavier"
    }
  }
}
layer {
  name: "relu2_1"
  type: "ReLU"
  bottom: "conv2_1"
  top: "conv2_1"
}
layer {
  name: "conv2_2"
  type: "Convolution"
  bottom: "conv2_1"
  top: "conv2_2"
  param {
    lr_mult: 1
    decay_mult: 1
  }
  param {
    lr_mult: 2
    decay_mult: 0
  }
  convolution_param {
    num_output: 128
    pad: 1
    kernel_size: 3
    stride: 1
    weight_filler {
      type: "xavier"
    }
  }
}
layer {
  name: "relu2_2"
  type: "ReLU"
  bottom: "conv2_2"
  top: "conv2_2"
}
layer {
  name: "pool2"
  type: "Pooling"
  bottom: "conv2_2"
  top: "pool2"
  pooling_param {
    pool: MAX
    kernel_size: 2
    stride: 2
  }
}
layer {
  name: "conv3_1"
  type: "Convolution"
  bottom: "pool2"
  top: "conv3_1"
  param {
    lr_mult: 1
    decay_mult: 1
  }
  param {
    lr_mult: 2
    decay_mult: 0
  }
  convolution_param {
    num_output: 256
    pad: 1
    kernel_size: 3
    stride: 1
    weight_filler {
      type: "xavier"
    }
  }
}
layer {
  name: "relu3_1"
  type: "ReLU"
  bottom: "conv3_1"
  top: "conv3_1"
}
layer {
  name: "conv3_2"
  type: "Convolution"
  bottom: "conv3_1"
  top: "conv3_2"
  param {
    lr_mult: 1
    decay_mult: 1
  }
  param {
    lr_mult: 2
    decay_mult: 0
  }
  convolution_param {
    num_output: 256
    pad: 1
    kernel_size: 3
    stride: 1
    weight_filler {
      type: "xavier"
    }
  }
}
layer {
  name: "relu3_2"
  type: "ReLU"
  bottom: "conv3_2"
  top: "conv3_2"
}
layer {
  name: "conv3_3"
  type: "Convolution"
  bottom: "conv3_2"
  top: "conv3_3"
  param {
    lr_mult: 1
    decay_mult: 1
  }
  param {
    lr_mult: 2
    decay_mult: 0
  }
  convolution_param {
    num_output: 256
    pad: 1
    kernel_size: 3
    stride: 1
    weight_filler {
      type: "xavier"
    }
  }
}
layer {
  name: "relu3_3"
  type: "ReLU"
  bottom: "conv3_3"
  top: "conv3_3"
}
layer {
  name: "pool3"
  type: "Pooling"
  bottom: "conv3_3"
  top: "pool3"
  pooling_param {
    pool: MAX
    kernel_size: 2
    stride: 2
  }
}
layer {
  name: "conv4_1"
  type: "Convolution"
  bottom: "pool3"
  top: "conv4_1"
  param {
    lr_mult: 1
    decay_mult: 1
  }
  param {
    lr_mult: 2
    decay_mult: 0
  }
  convolution_param {
    num_output: 512
    pad: 1
    kernel_size: 3
    stride: 1
    weight_filler {
      type: "xavier"
    }
  }
}
layer {
  name: "relu4_1"
  type: "ReLU"
  bottom: "conv4_1"
  top: "conv4_1"
}
layer {
  name: "conv4_2"
  type: "Convolution"
  bottom: "conv4_1"
  top: "conv4_2"
  param {
    lr_mult: 1
    decay_mult: 1
  }
  param {
    lr_mult: 2
    decay_mult: 0
  }
  convolution_param {
    num_output: 512
    pad: 1
    kernel_size: 3
    stride: 1
    weight_filler {
      type: "xavier"
    }
  }
}
layer {
  name: "relu4_2"
  type: "ReLU"
  bottom: "conv4_2"
  top: "conv4_2"
}
layer {
  name: "conv4_3"
  type: "Convolution"
  bottom: "conv4_2"
  top: "conv4_3"
  param {
    lr_mult: 1
    decay_mult: 1
  }
  param {
    lr_mult: 2
    decay_mult: 0
  }
  convolution_param {
    num_output: 512
    pad: 1
    kernel_size: 3
    stride: 1
    weight_filler {
      type: "xavier"
    }
  }
}
layer {
  name: "relu4_3"
  type: "ReLU"
  bottom: "conv4_3"
  top: "conv4_3"
}
layer {
  name: "pool4"
  type: "Pooling"
  bottom: "conv4_3"
  top: "pool4"
  pooling_param {
    pool: MAX
    kernel_size: 2
    stride: 2
  }
}
layer {
  name: "conv5_1"
  type: "Convolution"
  bottom: "pool4"
  top: "conv5_1"
  param {
    lr_mult: 1
    decay_mult: 1
  }
  param {
    lr_mult: 2
    decay_mult: 0
  }
  convolution_param {
    num_output: 512
    pad: 1
    kernel_size: 3
    stride: 1
    weight_filler {
      type: "xavier"
    }
  }
}
layer {
  name: "relu5_1"
  type: "ReLU"
  bottom: "conv5_1"
  top: "conv5_1"
}
layer {
  name: "conv5_2"
  type: "Convolution"
  bottom: "conv5_1"
  top: "conv5_2"
  param {
    lr_mult: 1
    decay_mult: 1
  }
  param {
    lr_mult: 2
    decay_mult: 0
  }
  convolution_param {
    num_output: 512
    pad: 1
    kernel_size: 3
    stride: 1
    weight_filler {
      type: "xavier"
    }
  }
}
layer {
  name: "relu5_2"
  type: "ReLU"
  bottom: "conv5_2"
  top: "conv5_2"
}
layer {
  name: "conv5_3"
  type: "Convolution"
  bottom: "conv5_2"
  top: "conv5_3"
  param {
    lr_mult: 1
    decay_mult: 1
  }
  param {
    lr_mult: 2
    decay_mult: 0
  }
  convolution_param {
    num_output: 512
    pad: 1
    kernel_size: 3
    stride: 1
    weight_filler {
      type: "xavier"
    }
  }
}
layer {
  name: "relu5_3"
  type: "ReLU"
  bottom: "conv5_3"
  top: "conv5_3"
}
layer {
  name: "pool5"
  type: "Pooling"
  bottom: "conv5_3"
  top: "pool5"
  pooling_param {
    pool: MAX
    kernel_size: 2
    stride: 2
  }
}
layer {
  name: "fc6"
  type: "Convolution"
  bottom: "pool5"
  top: "fc6"
  param {
    lr_mult: 1
    decay_mult: 1
  }
  param {
    lr_mult: 2
    decay_mult: 0
  }
  convolution_param {
    num_output: 4096
    pad: 0
    kernel_size: 7
    stride: 1
    weight_filler {
      type: "xavier"
    }
  }
}
layer {
  name: "relu6"
  type: "ReLU"
  bottom: "fc6"
  top: "fc6"
}
layer {
  name: "drop6"
  type: "Dropout"
  bottom: "fc6"
  top: "fc6"
  dropout_param {
    dropout_ratio: 0.5
  }
}
layer {
  name: "fc7"
  type: "Convolution"
  bottom: "fc6"
  top: "fc7"
  param {
    lr_mult: 1
    decay_mult: 1
  }
  param {
    lr_mult: 2
    decay_mult: 0
  }
  convolution_param {
    num_output: 4096
    pad: 0
    kernel_size: 1
    stride: 1
    weight_filler {
      type: "xavier"
    }
  }
}
layer {
  name: "relu7"
  type: "ReLU"
  bottom: "fc7"
  top: "fc7"
}
layer {
  name: "drop7"
  type: "Dropout"
  bottom: "fc7"
  top: "fc7"
  dropout_param {
    dropout_ratio: 0.5
  }
}
layer {
  name: "score_fr"
  type: "Convolution"
  bottom: "fc7"
  top: "score_fr"
  param {
    lr_mult: 1
    decay_mult: 1
  }
  param {
    lr_mult: 2
    decay_mult: 0
  }
  convolution_param {
    num_output: 2
    pad: 0
    kernel_size: 1
    weight_filler {
      type: "xavier"
    }
  }
}
layer {
  name: "upscore2"
  type: "Deconvolution"
  bottom: "score_fr"
  top: "upscore2"
  param {
    lr_mult: 0
  }
  convolution_param {
    num_output: 2
    bias_term: false
    kernel_size: 4
    stride: 2
    weight_filler {
      type: "xavier"
    }
  }
}
layer {
  name: "scale_pool4"
  type: "Scale"
  bottom: "pool4"
  top: "scale_pool4"
  param {
    lr_mult: 0
  }
  scale_param {
    filler {
      type: "constant"
      value: 0.01
    }
  }
}
layer {
  name: "score_pool4"
  type: "Convolution"
  bottom: "scale_pool4"
  top: "score_pool4"
  param {
    lr_mult: 1
    decay_mult: 1
  }
  param {
    lr_mult: 2
    decay_mult: 0
  }
  convolution_param {
    num_output: 2
    pad: 0
    kernel_size: 1
    weight_filler {
      type: "xavier"
    }
  }
}
layer {
  name: "score_pool4c"
  type: "Crop"
  bottom: "score_pool4"
  bottom: "upscore2"
  top: "score_pool4c"
  crop_param {
    axis: 2
    offset: 5
  }
}
layer {
  name: "fuse_pool4"
  type: "Eltwise"
  bottom: "upscore2"
  bottom: "score_pool4c"
  top: "fuse_pool4"
  eltwise_param {
    operation: SUM
  }
}
layer {
  name: "upscore_pool4"
  type: "Deconvolution"
  bottom: "fuse_pool4"
  top: "upscore_pool4"
  param {
    lr_mult: 0
  }
  convolution_param {
    num_output: 2
    bias_term: false
    kernel_size: 4
    stride: 2
    weight_filler {
      type: "xavier"
    }
  }
}
layer {
  name: "scale_pool3"
  type: "Scale"
  bottom: "pool3"
  top: "scale_pool3"
  param {
    lr_mult: 0
  }
  scale_param {
    filler {
      type: "constant"
      value: 0.0001
    }
  }
}
layer {
  name: "score_pool3"
  type: "Convolution"
  bottom: "scale_pool3"
  top: "score_pool3"
  param {
    lr_mult: 1
    decay_mult: 1
  }
  param {
    lr_mult: 2
    decay_mult: 0
  }
  convolution_param {
    num_output: 2
    pad: 0
    kernel_size: 1
    weight_filler {
      type: "xavier"
    }
  }
}
layer {
  name: "score_pool3c"
  type: "Crop"
  bottom: "score_pool3"
  bottom: "upscore_pool4"
  top: "score_pool3c"
  crop_param {
    axis: 2
    offset: 9
  }
}
layer {
  name: "fuse_pool3"
  type: "Eltwise"
  bottom: "upscore_pool4"
  bottom: "score_pool3c"
  top: "fuse_pool3"
  eltwise_param {
    operation: SUM
  }
}
layer {
  name: "upscore8"
  type: "Deconvolution"
  bottom: "fuse_pool3"
  top: "upscore8"
  param {
    lr_mult: 0
  }
  convolution_param {
    num_output: 2
    bias_term: false
    kernel_size: 16
    stride: 8
    weight_filler {
      type: "xavier"
    }
  }
}
layer {
  name: "score"
  type: "Crop"
  bottom: "upscore8"
  bottom: "data"
  top: "score"
  crop_param {
    axis: 2
    offset: 31
  }
}
layer {
  name: "loss"
  type: "SoftmaxWithLoss"
  bottom: "score"
  bottom: "label"
  top: "loss"
  loss_param {
    ignore_label: 255
    normalize: false
  }
}
I0215 15:21:20.490734 18051 layer_factory.hpp:77] Creating layer data
I0215 15:21:20.491251 18051 net.cpp:100] Creating Layer data
I0215 15:21:20.491267 18051 net.cpp:408] data -> data
I0215 15:21:20.491286 18051 net.cpp:408] data -> label
I0215 15:21:20.520962 18051 net.cpp:150] Setting up data
I0215 15:21:20.521003 18051 net.cpp:157] Top shape: 1 3 188 250 (141000)
I0215 15:21:20.521009 18051 net.cpp:157] Top shape: 1 1 188 250 (47000)
I0215 15:21:20.521013 18051 net.cpp:165] Memory required for data: 752000
I0215 15:21:20.521023 18051 layer_factory.hpp:77] Creating layer data_data_0_split
I0215 15:21:20.521039 18051 net.cpp:100] Creating Layer data_data_0_split
I0215 15:21:20.521044 18051 net.cpp:434] data_data_0_split <- data
I0215 15:21:20.521052 18051 net.cpp:408] data_data_0_split -> data_data_0_split_0
I0215 15:21:20.521064 18051 net.cpp:408] data_data_0_split -> data_data_0_split_1
I0215 15:21:20.521105 18051 net.cpp:150] Setting up data_data_0_split
I0215 15:21:20.521113 18051 net.cpp:157] Top shape: 1 3 188 250 (141000)
I0215 15:21:20.521117 18051 net.cpp:157] Top shape: 1 3 188 250 (141000)
I0215 15:21:20.521121 18051 net.cpp:165] Memory required for data: 1880000
I0215 15:21:20.521126 18051 layer_factory.hpp:77] Creating layer conv1_1
I0215 15:21:20.521147 18051 net.cpp:100] Creating Layer conv1_1
I0215 15:21:20.521152 18051 net.cpp:434] conv1_1 <- data_data_0_split_0
I0215 15:21:20.521167 18051 net.cpp:408] conv1_1 -> conv1_1
I0215 15:21:20.721693 18051 net.cpp:150] Setting up conv1_1
I0215 15:21:20.721806 18051 net.cpp:157] Top shape: 1 64 386 448 (11067392)
I0215 15:21:20.721812 18051 net.cpp:165] Memory required for data: 46149568
I0215 15:21:20.721843 18051 layer_factory.hpp:77] Creating layer relu1_1
I0215 15:21:20.721897 18051 net.cpp:100] Creating Layer relu1_1
I0215 15:21:20.721905 18051 net.cpp:434] relu1_1 <- conv1_1
I0215 15:21:20.721913 18051 net.cpp:395] relu1_1 -> conv1_1 (in-place)
I0215 15:21:20.722288 18051 net.cpp:150] Setting up relu1_1
I0215 15:21:20.722302 18051 net.cpp:157] Top shape: 1 64 386 448 (11067392)
I0215 15:21:20.722307 18051 net.cpp:165] Memory required for data: 90419136
I0215 15:21:20.722313 18051 layer_factory.hpp:77] Creating layer conv1_2
I0215 15:21:20.722348 18051 net.cpp:100] Creating Layer conv1_2
I0215 15:21:20.722354 18051 net.cpp:434] conv1_2 <- conv1_1
I0215 15:21:20.722362 18051 net.cpp:408] conv1_2 -> conv1_2
I0215 15:21:20.724980 18051 net.cpp:150] Setting up conv1_2
I0215 15:21:20.724997 18051 net.cpp:157] Top shape: 1 64 386 448 (11067392)
I0215 15:21:20.725003 18051 net.cpp:165] Memory required for data: 134688704
I0215 15:21:20.725015 18051 layer_factory.hpp:77] Creating layer relu1_2
I0215 15:21:20.725028 18051 net.cpp:100] Creating Layer relu1_2
I0215 15:21:20.725033 18051 net.cpp:434] relu1_2 <- conv1_2
I0215 15:21:20.725039 18051 net.cpp:395] relu1_2 -> conv1_2 (in-place)
I0215 15:21:20.725404 18051 net.cpp:150] Setting up relu1_2
I0215 15:21:20.725419 18051 net.cpp:157] Top shape: 1 64 386 448 (11067392)
I0215 15:21:20.725422 18051 net.cpp:165] Memory required for data: 178958272
I0215 15:21:20.725427 18051 layer_factory.hpp:77] Creating layer pool1
I0215 15:21:20.725440 18051 net.cpp:100] Creating Layer pool1
I0215 15:21:20.725445 18051 net.cpp:434] pool1 <- conv1_2
I0215 15:21:20.725455 18051 net.cpp:408] pool1 -> pool1
I0215 15:21:20.725505 18051 net.cpp:150] Setting up pool1
I0215 15:21:20.725513 18051 net.cpp:157] Top shape: 1 64 193 224 (2766848)
I0215 15:21:20.725518 18051 net.cpp:165] Memory required for data: 190025664
I0215 15:21:20.725522 18051 layer_factory.hpp:77] Creating layer conv2_1
I0215 15:21:20.725541 18051 net.cpp:100] Creating Layer conv2_1
I0215 15:21:20.725545 18051 net.cpp:434] conv2_1 <- pool1
I0215 15:21:20.725553 18051 net.cpp:408] conv2_1 -> conv2_1
I0215 15:21:20.727282 18051 net.cpp:150] Setting up conv2_1
I0215 15:21:20.727298 18051 net.cpp:157] Top shape: 1 128 193 224 (5533696)
I0215 15:21:20.727303 18051 net.cpp:165] Memory required for data: 212160448
I0215 15:21:20.727314 18051 layer_factory.hpp:77] Creating layer relu2_1
I0215 15:21:20.727325 18051 net.cpp:100] Creating Layer relu2_1
I0215 15:21:20.727330 18051 net.cpp:434] relu2_1 <- conv2_1
I0215 15:21:20.727336 18051 net.cpp:395] relu2_1 -> conv2_1 (in-place)
I0215 15:21:20.727540 18051 net.cpp:150] Setting up relu2_1
I0215 15:21:20.727551 18051 net.cpp:157] Top shape: 1 128 193 224 (5533696)
I0215 15:21:20.727555 18051 net.cpp:165] Memory required for data: 234295232
I0215 15:21:20.727561 18051 layer_factory.hpp:77] Creating layer conv2_2
I0215 15:21:20.727577 18051 net.cpp:100] Creating Layer conv2_2
I0215 15:21:20.727583 18051 net.cpp:434] conv2_2 <- conv2_1
I0215 15:21:20.727591 18051 net.cpp:408] conv2_2 -> conv2_2
I0215 15:21:20.730244 18051 net.cpp:150] Setting up conv2_2
I0215 15:21:20.730262 18051 net.cpp:157] Top shape: 1 128 193 224 (5533696)
I0215 15:21:20.730267 18051 net.cpp:165] Memory required for data: 256430016
I0215 15:21:20.730275 18051 layer_factory.hpp:77] Creating layer relu2_2
I0215 15:21:20.730284 18051 net.cpp:100] Creating Layer relu2_2
I0215 15:21:20.730289 18051 net.cpp:434] relu2_2 <- conv2_2
I0215 15:21:20.730298 18051 net.cpp:395] relu2_2 -> conv2_2 (in-place)
I0215 15:21:20.730664 18051 net.cpp:150] Setting up relu2_2
I0215 15:21:20.730679 18051 net.cpp:157] Top shape: 1 128 193 224 (5533696)
I0215 15:21:20.730684 18051 net.cpp:165] Memory required for data: 278564800
I0215 15:21:20.730700 18051 layer_factory.hpp:77] Creating layer pool2
I0215 15:21:20.730710 18051 net.cpp:100] Creating Layer pool2
I0215 15:21:20.730716 18051 net.cpp:434] pool2 <- conv2_2
I0215 15:21:20.730723 18051 net.cpp:408] pool2 -> pool2
I0215 15:21:20.730774 18051 net.cpp:150] Setting up pool2
I0215 15:21:20.730782 18051 net.cpp:157] Top shape: 1 128 97 112 (1390592)
I0215 15:21:20.730787 18051 net.cpp:165] Memory required for data: 284127168
I0215 15:21:20.730790 18051 layer_factory.hpp:77] Creating layer conv3_1
I0215 15:21:20.730804 18051 net.cpp:100] Creating Layer conv3_1
I0215 15:21:20.730808 18051 net.cpp:434] conv3_1 <- pool2
I0215 15:21:20.730815 18051 net.cpp:408] conv3_1 -> conv3_1
I0215 15:21:20.734697 18051 net.cpp:150] Setting up conv3_1
I0215 15:21:20.734714 18051 net.cpp:157] Top shape: 1 256 97 112 (2781184)
I0215 15:21:20.734719 18051 net.cpp:165] Memory required for data: 295251904
I0215 15:21:20.734730 18051 layer_factory.hpp:77] Creating layer relu3_1
I0215 15:21:20.734741 18051 net.cpp:100] Creating Layer relu3_1
I0215 15:21:20.734746 18051 net.cpp:434] relu3_1 <- conv3_1
I0215 15:21:20.734752 18051 net.cpp:395] relu3_1 -> conv3_1 (in-place)
I0215 15:21:20.735119 18051 net.cpp:150] Setting up relu3_1
I0215 15:21:20.735134 18051 net.cpp:157] Top shape: 1 256 97 112 (2781184)
I0215 15:21:20.735138 18051 net.cpp:165] Memory required for data: 306376640
I0215 15:21:20.735143 18051 layer_factory.hpp:77] Creating layer conv3_2
I0215 15:21:20.735159 18051 net.cpp:100] Creating Layer conv3_2
I0215 15:21:20.735165 18051 net.cpp:434] conv3_2 <- conv3_1
I0215 15:21:20.735175 18051 net.cpp:408] conv3_2 -> conv3_2
I0215 15:21:20.740581 18051 net.cpp:150] Setting up conv3_2
I0215 15:21:20.740597 18051 net.cpp:157] Top shape: 1 256 97 112 (2781184)
I0215 15:21:20.740602 18051 net.cpp:165] Memory required for data: 317501376
I0215 15:21:20.740609 18051 layer_factory.hpp:77] Creating layer relu3_2
I0215 15:21:20.740617 18051 net.cpp:100] Creating Layer relu3_2
I0215 15:21:20.740622 18051 net.cpp:434] relu3_2 <- conv3_2
I0215 15:21:20.740629 18051 net.cpp:395] relu3_2 -> conv3_2 (in-place)
I0215 15:21:20.740825 18051 net.cpp:150] Setting up relu3_2
I0215 15:21:20.740835 18051 net.cpp:157] Top shape: 1 256 97 112 (2781184)
I0215 15:21:20.740840 18051 net.cpp:165] Memory required for data: 328626112
I0215 15:21:20.740846 18051 layer_factory.hpp:77] Creating layer conv3_3
I0215 15:21:20.740860 18051 net.cpp:100] Creating Layer conv3_3
I0215 15:21:20.740865 18051 net.cpp:434] conv3_3 <- conv3_2
I0215 15:21:20.740875 18051 net.cpp:408] conv3_3 -> conv3_3
I0215 15:21:20.747572 18051 net.cpp:150] Setting up conv3_3
I0215 15:21:20.747591 18051 net.cpp:157] Top shape: 1 256 97 112 (2781184)
I0215 15:21:20.747596 18051 net.cpp:165] Memory required for data: 339750848
I0215 15:21:20.747603 18051 layer_factory.hpp:77] Creating layer relu3_3
I0215 15:21:20.747612 18051 net.cpp:100] Creating Layer relu3_3
I0215 15:21:20.747617 18051 net.cpp:434] relu3_3 <- conv3_3
I0215 15:21:20.747627 18051 net.cpp:395] relu3_3 -> conv3_3 (in-place)
I0215 15:21:20.747999 18051 net.cpp:150] Setting up relu3_3
I0215 15:21:20.748013 18051 net.cpp:157] Top shape: 1 256 97 112 (2781184)
I0215 15:21:20.748018 18051 net.cpp:165] Memory required for data: 350875584
I0215 15:21:20.748023 18051 layer_factory.hpp:77] Creating layer pool3
I0215 15:21:20.748034 18051 net.cpp:100] Creating Layer pool3
I0215 15:21:20.748039 18051 net.cpp:434] pool3 <- conv3_3
I0215 15:21:20.748047 18051 net.cpp:408] pool3 -> pool3
I0215 15:21:20.748096 18051 net.cpp:150] Setting up pool3
I0215 15:21:20.748105 18051 net.cpp:157] Top shape: 1 256 49 56 (702464)
I0215 15:21:20.748108 18051 net.cpp:165] Memory required for data: 353685440
I0215 15:21:20.748112 18051 layer_factory.hpp:77] Creating layer pool3_pool3_0_split
I0215 15:21:20.748121 18051 net.cpp:100] Creating Layer pool3_pool3_0_split
I0215 15:21:20.748126 18051 net.cpp:434] pool3_pool3_0_split <- pool3
I0215 15:21:20.748131 18051 net.cpp:408] pool3_pool3_0_split -> pool3_pool3_0_split_0
I0215 15:21:20.748141 18051 net.cpp:408] pool3_pool3_0_split -> pool3_pool3_0_split_1
I0215 15:21:20.748190 18051 net.cpp:150] Setting up pool3_pool3_0_split
I0215 15:21:20.748198 18051 net.cpp:157] Top shape: 1 256 49 56 (702464)
I0215 15:21:20.748203 18051 net.cpp:157] Top shape: 1 256 49 56 (702464)
I0215 15:21:20.748208 18051 net.cpp:165] Memory required for data: 359305152
I0215 15:21:20.748211 18051 layer_factory.hpp:77] Creating layer conv4_1
I0215 15:21:20.748229 18051 net.cpp:100] Creating Layer conv4_1
I0215 15:21:20.748234 18051 net.cpp:434] conv4_1 <- pool3_pool3_0_split_0
I0215 15:21:20.748242 18051 net.cpp:408] conv4_1 -> conv4_1
I0215 15:21:20.758337 18051 net.cpp:150] Setting up conv4_1
I0215 15:21:20.758357 18051 net.cpp:157] Top shape: 1 512 49 56 (1404928)
I0215 15:21:20.758361 18051 net.cpp:165] Memory required for data: 364924864
I0215 15:21:20.758369 18051 layer_factory.hpp:77] Creating layer relu4_1
I0215 15:21:20.758378 18051 net.cpp:100] Creating Layer relu4_1
I0215 15:21:20.758383 18051 net.cpp:434] relu4_1 <- conv4_1
I0215 15:21:20.758389 18051 net.cpp:395] relu4_1 -> conv4_1 (in-place)
I0215 15:21:20.758764 18051 net.cpp:150] Setting up relu4_1
I0215 15:21:20.758780 18051 net.cpp:157] Top shape: 1 512 49 56 (1404928)
I0215 15:21:20.758783 18051 net.cpp:165] Memory required for data: 370544576
I0215 15:21:20.758788 18051 layer_factory.hpp:77] Creating layer conv4_2
I0215 15:21:20.758802 18051 net.cpp:100] Creating Layer conv4_2
I0215 15:21:20.758808 18051 net.cpp:434] conv4_2 <- conv4_1
I0215 15:21:20.758816 18051 net.cpp:408] conv4_2 -> conv4_2
I0215 15:21:20.776473 18051 net.cpp:150] Setting up conv4_2
I0215 15:21:20.776501 18051 net.cpp:157] Top shape: 1 512 49 56 (1404928)
I0215 15:21:20.776506 18051 net.cpp:165] Memory required for data: 376164288
I0215 15:21:20.776525 18051 layer_factory.hpp:77] Creating layer relu4_2
I0215 15:21:20.776536 18051 net.cpp:100] Creating Layer relu4_2
I0215 15:21:20.776542 18051 net.cpp:434] relu4_2 <- conv4_2
I0215 15:21:20.776551 18051 net.cpp:395] relu4_2 -> conv4_2 (in-place)
I0215 15:21:20.776746 18051 net.cpp:150] Setting up relu4_2
I0215 15:21:20.776757 18051 net.cpp:157] Top shape: 1 512 49 56 (1404928)
I0215 15:21:20.776762 18051 net.cpp:165] Memory required for data: 381784000
I0215 15:21:20.776767 18051 layer_factory.hpp:77] Creating layer conv4_3
I0215 15:21:20.776782 18051 net.cpp:100] Creating Layer conv4_3
I0215 15:21:20.776787 18051 net.cpp:434] conv4_3 <- conv4_2
I0215 15:21:20.776793 18051 net.cpp:408] conv4_3 -> conv4_3
I0215 15:21:20.794595 18051 net.cpp:150] Setting up conv4_3
I0215 15:21:20.794621 18051 net.cpp:157] Top shape: 1 512 49 56 (1404928)
I0215 15:21:20.794626 18051 net.cpp:165] Memory required for data: 387403712
I0215 15:21:20.794636 18051 layer_factory.hpp:77] Creating layer relu4_3
I0215 15:21:20.794646 18051 net.cpp:100] Creating Layer relu4_3
I0215 15:21:20.794652 18051 net.cpp:434] relu4_3 <- conv4_3
I0215 15:21:20.794662 18051 net.cpp:395] relu4_3 -> conv4_3 (in-place)
I0215 15:21:20.795032 18051 net.cpp:150] Setting up relu4_3
I0215 15:21:20.795047 18051 net.cpp:157] Top shape: 1 512 49 56 (1404928)
I0215 15:21:20.795053 18051 net.cpp:165] Memory required for data: 393023424
I0215 15:21:20.795058 18051 layer_factory.hpp:77] Creating layer pool4
I0215 15:21:20.795068 18051 net.cpp:100] Creating Layer pool4
I0215 15:21:20.795073 18051 net.cpp:434] pool4 <- conv4_3
I0215 15:21:20.795081 18051 net.cpp:408] pool4 -> pool4
I0215 15:21:20.795133 18051 net.cpp:150] Setting up pool4
I0215 15:21:20.795141 18051 net.cpp:157] Top shape: 1 512 25 28 (358400)
I0215 15:21:20.795145 18051 net.cpp:165] Memory required for data: 394457024
I0215 15:21:20.795151 18051 layer_factory.hpp:77] Creating layer pool4_pool4_0_split
I0215 15:21:20.795161 18051 net.cpp:100] Creating Layer pool4_pool4_0_split
I0215 15:21:20.795166 18051 net.cpp:434] pool4_pool4_0_split <- pool4
I0215 15:21:20.795171 18051 net.cpp:408] pool4_pool4_0_split -> pool4_pool4_0_split_0
I0215 15:21:20.795178 18051 net.cpp:408] pool4_pool4_0_split -> pool4_pool4_0_split_1
I0215 15:21:20.795220 18051 net.cpp:150] Setting up pool4_pool4_0_split
I0215 15:21:20.795239 18051 net.cpp:157] Top shape: 1 512 25 28 (358400)
I0215 15:21:20.795245 18051 net.cpp:157] Top shape: 1 512 25 28 (358400)
I0215 15:21:20.795249 18051 net.cpp:165] Memory required for data: 397324224
I0215 15:21:20.795253 18051 layer_factory.hpp:77] Creating layer conv5_1
I0215 15:21:20.795267 18051 net.cpp:100] Creating Layer conv5_1
I0215 15:21:20.795272 18051 net.cpp:434] conv5_1 <- pool4_pool4_0_split_0
I0215 15:21:20.795281 18051 net.cpp:408] conv5_1 -> conv5_1
I0215 15:21:20.812770 18051 net.cpp:150] Setting up conv5_1
I0215 15:21:20.812800 18051 net.cpp:157] Top shape: 1 512 25 28 (358400)
I0215 15:21:20.812805 18051 net.cpp:165] Memory required for data: 398757824
I0215 15:21:20.812815 18051 layer_factory.hpp:77] Creating layer relu5_1
I0215 15:21:20.812829 18051 net.cpp:100] Creating Layer relu5_1
I0215 15:21:20.812834 18051 net.cpp:434] relu5_1 <- conv5_1
I0215 15:21:20.812841 18051 net.cpp:395] relu5_1 -> conv5_1 (in-place)
I0215 15:21:20.813212 18051 net.cpp:150] Setting up relu5_1
I0215 15:21:20.813226 18051 net.cpp:157] Top shape: 1 512 25 28 (358400)
I0215 15:21:20.813231 18051 net.cpp:165] Memory required for data: 400191424
I0215 15:21:20.813235 18051 layer_factory.hpp:77] Creating layer conv5_2
I0215 15:21:20.813249 18051 net.cpp:100] Creating Layer conv5_2
I0215 15:21:20.813254 18051 net.cpp:434] conv5_2 <- conv5_1
I0215 15:21:20.813264 18051 net.cpp:408] conv5_2 -> conv5_2
I0215 15:21:20.831017 18051 net.cpp:150] Setting up conv5_2
I0215 15:21:20.831043 18051 net.cpp:157] Top shape: 1 512 25 28 (358400)
I0215 15:21:20.831048 18051 net.cpp:165] Memory required for data: 401625024
I0215 15:21:20.831063 18051 layer_factory.hpp:77] Creating layer relu5_2
I0215 15:21:20.831073 18051 net.cpp:100] Creating Layer relu5_2
I0215 15:21:20.831079 18051 net.cpp:434] relu5_2 <- conv5_2
I0215 15:21:20.831089 18051 net.cpp:395] relu5_2 -> conv5_2 (in-place)
I0215 15:21:20.831284 18051 net.cpp:150] Setting up relu5_2
I0215 15:21:20.831296 18051 net.cpp:157] Top shape: 1 512 25 28 (358400)
I0215 15:21:20.831300 18051 net.cpp:165] Memory required for data: 403058624
I0215 15:21:20.831305 18051 layer_factory.hpp:77] Creating layer conv5_3
I0215 15:21:20.831328 18051 net.cpp:100] Creating Layer conv5_3
I0215 15:21:20.831333 18051 net.cpp:434] conv5_3 <- conv5_2
I0215 15:21:20.831341 18051 net.cpp:408] conv5_3 -> conv5_3
I0215 15:21:20.849349 18051 net.cpp:150] Setting up conv5_3
I0215 15:21:20.849385 18051 net.cpp:157] Top shape: 1 512 25 28 (358400)
I0215 15:21:20.849390 18051 net.cpp:165] Memory required for data: 404492224
I0215 15:21:20.849401 18051 layer_factory.hpp:77] Creating layer relu5_3
I0215 15:21:20.849414 18051 net.cpp:100] Creating Layer relu5_3
I0215 15:21:20.849421 18051 net.cpp:434] relu5_3 <- conv5_3
I0215 15:21:20.849436 18051 net.cpp:395] relu5_3 -> conv5_3 (in-place)
I0215 15:21:20.850008 18051 net.cpp:150] Setting up relu5_3
I0215 15:21:20.850023 18051 net.cpp:157] Top shape: 1 512 25 28 (358400)
I0215 15:21:20.850026 18051 net.cpp:165] Memory required for data: 405925824
I0215 15:21:20.850031 18051 layer_factory.hpp:77] Creating layer pool5
I0215 15:21:20.850041 18051 net.cpp:100] Creating Layer pool5
I0215 15:21:20.850046 18051 net.cpp:434] pool5 <- conv5_3
I0215 15:21:20.850055 18051 net.cpp:408] pool5 -> pool5
I0215 15:21:20.850111 18051 net.cpp:150] Setting up pool5
I0215 15:21:20.850119 18051 net.cpp:157] Top shape: 1 512 13 14 (93184)
I0215 15:21:20.850123 18051 net.cpp:165] Memory required for data: 406298560
I0215 15:21:20.850129 18051 layer_factory.hpp:77] Creating layer fc6
I0215 15:21:20.850144 18051 net.cpp:100] Creating Layer fc6
I0215 15:21:20.850149 18051 net.cpp:434] fc6 <- pool5
I0215 15:21:20.850157 18051 net.cpp:408] fc6 -> fc6
I0215 15:21:21.595796 18051 net.cpp:150] Setting up fc6
I0215 15:21:21.595859 18051 net.cpp:157] Top shape: 1 4096 7 8 (229376)
I0215 15:21:21.595865 18051 net.cpp:165] Memory required for data: 407216064
I0215 15:21:21.595880 18051 layer_factory.hpp:77] Creating layer relu6
I0215 15:21:21.595912 18051 net.cpp:100] Creating Layer relu6
I0215 15:21:21.595922 18051 net.cpp:434] relu6 <- fc6
I0215 15:21:21.595932 18051 net.cpp:395] relu6 -> fc6 (in-place)
I0215 15:21:21.596323 18051 net.cpp:150] Setting up relu6
I0215 15:21:21.596336 18051 net.cpp:157] Top shape: 1 4096 7 8 (229376)
I0215 15:21:21.596341 18051 net.cpp:165] Memory required for data: 408133568
I0215 15:21:21.596345 18051 layer_factory.hpp:77] Creating layer drop6
I0215 15:21:21.596364 18051 net.cpp:100] Creating Layer drop6
I0215 15:21:21.596369 18051 net.cpp:434] drop6 <- fc6
I0215 15:21:21.596375 18051 net.cpp:395] drop6 -> fc6 (in-place)
I0215 15:21:21.596421 18051 net.cpp:150] Setting up drop6
I0215 15:21:21.596428 18051 net.cpp:157] Top shape: 1 4096 7 8 (229376)
I0215 15:21:21.596432 18051 net.cpp:165] Memory required for data: 409051072
I0215 15:21:21.596436 18051 layer_factory.hpp:77] Creating layer fc7
I0215 15:21:21.596451 18051 net.cpp:100] Creating Layer fc7
I0215 15:21:21.596457 18051 net.cpp:434] fc7 <- fc6
I0215 15:21:21.596463 18051 net.cpp:408] fc7 -> fc7
I0215 15:21:21.714020 18051 net.cpp:150] Setting up fc7
I0215 15:21:21.714069 18051 net.cpp:157] Top shape: 1 4096 7 8 (229376)
I0215 15:21:21.714074 18051 net.cpp:165] Memory required for data: 409968576
I0215 15:21:21.714087 18051 layer_factory.hpp:77] Creating layer relu7
I0215 15:21:21.714100 18051 net.cpp:100] Creating Layer relu7
I0215 15:21:21.714107 18051 net.cpp:434] relu7 <- fc7
I0215 15:21:21.714119 18051 net.cpp:395] relu7 -> fc7 (in-place)
I0215 15:21:21.714334 18051 net.cpp:150] Setting up relu7
I0215 15:21:21.714345 18051 net.cpp:157] Top shape: 1 4096 7 8 (229376)
I0215 15:21:21.714349 18051 net.cpp:165] Memory required for data: 410886080
I0215 15:21:21.714354 18051 layer_factory.hpp:77] Creating layer drop7
I0215 15:21:21.714364 18051 net.cpp:100] Creating Layer drop7
I0215 15:21:21.714367 18051 net.cpp:434] drop7 <- fc7
I0215 15:21:21.714375 18051 net.cpp:395] drop7 -> fc7 (in-place)
I0215 15:21:21.714411 18051 net.cpp:150] Setting up drop7
I0215 15:21:21.714417 18051 net.cpp:157] Top shape: 1 4096 7 8 (229376)
I0215 15:21:21.714422 18051 net.cpp:165] Memory required for data: 411803584
I0215 15:21:21.714426 18051 layer_factory.hpp:77] Creating layer score_fr
I0215 15:21:21.714443 18051 net.cpp:100] Creating Layer score_fr
I0215 15:21:21.714447 18051 net.cpp:434] score_fr <- fc7
I0215 15:21:21.714457 18051 net.cpp:408] score_fr -> score_fr
I0215 15:21:21.715741 18051 net.cpp:150] Setting up score_fr
I0215 15:21:21.715760 18051 net.cpp:157] Top shape: 1 2 7 8 (112)
I0215 15:21:21.715764 18051 net.cpp:165] Memory required for data: 411804032
I0215 15:21:21.715775 18051 layer_factory.hpp:77] Creating layer upscore2
I0215 15:21:21.715791 18051 net.cpp:100] Creating Layer upscore2
I0215 15:21:21.715796 18051 net.cpp:434] upscore2 <- score_fr
I0215 15:21:21.715806 18051 net.cpp:408] upscore2 -> upscore2
I0215 15:21:21.716022 18051 net.cpp:150] Setting up upscore2
I0215 15:21:21.716030 18051 net.cpp:157] Top shape: 1 2 16 18 (576)
I0215 15:21:21.716034 18051 net.cpp:165] Memory required for data: 411806336
I0215 15:21:21.716051 18051 layer_factory.hpp:77] Creating layer upscore2_upscore2_0_split
I0215 15:21:21.716060 18051 net.cpp:100] Creating Layer upscore2_upscore2_0_split
I0215 15:21:21.716064 18051 net.cpp:434] upscore2_upscore2_0_split <- upscore2
I0215 15:21:21.716070 18051 net.cpp:408] upscore2_upscore2_0_split -> upscore2_upscore2_0_split_0
I0215 15:21:21.716080 18051 net.cpp:408] upscore2_upscore2_0_split -> upscore2_upscore2_0_split_1
I0215 15:21:21.716121 18051 net.cpp:150] Setting up upscore2_upscore2_0_split
I0215 15:21:21.716128 18051 net.cpp:157] Top shape: 1 2 16 18 (576)
I0215 15:21:21.716133 18051 net.cpp:157] Top shape: 1 2 16 18 (576)
I0215 15:21:21.716137 18051 net.cpp:165] Memory required for data: 411810944
I0215 15:21:21.716141 18051 layer_factory.hpp:77] Creating layer scale_pool4
I0215 15:21:21.716156 18051 net.cpp:100] Creating Layer scale_pool4
I0215 15:21:21.716161 18051 net.cpp:434] scale_pool4 <- pool4_pool4_0_split_1
I0215 15:21:21.716179 18051 net.cpp:408] scale_pool4 -> scale_pool4
I0215 15:21:21.716305 18051 net.cpp:150] Setting up scale_pool4
I0215 15:21:21.716316 18051 net.cpp:157] Top shape: 1 512 25 28 (358400)
I0215 15:21:21.716320 18051 net.cpp:165] Memory required for data: 413244544
I0215 15:21:21.716325 18051 layer_factory.hpp:77] Creating layer score_pool4
I0215 15:21:21.716341 18051 net.cpp:100] Creating Layer score_pool4
I0215 15:21:21.716346 18051 net.cpp:434] score_pool4 <- scale_pool4
I0215 15:21:21.716351 18051 net.cpp:408] score_pool4 -> score_pool4
I0215 15:21:21.717624 18051 net.cpp:150] Setting up score_pool4
I0215 15:21:21.717646 18051 net.cpp:157] Top shape: 1 2 25 28 (1400)
I0215 15:21:21.717651 18051 net.cpp:165] Memory required for data: 413250144
I0215 15:21:21.717661 18051 layer_factory.hpp:77] Creating layer score_pool4c
I0215 15:21:21.717674 18051 net.cpp:100] Creating Layer score_pool4c
I0215 15:21:21.717679 18051 net.cpp:434] score_pool4c <- score_pool4
I0215 15:21:21.717685 18051 net.cpp:434] score_pool4c <- upscore2_upscore2_0_split_0
I0215 15:21:21.717692 18051 net.cpp:408] score_pool4c -> score_pool4c
I0215 15:21:21.717733 18051 net.cpp:150] Setting up score_pool4c
I0215 15:21:21.717742 18051 net.cpp:157] Top shape: 1 2 16 18 (576)
I0215 15:21:21.717746 18051 net.cpp:165] Memory required for data: 413252448
I0215 15:21:21.717751 18051 layer_factory.hpp:77] Creating layer fuse_pool4
I0215 15:21:21.717761 18051 net.cpp:100] Creating Layer fuse_pool4
I0215 15:21:21.717766 18051 net.cpp:434] fuse_pool4 <- upscore2_upscore2_0_split_1
I0215 15:21:21.717770 18051 net.cpp:434] fuse_pool4 <- score_pool4c
I0215 15:21:21.717777 18051 net.cpp:408] fuse_pool4 -> fuse_pool4
I0215 15:21:21.717810 18051 net.cpp:150] Setting up fuse_pool4
I0215 15:21:21.717818 18051 net.cpp:157] Top shape: 1 2 16 18 (576)
I0215 15:21:21.717821 18051 net.cpp:165] Memory required for data: 413254752
I0215 15:21:21.717825 18051 layer_factory.hpp:77] Creating layer upscore_pool4
I0215 15:21:21.717838 18051 net.cpp:100] Creating Layer upscore_pool4
I0215 15:21:21.717842 18051 net.cpp:434] upscore_pool4 <- fuse_pool4
I0215 15:21:21.717849 18051 net.cpp:408] upscore_pool4 -> upscore_pool4
I0215 15:21:21.718056 18051 net.cpp:150] Setting up upscore_pool4
I0215 15:21:21.718065 18051 net.cpp:157] Top shape: 1 2 34 38 (2584)
I0215 15:21:21.718070 18051 net.cpp:165] Memory required for data: 413265088
I0215 15:21:21.718075 18051 layer_factory.hpp:77] Creating layer upscore_pool4_upscore_pool4_0_split
I0215 15:21:21.718082 18051 net.cpp:100] Creating Layer upscore_pool4_upscore_pool4_0_split
I0215 15:21:21.718086 18051 net.cpp:434] upscore_pool4_upscore_pool4_0_split <- upscore_pool4
I0215 15:21:21.718092 18051 net.cpp:408] upscore_pool4_upscore_pool4_0_split -> upscore_pool4_upscore_pool4_0_split_0
I0215 15:21:21.718101 18051 net.cpp:408] upscore_pool4_upscore_pool4_0_split -> upscore_pool4_upscore_pool4_0_split_1
I0215 15:21:21.718138 18051 net.cpp:150] Setting up upscore_pool4_upscore_pool4_0_split
I0215 15:21:21.718145 18051 net.cpp:157] Top shape: 1 2 34 38 (2584)
I0215 15:21:21.718150 18051 net.cpp:157] Top shape: 1 2 34 38 (2584)
I0215 15:21:21.718154 18051 net.cpp:165] Memory required for data: 413285760
I0215 15:21:21.718158 18051 layer_factory.hpp:77] Creating layer scale_pool3
I0215 15:21:21.718168 18051 net.cpp:100] Creating Layer scale_pool3
I0215 15:21:21.718173 18051 net.cpp:434] scale_pool3 <- pool3_pool3_0_split_1
I0215 15:21:21.718181 18051 net.cpp:408] scale_pool3 -> scale_pool3
I0215 15:21:21.718279 18051 net.cpp:150] Setting up scale_pool3
I0215 15:21:21.718287 18051 net.cpp:157] Top shape: 1 256 49 56 (702464)
I0215 15:21:21.718291 18051 net.cpp:165] Memory required for data: 416095616
I0215 15:21:21.718297 18051 layer_factory.hpp:77] Creating layer score_pool3
I0215 15:21:21.718307 18051 net.cpp:100] Creating Layer score_pool3
I0215 15:21:21.718312 18051 net.cpp:434] score_pool3 <- scale_pool3
I0215 15:21:21.718320 18051 net.cpp:408] score_pool3 -> score_pool3
I0215 15:21:21.719730 18051 net.cpp:150] Setting up score_pool3
I0215 15:21:21.719750 18051 net.cpp:157] Top shape: 1 2 49 56 (5488)
I0215 15:21:21.719755 18051 net.cpp:165] Memory required for data: 416117568
I0215 15:21:21.719764 18051 layer_factory.hpp:77] Creating layer score_pool3c
I0215 15:21:21.719774 18051 net.cpp:100] Creating Layer score_pool3c
I0215 15:21:21.719779 18051 net.cpp:434] score_pool3c <- score_pool3
I0215 15:21:21.719784 18051 net.cpp:434] score_pool3c <- upscore_pool4_upscore_pool4_0_split_0
I0215 15:21:21.719791 18051 net.cpp:408] score_pool3c -> score_pool3c
I0215 15:21:21.719828 18051 net.cpp:150] Setting up score_pool3c
I0215 15:21:21.719836 18051 net.cpp:157] Top shape: 1 2 34 38 (2584)
I0215 15:21:21.719841 18051 net.cpp:165] Memory required for data: 416127904
I0215 15:21:21.719844 18051 layer_factory.hpp:77] Creating layer fuse_pool3
I0215 15:21:21.719851 18051 net.cpp:100] Creating Layer fuse_pool3
I0215 15:21:21.719856 18051 net.cpp:434] fuse_pool3 <- upscore_pool4_upscore_pool4_0_split_1
I0215 15:21:21.719861 18051 net.cpp:434] fuse_pool3 <- score_pool3c
I0215 15:21:21.719868 18051 net.cpp:408] fuse_pool3 -> fuse_pool3
I0215 15:21:21.719898 18051 net.cpp:150] Setting up fuse_pool3
I0215 15:21:21.719905 18051 net.cpp:157] Top shape: 1 2 34 38 (2584)
I0215 15:21:21.719909 18051 net.cpp:165] Memory required for data: 416138240
I0215 15:21:21.719913 18051 layer_factory.hpp:77] Creating layer upscore8
I0215 15:21:21.719921 18051 net.cpp:100] Creating Layer upscore8
I0215 15:21:21.719925 18051 net.cpp:434] upscore8 <- fuse_pool3
I0215 15:21:21.719933 18051 net.cpp:408] upscore8 -> upscore8
I0215 15:21:21.720144 18051 net.cpp:150] Setting up upscore8
I0215 15:21:21.720154 18051 net.cpp:157] Top shape: 1 2 280 312 (174720)
I0215 15:21:21.720157 18051 net.cpp:165] Memory required for data: 416837120
I0215 15:21:21.720163 18051 layer_factory.hpp:77] Creating layer score
I0215 15:21:21.720172 18051 net.cpp:100] Creating Layer score
I0215 15:21:21.720176 18051 net.cpp:434] score <- upscore8
I0215 15:21:21.720181 18051 net.cpp:434] score <- data_data_0_split_1
I0215 15:21:21.720187 18051 net.cpp:408] score -> score
I0215 15:21:21.720216 18051 net.cpp:150] Setting up score
I0215 15:21:21.720223 18051 net.cpp:157] Top shape: 1 2 188 250 (94000)
I0215 15:21:21.720227 18051 net.cpp:165] Memory required for data: 417213120
I0215 15:21:21.720230 18051 layer_factory.hpp:77] Creating layer loss
I0215 15:21:21.720244 18051 net.cpp:100] Creating Layer loss
I0215 15:21:21.720248 18051 net.cpp:434] loss <- score
I0215 15:21:21.720253 18051 net.cpp:434] loss <- label
I0215 15:21:21.720262 18051 net.cpp:408] loss -> loss
I0215 15:21:21.720273 18051 layer_factory.hpp:77] Creating layer loss
…
I0215 15:21:21.721014 18051 net.cpp:283] Network initialization done.
I0215 15:21:21.722223 18051 solver.cpp:181] Creating test net (#0) specified by test_net file: val.prototxt
I0215 15:21:21.722589 18051 net.cpp:58] Initializing net from parameters: 
state {
  phase: TEST
}
layer {
  name: "data"
  type: "Python"
  top: "data"
  top: "label"
  python_param {
    module: "voc_layers"
    layer: "ObfVOCSegDataLayer"
    param_str: "{\'voc_dir\': \'../data/pascal-subsampl/VOC2011\', \'seed\': 1337, \'split\': \'seg11valid_pt4_sglinst\', \'mean\': (104.00699, 116.66877, 122.67892)}"
  }
}
layer {
  name: "conv1_1"
  type: "Convolution"
  bottom: "data"
  top: "conv1_1"
  param {
    lr_mult: 1
    decay_mult: 1
  }
  param {
    lr_mult: 2
    decay_mult: 0
  }
  convolution_param {
    num_output: 64
    pad: 100
    kernel_size: 3
    stride: 1
    weight_filler {
      type: "xavier"
    }
  }
}
layer {
  name: "relu1_1"
  type: "ReLU"
  bottom: "conv1_1"
  top: "conv1_1"
}
layer {
  name: "conv1_2"
  type: "Convolution"
  bottom: "conv1_1"
  top: "conv1_2"
  param {
    lr_mult: 1
    decay_mult: 1
  }
  param {
    lr_mult: 2
    decay_mult: 0
  }
  convolution_param {
    num_output: 64
    pad: 1
    kernel_size: 3
    stride: 1
    weight_filler {
      type: "xavier"
    }
  }
}
layer {
  name: "relu1_2"
  type: "ReLU"
  bottom: "conv1_2"
  top: "conv1_2"
}
layer {
  name: "pool1"
  type: "Pooling"
  bottom: "conv1_2"
  top: "pool1"
  pooling_param {
    pool: MAX
    kernel_size: 2
    stride: 2
  }
}
layer {
  name: "conv2_1"
  type: "Convolution"
  bottom: "pool1"
  top: "conv2_1"
  param {
    lr_mult: 1
    decay_mult: 1
  }
  param {
    lr_mult: 2
    decay_mult: 0
  }
  convolution_param {
    num_output: 128
    pad: 1
    kernel_size: 3
    stride: 1
    weight_filler {
      type: "xavier"
    }
  }
}
layer {
  name: "relu2_1"
  type: "ReLU"
  bottom: "conv2_1"
  top: "conv2_1"
}
layer {
  name: "conv2_2"
  type: "Convolution"
  bottom: "conv2_1"
  top: "conv2_2"
  param {
    lr_mult: 1
    decay_mult: 1
  }
  param {
    lr_mult: 2
    decay_mult: 0
  }
  convolution_param {
    num_output: 128
    pad: 1
    kernel_size: 3
    stride: 1
    weight_filler {
      type: "xavier"
    }
  }
}
layer {
  name: "relu2_2"
  type: "ReLU"
  bottom: "conv2_2"
  top: "conv2_2"
}
layer {
  name: "pool2"
  type: "Pooling"
  bottom: "conv2_2"
  top: "pool2"
  pooling_param {
    pool: MAX
    kernel_size: 2
    stride: 2
  }
}
layer {
  name: "conv3_1"
  type: "Convolution"
  bottom: "pool2"
  top: "conv3_1"
  param {
    lr_mult: 1
    decay_mult: 1
  }
  param {
    lr_mult: 2
    decay_mult: 0
  }
  convolution_param {
    num_output: 256
    pad: 1
    kernel_size: 3
    stride: 1
    weight_filler {
      type: "xavier"
    }
  }
}
layer {
  name: "relu3_1"
  type: "ReLU"
  bottom: "conv3_1"
  top: "conv3_1"
}
layer {
  name: "conv3_2"
  type: "Convolution"
  bottom: "conv3_1"
  top: "conv3_2"
  param {
    lr_mult: 1
    decay_mult: 1
  }
  param {
    lr_mult: 2
    decay_mult: 0
  }
  convolution_param {
    num_output: 256
    pad: 1
    kernel_size: 3
    stride: 1
    weight_filler {
      type: "xavier"
    }
  }
}
layer {
  name: "relu3_2"
  type: "ReLU"
  bottom: "conv3_2"
  top: "conv3_2"
}
layer {
  name: "conv3_3"
  type: "Convolution"
  bottom: "conv3_2"
  top: "conv3_3"
  param {
    lr_mult: 1
    decay_mult: 1
  }
  param {
    lr_mult: 2
    decay_mult: 0
  }
  convolution_param {
    num_output: 256
    pad: 1
    kernel_size: 3
    stride: 1
    weight_filler {
      type: "xavier"
    }
  }
}
layer {
  name: "relu3_3"
  type: "ReLU"
  bottom: "conv3_3"
  top: "conv3_3"
}
layer {
  name: "pool3"
  type: "Pooling"
  bottom: "conv3_3"
  top: "pool3"
  pooling_param {
    pool: MAX
    kernel_size: 2
    stride: 2
  }
}
layer {
  name: "conv4_1"
  type: "Convolution"
  bottom: "pool3"
  top: "conv4_1"
  param {
    lr_mult: 1
    decay_mult: 1
  }
  param {
    lr_mult: 2
    decay_mult: 0
  }
  convolution_param {
    num_output: 512
    pad: 1
    kernel_size: 3
    stride: 1
    weight_filler {
      type: "xavier"
    }
  }
}
layer {
  name: "relu4_1"
  type: "ReLU"
  bottom: "conv4_1"
  top: "conv4_1"
}
layer {
  name: "conv4_2"
  type: "Convolution"
  bottom: "conv4_1"
  top: "conv4_2"
  param {
    lr_mult: 1
    decay_mult: 1
  }
  param {
    lr_mult: 2
    decay_mult: 0
  }
  convolution_param {
    num_output: 512
    pad: 1
    kernel_size: 3
    stride: 1
    weight_filler {
      type: "xavier"
    }
  }
}
layer {
  name: "relu4_2"
  type: "ReLU"
  bottom: "conv4_2"
  top: "conv4_2"
}
layer {
  name: "conv4_3"
  type: "Convolution"
  bottom: "conv4_2"
  top: "conv4_3"
  param {
    lr_mult: 1
    decay_mult: 1
  }
  param {
    lr_mult: 2
    decay_mult: 0
  }
  convolution_param {
    num_output: 512
    pad: 1
    kernel_size: 3
    stride: 1
    weight_filler {
      type: "xavier"
    }
  }
}
layer {
  name: "relu4_3"
  type: "ReLU"
  bottom: "conv4_3"
  top: "conv4_3"
}
layer {
  name: "pool4"
  type: "Pooling"
  bottom: "conv4_3"
  top: "pool4"
  pooling_param {
    pool: MAX
    kernel_size: 2
    stride: 2
  }
}
layer {
  name: "conv5_1"
  type: "Convolution"
  bottom: "pool4"
  top: "conv5_1"
  param {
    lr_mult: 1
    decay_mult: 1
  }
  param {
    lr_mult: 2
    decay_mult: 0
  }
  convolution_param {
    num_output: 512
    pad: 1
    kernel_size: 3
    stride: 1
    weight_filler {
      type: "xavier"
    }
  }
}
layer {
  name: "relu5_1"
  type: "ReLU"
  bottom: "conv5_1"
  top: "conv5_1"
}
layer {
  name: "conv5_2"
  type: "Convolution"
  bottom: "conv5_1"
  top: "conv5_2"
  param {
    lr_mult: 1
    decay_mult: 1
  }
  param {
    lr_mult: 2
    decay_mult: 0
  }
  convolution_param {
    num_output: 512
    pad: 1
    kernel_size: 3
    stride: 1
    weight_filler {
      type: "xavier"
    }
  }
}
layer {
  name: "relu5_2"
  type: "ReLU"
  bottom: "conv5_2"
  top: "conv5_2"
}
layer {
  name: "conv5_3"
  type: "Convolution"
  bottom: "conv5_2"
  top: "conv5_3"
  param {
    lr_mult: 1
    decay_mult: 1
  }
  param {
    lr_mult: 2
    decay_mult: 0
  }
  convolution_param {
    num_output: 512
    pad: 1
    kernel_size: 3
    stride: 1
    weight_filler {
      type: "xavier"
    }
  }
}
layer {
  name: "relu5_3"
  type: "ReLU"
  bottom: "conv5_3"
  top: "conv5_3"
}
layer {
  name: "pool5"
  type: "Pooling"
  bottom: "conv5_3"
  top: "pool5"
  pooling_param {
    pool: MAX
    kernel_size: 2
    stride: 2
  }
}
layer {
  name: "fc6"
  type: "Convolution"
  bottom: "pool5"
  top: "fc6"
  param {
    lr_mult: 1
    decay_mult: 1
  }
  param {
    lr_mult: 2
    decay_mult: 0
  }
  convolution_param {
    num_output: 4096
    pad: 0
    kernel_size: 7
    stride: 1
    weight_filler {
      type: "xavier"
    }
  }
}
layer {
  name: "relu6"
  type: "ReLU"
  bottom: "fc6"
  top: "fc6"
}
layer {
  name: "drop6"
  type: "Dropout"
  bottom: "fc6"
  top: "fc6"
  dropout_param {
    dropout_ratio: 0.5
  }
}
layer {
  name: "fc7"
  type: "Convolution"
  bottom: "fc6"
  top: "fc7"
  param {
    lr_mult: 1
    decay_mult: 1
  }
  param {
    lr_mult: 2
    decay_mult: 0
  }
  convolution_param {
    num_output: 4096
    pad: 0
    kernel_size: 1
    stride: 1
    weight_filler {
      type: "xavier"
    }
  }
}
layer {
  name: "relu7"
  type: "ReLU"
  bottom: "fc7"
  top: "fc7"
}
layer {
  name: "drop7"
  type: "Dropout"
  bottom: "fc7"
  top: "fc7"
  dropout_param {
    dropout_ratio: 0.5
  }
}
layer {
  name: "score_fr"
  type: "Convolution"
  bottom: "fc7"
  top: "score_fr"
  param {
    lr_mult: 1
    decay_mult: 1
  }
  param {
    lr_mult: 2
    decay_mult: 0
  }
  convolution_param {
    num_output: 2
    pad: 0
    kernel_size: 1
    weight_filler {
      type: "xavier"
    }
  }
}
layer {
  name: "upscore2"
  type: "Deconvolution"
  bottom: "score_fr"
  top: "upscore2"
  param {
    lr_mult: 0
  }
  convolution_param {
    num_output: 2
    bias_term: false
    kernel_size: 4
    stride: 2
    weight_filler {
      type: "xavier"
    }
  }
}
layer {
  name: "scale_pool4"
  type: "Scale"
  bottom: "pool4"
  top: "scale_pool4"
  param {
    lr_mult: 0
  }
  scale_param {
    filler {
      type: "constant"
      value: 0.01
    }
  }
}
layer {
  name: "score_pool4"
  type: "Convolution"
  bottom: "scale_pool4"
  top: "score_pool4"
  param {
    lr_mult: 1
    decay_mult: 1
  }
  param {
    lr_mult: 2
    decay_mult: 0
  }
  convolution_param {
    num_output: 2
    pad: 0
    kernel_size: 1
    weight_filler {
      type: "xavier"
    }
  }
}
layer {
  name: "score_pool4c"
  type: "Crop"
  bottom: "score_pool4"
  bottom: "upscore2"
  top: "score_pool4c"
  crop_param {
    axis: 2
    offset: 5
  }
}
layer {
  name: "fuse_pool4"
  type: "Eltwise"
  bottom: "upscore2"
  bottom: "score_pool4c"
  top: "fuse_pool4"
  eltwise_param {
    operation: SUM
  }
}
layer {
  name: "upscore_pool4"
  type: "Deconvolution"
  bottom: "fuse_pool4"
  top: "upscore_pool4"
  param {
    lr_mult: 0
  }
  convolution_param {
    num_output: 2
    bias_term: false
    kernel_size: 4
    stride: 2
    weight_filler {
      type: "xavier"
    }
  }
}
layer {
  name: "scale_pool3"
  type: "Scale"
  bottom: "pool3"
  top: "scale_pool3"
  param {
    lr_mult: 0
  }
  scale_param {
    filler {
      type: "constant"
      value: 0.0001
    }
  }
}
layer {
  name: "score_pool3"
  type: "Convolution"
  bottom: "scale_pool3"
  top: "score_pool3"
  param {
    lr_mult: 1
    decay_mult: 1
  }
  param {
    lr_mult: 2
    decay_mult: 0
  }
  convolution_param {
    num_output: 2
    pad: 0
    kernel_size: 1
    weight_filler {
      type: "xavier"
    }
  }
}
layer {
  name: "score_pool3c"
  type: "Crop"
  bottom: "score_pool3"
  bottom: "upscore_pool4"
  top: "score_pool3c"
  crop_param {
    axis: 2
    offset: 9
  }
}
layer {
  name: "fuse_pool3"
  type: "Eltwise"
  bottom: "upscore_pool4"
  bottom: "score_pool3c"
  top: "fuse_pool3"
  eltwise_param {
    operation: SUM
  }
}
layer {
  name: "upscore8"
  type: "Deconvolution"
  bottom: "fuse_pool3"
  top: "upscore8"
  param {
    lr_mult: 0
  }
  convolution_param {
    num_output: 2
    bias_term: false
    kernel_size: 16
    stride: 8
    weight_filler {
      type: "xavier"
    }
  }
}
layer {
  name: "score"
  type: "Crop"
  bottom: "upscore8"
  bottom: "data"
  top: "score"
  crop_param {
    axis: 2
    offset: 31
  }
}
layer {
  name: "loss"
  type: "SoftmaxWithLoss"
  bottom: "score"
  bottom: "label"
  top: "loss"
  loss_param {
    ignore_label: 255
    normalize: false
  }
}
I0215 15:21:21.722820 18051 layer_factory.hpp:77] Creating layer data
I0215 15:21:21.723150 18051 net.cpp:100] Creating Layer data
I0215 15:21:21.723161 18051 net.cpp:408] data -> data
I0215 15:21:21.723170 18051 net.cpp:408] data -> label
I0215 15:21:21.728058 18051 net.cpp:150] Setting up data
I0215 15:21:21.728077 18051 net.cpp:157] Top shape: 1 3 167 250 (125250)
I0215 15:21:21.728083 18051 net.cpp:157] Top shape: 1 1 167 250 (41750)
I0215 15:21:21.728087 18051 net.cpp:165] Memory required for data: 668000
I0215 15:21:21.728093 18051 layer_factory.hpp:77] Creating layer data_data_0_split
I0215 15:21:21.728101 18051 net.cpp:100] Creating Layer data_data_0_split
I0215 15:21:21.728106 18051 net.cpp:434] data_data_0_split <- data
I0215 15:21:21.728112 18051 net.cpp:408] data_data_0_split -> data_data_0_split_0
I0215 15:21:21.728121 18051 net.cpp:408] data_data_0_split -> data_data_0_split_1
I0215 15:21:21.728163 18051 net.cpp:150] Setting up data_data_0_split
I0215 15:21:21.728173 18051 net.cpp:157] Top shape: 1 3 167 250 (125250)
I0215 15:21:21.728178 18051 net.cpp:157] Top shape: 1 3 167 250 (125250)
I0215 15:21:21.728181 18051 net.cpp:165] Memory required for data: 1670000
I0215 15:21:21.728185 18051 layer_factory.hpp:77] Creating layer conv1_1
I0215 15:21:21.728195 18051 net.cpp:100] Creating Layer conv1_1
I0215 15:21:21.728200 18051 net.cpp:434] conv1_1 <- data_data_0_split_0
I0215 15:21:21.728207 18051 net.cpp:408] conv1_1 -> conv1_1
I0215 15:21:21.730033 18051 net.cpp:150] Setting up conv1_1
I0215 15:21:21.730051 18051 net.cpp:157] Top shape: 1 64 365 448 (10465280)
I0215 15:21:21.730057 18051 net.cpp:165] Memory required for data: 43531120
I0215 15:21:21.730068 18051 layer_factory.hpp:77] Creating layer relu1_1
I0215 15:21:21.730077 18051 net.cpp:100] Creating Layer relu1_1
I0215 15:21:21.730082 18051 net.cpp:434] relu1_1 <- conv1_1
I0215 15:21:21.730087 18051 net.cpp:395] relu1_1 -> conv1_1 (in-place)
I0215 15:21:21.730278 18051 net.cpp:150] Setting up relu1_1
I0215 15:21:21.730288 18051 net.cpp:157] Top shape: 1 64 365 448 (10465280)
I0215 15:21:21.730293 18051 net.cpp:165] Memory required for data: 85392240
I0215 15:21:21.730298 18051 layer_factory.hpp:77] Creating layer conv1_2
I0215 15:21:21.730309 18051 net.cpp:100] Creating Layer conv1_2
I0215 15:21:21.730314 18051 net.cpp:434] conv1_2 <- conv1_1
I0215 15:21:21.730320 18051 net.cpp:408] conv1_2 -> conv1_2
I0215 15:21:21.732308 18051 net.cpp:150] Setting up conv1_2
I0215 15:21:21.732324 18051 net.cpp:157] Top shape: 1 64 365 448 (10465280)
I0215 15:21:21.732329 18051 net.cpp:165] Memory required for data: 127253360
I0215 15:21:21.732341 18051 layer_factory.hpp:77] Creating layer relu1_2
I0215 15:21:21.732347 18051 net.cpp:100] Creating Layer relu1_2
I0215 15:21:21.732352 18051 net.cpp:434] relu1_2 <- conv1_2
I0215 15:21:21.732358 18051 net.cpp:395] relu1_2 -> conv1_2 (in-place)
I0215 15:21:21.732733 18051 net.cpp:150] Setting up relu1_2
I0215 15:21:21.732746 18051 net.cpp:157] Top shape: 1 64 365 448 (10465280)
I0215 15:21:21.732751 18051 net.cpp:165] Memory required for data: 169114480
I0215 15:21:21.732755 18051 layer_factory.hpp:77] Creating layer pool1
I0215 15:21:21.732765 18051 net.cpp:100] Creating Layer pool1
I0215 15:21:21.732770 18051 net.cpp:434] pool1 <- conv1_2
I0215 15:21:21.732776 18051 net.cpp:408] pool1 -> pool1
I0215 15:21:21.732832 18051 net.cpp:150] Setting up pool1
I0215 15:21:21.732841 18051 net.cpp:157] Top shape: 1 64 183 224 (2623488)
I0215 15:21:21.732844 18051 net.cpp:165] Memory required for data: 179608432
I0215 15:21:21.732848 18051 layer_factory.hpp:77] Creating layer conv2_1
I0215 15:21:21.732859 18051 net.cpp:100] Creating Layer conv2_1
I0215 15:21:21.732863 18051 net.cpp:434] conv2_1 <- pool1
I0215 15:21:21.732870 18051 net.cpp:408] conv2_1 -> conv2_1
I0215 15:21:21.734493 18051 net.cpp:150] Setting up conv2_1
I0215 15:21:21.734508 18051 net.cpp:157] Top shape: 1 128 183 224 (5246976)
I0215 15:21:21.734513 18051 net.cpp:165] Memory required for data: 200596336
I0215 15:21:21.734526 18051 layer_factory.hpp:77] Creating layer relu2_1
I0215 15:21:21.734535 18051 net.cpp:100] Creating Layer relu2_1
I0215 15:21:21.734540 18051 net.cpp:434] relu2_1 <- conv2_1
I0215 15:21:21.734547 18051 net.cpp:395] relu2_1 -> conv2_1 (in-place)
I0215 15:21:21.734938 18051 net.cpp:150] Setting up relu2_1
I0215 15:21:21.734952 18051 net.cpp:157] Top shape: 1 128 183 224 (5246976)
I0215 15:21:21.734956 18051 net.cpp:165] Memory required for data: 221584240
I0215 15:21:21.734961 18051 layer_factory.hpp:77] Creating layer conv2_2
I0215 15:21:21.734974 18051 net.cpp:100] Creating Layer conv2_2
I0215 15:21:21.734979 18051 net.cpp:434] conv2_2 <- conv2_1
I0215 15:21:21.734987 18051 net.cpp:408] conv2_2 -> conv2_2
I0215 15:21:21.737563 18051 net.cpp:150] Setting up conv2_2
I0215 15:21:21.737579 18051 net.cpp:157] Top shape: 1 128 183 224 (5246976)
I0215 15:21:21.737584 18051 net.cpp:165] Memory required for data: 242572144
I0215 15:21:21.737592 18051 layer_factory.hpp:77] Creating layer relu2_2
I0215 15:21:21.737602 18051 net.cpp:100] Creating Layer relu2_2
I0215 15:21:21.737607 18051 net.cpp:434] relu2_2 <- conv2_2
I0215 15:21:21.737615 18051 net.cpp:395] relu2_2 -> conv2_2 (in-place)
I0215 15:21:21.737823 18051 net.cpp:150] Setting up relu2_2
I0215 15:21:21.737835 18051 net.cpp:157] Top shape: 1 128 183 224 (5246976)
I0215 15:21:21.737840 18051 net.cpp:165] Memory required for data: 263560048
I0215 15:21:21.737844 18051 layer_factory.hpp:77] Creating layer pool2
I0215 15:21:21.737851 18051 net.cpp:100] Creating Layer pool2
I0215 15:21:21.737856 18051 net.cpp:434] pool2 <- conv2_2
I0215 15:21:21.737864 18051 net.cpp:408] pool2 -> pool2
I0215 15:21:21.737917 18051 net.cpp:150] Setting up pool2
I0215 15:21:21.737927 18051 net.cpp:157] Top shape: 1 128 92 112 (1318912)
I0215 15:21:21.737931 18051 net.cpp:165] Memory required for data: 268835696
I0215 15:21:21.737936 18051 layer_factory.hpp:77] Creating layer conv3_1
I0215 15:21:21.737946 18051 net.cpp:100] Creating Layer conv3_1
I0215 15:21:21.737949 18051 net.cpp:434] conv3_1 <- pool2
I0215 15:21:21.737957 18051 net.cpp:408] conv3_1 -> conv3_1
I0215 15:21:21.741250 18051 net.cpp:150] Setting up conv3_1
I0215 15:21:21.741266 18051 net.cpp:157] Top shape: 1 256 92 112 (2637824)
I0215 15:21:21.741271 18051 net.cpp:165] Memory required for data: 279386992
I0215 15:21:21.741284 18051 layer_factory.hpp:77] Creating layer relu3_1
I0215 15:21:21.741292 18051 net.cpp:100] Creating Layer relu3_1
I0215 15:21:21.741302 18051 net.cpp:434] relu3_1 <- conv3_1
I0215 15:21:21.741308 18051 net.cpp:395] relu3_1 -> conv3_1 (in-place)
I0215 15:21:21.741696 18051 net.cpp:150] Setting up relu3_1
I0215 15:21:21.741711 18051 net.cpp:157] Top shape: 1 256 92 112 (2637824)
I0215 15:21:21.741716 18051 net.cpp:165] Memory required for data: 289938288
I0215 15:21:21.741721 18051 layer_factory.hpp:77] Creating layer conv3_2
I0215 15:21:21.741734 18051 net.cpp:100] Creating Layer conv3_2
I0215 15:21:21.741739 18051 net.cpp:434] conv3_2 <- conv3_1
I0215 15:21:21.741746 18051 net.cpp:408] conv3_2 -> conv3_2
I0215 15:21:21.747007 18051 net.cpp:150] Setting up conv3_2
I0215 15:21:21.747025 18051 net.cpp:157] Top shape: 1 256 92 112 (2637824)
I0215 15:21:21.747030 18051 net.cpp:165] Memory required for data: 300489584
I0215 15:21:21.747037 18051 layer_factory.hpp:77] Creating layer relu3_2
I0215 15:21:21.747045 18051 net.cpp:100] Creating Layer relu3_2
I0215 15:21:21.747051 18051 net.cpp:434] relu3_2 <- conv3_2
I0215 15:21:21.747058 18051 net.cpp:395] relu3_2 -> conv3_2 (in-place)
I0215 15:21:21.747262 18051 net.cpp:150] Setting up relu3_2
I0215 15:21:21.747273 18051 net.cpp:157] Top shape: 1 256 92 112 (2637824)
I0215 15:21:21.747278 18051 net.cpp:165] Memory required for data: 311040880
I0215 15:21:21.747282 18051 layer_factory.hpp:77] Creating layer conv3_3
I0215 15:21:21.747295 18051 net.cpp:100] Creating Layer conv3_3
I0215 15:21:21.747300 18051 net.cpp:434] conv3_3 <- conv3_2
I0215 15:21:21.747309 18051 net.cpp:408] conv3_3 -> conv3_3
I0215 15:21:21.752527 18051 net.cpp:150] Setting up conv3_3
I0215 15:21:21.752544 18051 net.cpp:157] Top shape: 1 256 92 112 (2637824)
I0215 15:21:21.752549 18051 net.cpp:165] Memory required for data: 321592176
I0215 15:21:21.752557 18051 layer_factory.hpp:77] Creating layer relu3_3
I0215 15:21:21.752566 18051 net.cpp:100] Creating Layer relu3_3
I0215 15:21:21.752573 18051 net.cpp:434] relu3_3 <- conv3_3
I0215 15:21:21.752578 18051 net.cpp:395] relu3_3 -> conv3_3 (in-place)
I0215 15:21:21.752780 18051 net.cpp:150] Setting up relu3_3
I0215 15:21:21.752791 18051 net.cpp:157] Top shape: 1 256 92 112 (2637824)
I0215 15:21:21.752796 18051 net.cpp:165] Memory required for data: 332143472
I0215 15:21:21.752800 18051 layer_factory.hpp:77] Creating layer pool3
I0215 15:21:21.752810 18051 net.cpp:100] Creating Layer pool3
I0215 15:21:21.752815 18051 net.cpp:434] pool3 <- conv3_3
I0215 15:21:21.752821 18051 net.cpp:408] pool3 -> pool3
I0215 15:21:21.752877 18051 net.cpp:150] Setting up pool3
I0215 15:21:21.752885 18051 net.cpp:157] Top shape: 1 256 46 56 (659456)
I0215 15:21:21.752889 18051 net.cpp:165] Memory required for data: 334781296
I0215 15:21:21.752893 18051 layer_factory.hpp:77] Creating layer pool3_pool3_0_split
I0215 15:21:21.752900 18051 net.cpp:100] Creating Layer pool3_pool3_0_split
I0215 15:21:21.752904 18051 net.cpp:434] pool3_pool3_0_split <- pool3
I0215 15:21:21.752912 18051 net.cpp:408] pool3_pool3_0_split -> pool3_pool3_0_split_0
I0215 15:21:21.752919 18051 net.cpp:408] pool3_pool3_0_split -> pool3_pool3_0_split_1
I0215 15:21:21.752964 18051 net.cpp:150] Setting up pool3_pool3_0_split
I0215 15:21:21.752970 18051 net.cpp:157] Top shape: 1 256 46 56 (659456)
I0215 15:21:21.752975 18051 net.cpp:157] Top shape: 1 256 46 56 (659456)
I0215 15:21:21.752979 18051 net.cpp:165] Memory required for data: 340056944
I0215 15:21:21.752984 18051 layer_factory.hpp:77] Creating layer conv4_1
I0215 15:21:21.752995 18051 net.cpp:100] Creating Layer conv4_1
I0215 15:21:21.753000 18051 net.cpp:434] conv4_1 <- pool3_pool3_0_split_0
I0215 15:21:21.753006 18051 net.cpp:408] conv4_1 -> conv4_1
I0215 15:21:21.762054 18051 net.cpp:150] Setting up conv4_1
I0215 15:21:21.762073 18051 net.cpp:157] Top shape: 1 512 46 56 (1318912)
I0215 15:21:21.762078 18051 net.cpp:165] Memory required for data: 345332592
I0215 15:21:21.762085 18051 layer_factory.hpp:77] Creating layer relu4_1
I0215 15:21:21.762095 18051 net.cpp:100] Creating Layer relu4_1
I0215 15:21:21.762100 18051 net.cpp:434] relu4_1 <- conv4_1
I0215 15:21:21.762112 18051 net.cpp:395] relu4_1 -> conv4_1 (in-place)
I0215 15:21:21.762500 18051 net.cpp:150] Setting up relu4_1
I0215 15:21:21.762513 18051 net.cpp:157] Top shape: 1 512 46 56 (1318912)
I0215 15:21:21.762518 18051 net.cpp:165] Memory required for data: 350608240
I0215 15:21:21.762522 18051 layer_factory.hpp:77] Creating layer conv4_2
I0215 15:21:21.762536 18051 net.cpp:100] Creating Layer conv4_2
I0215 15:21:21.762540 18051 net.cpp:434] conv4_2 <- conv4_1
I0215 15:21:21.762549 18051 net.cpp:408] conv4_2 -> conv4_2
I0215 15:21:21.779301 18051 net.cpp:150] Setting up conv4_2
I0215 15:21:21.779325 18051 net.cpp:157] Top shape: 1 512 46 56 (1318912)
I0215 15:21:21.779330 18051 net.cpp:165] Memory required for data: 355883888
I0215 15:21:21.779346 18051 layer_factory.hpp:77] Creating layer relu4_2
I0215 15:21:21.779356 18051 net.cpp:100] Creating Layer relu4_2
I0215 15:21:21.779361 18051 net.cpp:434] relu4_2 <- conv4_2
I0215 15:21:21.779369 18051 net.cpp:395] relu4_2 -> conv4_2 (in-place)
I0215 15:21:21.779578 18051 net.cpp:150] Setting up relu4_2
I0215 15:21:21.779590 18051 net.cpp:157] Top shape: 1 512 46 56 (1318912)
I0215 15:21:21.779594 18051 net.cpp:165] Memory required for data: 361159536
I0215 15:21:21.779599 18051 layer_factory.hpp:77] Creating layer conv4_3
I0215 15:21:21.779611 18051 net.cpp:100] Creating Layer conv4_3
I0215 15:21:21.779616 18051 net.cpp:434] conv4_3 <- conv4_2
I0215 15:21:21.779625 18051 net.cpp:408] conv4_3 -> conv4_3
I0215 15:21:21.796643 18051 net.cpp:150] Setting up conv4_3
I0215 15:21:21.796669 18051 net.cpp:157] Top shape: 1 512 46 56 (1318912)
I0215 15:21:21.796674 18051 net.cpp:165] Memory required for data: 366435184
I0215 15:21:21.796682 18051 layer_factory.hpp:77] Creating layer relu4_3
I0215 15:21:21.796692 18051 net.cpp:100] Creating Layer relu4_3
I0215 15:21:21.796699 18051 net.cpp:434] relu4_3 <- conv4_3
I0215 15:21:21.796710 18051 net.cpp:395] relu4_3 -> conv4_3 (in-place)
I0215 15:21:21.796933 18051 net.cpp:150] Setting up relu4_3
I0215 15:21:21.796946 18051 net.cpp:157] Top shape: 1 512 46 56 (1318912)
I0215 15:21:21.796949 18051 net.cpp:165] Memory required for data: 371710832
I0215 15:21:21.796954 18051 layer_factory.hpp:77] Creating layer pool4
I0215 15:21:21.796963 18051 net.cpp:100] Creating Layer pool4
I0215 15:21:21.796968 18051 net.cpp:434] pool4 <- conv4_3
I0215 15:21:21.796977 18051 net.cpp:408] pool4 -> pool4
I0215 15:21:21.797037 18051 net.cpp:150] Setting up pool4
I0215 15:21:21.797045 18051 net.cpp:157] Top shape: 1 512 23 28 (329728)
I0215 15:21:21.797049 18051 net.cpp:165] Memory required for data: 373029744
I0215 15:21:21.797055 18051 layer_factory.hpp:77] Creating layer pool4_pool4_0_split
I0215 15:21:21.797061 18051 net.cpp:100] Creating Layer pool4_pool4_0_split
I0215 15:21:21.797065 18051 net.cpp:434] pool4_pool4_0_split <- pool4
I0215 15:21:21.797073 18051 net.cpp:408] pool4_pool4_0_split -> pool4_pool4_0_split_0
I0215 15:21:21.797080 18051 net.cpp:408] pool4_pool4_0_split -> pool4_pool4_0_split_1
I0215 15:21:21.797125 18051 net.cpp:150] Setting up pool4_pool4_0_split
I0215 15:21:21.797132 18051 net.cpp:157] Top shape: 1 512 23 28 (329728)
I0215 15:21:21.797138 18051 net.cpp:157] Top shape: 1 512 23 28 (329728)
I0215 15:21:21.797142 18051 net.cpp:165] Memory required for data: 375667568
I0215 15:21:21.797147 18051 layer_factory.hpp:77] Creating layer conv5_1
I0215 15:21:21.797159 18051 net.cpp:100] Creating Layer conv5_1
I0215 15:21:21.797164 18051 net.cpp:434] conv5_1 <- pool4_pool4_0_split_0
I0215 15:21:21.797173 18051 net.cpp:408] conv5_1 -> conv5_1
I0215 15:21:21.813838 18051 net.cpp:150] Setting up conv5_1
I0215 15:21:21.813860 18051 net.cpp:157] Top shape: 1 512 23 28 (329728)
I0215 15:21:21.813865 18051 net.cpp:165] Memory required for data: 376986480
I0215 15:21:21.813874 18051 layer_factory.hpp:77] Creating layer relu5_1
I0215 15:21:21.813886 18051 net.cpp:100] Creating Layer relu5_1
I0215 15:21:21.813891 18051 net.cpp:434] relu5_1 <- conv5_1
I0215 15:21:21.813899 18051 net.cpp:395] relu5_1 -> conv5_1 (in-place)
I0215 15:21:21.814286 18051 net.cpp:150] Setting up relu5_1
I0215 15:21:21.814311 18051 net.cpp:157] Top shape: 1 512 23 28 (329728)
I0215 15:21:21.814316 18051 net.cpp:165] Memory required for data: 378305392
I0215 15:21:21.814321 18051 layer_factory.hpp:77] Creating layer conv5_2
I0215 15:21:21.814333 18051 net.cpp:100] Creating Layer conv5_2
I0215 15:21:21.814338 18051 net.cpp:434] conv5_2 <- conv5_1
I0215 15:21:21.814347 18051 net.cpp:408] conv5_2 -> conv5_2
I0215 15:21:21.831166 18051 net.cpp:150] Setting up conv5_2
I0215 15:21:21.831188 18051 net.cpp:157] Top shape: 1 512 23 28 (329728)
I0215 15:21:21.831193 18051 net.cpp:165] Memory required for data: 379624304
I0215 15:21:21.831203 18051 layer_factory.hpp:77] Creating layer relu5_2
I0215 15:21:21.831214 18051 net.cpp:100] Creating Layer relu5_2
I0215 15:21:21.831219 18051 net.cpp:434] relu5_2 <- conv5_2
I0215 15:21:21.831226 18051 net.cpp:395] relu5_2 -> conv5_2 (in-place)
I0215 15:21:21.831432 18051 net.cpp:150] Setting up relu5_2
I0215 15:21:21.831445 18051 net.cpp:157] Top shape: 1 512 23 28 (329728)
I0215 15:21:21.831449 18051 net.cpp:165] Memory required for data: 380943216
I0215 15:21:21.831454 18051 layer_factory.hpp:77] Creating layer conv5_3
I0215 15:21:21.831472 18051 net.cpp:100] Creating Layer conv5_3
I0215 15:21:21.831477 18051 net.cpp:434] conv5_3 <- conv5_2
I0215 15:21:21.831486 18051 net.cpp:408] conv5_3 -> conv5_3
I0215 15:21:21.848178 18051 net.cpp:150] Setting up conv5_3
I0215 15:21:21.848201 18051 net.cpp:157] Top shape: 1 512 23 28 (329728)
I0215 15:21:21.848206 18051 net.cpp:165] Memory required for data: 382262128
I0215 15:21:21.848217 18051 layer_factory.hpp:77] Creating layer relu5_3
I0215 15:21:21.848225 18051 net.cpp:100] Creating Layer relu5_3
I0215 15:21:21.848232 18051 net.cpp:434] relu5_3 <- conv5_3
I0215 15:21:21.848239 18051 net.cpp:395] relu5_3 -> conv5_3 (in-place)
I0215 15:21:21.848445 18051 net.cpp:150] Setting up relu5_3
I0215 15:21:21.848458 18051 net.cpp:157] Top shape: 1 512 23 28 (329728)
I0215 15:21:21.848461 18051 net.cpp:165] Memory required for data: 383581040
I0215 15:21:21.848466 18051 layer_factory.hpp:77] Creating layer pool5
I0215 15:21:21.848477 18051 net.cpp:100] Creating Layer pool5
I0215 15:21:21.848482 18051 net.cpp:434] pool5 <- conv5_3
I0215 15:21:21.848489 18051 net.cpp:408] pool5 -> pool5
I0215 15:21:21.848549 18051 net.cpp:150] Setting up pool5
I0215 15:21:21.848557 18051 net.cpp:157] Top shape: 1 512 12 14 (86016)
I0215 15:21:21.848562 18051 net.cpp:165] Memory required for data: 383925104
I0215 15:21:21.848565 18051 layer_factory.hpp:77] Creating layer fc6
I0215 15:21:21.848578 18051 net.cpp:100] Creating Layer fc6
I0215 15:21:21.848582 18051 net.cpp:434] fc6 <- pool5
I0215 15:21:21.848589 18051 net.cpp:408] fc6 -> fc6
I0215 15:21:22.552438 18051 net.cpp:150] Setting up fc6
I0215 15:21:22.552489 18051 net.cpp:157] Top shape: 1 4096 6 8 (196608)
I0215 15:21:22.552495 18051 net.cpp:165] Memory required for data: 384711536
I0215 15:21:22.552510 18051 layer_factory.hpp:77] Creating layer relu6
I0215 15:21:22.552525 18051 net.cpp:100] Creating Layer relu6
I0215 15:21:22.552531 18051 net.cpp:434] relu6 <- fc6
I0215 15:21:22.552541 18051 net.cpp:395] relu6 -> fc6 (in-place)
I0215 15:21:22.552950 18051 net.cpp:150] Setting up relu6
I0215 15:21:22.552964 18051 net.cpp:157] Top shape: 1 4096 6 8 (196608)
I0215 15:21:22.552968 18051 net.cpp:165] Memory required for data: 385497968
I0215 15:21:22.552973 18051 layer_factory.hpp:77] Creating layer drop6
I0215 15:21:22.552984 18051 net.cpp:100] Creating Layer drop6
I0215 15:21:22.552989 18051 net.cpp:434] drop6 <- fc6
I0215 15:21:22.552996 18051 net.cpp:395] drop6 -> fc6 (in-place)
I0215 15:21:22.553041 18051 net.cpp:150] Setting up drop6
I0215 15:21:22.553050 18051 net.cpp:157] Top shape: 1 4096 6 8 (196608)
I0215 15:21:22.553053 18051 net.cpp:165] Memory required for data: 386284400
I0215 15:21:22.553058 18051 layer_factory.hpp:77] Creating layer fc7
I0215 15:21:22.553071 18051 net.cpp:100] Creating Layer fc7
I0215 15:21:22.553076 18051 net.cpp:434] fc7 <- fc6
I0215 15:21:22.553084 18051 net.cpp:408] fc7 -> fc7
I0215 15:21:22.668689 18051 net.cpp:150] Setting up fc7
I0215 15:21:22.668737 18051 net.cpp:157] Top shape: 1 4096 6 8 (196608)
I0215 15:21:22.668742 18051 net.cpp:165] Memory required for data: 387070832
I0215 15:21:22.668754 18051 layer_factory.hpp:77] Creating layer relu7
I0215 15:21:22.668769 18051 net.cpp:100] Creating Layer relu7
I0215 15:21:22.668776 18051 net.cpp:434] relu7 <- fc7
I0215 15:21:22.668786 18051 net.cpp:395] relu7 -> fc7 (in-place)
I0215 15:21:22.668998 18051 net.cpp:150] Setting up relu7
I0215 15:21:22.669008 18051 net.cpp:157] Top shape: 1 4096 6 8 (196608)
I0215 15:21:22.669013 18051 net.cpp:165] Memory required for data: 387857264
I0215 15:21:22.669018 18051 layer_factory.hpp:77] Creating layer drop7
I0215 15:21:22.669028 18051 net.cpp:100] Creating Layer drop7
I0215 15:21:22.669033 18051 net.cpp:434] drop7 <- fc7
I0215 15:21:22.669039 18051 net.cpp:395] drop7 -> fc7 (in-place)
I0215 15:21:22.669078 18051 net.cpp:150] Setting up drop7
I0215 15:21:22.669086 18051 net.cpp:157] Top shape: 1 4096 6 8 (196608)
I0215 15:21:22.669090 18051 net.cpp:165] Memory required for data: 388643696
I0215 15:21:22.669095 18051 layer_factory.hpp:77] Creating layer score_fr
I0215 15:21:22.669108 18051 net.cpp:100] Creating Layer score_fr
I0215 15:21:22.669113 18051 net.cpp:434] score_fr <- fc7
I0215 15:21:22.669121 18051 net.cpp:408] score_fr -> score_fr
I0215 15:21:22.670714 18051 net.cpp:150] Setting up score_fr
I0215 15:21:22.670730 18051 net.cpp:157] Top shape: 1 2 6 8 (96)
I0215 15:21:22.670735 18051 net.cpp:165] Memory required for data: 388644080
I0215 15:21:22.670747 18051 layer_factory.hpp:77] Creating layer upscore2
I0215 15:21:22.670759 18051 net.cpp:100] Creating Layer upscore2
I0215 15:21:22.670764 18051 net.cpp:434] upscore2 <- score_fr
I0215 15:21:22.670773 18051 net.cpp:408] upscore2 -> upscore2
I0215 15:21:22.671033 18051 net.cpp:150] Setting up upscore2
I0215 15:21:22.671043 18051 net.cpp:157] Top shape: 1 2 14 18 (504)
I0215 15:21:22.671047 18051 net.cpp:165] Memory required for data: 388646096
I0215 15:21:22.671062 18051 layer_factory.hpp:77] Creating layer upscore2_upscore2_0_split
I0215 15:21:22.671072 18051 net.cpp:100] Creating Layer upscore2_upscore2_0_split
I0215 15:21:22.671075 18051 net.cpp:434] upscore2_upscore2_0_split <- upscore2
I0215 15:21:22.671082 18051 net.cpp:408] upscore2_upscore2_0_split -> upscore2_upscore2_0_split_0
I0215 15:21:22.671090 18051 net.cpp:408] upscore2_upscore2_0_split -> upscore2_upscore2_0_split_1
I0215 15:21:22.671140 18051 net.cpp:150] Setting up upscore2_upscore2_0_split
I0215 15:21:22.671150 18051 net.cpp:157] Top shape: 1 2 14 18 (504)
I0215 15:21:22.671155 18051 net.cpp:157] Top shape: 1 2 14 18 (504)
I0215 15:21:22.671159 18051 net.cpp:165] Memory required for data: 388650128
I0215 15:21:22.671164 18051 layer_factory.hpp:77] Creating layer scale_pool4
I0215 15:21:22.671172 18051 net.cpp:100] Creating Layer scale_pool4
I0215 15:21:22.671177 18051 net.cpp:434] scale_pool4 <- pool4_pool4_0_split_1
I0215 15:21:22.671185 18051 net.cpp:408] scale_pool4 -> scale_pool4
I0215 15:21:22.671310 18051 net.cpp:150] Setting up scale_pool4
I0215 15:21:22.671319 18051 net.cpp:157] Top shape: 1 512 23 28 (329728)
I0215 15:21:22.671324 18051 net.cpp:165] Memory required for data: 389969040
I0215 15:21:22.671329 18051 layer_factory.hpp:77] Creating layer score_pool4
I0215 15:21:22.671340 18051 net.cpp:100] Creating Layer score_pool4
I0215 15:21:22.671345 18051 net.cpp:434] score_pool4 <- scale_pool4
I0215 15:21:22.671353 18051 net.cpp:408] score_pool4 -> score_pool4
I0215 15:21:22.672672 18051 net.cpp:150] Setting up score_pool4
I0215 15:21:22.672686 18051 net.cpp:157] Top shape: 1 2 23 28 (1288)
I0215 15:21:22.672690 18051 net.cpp:165] Memory required for data: 389974192
I0215 15:21:22.672699 18051 layer_factory.hpp:77] Creating layer score_pool4c
I0215 15:21:22.672709 18051 net.cpp:100] Creating Layer score_pool4c
I0215 15:21:22.672715 18051 net.cpp:434] score_pool4c <- score_pool4
I0215 15:21:22.672721 18051 net.cpp:434] score_pool4c <- upscore2_upscore2_0_split_0
I0215 15:21:22.672740 18051 net.cpp:408] score_pool4c -> score_pool4c
I0215 15:21:22.672778 18051 net.cpp:150] Setting up score_pool4c
I0215 15:21:22.672787 18051 net.cpp:157] Top shape: 1 2 14 18 (504)
I0215 15:21:22.672791 18051 net.cpp:165] Memory required for data: 389976208
I0215 15:21:22.672796 18051 layer_factory.hpp:77] Creating layer fuse_pool4
I0215 15:21:22.672806 18051 net.cpp:100] Creating Layer fuse_pool4
I0215 15:21:22.672809 18051 net.cpp:434] fuse_pool4 <- upscore2_upscore2_0_split_1
I0215 15:21:22.672816 18051 net.cpp:434] fuse_pool4 <- score_pool4c
I0215 15:21:22.672821 18051 net.cpp:408] fuse_pool4 -> fuse_pool4
I0215 15:21:22.672855 18051 net.cpp:150] Setting up fuse_pool4
I0215 15:21:22.672863 18051 net.cpp:157] Top shape: 1 2 14 18 (504)
I0215 15:21:22.672866 18051 net.cpp:165] Memory required for data: 389978224
I0215 15:21:22.672871 18051 layer_factory.hpp:77] Creating layer upscore_pool4
I0215 15:21:22.672880 18051 net.cpp:100] Creating Layer upscore_pool4
I0215 15:21:22.672885 18051 net.cpp:434] upscore_pool4 <- fuse_pool4
I0215 15:21:22.672894 18051 net.cpp:408] upscore_pool4 -> upscore_pool4
I0215 15:21:22.673132 18051 net.cpp:150] Setting up upscore_pool4
I0215 15:21:22.673141 18051 net.cpp:157] Top shape: 1 2 30 38 (2280)
I0215 15:21:22.673146 18051 net.cpp:165] Memory required for data: 389987344
I0215 15:21:22.673151 18051 layer_factory.hpp:77] Creating layer upscore_pool4_upscore_pool4_0_split
I0215 15:21:22.673158 18051 net.cpp:100] Creating Layer upscore_pool4_upscore_pool4_0_split
I0215 15:21:22.673162 18051 net.cpp:434] upscore_pool4_upscore_pool4_0_split <- upscore_pool4
I0215 15:21:22.673168 18051 net.cpp:408] upscore_pool4_upscore_pool4_0_split -> upscore_pool4_upscore_pool4_0_split_0
I0215 15:21:22.673176 18051 net.cpp:408] upscore_pool4_upscore_pool4_0_split -> upscore_pool4_upscore_pool4_0_split_1
I0215 15:21:22.673221 18051 net.cpp:150] Setting up upscore_pool4_upscore_pool4_0_split
I0215 15:21:22.673229 18051 net.cpp:157] Top shape: 1 2 30 38 (2280)
I0215 15:21:22.673234 18051 net.cpp:157] Top shape: 1 2 30 38 (2280)
I0215 15:21:22.673238 18051 net.cpp:165] Memory required for data: 390005584
I0215 15:21:22.673243 18051 layer_factory.hpp:77] Creating layer scale_pool3
I0215 15:21:22.673249 18051 net.cpp:100] Creating Layer scale_pool3
I0215 15:21:22.673254 18051 net.cpp:434] scale_pool3 <- pool3_pool3_0_split_1
I0215 15:21:22.673262 18051 net.cpp:408] scale_pool3 -> scale_pool3
I0215 15:21:22.673375 18051 net.cpp:150] Setting up scale_pool3
I0215 15:21:22.673383 18051 net.cpp:157] Top shape: 1 256 46 56 (659456)
I0215 15:21:22.673388 18051 net.cpp:165] Memory required for data: 392643408
I0215 15:21:22.673393 18051 layer_factory.hpp:77] Creating layer score_pool3
I0215 15:21:22.673404 18051 net.cpp:100] Creating Layer score_pool3
I0215 15:21:22.673408 18051 net.cpp:434] score_pool3 <- scale_pool3
I0215 15:21:22.673415 18051 net.cpp:408] score_pool3 -> score_pool3
I0215 15:21:22.674754 18051 net.cpp:150] Setting up score_pool3
I0215 15:21:22.674770 18051 net.cpp:157] Top shape: 1 2 46 56 (5152)
I0215 15:21:22.674775 18051 net.cpp:165] Memory required for data: 392664016
I0215 15:21:22.674783 18051 layer_factory.hpp:77] Creating layer score_pool3c
I0215 15:21:22.674793 18051 net.cpp:100] Creating Layer score_pool3c
I0215 15:21:22.674798 18051 net.cpp:434] score_pool3c <- score_pool3
I0215 15:21:22.674804 18051 net.cpp:434] score_pool3c <- upscore_pool4_upscore_pool4_0_split_0
I0215 15:21:22.674811 18051 net.cpp:408] score_pool3c -> score_pool3c
I0215 15:21:22.674852 18051 net.cpp:150] Setting up score_pool3c
I0215 15:21:22.674860 18051 net.cpp:157] Top shape: 1 2 30 38 (2280)
I0215 15:21:22.674865 18051 net.cpp:165] Memory required for data: 392673136
I0215 15:21:22.674868 18051 layer_factory.hpp:77] Creating layer fuse_pool3
I0215 15:21:22.674875 18051 net.cpp:100] Creating Layer fuse_pool3
I0215 15:21:22.674880 18051 net.cpp:434] fuse_pool3 <- upscore_pool4_upscore_pool4_0_split_1
I0215 15:21:22.674885 18051 net.cpp:434] fuse_pool3 <- score_pool3c
I0215 15:21:22.674899 18051 net.cpp:408] fuse_pool3 -> fuse_pool3
I0215 15:21:22.674935 18051 net.cpp:150] Setting up fuse_pool3
I0215 15:21:22.674942 18051 net.cpp:157] Top shape: 1 2 30 38 (2280)
I0215 15:21:22.674947 18051 net.cpp:165] Memory required for data: 392682256
I0215 15:21:22.674950 18051 layer_factory.hpp:77] Creating layer upscore8
I0215 15:21:22.674958 18051 net.cpp:100] Creating Layer upscore8
I0215 15:21:22.674963 18051 net.cpp:434] upscore8 <- fuse_pool3
I0215 15:21:22.674971 18051 net.cpp:408] upscore8 -> upscore8
I0215 15:21:22.675216 18051 net.cpp:150] Setting up upscore8
I0215 15:21:22.675225 18051 net.cpp:157] Top shape: 1 2 248 312 (154752)
I0215 15:21:22.675230 18051 net.cpp:165] Memory required for data: 393301264
I0215 15:21:22.675235 18051 layer_factory.hpp:77] Creating layer score
I0215 15:21:22.675246 18051 net.cpp:100] Creating Layer score
I0215 15:21:22.675251 18051 net.cpp:434] score <- upscore8
I0215 15:21:22.675256 18051 net.cpp:434] score <- data_data_0_split_1
I0215 15:21:22.675261 18051 net.cpp:408] score -> score
I0215 15:21:22.675293 18051 net.cpp:150] Setting up score
I0215 15:21:22.675300 18051 net.cpp:157] Top shape: 1 2 167 250 (83500)
I0215 15:21:22.675304 18051 net.cpp:165] Memory required for data: 393635264
I0215 15:21:22.675308 18051 layer_factory.hpp:77] Creating layer loss
I0215 15:21:22.675318 18051 net.cpp:100] Creating Layer loss
I0215 15:21:22.675323 18051 net.cpp:434] loss <- score
I0215 15:21:22.675328 18051 net.cpp:434] loss <- label
I0215 15:21:22.675334 18051 net.cpp:408] loss -> loss
I0215 15:21:22.675344 18051 layer_factory.hpp:77] Creating layer loss
…
