…
test_initialization: false
average_loss: 20
iter_size: 1
I1124 08:31:55.557078 18482 solver.cpp:81] Creating training net from train_net file: train.prototxt
I1124 08:31:55.559536 18482 net.cpp:58] Initializing net from parameters: 
state {
  phase: TRAIN
}
layer {
  name: "data"
  type: "Python"
  top: "data"
  top: "label"
  python_param {
    module: "voc_layers"
    layer: "PartialSBDDSegDataLayer"
    param_str: "{\'sbdd_dir\': \'../data/sbdd/dataset\', \'seed\': 1337, \'split\': \'train5\', \'mean\': (104.00699, 116.66877, 122.67892)}"
  }
}
layer {
  name: "conv1_1"
  type: "Convolution"
  bottom: "data"
  top: "conv1_1"
  param {
    lr_mult: 1
    decay_mult: 1
  }
  param {
    lr_mult: 2
    decay_mult: 0
  }
  convolution_param {
    num_output: 64
    pad: 100
    kernel_size: 3
    stride: 1
    weight_filler {
      type: "xavier"
    }
  }
}
layer {
  name: "relu1_1"
  type: "ReLU"
  bottom: "conv1_1"
  top: "conv1_1"
}
layer {
  name: "conv1_2"
  type: "Convolution"
  bottom: "conv1_1"
  top: "conv1_2"
  param {
    lr_mult: 1
    decay_mult: 1
  }
  param {
    lr_mult: 2
    decay_mult: 0
  }
  convolution_param {
    num_output: 64
    pad: 1
    kernel_size: 3
    stride: 1
    weight_filler {
      type: "xavier"
    }
  }
}
layer {
  name: "relu1_2"
  type: "ReLU"
  bottom: "conv1_2"
  top: "conv1_2"
}
layer {
  name: "pool1"
  type: "Pooling"
  bottom: "conv1_2"
  top: "pool1"
  pooling_param {
    pool: MAX
    kernel_size: 2
    stride: 2
  }
}
layer {
  name: "conv2_1"
  type: "Convolution"
  bottom: "pool1"
  top: "conv2_1"
  param {
    lr_mult: 1
    decay_mult: 1
  }
  param {
    lr_mult: 2
    decay_mult: 0
  }
  convolution_param {
    num_output: 128
    pad: 1
    kernel_size: 3
    stride: 1
    weight_filler {
      type: "xavier"
    }
  }
}
layer {
  name: "relu2_1"
  type: "ReLU"
  bottom: "conv2_1"
  top: "conv2_1"
}
layer {
  name: "conv2_2"
  type: "Convolution"
  bottom: "conv2_1"
  top: "conv2_2"
  param {
    lr_mult: 1
    decay_mult: 1
  }
  param {
    lr_mult: 2
    decay_mult: 0
  }
  convolution_param {
    num_output: 128
    pad: 1
    kernel_size: 3
    stride: 1
    weight_filler {
      type: "xavier"
    }
  }
}
layer {
  name: "relu2_2"
  type: "ReLU"
  bottom: "conv2_2"
  top: "conv2_2"
}
layer {
  name: "pool2"
  type: "Pooling"
  bottom: "conv2_2"
  top: "pool2"
  pooling_param {
    pool: MAX
    kernel_size: 2
    stride: 2
  }
}
layer {
  name: "conv3_1"
  type: "Convolution"
  bottom: "pool2"
  top: "conv3_1"
  param {
    lr_mult: 1
    decay_mult: 1
  }
  param {
    lr_mult: 2
    decay_mult: 0
  }
  convolution_param {
    num_output: 256
    pad: 1
    kernel_size: 3
    stride: 1
    weight_filler {
      type: "xavier"
    }
  }
}
layer {
  name: "relu3_1"
  type: "ReLU"
  bottom: "conv3_1"
  top: "conv3_1"
}
layer {
  name: "conv3_2"
  type: "Convolution"
  bottom: "conv3_1"
  top: "conv3_2"
  param {
    lr_mult: 1
    decay_mult: 1
  }
  param {
    lr_mult: 2
    decay_mult: 0
  }
  convolution_param {
    num_output: 256
    pad: 1
    kernel_size: 3
    stride: 1
    weight_filler {
      type: "xavier"
    }
  }
}
layer {
  name: "relu3_2"
  type: "ReLU"
  bottom: "conv3_2"
  top: "conv3_2"
}
layer {
  name: "conv3_3"
  type: "Convolution"
  bottom: "conv3_2"
  top: "conv3_3"
  param {
    lr_mult: 1
    decay_mult: 1
  }
  param {
    lr_mult: 2
    decay_mult: 0
  }
  convolution_param {
    num_output: 256
    pad: 1
    kernel_size: 3
    stride: 1
    weight_filler {
      type: "xavier"
    }
  }
}
layer {
  name: "relu3_3"
  type: "ReLU"
  bottom: "conv3_3"
  top: "conv3_3"
}
layer {
  name: "pool3"
  type: "Pooling"
  bottom: "conv3_3"
  top: "pool3"
  pooling_param {
    pool: MAX
    kernel_size: 2
    stride: 2
  }
}
layer {
  name: "conv4_1"
  type: "Convolution"
  bottom: "pool3"
  top: "conv4_1"
  param {
    lr_mult: 1
    decay_mult: 1
  }
  param {
    lr_mult: 2
    decay_mult: 0
  }
  convolution_param {
    num_output: 512
    pad: 1
    kernel_size: 3
    stride: 1
    weight_filler {
      type: "xavier"
    }
  }
}
layer {
  name: "relu4_1"
  type: "ReLU"
  bottom: "conv4_1"
  top: "conv4_1"
}
layer {
  name: "conv4_2"
  type: "Convolution"
  bottom: "conv4_1"
  top: "conv4_2"
  param {
    lr_mult: 1
    decay_mult: 1
  }
  param {
    lr_mult: 2
    decay_mult: 0
  }
  convolution_param {
    num_output: 512
    pad: 1
    kernel_size: 3
    stride: 1
    weight_filler {
      type: "xavier"
    }
  }
}
layer {
  name: "relu4_2"
  type: "ReLU"
  bottom: "conv4_2"
  top: "conv4_2"
}
layer {
  name: "conv4_3"
  type: "Convolution"
  bottom: "conv4_2"
  top: "conv4_3"
  param {
    lr_mult: 1
    decay_mult: 1
  }
  param {
    lr_mult: 2
    decay_mult: 0
  }
  convolution_param {
    num_output: 512
    pad: 1
    kernel_size: 3
    stride: 1
    weight_filler {
      type: "xavier"
    }
  }
}
layer {
  name: "relu4_3"
  type: "ReLU"
  bottom: "conv4_3"
  top: "conv4_3"
}
layer {
  name: "pool4"
  type: "Pooling"
  bottom: "conv4_3"
  top: "pool4"
  pooling_param {
    pool: MAX
    kernel_size: 2
    stride: 2
  }
}
layer {
  name: "conv5_1"
  type: "Convolution"
  bottom: "pool4"
  top: "conv5_1"
  param {
    lr_mult: 1
    decay_mult: 1
  }
  param {
    lr_mult: 2
    decay_mult: 0
  }
  convolution_param {
    num_output: 512
    pad: 1
    kernel_size: 3
    stride: 1
    weight_filler {
      type: "xavier"
    }
  }
}
layer {
  name: "relu5_1"
  type: "ReLU"
  bottom: "conv5_1"
  top: "conv5_1"
}
layer {
  name: "conv5_2"
  type: "Convolution"
  bottom: "conv5_1"
  top: "conv5_2"
  param {
    lr_mult: 1
    decay_mult: 1
  }
  param {
    lr_mult: 2
    decay_mult: 0
  }
  convolution_param {
    num_output: 512
    pad: 1
    kernel_size: 3
    stride: 1
    weight_filler {
      type: "xavier"
    }
  }
}
layer {
  name: "relu5_2"
  type: "ReLU"
  bottom: "conv5_2"
  top: "conv5_2"
}
layer {
  name: "conv5_3"
  type: "Convolution"
  bottom: "conv5_2"
  top: "conv5_3"
  param {
    lr_mult: 1
    decay_mult: 1
  }
  param {
    lr_mult: 2
    decay_mult: 0
  }
  convolution_param {
    num_output: 512
    pad: 1
    kernel_size: 3
    stride: 1
    weight_filler {
      type: "xavier"
    }
  }
}
layer {
  name: "relu5_3"
  type: "ReLU"
  bottom: "conv5_3"
  top: "conv5_3"
}
layer {
  name: "pool5"
  type: "Pooling"
  bottom: "conv5_3"
  top: "pool5"
  pooling_param {
    pool: MAX
    kernel_size: 2
    stride: 2
  }
}
layer {
  name: "fc6"
  type: "Convolution"
  bottom: "pool5"
  top: "fc6"
  param {
    lr_mult: 1
    decay_mult: 1
  }
  param {
    lr_mult: 2
    decay_mult: 0
  }
  convolution_param {
    num_output: 4096
    pad: 0
    kernel_size: 7
    stride: 1
    weight_filler {
      type: "xavier"
    }
  }
}
layer {
  name: "relu6"
  type: "ReLU"
  bottom: "fc6"
  top: "fc6"
}
layer {
  name: "drop6"
  type: "Dropout"
  bottom: "fc6"
  top: "fc6"
  dropout_param {
    dropout_ratio: 0.5
  }
}
layer {
  name: "fc7"
  type: "Convolution"
  bottom: "fc6"
  top: "fc7"
  param {
    lr_mult: 1
    decay_mult: 1
  }
  param {
    lr_mult: 2
    decay_mult: 0
  }
  convolution_param {
    num_output: 4096
    pad: 0
    kernel_size: 1
    stride: 1
    weight_filler {
      type: "xavier"
    }
  }
}
layer {
  name: "relu7"
  type: "ReLU"
  bottom: "fc7"
  top: "fc7"
}
layer {
  name: "drop7"
  type: "Dropout"
  bottom: "fc7"
  top: "fc7"
  dropout_param {
    dropout_ratio: 0.5
  }
}
layer {
  name: "score_fr"
  type: "Convolution"
  bottom: "fc7"
  top: "score_fr"
  param {
    lr_mult: 1
    decay_mult: 1
  }
  param {
    lr_mult: 2
    decay_mult: 0
  }
  convolution_param {
    num_output: 6
    pad: 0
    kernel_size: 1
    weight_filler {
      type: "xavier"
    }
  }
}
layer {
  name: "upscore2"
  type: "Deconvolution"
  bottom: "score_fr"
  top: "upscore2"
  param {
    lr_mult: 0
  }
  convolution_param {
    num_output: 6
    bias_term: false
    kernel_size: 4
    stride: 2
    weight_filler {
      type: "xavier"
    }
  }
}
layer {
  name: "scale_pool4"
  type: "Scale"
  bottom: "pool4"
  top: "scale_pool4"
  param {
    lr_mult: 0
  }
  scale_param {
    filler {
      type: "constant"
      value: 0.01
    }
  }
}
layer {
  name: "score_pool4"
  type: "Convolution"
  bottom: "scale_pool4"
  top: "score_pool4"
  param {
    lr_mult: 1
    decay_mult: 1
  }
  param {
    lr_mult: 2
    decay_mult: 0
  }
  convolution_param {
    num_output: 6
    pad: 0
    kernel_size: 1
    weight_filler {
      type: "xavier"
    }
  }
}
layer {
  name: "score_pool4c"
  type: "Crop"
  bottom: "score_pool4"
  bottom: "upscore2"
  top: "score_pool4c"
  crop_param {
    axis: 2
    offset: 5
  }
}
layer {
  name: "fuse_pool4"
  type: "Eltwise"
  bottom: "upscore2"
  bottom: "score_pool4c"
  top: "fuse_pool4"
  eltwise_param {
    operation: SUM
  }
}
layer {
  name: "upscore_pool4"
  type: "Deconvolution"
  bottom: "fuse_pool4"
  top: "upscore_pool4"
  param {
    lr_mult: 0
  }
  convolution_param {
    num_output: 6
    bias_term: false
    kernel_size: 4
    stride: 2
    weight_filler {
      type: "xavier"
    }
  }
}
layer {
  name: "scale_pool3"
  type: "Scale"
  bottom: "pool3"
  top: "scale_pool3"
  param {
    lr_mult: 0
  }
  scale_param {
    filler {
      type: "constant"
      value: 0.0001
    }
  }
}
layer {
  name: "score_pool3"
  type: "Convolution"
  bottom: "scale_pool3"
  top: "score_pool3"
  param {
    lr_mult: 1
    decay_mult: 1
  }
  param {
    lr_mult: 2
    decay_mult: 0
  }
  convolution_param {
    num_output: 6
    pad: 0
    kernel_size: 1
    weight_filler {
      type: "xavier"
    }
  }
}
layer {
  name: "score_pool3c"
  type: "Crop"
  bottom: "score_pool3"
  bottom: "upscore_pool4"
  top: "score_pool3c"
  crop_param {
    axis: 2
    offset: 9
  }
}
layer {
  name: "fuse_pool3"
  type: "Eltwise"
  bottom: "upscore_pool4"
  bottom: "score_pool3c"
  top: "fuse_pool3"
  eltwise_param {
    operation: SUM
  }
}
layer {
  name: "upscore8"
  type: "Deconvolution"
  bottom: "fuse_pool3"
  top: "upscore8"
  param {
    lr_mult: 0
  }
  convolution_param {
    num_output: 6
    bias_term: false
    kernel_size: 16
    stride: 8
    weight_filler {
      type: "xavier"
    }
  }
}
layer {
  name: "score"
  type: "Crop"
  bottom: "upscore8"
  bottom: "data"
  top: "score"
  crop_param {
    axis: 2
    offset: 31
  }
}
layer {
  name: "loss"
  type: "SoftmaxWithLoss"
  bottom: "score"
  bottom: "label"
  top: "loss"
  loss_param {
    ignore_label: 255
    normalize: false
  }
}
I1124 08:31:55.559916 18482 layer_factory.hpp:77] Creating layer data
I1124 08:31:55.560721 18482 net.cpp:100] Creating Layer data
I1124 08:31:55.560742 18482 net.cpp:408] data -> data
I1124 08:31:55.560765 18482 net.cpp:408] data -> label
I1124 08:31:55.721541 18482 net.cpp:150] Setting up data
I1124 08:31:55.721607 18482 net.cpp:157] Top shape: 1 3 375 500 (562500)
I1124 08:31:55.721619 18482 net.cpp:157] Top shape: 1 1 375 500 (187500)
I1124 08:31:55.721626 18482 net.cpp:165] Memory required for data: 3000000
I1124 08:31:55.721639 18482 layer_factory.hpp:77] Creating layer data_data_0_split
I1124 08:31:55.721663 18482 net.cpp:100] Creating Layer data_data_0_split
I1124 08:31:55.721671 18482 net.cpp:434] data_data_0_split <- data
I1124 08:31:55.721686 18482 net.cpp:408] data_data_0_split -> data_data_0_split_0
I1124 08:31:55.721704 18482 net.cpp:408] data_data_0_split -> data_data_0_split_1
I1124 08:31:55.721757 18482 net.cpp:150] Setting up data_data_0_split
I1124 08:31:55.721768 18482 net.cpp:157] Top shape: 1 3 375 500 (562500)
I1124 08:31:55.721778 18482 net.cpp:157] Top shape: 1 3 375 500 (562500)
I1124 08:31:55.721786 18482 net.cpp:165] Memory required for data: 7500000
I1124 08:31:55.721792 18482 layer_factory.hpp:77] Creating layer conv1_1
I1124 08:31:55.721818 18482 net.cpp:100] Creating Layer conv1_1
I1124 08:31:55.721827 18482 net.cpp:434] conv1_1 <- data_data_0_split_0
I1124 08:31:55.721853 18482 net.cpp:408] conv1_1 -> conv1_1
I1124 08:31:56.650286 18482 net.cpp:150] Setting up conv1_1
I1124 08:31:56.650343 18482 net.cpp:157] Top shape: 1 64 573 698 (25597056)
I1124 08:31:56.650352 18482 net.cpp:165] Memory required for data: 109888224
I1124 08:31:56.650379 18482 layer_factory.hpp:77] Creating layer relu1_1
I1124 08:31:56.650398 18482 net.cpp:100] Creating Layer relu1_1
I1124 08:31:56.650406 18482 net.cpp:434] relu1_1 <- conv1_1
I1124 08:31:56.650418 18482 net.cpp:395] relu1_1 -> conv1_1 (in-place)
I1124 08:31:56.650898 18482 net.cpp:150] Setting up relu1_1
I1124 08:31:56.650918 18482 net.cpp:157] Top shape: 1 64 573 698 (25597056)
I1124 08:31:56.650925 18482 net.cpp:165] Memory required for data: 212276448
I1124 08:31:56.650934 18482 layer_factory.hpp:77] Creating layer conv1_2
I1124 08:31:56.650955 18482 net.cpp:100] Creating Layer conv1_2
I1124 08:31:56.650964 18482 net.cpp:434] conv1_2 <- conv1_1
I1124 08:31:56.650976 18482 net.cpp:408] conv1_2 -> conv1_2
I1124 08:31:56.663151 18482 net.cpp:150] Setting up conv1_2
I1124 08:31:56.663208 18482 net.cpp:157] Top shape: 1 64 573 698 (25597056)
I1124 08:31:56.663218 18482 net.cpp:165] Memory required for data: 314664672
I1124 08:31:56.663239 18482 layer_factory.hpp:77] Creating layer relu1_2
I1124 08:31:56.663255 18482 net.cpp:100] Creating Layer relu1_2
I1124 08:31:56.663264 18482 net.cpp:434] relu1_2 <- conv1_2
I1124 08:31:56.663275 18482 net.cpp:395] relu1_2 -> conv1_2 (in-place)
I1124 08:31:56.663841 18482 net.cpp:150] Setting up relu1_2
I1124 08:31:56.663861 18482 net.cpp:157] Top shape: 1 64 573 698 (25597056)
I1124 08:31:56.663868 18482 net.cpp:165] Memory required for data: 417052896
I1124 08:31:56.663877 18482 layer_factory.hpp:77] Creating layer pool1
I1124 08:31:56.663894 18482 net.cpp:100] Creating Layer pool1
I1124 08:31:56.663902 18482 net.cpp:434] pool1 <- conv1_2
I1124 08:31:56.663915 18482 net.cpp:408] pool1 -> pool1
I1124 08:31:56.663993 18482 net.cpp:150] Setting up pool1
I1124 08:31:56.664005 18482 net.cpp:157] Top shape: 1 64 287 349 (6410432)
I1124 08:31:56.664012 18482 net.cpp:165] Memory required for data: 442694624
I1124 08:31:56.664019 18482 layer_factory.hpp:77] Creating layer conv2_1
I1124 08:31:56.664038 18482 net.cpp:100] Creating Layer conv2_1
I1124 08:31:56.664047 18482 net.cpp:434] conv2_1 <- pool1
I1124 08:31:56.664063 18482 net.cpp:408] conv2_1 -> conv2_1
I1124 08:31:56.667274 18482 net.cpp:150] Setting up conv2_1
I1124 08:31:56.667296 18482 net.cpp:157] Top shape: 1 128 287 349 (12820864)
I1124 08:31:56.667304 18482 net.cpp:165] Memory required for data: 493978080
I1124 08:31:56.667321 18482 layer_factory.hpp:77] Creating layer relu2_1
I1124 08:31:56.667335 18482 net.cpp:100] Creating Layer relu2_1
I1124 08:31:56.667343 18482 net.cpp:434] relu2_1 <- conv2_1
I1124 08:31:56.667356 18482 net.cpp:395] relu2_1 -> conv2_1 (in-place)
I1124 08:31:56.667629 18482 net.cpp:150] Setting up relu2_1
I1124 08:31:56.667642 18482 net.cpp:157] Top shape: 1 128 287 349 (12820864)
I1124 08:31:56.667649 18482 net.cpp:165] Memory required for data: 545261536
I1124 08:31:56.667657 18482 layer_factory.hpp:77] Creating layer conv2_2
I1124 08:31:56.667675 18482 net.cpp:100] Creating Layer conv2_2
I1124 08:31:56.667682 18482 net.cpp:434] conv2_2 <- conv2_1
I1124 08:31:56.667696 18482 net.cpp:408] conv2_2 -> conv2_2
I1124 08:31:56.671358 18482 net.cpp:150] Setting up conv2_2
I1124 08:31:56.671382 18482 net.cpp:157] Top shape: 1 128 287 349 (12820864)
I1124 08:31:56.671391 18482 net.cpp:165] Memory required for data: 596544992
I1124 08:31:56.671403 18482 layer_factory.hpp:77] Creating layer relu2_2
I1124 08:31:56.671416 18482 net.cpp:100] Creating Layer relu2_2
I1124 08:31:56.671423 18482 net.cpp:434] relu2_2 <- conv2_2
I1124 08:31:56.671433 18482 net.cpp:395] relu2_2 -> conv2_2 (in-place)
I1124 08:31:56.671892 18482 net.cpp:150] Setting up relu2_2
I1124 08:31:56.671911 18482 net.cpp:157] Top shape: 1 128 287 349 (12820864)
I1124 08:31:56.671918 18482 net.cpp:165] Memory required for data: 647828448
I1124 08:31:56.671941 18482 layer_factory.hpp:77] Creating layer pool2
I1124 08:31:56.671955 18482 net.cpp:100] Creating Layer pool2
I1124 08:31:56.671963 18482 net.cpp:434] pool2 <- conv2_2
I1124 08:31:56.671973 18482 net.cpp:408] pool2 -> pool2
I1124 08:31:56.672040 18482 net.cpp:150] Setting up pool2
I1124 08:31:56.672053 18482 net.cpp:157] Top shape: 1 128 144 175 (3225600)
I1124 08:31:56.672060 18482 net.cpp:165] Memory required for data: 660730848
I1124 08:31:56.672067 18482 layer_factory.hpp:77] Creating layer conv3_1
I1124 08:31:56.672085 18482 net.cpp:100] Creating Layer conv3_1
I1124 08:31:56.672092 18482 net.cpp:434] conv3_1 <- pool2
I1124 08:31:56.672106 18482 net.cpp:408] conv3_1 -> conv3_1
I1124 08:31:56.676910 18482 net.cpp:150] Setting up conv3_1
I1124 08:31:56.676934 18482 net.cpp:157] Top shape: 1 256 144 175 (6451200)
I1124 08:31:56.676941 18482 net.cpp:165] Memory required for data: 686535648
I1124 08:31:56.676959 18482 layer_factory.hpp:77] Creating layer relu3_1
I1124 08:31:56.676971 18482 net.cpp:100] Creating Layer relu3_1
I1124 08:31:56.676980 18482 net.cpp:434] relu3_1 <- conv3_1
I1124 08:31:56.676988 18482 net.cpp:395] relu3_1 -> conv3_1 (in-place)
I1124 08:31:56.677453 18482 net.cpp:150] Setting up relu3_1
I1124 08:31:56.677471 18482 net.cpp:157] Top shape: 1 256 144 175 (6451200)
I1124 08:31:56.677479 18482 net.cpp:165] Memory required for data: 712340448
I1124 08:31:56.677487 18482 layer_factory.hpp:77] Creating layer conv3_2
I1124 08:31:56.677505 18482 net.cpp:100] Creating Layer conv3_2
I1124 08:31:56.677512 18482 net.cpp:434] conv3_2 <- conv3_1
I1124 08:31:56.677525 18482 net.cpp:408] conv3_2 -> conv3_2
I1124 08:31:56.685797 18482 net.cpp:150] Setting up conv3_2
I1124 08:31:56.685823 18482 net.cpp:157] Top shape: 1 256 144 175 (6451200)
I1124 08:31:56.685832 18482 net.cpp:165] Memory required for data: 738145248
I1124 08:31:56.685844 18482 layer_factory.hpp:77] Creating layer relu3_2
I1124 08:31:56.685856 18482 net.cpp:100] Creating Layer relu3_2
I1124 08:31:56.685864 18482 net.cpp:434] relu3_2 <- conv3_2
I1124 08:31:56.685878 18482 net.cpp:395] relu3_2 -> conv3_2 (in-place)
I1124 08:31:56.686137 18482 net.cpp:150] Setting up relu3_2
I1124 08:31:56.686152 18482 net.cpp:157] Top shape: 1 256 144 175 (6451200)
I1124 08:31:56.686159 18482 net.cpp:165] Memory required for data: 763950048
I1124 08:31:56.686167 18482 layer_factory.hpp:77] Creating layer conv3_3
I1124 08:31:56.686189 18482 net.cpp:100] Creating Layer conv3_3
I1124 08:31:56.686197 18482 net.cpp:434] conv3_3 <- conv3_2
I1124 08:31:56.686209 18482 net.cpp:408] conv3_3 -> conv3_3
I1124 08:31:56.694476 18482 net.cpp:150] Setting up conv3_3
I1124 08:31:56.694501 18482 net.cpp:157] Top shape: 1 256 144 175 (6451200)
I1124 08:31:56.694511 18482 net.cpp:165] Memory required for data: 789754848
I1124 08:31:56.694525 18482 layer_factory.hpp:77] Creating layer relu3_3
I1124 08:31:56.694536 18482 net.cpp:100] Creating Layer relu3_3
I1124 08:31:56.694545 18482 net.cpp:434] relu3_3 <- conv3_3
I1124 08:31:56.694555 18482 net.cpp:395] relu3_3 -> conv3_3 (in-place)
I1124 08:31:56.695019 18482 net.cpp:150] Setting up relu3_3
I1124 08:31:56.695036 18482 net.cpp:157] Top shape: 1 256 144 175 (6451200)
I1124 08:31:56.695044 18482 net.cpp:165] Memory required for data: 815559648
I1124 08:31:56.695051 18482 layer_factory.hpp:77] Creating layer pool3
I1124 08:31:56.695066 18482 net.cpp:100] Creating Layer pool3
I1124 08:31:56.695075 18482 net.cpp:434] pool3 <- conv3_3
I1124 08:31:56.695086 18482 net.cpp:408] pool3 -> pool3
I1124 08:31:56.695152 18482 net.cpp:150] Setting up pool3
I1124 08:31:56.695163 18482 net.cpp:157] Top shape: 1 256 72 88 (1622016)
I1124 08:31:56.695170 18482 net.cpp:165] Memory required for data: 822047712
I1124 08:31:56.695184 18482 layer_factory.hpp:77] Creating layer pool3_pool3_0_split
I1124 08:31:56.695196 18482 net.cpp:100] Creating Layer pool3_pool3_0_split
I1124 08:31:56.695204 18482 net.cpp:434] pool3_pool3_0_split <- pool3
I1124 08:31:56.695216 18482 net.cpp:408] pool3_pool3_0_split -> pool3_pool3_0_split_0
I1124 08:31:56.695227 18482 net.cpp:408] pool3_pool3_0_split -> pool3_pool3_0_split_1
I1124 08:31:56.695294 18482 net.cpp:150] Setting up pool3_pool3_0_split
I1124 08:31:56.695308 18482 net.cpp:157] Top shape: 1 256 72 88 (1622016)
I1124 08:31:56.695317 18482 net.cpp:157] Top shape: 1 256 72 88 (1622016)
I1124 08:31:56.695324 18482 net.cpp:165] Memory required for data: 835023840
I1124 08:31:56.695332 18482 layer_factory.hpp:77] Creating layer conv4_1
I1124 08:31:56.695348 18482 net.cpp:100] Creating Layer conv4_1
I1124 08:31:56.695355 18482 net.cpp:434] conv4_1 <- pool3_pool3_0_split_0
I1124 08:31:56.695368 18482 net.cpp:408] conv4_1 -> conv4_1
I1124 08:31:56.711967 18482 net.cpp:150] Setting up conv4_1
I1124 08:31:56.712023 18482 net.cpp:157] Top shape: 1 512 72 88 (3244032)
I1124 08:31:56.712031 18482 net.cpp:165] Memory required for data: 847999968
I1124 08:31:56.712049 18482 layer_factory.hpp:77] Creating layer relu4_1
I1124 08:31:56.712064 18482 net.cpp:100] Creating Layer relu4_1
I1124 08:31:56.712074 18482 net.cpp:434] relu4_1 <- conv4_1
I1124 08:31:56.712090 18482 net.cpp:395] relu4_1 -> conv4_1 (in-place)
I1124 08:31:56.712568 18482 net.cpp:150] Setting up relu4_1
I1124 08:31:56.712587 18482 net.cpp:157] Top shape: 1 512 72 88 (3244032)
I1124 08:31:56.712594 18482 net.cpp:165] Memory required for data: 860976096
I1124 08:31:56.712602 18482 layer_factory.hpp:77] Creating layer conv4_2
I1124 08:31:56.712622 18482 net.cpp:100] Creating Layer conv4_2
I1124 08:31:56.712630 18482 net.cpp:434] conv4_2 <- conv4_1
I1124 08:31:56.712646 18482 net.cpp:408] conv4_2 -> conv4_2
I1124 08:31:56.743654 18482 net.cpp:150] Setting up conv4_2
I1124 08:31:56.743717 18482 net.cpp:157] Top shape: 1 512 72 88 (3244032)
I1124 08:31:56.743726 18482 net.cpp:165] Memory required for data: 873952224
I1124 08:31:56.743753 18482 layer_factory.hpp:77] Creating layer relu4_2
I1124 08:31:56.743770 18482 net.cpp:100] Creating Layer relu4_2
I1124 08:31:56.743780 18482 net.cpp:434] relu4_2 <- conv4_2
I1124 08:31:56.743793 18482 net.cpp:395] relu4_2 -> conv4_2 (in-place)
I1124 08:31:56.744071 18482 net.cpp:150] Setting up relu4_2
I1124 08:31:56.744087 18482 net.cpp:157] Top shape: 1 512 72 88 (3244032)
I1124 08:31:56.744094 18482 net.cpp:165] Memory required for data: 886928352
I1124 08:31:56.744102 18482 layer_factory.hpp:77] Creating layer conv4_3
I1124 08:31:56.744123 18482 net.cpp:100] Creating Layer conv4_3
I1124 08:31:56.744132 18482 net.cpp:434] conv4_3 <- conv4_2
I1124 08:31:56.744146 18482 net.cpp:408] conv4_3 -> conv4_3
I1124 08:31:56.779541 18482 net.cpp:150] Setting up conv4_3
I1124 08:31:56.779597 18482 net.cpp:157] Top shape: 1 512 72 88 (3244032)
I1124 08:31:56.779605 18482 net.cpp:165] Memory required for data: 899904480
I1124 08:31:56.779621 18482 layer_factory.hpp:77] Creating layer relu4_3
I1124 08:31:56.779640 18482 net.cpp:100] Creating Layer relu4_3
I1124 08:31:56.779650 18482 net.cpp:434] relu4_3 <- conv4_3
I1124 08:31:56.779664 18482 net.cpp:395] relu4_3 -> conv4_3 (in-place)
I1124 08:31:56.780144 18482 net.cpp:150] Setting up relu4_3
I1124 08:31:56.780163 18482 net.cpp:157] Top shape: 1 512 72 88 (3244032)
I1124 08:31:56.780170 18482 net.cpp:165] Memory required for data: 912880608
I1124 08:31:56.780179 18482 layer_factory.hpp:77] Creating layer pool4
I1124 08:31:56.780190 18482 net.cpp:100] Creating Layer pool4
I1124 08:31:56.780199 18482 net.cpp:434] pool4 <- conv4_3
I1124 08:31:56.780212 18482 net.cpp:408] pool4 -> pool4
I1124 08:31:56.780282 18482 net.cpp:150] Setting up pool4
I1124 08:31:56.780293 18482 net.cpp:157] Top shape: 1 512 36 44 (811008)
I1124 08:31:56.780300 18482 net.cpp:165] Memory required for data: 916124640
I1124 08:31:56.780308 18482 layer_factory.hpp:77] Creating layer pool4_pool4_0_split
I1124 08:31:56.780321 18482 net.cpp:100] Creating Layer pool4_pool4_0_split
I1124 08:31:56.780328 18482 net.cpp:434] pool4_pool4_0_split <- pool4
I1124 08:31:56.780339 18482 net.cpp:408] pool4_pool4_0_split -> pool4_pool4_0_split_0
I1124 08:31:56.780351 18482 net.cpp:408] pool4_pool4_0_split -> pool4_pool4_0_split_1
I1124 08:31:56.780405 18482 net.cpp:150] Setting up pool4_pool4_0_split
I1124 08:31:56.780431 18482 net.cpp:157] Top shape: 1 512 36 44 (811008)
I1124 08:31:56.780441 18482 net.cpp:157] Top shape: 1 512 36 44 (811008)
I1124 08:31:56.780448 18482 net.cpp:165] Memory required for data: 922612704
I1124 08:31:56.780455 18482 layer_factory.hpp:77] Creating layer conv5_1
I1124 08:31:56.780474 18482 net.cpp:100] Creating Layer conv5_1
I1124 08:31:56.780483 18482 net.cpp:434] conv5_1 <- pool4_pool4_0_split_0
I1124 08:31:56.780496 18482 net.cpp:408] conv5_1 -> conv5_1
I1124 08:31:56.812307 18482 net.cpp:150] Setting up conv5_1
I1124 08:31:56.812367 18482 net.cpp:157] Top shape: 1 512 36 44 (811008)
I1124 08:31:56.812376 18482 net.cpp:165] Memory required for data: 925856736
I1124 08:31:56.812391 18482 layer_factory.hpp:77] Creating layer relu5_1
I1124 08:31:56.812409 18482 net.cpp:100] Creating Layer relu5_1
I1124 08:31:56.812419 18482 net.cpp:434] relu5_1 <- conv5_1
I1124 08:31:56.812432 18482 net.cpp:395] relu5_1 -> conv5_1 (in-place)
I1124 08:31:56.812918 18482 net.cpp:150] Setting up relu5_1
I1124 08:31:56.812937 18482 net.cpp:157] Top shape: 1 512 36 44 (811008)
I1124 08:31:56.812944 18482 net.cpp:165] Memory required for data: 929100768
I1124 08:31:56.812952 18482 layer_factory.hpp:77] Creating layer conv5_2
I1124 08:31:56.812976 18482 net.cpp:100] Creating Layer conv5_2
I1124 08:31:56.812984 18482 net.cpp:434] conv5_2 <- conv5_1
I1124 08:31:56.812996 18482 net.cpp:408] conv5_2 -> conv5_2
I1124 08:31:56.839678 18482 net.cpp:150] Setting up conv5_2
I1124 08:31:56.839725 18482 net.cpp:157] Top shape: 1 512 36 44 (811008)
I1124 08:31:56.839730 18482 net.cpp:165] Memory required for data: 932344800
I1124 08:31:56.839740 18482 layer_factory.hpp:77] Creating layer relu5_2
I1124 08:31:56.839752 18482 net.cpp:100] Creating Layer relu5_2
I1124 08:31:56.839759 18482 net.cpp:434] relu5_2 <- conv5_2
I1124 08:31:56.839768 18482 net.cpp:395] relu5_2 -> conv5_2 (in-place)
I1124 08:31:56.839977 18482 net.cpp:150] Setting up relu5_2
I1124 08:31:56.839987 18482 net.cpp:157] Top shape: 1 512 36 44 (811008)
I1124 08:31:56.839993 18482 net.cpp:165] Memory required for data: 935588832
I1124 08:31:56.839996 18482 layer_factory.hpp:77] Creating layer conv5_3
I1124 08:31:56.840016 18482 net.cpp:100] Creating Layer conv5_3
I1124 08:31:56.840023 18482 net.cpp:434] conv5_3 <- conv5_2
I1124 08:31:56.840032 18482 net.cpp:408] conv5_3 -> conv5_3
I1124 08:31:56.859750 18482 net.cpp:150] Setting up conv5_3
I1124 08:31:56.859796 18482 net.cpp:157] Top shape: 1 512 36 44 (811008)
I1124 08:31:56.859800 18482 net.cpp:165] Memory required for data: 938832864
I1124 08:31:56.859812 18482 layer_factory.hpp:77] Creating layer relu5_3
I1124 08:31:56.859824 18482 net.cpp:100] Creating Layer relu5_3
I1124 08:31:56.859832 18482 net.cpp:434] relu5_3 <- conv5_3
I1124 08:31:56.859840 18482 net.cpp:395] relu5_3 -> conv5_3 (in-place)
I1124 08:31:56.860386 18482 net.cpp:150] Setting up relu5_3
I1124 08:31:56.860404 18482 net.cpp:157] Top shape: 1 512 36 44 (811008)
I1124 08:31:56.860409 18482 net.cpp:165] Memory required for data: 942076896
I1124 08:31:56.860414 18482 layer_factory.hpp:77] Creating layer pool5
I1124 08:31:56.860422 18482 net.cpp:100] Creating Layer pool5
I1124 08:31:56.860427 18482 net.cpp:434] pool5 <- conv5_3
I1124 08:31:56.860435 18482 net.cpp:408] pool5 -> pool5
I1124 08:31:56.860488 18482 net.cpp:150] Setting up pool5
I1124 08:31:56.860496 18482 net.cpp:157] Top shape: 1 512 18 22 (202752)
I1124 08:31:56.860502 18482 net.cpp:165] Memory required for data: 942887904
I1124 08:31:56.860505 18482 layer_factory.hpp:77] Creating layer fc6
I1124 08:31:56.860518 18482 net.cpp:100] Creating Layer fc6
I1124 08:31:56.860523 18482 net.cpp:434] fc6 <- pool5
I1124 08:31:56.860533 18482 net.cpp:408] fc6 -> fc6
I1124 08:31:57.778102 18482 net.cpp:150] Setting up fc6
I1124 08:31:57.778159 18482 net.cpp:157] Top shape: 1 4096 12 16 (786432)
I1124 08:31:57.778165 18482 net.cpp:165] Memory required for data: 946033632
I1124 08:31:57.778182 18482 layer_factory.hpp:77] Creating layer relu6
I1124 08:31:57.778213 18482 net.cpp:100] Creating Layer relu6
I1124 08:31:57.778224 18482 net.cpp:434] relu6 <- fc6
I1124 08:31:57.778234 18482 net.cpp:395] relu6 -> fc6 (in-place)
I1124 08:31:57.778617 18482 net.cpp:150] Setting up relu6
I1124 08:31:57.778633 18482 net.cpp:157] Top shape: 1 4096 12 16 (786432)
I1124 08:31:57.778638 18482 net.cpp:165] Memory required for data: 949179360
I1124 08:31:57.778643 18482 layer_factory.hpp:77] Creating layer drop6
I1124 08:31:57.778657 18482 net.cpp:100] Creating Layer drop6
I1124 08:31:57.778662 18482 net.cpp:434] drop6 <- fc6
I1124 08:31:57.778671 18482 net.cpp:395] drop6 -> fc6 (in-place)
I1124 08:31:57.778707 18482 net.cpp:150] Setting up drop6
I1124 08:31:57.778715 18482 net.cpp:157] Top shape: 1 4096 12 16 (786432)
I1124 08:31:57.778719 18482 net.cpp:165] Memory required for data: 952325088
I1124 08:31:57.778723 18482 layer_factory.hpp:77] Creating layer fc7
I1124 08:31:57.778743 18482 net.cpp:100] Creating Layer fc7
I1124 08:31:57.778748 18482 net.cpp:434] fc7 <- fc6
I1124 08:31:57.778754 18482 net.cpp:408] fc7 -> fc7
I1124 08:31:57.947408 18482 net.cpp:150] Setting up fc7
I1124 08:31:57.947470 18482 net.cpp:157] Top shape: 1 4096 12 16 (786432)
I1124 08:31:57.947484 18482 net.cpp:165] Memory required for data: 955470816
I1124 08:31:57.947506 18482 layer_factory.hpp:77] Creating layer relu7
I1124 08:31:57.947533 18482 net.cpp:100] Creating Layer relu7
I1124 08:31:57.947547 18482 net.cpp:434] relu7 <- fc7
I1124 08:31:57.947562 18482 net.cpp:395] relu7 -> fc7 (in-place)
I1124 08:31:57.947934 18482 net.cpp:150] Setting up relu7
I1124 08:31:57.947953 18482 net.cpp:157] Top shape: 1 4096 12 16 (786432)
I1124 08:31:57.947964 18482 net.cpp:165] Memory required for data: 958616544
I1124 08:31:57.947974 18482 layer_factory.hpp:77] Creating layer drop7
I1124 08:31:57.947994 18482 net.cpp:100] Creating Layer drop7
I1124 08:31:57.948006 18482 net.cpp:434] drop7 <- fc7
I1124 08:31:57.948019 18482 net.cpp:395] drop7 -> fc7 (in-place)
I1124 08:31:57.948076 18482 net.cpp:150] Setting up drop7
I1124 08:31:57.948089 18482 net.cpp:157] Top shape: 1 4096 12 16 (786432)
I1124 08:31:57.948096 18482 net.cpp:165] Memory required for data: 961762272
I1124 08:31:57.948101 18482 layer_factory.hpp:77] Creating layer score_fr
I1124 08:31:57.948127 18482 net.cpp:100] Creating Layer score_fr
I1124 08:31:57.948138 18482 net.cpp:434] score_fr <- fc7
I1124 08:31:57.948169 18482 net.cpp:408] score_fr -> score_fr
I1124 08:31:57.950592 18482 net.cpp:150] Setting up score_fr
I1124 08:31:57.950640 18482 net.cpp:157] Top shape: 1 6 12 16 (1152)
I1124 08:31:57.950654 18482 net.cpp:165] Memory required for data: 961766880
I1124 08:31:57.950672 18482 layer_factory.hpp:77] Creating layer upscore2
I1124 08:31:57.950714 18482 net.cpp:100] Creating Layer upscore2
I1124 08:31:57.950728 18482 net.cpp:434] upscore2 <- score_fr
I1124 08:31:57.950750 18482 net.cpp:408] upscore2 -> upscore2
I1124 08:31:57.951212 18482 net.cpp:150] Setting up upscore2
I1124 08:31:57.951232 18482 net.cpp:157] Top shape: 1 6 26 34 (5304)
I1124 08:31:57.951242 18482 net.cpp:165] Memory required for data: 961788096
I1124 08:31:57.951289 18482 layer_factory.hpp:77] Creating layer upscore2_upscore2_0_split
I1124 08:31:57.951305 18482 net.cpp:100] Creating Layer upscore2_upscore2_0_split
I1124 08:31:57.951315 18482 net.cpp:434] upscore2_upscore2_0_split <- upscore2
I1124 08:31:57.951328 18482 net.cpp:408] upscore2_upscore2_0_split -> upscore2_upscore2_0_split_0
I1124 08:31:57.951342 18482 net.cpp:408] upscore2_upscore2_0_split -> upscore2_upscore2_0_split_1
I1124 08:31:57.951419 18482 net.cpp:150] Setting up upscore2_upscore2_0_split
I1124 08:31:57.951434 18482 net.cpp:157] Top shape: 1 6 26 34 (5304)
I1124 08:31:57.951447 18482 net.cpp:157] Top shape: 1 6 26 34 (5304)
I1124 08:31:57.951455 18482 net.cpp:165] Memory required for data: 961830528
I1124 08:31:57.951464 18482 layer_factory.hpp:77] Creating layer scale_pool4
I1124 08:31:57.951483 18482 net.cpp:100] Creating Layer scale_pool4
I1124 08:31:57.951494 18482 net.cpp:434] scale_pool4 <- pool4_pool4_0_split_1
I1124 08:31:57.951529 18482 net.cpp:408] scale_pool4 -> scale_pool4
I1124 08:31:57.951752 18482 net.cpp:150] Setting up scale_pool4
I1124 08:31:57.951773 18482 net.cpp:157] Top shape: 1 512 36 44 (811008)
I1124 08:31:57.951781 18482 net.cpp:165] Memory required for data: 965074560
I1124 08:31:57.951792 18482 layer_factory.hpp:77] Creating layer score_pool4
I1124 08:31:57.951817 18482 net.cpp:100] Creating Layer score_pool4
I1124 08:31:57.951828 18482 net.cpp:434] score_pool4 <- scale_pool4
I1124 08:31:57.951845 18482 net.cpp:408] score_pool4 -> score_pool4
I1124 08:31:57.954114 18482 net.cpp:150] Setting up score_pool4
I1124 08:31:57.954150 18482 net.cpp:157] Top shape: 1 6 36 44 (9504)
I1124 08:31:57.954164 18482 net.cpp:165] Memory required for data: 965112576
I1124 08:31:57.954181 18482 layer_factory.hpp:77] Creating layer score_pool4c
I1124 08:31:57.954206 18482 net.cpp:100] Creating Layer score_pool4c
I1124 08:31:57.954219 18482 net.cpp:434] score_pool4c <- score_pool4
I1124 08:31:57.954232 18482 net.cpp:434] score_pool4c <- upscore2_upscore2_0_split_0
I1124 08:31:57.954246 18482 net.cpp:408] score_pool4c -> score_pool4c
I1124 08:31:57.954306 18482 net.cpp:150] Setting up score_pool4c
I1124 08:31:57.954321 18482 net.cpp:157] Top shape: 1 6 26 34 (5304)
I1124 08:31:57.954330 18482 net.cpp:165] Memory required for data: 965133792
I1124 08:31:57.954339 18482 layer_factory.hpp:77] Creating layer fuse_pool4
I1124 08:31:57.954355 18482 net.cpp:100] Creating Layer fuse_pool4
I1124 08:31:57.954366 18482 net.cpp:434] fuse_pool4 <- upscore2_upscore2_0_split_1
I1124 08:31:57.954380 18482 net.cpp:434] fuse_pool4 <- score_pool4c
I1124 08:31:57.954394 18482 net.cpp:408] fuse_pool4 -> fuse_pool4
I1124 08:31:57.954445 18482 net.cpp:150] Setting up fuse_pool4
I1124 08:31:57.954459 18482 net.cpp:157] Top shape: 1 6 26 34 (5304)
I1124 08:31:57.954468 18482 net.cpp:165] Memory required for data: 965155008
I1124 08:31:57.954475 18482 layer_factory.hpp:77] Creating layer upscore_pool4
I1124 08:31:57.954495 18482 net.cpp:100] Creating Layer upscore_pool4
I1124 08:31:57.954505 18482 net.cpp:434] upscore_pool4 <- fuse_pool4
I1124 08:31:57.954519 18482 net.cpp:408] upscore_pool4 -> upscore_pool4
I1124 08:31:57.954931 18482 net.cpp:150] Setting up upscore_pool4
I1124 08:31:57.954946 18482 net.cpp:157] Top shape: 1 6 54 70 (22680)
I1124 08:31:57.954955 18482 net.cpp:165] Memory required for data: 965245728
I1124 08:31:57.954967 18482 layer_factory.hpp:77] Creating layer upscore_pool4_upscore_pool4_0_split
I1124 08:31:57.954982 18482 net.cpp:100] Creating Layer upscore_pool4_upscore_pool4_0_split
I1124 08:31:57.954990 18482 net.cpp:434] upscore_pool4_upscore_pool4_0_split <- upscore_pool4
I1124 08:31:57.955001 18482 net.cpp:408] upscore_pool4_upscore_pool4_0_split -> upscore_pool4_upscore_pool4_0_split_0
I1124 08:31:57.955015 18482 net.cpp:408] upscore_pool4_upscore_pool4_0_split -> upscore_pool4_upscore_pool4_0_split_1
I1124 08:31:57.955087 18482 net.cpp:150] Setting up upscore_pool4_upscore_pool4_0_split
I1124 08:31:57.955106 18482 net.cpp:157] Top shape: 1 6 54 70 (22680)
I1124 08:31:57.955121 18482 net.cpp:157] Top shape: 1 6 54 70 (22680)
I1124 08:31:57.955132 18482 net.cpp:165] Memory required for data: 965427168
I1124 08:31:57.955142 18482 layer_factory.hpp:77] Creating layer scale_pool3
I1124 08:31:57.955162 18482 net.cpp:100] Creating Layer scale_pool3
I1124 08:31:57.955171 18482 net.cpp:434] scale_pool3 <- pool3_pool3_0_split_1
I1124 08:31:57.955193 18482 net.cpp:408] scale_pool3 -> scale_pool3
I1124 08:31:57.955394 18482 net.cpp:150] Setting up scale_pool3
I1124 08:31:57.955409 18482 net.cpp:157] Top shape: 1 256 72 88 (1622016)
I1124 08:31:57.955416 18482 net.cpp:165] Memory required for data: 971915232
I1124 08:31:57.955428 18482 layer_factory.hpp:77] Creating layer score_pool3
I1124 08:31:57.955449 18482 net.cpp:100] Creating Layer score_pool3
I1124 08:31:57.955461 18482 net.cpp:434] score_pool3 <- scale_pool3
I1124 08:31:57.955478 18482 net.cpp:408] score_pool3 -> score_pool3
I1124 08:31:57.957687 18482 net.cpp:150] Setting up score_pool3
I1124 08:31:57.957736 18482 net.cpp:157] Top shape: 1 6 72 88 (38016)
I1124 08:31:57.957749 18482 net.cpp:165] Memory required for data: 972067296
I1124 08:31:57.957767 18482 layer_factory.hpp:77] Creating layer score_pool3c
I1124 08:31:57.957785 18482 net.cpp:100] Creating Layer score_pool3c
I1124 08:31:57.957798 18482 net.cpp:434] score_pool3c <- score_pool3
I1124 08:31:57.957809 18482 net.cpp:434] score_pool3c <- upscore_pool4_upscore_pool4_0_split_0
I1124 08:31:57.957826 18482 net.cpp:408] score_pool3c -> score_pool3c
I1124 08:31:57.957901 18482 net.cpp:150] Setting up score_pool3c
I1124 08:31:57.957916 18482 net.cpp:157] Top shape: 1 6 54 70 (22680)
I1124 08:31:57.957924 18482 net.cpp:165] Memory required for data: 972158016
I1124 08:31:57.957933 18482 layer_factory.hpp:77] Creating layer fuse_pool3
I1124 08:31:57.957947 18482 net.cpp:100] Creating Layer fuse_pool3
I1124 08:31:57.957957 18482 net.cpp:434] fuse_pool3 <- upscore_pool4_upscore_pool4_0_split_1
I1124 08:31:57.957967 18482 net.cpp:434] fuse_pool3 <- score_pool3c
I1124 08:31:57.957978 18482 net.cpp:408] fuse_pool3 -> fuse_pool3
I1124 08:31:57.958027 18482 net.cpp:150] Setting up fuse_pool3
I1124 08:31:57.958041 18482 net.cpp:157] Top shape: 1 6 54 70 (22680)
I1124 08:31:57.958050 18482 net.cpp:165] Memory required for data: 972248736
I1124 08:31:57.958057 18482 layer_factory.hpp:77] Creating layer upscore8
I1124 08:31:57.958075 18482 net.cpp:100] Creating Layer upscore8
I1124 08:31:57.958084 18482 net.cpp:434] upscore8 <- fuse_pool3
I1124 08:31:57.958101 18482 net.cpp:408] upscore8 -> upscore8
I1124 08:31:57.958612 18482 net.cpp:150] Setting up upscore8
I1124 08:31:57.958628 18482 net.cpp:157] Top shape: 1 6 440 568 (1499520)
I1124 08:31:57.958637 18482 net.cpp:165] Memory required for data: 978246816
I1124 08:31:57.958648 18482 layer_factory.hpp:77] Creating layer score
I1124 08:31:57.958668 18482 net.cpp:100] Creating Layer score
I1124 08:31:57.958678 18482 net.cpp:434] score <- upscore8
I1124 08:31:57.958691 18482 net.cpp:434] score <- data_data_0_split_1
I1124 08:31:57.958703 18482 net.cpp:408] score -> score
I1124 08:31:57.958751 18482 net.cpp:150] Setting up score
I1124 08:31:57.958766 18482 net.cpp:157] Top shape: 1 6 375 500 (1125000)
I1124 08:31:57.958775 18482 net.cpp:165] Memory required for data: 982746816
I1124 08:31:57.958786 18482 layer_factory.hpp:77] Creating layer loss
I1124 08:31:57.958809 18482 net.cpp:100] Creating Layer loss
I1124 08:31:57.958823 18482 net.cpp:434] loss <- score
I1124 08:31:57.958837 18482 net.cpp:434] loss <- label
I1124 08:31:57.958858 18482 net.cpp:408] loss -> loss
I1124 08:31:57.958884 18482 layer_factory.hpp:77] Creating layer loss
…
I1124 08:31:57.964159 18482 net.cpp:283] Network initialization done.
I1124 08:31:57.976472 18482 solver.cpp:181] Creating test net (#0) specified by test_net file: val.prototxt
I1124 08:31:57.977238 18482 net.cpp:58] Initializing net from parameters: 
state {
  phase: TEST
}
layer {
  name: "data"
  type: "Python"
  top: "data"
  top: "label"
  python_param {
    module: "voc_layers"
    layer: "PartialVOCSegDataLayer"
    param_str: "{\'voc_dir\': \'../data/pascal-obfuscated/VOC2011\', \'seed\': 1337, \'split\': \'seg11valid5\', \'mean\': (104.00699, 116.66877, 122.67892)}"
  }
}
layer {
  name: "conv1_1"
  type: "Convolution"
  bottom: "data"
  top: "conv1_1"
  param {
    lr_mult: 1
    decay_mult: 1
  }
  param {
    lr_mult: 2
    decay_mult: 0
  }
  convolution_param {
    num_output: 64
    pad: 100
    kernel_size: 3
    stride: 1
    weight_filler {
      type: "xavier"
    }
  }
}
layer {
  name: "relu1_1"
  type: "ReLU"
  bottom: "conv1_1"
  top: "conv1_1"
}
layer {
  name: "conv1_2"
  type: "Convolution"
  bottom: "conv1_1"
  top: "conv1_2"
  param {
    lr_mult: 1
    decay_mult: 1
  }
  param {
    lr_mult: 2
    decay_mult: 0
  }
  convolution_param {
    num_output: 64
    pad: 1
    kernel_size: 3
    stride: 1
    weight_filler {
      type: "xavier"
    }
  }
}
layer {
  name: "relu1_2"
  type: "ReLU"
  bottom: "conv1_2"
  top: "conv1_2"
}
layer {
  name: "pool1"
  type: "Pooling"
  bottom: "conv1_2"
  top: "pool1"
  pooling_param {
    pool: MAX
    kernel_size: 2
    stride: 2
  }
}
layer {
  name: "conv2_1"
  type: "Convolution"
  bottom: "pool1"
  top: "conv2_1"
  param {
    lr_mult: 1
    decay_mult: 1
  }
  param {
    lr_mult: 2
    decay_mult: 0
  }
  convolution_param {
    num_output: 128
    pad: 1
    kernel_size: 3
    stride: 1
    weight_filler {
      type: "xavier"
    }
  }
}
layer {
  name: "relu2_1"
  type: "ReLU"
  bottom: "conv2_1"
  top: "conv2_1"
}
layer {
  name: "conv2_2"
  type: "Convolution"
  bottom: "conv2_1"
  top: "conv2_2"
  param {
    lr_mult: 1
    decay_mult: 1
  }
  param {
    lr_mult: 2
    decay_mult: 0
  }
  convolution_param {
    num_output: 128
    pad: 1
    kernel_size: 3
    stride: 1
    weight_filler {
      type: "xavier"
    }
  }
}
layer {
  name: "relu2_2"
  type: "ReLU"
  bottom: "conv2_2"
  top: "conv2_2"
}
layer {
  name: "pool2"
  type: "Pooling"
  bottom: "conv2_2"
  top: "pool2"
  pooling_param {
    pool: MAX
    kernel_size: 2
    stride: 2
  }
}
layer {
  name: "conv3_1"
  type: "Convolution"
  bottom: "pool2"
  top: "conv3_1"
  param {
    lr_mult: 1
    decay_mult: 1
  }
  param {
    lr_mult: 2
    decay_mult: 0
  }
  convolution_param {
    num_output: 256
    pad: 1
    kernel_size: 3
    stride: 1
    weight_filler {
      type: "xavier"
    }
  }
}
layer {
  name: "relu3_1"
  type: "ReLU"
  bottom: "conv3_1"
  top: "conv3_1"
}
layer {
  name: "conv3_2"
  type: "Convolution"
  bottom: "conv3_1"
  top: "conv3_2"
  param {
    lr_mult: 1
    decay_mult: 1
  }
  param {
    lr_mult: 2
    decay_mult: 0
  }
  convolution_param {
    num_output: 256
    pad: 1
    kernel_size: 3
    stride: 1
    weight_filler {
      type: "xavier"
    }
  }
}
layer {
  name: "relu3_2"
  type: "ReLU"
  bottom: "conv3_2"
  top: "conv3_2"
}
layer {
  name: "conv3_3"
  type: "Convolution"
  bottom: "conv3_2"
  top: "conv3_3"
  param {
    lr_mult: 1
    decay_mult: 1
  }
  param {
    lr_mult: 2
    decay_mult: 0
  }
  convolution_param {
    num_output: 256
    pad: 1
    kernel_size: 3
    stride: 1
    weight_filler {
      type: "xavier"
    }
  }
}
layer {
  name: "relu3_3"
  type: "ReLU"
  bottom: "conv3_3"
  top: "conv3_3"
}
layer {
  name: "pool3"
  type: "Pooling"
  bottom: "conv3_3"
  top: "pool3"
  pooling_param {
    pool: MAX
    kernel_size: 2
    stride: 2
  }
}
layer {
  name: "conv4_1"
  type: "Convolution"
  bottom: "pool3"
  top: "conv4_1"
  param {
    lr_mult: 1
    decay_mult: 1
  }
  param {
    lr_mult: 2
    decay_mult: 0
  }
  convolution_param {
    num_output: 512
    pad: 1
    kernel_size: 3
    stride: 1
    weight_filler {
      type: "xavier"
    }
  }
}
layer {
  name: "relu4_1"
  type: "ReLU"
  bottom: "conv4_1"
  top: "conv4_1"
}
layer {
  name: "conv4_2"
  type: "Convolution"
  bottom: "conv4_1"
  top: "conv4_2"
  param {
    lr_mult: 1
    decay_mult: 1
  }
  param {
    lr_mult: 2
    decay_mult: 0
  }
  convolution_param {
    num_output: 512
    pad: 1
    kernel_size: 3
    stride: 1
    weight_filler {
      type: "xavier"
    }
  }
}
layer {
  name: "relu4_2"
  type: "ReLU"
  bottom: "conv4_2"
  top: "conv4_2"
}
layer {
  name: "conv4_3"
  type: "Convolution"
  bottom: "conv4_2"
  top: "conv4_3"
  param {
    lr_mult: 1
    decay_mult: 1
  }
  param {
    lr_mult: 2
    decay_mult: 0
  }
  convolution_param {
    num_output: 512
    pad: 1
    kernel_size: 3
    stride: 1
    weight_filler {
      type: "xavier"
    }
  }
}
layer {
  name: "relu4_3"
  type: "ReLU"
  bottom: "conv4_3"
  top: "conv4_3"
}
layer {
  name: "pool4"
  type: "Pooling"
  bottom: "conv4_3"
  top: "pool4"
  pooling_param {
    pool: MAX
    kernel_size: 2
    stride: 2
  }
}
layer {
  name: "conv5_1"
  type: "Convolution"
  bottom: "pool4"
  top: "conv5_1"
  param {
    lr_mult: 1
    decay_mult: 1
  }
  param {
    lr_mult: 2
    decay_mult: 0
  }
  convolution_param {
    num_output: 512
    pad: 1
    kernel_size: 3
    stride: 1
    weight_filler {
      type: "xavier"
    }
  }
}
layer {
  name: "relu5_1"
  type: "ReLU"
  bottom: "conv5_1"
  top: "conv5_1"
}
layer {
  name: "conv5_2"
  type: "Convolution"
  bottom: "conv5_1"
  top: "conv5_2"
  param {
    lr_mult: 1
    decay_mult: 1
  }
  param {
    lr_mult: 2
    decay_mult: 0
  }
  convolution_param {
    num_output: 512
    pad: 1
    kernel_size: 3
    stride: 1
    weight_filler {
      type: "xavier"
    }
  }
}
layer {
  name: "relu5_2"
  type: "ReLU"
  bottom: "conv5_2"
  top: "conv5_2"
}
layer {
  name: "conv5_3"
  type: "Convolution"
  bottom: "conv5_2"
  top: "conv5_3"
  param {
    lr_mult: 1
    decay_mult: 1
  }
  param {
    lr_mult: 2
    decay_mult: 0
  }
  convolution_param {
    num_output: 512
    pad: 1
    kernel_size: 3
    stride: 1
    weight_filler {
      type: "xavier"
    }
  }
}
layer {
  name: "relu5_3"
  type: "ReLU"
  bottom: "conv5_3"
  top: "conv5_3"
}
layer {
  name: "pool5"
  type: "Pooling"
  bottom: "conv5_3"
  top: "pool5"
  pooling_param {
    pool: MAX
    kernel_size: 2
    stride: 2
  }
}
layer {
  name: "fc6"
  type: "Convolution"
  bottom: "pool5"
  top: "fc6"
  param {
    lr_mult: 1
    decay_mult: 1
  }
  param {
    lr_mult: 2
    decay_mult: 0
  }
  convolution_param {
    num_output: 4096
    pad: 0
    kernel_size: 7
    stride: 1
    weight_filler {
      type: "xavier"
    }
  }
}
layer {
  name: "relu6"
  type: "ReLU"
  bottom: "fc6"
  top: "fc6"
}
layer {
  name: "drop6"
  type: "Dropout"
  bottom: "fc6"
  top: "fc6"
  dropout_param {
    dropout_ratio: 0.5
  }
}
layer {
  name: "fc7"
  type: "Convolution"
  bottom: "fc6"
  top: "fc7"
  param {
    lr_mult: 1
    decay_mult: 1
  }
  param {
    lr_mult: 2
    decay_mult: 0
  }
  convolution_param {
    num_output: 4096
    pad: 0
    kernel_size: 1
    stride: 1
    weight_filler {
      type: "xavier"
    }
  }
}
layer {
  name: "relu7"
  type: "ReLU"
  bottom: "fc7"
  top: "fc7"
}
layer {
  name: "drop7"
  type: "Dropout"
  bottom: "fc7"
  top: "fc7"
  dropout_param {
    dropout_ratio: 0.5
  }
}
layer {
  name: "score_fr"
  type: "Convolution"
  bottom: "fc7"
  top: "score_fr"
  param {
    lr_mult: 1
    decay_mult: 1
  }
  param {
    lr_mult: 2
    decay_mult: 0
  }
  convolution_param {
    num_output: 6
    pad: 0
    kernel_size: 1
    weight_filler {
      type: "xavier"
    }
  }
}
layer {
  name: "upscore2"
  type: "Deconvolution"
  bottom: "score_fr"
  top: "upscore2"
  param {
    lr_mult: 0
  }
  convolution_param {
    num_output: 6
    bias_term: false
    kernel_size: 4
    stride: 2
    weight_filler {
      type: "xavier"
    }
  }
}
layer {
  name: "scale_pool4"
  type: "Scale"
  bottom: "pool4"
  top: "scale_pool4"
  param {
    lr_mult: 0
  }
  scale_param {
    filler {
      type: "constant"
      value: 0.01
    }
  }
}
layer {
  name: "score_pool4"
  type: "Convolution"
  bottom: "scale_pool4"
  top: "score_pool4"
  param {
    lr_mult: 1
    decay_mult: 1
  }
  param {
    lr_mult: 2
    decay_mult: 0
  }
  convolution_param {
    num_output: 6
    pad: 0
    kernel_size: 1
    weight_filler {
      type: "xavier"
    }
  }
}
layer {
  name: "score_pool4c"
  type: "Crop"
  bottom: "score_pool4"
  bottom: "upscore2"
  top: "score_pool4c"
  crop_param {
    axis: 2
    offset: 5
  }
}
layer {
  name: "fuse_pool4"
  type: "Eltwise"
  bottom: "upscore2"
  bottom: "score_pool4c"
  top: "fuse_pool4"
  eltwise_param {
    operation: SUM
  }
}
layer {
  name: "upscore_pool4"
  type: "Deconvolution"
  bottom: "fuse_pool4"
  top: "upscore_pool4"
  param {
    lr_mult: 0
  }
  convolution_param {
    num_output: 6
    bias_term: false
    kernel_size: 4
    stride: 2
    weight_filler {
      type: "xavier"
    }
  }
}
layer {
  name: "scale_pool3"
  type: "Scale"
  bottom: "pool3"
  top: "scale_pool3"
  param {
    lr_mult: 0
  }
  scale_param {
    filler {
      type: "constant"
      value: 0.0001
    }
  }
}
layer {
  name: "score_pool3"
  type: "Convolution"
  bottom: "scale_pool3"
  top: "score_pool3"
  param {
    lr_mult: 1
    decay_mult: 1
  }
  param {
    lr_mult: 2
    decay_mult: 0
  }
  convolution_param {
    num_output: 6
    pad: 0
    kernel_size: 1
    weight_filler {
      type: "xavier"
    }
  }
}
layer {
  name: "score_pool3c"
  type: "Crop"
  bottom: "score_pool3"
  bottom: "upscore_pool4"
  top: "score_pool3c"
  crop_param {
    axis: 2
    offset: 9
  }
}
layer {
  name: "fuse_pool3"
  type: "Eltwise"
  bottom: "upscore_pool4"
  bottom: "score_pool3c"
  top: "fuse_pool3"
  eltwise_param {
    operation: SUM
  }
}
layer {
  name: "upscore8"
  type: "Deconvolution"
  bottom: "fuse_pool3"
  top: "upscore8"
  param {
    lr_mult: 0
  }
  convolution_param {
    num_output: 6
    bias_term: false
    kernel_size: 16
    stride: 8
    weight_filler {
      type: "xavier"
    }
  }
}
layer {
  name: "score"
  type: "Crop"
  bottom: "upscore8"
  bottom: "data"
  top: "score"
  crop_param {
    axis: 2
    offset: 31
  }
}
layer {
  name: "loss"
  type: "SoftmaxWithLoss"
  bottom: "score"
  bottom: "label"
  top: "loss"
  loss_param {
    ignore_label: 255
    normalize: false
  }
}
I1124 08:31:57.977648 18482 layer_factory.hpp:77] Creating layer data
I1124 08:31:57.977850 18482 net.cpp:100] Creating Layer data
I1124 08:31:57.977870 18482 net.cpp:408] data -> data
I1124 08:31:57.977891 18482 net.cpp:408] data -> label
I1124 08:31:58.034303 18482 net.cpp:150] Setting up data
I1124 08:31:58.034361 18482 net.cpp:157] Top shape: 1 3 335 500 (502500)
I1124 08:31:58.034374 18482 net.cpp:157] Top shape: 1 1 335 500 (167500)
I1124 08:31:58.034382 18482 net.cpp:165] Memory required for data: 2680000
I1124 08:31:58.034394 18482 layer_factory.hpp:77] Creating layer data_data_0_split
I1124 08:31:58.034415 18482 net.cpp:100] Creating Layer data_data_0_split
I1124 08:31:58.034425 18482 net.cpp:434] data_data_0_split <- data
I1124 08:31:58.034437 18482 net.cpp:408] data_data_0_split -> data_data_0_split_0
I1124 08:31:58.034456 18482 net.cpp:408] data_data_0_split -> data_data_0_split_1
I1124 08:31:58.034520 18482 net.cpp:150] Setting up data_data_0_split
I1124 08:31:58.034533 18482 net.cpp:157] Top shape: 1 3 335 500 (502500)
I1124 08:31:58.034543 18482 net.cpp:157] Top shape: 1 3 335 500 (502500)
I1124 08:31:58.034550 18482 net.cpp:165] Memory required for data: 6700000
I1124 08:31:58.034557 18482 layer_factory.hpp:77] Creating layer conv1_1
I1124 08:31:58.034576 18482 net.cpp:100] Creating Layer conv1_1
I1124 08:31:58.034585 18482 net.cpp:434] conv1_1 <- data_data_0_split_0
I1124 08:31:58.034596 18482 net.cpp:408] conv1_1 -> conv1_1
I1124 08:31:58.037659 18482 net.cpp:150] Setting up conv1_1
I1124 08:31:58.037689 18482 net.cpp:157] Top shape: 1 64 533 698 (23810176)
I1124 08:31:58.037700 18482 net.cpp:165] Memory required for data: 101940704
I1124 08:31:58.037721 18482 layer_factory.hpp:77] Creating layer relu1_1
I1124 08:31:58.037736 18482 net.cpp:100] Creating Layer relu1_1
I1124 08:31:58.037745 18482 net.cpp:434] relu1_1 <- conv1_1
I1124 08:31:58.037755 18482 net.cpp:395] relu1_1 -> conv1_1 (in-place)
I1124 08:31:58.038036 18482 net.cpp:150] Setting up relu1_1
I1124 08:31:58.038053 18482 net.cpp:157] Top shape: 1 64 533 698 (23810176)
I1124 08:31:58.038060 18482 net.cpp:165] Memory required for data: 197181408
I1124 08:31:58.038069 18482 layer_factory.hpp:77] Creating layer conv1_2
I1124 08:31:58.038087 18482 net.cpp:100] Creating Layer conv1_2
I1124 08:31:58.038096 18482 net.cpp:434] conv1_2 <- conv1_1
I1124 08:31:58.038108 18482 net.cpp:408] conv1_2 -> conv1_2
I1124 08:31:58.041404 18482 net.cpp:150] Setting up conv1_2
I1124 08:31:58.041446 18482 net.cpp:157] Top shape: 1 64 533 698 (23810176)
I1124 08:31:58.041456 18482 net.cpp:165] Memory required for data: 292422112
I1124 08:31:58.041477 18482 layer_factory.hpp:77] Creating layer relu1_2
I1124 08:31:58.041494 18482 net.cpp:100] Creating Layer relu1_2
I1124 08:31:58.041504 18482 net.cpp:434] relu1_2 <- conv1_2
I1124 08:31:58.041515 18482 net.cpp:395] relu1_2 -> conv1_2 (in-place)
I1124 08:31:58.042029 18482 net.cpp:150] Setting up relu1_2
I1124 08:31:58.042050 18482 net.cpp:157] Top shape: 1 64 533 698 (23810176)
I1124 08:31:58.042059 18482 net.cpp:165] Memory required for data: 387662816
I1124 08:31:58.042068 18482 layer_factory.hpp:77] Creating layer pool1
I1124 08:31:58.042083 18482 net.cpp:100] Creating Layer pool1
I1124 08:31:58.042091 18482 net.cpp:434] pool1 <- conv1_2
I1124 08:31:58.042104 18482 net.cpp:408] pool1 -> pool1
I1124 08:31:58.042184 18482 net.cpp:150] Setting up pool1
I1124 08:31:58.042197 18482 net.cpp:157] Top shape: 1 64 267 349 (5963712)
I1124 08:31:58.042206 18482 net.cpp:165] Memory required for data: 411517664
I1124 08:31:58.042212 18482 layer_factory.hpp:77] Creating layer conv2_1
I1124 08:31:58.042230 18482 net.cpp:100] Creating Layer conv2_1
I1124 08:31:58.042239 18482 net.cpp:434] conv2_1 <- pool1
I1124 08:31:58.042251 18482 net.cpp:408] conv2_1 -> conv2_1
I1124 08:31:58.045435 18482 net.cpp:150] Setting up conv2_1
I1124 08:31:58.045464 18482 net.cpp:157] Top shape: 1 128 267 349 (11927424)
I1124 08:31:58.045471 18482 net.cpp:165] Memory required for data: 459227360
I1124 08:31:58.045490 18482 layer_factory.hpp:77] Creating layer relu2_1
I1124 08:31:58.045505 18482 net.cpp:100] Creating Layer relu2_1
I1124 08:31:58.045511 18482 net.cpp:434] relu2_1 <- conv2_1
I1124 08:31:58.045521 18482 net.cpp:395] relu2_1 -> conv2_1 (in-place)
I1124 08:31:58.045985 18482 net.cpp:150] Setting up relu2_1
I1124 08:31:58.046002 18482 net.cpp:157] Top shape: 1 128 267 349 (11927424)
I1124 08:31:58.046010 18482 net.cpp:165] Memory required for data: 506937056
I1124 08:31:58.046016 18482 layer_factory.hpp:77] Creating layer conv2_2
I1124 08:31:58.046032 18482 net.cpp:100] Creating Layer conv2_2
I1124 08:31:58.046039 18482 net.cpp:434] conv2_2 <- conv2_1
I1124 08:31:58.046051 18482 net.cpp:408] conv2_2 -> conv2_2
I1124 08:31:58.049986 18482 net.cpp:150] Setting up conv2_2
I1124 08:31:58.050043 18482 net.cpp:157] Top shape: 1 128 267 349 (11927424)
I1124 08:31:58.050056 18482 net.cpp:165] Memory required for data: 554646752
I1124 08:31:58.050077 18482 layer_factory.hpp:77] Creating layer relu2_2
I1124 08:31:58.050098 18482 net.cpp:100] Creating Layer relu2_2
I1124 08:31:58.050112 18482 net.cpp:434] relu2_2 <- conv2_2
I1124 08:31:58.050125 18482 net.cpp:395] relu2_2 -> conv2_2 (in-place)
I1124 08:31:58.050457 18482 net.cpp:150] Setting up relu2_2
I1124 08:31:58.050472 18482 net.cpp:157] Top shape: 1 128 267 349 (11927424)
I1124 08:31:58.050480 18482 net.cpp:165] Memory required for data: 602356448
I1124 08:31:58.050487 18482 layer_factory.hpp:77] Creating layer pool2
I1124 08:31:58.050499 18482 net.cpp:100] Creating Layer pool2
I1124 08:31:58.050506 18482 net.cpp:434] pool2 <- conv2_2
I1124 08:31:58.050516 18482 net.cpp:408] pool2 -> pool2
I1124 08:31:58.050593 18482 net.cpp:150] Setting up pool2
I1124 08:31:58.050606 18482 net.cpp:157] Top shape: 1 128 134 175 (3001600)
I1124 08:31:58.050613 18482 net.cpp:165] Memory required for data: 614362848
I1124 08:31:58.050619 18482 layer_factory.hpp:77] Creating layer conv3_1
I1124 08:31:58.050638 18482 net.cpp:100] Creating Layer conv3_1
I1124 08:31:58.050645 18482 net.cpp:434] conv3_1 <- pool2
I1124 08:31:58.050657 18482 net.cpp:408] conv3_1 -> conv3_1
I1124 08:31:58.056785 18482 net.cpp:150] Setting up conv3_1
I1124 08:31:58.056857 18482 net.cpp:157] Top shape: 1 256 134 175 (6003200)
I1124 08:31:58.056870 18482 net.cpp:165] Memory required for data: 638375648
I1124 08:31:58.056898 18482 layer_factory.hpp:77] Creating layer relu3_1
I1124 08:31:58.056941 18482 net.cpp:100] Creating Layer relu3_1
I1124 08:31:58.056955 18482 net.cpp:434] relu3_1 <- conv3_1
I1124 08:31:58.056970 18482 net.cpp:395] relu3_1 -> conv3_1 (in-place)
I1124 08:31:58.057621 18482 net.cpp:150] Setting up relu3_1
I1124 08:31:58.057644 18482 net.cpp:157] Top shape: 1 256 134 175 (6003200)
I1124 08:31:58.057657 18482 net.cpp:165] Memory required for data: 662388448
I1124 08:31:58.057668 18482 layer_factory.hpp:77] Creating layer conv3_2
I1124 08:31:58.057688 18482 net.cpp:100] Creating Layer conv3_2
I1124 08:31:58.057696 18482 net.cpp:434] conv3_2 <- conv3_1
I1124 08:31:58.057708 18482 net.cpp:408] conv3_2 -> conv3_2
I1124 08:31:58.066378 18482 net.cpp:150] Setting up conv3_2
I1124 08:31:58.066467 18482 net.cpp:157] Top shape: 1 256 134 175 (6003200)
I1124 08:31:58.066480 18482 net.cpp:165] Memory required for data: 686401248
I1124 08:31:58.066500 18482 layer_factory.hpp:77] Creating layer relu3_2
I1124 08:31:58.066521 18482 net.cpp:100] Creating Layer relu3_2
I1124 08:31:58.066532 18482 net.cpp:434] relu3_2 <- conv3_2
I1124 08:31:58.066547 18482 net.cpp:395] relu3_2 -> conv3_2 (in-place)
I1124 08:31:58.066854 18482 net.cpp:150] Setting up relu3_2
I1124 08:31:58.066879 18482 net.cpp:157] Top shape: 1 256 134 175 (6003200)
I1124 08:31:58.066890 18482 net.cpp:165] Memory required for data: 710414048
I1124 08:31:58.066897 18482 layer_factory.hpp:77] Creating layer conv3_3
I1124 08:31:58.066922 18482 net.cpp:100] Creating Layer conv3_3
I1124 08:31:58.066936 18482 net.cpp:434] conv3_3 <- conv3_2
I1124 08:31:58.066951 18482 net.cpp:408] conv3_3 -> conv3_3
I1124 08:31:58.075614 18482 net.cpp:150] Setting up conv3_3
I1124 08:31:58.075696 18482 net.cpp:157] Top shape: 1 256 134 175 (6003200)
I1124 08:31:58.075708 18482 net.cpp:165] Memory required for data: 734426848
I1124 08:31:58.075728 18482 layer_factory.hpp:77] Creating layer relu3_3
I1124 08:31:58.075748 18482 net.cpp:100] Creating Layer relu3_3
I1124 08:31:58.075762 18482 net.cpp:434] relu3_3 <- conv3_3
I1124 08:31:58.075778 18482 net.cpp:395] relu3_3 -> conv3_3 (in-place)
I1124 08:31:58.076077 18482 net.cpp:150] Setting up relu3_3
I1124 08:31:58.076094 18482 net.cpp:157] Top shape: 1 256 134 175 (6003200)
I1124 08:31:58.076103 18482 net.cpp:165] Memory required for data: 758439648
I1124 08:31:58.076112 18482 layer_factory.hpp:77] Creating layer pool3
I1124 08:31:58.076128 18482 net.cpp:100] Creating Layer pool3
I1124 08:31:58.076138 18482 net.cpp:434] pool3 <- conv3_3
I1124 08:31:58.076150 18482 net.cpp:408] pool3 -> pool3
I1124 08:31:58.076234 18482 net.cpp:150] Setting up pool3
I1124 08:31:58.076248 18482 net.cpp:157] Top shape: 1 256 67 88 (1509376)
I1124 08:31:58.076256 18482 net.cpp:165] Memory required for data: 764477152
I1124 08:31:58.076264 18482 layer_factory.hpp:77] Creating layer pool3_pool3_0_split
I1124 08:31:58.076277 18482 net.cpp:100] Creating Layer pool3_pool3_0_split
I1124 08:31:58.076285 18482 net.cpp:434] pool3_pool3_0_split <- pool3
I1124 08:31:58.076297 18482 net.cpp:408] pool3_pool3_0_split -> pool3_pool3_0_split_0
I1124 08:31:58.076311 18482 net.cpp:408] pool3_pool3_0_split -> pool3_pool3_0_split_1
I1124 08:31:58.076385 18482 net.cpp:150] Setting up pool3_pool3_0_split
I1124 08:31:58.076398 18482 net.cpp:157] Top shape: 1 256 67 88 (1509376)
I1124 08:31:58.076408 18482 net.cpp:157] Top shape: 1 256 67 88 (1509376)
I1124 08:31:58.076416 18482 net.cpp:165] Memory required for data: 776552160
I1124 08:31:58.076424 18482 layer_factory.hpp:77] Creating layer conv4_1
I1124 08:31:58.076442 18482 net.cpp:100] Creating Layer conv4_1
I1124 08:31:58.076452 18482 net.cpp:434] conv4_1 <- pool3_pool3_0_split_0
I1124 08:31:58.076465 18482 net.cpp:408] conv4_1 -> conv4_1
I1124 08:31:58.091306 18482 net.cpp:150] Setting up conv4_1
I1124 08:31:58.091401 18482 net.cpp:157] Top shape: 1 512 67 88 (3018752)
I1124 08:31:58.091413 18482 net.cpp:165] Memory required for data: 788627168
I1124 08:31:58.091433 18482 layer_factory.hpp:77] Creating layer relu4_1
I1124 08:31:58.091452 18482 net.cpp:100] Creating Layer relu4_1
I1124 08:31:58.091464 18482 net.cpp:434] relu4_1 <- conv4_1
I1124 08:31:58.091506 18482 net.cpp:395] relu4_1 -> conv4_1 (in-place)
I1124 08:31:58.092042 18482 net.cpp:150] Setting up relu4_1
I1124 08:31:58.092063 18482 net.cpp:157] Top shape: 1 512 67 88 (3018752)
I1124 08:31:58.092073 18482 net.cpp:165] Memory required for data: 800702176
I1124 08:31:58.092082 18482 layer_factory.hpp:77] Creating layer conv4_2
I1124 08:31:58.092105 18482 net.cpp:100] Creating Layer conv4_2
I1124 08:31:58.092115 18482 net.cpp:434] conv4_2 <- conv4_1
I1124 08:31:58.092131 18482 net.cpp:408] conv4_2 -> conv4_2
I1124 08:31:58.119937 18482 net.cpp:150] Setting up conv4_2
I1124 08:31:58.120025 18482 net.cpp:157] Top shape: 1 512 67 88 (3018752)
I1124 08:31:58.120038 18482 net.cpp:165] Memory required for data: 812777184
I1124 08:31:58.120067 18482 layer_factory.hpp:77] Creating layer relu4_2
I1124 08:31:58.120090 18482 net.cpp:100] Creating Layer relu4_2
I1124 08:31:58.120101 18482 net.cpp:434] relu4_2 <- conv4_2
I1124 08:31:58.120117 18482 net.cpp:395] relu4_2 -> conv4_2 (in-place)
I1124 08:31:58.120424 18482 net.cpp:150] Setting up relu4_2
I1124 08:31:58.120441 18482 net.cpp:157] Top shape: 1 512 67 88 (3018752)
I1124 08:31:58.120450 18482 net.cpp:165] Memory required for data: 824852192
I1124 08:31:58.120458 18482 layer_factory.hpp:77] Creating layer conv4_3
I1124 08:31:58.120479 18482 net.cpp:100] Creating Layer conv4_3
I1124 08:31:58.120488 18482 net.cpp:434] conv4_3 <- conv4_2
I1124 08:31:58.120503 18482 net.cpp:408] conv4_3 -> conv4_3
I1124 08:31:58.148821 18482 net.cpp:150] Setting up conv4_3
I1124 08:31:58.148895 18482 net.cpp:157] Top shape: 1 512 67 88 (3018752)
I1124 08:31:58.148907 18482 net.cpp:165] Memory required for data: 836927200
I1124 08:31:58.148926 18482 layer_factory.hpp:77] Creating layer relu4_3
I1124 08:31:58.148947 18482 net.cpp:100] Creating Layer relu4_3
I1124 08:31:58.148959 18482 net.cpp:434] relu4_3 <- conv4_3
I1124 08:31:58.148975 18482 net.cpp:395] relu4_3 -> conv4_3 (in-place)
I1124 08:31:58.149293 18482 net.cpp:150] Setting up relu4_3
I1124 08:31:58.149312 18482 net.cpp:157] Top shape: 1 512 67 88 (3018752)
I1124 08:31:58.149320 18482 net.cpp:165] Memory required for data: 849002208
I1124 08:31:58.149329 18482 layer_factory.hpp:77] Creating layer pool4
I1124 08:31:58.149343 18482 net.cpp:100] Creating Layer pool4
I1124 08:31:58.149351 18482 net.cpp:434] pool4 <- conv4_3
I1124 08:31:58.149364 18482 net.cpp:408] pool4 -> pool4
I1124 08:31:58.149452 18482 net.cpp:150] Setting up pool4
I1124 08:31:58.149467 18482 net.cpp:157] Top shape: 1 512 34 44 (765952)
I1124 08:31:58.149476 18482 net.cpp:165] Memory required for data: 852066016
I1124 08:31:58.149483 18482 layer_factory.hpp:77] Creating layer pool4_pool4_0_split
I1124 08:31:58.149497 18482 net.cpp:100] Creating Layer pool4_pool4_0_split
I1124 08:31:58.149505 18482 net.cpp:434] pool4_pool4_0_split <- pool4
I1124 08:31:58.149518 18482 net.cpp:408] pool4_pool4_0_split -> pool4_pool4_0_split_0
I1124 08:31:58.149531 18482 net.cpp:408] pool4_pool4_0_split -> pool4_pool4_0_split_1
I1124 08:31:58.149606 18482 net.cpp:150] Setting up pool4_pool4_0_split
I1124 08:31:58.149621 18482 net.cpp:157] Top shape: 1 512 34 44 (765952)
I1124 08:31:58.149631 18482 net.cpp:157] Top shape: 1 512 34 44 (765952)
I1124 08:31:58.149641 18482 net.cpp:165] Memory required for data: 858193632
I1124 08:31:58.149651 18482 layer_factory.hpp:77] Creating layer conv5_1
I1124 08:31:58.149675 18482 net.cpp:100] Creating Layer conv5_1
I1124 08:31:58.149685 18482 net.cpp:434] conv5_1 <- pool4_pool4_0_split_0
I1124 08:31:58.149704 18482 net.cpp:408] conv5_1 -> conv5_1
I1124 08:31:58.174129 18482 net.cpp:150] Setting up conv5_1
I1124 08:31:58.174183 18482 net.cpp:157] Top shape: 1 512 34 44 (765952)
I1124 08:31:58.174188 18482 net.cpp:165] Memory required for data: 861257440
I1124 08:31:58.174201 18482 layer_factory.hpp:77] Creating layer relu5_1
I1124 08:31:58.174216 18482 net.cpp:100] Creating Layer relu5_1
I1124 08:31:58.174222 18482 net.cpp:434] relu5_1 <- conv5_1
I1124 08:31:58.174232 18482 net.cpp:395] relu5_1 -> conv5_1 (in-place)
I1124 08:31:58.174669 18482 net.cpp:150] Setting up relu5_1
I1124 08:31:58.174685 18482 net.cpp:157] Top shape: 1 512 34 44 (765952)
I1124 08:31:58.174690 18482 net.cpp:165] Memory required for data: 864321248
I1124 08:31:58.174696 18482 layer_factory.hpp:77] Creating layer conv5_2
I1124 08:31:58.174710 18482 net.cpp:100] Creating Layer conv5_2
I1124 08:31:58.174715 18482 net.cpp:434] conv5_2 <- conv5_1
I1124 08:31:58.174724 18482 net.cpp:408] conv5_2 -> conv5_2
I1124 08:31:58.194622 18482 net.cpp:150] Setting up conv5_2
I1124 08:31:58.194669 18482 net.cpp:157] Top shape: 1 512 34 44 (765952)
I1124 08:31:58.194674 18482 net.cpp:165] Memory required for data: 867385056
I1124 08:31:58.194686 18482 layer_factory.hpp:77] Creating layer relu5_2
I1124 08:31:58.194700 18482 net.cpp:100] Creating Layer relu5_2
I1124 08:31:58.194707 18482 net.cpp:434] relu5_2 <- conv5_2
I1124 08:31:58.194716 18482 net.cpp:395] relu5_2 -> conv5_2 (in-place)
I1124 08:31:58.194918 18482 net.cpp:150] Setting up relu5_2
I1124 08:31:58.194929 18482 net.cpp:157] Top shape: 1 512 34 44 (765952)
I1124 08:31:58.194933 18482 net.cpp:165] Memory required for data: 870448864
I1124 08:31:58.194938 18482 layer_factory.hpp:77] Creating layer conv5_3
I1124 08:31:58.194957 18482 net.cpp:100] Creating Layer conv5_3
I1124 08:31:58.194962 18482 net.cpp:434] conv5_3 <- conv5_2
I1124 08:31:58.194972 18482 net.cpp:408] conv5_3 -> conv5_3
I1124 08:31:58.216558 18482 net.cpp:150] Setting up conv5_3
I1124 08:31:58.216606 18482 net.cpp:157] Top shape: 1 512 34 44 (765952)
I1124 08:31:58.216612 18482 net.cpp:165] Memory required for data: 873512672
I1124 08:31:58.216624 18482 layer_factory.hpp:77] Creating layer relu5_3
I1124 08:31:58.216637 18482 net.cpp:100] Creating Layer relu5_3
I1124 08:31:58.216645 18482 net.cpp:434] relu5_3 <- conv5_3
I1124 08:31:58.216655 18482 net.cpp:395] relu5_3 -> conv5_3 (in-place)
I1124 08:31:58.216858 18482 net.cpp:150] Setting up relu5_3
I1124 08:31:58.216869 18482 net.cpp:157] Top shape: 1 512 34 44 (765952)
I1124 08:31:58.216873 18482 net.cpp:165] Memory required for data: 876576480
I1124 08:31:58.216878 18482 layer_factory.hpp:77] Creating layer pool5
I1124 08:31:58.216887 18482 net.cpp:100] Creating Layer pool5
I1124 08:31:58.216892 18482 net.cpp:434] pool5 <- conv5_3
I1124 08:31:58.216899 18482 net.cpp:408] pool5 -> pool5
I1124 08:31:58.216958 18482 net.cpp:150] Setting up pool5
I1124 08:31:58.216966 18482 net.cpp:157] Top shape: 1 512 17 22 (191488)
I1124 08:31:58.216971 18482 net.cpp:165] Memory required for data: 877342432
I1124 08:31:58.216975 18482 layer_factory.hpp:77] Creating layer fc6
I1124 08:31:58.216989 18482 net.cpp:100] Creating Layer fc6
I1124 08:31:58.216994 18482 net.cpp:434] fc6 <- pool5
I1124 08:31:58.217000 18482 net.cpp:408] fc6 -> fc6
I1124 08:31:59.009850 18482 net.cpp:150] Setting up fc6
I1124 08:31:59.009910 18482 net.cpp:157] Top shape: 1 4096 11 16 (720896)
I1124 08:31:59.009915 18482 net.cpp:165] Memory required for data: 880226016
I1124 08:31:59.009928 18482 layer_factory.hpp:77] Creating layer relu6
I1124 08:31:59.009943 18482 net.cpp:100] Creating Layer relu6
I1124 08:31:59.009949 18482 net.cpp:434] relu6 <- fc6
I1124 08:31:59.009959 18482 net.cpp:395] relu6 -> fc6 (in-place)
I1124 08:31:59.010346 18482 net.cpp:150] Setting up relu6
I1124 08:31:59.010360 18482 net.cpp:157] Top shape: 1 4096 11 16 (720896)
I1124 08:31:59.010365 18482 net.cpp:165] Memory required for data: 883109600
I1124 08:31:59.010371 18482 layer_factory.hpp:77] Creating layer drop6
I1124 08:31:59.010380 18482 net.cpp:100] Creating Layer drop6
I1124 08:31:59.010386 18482 net.cpp:434] drop6 <- fc6
I1124 08:31:59.010393 18482 net.cpp:395] drop6 -> fc6 (in-place)
I1124 08:31:59.010435 18482 net.cpp:150] Setting up drop6
I1124 08:31:59.010443 18482 net.cpp:157] Top shape: 1 4096 11 16 (720896)
I1124 08:31:59.010448 18482 net.cpp:165] Memory required for data: 885993184
I1124 08:31:59.010452 18482 layer_factory.hpp:77] Creating layer fc7
I1124 08:31:59.010464 18482 net.cpp:100] Creating Layer fc7
I1124 08:31:59.010469 18482 net.cpp:434] fc7 <- fc6
I1124 08:31:59.010493 18482 net.cpp:408] fc7 -> fc7
I1124 08:31:59.130765 18482 net.cpp:150] Setting up fc7
I1124 08:31:59.130815 18482 net.cpp:157] Top shape: 1 4096 11 16 (720896)
I1124 08:31:59.130821 18482 net.cpp:165] Memory required for data: 888876768
I1124 08:31:59.130832 18482 layer_factory.hpp:77] Creating layer relu7
I1124 08:31:59.130848 18482 net.cpp:100] Creating Layer relu7
I1124 08:31:59.130854 18482 net.cpp:434] relu7 <- fc7
I1124 08:31:59.130863 18482 net.cpp:395] relu7 -> fc7 (in-place)
I1124 08:31:59.131062 18482 net.cpp:150] Setting up relu7
I1124 08:31:59.131072 18482 net.cpp:157] Top shape: 1 4096 11 16 (720896)
I1124 08:31:59.131078 18482 net.cpp:165] Memory required for data: 891760352
I1124 08:31:59.131081 18482 layer_factory.hpp:77] Creating layer drop7
I1124 08:31:59.131090 18482 net.cpp:100] Creating Layer drop7
I1124 08:31:59.131095 18482 net.cpp:434] drop7 <- fc7
I1124 08:31:59.131101 18482 net.cpp:395] drop7 -> fc7 (in-place)
I1124 08:31:59.131142 18482 net.cpp:150] Setting up drop7
I1124 08:31:59.131150 18482 net.cpp:157] Top shape: 1 4096 11 16 (720896)
I1124 08:31:59.131155 18482 net.cpp:165] Memory required for data: 894643936
I1124 08:31:59.131158 18482 layer_factory.hpp:77] Creating layer score_fr
I1124 08:31:59.131170 18482 net.cpp:100] Creating Layer score_fr
I1124 08:31:59.131175 18482 net.cpp:434] score_fr <- fc7
I1124 08:31:59.131191 18482 net.cpp:408] score_fr -> score_fr
I1124 08:31:59.133626 18482 net.cpp:150] Setting up score_fr
I1124 08:31:59.133642 18482 net.cpp:157] Top shape: 1 6 11 16 (1056)
I1124 08:31:59.133647 18482 net.cpp:165] Memory required for data: 894648160
I1124 08:31:59.133656 18482 layer_factory.hpp:77] Creating layer upscore2
I1124 08:31:59.133667 18482 net.cpp:100] Creating Layer upscore2
I1124 08:31:59.133672 18482 net.cpp:434] upscore2 <- score_fr
I1124 08:31:59.133680 18482 net.cpp:408] upscore2 -> upscore2
I1124 08:31:59.133937 18482 net.cpp:150] Setting up upscore2
I1124 08:31:59.133946 18482 net.cpp:157] Top shape: 1 6 24 34 (4896)
I1124 08:31:59.133950 18482 net.cpp:165] Memory required for data: 894667744
I1124 08:31:59.133965 18482 layer_factory.hpp:77] Creating layer upscore2_upscore2_0_split
I1124 08:31:59.133972 18482 net.cpp:100] Creating Layer upscore2_upscore2_0_split
I1124 08:31:59.133977 18482 net.cpp:434] upscore2_upscore2_0_split <- upscore2
I1124 08:31:59.133985 18482 net.cpp:408] upscore2_upscore2_0_split -> upscore2_upscore2_0_split_0
I1124 08:31:59.133992 18482 net.cpp:408] upscore2_upscore2_0_split -> upscore2_upscore2_0_split_1
I1124 08:31:59.134038 18482 net.cpp:150] Setting up upscore2_upscore2_0_split
I1124 08:31:59.134045 18482 net.cpp:157] Top shape: 1 6 24 34 (4896)
I1124 08:31:59.134052 18482 net.cpp:157] Top shape: 1 6 24 34 (4896)
I1124 08:31:59.134055 18482 net.cpp:165] Memory required for data: 894706912
I1124 08:31:59.134060 18482 layer_factory.hpp:77] Creating layer scale_pool4
I1124 08:31:59.134069 18482 net.cpp:100] Creating Layer scale_pool4
I1124 08:31:59.134073 18482 net.cpp:434] scale_pool4 <- pool4_pool4_0_split_1
I1124 08:31:59.134081 18482 net.cpp:408] scale_pool4 -> scale_pool4
I1124 08:31:59.134203 18482 net.cpp:150] Setting up scale_pool4
I1124 08:31:59.134212 18482 net.cpp:157] Top shape: 1 512 34 44 (765952)
I1124 08:31:59.134217 18482 net.cpp:165] Memory required for data: 897770720
I1124 08:31:59.134223 18482 layer_factory.hpp:77] Creating layer score_pool4
I1124 08:31:59.134233 18482 net.cpp:100] Creating Layer score_pool4
I1124 08:31:59.134238 18482 net.cpp:434] score_pool4 <- scale_pool4
I1124 08:31:59.134246 18482 net.cpp:408] score_pool4 -> score_pool4
I1124 08:31:59.135586 18482 net.cpp:150] Setting up score_pool4
I1124 08:31:59.135601 18482 net.cpp:157] Top shape: 1 6 34 44 (8976)
I1124 08:31:59.135607 18482 net.cpp:165] Memory required for data: 897806624
I1124 08:31:59.135615 18482 layer_factory.hpp:77] Creating layer score_pool4c
I1124 08:31:59.135624 18482 net.cpp:100] Creating Layer score_pool4c
I1124 08:31:59.135629 18482 net.cpp:434] score_pool4c <- score_pool4
I1124 08:31:59.135650 18482 net.cpp:434] score_pool4c <- upscore2_upscore2_0_split_0
I1124 08:31:59.135658 18482 net.cpp:408] score_pool4c -> score_pool4c
I1124 08:31:59.135697 18482 net.cpp:150] Setting up score_pool4c
I1124 08:31:59.135705 18482 net.cpp:157] Top shape: 1 6 24 34 (4896)
I1124 08:31:59.135710 18482 net.cpp:165] Memory required for data: 897826208
I1124 08:31:59.135713 18482 layer_factory.hpp:77] Creating layer fuse_pool4
I1124 08:31:59.135722 18482 net.cpp:100] Creating Layer fuse_pool4
I1124 08:31:59.135727 18482 net.cpp:434] fuse_pool4 <- upscore2_upscore2_0_split_1
I1124 08:31:59.135732 18482 net.cpp:434] fuse_pool4 <- score_pool4c
I1124 08:31:59.135740 18482 net.cpp:408] fuse_pool4 -> fuse_pool4
I1124 08:31:59.135771 18482 net.cpp:150] Setting up fuse_pool4
I1124 08:31:59.135778 18482 net.cpp:157] Top shape: 1 6 24 34 (4896)
I1124 08:31:59.135782 18482 net.cpp:165] Memory required for data: 897845792
I1124 08:31:59.135787 18482 layer_factory.hpp:77] Creating layer upscore_pool4
I1124 08:31:59.135795 18482 net.cpp:100] Creating Layer upscore_pool4
I1124 08:31:59.135799 18482 net.cpp:434] upscore_pool4 <- fuse_pool4
I1124 08:31:59.135807 18482 net.cpp:408] upscore_pool4 -> upscore_pool4
I1124 08:31:59.136044 18482 net.cpp:150] Setting up upscore_pool4
I1124 08:31:59.136054 18482 net.cpp:157] Top shape: 1 6 50 70 (21000)
I1124 08:31:59.136057 18482 net.cpp:165] Memory required for data: 897929792
I1124 08:31:59.136063 18482 layer_factory.hpp:77] Creating layer upscore_pool4_upscore_pool4_0_split
I1124 08:31:59.136071 18482 net.cpp:100] Creating Layer upscore_pool4_upscore_pool4_0_split
I1124 08:31:59.136076 18482 net.cpp:434] upscore_pool4_upscore_pool4_0_split <- upscore_pool4
I1124 08:31:59.136082 18482 net.cpp:408] upscore_pool4_upscore_pool4_0_split -> upscore_pool4_upscore_pool4_0_split_0
I1124 08:31:59.136090 18482 net.cpp:408] upscore_pool4_upscore_pool4_0_split -> upscore_pool4_upscore_pool4_0_split_1
I1124 08:31:59.136135 18482 net.cpp:150] Setting up upscore_pool4_upscore_pool4_0_split
I1124 08:31:59.136142 18482 net.cpp:157] Top shape: 1 6 50 70 (21000)
I1124 08:31:59.136148 18482 net.cpp:157] Top shape: 1 6 50 70 (21000)
I1124 08:31:59.136152 18482 net.cpp:165] Memory required for data: 898097792
I1124 08:31:59.136157 18482 layer_factory.hpp:77] Creating layer scale_pool3
I1124 08:31:59.136164 18482 net.cpp:100] Creating Layer scale_pool3
I1124 08:31:59.136169 18482 net.cpp:434] scale_pool3 <- pool3_pool3_0_split_1
I1124 08:31:59.136176 18482 net.cpp:408] scale_pool3 -> scale_pool3
I1124 08:31:59.136294 18482 net.cpp:150] Setting up scale_pool3
I1124 08:31:59.136302 18482 net.cpp:157] Top shape: 1 256 67 88 (1509376)
I1124 08:31:59.136307 18482 net.cpp:165] Memory required for data: 904135296
I1124 08:31:59.136312 18482 layer_factory.hpp:77] Creating layer score_pool3
I1124 08:31:59.136322 18482 net.cpp:100] Creating Layer score_pool3
I1124 08:31:59.136327 18482 net.cpp:434] score_pool3 <- scale_pool3
I1124 08:31:59.136335 18482 net.cpp:408] score_pool3 -> score_pool3
I1124 08:31:59.137603 18482 net.cpp:150] Setting up score_pool3
I1124 08:31:59.137619 18482 net.cpp:157] Top shape: 1 6 67 88 (35376)
I1124 08:31:59.137624 18482 net.cpp:165] Memory required for data: 904276800
I1124 08:31:59.137632 18482 layer_factory.hpp:77] Creating layer score_pool3c
I1124 08:31:59.137641 18482 net.cpp:100] Creating Layer score_pool3c
I1124 08:31:59.137646 18482 net.cpp:434] score_pool3c <- score_pool3
I1124 08:31:59.137652 18482 net.cpp:434] score_pool3c <- upscore_pool4_upscore_pool4_0_split_0
I1124 08:31:59.137660 18482 net.cpp:408] score_pool3c -> score_pool3c
I1124 08:31:59.137697 18482 net.cpp:150] Setting up score_pool3c
I1124 08:31:59.137706 18482 net.cpp:157] Top shape: 1 6 50 70 (21000)
I1124 08:31:59.137711 18482 net.cpp:165] Memory required for data: 904360800
I1124 08:31:59.137714 18482 layer_factory.hpp:77] Creating layer fuse_pool3
I1124 08:31:59.137722 18482 net.cpp:100] Creating Layer fuse_pool3
I1124 08:31:59.137727 18482 net.cpp:434] fuse_pool3 <- upscore_pool4_upscore_pool4_0_split_1
I1124 08:31:59.137739 18482 net.cpp:434] fuse_pool3 <- score_pool3c
I1124 08:31:59.137748 18482 net.cpp:408] fuse_pool3 -> fuse_pool3
I1124 08:31:59.137780 18482 net.cpp:150] Setting up fuse_pool3
I1124 08:31:59.137787 18482 net.cpp:157] Top shape: 1 6 50 70 (21000)
I1124 08:31:59.137791 18482 net.cpp:165] Memory required for data: 904444800
I1124 08:31:59.137796 18482 layer_factory.hpp:77] Creating layer upscore8
I1124 08:31:59.137804 18482 net.cpp:100] Creating Layer upscore8
I1124 08:31:59.137809 18482 net.cpp:434] upscore8 <- fuse_pool3
I1124 08:31:59.137816 18482 net.cpp:408] upscore8 -> upscore8
I1124 08:31:59.138114 18482 net.cpp:150] Setting up upscore8
I1124 08:31:59.138123 18482 net.cpp:157] Top shape: 1 6 408 568 (1390464)
I1124 08:31:59.138128 18482 net.cpp:165] Memory required for data: 910006656
I1124 08:31:59.138134 18482 layer_factory.hpp:77] Creating layer score
I1124 08:31:59.138141 18482 net.cpp:100] Creating Layer score
I1124 08:31:59.138145 18482 net.cpp:434] score <- upscore8
I1124 08:31:59.138151 18482 net.cpp:434] score <- data_data_0_split_1
I1124 08:31:59.138157 18482 net.cpp:408] score -> score
I1124 08:31:59.138187 18482 net.cpp:150] Setting up score
I1124 08:31:59.138195 18482 net.cpp:157] Top shape: 1 6 335 500 (1005000)
I1124 08:31:59.138200 18482 net.cpp:165] Memory required for data: 914026656
I1124 08:31:59.138203 18482 layer_factory.hpp:77] Creating layer loss
I1124 08:31:59.138211 18482 net.cpp:100] Creating Layer loss
I1124 08:31:59.138216 18482 net.cpp:434] loss <- score
I1124 08:31:59.138221 18482 net.cpp:434] loss <- label
I1124 08:31:59.138228 18482 net.cpp:408] loss -> loss
I1124 08:31:59.138237 18482 layer_factory.hpp:77] Creating layer loss
…
