…
test_initialization: false
average_loss: 20
iter_size: 1
I1124 13:01:06.435854 20428 solver.cpp:81] Creating training net from train_net file: train.prototxt
I1124 13:01:06.437156 20428 net.cpp:58] Initializing net from parameters: 
state {
  phase: TRAIN
}
layer {
  name: "data"
  type: "Python"
  top: "data"
  top: "label"
  python_param {
    module: "voc_layers"
    layer: "PartialSBDDSegDataLayer"
    param_str: "{\'sbdd_dir\': \'../data/sbdd/dataset\', \'seed\': 1337, \'split\': \'train5\', \'mean\': (104.00699, 116.66877, 122.67892)}"
  }
}
layer {
  name: "conv1_1"
  type: "Convolution"
  bottom: "data"
  top: "conv1_1"
  param {
    lr_mult: 1
    decay_mult: 1
  }
  param {
    lr_mult: 2
    decay_mult: 0
  }
  convolution_param {
    num_output: 64
    pad: 100
    kernel_size: 3
    stride: 1
    weight_filler {
      type: "xavier"
    }
  }
}
layer {
  name: "relu1_1"
  type: "ReLU"
  bottom: "conv1_1"
  top: "conv1_1"
}
layer {
  name: "conv1_2"
  type: "Convolution"
  bottom: "conv1_1"
  top: "conv1_2"
  param {
    lr_mult: 1
    decay_mult: 1
  }
  param {
    lr_mult: 2
    decay_mult: 0
  }
  convolution_param {
    num_output: 64
    pad: 1
    kernel_size: 3
    stride: 1
    weight_filler {
      type: "xavier"
    }
  }
}
layer {
  name: "relu1_2"
  type: "ReLU"
  bottom: "conv1_2"
  top: "conv1_2"
}
layer {
  name: "pool1"
  type: "Pooling"
  bottom: "conv1_2"
  top: "pool1"
  pooling_param {
    pool: MAX
    kernel_size: 2
    stride: 2
  }
}
layer {
  name: "conv2_1"
  type: "Convolution"
  bottom: "pool1"
  top: "conv2_1"
  param {
    lr_mult: 1
    decay_mult: 1
  }
  param {
    lr_mult: 2
    decay_mult: 0
  }
  convolution_param {
    num_output: 128
    pad: 1
    kernel_size: 3
    stride: 1
    weight_filler {
      type: "xavier"
    }
  }
}
layer {
  name: "relu2_1"
  type: "ReLU"
  bottom: "conv2_1"
  top: "conv2_1"
}
layer {
  name: "conv2_2"
  type: "Convolution"
  bottom: "conv2_1"
  top: "conv2_2"
  param {
    lr_mult: 1
    decay_mult: 1
  }
  param {
    lr_mult: 2
    decay_mult: 0
  }
  convolution_param {
    num_output: 128
    pad: 1
    kernel_size: 3
    stride: 1
    weight_filler {
      type: "xavier"
    }
  }
}
layer {
  name: "relu2_2"
  type: "ReLU"
  bottom: "conv2_2"
  top: "conv2_2"
}
layer {
  name: "pool2"
  type: "Pooling"
  bottom: "conv2_2"
  top: "pool2"
  pooling_param {
    pool: MAX
    kernel_size: 2
    stride: 2
  }
}
layer {
  name: "conv3_1"
  type: "Convolution"
  bottom: "pool2"
  top: "conv3_1"
  param {
    lr_mult: 1
    decay_mult: 1
  }
  param {
    lr_mult: 2
    decay_mult: 0
  }
  convolution_param {
    num_output: 256
    pad: 1
    kernel_size: 3
    stride: 1
    weight_filler {
      type: "xavier"
    }
  }
}
layer {
  name: "relu3_1"
  type: "ReLU"
  bottom: "conv3_1"
  top: "conv3_1"
}
layer {
  name: "conv3_2"
  type: "Convolution"
  bottom: "conv3_1"
  top: "conv3_2"
  param {
    lr_mult: 1
    decay_mult: 1
  }
  param {
    lr_mult: 2
    decay_mult: 0
  }
  convolution_param {
    num_output: 256
    pad: 1
    kernel_size: 3
    stride: 1
    weight_filler {
      type: "xavier"
    }
  }
}
layer {
  name: "relu3_2"
  type: "ReLU"
  bottom: "conv3_2"
  top: "conv3_2"
}
layer {
  name: "conv3_3"
  type: "Convolution"
  bottom: "conv3_2"
  top: "conv3_3"
  param {
    lr_mult: 1
    decay_mult: 1
  }
  param {
    lr_mult: 2
    decay_mult: 0
  }
  convolution_param {
    num_output: 256
    pad: 1
    kernel_size: 3
    stride: 1
    weight_filler {
      type: "xavier"
    }
  }
}
layer {
  name: "relu3_3"
  type: "ReLU"
  bottom: "conv3_3"
  top: "conv3_3"
}
layer {
  name: "pool3"
  type: "Pooling"
  bottom: "conv3_3"
  top: "pool3"
  pooling_param {
    pool: MAX
    kernel_size: 2
    stride: 2
  }
}
layer {
  name: "conv4_1"
  type: "Convolution"
  bottom: "pool3"
  top: "conv4_1"
  param {
    lr_mult: 1
    decay_mult: 1
  }
  param {
    lr_mult: 2
    decay_mult: 0
  }
  convolution_param {
    num_output: 512
    pad: 1
    kernel_size: 3
    stride: 1
    weight_filler {
      type: "xavier"
    }
  }
}
layer {
  name: "relu4_1"
  type: "ReLU"
  bottom: "conv4_1"
  top: "conv4_1"
}
layer {
  name: "conv4_2"
  type: "Convolution"
  bottom: "conv4_1"
  top: "conv4_2"
  param {
    lr_mult: 1
    decay_mult: 1
  }
  param {
    lr_mult: 2
    decay_mult: 0
  }
  convolution_param {
    num_output: 512
    pad: 1
    kernel_size: 3
    stride: 1
    weight_filler {
      type: "xavier"
    }
  }
}
layer {
  name: "relu4_2"
  type: "ReLU"
  bottom: "conv4_2"
  top: "conv4_2"
}
layer {
  name: "conv4_3"
  type: "Convolution"
  bottom: "conv4_2"
  top: "conv4_3"
  param {
    lr_mult: 1
    decay_mult: 1
  }
  param {
    lr_mult: 2
    decay_mult: 0
  }
  convolution_param {
    num_output: 512
    pad: 1
    kernel_size: 3
    stride: 1
    weight_filler {
      type: "xavier"
    }
  }
}
layer {
  name: "relu4_3"
  type: "ReLU"
  bottom: "conv4_3"
  top: "conv4_3"
}
layer {
  name: "pool4"
  type: "Pooling"
  bottom: "conv4_3"
  top: "pool4"
  pooling_param {
    pool: MAX
    kernel_size: 2
    stride: 2
  }
}
layer {
  name: "conv5_1"
  type: "Convolution"
  bottom: "pool4"
  top: "conv5_1"
  param {
    lr_mult: 1
    decay_mult: 1
  }
  param {
    lr_mult: 2
    decay_mult: 0
  }
  convolution_param {
    num_output: 512
    pad: 1
    kernel_size: 3
    stride: 1
    weight_filler {
      type: "xavier"
    }
  }
}
layer {
  name: "relu5_1"
  type: "ReLU"
  bottom: "conv5_1"
  top: "conv5_1"
}
layer {
  name: "conv5_2"
  type: "Convolution"
  bottom: "conv5_1"
  top: "conv5_2"
  param {
    lr_mult: 1
    decay_mult: 1
  }
  param {
    lr_mult: 2
    decay_mult: 0
  }
  convolution_param {
    num_output: 512
    pad: 1
    kernel_size: 3
    stride: 1
    weight_filler {
      type: "xavier"
    }
  }
}
layer {
  name: "relu5_2"
  type: "ReLU"
  bottom: "conv5_2"
  top: "conv5_2"
}
layer {
  name: "conv5_3"
  type: "Convolution"
  bottom: "conv5_2"
  top: "conv5_3"
  param {
    lr_mult: 1
    decay_mult: 1
  }
  param {
    lr_mult: 2
    decay_mult: 0
  }
  convolution_param {
    num_output: 512
    pad: 1
    kernel_size: 3
    stride: 1
    weight_filler {
      type: "xavier"
    }
  }
}
layer {
  name: "relu5_3"
  type: "ReLU"
  bottom: "conv5_3"
  top: "conv5_3"
}
layer {
  name: "pool5"
  type: "Pooling"
  bottom: "conv5_3"
  top: "pool5"
  pooling_param {
    pool: MAX
    kernel_size: 2
    stride: 2
  }
}
layer {
  name: "fc6"
  type: "Convolution"
  bottom: "pool5"
  top: "fc6"
  param {
    lr_mult: 1
    decay_mult: 1
  }
  param {
    lr_mult: 2
    decay_mult: 0
  }
  convolution_param {
    num_output: 4096
    pad: 0
    kernel_size: 7
    stride: 1
    weight_filler {
      type: "xavier"
    }
  }
}
layer {
  name: "relu6"
  type: "ReLU"
  bottom: "fc6"
  top: "fc6"
}
layer {
  name: "drop6"
  type: "Dropout"
  bottom: "fc6"
  top: "fc6"
  dropout_param {
    dropout_ratio: 0.5
  }
}
layer {
  name: "fc7"
  type: "Convolution"
  bottom: "fc6"
  top: "fc7"
  param {
    lr_mult: 1
    decay_mult: 1
  }
  param {
    lr_mult: 2
    decay_mult: 0
  }
  convolution_param {
    num_output: 4096
    pad: 0
    kernel_size: 1
    stride: 1
    weight_filler {
      type: "xavier"
    }
  }
}
layer {
  name: "relu7"
  type: "ReLU"
  bottom: "fc7"
  top: "fc7"
}
layer {
  name: "drop7"
  type: "Dropout"
  bottom: "fc7"
  top: "fc7"
  dropout_param {
    dropout_ratio: 0.5
  }
}
layer {
  name: "score_fr"
  type: "Convolution"
  bottom: "fc7"
  top: "score_fr"
  param {
    lr_mult: 1
    decay_mult: 1
  }
  param {
    lr_mult: 2
    decay_mult: 0
  }
  convolution_param {
    num_output: 6
    pad: 0
    kernel_size: 1
    weight_filler {
      type: "xavier"
    }
  }
}
layer {
  name: "upscore2"
  type: "Deconvolution"
  bottom: "score_fr"
  top: "upscore2"
  param {
    lr_mult: 0
  }
  convolution_param {
    num_output: 6
    bias_term: false
    kernel_size: 4
    stride: 2
    weight_filler {
      type: "xavier"
    }
  }
}
layer {
  name: "scale_pool4"
  type: "Scale"
  bottom: "pool4"
  top: "scale_pool4"
  param {
    lr_mult: 0
  }
  scale_param {
    filler {
      type: "constant"
      value: 0.01
    }
  }
}
layer {
  name: "score_pool4"
  type: "Convolution"
  bottom: "scale_pool4"
  top: "score_pool4"
  param {
    lr_mult: 1
    decay_mult: 1
  }
  param {
    lr_mult: 2
    decay_mult: 0
  }
  convolution_param {
    num_output: 6
    pad: 0
    kernel_size: 1
    weight_filler {
      type: "xavier"
    }
  }
}
layer {
  name: "score_pool4c"
  type: "Crop"
  bottom: "score_pool4"
  bottom: "upscore2"
  top: "score_pool4c"
  crop_param {
    axis: 2
    offset: 5
  }
}
layer {
  name: "fuse_pool4"
  type: "Eltwise"
  bottom: "upscore2"
  bottom: "score_pool4c"
  top: "fuse_pool4"
  eltwise_param {
    operation: SUM
  }
}
layer {
  name: "upscore_pool4"
  type: "Deconvolution"
  bottom: "fuse_pool4"
  top: "upscore_pool4"
  param {
    lr_mult: 0
  }
  convolution_param {
    num_output: 6
    bias_term: false
    kernel_size: 4
    stride: 2
    weight_filler {
      type: "xavier"
    }
  }
}
layer {
  name: "scale_pool3"
  type: "Scale"
  bottom: "pool3"
  top: "scale_pool3"
  param {
    lr_mult: 0
  }
  scale_param {
    filler {
      type: "constant"
      value: 0.0001
    }
  }
}
layer {
  name: "score_pool3"
  type: "Convolution"
  bottom: "scale_pool3"
  top: "score_pool3"
  param {
    lr_mult: 1
    decay_mult: 1
  }
  param {
    lr_mult: 2
    decay_mult: 0
  }
  convolution_param {
    num_output: 6
    pad: 0
    kernel_size: 1
    weight_filler {
      type: "xavier"
    }
  }
}
layer {
  name: "score_pool3c"
  type: "Crop"
  bottom: "score_pool3"
  bottom: "upscore_pool4"
  top: "score_pool3c"
  crop_param {
    axis: 2
    offset: 9
  }
}
layer {
  name: "fuse_pool3"
  type: "Eltwise"
  bottom: "upscore_pool4"
  bottom: "score_pool3c"
  top: "fuse_pool3"
  eltwise_param {
    operation: SUM
  }
}
layer {
  name: "upscore8"
  type: "Deconvolution"
  bottom: "fuse_pool3"
  top: "upscore8"
  param {
    lr_mult: 0
  }
  convolution_param {
    num_output: 6
    bias_term: false
    kernel_size: 16
    stride: 8
    weight_filler {
      type: "xavier"
    }
  }
}
layer {
  name: "score"
  type: "Crop"
  bottom: "upscore8"
  bottom: "data"
  top: "score"
  crop_param {
    axis: 2
    offset: 31
  }
}
layer {
  name: "loss"
  type: "SoftmaxWithLoss"
  bottom: "score"
  bottom: "label"
  top: "loss"
  loss_param {
    ignore_label: 255
    normalize: false
  }
}
I1124 13:01:06.437403 20428 layer_factory.hpp:77] Creating layer data
I1124 13:01:06.438076 20428 net.cpp:100] Creating Layer data
I1124 13:01:06.438092 20428 net.cpp:408] data -> data
I1124 13:01:06.438107 20428 net.cpp:408] data -> label
I1124 13:01:06.481593 20428 net.cpp:150] Setting up data
I1124 13:01:06.481629 20428 net.cpp:157] Top shape: 1 3 375 500 (562500)
I1124 13:01:06.481637 20428 net.cpp:157] Top shape: 1 1 375 500 (187500)
I1124 13:01:06.481640 20428 net.cpp:165] Memory required for data: 3000000
I1124 13:01:06.481647 20428 layer_factory.hpp:77] Creating layer data_data_0_split
I1124 13:01:06.481662 20428 net.cpp:100] Creating Layer data_data_0_split
I1124 13:01:06.481667 20428 net.cpp:434] data_data_0_split <- data
I1124 13:01:06.481674 20428 net.cpp:408] data_data_0_split -> data_data_0_split_0
I1124 13:01:06.481685 20428 net.cpp:408] data_data_0_split -> data_data_0_split_1
I1124 13:01:06.481724 20428 net.cpp:150] Setting up data_data_0_split
I1124 13:01:06.481731 20428 net.cpp:157] Top shape: 1 3 375 500 (562500)
I1124 13:01:06.481737 20428 net.cpp:157] Top shape: 1 3 375 500 (562500)
I1124 13:01:06.481740 20428 net.cpp:165] Memory required for data: 7500000
I1124 13:01:06.481745 20428 layer_factory.hpp:77] Creating layer conv1_1
I1124 13:01:06.481762 20428 net.cpp:100] Creating Layer conv1_1
I1124 13:01:06.481766 20428 net.cpp:434] conv1_1 <- data_data_0_split_0
I1124 13:01:06.481782 20428 net.cpp:408] conv1_1 -> conv1_1
I1124 13:01:06.661542 20428 net.cpp:150] Setting up conv1_1
I1124 13:01:06.661586 20428 net.cpp:157] Top shape: 1 64 573 698 (25597056)
I1124 13:01:06.661590 20428 net.cpp:165] Memory required for data: 109888224
I1124 13:01:06.661608 20428 layer_factory.hpp:77] Creating layer relu1_1
I1124 13:01:06.661620 20428 net.cpp:100] Creating Layer relu1_1
I1124 13:01:06.661626 20428 net.cpp:434] relu1_1 <- conv1_1
I1124 13:01:06.661635 20428 net.cpp:395] relu1_1 -> conv1_1 (in-place)
I1124 13:01:06.662000 20428 net.cpp:150] Setting up relu1_1
I1124 13:01:06.662014 20428 net.cpp:157] Top shape: 1 64 573 698 (25597056)
I1124 13:01:06.662019 20428 net.cpp:165] Memory required for data: 212276448
I1124 13:01:06.662024 20428 layer_factory.hpp:77] Creating layer conv1_2
I1124 13:01:06.662039 20428 net.cpp:100] Creating Layer conv1_2
I1124 13:01:06.662045 20428 net.cpp:434] conv1_2 <- conv1_1
I1124 13:01:06.662055 20428 net.cpp:408] conv1_2 -> conv1_2
I1124 13:01:06.664862 20428 net.cpp:150] Setting up conv1_2
I1124 13:01:06.664882 20428 net.cpp:157] Top shape: 1 64 573 698 (25597056)
I1124 13:01:06.664887 20428 net.cpp:165] Memory required for data: 314664672
I1124 13:01:06.664898 20428 layer_factory.hpp:77] Creating layer relu1_2
I1124 13:01:06.664906 20428 net.cpp:100] Creating Layer relu1_2
I1124 13:01:06.664911 20428 net.cpp:434] relu1_2 <- conv1_2
I1124 13:01:06.664917 20428 net.cpp:395] relu1_2 -> conv1_2 (in-place)
I1124 13:01:06.665274 20428 net.cpp:150] Setting up relu1_2
I1124 13:01:06.665287 20428 net.cpp:157] Top shape: 1 64 573 698 (25597056)
I1124 13:01:06.665292 20428 net.cpp:165] Memory required for data: 417052896
I1124 13:01:06.665297 20428 layer_factory.hpp:77] Creating layer pool1
I1124 13:01:06.665309 20428 net.cpp:100] Creating Layer pool1
I1124 13:01:06.665313 20428 net.cpp:434] pool1 <- conv1_2
I1124 13:01:06.665320 20428 net.cpp:408] pool1 -> pool1
I1124 13:01:06.665369 20428 net.cpp:150] Setting up pool1
I1124 13:01:06.665376 20428 net.cpp:157] Top shape: 1 64 287 349 (6410432)
I1124 13:01:06.665380 20428 net.cpp:165] Memory required for data: 442694624
I1124 13:01:06.665385 20428 layer_factory.hpp:77] Creating layer conv2_1
I1124 13:01:06.665396 20428 net.cpp:100] Creating Layer conv2_1
I1124 13:01:06.665400 20428 net.cpp:434] conv2_1 <- pool1
I1124 13:01:06.665410 20428 net.cpp:408] conv2_1 -> conv2_1
I1124 13:01:06.667728 20428 net.cpp:150] Setting up conv2_1
I1124 13:01:06.667747 20428 net.cpp:157] Top shape: 1 128 287 349 (12820864)
I1124 13:01:06.667750 20428 net.cpp:165] Memory required for data: 493978080
I1124 13:01:06.667762 20428 layer_factory.hpp:77] Creating layer relu2_1
I1124 13:01:06.667771 20428 net.cpp:100] Creating Layer relu2_1
I1124 13:01:06.667776 20428 net.cpp:434] relu2_1 <- conv2_1
I1124 13:01:06.667781 20428 net.cpp:395] relu2_1 -> conv2_1 (in-place)
I1124 13:01:06.667980 20428 net.cpp:150] Setting up relu2_1
I1124 13:01:06.667990 20428 net.cpp:157] Top shape: 1 128 287 349 (12820864)
I1124 13:01:06.667994 20428 net.cpp:165] Memory required for data: 545261536
I1124 13:01:06.667999 20428 layer_factory.hpp:77] Creating layer conv2_2
I1124 13:01:06.668009 20428 net.cpp:100] Creating Layer conv2_2
I1124 13:01:06.668015 20428 net.cpp:434] conv2_2 <- conv2_1
I1124 13:01:06.668022 20428 net.cpp:408] conv2_2 -> conv2_2
I1124 13:01:06.670559 20428 net.cpp:150] Setting up conv2_2
I1124 13:01:06.670575 20428 net.cpp:157] Top shape: 1 128 287 349 (12820864)
I1124 13:01:06.670580 20428 net.cpp:165] Memory required for data: 596544992
I1124 13:01:06.670588 20428 layer_factory.hpp:77] Creating layer relu2_2
I1124 13:01:06.670598 20428 net.cpp:100] Creating Layer relu2_2
I1124 13:01:06.670603 20428 net.cpp:434] relu2_2 <- conv2_2
I1124 13:01:06.670609 20428 net.cpp:395] relu2_2 -> conv2_2 (in-place)
I1124 13:01:06.670964 20428 net.cpp:150] Setting up relu2_2
I1124 13:01:06.670977 20428 net.cpp:157] Top shape: 1 128 287 349 (12820864)
I1124 13:01:06.670981 20428 net.cpp:165] Memory required for data: 647828448
I1124 13:01:06.670995 20428 layer_factory.hpp:77] Creating layer pool2
I1124 13:01:06.671005 20428 net.cpp:100] Creating Layer pool2
I1124 13:01:06.671010 20428 net.cpp:434] pool2 <- conv2_2
I1124 13:01:06.671016 20428 net.cpp:408] pool2 -> pool2
I1124 13:01:06.671063 20428 net.cpp:150] Setting up pool2
I1124 13:01:06.671070 20428 net.cpp:157] Top shape: 1 128 144 175 (3225600)
I1124 13:01:06.671073 20428 net.cpp:165] Memory required for data: 660730848
I1124 13:01:06.671077 20428 layer_factory.hpp:77] Creating layer conv3_1
I1124 13:01:06.671088 20428 net.cpp:100] Creating Layer conv3_1
I1124 13:01:06.671092 20428 net.cpp:434] conv3_1 <- pool2
I1124 13:01:06.671102 20428 net.cpp:408] conv3_1 -> conv3_1
I1124 13:01:06.674214 20428 net.cpp:150] Setting up conv3_1
I1124 13:01:06.674230 20428 net.cpp:157] Top shape: 1 256 144 175 (6451200)
I1124 13:01:06.674237 20428 net.cpp:165] Memory required for data: 686535648
I1124 13:01:06.674248 20428 layer_factory.hpp:77] Creating layer relu3_1
I1124 13:01:06.674255 20428 net.cpp:100] Creating Layer relu3_1
I1124 13:01:06.674260 20428 net.cpp:434] relu3_1 <- conv3_1
I1124 13:01:06.674266 20428 net.cpp:395] relu3_1 -> conv3_1 (in-place)
I1124 13:01:06.674620 20428 net.cpp:150] Setting up relu3_1
I1124 13:01:06.674633 20428 net.cpp:157] Top shape: 1 256 144 175 (6451200)
I1124 13:01:06.674638 20428 net.cpp:165] Memory required for data: 712340448
I1124 13:01:06.674643 20428 layer_factory.hpp:77] Creating layer conv3_2
I1124 13:01:06.674655 20428 net.cpp:100] Creating Layer conv3_2
I1124 13:01:06.674660 20428 net.cpp:434] conv3_2 <- conv3_1
I1124 13:01:06.674667 20428 net.cpp:408] conv3_2 -> conv3_2
I1124 13:01:06.679915 20428 net.cpp:150] Setting up conv3_2
I1124 13:01:06.679931 20428 net.cpp:157] Top shape: 1 256 144 175 (6451200)
I1124 13:01:06.679936 20428 net.cpp:165] Memory required for data: 738145248
I1124 13:01:06.679944 20428 layer_factory.hpp:77] Creating layer relu3_2
I1124 13:01:06.679952 20428 net.cpp:100] Creating Layer relu3_2
I1124 13:01:06.679956 20428 net.cpp:434] relu3_2 <- conv3_2
I1124 13:01:06.679965 20428 net.cpp:395] relu3_2 -> conv3_2 (in-place)
I1124 13:01:06.680153 20428 net.cpp:150] Setting up relu3_2
I1124 13:01:06.680163 20428 net.cpp:157] Top shape: 1 256 144 175 (6451200)
I1124 13:01:06.680167 20428 net.cpp:165] Memory required for data: 763950048
I1124 13:01:06.680172 20428 layer_factory.hpp:77] Creating layer conv3_3
I1124 13:01:06.680186 20428 net.cpp:100] Creating Layer conv3_3
I1124 13:01:06.680189 20428 net.cpp:434] conv3_3 <- conv3_2
I1124 13:01:06.680198 20428 net.cpp:408] conv3_3 -> conv3_3
I1124 13:01:06.685458 20428 net.cpp:150] Setting up conv3_3
I1124 13:01:06.685474 20428 net.cpp:157] Top shape: 1 256 144 175 (6451200)
I1124 13:01:06.685479 20428 net.cpp:165] Memory required for data: 789754848
I1124 13:01:06.685487 20428 layer_factory.hpp:77] Creating layer relu3_3
I1124 13:01:06.685497 20428 net.cpp:100] Creating Layer relu3_3
I1124 13:01:06.685501 20428 net.cpp:434] relu3_3 <- conv3_3
I1124 13:01:06.685508 20428 net.cpp:395] relu3_3 -> conv3_3 (in-place)
I1124 13:01:06.685875 20428 net.cpp:150] Setting up relu3_3
I1124 13:01:06.685889 20428 net.cpp:157] Top shape: 1 256 144 175 (6451200)
I1124 13:01:06.685894 20428 net.cpp:165] Memory required for data: 815559648
I1124 13:01:06.685897 20428 layer_factory.hpp:77] Creating layer pool3
I1124 13:01:06.685904 20428 net.cpp:100] Creating Layer pool3
I1124 13:01:06.685909 20428 net.cpp:434] pool3 <- conv3_3
I1124 13:01:06.685917 20428 net.cpp:408] pool3 -> pool3
I1124 13:01:06.685966 20428 net.cpp:150] Setting up pool3
I1124 13:01:06.685973 20428 net.cpp:157] Top shape: 1 256 72 88 (1622016)
I1124 13:01:06.685977 20428 net.cpp:165] Memory required for data: 822047712
I1124 13:01:06.685981 20428 layer_factory.hpp:77] Creating layer pool3_pool3_0_split
I1124 13:01:06.685987 20428 net.cpp:100] Creating Layer pool3_pool3_0_split
I1124 13:01:06.685992 20428 net.cpp:434] pool3_pool3_0_split <- pool3
I1124 13:01:06.685998 20428 net.cpp:408] pool3_pool3_0_split -> pool3_pool3_0_split_0
I1124 13:01:06.686005 20428 net.cpp:408] pool3_pool3_0_split -> pool3_pool3_0_split_1
I1124 13:01:06.686049 20428 net.cpp:150] Setting up pool3_pool3_0_split
I1124 13:01:06.686056 20428 net.cpp:157] Top shape: 1 256 72 88 (1622016)
I1124 13:01:06.686061 20428 net.cpp:157] Top shape: 1 256 72 88 (1622016)
I1124 13:01:06.686064 20428 net.cpp:165] Memory required for data: 835023840
I1124 13:01:06.686069 20428 layer_factory.hpp:77] Creating layer conv4_1
I1124 13:01:06.686082 20428 net.cpp:100] Creating Layer conv4_1
I1124 13:01:06.686087 20428 net.cpp:434] conv4_1 <- pool3_pool3_0_split_0
I1124 13:01:06.686095 20428 net.cpp:408] conv4_1 -> conv4_1
I1124 13:01:06.696512 20428 net.cpp:150] Setting up conv4_1
I1124 13:01:06.696533 20428 net.cpp:157] Top shape: 1 512 72 88 (3244032)
I1124 13:01:06.696538 20428 net.cpp:165] Memory required for data: 847999968
I1124 13:01:06.696547 20428 layer_factory.hpp:77] Creating layer relu4_1
I1124 13:01:06.696557 20428 net.cpp:100] Creating Layer relu4_1
I1124 13:01:06.696563 20428 net.cpp:434] relu4_1 <- conv4_1
I1124 13:01:06.696570 20428 net.cpp:395] relu4_1 -> conv4_1 (in-place)
I1124 13:01:06.696939 20428 net.cpp:150] Setting up relu4_1
I1124 13:01:06.696952 20428 net.cpp:157] Top shape: 1 512 72 88 (3244032)
I1124 13:01:06.696956 20428 net.cpp:165] Memory required for data: 860976096
I1124 13:01:06.696960 20428 layer_factory.hpp:77] Creating layer conv4_2
I1124 13:01:06.696972 20428 net.cpp:100] Creating Layer conv4_2
I1124 13:01:06.696977 20428 net.cpp:434] conv4_2 <- conv4_1
I1124 13:01:06.696985 20428 net.cpp:408] conv4_2 -> conv4_2
I1124 13:01:06.714185 20428 net.cpp:150] Setting up conv4_2
I1124 13:01:06.714210 20428 net.cpp:157] Top shape: 1 512 72 88 (3244032)
I1124 13:01:06.714215 20428 net.cpp:165] Memory required for data: 873952224
I1124 13:01:06.714232 20428 layer_factory.hpp:77] Creating layer relu4_2
I1124 13:01:06.714241 20428 net.cpp:100] Creating Layer relu4_2
I1124 13:01:06.714246 20428 net.cpp:434] relu4_2 <- conv4_2
I1124 13:01:06.714253 20428 net.cpp:395] relu4_2 -> conv4_2 (in-place)
I1124 13:01:06.714442 20428 net.cpp:150] Setting up relu4_2
I1124 13:01:06.714453 20428 net.cpp:157] Top shape: 1 512 72 88 (3244032)
I1124 13:01:06.714457 20428 net.cpp:165] Memory required for data: 886928352
I1124 13:01:06.714462 20428 layer_factory.hpp:77] Creating layer conv4_3
I1124 13:01:06.714473 20428 net.cpp:100] Creating Layer conv4_3
I1124 13:01:06.714478 20428 net.cpp:434] conv4_3 <- conv4_2
I1124 13:01:06.714485 20428 net.cpp:408] conv4_3 -> conv4_3
I1124 13:01:06.731696 20428 net.cpp:150] Setting up conv4_3
I1124 13:01:06.731727 20428 net.cpp:157] Top shape: 1 512 72 88 (3244032)
I1124 13:01:06.731732 20428 net.cpp:165] Memory required for data: 899904480
I1124 13:01:06.731741 20428 layer_factory.hpp:77] Creating layer relu4_3
I1124 13:01:06.731750 20428 net.cpp:100] Creating Layer relu4_3
I1124 13:01:06.731756 20428 net.cpp:434] relu4_3 <- conv4_3
I1124 13:01:06.731765 20428 net.cpp:395] relu4_3 -> conv4_3 (in-place)
I1124 13:01:06.732125 20428 net.cpp:150] Setting up relu4_3
I1124 13:01:06.732139 20428 net.cpp:157] Top shape: 1 512 72 88 (3244032)
I1124 13:01:06.732143 20428 net.cpp:165] Memory required for data: 912880608
I1124 13:01:06.732148 20428 layer_factory.hpp:77] Creating layer pool4
I1124 13:01:06.732156 20428 net.cpp:100] Creating Layer pool4
I1124 13:01:06.732161 20428 net.cpp:434] pool4 <- conv4_3
I1124 13:01:06.732169 20428 net.cpp:408] pool4 -> pool4
I1124 13:01:06.732218 20428 net.cpp:150] Setting up pool4
I1124 13:01:06.732225 20428 net.cpp:157] Top shape: 1 512 36 44 (811008)
I1124 13:01:06.732229 20428 net.cpp:165] Memory required for data: 916124640
I1124 13:01:06.732234 20428 layer_factory.hpp:77] Creating layer pool4_pool4_0_split
I1124 13:01:06.732241 20428 net.cpp:100] Creating Layer pool4_pool4_0_split
I1124 13:01:06.732245 20428 net.cpp:434] pool4_pool4_0_split <- pool4
I1124 13:01:06.732251 20428 net.cpp:408] pool4_pool4_0_split -> pool4_pool4_0_split_0
I1124 13:01:06.732259 20428 net.cpp:408] pool4_pool4_0_split -> pool4_pool4_0_split_1
I1124 13:01:06.732296 20428 net.cpp:150] Setting up pool4_pool4_0_split
I1124 13:01:06.732313 20428 net.cpp:157] Top shape: 1 512 36 44 (811008)
I1124 13:01:06.732318 20428 net.cpp:157] Top shape: 1 512 36 44 (811008)
I1124 13:01:06.732321 20428 net.cpp:165] Memory required for data: 922612704
I1124 13:01:06.732326 20428 layer_factory.hpp:77] Creating layer conv5_1
I1124 13:01:06.732338 20428 net.cpp:100] Creating Layer conv5_1
I1124 13:01:06.732342 20428 net.cpp:434] conv5_1 <- pool4_pool4_0_split_0
I1124 13:01:06.732350 20428 net.cpp:408] conv5_1 -> conv5_1
I1124 13:01:06.750550 20428 net.cpp:150] Setting up conv5_1
I1124 13:01:06.750581 20428 net.cpp:157] Top shape: 1 512 36 44 (811008)
I1124 13:01:06.750586 20428 net.cpp:165] Memory required for data: 925856736
I1124 13:01:06.750596 20428 layer_factory.hpp:77] Creating layer relu5_1
I1124 13:01:06.750604 20428 net.cpp:100] Creating Layer relu5_1
I1124 13:01:06.750610 20428 net.cpp:434] relu5_1 <- conv5_1
I1124 13:01:06.750617 20428 net.cpp:395] relu5_1 -> conv5_1 (in-place)
I1124 13:01:06.750984 20428 net.cpp:150] Setting up relu5_1
I1124 13:01:06.750998 20428 net.cpp:157] Top shape: 1 512 36 44 (811008)
I1124 13:01:06.751001 20428 net.cpp:165] Memory required for data: 929100768
I1124 13:01:06.751006 20428 layer_factory.hpp:77] Creating layer conv5_2
I1124 13:01:06.751020 20428 net.cpp:100] Creating Layer conv5_2
I1124 13:01:06.751025 20428 net.cpp:434] conv5_2 <- conv5_1
I1124 13:01:06.751032 20428 net.cpp:408] conv5_2 -> conv5_2
I1124 13:01:06.768307 20428 net.cpp:150] Setting up conv5_2
I1124 13:01:06.768337 20428 net.cpp:157] Top shape: 1 512 36 44 (811008)
I1124 13:01:06.768342 20428 net.cpp:165] Memory required for data: 932344800
I1124 13:01:06.768350 20428 layer_factory.hpp:77] Creating layer relu5_2
I1124 13:01:06.768360 20428 net.cpp:100] Creating Layer relu5_2
I1124 13:01:06.768367 20428 net.cpp:434] relu5_2 <- conv5_2
I1124 13:01:06.768373 20428 net.cpp:395] relu5_2 -> conv5_2 (in-place)
I1124 13:01:06.768571 20428 net.cpp:150] Setting up relu5_2
I1124 13:01:06.768584 20428 net.cpp:157] Top shape: 1 512 36 44 (811008)
I1124 13:01:06.768587 20428 net.cpp:165] Memory required for data: 935588832
I1124 13:01:06.768591 20428 layer_factory.hpp:77] Creating layer conv5_3
I1124 13:01:06.768609 20428 net.cpp:100] Creating Layer conv5_3
I1124 13:01:06.768613 20428 net.cpp:434] conv5_3 <- conv5_2
I1124 13:01:06.768622 20428 net.cpp:408] conv5_3 -> conv5_3
I1124 13:01:06.785804 20428 net.cpp:150] Setting up conv5_3
I1124 13:01:06.785832 20428 net.cpp:157] Top shape: 1 512 36 44 (811008)
I1124 13:01:06.785836 20428 net.cpp:165] Memory required for data: 938832864
I1124 13:01:06.785846 20428 layer_factory.hpp:77] Creating layer relu5_3
I1124 13:01:06.785857 20428 net.cpp:100] Creating Layer relu5_3
I1124 13:01:06.785863 20428 net.cpp:434] relu5_3 <- conv5_3
I1124 13:01:06.785869 20428 net.cpp:395] relu5_3 -> conv5_3 (in-place)
I1124 13:01:06.786419 20428 net.cpp:150] Setting up relu5_3
I1124 13:01:06.786433 20428 net.cpp:157] Top shape: 1 512 36 44 (811008)
I1124 13:01:06.786437 20428 net.cpp:165] Memory required for data: 942076896
I1124 13:01:06.786442 20428 layer_factory.hpp:77] Creating layer pool5
I1124 13:01:06.786453 20428 net.cpp:100] Creating Layer pool5
I1124 13:01:06.786458 20428 net.cpp:434] pool5 <- conv5_3
I1124 13:01:06.786464 20428 net.cpp:408] pool5 -> pool5
I1124 13:01:06.786517 20428 net.cpp:150] Setting up pool5
I1124 13:01:06.786525 20428 net.cpp:157] Top shape: 1 512 18 22 (202752)
I1124 13:01:06.786528 20428 net.cpp:165] Memory required for data: 942887904
I1124 13:01:06.786532 20428 layer_factory.hpp:77] Creating layer fc6
I1124 13:01:06.786545 20428 net.cpp:100] Creating Layer fc6
I1124 13:01:06.786550 20428 net.cpp:434] fc6 <- pool5
I1124 13:01:06.786557 20428 net.cpp:408] fc6 -> fc6
I1124 13:01:07.527482 20428 net.cpp:150] Setting up fc6
I1124 13:01:07.527532 20428 net.cpp:157] Top shape: 1 4096 12 16 (786432)
I1124 13:01:07.527539 20428 net.cpp:165] Memory required for data: 946033632
I1124 13:01:07.527549 20428 layer_factory.hpp:77] Creating layer relu6
I1124 13:01:07.527572 20428 net.cpp:100] Creating Layer relu6
I1124 13:01:07.527578 20428 net.cpp:434] relu6 <- fc6
I1124 13:01:07.527586 20428 net.cpp:395] relu6 -> fc6 (in-place)
I1124 13:01:07.527961 20428 net.cpp:150] Setting up relu6
I1124 13:01:07.527976 20428 net.cpp:157] Top shape: 1 4096 12 16 (786432)
I1124 13:01:07.527979 20428 net.cpp:165] Memory required for data: 949179360
I1124 13:01:07.527984 20428 layer_factory.hpp:77] Creating layer drop6
I1124 13:01:07.527999 20428 net.cpp:100] Creating Layer drop6
I1124 13:01:07.528004 20428 net.cpp:434] drop6 <- fc6
I1124 13:01:07.528010 20428 net.cpp:395] drop6 -> fc6 (in-place)
I1124 13:01:07.528046 20428 net.cpp:150] Setting up drop6
I1124 13:01:07.528053 20428 net.cpp:157] Top shape: 1 4096 12 16 (786432)
I1124 13:01:07.528058 20428 net.cpp:165] Memory required for data: 952325088
I1124 13:01:07.528061 20428 layer_factory.hpp:77] Creating layer fc7
I1124 13:01:07.528076 20428 net.cpp:100] Creating Layer fc7
I1124 13:01:07.528081 20428 net.cpp:434] fc7 <- fc6
I1124 13:01:07.528090 20428 net.cpp:408] fc7 -> fc7
I1124 13:01:07.659454 20428 net.cpp:150] Setting up fc7
I1124 13:01:07.659504 20428 net.cpp:157] Top shape: 1 4096 12 16 (786432)
I1124 13:01:07.659509 20428 net.cpp:165] Memory required for data: 955470816
I1124 13:01:07.659520 20428 layer_factory.hpp:77] Creating layer relu7
I1124 13:01:07.659533 20428 net.cpp:100] Creating Layer relu7
I1124 13:01:07.659538 20428 net.cpp:434] relu7 <- fc7
I1124 13:01:07.659548 20428 net.cpp:395] relu7 -> fc7 (in-place)
I1124 13:01:07.659762 20428 net.cpp:150] Setting up relu7
I1124 13:01:07.659772 20428 net.cpp:157] Top shape: 1 4096 12 16 (786432)
I1124 13:01:07.659776 20428 net.cpp:165] Memory required for data: 958616544
I1124 13:01:07.659780 20428 layer_factory.hpp:77] Creating layer drop7
I1124 13:01:07.659791 20428 net.cpp:100] Creating Layer drop7
I1124 13:01:07.659796 20428 net.cpp:434] drop7 <- fc7
I1124 13:01:07.659801 20428 net.cpp:395] drop7 -> fc7 (in-place)
I1124 13:01:07.659837 20428 net.cpp:150] Setting up drop7
I1124 13:01:07.659843 20428 net.cpp:157] Top shape: 1 4096 12 16 (786432)
I1124 13:01:07.659847 20428 net.cpp:165] Memory required for data: 961762272
I1124 13:01:07.659850 20428 layer_factory.hpp:77] Creating layer score_fr
I1124 13:01:07.659863 20428 net.cpp:100] Creating Layer score_fr
I1124 13:01:07.659868 20428 net.cpp:434] score_fr <- fc7
I1124 13:01:07.659876 20428 net.cpp:408] score_fr -> score_fr
I1124 13:01:07.661283 20428 net.cpp:150] Setting up score_fr
I1124 13:01:07.661298 20428 net.cpp:157] Top shape: 1 6 12 16 (1152)
I1124 13:01:07.661303 20428 net.cpp:165] Memory required for data: 961766880
I1124 13:01:07.661310 20428 layer_factory.hpp:77] Creating layer upscore2
I1124 13:01:07.661325 20428 net.cpp:100] Creating Layer upscore2
I1124 13:01:07.661330 20428 net.cpp:434] upscore2 <- score_fr
I1124 13:01:07.661337 20428 net.cpp:408] upscore2 -> upscore2
I1124 13:01:07.661551 20428 net.cpp:150] Setting up upscore2
I1124 13:01:07.661561 20428 net.cpp:157] Top shape: 1 6 26 34 (5304)
I1124 13:01:07.661564 20428 net.cpp:165] Memory required for data: 961788096
I1124 13:01:07.661578 20428 layer_factory.hpp:77] Creating layer upscore2_upscore2_0_split
I1124 13:01:07.661586 20428 net.cpp:100] Creating Layer upscore2_upscore2_0_split
I1124 13:01:07.661592 20428 net.cpp:434] upscore2_upscore2_0_split <- upscore2
I1124 13:01:07.661597 20428 net.cpp:408] upscore2_upscore2_0_split -> upscore2_upscore2_0_split_0
I1124 13:01:07.661604 20428 net.cpp:408] upscore2_upscore2_0_split -> upscore2_upscore2_0_split_1
I1124 13:01:07.661645 20428 net.cpp:150] Setting up upscore2_upscore2_0_split
I1124 13:01:07.661653 20428 net.cpp:157] Top shape: 1 6 26 34 (5304)
I1124 13:01:07.661658 20428 net.cpp:157] Top shape: 1 6 26 34 (5304)
I1124 13:01:07.661661 20428 net.cpp:165] Memory required for data: 961830528
I1124 13:01:07.661665 20428 layer_factory.hpp:77] Creating layer scale_pool4
I1124 13:01:07.661677 20428 net.cpp:100] Creating Layer scale_pool4
I1124 13:01:07.661681 20428 net.cpp:434] scale_pool4 <- pool4_pool4_0_split_1
I1124 13:01:07.661702 20428 net.cpp:408] scale_pool4 -> scale_pool4
I1124 13:01:07.661816 20428 net.cpp:150] Setting up scale_pool4
I1124 13:01:07.661824 20428 net.cpp:157] Top shape: 1 512 36 44 (811008)
I1124 13:01:07.661828 20428 net.cpp:165] Memory required for data: 965074560
I1124 13:01:07.661834 20428 layer_factory.hpp:77] Creating layer score_pool4
I1124 13:01:07.661844 20428 net.cpp:100] Creating Layer score_pool4
I1124 13:01:07.661849 20428 net.cpp:434] score_pool4 <- scale_pool4
I1124 13:01:07.661857 20428 net.cpp:408] score_pool4 -> score_pool4
I1124 13:01:07.663110 20428 net.cpp:150] Setting up score_pool4
I1124 13:01:07.663123 20428 net.cpp:157] Top shape: 1 6 36 44 (9504)
I1124 13:01:07.663128 20428 net.cpp:165] Memory required for data: 965112576
I1124 13:01:07.663136 20428 layer_factory.hpp:77] Creating layer score_pool4c
I1124 13:01:07.663148 20428 net.cpp:100] Creating Layer score_pool4c
I1124 13:01:07.663153 20428 net.cpp:434] score_pool4c <- score_pool4
I1124 13:01:07.663159 20428 net.cpp:434] score_pool4c <- upscore2_upscore2_0_split_0
I1124 13:01:07.663166 20428 net.cpp:408] score_pool4c -> score_pool4c
I1124 13:01:07.663208 20428 net.cpp:150] Setting up score_pool4c
I1124 13:01:07.663216 20428 net.cpp:157] Top shape: 1 6 26 34 (5304)
I1124 13:01:07.663220 20428 net.cpp:165] Memory required for data: 965133792
I1124 13:01:07.663224 20428 layer_factory.hpp:77] Creating layer fuse_pool4
I1124 13:01:07.663233 20428 net.cpp:100] Creating Layer fuse_pool4
I1124 13:01:07.663238 20428 net.cpp:434] fuse_pool4 <- upscore2_upscore2_0_split_1
I1124 13:01:07.663242 20428 net.cpp:434] fuse_pool4 <- score_pool4c
I1124 13:01:07.663251 20428 net.cpp:408] fuse_pool4 -> fuse_pool4
I1124 13:01:07.663281 20428 net.cpp:150] Setting up fuse_pool4
I1124 13:01:07.663288 20428 net.cpp:157] Top shape: 1 6 26 34 (5304)
I1124 13:01:07.663291 20428 net.cpp:165] Memory required for data: 965155008
I1124 13:01:07.663295 20428 layer_factory.hpp:77] Creating layer upscore_pool4
I1124 13:01:07.663303 20428 net.cpp:100] Creating Layer upscore_pool4
I1124 13:01:07.663307 20428 net.cpp:434] upscore_pool4 <- fuse_pool4
I1124 13:01:07.663317 20428 net.cpp:408] upscore_pool4 -> upscore_pool4
I1124 13:01:07.663522 20428 net.cpp:150] Setting up upscore_pool4
I1124 13:01:07.663530 20428 net.cpp:157] Top shape: 1 6 54 70 (22680)
I1124 13:01:07.663534 20428 net.cpp:165] Memory required for data: 965245728
I1124 13:01:07.663540 20428 layer_factory.hpp:77] Creating layer upscore_pool4_upscore_pool4_0_split
I1124 13:01:07.663548 20428 net.cpp:100] Creating Layer upscore_pool4_upscore_pool4_0_split
I1124 13:01:07.663552 20428 net.cpp:434] upscore_pool4_upscore_pool4_0_split <- upscore_pool4
I1124 13:01:07.663558 20428 net.cpp:408] upscore_pool4_upscore_pool4_0_split -> upscore_pool4_upscore_pool4_0_split_0
I1124 13:01:07.663565 20428 net.cpp:408] upscore_pool4_upscore_pool4_0_split -> upscore_pool4_upscore_pool4_0_split_1
I1124 13:01:07.663602 20428 net.cpp:150] Setting up upscore_pool4_upscore_pool4_0_split
I1124 13:01:07.663609 20428 net.cpp:157] Top shape: 1 6 54 70 (22680)
I1124 13:01:07.663614 20428 net.cpp:157] Top shape: 1 6 54 70 (22680)
I1124 13:01:07.663617 20428 net.cpp:165] Memory required for data: 965427168
I1124 13:01:07.663621 20428 layer_factory.hpp:77] Creating layer scale_pool3
I1124 13:01:07.663628 20428 net.cpp:100] Creating Layer scale_pool3
I1124 13:01:07.663632 20428 net.cpp:434] scale_pool3 <- pool3_pool3_0_split_1
I1124 13:01:07.663638 20428 net.cpp:408] scale_pool3 -> scale_pool3
I1124 13:01:07.663740 20428 net.cpp:150] Setting up scale_pool3
I1124 13:01:07.663748 20428 net.cpp:157] Top shape: 1 256 72 88 (1622016)
I1124 13:01:07.663751 20428 net.cpp:165] Memory required for data: 971915232
I1124 13:01:07.663756 20428 layer_factory.hpp:77] Creating layer score_pool3
I1124 13:01:07.663767 20428 net.cpp:100] Creating Layer score_pool3
I1124 13:01:07.663771 20428 net.cpp:434] score_pool3 <- scale_pool3
I1124 13:01:07.663780 20428 net.cpp:408] score_pool3 -> score_pool3
I1124 13:01:07.664997 20428 net.cpp:150] Setting up score_pool3
I1124 13:01:07.665016 20428 net.cpp:157] Top shape: 1 6 72 88 (38016)
I1124 13:01:07.665021 20428 net.cpp:165] Memory required for data: 972067296
I1124 13:01:07.665030 20428 layer_factory.hpp:77] Creating layer score_pool3c
I1124 13:01:07.665037 20428 net.cpp:100] Creating Layer score_pool3c
I1124 13:01:07.665041 20428 net.cpp:434] score_pool3c <- score_pool3
I1124 13:01:07.665047 20428 net.cpp:434] score_pool3c <- upscore_pool4_upscore_pool4_0_split_0
I1124 13:01:07.665055 20428 net.cpp:408] score_pool3c -> score_pool3c
I1124 13:01:07.665087 20428 net.cpp:150] Setting up score_pool3c
I1124 13:01:07.665096 20428 net.cpp:157] Top shape: 1 6 54 70 (22680)
I1124 13:01:07.665099 20428 net.cpp:165] Memory required for data: 972158016
I1124 13:01:07.665103 20428 layer_factory.hpp:77] Creating layer fuse_pool3
I1124 13:01:07.665110 20428 net.cpp:100] Creating Layer fuse_pool3
I1124 13:01:07.665114 20428 net.cpp:434] fuse_pool3 <- upscore_pool4_upscore_pool4_0_split_1
I1124 13:01:07.665119 20428 net.cpp:434] fuse_pool3 <- score_pool3c
I1124 13:01:07.665125 20428 net.cpp:408] fuse_pool3 -> fuse_pool3
I1124 13:01:07.665151 20428 net.cpp:150] Setting up fuse_pool3
I1124 13:01:07.665158 20428 net.cpp:157] Top shape: 1 6 54 70 (22680)
I1124 13:01:07.665161 20428 net.cpp:165] Memory required for data: 972248736
I1124 13:01:07.665165 20428 layer_factory.hpp:77] Creating layer upscore8
I1124 13:01:07.665174 20428 net.cpp:100] Creating Layer upscore8
I1124 13:01:07.665179 20428 net.cpp:434] upscore8 <- fuse_pool3
I1124 13:01:07.665185 20428 net.cpp:408] upscore8 -> upscore8
I1124 13:01:07.665446 20428 net.cpp:150] Setting up upscore8
I1124 13:01:07.665454 20428 net.cpp:157] Top shape: 1 6 440 568 (1499520)
I1124 13:01:07.665458 20428 net.cpp:165] Memory required for data: 978246816
I1124 13:01:07.665463 20428 layer_factory.hpp:77] Creating layer score
I1124 13:01:07.665472 20428 net.cpp:100] Creating Layer score
I1124 13:01:07.665477 20428 net.cpp:434] score <- upscore8
I1124 13:01:07.665482 20428 net.cpp:434] score <- data_data_0_split_1
I1124 13:01:07.665488 20428 net.cpp:408] score -> score
I1124 13:01:07.665513 20428 net.cpp:150] Setting up score
I1124 13:01:07.665518 20428 net.cpp:157] Top shape: 1 6 375 500 (1125000)
I1124 13:01:07.665523 20428 net.cpp:165] Memory required for data: 982746816
I1124 13:01:07.665526 20428 layer_factory.hpp:77] Creating layer loss
I1124 13:01:07.665535 20428 net.cpp:100] Creating Layer loss
I1124 13:01:07.665539 20428 net.cpp:434] loss <- score
I1124 13:01:07.665544 20428 net.cpp:434] loss <- label
I1124 13:01:07.665555 20428 net.cpp:408] loss -> loss
I1124 13:01:07.665566 20428 layer_factory.hpp:77] Creating layer loss
…
I1124 13:01:07.668578 20428 net.cpp:283] Network initialization done.
I1124 13:01:07.669692 20428 solver.cpp:181] Creating test net (#0) specified by test_net file: val.prototxt
I1124 13:01:07.670053 20428 net.cpp:58] Initializing net from parameters: 
state {
  phase: TEST
}
layer {
  name: "data"
  type: "Python"
  top: "data"
  top: "label"
  python_param {
    module: "voc_layers"
    layer: "PartialVOCSegDataLayer"
    param_str: "{\'voc_dir\': \'../data/pascal-obfuscated/VOC2011\', \'seed\': 1337, \'split\': \'seg11valid5\', \'mean\': (104.00699, 116.66877, 122.67892)}"
  }
}
layer {
  name: "conv1_1"
  type: "Convolution"
  bottom: "data"
  top: "conv1_1"
  param {
    lr_mult: 1
    decay_mult: 1
  }
  param {
    lr_mult: 2
    decay_mult: 0
  }
  convolution_param {
    num_output: 64
    pad: 100
    kernel_size: 3
    stride: 1
    weight_filler {
      type: "xavier"
    }
  }
}
layer {
  name: "relu1_1"
  type: "ReLU"
  bottom: "conv1_1"
  top: "conv1_1"
}
layer {
  name: "conv1_2"
  type: "Convolution"
  bottom: "conv1_1"
  top: "conv1_2"
  param {
    lr_mult: 1
    decay_mult: 1
  }
  param {
    lr_mult: 2
    decay_mult: 0
  }
  convolution_param {
    num_output: 64
    pad: 1
    kernel_size: 3
    stride: 1
    weight_filler {
      type: "xavier"
    }
  }
}
layer {
  name: "relu1_2"
  type: "ReLU"
  bottom: "conv1_2"
  top: "conv1_2"
}
layer {
  name: "pool1"
  type: "Pooling"
  bottom: "conv1_2"
  top: "pool1"
  pooling_param {
    pool: MAX
    kernel_size: 2
    stride: 2
  }
}
layer {
  name: "conv2_1"
  type: "Convolution"
  bottom: "pool1"
  top: "conv2_1"
  param {
    lr_mult: 1
    decay_mult: 1
  }
  param {
    lr_mult: 2
    decay_mult: 0
  }
  convolution_param {
    num_output: 128
    pad: 1
    kernel_size: 3
    stride: 1
    weight_filler {
      type: "xavier"
    }
  }
}
layer {
  name: "relu2_1"
  type: "ReLU"
  bottom: "conv2_1"
  top: "conv2_1"
}
layer {
  name: "conv2_2"
  type: "Convolution"
  bottom: "conv2_1"
  top: "conv2_2"
  param {
    lr_mult: 1
    decay_mult: 1
  }
  param {
    lr_mult: 2
    decay_mult: 0
  }
  convolution_param {
    num_output: 128
    pad: 1
    kernel_size: 3
    stride: 1
    weight_filler {
      type: "xavier"
    }
  }
}
layer {
  name: "relu2_2"
  type: "ReLU"
  bottom: "conv2_2"
  top: "conv2_2"
}
layer {
  name: "pool2"
  type: "Pooling"
  bottom: "conv2_2"
  top: "pool2"
  pooling_param {
    pool: MAX
    kernel_size: 2
    stride: 2
  }
}
layer {
  name: "conv3_1"
  type: "Convolution"
  bottom: "pool2"
  top: "conv3_1"
  param {
    lr_mult: 1
    decay_mult: 1
  }
  param {
    lr_mult: 2
    decay_mult: 0
  }
  convolution_param {
    num_output: 256
    pad: 1
    kernel_size: 3
    stride: 1
    weight_filler {
      type: "xavier"
    }
  }
}
layer {
  name: "relu3_1"
  type: "ReLU"
  bottom: "conv3_1"
  top: "conv3_1"
}
layer {
  name: "conv3_2"
  type: "Convolution"
  bottom: "conv3_1"
  top: "conv3_2"
  param {
    lr_mult: 1
    decay_mult: 1
  }
  param {
    lr_mult: 2
    decay_mult: 0
  }
  convolution_param {
    num_output: 256
    pad: 1
    kernel_size: 3
    stride: 1
    weight_filler {
      type: "xavier"
    }
  }
}
layer {
  name: "relu3_2"
  type: "ReLU"
  bottom: "conv3_2"
  top: "conv3_2"
}
layer {
  name: "conv3_3"
  type: "Convolution"
  bottom: "conv3_2"
  top: "conv3_3"
  param {
    lr_mult: 1
    decay_mult: 1
  }
  param {
    lr_mult: 2
    decay_mult: 0
  }
  convolution_param {
    num_output: 256
    pad: 1
    kernel_size: 3
    stride: 1
    weight_filler {
      type: "xavier"
    }
  }
}
layer {
  name: "relu3_3"
  type: "ReLU"
  bottom: "conv3_3"
  top: "conv3_3"
}
layer {
  name: "pool3"
  type: "Pooling"
  bottom: "conv3_3"
  top: "pool3"
  pooling_param {
    pool: MAX
    kernel_size: 2
    stride: 2
  }
}
layer {
  name: "conv4_1"
  type: "Convolution"
  bottom: "pool3"
  top: "conv4_1"
  param {
    lr_mult: 1
    decay_mult: 1
  }
  param {
    lr_mult: 2
    decay_mult: 0
  }
  convolution_param {
    num_output: 512
    pad: 1
    kernel_size: 3
    stride: 1
    weight_filler {
      type: "xavier"
    }
  }
}
layer {
  name: "relu4_1"
  type: "ReLU"
  bottom: "conv4_1"
  top: "conv4_1"
}
layer {
  name: "conv4_2"
  type: "Convolution"
  bottom: "conv4_1"
  top: "conv4_2"
  param {
    lr_mult: 1
    decay_mult: 1
  }
  param {
    lr_mult: 2
    decay_mult: 0
  }
  convolution_param {
    num_output: 512
    pad: 1
    kernel_size: 3
    stride: 1
    weight_filler {
      type: "xavier"
    }
  }
}
layer {
  name: "relu4_2"
  type: "ReLU"
  bottom: "conv4_2"
  top: "conv4_2"
}
layer {
  name: "conv4_3"
  type: "Convolution"
  bottom: "conv4_2"
  top: "conv4_3"
  param {
    lr_mult: 1
    decay_mult: 1
  }
  param {
    lr_mult: 2
    decay_mult: 0
  }
  convolution_param {
    num_output: 512
    pad: 1
    kernel_size: 3
    stride: 1
    weight_filler {
      type: "xavier"
    }
  }
}
layer {
  name: "relu4_3"
  type: "ReLU"
  bottom: "conv4_3"
  top: "conv4_3"
}
layer {
  name: "pool4"
  type: "Pooling"
  bottom: "conv4_3"
  top: "pool4"
  pooling_param {
    pool: MAX
    kernel_size: 2
    stride: 2
  }
}
layer {
  name: "conv5_1"
  type: "Convolution"
  bottom: "pool4"
  top: "conv5_1"
  param {
    lr_mult: 1
    decay_mult: 1
  }
  param {
    lr_mult: 2
    decay_mult: 0
  }
  convolution_param {
    num_output: 512
    pad: 1
    kernel_size: 3
    stride: 1
    weight_filler {
      type: "xavier"
    }
  }
}
layer {
  name: "relu5_1"
  type: "ReLU"
  bottom: "conv5_1"
  top: "conv5_1"
}
layer {
  name: "conv5_2"
  type: "Convolution"
  bottom: "conv5_1"
  top: "conv5_2"
  param {
    lr_mult: 1
    decay_mult: 1
  }
  param {
    lr_mult: 2
    decay_mult: 0
  }
  convolution_param {
    num_output: 512
    pad: 1
    kernel_size: 3
    stride: 1
    weight_filler {
      type: "xavier"
    }
  }
}
layer {
  name: "relu5_2"
  type: "ReLU"
  bottom: "conv5_2"
  top: "conv5_2"
}
layer {
  name: "conv5_3"
  type: "Convolution"
  bottom: "conv5_2"
  top: "conv5_3"
  param {
    lr_mult: 1
    decay_mult: 1
  }
  param {
    lr_mult: 2
    decay_mult: 0
  }
  convolution_param {
    num_output: 512
    pad: 1
    kernel_size: 3
    stride: 1
    weight_filler {
      type: "xavier"
    }
  }
}
layer {
  name: "relu5_3"
  type: "ReLU"
  bottom: "conv5_3"
  top: "conv5_3"
}
layer {
  name: "pool5"
  type: "Pooling"
  bottom: "conv5_3"
  top: "pool5"
  pooling_param {
    pool: MAX
    kernel_size: 2
    stride: 2
  }
}
layer {
  name: "fc6"
  type: "Convolution"
  bottom: "pool5"
  top: "fc6"
  param {
    lr_mult: 1
    decay_mult: 1
  }
  param {
    lr_mult: 2
    decay_mult: 0
  }
  convolution_param {
    num_output: 4096
    pad: 0
    kernel_size: 7
    stride: 1
    weight_filler {
      type: "xavier"
    }
  }
}
layer {
  name: "relu6"
  type: "ReLU"
  bottom: "fc6"
  top: "fc6"
}
layer {
  name: "drop6"
  type: "Dropout"
  bottom: "fc6"
  top: "fc6"
  dropout_param {
    dropout_ratio: 0.5
  }
}
layer {
  name: "fc7"
  type: "Convolution"
  bottom: "fc6"
  top: "fc7"
  param {
    lr_mult: 1
    decay_mult: 1
  }
  param {
    lr_mult: 2
    decay_mult: 0
  }
  convolution_param {
    num_output: 4096
    pad: 0
    kernel_size: 1
    stride: 1
    weight_filler {
      type: "xavier"
    }
  }
}
layer {
  name: "relu7"
  type: "ReLU"
  bottom: "fc7"
  top: "fc7"
}
layer {
  name: "drop7"
  type: "Dropout"
  bottom: "fc7"
  top: "fc7"
  dropout_param {
    dropout_ratio: 0.5
  }
}
layer {
  name: "score_fr"
  type: "Convolution"
  bottom: "fc7"
  top: "score_fr"
  param {
    lr_mult: 1
    decay_mult: 1
  }
  param {
    lr_mult: 2
    decay_mult: 0
  }
  convolution_param {
    num_output: 6
    pad: 0
    kernel_size: 1
    weight_filler {
      type: "xavier"
    }
  }
}
layer {
  name: "upscore2"
  type: "Deconvolution"
  bottom: "score_fr"
  top: "upscore2"
  param {
    lr_mult: 0
  }
  convolution_param {
    num_output: 6
    bias_term: false
    kernel_size: 4
    stride: 2
    weight_filler {
      type: "xavier"
    }
  }
}
layer {
  name: "scale_pool4"
  type: "Scale"
  bottom: "pool4"
  top: "scale_pool4"
  param {
    lr_mult: 0
  }
  scale_param {
    filler {
      type: "constant"
      value: 0.01
    }
  }
}
layer {
  name: "score_pool4"
  type: "Convolution"
  bottom: "scale_pool4"
  top: "score_pool4"
  param {
    lr_mult: 1
    decay_mult: 1
  }
  param {
    lr_mult: 2
    decay_mult: 0
  }
  convolution_param {
    num_output: 6
    pad: 0
    kernel_size: 1
    weight_filler {
      type: "xavier"
    }
  }
}
layer {
  name: "score_pool4c"
  type: "Crop"
  bottom: "score_pool4"
  bottom: "upscore2"
  top: "score_pool4c"
  crop_param {
    axis: 2
    offset: 5
  }
}
layer {
  name: "fuse_pool4"
  type: "Eltwise"
  bottom: "upscore2"
  bottom: "score_pool4c"
  top: "fuse_pool4"
  eltwise_param {
    operation: SUM
  }
}
layer {
  name: "upscore_pool4"
  type: "Deconvolution"
  bottom: "fuse_pool4"
  top: "upscore_pool4"
  param {
    lr_mult: 0
  }
  convolution_param {
    num_output: 6
    bias_term: false
    kernel_size: 4
    stride: 2
    weight_filler {
      type: "xavier"
    }
  }
}
layer {
  name: "scale_pool3"
  type: "Scale"
  bottom: "pool3"
  top: "scale_pool3"
  param {
    lr_mult: 0
  }
  scale_param {
    filler {
      type: "constant"
      value: 0.0001
    }
  }
}
layer {
  name: "score_pool3"
  type: "Convolution"
  bottom: "scale_pool3"
  top: "score_pool3"
  param {
    lr_mult: 1
    decay_mult: 1
  }
  param {
    lr_mult: 2
    decay_mult: 0
  }
  convolution_param {
    num_output: 6
    pad: 0
    kernel_size: 1
    weight_filler {
      type: "xavier"
    }
  }
}
layer {
  name: "score_pool3c"
  type: "Crop"
  bottom: "score_pool3"
  bottom: "upscore_pool4"
  top: "score_pool3c"
  crop_param {
    axis: 2
    offset: 9
  }
}
layer {
  name: "fuse_pool3"
  type: "Eltwise"
  bottom: "upscore_pool4"
  bottom: "score_pool3c"
  top: "fuse_pool3"
  eltwise_param {
    operation: SUM
  }
}
layer {
  name: "upscore8"
  type: "Deconvolution"
  bottom: "fuse_pool3"
  top: "upscore8"
  param {
    lr_mult: 0
  }
  convolution_param {
    num_output: 6
    bias_term: false
    kernel_size: 16
    stride: 8
    weight_filler {
      type: "xavier"
    }
  }
}
layer {
  name: "score"
  type: "Crop"
  bottom: "upscore8"
  bottom: "data"
  top: "score"
  crop_param {
    axis: 2
    offset: 31
  }
}
layer {
  name: "loss"
  type: "SoftmaxWithLoss"
  bottom: "score"
  bottom: "label"
  top: "loss"
  loss_param {
    ignore_label: 255
    normalize: false
  }
}
I1124 13:01:07.670276 20428 layer_factory.hpp:77] Creating layer data
I1124 13:01:07.670357 20428 net.cpp:100] Creating Layer data
I1124 13:01:07.670366 20428 net.cpp:408] data -> data
I1124 13:01:07.670373 20428 net.cpp:408] data -> label
I1124 13:01:07.687516 20428 net.cpp:150] Setting up data
I1124 13:01:07.687536 20428 net.cpp:157] Top shape: 1 3 335 500 (502500)
I1124 13:01:07.687542 20428 net.cpp:157] Top shape: 1 1 335 500 (167500)
I1124 13:01:07.687546 20428 net.cpp:165] Memory required for data: 2680000
I1124 13:01:07.687551 20428 layer_factory.hpp:77] Creating layer data_data_0_split
I1124 13:01:07.687561 20428 net.cpp:100] Creating Layer data_data_0_split
I1124 13:01:07.687564 20428 net.cpp:434] data_data_0_split <- data
I1124 13:01:07.687572 20428 net.cpp:408] data_data_0_split -> data_data_0_split_0
I1124 13:01:07.687579 20428 net.cpp:408] data_data_0_split -> data_data_0_split_1
I1124 13:01:07.687621 20428 net.cpp:150] Setting up data_data_0_split
I1124 13:01:07.687629 20428 net.cpp:157] Top shape: 1 3 335 500 (502500)
I1124 13:01:07.687634 20428 net.cpp:157] Top shape: 1 3 335 500 (502500)
I1124 13:01:07.687638 20428 net.cpp:165] Memory required for data: 6700000
I1124 13:01:07.687643 20428 layer_factory.hpp:77] Creating layer conv1_1
I1124 13:01:07.687652 20428 net.cpp:100] Creating Layer conv1_1
I1124 13:01:07.687656 20428 net.cpp:434] conv1_1 <- data_data_0_split_0
I1124 13:01:07.687664 20428 net.cpp:408] conv1_1 -> conv1_1
I1124 13:01:07.689796 20428 net.cpp:150] Setting up conv1_1
I1124 13:01:07.689813 20428 net.cpp:157] Top shape: 1 64 533 698 (23810176)
I1124 13:01:07.689817 20428 net.cpp:165] Memory required for data: 101940704
I1124 13:01:07.689829 20428 layer_factory.hpp:77] Creating layer relu1_1
I1124 13:01:07.689837 20428 net.cpp:100] Creating Layer relu1_1
I1124 13:01:07.689841 20428 net.cpp:434] relu1_1 <- conv1_1
I1124 13:01:07.689847 20428 net.cpp:395] relu1_1 -> conv1_1 (in-place)
I1124 13:01:07.690042 20428 net.cpp:150] Setting up relu1_1
I1124 13:01:07.690052 20428 net.cpp:157] Top shape: 1 64 533 698 (23810176)
I1124 13:01:07.690057 20428 net.cpp:165] Memory required for data: 197181408
I1124 13:01:07.690060 20428 layer_factory.hpp:77] Creating layer conv1_2
I1124 13:01:07.690071 20428 net.cpp:100] Creating Layer conv1_2
I1124 13:01:07.690075 20428 net.cpp:434] conv1_2 <- conv1_1
I1124 13:01:07.690083 20428 net.cpp:408] conv1_2 -> conv1_2
I1124 13:01:07.692487 20428 net.cpp:150] Setting up conv1_2
I1124 13:01:07.692503 20428 net.cpp:157] Top shape: 1 64 533 698 (23810176)
I1124 13:01:07.692508 20428 net.cpp:165] Memory required for data: 292422112
I1124 13:01:07.692519 20428 layer_factory.hpp:77] Creating layer relu1_2
I1124 13:01:07.692526 20428 net.cpp:100] Creating Layer relu1_2
I1124 13:01:07.692531 20428 net.cpp:434] relu1_2 <- conv1_2
I1124 13:01:07.692538 20428 net.cpp:395] relu1_2 -> conv1_2 (in-place)
I1124 13:01:07.692962 20428 net.cpp:150] Setting up relu1_2
I1124 13:01:07.692976 20428 net.cpp:157] Top shape: 1 64 533 698 (23810176)
I1124 13:01:07.692981 20428 net.cpp:165] Memory required for data: 387662816
I1124 13:01:07.692986 20428 layer_factory.hpp:77] Creating layer pool1
I1124 13:01:07.692993 20428 net.cpp:100] Creating Layer pool1
I1124 13:01:07.692998 20428 net.cpp:434] pool1 <- conv1_2
I1124 13:01:07.693004 20428 net.cpp:408] pool1 -> pool1
I1124 13:01:07.693056 20428 net.cpp:150] Setting up pool1
I1124 13:01:07.693064 20428 net.cpp:157] Top shape: 1 64 267 349 (5963712)
I1124 13:01:07.693068 20428 net.cpp:165] Memory required for data: 411517664
I1124 13:01:07.693071 20428 layer_factory.hpp:77] Creating layer conv2_1
I1124 13:01:07.693081 20428 net.cpp:100] Creating Layer conv2_1
I1124 13:01:07.693085 20428 net.cpp:434] conv2_1 <- pool1
I1124 13:01:07.693092 20428 net.cpp:408] conv2_1 -> conv2_1
I1124 13:01:07.695438 20428 net.cpp:150] Setting up conv2_1
I1124 13:01:07.695456 20428 net.cpp:157] Top shape: 1 128 267 349 (11927424)
I1124 13:01:07.695459 20428 net.cpp:165] Memory required for data: 459227360
I1124 13:01:07.695471 20428 layer_factory.hpp:77] Creating layer relu2_1
I1124 13:01:07.695478 20428 net.cpp:100] Creating Layer relu2_1
I1124 13:01:07.695483 20428 net.cpp:434] relu2_1 <- conv2_1
I1124 13:01:07.695489 20428 net.cpp:395] relu2_1 -> conv2_1 (in-place)
I1124 13:01:07.695878 20428 net.cpp:150] Setting up relu2_1
I1124 13:01:07.695891 20428 net.cpp:157] Top shape: 1 128 267 349 (11927424)
I1124 13:01:07.695896 20428 net.cpp:165] Memory required for data: 506937056
I1124 13:01:07.695900 20428 layer_factory.hpp:77] Creating layer conv2_2
I1124 13:01:07.695910 20428 net.cpp:100] Creating Layer conv2_2
I1124 13:01:07.695915 20428 net.cpp:434] conv2_2 <- conv2_1
I1124 13:01:07.695922 20428 net.cpp:408] conv2_2 -> conv2_2
I1124 13:01:07.698591 20428 net.cpp:150] Setting up conv2_2
I1124 13:01:07.698607 20428 net.cpp:157] Top shape: 1 128 267 349 (11927424)
I1124 13:01:07.698612 20428 net.cpp:165] Memory required for data: 554646752
I1124 13:01:07.698621 20428 layer_factory.hpp:77] Creating layer relu2_2
I1124 13:01:07.698628 20428 net.cpp:100] Creating Layer relu2_2
I1124 13:01:07.698633 20428 net.cpp:434] relu2_2 <- conv2_2
I1124 13:01:07.698639 20428 net.cpp:395] relu2_2 -> conv2_2 (in-place)
I1124 13:01:07.698832 20428 net.cpp:150] Setting up relu2_2
I1124 13:01:07.698843 20428 net.cpp:157] Top shape: 1 128 267 349 (11927424)
I1124 13:01:07.698846 20428 net.cpp:165] Memory required for data: 602356448
I1124 13:01:07.698851 20428 layer_factory.hpp:77] Creating layer pool2
I1124 13:01:07.698858 20428 net.cpp:100] Creating Layer pool2
I1124 13:01:07.698863 20428 net.cpp:434] pool2 <- conv2_2
I1124 13:01:07.698868 20428 net.cpp:408] pool2 -> pool2
I1124 13:01:07.698918 20428 net.cpp:150] Setting up pool2
I1124 13:01:07.698925 20428 net.cpp:157] Top shape: 1 128 134 175 (3001600)
I1124 13:01:07.698930 20428 net.cpp:165] Memory required for data: 614362848
I1124 13:01:07.698933 20428 layer_factory.hpp:77] Creating layer conv3_1
I1124 13:01:07.698942 20428 net.cpp:100] Creating Layer conv3_1
I1124 13:01:07.698946 20428 net.cpp:434] conv3_1 <- pool2
I1124 13:01:07.698953 20428 net.cpp:408] conv3_1 -> conv3_1
I1124 13:01:07.702356 20428 net.cpp:150] Setting up conv3_1
I1124 13:01:07.702373 20428 net.cpp:157] Top shape: 1 256 134 175 (6003200)
I1124 13:01:07.702378 20428 net.cpp:165] Memory required for data: 638375648
I1124 13:01:07.702390 20428 layer_factory.hpp:77] Creating layer relu3_1
I1124 13:01:07.702405 20428 net.cpp:100] Creating Layer relu3_1
I1124 13:01:07.702410 20428 net.cpp:434] relu3_1 <- conv3_1
I1124 13:01:07.702417 20428 net.cpp:395] relu3_1 -> conv3_1 (in-place)
I1124 13:01:07.702790 20428 net.cpp:150] Setting up relu3_1
I1124 13:01:07.702805 20428 net.cpp:157] Top shape: 1 256 134 175 (6003200)
I1124 13:01:07.702810 20428 net.cpp:165] Memory required for data: 662388448
I1124 13:01:07.702813 20428 layer_factory.hpp:77] Creating layer conv3_2
I1124 13:01:07.702824 20428 net.cpp:100] Creating Layer conv3_2
I1124 13:01:07.702829 20428 net.cpp:434] conv3_2 <- conv3_1
I1124 13:01:07.702837 20428 net.cpp:408] conv3_2 -> conv3_2
I1124 13:01:07.708297 20428 net.cpp:150] Setting up conv3_2
I1124 13:01:07.708314 20428 net.cpp:157] Top shape: 1 256 134 175 (6003200)
I1124 13:01:07.708319 20428 net.cpp:165] Memory required for data: 686401248
I1124 13:01:07.708328 20428 layer_factory.hpp:77] Creating layer relu3_2
I1124 13:01:07.708335 20428 net.cpp:100] Creating Layer relu3_2
I1124 13:01:07.708340 20428 net.cpp:434] relu3_2 <- conv3_2
I1124 13:01:07.708346 20428 net.cpp:395] relu3_2 -> conv3_2 (in-place)
I1124 13:01:07.708534 20428 net.cpp:150] Setting up relu3_2
I1124 13:01:07.708545 20428 net.cpp:157] Top shape: 1 256 134 175 (6003200)
I1124 13:01:07.708549 20428 net.cpp:165] Memory required for data: 710414048
I1124 13:01:07.708554 20428 layer_factory.hpp:77] Creating layer conv3_3
I1124 13:01:07.708565 20428 net.cpp:100] Creating Layer conv3_3
I1124 13:01:07.708570 20428 net.cpp:434] conv3_3 <- conv3_2
I1124 13:01:07.708577 20428 net.cpp:408] conv3_3 -> conv3_3
I1124 13:01:07.714131 20428 net.cpp:150] Setting up conv3_3
I1124 13:01:07.714148 20428 net.cpp:157] Top shape: 1 256 134 175 (6003200)
I1124 13:01:07.714154 20428 net.cpp:165] Memory required for data: 734426848
I1124 13:01:07.714162 20428 layer_factory.hpp:77] Creating layer relu3_3
I1124 13:01:07.714169 20428 net.cpp:100] Creating Layer relu3_3
I1124 13:01:07.714174 20428 net.cpp:434] relu3_3 <- conv3_3
I1124 13:01:07.714181 20428 net.cpp:395] relu3_3 -> conv3_3 (in-place)
I1124 13:01:07.714371 20428 net.cpp:150] Setting up relu3_3
I1124 13:01:07.714381 20428 net.cpp:157] Top shape: 1 256 134 175 (6003200)
I1124 13:01:07.714385 20428 net.cpp:165] Memory required for data: 758439648
I1124 13:01:07.714390 20428 layer_factory.hpp:77] Creating layer pool3
I1124 13:01:07.714397 20428 net.cpp:100] Creating Layer pool3
I1124 13:01:07.714401 20428 net.cpp:434] pool3 <- conv3_3
I1124 13:01:07.714408 20428 net.cpp:408] pool3 -> pool3
I1124 13:01:07.714459 20428 net.cpp:150] Setting up pool3
I1124 13:01:07.714468 20428 net.cpp:157] Top shape: 1 256 67 88 (1509376)
I1124 13:01:07.714470 20428 net.cpp:165] Memory required for data: 764477152
I1124 13:01:07.714474 20428 layer_factory.hpp:77] Creating layer pool3_pool3_0_split
I1124 13:01:07.714481 20428 net.cpp:100] Creating Layer pool3_pool3_0_split
I1124 13:01:07.714485 20428 net.cpp:434] pool3_pool3_0_split <- pool3
I1124 13:01:07.714493 20428 net.cpp:408] pool3_pool3_0_split -> pool3_pool3_0_split_0
I1124 13:01:07.714498 20428 net.cpp:408] pool3_pool3_0_split -> pool3_pool3_0_split_1
I1124 13:01:07.714537 20428 net.cpp:150] Setting up pool3_pool3_0_split
I1124 13:01:07.714545 20428 net.cpp:157] Top shape: 1 256 67 88 (1509376)
I1124 13:01:07.714550 20428 net.cpp:157] Top shape: 1 256 67 88 (1509376)
I1124 13:01:07.714553 20428 net.cpp:165] Memory required for data: 776552160
I1124 13:01:07.714556 20428 layer_factory.hpp:77] Creating layer conv4_1
I1124 13:01:07.714566 20428 net.cpp:100] Creating Layer conv4_1
I1124 13:01:07.714571 20428 net.cpp:434] conv4_1 <- pool3_pool3_0_split_0
I1124 13:01:07.714578 20428 net.cpp:408] conv4_1 -> conv4_1
I1124 13:01:07.723707 20428 net.cpp:150] Setting up conv4_1
I1124 13:01:07.723731 20428 net.cpp:157] Top shape: 1 512 67 88 (3018752)
I1124 13:01:07.723737 20428 net.cpp:165] Memory required for data: 788627168
I1124 13:01:07.723744 20428 layer_factory.hpp:77] Creating layer relu4_1
I1124 13:01:07.723753 20428 net.cpp:100] Creating Layer relu4_1
I1124 13:01:07.723758 20428 net.cpp:434] relu4_1 <- conv4_1
I1124 13:01:07.723773 20428 net.cpp:395] relu4_1 -> conv4_1 (in-place)
I1124 13:01:07.724146 20428 net.cpp:150] Setting up relu4_1
I1124 13:01:07.724160 20428 net.cpp:157] Top shape: 1 512 67 88 (3018752)
I1124 13:01:07.724164 20428 net.cpp:165] Memory required for data: 800702176
I1124 13:01:07.724169 20428 layer_factory.hpp:77] Creating layer conv4_2
I1124 13:01:07.724179 20428 net.cpp:100] Creating Layer conv4_2
I1124 13:01:07.724184 20428 net.cpp:434] conv4_2 <- conv4_1
I1124 13:01:07.724192 20428 net.cpp:408] conv4_2 -> conv4_2
I1124 13:01:07.740957 20428 net.cpp:150] Setting up conv4_2
I1124 13:01:07.740984 20428 net.cpp:157] Top shape: 1 512 67 88 (3018752)
I1124 13:01:07.740988 20428 net.cpp:165] Memory required for data: 812777184
I1124 13:01:07.741003 20428 layer_factory.hpp:77] Creating layer relu4_2
I1124 13:01:07.741013 20428 net.cpp:100] Creating Layer relu4_2
I1124 13:01:07.741017 20428 net.cpp:434] relu4_2 <- conv4_2
I1124 13:01:07.741024 20428 net.cpp:395] relu4_2 -> conv4_2 (in-place)
I1124 13:01:07.741221 20428 net.cpp:150] Setting up relu4_2
I1124 13:01:07.741231 20428 net.cpp:157] Top shape: 1 512 67 88 (3018752)
I1124 13:01:07.741235 20428 net.cpp:165] Memory required for data: 824852192
I1124 13:01:07.741240 20428 layer_factory.hpp:77] Creating layer conv4_3
I1124 13:01:07.741250 20428 net.cpp:100] Creating Layer conv4_3
I1124 13:01:07.741255 20428 net.cpp:434] conv4_3 <- conv4_2
I1124 13:01:07.741263 20428 net.cpp:408] conv4_3 -> conv4_3
I1124 13:01:07.758335 20428 net.cpp:150] Setting up conv4_3
I1124 13:01:07.758368 20428 net.cpp:157] Top shape: 1 512 67 88 (3018752)
I1124 13:01:07.758373 20428 net.cpp:165] Memory required for data: 836927200
I1124 13:01:07.758383 20428 layer_factory.hpp:77] Creating layer relu4_3
I1124 13:01:07.758394 20428 net.cpp:100] Creating Layer relu4_3
I1124 13:01:07.758399 20428 net.cpp:434] relu4_3 <- conv4_3
I1124 13:01:07.758406 20428 net.cpp:395] relu4_3 -> conv4_3 (in-place)
I1124 13:01:07.758615 20428 net.cpp:150] Setting up relu4_3
I1124 13:01:07.758625 20428 net.cpp:157] Top shape: 1 512 67 88 (3018752)
I1124 13:01:07.758630 20428 net.cpp:165] Memory required for data: 849002208
I1124 13:01:07.758633 20428 layer_factory.hpp:77] Creating layer pool4
I1124 13:01:07.758642 20428 net.cpp:100] Creating Layer pool4
I1124 13:01:07.758646 20428 net.cpp:434] pool4 <- conv4_3
I1124 13:01:07.758653 20428 net.cpp:408] pool4 -> pool4
I1124 13:01:07.758708 20428 net.cpp:150] Setting up pool4
I1124 13:01:07.758714 20428 net.cpp:157] Top shape: 1 512 34 44 (765952)
I1124 13:01:07.758718 20428 net.cpp:165] Memory required for data: 852066016
I1124 13:01:07.758723 20428 layer_factory.hpp:77] Creating layer pool4_pool4_0_split
I1124 13:01:07.758729 20428 net.cpp:100] Creating Layer pool4_pool4_0_split
I1124 13:01:07.758734 20428 net.cpp:434] pool4_pool4_0_split <- pool4
I1124 13:01:07.758740 20428 net.cpp:408] pool4_pool4_0_split -> pool4_pool4_0_split_0
I1124 13:01:07.758746 20428 net.cpp:408] pool4_pool4_0_split -> pool4_pool4_0_split_1
I1124 13:01:07.758788 20428 net.cpp:150] Setting up pool4_pool4_0_split
I1124 13:01:07.758795 20428 net.cpp:157] Top shape: 1 512 34 44 (765952)
I1124 13:01:07.758800 20428 net.cpp:157] Top shape: 1 512 34 44 (765952)
I1124 13:01:07.758803 20428 net.cpp:165] Memory required for data: 858193632
I1124 13:01:07.758807 20428 layer_factory.hpp:77] Creating layer conv5_1
I1124 13:01:07.758818 20428 net.cpp:100] Creating Layer conv5_1
I1124 13:01:07.758823 20428 net.cpp:434] conv5_1 <- pool4_pool4_0_split_0
I1124 13:01:07.758831 20428 net.cpp:408] conv5_1 -> conv5_1
I1124 13:01:07.776149 20428 net.cpp:150] Setting up conv5_1
I1124 13:01:07.776176 20428 net.cpp:157] Top shape: 1 512 34 44 (765952)
I1124 13:01:07.776180 20428 net.cpp:165] Memory required for data: 861257440
I1124 13:01:07.776190 20428 layer_factory.hpp:77] Creating layer relu5_1
I1124 13:01:07.776199 20428 net.cpp:100] Creating Layer relu5_1
I1124 13:01:07.776204 20428 net.cpp:434] relu5_1 <- conv5_1
I1124 13:01:07.776212 20428 net.cpp:395] relu5_1 -> conv5_1 (in-place)
I1124 13:01:07.776605 20428 net.cpp:150] Setting up relu5_1
I1124 13:01:07.776618 20428 net.cpp:157] Top shape: 1 512 34 44 (765952)
I1124 13:01:07.776623 20428 net.cpp:165] Memory required for data: 864321248
I1124 13:01:07.776628 20428 layer_factory.hpp:77] Creating layer conv5_2
I1124 13:01:07.776639 20428 net.cpp:100] Creating Layer conv5_2
I1124 13:01:07.776644 20428 net.cpp:434] conv5_2 <- conv5_1
I1124 13:01:07.776653 20428 net.cpp:408] conv5_2 -> conv5_2
I1124 13:01:07.794888 20428 net.cpp:150] Setting up conv5_2
I1124 13:01:07.794916 20428 net.cpp:157] Top shape: 1 512 34 44 (765952)
I1124 13:01:07.794921 20428 net.cpp:165] Memory required for data: 867385056
I1124 13:01:07.794930 20428 layer_factory.hpp:77] Creating layer relu5_2
I1124 13:01:07.794939 20428 net.cpp:100] Creating Layer relu5_2
I1124 13:01:07.794945 20428 net.cpp:434] relu5_2 <- conv5_2
I1124 13:01:07.794952 20428 net.cpp:395] relu5_2 -> conv5_2 (in-place)
I1124 13:01:07.795145 20428 net.cpp:150] Setting up relu5_2
I1124 13:01:07.795156 20428 net.cpp:157] Top shape: 1 512 34 44 (765952)
I1124 13:01:07.795161 20428 net.cpp:165] Memory required for data: 870448864
I1124 13:01:07.795164 20428 layer_factory.hpp:77] Creating layer conv5_3
I1124 13:01:07.795186 20428 net.cpp:100] Creating Layer conv5_3
I1124 13:01:07.795192 20428 net.cpp:434] conv5_3 <- conv5_2
I1124 13:01:07.795202 20428 net.cpp:408] conv5_3 -> conv5_3
I1124 13:01:07.812614 20428 net.cpp:150] Setting up conv5_3
I1124 13:01:07.812651 20428 net.cpp:157] Top shape: 1 512 34 44 (765952)
I1124 13:01:07.812657 20428 net.cpp:165] Memory required for data: 873512672
I1124 13:01:07.812667 20428 layer_factory.hpp:77] Creating layer relu5_3
I1124 13:01:07.812676 20428 net.cpp:100] Creating Layer relu5_3
I1124 13:01:07.812682 20428 net.cpp:434] relu5_3 <- conv5_3
I1124 13:01:07.812690 20428 net.cpp:395] relu5_3 -> conv5_3 (in-place)
I1124 13:01:07.812903 20428 net.cpp:150] Setting up relu5_3
I1124 13:01:07.812913 20428 net.cpp:157] Top shape: 1 512 34 44 (765952)
I1124 13:01:07.812918 20428 net.cpp:165] Memory required for data: 876576480
I1124 13:01:07.812922 20428 layer_factory.hpp:77] Creating layer pool5
I1124 13:01:07.812932 20428 net.cpp:100] Creating Layer pool5
I1124 13:01:07.812939 20428 net.cpp:434] pool5 <- conv5_3
I1124 13:01:07.812947 20428 net.cpp:408] pool5 -> pool5
I1124 13:01:07.813014 20428 net.cpp:150] Setting up pool5
I1124 13:01:07.813024 20428 net.cpp:157] Top shape: 1 512 17 22 (191488)
I1124 13:01:07.813026 20428 net.cpp:165] Memory required for data: 877342432
I1124 13:01:07.813030 20428 layer_factory.hpp:77] Creating layer fc6
I1124 13:01:07.813041 20428 net.cpp:100] Creating Layer fc6
I1124 13:01:07.813045 20428 net.cpp:434] fc6 <- pool5
I1124 13:01:07.813052 20428 net.cpp:408] fc6 -> fc6
I1124 13:01:08.790822 20428 net.cpp:150] Setting up fc6
I1124 13:01:08.790891 20428 net.cpp:157] Top shape: 1 4096 11 16 (720896)
I1124 13:01:08.790901 20428 net.cpp:165] Memory required for data: 880226016
I1124 13:01:08.790935 20428 layer_factory.hpp:77] Creating layer relu6
I1124 13:01:08.790974 20428 net.cpp:100] Creating Layer relu6
I1124 13:01:08.790988 20428 net.cpp:434] relu6 <- fc6
I1124 13:01:08.790998 20428 net.cpp:395] relu6 -> fc6 (in-place)
I1124 13:01:08.793576 20428 net.cpp:150] Setting up relu6
I1124 13:01:08.793591 20428 net.cpp:157] Top shape: 1 4096 11 16 (720896)
I1124 13:01:08.793596 20428 net.cpp:165] Memory required for data: 883109600
I1124 13:01:08.793606 20428 layer_factory.hpp:77] Creating layer drop6
I1124 13:01:08.793624 20428 net.cpp:100] Creating Layer drop6
I1124 13:01:08.793629 20428 net.cpp:434] drop6 <- fc6
I1124 13:01:08.793635 20428 net.cpp:395] drop6 -> fc6 (in-place)
I1124 13:01:08.793758 20428 net.cpp:150] Setting up drop6
I1124 13:01:08.793767 20428 net.cpp:157] Top shape: 1 4096 11 16 (720896)
I1124 13:01:08.793771 20428 net.cpp:165] Memory required for data: 885993184
I1124 13:01:08.793776 20428 layer_factory.hpp:77] Creating layer fc7
I1124 13:01:08.793804 20428 net.cpp:100] Creating Layer fc7
I1124 13:01:08.793809 20428 net.cpp:434] fc7 <- fc6
I1124 13:01:08.793829 20428 net.cpp:408] fc7 -> fc7
I1124 13:01:08.918756 20428 net.cpp:150] Setting up fc7
I1124 13:01:08.918798 20428 net.cpp:157] Top shape: 1 4096 11 16 (720896)
I1124 13:01:08.918804 20428 net.cpp:165] Memory required for data: 888876768
I1124 13:01:08.918817 20428 layer_factory.hpp:77] Creating layer relu7
I1124 13:01:08.918833 20428 net.cpp:100] Creating Layer relu7
I1124 13:01:08.918838 20428 net.cpp:434] relu7 <- fc7
I1124 13:01:08.918859 20428 net.cpp:395] relu7 -> fc7 (in-place)
I1124 13:01:08.919672 20428 net.cpp:150] Setting up relu7
I1124 13:01:08.919685 20428 net.cpp:157] Top shape: 1 4096 11 16 (720896)
I1124 13:01:08.919689 20428 net.cpp:165] Memory required for data: 891760352
I1124 13:01:08.919694 20428 layer_factory.hpp:77] Creating layer drop7
I1124 13:01:08.919716 20428 net.cpp:100] Creating Layer drop7
I1124 13:01:08.919721 20428 net.cpp:434] drop7 <- fc7
I1124 13:01:08.919728 20428 net.cpp:395] drop7 -> fc7 (in-place)
I1124 13:01:08.919767 20428 net.cpp:150] Setting up drop7
I1124 13:01:08.919775 20428 net.cpp:157] Top shape: 1 4096 11 16 (720896)
I1124 13:01:08.919778 20428 net.cpp:165] Memory required for data: 894643936
I1124 13:01:08.919782 20428 layer_factory.hpp:77] Creating layer score_fr
I1124 13:01:08.919807 20428 net.cpp:100] Creating Layer score_fr
I1124 13:01:08.919812 20428 net.cpp:434] score_fr <- fc7
I1124 13:01:08.919831 20428 net.cpp:408] score_fr -> score_fr
I1124 13:01:08.926215 20428 net.cpp:150] Setting up score_fr
I1124 13:01:08.926232 20428 net.cpp:157] Top shape: 1 6 11 16 (1056)
I1124 13:01:08.926237 20428 net.cpp:165] Memory required for data: 894648160
I1124 13:01:08.926251 20428 layer_factory.hpp:77] Creating layer upscore2
I1124 13:01:08.926270 20428 net.cpp:100] Creating Layer upscore2
I1124 13:01:08.926275 20428 net.cpp:434] upscore2 <- score_fr
I1124 13:01:08.926287 20428 net.cpp:408] upscore2 -> upscore2
I1124 13:01:08.926625 20428 net.cpp:150] Setting up upscore2
I1124 13:01:08.926635 20428 net.cpp:157] Top shape: 1 6 24 34 (4896)
I1124 13:01:08.926638 20428 net.cpp:165] Memory required for data: 894667744
I1124 13:01:08.926697 20428 layer_factory.hpp:77] Creating layer upscore2_upscore2_0_split
I1124 13:01:08.926707 20428 net.cpp:100] Creating Layer upscore2_upscore2_0_split
I1124 13:01:08.926712 20428 net.cpp:434] upscore2_upscore2_0_split <- upscore2
I1124 13:01:08.926717 20428 net.cpp:408] upscore2_upscore2_0_split -> upscore2_upscore2_0_split_0
I1124 13:01:08.926725 20428 net.cpp:408] upscore2_upscore2_0_split -> upscore2_upscore2_0_split_1
I1124 13:01:08.926779 20428 net.cpp:150] Setting up upscore2_upscore2_0_split
I1124 13:01:08.926787 20428 net.cpp:157] Top shape: 1 6 24 34 (4896)
I1124 13:01:08.926792 20428 net.cpp:157] Top shape: 1 6 24 34 (4896)
I1124 13:01:08.926796 20428 net.cpp:165] Memory required for data: 894706912
I1124 13:01:08.926800 20428 layer_factory.hpp:77] Creating layer scale_pool4
I1124 13:01:08.926817 20428 net.cpp:100] Creating Layer scale_pool4
I1124 13:01:08.926822 20428 net.cpp:434] scale_pool4 <- pool4_pool4_0_split_1
I1124 13:01:08.926833 20428 net.cpp:408] scale_pool4 -> scale_pool4
I1124 13:01:08.927038 20428 net.cpp:150] Setting up scale_pool4
I1124 13:01:08.927047 20428 net.cpp:157] Top shape: 1 512 34 44 (765952)
I1124 13:01:08.927052 20428 net.cpp:165] Memory required for data: 897770720
I1124 13:01:08.927057 20428 layer_factory.hpp:77] Creating layer score_pool4
I1124 13:01:08.927070 20428 net.cpp:100] Creating Layer score_pool4
I1124 13:01:08.927075 20428 net.cpp:434] score_pool4 <- scale_pool4
I1124 13:01:08.927088 20428 net.cpp:408] score_pool4 -> score_pool4
I1124 13:01:08.931439 20428 net.cpp:150] Setting up score_pool4
I1124 13:01:08.931455 20428 net.cpp:157] Top shape: 1 6 34 44 (8976)
I1124 13:01:08.931460 20428 net.cpp:165] Memory required for data: 897806624
I1124 13:01:08.931468 20428 layer_factory.hpp:77] Creating layer score_pool4c
I1124 13:01:08.931476 20428 net.cpp:100] Creating Layer score_pool4c
I1124 13:01:08.931483 20428 net.cpp:434] score_pool4c <- score_pool4
I1124 13:01:08.931504 20428 net.cpp:434] score_pool4c <- upscore2_upscore2_0_split_0
I1124 13:01:08.931511 20428 net.cpp:408] score_pool4c -> score_pool4c
I1124 13:01:08.931551 20428 net.cpp:150] Setting up score_pool4c
I1124 13:01:08.931558 20428 net.cpp:157] Top shape: 1 6 24 34 (4896)
I1124 13:01:08.931562 20428 net.cpp:165] Memory required for data: 897826208
I1124 13:01:08.931566 20428 layer_factory.hpp:77] Creating layer fuse_pool4
I1124 13:01:08.931584 20428 net.cpp:100] Creating Layer fuse_pool4
I1124 13:01:08.931588 20428 net.cpp:434] fuse_pool4 <- upscore2_upscore2_0_split_1
I1124 13:01:08.931593 20428 net.cpp:434] fuse_pool4 <- score_pool4c
I1124 13:01:08.931603 20428 net.cpp:408] fuse_pool4 -> fuse_pool4
I1124 13:01:08.931635 20428 net.cpp:150] Setting up fuse_pool4
I1124 13:01:08.931643 20428 net.cpp:157] Top shape: 1 6 24 34 (4896)
I1124 13:01:08.931646 20428 net.cpp:165] Memory required for data: 897845792
I1124 13:01:08.931655 20428 layer_factory.hpp:77] Creating layer upscore_pool4
I1124 13:01:08.931666 20428 net.cpp:100] Creating Layer upscore_pool4
I1124 13:01:08.931671 20428 net.cpp:434] upscore_pool4 <- fuse_pool4
I1124 13:01:08.931686 20428 net.cpp:408] upscore_pool4 -> upscore_pool4
I1124 13:01:08.931948 20428 net.cpp:150] Setting up upscore_pool4
I1124 13:01:08.931957 20428 net.cpp:157] Top shape: 1 6 50 70 (21000)
I1124 13:01:08.931960 20428 net.cpp:165] Memory required for data: 897929792
I1124 13:01:08.931967 20428 layer_factory.hpp:77] Creating layer upscore_pool4_upscore_pool4_0_split
I1124 13:01:08.931973 20428 net.cpp:100] Creating Layer upscore_pool4_upscore_pool4_0_split
I1124 13:01:08.931977 20428 net.cpp:434] upscore_pool4_upscore_pool4_0_split <- upscore_pool4
I1124 13:01:08.931983 20428 net.cpp:408] upscore_pool4_upscore_pool4_0_split -> upscore_pool4_upscore_pool4_0_split_0
I1124 13:01:08.931989 20428 net.cpp:408] upscore_pool4_upscore_pool4_0_split -> upscore_pool4_upscore_pool4_0_split_1
I1124 13:01:08.932039 20428 net.cpp:150] Setting up upscore_pool4_upscore_pool4_0_split
I1124 13:01:08.932045 20428 net.cpp:157] Top shape: 1 6 50 70 (21000)
I1124 13:01:08.932050 20428 net.cpp:157] Top shape: 1 6 50 70 (21000)
I1124 13:01:08.932054 20428 net.cpp:165] Memory required for data: 898097792
I1124 13:01:08.932059 20428 layer_factory.hpp:77] Creating layer scale_pool3
I1124 13:01:08.932070 20428 net.cpp:100] Creating Layer scale_pool3
I1124 13:01:08.932075 20428 net.cpp:434] scale_pool3 <- pool3_pool3_0_split_1
I1124 13:01:08.932086 20428 net.cpp:408] scale_pool3 -> scale_pool3
I1124 13:01:08.932230 20428 net.cpp:150] Setting up scale_pool3
I1124 13:01:08.932240 20428 net.cpp:157] Top shape: 1 256 67 88 (1509376)
I1124 13:01:08.932242 20428 net.cpp:165] Memory required for data: 904135296
I1124 13:01:08.932248 20428 layer_factory.hpp:77] Creating layer score_pool3
I1124 13:01:08.932261 20428 net.cpp:100] Creating Layer score_pool3
I1124 13:01:08.932266 20428 net.cpp:434] score_pool3 <- scale_pool3
I1124 13:01:08.932278 20428 net.cpp:408] score_pool3 -> score_pool3
I1124 13:01:08.937440 20428 net.cpp:150] Setting up score_pool3
I1124 13:01:08.937456 20428 net.cpp:157] Top shape: 1 6 67 88 (35376)
I1124 13:01:08.937460 20428 net.cpp:165] Memory required for data: 904276800
I1124 13:01:08.937469 20428 layer_factory.hpp:77] Creating layer score_pool3c
I1124 13:01:08.937489 20428 net.cpp:100] Creating Layer score_pool3c
I1124 13:01:08.937494 20428 net.cpp:434] score_pool3c <- score_pool3
I1124 13:01:08.937500 20428 net.cpp:434] score_pool3c <- upscore_pool4_upscore_pool4_0_split_0
I1124 13:01:08.937505 20428 net.cpp:408] score_pool3c -> score_pool3c
I1124 13:01:08.937547 20428 net.cpp:150] Setting up score_pool3c
I1124 13:01:08.937556 20428 net.cpp:157] Top shape: 1 6 50 70 (21000)
I1124 13:01:08.937559 20428 net.cpp:165] Memory required for data: 904360800
I1124 13:01:08.937563 20428 layer_factory.hpp:77] Creating layer fuse_pool3
I1124 13:01:08.937569 20428 net.cpp:100] Creating Layer fuse_pool3
I1124 13:01:08.937574 20428 net.cpp:434] fuse_pool3 <- upscore_pool4_upscore_pool4_0_split_1
I1124 13:01:08.937585 20428 net.cpp:434] fuse_pool3 <- score_pool3c
I1124 13:01:08.937599 20428 net.cpp:408] fuse_pool3 -> fuse_pool3
I1124 13:01:08.937631 20428 net.cpp:150] Setting up fuse_pool3
I1124 13:01:08.937644 20428 net.cpp:157] Top shape: 1 6 50 70 (21000)
I1124 13:01:08.937647 20428 net.cpp:165] Memory required for data: 904444800
I1124 13:01:08.937651 20428 layer_factory.hpp:77] Creating layer upscore8
I1124 13:01:08.937659 20428 net.cpp:100] Creating Layer upscore8
I1124 13:01:08.937664 20428 net.cpp:434] upscore8 <- fuse_pool3
I1124 13:01:08.937674 20428 net.cpp:408] upscore8 -> upscore8
I1124 13:01:08.938005 20428 net.cpp:150] Setting up upscore8
I1124 13:01:08.938014 20428 net.cpp:157] Top shape: 1 6 408 568 (1390464)
I1124 13:01:08.938019 20428 net.cpp:165] Memory required for data: 910006656
I1124 13:01:08.938024 20428 layer_factory.hpp:77] Creating layer score
I1124 13:01:08.938030 20428 net.cpp:100] Creating Layer score
I1124 13:01:08.938035 20428 net.cpp:434] score <- upscore8
I1124 13:01:08.938040 20428 net.cpp:434] score <- data_data_0_split_1
I1124 13:01:08.938045 20428 net.cpp:408] score -> score
I1124 13:01:08.938076 20428 net.cpp:150] Setting up score
I1124 13:01:08.938082 20428 net.cpp:157] Top shape: 1 6 335 500 (1005000)
I1124 13:01:08.938086 20428 net.cpp:165] Memory required for data: 914026656
I1124 13:01:08.938091 20428 layer_factory.hpp:77] Creating layer loss
I1124 13:01:08.938107 20428 net.cpp:100] Creating Layer loss
I1124 13:01:08.938112 20428 net.cpp:434] loss <- score
I1124 13:01:08.938117 20428 net.cpp:434] loss <- label
I1124 13:01:08.938122 20428 net.cpp:408] loss -> loss
I1124 13:01:08.938133 20428 layer_factory.hpp:77] Creating layer loss
…
