…
snapshot_prefix: "snapshot/train"
test_initialization: false
average_loss: 20
iter_size: 1
I1117 10:24:14.602874  7615 solver.cpp:81] Creating training net from train_net file: train.prototxt
I1117 10:24:14.604188  7615 net.cpp:58] Initializing net from parameters: 
state {
  phase: TRAIN
}
layer {
  name: "data"
  type: "Python"
  top: "data"
  top: "label"
  python_param {
    module: "voc_layers"
    layer: "ObfSBDDSegDataLayer"
    param_str: "{\'sbdd_dir\': \'../data/sbdd/dataset\', \'seed\': 1337, \'split\': \'train\', \'mean\': (104.00699, 116.66877, 122.67892)}"
  }
}
layer {
  name: "conv1_1"
  type: "Convolution"
  bottom: "data"
  top: "conv1_1"
  param {
    lr_mult: 1
    decay_mult: 1
  }
  param {
    lr_mult: 2
    decay_mult: 0
  }
  convolution_param {
    num_output: 64
    pad: 100
    kernel_size: 3
    stride: 1
    weight_filler {
      type: "xavier"
    }
  }
}
layer {
  name: "relu1_1"
  type: "ReLU"
  bottom: "conv1_1"
  top: "conv1_1"
}
layer {
  name: "conv1_2"
  type: "Convolution"
  bottom: "conv1_1"
  top: "conv1_2"
  param {
    lr_mult: 1
    decay_mult: 1
  }
  param {
    lr_mult: 2
    decay_mult: 0
  }
  convolution_param {
    num_output: 64
    pad: 1
    kernel_size: 3
    stride: 1
    weight_filler {
      type: "xavier"
    }
  }
}
layer {
  name: "relu1_2"
  type: "ReLU"
  bottom: "conv1_2"
  top: "conv1_2"
}
layer {
  name: "pool1"
  type: "Pooling"
  bottom: "conv1_2"
  top: "pool1"
  pooling_param {
    pool: MAX
    kernel_size: 2
    stride: 2
  }
}
layer {
  name: "conv2_1"
  type: "Convolution"
  bottom: "pool1"
  top: "conv2_1"
  param {
    lr_mult: 1
    decay_mult: 1
  }
  param {
    lr_mult: 2
    decay_mult: 0
  }
  convolution_param {
    num_output: 128
    pad: 1
    kernel_size: 3
    stride: 1
    weight_filler {
      type: "xavier"
    }
  }
}
layer {
  name: "relu2_1"
  type: "ReLU"
  bottom: "conv2_1"
  top: "conv2_1"
}
layer {
  name: "conv2_2"
  type: "Convolution"
  bottom: "conv2_1"
  top: "conv2_2"
  param {
    lr_mult: 1
    decay_mult: 1
  }
  param {
    lr_mult: 2
    decay_mult: 0
  }
  convolution_param {
    num_output: 128
    pad: 1
    kernel_size: 3
    stride: 1
    weight_filler {
      type: "xavier"
    }
  }
}
layer {
  name: "relu2_2"
  type: "ReLU"
  bottom: "conv2_2"
  top: "conv2_2"
}
layer {
  name: "pool2"
  type: "Pooling"
  bottom: "conv2_2"
  top: "pool2"
  pooling_param {
    pool: MAX
    kernel_size: 2
    stride: 2
  }
}
layer {
  name: "conv3_1"
  type: "Convolution"
  bottom: "pool2"
  top: "conv3_1"
  param {
    lr_mult: 1
    decay_mult: 1
  }
  param {
    lr_mult: 2
    decay_mult: 0
  }
  convolution_param {
    num_output: 256
    pad: 1
    kernel_size: 3
    stride: 1
    weight_filler {
      type: "xavier"
    }
  }
}
layer {
  name: "relu3_1"
  type: "ReLU"
  bottom: "conv3_1"
  top: "conv3_1"
}
layer {
  name: "conv3_2"
  type: "Convolution"
  bottom: "conv3_1"
  top: "conv3_2"
  param {
    lr_mult: 1
    decay_mult: 1
  }
  param {
    lr_mult: 2
    decay_mult: 0
  }
  convolution_param {
    num_output: 256
    pad: 1
    kernel_size: 3
    stride: 1
    weight_filler {
      type: "xavier"
    }
  }
}
layer {
  name: "relu3_2"
  type: "ReLU"
  bottom: "conv3_2"
  top: "conv3_2"
}
layer {
  name: "conv3_3"
  type: "Convolution"
  bottom: "conv3_2"
  top: "conv3_3"
  param {
    lr_mult: 1
    decay_mult: 1
  }
  param {
    lr_mult: 2
    decay_mult: 0
  }
  convolution_param {
    num_output: 256
    pad: 1
    kernel_size: 3
    stride: 1
    weight_filler {
      type: "xavier"
    }
  }
}
layer {
  name: "relu3_3"
  type: "ReLU"
  bottom: "conv3_3"
  top: "conv3_3"
}
layer {
  name: "pool3"
  type: "Pooling"
  bottom: "conv3_3"
  top: "pool3"
  pooling_param {
    pool: MAX
    kernel_size: 2
    stride: 2
  }
}
layer {
  name: "conv4_1"
  type: "Convolution"
  bottom: "pool3"
  top: "conv4_1"
  param {
    lr_mult: 1
    decay_mult: 1
  }
  param {
    lr_mult: 2
    decay_mult: 0
  }
  convolution_param {
    num_output: 512
    pad: 1
    kernel_size: 3
    stride: 1
    weight_filler {
      type: "xavier"
    }
  }
}
layer {
  name: "relu4_1"
  type: "ReLU"
  bottom: "conv4_1"
  top: "conv4_1"
}
layer {
  name: "conv4_2"
  type: "Convolution"
  bottom: "conv4_1"
  top: "conv4_2"
  param {
    lr_mult: 1
    decay_mult: 1
  }
  param {
    lr_mult: 2
    decay_mult: 0
  }
  convolution_param {
    num_output: 512
    pad: 1
    kernel_size: 3
    stride: 1
    weight_filler {
      type: "xavier"
    }
  }
}
layer {
  name: "relu4_2"
  type: "ReLU"
  bottom: "conv4_2"
  top: "conv4_2"
}
layer {
  name: "conv4_3"
  type: "Convolution"
  bottom: "conv4_2"
  top: "conv4_3"
  param {
    lr_mult: 1
    decay_mult: 1
  }
  param {
    lr_mult: 2
    decay_mult: 0
  }
  convolution_param {
    num_output: 512
    pad: 1
    kernel_size: 3
    stride: 1
    weight_filler {
      type: "xavier"
    }
  }
}
layer {
  name: "relu4_3"
  type: "ReLU"
  bottom: "conv4_3"
  top: "conv4_3"
}
layer {
  name: "pool4"
  type: "Pooling"
  bottom: "conv4_3"
  top: "pool4"
  pooling_param {
    pool: MAX
    kernel_size: 2
    stride: 2
  }
}
layer {
  name: "conv5_1"
  type: "Convolution"
  bottom: "pool4"
  top: "conv5_1"
  param {
    lr_mult: 1
    decay_mult: 1
  }
  param {
    lr_mult: 2
    decay_mult: 0
  }
  convolution_param {
    num_output: 512
    pad: 1
    kernel_size: 3
    stride: 1
    weight_filler {
      type: "xavier"
    }
  }
}
layer {
  name: "relu5_1"
  type: "ReLU"
  bottom: "conv5_1"
  top: "conv5_1"
}
layer {
  name: "conv5_2"
  type: "Convolution"
  bottom: "conv5_1"
  top: "conv5_2"
  param {
    lr_mult: 1
    decay_mult: 1
  }
  param {
    lr_mult: 2
    decay_mult: 0
  }
  convolution_param {
    num_output: 512
    pad: 1
    kernel_size: 3
    stride: 1
    weight_filler {
      type: "xavier"
    }
  }
}
layer {
  name: "relu5_2"
  type: "ReLU"
  bottom: "conv5_2"
  top: "conv5_2"
}
layer {
  name: "conv5_3"
  type: "Convolution"
  bottom: "conv5_2"
  top: "conv5_3"
  param {
    lr_mult: 1
    decay_mult: 1
  }
  param {
    lr_mult: 2
    decay_mult: 0
  }
  convolution_param {
    num_output: 512
    pad: 1
    kernel_size: 3
    stride: 1
    weight_filler {
      type: "xavier"
    }
  }
}
layer {
  name: "relu5_3"
  type: "ReLU"
  bottom: "conv5_3"
  top: "conv5_3"
}
layer {
  name: "pool5"
  type: "Pooling"
  bottom: "conv5_3"
  top: "pool5"
  pooling_param {
    pool: MAX
    kernel_size: 2
    stride: 2
  }
}
layer {
  name: "fc6"
  type: "Convolution"
  bottom: "pool5"
  top: "fc6"
  param {
    lr_mult: 1
    decay_mult: 1
  }
  param {
    lr_mult: 2
    decay_mult: 0
  }
  convolution_param {
    num_output: 4096
    pad: 0
    kernel_size: 7
    stride: 1
    weight_filler {
      type: "xavier"
    }
  }
}
layer {
  name: "relu6"
  type: "ReLU"
  bottom: "fc6"
  top: "fc6"
}
layer {
  name: "drop6"
  type: "Dropout"
  bottom: "fc6"
  top: "fc6"
  dropout_param {
    dropout_ratio: 0.5
  }
}
layer {
  name: "fc7"
  type: "Convolution"
  bottom: "fc6"
  top: "fc7"
  param {
    lr_mult: 1
    decay_mult: 1
  }
  param {
    lr_mult: 2
    decay_mult: 0
  }
  convolution_param {
    num_output: 4096
    pad: 0
    kernel_size: 1
    stride: 1
    weight_filler {
      type: "xavier"
    }
  }
}
layer {
  name: "relu7"
  type: "ReLU"
  bottom: "fc7"
  top: "fc7"
}
layer {
  name: "drop7"
  type: "Dropout"
  bottom: "fc7"
  top: "fc7"
  dropout_param {
    dropout_ratio: 0.5
  }
}
layer {
  name: "score_fr"
  type: "Convolution"
  bottom: "fc7"
  top: "score_fr"
  param {
    lr_mult: 1
    decay_mult: 1
  }
  param {
    lr_mult: 2
    decay_mult: 0
  }
  convolution_param {
    num_output: 2
    pad: 0
    kernel_size: 1
    weight_filler {
      type: "xavier"
    }
  }
}
layer {
  name: "upscore2"
  type: "Deconvolution"
  bottom: "score_fr"
  top: "upscore2"
  param {
    lr_mult: 0
  }
  convolution_param {
    num_output: 2
    bias_term: false
    kernel_size: 4
    stride: 2
    weight_filler {
      type: "xavier"
    }
  }
}
layer {
  name: "scale_pool4"
  type: "Scale"
  bottom: "pool4"
  top: "scale_pool4"
  param {
    lr_mult: 0
  }
  scale_param {
    filler {
      type: "constant"
      value: 0.01
    }
  }
}
layer {
  name: "score_pool4"
  type: "Convolution"
  bottom: "scale_pool4"
  top: "score_pool4"
  param {
    lr_mult: 1
    decay_mult: 1
  }
  param {
    lr_mult: 2
    decay_mult: 0
  }
  convolution_param {
    num_output: 2
    pad: 0
    kernel_size: 1
    weight_filler {
      type: "xavier"
    }
  }
}
layer {
  name: "score_pool4c"
  type: "Crop"
  bottom: "score_pool4"
  bottom: "upscore2"
  top: "score_pool4c"
  crop_param {
    axis: 2
    offset: 5
  }
}
layer {
  name: "fuse_pool4"
  type: "Eltwise"
  bottom: "upscore2"
  bottom: "score_pool4c"
  top: "fuse_pool4"
  eltwise_param {
    operation: SUM
  }
}
layer {
  name: "upscore_pool4"
  type: "Deconvolution"
  bottom: "fuse_pool4"
  top: "upscore_pool4"
  param {
    lr_mult: 0
  }
  convolution_param {
    num_output: 2
    bias_term: false
    kernel_size: 4
    stride: 2
    weight_filler {
      type: "xavier"
    }
  }
}
layer {
  name: "scale_pool3"
  type: "Scale"
  bottom: "pool3"
  top: "scale_pool3"
  param {
    lr_mult: 0
  }
  scale_param {
    filler {
      type: "constant"
      value: 0.0001
    }
  }
}
layer {
  name: "score_pool3"
  type: "Convolution"
  bottom: "scale_pool3"
  top: "score_pool3"
  param {
    lr_mult: 1
    decay_mult: 1
  }
  param {
    lr_mult: 2
    decay_mult: 0
  }
  convolution_param {
    num_output: 2
    pad: 0
    kernel_size: 1
    weight_filler {
      type: "xavier"
    }
  }
}
layer {
  name: "score_pool3c"
  type: "Crop"
  bottom: "score_pool3"
  bottom: "upscore_pool4"
  top: "score_pool3c"
  crop_param {
    axis: 2
    offset: 9
  }
}
layer {
  name: "fuse_pool3"
  type: "Eltwise"
  bottom: "upscore_pool4"
  bottom: "score_pool3c"
  top: "fuse_pool3"
  eltwise_param {
    operation: SUM
  }
}
layer {
  name: "upscore8"
  type: "Deconvolution"
  bottom: "fuse_pool3"
  top: "upscore8"
  param {
    lr_mult: 0
  }
  convolution_param {
    num_output: 2
    bias_term: false
    kernel_size: 16
    stride: 8
    weight_filler {
      type: "xavier"
    }
  }
}
layer {
  name: "score"
  type: "Crop"
  bottom: "upscore8"
  bottom: "data"
  top: "score"
  crop_param {
    axis: 2
    offset: 31
  }
}
layer {
  name: "loss"
  type: "SoftmaxWithLoss"
  bottom: "score"
  bottom: "label"
  top: "loss"
  loss_param {
    ignore_label: 255
    normalize: false
  }
}
I1117 10:24:14.604439  7615 layer_factory.hpp:77] Creating layer data
I1117 10:24:14.606309  7615 net.cpp:100] Creating Layer data
I1117 10:24:14.606324  7615 net.cpp:408] data -> data
I1117 10:24:14.606339  7615 net.cpp:408] data -> label
I1117 10:24:14.638492  7615 net.cpp:150] Setting up data
I1117 10:24:14.638566  7615 net.cpp:157] Top shape: 1 3 500 330 (495000)
I1117 10:24:14.638573  7615 net.cpp:157] Top shape: 1 1 500 330 (165000)
I1117 10:24:14.638577  7615 net.cpp:165] Memory required for data: 2640000
I1117 10:24:14.638589  7615 layer_factory.hpp:77] Creating layer data_data_0_split
I1117 10:24:14.638612  7615 net.cpp:100] Creating Layer data_data_0_split
I1117 10:24:14.638617  7615 net.cpp:434] data_data_0_split <- data
I1117 10:24:14.638626  7615 net.cpp:408] data_data_0_split -> data_data_0_split_0
I1117 10:24:14.638639  7615 net.cpp:408] data_data_0_split -> data_data_0_split_1
I1117 10:24:14.638677  7615 net.cpp:150] Setting up data_data_0_split
I1117 10:24:14.638685  7615 net.cpp:157] Top shape: 1 3 500 330 (495000)
I1117 10:24:14.638690  7615 net.cpp:157] Top shape: 1 3 500 330 (495000)
I1117 10:24:14.638695  7615 net.cpp:165] Memory required for data: 6600000
I1117 10:24:14.638698  7615 layer_factory.hpp:77] Creating layer conv1_1
I1117 10:24:14.638718  7615 net.cpp:100] Creating Layer conv1_1
I1117 10:24:14.638723  7615 net.cpp:434] conv1_1 <- data_data_0_split_0
I1117 10:24:14.638749  7615 net.cpp:408] conv1_1 -> conv1_1
I1117 10:24:14.816931  7615 net.cpp:150] Setting up conv1_1
I1117 10:24:14.817008  7615 net.cpp:157] Top shape: 1 64 698 528 (23586816)
I1117 10:24:14.817013  7615 net.cpp:165] Memory required for data: 100947264
I1117 10:24:14.817037  7615 layer_factory.hpp:77] Creating layer relu1_1
I1117 10:24:14.817086  7615 net.cpp:100] Creating Layer relu1_1
I1117 10:24:14.817095  7615 net.cpp:434] relu1_1 <- conv1_1
I1117 10:24:14.817102  7615 net.cpp:395] relu1_1 -> conv1_1 (in-place)
I1117 10:24:14.817473  7615 net.cpp:150] Setting up relu1_1
I1117 10:24:14.817487  7615 net.cpp:157] Top shape: 1 64 698 528 (23586816)
I1117 10:24:14.817492  7615 net.cpp:165] Memory required for data: 195294528
I1117 10:24:14.817497  7615 layer_factory.hpp:77] Creating layer conv1_2
I1117 10:24:14.817524  7615 net.cpp:100] Creating Layer conv1_2
I1117 10:24:14.817530  7615 net.cpp:434] conv1_2 <- conv1_1
I1117 10:24:14.817538  7615 net.cpp:408] conv1_2 -> conv1_2
I1117 10:24:14.820159  7615 net.cpp:150] Setting up conv1_2
I1117 10:24:14.820176  7615 net.cpp:157] Top shape: 1 64 698 528 (23586816)
I1117 10:24:14.820181  7615 net.cpp:165] Memory required for data: 289641792
I1117 10:24:14.820194  7615 layer_factory.hpp:77] Creating layer relu1_2
I1117 10:24:14.820204  7615 net.cpp:100] Creating Layer relu1_2
I1117 10:24:14.820207  7615 net.cpp:434] relu1_2 <- conv1_2
I1117 10:24:14.820214  7615 net.cpp:395] relu1_2 -> conv1_2 (in-place)
I1117 10:24:14.820571  7615 net.cpp:150] Setting up relu1_2
I1117 10:24:14.820586  7615 net.cpp:157] Top shape: 1 64 698 528 (23586816)
I1117 10:24:14.820590  7615 net.cpp:165] Memory required for data: 383989056
I1117 10:24:14.820595  7615 layer_factory.hpp:77] Creating layer pool1
I1117 10:24:14.820607  7615 net.cpp:100] Creating Layer pool1
I1117 10:24:14.820611  7615 net.cpp:434] pool1 <- conv1_2
I1117 10:24:14.820618  7615 net.cpp:408] pool1 -> pool1
I1117 10:24:14.820667  7615 net.cpp:150] Setting up pool1
I1117 10:24:14.820675  7615 net.cpp:157] Top shape: 1 64 349 264 (5896704)
I1117 10:24:14.820679  7615 net.cpp:165] Memory required for data: 407575872
I1117 10:24:14.820683  7615 layer_factory.hpp:77] Creating layer conv2_1
I1117 10:24:14.820695  7615 net.cpp:100] Creating Layer conv2_1
I1117 10:24:14.820700  7615 net.cpp:434] conv2_1 <- pool1
I1117 10:24:14.820708  7615 net.cpp:408] conv2_1 -> conv2_1
I1117 10:24:14.822970  7615 net.cpp:150] Setting up conv2_1
I1117 10:24:14.822985  7615 net.cpp:157] Top shape: 1 128 349 264 (11793408)
I1117 10:24:14.822989  7615 net.cpp:165] Memory required for data: 454749504
I1117 10:24:14.823002  7615 layer_factory.hpp:77] Creating layer relu2_1
I1117 10:24:14.823014  7615 net.cpp:100] Creating Layer relu2_1
I1117 10:24:14.823017  7615 net.cpp:434] relu2_1 <- conv2_1
I1117 10:24:14.823025  7615 net.cpp:395] relu2_1 -> conv2_1 (in-place)
I1117 10:24:14.823226  7615 net.cpp:150] Setting up relu2_1
I1117 10:24:14.823237  7615 net.cpp:157] Top shape: 1 128 349 264 (11793408)
I1117 10:24:14.823242  7615 net.cpp:165] Memory required for data: 501923136
I1117 10:24:14.823246  7615 layer_factory.hpp:77] Creating layer conv2_2
I1117 10:24:14.823259  7615 net.cpp:100] Creating Layer conv2_2
I1117 10:24:14.823264  7615 net.cpp:434] conv2_2 <- conv2_1
I1117 10:24:14.823272  7615 net.cpp:408] conv2_2 -> conv2_2
I1117 10:24:14.825745  7615 net.cpp:150] Setting up conv2_2
I1117 10:24:14.825762  7615 net.cpp:157] Top shape: 1 128 349 264 (11793408)
I1117 10:24:14.825765  7615 net.cpp:165] Memory required for data: 549096768
I1117 10:24:14.825773  7615 layer_factory.hpp:77] Creating layer relu2_2
I1117 10:24:14.825783  7615 net.cpp:100] Creating Layer relu2_2
I1117 10:24:14.825788  7615 net.cpp:434] relu2_2 <- conv2_2
I1117 10:24:14.825794  7615 net.cpp:395] relu2_2 -> conv2_2 (in-place)
I1117 10:24:14.826144  7615 net.cpp:150] Setting up relu2_2
I1117 10:24:14.826158  7615 net.cpp:157] Top shape: 1 128 349 264 (11793408)
I1117 10:24:14.826164  7615 net.cpp:165] Memory required for data: 596270400
I1117 10:24:14.826169  7615 layer_factory.hpp:77] Creating layer pool2
I1117 10:24:14.826187  7615 net.cpp:100] Creating Layer pool2
I1117 10:24:14.826192  7615 net.cpp:434] pool2 <- conv2_2
I1117 10:24:14.826200  7615 net.cpp:408] pool2 -> pool2
I1117 10:24:14.826247  7615 net.cpp:150] Setting up pool2
I1117 10:24:14.826256  7615 net.cpp:157] Top shape: 1 128 175 132 (2956800)
I1117 10:24:14.826258  7615 net.cpp:165] Memory required for data: 608097600
I1117 10:24:14.826262  7615 layer_factory.hpp:77] Creating layer conv3_1
I1117 10:24:14.826274  7615 net.cpp:100] Creating Layer conv3_1
I1117 10:24:14.826279  7615 net.cpp:434] conv3_1 <- pool2
I1117 10:24:14.826287  7615 net.cpp:408] conv3_1 -> conv3_1
I1117 10:24:14.829340  7615 net.cpp:150] Setting up conv3_1
I1117 10:24:14.829356  7615 net.cpp:157] Top shape: 1 256 175 132 (5913600)
I1117 10:24:14.829360  7615 net.cpp:165] Memory required for data: 631752000
I1117 10:24:14.829373  7615 layer_factory.hpp:77] Creating layer relu3_1
I1117 10:24:14.829380  7615 net.cpp:100] Creating Layer relu3_1
I1117 10:24:14.829385  7615 net.cpp:434] relu3_1 <- conv3_1
I1117 10:24:14.829392  7615 net.cpp:395] relu3_1 -> conv3_1 (in-place)
I1117 10:24:14.829751  7615 net.cpp:150] Setting up relu3_1
I1117 10:24:14.829766  7615 net.cpp:157] Top shape: 1 256 175 132 (5913600)
I1117 10:24:14.829769  7615 net.cpp:165] Memory required for data: 655406400
I1117 10:24:14.829773  7615 layer_factory.hpp:77] Creating layer conv3_2
I1117 10:24:14.829785  7615 net.cpp:100] Creating Layer conv3_2
I1117 10:24:14.829790  7615 net.cpp:434] conv3_2 <- conv3_1
I1117 10:24:14.829797  7615 net.cpp:408] conv3_2 -> conv3_2
I1117 10:24:14.834947  7615 net.cpp:150] Setting up conv3_2
I1117 10:24:14.834966  7615 net.cpp:157] Top shape: 1 256 175 132 (5913600)
I1117 10:24:14.834970  7615 net.cpp:165] Memory required for data: 679060800
I1117 10:24:14.834980  7615 layer_factory.hpp:77] Creating layer relu3_2
I1117 10:24:14.834988  7615 net.cpp:100] Creating Layer relu3_2
I1117 10:24:14.834993  7615 net.cpp:434] relu3_2 <- conv3_2
I1117 10:24:14.835001  7615 net.cpp:395] relu3_2 -> conv3_2 (in-place)
I1117 10:24:14.835193  7615 net.cpp:150] Setting up relu3_2
I1117 10:24:14.835204  7615 net.cpp:157] Top shape: 1 256 175 132 (5913600)
I1117 10:24:14.835208  7615 net.cpp:165] Memory required for data: 702715200
I1117 10:24:14.835213  7615 layer_factory.hpp:77] Creating layer conv3_3
I1117 10:24:14.835227  7615 net.cpp:100] Creating Layer conv3_3
I1117 10:24:14.835232  7615 net.cpp:434] conv3_3 <- conv3_2
I1117 10:24:14.835240  7615 net.cpp:408] conv3_3 -> conv3_3
I1117 10:24:14.840361  7615 net.cpp:150] Setting up conv3_3
I1117 10:24:14.840378  7615 net.cpp:157] Top shape: 1 256 175 132 (5913600)
I1117 10:24:14.840381  7615 net.cpp:165] Memory required for data: 726369600
I1117 10:24:14.840389  7615 layer_factory.hpp:77] Creating layer relu3_3
I1117 10:24:14.840399  7615 net.cpp:100] Creating Layer relu3_3
I1117 10:24:14.840404  7615 net.cpp:434] relu3_3 <- conv3_3
I1117 10:24:14.840410  7615 net.cpp:395] relu3_3 -> conv3_3 (in-place)
I1117 10:24:14.840771  7615 net.cpp:150] Setting up relu3_3
I1117 10:24:14.840785  7615 net.cpp:157] Top shape: 1 256 175 132 (5913600)
I1117 10:24:14.840788  7615 net.cpp:165] Memory required for data: 750024000
I1117 10:24:14.840793  7615 layer_factory.hpp:77] Creating layer pool3
I1117 10:24:14.840802  7615 net.cpp:100] Creating Layer pool3
I1117 10:24:14.840807  7615 net.cpp:434] pool3 <- conv3_3
I1117 10:24:14.840813  7615 net.cpp:408] pool3 -> pool3
I1117 10:24:14.840862  7615 net.cpp:150] Setting up pool3
I1117 10:24:14.840870  7615 net.cpp:157] Top shape: 1 256 88 66 (1486848)
I1117 10:24:14.840873  7615 net.cpp:165] Memory required for data: 755971392
I1117 10:24:14.840878  7615 layer_factory.hpp:77] Creating layer pool3_pool3_0_split
I1117 10:24:14.840884  7615 net.cpp:100] Creating Layer pool3_pool3_0_split
I1117 10:24:14.840888  7615 net.cpp:434] pool3_pool3_0_split <- pool3
I1117 10:24:14.840895  7615 net.cpp:408] pool3_pool3_0_split -> pool3_pool3_0_split_0
I1117 10:24:14.840903  7615 net.cpp:408] pool3_pool3_0_split -> pool3_pool3_0_split_1
I1117 10:24:14.840945  7615 net.cpp:150] Setting up pool3_pool3_0_split
I1117 10:24:14.840952  7615 net.cpp:157] Top shape: 1 256 88 66 (1486848)
I1117 10:24:14.840957  7615 net.cpp:157] Top shape: 1 256 88 66 (1486848)
I1117 10:24:14.840961  7615 net.cpp:165] Memory required for data: 767866176
I1117 10:24:14.840966  7615 layer_factory.hpp:77] Creating layer conv4_1
I1117 10:24:14.840979  7615 net.cpp:100] Creating Layer conv4_1
I1117 10:24:14.840983  7615 net.cpp:434] conv4_1 <- pool3_pool3_0_split_0
I1117 10:24:14.840991  7615 net.cpp:408] conv4_1 -> conv4_1
I1117 10:24:14.852355  7615 net.cpp:150] Setting up conv4_1
I1117 10:24:14.852383  7615 net.cpp:157] Top shape: 1 512 88 66 (2973696)
I1117 10:24:14.852388  7615 net.cpp:165] Memory required for data: 779760960
I1117 10:24:14.852397  7615 layer_factory.hpp:77] Creating layer relu4_1
I1117 10:24:14.852406  7615 net.cpp:100] Creating Layer relu4_1
I1117 10:24:14.852412  7615 net.cpp:434] relu4_1 <- conv4_1
I1117 10:24:14.852421  7615 net.cpp:395] relu4_1 -> conv4_1 (in-place)
I1117 10:24:14.852792  7615 net.cpp:150] Setting up relu4_1
I1117 10:24:14.852807  7615 net.cpp:157] Top shape: 1 512 88 66 (2973696)
I1117 10:24:14.852813  7615 net.cpp:165] Memory required for data: 791655744
I1117 10:24:14.852818  7615 layer_factory.hpp:77] Creating layer conv4_2
I1117 10:24:14.852831  7615 net.cpp:100] Creating Layer conv4_2
I1117 10:24:14.852836  7615 net.cpp:434] conv4_2 <- conv4_1
I1117 10:24:14.852843  7615 net.cpp:408] conv4_2 -> conv4_2
I1117 10:24:14.869899  7615 net.cpp:150] Setting up conv4_2
I1117 10:24:14.869938  7615 net.cpp:157] Top shape: 1 512 88 66 (2973696)
I1117 10:24:14.869943  7615 net.cpp:165] Memory required for data: 803550528
I1117 10:24:14.869958  7615 layer_factory.hpp:77] Creating layer relu4_2
I1117 10:24:14.869972  7615 net.cpp:100] Creating Layer relu4_2
I1117 10:24:14.869978  7615 net.cpp:434] relu4_2 <- conv4_2
I1117 10:24:14.869985  7615 net.cpp:395] relu4_2 -> conv4_2 (in-place)
I1117 10:24:14.870177  7615 net.cpp:150] Setting up relu4_2
I1117 10:24:14.870187  7615 net.cpp:157] Top shape: 1 512 88 66 (2973696)
I1117 10:24:14.870193  7615 net.cpp:165] Memory required for data: 815445312
I1117 10:24:14.870196  7615 layer_factory.hpp:77] Creating layer conv4_3
I1117 10:24:14.870213  7615 net.cpp:100] Creating Layer conv4_3
I1117 10:24:14.870218  7615 net.cpp:434] conv4_3 <- conv4_2
I1117 10:24:14.870225  7615 net.cpp:408] conv4_3 -> conv4_3
I1117 10:24:14.887154  7615 net.cpp:150] Setting up conv4_3
I1117 10:24:14.887197  7615 net.cpp:157] Top shape: 1 512 88 66 (2973696)
I1117 10:24:14.887202  7615 net.cpp:165] Memory required for data: 827340096
I1117 10:24:14.887212  7615 layer_factory.hpp:77] Creating layer relu4_3
I1117 10:24:14.887223  7615 net.cpp:100] Creating Layer relu4_3
I1117 10:24:14.887228  7615 net.cpp:434] relu4_3 <- conv4_3
I1117 10:24:14.887238  7615 net.cpp:395] relu4_3 -> conv4_3 (in-place)
I1117 10:24:14.887605  7615 net.cpp:150] Setting up relu4_3
I1117 10:24:14.887619  7615 net.cpp:157] Top shape: 1 512 88 66 (2973696)
I1117 10:24:14.887624  7615 net.cpp:165] Memory required for data: 839234880
I1117 10:24:14.887629  7615 layer_factory.hpp:77] Creating layer pool4
I1117 10:24:14.887639  7615 net.cpp:100] Creating Layer pool4
I1117 10:24:14.887643  7615 net.cpp:434] pool4 <- conv4_3
I1117 10:24:14.887651  7615 net.cpp:408] pool4 -> pool4
I1117 10:24:14.887701  7615 net.cpp:150] Setting up pool4
I1117 10:24:14.887709  7615 net.cpp:157] Top shape: 1 512 44 33 (743424)
I1117 10:24:14.887713  7615 net.cpp:165] Memory required for data: 842208576
I1117 10:24:14.887717  7615 layer_factory.hpp:77] Creating layer pool4_pool4_0_split
I1117 10:24:14.887724  7615 net.cpp:100] Creating Layer pool4_pool4_0_split
I1117 10:24:14.887729  7615 net.cpp:434] pool4_pool4_0_split <- pool4
I1117 10:24:14.887734  7615 net.cpp:408] pool4_pool4_0_split -> pool4_pool4_0_split_0
I1117 10:24:14.887742  7615 net.cpp:408] pool4_pool4_0_split -> pool4_pool4_0_split_1
I1117 10:24:14.887779  7615 net.cpp:150] Setting up pool4_pool4_0_split
I1117 10:24:14.887796  7615 net.cpp:157] Top shape: 1 512 44 33 (743424)
I1117 10:24:14.887801  7615 net.cpp:157] Top shape: 1 512 44 33 (743424)
I1117 10:24:14.887805  7615 net.cpp:165] Memory required for data: 848155968
I1117 10:24:14.887809  7615 layer_factory.hpp:77] Creating layer conv5_1
I1117 10:24:14.887822  7615 net.cpp:100] Creating Layer conv5_1
I1117 10:24:14.887827  7615 net.cpp:434] conv5_1 <- pool4_pool4_0_split_0
I1117 10:24:14.887835  7615 net.cpp:408] conv5_1 -> conv5_1
I1117 10:24:14.904675  7615 net.cpp:150] Setting up conv5_1
I1117 10:24:14.904711  7615 net.cpp:157] Top shape: 1 512 44 33 (743424)
I1117 10:24:14.904716  7615 net.cpp:165] Memory required for data: 851129664
I1117 10:24:14.904726  7615 layer_factory.hpp:77] Creating layer relu5_1
I1117 10:24:14.904741  7615 net.cpp:100] Creating Layer relu5_1
I1117 10:24:14.904747  7615 net.cpp:434] relu5_1 <- conv5_1
I1117 10:24:14.904754  7615 net.cpp:395] relu5_1 -> conv5_1 (in-place)
I1117 10:24:14.905117  7615 net.cpp:150] Setting up relu5_1
I1117 10:24:14.905131  7615 net.cpp:157] Top shape: 1 512 44 33 (743424)
I1117 10:24:14.905136  7615 net.cpp:165] Memory required for data: 854103360
I1117 10:24:14.905140  7615 layer_factory.hpp:77] Creating layer conv5_2
I1117 10:24:14.905155  7615 net.cpp:100] Creating Layer conv5_2
I1117 10:24:14.905160  7615 net.cpp:434] conv5_2 <- conv5_1
I1117 10:24:14.905169  7615 net.cpp:408] conv5_2 -> conv5_2
I1117 10:24:14.922343  7615 net.cpp:150] Setting up conv5_2
I1117 10:24:14.922385  7615 net.cpp:157] Top shape: 1 512 44 33 (743424)
I1117 10:24:14.922390  7615 net.cpp:165] Memory required for data: 857077056
I1117 10:24:14.922400  7615 layer_factory.hpp:77] Creating layer relu5_2
I1117 10:24:14.922415  7615 net.cpp:100] Creating Layer relu5_2
I1117 10:24:14.922420  7615 net.cpp:434] relu5_2 <- conv5_2
I1117 10:24:14.922428  7615 net.cpp:395] relu5_2 -> conv5_2 (in-place)
I1117 10:24:14.922621  7615 net.cpp:150] Setting up relu5_2
I1117 10:24:14.922631  7615 net.cpp:157] Top shape: 1 512 44 33 (743424)
I1117 10:24:14.922634  7615 net.cpp:165] Memory required for data: 860050752
I1117 10:24:14.922639  7615 layer_factory.hpp:77] Creating layer conv5_3
I1117 10:24:14.922662  7615 net.cpp:100] Creating Layer conv5_3
I1117 10:24:14.922667  7615 net.cpp:434] conv5_3 <- conv5_2
I1117 10:24:14.922675  7615 net.cpp:408] conv5_3 -> conv5_3
I1117 10:24:14.940104  7615 net.cpp:150] Setting up conv5_3
I1117 10:24:14.940170  7615 net.cpp:157] Top shape: 1 512 44 33 (743424)
I1117 10:24:14.940174  7615 net.cpp:165] Memory required for data: 863024448
I1117 10:24:14.940187  7615 layer_factory.hpp:77] Creating layer relu5_3
I1117 10:24:14.940202  7615 net.cpp:100] Creating Layer relu5_3
I1117 10:24:14.940209  7615 net.cpp:434] relu5_3 <- conv5_3
I1117 10:24:14.940217  7615 net.cpp:395] relu5_3 -> conv5_3 (in-place)
I1117 10:24:14.940759  7615 net.cpp:150] Setting up relu5_3
I1117 10:24:14.940773  7615 net.cpp:157] Top shape: 1 512 44 33 (743424)
I1117 10:24:14.940776  7615 net.cpp:165] Memory required for data: 865998144
I1117 10:24:14.940781  7615 layer_factory.hpp:77] Creating layer pool5
I1117 10:24:14.940791  7615 net.cpp:100] Creating Layer pool5
I1117 10:24:14.940796  7615 net.cpp:434] pool5 <- conv5_3
I1117 10:24:14.940803  7615 net.cpp:408] pool5 -> pool5
I1117 10:24:14.940855  7615 net.cpp:150] Setting up pool5
I1117 10:24:14.940862  7615 net.cpp:157] Top shape: 1 512 22 17 (191488)
I1117 10:24:14.940866  7615 net.cpp:165] Memory required for data: 866764096
I1117 10:24:14.940871  7615 layer_factory.hpp:77] Creating layer fc6
I1117 10:24:14.940882  7615 net.cpp:100] Creating Layer fc6
I1117 10:24:14.940887  7615 net.cpp:434] fc6 <- pool5
I1117 10:24:14.940896  7615 net.cpp:408] fc6 -> fc6
I1117 10:24:15.634425  7615 net.cpp:150] Setting up fc6
I1117 10:24:15.634471  7615 net.cpp:157] Top shape: 1 4096 16 11 (720896)
I1117 10:24:15.634476  7615 net.cpp:165] Memory required for data: 869647680
I1117 10:24:15.634490  7615 layer_factory.hpp:77] Creating layer relu6
I1117 10:24:15.634513  7615 net.cpp:100] Creating Layer relu6
I1117 10:24:15.634519  7615 net.cpp:434] relu6 <- fc6
I1117 10:24:15.634529  7615 net.cpp:395] relu6 -> fc6 (in-place)
I1117 10:24:15.634901  7615 net.cpp:150] Setting up relu6
I1117 10:24:15.634913  7615 net.cpp:157] Top shape: 1 4096 16 11 (720896)
I1117 10:24:15.634918  7615 net.cpp:165] Memory required for data: 872531264
I1117 10:24:15.634922  7615 layer_factory.hpp:77] Creating layer drop6
I1117 10:24:15.634937  7615 net.cpp:100] Creating Layer drop6
I1117 10:24:15.634940  7615 net.cpp:434] drop6 <- fc6
I1117 10:24:15.634946  7615 net.cpp:395] drop6 -> fc6 (in-place)
I1117 10:24:15.634984  7615 net.cpp:150] Setting up drop6
I1117 10:24:15.634991  7615 net.cpp:157] Top shape: 1 4096 16 11 (720896)
I1117 10:24:15.634995  7615 net.cpp:165] Memory required for data: 875414848
I1117 10:24:15.634999  7615 layer_factory.hpp:77] Creating layer fc7
I1117 10:24:15.635011  7615 net.cpp:100] Creating Layer fc7
I1117 10:24:15.635015  7615 net.cpp:434] fc7 <- fc6
I1117 10:24:15.635023  7615 net.cpp:408] fc7 -> fc7
I1117 10:24:15.759382  7615 net.cpp:150] Setting up fc7
I1117 10:24:15.759433  7615 net.cpp:157] Top shape: 1 4096 16 11 (720896)
I1117 10:24:15.759438  7615 net.cpp:165] Memory required for data: 878298432
I1117 10:24:15.759454  7615 layer_factory.hpp:77] Creating layer relu7
I1117 10:24:15.759471  7615 net.cpp:100] Creating Layer relu7
I1117 10:24:15.759481  7615 net.cpp:434] relu7 <- fc7
I1117 10:24:15.759490  7615 net.cpp:395] relu7 -> fc7 (in-place)
I1117 10:24:15.759696  7615 net.cpp:150] Setting up relu7
I1117 10:24:15.759706  7615 net.cpp:157] Top shape: 1 4096 16 11 (720896)
I1117 10:24:15.759711  7615 net.cpp:165] Memory required for data: 881182016
I1117 10:24:15.759714  7615 layer_factory.hpp:77] Creating layer drop7
I1117 10:24:15.759727  7615 net.cpp:100] Creating Layer drop7
I1117 10:24:15.759732  7615 net.cpp:434] drop7 <- fc7
I1117 10:24:15.759737  7615 net.cpp:395] drop7 -> fc7 (in-place)
I1117 10:24:15.759778  7615 net.cpp:150] Setting up drop7
I1117 10:24:15.759784  7615 net.cpp:157] Top shape: 1 4096 16 11 (720896)
I1117 10:24:15.759788  7615 net.cpp:165] Memory required for data: 884065600
I1117 10:24:15.759793  7615 layer_factory.hpp:77] Creating layer score_fr
I1117 10:24:15.759805  7615 net.cpp:100] Creating Layer score_fr
I1117 10:24:15.759810  7615 net.cpp:434] score_fr <- fc7
I1117 10:24:15.759819  7615 net.cpp:408] score_fr -> score_fr
I1117 10:24:15.761091  7615 net.cpp:150] Setting up score_fr
I1117 10:24:15.761106  7615 net.cpp:157] Top shape: 1 2 16 11 (352)
I1117 10:24:15.761111  7615 net.cpp:165] Memory required for data: 884067008
I1117 10:24:15.761118  7615 layer_factory.hpp:77] Creating layer upscore2
I1117 10:24:15.761134  7615 net.cpp:100] Creating Layer upscore2
I1117 10:24:15.761140  7615 net.cpp:434] upscore2 <- score_fr
I1117 10:24:15.761148  7615 net.cpp:408] upscore2 -> upscore2
I1117 10:24:15.761366  7615 net.cpp:150] Setting up upscore2
I1117 10:24:15.761375  7615 net.cpp:157] Top shape: 1 2 34 24 (1632)
I1117 10:24:15.761379  7615 net.cpp:165] Memory required for data: 884073536
I1117 10:24:15.761394  7615 layer_factory.hpp:77] Creating layer upscore2_upscore2_0_split
I1117 10:24:15.761406  7615 net.cpp:100] Creating Layer upscore2_upscore2_0_split
I1117 10:24:15.761410  7615 net.cpp:434] upscore2_upscore2_0_split <- upscore2
I1117 10:24:15.761417  7615 net.cpp:408] upscore2_upscore2_0_split -> upscore2_upscore2_0_split_0
I1117 10:24:15.761425  7615 net.cpp:408] upscore2_upscore2_0_split -> upscore2_upscore2_0_split_1
I1117 10:24:15.761462  7615 net.cpp:150] Setting up upscore2_upscore2_0_split
I1117 10:24:15.761469  7615 net.cpp:157] Top shape: 1 2 34 24 (1632)
I1117 10:24:15.761474  7615 net.cpp:157] Top shape: 1 2 34 24 (1632)
I1117 10:24:15.761478  7615 net.cpp:165] Memory required for data: 884086592
I1117 10:24:15.761482  7615 layer_factory.hpp:77] Creating layer scale_pool4
I1117 10:24:15.761495  7615 net.cpp:100] Creating Layer scale_pool4
I1117 10:24:15.761500  7615 net.cpp:434] scale_pool4 <- pool4_pool4_0_split_1
I1117 10:24:15.761519  7615 net.cpp:408] scale_pool4 -> scale_pool4
I1117 10:24:15.761638  7615 net.cpp:150] Setting up scale_pool4
I1117 10:24:15.761646  7615 net.cpp:157] Top shape: 1 512 44 33 (743424)
I1117 10:24:15.761651  7615 net.cpp:165] Memory required for data: 887060288
I1117 10:24:15.761656  7615 layer_factory.hpp:77] Creating layer score_pool4
I1117 10:24:15.761667  7615 net.cpp:100] Creating Layer score_pool4
I1117 10:24:15.761672  7615 net.cpp:434] score_pool4 <- scale_pool4
I1117 10:24:15.761678  7615 net.cpp:408] score_pool4 -> score_pool4
I1117 10:24:15.762931  7615 net.cpp:150] Setting up score_pool4
I1117 10:24:15.762945  7615 net.cpp:157] Top shape: 1 2 44 33 (2904)
I1117 10:24:15.762950  7615 net.cpp:165] Memory required for data: 887071904
I1117 10:24:15.762959  7615 layer_factory.hpp:77] Creating layer score_pool4c
I1117 10:24:15.762970  7615 net.cpp:100] Creating Layer score_pool4c
I1117 10:24:15.762975  7615 net.cpp:434] score_pool4c <- score_pool4
I1117 10:24:15.762981  7615 net.cpp:434] score_pool4c <- upscore2_upscore2_0_split_0
I1117 10:24:15.762989  7615 net.cpp:408] score_pool4c -> score_pool4c
I1117 10:24:15.763023  7615 net.cpp:150] Setting up score_pool4c
I1117 10:24:15.763031  7615 net.cpp:157] Top shape: 1 2 34 24 (1632)
I1117 10:24:15.763034  7615 net.cpp:165] Memory required for data: 887078432
I1117 10:24:15.763038  7615 layer_factory.hpp:77] Creating layer fuse_pool4
I1117 10:24:15.763048  7615 net.cpp:100] Creating Layer fuse_pool4
I1117 10:24:15.763056  7615 net.cpp:434] fuse_pool4 <- upscore2_upscore2_0_split_1
I1117 10:24:15.763061  7615 net.cpp:434] fuse_pool4 <- score_pool4c
I1117 10:24:15.763067  7615 net.cpp:408] fuse_pool4 -> fuse_pool4
I1117 10:24:15.763094  7615 net.cpp:150] Setting up fuse_pool4
I1117 10:24:15.763101  7615 net.cpp:157] Top shape: 1 2 34 24 (1632)
I1117 10:24:15.763105  7615 net.cpp:165] Memory required for data: 887084960
I1117 10:24:15.763109  7615 layer_factory.hpp:77] Creating layer upscore_pool4
I1117 10:24:15.763120  7615 net.cpp:100] Creating Layer upscore_pool4
I1117 10:24:15.763125  7615 net.cpp:434] upscore_pool4 <- fuse_pool4
I1117 10:24:15.763131  7615 net.cpp:408] upscore_pool4 -> upscore_pool4
I1117 10:24:15.763347  7615 net.cpp:150] Setting up upscore_pool4
I1117 10:24:15.763357  7615 net.cpp:157] Top shape: 1 2 70 50 (7000)
I1117 10:24:15.763361  7615 net.cpp:165] Memory required for data: 887112960
I1117 10:24:15.763366  7615 layer_factory.hpp:77] Creating layer upscore_pool4_upscore_pool4_0_split
I1117 10:24:15.763373  7615 net.cpp:100] Creating Layer upscore_pool4_upscore_pool4_0_split
I1117 10:24:15.763377  7615 net.cpp:434] upscore_pool4_upscore_pool4_0_split <- upscore_pool4
I1117 10:24:15.763384  7615 net.cpp:408] upscore_pool4_upscore_pool4_0_split -> upscore_pool4_upscore_pool4_0_split_0
I1117 10:24:15.763391  7615 net.cpp:408] upscore_pool4_upscore_pool4_0_split -> upscore_pool4_upscore_pool4_0_split_1
I1117 10:24:15.763428  7615 net.cpp:150] Setting up upscore_pool4_upscore_pool4_0_split
I1117 10:24:15.763434  7615 net.cpp:157] Top shape: 1 2 70 50 (7000)
I1117 10:24:15.763439  7615 net.cpp:157] Top shape: 1 2 70 50 (7000)
I1117 10:24:15.763443  7615 net.cpp:165] Memory required for data: 887168960
I1117 10:24:15.763447  7615 layer_factory.hpp:77] Creating layer scale_pool3
I1117 10:24:15.763456  7615 net.cpp:100] Creating Layer scale_pool3
I1117 10:24:15.763461  7615 net.cpp:434] scale_pool3 <- pool3_pool3_0_split_1
I1117 10:24:15.763469  7615 net.cpp:408] scale_pool3 -> scale_pool3
I1117 10:24:15.763564  7615 net.cpp:150] Setting up scale_pool3
I1117 10:24:15.763572  7615 net.cpp:157] Top shape: 1 256 88 66 (1486848)
I1117 10:24:15.763576  7615 net.cpp:165] Memory required for data: 893116352
I1117 10:24:15.763581  7615 layer_factory.hpp:77] Creating layer score_pool3
I1117 10:24:15.763595  7615 net.cpp:100] Creating Layer score_pool3
I1117 10:24:15.763600  7615 net.cpp:434] score_pool3 <- scale_pool3
I1117 10:24:15.763608  7615 net.cpp:408] score_pool3 -> score_pool3
I1117 10:24:15.764798  7615 net.cpp:150] Setting up score_pool3
I1117 10:24:15.764818  7615 net.cpp:157] Top shape: 1 2 88 66 (11616)
I1117 10:24:15.764822  7615 net.cpp:165] Memory required for data: 893162816
I1117 10:24:15.764830  7615 layer_factory.hpp:77] Creating layer score_pool3c
I1117 10:24:15.764842  7615 net.cpp:100] Creating Layer score_pool3c
I1117 10:24:15.764847  7615 net.cpp:434] score_pool3c <- score_pool3
I1117 10:24:15.764853  7615 net.cpp:434] score_pool3c <- upscore_pool4_upscore_pool4_0_split_0
I1117 10:24:15.764859  7615 net.cpp:408] score_pool3c -> score_pool3c
I1117 10:24:15.764890  7615 net.cpp:150] Setting up score_pool3c
I1117 10:24:15.764897  7615 net.cpp:157] Top shape: 1 2 70 50 (7000)
I1117 10:24:15.764901  7615 net.cpp:165] Memory required for data: 893190816
I1117 10:24:15.764905  7615 layer_factory.hpp:77] Creating layer fuse_pool3
I1117 10:24:15.764914  7615 net.cpp:100] Creating Layer fuse_pool3
I1117 10:24:15.764919  7615 net.cpp:434] fuse_pool3 <- upscore_pool4_upscore_pool4_0_split_1
I1117 10:24:15.764924  7615 net.cpp:434] fuse_pool3 <- score_pool3c
I1117 10:24:15.764928  7615 net.cpp:408] fuse_pool3 -> fuse_pool3
I1117 10:24:15.764956  7615 net.cpp:150] Setting up fuse_pool3
I1117 10:24:15.764962  7615 net.cpp:157] Top shape: 1 2 70 50 (7000)
I1117 10:24:15.764966  7615 net.cpp:165] Memory required for data: 893218816
I1117 10:24:15.764969  7615 layer_factory.hpp:77] Creating layer upscore8
I1117 10:24:15.764978  7615 net.cpp:100] Creating Layer upscore8
I1117 10:24:15.764983  7615 net.cpp:434] upscore8 <- fuse_pool3
I1117 10:24:15.764991  7615 net.cpp:408] upscore8 -> upscore8
I1117 10:24:15.765198  7615 net.cpp:150] Setting up upscore8
I1117 10:24:15.765208  7615 net.cpp:157] Top shape: 1 2 568 408 (463488)
I1117 10:24:15.765211  7615 net.cpp:165] Memory required for data: 895072768
I1117 10:24:15.765216  7615 layer_factory.hpp:77] Creating layer score
I1117 10:24:15.765224  7615 net.cpp:100] Creating Layer score
I1117 10:24:15.765228  7615 net.cpp:434] score <- upscore8
I1117 10:24:15.765233  7615 net.cpp:434] score <- data_data_0_split_1
I1117 10:24:15.765239  7615 net.cpp:408] score -> score
I1117 10:24:15.765266  7615 net.cpp:150] Setting up score
I1117 10:24:15.765272  7615 net.cpp:157] Top shape: 1 2 500 330 (330000)
I1117 10:24:15.765276  7615 net.cpp:165] Memory required for data: 896392768
I1117 10:24:15.765280  7615 layer_factory.hpp:77] Creating layer loss
I1117 10:24:15.765291  7615 net.cpp:100] Creating Layer loss
I1117 10:24:15.765295  7615 net.cpp:434] loss <- score
I1117 10:24:15.765300  7615 net.cpp:434] loss <- label
I1117 10:24:15.765307  7615 net.cpp:408] loss -> loss
I1117 10:24:15.765318  7615 layer_factory.hpp:77] Creating layer loss
…
I1117 10:24:15.766840  7615 net.cpp:283] Network initialization done.
I1117 10:24:15.768040  7615 solver.cpp:181] Creating test net (#0) specified by test_net file: val.prototxt
I1117 10:24:15.768407  7615 net.cpp:58] Initializing net from parameters: 
state {
  phase: TEST
}
layer {
  name: "data"
  type: "Python"
  top: "data"
  top: "label"
  python_param {
    module: "voc_layers"
    layer: "ObfVOCSegDataLayer"
    param_str: "{\'voc_dir\': \'../data/pascal-obfuscated/VOC2011\', \'seed\': 1337, \'split\': \'seg11valid\', \'mean\': (104.00699, 116.66877, 122.67892)}"
  }
}
layer {
  name: "conv1_1"
  type: "Convolution"
  bottom: "data"
  top: "conv1_1"
  param {
    lr_mult: 1
    decay_mult: 1
  }
  param {
    lr_mult: 2
    decay_mult: 0
  }
  convolution_param {
    num_output: 64
    pad: 100
    kernel_size: 3
    stride: 1
    weight_filler {
      type: "xavier"
    }
  }
}
layer {
  name: "relu1_1"
  type: "ReLU"
  bottom: "conv1_1"
  top: "conv1_1"
}
layer {
  name: "conv1_2"
  type: "Convolution"
  bottom: "conv1_1"
  top: "conv1_2"
  param {
    lr_mult: 1
    decay_mult: 1
  }
  param {
    lr_mult: 2
    decay_mult: 0
  }
  convolution_param {
    num_output: 64
    pad: 1
    kernel_size: 3
    stride: 1
    weight_filler {
      type: "xavier"
    }
  }
}
layer {
  name: "relu1_2"
  type: "ReLU"
  bottom: "conv1_2"
  top: "conv1_2"
}
layer {
  name: "pool1"
  type: "Pooling"
  bottom: "conv1_2"
  top: "pool1"
  pooling_param {
    pool: MAX
    kernel_size: 2
    stride: 2
  }
}
layer {
  name: "conv2_1"
  type: "Convolution"
  bottom: "pool1"
  top: "conv2_1"
  param {
    lr_mult: 1
    decay_mult: 1
  }
  param {
    lr_mult: 2
    decay_mult: 0
  }
  convolution_param {
    num_output: 128
    pad: 1
    kernel_size: 3
    stride: 1
    weight_filler {
      type: "xavier"
    }
  }
}
layer {
  name: "relu2_1"
  type: "ReLU"
  bottom: "conv2_1"
  top: "conv2_1"
}
layer {
  name: "conv2_2"
  type: "Convolution"
  bottom: "conv2_1"
  top: "conv2_2"
  param {
    lr_mult: 1
    decay_mult: 1
  }
  param {
    lr_mult: 2
    decay_mult: 0
  }
  convolution_param {
    num_output: 128
    pad: 1
    kernel_size: 3
    stride: 1
    weight_filler {
      type: "xavier"
    }
  }
}
layer {
  name: "relu2_2"
  type: "ReLU"
  bottom: "conv2_2"
  top: "conv2_2"
}
layer {
  name: "pool2"
  type: "Pooling"
  bottom: "conv2_2"
  top: "pool2"
  pooling_param {
    pool: MAX
    kernel_size: 2
    stride: 2
  }
}
layer {
  name: "conv3_1"
  type: "Convolution"
  bottom: "pool2"
  top: "conv3_1"
  param {
    lr_mult: 1
    decay_mult: 1
  }
  param {
    lr_mult: 2
    decay_mult: 0
  }
  convolution_param {
    num_output: 256
    pad: 1
    kernel_size: 3
    stride: 1
    weight_filler {
      type: "xavier"
    }
  }
}
layer {
  name: "relu3_1"
  type: "ReLU"
  bottom: "conv3_1"
  top: "conv3_1"
}
layer {
  name: "conv3_2"
  type: "Convolution"
  bottom: "conv3_1"
  top: "conv3_2"
  param {
    lr_mult: 1
    decay_mult: 1
  }
  param {
    lr_mult: 2
    decay_mult: 0
  }
  convolution_param {
    num_output: 256
    pad: 1
    kernel_size: 3
    stride: 1
    weight_filler {
      type: "xavier"
    }
  }
}
layer {
  name: "relu3_2"
  type: "ReLU"
  bottom: "conv3_2"
  top: "conv3_2"
}
layer {
  name: "conv3_3"
  type: "Convolution"
  bottom: "conv3_2"
  top: "conv3_3"
  param {
    lr_mult: 1
    decay_mult: 1
  }
  param {
    lr_mult: 2
    decay_mult: 0
  }
  convolution_param {
    num_output: 256
    pad: 1
    kernel_size: 3
    stride: 1
    weight_filler {
      type: "xavier"
    }
  }
}
layer {
  name: "relu3_3"
  type: "ReLU"
  bottom: "conv3_3"
  top: "conv3_3"
}
layer {
  name: "pool3"
  type: "Pooling"
  bottom: "conv3_3"
  top: "pool3"
  pooling_param {
    pool: MAX
    kernel_size: 2
    stride: 2
  }
}
layer {
  name: "conv4_1"
  type: "Convolution"
  bottom: "pool3"
  top: "conv4_1"
  param {
    lr_mult: 1
    decay_mult: 1
  }
  param {
    lr_mult: 2
    decay_mult: 0
  }
  convolution_param {
    num_output: 512
    pad: 1
    kernel_size: 3
    stride: 1
    weight_filler {
      type: "xavier"
    }
  }
}
layer {
  name: "relu4_1"
  type: "ReLU"
  bottom: "conv4_1"
  top: "conv4_1"
}
layer {
  name: "conv4_2"
  type: "Convolution"
  bottom: "conv4_1"
  top: "conv4_2"
  param {
    lr_mult: 1
    decay_mult: 1
  }
  param {
    lr_mult: 2
    decay_mult: 0
  }
  convolution_param {
    num_output: 512
    pad: 1
    kernel_size: 3
    stride: 1
    weight_filler {
      type: "xavier"
    }
  }
}
layer {
  name: "relu4_2"
  type: "ReLU"
  bottom: "conv4_2"
  top: "conv4_2"
}
layer {
  name: "conv4_3"
  type: "Convolution"
  bottom: "conv4_2"
  top: "conv4_3"
  param {
    lr_mult: 1
    decay_mult: 1
  }
  param {
    lr_mult: 2
    decay_mult: 0
  }
  convolution_param {
    num_output: 512
    pad: 1
    kernel_size: 3
    stride: 1
    weight_filler {
      type: "xavier"
    }
  }
}
layer {
  name: "relu4_3"
  type: "ReLU"
  bottom: "conv4_3"
  top: "conv4_3"
}
layer {
  name: "pool4"
  type: "Pooling"
  bottom: "conv4_3"
  top: "pool4"
  pooling_param {
    pool: MAX
    kernel_size: 2
    stride: 2
  }
}
layer {
  name: "conv5_1"
  type: "Convolution"
  bottom: "pool4"
  top: "conv5_1"
  param {
    lr_mult: 1
    decay_mult: 1
  }
  param {
    lr_mult: 2
    decay_mult: 0
  }
  convolution_param {
    num_output: 512
    pad: 1
    kernel_size: 3
    stride: 1
    weight_filler {
      type: "xavier"
    }
  }
}
layer {
  name: "relu5_1"
  type: "ReLU"
  bottom: "conv5_1"
  top: "conv5_1"
}
layer {
  name: "conv5_2"
  type: "Convolution"
  bottom: "conv5_1"
  top: "conv5_2"
  param {
    lr_mult: 1
    decay_mult: 1
  }
  param {
    lr_mult: 2
    decay_mult: 0
  }
  convolution_param {
    num_output: 512
    pad: 1
    kernel_size: 3
    stride: 1
    weight_filler {
      type: "xavier"
    }
  }
}
layer {
  name: "relu5_2"
  type: "ReLU"
  bottom: "conv5_2"
  top: "conv5_2"
}
layer {
  name: "conv5_3"
  type: "Convolution"
  bottom: "conv5_2"
  top: "conv5_3"
  param {
    lr_mult: 1
    decay_mult: 1
  }
  param {
    lr_mult: 2
    decay_mult: 0
  }
  convolution_param {
    num_output: 512
    pad: 1
    kernel_size: 3
    stride: 1
    weight_filler {
      type: "xavier"
    }
  }
}
layer {
  name: "relu5_3"
  type: "ReLU"
  bottom: "conv5_3"
  top: "conv5_3"
}
layer {
  name: "pool5"
  type: "Pooling"
  bottom: "conv5_3"
  top: "pool5"
  pooling_param {
    pool: MAX
    kernel_size: 2
    stride: 2
  }
}
layer {
  name: "fc6"
  type: "Convolution"
  bottom: "pool5"
  top: "fc6"
  param {
    lr_mult: 1
    decay_mult: 1
  }
  param {
    lr_mult: 2
    decay_mult: 0
  }
  convolution_param {
    num_output: 4096
    pad: 0
    kernel_size: 7
    stride: 1
    weight_filler {
      type: "xavier"
    }
  }
}
layer {
  name: "relu6"
  type: "ReLU"
  bottom: "fc6"
  top: "fc6"
}
layer {
  name: "drop6"
  type: "Dropout"
  bottom: "fc6"
  top: "fc6"
  dropout_param {
    dropout_ratio: 0.5
  }
}
layer {
  name: "fc7"
  type: "Convolution"
  bottom: "fc6"
  top: "fc7"
  param {
    lr_mult: 1
    decay_mult: 1
  }
  param {
    lr_mult: 2
    decay_mult: 0
  }
  convolution_param {
    num_output: 4096
    pad: 0
    kernel_size: 1
    stride: 1
    weight_filler {
      type: "xavier"
    }
  }
}
layer {
  name: "relu7"
  type: "ReLU"
  bottom: "fc7"
  top: "fc7"
}
layer {
  name: "drop7"
  type: "Dropout"
  bottom: "fc7"
  top: "fc7"
  dropout_param {
    dropout_ratio: 0.5
  }
}
layer {
  name: "score_fr"
  type: "Convolution"
  bottom: "fc7"
  top: "score_fr"
  param {
    lr_mult: 1
    decay_mult: 1
  }
  param {
    lr_mult: 2
    decay_mult: 0
  }
  convolution_param {
    num_output: 2
    pad: 0
    kernel_size: 1
    weight_filler {
      type: "xavier"
    }
  }
}
layer {
  name: "upscore2"
  type: "Deconvolution"
  bottom: "score_fr"
  top: "upscore2"
  param {
    lr_mult: 0
  }
  convolution_param {
    num_output: 2
    bias_term: false
    kernel_size: 4
    stride: 2
    weight_filler {
      type: "xavier"
    }
  }
}
layer {
  name: "scale_pool4"
  type: "Scale"
  bottom: "pool4"
  top: "scale_pool4"
  param {
    lr_mult: 0
  }
  scale_param {
    filler {
      type: "constant"
      value: 0.01
    }
  }
}
layer {
  name: "score_pool4"
  type: "Convolution"
  bottom: "scale_pool4"
  top: "score_pool4"
  param {
    lr_mult: 1
    decay_mult: 1
  }
  param {
    lr_mult: 2
    decay_mult: 0
  }
  convolution_param {
    num_output: 2
    pad: 0
    kernel_size: 1
    weight_filler {
      type: "xavier"
    }
  }
}
layer {
  name: "score_pool4c"
  type: "Crop"
  bottom: "score_pool4"
  bottom: "upscore2"
  top: "score_pool4c"
  crop_param {
    axis: 2
    offset: 5
  }
}
layer {
  name: "fuse_pool4"
  type: "Eltwise"
  bottom: "upscore2"
  bottom: "score_pool4c"
  top: "fuse_pool4"
  eltwise_param {
    operation: SUM
  }
}
layer {
  name: "upscore_pool4"
  type: "Deconvolution"
  bottom: "fuse_pool4"
  top: "upscore_pool4"
  param {
    lr_mult: 0
  }
  convolution_param {
    num_output: 2
    bias_term: false
    kernel_size: 4
    stride: 2
    weight_filler {
      type: "xavier"
    }
  }
}
layer {
  name: "scale_pool3"
  type: "Scale"
  bottom: "pool3"
  top: "scale_pool3"
  param {
    lr_mult: 0
  }
  scale_param {
    filler {
      type: "constant"
      value: 0.0001
    }
  }
}
layer {
  name: "score_pool3"
  type: "Convolution"
  bottom: "scale_pool3"
  top: "score_pool3"
  param {
    lr_mult: 1
    decay_mult: 1
  }
  param {
    lr_mult: 2
    decay_mult: 0
  }
  convolution_param {
    num_output: 2
    pad: 0
    kernel_size: 1
    weight_filler {
      type: "xavier"
    }
  }
}
layer {
  name: "score_pool3c"
  type: "Crop"
  bottom: "score_pool3"
  bottom: "upscore_pool4"
  top: "score_pool3c"
  crop_param {
    axis: 2
    offset: 9
  }
}
layer {
  name: "fuse_pool3"
  type: "Eltwise"
  bottom: "upscore_pool4"
  bottom: "score_pool3c"
  top: "fuse_pool3"
  eltwise_param {
    operation: SUM
  }
}
layer {
  name: "upscore8"
  type: "Deconvolution"
  bottom: "fuse_pool3"
  top: "upscore8"
  param {
    lr_mult: 0
  }
  convolution_param {
    num_output: 2
    bias_term: false
    kernel_size: 16
    stride: 8
    weight_filler {
      type: "xavier"
    }
  }
}
layer {
  name: "score"
  type: "Crop"
  bottom: "upscore8"
  bottom: "data"
  top: "score"
  crop_param {
    axis: 2
    offset: 31
  }
}
layer {
  name: "loss"
  type: "SoftmaxWithLoss"
  bottom: "score"
  bottom: "label"
  top: "loss"
  loss_param {
    ignore_label: 255
    normalize: false
  }
}
I1117 10:24:15.768628  7615 layer_factory.hpp:77] Creating layer data
I1117 10:24:15.768792  7615 net.cpp:100] Creating Layer data
I1117 10:24:15.768802  7615 net.cpp:408] data -> data
I1117 10:24:15.768813  7615 net.cpp:408] data -> label
I1117 10:24:15.781067  7615 net.cpp:150] Setting up data
I1117 10:24:15.781086  7615 net.cpp:157] Top shape: 1 3 366 500 (549000)
I1117 10:24:15.781092  7615 net.cpp:157] Top shape: 1 1 366 500 (183000)
I1117 10:24:15.781096  7615 net.cpp:165] Memory required for data: 2928000
I1117 10:24:15.781102  7615 layer_factory.hpp:77] Creating layer data_data_0_split
I1117 10:24:15.781111  7615 net.cpp:100] Creating Layer data_data_0_split
I1117 10:24:15.781114  7615 net.cpp:434] data_data_0_split <- data
I1117 10:24:15.781121  7615 net.cpp:408] data_data_0_split -> data_data_0_split_0
I1117 10:24:15.781129  7615 net.cpp:408] data_data_0_split -> data_data_0_split_1
I1117 10:24:15.781170  7615 net.cpp:150] Setting up data_data_0_split
I1117 10:24:15.781178  7615 net.cpp:157] Top shape: 1 3 366 500 (549000)
I1117 10:24:15.781183  7615 net.cpp:157] Top shape: 1 3 366 500 (549000)
I1117 10:24:15.781188  7615 net.cpp:165] Memory required for data: 7320000
I1117 10:24:15.781193  7615 layer_factory.hpp:77] Creating layer conv1_1
I1117 10:24:15.781203  7615 net.cpp:100] Creating Layer conv1_1
I1117 10:24:15.781208  7615 net.cpp:434] conv1_1 <- data_data_0_split_0
I1117 10:24:15.781213  7615 net.cpp:408] conv1_1 -> conv1_1
I1117 10:24:15.783473  7615 net.cpp:150] Setting up conv1_1
I1117 10:24:15.783490  7615 net.cpp:157] Top shape: 1 64 564 698 (25195008)
I1117 10:24:15.783495  7615 net.cpp:165] Memory required for data: 108100032
I1117 10:24:15.783506  7615 layer_factory.hpp:77] Creating layer relu1_1
I1117 10:24:15.783514  7615 net.cpp:100] Creating Layer relu1_1
I1117 10:24:15.783519  7615 net.cpp:434] relu1_1 <- conv1_1
I1117 10:24:15.783524  7615 net.cpp:395] relu1_1 -> conv1_1 (in-place)
I1117 10:24:15.783713  7615 net.cpp:150] Setting up relu1_1
I1117 10:24:15.783723  7615 net.cpp:157] Top shape: 1 64 564 698 (25195008)
I1117 10:24:15.783727  7615 net.cpp:165] Memory required for data: 208880064
I1117 10:24:15.783731  7615 layer_factory.hpp:77] Creating layer conv1_2
I1117 10:24:15.783742  7615 net.cpp:100] Creating Layer conv1_2
I1117 10:24:15.783746  7615 net.cpp:434] conv1_2 <- conv1_1
I1117 10:24:15.783753  7615 net.cpp:408] conv1_2 -> conv1_2
I1117 10:24:15.786011  7615 net.cpp:150] Setting up conv1_2
I1117 10:24:15.786027  7615 net.cpp:157] Top shape: 1 64 564 698 (25195008)
I1117 10:24:15.786032  7615 net.cpp:165] Memory required for data: 309660096
I1117 10:24:15.786042  7615 layer_factory.hpp:77] Creating layer relu1_2
I1117 10:24:15.786051  7615 net.cpp:100] Creating Layer relu1_2
I1117 10:24:15.786054  7615 net.cpp:434] relu1_2 <- conv1_2
I1117 10:24:15.786061  7615 net.cpp:395] relu1_2 -> conv1_2 (in-place)
I1117 10:24:15.786417  7615 net.cpp:150] Setting up relu1_2
I1117 10:24:15.786429  7615 net.cpp:157] Top shape: 1 64 564 698 (25195008)
I1117 10:24:15.786433  7615 net.cpp:165] Memory required for data: 410440128
I1117 10:24:15.786438  7615 layer_factory.hpp:77] Creating layer pool1
I1117 10:24:15.786445  7615 net.cpp:100] Creating Layer pool1
I1117 10:24:15.786449  7615 net.cpp:434] pool1 <- conv1_2
I1117 10:24:15.786455  7615 net.cpp:408] pool1 -> pool1
I1117 10:24:15.786505  7615 net.cpp:150] Setting up pool1
I1117 10:24:15.786512  7615 net.cpp:157] Top shape: 1 64 282 349 (6298752)
I1117 10:24:15.786516  7615 net.cpp:165] Memory required for data: 435635136
I1117 10:24:15.786520  7615 layer_factory.hpp:77] Creating layer conv2_1
I1117 10:24:15.786530  7615 net.cpp:100] Creating Layer conv2_1
I1117 10:24:15.786533  7615 net.cpp:434] conv2_1 <- pool1
I1117 10:24:15.786540  7615 net.cpp:408] conv2_1 -> conv2_1
I1117 10:24:15.788689  7615 net.cpp:150] Setting up conv2_1
I1117 10:24:15.788705  7615 net.cpp:157] Top shape: 1 128 282 349 (12597504)
I1117 10:24:15.788710  7615 net.cpp:165] Memory required for data: 486025152
I1117 10:24:15.788722  7615 layer_factory.hpp:77] Creating layer relu2_1
I1117 10:24:15.788730  7615 net.cpp:100] Creating Layer relu2_1
I1117 10:24:15.788734  7615 net.cpp:434] relu2_1 <- conv2_1
I1117 10:24:15.788740  7615 net.cpp:395] relu2_1 -> conv2_1 (in-place)
I1117 10:24:15.789110  7615 net.cpp:150] Setting up relu2_1
I1117 10:24:15.789124  7615 net.cpp:157] Top shape: 1 128 282 349 (12597504)
I1117 10:24:15.789129  7615 net.cpp:165] Memory required for data: 536415168
I1117 10:24:15.789132  7615 layer_factory.hpp:77] Creating layer conv2_2
I1117 10:24:15.789141  7615 net.cpp:100] Creating Layer conv2_2
I1117 10:24:15.789146  7615 net.cpp:434] conv2_2 <- conv2_1
I1117 10:24:15.789153  7615 net.cpp:408] conv2_2 -> conv2_2
I1117 10:24:15.791666  7615 net.cpp:150] Setting up conv2_2
I1117 10:24:15.791683  7615 net.cpp:157] Top shape: 1 128 282 349 (12597504)
I1117 10:24:15.791687  7615 net.cpp:165] Memory required for data: 586805184
I1117 10:24:15.791695  7615 layer_factory.hpp:77] Creating layer relu2_2
I1117 10:24:15.791702  7615 net.cpp:100] Creating Layer relu2_2
I1117 10:24:15.791707  7615 net.cpp:434] relu2_2 <- conv2_2
I1117 10:24:15.791713  7615 net.cpp:395] relu2_2 -> conv2_2 (in-place)
I1117 10:24:15.791895  7615 net.cpp:150] Setting up relu2_2
I1117 10:24:15.791905  7615 net.cpp:157] Top shape: 1 128 282 349 (12597504)
I1117 10:24:15.791909  7615 net.cpp:165] Memory required for data: 637195200
I1117 10:24:15.791913  7615 layer_factory.hpp:77] Creating layer pool2
I1117 10:24:15.791920  7615 net.cpp:100] Creating Layer pool2
I1117 10:24:15.791925  7615 net.cpp:434] pool2 <- conv2_2
I1117 10:24:15.791930  7615 net.cpp:408] pool2 -> pool2
I1117 10:24:15.791980  7615 net.cpp:150] Setting up pool2
I1117 10:24:15.791986  7615 net.cpp:157] Top shape: 1 128 141 175 (3158400)
I1117 10:24:15.791990  7615 net.cpp:165] Memory required for data: 649828800
I1117 10:24:15.791995  7615 layer_factory.hpp:77] Creating layer conv3_1
I1117 10:24:15.792003  7615 net.cpp:100] Creating Layer conv3_1
I1117 10:24:15.792007  7615 net.cpp:434] conv3_1 <- pool2
I1117 10:24:15.792014  7615 net.cpp:408] conv3_1 -> conv3_1
I1117 10:24:15.795228  7615 net.cpp:150] Setting up conv3_1
I1117 10:24:15.795243  7615 net.cpp:157] Top shape: 1 256 141 175 (6316800)
I1117 10:24:15.795248  7615 net.cpp:165] Memory required for data: 675096000
I1117 10:24:15.795258  7615 layer_factory.hpp:77] Creating layer relu3_1
I1117 10:24:15.795266  7615 net.cpp:100] Creating Layer relu3_1
I1117 10:24:15.795276  7615 net.cpp:434] relu3_1 <- conv3_1
I1117 10:24:15.795282  7615 net.cpp:395] relu3_1 -> conv3_1 (in-place)
I1117 10:24:15.795640  7615 net.cpp:150] Setting up relu3_1
I1117 10:24:15.795653  7615 net.cpp:157] Top shape: 1 256 141 175 (6316800)
I1117 10:24:15.795657  7615 net.cpp:165] Memory required for data: 700363200
I1117 10:24:15.795661  7615 layer_factory.hpp:77] Creating layer conv3_2
I1117 10:24:15.795672  7615 net.cpp:100] Creating Layer conv3_2
I1117 10:24:15.795676  7615 net.cpp:434] conv3_2 <- conv3_1
I1117 10:24:15.795683  7615 net.cpp:408] conv3_2 -> conv3_2
I1117 10:24:15.800835  7615 net.cpp:150] Setting up conv3_2
I1117 10:24:15.800851  7615 net.cpp:157] Top shape: 1 256 141 175 (6316800)
I1117 10:24:15.800855  7615 net.cpp:165] Memory required for data: 725630400
I1117 10:24:15.800863  7615 layer_factory.hpp:77] Creating layer relu3_2
I1117 10:24:15.800871  7615 net.cpp:100] Creating Layer relu3_2
I1117 10:24:15.800876  7615 net.cpp:434] relu3_2 <- conv3_2
I1117 10:24:15.800884  7615 net.cpp:395] relu3_2 -> conv3_2 (in-place)
I1117 10:24:15.801067  7615 net.cpp:150] Setting up relu3_2
I1117 10:24:15.801076  7615 net.cpp:157] Top shape: 1 256 141 175 (6316800)
I1117 10:24:15.801081  7615 net.cpp:165] Memory required for data: 750897600
I1117 10:24:15.801085  7615 layer_factory.hpp:77] Creating layer conv3_3
I1117 10:24:15.801097  7615 net.cpp:100] Creating Layer conv3_3
I1117 10:24:15.801102  7615 net.cpp:434] conv3_3 <- conv3_2
I1117 10:24:15.801110  7615 net.cpp:408] conv3_3 -> conv3_3
I1117 10:24:15.806253  7615 net.cpp:150] Setting up conv3_3
I1117 10:24:15.806269  7615 net.cpp:157] Top shape: 1 256 141 175 (6316800)
I1117 10:24:15.806274  7615 net.cpp:165] Memory required for data: 776164800
I1117 10:24:15.806282  7615 layer_factory.hpp:77] Creating layer relu3_3
I1117 10:24:15.806289  7615 net.cpp:100] Creating Layer relu3_3
I1117 10:24:15.806294  7615 net.cpp:434] relu3_3 <- conv3_3
I1117 10:24:15.806300  7615 net.cpp:395] relu3_3 -> conv3_3 (in-place)
I1117 10:24:15.806481  7615 net.cpp:150] Setting up relu3_3
I1117 10:24:15.806491  7615 net.cpp:157] Top shape: 1 256 141 175 (6316800)
I1117 10:24:15.806495  7615 net.cpp:165] Memory required for data: 801432000
I1117 10:24:15.806500  7615 layer_factory.hpp:77] Creating layer pool3
I1117 10:24:15.806507  7615 net.cpp:100] Creating Layer pool3
I1117 10:24:15.806511  7615 net.cpp:434] pool3 <- conv3_3
I1117 10:24:15.806517  7615 net.cpp:408] pool3 -> pool3
I1117 10:24:15.806568  7615 net.cpp:150] Setting up pool3
I1117 10:24:15.806576  7615 net.cpp:157] Top shape: 1 256 71 88 (1599488)
I1117 10:24:15.806579  7615 net.cpp:165] Memory required for data: 807829952
I1117 10:24:15.806583  7615 layer_factory.hpp:77] Creating layer pool3_pool3_0_split
I1117 10:24:15.806591  7615 net.cpp:100] Creating Layer pool3_pool3_0_split
I1117 10:24:15.806594  7615 net.cpp:434] pool3_pool3_0_split <- pool3
I1117 10:24:15.806601  7615 net.cpp:408] pool3_pool3_0_split -> pool3_pool3_0_split_0
I1117 10:24:15.806607  7615 net.cpp:408] pool3_pool3_0_split -> pool3_pool3_0_split_1
I1117 10:24:15.806646  7615 net.cpp:150] Setting up pool3_pool3_0_split
I1117 10:24:15.806653  7615 net.cpp:157] Top shape: 1 256 71 88 (1599488)
I1117 10:24:15.806658  7615 net.cpp:157] Top shape: 1 256 71 88 (1599488)
I1117 10:24:15.806660  7615 net.cpp:165] Memory required for data: 820625856
I1117 10:24:15.806664  7615 layer_factory.hpp:77] Creating layer conv4_1
I1117 10:24:15.806674  7615 net.cpp:100] Creating Layer conv4_1
I1117 10:24:15.806679  7615 net.cpp:434] conv4_1 <- pool3_pool3_0_split_0
I1117 10:24:15.806685  7615 net.cpp:408] conv4_1 -> conv4_1
I1117 10:24:15.815832  7615 net.cpp:150] Setting up conv4_1
I1117 10:24:15.815881  7615 net.cpp:157] Top shape: 1 512 71 88 (3198976)
I1117 10:24:15.815886  7615 net.cpp:165] Memory required for data: 833421760
I1117 10:24:15.815897  7615 layer_factory.hpp:77] Creating layer relu4_1
I1117 10:24:15.815910  7615 net.cpp:100] Creating Layer relu4_1
I1117 10:24:15.815917  7615 net.cpp:434] relu4_1 <- conv4_1
I1117 10:24:15.815943  7615 net.cpp:395] relu4_1 -> conv4_1 (in-place)
I1117 10:24:15.816319  7615 net.cpp:150] Setting up relu4_1
I1117 10:24:15.816334  7615 net.cpp:157] Top shape: 1 512 71 88 (3198976)
I1117 10:24:15.816337  7615 net.cpp:165] Memory required for data: 846217664
I1117 10:24:15.816341  7615 layer_factory.hpp:77] Creating layer conv4_2
I1117 10:24:15.816354  7615 net.cpp:100] Creating Layer conv4_2
I1117 10:24:15.816359  7615 net.cpp:434] conv4_2 <- conv4_1
I1117 10:24:15.816366  7615 net.cpp:408] conv4_2 -> conv4_2
I1117 10:24:15.833209  7615 net.cpp:150] Setting up conv4_2
I1117 10:24:15.833237  7615 net.cpp:157] Top shape: 1 512 71 88 (3198976)
I1117 10:24:15.833242  7615 net.cpp:165] Memory required for data: 859013568
I1117 10:24:15.833258  7615 layer_factory.hpp:77] Creating layer relu4_2
I1117 10:24:15.833269  7615 net.cpp:100] Creating Layer relu4_2
I1117 10:24:15.833274  7615 net.cpp:434] relu4_2 <- conv4_2
I1117 10:24:15.833281  7615 net.cpp:395] relu4_2 -> conv4_2 (in-place)
I1117 10:24:15.833483  7615 net.cpp:150] Setting up relu4_2
I1117 10:24:15.833494  7615 net.cpp:157] Top shape: 1 512 71 88 (3198976)
I1117 10:24:15.833498  7615 net.cpp:165] Memory required for data: 871809472
I1117 10:24:15.833503  7615 layer_factory.hpp:77] Creating layer conv4_3
I1117 10:24:15.833514  7615 net.cpp:100] Creating Layer conv4_3
I1117 10:24:15.833519  7615 net.cpp:434] conv4_3 <- conv4_2
I1117 10:24:15.833528  7615 net.cpp:408] conv4_3 -> conv4_3
I1117 10:24:15.851655  7615 net.cpp:150] Setting up conv4_3
I1117 10:24:15.851680  7615 net.cpp:157] Top shape: 1 512 71 88 (3198976)
I1117 10:24:15.851685  7615 net.cpp:165] Memory required for data: 884605376
I1117 10:24:15.851693  7615 layer_factory.hpp:77] Creating layer relu4_3
I1117 10:24:15.851706  7615 net.cpp:100] Creating Layer relu4_3
I1117 10:24:15.851711  7615 net.cpp:434] relu4_3 <- conv4_3
I1117 10:24:15.851717  7615 net.cpp:395] relu4_3 -> conv4_3 (in-place)
I1117 10:24:15.851928  7615 net.cpp:150] Setting up relu4_3
I1117 10:24:15.851938  7615 net.cpp:157] Top shape: 1 512 71 88 (3198976)
I1117 10:24:15.851943  7615 net.cpp:165] Memory required for data: 897401280
I1117 10:24:15.851948  7615 layer_factory.hpp:77] Creating layer pool4
I1117 10:24:15.851956  7615 net.cpp:100] Creating Layer pool4
I1117 10:24:15.851961  7615 net.cpp:434] pool4 <- conv4_3
I1117 10:24:15.851968  7615 net.cpp:408] pool4 -> pool4
I1117 10:24:15.852025  7615 net.cpp:150] Setting up pool4
I1117 10:24:15.852032  7615 net.cpp:157] Top shape: 1 512 36 44 (811008)
I1117 10:24:15.852036  7615 net.cpp:165] Memory required for data: 900645312
I1117 10:24:15.852041  7615 layer_factory.hpp:77] Creating layer pool4_pool4_0_split
I1117 10:24:15.852046  7615 net.cpp:100] Creating Layer pool4_pool4_0_split
I1117 10:24:15.852051  7615 net.cpp:434] pool4_pool4_0_split <- pool4
I1117 10:24:15.852058  7615 net.cpp:408] pool4_pool4_0_split -> pool4_pool4_0_split_0
I1117 10:24:15.852066  7615 net.cpp:408] pool4_pool4_0_split -> pool4_pool4_0_split_1
I1117 10:24:15.852108  7615 net.cpp:150] Setting up pool4_pool4_0_split
I1117 10:24:15.852114  7615 net.cpp:157] Top shape: 1 512 36 44 (811008)
I1117 10:24:15.852119  7615 net.cpp:157] Top shape: 1 512 36 44 (811008)
I1117 10:24:15.852123  7615 net.cpp:165] Memory required for data: 907133376
I1117 10:24:15.852128  7615 layer_factory.hpp:77] Creating layer conv5_1
I1117 10:24:15.852141  7615 net.cpp:100] Creating Layer conv5_1
I1117 10:24:15.852146  7615 net.cpp:434] conv5_1 <- pool4_pool4_0_split_0
I1117 10:24:15.852152  7615 net.cpp:408] conv5_1 -> conv5_1
I1117 10:24:15.870148  7615 net.cpp:150] Setting up conv5_1
I1117 10:24:15.870174  7615 net.cpp:157] Top shape: 1 512 36 44 (811008)
I1117 10:24:15.870179  7615 net.cpp:165] Memory required for data: 910377408
I1117 10:24:15.870188  7615 layer_factory.hpp:77] Creating layer relu5_1
I1117 10:24:15.870196  7615 net.cpp:100] Creating Layer relu5_1
I1117 10:24:15.870201  7615 net.cpp:434] relu5_1 <- conv5_1
I1117 10:24:15.870208  7615 net.cpp:395] relu5_1 -> conv5_1 (in-place)
I1117 10:24:15.870605  7615 net.cpp:150] Setting up relu5_1
I1117 10:24:15.870620  7615 net.cpp:157] Top shape: 1 512 36 44 (811008)
I1117 10:24:15.870623  7615 net.cpp:165] Memory required for data: 913621440
I1117 10:24:15.870627  7615 layer_factory.hpp:77] Creating layer conv5_2
I1117 10:24:15.870642  7615 net.cpp:100] Creating Layer conv5_2
I1117 10:24:15.870647  7615 net.cpp:434] conv5_2 <- conv5_1
I1117 10:24:15.870654  7615 net.cpp:408] conv5_2 -> conv5_2
I1117 10:24:15.889314  7615 net.cpp:150] Setting up conv5_2
I1117 10:24:15.889339  7615 net.cpp:157] Top shape: 1 512 36 44 (811008)
I1117 10:24:15.889344  7615 net.cpp:165] Memory required for data: 916865472
I1117 10:24:15.889353  7615 layer_factory.hpp:77] Creating layer relu5_2
I1117 10:24:15.889361  7615 net.cpp:100] Creating Layer relu5_2
I1117 10:24:15.889366  7615 net.cpp:434] relu5_2 <- conv5_2
I1117 10:24:15.889375  7615 net.cpp:395] relu5_2 -> conv5_2 (in-place)
I1117 10:24:15.889583  7615 net.cpp:150] Setting up relu5_2
I1117 10:24:15.889593  7615 net.cpp:157] Top shape: 1 512 36 44 (811008)
I1117 10:24:15.889597  7615 net.cpp:165] Memory required for data: 920109504
I1117 10:24:15.889602  7615 layer_factory.hpp:77] Creating layer conv5_3
I1117 10:24:15.889621  7615 net.cpp:100] Creating Layer conv5_3
I1117 10:24:15.889626  7615 net.cpp:434] conv5_3 <- conv5_2
I1117 10:24:15.889633  7615 net.cpp:408] conv5_3 -> conv5_3
I1117 10:24:15.908188  7615 net.cpp:150] Setting up conv5_3
I1117 10:24:15.908218  7615 net.cpp:157] Top shape: 1 512 36 44 (811008)
I1117 10:24:15.908223  7615 net.cpp:165] Memory required for data: 923353536
I1117 10:24:15.908232  7615 layer_factory.hpp:77] Creating layer relu5_3
I1117 10:24:15.908241  7615 net.cpp:100] Creating Layer relu5_3
I1117 10:24:15.908246  7615 net.cpp:434] relu5_3 <- conv5_3
I1117 10:24:15.908253  7615 net.cpp:395] relu5_3 -> conv5_3 (in-place)
I1117 10:24:15.908460  7615 net.cpp:150] Setting up relu5_3
I1117 10:24:15.908470  7615 net.cpp:157] Top shape: 1 512 36 44 (811008)
I1117 10:24:15.908474  7615 net.cpp:165] Memory required for data: 926597568
I1117 10:24:15.908478  7615 layer_factory.hpp:77] Creating layer pool5
I1117 10:24:15.908488  7615 net.cpp:100] Creating Layer pool5
I1117 10:24:15.908491  7615 net.cpp:434] pool5 <- conv5_3
I1117 10:24:15.908498  7615 net.cpp:408] pool5 -> pool5
I1117 10:24:15.908556  7615 net.cpp:150] Setting up pool5
I1117 10:24:15.908565  7615 net.cpp:157] Top shape: 1 512 18 22 (202752)
I1117 10:24:15.908568  7615 net.cpp:165] Memory required for data: 927408576
I1117 10:24:15.908571  7615 layer_factory.hpp:77] Creating layer fc6
I1117 10:24:15.908583  7615 net.cpp:100] Creating Layer fc6
I1117 10:24:15.908588  7615 net.cpp:434] fc6 <- pool5
I1117 10:24:15.908596  7615 net.cpp:408] fc6 -> fc6
I1117 10:24:16.730132  7615 net.cpp:150] Setting up fc6
I1117 10:24:16.730185  7615 net.cpp:157] Top shape: 1 4096 12 16 (786432)
I1117 10:24:16.730190  7615 net.cpp:165] Memory required for data: 930554304
I1117 10:24:16.730202  7615 layer_factory.hpp:77] Creating layer relu6
I1117 10:24:16.730217  7615 net.cpp:100] Creating Layer relu6
I1117 10:24:16.730223  7615 net.cpp:434] relu6 <- fc6
I1117 10:24:16.730232  7615 net.cpp:395] relu6 -> fc6 (in-place)
I1117 10:24:16.730628  7615 net.cpp:150] Setting up relu6
I1117 10:24:16.730641  7615 net.cpp:157] Top shape: 1 4096 12 16 (786432)
I1117 10:24:16.730646  7615 net.cpp:165] Memory required for data: 933700032
I1117 10:24:16.730651  7615 layer_factory.hpp:77] Creating layer drop6
I1117 10:24:16.730659  7615 net.cpp:100] Creating Layer drop6
I1117 10:24:16.730664  7615 net.cpp:434] drop6 <- fc6
I1117 10:24:16.730671  7615 net.cpp:395] drop6 -> fc6 (in-place)
I1117 10:24:16.730711  7615 net.cpp:150] Setting up drop6
I1117 10:24:16.730717  7615 net.cpp:157] Top shape: 1 4096 12 16 (786432)
I1117 10:24:16.730725  7615 net.cpp:165] Memory required for data: 936845760
I1117 10:24:16.730729  7615 layer_factory.hpp:77] Creating layer fc7
I1117 10:24:16.730739  7615 net.cpp:100] Creating Layer fc7
I1117 10:24:16.730743  7615 net.cpp:434] fc7 <- fc6
I1117 10:24:16.730763  7615 net.cpp:408] fc7 -> fc7
I1117 10:24:16.864624  7615 net.cpp:150] Setting up fc7
I1117 10:24:16.864673  7615 net.cpp:157] Top shape: 1 4096 12 16 (786432)
I1117 10:24:16.864678  7615 net.cpp:165] Memory required for data: 939991488
I1117 10:24:16.864689  7615 layer_factory.hpp:77] Creating layer relu7
I1117 10:24:16.864704  7615 net.cpp:100] Creating Layer relu7
I1117 10:24:16.864711  7615 net.cpp:434] relu7 <- fc7
I1117 10:24:16.864717  7615 net.cpp:395] relu7 -> fc7 (in-place)
I1117 10:24:16.864931  7615 net.cpp:150] Setting up relu7
I1117 10:24:16.864941  7615 net.cpp:157] Top shape: 1 4096 12 16 (786432)
I1117 10:24:16.864945  7615 net.cpp:165] Memory required for data: 943137216
I1117 10:24:16.864950  7615 layer_factory.hpp:77] Creating layer drop7
I1117 10:24:16.864960  7615 net.cpp:100] Creating Layer drop7
I1117 10:24:16.864965  7615 net.cpp:434] drop7 <- fc7
I1117 10:24:16.864970  7615 net.cpp:395] drop7 -> fc7 (in-place)
I1117 10:24:16.865011  7615 net.cpp:150] Setting up drop7
I1117 10:24:16.865020  7615 net.cpp:157] Top shape: 1 4096 12 16 (786432)
I1117 10:24:16.865022  7615 net.cpp:165] Memory required for data: 946282944
I1117 10:24:16.865026  7615 layer_factory.hpp:77] Creating layer score_fr
I1117 10:24:16.865039  7615 net.cpp:100] Creating Layer score_fr
I1117 10:24:16.865043  7615 net.cpp:434] score_fr <- fc7
I1117 10:24:16.865052  7615 net.cpp:408] score_fr -> score_fr
I1117 10:24:16.866629  7615 net.cpp:150] Setting up score_fr
I1117 10:24:16.866644  7615 net.cpp:157] Top shape: 1 2 12 16 (384)
I1117 10:24:16.866648  7615 net.cpp:165] Memory required for data: 946284480
I1117 10:24:16.866657  7615 layer_factory.hpp:77] Creating layer upscore2
I1117 10:24:16.866670  7615 net.cpp:100] Creating Layer upscore2
I1117 10:24:16.866675  7615 net.cpp:434] upscore2 <- score_fr
I1117 10:24:16.866684  7615 net.cpp:408] upscore2 -> upscore2
I1117 10:24:16.866946  7615 net.cpp:150] Setting up upscore2
I1117 10:24:16.866955  7615 net.cpp:157] Top shape: 1 2 26 34 (1768)
I1117 10:24:16.866961  7615 net.cpp:165] Memory required for data: 946291552
I1117 10:24:16.866973  7615 layer_factory.hpp:77] Creating layer upscore2_upscore2_0_split
I1117 10:24:16.866983  7615 net.cpp:100] Creating Layer upscore2_upscore2_0_split
I1117 10:24:16.866987  7615 net.cpp:434] upscore2_upscore2_0_split <- upscore2
I1117 10:24:16.866993  7615 net.cpp:408] upscore2_upscore2_0_split -> upscore2_upscore2_0_split_0
I1117 10:24:16.867002  7615 net.cpp:408] upscore2_upscore2_0_split -> upscore2_upscore2_0_split_1
I1117 10:24:16.867048  7615 net.cpp:150] Setting up upscore2_upscore2_0_split
I1117 10:24:16.867055  7615 net.cpp:157] Top shape: 1 2 26 34 (1768)
I1117 10:24:16.867060  7615 net.cpp:157] Top shape: 1 2 26 34 (1768)
I1117 10:24:16.867064  7615 net.cpp:165] Memory required for data: 946305696
I1117 10:24:16.867069  7615 layer_factory.hpp:77] Creating layer scale_pool4
I1117 10:24:16.867079  7615 net.cpp:100] Creating Layer scale_pool4
I1117 10:24:16.867084  7615 net.cpp:434] scale_pool4 <- pool4_pool4_0_split_1
I1117 10:24:16.867090  7615 net.cpp:408] scale_pool4 -> scale_pool4
I1117 10:24:16.867220  7615 net.cpp:150] Setting up scale_pool4
I1117 10:24:16.867230  7615 net.cpp:157] Top shape: 1 512 36 44 (811008)
I1117 10:24:16.867234  7615 net.cpp:165] Memory required for data: 949549728
I1117 10:24:16.867240  7615 layer_factory.hpp:77] Creating layer score_pool4
I1117 10:24:16.867254  7615 net.cpp:100] Creating Layer score_pool4
I1117 10:24:16.867257  7615 net.cpp:434] score_pool4 <- scale_pool4
I1117 10:24:16.867266  7615 net.cpp:408] score_pool4 -> score_pool4
I1117 10:24:16.868608  7615 net.cpp:150] Setting up score_pool4
I1117 10:24:16.868623  7615 net.cpp:157] Top shape: 1 2 36 44 (3168)
I1117 10:24:16.868628  7615 net.cpp:165] Memory required for data: 949562400
I1117 10:24:16.868635  7615 layer_factory.hpp:77] Creating layer score_pool4c
I1117 10:24:16.868644  7615 net.cpp:100] Creating Layer score_pool4c
I1117 10:24:16.868649  7615 net.cpp:434] score_pool4c <- score_pool4
I1117 10:24:16.868654  7615 net.cpp:434] score_pool4c <- upscore2_upscore2_0_split_0
I1117 10:24:16.868676  7615 net.cpp:408] score_pool4c -> score_pool4c
I1117 10:24:16.868712  7615 net.cpp:150] Setting up score_pool4c
I1117 10:24:16.868721  7615 net.cpp:157] Top shape: 1 2 26 34 (1768)
I1117 10:24:16.868726  7615 net.cpp:165] Memory required for data: 949569472
I1117 10:24:16.868731  7615 layer_factory.hpp:77] Creating layer fuse_pool4
I1117 10:24:16.868737  7615 net.cpp:100] Creating Layer fuse_pool4
I1117 10:24:16.868742  7615 net.cpp:434] fuse_pool4 <- upscore2_upscore2_0_split_1
I1117 10:24:16.868747  7615 net.cpp:434] fuse_pool4 <- score_pool4c
I1117 10:24:16.868752  7615 net.cpp:408] fuse_pool4 -> fuse_pool4
I1117 10:24:16.868785  7615 net.cpp:150] Setting up fuse_pool4
I1117 10:24:16.868793  7615 net.cpp:157] Top shape: 1 2 26 34 (1768)
I1117 10:24:16.868795  7615 net.cpp:165] Memory required for data: 949576544
I1117 10:24:16.868799  7615 layer_factory.hpp:77] Creating layer upscore_pool4
I1117 10:24:16.868809  7615 net.cpp:100] Creating Layer upscore_pool4
I1117 10:24:16.868813  7615 net.cpp:434] upscore_pool4 <- fuse_pool4
I1117 10:24:16.868821  7615 net.cpp:408] upscore_pool4 -> upscore_pool4
I1117 10:24:16.869068  7615 net.cpp:150] Setting up upscore_pool4
I1117 10:24:16.869076  7615 net.cpp:157] Top shape: 1 2 54 70 (7560)
I1117 10:24:16.869081  7615 net.cpp:165] Memory required for data: 949606784
I1117 10:24:16.869086  7615 layer_factory.hpp:77] Creating layer upscore_pool4_upscore_pool4_0_split
I1117 10:24:16.869094  7615 net.cpp:100] Creating Layer upscore_pool4_upscore_pool4_0_split
I1117 10:24:16.869099  7615 net.cpp:434] upscore_pool4_upscore_pool4_0_split <- upscore_pool4
I1117 10:24:16.869105  7615 net.cpp:408] upscore_pool4_upscore_pool4_0_split -> upscore_pool4_upscore_pool4_0_split_0
I1117 10:24:16.869112  7615 net.cpp:408] upscore_pool4_upscore_pool4_0_split -> upscore_pool4_upscore_pool4_0_split_1
I1117 10:24:16.869158  7615 net.cpp:150] Setting up upscore_pool4_upscore_pool4_0_split
I1117 10:24:16.869163  7615 net.cpp:157] Top shape: 1 2 54 70 (7560)
I1117 10:24:16.869168  7615 net.cpp:157] Top shape: 1 2 54 70 (7560)
I1117 10:24:16.869173  7615 net.cpp:165] Memory required for data: 949667264
I1117 10:24:16.869176  7615 layer_factory.hpp:77] Creating layer scale_pool3
I1117 10:24:16.869184  7615 net.cpp:100] Creating Layer scale_pool3
I1117 10:24:16.869187  7615 net.cpp:434] scale_pool3 <- pool3_pool3_0_split_1
I1117 10:24:16.869194  7615 net.cpp:408] scale_pool3 -> scale_pool3
I1117 10:24:16.869309  7615 net.cpp:150] Setting up scale_pool3
I1117 10:24:16.869318  7615 net.cpp:157] Top shape: 1 256 71 88 (1599488)
I1117 10:24:16.869320  7615 net.cpp:165] Memory required for data: 956065216
I1117 10:24:16.869326  7615 layer_factory.hpp:77] Creating layer score_pool3
I1117 10:24:16.869338  7615 net.cpp:100] Creating Layer score_pool3
I1117 10:24:16.869343  7615 net.cpp:434] score_pool3 <- scale_pool3
I1117 10:24:16.869349  7615 net.cpp:408] score_pool3 -> score_pool3
I1117 10:24:16.870683  7615 net.cpp:150] Setting up score_pool3
I1117 10:24:16.870698  7615 net.cpp:157] Top shape: 1 2 71 88 (12496)
I1117 10:24:16.870702  7615 net.cpp:165] Memory required for data: 956115200
I1117 10:24:16.870710  7615 layer_factory.hpp:77] Creating layer score_pool3c
I1117 10:24:16.870718  7615 net.cpp:100] Creating Layer score_pool3c
I1117 10:24:16.870723  7615 net.cpp:434] score_pool3c <- score_pool3
I1117 10:24:16.870728  7615 net.cpp:434] score_pool3c <- upscore_pool4_upscore_pool4_0_split_0
I1117 10:24:16.870738  7615 net.cpp:408] score_pool3c -> score_pool3c
I1117 10:24:16.870774  7615 net.cpp:150] Setting up score_pool3c
I1117 10:24:16.870780  7615 net.cpp:157] Top shape: 1 2 54 70 (7560)
I1117 10:24:16.870784  7615 net.cpp:165] Memory required for data: 956145440
I1117 10:24:16.870789  7615 layer_factory.hpp:77] Creating layer fuse_pool3
I1117 10:24:16.870797  7615 net.cpp:100] Creating Layer fuse_pool3
I1117 10:24:16.870801  7615 net.cpp:434] fuse_pool3 <- upscore_pool4_upscore_pool4_0_split_1
I1117 10:24:16.870806  7615 net.cpp:434] fuse_pool3 <- score_pool3c
I1117 10:24:16.870817  7615 net.cpp:408] fuse_pool3 -> fuse_pool3
I1117 10:24:16.870852  7615 net.cpp:150] Setting up fuse_pool3
I1117 10:24:16.870859  7615 net.cpp:157] Top shape: 1 2 54 70 (7560)
I1117 10:24:16.870862  7615 net.cpp:165] Memory required for data: 956175680
I1117 10:24:16.870867  7615 layer_factory.hpp:77] Creating layer upscore8
I1117 10:24:16.870877  7615 net.cpp:100] Creating Layer upscore8
I1117 10:24:16.870880  7615 net.cpp:434] upscore8 <- fuse_pool3
I1117 10:24:16.870889  7615 net.cpp:408] upscore8 -> upscore8
I1117 10:24:16.871140  7615 net.cpp:150] Setting up upscore8
I1117 10:24:16.871148  7615 net.cpp:157] Top shape: 1 2 440 568 (499840)
I1117 10:24:16.871151  7615 net.cpp:165] Memory required for data: 958175040
I1117 10:24:16.871157  7615 layer_factory.hpp:77] Creating layer score
I1117 10:24:16.871165  7615 net.cpp:100] Creating Layer score
I1117 10:24:16.871168  7615 net.cpp:434] score <- upscore8
I1117 10:24:16.871173  7615 net.cpp:434] score <- data_data_0_split_1
I1117 10:24:16.871184  7615 net.cpp:408] score -> score
I1117 10:24:16.871217  7615 net.cpp:150] Setting up score
I1117 10:24:16.871223  7615 net.cpp:157] Top shape: 1 2 366 500 (366000)
I1117 10:24:16.871227  7615 net.cpp:165] Memory required for data: 959639040
I1117 10:24:16.871232  7615 layer_factory.hpp:77] Creating layer loss
I1117 10:24:16.871242  7615 net.cpp:100] Creating Layer loss
I1117 10:24:16.871246  7615 net.cpp:434] loss <- score
I1117 10:24:16.871250  7615 net.cpp:434] loss <- label
I1117 10:24:16.871256  7615 net.cpp:408] loss -> loss
I1117 10:24:16.871265  7615 layer_factory.hpp:77] Creating layer loss
…
