…
test_initialization: false
average_loss: 20
iter_size: 1
I0116 16:23:58.189201 30751 solver.cpp:81] Creating training net from train_net file: train.prototxt
I0116 16:23:58.190806 30751 net.cpp:58] Initializing net from parameters: 
state {
  phase: TRAIN
}
layer {
  name: "data"
  type: "Python"
  top: "data"
  top: "label"
  python_param {
    module: "voc_layers"
    layer: "PartialSBDDSegDataLayer"
    param_str: "{\'sbdd_dir\': \'../data/sbdd/dataset\', \'seed\': 1337, \'split\': \'train5\', \'mean\': (104.00699, 116.66877, 122.67892)}"
  }
}
layer {
  name: "conv1_1"
  type: "Convolution"
  bottom: "data"
  top: "conv1_1"
  param {
    lr_mult: 1
    decay_mult: 1
  }
  param {
    lr_mult: 2
    decay_mult: 0
  }
  convolution_param {
    num_output: 64
    pad: 100
    kernel_size: 3
    stride: 1
    weight_filler {
      type: "xavier"
    }
  }
}
layer {
  name: "relu1_1"
  type: "ReLU"
  bottom: "conv1_1"
  top: "conv1_1"
}
layer {
  name: "conv1_2"
  type: "Convolution"
  bottom: "conv1_1"
  top: "conv1_2"
  param {
    lr_mult: 1
    decay_mult: 1
  }
  param {
    lr_mult: 2
    decay_mult: 0
  }
  convolution_param {
    num_output: 64
    pad: 1
    kernel_size: 3
    stride: 1
    weight_filler {
      type: "xavier"
    }
  }
}
layer {
  name: "relu1_2"
  type: "ReLU"
  bottom: "conv1_2"
  top: "conv1_2"
}
layer {
  name: "pool1"
  type: "Pooling"
  bottom: "conv1_2"
  top: "pool1"
  pooling_param {
    pool: MAX
    kernel_size: 2
    stride: 2
  }
}
layer {
  name: "conv2_1"
  type: "Convolution"
  bottom: "pool1"
  top: "conv2_1"
  param {
    lr_mult: 1
    decay_mult: 1
  }
  param {
    lr_mult: 2
    decay_mult: 0
  }
  convolution_param {
    num_output: 128
    pad: 1
    kernel_size: 3
    stride: 1
    weight_filler {
      type: "xavier"
    }
  }
}
layer {
  name: "relu2_1"
  type: "ReLU"
  bottom: "conv2_1"
  top: "conv2_1"
}
layer {
  name: "conv2_2"
  type: "Convolution"
  bottom: "conv2_1"
  top: "conv2_2"
  param {
    lr_mult: 1
    decay_mult: 1
  }
  param {
    lr_mult: 2
    decay_mult: 0
  }
  convolution_param {
    num_output: 128
    pad: 1
    kernel_size: 3
    stride: 1
    weight_filler {
      type: "xavier"
    }
  }
}
layer {
  name: "relu2_2"
  type: "ReLU"
  bottom: "conv2_2"
  top: "conv2_2"
}
layer {
  name: "pool2"
  type: "Pooling"
  bottom: "conv2_2"
  top: "pool2"
  pooling_param {
    pool: MAX
    kernel_size: 2
    stride: 2
  }
}
layer {
  name: "conv3_1"
  type: "Convolution"
  bottom: "pool2"
  top: "conv3_1"
  param {
    lr_mult: 1
    decay_mult: 1
  }
  param {
    lr_mult: 2
    decay_mult: 0
  }
  convolution_param {
    num_output: 256
    pad: 1
    kernel_size: 3
    stride: 1
    weight_filler {
      type: "xavier"
    }
  }
}
layer {
  name: "relu3_1"
  type: "ReLU"
  bottom: "conv3_1"
  top: "conv3_1"
}
layer {
  name: "conv3_2"
  type: "Convolution"
  bottom: "conv3_1"
  top: "conv3_2"
  param {
    lr_mult: 1
    decay_mult: 1
  }
  param {
    lr_mult: 2
    decay_mult: 0
  }
  convolution_param {
    num_output: 256
    pad: 1
    kernel_size: 3
    stride: 1
    weight_filler {
      type: "xavier"
    }
  }
}
layer {
  name: "relu3_2"
  type: "ReLU"
  bottom: "conv3_2"
  top: "conv3_2"
}
layer {
  name: "conv3_3"
  type: "Convolution"
  bottom: "conv3_2"
  top: "conv3_3"
  param {
    lr_mult: 1
    decay_mult: 1
  }
  param {
    lr_mult: 2
    decay_mult: 0
  }
  convolution_param {
    num_output: 256
    pad: 1
    kernel_size: 3
    stride: 1
    weight_filler {
      type: "xavier"
    }
  }
}
layer {
  name: "relu3_3"
  type: "ReLU"
  bottom: "conv3_3"
  top: "conv3_3"
}
layer {
  name: "pool3"
  type: "Pooling"
  bottom: "conv3_3"
  top: "pool3"
  pooling_param {
    pool: MAX
    kernel_size: 2
    stride: 2
  }
}
layer {
  name: "conv4_1"
  type: "Convolution"
  bottom: "pool3"
  top: "conv4_1"
  param {
    lr_mult: 1
    decay_mult: 1
  }
  param {
    lr_mult: 2
    decay_mult: 0
  }
  convolution_param {
    num_output: 512
    pad: 1
    kernel_size: 3
    stride: 1
    weight_filler {
      type: "xavier"
    }
  }
}
layer {
  name: "relu4_1"
  type: "ReLU"
  bottom: "conv4_1"
  top: "conv4_1"
}
layer {
  name: "conv4_2"
  type: "Convolution"
  bottom: "conv4_1"
  top: "conv4_2"
  param {
    lr_mult: 1
    decay_mult: 1
  }
  param {
    lr_mult: 2
    decay_mult: 0
  }
  convolution_param {
    num_output: 512
    pad: 1
    kernel_size: 3
    stride: 1
    weight_filler {
      type: "xavier"
    }
  }
}
layer {
  name: "relu4_2"
  type: "ReLU"
  bottom: "conv4_2"
  top: "conv4_2"
}
layer {
  name: "conv4_3"
  type: "Convolution"
  bottom: "conv4_2"
  top: "conv4_3"
  param {
    lr_mult: 1
    decay_mult: 1
  }
  param {
    lr_mult: 2
    decay_mult: 0
  }
  convolution_param {
    num_output: 512
    pad: 1
    kernel_size: 3
    stride: 1
    weight_filler {
      type: "xavier"
    }
  }
}
layer {
  name: "relu4_3"
  type: "ReLU"
  bottom: "conv4_3"
  top: "conv4_3"
}
layer {
  name: "pool4"
  type: "Pooling"
  bottom: "conv4_3"
  top: "pool4"
  pooling_param {
    pool: MAX
    kernel_size: 2
    stride: 2
  }
}
layer {
  name: "conv5_1"
  type: "Convolution"
  bottom: "pool4"
  top: "conv5_1"
  param {
    lr_mult: 1
    decay_mult: 1
  }
  param {
    lr_mult: 2
    decay_mult: 0
  }
  convolution_param {
    num_output: 512
    pad: 1
    kernel_size: 3
    stride: 1
    weight_filler {
      type: "xavier"
    }
  }
}
layer {
  name: "relu5_1"
  type: "ReLU"
  bottom: "conv5_1"
  top: "conv5_1"
}
layer {
  name: "conv5_2"
  type: "Convolution"
  bottom: "conv5_1"
  top: "conv5_2"
  param {
    lr_mult: 1
    decay_mult: 1
  }
  param {
    lr_mult: 2
    decay_mult: 0
  }
  convolution_param {
    num_output: 512
    pad: 1
    kernel_size: 3
    stride: 1
    weight_filler {
      type: "xavier"
    }
  }
}
layer {
  name: "relu5_2"
  type: "ReLU"
  bottom: "conv5_2"
  top: "conv5_2"
}
layer {
  name: "conv5_3"
  type: "Convolution"
  bottom: "conv5_2"
  top: "conv5_3"
  param {
    lr_mult: 1
    decay_mult: 1
  }
  param {
    lr_mult: 2
    decay_mult: 0
  }
  convolution_param {
    num_output: 512
    pad: 1
    kernel_size: 3
    stride: 1
    weight_filler {
      type: "xavier"
    }
  }
}
layer {
  name: "relu5_3"
  type: "ReLU"
  bottom: "conv5_3"
  top: "conv5_3"
}
layer {
  name: "pool5"
  type: "Pooling"
  bottom: "conv5_3"
  top: "pool5"
  pooling_param {
    pool: MAX
    kernel_size: 2
    stride: 2
  }
}
layer {
  name: "fc6"
  type: "Convolution"
  bottom: "pool5"
  top: "fc6"
  param {
    lr_mult: 1
    decay_mult: 1
  }
  param {
    lr_mult: 2
    decay_mult: 0
  }
  convolution_param {
    num_output: 4096
    pad: 0
    kernel_size: 7
    stride: 1
    weight_filler {
      type: "xavier"
    }
  }
}
layer {
  name: "relu6"
  type: "ReLU"
  bottom: "fc6"
  top: "fc6"
}
layer {
  name: "drop6"
  type: "Dropout"
  bottom: "fc6"
  top: "fc6"
  dropout_param {
    dropout_ratio: 0.5
  }
}
layer {
  name: "fc7"
  type: "Convolution"
  bottom: "fc6"
  top: "fc7"
  param {
    lr_mult: 1
    decay_mult: 1
  }
  param {
    lr_mult: 2
    decay_mult: 0
  }
  convolution_param {
    num_output: 4096
    pad: 0
    kernel_size: 1
    stride: 1
    weight_filler {
      type: "xavier"
    }
  }
}
layer {
  name: "relu7"
  type: "ReLU"
  bottom: "fc7"
  top: "fc7"
}
layer {
  name: "drop7"
  type: "Dropout"
  bottom: "fc7"
  top: "fc7"
  dropout_param {
    dropout_ratio: 0.5
  }
}
layer {
  name: "score_fr"
  type: "Convolution"
  bottom: "fc7"
  top: "score_fr"
  param {
    lr_mult: 1
    decay_mult: 1
  }
  param {
    lr_mult: 2
    decay_mult: 0
  }
  convolution_param {
    num_output: 6
    pad: 0
    kernel_size: 1
    weight_filler {
      type: "xavier"
    }
  }
}
layer {
  name: "upscore2"
  type: "Deconvolution"
  bottom: "score_fr"
  top: "upscore2"
  param {
    lr_mult: 0
  }
  convolution_param {
    num_output: 6
    bias_term: false
    kernel_size: 4
    stride: 2
    weight_filler {
      type: "xavier"
    }
  }
}
layer {
  name: "scale_pool4"
  type: "Scale"
  bottom: "pool4"
  top: "scale_pool4"
  param {
    lr_mult: 0
  }
  scale_param {
    filler {
      type: "constant"
      value: 0.01
    }
  }
}
layer {
  name: "score_pool4"
  type: "Convolution"
  bottom: "scale_pool4"
  top: "score_pool4"
  param {
    lr_mult: 1
    decay_mult: 1
  }
  param {
    lr_mult: 2
    decay_mult: 0
  }
  convolution_param {
    num_output: 6
    pad: 0
    kernel_size: 1
    weight_filler {
      type: "xavier"
    }
  }
}
layer {
  name: "score_pool4c"
  type: "Crop"
  bottom: "score_pool4"
  bottom: "upscore2"
  top: "score_pool4c"
  crop_param {
    axis: 2
    offset: 5
  }
}
layer {
  name: "fuse_pool4"
  type: "Eltwise"
  bottom: "upscore2"
  bottom: "score_pool4c"
  top: "fuse_pool4"
  eltwise_param {
    operation: SUM
  }
}
layer {
  name: "upscore_pool4"
  type: "Deconvolution"
  bottom: "fuse_pool4"
  top: "upscore_pool4"
  param {
    lr_mult: 0
  }
  convolution_param {
    num_output: 6
    bias_term: false
    kernel_size: 4
    stride: 2
    weight_filler {
      type: "xavier"
    }
  }
}
layer {
  name: "scale_pool3"
  type: "Scale"
  bottom: "pool3"
  top: "scale_pool3"
  param {
    lr_mult: 0
  }
  scale_param {
    filler {
      type: "constant"
      value: 0.0001
    }
  }
}
layer {
  name: "score_pool3"
  type: "Convolution"
  bottom: "scale_pool3"
  top: "score_pool3"
  param {
    lr_mult: 1
    decay_mult: 1
  }
  param {
    lr_mult: 2
    decay_mult: 0
  }
  convolution_param {
    num_output: 6
    pad: 0
    kernel_size: 1
    weight_filler {
      type: "xavier"
    }
  }
}
layer {
  name: "score_pool3c"
  type: "Crop"
  bottom: "score_pool3"
  bottom: "upscore_pool4"
  top: "score_pool3c"
  crop_param {
    axis: 2
    offset: 9
  }
}
layer {
  name: "fuse_pool3"
  type: "Eltwise"
  bottom: "upscore_pool4"
  bottom: "score_pool3c"
  top: "fuse_pool3"
  eltwise_param {
    operation: SUM
  }
}
layer {
  name: "upscore8"
  type: "Deconvolution"
  bottom: "fuse_pool3"
  top: "upscore8"
  param {
    lr_mult: 0
  }
  convolution_param {
    num_output: 6
    bias_term: false
    kernel_size: 16
    stride: 8
    weight_filler {
      type: "xavier"
    }
  }
}
layer {
  name: "score"
  type: "Crop"
  bottom: "upscore8"
  bottom: "data"
  top: "score"
  crop_param {
    axis: 2
    offset: 31
  }
}
layer {
  name: "loss"
  type: "SoftmaxWithLoss"
  bottom: "score"
  bottom: "label"
  top: "loss"
  loss_param {
    ignore_label: 255
    normalize: false
  }
}
I0116 16:23:58.191056 30751 layer_factory.hpp:77] Creating layer data
I0116 16:23:58.191998 30751 net.cpp:100] Creating Layer data
I0116 16:23:58.192013 30751 net.cpp:408] data -> data
I0116 16:23:58.192029 30751 net.cpp:408] data -> label
I0116 16:23:58.269984 30751 net.cpp:150] Setting up data
I0116 16:23:58.270020 30751 net.cpp:157] Top shape: 1 3 375 500 (562500)
I0116 16:23:58.270027 30751 net.cpp:157] Top shape: 1 1 375 500 (187500)
I0116 16:23:58.270031 30751 net.cpp:165] Memory required for data: 3000000
I0116 16:23:58.270041 30751 layer_factory.hpp:77] Creating layer data_data_0_split
I0116 16:23:58.270066 30751 net.cpp:100] Creating Layer data_data_0_split
I0116 16:23:58.270072 30751 net.cpp:434] data_data_0_split <- data
I0116 16:23:58.270081 30751 net.cpp:408] data_data_0_split -> data_data_0_split_0
I0116 16:23:58.270094 30751 net.cpp:408] data_data_0_split -> data_data_0_split_1
I0116 16:23:58.270133 30751 net.cpp:150] Setting up data_data_0_split
I0116 16:23:58.270141 30751 net.cpp:157] Top shape: 1 3 375 500 (562500)
I0116 16:23:58.270146 30751 net.cpp:157] Top shape: 1 3 375 500 (562500)
I0116 16:23:58.270150 30751 net.cpp:165] Memory required for data: 7500000
I0116 16:23:58.270155 30751 layer_factory.hpp:77] Creating layer conv1_1
I0116 16:23:58.270175 30751 net.cpp:100] Creating Layer conv1_1
I0116 16:23:58.270180 30751 net.cpp:434] conv1_1 <- data_data_0_split_0
I0116 16:23:58.270193 30751 net.cpp:408] conv1_1 -> conv1_1
I0116 16:23:58.452994 30751 net.cpp:150] Setting up conv1_1
I0116 16:23:58.453035 30751 net.cpp:157] Top shape: 1 64 573 698 (25597056)
I0116 16:23:58.453042 30751 net.cpp:165] Memory required for data: 109888224
I0116 16:23:58.453061 30751 layer_factory.hpp:77] Creating layer relu1_1
I0116 16:23:58.453078 30751 net.cpp:100] Creating Layer relu1_1
I0116 16:23:58.453083 30751 net.cpp:434] relu1_1 <- conv1_1
I0116 16:23:58.453090 30751 net.cpp:395] relu1_1 -> conv1_1 (in-place)
I0116 16:23:58.453451 30751 net.cpp:150] Setting up relu1_1
I0116 16:23:58.453465 30751 net.cpp:157] Top shape: 1 64 573 698 (25597056)
I0116 16:23:58.453470 30751 net.cpp:165] Memory required for data: 212276448
I0116 16:23:58.453475 30751 layer_factory.hpp:77] Creating layer conv1_2
I0116 16:23:58.453491 30751 net.cpp:100] Creating Layer conv1_2
I0116 16:23:58.453496 30751 net.cpp:434] conv1_2 <- conv1_1
I0116 16:23:58.453503 30751 net.cpp:408] conv1_2 -> conv1_2
I0116 16:23:58.456259 30751 net.cpp:150] Setting up conv1_2
I0116 16:23:58.456276 30751 net.cpp:157] Top shape: 1 64 573 698 (25597056)
I0116 16:23:58.456281 30751 net.cpp:165] Memory required for data: 314664672
I0116 16:23:58.456292 30751 layer_factory.hpp:77] Creating layer relu1_2
I0116 16:23:58.456300 30751 net.cpp:100] Creating Layer relu1_2
I0116 16:23:58.456305 30751 net.cpp:434] relu1_2 <- conv1_2
I0116 16:23:58.456311 30751 net.cpp:395] relu1_2 -> conv1_2 (in-place)
I0116 16:23:58.456665 30751 net.cpp:150] Setting up relu1_2
I0116 16:23:58.456678 30751 net.cpp:157] Top shape: 1 64 573 698 (25597056)
I0116 16:23:58.456683 30751 net.cpp:165] Memory required for data: 417052896
I0116 16:23:58.456687 30751 layer_factory.hpp:77] Creating layer pool1
I0116 16:23:58.456699 30751 net.cpp:100] Creating Layer pool1
I0116 16:23:58.456704 30751 net.cpp:434] pool1 <- conv1_2
I0116 16:23:58.456712 30751 net.cpp:408] pool1 -> pool1
I0116 16:23:58.456758 30751 net.cpp:150] Setting up pool1
I0116 16:23:58.456764 30751 net.cpp:157] Top shape: 1 64 287 349 (6410432)
I0116 16:23:58.456769 30751 net.cpp:165] Memory required for data: 442694624
I0116 16:23:58.456773 30751 layer_factory.hpp:77] Creating layer conv2_1
I0116 16:23:58.456784 30751 net.cpp:100] Creating Layer conv2_1
I0116 16:23:58.456789 30751 net.cpp:434] conv2_1 <- pool1
I0116 16:23:58.456794 30751 net.cpp:408] conv2_1 -> conv2_1
I0116 16:23:58.459120 30751 net.cpp:150] Setting up conv2_1
I0116 16:23:58.459136 30751 net.cpp:157] Top shape: 1 128 287 349 (12820864)
I0116 16:23:58.459141 30751 net.cpp:165] Memory required for data: 493978080
I0116 16:23:58.459151 30751 layer_factory.hpp:77] Creating layer relu2_1
I0116 16:23:58.459161 30751 net.cpp:100] Creating Layer relu2_1
I0116 16:23:58.459167 30751 net.cpp:434] relu2_1 <- conv2_1
I0116 16:23:58.459172 30751 net.cpp:395] relu2_1 -> conv2_1 (in-place)
I0116 16:23:58.459350 30751 net.cpp:150] Setting up relu2_1
I0116 16:23:58.459360 30751 net.cpp:157] Top shape: 1 128 287 349 (12820864)
I0116 16:23:58.459364 30751 net.cpp:165] Memory required for data: 545261536
I0116 16:23:58.459369 30751 layer_factory.hpp:77] Creating layer conv2_2
I0116 16:23:58.459380 30751 net.cpp:100] Creating Layer conv2_2
I0116 16:23:58.459385 30751 net.cpp:434] conv2_2 <- conv2_1
I0116 16:23:58.459393 30751 net.cpp:408] conv2_2 -> conv2_2
I0116 16:23:58.461946 30751 net.cpp:150] Setting up conv2_2
I0116 16:23:58.461962 30751 net.cpp:157] Top shape: 1 128 287 349 (12820864)
I0116 16:23:58.461967 30751 net.cpp:165] Memory required for data: 596544992
I0116 16:23:58.461977 30751 layer_factory.hpp:77] Creating layer relu2_2
I0116 16:23:58.461983 30751 net.cpp:100] Creating Layer relu2_2
I0116 16:23:58.461988 30751 net.cpp:434] relu2_2 <- conv2_2
I0116 16:23:58.461997 30751 net.cpp:395] relu2_2 -> conv2_2 (in-place)
I0116 16:23:58.462366 30751 net.cpp:150] Setting up relu2_2
I0116 16:23:58.462379 30751 net.cpp:157] Top shape: 1 128 287 349 (12820864)
I0116 16:23:58.462384 30751 net.cpp:165] Memory required for data: 647828448
I0116 16:23:58.462397 30751 layer_factory.hpp:77] Creating layer pool2
I0116 16:23:58.462407 30751 net.cpp:100] Creating Layer pool2
I0116 16:23:58.462411 30751 net.cpp:434] pool2 <- conv2_2
I0116 16:23:58.462419 30751 net.cpp:408] pool2 -> pool2
I0116 16:23:58.462466 30751 net.cpp:150] Setting up pool2
I0116 16:23:58.462472 30751 net.cpp:157] Top shape: 1 128 144 175 (3225600)
I0116 16:23:58.462476 30751 net.cpp:165] Memory required for data: 660730848
I0116 16:23:58.462481 30751 layer_factory.hpp:77] Creating layer conv3_1
I0116 16:23:58.462492 30751 net.cpp:100] Creating Layer conv3_1
I0116 16:23:58.462496 30751 net.cpp:434] conv3_1 <- pool2
I0116 16:23:58.462505 30751 net.cpp:408] conv3_1 -> conv3_1
I0116 16:23:58.465718 30751 net.cpp:150] Setting up conv3_1
I0116 16:23:58.465734 30751 net.cpp:157] Top shape: 1 256 144 175 (6451200)
I0116 16:23:58.465737 30751 net.cpp:165] Memory required for data: 686535648
I0116 16:23:58.465749 30751 layer_factory.hpp:77] Creating layer relu3_1
I0116 16:23:58.465759 30751 net.cpp:100] Creating Layer relu3_1
I0116 16:23:58.465764 30751 net.cpp:434] relu3_1 <- conv3_1
I0116 16:23:58.465770 30751 net.cpp:395] relu3_1 -> conv3_1 (in-place)
I0116 16:23:58.466140 30751 net.cpp:150] Setting up relu3_1
I0116 16:23:58.466156 30751 net.cpp:157] Top shape: 1 256 144 175 (6451200)
I0116 16:23:58.466161 30751 net.cpp:165] Memory required for data: 712340448
I0116 16:23:58.466164 30751 layer_factory.hpp:77] Creating layer conv3_2
I0116 16:23:58.466176 30751 net.cpp:100] Creating Layer conv3_2
I0116 16:23:58.466181 30751 net.cpp:434] conv3_2 <- conv3_1
I0116 16:23:58.466189 30751 net.cpp:408] conv3_2 -> conv3_2
I0116 16:23:58.471611 30751 net.cpp:150] Setting up conv3_2
I0116 16:23:58.471628 30751 net.cpp:157] Top shape: 1 256 144 175 (6451200)
I0116 16:23:58.471633 30751 net.cpp:165] Memory required for data: 738145248
I0116 16:23:58.471642 30751 layer_factory.hpp:77] Creating layer relu3_2
I0116 16:23:58.471652 30751 net.cpp:100] Creating Layer relu3_2
I0116 16:23:58.471655 30751 net.cpp:434] relu3_2 <- conv3_2
I0116 16:23:58.471663 30751 net.cpp:395] relu3_2 -> conv3_2 (in-place)
I0116 16:23:58.471854 30751 net.cpp:150] Setting up relu3_2
I0116 16:23:58.471863 30751 net.cpp:157] Top shape: 1 256 144 175 (6451200)
I0116 16:23:58.471868 30751 net.cpp:165] Memory required for data: 763950048
I0116 16:23:58.471873 30751 layer_factory.hpp:77] Creating layer conv3_3
I0116 16:23:58.471885 30751 net.cpp:100] Creating Layer conv3_3
I0116 16:23:58.471890 30751 net.cpp:434] conv3_3 <- conv3_2
I0116 16:23:58.471899 30751 net.cpp:408] conv3_3 -> conv3_3
I0116 16:23:58.477296 30751 net.cpp:150] Setting up conv3_3
I0116 16:23:58.477313 30751 net.cpp:157] Top shape: 1 256 144 175 (6451200)
I0116 16:23:58.477318 30751 net.cpp:165] Memory required for data: 789754848
I0116 16:23:58.477325 30751 layer_factory.hpp:77] Creating layer relu3_3
I0116 16:23:58.477334 30751 net.cpp:100] Creating Layer relu3_3
I0116 16:23:58.477339 30751 net.cpp:434] relu3_3 <- conv3_3
I0116 16:23:58.477346 30751 net.cpp:395] relu3_3 -> conv3_3 (in-place)
I0116 16:23:58.477728 30751 net.cpp:150] Setting up relu3_3
I0116 16:23:58.477742 30751 net.cpp:157] Top shape: 1 256 144 175 (6451200)
I0116 16:23:58.477747 30751 net.cpp:165] Memory required for data: 815559648
I0116 16:23:58.477751 30751 layer_factory.hpp:77] Creating layer pool3
I0116 16:23:58.477759 30751 net.cpp:100] Creating Layer pool3
I0116 16:23:58.477766 30751 net.cpp:434] pool3 <- conv3_3
I0116 16:23:58.477772 30751 net.cpp:408] pool3 -> pool3
I0116 16:23:58.477821 30751 net.cpp:150] Setting up pool3
I0116 16:23:58.477828 30751 net.cpp:157] Top shape: 1 256 72 88 (1622016)
I0116 16:23:58.477833 30751 net.cpp:165] Memory required for data: 822047712
I0116 16:23:58.477836 30751 layer_factory.hpp:77] Creating layer pool3_pool3_0_split
I0116 16:23:58.477843 30751 net.cpp:100] Creating Layer pool3_pool3_0_split
I0116 16:23:58.477849 30751 net.cpp:434] pool3_pool3_0_split <- pool3
I0116 16:23:58.477854 30751 net.cpp:408] pool3_pool3_0_split -> pool3_pool3_0_split_0
I0116 16:23:58.477860 30751 net.cpp:408] pool3_pool3_0_split -> pool3_pool3_0_split_1
I0116 16:23:58.477905 30751 net.cpp:150] Setting up pool3_pool3_0_split
I0116 16:23:58.477913 30751 net.cpp:157] Top shape: 1 256 72 88 (1622016)
I0116 16:23:58.477917 30751 net.cpp:157] Top shape: 1 256 72 88 (1622016)
I0116 16:23:58.477921 30751 net.cpp:165] Memory required for data: 835023840
I0116 16:23:58.477926 30751 layer_factory.hpp:77] Creating layer conv4_1
I0116 16:23:58.477937 30751 net.cpp:100] Creating Layer conv4_1
I0116 16:23:58.477942 30751 net.cpp:434] conv4_1 <- pool3_pool3_0_split_0
I0116 16:23:58.477951 30751 net.cpp:408] conv4_1 -> conv4_1
I0116 16:23:58.488667 30751 net.cpp:150] Setting up conv4_1
I0116 16:23:58.488687 30751 net.cpp:157] Top shape: 1 512 72 88 (3244032)
I0116 16:23:58.488692 30751 net.cpp:165] Memory required for data: 847999968
I0116 16:23:58.488701 30751 layer_factory.hpp:77] Creating layer relu4_1
I0116 16:23:58.488709 30751 net.cpp:100] Creating Layer relu4_1
I0116 16:23:58.488714 30751 net.cpp:434] relu4_1 <- conv4_1
I0116 16:23:58.488721 30751 net.cpp:395] relu4_1 -> conv4_1 (in-place)
I0116 16:23:58.489104 30751 net.cpp:150] Setting up relu4_1
I0116 16:23:58.489116 30751 net.cpp:157] Top shape: 1 512 72 88 (3244032)
I0116 16:23:58.489120 30751 net.cpp:165] Memory required for data: 860976096
I0116 16:23:58.489125 30751 layer_factory.hpp:77] Creating layer conv4_2
I0116 16:23:58.489140 30751 net.cpp:100] Creating Layer conv4_2
I0116 16:23:58.489145 30751 net.cpp:434] conv4_2 <- conv4_1
I0116 16:23:58.489152 30751 net.cpp:408] conv4_2 -> conv4_2
I0116 16:23:58.507932 30751 net.cpp:150] Setting up conv4_2
I0116 16:23:58.507957 30751 net.cpp:157] Top shape: 1 512 72 88 (3244032)
I0116 16:23:58.507962 30751 net.cpp:165] Memory required for data: 873952224
I0116 16:23:58.507977 30751 layer_factory.hpp:77] Creating layer relu4_2
I0116 16:23:58.507988 30751 net.cpp:100] Creating Layer relu4_2
I0116 16:23:58.507994 30751 net.cpp:434] relu4_2 <- conv4_2
I0116 16:23:58.508002 30751 net.cpp:395] relu4_2 -> conv4_2 (in-place)
I0116 16:23:58.508198 30751 net.cpp:150] Setting up relu4_2
I0116 16:23:58.508208 30751 net.cpp:157] Top shape: 1 512 72 88 (3244032)
I0116 16:23:58.508213 30751 net.cpp:165] Memory required for data: 886928352
I0116 16:23:58.508218 30751 layer_factory.hpp:77] Creating layer conv4_3
I0116 16:23:58.508230 30751 net.cpp:100] Creating Layer conv4_3
I0116 16:23:58.508236 30751 net.cpp:434] conv4_3 <- conv4_2
I0116 16:23:58.508244 30751 net.cpp:408] conv4_3 -> conv4_3
I0116 16:23:58.525913 30751 net.cpp:150] Setting up conv4_3
I0116 16:23:58.525936 30751 net.cpp:157] Top shape: 1 512 72 88 (3244032)
I0116 16:23:58.525941 30751 net.cpp:165] Memory required for data: 899904480
I0116 16:23:58.525950 30751 layer_factory.hpp:77] Creating layer relu4_3
I0116 16:23:58.525960 30751 net.cpp:100] Creating Layer relu4_3
I0116 16:23:58.525965 30751 net.cpp:434] relu4_3 <- conv4_3
I0116 16:23:58.525972 30751 net.cpp:395] relu4_3 -> conv4_3 (in-place)
I0116 16:23:58.526347 30751 net.cpp:150] Setting up relu4_3
I0116 16:23:58.526360 30751 net.cpp:157] Top shape: 1 512 72 88 (3244032)
I0116 16:23:58.526365 30751 net.cpp:165] Memory required for data: 912880608
I0116 16:23:58.526370 30751 layer_factory.hpp:77] Creating layer pool4
I0116 16:23:58.526381 30751 net.cpp:100] Creating Layer pool4
I0116 16:23:58.526386 30751 net.cpp:434] pool4 <- conv4_3
I0116 16:23:58.526394 30751 net.cpp:408] pool4 -> pool4
I0116 16:23:58.526443 30751 net.cpp:150] Setting up pool4
I0116 16:23:58.526450 30751 net.cpp:157] Top shape: 1 512 36 44 (811008)
I0116 16:23:58.526454 30751 net.cpp:165] Memory required for data: 916124640
I0116 16:23:58.526459 30751 layer_factory.hpp:77] Creating layer pool4_pool4_0_split
I0116 16:23:58.526468 30751 net.cpp:100] Creating Layer pool4_pool4_0_split
I0116 16:23:58.526473 30751 net.cpp:434] pool4_pool4_0_split <- pool4
I0116 16:23:58.526477 30751 net.cpp:408] pool4_pool4_0_split -> pool4_pool4_0_split_0
I0116 16:23:58.526484 30751 net.cpp:408] pool4_pool4_0_split -> pool4_pool4_0_split_1
I0116 16:23:58.526523 30751 net.cpp:150] Setting up pool4_pool4_0_split
I0116 16:23:58.526538 30751 net.cpp:157] Top shape: 1 512 36 44 (811008)
I0116 16:23:58.526545 30751 net.cpp:157] Top shape: 1 512 36 44 (811008)
I0116 16:23:58.526547 30751 net.cpp:165] Memory required for data: 922612704
I0116 16:23:58.526551 30751 layer_factory.hpp:77] Creating layer conv5_1
I0116 16:23:58.526566 30751 net.cpp:100] Creating Layer conv5_1
I0116 16:23:58.526571 30751 net.cpp:434] conv5_1 <- pool4_pool4_0_split_0
I0116 16:23:58.526579 30751 net.cpp:408] conv5_1 -> conv5_1
I0116 16:23:58.544082 30751 net.cpp:150] Setting up conv5_1
I0116 16:23:58.544107 30751 net.cpp:157] Top shape: 1 512 36 44 (811008)
I0116 16:23:58.544113 30751 net.cpp:165] Memory required for data: 925856736
I0116 16:23:58.544122 30751 layer_factory.hpp:77] Creating layer relu5_1
I0116 16:23:58.544134 30751 net.cpp:100] Creating Layer relu5_1
I0116 16:23:58.544139 30751 net.cpp:434] relu5_1 <- conv5_1
I0116 16:23:58.544147 30751 net.cpp:395] relu5_1 -> conv5_1 (in-place)
I0116 16:23:58.544519 30751 net.cpp:150] Setting up relu5_1
I0116 16:23:58.544533 30751 net.cpp:157] Top shape: 1 512 36 44 (811008)
I0116 16:23:58.544538 30751 net.cpp:165] Memory required for data: 929100768
I0116 16:23:58.544541 30751 layer_factory.hpp:77] Creating layer conv5_2
I0116 16:23:58.544554 30751 net.cpp:100] Creating Layer conv5_2
I0116 16:23:58.544560 30751 net.cpp:434] conv5_2 <- conv5_1
I0116 16:23:58.544569 30751 net.cpp:408] conv5_2 -> conv5_2
I0116 16:23:58.562446 30751 net.cpp:150] Setting up conv5_2
I0116 16:23:58.562469 30751 net.cpp:157] Top shape: 1 512 36 44 (811008)
I0116 16:23:58.562475 30751 net.cpp:165] Memory required for data: 932344800
I0116 16:23:58.562484 30751 layer_factory.hpp:77] Creating layer relu5_2
I0116 16:23:58.562496 30751 net.cpp:100] Creating Layer relu5_2
I0116 16:23:58.562502 30751 net.cpp:434] relu5_2 <- conv5_2
I0116 16:23:58.562510 30751 net.cpp:395] relu5_2 -> conv5_2 (in-place)
I0116 16:23:58.562708 30751 net.cpp:150] Setting up relu5_2
I0116 16:23:58.562718 30751 net.cpp:157] Top shape: 1 512 36 44 (811008)
I0116 16:23:58.562723 30751 net.cpp:165] Memory required for data: 935588832
I0116 16:23:58.562727 30751 layer_factory.hpp:77] Creating layer conv5_3
I0116 16:23:58.562747 30751 net.cpp:100] Creating Layer conv5_3
I0116 16:23:58.562752 30751 net.cpp:434] conv5_3 <- conv5_2
I0116 16:23:58.562760 30751 net.cpp:408] conv5_3 -> conv5_3
I0116 16:23:58.580324 30751 net.cpp:150] Setting up conv5_3
I0116 16:23:58.580348 30751 net.cpp:157] Top shape: 1 512 36 44 (811008)
I0116 16:23:58.580353 30751 net.cpp:165] Memory required for data: 938832864
I0116 16:23:58.580363 30751 layer_factory.hpp:77] Creating layer relu5_3
I0116 16:23:58.580373 30751 net.cpp:100] Creating Layer relu5_3
I0116 16:23:58.580377 30751 net.cpp:434] relu5_3 <- conv5_3
I0116 16:23:58.580386 30751 net.cpp:395] relu5_3 -> conv5_3 (in-place)
I0116 16:23:58.580948 30751 net.cpp:150] Setting up relu5_3
I0116 16:23:58.580961 30751 net.cpp:157] Top shape: 1 512 36 44 (811008)
I0116 16:23:58.580966 30751 net.cpp:165] Memory required for data: 942076896
I0116 16:23:58.580971 30751 layer_factory.hpp:77] Creating layer pool5
I0116 16:23:58.580979 30751 net.cpp:100] Creating Layer pool5
I0116 16:23:58.580984 30751 net.cpp:434] pool5 <- conv5_3
I0116 16:23:58.580993 30751 net.cpp:408] pool5 -> pool5
I0116 16:23:58.581044 30751 net.cpp:150] Setting up pool5
I0116 16:23:58.581053 30751 net.cpp:157] Top shape: 1 512 18 22 (202752)
I0116 16:23:58.581055 30751 net.cpp:165] Memory required for data: 942887904
I0116 16:23:58.581060 30751 layer_factory.hpp:77] Creating layer fc6
I0116 16:23:58.581074 30751 net.cpp:100] Creating Layer fc6
I0116 16:23:58.581079 30751 net.cpp:434] fc6 <- pool5
I0116 16:23:58.581085 30751 net.cpp:408] fc6 -> fc6
I0116 16:23:59.308423 30751 net.cpp:150] Setting up fc6
I0116 16:23:59.308464 30751 net.cpp:157] Top shape: 1 4096 12 16 (786432)
I0116 16:23:59.308468 30751 net.cpp:165] Memory required for data: 946033632
I0116 16:23:59.308480 30751 layer_factory.hpp:77] Creating layer relu6
I0116 16:23:59.308506 30751 net.cpp:100] Creating Layer relu6
I0116 16:23:59.308513 30751 net.cpp:434] relu6 <- fc6
I0116 16:23:59.308521 30751 net.cpp:395] relu6 -> fc6 (in-place)
I0116 16:23:59.308903 30751 net.cpp:150] Setting up relu6
I0116 16:23:59.308917 30751 net.cpp:157] Top shape: 1 4096 12 16 (786432)
I0116 16:23:59.308923 30751 net.cpp:165] Memory required for data: 949179360
I0116 16:23:59.308928 30751 layer_factory.hpp:77] Creating layer drop6
I0116 16:23:59.308940 30751 net.cpp:100] Creating Layer drop6
I0116 16:23:59.308945 30751 net.cpp:434] drop6 <- fc6
I0116 16:23:59.308951 30751 net.cpp:395] drop6 -> fc6 (in-place)
I0116 16:23:59.308991 30751 net.cpp:150] Setting up drop6
I0116 16:23:59.309000 30751 net.cpp:157] Top shape: 1 4096 12 16 (786432)
I0116 16:23:59.309003 30751 net.cpp:165] Memory required for data: 952325088
I0116 16:23:59.309007 30751 layer_factory.hpp:77] Creating layer fc7
I0116 16:23:59.309020 30751 net.cpp:100] Creating Layer fc7
I0116 16:23:59.309025 30751 net.cpp:434] fc7 <- fc6
I0116 16:23:59.309032 30751 net.cpp:408] fc7 -> fc7
I0116 16:23:59.428558 30751 net.cpp:150] Setting up fc7
I0116 16:23:59.428597 30751 net.cpp:157] Top shape: 1 4096 12 16 (786432)
I0116 16:23:59.428602 30751 net.cpp:165] Memory required for data: 955470816
I0116 16:23:59.428614 30751 layer_factory.hpp:77] Creating layer relu7
I0116 16:23:59.428627 30751 net.cpp:100] Creating Layer relu7
I0116 16:23:59.428633 30751 net.cpp:434] relu7 <- fc7
I0116 16:23:59.428643 30751 net.cpp:395] relu7 -> fc7 (in-place)
I0116 16:23:59.428856 30751 net.cpp:150] Setting up relu7
I0116 16:23:59.428867 30751 net.cpp:157] Top shape: 1 4096 12 16 (786432)
I0116 16:23:59.428871 30751 net.cpp:165] Memory required for data: 958616544
I0116 16:23:59.428875 30751 layer_factory.hpp:77] Creating layer drop7
I0116 16:23:59.428886 30751 net.cpp:100] Creating Layer drop7
I0116 16:23:59.428891 30751 net.cpp:434] drop7 <- fc7
I0116 16:23:59.428897 30751 net.cpp:395] drop7 -> fc7 (in-place)
I0116 16:23:59.428931 30751 net.cpp:150] Setting up drop7
I0116 16:23:59.428938 30751 net.cpp:157] Top shape: 1 4096 12 16 (786432)
I0116 16:23:59.428942 30751 net.cpp:165] Memory required for data: 961762272
I0116 16:23:59.428946 30751 layer_factory.hpp:77] Creating layer score_fr
I0116 16:23:59.428961 30751 net.cpp:100] Creating Layer score_fr
I0116 16:23:59.428966 30751 net.cpp:434] score_fr <- fc7
I0116 16:23:59.428972 30751 net.cpp:408] score_fr -> score_fr
I0116 16:23:59.430369 30751 net.cpp:150] Setting up score_fr
I0116 16:23:59.430384 30751 net.cpp:157] Top shape: 1 6 12 16 (1152)
I0116 16:23:59.430389 30751 net.cpp:165] Memory required for data: 961766880
I0116 16:23:59.430397 30751 layer_factory.hpp:77] Creating layer upscore2
I0116 16:23:59.430413 30751 net.cpp:100] Creating Layer upscore2
I0116 16:23:59.430418 30751 net.cpp:434] upscore2 <- score_fr
I0116 16:23:59.430425 30751 net.cpp:408] upscore2 -> upscore2
I0116 16:23:59.430644 30751 net.cpp:150] Setting up upscore2
I0116 16:23:59.430651 30751 net.cpp:157] Top shape: 1 6 26 34 (5304)
I0116 16:23:59.430655 30751 net.cpp:165] Memory required for data: 961788096
I0116 16:23:59.430668 30751 layer_factory.hpp:77] Creating layer upscore2_upscore2_0_split
I0116 16:23:59.430676 30751 net.cpp:100] Creating Layer upscore2_upscore2_0_split
I0116 16:23:59.430680 30751 net.cpp:434] upscore2_upscore2_0_split <- upscore2
I0116 16:23:59.430686 30751 net.cpp:408] upscore2_upscore2_0_split -> upscore2_upscore2_0_split_0
I0116 16:23:59.430694 30751 net.cpp:408] upscore2_upscore2_0_split -> upscore2_upscore2_0_split_1
I0116 16:23:59.430737 30751 net.cpp:150] Setting up upscore2_upscore2_0_split
I0116 16:23:59.430745 30751 net.cpp:157] Top shape: 1 6 26 34 (5304)
I0116 16:23:59.430750 30751 net.cpp:157] Top shape: 1 6 26 34 (5304)
I0116 16:23:59.430754 30751 net.cpp:165] Memory required for data: 961830528
I0116 16:23:59.430758 30751 layer_factory.hpp:77] Creating layer scale_pool4
I0116 16:23:59.430773 30751 net.cpp:100] Creating Layer scale_pool4
I0116 16:23:59.430778 30751 net.cpp:434] scale_pool4 <- pool4_pool4_0_split_1
I0116 16:23:59.430791 30751 net.cpp:408] scale_pool4 -> scale_pool4
I0116 16:23:59.430904 30751 net.cpp:150] Setting up scale_pool4
I0116 16:23:59.430912 30751 net.cpp:157] Top shape: 1 512 36 44 (811008)
I0116 16:23:59.430917 30751 net.cpp:165] Memory required for data: 965074560
I0116 16:23:59.430922 30751 layer_factory.hpp:77] Creating layer score_pool4
I0116 16:23:59.430934 30751 net.cpp:100] Creating Layer score_pool4
I0116 16:23:59.430939 30751 net.cpp:434] score_pool4 <- scale_pool4
I0116 16:23:59.430946 30751 net.cpp:408] score_pool4 -> score_pool4
I0116 16:23:59.432225 30751 net.cpp:150] Setting up score_pool4
I0116 16:23:59.432240 30751 net.cpp:157] Top shape: 1 6 36 44 (9504)
I0116 16:23:59.432245 30751 net.cpp:165] Memory required for data: 965112576
I0116 16:23:59.432252 30751 layer_factory.hpp:77] Creating layer score_pool4c
I0116 16:23:59.432267 30751 net.cpp:100] Creating Layer score_pool4c
I0116 16:23:59.432273 30751 net.cpp:434] score_pool4c <- score_pool4
I0116 16:23:59.432279 30751 net.cpp:434] score_pool4c <- upscore2_upscore2_0_split_0
I0116 16:23:59.432286 30751 net.cpp:408] score_pool4c -> score_pool4c
I0116 16:23:59.432322 30751 net.cpp:150] Setting up score_pool4c
I0116 16:23:59.432329 30751 net.cpp:157] Top shape: 1 6 26 34 (5304)
I0116 16:23:59.432333 30751 net.cpp:165] Memory required for data: 965133792
I0116 16:23:59.432337 30751 layer_factory.hpp:77] Creating layer fuse_pool4
I0116 16:23:59.432348 30751 net.cpp:100] Creating Layer fuse_pool4
I0116 16:23:59.432351 30751 net.cpp:434] fuse_pool4 <- upscore2_upscore2_0_split_1
I0116 16:23:59.432356 30751 net.cpp:434] fuse_pool4 <- score_pool4c
I0116 16:23:59.432364 30751 net.cpp:408] fuse_pool4 -> fuse_pool4
I0116 16:23:59.432395 30751 net.cpp:150] Setting up fuse_pool4
I0116 16:23:59.432401 30751 net.cpp:157] Top shape: 1 6 26 34 (5304)
I0116 16:23:59.432405 30751 net.cpp:165] Memory required for data: 965155008
I0116 16:23:59.432410 30751 layer_factory.hpp:77] Creating layer upscore_pool4
I0116 16:23:59.432418 30751 net.cpp:100] Creating Layer upscore_pool4
I0116 16:23:59.432423 30751 net.cpp:434] upscore_pool4 <- fuse_pool4
I0116 16:23:59.432431 30751 net.cpp:408] upscore_pool4 -> upscore_pool4
I0116 16:23:59.432636 30751 net.cpp:150] Setting up upscore_pool4
I0116 16:23:59.432643 30751 net.cpp:157] Top shape: 1 6 54 70 (22680)
I0116 16:23:59.432647 30751 net.cpp:165] Memory required for data: 965245728
I0116 16:23:59.432653 30751 layer_factory.hpp:77] Creating layer upscore_pool4_upscore_pool4_0_split
I0116 16:23:59.432659 30751 net.cpp:100] Creating Layer upscore_pool4_upscore_pool4_0_split
I0116 16:23:59.432664 30751 net.cpp:434] upscore_pool4_upscore_pool4_0_split <- upscore_pool4
I0116 16:23:59.432669 30751 net.cpp:408] upscore_pool4_upscore_pool4_0_split -> upscore_pool4_upscore_pool4_0_split_0
I0116 16:23:59.432677 30751 net.cpp:408] upscore_pool4_upscore_pool4_0_split -> upscore_pool4_upscore_pool4_0_split_1
I0116 16:23:59.432715 30751 net.cpp:150] Setting up upscore_pool4_upscore_pool4_0_split
I0116 16:23:59.432723 30751 net.cpp:157] Top shape: 1 6 54 70 (22680)
I0116 16:23:59.432727 30751 net.cpp:157] Top shape: 1 6 54 70 (22680)
I0116 16:23:59.432731 30751 net.cpp:165] Memory required for data: 965427168
I0116 16:23:59.432735 30751 layer_factory.hpp:77] Creating layer scale_pool3
I0116 16:23:59.432744 30751 net.cpp:100] Creating Layer scale_pool3
I0116 16:23:59.432749 30751 net.cpp:434] scale_pool3 <- pool3_pool3_0_split_1
I0116 16:23:59.432754 30751 net.cpp:408] scale_pool3 -> scale_pool3
I0116 16:23:59.432858 30751 net.cpp:150] Setting up scale_pool3
I0116 16:23:59.432867 30751 net.cpp:157] Top shape: 1 256 72 88 (1622016)
I0116 16:23:59.432869 30751 net.cpp:165] Memory required for data: 971915232
I0116 16:23:59.432875 30751 layer_factory.hpp:77] Creating layer score_pool3
I0116 16:23:59.432886 30751 net.cpp:100] Creating Layer score_pool3
I0116 16:23:59.432891 30751 net.cpp:434] score_pool3 <- scale_pool3
I0116 16:23:59.432900 30751 net.cpp:408] score_pool3 -> score_pool3
I0116 16:23:59.434141 30751 net.cpp:150] Setting up score_pool3
I0116 16:23:59.434161 30751 net.cpp:157] Top shape: 1 6 72 88 (38016)
I0116 16:23:59.434166 30751 net.cpp:165] Memory required for data: 972067296
I0116 16:23:59.434175 30751 layer_factory.hpp:77] Creating layer score_pool3c
I0116 16:23:59.434185 30751 net.cpp:100] Creating Layer score_pool3c
I0116 16:23:59.434190 30751 net.cpp:434] score_pool3c <- score_pool3
I0116 16:23:59.434195 30751 net.cpp:434] score_pool3c <- upscore_pool4_upscore_pool4_0_split_0
I0116 16:23:59.434203 30751 net.cpp:408] score_pool3c -> score_pool3c
I0116 16:23:59.434236 30751 net.cpp:150] Setting up score_pool3c
I0116 16:23:59.434242 30751 net.cpp:157] Top shape: 1 6 54 70 (22680)
I0116 16:23:59.434247 30751 net.cpp:165] Memory required for data: 972158016
I0116 16:23:59.434250 30751 layer_factory.hpp:77] Creating layer fuse_pool3
I0116 16:23:59.434259 30751 net.cpp:100] Creating Layer fuse_pool3
I0116 16:23:59.434263 30751 net.cpp:434] fuse_pool3 <- upscore_pool4_upscore_pool4_0_split_1
I0116 16:23:59.434269 30751 net.cpp:434] fuse_pool3 <- score_pool3c
I0116 16:23:59.434275 30751 net.cpp:408] fuse_pool3 -> fuse_pool3
I0116 16:23:59.434303 30751 net.cpp:150] Setting up fuse_pool3
I0116 16:23:59.434309 30751 net.cpp:157] Top shape: 1 6 54 70 (22680)
I0116 16:23:59.434314 30751 net.cpp:165] Memory required for data: 972248736
I0116 16:23:59.434317 30751 layer_factory.hpp:77] Creating layer upscore8
I0116 16:23:59.434326 30751 net.cpp:100] Creating Layer upscore8
I0116 16:23:59.434330 30751 net.cpp:434] upscore8 <- fuse_pool3
I0116 16:23:59.434339 30751 net.cpp:408] upscore8 -> upscore8
I0116 16:23:59.434597 30751 net.cpp:150] Setting up upscore8
I0116 16:23:59.434605 30751 net.cpp:157] Top shape: 1 6 440 568 (1499520)
I0116 16:23:59.434609 30751 net.cpp:165] Memory required for data: 978246816
I0116 16:23:59.434615 30751 layer_factory.hpp:77] Creating layer score
I0116 16:23:59.434623 30751 net.cpp:100] Creating Layer score
I0116 16:23:59.434626 30751 net.cpp:434] score <- upscore8
I0116 16:23:59.434633 30751 net.cpp:434] score <- data_data_0_split_1
I0116 16:23:59.434638 30751 net.cpp:408] score -> score
I0116 16:23:59.434666 30751 net.cpp:150] Setting up score
I0116 16:23:59.434674 30751 net.cpp:157] Top shape: 1 6 375 500 (1125000)
I0116 16:23:59.434677 30751 net.cpp:165] Memory required for data: 982746816
I0116 16:23:59.434681 30751 layer_factory.hpp:77] Creating layer loss
I0116 16:23:59.434690 30751 net.cpp:100] Creating Layer loss
I0116 16:23:59.434695 30751 net.cpp:434] loss <- score
I0116 16:23:59.434700 30751 net.cpp:434] loss <- label
I0116 16:23:59.434707 30751 net.cpp:408] loss -> loss
I0116 16:23:59.434720 30751 layer_factory.hpp:77] Creating layer loss
…
I0116 16:23:59.437790 30751 net.cpp:283] Network initialization done.
I0116 16:23:59.450021 30751 solver.cpp:181] Creating test net (#0) specified by test_net file: val.prototxt
I0116 16:23:59.450386 30751 net.cpp:58] Initializing net from parameters: 
state {
  phase: TEST
}
layer {
  name: "data"
  type: "Python"
  top: "data"
  top: "label"
  python_param {
    module: "voc_layers"
    layer: "PartialVOCSegDataLayer"
    param_str: "{\'voc_dir\': \'../data/pascal-obfuscated/VOC2011\', \'seed\': 1337, \'split\': \'seg11valid5\', \'mean\': (104.00699, 116.66877, 122.67892)}"
  }
}
layer {
  name: "conv1_1"
  type: "Convolution"
  bottom: "data"
  top: "conv1_1"
  param {
    lr_mult: 1
    decay_mult: 1
  }
  param {
    lr_mult: 2
    decay_mult: 0
  }
  convolution_param {
    num_output: 64
    pad: 100
    kernel_size: 3
    stride: 1
    weight_filler {
      type: "xavier"
    }
  }
}
layer {
  name: "relu1_1"
  type: "ReLU"
  bottom: "conv1_1"
  top: "conv1_1"
}
layer {
  name: "conv1_2"
  type: "Convolution"
  bottom: "conv1_1"
  top: "conv1_2"
  param {
    lr_mult: 1
    decay_mult: 1
  }
  param {
    lr_mult: 2
    decay_mult: 0
  }
  convolution_param {
    num_output: 64
    pad: 1
    kernel_size: 3
    stride: 1
    weight_filler {
      type: "xavier"
    }
  }
}
layer {
  name: "relu1_2"
  type: "ReLU"
  bottom: "conv1_2"
  top: "conv1_2"
}
layer {
  name: "pool1"
  type: "Pooling"
  bottom: "conv1_2"
  top: "pool1"
  pooling_param {
    pool: MAX
    kernel_size: 2
    stride: 2
  }
}
layer {
  name: "conv2_1"
  type: "Convolution"
  bottom: "pool1"
  top: "conv2_1"
  param {
    lr_mult: 1
    decay_mult: 1
  }
  param {
    lr_mult: 2
    decay_mult: 0
  }
  convolution_param {
    num_output: 128
    pad: 1
    kernel_size: 3
    stride: 1
    weight_filler {
      type: "xavier"
    }
  }
}
layer {
  name: "relu2_1"
  type: "ReLU"
  bottom: "conv2_1"
  top: "conv2_1"
}
layer {
  name: "conv2_2"
  type: "Convolution"
  bottom: "conv2_1"
  top: "conv2_2"
  param {
    lr_mult: 1
    decay_mult: 1
  }
  param {
    lr_mult: 2
    decay_mult: 0
  }
  convolution_param {
    num_output: 128
    pad: 1
    kernel_size: 3
    stride: 1
    weight_filler {
      type: "xavier"
    }
  }
}
layer {
  name: "relu2_2"
  type: "ReLU"
  bottom: "conv2_2"
  top: "conv2_2"
}
layer {
  name: "pool2"
  type: "Pooling"
  bottom: "conv2_2"
  top: "pool2"
  pooling_param {
    pool: MAX
    kernel_size: 2
    stride: 2
  }
}
layer {
  name: "conv3_1"
  type: "Convolution"
  bottom: "pool2"
  top: "conv3_1"
  param {
    lr_mult: 1
    decay_mult: 1
  }
  param {
    lr_mult: 2
    decay_mult: 0
  }
  convolution_param {
    num_output: 256
    pad: 1
    kernel_size: 3
    stride: 1
    weight_filler {
      type: "xavier"
    }
  }
}
layer {
  name: "relu3_1"
  type: "ReLU"
  bottom: "conv3_1"
  top: "conv3_1"
}
layer {
  name: "conv3_2"
  type: "Convolution"
  bottom: "conv3_1"
  top: "conv3_2"
  param {
    lr_mult: 1
    decay_mult: 1
  }
  param {
    lr_mult: 2
    decay_mult: 0
  }
  convolution_param {
    num_output: 256
    pad: 1
    kernel_size: 3
    stride: 1
    weight_filler {
      type: "xavier"
    }
  }
}
layer {
  name: "relu3_2"
  type: "ReLU"
  bottom: "conv3_2"
  top: "conv3_2"
}
layer {
  name: "conv3_3"
  type: "Convolution"
  bottom: "conv3_2"
  top: "conv3_3"
  param {
    lr_mult: 1
    decay_mult: 1
  }
  param {
    lr_mult: 2
    decay_mult: 0
  }
  convolution_param {
    num_output: 256
    pad: 1
    kernel_size: 3
    stride: 1
    weight_filler {
      type: "xavier"
    }
  }
}
layer {
  name: "relu3_3"
  type: "ReLU"
  bottom: "conv3_3"
  top: "conv3_3"
}
layer {
  name: "pool3"
  type: "Pooling"
  bottom: "conv3_3"
  top: "pool3"
  pooling_param {
    pool: MAX
    kernel_size: 2
    stride: 2
  }
}
layer {
  name: "conv4_1"
  type: "Convolution"
  bottom: "pool3"
  top: "conv4_1"
  param {
    lr_mult: 1
    decay_mult: 1
  }
  param {
    lr_mult: 2
    decay_mult: 0
  }
  convolution_param {
    num_output: 512
    pad: 1
    kernel_size: 3
    stride: 1
    weight_filler {
      type: "xavier"
    }
  }
}
layer {
  name: "relu4_1"
  type: "ReLU"
  bottom: "conv4_1"
  top: "conv4_1"
}
layer {
  name: "conv4_2"
  type: "Convolution"
  bottom: "conv4_1"
  top: "conv4_2"
  param {
    lr_mult: 1
    decay_mult: 1
  }
  param {
    lr_mult: 2
    decay_mult: 0
  }
  convolution_param {
    num_output: 512
    pad: 1
    kernel_size: 3
    stride: 1
    weight_filler {
      type: "xavier"
    }
  }
}
layer {
  name: "relu4_2"
  type: "ReLU"
  bottom: "conv4_2"
  top: "conv4_2"
}
layer {
  name: "conv4_3"
  type: "Convolution"
  bottom: "conv4_2"
  top: "conv4_3"
  param {
    lr_mult: 1
    decay_mult: 1
  }
  param {
    lr_mult: 2
    decay_mult: 0
  }
  convolution_param {
    num_output: 512
    pad: 1
    kernel_size: 3
    stride: 1
    weight_filler {
      type: "xavier"
    }
  }
}
layer {
  name: "relu4_3"
  type: "ReLU"
  bottom: "conv4_3"
  top: "conv4_3"
}
layer {
  name: "pool4"
  type: "Pooling"
  bottom: "conv4_3"
  top: "pool4"
  pooling_param {
    pool: MAX
    kernel_size: 2
    stride: 2
  }
}
layer {
  name: "conv5_1"
  type: "Convolution"
  bottom: "pool4"
  top: "conv5_1"
  param {
    lr_mult: 1
    decay_mult: 1
  }
  param {
    lr_mult: 2
    decay_mult: 0
  }
  convolution_param {
    num_output: 512
    pad: 1
    kernel_size: 3
    stride: 1
    weight_filler {
      type: "xavier"
    }
  }
}
layer {
  name: "relu5_1"
  type: "ReLU"
  bottom: "conv5_1"
  top: "conv5_1"
}
layer {
  name: "conv5_2"
  type: "Convolution"
  bottom: "conv5_1"
  top: "conv5_2"
  param {
    lr_mult: 1
    decay_mult: 1
  }
  param {
    lr_mult: 2
    decay_mult: 0
  }
  convolution_param {
    num_output: 512
    pad: 1
    kernel_size: 3
    stride: 1
    weight_filler {
      type: "xavier"
    }
  }
}
layer {
  name: "relu5_2"
  type: "ReLU"
  bottom: "conv5_2"
  top: "conv5_2"
}
layer {
  name: "conv5_3"
  type: "Convolution"
  bottom: "conv5_2"
  top: "conv5_3"
  param {
    lr_mult: 1
    decay_mult: 1
  }
  param {
    lr_mult: 2
    decay_mult: 0
  }
  convolution_param {
    num_output: 512
    pad: 1
    kernel_size: 3
    stride: 1
    weight_filler {
      type: "xavier"
    }
  }
}
layer {
  name: "relu5_3"
  type: "ReLU"
  bottom: "conv5_3"
  top: "conv5_3"
}
layer {
  name: "pool5"
  type: "Pooling"
  bottom: "conv5_3"
  top: "pool5"
  pooling_param {
    pool: MAX
    kernel_size: 2
    stride: 2
  }
}
layer {
  name: "fc6"
  type: "Convolution"
  bottom: "pool5"
  top: "fc6"
  param {
    lr_mult: 1
    decay_mult: 1
  }
  param {
    lr_mult: 2
    decay_mult: 0
  }
  convolution_param {
    num_output: 4096
    pad: 0
    kernel_size: 7
    stride: 1
    weight_filler {
      type: "xavier"
    }
  }
}
layer {
  name: "relu6"
  type: "ReLU"
  bottom: "fc6"
  top: "fc6"
}
layer {
  name: "drop6"
  type: "Dropout"
  bottom: "fc6"
  top: "fc6"
  dropout_param {
    dropout_ratio: 0.5
  }
}
layer {
  name: "fc7"
  type: "Convolution"
  bottom: "fc6"
  top: "fc7"
  param {
    lr_mult: 1
    decay_mult: 1
  }
  param {
    lr_mult: 2
    decay_mult: 0
  }
  convolution_param {
    num_output: 4096
    pad: 0
    kernel_size: 1
    stride: 1
    weight_filler {
      type: "xavier"
    }
  }
}
layer {
  name: "relu7"
  type: "ReLU"
  bottom: "fc7"
  top: "fc7"
}
layer {
  name: "drop7"
  type: "Dropout"
  bottom: "fc7"
  top: "fc7"
  dropout_param {
    dropout_ratio: 0.5
  }
}
layer {
  name: "score_fr"
  type: "Convolution"
  bottom: "fc7"
  top: "score_fr"
  param {
    lr_mult: 1
    decay_mult: 1
  }
  param {
    lr_mult: 2
    decay_mult: 0
  }
  convolution_param {
    num_output: 6
    pad: 0
    kernel_size: 1
    weight_filler {
      type: "xavier"
    }
  }
}
layer {
  name: "upscore2"
  type: "Deconvolution"
  bottom: "score_fr"
  top: "upscore2"
  param {
    lr_mult: 0
  }
  convolution_param {
    num_output: 6
    bias_term: false
    kernel_size: 4
    stride: 2
    weight_filler {
      type: "xavier"
    }
  }
}
layer {
  name: "scale_pool4"
  type: "Scale"
  bottom: "pool4"
  top: "scale_pool4"
  param {
    lr_mult: 0
  }
  scale_param {
    filler {
      type: "constant"
      value: 0.01
    }
  }
}
layer {
  name: "score_pool4"
  type: "Convolution"
  bottom: "scale_pool4"
  top: "score_pool4"
  param {
    lr_mult: 1
    decay_mult: 1
  }
  param {
    lr_mult: 2
    decay_mult: 0
  }
  convolution_param {
    num_output: 6
    pad: 0
    kernel_size: 1
    weight_filler {
      type: "xavier"
    }
  }
}
layer {
  name: "score_pool4c"
  type: "Crop"
  bottom: "score_pool4"
  bottom: "upscore2"
  top: "score_pool4c"
  crop_param {
    axis: 2
    offset: 5
  }
}
layer {
  name: "fuse_pool4"
  type: "Eltwise"
  bottom: "upscore2"
  bottom: "score_pool4c"
  top: "fuse_pool4"
  eltwise_param {
    operation: SUM
  }
}
layer {
  name: "upscore_pool4"
  type: "Deconvolution"
  bottom: "fuse_pool4"
  top: "upscore_pool4"
  param {
    lr_mult: 0
  }
  convolution_param {
    num_output: 6
    bias_term: false
    kernel_size: 4
    stride: 2
    weight_filler {
      type: "xavier"
    }
  }
}
layer {
  name: "scale_pool3"
  type: "Scale"
  bottom: "pool3"
  top: "scale_pool3"
  param {
    lr_mult: 0
  }
  scale_param {
    filler {
      type: "constant"
      value: 0.0001
    }
  }
}
layer {
  name: "score_pool3"
  type: "Convolution"
  bottom: "scale_pool3"
  top: "score_pool3"
  param {
    lr_mult: 1
    decay_mult: 1
  }
  param {
    lr_mult: 2
    decay_mult: 0
  }
  convolution_param {
    num_output: 6
    pad: 0
    kernel_size: 1
    weight_filler {
      type: "xavier"
    }
  }
}
layer {
  name: "score_pool3c"
  type: "Crop"
  bottom: "score_pool3"
  bottom: "upscore_pool4"
  top: "score_pool3c"
  crop_param {
    axis: 2
    offset: 9
  }
}
layer {
  name: "fuse_pool3"
  type: "Eltwise"
  bottom: "upscore_pool4"
  bottom: "score_pool3c"
  top: "fuse_pool3"
  eltwise_param {
    operation: SUM
  }
}
layer {
  name: "upscore8"
  type: "Deconvolution"
  bottom: "fuse_pool3"
  top: "upscore8"
  param {
    lr_mult: 0
  }
  convolution_param {
    num_output: 6
    bias_term: false
    kernel_size: 16
    stride: 8
    weight_filler {
      type: "xavier"
    }
  }
}
layer {
  name: "score"
  type: "Crop"
  bottom: "upscore8"
  bottom: "data"
  top: "score"
  crop_param {
    axis: 2
    offset: 31
  }
}
layer {
  name: "loss"
  type: "SoftmaxWithLoss"
  bottom: "score"
  bottom: "label"
  top: "loss"
  loss_param {
    ignore_label: 255
    normalize: false
  }
}
I0116 16:23:59.450609 30751 layer_factory.hpp:77] Creating layer data
I0116 16:23:59.450690 30751 net.cpp:100] Creating Layer data
I0116 16:23:59.450698 30751 net.cpp:408] data -> data
I0116 16:23:59.450707 30751 net.cpp:408] data -> label
I0116 16:23:59.467870 30751 net.cpp:150] Setting up data
I0116 16:23:59.467891 30751 net.cpp:157] Top shape: 1 3 335 500 (502500)
I0116 16:23:59.467897 30751 net.cpp:157] Top shape: 1 1 335 500 (167500)
I0116 16:23:59.467902 30751 net.cpp:165] Memory required for data: 2680000
I0116 16:23:59.467907 30751 layer_factory.hpp:77] Creating layer data_data_0_split
I0116 16:23:59.467917 30751 net.cpp:100] Creating Layer data_data_0_split
I0116 16:23:59.467922 30751 net.cpp:434] data_data_0_split <- data
I0116 16:23:59.467928 30751 net.cpp:408] data_data_0_split -> data_data_0_split_0
I0116 16:23:59.467937 30751 net.cpp:408] data_data_0_split -> data_data_0_split_1
I0116 16:23:59.467979 30751 net.cpp:150] Setting up data_data_0_split
I0116 16:23:59.467986 30751 net.cpp:157] Top shape: 1 3 335 500 (502500)
I0116 16:23:59.467991 30751 net.cpp:157] Top shape: 1 3 335 500 (502500)
I0116 16:23:59.467995 30751 net.cpp:165] Memory required for data: 6700000
I0116 16:23:59.468000 30751 layer_factory.hpp:77] Creating layer conv1_1
I0116 16:23:59.468010 30751 net.cpp:100] Creating Layer conv1_1
I0116 16:23:59.468014 30751 net.cpp:434] conv1_1 <- data_data_0_split_0
I0116 16:23:59.468021 30751 net.cpp:408] conv1_1 -> conv1_1
I0116 16:23:59.470165 30751 net.cpp:150] Setting up conv1_1
I0116 16:23:59.470183 30751 net.cpp:157] Top shape: 1 64 533 698 (23810176)
I0116 16:23:59.470188 30751 net.cpp:165] Memory required for data: 101940704
I0116 16:23:59.470201 30751 layer_factory.hpp:77] Creating layer relu1_1
I0116 16:23:59.470208 30751 net.cpp:100] Creating Layer relu1_1
I0116 16:23:59.470213 30751 net.cpp:434] relu1_1 <- conv1_1
I0116 16:23:59.470221 30751 net.cpp:395] relu1_1 -> conv1_1 (in-place)
I0116 16:23:59.470412 30751 net.cpp:150] Setting up relu1_1
I0116 16:23:59.470422 30751 net.cpp:157] Top shape: 1 64 533 698 (23810176)
I0116 16:23:59.470427 30751 net.cpp:165] Memory required for data: 197181408
I0116 16:23:59.470432 30751 layer_factory.hpp:77] Creating layer conv1_2
I0116 16:23:59.470443 30751 net.cpp:100] Creating Layer conv1_2
I0116 16:23:59.470448 30751 net.cpp:434] conv1_2 <- conv1_1
I0116 16:23:59.470454 30751 net.cpp:408] conv1_2 -> conv1_2
I0116 16:23:59.472715 30751 net.cpp:150] Setting up conv1_2
I0116 16:23:59.472733 30751 net.cpp:157] Top shape: 1 64 533 698 (23810176)
I0116 16:23:59.472738 30751 net.cpp:165] Memory required for data: 292422112
I0116 16:23:59.472748 30751 layer_factory.hpp:77] Creating layer relu1_2
I0116 16:23:59.472755 30751 net.cpp:100] Creating Layer relu1_2
I0116 16:23:59.472760 30751 net.cpp:434] relu1_2 <- conv1_2
I0116 16:23:59.472767 30751 net.cpp:395] relu1_2 -> conv1_2 (in-place)
I0116 16:23:59.473139 30751 net.cpp:150] Setting up relu1_2
I0116 16:23:59.473152 30751 net.cpp:157] Top shape: 1 64 533 698 (23810176)
I0116 16:23:59.473156 30751 net.cpp:165] Memory required for data: 387662816
I0116 16:23:59.473161 30751 layer_factory.hpp:77] Creating layer pool1
I0116 16:23:59.473170 30751 net.cpp:100] Creating Layer pool1
I0116 16:23:59.473175 30751 net.cpp:434] pool1 <- conv1_2
I0116 16:23:59.473181 30751 net.cpp:408] pool1 -> pool1
I0116 16:23:59.473233 30751 net.cpp:150] Setting up pool1
I0116 16:23:59.473242 30751 net.cpp:157] Top shape: 1 64 267 349 (5963712)
I0116 16:23:59.473245 30751 net.cpp:165] Memory required for data: 411517664
I0116 16:23:59.473249 30751 layer_factory.hpp:77] Creating layer conv2_1
I0116 16:23:59.473259 30751 net.cpp:100] Creating Layer conv2_1
I0116 16:23:59.473263 30751 net.cpp:434] conv2_1 <- pool1
I0116 16:23:59.473270 30751 net.cpp:408] conv2_1 -> conv2_1
I0116 16:23:59.475476 30751 net.cpp:150] Setting up conv2_1
I0116 16:23:59.475492 30751 net.cpp:157] Top shape: 1 128 267 349 (11927424)
I0116 16:23:59.475497 30751 net.cpp:165] Memory required for data: 459227360
I0116 16:23:59.475508 30751 layer_factory.hpp:77] Creating layer relu2_1
I0116 16:23:59.475517 30751 net.cpp:100] Creating Layer relu2_1
I0116 16:23:59.475522 30751 net.cpp:434] relu2_1 <- conv2_1
I0116 16:23:59.475528 30751 net.cpp:395] relu2_1 -> conv2_1 (in-place)
I0116 16:23:59.475920 30751 net.cpp:150] Setting up relu2_1
I0116 16:23:59.475934 30751 net.cpp:157] Top shape: 1 128 267 349 (11927424)
I0116 16:23:59.475939 30751 net.cpp:165] Memory required for data: 506937056
I0116 16:23:59.475944 30751 layer_factory.hpp:77] Creating layer conv2_2
I0116 16:23:59.475955 30751 net.cpp:100] Creating Layer conv2_2
I0116 16:23:59.475960 30751 net.cpp:434] conv2_2 <- conv2_1
I0116 16:23:59.475966 30751 net.cpp:408] conv2_2 -> conv2_2
I0116 16:23:59.478528 30751 net.cpp:150] Setting up conv2_2
I0116 16:23:59.478544 30751 net.cpp:157] Top shape: 1 128 267 349 (11927424)
I0116 16:23:59.478549 30751 net.cpp:165] Memory required for data: 554646752
I0116 16:23:59.478557 30751 layer_factory.hpp:77] Creating layer relu2_2
I0116 16:23:59.478565 30751 net.cpp:100] Creating Layer relu2_2
I0116 16:23:59.478570 30751 net.cpp:434] relu2_2 <- conv2_2
I0116 16:23:59.478576 30751 net.cpp:395] relu2_2 -> conv2_2 (in-place)
I0116 16:23:59.478766 30751 net.cpp:150] Setting up relu2_2
I0116 16:23:59.478776 30751 net.cpp:157] Top shape: 1 128 267 349 (11927424)
I0116 16:23:59.478780 30751 net.cpp:165] Memory required for data: 602356448
I0116 16:23:59.478785 30751 layer_factory.hpp:77] Creating layer pool2
I0116 16:23:59.478792 30751 net.cpp:100] Creating Layer pool2
I0116 16:23:59.478797 30751 net.cpp:434] pool2 <- conv2_2
I0116 16:23:59.478803 30751 net.cpp:408] pool2 -> pool2
I0116 16:23:59.478853 30751 net.cpp:150] Setting up pool2
I0116 16:23:59.478862 30751 net.cpp:157] Top shape: 1 128 134 175 (3001600)
I0116 16:23:59.478865 30751 net.cpp:165] Memory required for data: 614362848
I0116 16:23:59.478869 30751 layer_factory.hpp:77] Creating layer conv3_1
I0116 16:23:59.478878 30751 net.cpp:100] Creating Layer conv3_1
I0116 16:23:59.478883 30751 net.cpp:434] conv3_1 <- pool2
I0116 16:23:59.478890 30751 net.cpp:408] conv3_1 -> conv3_1
I0116 16:23:59.482193 30751 net.cpp:150] Setting up conv3_1
I0116 16:23:59.482210 30751 net.cpp:157] Top shape: 1 256 134 175 (6003200)
I0116 16:23:59.482215 30751 net.cpp:165] Memory required for data: 638375648
I0116 16:23:59.482226 30751 layer_factory.hpp:77] Creating layer relu3_1
I0116 16:23:59.482240 30751 net.cpp:100] Creating Layer relu3_1
I0116 16:23:59.482245 30751 net.cpp:434] relu3_1 <- conv3_1
I0116 16:23:59.482251 30751 net.cpp:395] relu3_1 -> conv3_1 (in-place)
I0116 16:23:59.482621 30751 net.cpp:150] Setting up relu3_1
I0116 16:23:59.482635 30751 net.cpp:157] Top shape: 1 256 134 175 (6003200)
I0116 16:23:59.482638 30751 net.cpp:165] Memory required for data: 662388448
I0116 16:23:59.482643 30751 layer_factory.hpp:77] Creating layer conv3_2
I0116 16:23:59.482655 30751 net.cpp:100] Creating Layer conv3_2
I0116 16:23:59.482659 30751 net.cpp:434] conv3_2 <- conv3_1
I0116 16:23:59.482666 30751 net.cpp:408] conv3_2 -> conv3_2
I0116 16:23:59.487906 30751 net.cpp:150] Setting up conv3_2
I0116 16:23:59.487923 30751 net.cpp:157] Top shape: 1 256 134 175 (6003200)
I0116 16:23:59.487928 30751 net.cpp:165] Memory required for data: 686401248
I0116 16:23:59.487936 30751 layer_factory.hpp:77] Creating layer relu3_2
I0116 16:23:59.487944 30751 net.cpp:100] Creating Layer relu3_2
I0116 16:23:59.487949 30751 net.cpp:434] relu3_2 <- conv3_2
I0116 16:23:59.487956 30751 net.cpp:395] relu3_2 -> conv3_2 (in-place)
I0116 16:23:59.488145 30751 net.cpp:150] Setting up relu3_2
I0116 16:23:59.488155 30751 net.cpp:157] Top shape: 1 256 134 175 (6003200)
I0116 16:23:59.488159 30751 net.cpp:165] Memory required for data: 710414048
I0116 16:23:59.488164 30751 layer_factory.hpp:77] Creating layer conv3_3
I0116 16:23:59.488176 30751 net.cpp:100] Creating Layer conv3_3
I0116 16:23:59.488181 30751 net.cpp:434] conv3_3 <- conv3_2
I0116 16:23:59.488189 30751 net.cpp:408] conv3_3 -> conv3_3
I0116 16:23:59.493441 30751 net.cpp:150] Setting up conv3_3
I0116 16:23:59.493458 30751 net.cpp:157] Top shape: 1 256 134 175 (6003200)
I0116 16:23:59.493463 30751 net.cpp:165] Memory required for data: 734426848
I0116 16:23:59.493472 30751 layer_factory.hpp:77] Creating layer relu3_3
I0116 16:23:59.493479 30751 net.cpp:100] Creating Layer relu3_3
I0116 16:23:59.493485 30751 net.cpp:434] relu3_3 <- conv3_3
I0116 16:23:59.493492 30751 net.cpp:395] relu3_3 -> conv3_3 (in-place)
I0116 16:23:59.493687 30751 net.cpp:150] Setting up relu3_3
I0116 16:23:59.493700 30751 net.cpp:157] Top shape: 1 256 134 175 (6003200)
I0116 16:23:59.493703 30751 net.cpp:165] Memory required for data: 758439648
I0116 16:23:59.493708 30751 layer_factory.hpp:77] Creating layer pool3
I0116 16:23:59.493716 30751 net.cpp:100] Creating Layer pool3
I0116 16:23:59.493721 30751 net.cpp:434] pool3 <- conv3_3
I0116 16:23:59.493727 30751 net.cpp:408] pool3 -> pool3
I0116 16:23:59.493779 30751 net.cpp:150] Setting up pool3
I0116 16:23:59.493788 30751 net.cpp:157] Top shape: 1 256 67 88 (1509376)
I0116 16:23:59.493791 30751 net.cpp:165] Memory required for data: 764477152
I0116 16:23:59.493795 30751 layer_factory.hpp:77] Creating layer pool3_pool3_0_split
I0116 16:23:59.493803 30751 net.cpp:100] Creating Layer pool3_pool3_0_split
I0116 16:23:59.493808 30751 net.cpp:434] pool3_pool3_0_split <- pool3
I0116 16:23:59.493813 30751 net.cpp:408] pool3_pool3_0_split -> pool3_pool3_0_split_0
I0116 16:23:59.493820 30751 net.cpp:408] pool3_pool3_0_split -> pool3_pool3_0_split_1
I0116 16:23:59.493861 30751 net.cpp:150] Setting up pool3_pool3_0_split
I0116 16:23:59.493867 30751 net.cpp:157] Top shape: 1 256 67 88 (1509376)
I0116 16:23:59.493872 30751 net.cpp:157] Top shape: 1 256 67 88 (1509376)
I0116 16:23:59.493876 30751 net.cpp:165] Memory required for data: 776552160
I0116 16:23:59.493880 30751 layer_factory.hpp:77] Creating layer conv4_1
I0116 16:23:59.493891 30751 net.cpp:100] Creating Layer conv4_1
I0116 16:23:59.493896 30751 net.cpp:434] conv4_1 <- pool3_pool3_0_split_0
I0116 16:23:59.493903 30751 net.cpp:408] conv4_1 -> conv4_1
I0116 16:23:59.502961 30751 net.cpp:150] Setting up conv4_1
I0116 16:23:59.502979 30751 net.cpp:157] Top shape: 1 512 67 88 (3018752)
I0116 16:23:59.502985 30751 net.cpp:165] Memory required for data: 788627168
I0116 16:23:59.502992 30751 layer_factory.hpp:77] Creating layer relu4_1
I0116 16:23:59.503000 30751 net.cpp:100] Creating Layer relu4_1
I0116 16:23:59.503005 30751 net.cpp:434] relu4_1 <- conv4_1
I0116 16:23:59.503018 30751 net.cpp:395] relu4_1 -> conv4_1 (in-place)
I0116 16:23:59.503403 30751 net.cpp:150] Setting up relu4_1
I0116 16:23:59.503417 30751 net.cpp:157] Top shape: 1 512 67 88 (3018752)
I0116 16:23:59.503420 30751 net.cpp:165] Memory required for data: 800702176
I0116 16:23:59.503425 30751 layer_factory.hpp:77] Creating layer conv4_2
I0116 16:23:59.503437 30751 net.cpp:100] Creating Layer conv4_2
I0116 16:23:59.503442 30751 net.cpp:434] conv4_2 <- conv4_1
I0116 16:23:59.503449 30751 net.cpp:408] conv4_2 -> conv4_2
I0116 16:23:59.520390 30751 net.cpp:150] Setting up conv4_2
I0116 16:23:59.520412 30751 net.cpp:157] Top shape: 1 512 67 88 (3018752)
I0116 16:23:59.520417 30751 net.cpp:165] Memory required for data: 812777184
I0116 16:23:59.520432 30751 layer_factory.hpp:77] Creating layer relu4_2
I0116 16:23:59.520440 30751 net.cpp:100] Creating Layer relu4_2
I0116 16:23:59.520447 30751 net.cpp:434] relu4_2 <- conv4_2
I0116 16:23:59.520453 30751 net.cpp:395] relu4_2 -> conv4_2 (in-place)
I0116 16:23:59.520648 30751 net.cpp:150] Setting up relu4_2
I0116 16:23:59.520658 30751 net.cpp:157] Top shape: 1 512 67 88 (3018752)
I0116 16:23:59.520663 30751 net.cpp:165] Memory required for data: 824852192
I0116 16:23:59.520666 30751 layer_factory.hpp:77] Creating layer conv4_3
I0116 16:23:59.520678 30751 net.cpp:100] Creating Layer conv4_3
I0116 16:23:59.520684 30751 net.cpp:434] conv4_3 <- conv4_2
I0116 16:23:59.520691 30751 net.cpp:408] conv4_3 -> conv4_3
I0116 16:23:59.537760 30751 net.cpp:150] Setting up conv4_3
I0116 16:23:59.537783 30751 net.cpp:157] Top shape: 1 512 67 88 (3018752)
I0116 16:23:59.537789 30751 net.cpp:165] Memory required for data: 836927200
I0116 16:23:59.537799 30751 layer_factory.hpp:77] Creating layer relu4_3
I0116 16:23:59.537808 30751 net.cpp:100] Creating Layer relu4_3
I0116 16:23:59.537814 30751 net.cpp:434] relu4_3 <- conv4_3
I0116 16:23:59.537822 30751 net.cpp:395] relu4_3 -> conv4_3 (in-place)
I0116 16:23:59.538028 30751 net.cpp:150] Setting up relu4_3
I0116 16:23:59.538038 30751 net.cpp:157] Top shape: 1 512 67 88 (3018752)
I0116 16:23:59.538041 30751 net.cpp:165] Memory required for data: 849002208
I0116 16:23:59.538046 30751 layer_factory.hpp:77] Creating layer pool4
I0116 16:23:59.538055 30751 net.cpp:100] Creating Layer pool4
I0116 16:23:59.538060 30751 net.cpp:434] pool4 <- conv4_3
I0116 16:23:59.538069 30751 net.cpp:408] pool4 -> pool4
I0116 16:23:59.538122 30751 net.cpp:150] Setting up pool4
I0116 16:23:59.538130 30751 net.cpp:157] Top shape: 1 512 34 44 (765952)
I0116 16:23:59.538133 30751 net.cpp:165] Memory required for data: 852066016
I0116 16:23:59.538138 30751 layer_factory.hpp:77] Creating layer pool4_pool4_0_split
I0116 16:23:59.538146 30751 net.cpp:100] Creating Layer pool4_pool4_0_split
I0116 16:23:59.538149 30751 net.cpp:434] pool4_pool4_0_split <- pool4
I0116 16:23:59.538156 30751 net.cpp:408] pool4_pool4_0_split -> pool4_pool4_0_split_0
I0116 16:23:59.538163 30751 net.cpp:408] pool4_pool4_0_split -> pool4_pool4_0_split_1
I0116 16:23:59.538205 30751 net.cpp:150] Setting up pool4_pool4_0_split
I0116 16:23:59.538211 30751 net.cpp:157] Top shape: 1 512 34 44 (765952)
I0116 16:23:59.538218 30751 net.cpp:157] Top shape: 1 512 34 44 (765952)
I0116 16:23:59.538221 30751 net.cpp:165] Memory required for data: 858193632
I0116 16:23:59.538225 30751 layer_factory.hpp:77] Creating layer conv5_1
I0116 16:23:59.538235 30751 net.cpp:100] Creating Layer conv5_1
I0116 16:23:59.538240 30751 net.cpp:434] conv5_1 <- pool4_pool4_0_split_0
I0116 16:23:59.538249 30751 net.cpp:408] conv5_1 -> conv5_1
I0116 16:23:59.555223 30751 net.cpp:150] Setting up conv5_1
I0116 16:23:59.555248 30751 net.cpp:157] Top shape: 1 512 34 44 (765952)
I0116 16:23:59.555253 30751 net.cpp:165] Memory required for data: 861257440
I0116 16:23:59.555263 30751 layer_factory.hpp:77] Creating layer relu5_1
I0116 16:23:59.555274 30751 net.cpp:100] Creating Layer relu5_1
I0116 16:23:59.555279 30751 net.cpp:434] relu5_1 <- conv5_1
I0116 16:23:59.555287 30751 net.cpp:395] relu5_1 -> conv5_1 (in-place)
I0116 16:23:59.555685 30751 net.cpp:150] Setting up relu5_1
I0116 16:23:59.555698 30751 net.cpp:157] Top shape: 1 512 34 44 (765952)
I0116 16:23:59.555703 30751 net.cpp:165] Memory required for data: 864321248
I0116 16:23:59.555708 30751 layer_factory.hpp:77] Creating layer conv5_2
I0116 16:23:59.555721 30751 net.cpp:100] Creating Layer conv5_2
I0116 16:23:59.555726 30751 net.cpp:434] conv5_2 <- conv5_1
I0116 16:23:59.555734 30751 net.cpp:408] conv5_2 -> conv5_2
I0116 16:23:59.572759 30751 net.cpp:150] Setting up conv5_2
I0116 16:23:59.572782 30751 net.cpp:157] Top shape: 1 512 34 44 (765952)
I0116 16:23:59.572788 30751 net.cpp:165] Memory required for data: 867385056
I0116 16:23:59.572798 30751 layer_factory.hpp:77] Creating layer relu5_2
I0116 16:23:59.572808 30751 net.cpp:100] Creating Layer relu5_2
I0116 16:23:59.572813 30751 net.cpp:434] relu5_2 <- conv5_2
I0116 16:23:59.572820 30751 net.cpp:395] relu5_2 -> conv5_2 (in-place)
I0116 16:23:59.573017 30751 net.cpp:150] Setting up relu5_2
I0116 16:23:59.573027 30751 net.cpp:157] Top shape: 1 512 34 44 (765952)
I0116 16:23:59.573032 30751 net.cpp:165] Memory required for data: 870448864
I0116 16:23:59.573036 30751 layer_factory.hpp:77] Creating layer conv5_3
I0116 16:23:59.573055 30751 net.cpp:100] Creating Layer conv5_3
I0116 16:23:59.573060 30751 net.cpp:434] conv5_3 <- conv5_2
I0116 16:23:59.573067 30751 net.cpp:408] conv5_3 -> conv5_3
I0116 16:23:59.589998 30751 net.cpp:150] Setting up conv5_3
I0116 16:23:59.590023 30751 net.cpp:157] Top shape: 1 512 34 44 (765952)
I0116 16:23:59.590028 30751 net.cpp:165] Memory required for data: 873512672
I0116 16:23:59.590037 30751 layer_factory.hpp:77] Creating layer relu5_3
I0116 16:23:59.590046 30751 net.cpp:100] Creating Layer relu5_3
I0116 16:23:59.590052 30751 net.cpp:434] relu5_3 <- conv5_3
I0116 16:23:59.590059 30751 net.cpp:395] relu5_3 -> conv5_3 (in-place)
I0116 16:23:59.590251 30751 net.cpp:150] Setting up relu5_3
I0116 16:23:59.590261 30751 net.cpp:157] Top shape: 1 512 34 44 (765952)
I0116 16:23:59.590265 30751 net.cpp:165] Memory required for data: 876576480
I0116 16:23:59.590270 30751 layer_factory.hpp:77] Creating layer pool5
I0116 16:23:59.590278 30751 net.cpp:100] Creating Layer pool5
I0116 16:23:59.590283 30751 net.cpp:434] pool5 <- conv5_3
I0116 16:23:59.590291 30751 net.cpp:408] pool5 -> pool5
I0116 16:23:59.590347 30751 net.cpp:150] Setting up pool5
I0116 16:23:59.590354 30751 net.cpp:157] Top shape: 1 512 17 22 (191488)
I0116 16:23:59.590358 30751 net.cpp:165] Memory required for data: 877342432
I0116 16:23:59.590363 30751 layer_factory.hpp:77] Creating layer fc6
I0116 16:23:59.590374 30751 net.cpp:100] Creating Layer fc6
I0116 16:23:59.590378 30751 net.cpp:434] fc6 <- pool5
I0116 16:23:59.590386 30751 net.cpp:408] fc6 -> fc6
I0116 16:24:00.314287 30751 net.cpp:150] Setting up fc6
I0116 16:24:00.314337 30751 net.cpp:157] Top shape: 1 4096 11 16 (720896)
I0116 16:24:00.314343 30751 net.cpp:165] Memory required for data: 880226016
I0116 16:24:00.314362 30751 layer_factory.hpp:77] Creating layer relu6
I0116 16:24:00.314394 30751 net.cpp:100] Creating Layer relu6
I0116 16:24:00.314406 30751 net.cpp:434] relu6 <- fc6
I0116 16:24:00.314415 30751 net.cpp:395] relu6 -> fc6 (in-place)
I0116 16:24:00.314923 30751 net.cpp:150] Setting up relu6
I0116 16:24:00.314939 30751 net.cpp:157] Top shape: 1 4096 11 16 (720896)
I0116 16:24:00.314944 30751 net.cpp:165] Memory required for data: 883109600
I0116 16:24:00.314949 30751 layer_factory.hpp:77] Creating layer drop6
I0116 16:24:00.314960 30751 net.cpp:100] Creating Layer drop6
I0116 16:24:00.314965 30751 net.cpp:434] drop6 <- fc6
I0116 16:24:00.314973 30751 net.cpp:395] drop6 -> fc6 (in-place)
I0116 16:24:00.315044 30751 net.cpp:150] Setting up drop6
I0116 16:24:00.315054 30751 net.cpp:157] Top shape: 1 4096 11 16 (720896)
I0116 16:24:00.315059 30751 net.cpp:165] Memory required for data: 885993184
I0116 16:24:00.315064 30751 layer_factory.hpp:77] Creating layer fc7
I0116 16:24:00.315080 30751 net.cpp:100] Creating Layer fc7
I0116 16:24:00.315085 30751 net.cpp:434] fc7 <- fc6
I0116 16:24:00.315111 30751 net.cpp:408] fc7 -> fc7
I0116 16:24:00.474010 30751 net.cpp:150] Setting up fc7
I0116 16:24:00.474063 30751 net.cpp:157] Top shape: 1 4096 11 16 (720896)
I0116 16:24:00.474071 30751 net.cpp:165] Memory required for data: 888876768
I0116 16:24:00.474090 30751 layer_factory.hpp:77] Creating layer relu7
I0116 16:24:00.474113 30751 net.cpp:100] Creating Layer relu7
I0116 16:24:00.474123 30751 net.cpp:434] relu7 <- fc7
I0116 16:24:00.474139 30751 net.cpp:395] relu7 -> fc7 (in-place)
I0116 16:24:00.474478 30751 net.cpp:150] Setting up relu7
I0116 16:24:00.474494 30751 net.cpp:157] Top shape: 1 4096 11 16 (720896)
I0116 16:24:00.474501 30751 net.cpp:165] Memory required for data: 891760352
I0116 16:24:00.474509 30751 layer_factory.hpp:77] Creating layer drop7
I0116 16:24:00.474524 30751 net.cpp:100] Creating Layer drop7
I0116 16:24:00.474532 30751 net.cpp:434] drop7 <- fc7
I0116 16:24:00.474544 30751 net.cpp:395] drop7 -> fc7 (in-place)
I0116 16:24:00.474603 30751 net.cpp:150] Setting up drop7
I0116 16:24:00.474617 30751 net.cpp:157] Top shape: 1 4096 11 16 (720896)
I0116 16:24:00.474623 30751 net.cpp:165] Memory required for data: 894643936
I0116 16:24:00.474632 30751 layer_factory.hpp:77] Creating layer score_fr
I0116 16:24:00.474653 30751 net.cpp:100] Creating Layer score_fr
I0116 16:24:00.474660 30751 net.cpp:434] score_fr <- fc7
I0116 16:24:00.474674 30751 net.cpp:408] score_fr -> score_fr
I0116 16:24:00.478256 30751 net.cpp:150] Setting up score_fr
I0116 16:24:00.478281 30751 net.cpp:157] Top shape: 1 6 11 16 (1056)
I0116 16:24:00.478289 30751 net.cpp:165] Memory required for data: 894648160
I0116 16:24:00.478302 30751 layer_factory.hpp:77] Creating layer upscore2
I0116 16:24:00.478324 30751 net.cpp:100] Creating Layer upscore2
I0116 16:24:00.478332 30751 net.cpp:434] upscore2 <- score_fr
I0116 16:24:00.478344 30751 net.cpp:408] upscore2 -> upscore2
I0116 16:24:00.478765 30751 net.cpp:150] Setting up upscore2
I0116 16:24:00.478776 30751 net.cpp:157] Top shape: 1 6 24 34 (4896)
I0116 16:24:00.478782 30751 net.cpp:165] Memory required for data: 894667744
I0116 16:24:00.478813 30751 layer_factory.hpp:77] Creating layer upscore2_upscore2_0_split
I0116 16:24:00.478826 30751 net.cpp:100] Creating Layer upscore2_upscore2_0_split
I0116 16:24:00.478833 30751 net.cpp:434] upscore2_upscore2_0_split <- upscore2
I0116 16:24:00.478844 30751 net.cpp:408] upscore2_upscore2_0_split -> upscore2_upscore2_0_split_0
I0116 16:24:00.478857 30751 net.cpp:408] upscore2_upscore2_0_split -> upscore2_upscore2_0_split_1
I0116 16:24:00.478930 30751 net.cpp:150] Setting up upscore2_upscore2_0_split
I0116 16:24:00.478940 30751 net.cpp:157] Top shape: 1 6 24 34 (4896)
I0116 16:24:00.478948 30751 net.cpp:157] Top shape: 1 6 24 34 (4896)
I0116 16:24:00.478955 30751 net.cpp:165] Memory required for data: 894706912
I0116 16:24:00.478961 30751 layer_factory.hpp:77] Creating layer scale_pool4
I0116 16:24:00.478979 30751 net.cpp:100] Creating Layer scale_pool4
I0116 16:24:00.478984 30751 net.cpp:434] scale_pool4 <- pool4_pool4_0_split_1
I0116 16:24:00.478998 30751 net.cpp:408] scale_pool4 -> scale_pool4
I0116 16:24:00.479218 30751 net.cpp:150] Setting up scale_pool4
I0116 16:24:00.479230 30751 net.cpp:157] Top shape: 1 512 34 44 (765952)
I0116 16:24:00.479238 30751 net.cpp:165] Memory required for data: 897770720
I0116 16:24:00.479249 30751 layer_factory.hpp:77] Creating layer score_pool4
I0116 16:24:00.479264 30751 net.cpp:100] Creating Layer score_pool4
I0116 16:24:00.479271 30751 net.cpp:434] score_pool4 <- scale_pool4
I0116 16:24:00.479285 30751 net.cpp:408] score_pool4 -> score_pool4
I0116 16:24:00.481349 30751 net.cpp:150] Setting up score_pool4
I0116 16:24:00.481370 30751 net.cpp:157] Top shape: 1 6 34 44 (8976)
I0116 16:24:00.481379 30751 net.cpp:165] Memory required for data: 897806624
I0116 16:24:00.481389 30751 layer_factory.hpp:77] Creating layer score_pool4c
I0116 16:24:00.481403 30751 net.cpp:100] Creating Layer score_pool4c
I0116 16:24:00.481411 30751 net.cpp:434] score_pool4c <- score_pool4
I0116 16:24:00.481437 30751 net.cpp:434] score_pool4c <- upscore2_upscore2_0_split_0
I0116 16:24:00.481449 30751 net.cpp:408] score_pool4c -> score_pool4c
I0116 16:24:00.481510 30751 net.cpp:150] Setting up score_pool4c
I0116 16:24:00.481523 30751 net.cpp:157] Top shape: 1 6 24 34 (4896)
I0116 16:24:00.481530 30751 net.cpp:165] Memory required for data: 897826208
I0116 16:24:00.481536 30751 layer_factory.hpp:77] Creating layer fuse_pool4
I0116 16:24:00.481549 30751 net.cpp:100] Creating Layer fuse_pool4
I0116 16:24:00.481555 30751 net.cpp:434] fuse_pool4 <- upscore2_upscore2_0_split_1
I0116 16:24:00.481564 30751 net.cpp:434] fuse_pool4 <- score_pool4c
I0116 16:24:00.481575 30751 net.cpp:408] fuse_pool4 -> fuse_pool4
I0116 16:24:00.481626 30751 net.cpp:150] Setting up fuse_pool4
I0116 16:24:00.481644 30751 net.cpp:157] Top shape: 1 6 24 34 (4896)
I0116 16:24:00.481652 30751 net.cpp:165] Memory required for data: 897845792
I0116 16:24:00.481657 30751 layer_factory.hpp:77] Creating layer upscore_pool4
I0116 16:24:00.481673 30751 net.cpp:100] Creating Layer upscore_pool4
I0116 16:24:00.481680 30751 net.cpp:434] upscore_pool4 <- fuse_pool4
I0116 16:24:00.481690 30751 net.cpp:408] upscore_pool4 -> upscore_pool4
I0116 16:24:00.482087 30751 net.cpp:150] Setting up upscore_pool4
I0116 16:24:00.482100 30751 net.cpp:157] Top shape: 1 6 50 70 (21000)
I0116 16:24:00.482106 30751 net.cpp:165] Memory required for data: 897929792
I0116 16:24:00.482115 30751 layer_factory.hpp:77] Creating layer upscore_pool4_upscore_pool4_0_split
I0116 16:24:00.482125 30751 net.cpp:100] Creating Layer upscore_pool4_upscore_pool4_0_split
I0116 16:24:00.482132 30751 net.cpp:434] upscore_pool4_upscore_pool4_0_split <- upscore_pool4
I0116 16:24:00.482144 30751 net.cpp:408] upscore_pool4_upscore_pool4_0_split -> upscore_pool4_upscore_pool4_0_split_0
I0116 16:24:00.482156 30751 net.cpp:408] upscore_pool4_upscore_pool4_0_split -> upscore_pool4_upscore_pool4_0_split_1
I0116 16:24:00.482225 30751 net.cpp:150] Setting up upscore_pool4_upscore_pool4_0_split
I0116 16:24:00.482239 30751 net.cpp:157] Top shape: 1 6 50 70 (21000)
I0116 16:24:00.482246 30751 net.cpp:157] Top shape: 1 6 50 70 (21000)
I0116 16:24:00.482254 30751 net.cpp:165] Memory required for data: 898097792
I0116 16:24:00.482259 30751 layer_factory.hpp:77] Creating layer scale_pool3
I0116 16:24:00.482271 30751 net.cpp:100] Creating Layer scale_pool3
I0116 16:24:00.482278 30751 net.cpp:434] scale_pool3 <- pool3_pool3_0_split_1
I0116 16:24:00.482288 30751 net.cpp:408] scale_pool3 -> scale_pool3
I0116 16:24:00.482482 30751 net.cpp:150] Setting up scale_pool3
I0116 16:24:00.482496 30751 net.cpp:157] Top shape: 1 256 67 88 (1509376)
I0116 16:24:00.482501 30751 net.cpp:165] Memory required for data: 904135296
I0116 16:24:00.482508 30751 layer_factory.hpp:77] Creating layer score_pool3
I0116 16:24:00.482527 30751 net.cpp:100] Creating Layer score_pool3
I0116 16:24:00.482533 30751 net.cpp:434] score_pool3 <- scale_pool3
I0116 16:24:00.482542 30751 net.cpp:408] score_pool3 -> score_pool3
I0116 16:24:00.483880 30751 net.cpp:150] Setting up score_pool3
I0116 16:24:00.483896 30751 net.cpp:157] Top shape: 1 6 67 88 (35376)
I0116 16:24:00.483901 30751 net.cpp:165] Memory required for data: 904276800
I0116 16:24:00.483908 30751 layer_factory.hpp:77] Creating layer score_pool3c
I0116 16:24:00.483918 30751 net.cpp:100] Creating Layer score_pool3c
I0116 16:24:00.483923 30751 net.cpp:434] score_pool3c <- score_pool3
I0116 16:24:00.483930 30751 net.cpp:434] score_pool3c <- upscore_pool4_upscore_pool4_0_split_0
I0116 16:24:00.483937 30751 net.cpp:408] score_pool3c -> score_pool3c
I0116 16:24:00.483975 30751 net.cpp:150] Setting up score_pool3c
I0116 16:24:00.483983 30751 net.cpp:157] Top shape: 1 6 50 70 (21000)
I0116 16:24:00.483986 30751 net.cpp:165] Memory required for data: 904360800
I0116 16:24:00.483990 30751 layer_factory.hpp:77] Creating layer fuse_pool3
I0116 16:24:00.483999 30751 net.cpp:100] Creating Layer fuse_pool3
I0116 16:24:00.484002 30751 net.cpp:434] fuse_pool3 <- upscore_pool4_upscore_pool4_0_split_1
I0116 16:24:00.484015 30751 net.cpp:434] fuse_pool3 <- score_pool3c
I0116 16:24:00.484022 30751 net.cpp:408] fuse_pool3 -> fuse_pool3
I0116 16:24:00.484055 30751 net.cpp:150] Setting up fuse_pool3
I0116 16:24:00.484062 30751 net.cpp:157] Top shape: 1 6 50 70 (21000)
I0116 16:24:00.484066 30751 net.cpp:165] Memory required for data: 904444800
I0116 16:24:00.484071 30751 layer_factory.hpp:77] Creating layer upscore8
I0116 16:24:00.484081 30751 net.cpp:100] Creating Layer upscore8
I0116 16:24:00.484084 30751 net.cpp:434] upscore8 <- fuse_pool3
I0116 16:24:00.484092 30751 net.cpp:408] upscore8 -> upscore8
I0116 16:24:00.484398 30751 net.cpp:150] Setting up upscore8
I0116 16:24:00.484406 30751 net.cpp:157] Top shape: 1 6 408 568 (1390464)
I0116 16:24:00.484411 30751 net.cpp:165] Memory required for data: 910006656
I0116 16:24:00.484416 30751 layer_factory.hpp:77] Creating layer score
I0116 16:24:00.484424 30751 net.cpp:100] Creating Layer score
I0116 16:24:00.484429 30751 net.cpp:434] score <- upscore8
I0116 16:24:00.484434 30751 net.cpp:434] score <- data_data_0_split_1
I0116 16:24:00.484441 30751 net.cpp:408] score -> score
I0116 16:24:00.484473 30751 net.cpp:150] Setting up score
I0116 16:24:00.484479 30751 net.cpp:157] Top shape: 1 6 335 500 (1005000)
I0116 16:24:00.484483 30751 net.cpp:165] Memory required for data: 914026656
I0116 16:24:00.484488 30751 layer_factory.hpp:77] Creating layer loss
I0116 16:24:00.484496 30751 net.cpp:100] Creating Layer loss
I0116 16:24:00.484500 30751 net.cpp:434] loss <- score
I0116 16:24:00.484505 30751 net.cpp:434] loss <- label
I0116 16:24:00.484513 30751 net.cpp:408] loss -> loss
I0116 16:24:00.484522 30751 layer_factory.hpp:77] Creating layer loss
…
