…
snapshot_prefix: "snapshot/train"
test_initialization: false
average_loss: 20
iter_size: 1
I0113 04:13:09.087309  6034 solver.cpp:81] Creating training net from train_net file: train.prototxt
I0113 04:13:09.088896  6034 net.cpp:58] Initializing net from parameters: 
state {
  phase: TRAIN
}
layer {
  name: "data"
  type: "Python"
  top: "data"
  top: "label"
  python_param {
    module: "voc_layers"
    layer: "SBDDSegDataLayer"
    param_str: "{\'sbdd_dir\': \'../data/sbdd/dataset\', \'seed\': 1337, \'split\': \'train15\', \'mean\': (104.00699, 116.66877, 122.67892)}"
  }
}
layer {
  name: "conv1_1"
  type: "Convolution"
  bottom: "data"
  top: "conv1_1"
  param {
    lr_mult: 1
    decay_mult: 1
  }
  param {
    lr_mult: 2
    decay_mult: 0
  }
  convolution_param {
    num_output: 64
    pad: 100
    kernel_size: 3
    stride: 1
    weight_filler {
      type: "xavier"
    }
  }
}
layer {
  name: "relu1_1"
  type: "ReLU"
  bottom: "conv1_1"
  top: "conv1_1"
}
layer {
  name: "conv1_2"
  type: "Convolution"
  bottom: "conv1_1"
  top: "conv1_2"
  param {
    lr_mult: 1
    decay_mult: 1
  }
  param {
    lr_mult: 2
    decay_mult: 0
  }
  convolution_param {
    num_output: 64
    pad: 1
    kernel_size: 3
    stride: 1
    weight_filler {
      type: "xavier"
    }
  }
}
layer {
  name: "relu1_2"
  type: "ReLU"
  bottom: "conv1_2"
  top: "conv1_2"
}
layer {
  name: "pool1"
  type: "Pooling"
  bottom: "conv1_2"
  top: "pool1"
  pooling_param {
    pool: MAX
    kernel_size: 2
    stride: 2
  }
}
layer {
  name: "conv2_1"
  type: "Convolution"
  bottom: "pool1"
  top: "conv2_1"
  param {
    lr_mult: 1
    decay_mult: 1
  }
  param {
    lr_mult: 2
    decay_mult: 0
  }
  convolution_param {
    num_output: 128
    pad: 1
    kernel_size: 3
    stride: 1
    weight_filler {
      type: "xavier"
    }
  }
}
layer {
  name: "relu2_1"
  type: "ReLU"
  bottom: "conv2_1"
  top: "conv2_1"
}
layer {
  name: "conv2_2"
  type: "Convolution"
  bottom: "conv2_1"
  top: "conv2_2"
  param {
    lr_mult: 1
    decay_mult: 1
  }
  param {
    lr_mult: 2
    decay_mult: 0
  }
  convolution_param {
    num_output: 128
    pad: 1
    kernel_size: 3
    stride: 1
    weight_filler {
      type: "xavier"
    }
  }
}
layer {
  name: "relu2_2"
  type: "ReLU"
  bottom: "conv2_2"
  top: "conv2_2"
}
layer {
  name: "pool2"
  type: "Pooling"
  bottom: "conv2_2"
  top: "pool2"
  pooling_param {
    pool: MAX
    kernel_size: 2
    stride: 2
  }
}
layer {
  name: "conv3_1"
  type: "Convolution"
  bottom: "pool2"
  top: "conv3_1"
  param {
    lr_mult: 1
    decay_mult: 1
  }
  param {
    lr_mult: 2
    decay_mult: 0
  }
  convolution_param {
    num_output: 256
    pad: 1
    kernel_size: 3
    stride: 1
    weight_filler {
      type: "xavier"
    }
  }
}
layer {
  name: "relu3_1"
  type: "ReLU"
  bottom: "conv3_1"
  top: "conv3_1"
}
layer {
  name: "conv3_2"
  type: "Convolution"
  bottom: "conv3_1"
  top: "conv3_2"
  param {
    lr_mult: 1
    decay_mult: 1
  }
  param {
    lr_mult: 2
    decay_mult: 0
  }
  convolution_param {
    num_output: 256
    pad: 1
    kernel_size: 3
    stride: 1
    weight_filler {
      type: "xavier"
    }
  }
}
layer {
  name: "relu3_2"
  type: "ReLU"
  bottom: "conv3_2"
  top: "conv3_2"
}
layer {
  name: "conv3_3"
  type: "Convolution"
  bottom: "conv3_2"
  top: "conv3_3"
  param {
    lr_mult: 1
    decay_mult: 1
  }
  param {
    lr_mult: 2
    decay_mult: 0
  }
  convolution_param {
    num_output: 256
    pad: 1
    kernel_size: 3
    stride: 1
    weight_filler {
      type: "xavier"
    }
  }
}
layer {
  name: "relu3_3"
  type: "ReLU"
  bottom: "conv3_3"
  top: "conv3_3"
}
layer {
  name: "pool3"
  type: "Pooling"
  bottom: "conv3_3"
  top: "pool3"
  pooling_param {
    pool: MAX
    kernel_size: 2
    stride: 2
  }
}
layer {
  name: "conv4_1"
  type: "Convolution"
  bottom: "pool3"
  top: "conv4_1"
  param {
    lr_mult: 1
    decay_mult: 1
  }
  param {
    lr_mult: 2
    decay_mult: 0
  }
  convolution_param {
    num_output: 512
    pad: 1
    kernel_size: 3
    stride: 1
    weight_filler {
      type: "xavier"
    }
  }
}
layer {
  name: "relu4_1"
  type: "ReLU"
  bottom: "conv4_1"
  top: "conv4_1"
}
layer {
  name: "conv4_2"
  type: "Convolution"
  bottom: "conv4_1"
  top: "conv4_2"
  param {
    lr_mult: 1
    decay_mult: 1
  }
  param {
    lr_mult: 2
    decay_mult: 0
  }
  convolution_param {
    num_output: 512
    pad: 1
    kernel_size: 3
    stride: 1
    weight_filler {
      type: "xavier"
    }
  }
}
layer {
  name: "relu4_2"
  type: "ReLU"
  bottom: "conv4_2"
  top: "conv4_2"
}
layer {
  name: "conv4_3"
  type: "Convolution"
  bottom: "conv4_2"
  top: "conv4_3"
  param {
    lr_mult: 1
    decay_mult: 1
  }
  param {
    lr_mult: 2
    decay_mult: 0
  }
  convolution_param {
    num_output: 512
    pad: 1
    kernel_size: 3
    stride: 1
    weight_filler {
      type: "xavier"
    }
  }
}
layer {
  name: "relu4_3"
  type: "ReLU"
  bottom: "conv4_3"
  top: "conv4_3"
}
layer {
  name: "pool4"
  type: "Pooling"
  bottom: "conv4_3"
  top: "pool4"
  pooling_param {
    pool: MAX
    kernel_size: 2
    stride: 2
  }
}
layer {
  name: "conv5_1"
  type: "Convolution"
  bottom: "pool4"
  top: "conv5_1"
  param {
    lr_mult: 1
    decay_mult: 1
  }
  param {
    lr_mult: 2
    decay_mult: 0
  }
  convolution_param {
    num_output: 512
    pad: 1
    kernel_size: 3
    stride: 1
    weight_filler {
      type: "xavier"
    }
  }
}
layer {
  name: "relu5_1"
  type: "ReLU"
  bottom: "conv5_1"
  top: "conv5_1"
}
layer {
  name: "conv5_2"
  type: "Convolution"
  bottom: "conv5_1"
  top: "conv5_2"
  param {
    lr_mult: 1
    decay_mult: 1
  }
  param {
    lr_mult: 2
    decay_mult: 0
  }
  convolution_param {
    num_output: 512
    pad: 1
    kernel_size: 3
    stride: 1
    weight_filler {
      type: "xavier"
    }
  }
}
layer {
  name: "relu5_2"
  type: "ReLU"
  bottom: "conv5_2"
  top: "conv5_2"
}
layer {
  name: "conv5_3"
  type: "Convolution"
  bottom: "conv5_2"
  top: "conv5_3"
  param {
    lr_mult: 1
    decay_mult: 1
  }
  param {
    lr_mult: 2
    decay_mult: 0
  }
  convolution_param {
    num_output: 512
    pad: 1
    kernel_size: 3
    stride: 1
    weight_filler {
      type: "xavier"
    }
  }
}
layer {
  name: "relu5_3"
  type: "ReLU"
  bottom: "conv5_3"
  top: "conv5_3"
}
layer {
  name: "pool5"
  type: "Pooling"
  bottom: "conv5_3"
  top: "pool5"
  pooling_param {
    pool: MAX
    kernel_size: 2
    stride: 2
  }
}
layer {
  name: "fc6"
  type: "Convolution"
  bottom: "pool5"
  top: "fc6"
  param {
    lr_mult: 1
    decay_mult: 1
  }
  param {
    lr_mult: 2
    decay_mult: 0
  }
  convolution_param {
    num_output: 4096
    pad: 0
    kernel_size: 7
    stride: 1
    weight_filler {
      type: "xavier"
    }
  }
}
layer {
  name: "relu6"
  type: "ReLU"
  bottom: "fc6"
  top: "fc6"
}
layer {
  name: "drop6"
  type: "Dropout"
  bottom: "fc6"
  top: "fc6"
  dropout_param {
    dropout_ratio: 0.5
  }
}
layer {
  name: "fc7"
  type: "Convolution"
  bottom: "fc6"
  top: "fc7"
  param {
    lr_mult: 1
    decay_mult: 1
  }
  param {
    lr_mult: 2
    decay_mult: 0
  }
  convolution_param {
    num_output: 4096
    pad: 0
    kernel_size: 1
    stride: 1
    weight_filler {
      type: "xavier"
    }
  }
}
layer {
  name: "relu7"
  type: "ReLU"
  bottom: "fc7"
  top: "fc7"
}
layer {
  name: "drop7"
  type: "Dropout"
  bottom: "fc7"
  top: "fc7"
  dropout_param {
    dropout_ratio: 0.5
  }
}
layer {
  name: "score_fr"
  type: "Convolution"
  bottom: "fc7"
  top: "score_fr"
  param {
    lr_mult: 1
    decay_mult: 1
  }
  param {
    lr_mult: 2
    decay_mult: 0
  }
  convolution_param {
    num_output: 16
    pad: 0
    kernel_size: 1
    weight_filler {
      type: "xavier"
    }
  }
}
layer {
  name: "upscore2"
  type: "Deconvolution"
  bottom: "score_fr"
  top: "upscore2"
  param {
    lr_mult: 0
  }
  convolution_param {
    num_output: 16
    bias_term: false
    kernel_size: 4
    stride: 2
    weight_filler {
      type: "xavier"
    }
  }
}
layer {
  name: "scale_pool4"
  type: "Scale"
  bottom: "pool4"
  top: "scale_pool4"
  param {
    lr_mult: 0
  }
  scale_param {
    filler {
      type: "constant"
      value: 0.01
    }
  }
}
layer {
  name: "score_pool4"
  type: "Convolution"
  bottom: "scale_pool4"
  top: "score_pool4"
  param {
    lr_mult: 1
    decay_mult: 1
  }
  param {
    lr_mult: 2
    decay_mult: 0
  }
  convolution_param {
    num_output: 16
    pad: 0
    kernel_size: 1
    weight_filler {
      type: "xavier"
    }
  }
}
layer {
  name: "score_pool4c"
  type: "Crop"
  bottom: "score_pool4"
  bottom: "upscore2"
  top: "score_pool4c"
  crop_param {
    axis: 2
    offset: 5
  }
}
layer {
  name: "fuse_pool4"
  type: "Eltwise"
  bottom: "upscore2"
  bottom: "score_pool4c"
  top: "fuse_pool4"
  eltwise_param {
    operation: SUM
  }
}
layer {
  name: "upscore_pool4"
  type: "Deconvolution"
  bottom: "fuse_pool4"
  top: "upscore_pool4"
  param {
    lr_mult: 0
  }
  convolution_param {
    num_output: 16
    bias_term: false
    kernel_size: 4
    stride: 2
    weight_filler {
      type: "xavier"
    }
  }
}
layer {
  name: "scale_pool3"
  type: "Scale"
  bottom: "pool3"
  top: "scale_pool3"
  param {
    lr_mult: 0
  }
  scale_param {
    filler {
      type: "constant"
      value: 0.0001
    }
  }
}
layer {
  name: "score_pool3"
  type: "Convolution"
  bottom: "scale_pool3"
  top: "score_pool3"
  param {
    lr_mult: 1
    decay_mult: 1
  }
  param {
    lr_mult: 2
    decay_mult: 0
  }
  convolution_param {
    num_output: 16
    pad: 0
    kernel_size: 1
    weight_filler {
      type: "xavier"
    }
  }
}
layer {
  name: "score_pool3c"
  type: "Crop"
  bottom: "score_pool3"
  bottom: "upscore_pool4"
  top: "score_pool3c"
  crop_param {
    axis: 2
    offset: 9
  }
}
layer {
  name: "fuse_pool3"
  type: "Eltwise"
  bottom: "upscore_pool4"
  bottom: "score_pool3c"
  top: "fuse_pool3"
  eltwise_param {
    operation: SUM
  }
}
layer {
  name: "upscore8"
  type: "Deconvolution"
  bottom: "fuse_pool3"
  top: "upscore8"
  param {
    lr_mult: 0
  }
  convolution_param {
    num_output: 16
    bias_term: false
    kernel_size: 16
    stride: 8
    weight_filler {
      type: "xavier"
    }
  }
}
layer {
  name: "score"
  type: "Crop"
  bottom: "upscore8"
  bottom: "data"
  top: "score"
  crop_param {
    axis: 2
    offset: 31
  }
}
layer {
  name: "loss"
  type: "SoftmaxWithLoss"
  bottom: "score"
  bottom: "label"
  top: "loss"
  loss_param {
    ignore_label: 255
    normalize: false
  }
}
I0113 04:13:09.089140  6034 layer_factory.hpp:77] Creating layer data
I0113 04:13:09.090090  6034 net.cpp:100] Creating Layer data
I0113 04:13:09.090107  6034 net.cpp:408] data -> data
I0113 04:13:09.090122  6034 net.cpp:408] data -> label
I0113 04:13:09.127702  6034 net.cpp:150] Setting up data
I0113 04:13:09.127743  6034 net.cpp:157] Top shape: 1 3 500 333 (499500)
I0113 04:13:09.127749  6034 net.cpp:157] Top shape: 1 1 500 333 (166500)
I0113 04:13:09.127753  6034 net.cpp:165] Memory required for data: 2664000
I0113 04:13:09.127763  6034 layer_factory.hpp:77] Creating layer data_data_0_split
I0113 04:13:09.127784  6034 net.cpp:100] Creating Layer data_data_0_split
I0113 04:13:09.127790  6034 net.cpp:434] data_data_0_split <- data
I0113 04:13:09.127799  6034 net.cpp:408] data_data_0_split -> data_data_0_split_0
I0113 04:13:09.127810  6034 net.cpp:408] data_data_0_split -> data_data_0_split_1
I0113 04:13:09.127851  6034 net.cpp:150] Setting up data_data_0_split
I0113 04:13:09.127857  6034 net.cpp:157] Top shape: 1 3 500 333 (499500)
I0113 04:13:09.127862  6034 net.cpp:157] Top shape: 1 3 500 333 (499500)
I0113 04:13:09.127866  6034 net.cpp:165] Memory required for data: 6660000
I0113 04:13:09.127871  6034 layer_factory.hpp:77] Creating layer conv1_1
I0113 04:13:09.127890  6034 net.cpp:100] Creating Layer conv1_1
I0113 04:13:09.127894  6034 net.cpp:434] conv1_1 <- data_data_0_split_0
I0113 04:13:09.127912  6034 net.cpp:408] conv1_1 -> conv1_1
I0113 04:13:09.301568  6034 net.cpp:150] Setting up conv1_1
I0113 04:13:09.301617  6034 net.cpp:157] Top shape: 1 64 698 531 (23720832)
I0113 04:13:09.301622  6034 net.cpp:165] Memory required for data: 101543328
I0113 04:13:09.301647  6034 layer_factory.hpp:77] Creating layer relu1_1
I0113 04:13:09.301666  6034 net.cpp:100] Creating Layer relu1_1
I0113 04:13:09.301672  6034 net.cpp:434] relu1_1 <- conv1_1
I0113 04:13:09.301679  6034 net.cpp:395] relu1_1 -> conv1_1 (in-place)
I0113 04:13:09.302049  6034 net.cpp:150] Setting up relu1_1
I0113 04:13:09.302063  6034 net.cpp:157] Top shape: 1 64 698 531 (23720832)
I0113 04:13:09.302068  6034 net.cpp:165] Memory required for data: 196426656
I0113 04:13:09.302073  6034 layer_factory.hpp:77] Creating layer conv1_2
I0113 04:13:09.302090  6034 net.cpp:100] Creating Layer conv1_2
I0113 04:13:09.302095  6034 net.cpp:434] conv1_2 <- conv1_1
I0113 04:13:09.302105  6034 net.cpp:408] conv1_2 -> conv1_2
I0113 04:13:09.304744  6034 net.cpp:150] Setting up conv1_2
I0113 04:13:09.304761  6034 net.cpp:157] Top shape: 1 64 698 531 (23720832)
I0113 04:13:09.304766  6034 net.cpp:165] Memory required for data: 291309984
I0113 04:13:09.304777  6034 layer_factory.hpp:77] Creating layer relu1_2
I0113 04:13:09.304785  6034 net.cpp:100] Creating Layer relu1_2
I0113 04:13:09.304790  6034 net.cpp:434] relu1_2 <- conv1_2
I0113 04:13:09.304797  6034 net.cpp:395] relu1_2 -> conv1_2 (in-place)
I0113 04:13:09.305168  6034 net.cpp:150] Setting up relu1_2
I0113 04:13:09.305184  6034 net.cpp:157] Top shape: 1 64 698 531 (23720832)
I0113 04:13:09.305189  6034 net.cpp:165] Memory required for data: 386193312
I0113 04:13:09.305194  6034 layer_factory.hpp:77] Creating layer pool1
I0113 04:13:09.305205  6034 net.cpp:100] Creating Layer pool1
I0113 04:13:09.305210  6034 net.cpp:434] pool1 <- conv1_2
I0113 04:13:09.305218  6034 net.cpp:408] pool1 -> pool1
I0113 04:13:09.305269  6034 net.cpp:150] Setting up pool1
I0113 04:13:09.305279  6034 net.cpp:157] Top shape: 1 64 349 266 (5941376)
I0113 04:13:09.305284  6034 net.cpp:165] Memory required for data: 409958816
I0113 04:13:09.305287  6034 layer_factory.hpp:77] Creating layer conv2_1
I0113 04:13:09.305297  6034 net.cpp:100] Creating Layer conv2_1
I0113 04:13:09.305302  6034 net.cpp:434] conv2_1 <- pool1
I0113 04:13:09.305311  6034 net.cpp:408] conv2_1 -> conv2_1
I0113 04:13:09.307682  6034 net.cpp:150] Setting up conv2_1
I0113 04:13:09.307699  6034 net.cpp:157] Top shape: 1 128 349 266 (11882752)
I0113 04:13:09.307704  6034 net.cpp:165] Memory required for data: 457489824
I0113 04:13:09.307716  6034 layer_factory.hpp:77] Creating layer relu2_1
I0113 04:13:09.307725  6034 net.cpp:100] Creating Layer relu2_1
I0113 04:13:09.307730  6034 net.cpp:434] relu2_1 <- conv2_1
I0113 04:13:09.307739  6034 net.cpp:395] relu2_1 -> conv2_1 (in-place)
I0113 04:13:09.307935  6034 net.cpp:150] Setting up relu2_1
I0113 04:13:09.307946  6034 net.cpp:157] Top shape: 1 128 349 266 (11882752)
I0113 04:13:09.307950  6034 net.cpp:165] Memory required for data: 505020832
I0113 04:13:09.307955  6034 layer_factory.hpp:77] Creating layer conv2_2
I0113 04:13:09.307967  6034 net.cpp:100] Creating Layer conv2_2
I0113 04:13:09.307972  6034 net.cpp:434] conv2_2 <- conv2_1
I0113 04:13:09.307981  6034 net.cpp:408] conv2_2 -> conv2_2
I0113 04:13:09.310592  6034 net.cpp:150] Setting up conv2_2
I0113 04:13:09.310612  6034 net.cpp:157] Top shape: 1 128 349 266 (11882752)
I0113 04:13:09.310617  6034 net.cpp:165] Memory required for data: 552551840
I0113 04:13:09.310626  6034 layer_factory.hpp:77] Creating layer relu2_2
I0113 04:13:09.310634  6034 net.cpp:100] Creating Layer relu2_2
I0113 04:13:09.310639  6034 net.cpp:434] relu2_2 <- conv2_2
I0113 04:13:09.310647  6034 net.cpp:395] relu2_2 -> conv2_2 (in-place)
I0113 04:13:09.311004  6034 net.cpp:150] Setting up relu2_2
I0113 04:13:09.311018  6034 net.cpp:157] Top shape: 1 128 349 266 (11882752)
I0113 04:13:09.311022  6034 net.cpp:165] Memory required for data: 600082848
I0113 04:13:09.311038  6034 layer_factory.hpp:77] Creating layer pool2
I0113 04:13:09.311048  6034 net.cpp:100] Creating Layer pool2
I0113 04:13:09.311053  6034 net.cpp:434] pool2 <- conv2_2
I0113 04:13:09.311060  6034 net.cpp:408] pool2 -> pool2
I0113 04:13:09.311110  6034 net.cpp:150] Setting up pool2
I0113 04:13:09.311117  6034 net.cpp:157] Top shape: 1 128 175 133 (2979200)
I0113 04:13:09.311121  6034 net.cpp:165] Memory required for data: 611999648
I0113 04:13:09.311125  6034 layer_factory.hpp:77] Creating layer conv3_1
I0113 04:13:09.311137  6034 net.cpp:100] Creating Layer conv3_1
I0113 04:13:09.311141  6034 net.cpp:434] conv3_1 <- pool2
I0113 04:13:09.311151  6034 net.cpp:408] conv3_1 -> conv3_1
I0113 04:13:09.314230  6034 net.cpp:150] Setting up conv3_1
I0113 04:13:09.314246  6034 net.cpp:157] Top shape: 1 256 175 133 (5958400)
I0113 04:13:09.314251  6034 net.cpp:165] Memory required for data: 635833248
I0113 04:13:09.314263  6034 layer_factory.hpp:77] Creating layer relu3_1
I0113 04:13:09.314271  6034 net.cpp:100] Creating Layer relu3_1
I0113 04:13:09.314276  6034 net.cpp:434] relu3_1 <- conv3_1
I0113 04:13:09.314285  6034 net.cpp:395] relu3_1 -> conv3_1 (in-place)
I0113 04:13:09.314651  6034 net.cpp:150] Setting up relu3_1
I0113 04:13:09.314666  6034 net.cpp:157] Top shape: 1 256 175 133 (5958400)
I0113 04:13:09.314671  6034 net.cpp:165] Memory required for data: 659666848
I0113 04:13:09.314676  6034 layer_factory.hpp:77] Creating layer conv3_2
I0113 04:13:09.314687  6034 net.cpp:100] Creating Layer conv3_2
I0113 04:13:09.314692  6034 net.cpp:434] conv3_2 <- conv3_1
I0113 04:13:09.314700  6034 net.cpp:408] conv3_2 -> conv3_2
I0113 04:13:09.319857  6034 net.cpp:150] Setting up conv3_2
I0113 04:13:09.319874  6034 net.cpp:157] Top shape: 1 256 175 133 (5958400)
I0113 04:13:09.319878  6034 net.cpp:165] Memory required for data: 683500448
I0113 04:13:09.319886  6034 layer_factory.hpp:77] Creating layer relu3_2
I0113 04:13:09.319895  6034 net.cpp:100] Creating Layer relu3_2
I0113 04:13:09.319900  6034 net.cpp:434] relu3_2 <- conv3_2
I0113 04:13:09.319908  6034 net.cpp:395] relu3_2 -> conv3_2 (in-place)
I0113 04:13:09.320097  6034 net.cpp:150] Setting up relu3_2
I0113 04:13:09.320108  6034 net.cpp:157] Top shape: 1 256 175 133 (5958400)
I0113 04:13:09.320112  6034 net.cpp:165] Memory required for data: 707334048
I0113 04:13:09.320117  6034 layer_factory.hpp:77] Creating layer conv3_3
I0113 04:13:09.320132  6034 net.cpp:100] Creating Layer conv3_3
I0113 04:13:09.320137  6034 net.cpp:434] conv3_3 <- conv3_2
I0113 04:13:09.320144  6034 net.cpp:408] conv3_3 -> conv3_3
I0113 04:13:09.325304  6034 net.cpp:150] Setting up conv3_3
I0113 04:13:09.325321  6034 net.cpp:157] Top shape: 1 256 175 133 (5958400)
I0113 04:13:09.325328  6034 net.cpp:165] Memory required for data: 731167648
I0113 04:13:09.325336  6034 layer_factory.hpp:77] Creating layer relu3_3
I0113 04:13:09.325345  6034 net.cpp:100] Creating Layer relu3_3
I0113 04:13:09.325350  6034 net.cpp:434] relu3_3 <- conv3_3
I0113 04:13:09.325356  6034 net.cpp:395] relu3_3 -> conv3_3 (in-place)
I0113 04:13:09.325729  6034 net.cpp:150] Setting up relu3_3
I0113 04:13:09.325744  6034 net.cpp:157] Top shape: 1 256 175 133 (5958400)
I0113 04:13:09.325748  6034 net.cpp:165] Memory required for data: 755001248
I0113 04:13:09.325753  6034 layer_factory.hpp:77] Creating layer pool3
I0113 04:13:09.325763  6034 net.cpp:100] Creating Layer pool3
I0113 04:13:09.325768  6034 net.cpp:434] pool3 <- conv3_3
I0113 04:13:09.325775  6034 net.cpp:408] pool3 -> pool3
I0113 04:13:09.325825  6034 net.cpp:150] Setting up pool3
I0113 04:13:09.325832  6034 net.cpp:157] Top shape: 1 256 88 67 (1509376)
I0113 04:13:09.325836  6034 net.cpp:165] Memory required for data: 761038752
I0113 04:13:09.325840  6034 layer_factory.hpp:77] Creating layer pool3_pool3_0_split
I0113 04:13:09.325848  6034 net.cpp:100] Creating Layer pool3_pool3_0_split
I0113 04:13:09.325852  6034 net.cpp:434] pool3_pool3_0_split <- pool3
I0113 04:13:09.325860  6034 net.cpp:408] pool3_pool3_0_split -> pool3_pool3_0_split_0
I0113 04:13:09.325867  6034 net.cpp:408] pool3_pool3_0_split -> pool3_pool3_0_split_1
I0113 04:13:09.325914  6034 net.cpp:150] Setting up pool3_pool3_0_split
I0113 04:13:09.325927  6034 net.cpp:157] Top shape: 1 256 88 67 (1509376)
I0113 04:13:09.325932  6034 net.cpp:157] Top shape: 1 256 88 67 (1509376)
I0113 04:13:09.325935  6034 net.cpp:165] Memory required for data: 773113760
I0113 04:13:09.325939  6034 layer_factory.hpp:77] Creating layer conv4_1
I0113 04:13:09.325950  6034 net.cpp:100] Creating Layer conv4_1
I0113 04:13:09.325955  6034 net.cpp:434] conv4_1 <- pool3_pool3_0_split_0
I0113 04:13:09.325963  6034 net.cpp:408] conv4_1 -> conv4_1
I0113 04:13:09.336081  6034 net.cpp:150] Setting up conv4_1
I0113 04:13:09.336102  6034 net.cpp:157] Top shape: 1 512 88 67 (3018752)
I0113 04:13:09.336107  6034 net.cpp:165] Memory required for data: 785188768
I0113 04:13:09.336117  6034 layer_factory.hpp:77] Creating layer relu4_1
I0113 04:13:09.336124  6034 net.cpp:100] Creating Layer relu4_1
I0113 04:13:09.336130  6034 net.cpp:434] relu4_1 <- conv4_1
I0113 04:13:09.336138  6034 net.cpp:395] relu4_1 -> conv4_1 (in-place)
I0113 04:13:09.336516  6034 net.cpp:150] Setting up relu4_1
I0113 04:13:09.336530  6034 net.cpp:157] Top shape: 1 512 88 67 (3018752)
I0113 04:13:09.336535  6034 net.cpp:165] Memory required for data: 797263776
I0113 04:13:09.336540  6034 layer_factory.hpp:77] Creating layer conv4_2
I0113 04:13:09.336552  6034 net.cpp:100] Creating Layer conv4_2
I0113 04:13:09.336557  6034 net.cpp:434] conv4_2 <- conv4_1
I0113 04:13:09.336567  6034 net.cpp:408] conv4_2 -> conv4_2
I0113 04:13:09.353385  6034 net.cpp:150] Setting up conv4_2
I0113 04:13:09.353410  6034 net.cpp:157] Top shape: 1 512 88 67 (3018752)
I0113 04:13:09.353415  6034 net.cpp:165] Memory required for data: 809338784
I0113 04:13:09.353431  6034 layer_factory.hpp:77] Creating layer relu4_2
I0113 04:13:09.353440  6034 net.cpp:100] Creating Layer relu4_2
I0113 04:13:09.353446  6034 net.cpp:434] relu4_2 <- conv4_2
I0113 04:13:09.353453  6034 net.cpp:395] relu4_2 -> conv4_2 (in-place)
I0113 04:13:09.353657  6034 net.cpp:150] Setting up relu4_2
I0113 04:13:09.353668  6034 net.cpp:157] Top shape: 1 512 88 67 (3018752)
I0113 04:13:09.353672  6034 net.cpp:165] Memory required for data: 821413792
I0113 04:13:09.353677  6034 layer_factory.hpp:77] Creating layer conv4_3
I0113 04:13:09.353689  6034 net.cpp:100] Creating Layer conv4_3
I0113 04:13:09.353694  6034 net.cpp:434] conv4_3 <- conv4_2
I0113 04:13:09.353704  6034 net.cpp:408] conv4_3 -> conv4_3
I0113 04:13:09.370579  6034 net.cpp:150] Setting up conv4_3
I0113 04:13:09.370607  6034 net.cpp:157] Top shape: 1 512 88 67 (3018752)
I0113 04:13:09.370612  6034 net.cpp:165] Memory required for data: 833488800
I0113 04:13:09.370622  6034 layer_factory.hpp:77] Creating layer relu4_3
I0113 04:13:09.370633  6034 net.cpp:100] Creating Layer relu4_3
I0113 04:13:09.370640  6034 net.cpp:434] relu4_3 <- conv4_3
I0113 04:13:09.370646  6034 net.cpp:395] relu4_3 -> conv4_3 (in-place)
I0113 04:13:09.371011  6034 net.cpp:150] Setting up relu4_3
I0113 04:13:09.371026  6034 net.cpp:157] Top shape: 1 512 88 67 (3018752)
I0113 04:13:09.371029  6034 net.cpp:165] Memory required for data: 845563808
I0113 04:13:09.371034  6034 layer_factory.hpp:77] Creating layer pool4
I0113 04:13:09.371044  6034 net.cpp:100] Creating Layer pool4
I0113 04:13:09.371049  6034 net.cpp:434] pool4 <- conv4_3
I0113 04:13:09.371058  6034 net.cpp:408] pool4 -> pool4
I0113 04:13:09.371109  6034 net.cpp:150] Setting up pool4
I0113 04:13:09.371116  6034 net.cpp:157] Top shape: 1 512 44 34 (765952)
I0113 04:13:09.371120  6034 net.cpp:165] Memory required for data: 848627616
I0113 04:13:09.371125  6034 layer_factory.hpp:77] Creating layer pool4_pool4_0_split
I0113 04:13:09.371134  6034 net.cpp:100] Creating Layer pool4_pool4_0_split
I0113 04:13:09.371139  6034 net.cpp:434] pool4_pool4_0_split <- pool4
I0113 04:13:09.371145  6034 net.cpp:408] pool4_pool4_0_split -> pool4_pool4_0_split_0
I0113 04:13:09.371153  6034 net.cpp:408] pool4_pool4_0_split -> pool4_pool4_0_split_1
I0113 04:13:09.371191  6034 net.cpp:150] Setting up pool4_pool4_0_split
I0113 04:13:09.371209  6034 net.cpp:157] Top shape: 1 512 44 34 (765952)
I0113 04:13:09.371214  6034 net.cpp:157] Top shape: 1 512 44 34 (765952)
I0113 04:13:09.371218  6034 net.cpp:165] Memory required for data: 854755232
I0113 04:13:09.371223  6034 layer_factory.hpp:77] Creating layer conv5_1
I0113 04:13:09.371237  6034 net.cpp:100] Creating Layer conv5_1
I0113 04:13:09.371242  6034 net.cpp:434] conv5_1 <- pool4_pool4_0_split_0
I0113 04:13:09.371250  6034 net.cpp:408] conv5_1 -> conv5_1
I0113 04:13:09.387804  6034 net.cpp:150] Setting up conv5_1
I0113 04:13:09.387831  6034 net.cpp:157] Top shape: 1 512 44 34 (765952)
I0113 04:13:09.387837  6034 net.cpp:165] Memory required for data: 857819040
I0113 04:13:09.387846  6034 layer_factory.hpp:77] Creating layer relu5_1
I0113 04:13:09.387856  6034 net.cpp:100] Creating Layer relu5_1
I0113 04:13:09.387861  6034 net.cpp:434] relu5_1 <- conv5_1
I0113 04:13:09.387868  6034 net.cpp:395] relu5_1 -> conv5_1 (in-place)
I0113 04:13:09.388232  6034 net.cpp:150] Setting up relu5_1
I0113 04:13:09.388247  6034 net.cpp:157] Top shape: 1 512 44 34 (765952)
I0113 04:13:09.388252  6034 net.cpp:165] Memory required for data: 860882848
I0113 04:13:09.388257  6034 layer_factory.hpp:77] Creating layer conv5_2
I0113 04:13:09.388272  6034 net.cpp:100] Creating Layer conv5_2
I0113 04:13:09.388278  6034 net.cpp:434] conv5_2 <- conv5_1
I0113 04:13:09.388284  6034 net.cpp:408] conv5_2 -> conv5_2
I0113 04:13:09.406576  6034 net.cpp:150] Setting up conv5_2
I0113 04:13:09.406604  6034 net.cpp:157] Top shape: 1 512 44 34 (765952)
I0113 04:13:09.406608  6034 net.cpp:165] Memory required for data: 863946656
I0113 04:13:09.406617  6034 layer_factory.hpp:77] Creating layer relu5_2
I0113 04:13:09.406627  6034 net.cpp:100] Creating Layer relu5_2
I0113 04:13:09.406632  6034 net.cpp:434] relu5_2 <- conv5_2
I0113 04:13:09.406641  6034 net.cpp:395] relu5_2 -> conv5_2 (in-place)
I0113 04:13:09.406841  6034 net.cpp:150] Setting up relu5_2
I0113 04:13:09.406852  6034 net.cpp:157] Top shape: 1 512 44 34 (765952)
I0113 04:13:09.406857  6034 net.cpp:165] Memory required for data: 867010464
I0113 04:13:09.406862  6034 layer_factory.hpp:77] Creating layer conv5_3
I0113 04:13:09.406879  6034 net.cpp:100] Creating Layer conv5_3
I0113 04:13:09.406885  6034 net.cpp:434] conv5_3 <- conv5_2
I0113 04:13:09.406894  6034 net.cpp:408] conv5_3 -> conv5_3
I0113 04:13:09.423620  6034 net.cpp:150] Setting up conv5_3
I0113 04:13:09.423646  6034 net.cpp:157] Top shape: 1 512 44 34 (765952)
I0113 04:13:09.423652  6034 net.cpp:165] Memory required for data: 870074272
I0113 04:13:09.423661  6034 layer_factory.hpp:77] Creating layer relu5_3
I0113 04:13:09.423671  6034 net.cpp:100] Creating Layer relu5_3
I0113 04:13:09.423676  6034 net.cpp:434] relu5_3 <- conv5_3
I0113 04:13:09.423683  6034 net.cpp:395] relu5_3 -> conv5_3 (in-place)
I0113 04:13:09.424229  6034 net.cpp:150] Setting up relu5_3
I0113 04:13:09.424244  6034 net.cpp:157] Top shape: 1 512 44 34 (765952)
I0113 04:13:09.424249  6034 net.cpp:165] Memory required for data: 873138080
I0113 04:13:09.424254  6034 layer_factory.hpp:77] Creating layer pool5
I0113 04:13:09.424263  6034 net.cpp:100] Creating Layer pool5
I0113 04:13:09.424268  6034 net.cpp:434] pool5 <- conv5_3
I0113 04:13:09.424275  6034 net.cpp:408] pool5 -> pool5
I0113 04:13:09.424329  6034 net.cpp:150] Setting up pool5
I0113 04:13:09.424337  6034 net.cpp:157] Top shape: 1 512 22 17 (191488)
I0113 04:13:09.424341  6034 net.cpp:165] Memory required for data: 873904032
I0113 04:13:09.424346  6034 layer_factory.hpp:77] Creating layer fc6
I0113 04:13:09.424360  6034 net.cpp:100] Creating Layer fc6
I0113 04:13:09.424363  6034 net.cpp:434] fc6 <- pool5
I0113 04:13:09.424372  6034 net.cpp:408] fc6 -> fc6
I0113 04:13:10.241681  6034 net.cpp:150] Setting up fc6
I0113 04:13:10.241736  6034 net.cpp:157] Top shape: 1 4096 16 11 (720896)
I0113 04:13:10.241742  6034 net.cpp:165] Memory required for data: 876787616
I0113 04:13:10.241755  6034 layer_factory.hpp:77] Creating layer relu6
I0113 04:13:10.241780  6034 net.cpp:100] Creating Layer relu6
I0113 04:13:10.241786  6034 net.cpp:434] relu6 <- fc6
I0113 04:13:10.241796  6034 net.cpp:395] relu6 -> fc6 (in-place)
I0113 04:13:10.242178  6034 net.cpp:150] Setting up relu6
I0113 04:13:10.242192  6034 net.cpp:157] Top shape: 1 4096 16 11 (720896)
I0113 04:13:10.242197  6034 net.cpp:165] Memory required for data: 879671200
I0113 04:13:10.242202  6034 layer_factory.hpp:77] Creating layer drop6
I0113 04:13:10.242214  6034 net.cpp:100] Creating Layer drop6
I0113 04:13:10.242218  6034 net.cpp:434] drop6 <- fc6
I0113 04:13:10.242226  6034 net.cpp:395] drop6 -> fc6 (in-place)
I0113 04:13:10.242262  6034 net.cpp:150] Setting up drop6
I0113 04:13:10.242269  6034 net.cpp:157] Top shape: 1 4096 16 11 (720896)
I0113 04:13:10.242274  6034 net.cpp:165] Memory required for data: 882554784
I0113 04:13:10.242277  6034 layer_factory.hpp:77] Creating layer fc7
I0113 04:13:10.242292  6034 net.cpp:100] Creating Layer fc7
I0113 04:13:10.242296  6034 net.cpp:434] fc7 <- fc6
I0113 04:13:10.242303  6034 net.cpp:408] fc7 -> fc7
I0113 04:13:10.377076  6034 net.cpp:150] Setting up fc7
I0113 04:13:10.377125  6034 net.cpp:157] Top shape: 1 4096 16 11 (720896)
I0113 04:13:10.377130  6034 net.cpp:165] Memory required for data: 885438368
I0113 04:13:10.377142  6034 layer_factory.hpp:77] Creating layer relu7
I0113 04:13:10.377156  6034 net.cpp:100] Creating Layer relu7
I0113 04:13:10.377162  6034 net.cpp:434] relu7 <- fc7
I0113 04:13:10.377171  6034 net.cpp:395] relu7 -> fc7 (in-place)
I0113 04:13:10.377374  6034 net.cpp:150] Setting up relu7
I0113 04:13:10.377384  6034 net.cpp:157] Top shape: 1 4096 16 11 (720896)
I0113 04:13:10.377389  6034 net.cpp:165] Memory required for data: 888321952
I0113 04:13:10.377393  6034 layer_factory.hpp:77] Creating layer drop7
I0113 04:13:10.377403  6034 net.cpp:100] Creating Layer drop7
I0113 04:13:10.377408  6034 net.cpp:434] drop7 <- fc7
I0113 04:13:10.377413  6034 net.cpp:395] drop7 -> fc7 (in-place)
I0113 04:13:10.377447  6034 net.cpp:150] Setting up drop7
I0113 04:13:10.377454  6034 net.cpp:157] Top shape: 1 4096 16 11 (720896)
I0113 04:13:10.377457  6034 net.cpp:165] Memory required for data: 891205536
I0113 04:13:10.377462  6034 layer_factory.hpp:77] Creating layer score_fr
I0113 04:13:10.377473  6034 net.cpp:100] Creating Layer score_fr
I0113 04:13:10.377478  6034 net.cpp:434] score_fr <- fc7
I0113 04:13:10.377486  6034 net.cpp:408] score_fr -> score_fr
I0113 04:13:10.379050  6034 net.cpp:150] Setting up score_fr
I0113 04:13:10.379066  6034 net.cpp:157] Top shape: 1 16 16 11 (2816)
I0113 04:13:10.379071  6034 net.cpp:165] Memory required for data: 891216800
I0113 04:13:10.379078  6034 layer_factory.hpp:77] Creating layer upscore2
I0113 04:13:10.379093  6034 net.cpp:100] Creating Layer upscore2
I0113 04:13:10.379098  6034 net.cpp:434] upscore2 <- score_fr
I0113 04:13:10.379106  6034 net.cpp:408] upscore2 -> upscore2
I0113 04:13:10.379339  6034 net.cpp:150] Setting up upscore2
I0113 04:13:10.379348  6034 net.cpp:157] Top shape: 1 16 34 24 (13056)
I0113 04:13:10.379351  6034 net.cpp:165] Memory required for data: 891269024
I0113 04:13:10.379371  6034 layer_factory.hpp:77] Creating layer upscore2_upscore2_0_split
I0113 04:13:10.379379  6034 net.cpp:100] Creating Layer upscore2_upscore2_0_split
I0113 04:13:10.379384  6034 net.cpp:434] upscore2_upscore2_0_split <- upscore2
I0113 04:13:10.379390  6034 net.cpp:408] upscore2_upscore2_0_split -> upscore2_upscore2_0_split_0
I0113 04:13:10.379397  6034 net.cpp:408] upscore2_upscore2_0_split -> upscore2_upscore2_0_split_1
I0113 04:13:10.379437  6034 net.cpp:150] Setting up upscore2_upscore2_0_split
I0113 04:13:10.379444  6034 net.cpp:157] Top shape: 1 16 34 24 (13056)
I0113 04:13:10.379449  6034 net.cpp:157] Top shape: 1 16 34 24 (13056)
I0113 04:13:10.379453  6034 net.cpp:165] Memory required for data: 891373472
I0113 04:13:10.379457  6034 layer_factory.hpp:77] Creating layer scale_pool4
I0113 04:13:10.379467  6034 net.cpp:100] Creating Layer scale_pool4
I0113 04:13:10.379472  6034 net.cpp:434] scale_pool4 <- pool4_pool4_0_split_1
I0113 04:13:10.379492  6034 net.cpp:408] scale_pool4 -> scale_pool4
I0113 04:13:10.379601  6034 net.cpp:150] Setting up scale_pool4
I0113 04:13:10.379609  6034 net.cpp:157] Top shape: 1 512 44 34 (765952)
I0113 04:13:10.379613  6034 net.cpp:165] Memory required for data: 894437280
I0113 04:13:10.379619  6034 layer_factory.hpp:77] Creating layer score_pool4
I0113 04:13:10.379631  6034 net.cpp:100] Creating Layer score_pool4
I0113 04:13:10.379634  6034 net.cpp:434] score_pool4 <- scale_pool4
I0113 04:13:10.379642  6034 net.cpp:408] score_pool4 -> score_pool4
I0113 04:13:10.380923  6034 net.cpp:150] Setting up score_pool4
I0113 04:13:10.380939  6034 net.cpp:157] Top shape: 1 16 44 34 (23936)
I0113 04:13:10.380944  6034 net.cpp:165] Memory required for data: 894533024
I0113 04:13:10.380951  6034 layer_factory.hpp:77] Creating layer score_pool4c
I0113 04:13:10.380964  6034 net.cpp:100] Creating Layer score_pool4c
I0113 04:13:10.380969  6034 net.cpp:434] score_pool4c <- score_pool4
I0113 04:13:10.380975  6034 net.cpp:434] score_pool4c <- upscore2_upscore2_0_split_0
I0113 04:13:10.380981  6034 net.cpp:408] score_pool4c -> score_pool4c
I0113 04:13:10.381016  6034 net.cpp:150] Setting up score_pool4c
I0113 04:13:10.381023  6034 net.cpp:157] Top shape: 1 16 34 24 (13056)
I0113 04:13:10.381027  6034 net.cpp:165] Memory required for data: 894585248
I0113 04:13:10.381031  6034 layer_factory.hpp:77] Creating layer fuse_pool4
I0113 04:13:10.381041  6034 net.cpp:100] Creating Layer fuse_pool4
I0113 04:13:10.381044  6034 net.cpp:434] fuse_pool4 <- upscore2_upscore2_0_split_1
I0113 04:13:10.381052  6034 net.cpp:434] fuse_pool4 <- score_pool4c
I0113 04:13:10.381058  6034 net.cpp:408] fuse_pool4 -> fuse_pool4
I0113 04:13:10.381088  6034 net.cpp:150] Setting up fuse_pool4
I0113 04:13:10.381094  6034 net.cpp:157] Top shape: 1 16 34 24 (13056)
I0113 04:13:10.381098  6034 net.cpp:165] Memory required for data: 894637472
I0113 04:13:10.381103  6034 layer_factory.hpp:77] Creating layer upscore_pool4
I0113 04:13:10.381111  6034 net.cpp:100] Creating Layer upscore_pool4
I0113 04:13:10.381116  6034 net.cpp:434] upscore_pool4 <- fuse_pool4
I0113 04:13:10.381122  6034 net.cpp:408] upscore_pool4 -> upscore_pool4
I0113 04:13:10.381351  6034 net.cpp:150] Setting up upscore_pool4
I0113 04:13:10.381359  6034 net.cpp:157] Top shape: 1 16 70 50 (56000)
I0113 04:13:10.381363  6034 net.cpp:165] Memory required for data: 894861472
I0113 04:13:10.381369  6034 layer_factory.hpp:77] Creating layer upscore_pool4_upscore_pool4_0_split
I0113 04:13:10.381376  6034 net.cpp:100] Creating Layer upscore_pool4_upscore_pool4_0_split
I0113 04:13:10.381381  6034 net.cpp:434] upscore_pool4_upscore_pool4_0_split <- upscore_pool4
I0113 04:13:10.381386  6034 net.cpp:408] upscore_pool4_upscore_pool4_0_split -> upscore_pool4_upscore_pool4_0_split_0
I0113 04:13:10.381392  6034 net.cpp:408] upscore_pool4_upscore_pool4_0_split -> upscore_pool4_upscore_pool4_0_split_1
I0113 04:13:10.381430  6034 net.cpp:150] Setting up upscore_pool4_upscore_pool4_0_split
I0113 04:13:10.381436  6034 net.cpp:157] Top shape: 1 16 70 50 (56000)
I0113 04:13:10.381441  6034 net.cpp:157] Top shape: 1 16 70 50 (56000)
I0113 04:13:10.381445  6034 net.cpp:165] Memory required for data: 895309472
I0113 04:13:10.381449  6034 layer_factory.hpp:77] Creating layer scale_pool3
I0113 04:13:10.381456  6034 net.cpp:100] Creating Layer scale_pool3
I0113 04:13:10.381460  6034 net.cpp:434] scale_pool3 <- pool3_pool3_0_split_1
I0113 04:13:10.381469  6034 net.cpp:408] scale_pool3 -> scale_pool3
I0113 04:13:10.381563  6034 net.cpp:150] Setting up scale_pool3
I0113 04:13:10.381572  6034 net.cpp:157] Top shape: 1 256 88 67 (1509376)
I0113 04:13:10.381577  6034 net.cpp:165] Memory required for data: 901346976
I0113 04:13:10.381582  6034 layer_factory.hpp:77] Creating layer score_pool3
I0113 04:13:10.381590  6034 net.cpp:100] Creating Layer score_pool3
I0113 04:13:10.381595  6034 net.cpp:434] score_pool3 <- scale_pool3
I0113 04:13:10.381603  6034 net.cpp:408] score_pool3 -> score_pool3
I0113 04:13:10.382833  6034 net.cpp:150] Setting up score_pool3
I0113 04:13:10.382853  6034 net.cpp:157] Top shape: 1 16 88 67 (94336)
I0113 04:13:10.382858  6034 net.cpp:165] Memory required for data: 901724320
I0113 04:13:10.382866  6034 layer_factory.hpp:77] Creating layer score_pool3c
I0113 04:13:10.382874  6034 net.cpp:100] Creating Layer score_pool3c
I0113 04:13:10.382879  6034 net.cpp:434] score_pool3c <- score_pool3
I0113 04:13:10.382884  6034 net.cpp:434] score_pool3c <- upscore_pool4_upscore_pool4_0_split_0
I0113 04:13:10.382895  6034 net.cpp:408] score_pool3c -> score_pool3c
I0113 04:13:10.382927  6034 net.cpp:150] Setting up score_pool3c
I0113 04:13:10.382936  6034 net.cpp:157] Top shape: 1 16 70 50 (56000)
I0113 04:13:10.382939  6034 net.cpp:165] Memory required for data: 901948320
I0113 04:13:10.382943  6034 layer_factory.hpp:77] Creating layer fuse_pool3
I0113 04:13:10.382951  6034 net.cpp:100] Creating Layer fuse_pool3
I0113 04:13:10.382954  6034 net.cpp:434] fuse_pool3 <- upscore_pool4_upscore_pool4_0_split_1
I0113 04:13:10.382959  6034 net.cpp:434] fuse_pool3 <- score_pool3c
I0113 04:13:10.382966  6034 net.cpp:408] fuse_pool3 -> fuse_pool3
I0113 04:13:10.382992  6034 net.cpp:150] Setting up fuse_pool3
I0113 04:13:10.382998  6034 net.cpp:157] Top shape: 1 16 70 50 (56000)
I0113 04:13:10.383002  6034 net.cpp:165] Memory required for data: 902172320
I0113 04:13:10.383007  6034 layer_factory.hpp:77] Creating layer upscore8
I0113 04:13:10.383015  6034 net.cpp:100] Creating Layer upscore8
I0113 04:13:10.383019  6034 net.cpp:434] upscore8 <- fuse_pool3
I0113 04:13:10.383029  6034 net.cpp:408] upscore8 -> upscore8
I0113 04:13:10.383579  6034 net.cpp:150] Setting up upscore8
I0113 04:13:10.383589  6034 net.cpp:157] Top shape: 1 16 568 408 (3707904)
I0113 04:13:10.383592  6034 net.cpp:165] Memory required for data: 917003936
I0113 04:13:10.383597  6034 layer_factory.hpp:77] Creating layer score
I0113 04:13:10.383605  6034 net.cpp:100] Creating Layer score
I0113 04:13:10.383610  6034 net.cpp:434] score <- upscore8
I0113 04:13:10.383615  6034 net.cpp:434] score <- data_data_0_split_1
I0113 04:13:10.383622  6034 net.cpp:408] score -> score
I0113 04:13:10.383647  6034 net.cpp:150] Setting up score
I0113 04:13:10.383653  6034 net.cpp:157] Top shape: 1 16 500 333 (2664000)
I0113 04:13:10.383657  6034 net.cpp:165] Memory required for data: 927659936
I0113 04:13:10.383661  6034 layer_factory.hpp:77] Creating layer loss
I0113 04:13:10.383671  6034 net.cpp:100] Creating Layer loss
I0113 04:13:10.383674  6034 net.cpp:434] loss <- score
I0113 04:13:10.383679  6034 net.cpp:434] loss <- label
I0113 04:13:10.383685  6034 net.cpp:408] loss -> loss
I0113 04:13:10.383698  6034 layer_factory.hpp:77] Creating layer loss
…
I0113 04:13:10.390174  6034 net.cpp:283] Network initialization done.
I0113 04:13:10.391563  6034 solver.cpp:181] Creating test net (#0) specified by test_net file: val.prototxt
I0113 04:13:10.391922  6034 net.cpp:58] Initializing net from parameters: 
state {
  phase: TEST
}
layer {
  name: "data"
  type: "Python"
  top: "data"
  top: "label"
  python_param {
    module: "voc_layers"
    layer: "VOCSegDataLayer"
    param_str: "{\'voc_dir\': \'../data/pascal-obfuscated/VOC2011\', \'seed\': 1337, \'split\': \'seg11valid15\', \'mean\': (104.00699, 116.66877, 122.67892)}"
  }
}
layer {
  name: "conv1_1"
  type: "Convolution"
  bottom: "data"
  top: "conv1_1"
  param {
    lr_mult: 1
    decay_mult: 1
  }
  param {
    lr_mult: 2
    decay_mult: 0
  }
  convolution_param {
    num_output: 64
    pad: 100
    kernel_size: 3
    stride: 1
    weight_filler {
      type: "xavier"
    }
  }
}
layer {
  name: "relu1_1"
  type: "ReLU"
  bottom: "conv1_1"
  top: "conv1_1"
}
layer {
  name: "conv1_2"
  type: "Convolution"
  bottom: "conv1_1"
  top: "conv1_2"
  param {
    lr_mult: 1
    decay_mult: 1
  }
  param {
    lr_mult: 2
    decay_mult: 0
  }
  convolution_param {
    num_output: 64
    pad: 1
    kernel_size: 3
    stride: 1
    weight_filler {
      type: "xavier"
    }
  }
}
layer {
  name: "relu1_2"
  type: "ReLU"
  bottom: "conv1_2"
  top: "conv1_2"
}
layer {
  name: "pool1"
  type: "Pooling"
  bottom: "conv1_2"
  top: "pool1"
  pooling_param {
    pool: MAX
    kernel_size: 2
    stride: 2
  }
}
layer {
  name: "conv2_1"
  type: "Convolution"
  bottom: "pool1"
  top: "conv2_1"
  param {
    lr_mult: 1
    decay_mult: 1
  }
  param {
    lr_mult: 2
    decay_mult: 0
  }
  convolution_param {
    num_output: 128
    pad: 1
    kernel_size: 3
    stride: 1
    weight_filler {
      type: "xavier"
    }
  }
}
layer {
  name: "relu2_1"
  type: "ReLU"
  bottom: "conv2_1"
  top: "conv2_1"
}
layer {
  name: "conv2_2"
  type: "Convolution"
  bottom: "conv2_1"
  top: "conv2_2"
  param {
    lr_mult: 1
    decay_mult: 1
  }
  param {
    lr_mult: 2
    decay_mult: 0
  }
  convolution_param {
    num_output: 128
    pad: 1
    kernel_size: 3
    stride: 1
    weight_filler {
      type: "xavier"
    }
  }
}
layer {
  name: "relu2_2"
  type: "ReLU"
  bottom: "conv2_2"
  top: "conv2_2"
}
layer {
  name: "pool2"
  type: "Pooling"
  bottom: "conv2_2"
  top: "pool2"
  pooling_param {
    pool: MAX
    kernel_size: 2
    stride: 2
  }
}
layer {
  name: "conv3_1"
  type: "Convolution"
  bottom: "pool2"
  top: "conv3_1"
  param {
    lr_mult: 1
    decay_mult: 1
  }
  param {
    lr_mult: 2
    decay_mult: 0
  }
  convolution_param {
    num_output: 256
    pad: 1
    kernel_size: 3
    stride: 1
    weight_filler {
      type: "xavier"
    }
  }
}
layer {
  name: "relu3_1"
  type: "ReLU"
  bottom: "conv3_1"
  top: "conv3_1"
}
layer {
  name: "conv3_2"
  type: "Convolution"
  bottom: "conv3_1"
  top: "conv3_2"
  param {
    lr_mult: 1
    decay_mult: 1
  }
  param {
    lr_mult: 2
    decay_mult: 0
  }
  convolution_param {
    num_output: 256
    pad: 1
    kernel_size: 3
    stride: 1
    weight_filler {
      type: "xavier"
    }
  }
}
layer {
  name: "relu3_2"
  type: "ReLU"
  bottom: "conv3_2"
  top: "conv3_2"
}
layer {
  name: "conv3_3"
  type: "Convolution"
  bottom: "conv3_2"
  top: "conv3_3"
  param {
    lr_mult: 1
    decay_mult: 1
  }
  param {
    lr_mult: 2
    decay_mult: 0
  }
  convolution_param {
    num_output: 256
    pad: 1
    kernel_size: 3
    stride: 1
    weight_filler {
      type: "xavier"
    }
  }
}
layer {
  name: "relu3_3"
  type: "ReLU"
  bottom: "conv3_3"
  top: "conv3_3"
}
layer {
  name: "pool3"
  type: "Pooling"
  bottom: "conv3_3"
  top: "pool3"
  pooling_param {
    pool: MAX
    kernel_size: 2
    stride: 2
  }
}
layer {
  name: "conv4_1"
  type: "Convolution"
  bottom: "pool3"
  top: "conv4_1"
  param {
    lr_mult: 1
    decay_mult: 1
  }
  param {
    lr_mult: 2
    decay_mult: 0
  }
  convolution_param {
    num_output: 512
    pad: 1
    kernel_size: 3
    stride: 1
    weight_filler {
      type: "xavier"
    }
  }
}
layer {
  name: "relu4_1"
  type: "ReLU"
  bottom: "conv4_1"
  top: "conv4_1"
}
layer {
  name: "conv4_2"
  type: "Convolution"
  bottom: "conv4_1"
  top: "conv4_2"
  param {
    lr_mult: 1
    decay_mult: 1
  }
  param {
    lr_mult: 2
    decay_mult: 0
  }
  convolution_param {
    num_output: 512
    pad: 1
    kernel_size: 3
    stride: 1
    weight_filler {
      type: "xavier"
    }
  }
}
layer {
  name: "relu4_2"
  type: "ReLU"
  bottom: "conv4_2"
  top: "conv4_2"
}
layer {
  name: "conv4_3"
  type: "Convolution"
  bottom: "conv4_2"
  top: "conv4_3"
  param {
    lr_mult: 1
    decay_mult: 1
  }
  param {
    lr_mult: 2
    decay_mult: 0
  }
  convolution_param {
    num_output: 512
    pad: 1
    kernel_size: 3
    stride: 1
    weight_filler {
      type: "xavier"
    }
  }
}
layer {
  name: "relu4_3"
  type: "ReLU"
  bottom: "conv4_3"
  top: "conv4_3"
}
layer {
  name: "pool4"
  type: "Pooling"
  bottom: "conv4_3"
  top: "pool4"
  pooling_param {
    pool: MAX
    kernel_size: 2
    stride: 2
  }
}
layer {
  name: "conv5_1"
  type: "Convolution"
  bottom: "pool4"
  top: "conv5_1"
  param {
    lr_mult: 1
    decay_mult: 1
  }
  param {
    lr_mult: 2
    decay_mult: 0
  }
  convolution_param {
    num_output: 512
    pad: 1
    kernel_size: 3
    stride: 1
    weight_filler {
      type: "xavier"
    }
  }
}
layer {
  name: "relu5_1"
  type: "ReLU"
  bottom: "conv5_1"
  top: "conv5_1"
}
layer {
  name: "conv5_2"
  type: "Convolution"
  bottom: "conv5_1"
  top: "conv5_2"
  param {
    lr_mult: 1
    decay_mult: 1
  }
  param {
    lr_mult: 2
    decay_mult: 0
  }
  convolution_param {
    num_output: 512
    pad: 1
    kernel_size: 3
    stride: 1
    weight_filler {
      type: "xavier"
    }
  }
}
layer {
  name: "relu5_2"
  type: "ReLU"
  bottom: "conv5_2"
  top: "conv5_2"
}
layer {
  name: "conv5_3"
  type: "Convolution"
  bottom: "conv5_2"
  top: "conv5_3"
  param {
    lr_mult: 1
    decay_mult: 1
  }
  param {
    lr_mult: 2
    decay_mult: 0
  }
  convolution_param {
    num_output: 512
    pad: 1
    kernel_size: 3
    stride: 1
    weight_filler {
      type: "xavier"
    }
  }
}
layer {
  name: "relu5_3"
  type: "ReLU"
  bottom: "conv5_3"
  top: "conv5_3"
}
layer {
  name: "pool5"
  type: "Pooling"
  bottom: "conv5_3"
  top: "pool5"
  pooling_param {
    pool: MAX
    kernel_size: 2
    stride: 2
  }
}
layer {
  name: "fc6"
  type: "Convolution"
  bottom: "pool5"
  top: "fc6"
  param {
    lr_mult: 1
    decay_mult: 1
  }
  param {
    lr_mult: 2
    decay_mult: 0
  }
  convolution_param {
    num_output: 4096
    pad: 0
    kernel_size: 7
    stride: 1
    weight_filler {
      type: "xavier"
    }
  }
}
layer {
  name: "relu6"
  type: "ReLU"
  bottom: "fc6"
  top: "fc6"
}
layer {
  name: "drop6"
  type: "Dropout"
  bottom: "fc6"
  top: "fc6"
  dropout_param {
    dropout_ratio: 0.5
  }
}
layer {
  name: "fc7"
  type: "Convolution"
  bottom: "fc6"
  top: "fc7"
  param {
    lr_mult: 1
    decay_mult: 1
  }
  param {
    lr_mult: 2
    decay_mult: 0
  }
  convolution_param {
    num_output: 4096
    pad: 0
    kernel_size: 1
    stride: 1
    weight_filler {
      type: "xavier"
    }
  }
}
layer {
  name: "relu7"
  type: "ReLU"
  bottom: "fc7"
  top: "fc7"
}
layer {
  name: "drop7"
  type: "Dropout"
  bottom: "fc7"
  top: "fc7"
  dropout_param {
    dropout_ratio: 0.5
  }
}
layer {
  name: "score_fr"
  type: "Convolution"
  bottom: "fc7"
  top: "score_fr"
  param {
    lr_mult: 1
    decay_mult: 1
  }
  param {
    lr_mult: 2
    decay_mult: 0
  }
  convolution_param {
    num_output: 16
    pad: 0
    kernel_size: 1
    weight_filler {
      type: "xavier"
    }
  }
}
layer {
  name: "upscore2"
  type: "Deconvolution"
  bottom: "score_fr"
  top: "upscore2"
  param {
    lr_mult: 0
  }
  convolution_param {
    num_output: 16
    bias_term: false
    kernel_size: 4
    stride: 2
    weight_filler {
      type: "xavier"
    }
  }
}
layer {
  name: "scale_pool4"
  type: "Scale"
  bottom: "pool4"
  top: "scale_pool4"
  param {
    lr_mult: 0
  }
  scale_param {
    filler {
      type: "constant"
      value: 0.01
    }
  }
}
layer {
  name: "score_pool4"
  type: "Convolution"
  bottom: "scale_pool4"
  top: "score_pool4"
  param {
    lr_mult: 1
    decay_mult: 1
  }
  param {
    lr_mult: 2
    decay_mult: 0
  }
  convolution_param {
    num_output: 16
    pad: 0
    kernel_size: 1
    weight_filler {
      type: "xavier"
    }
  }
}
layer {
  name: "score_pool4c"
  type: "Crop"
  bottom: "score_pool4"
  bottom: "upscore2"
  top: "score_pool4c"
  crop_param {
    axis: 2
    offset: 5
  }
}
layer {
  name: "fuse_pool4"
  type: "Eltwise"
  bottom: "upscore2"
  bottom: "score_pool4c"
  top: "fuse_pool4"
  eltwise_param {
    operation: SUM
  }
}
layer {
  name: "upscore_pool4"
  type: "Deconvolution"
  bottom: "fuse_pool4"
  top: "upscore_pool4"
  param {
    lr_mult: 0
  }
  convolution_param {
    num_output: 16
    bias_term: false
    kernel_size: 4
    stride: 2
    weight_filler {
      type: "xavier"
    }
  }
}
layer {
  name: "scale_pool3"
  type: "Scale"
  bottom: "pool3"
  top: "scale_pool3"
  param {
    lr_mult: 0
  }
  scale_param {
    filler {
      type: "constant"
      value: 0.0001
    }
  }
}
layer {
  name: "score_pool3"
  type: "Convolution"
  bottom: "scale_pool3"
  top: "score_pool3"
  param {
    lr_mult: 1
    decay_mult: 1
  }
  param {
    lr_mult: 2
    decay_mult: 0
  }
  convolution_param {
    num_output: 16
    pad: 0
    kernel_size: 1
    weight_filler {
      type: "xavier"
    }
  }
}
layer {
  name: "score_pool3c"
  type: "Crop"
  bottom: "score_pool3"
  bottom: "upscore_pool4"
  top: "score_pool3c"
  crop_param {
    axis: 2
    offset: 9
  }
}
layer {
  name: "fuse_pool3"
  type: "Eltwise"
  bottom: "upscore_pool4"
  bottom: "score_pool3c"
  top: "fuse_pool3"
  eltwise_param {
    operation: SUM
  }
}
layer {
  name: "upscore8"
  type: "Deconvolution"
  bottom: "fuse_pool3"
  top: "upscore8"
  param {
    lr_mult: 0
  }
  convolution_param {
    num_output: 16
    bias_term: false
    kernel_size: 16
    stride: 8
    weight_filler {
      type: "xavier"
    }
  }
}
layer {
  name: "score"
  type: "Crop"
  bottom: "upscore8"
  bottom: "data"
  top: "score"
  crop_param {
    axis: 2
    offset: 31
  }
}
layer {
  name: "loss"
  type: "SoftmaxWithLoss"
  bottom: "score"
  bottom: "label"
  top: "loss"
  loss_param {
    ignore_label: 255
    normalize: false
  }
}
I0113 04:13:10.392151  6034 layer_factory.hpp:77] Creating layer data
I0113 04:13:10.392228  6034 net.cpp:100] Creating Layer data
I0113 04:13:10.392236  6034 net.cpp:408] data -> data
I0113 04:13:10.392246  6034 net.cpp:408] data -> label
I0113 04:13:10.403340  6034 net.cpp:150] Setting up data
I0113 04:13:10.403360  6034 net.cpp:157] Top shape: 1 3 366 500 (549000)
I0113 04:13:10.403367  6034 net.cpp:157] Top shape: 1 1 366 500 (183000)
I0113 04:13:10.403370  6034 net.cpp:165] Memory required for data: 2928000
I0113 04:13:10.403376  6034 layer_factory.hpp:77] Creating layer data_data_0_split
I0113 04:13:10.403384  6034 net.cpp:100] Creating Layer data_data_0_split
I0113 04:13:10.403389  6034 net.cpp:434] data_data_0_split <- data
I0113 04:13:10.403396  6034 net.cpp:408] data_data_0_split -> data_data_0_split_0
I0113 04:13:10.403404  6034 net.cpp:408] data_data_0_split -> data_data_0_split_1
I0113 04:13:10.403445  6034 net.cpp:150] Setting up data_data_0_split
I0113 04:13:10.403452  6034 net.cpp:157] Top shape: 1 3 366 500 (549000)
I0113 04:13:10.403457  6034 net.cpp:157] Top shape: 1 3 366 500 (549000)
I0113 04:13:10.403461  6034 net.cpp:165] Memory required for data: 7320000
I0113 04:13:10.403465  6034 layer_factory.hpp:77] Creating layer conv1_1
I0113 04:13:10.403476  6034 net.cpp:100] Creating Layer conv1_1
I0113 04:13:10.403481  6034 net.cpp:434] conv1_1 <- data_data_0_split_0
I0113 04:13:10.403486  6034 net.cpp:408] conv1_1 -> conv1_1
I0113 04:13:10.405845  6034 net.cpp:150] Setting up conv1_1
I0113 04:13:10.405864  6034 net.cpp:157] Top shape: 1 64 564 698 (25195008)
I0113 04:13:10.405869  6034 net.cpp:165] Memory required for data: 108100032
I0113 04:13:10.405880  6034 layer_factory.hpp:77] Creating layer relu1_1
I0113 04:13:10.405889  6034 net.cpp:100] Creating Layer relu1_1
I0113 04:13:10.405894  6034 net.cpp:434] relu1_1 <- conv1_1
I0113 04:13:10.405900  6034 net.cpp:395] relu1_1 -> conv1_1 (in-place)
I0113 04:13:10.406095  6034 net.cpp:150] Setting up relu1_1
I0113 04:13:10.406105  6034 net.cpp:157] Top shape: 1 64 564 698 (25195008)
I0113 04:13:10.406110  6034 net.cpp:165] Memory required for data: 208880064
I0113 04:13:10.406113  6034 layer_factory.hpp:77] Creating layer conv1_2
I0113 04:13:10.406123  6034 net.cpp:100] Creating Layer conv1_2
I0113 04:13:10.406128  6034 net.cpp:434] conv1_2 <- conv1_1
I0113 04:13:10.406143  6034 net.cpp:408] conv1_2 -> conv1_2
I0113 04:13:10.409186  6034 net.cpp:150] Setting up conv1_2
I0113 04:13:10.409204  6034 net.cpp:157] Top shape: 1 64 564 698 (25195008)
I0113 04:13:10.409209  6034 net.cpp:165] Memory required for data: 309660096
I0113 04:13:10.409219  6034 layer_factory.hpp:77] Creating layer relu1_2
I0113 04:13:10.409226  6034 net.cpp:100] Creating Layer relu1_2
I0113 04:13:10.409231  6034 net.cpp:434] relu1_2 <- conv1_2
I0113 04:13:10.409237  6034 net.cpp:395] relu1_2 -> conv1_2 (in-place)
I0113 04:13:10.409600  6034 net.cpp:150] Setting up relu1_2
I0113 04:13:10.409612  6034 net.cpp:157] Top shape: 1 64 564 698 (25195008)
I0113 04:13:10.409617  6034 net.cpp:165] Memory required for data: 410440128
I0113 04:13:10.409621  6034 layer_factory.hpp:77] Creating layer pool1
I0113 04:13:10.409629  6034 net.cpp:100] Creating Layer pool1
I0113 04:13:10.409634  6034 net.cpp:434] pool1 <- conv1_2
I0113 04:13:10.409647  6034 net.cpp:408] pool1 -> pool1
I0113 04:13:10.409701  6034 net.cpp:150] Setting up pool1
I0113 04:13:10.409708  6034 net.cpp:157] Top shape: 1 64 282 349 (6298752)
I0113 04:13:10.409713  6034 net.cpp:165] Memory required for data: 435635136
I0113 04:13:10.409716  6034 layer_factory.hpp:77] Creating layer conv2_1
I0113 04:13:10.409725  6034 net.cpp:100] Creating Layer conv2_1
I0113 04:13:10.409729  6034 net.cpp:434] conv2_1 <- pool1
I0113 04:13:10.409736  6034 net.cpp:408] conv2_1 -> conv2_1
I0113 04:13:10.411962  6034 net.cpp:150] Setting up conv2_1
I0113 04:13:10.411978  6034 net.cpp:157] Top shape: 1 128 282 349 (12597504)
I0113 04:13:10.411983  6034 net.cpp:165] Memory required for data: 486025152
I0113 04:13:10.411993  6034 layer_factory.hpp:77] Creating layer relu2_1
I0113 04:13:10.412001  6034 net.cpp:100] Creating Layer relu2_1
I0113 04:13:10.412006  6034 net.cpp:434] relu2_1 <- conv2_1
I0113 04:13:10.412012  6034 net.cpp:395] relu2_1 -> conv2_1 (in-place)
I0113 04:13:10.412384  6034 net.cpp:150] Setting up relu2_1
I0113 04:13:10.412397  6034 net.cpp:157] Top shape: 1 128 282 349 (12597504)
I0113 04:13:10.412402  6034 net.cpp:165] Memory required for data: 536415168
I0113 04:13:10.412406  6034 layer_factory.hpp:77] Creating layer conv2_2
I0113 04:13:10.412416  6034 net.cpp:100] Creating Layer conv2_2
I0113 04:13:10.412420  6034 net.cpp:434] conv2_2 <- conv2_1
I0113 04:13:10.412427  6034 net.cpp:408] conv2_2 -> conv2_2
I0113 04:13:10.415042  6034 net.cpp:150] Setting up conv2_2
I0113 04:13:10.415060  6034 net.cpp:157] Top shape: 1 128 282 349 (12597504)
I0113 04:13:10.415065  6034 net.cpp:165] Memory required for data: 586805184
I0113 04:13:10.415072  6034 layer_factory.hpp:77] Creating layer relu2_2
I0113 04:13:10.415079  6034 net.cpp:100] Creating Layer relu2_2
I0113 04:13:10.415084  6034 net.cpp:434] relu2_2 <- conv2_2
I0113 04:13:10.415091  6034 net.cpp:395] relu2_2 -> conv2_2 (in-place)
I0113 04:13:10.415279  6034 net.cpp:150] Setting up relu2_2
I0113 04:13:10.415288  6034 net.cpp:157] Top shape: 1 128 282 349 (12597504)
I0113 04:13:10.415292  6034 net.cpp:165] Memory required for data: 637195200
I0113 04:13:10.415297  6034 layer_factory.hpp:77] Creating layer pool2
I0113 04:13:10.415303  6034 net.cpp:100] Creating Layer pool2
I0113 04:13:10.415307  6034 net.cpp:434] pool2 <- conv2_2
I0113 04:13:10.415313  6034 net.cpp:408] pool2 -> pool2
I0113 04:13:10.415364  6034 net.cpp:150] Setting up pool2
I0113 04:13:10.415370  6034 net.cpp:157] Top shape: 1 128 141 175 (3158400)
I0113 04:13:10.415374  6034 net.cpp:165] Memory required for data: 649828800
I0113 04:13:10.415379  6034 layer_factory.hpp:77] Creating layer conv3_1
I0113 04:13:10.415387  6034 net.cpp:100] Creating Layer conv3_1
I0113 04:13:10.415391  6034 net.cpp:434] conv3_1 <- pool2
I0113 04:13:10.415398  6034 net.cpp:408] conv3_1 -> conv3_1
I0113 04:13:10.418747  6034 net.cpp:150] Setting up conv3_1
I0113 04:13:10.418763  6034 net.cpp:157] Top shape: 1 256 141 175 (6316800)
I0113 04:13:10.418768  6034 net.cpp:165] Memory required for data: 675096000
I0113 04:13:10.418779  6034 layer_factory.hpp:77] Creating layer relu3_1
I0113 04:13:10.418793  6034 net.cpp:100] Creating Layer relu3_1
I0113 04:13:10.418798  6034 net.cpp:434] relu3_1 <- conv3_1
I0113 04:13:10.418804  6034 net.cpp:395] relu3_1 -> conv3_1 (in-place)
I0113 04:13:10.419167  6034 net.cpp:150] Setting up relu3_1
I0113 04:13:10.419180  6034 net.cpp:157] Top shape: 1 256 141 175 (6316800)
I0113 04:13:10.419184  6034 net.cpp:165] Memory required for data: 700363200
I0113 04:13:10.419189  6034 layer_factory.hpp:77] Creating layer conv3_2
I0113 04:13:10.419199  6034 net.cpp:100] Creating Layer conv3_2
I0113 04:13:10.419204  6034 net.cpp:434] conv3_2 <- conv3_1
I0113 04:13:10.419211  6034 net.cpp:408] conv3_2 -> conv3_2
I0113 04:13:10.424641  6034 net.cpp:150] Setting up conv3_2
I0113 04:13:10.424659  6034 net.cpp:157] Top shape: 1 256 141 175 (6316800)
I0113 04:13:10.424664  6034 net.cpp:165] Memory required for data: 725630400
I0113 04:13:10.424671  6034 layer_factory.hpp:77] Creating layer relu3_2
I0113 04:13:10.424679  6034 net.cpp:100] Creating Layer relu3_2
I0113 04:13:10.424684  6034 net.cpp:434] relu3_2 <- conv3_2
I0113 04:13:10.424690  6034 net.cpp:395] relu3_2 -> conv3_2 (in-place)
I0113 04:13:10.424873  6034 net.cpp:150] Setting up relu3_2
I0113 04:13:10.424882  6034 net.cpp:157] Top shape: 1 256 141 175 (6316800)
I0113 04:13:10.424886  6034 net.cpp:165] Memory required for data: 750897600
I0113 04:13:10.424891  6034 layer_factory.hpp:77] Creating layer conv3_3
I0113 04:13:10.424902  6034 net.cpp:100] Creating Layer conv3_3
I0113 04:13:10.424907  6034 net.cpp:434] conv3_3 <- conv3_2
I0113 04:13:10.424914  6034 net.cpp:408] conv3_3 -> conv3_3
I0113 04:13:10.430356  6034 net.cpp:150] Setting up conv3_3
I0113 04:13:10.430371  6034 net.cpp:157] Top shape: 1 256 141 175 (6316800)
I0113 04:13:10.430375  6034 net.cpp:165] Memory required for data: 776164800
I0113 04:13:10.430383  6034 layer_factory.hpp:77] Creating layer relu3_3
I0113 04:13:10.430392  6034 net.cpp:100] Creating Layer relu3_3
I0113 04:13:10.430397  6034 net.cpp:434] relu3_3 <- conv3_3
I0113 04:13:10.430403  6034 net.cpp:395] relu3_3 -> conv3_3 (in-place)
I0113 04:13:10.430588  6034 net.cpp:150] Setting up relu3_3
I0113 04:13:10.430598  6034 net.cpp:157] Top shape: 1 256 141 175 (6316800)
I0113 04:13:10.430601  6034 net.cpp:165] Memory required for data: 801432000
I0113 04:13:10.430605  6034 layer_factory.hpp:77] Creating layer pool3
I0113 04:13:10.430613  6034 net.cpp:100] Creating Layer pool3
I0113 04:13:10.430616  6034 net.cpp:434] pool3 <- conv3_3
I0113 04:13:10.430622  6034 net.cpp:408] pool3 -> pool3
I0113 04:13:10.430675  6034 net.cpp:150] Setting up pool3
I0113 04:13:10.430681  6034 net.cpp:157] Top shape: 1 256 71 88 (1599488)
I0113 04:13:10.430685  6034 net.cpp:165] Memory required for data: 807829952
I0113 04:13:10.430690  6034 layer_factory.hpp:77] Creating layer pool3_pool3_0_split
I0113 04:13:10.430696  6034 net.cpp:100] Creating Layer pool3_pool3_0_split
I0113 04:13:10.430699  6034 net.cpp:434] pool3_pool3_0_split <- pool3
I0113 04:13:10.430706  6034 net.cpp:408] pool3_pool3_0_split -> pool3_pool3_0_split_0
I0113 04:13:10.430711  6034 net.cpp:408] pool3_pool3_0_split -> pool3_pool3_0_split_1
I0113 04:13:10.430752  6034 net.cpp:150] Setting up pool3_pool3_0_split
I0113 04:13:10.430757  6034 net.cpp:157] Top shape: 1 256 71 88 (1599488)
I0113 04:13:10.430763  6034 net.cpp:157] Top shape: 1 256 71 88 (1599488)
I0113 04:13:10.430766  6034 net.cpp:165] Memory required for data: 820625856
I0113 04:13:10.430769  6034 layer_factory.hpp:77] Creating layer conv4_1
I0113 04:13:10.430779  6034 net.cpp:100] Creating Layer conv4_1
I0113 04:13:10.430783  6034 net.cpp:434] conv4_1 <- pool3_pool3_0_split_0
I0113 04:13:10.430790  6034 net.cpp:408] conv4_1 -> conv4_1
I0113 04:13:10.440367  6034 net.cpp:150] Setting up conv4_1
I0113 04:13:10.440387  6034 net.cpp:157] Top shape: 1 512 71 88 (3198976)
I0113 04:13:10.440392  6034 net.cpp:165] Memory required for data: 833421760
I0113 04:13:10.440399  6034 layer_factory.hpp:77] Creating layer relu4_1
I0113 04:13:10.440407  6034 net.cpp:100] Creating Layer relu4_1
I0113 04:13:10.440419  6034 net.cpp:434] relu4_1 <- conv4_1
I0113 04:13:10.440428  6034 net.cpp:395] relu4_1 -> conv4_1 (in-place)
I0113 04:13:10.440794  6034 net.cpp:150] Setting up relu4_1
I0113 04:13:10.440807  6034 net.cpp:157] Top shape: 1 512 71 88 (3198976)
I0113 04:13:10.440811  6034 net.cpp:165] Memory required for data: 846217664
I0113 04:13:10.440816  6034 layer_factory.hpp:77] Creating layer conv4_2
I0113 04:13:10.440827  6034 net.cpp:100] Creating Layer conv4_2
I0113 04:13:10.440832  6034 net.cpp:434] conv4_2 <- conv4_1
I0113 04:13:10.440840  6034 net.cpp:408] conv4_2 -> conv4_2
I0113 04:13:10.458943  6034 net.cpp:150] Setting up conv4_2
I0113 04:13:10.458969  6034 net.cpp:157] Top shape: 1 512 71 88 (3198976)
I0113 04:13:10.458974  6034 net.cpp:165] Memory required for data: 859013568
I0113 04:13:10.458988  6034 layer_factory.hpp:77] Creating layer relu4_2
I0113 04:13:10.458997  6034 net.cpp:100] Creating Layer relu4_2
I0113 04:13:10.459002  6034 net.cpp:434] relu4_2 <- conv4_2
I0113 04:13:10.459012  6034 net.cpp:395] relu4_2 -> conv4_2 (in-place)
I0113 04:13:10.459223  6034 net.cpp:150] Setting up relu4_2
I0113 04:13:10.459233  6034 net.cpp:157] Top shape: 1 512 71 88 (3198976)
I0113 04:13:10.459236  6034 net.cpp:165] Memory required for data: 871809472
I0113 04:13:10.459241  6034 layer_factory.hpp:77] Creating layer conv4_3
I0113 04:13:10.459252  6034 net.cpp:100] Creating Layer conv4_3
I0113 04:13:10.459257  6034 net.cpp:434] conv4_3 <- conv4_2
I0113 04:13:10.459265  6034 net.cpp:408] conv4_3 -> conv4_3
I0113 04:13:10.477627  6034 net.cpp:150] Setting up conv4_3
I0113 04:13:10.477658  6034 net.cpp:157] Top shape: 1 512 71 88 (3198976)
I0113 04:13:10.477663  6034 net.cpp:165] Memory required for data: 884605376
I0113 04:13:10.477672  6034 layer_factory.hpp:77] Creating layer relu4_3
I0113 04:13:10.477681  6034 net.cpp:100] Creating Layer relu4_3
I0113 04:13:10.477686  6034 net.cpp:434] relu4_3 <- conv4_3
I0113 04:13:10.477696  6034 net.cpp:395] relu4_3 -> conv4_3 (in-place)
I0113 04:13:10.477912  6034 net.cpp:150] Setting up relu4_3
I0113 04:13:10.477922  6034 net.cpp:157] Top shape: 1 512 71 88 (3198976)
I0113 04:13:10.477927  6034 net.cpp:165] Memory required for data: 897401280
I0113 04:13:10.477931  6034 layer_factory.hpp:77] Creating layer pool4
I0113 04:13:10.477941  6034 net.cpp:100] Creating Layer pool4
I0113 04:13:10.477946  6034 net.cpp:434] pool4 <- conv4_3
I0113 04:13:10.477952  6034 net.cpp:408] pool4 -> pool4
I0113 04:13:10.478010  6034 net.cpp:150] Setting up pool4
I0113 04:13:10.478018  6034 net.cpp:157] Top shape: 1 512 36 44 (811008)
I0113 04:13:10.478022  6034 net.cpp:165] Memory required for data: 900645312
I0113 04:13:10.478026  6034 layer_factory.hpp:77] Creating layer pool4_pool4_0_split
I0113 04:13:10.478034  6034 net.cpp:100] Creating Layer pool4_pool4_0_split
I0113 04:13:10.478037  6034 net.cpp:434] pool4_pool4_0_split <- pool4
I0113 04:13:10.478045  6034 net.cpp:408] pool4_pool4_0_split -> pool4_pool4_0_split_0
I0113 04:13:10.478051  6034 net.cpp:408] pool4_pool4_0_split -> pool4_pool4_0_split_1
I0113 04:13:10.478094  6034 net.cpp:150] Setting up pool4_pool4_0_split
I0113 04:13:10.478106  6034 net.cpp:157] Top shape: 1 512 36 44 (811008)
I0113 04:13:10.478112  6034 net.cpp:157] Top shape: 1 512 36 44 (811008)
I0113 04:13:10.478116  6034 net.cpp:165] Memory required for data: 907133376
I0113 04:13:10.478121  6034 layer_factory.hpp:77] Creating layer conv5_1
I0113 04:13:10.478132  6034 net.cpp:100] Creating Layer conv5_1
I0113 04:13:10.478137  6034 net.cpp:434] conv5_1 <- pool4_pool4_0_split_0
I0113 04:13:10.478144  6034 net.cpp:408] conv5_1 -> conv5_1
I0113 04:13:10.496459  6034 net.cpp:150] Setting up conv5_1
I0113 04:13:10.496484  6034 net.cpp:157] Top shape: 1 512 36 44 (811008)
I0113 04:13:10.496489  6034 net.cpp:165] Memory required for data: 910377408
I0113 04:13:10.496497  6034 layer_factory.hpp:77] Creating layer relu5_1
I0113 04:13:10.496505  6034 net.cpp:100] Creating Layer relu5_1
I0113 04:13:10.496510  6034 net.cpp:434] relu5_1 <- conv5_1
I0113 04:13:10.496520  6034 net.cpp:395] relu5_1 -> conv5_1 (in-place)
I0113 04:13:10.496914  6034 net.cpp:150] Setting up relu5_1
I0113 04:13:10.496928  6034 net.cpp:157] Top shape: 1 512 36 44 (811008)
I0113 04:13:10.496932  6034 net.cpp:165] Memory required for data: 913621440
I0113 04:13:10.496937  6034 layer_factory.hpp:77] Creating layer conv5_2
I0113 04:13:10.496949  6034 net.cpp:100] Creating Layer conv5_2
I0113 04:13:10.496954  6034 net.cpp:434] conv5_2 <- conv5_1
I0113 04:13:10.496963  6034 net.cpp:408] conv5_2 -> conv5_2
I0113 04:13:10.515199  6034 net.cpp:150] Setting up conv5_2
I0113 04:13:10.515223  6034 net.cpp:157] Top shape: 1 512 36 44 (811008)
I0113 04:13:10.515228  6034 net.cpp:165] Memory required for data: 916865472
I0113 04:13:10.515235  6034 layer_factory.hpp:77] Creating layer relu5_2
I0113 04:13:10.515246  6034 net.cpp:100] Creating Layer relu5_2
I0113 04:13:10.515251  6034 net.cpp:434] relu5_2 <- conv5_2
I0113 04:13:10.515259  6034 net.cpp:395] relu5_2 -> conv5_2 (in-place)
I0113 04:13:10.515461  6034 net.cpp:150] Setting up relu5_2
I0113 04:13:10.515471  6034 net.cpp:157] Top shape: 1 512 36 44 (811008)
I0113 04:13:10.515476  6034 net.cpp:165] Memory required for data: 920109504
I0113 04:13:10.515480  6034 layer_factory.hpp:77] Creating layer conv5_3
I0113 04:13:10.515501  6034 net.cpp:100] Creating Layer conv5_3
I0113 04:13:10.515506  6034 net.cpp:434] conv5_3 <- conv5_2
I0113 04:13:10.515512  6034 net.cpp:408] conv5_3 -> conv5_3
I0113 04:13:10.533634  6034 net.cpp:150] Setting up conv5_3
I0113 04:13:10.533663  6034 net.cpp:157] Top shape: 1 512 36 44 (811008)
I0113 04:13:10.533668  6034 net.cpp:165] Memory required for data: 923353536
I0113 04:13:10.533677  6034 layer_factory.hpp:77] Creating layer relu5_3
I0113 04:13:10.533689  6034 net.cpp:100] Creating Layer relu5_3
I0113 04:13:10.533694  6034 net.cpp:434] relu5_3 <- conv5_3
I0113 04:13:10.533700  6034 net.cpp:395] relu5_3 -> conv5_3 (in-place)
I0113 04:13:10.533905  6034 net.cpp:150] Setting up relu5_3
I0113 04:13:10.533915  6034 net.cpp:157] Top shape: 1 512 36 44 (811008)
I0113 04:13:10.533918  6034 net.cpp:165] Memory required for data: 926597568
I0113 04:13:10.533923  6034 layer_factory.hpp:77] Creating layer pool5
I0113 04:13:10.533933  6034 net.cpp:100] Creating Layer pool5
I0113 04:13:10.533938  6034 net.cpp:434] pool5 <- conv5_3
I0113 04:13:10.533946  6034 net.cpp:408] pool5 -> pool5
I0113 04:13:10.534003  6034 net.cpp:150] Setting up pool5
I0113 04:13:10.534010  6034 net.cpp:157] Top shape: 1 512 18 22 (202752)
I0113 04:13:10.534013  6034 net.cpp:165] Memory required for data: 927408576
I0113 04:13:10.534018  6034 layer_factory.hpp:77] Creating layer fc6
I0113 04:13:10.534029  6034 net.cpp:100] Creating Layer fc6
I0113 04:13:10.534034  6034 net.cpp:434] fc6 <- pool5
I0113 04:13:10.534042  6034 net.cpp:408] fc6 -> fc6
I0113 04:13:11.292481  6034 net.cpp:150] Setting up fc6
I0113 04:13:11.292533  6034 net.cpp:157] Top shape: 1 4096 12 16 (786432)
I0113 04:13:11.292539  6034 net.cpp:165] Memory required for data: 930554304
I0113 04:13:11.292563  6034 layer_factory.hpp:77] Creating layer relu6
I0113 04:13:11.292582  6034 net.cpp:100] Creating Layer relu6
I0113 04:13:11.292588  6034 net.cpp:434] relu6 <- fc6
I0113 04:13:11.292599  6034 net.cpp:395] relu6 -> fc6 (in-place)
I0113 04:13:11.293000  6034 net.cpp:150] Setting up relu6
I0113 04:13:11.293015  6034 net.cpp:157] Top shape: 1 4096 12 16 (786432)
I0113 04:13:11.293018  6034 net.cpp:165] Memory required for data: 933700032
I0113 04:13:11.293023  6034 layer_factory.hpp:77] Creating layer drop6
I0113 04:13:11.293035  6034 net.cpp:100] Creating Layer drop6
I0113 04:13:11.293040  6034 net.cpp:434] drop6 <- fc6
I0113 04:13:11.293047  6034 net.cpp:395] drop6 -> fc6 (in-place)
I0113 04:13:11.293090  6034 net.cpp:150] Setting up drop6
I0113 04:13:11.293097  6034 net.cpp:157] Top shape: 1 4096 12 16 (786432)
I0113 04:13:11.293102  6034 net.cpp:165] Memory required for data: 936845760
I0113 04:13:11.293107  6034 layer_factory.hpp:77] Creating layer fc7
I0113 04:13:11.293120  6034 net.cpp:100] Creating Layer fc7
I0113 04:13:11.293135  6034 net.cpp:434] fc7 <- fc6
I0113 04:13:11.293143  6034 net.cpp:408] fc7 -> fc7
I0113 04:13:11.412039  6034 net.cpp:150] Setting up fc7
I0113 04:13:11.412083  6034 net.cpp:157] Top shape: 1 4096 12 16 (786432)
I0113 04:13:11.412091  6034 net.cpp:165] Memory required for data: 939991488
I0113 04:13:11.412101  6034 layer_factory.hpp:77] Creating layer relu7
I0113 04:13:11.412116  6034 net.cpp:100] Creating Layer relu7
I0113 04:13:11.412122  6034 net.cpp:434] relu7 <- fc7
I0113 04:13:11.412128  6034 net.cpp:395] relu7 -> fc7 (in-place)
I0113 04:13:11.412341  6034 net.cpp:150] Setting up relu7
I0113 04:13:11.412353  6034 net.cpp:157] Top shape: 1 4096 12 16 (786432)
I0113 04:13:11.412358  6034 net.cpp:165] Memory required for data: 943137216
I0113 04:13:11.412361  6034 layer_factory.hpp:77] Creating layer drop7
I0113 04:13:11.412370  6034 net.cpp:100] Creating Layer drop7
I0113 04:13:11.412375  6034 net.cpp:434] drop7 <- fc7
I0113 04:13:11.412380  6034 net.cpp:395] drop7 -> fc7 (in-place)
I0113 04:13:11.412423  6034 net.cpp:150] Setting up drop7
I0113 04:13:11.412431  6034 net.cpp:157] Top shape: 1 4096 12 16 (786432)
I0113 04:13:11.412434  6034 net.cpp:165] Memory required for data: 946282944
I0113 04:13:11.412439  6034 layer_factory.hpp:77] Creating layer score_fr
I0113 04:13:11.412452  6034 net.cpp:100] Creating Layer score_fr
I0113 04:13:11.412457  6034 net.cpp:434] score_fr <- fc7
I0113 04:13:11.412467  6034 net.cpp:408] score_fr -> score_fr
I0113 04:13:11.414379  6034 net.cpp:150] Setting up score_fr
I0113 04:13:11.414396  6034 net.cpp:157] Top shape: 1 16 12 16 (3072)
I0113 04:13:11.414400  6034 net.cpp:165] Memory required for data: 946295232
I0113 04:13:11.414410  6034 layer_factory.hpp:77] Creating layer upscore2
I0113 04:13:11.414423  6034 net.cpp:100] Creating Layer upscore2
I0113 04:13:11.414428  6034 net.cpp:434] upscore2 <- score_fr
I0113 04:13:11.414436  6034 net.cpp:408] upscore2 -> upscore2
I0113 04:13:11.414712  6034 net.cpp:150] Setting up upscore2
I0113 04:13:11.414721  6034 net.cpp:157] Top shape: 1 16 26 34 (14144)
I0113 04:13:11.414726  6034 net.cpp:165] Memory required for data: 946351808
I0113 04:13:11.414753  6034 layer_factory.hpp:77] Creating layer upscore2_upscore2_0_split
I0113 04:13:11.414763  6034 net.cpp:100] Creating Layer upscore2_upscore2_0_split
I0113 04:13:11.414767  6034 net.cpp:434] upscore2_upscore2_0_split <- upscore2
I0113 04:13:11.414773  6034 net.cpp:408] upscore2_upscore2_0_split -> upscore2_upscore2_0_split_0
I0113 04:13:11.414782  6034 net.cpp:408] upscore2_upscore2_0_split -> upscore2_upscore2_0_split_1
I0113 04:13:11.414832  6034 net.cpp:150] Setting up upscore2_upscore2_0_split
I0113 04:13:11.414839  6034 net.cpp:157] Top shape: 1 16 26 34 (14144)
I0113 04:13:11.414844  6034 net.cpp:157] Top shape: 1 16 26 34 (14144)
I0113 04:13:11.414849  6034 net.cpp:165] Memory required for data: 946464960
I0113 04:13:11.414854  6034 layer_factory.hpp:77] Creating layer scale_pool4
I0113 04:13:11.414861  6034 net.cpp:100] Creating Layer scale_pool4
I0113 04:13:11.414865  6034 net.cpp:434] scale_pool4 <- pool4_pool4_0_split_1
I0113 04:13:11.414873  6034 net.cpp:408] scale_pool4 -> scale_pool4
I0113 04:13:11.415024  6034 net.cpp:150] Setting up scale_pool4
I0113 04:13:11.415032  6034 net.cpp:157] Top shape: 1 512 36 44 (811008)
I0113 04:13:11.415036  6034 net.cpp:165] Memory required for data: 949708992
I0113 04:13:11.415042  6034 layer_factory.hpp:77] Creating layer score_pool4
I0113 04:13:11.415053  6034 net.cpp:100] Creating Layer score_pool4
I0113 04:13:11.415058  6034 net.cpp:434] score_pool4 <- scale_pool4
I0113 04:13:11.415068  6034 net.cpp:408] score_pool4 -> score_pool4
I0113 04:13:11.416460  6034 net.cpp:150] Setting up score_pool4
I0113 04:13:11.416476  6034 net.cpp:157] Top shape: 1 16 36 44 (25344)
I0113 04:13:11.416479  6034 net.cpp:165] Memory required for data: 949810368
I0113 04:13:11.416487  6034 layer_factory.hpp:77] Creating layer score_pool4c
I0113 04:13:11.416496  6034 net.cpp:100] Creating Layer score_pool4c
I0113 04:13:11.416501  6034 net.cpp:434] score_pool4c <- score_pool4
I0113 04:13:11.416520  6034 net.cpp:434] score_pool4c <- upscore2_upscore2_0_split_0
I0113 04:13:11.416530  6034 net.cpp:408] score_pool4c -> score_pool4c
I0113 04:13:11.416568  6034 net.cpp:150] Setting up score_pool4c
I0113 04:13:11.416574  6034 net.cpp:157] Top shape: 1 16 26 34 (14144)
I0113 04:13:11.416579  6034 net.cpp:165] Memory required for data: 949866944
I0113 04:13:11.416582  6034 layer_factory.hpp:77] Creating layer fuse_pool4
I0113 04:13:11.416592  6034 net.cpp:100] Creating Layer fuse_pool4
I0113 04:13:11.416596  6034 net.cpp:434] fuse_pool4 <- upscore2_upscore2_0_split_1
I0113 04:13:11.416601  6034 net.cpp:434] fuse_pool4 <- score_pool4c
I0113 04:13:11.416607  6034 net.cpp:408] fuse_pool4 -> fuse_pool4
I0113 04:13:11.416640  6034 net.cpp:150] Setting up fuse_pool4
I0113 04:13:11.416646  6034 net.cpp:157] Top shape: 1 16 26 34 (14144)
I0113 04:13:11.416649  6034 net.cpp:165] Memory required for data: 949923520
I0113 04:13:11.416653  6034 layer_factory.hpp:77] Creating layer upscore_pool4
I0113 04:13:11.416666  6034 net.cpp:100] Creating Layer upscore_pool4
I0113 04:13:11.416671  6034 net.cpp:434] upscore_pool4 <- fuse_pool4
I0113 04:13:11.416678  6034 net.cpp:408] upscore_pool4 -> upscore_pool4
I0113 04:13:11.416946  6034 net.cpp:150] Setting up upscore_pool4
I0113 04:13:11.416955  6034 net.cpp:157] Top shape: 1 16 54 70 (60480)
I0113 04:13:11.416960  6034 net.cpp:165] Memory required for data: 950165440
I0113 04:13:11.416965  6034 layer_factory.hpp:77] Creating layer upscore_pool4_upscore_pool4_0_split
I0113 04:13:11.416971  6034 net.cpp:100] Creating Layer upscore_pool4_upscore_pool4_0_split
I0113 04:13:11.416975  6034 net.cpp:434] upscore_pool4_upscore_pool4_0_split <- upscore_pool4
I0113 04:13:11.416981  6034 net.cpp:408] upscore_pool4_upscore_pool4_0_split -> upscore_pool4_upscore_pool4_0_split_0
I0113 04:13:11.416988  6034 net.cpp:408] upscore_pool4_upscore_pool4_0_split -> upscore_pool4_upscore_pool4_0_split_1
I0113 04:13:11.417032  6034 net.cpp:150] Setting up upscore_pool4_upscore_pool4_0_split
I0113 04:13:11.417039  6034 net.cpp:157] Top shape: 1 16 54 70 (60480)
I0113 04:13:11.417044  6034 net.cpp:157] Top shape: 1 16 54 70 (60480)
I0113 04:13:11.417048  6034 net.cpp:165] Memory required for data: 950649280
I0113 04:13:11.417052  6034 layer_factory.hpp:77] Creating layer scale_pool3
I0113 04:13:11.417060  6034 net.cpp:100] Creating Layer scale_pool3
I0113 04:13:11.417065  6034 net.cpp:434] scale_pool3 <- pool3_pool3_0_split_1
I0113 04:13:11.417071  6034 net.cpp:408] scale_pool3 -> scale_pool3
I0113 04:13:11.417183  6034 net.cpp:150] Setting up scale_pool3
I0113 04:13:11.417191  6034 net.cpp:157] Top shape: 1 256 71 88 (1599488)
I0113 04:13:11.417196  6034 net.cpp:165] Memory required for data: 957047232
I0113 04:13:11.417201  6034 layer_factory.hpp:77] Creating layer score_pool3
I0113 04:13:11.417212  6034 net.cpp:100] Creating Layer score_pool3
I0113 04:13:11.417217  6034 net.cpp:434] score_pool3 <- scale_pool3
I0113 04:13:11.417223  6034 net.cpp:408] score_pool3 -> score_pool3
I0113 04:13:11.418553  6034 net.cpp:150] Setting up score_pool3
I0113 04:13:11.418568  6034 net.cpp:157] Top shape: 1 16 71 88 (99968)
I0113 04:13:11.418573  6034 net.cpp:165] Memory required for data: 957447104
I0113 04:13:11.418581  6034 layer_factory.hpp:77] Creating layer score_pool3c
I0113 04:13:11.418591  6034 net.cpp:100] Creating Layer score_pool3c
I0113 04:13:11.418596  6034 net.cpp:434] score_pool3c <- score_pool3
I0113 04:13:11.418601  6034 net.cpp:434] score_pool3c <- upscore_pool4_upscore_pool4_0_split_0
I0113 04:13:11.418611  6034 net.cpp:408] score_pool3c -> score_pool3c
I0113 04:13:11.418647  6034 net.cpp:150] Setting up score_pool3c
I0113 04:13:11.418655  6034 net.cpp:157] Top shape: 1 16 54 70 (60480)
I0113 04:13:11.418659  6034 net.cpp:165] Memory required for data: 957689024
I0113 04:13:11.418663  6034 layer_factory.hpp:77] Creating layer fuse_pool3
I0113 04:13:11.418670  6034 net.cpp:100] Creating Layer fuse_pool3
I0113 04:13:11.418674  6034 net.cpp:434] fuse_pool3 <- upscore_pool4_upscore_pool4_0_split_1
I0113 04:13:11.418684  6034 net.cpp:434] fuse_pool3 <- score_pool3c
I0113 04:13:11.418691  6034 net.cpp:408] fuse_pool3 -> fuse_pool3
I0113 04:13:11.418723  6034 net.cpp:150] Setting up fuse_pool3
I0113 04:13:11.418730  6034 net.cpp:157] Top shape: 1 16 54 70 (60480)
I0113 04:13:11.418735  6034 net.cpp:165] Memory required for data: 957930944
I0113 04:13:11.418738  6034 layer_factory.hpp:77] Creating layer upscore8
I0113 04:13:11.418748  6034 net.cpp:100] Creating Layer upscore8
I0113 04:13:11.418753  6034 net.cpp:434] upscore8 <- fuse_pool3
I0113 04:13:11.418761  6034 net.cpp:408] upscore8 -> upscore8
I0113 04:13:11.419365  6034 net.cpp:150] Setting up upscore8
I0113 04:13:11.419373  6034 net.cpp:157] Top shape: 1 16 440 568 (3998720)
I0113 04:13:11.419378  6034 net.cpp:165] Memory required for data: 973925824
I0113 04:13:11.419384  6034 layer_factory.hpp:77] Creating layer score
I0113 04:13:11.419391  6034 net.cpp:100] Creating Layer score
I0113 04:13:11.419395  6034 net.cpp:434] score <- upscore8
I0113 04:13:11.419400  6034 net.cpp:434] score <- data_data_0_split_1
I0113 04:13:11.419410  6034 net.cpp:408] score -> score
I0113 04:13:11.419440  6034 net.cpp:150] Setting up score
I0113 04:13:11.419447  6034 net.cpp:157] Top shape: 1 16 366 500 (2928000)
I0113 04:13:11.419450  6034 net.cpp:165] Memory required for data: 985637824
I0113 04:13:11.419455  6034 layer_factory.hpp:77] Creating layer loss
I0113 04:13:11.419463  6034 net.cpp:100] Creating Layer loss
I0113 04:13:11.419467  6034 net.cpp:434] loss <- score
I0113 04:13:11.419472  6034 net.cpp:434] loss <- label
I0113 04:13:11.419479  6034 net.cpp:408] loss -> loss
I0113 04:13:11.419489  6034 layer_factory.hpp:77] Creating layer loss
…
