…
test_initialization: false
average_loss: 20
iter_size: 1
I0217 06:59:56.784991  2677 solver.cpp:81] Creating training net from train_net file: train.prototxt
I0217 06:59:56.787300  2677 net.cpp:58] Initializing net from parameters: 
state {
  phase: TRAIN
}
layer {
  name: "data"
  type: "Python"
  top: "data"
  top: "label"
  python_param {
    module: "voc_layers"
    layer: "CatSBDDSegDataLayer"
    param_str: "{\'sbdd_dir\': \'../data/sbdd-subsampl/dataset\', \'seed\': 1337, \'split\': \'train_pt4_sglinst\', \'mean\': (104.00699, 116.66877, 122.67892)}"
  }
}
layer {
  name: "conv1_1"
  type: "Convolution"
  bottom: "data"
  top: "conv1_1"
  param {
    lr_mult: 1
    decay_mult: 1
  }
  param {
    lr_mult: 2
    decay_mult: 0
  }
  convolution_param {
    num_output: 64
    pad: 100
    kernel_size: 3
    stride: 1
    weight_filler {
      type: "xavier"
    }
  }
}
layer {
  name: "relu1_1"
  type: "ReLU"
  bottom: "conv1_1"
  top: "conv1_1"
}
layer {
  name: "conv1_2"
  type: "Convolution"
  bottom: "conv1_1"
  top: "conv1_2"
  param {
    lr_mult: 1
    decay_mult: 1
  }
  param {
    lr_mult: 2
    decay_mult: 0
  }
  convolution_param {
    num_output: 64
    pad: 1
    kernel_size: 3
    stride: 1
    weight_filler {
      type: "xavier"
    }
  }
}
layer {
  name: "relu1_2"
  type: "ReLU"
  bottom: "conv1_2"
  top: "conv1_2"
}
layer {
  name: "pool1"
  type: "Pooling"
  bottom: "conv1_2"
  top: "pool1"
  pooling_param {
    pool: MAX
    kernel_size: 2
    stride: 2
  }
}
layer {
  name: "conv2_1"
  type: "Convolution"
  bottom: "pool1"
  top: "conv2_1"
  param {
    lr_mult: 1
    decay_mult: 1
  }
  param {
    lr_mult: 2
    decay_mult: 0
  }
  convolution_param {
    num_output: 128
    pad: 1
    kernel_size: 3
    stride: 1
    weight_filler {
      type: "xavier"
    }
  }
}
layer {
  name: "relu2_1"
  type: "ReLU"
  bottom: "conv2_1"
  top: "conv2_1"
}
layer {
  name: "conv2_2"
  type: "Convolution"
  bottom: "conv2_1"
  top: "conv2_2"
  param {
    lr_mult: 1
    decay_mult: 1
  }
  param {
    lr_mult: 2
    decay_mult: 0
  }
  convolution_param {
    num_output: 128
    pad: 1
    kernel_size: 3
    stride: 1
    weight_filler {
      type: "xavier"
    }
  }
}
layer {
  name: "relu2_2"
  type: "ReLU"
  bottom: "conv2_2"
  top: "conv2_2"
}
layer {
  name: "pool2"
  type: "Pooling"
  bottom: "conv2_2"
  top: "pool2"
  pooling_param {
    pool: MAX
    kernel_size: 2
    stride: 2
  }
}
layer {
  name: "conv3_1"
  type: "Convolution"
  bottom: "pool2"
  top: "conv3_1"
  param {
    lr_mult: 1
    decay_mult: 1
  }
  param {
    lr_mult: 2
    decay_mult: 0
  }
  convolution_param {
    num_output: 256
    pad: 1
    kernel_size: 3
    stride: 1
    weight_filler {
      type: "xavier"
    }
  }
}
layer {
  name: "relu3_1"
  type: "ReLU"
  bottom: "conv3_1"
  top: "conv3_1"
}
layer {
  name: "conv3_2"
  type: "Convolution"
  bottom: "conv3_1"
  top: "conv3_2"
  param {
    lr_mult: 1
    decay_mult: 1
  }
  param {
    lr_mult: 2
    decay_mult: 0
  }
  convolution_param {
    num_output: 256
    pad: 1
    kernel_size: 3
    stride: 1
    weight_filler {
      type: "xavier"
    }
  }
}
layer {
  name: "relu3_2"
  type: "ReLU"
  bottom: "conv3_2"
  top: "conv3_2"
}
layer {
  name: "conv3_3"
  type: "Convolution"
  bottom: "conv3_2"
  top: "conv3_3"
  param {
    lr_mult: 1
    decay_mult: 1
  }
  param {
    lr_mult: 2
    decay_mult: 0
  }
  convolution_param {
    num_output: 256
    pad: 1
    kernel_size: 3
    stride: 1
    weight_filler {
      type: "xavier"
    }
  }
}
layer {
  name: "relu3_3"
  type: "ReLU"
  bottom: "conv3_3"
  top: "conv3_3"
}
layer {
  name: "pool3"
  type: "Pooling"
  bottom: "conv3_3"
  top: "pool3"
  pooling_param {
    pool: MAX
    kernel_size: 2
    stride: 2
  }
}
layer {
  name: "conv4_1"
  type: "Convolution"
  bottom: "pool3"
  top: "conv4_1"
  param {
    lr_mult: 1
    decay_mult: 1
  }
  param {
    lr_mult: 2
    decay_mult: 0
  }
  convolution_param {
    num_output: 512
    pad: 1
    kernel_size: 3
    stride: 1
    weight_filler {
      type: "xavier"
    }
  }
}
layer {
  name: "relu4_1"
  type: "ReLU"
  bottom: "conv4_1"
  top: "conv4_1"
}
layer {
  name: "conv4_2"
  type: "Convolution"
  bottom: "conv4_1"
  top: "conv4_2"
  param {
    lr_mult: 1
    decay_mult: 1
  }
  param {
    lr_mult: 2
    decay_mult: 0
  }
  convolution_param {
    num_output: 512
    pad: 1
    kernel_size: 3
    stride: 1
    weight_filler {
      type: "xavier"
    }
  }
}
layer {
  name: "relu4_2"
  type: "ReLU"
  bottom: "conv4_2"
  top: "conv4_2"
}
layer {
  name: "conv4_3"
  type: "Convolution"
  bottom: "conv4_2"
  top: "conv4_3"
  param {
    lr_mult: 1
    decay_mult: 1
  }
  param {
    lr_mult: 2
    decay_mult: 0
  }
  convolution_param {
    num_output: 512
    pad: 1
    kernel_size: 3
    stride: 1
    weight_filler {
      type: "xavier"
    }
  }
}
layer {
  name: "relu4_3"
  type: "ReLU"
  bottom: "conv4_3"
  top: "conv4_3"
}
layer {
  name: "pool4"
  type: "Pooling"
  bottom: "conv4_3"
  top: "pool4"
  pooling_param {
    pool: MAX
    kernel_size: 2
    stride: 2
  }
}
layer {
  name: "conv5_1"
  type: "Convolution"
  bottom: "pool4"
  top: "conv5_1"
  param {
    lr_mult: 1
    decay_mult: 1
  }
  param {
    lr_mult: 2
    decay_mult: 0
  }
  convolution_param {
    num_output: 512
    pad: 1
    kernel_size: 3
    stride: 1
    weight_filler {
      type: "xavier"
    }
  }
}
layer {
  name: "relu5_1"
  type: "ReLU"
  bottom: "conv5_1"
  top: "conv5_1"
}
layer {
  name: "conv5_2"
  type: "Convolution"
  bottom: "conv5_1"
  top: "conv5_2"
  param {
    lr_mult: 1
    decay_mult: 1
  }
  param {
    lr_mult: 2
    decay_mult: 0
  }
  convolution_param {
    num_output: 512
    pad: 1
    kernel_size: 3
    stride: 1
    weight_filler {
      type: "xavier"
    }
  }
}
layer {
  name: "relu5_2"
  type: "ReLU"
  bottom: "conv5_2"
  top: "conv5_2"
}
layer {
  name: "conv5_3"
  type: "Convolution"
  bottom: "conv5_2"
  top: "conv5_3"
  param {
    lr_mult: 1
    decay_mult: 1
  }
  param {
    lr_mult: 2
    decay_mult: 0
  }
  convolution_param {
    num_output: 512
    pad: 1
    kernel_size: 3
    stride: 1
    weight_filler {
      type: "xavier"
    }
  }
}
layer {
  name: "relu5_3"
  type: "ReLU"
  bottom: "conv5_3"
  top: "conv5_3"
}
layer {
  name: "pool5"
  type: "Pooling"
  bottom: "conv5_3"
  top: "pool5"
  pooling_param {
    pool: MAX
    kernel_size: 2
    stride: 2
  }
}
layer {
  name: "fc6"
  type: "Convolution"
  bottom: "pool5"
  top: "fc6"
  param {
    lr_mult: 1
    decay_mult: 1
  }
  param {
    lr_mult: 2
    decay_mult: 0
  }
  convolution_param {
    num_output: 4096
    pad: 0
    kernel_size: 7
    stride: 1
    weight_filler {
      type: "xavier"
    }
  }
}
layer {
  name: "relu6"
  type: "ReLU"
  bottom: "fc6"
  top: "fc6"
}
layer {
  name: "drop6"
  type: "Dropout"
  bottom: "fc6"
  top: "fc6"
  dropout_param {
    dropout_ratio: 0.5
  }
}
layer {
  name: "fc7"
  type: "Convolution"
  bottom: "fc6"
  top: "fc7"
  param {
    lr_mult: 1
    decay_mult: 1
  }
  param {
    lr_mult: 2
    decay_mult: 0
  }
  convolution_param {
    num_output: 4096
    pad: 0
    kernel_size: 1
    stride: 1
    weight_filler {
      type: "xavier"
    }
  }
}
layer {
  name: "relu7"
  type: "ReLU"
  bottom: "fc7"
  top: "fc7"
}
layer {
  name: "drop7"
  type: "Dropout"
  bottom: "fc7"
  top: "fc7"
  dropout_param {
    dropout_ratio: 0.5
  }
}
layer {
  name: "score_fr"
  type: "Convolution"
  bottom: "fc7"
  top: "score_fr"
  param {
    lr_mult: 1
    decay_mult: 1
  }
  param {
    lr_mult: 2
    decay_mult: 0
  }
  convolution_param {
    num_output: 5
    pad: 0
    kernel_size: 1
    weight_filler {
      type: "xavier"
    }
  }
}
layer {
  name: "upscore2"
  type: "Deconvolution"
  bottom: "score_fr"
  top: "upscore2"
  param {
    lr_mult: 0
  }
  convolution_param {
    num_output: 5
    bias_term: false
    kernel_size: 4
    stride: 2
    weight_filler {
      type: "xavier"
    }
  }
}
layer {
  name: "scale_pool4"
  type: "Scale"
  bottom: "pool4"
  top: "scale_pool4"
  param {
    lr_mult: 0
  }
  scale_param {
    filler {
      type: "constant"
      value: 0.01
    }
  }
}
layer {
  name: "score_pool4"
  type: "Convolution"
  bottom: "scale_pool4"
  top: "score_pool4"
  param {
    lr_mult: 1
    decay_mult: 1
  }
  param {
    lr_mult: 2
    decay_mult: 0
  }
  convolution_param {
    num_output: 5
    pad: 0
    kernel_size: 1
    weight_filler {
      type: "xavier"
    }
  }
}
layer {
  name: "score_pool4c"
  type: "Crop"
  bottom: "score_pool4"
  bottom: "upscore2"
  top: "score_pool4c"
  crop_param {
    axis: 2
    offset: 5
  }
}
layer {
  name: "fuse_pool4"
  type: "Eltwise"
  bottom: "upscore2"
  bottom: "score_pool4c"
  top: "fuse_pool4"
  eltwise_param {
    operation: SUM
  }
}
layer {
  name: "upscore_pool4"
  type: "Deconvolution"
  bottom: "fuse_pool4"
  top: "upscore_pool4"
  param {
    lr_mult: 0
  }
  convolution_param {
    num_output: 5
    bias_term: false
    kernel_size: 4
    stride: 2
    weight_filler {
      type: "xavier"
    }
  }
}
layer {
  name: "scale_pool3"
  type: "Scale"
  bottom: "pool3"
  top: "scale_pool3"
  param {
    lr_mult: 0
  }
  scale_param {
    filler {
      type: "constant"
      value: 0.0001
    }
  }
}
layer {
  name: "score_pool3"
  type: "Convolution"
  bottom: "scale_pool3"
  top: "score_pool3"
  param {
    lr_mult: 1
    decay_mult: 1
  }
  param {
    lr_mult: 2
    decay_mult: 0
  }
  convolution_param {
    num_output: 5
    pad: 0
    kernel_size: 1
    weight_filler {
      type: "xavier"
    }
  }
}
layer {
  name: "score_pool3c"
  type: "Crop"
  bottom: "score_pool3"
  bottom: "upscore_pool4"
  top: "score_pool3c"
  crop_param {
    axis: 2
    offset: 9
  }
}
layer {
  name: "fuse_pool3"
  type: "Eltwise"
  bottom: "upscore_pool4"
  bottom: "score_pool3c"
  top: "fuse_pool3"
  eltwise_param {
    operation: SUM
  }
}
layer {
  name: "upscore8"
  type: "Deconvolution"
  bottom: "fuse_pool3"
  top: "upscore8"
  param {
    lr_mult: 0
  }
  convolution_param {
    num_output: 5
    bias_term: false
    kernel_size: 16
    stride: 8
    weight_filler {
      type: "xavier"
    }
  }
}
layer {
  name: "score"
  type: "Crop"
  bottom: "upscore8"
  bottom: "data"
  top: "score"
  crop_param {
    axis: 2
    offset: 31
  }
}
layer {
  name: "loss"
  type: "SoftmaxWithLoss"
  bottom: "score"
  bottom: "label"
  top: "loss"
  loss_param {
    ignore_label: 255
    normalize: false
  }
}
I0217 06:59:56.787703  2677 layer_factory.hpp:77] Creating layer data
I0217 06:59:56.789475  2677 net.cpp:100] Creating Layer data
I0217 06:59:56.789499  2677 net.cpp:408] data -> data
I0217 06:59:56.789525  2677 net.cpp:408] data -> label
I0217 06:59:56.836124  2677 net.cpp:150] Setting up data
I0217 06:59:56.836181  2677 net.cpp:157] Top shape: 1 3 94 125 (35250)
I0217 06:59:56.836194  2677 net.cpp:157] Top shape: 1 1 94 125 (11750)
I0217 06:59:56.836201  2677 net.cpp:165] Memory required for data: 188000
I0217 06:59:56.836215  2677 layer_factory.hpp:77] Creating layer data_data_0_split
I0217 06:59:56.836247  2677 net.cpp:100] Creating Layer data_data_0_split
I0217 06:59:56.836257  2677 net.cpp:434] data_data_0_split <- data
I0217 06:59:56.836272  2677 net.cpp:408] data_data_0_split -> data_data_0_split_0
I0217 06:59:56.836292  2677 net.cpp:408] data_data_0_split -> data_data_0_split_1
I0217 06:59:56.836349  2677 net.cpp:150] Setting up data_data_0_split
I0217 06:59:56.836362  2677 net.cpp:157] Top shape: 1 3 94 125 (35250)
I0217 06:59:56.836372  2677 net.cpp:157] Top shape: 1 3 94 125 (35250)
I0217 06:59:56.836380  2677 net.cpp:165] Memory required for data: 470000
I0217 06:59:56.836388  2677 layer_factory.hpp:77] Creating layer conv1_1
I0217 06:59:56.836417  2677 net.cpp:100] Creating Layer conv1_1
I0217 06:59:56.836426  2677 net.cpp:434] conv1_1 <- data_data_0_split_0
I0217 06:59:56.836454  2677 net.cpp:408] conv1_1 -> conv1_1
I0217 06:59:57.102996  2677 net.cpp:150] Setting up conv1_1
I0217 06:59:57.103058  2677 net.cpp:157] Top shape: 1 64 292 323 (6036224)
I0217 06:59:57.103067  2677 net.cpp:165] Memory required for data: 24614896
I0217 06:59:57.103099  2677 layer_factory.hpp:77] Creating layer relu1_1
I0217 06:59:57.103121  2677 net.cpp:100] Creating Layer relu1_1
I0217 06:59:57.103130  2677 net.cpp:434] relu1_1 <- conv1_1
I0217 06:59:57.103144  2677 net.cpp:395] relu1_1 -> conv1_1 (in-place)
I0217 06:59:57.103647  2677 net.cpp:150] Setting up relu1_1
I0217 06:59:57.103667  2677 net.cpp:157] Top shape: 1 64 292 323 (6036224)
I0217 06:59:57.103677  2677 net.cpp:165] Memory required for data: 48759792
I0217 06:59:57.103684  2677 layer_factory.hpp:77] Creating layer conv1_2
I0217 06:59:57.103713  2677 net.cpp:100] Creating Layer conv1_2
I0217 06:59:57.103723  2677 net.cpp:434] conv1_2 <- conv1_1
I0217 06:59:57.103737  2677 net.cpp:408] conv1_2 -> conv1_2
I0217 06:59:57.106379  2677 net.cpp:150] Setting up conv1_2
I0217 06:59:57.106401  2677 net.cpp:157] Top shape: 1 64 292 323 (6036224)
I0217 06:59:57.106410  2677 net.cpp:165] Memory required for data: 72904688
I0217 06:59:57.106428  2677 layer_factory.hpp:77] Creating layer relu1_2
I0217 06:59:57.106441  2677 net.cpp:100] Creating Layer relu1_2
I0217 06:59:57.106449  2677 net.cpp:434] relu1_2 <- conv1_2
I0217 06:59:57.106461  2677 net.cpp:395] relu1_2 -> conv1_2 (in-place)
I0217 06:59:57.106956  2677 net.cpp:150] Setting up relu1_2
I0217 06:59:57.106976  2677 net.cpp:157] Top shape: 1 64 292 323 (6036224)
I0217 06:59:57.106983  2677 net.cpp:165] Memory required for data: 97049584
I0217 06:59:57.106992  2677 layer_factory.hpp:77] Creating layer pool1
I0217 06:59:57.107009  2677 net.cpp:100] Creating Layer pool1
I0217 06:59:57.107017  2677 net.cpp:434] pool1 <- conv1_2
I0217 06:59:57.107033  2677 net.cpp:408] pool1 -> pool1
I0217 06:59:57.107103  2677 net.cpp:150] Setting up pool1
I0217 06:59:57.107118  2677 net.cpp:157] Top shape: 1 64 146 162 (1513728)
I0217 06:59:57.107126  2677 net.cpp:165] Memory required for data: 103104496
I0217 06:59:57.107134  2677 layer_factory.hpp:77] Creating layer conv2_1
I0217 06:59:57.107151  2677 net.cpp:100] Creating Layer conv2_1
I0217 06:59:57.107158  2677 net.cpp:434] conv2_1 <- pool1
I0217 06:59:57.107173  2677 net.cpp:408] conv2_1 -> conv2_1
I0217 06:59:57.110488  2677 net.cpp:150] Setting up conv2_1
I0217 06:59:57.110512  2677 net.cpp:157] Top shape: 1 128 146 162 (3027456)
I0217 06:59:57.110519  2677 net.cpp:165] Memory required for data: 115214320
I0217 06:59:57.110538  2677 layer_factory.hpp:77] Creating layer relu2_1
I0217 06:59:57.110553  2677 net.cpp:100] Creating Layer relu2_1
I0217 06:59:57.110561  2677 net.cpp:434] relu2_1 <- conv2_1
I0217 06:59:57.110575  2677 net.cpp:395] relu2_1 -> conv2_1 (in-place)
I0217 06:59:57.110865  2677 net.cpp:150] Setting up relu2_1
I0217 06:59:57.110882  2677 net.cpp:157] Top shape: 1 128 146 162 (3027456)
I0217 06:59:57.110889  2677 net.cpp:165] Memory required for data: 127324144
I0217 06:59:57.110898  2677 layer_factory.hpp:77] Creating layer conv2_2
I0217 06:59:57.110915  2677 net.cpp:100] Creating Layer conv2_2
I0217 06:59:57.110924  2677 net.cpp:434] conv2_2 <- conv2_1
I0217 06:59:57.110944  2677 net.cpp:408] conv2_2 -> conv2_2
I0217 06:59:57.113952  2677 net.cpp:150] Setting up conv2_2
I0217 06:59:57.113976  2677 net.cpp:157] Top shape: 1 128 146 162 (3027456)
I0217 06:59:57.113983  2677 net.cpp:165] Memory required for data: 139433968
I0217 06:59:57.113998  2677 layer_factory.hpp:77] Creating layer relu2_2
I0217 06:59:57.114013  2677 net.cpp:100] Creating Layer relu2_2
I0217 06:59:57.114022  2677 net.cpp:434] relu2_2 <- conv2_2
I0217 06:59:57.114037  2677 net.cpp:395] relu2_2 -> conv2_2 (in-place)
I0217 06:59:57.114521  2677 net.cpp:150] Setting up relu2_2
I0217 06:59:57.114539  2677 net.cpp:157] Top shape: 1 128 146 162 (3027456)
I0217 06:59:57.114547  2677 net.cpp:165] Memory required for data: 151543792
I0217 06:59:57.114557  2677 layer_factory.hpp:77] Creating layer pool2
I0217 06:59:57.114581  2677 net.cpp:100] Creating Layer pool2
I0217 06:59:57.114589  2677 net.cpp:434] pool2 <- conv2_2
I0217 06:59:57.114601  2677 net.cpp:408] pool2 -> pool2
I0217 06:59:57.114672  2677 net.cpp:150] Setting up pool2
I0217 06:59:57.114686  2677 net.cpp:157] Top shape: 1 128 73 81 (756864)
I0217 06:59:57.114694  2677 net.cpp:165] Memory required for data: 154571248
I0217 06:59:57.114701  2677 layer_factory.hpp:77] Creating layer conv3_1
I0217 06:59:57.114720  2677 net.cpp:100] Creating Layer conv3_1
I0217 06:59:57.114732  2677 net.cpp:434] conv3_1 <- pool2
I0217 06:59:57.114743  2677 net.cpp:408] conv3_1 -> conv3_1
I0217 06:59:57.120493  2677 net.cpp:150] Setting up conv3_1
I0217 06:59:57.120517  2677 net.cpp:157] Top shape: 1 256 73 81 (1513728)
I0217 06:59:57.120527  2677 net.cpp:165] Memory required for data: 160626160
I0217 06:59:57.120545  2677 layer_factory.hpp:77] Creating layer relu3_1
I0217 06:59:57.120558  2677 net.cpp:100] Creating Layer relu3_1
I0217 06:59:57.120566  2677 net.cpp:434] relu3_1 <- conv3_1
I0217 06:59:57.120578  2677 net.cpp:395] relu3_1 -> conv3_1 (in-place)
I0217 06:59:57.121069  2677 net.cpp:150] Setting up relu3_1
I0217 06:59:57.121091  2677 net.cpp:157] Top shape: 1 256 73 81 (1513728)
I0217 06:59:57.121099  2677 net.cpp:165] Memory required for data: 166681072
I0217 06:59:57.121109  2677 layer_factory.hpp:77] Creating layer conv3_2
I0217 06:59:57.121126  2677 net.cpp:100] Creating Layer conv3_2
I0217 06:59:57.121135  2677 net.cpp:434] conv3_2 <- conv3_1
I0217 06:59:57.121148  2677 net.cpp:408] conv3_2 -> conv3_2
I0217 06:59:57.129637  2677 net.cpp:150] Setting up conv3_2
I0217 06:59:57.129665  2677 net.cpp:157] Top shape: 1 256 73 81 (1513728)
I0217 06:59:57.129673  2677 net.cpp:165] Memory required for data: 172735984
I0217 06:59:57.129688  2677 layer_factory.hpp:77] Creating layer relu3_2
I0217 06:59:57.129703  2677 net.cpp:100] Creating Layer relu3_2
I0217 06:59:57.129712  2677 net.cpp:434] relu3_2 <- conv3_2
I0217 06:59:57.129724  2677 net.cpp:395] relu3_2 -> conv3_2 (in-place)
I0217 06:59:57.130007  2677 net.cpp:150] Setting up relu3_2
I0217 06:59:57.130023  2677 net.cpp:157] Top shape: 1 256 73 81 (1513728)
I0217 06:59:57.130030  2677 net.cpp:165] Memory required for data: 178790896
I0217 06:59:57.130038  2677 layer_factory.hpp:77] Creating layer conv3_3
I0217 06:59:57.130061  2677 net.cpp:100] Creating Layer conv3_3
I0217 06:59:57.130070  2677 net.cpp:434] conv3_3 <- conv3_2
I0217 06:59:57.130084  2677 net.cpp:408] conv3_3 -> conv3_3
I0217 06:59:57.138573  2677 net.cpp:150] Setting up conv3_3
I0217 06:59:57.138595  2677 net.cpp:157] Top shape: 1 256 73 81 (1513728)
I0217 06:59:57.138604  2677 net.cpp:165] Memory required for data: 184845808
I0217 06:59:57.138618  2677 layer_factory.hpp:77] Creating layer relu3_3
I0217 06:59:57.138630  2677 net.cpp:100] Creating Layer relu3_3
I0217 06:59:57.138639  2677 net.cpp:434] relu3_3 <- conv3_3
I0217 06:59:57.138650  2677 net.cpp:395] relu3_3 -> conv3_3 (in-place)
I0217 06:59:57.139142  2677 net.cpp:150] Setting up relu3_3
I0217 06:59:57.139161  2677 net.cpp:157] Top shape: 1 256 73 81 (1513728)
I0217 06:59:57.139169  2677 net.cpp:165] Memory required for data: 190900720
I0217 06:59:57.139178  2677 layer_factory.hpp:77] Creating layer pool3
I0217 06:59:57.139192  2677 net.cpp:100] Creating Layer pool3
I0217 06:59:57.139201  2677 net.cpp:434] pool3 <- conv3_3
I0217 06:59:57.139215  2677 net.cpp:408] pool3 -> pool3
I0217 06:59:57.139282  2677 net.cpp:150] Setting up pool3
I0217 06:59:57.139295  2677 net.cpp:157] Top shape: 1 256 37 41 (388352)
I0217 06:59:57.139303  2677 net.cpp:165] Memory required for data: 192454128
I0217 06:59:57.139312  2677 layer_factory.hpp:77] Creating layer pool3_pool3_0_split
I0217 06:59:57.139328  2677 net.cpp:100] Creating Layer pool3_pool3_0_split
I0217 06:59:57.139336  2677 net.cpp:434] pool3_pool3_0_split <- pool3
I0217 06:59:57.139348  2677 net.cpp:408] pool3_pool3_0_split -> pool3_pool3_0_split_0
I0217 06:59:57.139359  2677 net.cpp:408] pool3_pool3_0_split -> pool3_pool3_0_split_1
I0217 06:59:57.139426  2677 net.cpp:150] Setting up pool3_pool3_0_split
I0217 06:59:57.139439  2677 net.cpp:157] Top shape: 1 256 37 41 (388352)
I0217 06:59:57.139449  2677 net.cpp:157] Top shape: 1 256 37 41 (388352)
I0217 06:59:57.139456  2677 net.cpp:165] Memory required for data: 195560944
I0217 06:59:57.139464  2677 layer_factory.hpp:77] Creating layer conv4_1
I0217 06:59:57.139482  2677 net.cpp:100] Creating Layer conv4_1
I0217 06:59:57.139490  2677 net.cpp:434] conv4_1 <- pool3_pool3_0_split_0
I0217 06:59:57.139505  2677 net.cpp:408] conv4_1 -> conv4_1
I0217 06:59:57.155421  2677 net.cpp:150] Setting up conv4_1
I0217 06:59:57.155450  2677 net.cpp:157] Top shape: 1 512 37 41 (776704)
I0217 06:59:57.155459  2677 net.cpp:165] Memory required for data: 198667760
I0217 06:59:57.155474  2677 layer_factory.hpp:77] Creating layer relu4_1
I0217 06:59:57.155490  2677 net.cpp:100] Creating Layer relu4_1
I0217 06:59:57.155500  2677 net.cpp:434] relu4_1 <- conv4_1
I0217 06:59:57.155511  2677 net.cpp:395] relu4_1 -> conv4_1 (in-place)
I0217 06:59:57.156008  2677 net.cpp:150] Setting up relu4_1
I0217 06:59:57.156028  2677 net.cpp:157] Top shape: 1 512 37 41 (776704)
I0217 06:59:57.156036  2677 net.cpp:165] Memory required for data: 201774576
I0217 06:59:57.156044  2677 layer_factory.hpp:77] Creating layer conv4_2
I0217 06:59:57.156062  2677 net.cpp:100] Creating Layer conv4_2
I0217 06:59:57.156071  2677 net.cpp:434] conv4_2 <- conv4_1
I0217 06:59:57.156087  2677 net.cpp:408] conv4_2 -> conv4_2
I0217 06:59:57.184314  2677 net.cpp:150] Setting up conv4_2
I0217 06:59:57.184353  2677 net.cpp:157] Top shape: 1 512 37 41 (776704)
I0217 06:59:57.184362  2677 net.cpp:165] Memory required for data: 204881392
I0217 06:59:57.184391  2677 layer_factory.hpp:77] Creating layer relu4_2
I0217 06:59:57.184411  2677 net.cpp:100] Creating Layer relu4_2
I0217 06:59:57.184420  2677 net.cpp:434] relu4_2 <- conv4_2
I0217 06:59:57.184432  2677 net.cpp:395] relu4_2 -> conv4_2 (in-place)
I0217 06:59:57.184718  2677 net.cpp:150] Setting up relu4_2
I0217 06:59:57.184733  2677 net.cpp:157] Top shape: 1 512 37 41 (776704)
I0217 06:59:57.184741  2677 net.cpp:165] Memory required for data: 207988208
I0217 06:59:57.184751  2677 layer_factory.hpp:77] Creating layer conv4_3
I0217 06:59:57.184769  2677 net.cpp:100] Creating Layer conv4_3
I0217 06:59:57.184778  2677 net.cpp:434] conv4_3 <- conv4_2
I0217 06:59:57.184793  2677 net.cpp:408] conv4_3 -> conv4_3
I0217 06:59:57.213016  2677 net.cpp:150] Setting up conv4_3
I0217 06:59:57.213053  2677 net.cpp:157] Top shape: 1 512 37 41 (776704)
I0217 06:59:57.213063  2677 net.cpp:165] Memory required for data: 211095024
I0217 06:59:57.213078  2677 layer_factory.hpp:77] Creating layer relu4_3
I0217 06:59:57.213094  2677 net.cpp:100] Creating Layer relu4_3
I0217 06:59:57.213104  2677 net.cpp:434] relu4_3 <- conv4_3
I0217 06:59:57.213116  2677 net.cpp:395] relu4_3 -> conv4_3 (in-place)
I0217 06:59:57.213611  2677 net.cpp:150] Setting up relu4_3
I0217 06:59:57.213632  2677 net.cpp:157] Top shape: 1 512 37 41 (776704)
I0217 06:59:57.213649  2677 net.cpp:165] Memory required for data: 214201840
I0217 06:59:57.213659  2677 layer_factory.hpp:77] Creating layer pool4
I0217 06:59:57.213673  2677 net.cpp:100] Creating Layer pool4
I0217 06:59:57.213681  2677 net.cpp:434] pool4 <- conv4_3
I0217 06:59:57.213693  2677 net.cpp:408] pool4 -> pool4
I0217 06:59:57.213769  2677 net.cpp:150] Setting up pool4
I0217 06:59:57.213783  2677 net.cpp:157] Top shape: 1 512 19 21 (204288)
I0217 06:59:57.213789  2677 net.cpp:165] Memory required for data: 215018992
I0217 06:59:57.213798  2677 layer_factory.hpp:77] Creating layer pool4_pool4_0_split
I0217 06:59:57.213810  2677 net.cpp:100] Creating Layer pool4_pool4_0_split
I0217 06:59:57.213819  2677 net.cpp:434] pool4_pool4_0_split <- pool4
I0217 06:59:57.213831  2677 net.cpp:408] pool4_pool4_0_split -> pool4_pool4_0_split_0
I0217 06:59:57.213845  2677 net.cpp:408] pool4_pool4_0_split -> pool4_pool4_0_split_1
I0217 06:59:57.213902  2677 net.cpp:150] Setting up pool4_pool4_0_split
I0217 06:59:57.213928  2677 net.cpp:157] Top shape: 1 512 19 21 (204288)
I0217 06:59:57.213938  2677 net.cpp:157] Top shape: 1 512 19 21 (204288)
I0217 06:59:57.213945  2677 net.cpp:165] Memory required for data: 216653296
I0217 06:59:57.213953  2677 layer_factory.hpp:77] Creating layer conv5_1
I0217 06:59:57.213975  2677 net.cpp:100] Creating Layer conv5_1
I0217 06:59:57.213984  2677 net.cpp:434] conv5_1 <- pool4_pool4_0_split_0
I0217 06:59:57.213997  2677 net.cpp:408] conv5_1 -> conv5_1
I0217 06:59:57.242290  2677 net.cpp:150] Setting up conv5_1
I0217 06:59:57.242331  2677 net.cpp:157] Top shape: 1 512 19 21 (204288)
I0217 06:59:57.242339  2677 net.cpp:165] Memory required for data: 217470448
I0217 06:59:57.242357  2677 layer_factory.hpp:77] Creating layer relu5_1
I0217 06:59:57.242372  2677 net.cpp:100] Creating Layer relu5_1
I0217 06:59:57.242380  2677 net.cpp:434] relu5_1 <- conv5_1
I0217 06:59:57.242396  2677 net.cpp:395] relu5_1 -> conv5_1 (in-place)
I0217 06:59:57.242902  2677 net.cpp:150] Setting up relu5_1
I0217 06:59:57.242921  2677 net.cpp:157] Top shape: 1 512 19 21 (204288)
I0217 06:59:57.242929  2677 net.cpp:165] Memory required for data: 218287600
I0217 06:59:57.242938  2677 layer_factory.hpp:77] Creating layer conv5_2
I0217 06:59:57.242957  2677 net.cpp:100] Creating Layer conv5_2
I0217 06:59:57.242966  2677 net.cpp:434] conv5_2 <- conv5_1
I0217 06:59:57.242982  2677 net.cpp:408] conv5_2 -> conv5_2
I0217 06:59:57.271317  2677 net.cpp:150] Setting up conv5_2
I0217 06:59:57.271358  2677 net.cpp:157] Top shape: 1 512 19 21 (204288)
I0217 06:59:57.271365  2677 net.cpp:165] Memory required for data: 219104752
I0217 06:59:57.271381  2677 layer_factory.hpp:77] Creating layer relu5_2
I0217 06:59:57.271395  2677 net.cpp:100] Creating Layer relu5_2
I0217 06:59:57.271405  2677 net.cpp:434] relu5_2 <- conv5_2
I0217 06:59:57.271421  2677 net.cpp:395] relu5_2 -> conv5_2 (in-place)
I0217 06:59:57.271708  2677 net.cpp:150] Setting up relu5_2
I0217 06:59:57.271724  2677 net.cpp:157] Top shape: 1 512 19 21 (204288)
I0217 06:59:57.271733  2677 net.cpp:165] Memory required for data: 219921904
I0217 06:59:57.271740  2677 layer_factory.hpp:77] Creating layer conv5_3
I0217 06:59:57.271767  2677 net.cpp:100] Creating Layer conv5_3
I0217 06:59:57.271776  2677 net.cpp:434] conv5_3 <- conv5_2
I0217 06:59:57.271791  2677 net.cpp:408] conv5_3 -> conv5_3
I0217 06:59:57.300289  2677 net.cpp:150] Setting up conv5_3
I0217 06:59:57.300328  2677 net.cpp:157] Top shape: 1 512 19 21 (204288)
I0217 06:59:57.300336  2677 net.cpp:165] Memory required for data: 220739056
I0217 06:59:57.300353  2677 layer_factory.hpp:77] Creating layer relu5_3
I0217 06:59:57.300370  2677 net.cpp:100] Creating Layer relu5_3
I0217 06:59:57.300379  2677 net.cpp:434] relu5_3 <- conv5_3
I0217 06:59:57.300391  2677 net.cpp:395] relu5_3 -> conv5_3 (in-place)
I0217 06:59:57.301115  2677 net.cpp:150] Setting up relu5_3
I0217 06:59:57.301133  2677 net.cpp:157] Top shape: 1 512 19 21 (204288)
I0217 06:59:57.301141  2677 net.cpp:165] Memory required for data: 221556208
I0217 06:59:57.301151  2677 layer_factory.hpp:77] Creating layer pool5
I0217 06:59:57.301167  2677 net.cpp:100] Creating Layer pool5
I0217 06:59:57.301177  2677 net.cpp:434] pool5 <- conv5_3
I0217 06:59:57.301190  2677 net.cpp:408] pool5 -> pool5
I0217 06:59:57.301262  2677 net.cpp:150] Setting up pool5
I0217 06:59:57.301275  2677 net.cpp:157] Top shape: 1 512 10 11 (56320)
I0217 06:59:57.301283  2677 net.cpp:165] Memory required for data: 221781488
I0217 06:59:57.301291  2677 layer_factory.hpp:77] Creating layer fc6
I0217 06:59:57.301311  2677 net.cpp:100] Creating Layer fc6
I0217 06:59:57.301319  2677 net.cpp:434] fc6 <- pool5
I0217 06:59:57.301334  2677 net.cpp:408] fc6 -> fc6
I0217 06:59:58.389358  2677 net.cpp:150] Setting up fc6
I0217 06:59:58.389405  2677 net.cpp:157] Top shape: 1 4096 4 5 (81920)
I0217 06:59:58.389410  2677 net.cpp:165] Memory required for data: 222109168
I0217 06:59:58.389423  2677 layer_factory.hpp:77] Creating layer relu6
I0217 06:59:58.389437  2677 net.cpp:100] Creating Layer relu6
I0217 06:59:58.389453  2677 net.cpp:434] relu6 <- fc6
I0217 06:59:58.389466  2677 net.cpp:395] relu6 -> fc6 (in-place)
I0217 06:59:58.389861  2677 net.cpp:150] Setting up relu6
I0217 06:59:58.389876  2677 net.cpp:157] Top shape: 1 4096 4 5 (81920)
I0217 06:59:58.389881  2677 net.cpp:165] Memory required for data: 222436848
I0217 06:59:58.389886  2677 layer_factory.hpp:77] Creating layer drop6
I0217 06:59:58.389899  2677 net.cpp:100] Creating Layer drop6
I0217 06:59:58.389904  2677 net.cpp:434] drop6 <- fc6
I0217 06:59:58.389912  2677 net.cpp:395] drop6 -> fc6 (in-place)
I0217 06:59:58.389950  2677 net.cpp:150] Setting up drop6
I0217 06:59:58.389958  2677 net.cpp:157] Top shape: 1 4096 4 5 (81920)
I0217 06:59:58.389962  2677 net.cpp:165] Memory required for data: 222764528
I0217 06:59:58.389966  2677 layer_factory.hpp:77] Creating layer fc7
I0217 06:59:58.389981  2677 net.cpp:100] Creating Layer fc7
I0217 06:59:58.389984  2677 net.cpp:434] fc7 <- fc6
I0217 06:59:58.389991  2677 net.cpp:408] fc7 -> fc7
I0217 06:59:58.512945  2677 net.cpp:150] Setting up fc7
I0217 06:59:58.512986  2677 net.cpp:157] Top shape: 1 4096 4 5 (81920)
I0217 06:59:58.512992  2677 net.cpp:165] Memory required for data: 223092208
I0217 06:59:58.513005  2677 layer_factory.hpp:77] Creating layer relu7
I0217 06:59:58.513017  2677 net.cpp:100] Creating Layer relu7
I0217 06:59:58.513023  2677 net.cpp:434] relu7 <- fc7
I0217 06:59:58.513031  2677 net.cpp:395] relu7 -> fc7 (in-place)
I0217 06:59:58.513243  2677 net.cpp:150] Setting up relu7
I0217 06:59:58.513254  2677 net.cpp:157] Top shape: 1 4096 4 5 (81920)
I0217 06:59:58.513258  2677 net.cpp:165] Memory required for data: 223419888
I0217 06:59:58.513263  2677 layer_factory.hpp:77] Creating layer drop7
I0217 06:59:58.513272  2677 net.cpp:100] Creating Layer drop7
I0217 06:59:58.513276  2677 net.cpp:434] drop7 <- fc7
I0217 06:59:58.513283  2677 net.cpp:395] drop7 -> fc7 (in-place)
I0217 06:59:58.513317  2677 net.cpp:150] Setting up drop7
I0217 06:59:58.513324  2677 net.cpp:157] Top shape: 1 4096 4 5 (81920)
I0217 06:59:58.513327  2677 net.cpp:165] Memory required for data: 223747568
I0217 06:59:58.513332  2677 layer_factory.hpp:77] Creating layer score_fr
I0217 06:59:58.513345  2677 net.cpp:100] Creating Layer score_fr
I0217 06:59:58.513350  2677 net.cpp:434] score_fr <- fc7
I0217 06:59:58.513357  2677 net.cpp:408] score_fr -> score_fr
I0217 06:59:58.514722  2677 net.cpp:150] Setting up score_fr
I0217 06:59:58.514739  2677 net.cpp:157] Top shape: 1 5 4 5 (100)
I0217 06:59:58.514744  2677 net.cpp:165] Memory required for data: 223747968
I0217 06:59:58.514751  2677 layer_factory.hpp:77] Creating layer upscore2
I0217 06:59:58.514767  2677 net.cpp:100] Creating Layer upscore2
I0217 06:59:58.514772  2677 net.cpp:434] upscore2 <- score_fr
I0217 06:59:58.514781  2677 net.cpp:408] upscore2 -> upscore2
I0217 06:59:58.515002  2677 net.cpp:150] Setting up upscore2
I0217 06:59:58.515009  2677 net.cpp:157] Top shape: 1 5 10 12 (600)
I0217 06:59:58.515013  2677 net.cpp:165] Memory required for data: 223750368
I0217 06:59:58.515031  2677 layer_factory.hpp:77] Creating layer upscore2_upscore2_0_split
I0217 06:59:58.515040  2677 net.cpp:100] Creating Layer upscore2_upscore2_0_split
I0217 06:59:58.515044  2677 net.cpp:434] upscore2_upscore2_0_split <- upscore2
I0217 06:59:58.515051  2677 net.cpp:408] upscore2_upscore2_0_split -> upscore2_upscore2_0_split_0
I0217 06:59:58.515058  2677 net.cpp:408] upscore2_upscore2_0_split -> upscore2_upscore2_0_split_1
I0217 06:59:58.515099  2677 net.cpp:150] Setting up upscore2_upscore2_0_split
I0217 06:59:58.515105  2677 net.cpp:157] Top shape: 1 5 10 12 (600)
I0217 06:59:58.515110  2677 net.cpp:157] Top shape: 1 5 10 12 (600)
I0217 06:59:58.515115  2677 net.cpp:165] Memory required for data: 223755168
I0217 06:59:58.515118  2677 layer_factory.hpp:77] Creating layer scale_pool4
I0217 06:59:58.515131  2677 net.cpp:100] Creating Layer scale_pool4
I0217 06:59:58.515136  2677 net.cpp:434] scale_pool4 <- pool4_pool4_0_split_1
I0217 06:59:58.515143  2677 net.cpp:408] scale_pool4 -> scale_pool4
I0217 06:59:58.515257  2677 net.cpp:150] Setting up scale_pool4
I0217 06:59:58.515269  2677 net.cpp:157] Top shape: 1 512 19 21 (204288)
I0217 06:59:58.515272  2677 net.cpp:165] Memory required for data: 224572320
I0217 06:59:58.515278  2677 layer_factory.hpp:77] Creating layer score_pool4
I0217 06:59:58.515287  2677 net.cpp:100] Creating Layer score_pool4
I0217 06:59:58.515292  2677 net.cpp:434] score_pool4 <- scale_pool4
I0217 06:59:58.515300  2677 net.cpp:408] score_pool4 -> score_pool4
I0217 06:59:58.516577  2677 net.cpp:150] Setting up score_pool4
I0217 06:59:58.516593  2677 net.cpp:157] Top shape: 1 5 19 21 (1995)
I0217 06:59:58.516598  2677 net.cpp:165] Memory required for data: 224580300
I0217 06:59:58.516607  2677 layer_factory.hpp:77] Creating layer score_pool4c
I0217 06:59:58.516616  2677 net.cpp:100] Creating Layer score_pool4c
I0217 06:59:58.516621  2677 net.cpp:434] score_pool4c <- score_pool4
I0217 06:59:58.516628  2677 net.cpp:434] score_pool4c <- upscore2_upscore2_0_split_0
I0217 06:59:58.516636  2677 net.cpp:408] score_pool4c -> score_pool4c
I0217 06:59:58.516674  2677 net.cpp:150] Setting up score_pool4c
I0217 06:59:58.516680  2677 net.cpp:157] Top shape: 1 5 10 12 (600)
I0217 06:59:58.516685  2677 net.cpp:165] Memory required for data: 224582700
I0217 06:59:58.516688  2677 layer_factory.hpp:77] Creating layer fuse_pool4
I0217 06:59:58.516698  2677 net.cpp:100] Creating Layer fuse_pool4
I0217 06:59:58.516703  2677 net.cpp:434] fuse_pool4 <- upscore2_upscore2_0_split_1
I0217 06:59:58.516708  2677 net.cpp:434] fuse_pool4 <- score_pool4c
I0217 06:59:58.516715  2677 net.cpp:408] fuse_pool4 -> fuse_pool4
I0217 06:59:58.516744  2677 net.cpp:150] Setting up fuse_pool4
I0217 06:59:58.516752  2677 net.cpp:157] Top shape: 1 5 10 12 (600)
I0217 06:59:58.516754  2677 net.cpp:165] Memory required for data: 224585100
I0217 06:59:58.516759  2677 layer_factory.hpp:77] Creating layer upscore_pool4
I0217 06:59:58.516769  2677 net.cpp:100] Creating Layer upscore_pool4
I0217 06:59:58.516773  2677 net.cpp:434] upscore_pool4 <- fuse_pool4
I0217 06:59:58.516782  2677 net.cpp:408] upscore_pool4 -> upscore_pool4
I0217 06:59:58.516993  2677 net.cpp:150] Setting up upscore_pool4
I0217 06:59:58.517000  2677 net.cpp:157] Top shape: 1 5 22 26 (2860)
I0217 06:59:58.517004  2677 net.cpp:165] Memory required for data: 224596540
I0217 06:59:58.517010  2677 layer_factory.hpp:77] Creating layer upscore_pool4_upscore_pool4_0_split
I0217 06:59:58.517019  2677 net.cpp:100] Creating Layer upscore_pool4_upscore_pool4_0_split
I0217 06:59:58.517024  2677 net.cpp:434] upscore_pool4_upscore_pool4_0_split <- upscore_pool4
I0217 06:59:58.517030  2677 net.cpp:408] upscore_pool4_upscore_pool4_0_split -> upscore_pool4_upscore_pool4_0_split_0
I0217 06:59:58.517035  2677 net.cpp:408] upscore_pool4_upscore_pool4_0_split -> upscore_pool4_upscore_pool4_0_split_1
I0217 06:59:58.517073  2677 net.cpp:150] Setting up upscore_pool4_upscore_pool4_0_split
I0217 06:59:58.517081  2677 net.cpp:157] Top shape: 1 5 22 26 (2860)
I0217 06:59:58.517086  2677 net.cpp:157] Top shape: 1 5 22 26 (2860)
I0217 06:59:58.517089  2677 net.cpp:165] Memory required for data: 224619420
I0217 06:59:58.517093  2677 layer_factory.hpp:77] Creating layer scale_pool3
I0217 06:59:58.517101  2677 net.cpp:100] Creating Layer scale_pool3
I0217 06:59:58.517105  2677 net.cpp:434] scale_pool3 <- pool3_pool3_0_split_1
I0217 06:59:58.517112  2677 net.cpp:408] scale_pool3 -> scale_pool3
I0217 06:59:58.517207  2677 net.cpp:150] Setting up scale_pool3
I0217 06:59:58.517215  2677 net.cpp:157] Top shape: 1 256 37 41 (388352)
I0217 06:59:58.517218  2677 net.cpp:165] Memory required for data: 226172828
I0217 06:59:58.517225  2677 layer_factory.hpp:77] Creating layer score_pool3
I0217 06:59:58.517235  2677 net.cpp:100] Creating Layer score_pool3
I0217 06:59:58.517240  2677 net.cpp:434] score_pool3 <- scale_pool3
I0217 06:59:58.517246  2677 net.cpp:408] score_pool3 -> score_pool3
I0217 06:59:58.518679  2677 net.cpp:150] Setting up score_pool3
I0217 06:59:58.518697  2677 net.cpp:157] Top shape: 1 5 37 41 (7585)
I0217 06:59:58.518707  2677 net.cpp:165] Memory required for data: 226203168
I0217 06:59:58.518717  2677 layer_factory.hpp:77] Creating layer score_pool3c
I0217 06:59:58.518725  2677 net.cpp:100] Creating Layer score_pool3c
I0217 06:59:58.518730  2677 net.cpp:434] score_pool3c <- score_pool3
I0217 06:59:58.518736  2677 net.cpp:434] score_pool3c <- upscore_pool4_upscore_pool4_0_split_0
I0217 06:59:58.518744  2677 net.cpp:408] score_pool3c -> score_pool3c
I0217 06:59:58.518779  2677 net.cpp:150] Setting up score_pool3c
I0217 06:59:58.518785  2677 net.cpp:157] Top shape: 1 5 22 26 (2860)
I0217 06:59:58.518790  2677 net.cpp:165] Memory required for data: 226214608
I0217 06:59:58.518793  2677 layer_factory.hpp:77] Creating layer fuse_pool3
I0217 06:59:58.518803  2677 net.cpp:100] Creating Layer fuse_pool3
I0217 06:59:58.518807  2677 net.cpp:434] fuse_pool3 <- upscore_pool4_upscore_pool4_0_split_1
I0217 06:59:58.518812  2677 net.cpp:434] fuse_pool3 <- score_pool3c
I0217 06:59:58.518818  2677 net.cpp:408] fuse_pool3 -> fuse_pool3
I0217 06:59:58.518846  2677 net.cpp:150] Setting up fuse_pool3
I0217 06:59:58.518853  2677 net.cpp:157] Top shape: 1 5 22 26 (2860)
I0217 06:59:58.518857  2677 net.cpp:165] Memory required for data: 226226048
I0217 06:59:58.518860  2677 layer_factory.hpp:77] Creating layer upscore8
I0217 06:59:58.518872  2677 net.cpp:100] Creating Layer upscore8
I0217 06:59:58.518875  2677 net.cpp:434] upscore8 <- fuse_pool3
I0217 06:59:58.518883  2677 net.cpp:408] upscore8 -> upscore8
I0217 06:59:58.519134  2677 net.cpp:150] Setting up upscore8
I0217 06:59:58.519143  2677 net.cpp:157] Top shape: 1 5 184 216 (198720)
I0217 06:59:58.519147  2677 net.cpp:165] Memory required for data: 227020928
I0217 06:59:58.519152  2677 layer_factory.hpp:77] Creating layer score
I0217 06:59:58.519160  2677 net.cpp:100] Creating Layer score
I0217 06:59:58.519165  2677 net.cpp:434] score <- upscore8
I0217 06:59:58.519170  2677 net.cpp:434] score <- data_data_0_split_1
I0217 06:59:58.519176  2677 net.cpp:408] score -> score
I0217 06:59:58.519203  2677 net.cpp:150] Setting up score
I0217 06:59:58.519209  2677 net.cpp:157] Top shape: 1 5 94 125 (58750)
I0217 06:59:58.519213  2677 net.cpp:165] Memory required for data: 227255928
I0217 06:59:58.519217  2677 layer_factory.hpp:77] Creating layer loss
I0217 06:59:58.519227  2677 net.cpp:100] Creating Layer loss
I0217 06:59:58.519230  2677 net.cpp:434] loss <- score
I0217 06:59:58.519235  2677 net.cpp:434] loss <- label
I0217 06:59:58.519243  2677 net.cpp:408] loss -> loss
I0217 06:59:58.519254  2677 layer_factory.hpp:77] Creating layer loss
…
I0217 06:59:58.519958  2677 net.cpp:283] Network initialization done.
I0217 06:59:58.521142  2677 solver.cpp:181] Creating test net (#0) specified by test_net file: val.prototxt
I0217 06:59:58.521512  2677 net.cpp:58] Initializing net from parameters: 
state {
  phase: TEST
}
layer {
  name: "data"
  type: "Python"
  top: "data"
  top: "label"
  python_param {
    module: "voc_layers"
    layer: "CatVOCSegDataLayer"
    param_str: "{\'voc_dir\': \'../data/pascal-subsampl/VOC2011\', \'seed\': 1337, \'split\': \'seg11valid_pt4_sglinst\', \'mean\': (104.00699, 116.66877, 122.67892)}"
  }
}
layer {
  name: "conv1_1"
  type: "Convolution"
  bottom: "data"
  top: "conv1_1"
  param {
    lr_mult: 1
    decay_mult: 1
  }
  param {
    lr_mult: 2
    decay_mult: 0
  }
  convolution_param {
    num_output: 64
    pad: 100
    kernel_size: 3
    stride: 1
    weight_filler {
      type: "xavier"
    }
  }
}
layer {
  name: "relu1_1"
  type: "ReLU"
  bottom: "conv1_1"
  top: "conv1_1"
}
layer {
  name: "conv1_2"
  type: "Convolution"
  bottom: "conv1_1"
  top: "conv1_2"
  param {
    lr_mult: 1
    decay_mult: 1
  }
  param {
    lr_mult: 2
    decay_mult: 0
  }
  convolution_param {
    num_output: 64
    pad: 1
    kernel_size: 3
    stride: 1
    weight_filler {
      type: "xavier"
    }
  }
}
layer {
  name: "relu1_2"
  type: "ReLU"
  bottom: "conv1_2"
  top: "conv1_2"
}
layer {
  name: "pool1"
  type: "Pooling"
  bottom: "conv1_2"
  top: "pool1"
  pooling_param {
    pool: MAX
    kernel_size: 2
    stride: 2
  }
}
layer {
  name: "conv2_1"
  type: "Convolution"
  bottom: "pool1"
  top: "conv2_1"
  param {
    lr_mult: 1
    decay_mult: 1
  }
  param {
    lr_mult: 2
    decay_mult: 0
  }
  convolution_param {
    num_output: 128
    pad: 1
    kernel_size: 3
    stride: 1
    weight_filler {
      type: "xavier"
    }
  }
}
layer {
  name: "relu2_1"
  type: "ReLU"
  bottom: "conv2_1"
  top: "conv2_1"
}
layer {
  name: "conv2_2"
  type: "Convolution"
  bottom: "conv2_1"
  top: "conv2_2"
  param {
    lr_mult: 1
    decay_mult: 1
  }
  param {
    lr_mult: 2
    decay_mult: 0
  }
  convolution_param {
    num_output: 128
    pad: 1
    kernel_size: 3
    stride: 1
    weight_filler {
      type: "xavier"
    }
  }
}
layer {
  name: "relu2_2"
  type: "ReLU"
  bottom: "conv2_2"
  top: "conv2_2"
}
layer {
  name: "pool2"
  type: "Pooling"
  bottom: "conv2_2"
  top: "pool2"
  pooling_param {
    pool: MAX
    kernel_size: 2
    stride: 2
  }
}
layer {
  name: "conv3_1"
  type: "Convolution"
  bottom: "pool2"
  top: "conv3_1"
  param {
    lr_mult: 1
    decay_mult: 1
  }
  param {
    lr_mult: 2
    decay_mult: 0
  }
  convolution_param {
    num_output: 256
    pad: 1
    kernel_size: 3
    stride: 1
    weight_filler {
      type: "xavier"
    }
  }
}
layer {
  name: "relu3_1"
  type: "ReLU"
  bottom: "conv3_1"
  top: "conv3_1"
}
layer {
  name: "conv3_2"
  type: "Convolution"
  bottom: "conv3_1"
  top: "conv3_2"
  param {
    lr_mult: 1
    decay_mult: 1
  }
  param {
    lr_mult: 2
    decay_mult: 0
  }
  convolution_param {
    num_output: 256
    pad: 1
    kernel_size: 3
    stride: 1
    weight_filler {
      type: "xavier"
    }
  }
}
layer {
  name: "relu3_2"
  type: "ReLU"
  bottom: "conv3_2"
  top: "conv3_2"
}
layer {
  name: "conv3_3"
  type: "Convolution"
  bottom: "conv3_2"
  top: "conv3_3"
  param {
    lr_mult: 1
    decay_mult: 1
  }
  param {
    lr_mult: 2
    decay_mult: 0
  }
  convolution_param {
    num_output: 256
    pad: 1
    kernel_size: 3
    stride: 1
    weight_filler {
      type: "xavier"
    }
  }
}
layer {
  name: "relu3_3"
  type: "ReLU"
  bottom: "conv3_3"
  top: "conv3_3"
}
layer {
  name: "pool3"
  type: "Pooling"
  bottom: "conv3_3"
  top: "pool3"
  pooling_param {
    pool: MAX
    kernel_size: 2
    stride: 2
  }
}
layer {
  name: "conv4_1"
  type: "Convolution"
  bottom: "pool3"
  top: "conv4_1"
  param {
    lr_mult: 1
    decay_mult: 1
  }
  param {
    lr_mult: 2
    decay_mult: 0
  }
  convolution_param {
    num_output: 512
    pad: 1
    kernel_size: 3
    stride: 1
    weight_filler {
      type: "xavier"
    }
  }
}
layer {
  name: "relu4_1"
  type: "ReLU"
  bottom: "conv4_1"
  top: "conv4_1"
}
layer {
  name: "conv4_2"
  type: "Convolution"
  bottom: "conv4_1"
  top: "conv4_2"
  param {
    lr_mult: 1
    decay_mult: 1
  }
  param {
    lr_mult: 2
    decay_mult: 0
  }
  convolution_param {
    num_output: 512
    pad: 1
    kernel_size: 3
    stride: 1
    weight_filler {
      type: "xavier"
    }
  }
}
layer {
  name: "relu4_2"
  type: "ReLU"
  bottom: "conv4_2"
  top: "conv4_2"
}
layer {
  name: "conv4_3"
  type: "Convolution"
  bottom: "conv4_2"
  top: "conv4_3"
  param {
    lr_mult: 1
    decay_mult: 1
  }
  param {
    lr_mult: 2
    decay_mult: 0
  }
  convolution_param {
    num_output: 512
    pad: 1
    kernel_size: 3
    stride: 1
    weight_filler {
      type: "xavier"
    }
  }
}
layer {
  name: "relu4_3"
  type: "ReLU"
  bottom: "conv4_3"
  top: "conv4_3"
}
layer {
  name: "pool4"
  type: "Pooling"
  bottom: "conv4_3"
  top: "pool4"
  pooling_param {
    pool: MAX
    kernel_size: 2
    stride: 2
  }
}
layer {
  name: "conv5_1"
  type: "Convolution"
  bottom: "pool4"
  top: "conv5_1"
  param {
    lr_mult: 1
    decay_mult: 1
  }
  param {
    lr_mult: 2
    decay_mult: 0
  }
  convolution_param {
    num_output: 512
    pad: 1
    kernel_size: 3
    stride: 1
    weight_filler {
      type: "xavier"
    }
  }
}
layer {
  name: "relu5_1"
  type: "ReLU"
  bottom: "conv5_1"
  top: "conv5_1"
}
layer {
  name: "conv5_2"
  type: "Convolution"
  bottom: "conv5_1"
  top: "conv5_2"
  param {
    lr_mult: 1
    decay_mult: 1
  }
  param {
    lr_mult: 2
    decay_mult: 0
  }
  convolution_param {
    num_output: 512
    pad: 1
    kernel_size: 3
    stride: 1
    weight_filler {
      type: "xavier"
    }
  }
}
layer {
  name: "relu5_2"
  type: "ReLU"
  bottom: "conv5_2"
  top: "conv5_2"
}
layer {
  name: "conv5_3"
  type: "Convolution"
  bottom: "conv5_2"
  top: "conv5_3"
  param {
    lr_mult: 1
    decay_mult: 1
  }
  param {
    lr_mult: 2
    decay_mult: 0
  }
  convolution_param {
    num_output: 512
    pad: 1
    kernel_size: 3
    stride: 1
    weight_filler {
      type: "xavier"
    }
  }
}
layer {
  name: "relu5_3"
  type: "ReLU"
  bottom: "conv5_3"
  top: "conv5_3"
}
layer {
  name: "pool5"
  type: "Pooling"
  bottom: "conv5_3"
  top: "pool5"
  pooling_param {
    pool: MAX
    kernel_size: 2
    stride: 2
  }
}
layer {
  name: "fc6"
  type: "Convolution"
  bottom: "pool5"
  top: "fc6"
  param {
    lr_mult: 1
    decay_mult: 1
  }
  param {
    lr_mult: 2
    decay_mult: 0
  }
  convolution_param {
    num_output: 4096
    pad: 0
    kernel_size: 7
    stride: 1
    weight_filler {
      type: "xavier"
    }
  }
}
layer {
  name: "relu6"
  type: "ReLU"
  bottom: "fc6"
  top: "fc6"
}
layer {
  name: "drop6"
  type: "Dropout"
  bottom: "fc6"
  top: "fc6"
  dropout_param {
    dropout_ratio: 0.5
  }
}
layer {
  name: "fc7"
  type: "Convolution"
  bottom: "fc6"
  top: "fc7"
  param {
    lr_mult: 1
    decay_mult: 1
  }
  param {
    lr_mult: 2
    decay_mult: 0
  }
  convolution_param {
    num_output: 4096
    pad: 0
    kernel_size: 1
    stride: 1
    weight_filler {
      type: "xavier"
    }
  }
}
layer {
  name: "relu7"
  type: "ReLU"
  bottom: "fc7"
  top: "fc7"
}
layer {
  name: "drop7"
  type: "Dropout"
  bottom: "fc7"
  top: "fc7"
  dropout_param {
    dropout_ratio: 0.5
  }
}
layer {
  name: "score_fr"
  type: "Convolution"
  bottom: "fc7"
  top: "score_fr"
  param {
    lr_mult: 1
    decay_mult: 1
  }
  param {
    lr_mult: 2
    decay_mult: 0
  }
  convolution_param {
    num_output: 5
    pad: 0
    kernel_size: 1
    weight_filler {
      type: "xavier"
    }
  }
}
layer {
  name: "upscore2"
  type: "Deconvolution"
  bottom: "score_fr"
  top: "upscore2"
  param {
    lr_mult: 0
  }
  convolution_param {
    num_output: 5
    bias_term: false
    kernel_size: 4
    stride: 2
    weight_filler {
      type: "xavier"
    }
  }
}
layer {
  name: "scale_pool4"
  type: "Scale"
  bottom: "pool4"
  top: "scale_pool4"
  param {
    lr_mult: 0
  }
  scale_param {
    filler {
      type: "constant"
      value: 0.01
    }
  }
}
layer {
  name: "score_pool4"
  type: "Convolution"
  bottom: "scale_pool4"
  top: "score_pool4"
  param {
    lr_mult: 1
    decay_mult: 1
  }
  param {
    lr_mult: 2
    decay_mult: 0
  }
  convolution_param {
    num_output: 5
    pad: 0
    kernel_size: 1
    weight_filler {
      type: "xavier"
    }
  }
}
layer {
  name: "score_pool4c"
  type: "Crop"
  bottom: "score_pool4"
  bottom: "upscore2"
  top: "score_pool4c"
  crop_param {
    axis: 2
    offset: 5
  }
}
layer {
  name: "fuse_pool4"
  type: "Eltwise"
  bottom: "upscore2"
  bottom: "score_pool4c"
  top: "fuse_pool4"
  eltwise_param {
    operation: SUM
  }
}
layer {
  name: "upscore_pool4"
  type: "Deconvolution"
  bottom: "fuse_pool4"
  top: "upscore_pool4"
  param {
    lr_mult: 0
  }
  convolution_param {
    num_output: 5
    bias_term: false
    kernel_size: 4
    stride: 2
    weight_filler {
      type: "xavier"
    }
  }
}
layer {
  name: "scale_pool3"
  type: "Scale"
  bottom: "pool3"
  top: "scale_pool3"
  param {
    lr_mult: 0
  }
  scale_param {
    filler {
      type: "constant"
      value: 0.0001
    }
  }
}
layer {
  name: "score_pool3"
  type: "Convolution"
  bottom: "scale_pool3"
  top: "score_pool3"
  param {
    lr_mult: 1
    decay_mult: 1
  }
  param {
    lr_mult: 2
    decay_mult: 0
  }
  convolution_param {
    num_output: 5
    pad: 0
    kernel_size: 1
    weight_filler {
      type: "xavier"
    }
  }
}
layer {
  name: "score_pool3c"
  type: "Crop"
  bottom: "score_pool3"
  bottom: "upscore_pool4"
  top: "score_pool3c"
  crop_param {
    axis: 2
    offset: 9
  }
}
layer {
  name: "fuse_pool3"
  type: "Eltwise"
  bottom: "upscore_pool4"
  bottom: "score_pool3c"
  top: "fuse_pool3"
  eltwise_param {
    operation: SUM
  }
}
layer {
  name: "upscore8"
  type: "Deconvolution"
  bottom: "fuse_pool3"
  top: "upscore8"
  param {
    lr_mult: 0
  }
  convolution_param {
    num_output: 5
    bias_term: false
    kernel_size: 16
    stride: 8
    weight_filler {
      type: "xavier"
    }
  }
}
layer {
  name: "score"
  type: "Crop"
  bottom: "upscore8"
  bottom: "data"
  top: "score"
  crop_param {
    axis: 2
    offset: 31
  }
}
layer {
  name: "loss"
  type: "SoftmaxWithLoss"
  bottom: "score"
  bottom: "label"
  top: "loss"
  loss_param {
    ignore_label: 255
    normalize: false
  }
}
I0217 06:59:58.521745  2677 layer_factory.hpp:77] Creating layer data
I0217 06:59:58.521827  2677 net.cpp:100] Creating Layer data
I0217 06:59:58.521836  2677 net.cpp:408] data -> data
I0217 06:59:58.521843  2677 net.cpp:408] data -> label
I0217 06:59:58.523592  2677 net.cpp:150] Setting up data
I0217 06:59:58.523609  2677 net.cpp:157] Top shape: 1 3 84 125 (31500)
I0217 06:59:58.523615  2677 net.cpp:157] Top shape: 1 1 84 125 (10500)
I0217 06:59:58.523620  2677 net.cpp:165] Memory required for data: 168000
I0217 06:59:58.523625  2677 layer_factory.hpp:77] Creating layer data_data_0_split
I0217 06:59:58.523633  2677 net.cpp:100] Creating Layer data_data_0_split
I0217 06:59:58.523638  2677 net.cpp:434] data_data_0_split <- data
I0217 06:59:58.523644  2677 net.cpp:408] data_data_0_split -> data_data_0_split_0
I0217 06:59:58.523653  2677 net.cpp:408] data_data_0_split -> data_data_0_split_1
I0217 06:59:58.523694  2677 net.cpp:150] Setting up data_data_0_split
I0217 06:59:58.523700  2677 net.cpp:157] Top shape: 1 3 84 125 (31500)
I0217 06:59:58.523705  2677 net.cpp:157] Top shape: 1 3 84 125 (31500)
I0217 06:59:58.523710  2677 net.cpp:165] Memory required for data: 420000
I0217 06:59:58.523713  2677 layer_factory.hpp:77] Creating layer conv1_1
I0217 06:59:58.523722  2677 net.cpp:100] Creating Layer conv1_1
I0217 06:59:58.523727  2677 net.cpp:434] conv1_1 <- data_data_0_split_0
I0217 06:59:58.523733  2677 net.cpp:408] conv1_1 -> conv1_1
I0217 06:59:58.525594  2677 net.cpp:150] Setting up conv1_1
I0217 06:59:58.525611  2677 net.cpp:157] Top shape: 1 64 282 323 (5829504)
I0217 06:59:58.525616  2677 net.cpp:165] Memory required for data: 23738016
I0217 06:59:58.525629  2677 layer_factory.hpp:77] Creating layer relu1_1
I0217 06:59:58.525635  2677 net.cpp:100] Creating Layer relu1_1
I0217 06:59:58.525647  2677 net.cpp:434] relu1_1 <- conv1_1
I0217 06:59:58.525653  2677 net.cpp:395] relu1_1 -> conv1_1 (in-place)
I0217 06:59:58.525840  2677 net.cpp:150] Setting up relu1_1
I0217 06:59:58.525851  2677 net.cpp:157] Top shape: 1 64 282 323 (5829504)
I0217 06:59:58.525854  2677 net.cpp:165] Memory required for data: 47056032
I0217 06:59:58.525858  2677 layer_factory.hpp:77] Creating layer conv1_2
I0217 06:59:58.525869  2677 net.cpp:100] Creating Layer conv1_2
I0217 06:59:58.525873  2677 net.cpp:434] conv1_2 <- conv1_1
I0217 06:59:58.525880  2677 net.cpp:408] conv1_2 -> conv1_2
I0217 06:59:58.527341  2677 net.cpp:150] Setting up conv1_2
I0217 06:59:58.527364  2677 net.cpp:157] Top shape: 1 64 282 323 (5829504)
I0217 06:59:58.527367  2677 net.cpp:165] Memory required for data: 70374048
I0217 06:59:58.527379  2677 layer_factory.hpp:77] Creating layer relu1_2
I0217 06:59:58.527385  2677 net.cpp:100] Creating Layer relu1_2
I0217 06:59:58.527390  2677 net.cpp:434] relu1_2 <- conv1_2
I0217 06:59:58.527397  2677 net.cpp:395] relu1_2 -> conv1_2 (in-place)
I0217 06:59:58.527778  2677 net.cpp:150] Setting up relu1_2
I0217 06:59:58.527791  2677 net.cpp:157] Top shape: 1 64 282 323 (5829504)
I0217 06:59:58.527796  2677 net.cpp:165] Memory required for data: 93692064
I0217 06:59:58.527801  2677 layer_factory.hpp:77] Creating layer pool1
I0217 06:59:58.527807  2677 net.cpp:100] Creating Layer pool1
I0217 06:59:58.527812  2677 net.cpp:434] pool1 <- conv1_2
I0217 06:59:58.527820  2677 net.cpp:408] pool1 -> pool1
I0217 06:59:58.527873  2677 net.cpp:150] Setting up pool1
I0217 06:59:58.527880  2677 net.cpp:157] Top shape: 1 64 141 162 (1461888)
I0217 06:59:58.527884  2677 net.cpp:165] Memory required for data: 99539616
I0217 06:59:58.527889  2677 layer_factory.hpp:77] Creating layer conv2_1
I0217 06:59:58.527901  2677 net.cpp:100] Creating Layer conv2_1
I0217 06:59:58.527905  2677 net.cpp:434] conv2_1 <- pool1
I0217 06:59:58.527912  2677 net.cpp:408] conv2_1 -> conv2_1
I0217 06:59:58.529539  2677 net.cpp:150] Setting up conv2_1
I0217 06:59:58.529554  2677 net.cpp:157] Top shape: 1 128 141 162 (2923776)
I0217 06:59:58.529559  2677 net.cpp:165] Memory required for data: 111234720
I0217 06:59:58.529570  2677 layer_factory.hpp:77] Creating layer relu2_1
I0217 06:59:58.529580  2677 net.cpp:100] Creating Layer relu2_1
I0217 06:59:58.529585  2677 net.cpp:434] relu2_1 <- conv2_1
I0217 06:59:58.529592  2677 net.cpp:395] relu2_1 -> conv2_1 (in-place)
I0217 06:59:58.529995  2677 net.cpp:150] Setting up relu2_1
I0217 06:59:58.530009  2677 net.cpp:157] Top shape: 1 128 141 162 (2923776)
I0217 06:59:58.530014  2677 net.cpp:165] Memory required for data: 122929824
I0217 06:59:58.530019  2677 layer_factory.hpp:77] Creating layer conv2_2
I0217 06:59:58.530032  2677 net.cpp:100] Creating Layer conv2_2
I0217 06:59:58.530037  2677 net.cpp:434] conv2_2 <- conv2_1
I0217 06:59:58.530045  2677 net.cpp:408] conv2_2 -> conv2_2
I0217 06:59:58.532696  2677 net.cpp:150] Setting up conv2_2
I0217 06:59:58.532711  2677 net.cpp:157] Top shape: 1 128 141 162 (2923776)
I0217 06:59:58.532716  2677 net.cpp:165] Memory required for data: 134624928
I0217 06:59:58.532724  2677 layer_factory.hpp:77] Creating layer relu2_2
I0217 06:59:58.532734  2677 net.cpp:100] Creating Layer relu2_2
I0217 06:59:58.532738  2677 net.cpp:434] relu2_2 <- conv2_2
I0217 06:59:58.532745  2677 net.cpp:395] relu2_2 -> conv2_2 (in-place)
I0217 06:59:58.532945  2677 net.cpp:150] Setting up relu2_2
I0217 06:59:58.532955  2677 net.cpp:157] Top shape: 1 128 141 162 (2923776)
I0217 06:59:58.532960  2677 net.cpp:165] Memory required for data: 146320032
I0217 06:59:58.532964  2677 layer_factory.hpp:77] Creating layer pool2
I0217 06:59:58.532973  2677 net.cpp:100] Creating Layer pool2
I0217 06:59:58.532977  2677 net.cpp:434] pool2 <- conv2_2
I0217 06:59:58.532984  2677 net.cpp:408] pool2 -> pool2
I0217 06:59:58.533035  2677 net.cpp:150] Setting up pool2
I0217 06:59:58.533042  2677 net.cpp:157] Top shape: 1 128 71 81 (736128)
I0217 06:59:58.533046  2677 net.cpp:165] Memory required for data: 149264544
I0217 06:59:58.533051  2677 layer_factory.hpp:77] Creating layer conv3_1
I0217 06:59:58.533061  2677 net.cpp:100] Creating Layer conv3_1
I0217 06:59:58.533066  2677 net.cpp:434] conv3_1 <- pool2
I0217 06:59:58.533073  2677 net.cpp:408] conv3_1 -> conv3_1
I0217 06:59:58.536463  2677 net.cpp:150] Setting up conv3_1
I0217 06:59:58.536479  2677 net.cpp:157] Top shape: 1 256 71 81 (1472256)
I0217 06:59:58.536484  2677 net.cpp:165] Memory required for data: 155153568
I0217 06:59:58.536495  2677 layer_factory.hpp:77] Creating layer relu3_1
I0217 06:59:58.536504  2677 net.cpp:100] Creating Layer relu3_1
I0217 06:59:58.536509  2677 net.cpp:434] relu3_1 <- conv3_1
I0217 06:59:58.536520  2677 net.cpp:395] relu3_1 -> conv3_1 (in-place)
I0217 06:59:58.536906  2677 net.cpp:150] Setting up relu3_1
I0217 06:59:58.536921  2677 net.cpp:157] Top shape: 1 256 71 81 (1472256)
I0217 06:59:58.536926  2677 net.cpp:165] Memory required for data: 161042592
I0217 06:59:58.536929  2677 layer_factory.hpp:77] Creating layer conv3_2
I0217 06:59:58.536942  2677 net.cpp:100] Creating Layer conv3_2
I0217 06:59:58.536947  2677 net.cpp:434] conv3_2 <- conv3_1
I0217 06:59:58.536955  2677 net.cpp:408] conv3_2 -> conv3_2
I0217 06:59:58.542320  2677 net.cpp:150] Setting up conv3_2
I0217 06:59:58.542336  2677 net.cpp:157] Top shape: 1 256 71 81 (1472256)
I0217 06:59:58.542341  2677 net.cpp:165] Memory required for data: 166931616
I0217 06:59:58.542349  2677 layer_factory.hpp:77] Creating layer relu3_2
I0217 06:59:58.542359  2677 net.cpp:100] Creating Layer relu3_2
I0217 06:59:58.542363  2677 net.cpp:434] relu3_2 <- conv3_2
I0217 06:59:58.542371  2677 net.cpp:395] relu3_2 -> conv3_2 (in-place)
I0217 06:59:58.542572  2677 net.cpp:150] Setting up relu3_2
I0217 06:59:58.542582  2677 net.cpp:157] Top shape: 1 256 71 81 (1472256)
I0217 06:59:58.542587  2677 net.cpp:165] Memory required for data: 172820640
I0217 06:59:58.542590  2677 layer_factory.hpp:77] Creating layer conv3_3
I0217 06:59:58.542605  2677 net.cpp:100] Creating Layer conv3_3
I0217 06:59:58.542609  2677 net.cpp:434] conv3_3 <- conv3_2
I0217 06:59:58.542618  2677 net.cpp:408] conv3_3 -> conv3_3
I0217 06:59:58.547951  2677 net.cpp:150] Setting up conv3_3
I0217 06:59:58.547968  2677 net.cpp:157] Top shape: 1 256 71 81 (1472256)
I0217 06:59:58.547973  2677 net.cpp:165] Memory required for data: 178709664
I0217 06:59:58.547981  2677 layer_factory.hpp:77] Creating layer relu3_3
I0217 06:59:58.547989  2677 net.cpp:100] Creating Layer relu3_3
I0217 06:59:58.547993  2677 net.cpp:434] relu3_3 <- conv3_3
I0217 06:59:58.548002  2677 net.cpp:395] relu3_3 -> conv3_3 (in-place)
I0217 06:59:58.548202  2677 net.cpp:150] Setting up relu3_3
I0217 06:59:58.548213  2677 net.cpp:157] Top shape: 1 256 71 81 (1472256)
I0217 06:59:58.548216  2677 net.cpp:165] Memory required for data: 184598688
I0217 06:59:58.548220  2677 layer_factory.hpp:77] Creating layer pool3
I0217 06:59:58.548228  2677 net.cpp:100] Creating Layer pool3
I0217 06:59:58.548233  2677 net.cpp:434] pool3 <- conv3_3
I0217 06:59:58.548240  2677 net.cpp:408] pool3 -> pool3
I0217 06:59:58.548295  2677 net.cpp:150] Setting up pool3
I0217 06:59:58.548303  2677 net.cpp:157] Top shape: 1 256 36 41 (377856)
I0217 06:59:58.548307  2677 net.cpp:165] Memory required for data: 186110112
I0217 06:59:58.548310  2677 layer_factory.hpp:77] Creating layer pool3_pool3_0_split
I0217 06:59:58.548318  2677 net.cpp:100] Creating Layer pool3_pool3_0_split
I0217 06:59:58.548322  2677 net.cpp:434] pool3_pool3_0_split <- pool3
I0217 06:59:58.548328  2677 net.cpp:408] pool3_pool3_0_split -> pool3_pool3_0_split_0
I0217 06:59:58.548336  2677 net.cpp:408] pool3_pool3_0_split -> pool3_pool3_0_split_1
I0217 06:59:58.548377  2677 net.cpp:150] Setting up pool3_pool3_0_split
I0217 06:59:58.548383  2677 net.cpp:157] Top shape: 1 256 36 41 (377856)
I0217 06:59:58.548388  2677 net.cpp:157] Top shape: 1 256 36 41 (377856)
I0217 06:59:58.548393  2677 net.cpp:165] Memory required for data: 189132960
I0217 06:59:58.548396  2677 layer_factory.hpp:77] Creating layer conv4_1
I0217 06:59:58.548408  2677 net.cpp:100] Creating Layer conv4_1
I0217 06:59:58.548413  2677 net.cpp:434] conv4_1 <- pool3_pool3_0_split_0
I0217 06:59:58.548420  2677 net.cpp:408] conv4_1 -> conv4_1
I0217 06:59:58.558107  2677 net.cpp:150] Setting up conv4_1
I0217 06:59:58.558158  2677 net.cpp:157] Top shape: 1 512 36 41 (755712)
I0217 06:59:58.558167  2677 net.cpp:165] Memory required for data: 192155808
I0217 06:59:58.558187  2677 layer_factory.hpp:77] Creating layer relu4_1
I0217 06:59:58.558207  2677 net.cpp:100] Creating Layer relu4_1
I0217 06:59:58.558218  2677 net.cpp:434] relu4_1 <- conv4_1
I0217 06:59:58.558233  2677 net.cpp:395] relu4_1 -> conv4_1 (in-place)
I0217 06:59:58.558837  2677 net.cpp:150] Setting up relu4_1
I0217 06:59:58.558858  2677 net.cpp:157] Top shape: 1 512 36 41 (755712)
I0217 06:59:58.558866  2677 net.cpp:165] Memory required for data: 195178656
I0217 06:59:58.558874  2677 layer_factory.hpp:77] Creating layer conv4_2
I0217 06:59:58.558897  2677 net.cpp:100] Creating Layer conv4_2
I0217 06:59:58.558907  2677 net.cpp:434] conv4_2 <- conv4_1
I0217 06:59:58.558921  2677 net.cpp:408] conv4_2 -> conv4_2
I0217 06:59:58.587589  2677 net.cpp:150] Setting up conv4_2
I0217 06:59:58.587625  2677 net.cpp:157] Top shape: 1 512 36 41 (755712)
I0217 06:59:58.587635  2677 net.cpp:165] Memory required for data: 198201504
I0217 06:59:58.587661  2677 layer_factory.hpp:77] Creating layer relu4_2
I0217 06:59:58.587677  2677 net.cpp:100] Creating Layer relu4_2
I0217 06:59:58.587685  2677 net.cpp:434] relu4_2 <- conv4_2
I0217 06:59:58.587700  2677 net.cpp:395] relu4_2 -> conv4_2 (in-place)
I0217 06:59:58.588006  2677 net.cpp:150] Setting up relu4_2
I0217 06:59:58.588022  2677 net.cpp:157] Top shape: 1 512 36 41 (755712)
I0217 06:59:58.588030  2677 net.cpp:165] Memory required for data: 201224352
I0217 06:59:58.588038  2677 layer_factory.hpp:77] Creating layer conv4_3
I0217 06:59:58.588059  2677 net.cpp:100] Creating Layer conv4_3
I0217 06:59:58.588068  2677 net.cpp:434] conv4_3 <- conv4_2
I0217 06:59:58.588083  2677 net.cpp:408] conv4_3 -> conv4_3
I0217 06:59:58.617164  2677 net.cpp:150] Setting up conv4_3
I0217 06:59:58.617207  2677 net.cpp:157] Top shape: 1 512 36 41 (755712)
I0217 06:59:58.617215  2677 net.cpp:165] Memory required for data: 204247200
I0217 06:59:58.617233  2677 layer_factory.hpp:77] Creating layer relu4_3
I0217 06:59:58.617249  2677 net.cpp:100] Creating Layer relu4_3
I0217 06:59:58.617259  2677 net.cpp:434] relu4_3 <- conv4_3
I0217 06:59:58.617277  2677 net.cpp:395] relu4_3 -> conv4_3 (in-place)
I0217 06:59:58.617602  2677 net.cpp:150] Setting up relu4_3
I0217 06:59:58.617619  2677 net.cpp:157] Top shape: 1 512 36 41 (755712)
I0217 06:59:58.617627  2677 net.cpp:165] Memory required for data: 207270048
I0217 06:59:58.617635  2677 layer_factory.hpp:77] Creating layer pool4
I0217 06:59:58.617658  2677 net.cpp:100] Creating Layer pool4
I0217 06:59:58.617666  2677 net.cpp:434] pool4 <- conv4_3
I0217 06:59:58.617681  2677 net.cpp:408] pool4 -> pool4
I0217 06:59:58.617763  2677 net.cpp:150] Setting up pool4
I0217 06:59:58.617777  2677 net.cpp:157] Top shape: 1 512 18 21 (193536)
I0217 06:59:58.617784  2677 net.cpp:165] Memory required for data: 208044192
I0217 06:59:58.617792  2677 layer_factory.hpp:77] Creating layer pool4_pool4_0_split
I0217 06:59:58.617807  2677 net.cpp:100] Creating Layer pool4_pool4_0_split
I0217 06:59:58.617815  2677 net.cpp:434] pool4_pool4_0_split <- pool4
I0217 06:59:58.617826  2677 net.cpp:408] pool4_pool4_0_split -> pool4_pool4_0_split_0
I0217 06:59:58.617841  2677 net.cpp:408] pool4_pool4_0_split -> pool4_pool4_0_split_1
I0217 06:59:58.617907  2677 net.cpp:150] Setting up pool4_pool4_0_split
I0217 06:59:58.617919  2677 net.cpp:157] Top shape: 1 512 18 21 (193536)
I0217 06:59:58.617929  2677 net.cpp:157] Top shape: 1 512 18 21 (193536)
I0217 06:59:58.617938  2677 net.cpp:165] Memory required for data: 209592480
I0217 06:59:58.617945  2677 layer_factory.hpp:77] Creating layer conv5_1
I0217 06:59:58.617967  2677 net.cpp:100] Creating Layer conv5_1
I0217 06:59:58.617975  2677 net.cpp:434] conv5_1 <- pool4_pool4_0_split_0
I0217 06:59:58.617990  2677 net.cpp:408] conv5_1 -> conv5_1
I0217 06:59:58.646390  2677 net.cpp:150] Setting up conv5_1
I0217 06:59:58.646438  2677 net.cpp:157] Top shape: 1 512 18 21 (193536)
I0217 06:59:58.646448  2677 net.cpp:165] Memory required for data: 210366624
I0217 06:59:58.646467  2677 layer_factory.hpp:77] Creating layer relu5_1
I0217 06:59:58.646489  2677 net.cpp:100] Creating Layer relu5_1
I0217 06:59:58.646502  2677 net.cpp:434] relu5_1 <- conv5_1
I0217 06:59:58.646515  2677 net.cpp:395] relu5_1 -> conv5_1 (in-place)
I0217 06:59:58.647073  2677 net.cpp:150] Setting up relu5_1
I0217 06:59:58.647095  2677 net.cpp:157] Top shape: 1 512 18 21 (193536)
I0217 06:59:58.647119  2677 net.cpp:165] Memory required for data: 211140768
I0217 06:59:58.647130  2677 layer_factory.hpp:77] Creating layer conv5_2
I0217 06:59:58.647153  2677 net.cpp:100] Creating Layer conv5_2
I0217 06:59:58.647164  2677 net.cpp:434] conv5_2 <- conv5_1
I0217 06:59:58.647181  2677 net.cpp:408] conv5_2 -> conv5_2
I0217 06:59:58.676021  2677 net.cpp:150] Setting up conv5_2
I0217 06:59:58.676060  2677 net.cpp:157] Top shape: 1 512 18 21 (193536)
I0217 06:59:58.676069  2677 net.cpp:165] Memory required for data: 211914912
I0217 06:59:58.676086  2677 layer_factory.hpp:77] Creating layer relu5_2
I0217 06:59:58.676103  2677 net.cpp:100] Creating Layer relu5_2
I0217 06:59:58.676113  2677 net.cpp:434] relu5_2 <- conv5_2
I0217 06:59:58.676126  2677 net.cpp:395] relu5_2 -> conv5_2 (in-place)
I0217 06:59:58.676431  2677 net.cpp:150] Setting up relu5_2
I0217 06:59:58.676448  2677 net.cpp:157] Top shape: 1 512 18 21 (193536)
I0217 06:59:58.676456  2677 net.cpp:165] Memory required for data: 212689056
I0217 06:59:58.676465  2677 layer_factory.hpp:77] Creating layer conv5_3
I0217 06:59:58.676496  2677 net.cpp:100] Creating Layer conv5_3
I0217 06:59:58.676506  2677 net.cpp:434] conv5_3 <- conv5_2
I0217 06:59:58.676522  2677 net.cpp:408] conv5_3 -> conv5_3
I0217 06:59:58.706910  2677 net.cpp:150] Setting up conv5_3
I0217 06:59:58.706951  2677 net.cpp:157] Top shape: 1 512 18 21 (193536)
I0217 06:59:58.706960  2677 net.cpp:165] Memory required for data: 213463200
I0217 06:59:58.706979  2677 layer_factory.hpp:77] Creating layer relu5_3
I0217 06:59:58.706993  2677 net.cpp:100] Creating Layer relu5_3
I0217 06:59:58.707005  2677 net.cpp:434] relu5_3 <- conv5_3
I0217 06:59:58.707020  2677 net.cpp:395] relu5_3 -> conv5_3 (in-place)
I0217 06:59:58.707324  2677 net.cpp:150] Setting up relu5_3
I0217 06:59:58.707340  2677 net.cpp:157] Top shape: 1 512 18 21 (193536)
I0217 06:59:58.707348  2677 net.cpp:165] Memory required for data: 214237344
I0217 06:59:58.707356  2677 layer_factory.hpp:77] Creating layer pool5
I0217 06:59:58.707372  2677 net.cpp:100] Creating Layer pool5
I0217 06:59:58.707381  2677 net.cpp:434] pool5 <- conv5_3
I0217 06:59:58.707393  2677 net.cpp:408] pool5 -> pool5
I0217 06:59:58.707479  2677 net.cpp:150] Setting up pool5
I0217 06:59:58.707492  2677 net.cpp:157] Top shape: 1 512 9 11 (50688)
I0217 06:59:58.707499  2677 net.cpp:165] Memory required for data: 214440096
I0217 06:59:58.707507  2677 layer_factory.hpp:77] Creating layer fc6
I0217 06:59:58.707527  2677 net.cpp:100] Creating Layer fc6
I0217 06:59:58.707535  2677 net.cpp:434] fc6 <- pool5
I0217 06:59:58.707548  2677 net.cpp:408] fc6 -> fc6
I0217 06:59:59.834489  2677 net.cpp:150] Setting up fc6
I0217 06:59:59.834537  2677 net.cpp:157] Top shape: 1 4096 3 5 (61440)
I0217 06:59:59.834542  2677 net.cpp:165] Memory required for data: 214685856
I0217 06:59:59.834556  2677 layer_factory.hpp:77] Creating layer relu6
I0217 06:59:59.834570  2677 net.cpp:100] Creating Layer relu6
I0217 06:59:59.834576  2677 net.cpp:434] relu6 <- fc6
I0217 06:59:59.834584  2677 net.cpp:395] relu6 -> fc6 (in-place)
I0217 06:59:59.834990  2677 net.cpp:150] Setting up relu6
I0217 06:59:59.835005  2677 net.cpp:157] Top shape: 1 4096 3 5 (61440)
I0217 06:59:59.835010  2677 net.cpp:165] Memory required for data: 214931616
I0217 06:59:59.835014  2677 layer_factory.hpp:77] Creating layer drop6
I0217 06:59:59.835026  2677 net.cpp:100] Creating Layer drop6
I0217 06:59:59.835031  2677 net.cpp:434] drop6 <- fc6
I0217 06:59:59.835036  2677 net.cpp:395] drop6 -> fc6 (in-place)
I0217 06:59:59.835078  2677 net.cpp:150] Setting up drop6
I0217 06:59:59.835085  2677 net.cpp:157] Top shape: 1 4096 3 5 (61440)
I0217 06:59:59.835089  2677 net.cpp:165] Memory required for data: 215177376
I0217 06:59:59.835093  2677 layer_factory.hpp:77] Creating layer fc7
I0217 06:59:59.835108  2677 net.cpp:100] Creating Layer fc7
I0217 06:59:59.835113  2677 net.cpp:434] fc7 <- fc6
I0217 06:59:59.835121  2677 net.cpp:408] fc7 -> fc7
I0217 06:59:59.959729  2677 net.cpp:150] Setting up fc7
I0217 06:59:59.959779  2677 net.cpp:157] Top shape: 1 4096 3 5 (61440)
I0217 06:59:59.959794  2677 net.cpp:165] Memory required for data: 215423136
I0217 06:59:59.959805  2677 layer_factory.hpp:77] Creating layer relu7
I0217 06:59:59.959818  2677 net.cpp:100] Creating Layer relu7
I0217 06:59:59.959825  2677 net.cpp:434] relu7 <- fc7
I0217 06:59:59.959834  2677 net.cpp:395] relu7 -> fc7 (in-place)
I0217 06:59:59.960044  2677 net.cpp:150] Setting up relu7
I0217 06:59:59.960054  2677 net.cpp:157] Top shape: 1 4096 3 5 (61440)
I0217 06:59:59.960058  2677 net.cpp:165] Memory required for data: 215668896
I0217 06:59:59.960063  2677 layer_factory.hpp:77] Creating layer drop7
I0217 06:59:59.960072  2677 net.cpp:100] Creating Layer drop7
I0217 06:59:59.960078  2677 net.cpp:434] drop7 <- fc7
I0217 06:59:59.960089  2677 net.cpp:395] drop7 -> fc7 (in-place)
I0217 06:59:59.960127  2677 net.cpp:150] Setting up drop7
I0217 06:59:59.960134  2677 net.cpp:157] Top shape: 1 4096 3 5 (61440)
I0217 06:59:59.960139  2677 net.cpp:165] Memory required for data: 215914656
I0217 06:59:59.960142  2677 layer_factory.hpp:77] Creating layer score_fr
I0217 06:59:59.960157  2677 net.cpp:100] Creating Layer score_fr
I0217 06:59:59.960161  2677 net.cpp:434] score_fr <- fc7
I0217 06:59:59.960168  2677 net.cpp:408] score_fr -> score_fr
I0217 06:59:59.962468  2677 net.cpp:150] Setting up score_fr
I0217 06:59:59.962486  2677 net.cpp:157] Top shape: 1 5 3 5 (75)
I0217 06:59:59.962491  2677 net.cpp:165] Memory required for data: 215914956
I0217 06:59:59.962502  2677 layer_factory.hpp:77] Creating layer upscore2
I0217 06:59:59.962512  2677 net.cpp:100] Creating Layer upscore2
I0217 06:59:59.962517  2677 net.cpp:434] upscore2 <- score_fr
I0217 06:59:59.962525  2677 net.cpp:408] upscore2 -> upscore2
I0217 06:59:59.962796  2677 net.cpp:150] Setting up upscore2
I0217 06:59:59.962805  2677 net.cpp:157] Top shape: 1 5 8 12 (480)
I0217 06:59:59.962810  2677 net.cpp:165] Memory required for data: 215916876
I0217 06:59:59.962826  2677 layer_factory.hpp:77] Creating layer upscore2_upscore2_0_split
I0217 06:59:59.962833  2677 net.cpp:100] Creating Layer upscore2_upscore2_0_split
I0217 06:59:59.962837  2677 net.cpp:434] upscore2_upscore2_0_split <- upscore2
I0217 06:59:59.962844  2677 net.cpp:408] upscore2_upscore2_0_split -> upscore2_upscore2_0_split_0
I0217 06:59:59.962852  2677 net.cpp:408] upscore2_upscore2_0_split -> upscore2_upscore2_0_split_1
I0217 06:59:59.962898  2677 net.cpp:150] Setting up upscore2_upscore2_0_split
I0217 06:59:59.962904  2677 net.cpp:157] Top shape: 1 5 8 12 (480)
I0217 06:59:59.962909  2677 net.cpp:157] Top shape: 1 5 8 12 (480)
I0217 06:59:59.962913  2677 net.cpp:165] Memory required for data: 215920716
I0217 06:59:59.962918  2677 layer_factory.hpp:77] Creating layer scale_pool4
I0217 06:59:59.962927  2677 net.cpp:100] Creating Layer scale_pool4
I0217 06:59:59.962932  2677 net.cpp:434] scale_pool4 <- pool4_pool4_0_split_1
I0217 06:59:59.962940  2677 net.cpp:408] scale_pool4 -> scale_pool4
I0217 06:59:59.963065  2677 net.cpp:150] Setting up scale_pool4
I0217 06:59:59.963073  2677 net.cpp:157] Top shape: 1 512 18 21 (193536)
I0217 06:59:59.963078  2677 net.cpp:165] Memory required for data: 216694860
I0217 06:59:59.963083  2677 layer_factory.hpp:77] Creating layer score_pool4
I0217 06:59:59.963094  2677 net.cpp:100] Creating Layer score_pool4
I0217 06:59:59.963100  2677 net.cpp:434] score_pool4 <- scale_pool4
I0217 06:59:59.963106  2677 net.cpp:408] score_pool4 -> score_pool4
I0217 06:59:59.964460  2677 net.cpp:150] Setting up score_pool4
I0217 06:59:59.964476  2677 net.cpp:157] Top shape: 1 5 18 21 (1890)
I0217 06:59:59.964481  2677 net.cpp:165] Memory required for data: 216702420
I0217 06:59:59.964489  2677 layer_factory.hpp:77] Creating layer score_pool4c
I0217 06:59:59.964500  2677 net.cpp:100] Creating Layer score_pool4c
I0217 06:59:59.964505  2677 net.cpp:434] score_pool4c <- score_pool4
I0217 06:59:59.964511  2677 net.cpp:434] score_pool4c <- upscore2_upscore2_0_split_0
I0217 06:59:59.964519  2677 net.cpp:408] score_pool4c -> score_pool4c
I0217 06:59:59.964561  2677 net.cpp:150] Setting up score_pool4c
I0217 06:59:59.964570  2677 net.cpp:157] Top shape: 1 5 8 12 (480)
I0217 06:59:59.964573  2677 net.cpp:165] Memory required for data: 216704340
I0217 06:59:59.964577  2677 layer_factory.hpp:77] Creating layer fuse_pool4
I0217 06:59:59.964586  2677 net.cpp:100] Creating Layer fuse_pool4
I0217 06:59:59.964591  2677 net.cpp:434] fuse_pool4 <- upscore2_upscore2_0_split_1
I0217 06:59:59.964596  2677 net.cpp:434] fuse_pool4 <- score_pool4c
I0217 06:59:59.964604  2677 net.cpp:408] fuse_pool4 -> fuse_pool4
I0217 06:59:59.964634  2677 net.cpp:150] Setting up fuse_pool4
I0217 06:59:59.964642  2677 net.cpp:157] Top shape: 1 5 8 12 (480)
I0217 06:59:59.964645  2677 net.cpp:165] Memory required for data: 216706260
I0217 06:59:59.964649  2677 layer_factory.hpp:77] Creating layer upscore_pool4
I0217 06:59:59.964660  2677 net.cpp:100] Creating Layer upscore_pool4
I0217 06:59:59.964664  2677 net.cpp:434] upscore_pool4 <- fuse_pool4
I0217 06:59:59.964673  2677 net.cpp:408] upscore_pool4 -> upscore_pool4
I0217 06:59:59.964922  2677 net.cpp:150] Setting up upscore_pool4
I0217 06:59:59.964931  2677 net.cpp:157] Top shape: 1 5 18 26 (2340)
I0217 06:59:59.964934  2677 net.cpp:165] Memory required for data: 216715620
I0217 06:59:59.964941  2677 layer_factory.hpp:77] Creating layer upscore_pool4_upscore_pool4_0_split
I0217 06:59:59.964947  2677 net.cpp:100] Creating Layer upscore_pool4_upscore_pool4_0_split
I0217 06:59:59.964951  2677 net.cpp:434] upscore_pool4_upscore_pool4_0_split <- upscore_pool4
I0217 06:59:59.964957  2677 net.cpp:408] upscore_pool4_upscore_pool4_0_split -> upscore_pool4_upscore_pool4_0_split_0
I0217 06:59:59.964967  2677 net.cpp:408] upscore_pool4_upscore_pool4_0_split -> upscore_pool4_upscore_pool4_0_split_1
I0217 06:59:59.965010  2677 net.cpp:150] Setting up upscore_pool4_upscore_pool4_0_split
I0217 06:59:59.965016  2677 net.cpp:157] Top shape: 1 5 18 26 (2340)
I0217 06:59:59.965021  2677 net.cpp:157] Top shape: 1 5 18 26 (2340)
I0217 06:59:59.965025  2677 net.cpp:165] Memory required for data: 216734340
I0217 06:59:59.965029  2677 layer_factory.hpp:77] Creating layer scale_pool3
I0217 06:59:59.965039  2677 net.cpp:100] Creating Layer scale_pool3
I0217 06:59:59.965044  2677 net.cpp:434] scale_pool3 <- pool3_pool3_0_split_1
I0217 06:59:59.965052  2677 net.cpp:408] scale_pool3 -> scale_pool3
I0217 06:59:59.965162  2677 net.cpp:150] Setting up scale_pool3
I0217 06:59:59.965170  2677 net.cpp:157] Top shape: 1 256 36 41 (377856)
I0217 06:59:59.965174  2677 net.cpp:165] Memory required for data: 218245764
I0217 06:59:59.965179  2677 layer_factory.hpp:77] Creating layer score_pool3
I0217 06:59:59.965191  2677 net.cpp:100] Creating Layer score_pool3
I0217 06:59:59.965195  2677 net.cpp:434] score_pool3 <- scale_pool3
I0217 06:59:59.965204  2677 net.cpp:408] score_pool3 -> score_pool3
I0217 06:59:59.966557  2677 net.cpp:150] Setting up score_pool3
I0217 06:59:59.966573  2677 net.cpp:157] Top shape: 1 5 36 41 (7380)
I0217 06:59:59.966578  2677 net.cpp:165] Memory required for data: 218275284
I0217 06:59:59.966586  2677 layer_factory.hpp:77] Creating layer score_pool3c
I0217 06:59:59.966596  2677 net.cpp:100] Creating Layer score_pool3c
I0217 06:59:59.966601  2677 net.cpp:434] score_pool3c <- score_pool3
I0217 06:59:59.966608  2677 net.cpp:434] score_pool3c <- upscore_pool4_upscore_pool4_0_split_0
I0217 06:59:59.966614  2677 net.cpp:408] score_pool3c -> score_pool3c
I0217 06:59:59.966650  2677 net.cpp:150] Setting up score_pool3c
I0217 06:59:59.966657  2677 net.cpp:157] Top shape: 1 5 18 26 (2340)
I0217 06:59:59.966661  2677 net.cpp:165] Memory required for data: 218284644
I0217 06:59:59.966665  2677 layer_factory.hpp:77] Creating layer fuse_pool3
I0217 06:59:59.966675  2677 net.cpp:100] Creating Layer fuse_pool3
I0217 06:59:59.966678  2677 net.cpp:434] fuse_pool3 <- upscore_pool4_upscore_pool4_0_split_1
I0217 06:59:59.966684  2677 net.cpp:434] fuse_pool3 <- score_pool3c
I0217 06:59:59.966691  2677 net.cpp:408] fuse_pool3 -> fuse_pool3
I0217 06:59:59.966723  2677 net.cpp:150] Setting up fuse_pool3
I0217 06:59:59.966735  2677 net.cpp:157] Top shape: 1 5 18 26 (2340)
I0217 06:59:59.966739  2677 net.cpp:165] Memory required for data: 218294004
I0217 06:59:59.966743  2677 layer_factory.hpp:77] Creating layer upscore8
I0217 06:59:59.966754  2677 net.cpp:100] Creating Layer upscore8
I0217 06:59:59.966758  2677 net.cpp:434] upscore8 <- fuse_pool3
I0217 06:59:59.966765  2677 net.cpp:408] upscore8 -> upscore8
I0217 06:59:59.967061  2677 net.cpp:150] Setting up upscore8
I0217 06:59:59.967068  2677 net.cpp:157] Top shape: 1 5 152 216 (164160)
I0217 06:59:59.967072  2677 net.cpp:165] Memory required for data: 218950644
I0217 06:59:59.967078  2677 layer_factory.hpp:77] Creating layer score
I0217 06:59:59.967085  2677 net.cpp:100] Creating Layer score
I0217 06:59:59.967089  2677 net.cpp:434] score <- upscore8
I0217 06:59:59.967094  2677 net.cpp:434] score <- data_data_0_split_1
I0217 06:59:59.967100  2677 net.cpp:408] score -> score
I0217 06:59:59.967131  2677 net.cpp:150] Setting up score
I0217 06:59:59.967139  2677 net.cpp:157] Top shape: 1 5 84 125 (52500)
I0217 06:59:59.967142  2677 net.cpp:165] Memory required for data: 219160644
I0217 06:59:59.967146  2677 layer_factory.hpp:77] Creating layer loss
I0217 06:59:59.967154  2677 net.cpp:100] Creating Layer loss
I0217 06:59:59.967157  2677 net.cpp:434] loss <- score
I0217 06:59:59.967162  2677 net.cpp:434] loss <- label
I0217 06:59:59.967169  2677 net.cpp:408] loss -> loss
I0217 06:59:59.967177  2677 layer_factory.hpp:77] Creating layer loss
…
