…
test_initialization: false
average_loss: 20
iter_size: 1
I0209 11:05:21.877761  1757 solver.cpp:81] Creating training net from train_net file: train.prototxt
I0209 11:05:21.892318  1757 net.cpp:58] Initializing net from parameters: 
state {
  phase: TRAIN
}
layer {
  name: "data"
  type: "Python"
  top: "data"
  top: "label"
  python_param {
    module: "voc_layers"
    layer: "PartialSBDDSegDataLayer"
    param_str: "{\'sbdd_dir\': \'../data/sbdd/dataset\', \'seed\': 1337, \'split\': \'train5\', \'mean\': (104.00699, 116.66877, 122.67892)}"
  }
}
layer {
  name: "conv1_1"
  type: "Convolution"
  bottom: "data"
  top: "conv1_1"
  param {
    lr_mult: 1
    decay_mult: 1
  }
  param {
    lr_mult: 2
    decay_mult: 0
  }
  convolution_param {
    num_output: 64
    pad: 100
    kernel_size: 3
    stride: 1
    weight_filler {
      type: "xavier"
    }
  }
}
layer {
  name: "relu1_1"
  type: "ReLU"
  bottom: "conv1_1"
  top: "conv1_1"
}
layer {
  name: "conv1_2"
  type: "Convolution"
  bottom: "conv1_1"
  top: "conv1_2"
  param {
    lr_mult: 1
    decay_mult: 1
  }
  param {
    lr_mult: 2
    decay_mult: 0
  }
  convolution_param {
    num_output: 64
    pad: 1
    kernel_size: 3
    stride: 1
    weight_filler {
      type: "xavier"
    }
  }
}
layer {
  name: "relu1_2"
  type: "ReLU"
  bottom: "conv1_2"
  top: "conv1_2"
}
layer {
  name: "pool1"
  type: "Pooling"
  bottom: "conv1_2"
  top: "pool1"
  pooling_param {
    pool: MAX
    kernel_size: 2
    stride: 2
  }
}
layer {
  name: "conv2_1"
  type: "Convolution"
  bottom: "pool1"
  top: "conv2_1"
  param {
    lr_mult: 1
    decay_mult: 1
  }
  param {
    lr_mult: 2
    decay_mult: 0
  }
  convolution_param {
    num_output: 128
    pad: 1
    kernel_size: 3
    stride: 1
    weight_filler {
      type: "xavier"
    }
  }
}
layer {
  name: "relu2_1"
  type: "ReLU"
  bottom: "conv2_1"
  top: "conv2_1"
}
layer {
  name: "conv2_2"
  type: "Convolution"
  bottom: "conv2_1"
  top: "conv2_2"
  param {
    lr_mult: 1
    decay_mult: 1
  }
  param {
    lr_mult: 2
    decay_mult: 0
  }
  convolution_param {
    num_output: 128
    pad: 1
    kernel_size: 3
    stride: 1
    weight_filler {
      type: "xavier"
    }
  }
}
layer {
  name: "relu2_2"
  type: "ReLU"
  bottom: "conv2_2"
  top: "conv2_2"
}
layer {
  name: "pool2"
  type: "Pooling"
  bottom: "conv2_2"
  top: "pool2"
  pooling_param {
    pool: MAX
    kernel_size: 2
    stride: 2
  }
}
layer {
  name: "conv3_1"
  type: "Convolution"
  bottom: "pool2"
  top: "conv3_1"
  param {
    lr_mult: 1
    decay_mult: 1
  }
  param {
    lr_mult: 2
    decay_mult: 0
  }
  convolution_param {
    num_output: 256
    pad: 1
    kernel_size: 3
    stride: 1
    weight_filler {
      type: "xavier"
    }
  }
}
layer {
  name: "relu3_1"
  type: "ReLU"
  bottom: "conv3_1"
  top: "conv3_1"
}
layer {
  name: "conv3_2"
  type: "Convolution"
  bottom: "conv3_1"
  top: "conv3_2"
  param {
    lr_mult: 1
    decay_mult: 1
  }
  param {
    lr_mult: 2
    decay_mult: 0
  }
  convolution_param {
    num_output: 256
    pad: 1
    kernel_size: 3
    stride: 1
    weight_filler {
      type: "xavier"
    }
  }
}
layer {
  name: "relu3_2"
  type: "ReLU"
  bottom: "conv3_2"
  top: "conv3_2"
}
layer {
  name: "conv3_3"
  type: "Convolution"
  bottom: "conv3_2"
  top: "conv3_3"
  param {
    lr_mult: 1
    decay_mult: 1
  }
  param {
    lr_mult: 2
    decay_mult: 0
  }
  convolution_param {
    num_output: 256
    pad: 1
    kernel_size: 3
    stride: 1
    weight_filler {
      type: "xavier"
    }
  }
}
layer {
  name: "relu3_3"
  type: "ReLU"
  bottom: "conv3_3"
  top: "conv3_3"
}
layer {
  name: "pool3"
  type: "Pooling"
  bottom: "conv3_3"
  top: "pool3"
  pooling_param {
    pool: MAX
    kernel_size: 2
    stride: 2
  }
}
layer {
  name: "conv4_1"
  type: "Convolution"
  bottom: "pool3"
  top: "conv4_1"
  param {
    lr_mult: 1
    decay_mult: 1
  }
  param {
    lr_mult: 2
    decay_mult: 0
  }
  convolution_param {
    num_output: 512
    pad: 1
    kernel_size: 3
    stride: 1
    weight_filler {
      type: "xavier"
    }
  }
}
layer {
  name: "relu4_1"
  type: "ReLU"
  bottom: "conv4_1"
  top: "conv4_1"
}
layer {
  name: "conv4_2"
  type: "Convolution"
  bottom: "conv4_1"
  top: "conv4_2"
  param {
    lr_mult: 1
    decay_mult: 1
  }
  param {
    lr_mult: 2
    decay_mult: 0
  }
  convolution_param {
    num_output: 512
    pad: 1
    kernel_size: 3
    stride: 1
    weight_filler {
      type: "xavier"
    }
  }
}
layer {
  name: "relu4_2"
  type: "ReLU"
  bottom: "conv4_2"
  top: "conv4_2"
}
layer {
  name: "conv4_3"
  type: "Convolution"
  bottom: "conv4_2"
  top: "conv4_3"
  param {
    lr_mult: 1
    decay_mult: 1
  }
  param {
    lr_mult: 2
    decay_mult: 0
  }
  convolution_param {
    num_output: 512
    pad: 1
    kernel_size: 3
    stride: 1
    weight_filler {
      type: "xavier"
    }
  }
}
layer {
  name: "relu4_3"
  type: "ReLU"
  bottom: "conv4_3"
  top: "conv4_3"
}
layer {
  name: "pool4"
  type: "Pooling"
  bottom: "conv4_3"
  top: "pool4"
  pooling_param {
    pool: MAX
    kernel_size: 2
    stride: 2
  }
}
layer {
  name: "conv5_1"
  type: "Convolution"
  bottom: "pool4"
  top: "conv5_1"
  param {
    lr_mult: 1
    decay_mult: 1
  }
  param {
    lr_mult: 2
    decay_mult: 0
  }
  convolution_param {
    num_output: 512
    pad: 1
    kernel_size: 3
    stride: 1
    weight_filler {
      type: "xavier"
    }
  }
}
layer {
  name: "relu5_1"
  type: "ReLU"
  bottom: "conv5_1"
  top: "conv5_1"
}
layer {
  name: "conv5_2"
  type: "Convolution"
  bottom: "conv5_1"
  top: "conv5_2"
  param {
    lr_mult: 1
    decay_mult: 1
  }
  param {
    lr_mult: 2
    decay_mult: 0
  }
  convolution_param {
    num_output: 512
    pad: 1
    kernel_size: 3
    stride: 1
    weight_filler {
      type: "xavier"
    }
  }
}
layer {
  name: "relu5_2"
  type: "ReLU"
  bottom: "conv5_2"
  top: "conv5_2"
}
layer {
  name: "conv5_3"
  type: "Convolution"
  bottom: "conv5_2"
  top: "conv5_3"
  param {
    lr_mult: 1
    decay_mult: 1
  }
  param {
    lr_mult: 2
    decay_mult: 0
  }
  convolution_param {
    num_output: 512
    pad: 1
    kernel_size: 3
    stride: 1
    weight_filler {
      type: "xavier"
    }
  }
}
layer {
  name: "relu5_3"
  type: "ReLU"
  bottom: "conv5_3"
  top: "conv5_3"
}
layer {
  name: "pool5"
  type: "Pooling"
  bottom: "conv5_3"
  top: "pool5"
  pooling_param {
    pool: MAX
    kernel_size: 2
    stride: 2
  }
}
layer {
  name: "fc6"
  type: "Convolution"
  bottom: "pool5"
  top: "fc6"
  param {
    lr_mult: 1
    decay_mult: 1
  }
  param {
    lr_mult: 2
    decay_mult: 0
  }
  convolution_param {
    num_output: 4096
    pad: 0
    kernel_size: 7
    stride: 1
    weight_filler {
      type: "xavier"
    }
  }
}
layer {
  name: "relu6"
  type: "ReLU"
  bottom: "fc6"
  top: "fc6"
}
layer {
  name: "drop6"
  type: "Dropout"
  bottom: "fc6"
  top: "fc6"
  dropout_param {
    dropout_ratio: 0.5
  }
}
layer {
  name: "fc7"
  type: "Convolution"
  bottom: "fc6"
  top: "fc7"
  param {
    lr_mult: 1
    decay_mult: 1
  }
  param {
    lr_mult: 2
    decay_mult: 0
  }
  convolution_param {
    num_output: 4096
    pad: 0
    kernel_size: 1
    stride: 1
    weight_filler {
      type: "xavier"
    }
  }
}
layer {
  name: "relu7"
  type: "ReLU"
  bottom: "fc7"
  top: "fc7"
}
layer {
  name: "drop7"
  type: "Dropout"
  bottom: "fc7"
  top: "fc7"
  dropout_param {
    dropout_ratio: 0.5
  }
}
layer {
  name: "score_fr"
  type: "Convolution"
  bottom: "fc7"
  top: "score_fr"
  param {
    lr_mult: 1
    decay_mult: 1
  }
  param {
    lr_mult: 2
    decay_mult: 0
  }
  convolution_param {
    num_output: 6
    pad: 0
    kernel_size: 1
    weight_filler {
      type: "xavier"
    }
  }
}
layer {
  name: "upscore2"
  type: "Deconvolution"
  bottom: "score_fr"
  top: "upscore2"
  param {
    lr_mult: 0
  }
  convolution_param {
    num_output: 6
    bias_term: false
    kernel_size: 4
    stride: 2
    weight_filler {
      type: "xavier"
    }
  }
}
layer {
  name: "scale_pool4"
  type: "Scale"
  bottom: "pool4"
  top: "scale_pool4"
  param {
    lr_mult: 0
  }
  scale_param {
    filler {
      type: "constant"
      value: 0.01
    }
  }
}
layer {
  name: "score_pool4"
  type: "Convolution"
  bottom: "scale_pool4"
  top: "score_pool4"
  param {
    lr_mult: 1
    decay_mult: 1
  }
  param {
    lr_mult: 2
    decay_mult: 0
  }
  convolution_param {
    num_output: 6
    pad: 0
    kernel_size: 1
    weight_filler {
      type: "xavier"
    }
  }
}
layer {
  name: "score_pool4c"
  type: "Crop"
  bottom: "score_pool4"
  bottom: "upscore2"
  top: "score_pool4c"
  crop_param {
    axis: 2
    offset: 5
  }
}
layer {
  name: "fuse_pool4"
  type: "Eltwise"
  bottom: "upscore2"
  bottom: "score_pool4c"
  top: "fuse_pool4"
  eltwise_param {
    operation: SUM
  }
}
layer {
  name: "upscore_pool4"
  type: "Deconvolution"
  bottom: "fuse_pool4"
  top: "upscore_pool4"
  param {
    lr_mult: 0
  }
  convolution_param {
    num_output: 6
    bias_term: false
    kernel_size: 4
    stride: 2
    weight_filler {
      type: "xavier"
    }
  }
}
layer {
  name: "scale_pool3"
  type: "Scale"
  bottom: "pool3"
  top: "scale_pool3"
  param {
    lr_mult: 0
  }
  scale_param {
    filler {
      type: "constant"
      value: 0.0001
    }
  }
}
layer {
  name: "score_pool3"
  type: "Convolution"
  bottom: "scale_pool3"
  top: "score_pool3"
  param {
    lr_mult: 1
    decay_mult: 1
  }
  param {
    lr_mult: 2
    decay_mult: 0
  }
  convolution_param {
    num_output: 6
    pad: 0
    kernel_size: 1
    weight_filler {
      type: "xavier"
    }
  }
}
layer {
  name: "score_pool3c"
  type: "Crop"
  bottom: "score_pool3"
  bottom: "upscore_pool4"
  top: "score_pool3c"
  crop_param {
    axis: 2
    offset: 9
  }
}
layer {
  name: "fuse_pool3"
  type: "Eltwise"
  bottom: "upscore_pool4"
  bottom: "score_pool3c"
  top: "fuse_pool3"
  eltwise_param {
    operation: SUM
  }
}
layer {
  name: "upscore8"
  type: "Deconvolution"
  bottom: "fuse_pool3"
  top: "upscore8"
  param {
    lr_mult: 0
  }
  convolution_param {
    num_output: 6
    bias_term: false
    kernel_size: 16
    stride: 8
    weight_filler {
      type: "xavier"
    }
  }
}
layer {
  name: "score"
  type: "Crop"
  bottom: "upscore8"
  bottom: "data"
  top: "score"
  crop_param {
    axis: 2
    offset: 31
  }
}
layer {
  name: "loss"
  type: "SoftmaxWithLoss"
  bottom: "score"
  bottom: "label"
  top: "loss"
  loss_param {
    ignore_label: 255
    normalize: false
  }
}
I0209 11:05:21.892696  1757 layer_factory.hpp:77] Creating layer data
I0209 11:05:21.893579  1757 net.cpp:100] Creating Layer data
I0209 11:05:21.893599  1757 net.cpp:408] data -> data
I0209 11:05:21.893620  1757 net.cpp:408] data -> label
I0209 11:05:22.020071  1757 net.cpp:150] Setting up data
I0209 11:05:22.020119  1757 net.cpp:157] Top shape: 1 3 375 500 (562500)
I0209 11:05:22.020129  1757 net.cpp:157] Top shape: 1 1 375 500 (187500)
I0209 11:05:22.020136  1757 net.cpp:165] Memory required for data: 3000000
I0209 11:05:22.020148  1757 layer_factory.hpp:77] Creating layer data_data_0_split
I0209 11:05:22.020169  1757 net.cpp:100] Creating Layer data_data_0_split
I0209 11:05:22.020176  1757 net.cpp:434] data_data_0_split <- data
I0209 11:05:22.020191  1757 net.cpp:408] data_data_0_split -> data_data_0_split_0
I0209 11:05:22.020210  1757 net.cpp:408] data_data_0_split -> data_data_0_split_1
I0209 11:05:22.020261  1757 net.cpp:150] Setting up data_data_0_split
I0209 11:05:22.020273  1757 net.cpp:157] Top shape: 1 3 375 500 (562500)
I0209 11:05:22.020282  1757 net.cpp:157] Top shape: 1 3 375 500 (562500)
I0209 11:05:22.020289  1757 net.cpp:165] Memory required for data: 7500000
I0209 11:05:22.020297  1757 layer_factory.hpp:77] Creating layer conv1_1
I0209 11:05:22.020320  1757 net.cpp:100] Creating Layer conv1_1
I0209 11:05:22.020328  1757 net.cpp:434] conv1_1 <- data_data_0_split_0
I0209 11:05:22.020352  1757 net.cpp:408] conv1_1 -> conv1_1
I0209 11:05:22.313915  1757 net.cpp:150] Setting up conv1_1
I0209 11:05:22.313954  1757 net.cpp:157] Top shape: 1 64 573 698 (25597056)
I0209 11:05:22.313959  1757 net.cpp:165] Memory required for data: 109888224
I0209 11:05:22.313977  1757 layer_factory.hpp:77] Creating layer relu1_1
I0209 11:05:22.313992  1757 net.cpp:100] Creating Layer relu1_1
I0209 11:05:22.313997  1757 net.cpp:434] relu1_1 <- conv1_1
I0209 11:05:22.314004  1757 net.cpp:395] relu1_1 -> conv1_1 (in-place)
I0209 11:05:22.314411  1757 net.cpp:150] Setting up relu1_1
I0209 11:05:22.314425  1757 net.cpp:157] Top shape: 1 64 573 698 (25597056)
I0209 11:05:22.314430  1757 net.cpp:165] Memory required for data: 212276448
I0209 11:05:22.314435  1757 layer_factory.hpp:77] Creating layer conv1_2
I0209 11:05:22.314450  1757 net.cpp:100] Creating Layer conv1_2
I0209 11:05:22.314455  1757 net.cpp:434] conv1_2 <- conv1_1
I0209 11:05:22.314462  1757 net.cpp:408] conv1_2 -> conv1_2
I0209 11:05:22.317164  1757 net.cpp:150] Setting up conv1_2
I0209 11:05:22.317181  1757 net.cpp:157] Top shape: 1 64 573 698 (25597056)
I0209 11:05:22.317186  1757 net.cpp:165] Memory required for data: 314664672
I0209 11:05:22.317198  1757 layer_factory.hpp:77] Creating layer relu1_2
I0209 11:05:22.317205  1757 net.cpp:100] Creating Layer relu1_2
I0209 11:05:22.317210  1757 net.cpp:434] relu1_2 <- conv1_2
I0209 11:05:22.317216  1757 net.cpp:395] relu1_2 -> conv1_2 (in-place)
I0209 11:05:22.317615  1757 net.cpp:150] Setting up relu1_2
I0209 11:05:22.317628  1757 net.cpp:157] Top shape: 1 64 573 698 (25597056)
I0209 11:05:22.317633  1757 net.cpp:165] Memory required for data: 417052896
I0209 11:05:22.317644  1757 layer_factory.hpp:77] Creating layer pool1
I0209 11:05:22.317661  1757 net.cpp:100] Creating Layer pool1
I0209 11:05:22.317665  1757 net.cpp:434] pool1 <- conv1_2
I0209 11:05:22.317672  1757 net.cpp:408] pool1 -> pool1
I0209 11:05:22.317718  1757 net.cpp:150] Setting up pool1
I0209 11:05:22.317726  1757 net.cpp:157] Top shape: 1 64 287 349 (6410432)
I0209 11:05:22.317730  1757 net.cpp:165] Memory required for data: 442694624
I0209 11:05:22.317734  1757 layer_factory.hpp:77] Creating layer conv2_1
I0209 11:05:22.317744  1757 net.cpp:100] Creating Layer conv2_1
I0209 11:05:22.317749  1757 net.cpp:434] conv2_1 <- pool1
I0209 11:05:22.317755  1757 net.cpp:408] conv2_1 -> conv2_1
I0209 11:05:22.324589  1757 net.cpp:150] Setting up conv2_1
I0209 11:05:22.324604  1757 net.cpp:157] Top shape: 1 128 287 349 (12820864)
I0209 11:05:22.324609  1757 net.cpp:165] Memory required for data: 493978080
I0209 11:05:22.324621  1757 layer_factory.hpp:77] Creating layer relu2_1
I0209 11:05:22.324630  1757 net.cpp:100] Creating Layer relu2_1
I0209 11:05:22.324635  1757 net.cpp:434] relu2_1 <- conv2_1
I0209 11:05:22.324641  1757 net.cpp:395] relu2_1 -> conv2_1 (in-place)
I0209 11:05:22.327340  1757 net.cpp:150] Setting up relu2_1
I0209 11:05:22.327353  1757 net.cpp:157] Top shape: 1 128 287 349 (12820864)
I0209 11:05:22.327358  1757 net.cpp:165] Memory required for data: 545261536
I0209 11:05:22.327363  1757 layer_factory.hpp:77] Creating layer conv2_2
I0209 11:05:22.327373  1757 net.cpp:100] Creating Layer conv2_2
I0209 11:05:22.327378  1757 net.cpp:434] conv2_2 <- conv2_1
I0209 11:05:22.327385  1757 net.cpp:408] conv2_2 -> conv2_2
I0209 11:05:22.333647  1757 net.cpp:150] Setting up conv2_2
I0209 11:05:22.333665  1757 net.cpp:157] Top shape: 1 128 287 349 (12820864)
I0209 11:05:22.333670  1757 net.cpp:165] Memory required for data: 596544992
I0209 11:05:22.333678  1757 layer_factory.hpp:77] Creating layer relu2_2
I0209 11:05:22.333689  1757 net.cpp:100] Creating Layer relu2_2
I0209 11:05:22.333694  1757 net.cpp:434] relu2_2 <- conv2_2
I0209 11:05:22.333700  1757 net.cpp:395] relu2_2 -> conv2_2 (in-place)
I0209 11:05:22.335845  1757 net.cpp:150] Setting up relu2_2
I0209 11:05:22.335858  1757 net.cpp:157] Top shape: 1 128 287 349 (12820864)
I0209 11:05:22.335863  1757 net.cpp:165] Memory required for data: 647828448
I0209 11:05:22.335878  1757 layer_factory.hpp:77] Creating layer pool2
I0209 11:05:22.335888  1757 net.cpp:100] Creating Layer pool2
I0209 11:05:22.335892  1757 net.cpp:434] pool2 <- conv2_2
I0209 11:05:22.335898  1757 net.cpp:408] pool2 -> pool2
I0209 11:05:22.335947  1757 net.cpp:150] Setting up pool2
I0209 11:05:22.335953  1757 net.cpp:157] Top shape: 1 128 144 175 (3225600)
I0209 11:05:22.335958  1757 net.cpp:165] Memory required for data: 660730848
I0209 11:05:22.335961  1757 layer_factory.hpp:77] Creating layer conv3_1
I0209 11:05:22.335976  1757 net.cpp:100] Creating Layer conv3_1
I0209 11:05:22.335980  1757 net.cpp:434] conv3_1 <- pool2
I0209 11:05:22.335989  1757 net.cpp:408] conv3_1 -> conv3_1
I0209 11:05:22.342978  1757 net.cpp:150] Setting up conv3_1
I0209 11:05:22.342993  1757 net.cpp:157] Top shape: 1 256 144 175 (6451200)
I0209 11:05:22.342999  1757 net.cpp:165] Memory required for data: 686535648
I0209 11:05:22.343009  1757 layer_factory.hpp:77] Creating layer relu3_1
I0209 11:05:22.343019  1757 net.cpp:100] Creating Layer relu3_1
I0209 11:05:22.343024  1757 net.cpp:434] relu3_1 <- conv3_1
I0209 11:05:22.343030  1757 net.cpp:395] relu3_1 -> conv3_1 (in-place)
I0209 11:05:22.345206  1757 net.cpp:150] Setting up relu3_1
I0209 11:05:22.345221  1757 net.cpp:157] Top shape: 1 256 144 175 (6451200)
I0209 11:05:22.345227  1757 net.cpp:165] Memory required for data: 712340448
I0209 11:05:22.345230  1757 layer_factory.hpp:77] Creating layer conv3_2
I0209 11:05:22.345243  1757 net.cpp:100] Creating Layer conv3_2
I0209 11:05:22.345248  1757 net.cpp:434] conv3_2 <- conv3_1
I0209 11:05:22.345255  1757 net.cpp:408] conv3_2 -> conv3_2
I0209 11:05:22.354840  1757 net.cpp:150] Setting up conv3_2
I0209 11:05:22.354857  1757 net.cpp:157] Top shape: 1 256 144 175 (6451200)
I0209 11:05:22.354861  1757 net.cpp:165] Memory required for data: 738145248
I0209 11:05:22.354871  1757 layer_factory.hpp:77] Creating layer relu3_2
I0209 11:05:22.354877  1757 net.cpp:100] Creating Layer relu3_2
I0209 11:05:22.354882  1757 net.cpp:434] relu3_2 <- conv3_2
I0209 11:05:22.354890  1757 net.cpp:395] relu3_2 -> conv3_2 (in-place)
I0209 11:05:22.356149  1757 net.cpp:150] Setting up relu3_2
I0209 11:05:22.356159  1757 net.cpp:157] Top shape: 1 256 144 175 (6451200)
I0209 11:05:22.356163  1757 net.cpp:165] Memory required for data: 763950048
I0209 11:05:22.356168  1757 layer_factory.hpp:77] Creating layer conv3_3
I0209 11:05:22.356181  1757 net.cpp:100] Creating Layer conv3_3
I0209 11:05:22.356186  1757 net.cpp:434] conv3_3 <- conv3_2
I0209 11:05:22.356195  1757 net.cpp:408] conv3_3 -> conv3_3
I0209 11:05:22.363348  1757 net.cpp:150] Setting up conv3_3
I0209 11:05:22.363365  1757 net.cpp:157] Top shape: 1 256 144 175 (6451200)
I0209 11:05:22.363370  1757 net.cpp:165] Memory required for data: 789754848
I0209 11:05:22.363379  1757 layer_factory.hpp:77] Creating layer relu3_3
I0209 11:05:22.363386  1757 net.cpp:100] Creating Layer relu3_3
I0209 11:05:22.363390  1757 net.cpp:434] relu3_3 <- conv3_3
I0209 11:05:22.363399  1757 net.cpp:395] relu3_3 -> conv3_3 (in-place)
I0209 11:05:22.365335  1757 net.cpp:150] Setting up relu3_3
I0209 11:05:22.365348  1757 net.cpp:157] Top shape: 1 256 144 175 (6451200)
I0209 11:05:22.365353  1757 net.cpp:165] Memory required for data: 815559648
I0209 11:05:22.365357  1757 layer_factory.hpp:77] Creating layer pool3
I0209 11:05:22.365367  1757 net.cpp:100] Creating Layer pool3
I0209 11:05:22.365372  1757 net.cpp:434] pool3 <- conv3_3
I0209 11:05:22.365380  1757 net.cpp:408] pool3 -> pool3
I0209 11:05:22.365432  1757 net.cpp:150] Setting up pool3
I0209 11:05:22.365439  1757 net.cpp:157] Top shape: 1 256 72 88 (1622016)
I0209 11:05:22.365443  1757 net.cpp:165] Memory required for data: 822047712
I0209 11:05:22.365448  1757 layer_factory.hpp:77] Creating layer pool3_pool3_0_split
I0209 11:05:22.365455  1757 net.cpp:100] Creating Layer pool3_pool3_0_split
I0209 11:05:22.365459  1757 net.cpp:434] pool3_pool3_0_split <- pool3
I0209 11:05:22.365464  1757 net.cpp:408] pool3_pool3_0_split -> pool3_pool3_0_split_0
I0209 11:05:22.365473  1757 net.cpp:408] pool3_pool3_0_split -> pool3_pool3_0_split_1
I0209 11:05:22.365519  1757 net.cpp:150] Setting up pool3_pool3_0_split
I0209 11:05:22.365525  1757 net.cpp:157] Top shape: 1 256 72 88 (1622016)
I0209 11:05:22.365531  1757 net.cpp:157] Top shape: 1 256 72 88 (1622016)
I0209 11:05:22.365535  1757 net.cpp:165] Memory required for data: 835023840
I0209 11:05:22.365540  1757 layer_factory.hpp:77] Creating layer conv4_1
I0209 11:05:22.365552  1757 net.cpp:100] Creating Layer conv4_1
I0209 11:05:22.365557  1757 net.cpp:434] conv4_1 <- pool3_pool3_0_split_0
I0209 11:05:22.365564  1757 net.cpp:408] conv4_1 -> conv4_1
I0209 11:05:22.377593  1757 net.cpp:150] Setting up conv4_1
I0209 11:05:22.377612  1757 net.cpp:157] Top shape: 1 512 72 88 (3244032)
I0209 11:05:22.377617  1757 net.cpp:165] Memory required for data: 847999968
I0209 11:05:22.377626  1757 layer_factory.hpp:77] Creating layer relu4_1
I0209 11:05:22.377635  1757 net.cpp:100] Creating Layer relu4_1
I0209 11:05:22.377646  1757 net.cpp:434] relu4_1 <- conv4_1
I0209 11:05:22.377657  1757 net.cpp:395] relu4_1 -> conv4_1 (in-place)
I0209 11:05:22.379010  1757 net.cpp:150] Setting up relu4_1
I0209 11:05:22.379024  1757 net.cpp:157] Top shape: 1 512 72 88 (3244032)
I0209 11:05:22.379029  1757 net.cpp:165] Memory required for data: 860976096
I0209 11:05:22.379034  1757 layer_factory.hpp:77] Creating layer conv4_2
I0209 11:05:22.379047  1757 net.cpp:100] Creating Layer conv4_2
I0209 11:05:22.379052  1757 net.cpp:434] conv4_2 <- conv4_1
I0209 11:05:22.379060  1757 net.cpp:408] conv4_2 -> conv4_2
I0209 11:05:22.397586  1757 net.cpp:150] Setting up conv4_2
I0209 11:05:22.397610  1757 net.cpp:157] Top shape: 1 512 72 88 (3244032)
I0209 11:05:22.397616  1757 net.cpp:165] Memory required for data: 873952224
I0209 11:05:22.397629  1757 layer_factory.hpp:77] Creating layer relu4_2
I0209 11:05:22.397650  1757 net.cpp:100] Creating Layer relu4_2
I0209 11:05:22.397658  1757 net.cpp:434] relu4_2 <- conv4_2
I0209 11:05:22.397665  1757 net.cpp:395] relu4_2 -> conv4_2 (in-place)
I0209 11:05:22.399060  1757 net.cpp:150] Setting up relu4_2
I0209 11:05:22.399071  1757 net.cpp:157] Top shape: 1 512 72 88 (3244032)
I0209 11:05:22.399075  1757 net.cpp:165] Memory required for data: 886928352
I0209 11:05:22.399080  1757 layer_factory.hpp:77] Creating layer conv4_3
I0209 11:05:22.399094  1757 net.cpp:100] Creating Layer conv4_3
I0209 11:05:22.399099  1757 net.cpp:434] conv4_3 <- conv4_2
I0209 11:05:22.399107  1757 net.cpp:408] conv4_3 -> conv4_3
I0209 11:05:22.418597  1757 net.cpp:150] Setting up conv4_3
I0209 11:05:22.418622  1757 net.cpp:157] Top shape: 1 512 72 88 (3244032)
I0209 11:05:22.418627  1757 net.cpp:165] Memory required for data: 899904480
I0209 11:05:22.418637  1757 layer_factory.hpp:77] Creating layer relu4_3
I0209 11:05:22.418647  1757 net.cpp:100] Creating Layer relu4_3
I0209 11:05:22.418653  1757 net.cpp:434] relu4_3 <- conv4_3
I0209 11:05:22.418659  1757 net.cpp:395] relu4_3 -> conv4_3 (in-place)
I0209 11:05:22.420274  1757 net.cpp:150] Setting up relu4_3
I0209 11:05:22.420289  1757 net.cpp:157] Top shape: 1 512 72 88 (3244032)
I0209 11:05:22.420295  1757 net.cpp:165] Memory required for data: 912880608
I0209 11:05:22.420298  1757 layer_factory.hpp:77] Creating layer pool4
I0209 11:05:22.420307  1757 net.cpp:100] Creating Layer pool4
I0209 11:05:22.420312  1757 net.cpp:434] pool4 <- conv4_3
I0209 11:05:22.420321  1757 net.cpp:408] pool4 -> pool4
I0209 11:05:22.420372  1757 net.cpp:150] Setting up pool4
I0209 11:05:22.420379  1757 net.cpp:157] Top shape: 1 512 36 44 (811008)
I0209 11:05:22.420383  1757 net.cpp:165] Memory required for data: 916124640
I0209 11:05:22.420387  1757 layer_factory.hpp:77] Creating layer pool4_pool4_0_split
I0209 11:05:22.420397  1757 net.cpp:100] Creating Layer pool4_pool4_0_split
I0209 11:05:22.420400  1757 net.cpp:434] pool4_pool4_0_split <- pool4
I0209 11:05:22.420406  1757 net.cpp:408] pool4_pool4_0_split -> pool4_pool4_0_split_0
I0209 11:05:22.420413  1757 net.cpp:408] pool4_pool4_0_split -> pool4_pool4_0_split_1
I0209 11:05:22.420452  1757 net.cpp:150] Setting up pool4_pool4_0_split
I0209 11:05:22.420467  1757 net.cpp:157] Top shape: 1 512 36 44 (811008)
I0209 11:05:22.420473  1757 net.cpp:157] Top shape: 1 512 36 44 (811008)
I0209 11:05:22.420477  1757 net.cpp:165] Memory required for data: 922612704
I0209 11:05:22.420481  1757 layer_factory.hpp:77] Creating layer conv5_1
I0209 11:05:22.420495  1757 net.cpp:100] Creating Layer conv5_1
I0209 11:05:22.420500  1757 net.cpp:434] conv5_1 <- pool4_pool4_0_split_0
I0209 11:05:22.420509  1757 net.cpp:408] conv5_1 -> conv5_1
I0209 11:05:22.438745  1757 net.cpp:150] Setting up conv5_1
I0209 11:05:22.438769  1757 net.cpp:157] Top shape: 1 512 36 44 (811008)
I0209 11:05:22.438774  1757 net.cpp:165] Memory required for data: 925856736
I0209 11:05:22.438784  1757 layer_factory.hpp:77] Creating layer relu5_1
I0209 11:05:22.438796  1757 net.cpp:100] Creating Layer relu5_1
I0209 11:05:22.438802  1757 net.cpp:434] relu5_1 <- conv5_1
I0209 11:05:22.438808  1757 net.cpp:395] relu5_1 -> conv5_1 (in-place)
I0209 11:05:22.440321  1757 net.cpp:150] Setting up relu5_1
I0209 11:05:22.440337  1757 net.cpp:157] Top shape: 1 512 36 44 (811008)
I0209 11:05:22.440342  1757 net.cpp:165] Memory required for data: 929100768
I0209 11:05:22.440347  1757 layer_factory.hpp:77] Creating layer conv5_2
I0209 11:05:22.440359  1757 net.cpp:100] Creating Layer conv5_2
I0209 11:05:22.440364  1757 net.cpp:434] conv5_2 <- conv5_1
I0209 11:05:22.440373  1757 net.cpp:408] conv5_2 -> conv5_2
I0209 11:05:22.459383  1757 net.cpp:150] Setting up conv5_2
I0209 11:05:22.459411  1757 net.cpp:157] Top shape: 1 512 36 44 (811008)
I0209 11:05:22.459416  1757 net.cpp:165] Memory required for data: 932344800
I0209 11:05:22.459426  1757 layer_factory.hpp:77] Creating layer relu5_2
I0209 11:05:22.459440  1757 net.cpp:100] Creating Layer relu5_2
I0209 11:05:22.459446  1757 net.cpp:434] relu5_2 <- conv5_2
I0209 11:05:22.459453  1757 net.cpp:395] relu5_2 -> conv5_2 (in-place)
I0209 11:05:22.460526  1757 net.cpp:150] Setting up relu5_2
I0209 11:05:22.460537  1757 net.cpp:157] Top shape: 1 512 36 44 (811008)
I0209 11:05:22.460541  1757 net.cpp:165] Memory required for data: 935588832
I0209 11:05:22.460546  1757 layer_factory.hpp:77] Creating layer conv5_3
I0209 11:05:22.460566  1757 net.cpp:100] Creating Layer conv5_3
I0209 11:05:22.460572  1757 net.cpp:434] conv5_3 <- conv5_2
I0209 11:05:22.460580  1757 net.cpp:408] conv5_3 -> conv5_3
I0209 11:05:22.481103  1757 net.cpp:150] Setting up conv5_3
I0209 11:05:22.481125  1757 net.cpp:157] Top shape: 1 512 36 44 (811008)
I0209 11:05:22.481130  1757 net.cpp:165] Memory required for data: 938832864
I0209 11:05:22.481140  1757 layer_factory.hpp:77] Creating layer relu5_3
I0209 11:05:22.481150  1757 net.cpp:100] Creating Layer relu5_3
I0209 11:05:22.481156  1757 net.cpp:434] relu5_3 <- conv5_3
I0209 11:05:22.481163  1757 net.cpp:395] relu5_3 -> conv5_3 (in-place)
I0209 11:05:22.483408  1757 net.cpp:150] Setting up relu5_3
I0209 11:05:22.483423  1757 net.cpp:157] Top shape: 1 512 36 44 (811008)
I0209 11:05:22.483428  1757 net.cpp:165] Memory required for data: 942076896
I0209 11:05:22.483433  1757 layer_factory.hpp:77] Creating layer pool5
I0209 11:05:22.483443  1757 net.cpp:100] Creating Layer pool5
I0209 11:05:22.483448  1757 net.cpp:434] pool5 <- conv5_3
I0209 11:05:22.483455  1757 net.cpp:408] pool5 -> pool5
I0209 11:05:22.483510  1757 net.cpp:150] Setting up pool5
I0209 11:05:22.483516  1757 net.cpp:157] Top shape: 1 512 18 22 (202752)
I0209 11:05:22.483521  1757 net.cpp:165] Memory required for data: 942887904
I0209 11:05:22.483525  1757 layer_factory.hpp:77] Creating layer fc6
I0209 11:05:22.483537  1757 net.cpp:100] Creating Layer fc6
I0209 11:05:22.483542  1757 net.cpp:434] fc6 <- pool5
I0209 11:05:22.483548  1757 net.cpp:408] fc6 -> fc6
I0209 11:05:23.432864  1757 net.cpp:150] Setting up fc6
I0209 11:05:23.432905  1757 net.cpp:157] Top shape: 1 4096 12 16 (786432)
I0209 11:05:23.432911  1757 net.cpp:165] Memory required for data: 946033632
I0209 11:05:23.432924  1757 layer_factory.hpp:77] Creating layer relu6
I0209 11:05:23.432946  1757 net.cpp:100] Creating Layer relu6
I0209 11:05:23.432952  1757 net.cpp:434] relu6 <- fc6
I0209 11:05:23.432960  1757 net.cpp:395] relu6 -> fc6 (in-place)
I0209 11:05:23.433394  1757 net.cpp:150] Setting up relu6
I0209 11:05:23.433409  1757 net.cpp:157] Top shape: 1 4096 12 16 (786432)
I0209 11:05:23.433414  1757 net.cpp:165] Memory required for data: 949179360
I0209 11:05:23.433419  1757 layer_factory.hpp:77] Creating layer drop6
I0209 11:05:23.433431  1757 net.cpp:100] Creating Layer drop6
I0209 11:05:23.433436  1757 net.cpp:434] drop6 <- fc6
I0209 11:05:23.433442  1757 net.cpp:395] drop6 -> fc6 (in-place)
I0209 11:05:23.433482  1757 net.cpp:150] Setting up drop6
I0209 11:05:23.433490  1757 net.cpp:157] Top shape: 1 4096 12 16 (786432)
I0209 11:05:23.433495  1757 net.cpp:165] Memory required for data: 952325088
I0209 11:05:23.433498  1757 layer_factory.hpp:77] Creating layer fc7
I0209 11:05:23.433511  1757 net.cpp:100] Creating Layer fc7
I0209 11:05:23.433516  1757 net.cpp:434] fc7 <- fc6
I0209 11:05:23.433523  1757 net.cpp:408] fc7 -> fc7
I0209 11:05:23.553495  1757 net.cpp:150] Setting up fc7
I0209 11:05:23.553534  1757 net.cpp:157] Top shape: 1 4096 12 16 (786432)
I0209 11:05:23.553539  1757 net.cpp:165] Memory required for data: 955470816
I0209 11:05:23.553550  1757 layer_factory.hpp:77] Creating layer relu7
I0209 11:05:23.553565  1757 net.cpp:100] Creating Layer relu7
I0209 11:05:23.553571  1757 net.cpp:434] relu7 <- fc7
I0209 11:05:23.553578  1757 net.cpp:395] relu7 -> fc7 (in-place)
I0209 11:05:23.553802  1757 net.cpp:150] Setting up relu7
I0209 11:05:23.553815  1757 net.cpp:157] Top shape: 1 4096 12 16 (786432)
I0209 11:05:23.553819  1757 net.cpp:165] Memory required for data: 958616544
I0209 11:05:23.553824  1757 layer_factory.hpp:77] Creating layer drop7
I0209 11:05:23.553834  1757 net.cpp:100] Creating Layer drop7
I0209 11:05:23.553839  1757 net.cpp:434] drop7 <- fc7
I0209 11:05:23.553845  1757 net.cpp:395] drop7 -> fc7 (in-place)
I0209 11:05:23.553882  1757 net.cpp:150] Setting up drop7
I0209 11:05:23.553889  1757 net.cpp:157] Top shape: 1 4096 12 16 (786432)
I0209 11:05:23.553894  1757 net.cpp:165] Memory required for data: 961762272
I0209 11:05:23.553899  1757 layer_factory.hpp:77] Creating layer score_fr
I0209 11:05:23.553910  1757 net.cpp:100] Creating Layer score_fr
I0209 11:05:23.553915  1757 net.cpp:434] score_fr <- fc7
I0209 11:05:23.553922  1757 net.cpp:408] score_fr -> score_fr
I0209 11:05:23.557008  1757 net.cpp:150] Setting up score_fr
I0209 11:05:23.557030  1757 net.cpp:157] Top shape: 1 6 12 16 (1152)
I0209 11:05:23.557039  1757 net.cpp:165] Memory required for data: 961766880
I0209 11:05:23.557051  1757 layer_factory.hpp:77] Creating layer upscore2
I0209 11:05:23.557070  1757 net.cpp:100] Creating Layer upscore2
I0209 11:05:23.557080  1757 net.cpp:434] upscore2 <- score_fr
I0209 11:05:23.557091  1757 net.cpp:408] upscore2 -> upscore2
I0209 11:05:23.557420  1757 net.cpp:150] Setting up upscore2
I0209 11:05:23.557433  1757 net.cpp:157] Top shape: 1 6 26 34 (5304)
I0209 11:05:23.557441  1757 net.cpp:165] Memory required for data: 961788096
I0209 11:05:23.557459  1757 layer_factory.hpp:77] Creating layer upscore2_upscore2_0_split
I0209 11:05:23.557471  1757 net.cpp:100] Creating Layer upscore2_upscore2_0_split
I0209 11:05:23.557478  1757 net.cpp:434] upscore2_upscore2_0_split <- upscore2
I0209 11:05:23.557489  1757 net.cpp:408] upscore2_upscore2_0_split -> upscore2_upscore2_0_split_0
I0209 11:05:23.557507  1757 net.cpp:408] upscore2_upscore2_0_split -> upscore2_upscore2_0_split_1
I0209 11:05:23.557566  1757 net.cpp:150] Setting up upscore2_upscore2_0_split
I0209 11:05:23.557579  1757 net.cpp:157] Top shape: 1 6 26 34 (5304)
I0209 11:05:23.557587  1757 net.cpp:157] Top shape: 1 6 26 34 (5304)
I0209 11:05:23.557595  1757 net.cpp:165] Memory required for data: 961830528
I0209 11:05:23.557601  1757 layer_factory.hpp:77] Creating layer scale_pool4
I0209 11:05:23.557620  1757 net.cpp:100] Creating Layer scale_pool4
I0209 11:05:23.557628  1757 net.cpp:434] scale_pool4 <- pool4_pool4_0_split_1
I0209 11:05:23.557664  1757 net.cpp:408] scale_pool4 -> scale_pool4
I0209 11:05:23.557837  1757 net.cpp:150] Setting up scale_pool4
I0209 11:05:23.557852  1757 net.cpp:157] Top shape: 1 512 36 44 (811008)
I0209 11:05:23.557860  1757 net.cpp:165] Memory required for data: 965074560
I0209 11:05:23.557869  1757 layer_factory.hpp:77] Creating layer score_pool4
I0209 11:05:23.557886  1757 net.cpp:100] Creating Layer score_pool4
I0209 11:05:23.557894  1757 net.cpp:434] score_pool4 <- scale_pool4
I0209 11:05:23.557905  1757 net.cpp:408] score_pool4 -> score_pool4
I0209 11:05:23.559918  1757 net.cpp:150] Setting up score_pool4
I0209 11:05:23.559938  1757 net.cpp:157] Top shape: 1 6 36 44 (9504)
I0209 11:05:23.559945  1757 net.cpp:165] Memory required for data: 965112576
I0209 11:05:23.559958  1757 layer_factory.hpp:77] Creating layer score_pool4c
I0209 11:05:23.559975  1757 net.cpp:100] Creating Layer score_pool4c
I0209 11:05:23.559984  1757 net.cpp:434] score_pool4c <- score_pool4
I0209 11:05:23.559994  1757 net.cpp:434] score_pool4c <- upscore2_upscore2_0_split_0
I0209 11:05:23.560004  1757 net.cpp:408] score_pool4c -> score_pool4c
I0209 11:05:23.560055  1757 net.cpp:150] Setting up score_pool4c
I0209 11:05:23.560067  1757 net.cpp:157] Top shape: 1 6 26 34 (5304)
I0209 11:05:23.560075  1757 net.cpp:165] Memory required for data: 965133792
I0209 11:05:23.560081  1757 layer_factory.hpp:77] Creating layer fuse_pool4
I0209 11:05:23.560094  1757 net.cpp:100] Creating Layer fuse_pool4
I0209 11:05:23.560102  1757 net.cpp:434] fuse_pool4 <- upscore2_upscore2_0_split_1
I0209 11:05:23.560111  1757 net.cpp:434] fuse_pool4 <- score_pool4c
I0209 11:05:23.560123  1757 net.cpp:408] fuse_pool4 -> fuse_pool4
I0209 11:05:23.560166  1757 net.cpp:150] Setting up fuse_pool4
I0209 11:05:23.560178  1757 net.cpp:157] Top shape: 1 6 26 34 (5304)
I0209 11:05:23.560184  1757 net.cpp:165] Memory required for data: 965155008
I0209 11:05:23.560194  1757 layer_factory.hpp:77] Creating layer upscore_pool4
I0209 11:05:23.560211  1757 net.cpp:100] Creating Layer upscore_pool4
I0209 11:05:23.560220  1757 net.cpp:434] upscore_pool4 <- fuse_pool4
I0209 11:05:23.560230  1757 net.cpp:408] upscore_pool4 -> upscore_pool4
I0209 11:05:23.560547  1757 net.cpp:150] Setting up upscore_pool4
I0209 11:05:23.560559  1757 net.cpp:157] Top shape: 1 6 54 70 (22680)
I0209 11:05:23.560567  1757 net.cpp:165] Memory required for data: 965245728
I0209 11:05:23.560576  1757 layer_factory.hpp:77] Creating layer upscore_pool4_upscore_pool4_0_split
I0209 11:05:23.560587  1757 net.cpp:100] Creating Layer upscore_pool4_upscore_pool4_0_split
I0209 11:05:23.560595  1757 net.cpp:434] upscore_pool4_upscore_pool4_0_split <- upscore_pool4
I0209 11:05:23.560605  1757 net.cpp:408] upscore_pool4_upscore_pool4_0_split -> upscore_pool4_upscore_pool4_0_split_0
I0209 11:05:23.560616  1757 net.cpp:408] upscore_pool4_upscore_pool4_0_split -> upscore_pool4_upscore_pool4_0_split_1
I0209 11:05:23.560675  1757 net.cpp:150] Setting up upscore_pool4_upscore_pool4_0_split
I0209 11:05:23.560686  1757 net.cpp:157] Top shape: 1 6 54 70 (22680)
I0209 11:05:23.560695  1757 net.cpp:157] Top shape: 1 6 54 70 (22680)
I0209 11:05:23.560703  1757 net.cpp:165] Memory required for data: 965427168
I0209 11:05:23.560709  1757 layer_factory.hpp:77] Creating layer scale_pool3
I0209 11:05:23.560724  1757 net.cpp:100] Creating Layer scale_pool3
I0209 11:05:23.560730  1757 net.cpp:434] scale_pool3 <- pool3_pool3_0_split_1
I0209 11:05:23.560741  1757 net.cpp:408] scale_pool3 -> scale_pool3
I0209 11:05:23.560896  1757 net.cpp:150] Setting up scale_pool3
I0209 11:05:23.560909  1757 net.cpp:157] Top shape: 1 256 72 88 (1622016)
I0209 11:05:23.560915  1757 net.cpp:165] Memory required for data: 971915232
I0209 11:05:23.560925  1757 layer_factory.hpp:77] Creating layer score_pool3
I0209 11:05:23.560941  1757 net.cpp:100] Creating Layer score_pool3
I0209 11:05:23.560948  1757 net.cpp:434] score_pool3 <- scale_pool3
I0209 11:05:23.560962  1757 net.cpp:408] score_pool3 -> score_pool3
I0209 11:05:23.562919  1757 net.cpp:150] Setting up score_pool3
I0209 11:05:23.562947  1757 net.cpp:157] Top shape: 1 6 72 88 (38016)
I0209 11:05:23.562955  1757 net.cpp:165] Memory required for data: 972067296
I0209 11:05:23.562968  1757 layer_factory.hpp:77] Creating layer score_pool3c
I0209 11:05:23.562980  1757 net.cpp:100] Creating Layer score_pool3c
I0209 11:05:23.562988  1757 net.cpp:434] score_pool3c <- score_pool3
I0209 11:05:23.562997  1757 net.cpp:434] score_pool3c <- upscore_pool4_upscore_pool4_0_split_0
I0209 11:05:23.563010  1757 net.cpp:408] score_pool3c -> score_pool3c
I0209 11:05:23.563055  1757 net.cpp:150] Setting up score_pool3c
I0209 11:05:23.563067  1757 net.cpp:157] Top shape: 1 6 54 70 (22680)
I0209 11:05:23.563074  1757 net.cpp:165] Memory required for data: 972158016
I0209 11:05:23.563082  1757 layer_factory.hpp:77] Creating layer fuse_pool3
I0209 11:05:23.563096  1757 net.cpp:100] Creating Layer fuse_pool3
I0209 11:05:23.563102  1757 net.cpp:434] fuse_pool3 <- upscore_pool4_upscore_pool4_0_split_1
I0209 11:05:23.563112  1757 net.cpp:434] fuse_pool3 <- score_pool3c
I0209 11:05:23.563120  1757 net.cpp:408] fuse_pool3 -> fuse_pool3
I0209 11:05:23.563163  1757 net.cpp:150] Setting up fuse_pool3
I0209 11:05:23.563174  1757 net.cpp:157] Top shape: 1 6 54 70 (22680)
I0209 11:05:23.563180  1757 net.cpp:165] Memory required for data: 972248736
I0209 11:05:23.563189  1757 layer_factory.hpp:77] Creating layer upscore8
I0209 11:05:23.563202  1757 net.cpp:100] Creating Layer upscore8
I0209 11:05:23.563210  1757 net.cpp:434] upscore8 <- fuse_pool3
I0209 11:05:23.563222  1757 net.cpp:408] upscore8 -> upscore8
I0209 11:05:23.563635  1757 net.cpp:150] Setting up upscore8
I0209 11:05:23.563649  1757 net.cpp:157] Top shape: 1 6 440 568 (1499520)
I0209 11:05:23.563657  1757 net.cpp:165] Memory required for data: 978246816
I0209 11:05:23.563666  1757 layer_factory.hpp:77] Creating layer score
I0209 11:05:23.563676  1757 net.cpp:100] Creating Layer score
I0209 11:05:23.563684  1757 net.cpp:434] score <- upscore8
I0209 11:05:23.563694  1757 net.cpp:434] score <- data_data_0_split_1
I0209 11:05:23.563702  1757 net.cpp:408] score -> score
I0209 11:05:23.563745  1757 net.cpp:150] Setting up score
I0209 11:05:23.563756  1757 net.cpp:157] Top shape: 1 6 375 500 (1125000)
I0209 11:05:23.563763  1757 net.cpp:165] Memory required for data: 982746816
I0209 11:05:23.563771  1757 layer_factory.hpp:77] Creating layer loss
I0209 11:05:23.563784  1757 net.cpp:100] Creating Layer loss
I0209 11:05:23.563791  1757 net.cpp:434] loss <- score
I0209 11:05:23.563799  1757 net.cpp:434] loss <- label
I0209 11:05:23.563810  1757 net.cpp:408] loss -> loss
I0209 11:05:23.563827  1757 layer_factory.hpp:77] Creating layer loss
…
I0209 11:05:23.571678  1757 net.cpp:283] Network initialization done.
I0209 11:05:23.573719  1757 solver.cpp:181] Creating test net (#0) specified by test_net file: val.prototxt
I0209 11:05:23.574342  1757 net.cpp:58] Initializing net from parameters: 
state {
  phase: TEST
}
layer {
  name: "data"
  type: "Python"
  top: "data"
  top: "label"
  python_param {
    module: "voc_layers"
    layer: "PartialVOCSegDataLayer"
    param_str: "{\'voc_dir\': \'../data/pascal-obfuscated/VOC2011\', \'seed\': 1337, \'split\': \'seg11valid5\', \'mean\': (104.00699, 116.66877, 122.67892)}"
  }
}
layer {
  name: "conv1_1"
  type: "Convolution"
  bottom: "data"
  top: "conv1_1"
  param {
    lr_mult: 1
    decay_mult: 1
  }
  param {
    lr_mult: 2
    decay_mult: 0
  }
  convolution_param {
    num_output: 64
    pad: 100
    kernel_size: 3
    stride: 1
    weight_filler {
      type: "xavier"
    }
  }
}
layer {
  name: "relu1_1"
  type: "ReLU"
  bottom: "conv1_1"
  top: "conv1_1"
}
layer {
  name: "conv1_2"
  type: "Convolution"
  bottom: "conv1_1"
  top: "conv1_2"
  param {
    lr_mult: 1
    decay_mult: 1
  }
  param {
    lr_mult: 2
    decay_mult: 0
  }
  convolution_param {
    num_output: 64
    pad: 1
    kernel_size: 3
    stride: 1
    weight_filler {
      type: "xavier"
    }
  }
}
layer {
  name: "relu1_2"
  type: "ReLU"
  bottom: "conv1_2"
  top: "conv1_2"
}
layer {
  name: "pool1"
  type: "Pooling"
  bottom: "conv1_2"
  top: "pool1"
  pooling_param {
    pool: MAX
    kernel_size: 2
    stride: 2
  }
}
layer {
  name: "conv2_1"
  type: "Convolution"
  bottom: "pool1"
  top: "conv2_1"
  param {
    lr_mult: 1
    decay_mult: 1
  }
  param {
    lr_mult: 2
    decay_mult: 0
  }
  convolution_param {
    num_output: 128
    pad: 1
    kernel_size: 3
    stride: 1
    weight_filler {
      type: "xavier"
    }
  }
}
layer {
  name: "relu2_1"
  type: "ReLU"
  bottom: "conv2_1"
  top: "conv2_1"
}
layer {
  name: "conv2_2"
  type: "Convolution"
  bottom: "conv2_1"
  top: "conv2_2"
  param {
    lr_mult: 1
    decay_mult: 1
  }
  param {
    lr_mult: 2
    decay_mult: 0
  }
  convolution_param {
    num_output: 128
    pad: 1
    kernel_size: 3
    stride: 1
    weight_filler {
      type: "xavier"
    }
  }
}
layer {
  name: "relu2_2"
  type: "ReLU"
  bottom: "conv2_2"
  top: "conv2_2"
}
layer {
  name: "pool2"
  type: "Pooling"
  bottom: "conv2_2"
  top: "pool2"
  pooling_param {
    pool: MAX
    kernel_size: 2
    stride: 2
  }
}
layer {
  name: "conv3_1"
  type: "Convolution"
  bottom: "pool2"
  top: "conv3_1"
  param {
    lr_mult: 1
    decay_mult: 1
  }
  param {
    lr_mult: 2
    decay_mult: 0
  }
  convolution_param {
    num_output: 256
    pad: 1
    kernel_size: 3
    stride: 1
    weight_filler {
      type: "xavier"
    }
  }
}
layer {
  name: "relu3_1"
  type: "ReLU"
  bottom: "conv3_1"
  top: "conv3_1"
}
layer {
  name: "conv3_2"
  type: "Convolution"
  bottom: "conv3_1"
  top: "conv3_2"
  param {
    lr_mult: 1
    decay_mult: 1
  }
  param {
    lr_mult: 2
    decay_mult: 0
  }
  convolution_param {
    num_output: 256
    pad: 1
    kernel_size: 3
    stride: 1
    weight_filler {
      type: "xavier"
    }
  }
}
layer {
  name: "relu3_2"
  type: "ReLU"
  bottom: "conv3_2"
  top: "conv3_2"
}
layer {
  name: "conv3_3"
  type: "Convolution"
  bottom: "conv3_2"
  top: "conv3_3"
  param {
    lr_mult: 1
    decay_mult: 1
  }
  param {
    lr_mult: 2
    decay_mult: 0
  }
  convolution_param {
    num_output: 256
    pad: 1
    kernel_size: 3
    stride: 1
    weight_filler {
      type: "xavier"
    }
  }
}
layer {
  name: "relu3_3"
  type: "ReLU"
  bottom: "conv3_3"
  top: "conv3_3"
}
layer {
  name: "pool3"
  type: "Pooling"
  bottom: "conv3_3"
  top: "pool3"
  pooling_param {
    pool: MAX
    kernel_size: 2
    stride: 2
  }
}
layer {
  name: "conv4_1"
  type: "Convolution"
  bottom: "pool3"
  top: "conv4_1"
  param {
    lr_mult: 1
    decay_mult: 1
  }
  param {
    lr_mult: 2
    decay_mult: 0
  }
  convolution_param {
    num_output: 512
    pad: 1
    kernel_size: 3
    stride: 1
    weight_filler {
      type: "xavier"
    }
  }
}
layer {
  name: "relu4_1"
  type: "ReLU"
  bottom: "conv4_1"
  top: "conv4_1"
}
layer {
  name: "conv4_2"
  type: "Convolution"
  bottom: "conv4_1"
  top: "conv4_2"
  param {
    lr_mult: 1
    decay_mult: 1
  }
  param {
    lr_mult: 2
    decay_mult: 0
  }
  convolution_param {
    num_output: 512
    pad: 1
    kernel_size: 3
    stride: 1
    weight_filler {
      type: "xavier"
    }
  }
}
layer {
  name: "relu4_2"
  type: "ReLU"
  bottom: "conv4_2"
  top: "conv4_2"
}
layer {
  name: "conv4_3"
  type: "Convolution"
  bottom: "conv4_2"
  top: "conv4_3"
  param {
    lr_mult: 1
    decay_mult: 1
  }
  param {
    lr_mult: 2
    decay_mult: 0
  }
  convolution_param {
    num_output: 512
    pad: 1
    kernel_size: 3
    stride: 1
    weight_filler {
      type: "xavier"
    }
  }
}
layer {
  name: "relu4_3"
  type: "ReLU"
  bottom: "conv4_3"
  top: "conv4_3"
}
layer {
  name: "pool4"
  type: "Pooling"
  bottom: "conv4_3"
  top: "pool4"
  pooling_param {
    pool: MAX
    kernel_size: 2
    stride: 2
  }
}
layer {
  name: "conv5_1"
  type: "Convolution"
  bottom: "pool4"
  top: "conv5_1"
  param {
    lr_mult: 1
    decay_mult: 1
  }
  param {
    lr_mult: 2
    decay_mult: 0
  }
  convolution_param {
    num_output: 512
    pad: 1
    kernel_size: 3
    stride: 1
    weight_filler {
      type: "xavier"
    }
  }
}
layer {
  name: "relu5_1"
  type: "ReLU"
  bottom: "conv5_1"
  top: "conv5_1"
}
layer {
  name: "conv5_2"
  type: "Convolution"
  bottom: "conv5_1"
  top: "conv5_2"
  param {
    lr_mult: 1
    decay_mult: 1
  }
  param {
    lr_mult: 2
    decay_mult: 0
  }
  convolution_param {
    num_output: 512
    pad: 1
    kernel_size: 3
    stride: 1
    weight_filler {
      type: "xavier"
    }
  }
}
layer {
  name: "relu5_2"
  type: "ReLU"
  bottom: "conv5_2"
  top: "conv5_2"
}
layer {
  name: "conv5_3"
  type: "Convolution"
  bottom: "conv5_2"
  top: "conv5_3"
  param {
    lr_mult: 1
    decay_mult: 1
  }
  param {
    lr_mult: 2
    decay_mult: 0
  }
  convolution_param {
    num_output: 512
    pad: 1
    kernel_size: 3
    stride: 1
    weight_filler {
      type: "xavier"
    }
  }
}
layer {
  name: "relu5_3"
  type: "ReLU"
  bottom: "conv5_3"
  top: "conv5_3"
}
layer {
  name: "pool5"
  type: "Pooling"
  bottom: "conv5_3"
  top: "pool5"
  pooling_param {
    pool: MAX
    kernel_size: 2
    stride: 2
  }
}
layer {
  name: "fc6"
  type: "Convolution"
  bottom: "pool5"
  top: "fc6"
  param {
    lr_mult: 1
    decay_mult: 1
  }
  param {
    lr_mult: 2
    decay_mult: 0
  }
  convolution_param {
    num_output: 4096
    pad: 0
    kernel_size: 7
    stride: 1
    weight_filler {
      type: "xavier"
    }
  }
}
layer {
  name: "relu6"
  type: "ReLU"
  bottom: "fc6"
  top: "fc6"
}
layer {
  name: "drop6"
  type: "Dropout"
  bottom: "fc6"
  top: "fc6"
  dropout_param {
    dropout_ratio: 0.5
  }
}
layer {
  name: "fc7"
  type: "Convolution"
  bottom: "fc6"
  top: "fc7"
  param {
    lr_mult: 1
    decay_mult: 1
  }
  param {
    lr_mult: 2
    decay_mult: 0
  }
  convolution_param {
    num_output: 4096
    pad: 0
    kernel_size: 1
    stride: 1
    weight_filler {
      type: "xavier"
    }
  }
}
layer {
  name: "relu7"
  type: "ReLU"
  bottom: "fc7"
  top: "fc7"
}
layer {
  name: "drop7"
  type: "Dropout"
  bottom: "fc7"
  top: "fc7"
  dropout_param {
    dropout_ratio: 0.5
  }
}
layer {
  name: "score_fr"
  type: "Convolution"
  bottom: "fc7"
  top: "score_fr"
  param {
    lr_mult: 1
    decay_mult: 1
  }
  param {
    lr_mult: 2
    decay_mult: 0
  }
  convolution_param {
    num_output: 6
    pad: 0
    kernel_size: 1
    weight_filler {
      type: "xavier"
    }
  }
}
layer {
  name: "upscore2"
  type: "Deconvolution"
  bottom: "score_fr"
  top: "upscore2"
  param {
    lr_mult: 0
  }
  convolution_param {
    num_output: 6
    bias_term: false
    kernel_size: 4
    stride: 2
    weight_filler {
      type: "xavier"
    }
  }
}
layer {
  name: "scale_pool4"
  type: "Scale"
  bottom: "pool4"
  top: "scale_pool4"
  param {
    lr_mult: 0
  }
  scale_param {
    filler {
      type: "constant"
      value: 0.01
    }
  }
}
layer {
  name: "score_pool4"
  type: "Convolution"
  bottom: "scale_pool4"
  top: "score_pool4"
  param {
    lr_mult: 1
    decay_mult: 1
  }
  param {
    lr_mult: 2
    decay_mult: 0
  }
  convolution_param {
    num_output: 6
    pad: 0
    kernel_size: 1
    weight_filler {
      type: "xavier"
    }
  }
}
layer {
  name: "score_pool4c"
  type: "Crop"
  bottom: "score_pool4"
  bottom: "upscore2"
  top: "score_pool4c"
  crop_param {
    axis: 2
    offset: 5
  }
}
layer {
  name: "fuse_pool4"
  type: "Eltwise"
  bottom: "upscore2"
  bottom: "score_pool4c"
  top: "fuse_pool4"
  eltwise_param {
    operation: SUM
  }
}
layer {
  name: "upscore_pool4"
  type: "Deconvolution"
  bottom: "fuse_pool4"
  top: "upscore_pool4"
  param {
    lr_mult: 0
  }
  convolution_param {
    num_output: 6
    bias_term: false
    kernel_size: 4
    stride: 2
    weight_filler {
      type: "xavier"
    }
  }
}
layer {
  name: "scale_pool3"
  type: "Scale"
  bottom: "pool3"
  top: "scale_pool3"
  param {
    lr_mult: 0
  }
  scale_param {
    filler {
      type: "constant"
      value: 0.0001
    }
  }
}
layer {
  name: "score_pool3"
  type: "Convolution"
  bottom: "scale_pool3"
  top: "score_pool3"
  param {
    lr_mult: 1
    decay_mult: 1
  }
  param {
    lr_mult: 2
    decay_mult: 0
  }
  convolution_param {
    num_output: 6
    pad: 0
    kernel_size: 1
    weight_filler {
      type: "xavier"
    }
  }
}
layer {
  name: "score_pool3c"
  type: "Crop"
  bottom: "score_pool3"
  bottom: "upscore_pool4"
  top: "score_pool3c"
  crop_param {
    axis: 2
    offset: 9
  }
}
layer {
  name: "fuse_pool3"
  type: "Eltwise"
  bottom: "upscore_pool4"
  bottom: "score_pool3c"
  top: "fuse_pool3"
  eltwise_param {
    operation: SUM
  }
}
layer {
  name: "upscore8"
  type: "Deconvolution"
  bottom: "fuse_pool3"
  top: "upscore8"
  param {
    lr_mult: 0
  }
  convolution_param {
    num_output: 6
    bias_term: false
    kernel_size: 16
    stride: 8
    weight_filler {
      type: "xavier"
    }
  }
}
layer {
  name: "score"
  type: "Crop"
  bottom: "upscore8"
  bottom: "data"
  top: "score"
  crop_param {
    axis: 2
    offset: 31
  }
}
layer {
  name: "loss"
  type: "SoftmaxWithLoss"
  bottom: "score"
  bottom: "label"
  top: "loss"
  loss_param {
    ignore_label: 255
    normalize: false
  }
}
I0209 11:05:23.574694  1757 layer_factory.hpp:77] Creating layer data
I0209 11:05:23.574789  1757 net.cpp:100] Creating Layer data
I0209 11:05:23.574800  1757 net.cpp:408] data -> data
I0209 11:05:23.574813  1757 net.cpp:408] data -> label
I0209 11:05:23.604828  1757 net.cpp:150] Setting up data
I0209 11:05:23.604857  1757 net.cpp:157] Top shape: 1 3 335 500 (502500)
I0209 11:05:23.604868  1757 net.cpp:157] Top shape: 1 1 335 500 (167500)
I0209 11:05:23.604876  1757 net.cpp:165] Memory required for data: 2680000
I0209 11:05:23.604884  1757 layer_factory.hpp:77] Creating layer data_data_0_split
I0209 11:05:23.604898  1757 net.cpp:100] Creating Layer data_data_0_split
I0209 11:05:23.604907  1757 net.cpp:434] data_data_0_split <- data
I0209 11:05:23.604918  1757 net.cpp:408] data_data_0_split -> data_data_0_split_0
I0209 11:05:23.604933  1757 net.cpp:408] data_data_0_split -> data_data_0_split_1
I0209 11:05:23.604995  1757 net.cpp:150] Setting up data_data_0_split
I0209 11:05:23.605007  1757 net.cpp:157] Top shape: 1 3 335 500 (502500)
I0209 11:05:23.605016  1757 net.cpp:157] Top shape: 1 3 335 500 (502500)
I0209 11:05:23.605023  1757 net.cpp:165] Memory required for data: 6700000
I0209 11:05:23.605031  1757 layer_factory.hpp:77] Creating layer conv1_1
I0209 11:05:23.605048  1757 net.cpp:100] Creating Layer conv1_1
I0209 11:05:23.605056  1757 net.cpp:434] conv1_1 <- data_data_0_split_0
I0209 11:05:23.605067  1757 net.cpp:408] conv1_1 -> conv1_1
I0209 11:05:23.608219  1757 net.cpp:150] Setting up conv1_1
I0209 11:05:23.608243  1757 net.cpp:157] Top shape: 1 64 533 698 (23810176)
I0209 11:05:23.608252  1757 net.cpp:165] Memory required for data: 101940704
I0209 11:05:23.608270  1757 layer_factory.hpp:77] Creating layer relu1_1
I0209 11:05:23.608283  1757 net.cpp:100] Creating Layer relu1_1
I0209 11:05:23.608289  1757 net.cpp:434] relu1_1 <- conv1_1
I0209 11:05:23.608300  1757 net.cpp:395] relu1_1 -> conv1_1 (in-place)
I0209 11:05:23.608580  1757 net.cpp:150] Setting up relu1_1
I0209 11:05:23.608595  1757 net.cpp:157] Top shape: 1 64 533 698 (23810176)
I0209 11:05:23.608603  1757 net.cpp:165] Memory required for data: 197181408
I0209 11:05:23.608611  1757 layer_factory.hpp:77] Creating layer conv1_2
I0209 11:05:23.608628  1757 net.cpp:100] Creating Layer conv1_2
I0209 11:05:23.608635  1757 net.cpp:434] conv1_2 <- conv1_1
I0209 11:05:23.608646  1757 net.cpp:408] conv1_2 -> conv1_2
I0209 11:05:23.614869  1757 net.cpp:150] Setting up conv1_2
I0209 11:05:23.614892  1757 net.cpp:157] Top shape: 1 64 533 698 (23810176)
I0209 11:05:23.614900  1757 net.cpp:165] Memory required for data: 292422112
I0209 11:05:23.615032  1757 layer_factory.hpp:77] Creating layer relu1_2
I0209 11:05:23.615044  1757 net.cpp:100] Creating Layer relu1_2
I0209 11:05:23.615053  1757 net.cpp:434] relu1_2 <- conv1_2
I0209 11:05:23.615063  1757 net.cpp:395] relu1_2 -> conv1_2 (in-place)
I0209 11:05:23.615661  1757 net.cpp:150] Setting up relu1_2
I0209 11:05:23.615680  1757 net.cpp:157] Top shape: 1 64 533 698 (23810176)
I0209 11:05:23.615689  1757 net.cpp:165] Memory required for data: 387662816
I0209 11:05:23.615696  1757 layer_factory.hpp:77] Creating layer pool1
I0209 11:05:23.615708  1757 net.cpp:100] Creating Layer pool1
I0209 11:05:23.615716  1757 net.cpp:434] pool1 <- conv1_2
I0209 11:05:23.615727  1757 net.cpp:408] pool1 -> pool1
I0209 11:05:23.615800  1757 net.cpp:150] Setting up pool1
I0209 11:05:23.615813  1757 net.cpp:157] Top shape: 1 64 267 349 (5963712)
I0209 11:05:23.615820  1757 net.cpp:165] Memory required for data: 411517664
I0209 11:05:23.615828  1757 layer_factory.hpp:77] Creating layer conv2_1
I0209 11:05:23.615842  1757 net.cpp:100] Creating Layer conv2_1
I0209 11:05:23.615850  1757 net.cpp:434] conv2_1 <- pool1
I0209 11:05:23.615861  1757 net.cpp:408] conv2_1 -> conv2_1
I0209 11:05:23.619246  1757 net.cpp:150] Setting up conv2_1
I0209 11:05:23.619267  1757 net.cpp:157] Top shape: 1 128 267 349 (11927424)
I0209 11:05:23.619277  1757 net.cpp:165] Memory required for data: 459227360
I0209 11:05:23.619293  1757 layer_factory.hpp:77] Creating layer relu2_1
I0209 11:05:23.619307  1757 net.cpp:100] Creating Layer relu2_1
I0209 11:05:23.619314  1757 net.cpp:434] relu2_1 <- conv2_1
I0209 11:05:23.619325  1757 net.cpp:395] relu2_1 -> conv2_1 (in-place)
I0209 11:05:23.619945  1757 net.cpp:150] Setting up relu2_1
I0209 11:05:23.619962  1757 net.cpp:157] Top shape: 1 128 267 349 (11927424)
I0209 11:05:23.619971  1757 net.cpp:165] Memory required for data: 506937056
I0209 11:05:23.619978  1757 layer_factory.hpp:77] Creating layer conv2_2
I0209 11:05:23.619994  1757 net.cpp:100] Creating Layer conv2_2
I0209 11:05:23.620002  1757 net.cpp:434] conv2_2 <- conv2_1
I0209 11:05:23.620014  1757 net.cpp:408] conv2_2 -> conv2_2
I0209 11:05:23.624060  1757 net.cpp:150] Setting up conv2_2
I0209 11:05:23.624083  1757 net.cpp:157] Top shape: 1 128 267 349 (11927424)
I0209 11:05:23.624091  1757 net.cpp:165] Memory required for data: 554646752
I0209 11:05:23.624104  1757 layer_factory.hpp:77] Creating layer relu2_2
I0209 11:05:23.624116  1757 net.cpp:100] Creating Layer relu2_2
I0209 11:05:23.624125  1757 net.cpp:434] relu2_2 <- conv2_2
I0209 11:05:23.624135  1757 net.cpp:395] relu2_2 -> conv2_2 (in-place)
I0209 11:05:23.624418  1757 net.cpp:150] Setting up relu2_2
I0209 11:05:23.624433  1757 net.cpp:157] Top shape: 1 128 267 349 (11927424)
I0209 11:05:23.624440  1757 net.cpp:165] Memory required for data: 602356448
I0209 11:05:23.624447  1757 layer_factory.hpp:77] Creating layer pool2
I0209 11:05:23.624459  1757 net.cpp:100] Creating Layer pool2
I0209 11:05:23.624466  1757 net.cpp:434] pool2 <- conv2_2
I0209 11:05:23.624476  1757 net.cpp:408] pool2 -> pool2
I0209 11:05:23.624548  1757 net.cpp:150] Setting up pool2
I0209 11:05:23.624562  1757 net.cpp:157] Top shape: 1 128 134 175 (3001600)
I0209 11:05:23.624568  1757 net.cpp:165] Memory required for data: 614362848
I0209 11:05:23.624575  1757 layer_factory.hpp:77] Creating layer conv3_1
I0209 11:05:23.624590  1757 net.cpp:100] Creating Layer conv3_1
I0209 11:05:23.624598  1757 net.cpp:434] conv3_1 <- pool2
I0209 11:05:23.624609  1757 net.cpp:408] conv3_1 -> conv3_1
I0209 11:05:23.630074  1757 net.cpp:150] Setting up conv3_1
I0209 11:05:23.630096  1757 net.cpp:157] Top shape: 1 256 134 175 (6003200)
I0209 11:05:23.630105  1757 net.cpp:165] Memory required for data: 638375648
I0209 11:05:23.630121  1757 layer_factory.hpp:77] Creating layer relu3_1
I0209 11:05:23.630143  1757 net.cpp:100] Creating Layer relu3_1
I0209 11:05:23.630151  1757 net.cpp:434] relu3_1 <- conv3_1
I0209 11:05:23.630162  1757 net.cpp:395] relu3_1 -> conv3_1 (in-place)
I0209 11:05:23.630755  1757 net.cpp:150] Setting up relu3_1
I0209 11:05:23.630774  1757 net.cpp:157] Top shape: 1 256 134 175 (6003200)
I0209 11:05:23.630782  1757 net.cpp:165] Memory required for data: 662388448
I0209 11:05:23.630790  1757 layer_factory.hpp:77] Creating layer conv3_2
I0209 11:05:23.630805  1757 net.cpp:100] Creating Layer conv3_2
I0209 11:05:23.630815  1757 net.cpp:434] conv3_2 <- conv3_1
I0209 11:05:23.630825  1757 net.cpp:408] conv3_2 -> conv3_2
I0209 11:05:23.639592  1757 net.cpp:150] Setting up conv3_2
I0209 11:05:23.639614  1757 net.cpp:157] Top shape: 1 256 134 175 (6003200)
I0209 11:05:23.639622  1757 net.cpp:165] Memory required for data: 686401248
I0209 11:05:23.639636  1757 layer_factory.hpp:77] Creating layer relu3_2
I0209 11:05:23.639647  1757 net.cpp:100] Creating Layer relu3_2
I0209 11:05:23.639655  1757 net.cpp:434] relu3_2 <- conv3_2
I0209 11:05:23.639667  1757 net.cpp:395] relu3_2 -> conv3_2 (in-place)
I0209 11:05:23.639946  1757 net.cpp:150] Setting up relu3_2
I0209 11:05:23.639961  1757 net.cpp:157] Top shape: 1 256 134 175 (6003200)
I0209 11:05:23.639968  1757 net.cpp:165] Memory required for data: 710414048
I0209 11:05:23.639976  1757 layer_factory.hpp:77] Creating layer conv3_3
I0209 11:05:23.639996  1757 net.cpp:100] Creating Layer conv3_3
I0209 11:05:23.640003  1757 net.cpp:434] conv3_3 <- conv3_2
I0209 11:05:23.640015  1757 net.cpp:408] conv3_3 -> conv3_3
I0209 11:05:23.648802  1757 net.cpp:150] Setting up conv3_3
I0209 11:05:23.648823  1757 net.cpp:157] Top shape: 1 256 134 175 (6003200)
I0209 11:05:23.648831  1757 net.cpp:165] Memory required for data: 734426848
I0209 11:05:23.648844  1757 layer_factory.hpp:77] Creating layer relu3_3
I0209 11:05:23.648856  1757 net.cpp:100] Creating Layer relu3_3
I0209 11:05:23.648864  1757 net.cpp:434] relu3_3 <- conv3_3
I0209 11:05:23.648874  1757 net.cpp:395] relu3_3 -> conv3_3 (in-place)
I0209 11:05:23.649154  1757 net.cpp:150] Setting up relu3_3
I0209 11:05:23.649169  1757 net.cpp:157] Top shape: 1 256 134 175 (6003200)
I0209 11:05:23.649176  1757 net.cpp:165] Memory required for data: 758439648
I0209 11:05:23.649184  1757 layer_factory.hpp:77] Creating layer pool3
I0209 11:05:23.649196  1757 net.cpp:100] Creating Layer pool3
I0209 11:05:23.649204  1757 net.cpp:434] pool3 <- conv3_3
I0209 11:05:23.649214  1757 net.cpp:408] pool3 -> pool3
I0209 11:05:23.649289  1757 net.cpp:150] Setting up pool3
I0209 11:05:23.649302  1757 net.cpp:157] Top shape: 1 256 67 88 (1509376)
I0209 11:05:23.649308  1757 net.cpp:165] Memory required for data: 764477152
I0209 11:05:23.649317  1757 layer_factory.hpp:77] Creating layer pool3_pool3_0_split
I0209 11:05:23.649327  1757 net.cpp:100] Creating Layer pool3_pool3_0_split
I0209 11:05:23.649334  1757 net.cpp:434] pool3_pool3_0_split <- pool3
I0209 11:05:23.649344  1757 net.cpp:408] pool3_pool3_0_split -> pool3_pool3_0_split_0
I0209 11:05:23.649355  1757 net.cpp:408] pool3_pool3_0_split -> pool3_pool3_0_split_1
I0209 11:05:23.649418  1757 net.cpp:150] Setting up pool3_pool3_0_split
I0209 11:05:23.649430  1757 net.cpp:157] Top shape: 1 256 67 88 (1509376)
I0209 11:05:23.649438  1757 net.cpp:157] Top shape: 1 256 67 88 (1509376)
I0209 11:05:23.649446  1757 net.cpp:165] Memory required for data: 776552160
I0209 11:05:23.649453  1757 layer_factory.hpp:77] Creating layer conv4_1
I0209 11:05:23.649468  1757 net.cpp:100] Creating Layer conv4_1
I0209 11:05:23.649477  1757 net.cpp:434] conv4_1 <- pool3_pool3_0_split_0
I0209 11:05:23.649487  1757 net.cpp:408] conv4_1 -> conv4_1
I0209 11:05:23.664937  1757 net.cpp:150] Setting up conv4_1
I0209 11:05:23.664961  1757 net.cpp:157] Top shape: 1 512 67 88 (3018752)
I0209 11:05:23.664969  1757 net.cpp:165] Memory required for data: 788627168
I0209 11:05:23.664983  1757 layer_factory.hpp:77] Creating layer relu4_1
I0209 11:05:23.664994  1757 net.cpp:100] Creating Layer relu4_1
I0209 11:05:23.665001  1757 net.cpp:434] relu4_1 <- conv4_1
I0209 11:05:23.665021  1757 net.cpp:395] relu4_1 -> conv4_1 (in-place)
I0209 11:05:23.665637  1757 net.cpp:150] Setting up relu4_1
I0209 11:05:23.665662  1757 net.cpp:157] Top shape: 1 512 67 88 (3018752)
I0209 11:05:23.665669  1757 net.cpp:165] Memory required for data: 800702176
I0209 11:05:23.665678  1757 layer_factory.hpp:77] Creating layer conv4_2
I0209 11:05:23.665693  1757 net.cpp:100] Creating Layer conv4_2
I0209 11:05:23.665701  1757 net.cpp:434] conv4_2 <- conv4_1
I0209 11:05:23.665714  1757 net.cpp:408] conv4_2 -> conv4_2
I0209 11:05:23.694603  1757 net.cpp:150] Setting up conv4_2
I0209 11:05:23.694634  1757 net.cpp:157] Top shape: 1 512 67 88 (3018752)
I0209 11:05:23.694643  1757 net.cpp:165] Memory required for data: 812777184
I0209 11:05:23.694663  1757 layer_factory.hpp:77] Creating layer relu4_2
I0209 11:05:23.694674  1757 net.cpp:100] Creating Layer relu4_2
I0209 11:05:23.694684  1757 net.cpp:434] relu4_2 <- conv4_2
I0209 11:05:23.694694  1757 net.cpp:395] relu4_2 -> conv4_2 (in-place)
I0209 11:05:23.694985  1757 net.cpp:150] Setting up relu4_2
I0209 11:05:23.694999  1757 net.cpp:157] Top shape: 1 512 67 88 (3018752)
I0209 11:05:23.695006  1757 net.cpp:165] Memory required for data: 824852192
I0209 11:05:23.695014  1757 layer_factory.hpp:77] Creating layer conv4_3
I0209 11:05:23.695030  1757 net.cpp:100] Creating Layer conv4_3
I0209 11:05:23.695039  1757 net.cpp:434] conv4_3 <- conv4_2
I0209 11:05:23.695051  1757 net.cpp:408] conv4_3 -> conv4_3
I0209 11:05:23.729184  1757 net.cpp:150] Setting up conv4_3
I0209 11:05:23.729221  1757 net.cpp:157] Top shape: 1 512 67 88 (3018752)
I0209 11:05:23.729229  1757 net.cpp:165] Memory required for data: 836927200
I0209 11:05:23.729243  1757 layer_factory.hpp:77] Creating layer relu4_3
I0209 11:05:23.729257  1757 net.cpp:100] Creating Layer relu4_3
I0209 11:05:23.729266  1757 net.cpp:434] relu4_3 <- conv4_3
I0209 11:05:23.729279  1757 net.cpp:395] relu4_3 -> conv4_3 (in-place)
I0209 11:05:23.729581  1757 net.cpp:150] Setting up relu4_3
I0209 11:05:23.729596  1757 net.cpp:157] Top shape: 1 512 67 88 (3018752)
I0209 11:05:23.729604  1757 net.cpp:165] Memory required for data: 849002208
I0209 11:05:23.729611  1757 layer_factory.hpp:77] Creating layer pool4
I0209 11:05:23.729624  1757 net.cpp:100] Creating Layer pool4
I0209 11:05:23.729631  1757 net.cpp:434] pool4 <- conv4_3
I0209 11:05:23.729650  1757 net.cpp:408] pool4 -> pool4
I0209 11:05:23.729732  1757 net.cpp:150] Setting up pool4
I0209 11:05:23.729744  1757 net.cpp:157] Top shape: 1 512 34 44 (765952)
I0209 11:05:23.729751  1757 net.cpp:165] Memory required for data: 852066016
I0209 11:05:23.729759  1757 layer_factory.hpp:77] Creating layer pool4_pool4_0_split
I0209 11:05:23.729770  1757 net.cpp:100] Creating Layer pool4_pool4_0_split
I0209 11:05:23.729778  1757 net.cpp:434] pool4_pool4_0_split <- pool4
I0209 11:05:23.729787  1757 net.cpp:408] pool4_pool4_0_split -> pool4_pool4_0_split_0
I0209 11:05:23.729799  1757 net.cpp:408] pool4_pool4_0_split -> pool4_pool4_0_split_1
I0209 11:05:23.729862  1757 net.cpp:150] Setting up pool4_pool4_0_split
I0209 11:05:23.729874  1757 net.cpp:157] Top shape: 1 512 34 44 (765952)
I0209 11:05:23.729883  1757 net.cpp:157] Top shape: 1 512 34 44 (765952)
I0209 11:05:23.729890  1757 net.cpp:165] Memory required for data: 858193632
I0209 11:05:23.729897  1757 layer_factory.hpp:77] Creating layer conv5_1
I0209 11:05:23.729913  1757 net.cpp:100] Creating Layer conv5_1
I0209 11:05:23.729921  1757 net.cpp:434] conv5_1 <- pool4_pool4_0_split_0
I0209 11:05:23.729933  1757 net.cpp:408] conv5_1 -> conv5_1
I0209 11:05:23.758393  1757 net.cpp:150] Setting up conv5_1
I0209 11:05:23.758430  1757 net.cpp:157] Top shape: 1 512 34 44 (765952)
I0209 11:05:23.758437  1757 net.cpp:165] Memory required for data: 861257440
I0209 11:05:23.758452  1757 layer_factory.hpp:77] Creating layer relu5_1
I0209 11:05:23.758466  1757 net.cpp:100] Creating Layer relu5_1
I0209 11:05:23.758474  1757 net.cpp:434] relu5_1 <- conv5_1
I0209 11:05:23.758486  1757 net.cpp:395] relu5_1 -> conv5_1 (in-place)
I0209 11:05:23.759093  1757 net.cpp:150] Setting up relu5_1
I0209 11:05:23.759112  1757 net.cpp:157] Top shape: 1 512 34 44 (765952)
I0209 11:05:23.759119  1757 net.cpp:165] Memory required for data: 864321248
I0209 11:05:23.759127  1757 layer_factory.hpp:77] Creating layer conv5_2
I0209 11:05:23.759143  1757 net.cpp:100] Creating Layer conv5_2
I0209 11:05:23.759151  1757 net.cpp:434] conv5_2 <- conv5_1
I0209 11:05:23.759165  1757 net.cpp:408] conv5_2 -> conv5_2
I0209 11:05:23.781467  1757 net.cpp:150] Setting up conv5_2
I0209 11:05:23.781491  1757 net.cpp:157] Top shape: 1 512 34 44 (765952)
I0209 11:05:23.781496  1757 net.cpp:165] Memory required for data: 867385056
I0209 11:05:23.781504  1757 layer_factory.hpp:77] Creating layer relu5_2
I0209 11:05:23.781514  1757 net.cpp:100] Creating Layer relu5_2
I0209 11:05:23.781519  1757 net.cpp:434] relu5_2 <- conv5_2
I0209 11:05:23.781527  1757 net.cpp:395] relu5_2 -> conv5_2 (in-place)
I0209 11:05:23.781730  1757 net.cpp:150] Setting up relu5_2
I0209 11:05:23.781743  1757 net.cpp:157] Top shape: 1 512 34 44 (765952)
I0209 11:05:23.781746  1757 net.cpp:165] Memory required for data: 870448864
I0209 11:05:23.781751  1757 layer_factory.hpp:77] Creating layer conv5_3
I0209 11:05:23.781767  1757 net.cpp:100] Creating Layer conv5_3
I0209 11:05:23.781772  1757 net.cpp:434] conv5_3 <- conv5_2
I0209 11:05:23.781780  1757 net.cpp:408] conv5_3 -> conv5_3
I0209 11:05:23.800151  1757 net.cpp:150] Setting up conv5_3
I0209 11:05:23.800174  1757 net.cpp:157] Top shape: 1 512 34 44 (765952)
I0209 11:05:23.800179  1757 net.cpp:165] Memory required for data: 873512672
I0209 11:05:23.800189  1757 layer_factory.hpp:77] Creating layer relu5_3
I0209 11:05:23.800197  1757 net.cpp:100] Creating Layer relu5_3
I0209 11:05:23.800204  1757 net.cpp:434] relu5_3 <- conv5_3
I0209 11:05:23.800210  1757 net.cpp:395] relu5_3 -> conv5_3 (in-place)
I0209 11:05:23.800403  1757 net.cpp:150] Setting up relu5_3
I0209 11:05:23.800413  1757 net.cpp:157] Top shape: 1 512 34 44 (765952)
I0209 11:05:23.800418  1757 net.cpp:165] Memory required for data: 876576480
I0209 11:05:23.800422  1757 layer_factory.hpp:77] Creating layer pool5
I0209 11:05:23.800431  1757 net.cpp:100] Creating Layer pool5
I0209 11:05:23.800436  1757 net.cpp:434] pool5 <- conv5_3
I0209 11:05:23.800444  1757 net.cpp:408] pool5 -> pool5
I0209 11:05:23.800500  1757 net.cpp:150] Setting up pool5
I0209 11:05:23.800508  1757 net.cpp:157] Top shape: 1 512 17 22 (191488)
I0209 11:05:23.800511  1757 net.cpp:165] Memory required for data: 877342432
I0209 11:05:23.800516  1757 layer_factory.hpp:77] Creating layer fc6
I0209 11:05:23.800528  1757 net.cpp:100] Creating Layer fc6
I0209 11:05:23.800531  1757 net.cpp:434] fc6 <- pool5
I0209 11:05:23.800539  1757 net.cpp:408] fc6 -> fc6
I0209 11:05:24.540101  1757 net.cpp:150] Setting up fc6
I0209 11:05:24.540148  1757 net.cpp:157] Top shape: 1 4096 11 16 (720896)
I0209 11:05:24.540153  1757 net.cpp:165] Memory required for data: 880226016
I0209 11:05:24.540169  1757 layer_factory.hpp:77] Creating layer relu6
I0209 11:05:24.540187  1757 net.cpp:100] Creating Layer relu6
I0209 11:05:24.540195  1757 net.cpp:434] relu6 <- fc6
I0209 11:05:24.540205  1757 net.cpp:395] relu6 -> fc6 (in-place)
I0209 11:05:24.541609  1757 net.cpp:150] Setting up relu6
I0209 11:05:24.541621  1757 net.cpp:157] Top shape: 1 4096 11 16 (720896)
I0209 11:05:24.541626  1757 net.cpp:165] Memory required for data: 883109600
I0209 11:05:24.541631  1757 layer_factory.hpp:77] Creating layer drop6
I0209 11:05:24.541651  1757 net.cpp:100] Creating Layer drop6
I0209 11:05:24.541658  1757 net.cpp:434] drop6 <- fc6
I0209 11:05:24.541666  1757 net.cpp:395] drop6 -> fc6 (in-place)
I0209 11:05:24.541718  1757 net.cpp:150] Setting up drop6
I0209 11:05:24.541726  1757 net.cpp:157] Top shape: 1 4096 11 16 (720896)
I0209 11:05:24.541730  1757 net.cpp:165] Memory required for data: 885993184
I0209 11:05:24.541735  1757 layer_factory.hpp:77] Creating layer fc7
I0209 11:05:24.541749  1757 net.cpp:100] Creating Layer fc7
I0209 11:05:24.541754  1757 net.cpp:434] fc7 <- fc6
I0209 11:05:24.541771  1757 net.cpp:408] fc7 -> fc7
I0209 11:05:24.663585  1757 net.cpp:150] Setting up fc7
I0209 11:05:24.663625  1757 net.cpp:157] Top shape: 1 4096 11 16 (720896)
I0209 11:05:24.663630  1757 net.cpp:165] Memory required for data: 888876768
I0209 11:05:24.663642  1757 layer_factory.hpp:77] Creating layer relu7
I0209 11:05:24.663655  1757 net.cpp:100] Creating Layer relu7
I0209 11:05:24.663661  1757 net.cpp:434] relu7 <- fc7
I0209 11:05:24.663669  1757 net.cpp:395] relu7 -> fc7 (in-place)
I0209 11:05:24.665091  1757 net.cpp:150] Setting up relu7
I0209 11:05:24.665102  1757 net.cpp:157] Top shape: 1 4096 11 16 (720896)
I0209 11:05:24.665105  1757 net.cpp:165] Memory required for data: 891760352
I0209 11:05:24.665110  1757 layer_factory.hpp:77] Creating layer drop7
I0209 11:05:24.665119  1757 net.cpp:100] Creating Layer drop7
I0209 11:05:24.665124  1757 net.cpp:434] drop7 <- fc7
I0209 11:05:24.665132  1757 net.cpp:395] drop7 -> fc7 (in-place)
I0209 11:05:24.665170  1757 net.cpp:150] Setting up drop7
I0209 11:05:24.665179  1757 net.cpp:157] Top shape: 1 4096 11 16 (720896)
I0209 11:05:24.665184  1757 net.cpp:165] Memory required for data: 894643936
I0209 11:05:24.665189  1757 layer_factory.hpp:77] Creating layer score_fr
I0209 11:05:24.665202  1757 net.cpp:100] Creating Layer score_fr
I0209 11:05:24.665206  1757 net.cpp:434] score_fr <- fc7
I0209 11:05:24.665216  1757 net.cpp:408] score_fr -> score_fr
I0209 11:05:24.670222  1757 net.cpp:150] Setting up score_fr
I0209 11:05:24.670239  1757 net.cpp:157] Top shape: 1 6 11 16 (1056)
I0209 11:05:24.670244  1757 net.cpp:165] Memory required for data: 894648160
I0209 11:05:24.670253  1757 layer_factory.hpp:77] Creating layer upscore2
I0209 11:05:24.670266  1757 net.cpp:100] Creating Layer upscore2
I0209 11:05:24.670271  1757 net.cpp:434] upscore2 <- score_fr
I0209 11:05:24.670279  1757 net.cpp:408] upscore2 -> upscore2
I0209 11:05:24.670550  1757 net.cpp:150] Setting up upscore2
I0209 11:05:24.670559  1757 net.cpp:157] Top shape: 1 6 24 34 (4896)
I0209 11:05:24.670564  1757 net.cpp:165] Memory required for data: 894667744
I0209 11:05:24.670584  1757 layer_factory.hpp:77] Creating layer upscore2_upscore2_0_split
I0209 11:05:24.670593  1757 net.cpp:100] Creating Layer upscore2_upscore2_0_split
I0209 11:05:24.670598  1757 net.cpp:434] upscore2_upscore2_0_split <- upscore2
I0209 11:05:24.670604  1757 net.cpp:408] upscore2_upscore2_0_split -> upscore2_upscore2_0_split_0
I0209 11:05:24.670613  1757 net.cpp:408] upscore2_upscore2_0_split -> upscore2_upscore2_0_split_1
I0209 11:05:24.670658  1757 net.cpp:150] Setting up upscore2_upscore2_0_split
I0209 11:05:24.670665  1757 net.cpp:157] Top shape: 1 6 24 34 (4896)
I0209 11:05:24.670671  1757 net.cpp:157] Top shape: 1 6 24 34 (4896)
I0209 11:05:24.670675  1757 net.cpp:165] Memory required for data: 894706912
I0209 11:05:24.670680  1757 layer_factory.hpp:77] Creating layer scale_pool4
I0209 11:05:24.670691  1757 net.cpp:100] Creating Layer scale_pool4
I0209 11:05:24.670694  1757 net.cpp:434] scale_pool4 <- pool4_pool4_0_split_1
I0209 11:05:24.670703  1757 net.cpp:408] scale_pool4 -> scale_pool4
I0209 11:05:24.670841  1757 net.cpp:150] Setting up scale_pool4
I0209 11:05:24.670850  1757 net.cpp:157] Top shape: 1 512 34 44 (765952)
I0209 11:05:24.670855  1757 net.cpp:165] Memory required for data: 897770720
I0209 11:05:24.670859  1757 layer_factory.hpp:77] Creating layer score_pool4
I0209 11:05:24.670871  1757 net.cpp:100] Creating Layer score_pool4
I0209 11:05:24.670876  1757 net.cpp:434] score_pool4 <- scale_pool4
I0209 11:05:24.670883  1757 net.cpp:408] score_pool4 -> score_pool4
I0209 11:05:24.675770  1757 net.cpp:150] Setting up score_pool4
I0209 11:05:24.675786  1757 net.cpp:157] Top shape: 1 6 34 44 (8976)
I0209 11:05:24.675791  1757 net.cpp:165] Memory required for data: 897806624
I0209 11:05:24.675801  1757 layer_factory.hpp:77] Creating layer score_pool4c
I0209 11:05:24.675809  1757 net.cpp:100] Creating Layer score_pool4c
I0209 11:05:24.675815  1757 net.cpp:434] score_pool4c <- score_pool4
I0209 11:05:24.675830  1757 net.cpp:434] score_pool4c <- upscore2_upscore2_0_split_0
I0209 11:05:24.675839  1757 net.cpp:408] score_pool4c -> score_pool4c
I0209 11:05:24.675876  1757 net.cpp:150] Setting up score_pool4c
I0209 11:05:24.675885  1757 net.cpp:157] Top shape: 1 6 24 34 (4896)
I0209 11:05:24.675889  1757 net.cpp:165] Memory required for data: 897826208
I0209 11:05:24.675894  1757 layer_factory.hpp:77] Creating layer fuse_pool4
I0209 11:05:24.675902  1757 net.cpp:100] Creating Layer fuse_pool4
I0209 11:05:24.675907  1757 net.cpp:434] fuse_pool4 <- upscore2_upscore2_0_split_1
I0209 11:05:24.675912  1757 net.cpp:434] fuse_pool4 <- score_pool4c
I0209 11:05:24.675918  1757 net.cpp:408] fuse_pool4 -> fuse_pool4
I0209 11:05:24.675951  1757 net.cpp:150] Setting up fuse_pool4
I0209 11:05:24.675958  1757 net.cpp:157] Top shape: 1 6 24 34 (4896)
I0209 11:05:24.675962  1757 net.cpp:165] Memory required for data: 897845792
I0209 11:05:24.675966  1757 layer_factory.hpp:77] Creating layer upscore_pool4
I0209 11:05:24.675976  1757 net.cpp:100] Creating Layer upscore_pool4
I0209 11:05:24.675981  1757 net.cpp:434] upscore_pool4 <- fuse_pool4
I0209 11:05:24.675987  1757 net.cpp:408] upscore_pool4 -> upscore_pool4
I0209 11:05:24.676234  1757 net.cpp:150] Setting up upscore_pool4
I0209 11:05:24.676242  1757 net.cpp:157] Top shape: 1 6 50 70 (21000)
I0209 11:05:24.676246  1757 net.cpp:165] Memory required for data: 897929792
I0209 11:05:24.676251  1757 layer_factory.hpp:77] Creating layer upscore_pool4_upscore_pool4_0_split
I0209 11:05:24.676259  1757 net.cpp:100] Creating Layer upscore_pool4_upscore_pool4_0_split
I0209 11:05:24.676264  1757 net.cpp:434] upscore_pool4_upscore_pool4_0_split <- upscore_pool4
I0209 11:05:24.676270  1757 net.cpp:408] upscore_pool4_upscore_pool4_0_split -> upscore_pool4_upscore_pool4_0_split_0
I0209 11:05:24.676278  1757 net.cpp:408] upscore_pool4_upscore_pool4_0_split -> upscore_pool4_upscore_pool4_0_split_1
I0209 11:05:24.676323  1757 net.cpp:150] Setting up upscore_pool4_upscore_pool4_0_split
I0209 11:05:24.676331  1757 net.cpp:157] Top shape: 1 6 50 70 (21000)
I0209 11:05:24.676336  1757 net.cpp:157] Top shape: 1 6 50 70 (21000)
I0209 11:05:24.676339  1757 net.cpp:165] Memory required for data: 898097792
I0209 11:05:24.676343  1757 layer_factory.hpp:77] Creating layer scale_pool3
I0209 11:05:24.676352  1757 net.cpp:100] Creating Layer scale_pool3
I0209 11:05:24.676357  1757 net.cpp:434] scale_pool3 <- pool3_pool3_0_split_1
I0209 11:05:24.676362  1757 net.cpp:408] scale_pool3 -> scale_pool3
I0209 11:05:24.676487  1757 net.cpp:150] Setting up scale_pool3
I0209 11:05:24.676496  1757 net.cpp:157] Top shape: 1 256 67 88 (1509376)
I0209 11:05:24.676499  1757 net.cpp:165] Memory required for data: 904135296
I0209 11:05:24.676504  1757 layer_factory.hpp:77] Creating layer score_pool3
I0209 11:05:24.676515  1757 net.cpp:100] Creating Layer score_pool3
I0209 11:05:24.676520  1757 net.cpp:434] score_pool3 <- scale_pool3
I0209 11:05:24.676527  1757 net.cpp:408] score_pool3 -> score_pool3
I0209 11:05:24.680333  1757 net.cpp:150] Setting up score_pool3
I0209 11:05:24.680349  1757 net.cpp:157] Top shape: 1 6 67 88 (35376)
I0209 11:05:24.680354  1757 net.cpp:165] Memory required for data: 904276800
I0209 11:05:24.680362  1757 layer_factory.hpp:77] Creating layer score_pool3c
I0209 11:05:24.680372  1757 net.cpp:100] Creating Layer score_pool3c
I0209 11:05:24.680377  1757 net.cpp:434] score_pool3c <- score_pool3
I0209 11:05:24.680383  1757 net.cpp:434] score_pool3c <- upscore_pool4_upscore_pool4_0_split_0
I0209 11:05:24.680390  1757 net.cpp:408] score_pool3c -> score_pool3c
I0209 11:05:24.680428  1757 net.cpp:150] Setting up score_pool3c
I0209 11:05:24.680435  1757 net.cpp:157] Top shape: 1 6 50 70 (21000)
I0209 11:05:24.680439  1757 net.cpp:165] Memory required for data: 904360800
I0209 11:05:24.680444  1757 layer_factory.hpp:77] Creating layer fuse_pool3
I0209 11:05:24.680452  1757 net.cpp:100] Creating Layer fuse_pool3
I0209 11:05:24.680456  1757 net.cpp:434] fuse_pool3 <- upscore_pool4_upscore_pool4_0_split_1
I0209 11:05:24.680467  1757 net.cpp:434] fuse_pool3 <- score_pool3c
I0209 11:05:24.680475  1757 net.cpp:408] fuse_pool3 -> fuse_pool3
I0209 11:05:24.680510  1757 net.cpp:150] Setting up fuse_pool3
I0209 11:05:24.680516  1757 net.cpp:157] Top shape: 1 6 50 70 (21000)
I0209 11:05:24.680521  1757 net.cpp:165] Memory required for data: 904444800
I0209 11:05:24.680524  1757 layer_factory.hpp:77] Creating layer upscore8
I0209 11:05:24.680534  1757 net.cpp:100] Creating Layer upscore8
I0209 11:05:24.680538  1757 net.cpp:434] upscore8 <- fuse_pool3
I0209 11:05:24.680546  1757 net.cpp:408] upscore8 -> upscore8
I0209 11:05:24.680853  1757 net.cpp:150] Setting up upscore8
I0209 11:05:24.680861  1757 net.cpp:157] Top shape: 1 6 408 568 (1390464)
I0209 11:05:24.680866  1757 net.cpp:165] Memory required for data: 910006656
I0209 11:05:24.680871  1757 layer_factory.hpp:77] Creating layer score
I0209 11:05:24.680878  1757 net.cpp:100] Creating Layer score
I0209 11:05:24.680883  1757 net.cpp:434] score <- upscore8
I0209 11:05:24.680888  1757 net.cpp:434] score <- data_data_0_split_1
I0209 11:05:24.680894  1757 net.cpp:408] score -> score
I0209 11:05:24.680927  1757 net.cpp:150] Setting up score
I0209 11:05:24.680932  1757 net.cpp:157] Top shape: 1 6 335 500 (1005000)
I0209 11:05:24.680937  1757 net.cpp:165] Memory required for data: 914026656
I0209 11:05:24.680941  1757 layer_factory.hpp:77] Creating layer loss
I0209 11:05:24.680950  1757 net.cpp:100] Creating Layer loss
I0209 11:05:24.680955  1757 net.cpp:434] loss <- score
I0209 11:05:24.680960  1757 net.cpp:434] loss <- label
I0209 11:05:24.680966  1757 net.cpp:408] loss -> loss
I0209 11:05:24.680976  1757 layer_factory.hpp:77] Creating layer loss
…
