…
test_initialization: false
average_loss: 20
iter_size: 1
I0206 10:31:03.354820 13912 solver.cpp:81] Creating training net from train_net file: train.prototxt
I0206 10:31:03.356140 13912 net.cpp:58] Initializing net from parameters: 
state {
  phase: TRAIN
}
layer {
  name: "data"
  type: "Python"
  top: "data"
  top: "label"
  python_param {
    module: "voc_layers"
    layer: "PartialSBDDSegDataLayer"
    param_str: "{\'sbdd_dir\': \'../data/sbdd/dataset\', \'seed\': 1337, \'split\': \'train5\', \'mean\': (104.00699, 116.66877, 122.67892)}"
  }
}
layer {
  name: "conv1_1"
  type: "Convolution"
  bottom: "data"
  top: "conv1_1"
  param {
    lr_mult: 1
    decay_mult: 1
  }
  param {
    lr_mult: 2
    decay_mult: 0
  }
  convolution_param {
    num_output: 64
    pad: 100
    kernel_size: 3
    stride: 1
    weight_filler {
      type: "xavier"
    }
  }
}
layer {
  name: "relu1_1"
  type: "ReLU"
  bottom: "conv1_1"
  top: "conv1_1"
}
layer {
  name: "conv1_2"
  type: "Convolution"
  bottom: "conv1_1"
  top: "conv1_2"
  param {
    lr_mult: 1
    decay_mult: 1
  }
  param {
    lr_mult: 2
    decay_mult: 0
  }
  convolution_param {
    num_output: 64
    pad: 1
    kernel_size: 3
    stride: 1
    weight_filler {
      type: "xavier"
    }
  }
}
layer {
  name: "relu1_2"
  type: "ReLU"
  bottom: "conv1_2"
  top: "conv1_2"
}
layer {
  name: "pool1"
  type: "Pooling"
  bottom: "conv1_2"
  top: "pool1"
  pooling_param {
    pool: MAX
    kernel_size: 2
    stride: 2
  }
}
layer {
  name: "conv2_1"
  type: "Convolution"
  bottom: "pool1"
  top: "conv2_1"
  param {
    lr_mult: 1
    decay_mult: 1
  }
  param {
    lr_mult: 2
    decay_mult: 0
  }
  convolution_param {
    num_output: 128
    pad: 1
    kernel_size: 3
    stride: 1
    weight_filler {
      type: "xavier"
    }
  }
}
layer {
  name: "relu2_1"
  type: "ReLU"
  bottom: "conv2_1"
  top: "conv2_1"
}
layer {
  name: "conv2_2"
  type: "Convolution"
  bottom: "conv2_1"
  top: "conv2_2"
  param {
    lr_mult: 1
    decay_mult: 1
  }
  param {
    lr_mult: 2
    decay_mult: 0
  }
  convolution_param {
    num_output: 128
    pad: 1
    kernel_size: 3
    stride: 1
    weight_filler {
      type: "xavier"
    }
  }
}
layer {
  name: "relu2_2"
  type: "ReLU"
  bottom: "conv2_2"
  top: "conv2_2"
}
layer {
  name: "pool2"
  type: "Pooling"
  bottom: "conv2_2"
  top: "pool2"
  pooling_param {
    pool: MAX
    kernel_size: 2
    stride: 2
  }
}
layer {
  name: "conv3_1"
  type: "Convolution"
  bottom: "pool2"
  top: "conv3_1"
  param {
    lr_mult: 1
    decay_mult: 1
  }
  param {
    lr_mult: 2
    decay_mult: 0
  }
  convolution_param {
    num_output: 256
    pad: 1
    kernel_size: 3
    stride: 1
    weight_filler {
      type: "xavier"
    }
  }
}
layer {
  name: "relu3_1"
  type: "ReLU"
  bottom: "conv3_1"
  top: "conv3_1"
}
layer {
  name: "conv3_2"
  type: "Convolution"
  bottom: "conv3_1"
  top: "conv3_2"
  param {
    lr_mult: 1
    decay_mult: 1
  }
  param {
    lr_mult: 2
    decay_mult: 0
  }
  convolution_param {
    num_output: 256
    pad: 1
    kernel_size: 3
    stride: 1
    weight_filler {
      type: "xavier"
    }
  }
}
layer {
  name: "relu3_2"
  type: "ReLU"
  bottom: "conv3_2"
  top: "conv3_2"
}
layer {
  name: "conv3_3"
  type: "Convolution"
  bottom: "conv3_2"
  top: "conv3_3"
  param {
    lr_mult: 1
    decay_mult: 1
  }
  param {
    lr_mult: 2
    decay_mult: 0
  }
  convolution_param {
    num_output: 256
    pad: 1
    kernel_size: 3
    stride: 1
    weight_filler {
      type: "xavier"
    }
  }
}
layer {
  name: "relu3_3"
  type: "ReLU"
  bottom: "conv3_3"
  top: "conv3_3"
}
layer {
  name: "pool3"
  type: "Pooling"
  bottom: "conv3_3"
  top: "pool3"
  pooling_param {
    pool: MAX
    kernel_size: 2
    stride: 2
  }
}
layer {
  name: "conv4_1"
  type: "Convolution"
  bottom: "pool3"
  top: "conv4_1"
  param {
    lr_mult: 1
    decay_mult: 1
  }
  param {
    lr_mult: 2
    decay_mult: 0
  }
  convolution_param {
    num_output: 512
    pad: 1
    kernel_size: 3
    stride: 1
    weight_filler {
      type: "xavier"
    }
  }
}
layer {
  name: "relu4_1"
  type: "ReLU"
  bottom: "conv4_1"
  top: "conv4_1"
}
layer {
  name: "conv4_2"
  type: "Convolution"
  bottom: "conv4_1"
  top: "conv4_2"
  param {
    lr_mult: 1
    decay_mult: 1
  }
  param {
    lr_mult: 2
    decay_mult: 0
  }
  convolution_param {
    num_output: 512
    pad: 1
    kernel_size: 3
    stride: 1
    weight_filler {
      type: "xavier"
    }
  }
}
layer {
  name: "relu4_2"
  type: "ReLU"
  bottom: "conv4_2"
  top: "conv4_2"
}
layer {
  name: "conv4_3"
  type: "Convolution"
  bottom: "conv4_2"
  top: "conv4_3"
  param {
    lr_mult: 1
    decay_mult: 1
  }
  param {
    lr_mult: 2
    decay_mult: 0
  }
  convolution_param {
    num_output: 512
    pad: 1
    kernel_size: 3
    stride: 1
    weight_filler {
      type: "xavier"
    }
  }
}
layer {
  name: "relu4_3"
  type: "ReLU"
  bottom: "conv4_3"
  top: "conv4_3"
}
layer {
  name: "pool4"
  type: "Pooling"
  bottom: "conv4_3"
  top: "pool4"
  pooling_param {
    pool: MAX
    kernel_size: 2
    stride: 2
  }
}
layer {
  name: "conv5_1"
  type: "Convolution"
  bottom: "pool4"
  top: "conv5_1"
  param {
    lr_mult: 1
    decay_mult: 1
  }
  param {
    lr_mult: 2
    decay_mult: 0
  }
  convolution_param {
    num_output: 512
    pad: 1
    kernel_size: 3
    stride: 1
    weight_filler {
      type: "xavier"
    }
  }
}
layer {
  name: "relu5_1"
  type: "ReLU"
  bottom: "conv5_1"
  top: "conv5_1"
}
layer {
  name: "conv5_2"
  type: "Convolution"
  bottom: "conv5_1"
  top: "conv5_2"
  param {
    lr_mult: 1
    decay_mult: 1
  }
  param {
    lr_mult: 2
    decay_mult: 0
  }
  convolution_param {
    num_output: 512
    pad: 1
    kernel_size: 3
    stride: 1
    weight_filler {
      type: "xavier"
    }
  }
}
layer {
  name: "relu5_2"
  type: "ReLU"
  bottom: "conv5_2"
  top: "conv5_2"
}
layer {
  name: "conv5_3"
  type: "Convolution"
  bottom: "conv5_2"
  top: "conv5_3"
  param {
    lr_mult: 1
    decay_mult: 1
  }
  param {
    lr_mult: 2
    decay_mult: 0
  }
  convolution_param {
    num_output: 512
    pad: 1
    kernel_size: 3
    stride: 1
    weight_filler {
      type: "xavier"
    }
  }
}
layer {
  name: "relu5_3"
  type: "ReLU"
  bottom: "conv5_3"
  top: "conv5_3"
}
layer {
  name: "pool5"
  type: "Pooling"
  bottom: "conv5_3"
  top: "pool5"
  pooling_param {
    pool: MAX
    kernel_size: 2
    stride: 2
  }
}
layer {
  name: "fc6"
  type: "Convolution"
  bottom: "pool5"
  top: "fc6"
  param {
    lr_mult: 1
    decay_mult: 1
  }
  param {
    lr_mult: 2
    decay_mult: 0
  }
  convolution_param {
    num_output: 4096
    pad: 0
    kernel_size: 7
    stride: 1
    weight_filler {
      type: "xavier"
    }
  }
}
layer {
  name: "relu6"
  type: "ReLU"
  bottom: "fc6"
  top: "fc6"
}
layer {
  name: "drop6"
  type: "Dropout"
  bottom: "fc6"
  top: "fc6"
  dropout_param {
    dropout_ratio: 0.5
  }
}
layer {
  name: "fc7"
  type: "Convolution"
  bottom: "fc6"
  top: "fc7"
  param {
    lr_mult: 1
    decay_mult: 1
  }
  param {
    lr_mult: 2
    decay_mult: 0
  }
  convolution_param {
    num_output: 4096
    pad: 0
    kernel_size: 1
    stride: 1
    weight_filler {
      type: "xavier"
    }
  }
}
layer {
  name: "relu7"
  type: "ReLU"
  bottom: "fc7"
  top: "fc7"
}
layer {
  name: "drop7"
  type: "Dropout"
  bottom: "fc7"
  top: "fc7"
  dropout_param {
    dropout_ratio: 0.5
  }
}
layer {
  name: "score_fr"
  type: "Convolution"
  bottom: "fc7"
  top: "score_fr"
  param {
    lr_mult: 1
    decay_mult: 1
  }
  param {
    lr_mult: 2
    decay_mult: 0
  }
  convolution_param {
    num_output: 6
    pad: 0
    kernel_size: 1
    weight_filler {
      type: "xavier"
    }
  }
}
layer {
  name: "upscore2"
  type: "Deconvolution"
  bottom: "score_fr"
  top: "upscore2"
  param {
    lr_mult: 0
  }
  convolution_param {
    num_output: 6
    bias_term: false
    kernel_size: 4
    stride: 2
    weight_filler {
      type: "xavier"
    }
  }
}
layer {
  name: "scale_pool4"
  type: "Scale"
  bottom: "pool4"
  top: "scale_pool4"
  param {
    lr_mult: 0
  }
  scale_param {
    filler {
      type: "constant"
      value: 0.01
    }
  }
}
layer {
  name: "score_pool4"
  type: "Convolution"
  bottom: "scale_pool4"
  top: "score_pool4"
  param {
    lr_mult: 1
    decay_mult: 1
  }
  param {
    lr_mult: 2
    decay_mult: 0
  }
  convolution_param {
    num_output: 6
    pad: 0
    kernel_size: 1
    weight_filler {
      type: "xavier"
    }
  }
}
layer {
  name: "score_pool4c"
  type: "Crop"
  bottom: "score_pool4"
  bottom: "upscore2"
  top: "score_pool4c"
  crop_param {
    axis: 2
    offset: 5
  }
}
layer {
  name: "fuse_pool4"
  type: "Eltwise"
  bottom: "upscore2"
  bottom: "score_pool4c"
  top: "fuse_pool4"
  eltwise_param {
    operation: SUM
  }
}
layer {
  name: "upscore_pool4"
  type: "Deconvolution"
  bottom: "fuse_pool4"
  top: "upscore_pool4"
  param {
    lr_mult: 0
  }
  convolution_param {
    num_output: 6
    bias_term: false
    kernel_size: 4
    stride: 2
    weight_filler {
      type: "xavier"
    }
  }
}
layer {
  name: "scale_pool3"
  type: "Scale"
  bottom: "pool3"
  top: "scale_pool3"
  param {
    lr_mult: 0
  }
  scale_param {
    filler {
      type: "constant"
      value: 0.0001
    }
  }
}
layer {
  name: "score_pool3"
  type: "Convolution"
  bottom: "scale_pool3"
  top: "score_pool3"
  param {
    lr_mult: 1
    decay_mult: 1
  }
  param {
    lr_mult: 2
    decay_mult: 0
  }
  convolution_param {
    num_output: 6
    pad: 0
    kernel_size: 1
    weight_filler {
      type: "xavier"
    }
  }
}
layer {
  name: "score_pool3c"
  type: "Crop"
  bottom: "score_pool3"
  bottom: "upscore_pool4"
  top: "score_pool3c"
  crop_param {
    axis: 2
    offset: 9
  }
}
layer {
  name: "fuse_pool3"
  type: "Eltwise"
  bottom: "upscore_pool4"
  bottom: "score_pool3c"
  top: "fuse_pool3"
  eltwise_param {
    operation: SUM
  }
}
layer {
  name: "upscore8"
  type: "Deconvolution"
  bottom: "fuse_pool3"
  top: "upscore8"
  param {
    lr_mult: 0
  }
  convolution_param {
    num_output: 6
    bias_term: false
    kernel_size: 16
    stride: 8
    weight_filler {
      type: "xavier"
    }
  }
}
layer {
  name: "score"
  type: "Crop"
  bottom: "upscore8"
  bottom: "data"
  top: "score"
  crop_param {
    axis: 2
    offset: 31
  }
}
layer {
  name: "loss"
  type: "SoftmaxWithLoss"
  bottom: "score"
  bottom: "label"
  top: "loss"
  loss_param {
    ignore_label: 255
    normalize: false
  }
}
I0206 10:31:03.356390 13912 layer_factory.hpp:77] Creating layer data
I0206 10:31:03.356911 13912 net.cpp:100] Creating Layer data
I0206 10:31:03.356927 13912 net.cpp:408] data -> data
I0206 10:31:03.356945 13912 net.cpp:408] data -> label
I0206 10:31:03.413213 13912 net.cpp:150] Setting up data
I0206 10:31:03.413280 13912 net.cpp:157] Top shape: 1 3 375 500 (562500)
I0206 10:31:03.413287 13912 net.cpp:157] Top shape: 1 1 375 500 (187500)
I0206 10:31:03.413291 13912 net.cpp:165] Memory required for data: 3000000
I0206 10:31:03.413302 13912 layer_factory.hpp:77] Creating layer data_data_0_split
I0206 10:31:03.413343 13912 net.cpp:100] Creating Layer data_data_0_split
I0206 10:31:03.413349 13912 net.cpp:434] data_data_0_split <- data
I0206 10:31:03.413359 13912 net.cpp:408] data_data_0_split -> data_data_0_split_0
I0206 10:31:03.413377 13912 net.cpp:408] data_data_0_split -> data_data_0_split_1
I0206 10:31:03.413416 13912 net.cpp:150] Setting up data_data_0_split
I0206 10:31:03.413424 13912 net.cpp:157] Top shape: 1 3 375 500 (562500)
I0206 10:31:03.413430 13912 net.cpp:157] Top shape: 1 3 375 500 (562500)
I0206 10:31:03.413434 13912 net.cpp:165] Memory required for data: 7500000
I0206 10:31:03.413439 13912 layer_factory.hpp:77] Creating layer conv1_1
I0206 10:31:03.413460 13912 net.cpp:100] Creating Layer conv1_1
I0206 10:31:03.413465 13912 net.cpp:434] conv1_1 <- data_data_0_split_0
I0206 10:31:03.413487 13912 net.cpp:408] conv1_1 -> conv1_1
I0206 10:31:03.607255 13912 net.cpp:150] Setting up conv1_1
I0206 10:31:03.607307 13912 net.cpp:157] Top shape: 1 64 573 698 (25597056)
I0206 10:31:03.607312 13912 net.cpp:165] Memory required for data: 109888224
I0206 10:31:03.607333 13912 layer_factory.hpp:77] Creating layer relu1_1
I0206 10:31:03.607362 13912 net.cpp:100] Creating Layer relu1_1
I0206 10:31:03.607368 13912 net.cpp:434] relu1_1 <- conv1_1
I0206 10:31:03.607376 13912 net.cpp:395] relu1_1 -> conv1_1 (in-place)
I0206 10:31:03.607735 13912 net.cpp:150] Setting up relu1_1
I0206 10:31:03.607749 13912 net.cpp:157] Top shape: 1 64 573 698 (25597056)
I0206 10:31:03.607754 13912 net.cpp:165] Memory required for data: 212276448
I0206 10:31:03.607761 13912 layer_factory.hpp:77] Creating layer conv1_2
I0206 10:31:03.607779 13912 net.cpp:100] Creating Layer conv1_2
I0206 10:31:03.607784 13912 net.cpp:434] conv1_2 <- conv1_1
I0206 10:31:03.607792 13912 net.cpp:408] conv1_2 -> conv1_2
I0206 10:31:03.610728 13912 net.cpp:150] Setting up conv1_2
I0206 10:31:03.610746 13912 net.cpp:157] Top shape: 1 64 573 698 (25597056)
I0206 10:31:03.610751 13912 net.cpp:165] Memory required for data: 314664672
I0206 10:31:03.610764 13912 layer_factory.hpp:77] Creating layer relu1_2
I0206 10:31:03.610774 13912 net.cpp:100] Creating Layer relu1_2
I0206 10:31:03.610779 13912 net.cpp:434] relu1_2 <- conv1_2
I0206 10:31:03.610787 13912 net.cpp:395] relu1_2 -> conv1_2 (in-place)
I0206 10:31:03.611157 13912 net.cpp:150] Setting up relu1_2
I0206 10:31:03.611171 13912 net.cpp:157] Top shape: 1 64 573 698 (25597056)
I0206 10:31:03.611176 13912 net.cpp:165] Memory required for data: 417052896
I0206 10:31:03.611181 13912 layer_factory.hpp:77] Creating layer pool1
I0206 10:31:03.611197 13912 net.cpp:100] Creating Layer pool1
I0206 10:31:03.611203 13912 net.cpp:434] pool1 <- conv1_2
I0206 10:31:03.611210 13912 net.cpp:408] pool1 -> pool1
I0206 10:31:03.611263 13912 net.cpp:150] Setting up pool1
I0206 10:31:03.611271 13912 net.cpp:157] Top shape: 1 64 287 349 (6410432)
I0206 10:31:03.611276 13912 net.cpp:165] Memory required for data: 442694624
I0206 10:31:03.611281 13912 layer_factory.hpp:77] Creating layer conv2_1
I0206 10:31:03.611294 13912 net.cpp:100] Creating Layer conv2_1
I0206 10:31:03.611299 13912 net.cpp:434] conv2_1 <- pool1
I0206 10:31:03.611307 13912 net.cpp:408] conv2_1 -> conv2_1
I0206 10:31:03.613739 13912 net.cpp:150] Setting up conv2_1
I0206 10:31:03.613755 13912 net.cpp:157] Top shape: 1 128 287 349 (12820864)
I0206 10:31:03.613760 13912 net.cpp:165] Memory required for data: 493978080
I0206 10:31:03.613771 13912 layer_factory.hpp:77] Creating layer relu2_1
I0206 10:31:03.613785 13912 net.cpp:100] Creating Layer relu2_1
I0206 10:31:03.613790 13912 net.cpp:434] relu2_1 <- conv2_1
I0206 10:31:03.613796 13912 net.cpp:395] relu2_1 -> conv2_1 (in-place)
I0206 10:31:03.613996 13912 net.cpp:150] Setting up relu2_1
I0206 10:31:03.614007 13912 net.cpp:157] Top shape: 1 128 287 349 (12820864)
I0206 10:31:03.614012 13912 net.cpp:165] Memory required for data: 545261536
I0206 10:31:03.614017 13912 layer_factory.hpp:77] Creating layer conv2_2
I0206 10:31:03.614032 13912 net.cpp:100] Creating Layer conv2_2
I0206 10:31:03.614037 13912 net.cpp:434] conv2_2 <- conv2_1
I0206 10:31:03.614045 13912 net.cpp:408] conv2_2 -> conv2_2
I0206 10:31:03.616660 13912 net.cpp:150] Setting up conv2_2
I0206 10:31:03.616677 13912 net.cpp:157] Top shape: 1 128 287 349 (12820864)
I0206 10:31:03.616681 13912 net.cpp:165] Memory required for data: 596544992
I0206 10:31:03.616690 13912 layer_factory.hpp:77] Creating layer relu2_2
I0206 10:31:03.616701 13912 net.cpp:100] Creating Layer relu2_2
I0206 10:31:03.616706 13912 net.cpp:434] relu2_2 <- conv2_2
I0206 10:31:03.616717 13912 net.cpp:395] relu2_2 -> conv2_2 (in-place)
I0206 10:31:03.617085 13912 net.cpp:150] Setting up relu2_2
I0206 10:31:03.617100 13912 net.cpp:157] Top shape: 1 128 287 349 (12820864)
I0206 10:31:03.617103 13912 net.cpp:165] Memory required for data: 647828448
I0206 10:31:03.617121 13912 layer_factory.hpp:77] Creating layer pool2
I0206 10:31:03.617130 13912 net.cpp:100] Creating Layer pool2
I0206 10:31:03.617136 13912 net.cpp:434] pool2 <- conv2_2
I0206 10:31:03.617144 13912 net.cpp:408] pool2 -> pool2
I0206 10:31:03.617192 13912 net.cpp:150] Setting up pool2
I0206 10:31:03.617202 13912 net.cpp:157] Top shape: 1 128 144 175 (3225600)
I0206 10:31:03.617205 13912 net.cpp:165] Memory required for data: 660730848
I0206 10:31:03.617210 13912 layer_factory.hpp:77] Creating layer conv3_1
I0206 10:31:03.617220 13912 net.cpp:100] Creating Layer conv3_1
I0206 10:31:03.617225 13912 net.cpp:434] conv3_1 <- pool2
I0206 10:31:03.617234 13912 net.cpp:408] conv3_1 -> conv3_1
I0206 10:31:03.620437 13912 net.cpp:150] Setting up conv3_1
I0206 10:31:03.620455 13912 net.cpp:157] Top shape: 1 256 144 175 (6451200)
I0206 10:31:03.620460 13912 net.cpp:165] Memory required for data: 686535648
I0206 10:31:03.620471 13912 layer_factory.hpp:77] Creating layer relu3_1
I0206 10:31:03.620481 13912 net.cpp:100] Creating Layer relu3_1
I0206 10:31:03.620486 13912 net.cpp:434] relu3_1 <- conv3_1
I0206 10:31:03.620493 13912 net.cpp:395] relu3_1 -> conv3_1 (in-place)
I0206 10:31:03.620863 13912 net.cpp:150] Setting up relu3_1
I0206 10:31:03.620877 13912 net.cpp:157] Top shape: 1 256 144 175 (6451200)
I0206 10:31:03.620882 13912 net.cpp:165] Memory required for data: 712340448
I0206 10:31:03.620885 13912 layer_factory.hpp:77] Creating layer conv3_2
I0206 10:31:03.620900 13912 net.cpp:100] Creating Layer conv3_2
I0206 10:31:03.620905 13912 net.cpp:434] conv3_2 <- conv3_1
I0206 10:31:03.620915 13912 net.cpp:408] conv3_2 -> conv3_2
I0206 10:31:03.626302 13912 net.cpp:150] Setting up conv3_2
I0206 10:31:03.626319 13912 net.cpp:157] Top shape: 1 256 144 175 (6451200)
I0206 10:31:03.626324 13912 net.cpp:165] Memory required for data: 738145248
I0206 10:31:03.626334 13912 layer_factory.hpp:77] Creating layer relu3_2
I0206 10:31:03.626344 13912 net.cpp:100] Creating Layer relu3_2
I0206 10:31:03.626349 13912 net.cpp:434] relu3_2 <- conv3_2
I0206 10:31:03.626356 13912 net.cpp:395] relu3_2 -> conv3_2 (in-place)
I0206 10:31:03.626554 13912 net.cpp:150] Setting up relu3_2
I0206 10:31:03.626564 13912 net.cpp:157] Top shape: 1 256 144 175 (6451200)
I0206 10:31:03.626569 13912 net.cpp:165] Memory required for data: 763950048
I0206 10:31:03.626574 13912 layer_factory.hpp:77] Creating layer conv3_3
I0206 10:31:03.626590 13912 net.cpp:100] Creating Layer conv3_3
I0206 10:31:03.626595 13912 net.cpp:434] conv3_3 <- conv3_2
I0206 10:31:03.626602 13912 net.cpp:408] conv3_3 -> conv3_3
I0206 10:31:03.631955 13912 net.cpp:150] Setting up conv3_3
I0206 10:31:03.631971 13912 net.cpp:157] Top shape: 1 256 144 175 (6451200)
I0206 10:31:03.631976 13912 net.cpp:165] Memory required for data: 789754848
I0206 10:31:03.631984 13912 layer_factory.hpp:77] Creating layer relu3_3
I0206 10:31:03.631994 13912 net.cpp:100] Creating Layer relu3_3
I0206 10:31:03.631999 13912 net.cpp:434] relu3_3 <- conv3_3
I0206 10:31:03.632004 13912 net.cpp:395] relu3_3 -> conv3_3 (in-place)
I0206 10:31:03.632376 13912 net.cpp:150] Setting up relu3_3
I0206 10:31:03.632390 13912 net.cpp:157] Top shape: 1 256 144 175 (6451200)
I0206 10:31:03.632395 13912 net.cpp:165] Memory required for data: 815559648
I0206 10:31:03.632400 13912 layer_factory.hpp:77] Creating layer pool3
I0206 10:31:03.632411 13912 net.cpp:100] Creating Layer pool3
I0206 10:31:03.632416 13912 net.cpp:434] pool3 <- conv3_3
I0206 10:31:03.632424 13912 net.cpp:408] pool3 -> pool3
I0206 10:31:03.632473 13912 net.cpp:150] Setting up pool3
I0206 10:31:03.632482 13912 net.cpp:157] Top shape: 1 256 72 88 (1622016)
I0206 10:31:03.632485 13912 net.cpp:165] Memory required for data: 822047712
I0206 10:31:03.632490 13912 layer_factory.hpp:77] Creating layer pool3_pool3_0_split
I0206 10:31:03.632499 13912 net.cpp:100] Creating Layer pool3_pool3_0_split
I0206 10:31:03.632504 13912 net.cpp:434] pool3_pool3_0_split <- pool3
I0206 10:31:03.632510 13912 net.cpp:408] pool3_pool3_0_split -> pool3_pool3_0_split_0
I0206 10:31:03.632517 13912 net.cpp:408] pool3_pool3_0_split -> pool3_pool3_0_split_1
I0206 10:31:03.632567 13912 net.cpp:150] Setting up pool3_pool3_0_split
I0206 10:31:03.632575 13912 net.cpp:157] Top shape: 1 256 72 88 (1622016)
I0206 10:31:03.632580 13912 net.cpp:157] Top shape: 1 256 72 88 (1622016)
I0206 10:31:03.632583 13912 net.cpp:165] Memory required for data: 835023840
I0206 10:31:03.632588 13912 layer_factory.hpp:77] Creating layer conv4_1
I0206 10:31:03.632602 13912 net.cpp:100] Creating Layer conv4_1
I0206 10:31:03.632607 13912 net.cpp:434] conv4_1 <- pool3_pool3_0_split_0
I0206 10:31:03.632616 13912 net.cpp:408] conv4_1 -> conv4_1
I0206 10:31:03.643293 13912 net.cpp:150] Setting up conv4_1
I0206 10:31:03.643316 13912 net.cpp:157] Top shape: 1 512 72 88 (3244032)
I0206 10:31:03.643321 13912 net.cpp:165] Memory required for data: 847999968
I0206 10:31:03.643331 13912 layer_factory.hpp:77] Creating layer relu4_1
I0206 10:31:03.643342 13912 net.cpp:100] Creating Layer relu4_1
I0206 10:31:03.643347 13912 net.cpp:434] relu4_1 <- conv4_1
I0206 10:31:03.643354 13912 net.cpp:395] relu4_1 -> conv4_1 (in-place)
I0206 10:31:03.643738 13912 net.cpp:150] Setting up relu4_1
I0206 10:31:03.643751 13912 net.cpp:157] Top shape: 1 512 72 88 (3244032)
I0206 10:31:03.643756 13912 net.cpp:165] Memory required for data: 860976096
I0206 10:31:03.643760 13912 layer_factory.hpp:77] Creating layer conv4_2
I0206 10:31:03.643774 13912 net.cpp:100] Creating Layer conv4_2
I0206 10:31:03.643779 13912 net.cpp:434] conv4_2 <- conv4_1
I0206 10:31:03.643790 13912 net.cpp:408] conv4_2 -> conv4_2
I0206 10:31:03.661300 13912 net.cpp:150] Setting up conv4_2
I0206 10:31:03.661331 13912 net.cpp:157] Top shape: 1 512 72 88 (3244032)
I0206 10:31:03.661336 13912 net.cpp:165] Memory required for data: 873952224
I0206 10:31:03.661352 13912 layer_factory.hpp:77] Creating layer relu4_2
I0206 10:31:03.661362 13912 net.cpp:100] Creating Layer relu4_2
I0206 10:31:03.661368 13912 net.cpp:434] relu4_2 <- conv4_2
I0206 10:31:03.661377 13912 net.cpp:395] relu4_2 -> conv4_2 (in-place)
I0206 10:31:03.661574 13912 net.cpp:150] Setting up relu4_2
I0206 10:31:03.661586 13912 net.cpp:157] Top shape: 1 512 72 88 (3244032)
I0206 10:31:03.661589 13912 net.cpp:165] Memory required for data: 886928352
I0206 10:31:03.661594 13912 layer_factory.hpp:77] Creating layer conv4_3
I0206 10:31:03.661607 13912 net.cpp:100] Creating Layer conv4_3
I0206 10:31:03.661612 13912 net.cpp:434] conv4_3 <- conv4_2
I0206 10:31:03.661623 13912 net.cpp:408] conv4_3 -> conv4_3
I0206 10:31:03.679208 13912 net.cpp:150] Setting up conv4_3
I0206 10:31:03.679236 13912 net.cpp:157] Top shape: 1 512 72 88 (3244032)
I0206 10:31:03.679241 13912 net.cpp:165] Memory required for data: 899904480
I0206 10:31:03.679251 13912 layer_factory.hpp:77] Creating layer relu4_3
I0206 10:31:03.679265 13912 net.cpp:100] Creating Layer relu4_3
I0206 10:31:03.679270 13912 net.cpp:434] relu4_3 <- conv4_3
I0206 10:31:03.679277 13912 net.cpp:395] relu4_3 -> conv4_3 (in-place)
I0206 10:31:03.679654 13912 net.cpp:150] Setting up relu4_3
I0206 10:31:03.679668 13912 net.cpp:157] Top shape: 1 512 72 88 (3244032)
I0206 10:31:03.679673 13912 net.cpp:165] Memory required for data: 912880608
I0206 10:31:03.679678 13912 layer_factory.hpp:77] Creating layer pool4
I0206 10:31:03.679690 13912 net.cpp:100] Creating Layer pool4
I0206 10:31:03.679695 13912 net.cpp:434] pool4 <- conv4_3
I0206 10:31:03.679702 13912 net.cpp:408] pool4 -> pool4
I0206 10:31:03.679757 13912 net.cpp:150] Setting up pool4
I0206 10:31:03.679765 13912 net.cpp:157] Top shape: 1 512 36 44 (811008)
I0206 10:31:03.679769 13912 net.cpp:165] Memory required for data: 916124640
I0206 10:31:03.679775 13912 layer_factory.hpp:77] Creating layer pool4_pool4_0_split
I0206 10:31:03.679783 13912 net.cpp:100] Creating Layer pool4_pool4_0_split
I0206 10:31:03.679787 13912 net.cpp:434] pool4_pool4_0_split <- pool4
I0206 10:31:03.679796 13912 net.cpp:408] pool4_pool4_0_split -> pool4_pool4_0_split_0
I0206 10:31:03.679803 13912 net.cpp:408] pool4_pool4_0_split -> pool4_pool4_0_split_1
I0206 10:31:03.679843 13912 net.cpp:150] Setting up pool4_pool4_0_split
I0206 10:31:03.679864 13912 net.cpp:157] Top shape: 1 512 36 44 (811008)
I0206 10:31:03.679870 13912 net.cpp:157] Top shape: 1 512 36 44 (811008)
I0206 10:31:03.679874 13912 net.cpp:165] Memory required for data: 922612704
I0206 10:31:03.679878 13912 layer_factory.hpp:77] Creating layer conv5_1
I0206 10:31:03.679893 13912 net.cpp:100] Creating Layer conv5_1
I0206 10:31:03.679898 13912 net.cpp:434] conv5_1 <- pool4_pool4_0_split_0
I0206 10:31:03.679905 13912 net.cpp:408] conv5_1 -> conv5_1
I0206 10:31:03.697307 13912 net.cpp:150] Setting up conv5_1
I0206 10:31:03.697340 13912 net.cpp:157] Top shape: 1 512 36 44 (811008)
I0206 10:31:03.697345 13912 net.cpp:165] Memory required for data: 925856736
I0206 10:31:03.697355 13912 layer_factory.hpp:77] Creating layer relu5_1
I0206 10:31:03.697365 13912 net.cpp:100] Creating Layer relu5_1
I0206 10:31:03.697369 13912 net.cpp:434] relu5_1 <- conv5_1
I0206 10:31:03.697378 13912 net.cpp:395] relu5_1 -> conv5_1 (in-place)
I0206 10:31:03.697764 13912 net.cpp:150] Setting up relu5_1
I0206 10:31:03.697778 13912 net.cpp:157] Top shape: 1 512 36 44 (811008)
I0206 10:31:03.697783 13912 net.cpp:165] Memory required for data: 929100768
I0206 10:31:03.697788 13912 layer_factory.hpp:77] Creating layer conv5_2
I0206 10:31:03.697804 13912 net.cpp:100] Creating Layer conv5_2
I0206 10:31:03.697809 13912 net.cpp:434] conv5_2 <- conv5_1
I0206 10:31:03.697819 13912 net.cpp:408] conv5_2 -> conv5_2
I0206 10:31:03.715401 13912 net.cpp:150] Setting up conv5_2
I0206 10:31:03.715430 13912 net.cpp:157] Top shape: 1 512 36 44 (811008)
I0206 10:31:03.715435 13912 net.cpp:165] Memory required for data: 932344800
I0206 10:31:03.715446 13912 layer_factory.hpp:77] Creating layer relu5_2
I0206 10:31:03.715456 13912 net.cpp:100] Creating Layer relu5_2
I0206 10:31:03.715462 13912 net.cpp:434] relu5_2 <- conv5_2
I0206 10:31:03.715471 13912 net.cpp:395] relu5_2 -> conv5_2 (in-place)
I0206 10:31:03.715672 13912 net.cpp:150] Setting up relu5_2
I0206 10:31:03.715682 13912 net.cpp:157] Top shape: 1 512 36 44 (811008)
I0206 10:31:03.715687 13912 net.cpp:165] Memory required for data: 935588832
I0206 10:31:03.715692 13912 layer_factory.hpp:77] Creating layer conv5_3
I0206 10:31:03.715713 13912 net.cpp:100] Creating Layer conv5_3
I0206 10:31:03.715719 13912 net.cpp:434] conv5_3 <- conv5_2
I0206 10:31:03.715728 13912 net.cpp:408] conv5_3 -> conv5_3
I0206 10:31:03.733311 13912 net.cpp:150] Setting up conv5_3
I0206 10:31:03.733338 13912 net.cpp:157] Top shape: 1 512 36 44 (811008)
I0206 10:31:03.733343 13912 net.cpp:165] Memory required for data: 938832864
I0206 10:31:03.733353 13912 layer_factory.hpp:77] Creating layer relu5_3
I0206 10:31:03.733363 13912 net.cpp:100] Creating Layer relu5_3
I0206 10:31:03.733371 13912 net.cpp:434] relu5_3 <- conv5_3
I0206 10:31:03.733377 13912 net.cpp:395] relu5_3 -> conv5_3 (in-place)
I0206 10:31:03.733952 13912 net.cpp:150] Setting up relu5_3
I0206 10:31:03.733966 13912 net.cpp:157] Top shape: 1 512 36 44 (811008)
I0206 10:31:03.733971 13912 net.cpp:165] Memory required for data: 942076896
I0206 10:31:03.733976 13912 layer_factory.hpp:77] Creating layer pool5
I0206 10:31:03.733986 13912 net.cpp:100] Creating Layer pool5
I0206 10:31:03.733991 13912 net.cpp:434] pool5 <- conv5_3
I0206 10:31:03.734000 13912 net.cpp:408] pool5 -> pool5
I0206 10:31:03.734055 13912 net.cpp:150] Setting up pool5
I0206 10:31:03.734062 13912 net.cpp:157] Top shape: 1 512 18 22 (202752)
I0206 10:31:03.734066 13912 net.cpp:165] Memory required for data: 942887904
I0206 10:31:03.734072 13912 layer_factory.hpp:77] Creating layer fc6
I0206 10:31:03.734088 13912 net.cpp:100] Creating Layer fc6
I0206 10:31:03.734093 13912 net.cpp:434] fc6 <- pool5
I0206 10:31:03.734100 13912 net.cpp:408] fc6 -> fc6
I0206 10:31:04.468387 13912 net.cpp:150] Setting up fc6
I0206 10:31:04.468446 13912 net.cpp:157] Top shape: 1 4096 12 16 (786432)
I0206 10:31:04.468451 13912 net.cpp:165] Memory required for data: 946033632
I0206 10:31:04.468464 13912 layer_factory.hpp:77] Creating layer relu6
I0206 10:31:04.468490 13912 net.cpp:100] Creating Layer relu6
I0206 10:31:04.468497 13912 net.cpp:434] relu6 <- fc6
I0206 10:31:04.468508 13912 net.cpp:395] relu6 -> fc6 (in-place)
I0206 10:31:04.468899 13912 net.cpp:150] Setting up relu6
I0206 10:31:04.468914 13912 net.cpp:157] Top shape: 1 4096 12 16 (786432)
I0206 10:31:04.468919 13912 net.cpp:165] Memory required for data: 949179360
I0206 10:31:04.468924 13912 layer_factory.hpp:77] Creating layer drop6
I0206 10:31:04.468940 13912 net.cpp:100] Creating Layer drop6
I0206 10:31:04.468945 13912 net.cpp:434] drop6 <- fc6
I0206 10:31:04.468952 13912 net.cpp:395] drop6 -> fc6 (in-place)
I0206 10:31:04.468991 13912 net.cpp:150] Setting up drop6
I0206 10:31:04.468999 13912 net.cpp:157] Top shape: 1 4096 12 16 (786432)
I0206 10:31:04.469003 13912 net.cpp:165] Memory required for data: 952325088
I0206 10:31:04.469007 13912 layer_factory.hpp:77] Creating layer fc7
I0206 10:31:04.469025 13912 net.cpp:100] Creating Layer fc7
I0206 10:31:04.469029 13912 net.cpp:434] fc7 <- fc6
I0206 10:31:04.469038 13912 net.cpp:408] fc7 -> fc7
I0206 10:31:04.590888 13912 net.cpp:150] Setting up fc7
I0206 10:31:04.590941 13912 net.cpp:157] Top shape: 1 4096 12 16 (786432)
I0206 10:31:04.590947 13912 net.cpp:165] Memory required for data: 955470816
I0206 10:31:04.590961 13912 layer_factory.hpp:77] Creating layer relu7
I0206 10:31:04.590975 13912 net.cpp:100] Creating Layer relu7
I0206 10:31:04.590982 13912 net.cpp:434] relu7 <- fc7
I0206 10:31:04.590994 13912 net.cpp:395] relu7 -> fc7 (in-place)
I0206 10:31:04.591207 13912 net.cpp:150] Setting up relu7
I0206 10:31:04.591219 13912 net.cpp:157] Top shape: 1 4096 12 16 (786432)
I0206 10:31:04.591223 13912 net.cpp:165] Memory required for data: 958616544
I0206 10:31:04.591228 13912 layer_factory.hpp:77] Creating layer drop7
I0206 10:31:04.591238 13912 net.cpp:100] Creating Layer drop7
I0206 10:31:04.591241 13912 net.cpp:434] drop7 <- fc7
I0206 10:31:04.591250 13912 net.cpp:395] drop7 -> fc7 (in-place)
I0206 10:31:04.591287 13912 net.cpp:150] Setting up drop7
I0206 10:31:04.591295 13912 net.cpp:157] Top shape: 1 4096 12 16 (786432)
I0206 10:31:04.591300 13912 net.cpp:165] Memory required for data: 961762272
I0206 10:31:04.591303 13912 layer_factory.hpp:77] Creating layer score_fr
I0206 10:31:04.591320 13912 net.cpp:100] Creating Layer score_fr
I0206 10:31:04.591325 13912 net.cpp:434] score_fr <- fc7
I0206 10:31:04.591332 13912 net.cpp:408] score_fr -> score_fr
I0206 10:31:04.592730 13912 net.cpp:150] Setting up score_fr
I0206 10:31:04.592746 13912 net.cpp:157] Top shape: 1 6 12 16 (1152)
I0206 10:31:04.592751 13912 net.cpp:165] Memory required for data: 961766880
I0206 10:31:04.592762 13912 layer_factory.hpp:77] Creating layer upscore2
I0206 10:31:04.592778 13912 net.cpp:100] Creating Layer upscore2
I0206 10:31:04.592783 13912 net.cpp:434] upscore2 <- score_fr
I0206 10:31:04.592792 13912 net.cpp:408] upscore2 -> upscore2
I0206 10:31:04.593016 13912 net.cpp:150] Setting up upscore2
I0206 10:31:04.593025 13912 net.cpp:157] Top shape: 1 6 26 34 (5304)
I0206 10:31:04.593029 13912 net.cpp:165] Memory required for data: 961788096
I0206 10:31:04.593045 13912 layer_factory.hpp:77] Creating layer upscore2_upscore2_0_split
I0206 10:31:04.593053 13912 net.cpp:100] Creating Layer upscore2_upscore2_0_split
I0206 10:31:04.593058 13912 net.cpp:434] upscore2_upscore2_0_split <- upscore2
I0206 10:31:04.593065 13912 net.cpp:408] upscore2_upscore2_0_split -> upscore2_upscore2_0_split_0
I0206 10:31:04.593073 13912 net.cpp:408] upscore2_upscore2_0_split -> upscore2_upscore2_0_split_1
I0206 10:31:04.593119 13912 net.cpp:150] Setting up upscore2_upscore2_0_split
I0206 10:31:04.593127 13912 net.cpp:157] Top shape: 1 6 26 34 (5304)
I0206 10:31:04.593132 13912 net.cpp:157] Top shape: 1 6 26 34 (5304)
I0206 10:31:04.593137 13912 net.cpp:165] Memory required for data: 961830528
I0206 10:31:04.593142 13912 layer_factory.hpp:77] Creating layer scale_pool4
I0206 10:31:04.593153 13912 net.cpp:100] Creating Layer scale_pool4
I0206 10:31:04.593158 13912 net.cpp:434] scale_pool4 <- pool4_pool4_0_split_1
I0206 10:31:04.593180 13912 net.cpp:408] scale_pool4 -> scale_pool4
I0206 10:31:04.593299 13912 net.cpp:150] Setting up scale_pool4
I0206 10:31:04.593308 13912 net.cpp:157] Top shape: 1 512 36 44 (811008)
I0206 10:31:04.593312 13912 net.cpp:165] Memory required for data: 965074560
I0206 10:31:04.593318 13912 layer_factory.hpp:77] Creating layer score_pool4
I0206 10:31:04.593330 13912 net.cpp:100] Creating Layer score_pool4
I0206 10:31:04.593338 13912 net.cpp:434] score_pool4 <- scale_pool4
I0206 10:31:04.593344 13912 net.cpp:408] score_pool4 -> score_pool4
I0206 10:31:04.594645 13912 net.cpp:150] Setting up score_pool4
I0206 10:31:04.594661 13912 net.cpp:157] Top shape: 1 6 36 44 (9504)
I0206 10:31:04.594666 13912 net.cpp:165] Memory required for data: 965112576
I0206 10:31:04.594676 13912 layer_factory.hpp:77] Creating layer score_pool4c
I0206 10:31:04.594686 13912 net.cpp:100] Creating Layer score_pool4c
I0206 10:31:04.594692 13912 net.cpp:434] score_pool4c <- score_pool4
I0206 10:31:04.594698 13912 net.cpp:434] score_pool4c <- upscore2_upscore2_0_split_0
I0206 10:31:04.594708 13912 net.cpp:408] score_pool4c -> score_pool4c
I0206 10:31:04.594745 13912 net.cpp:150] Setting up score_pool4c
I0206 10:31:04.594753 13912 net.cpp:157] Top shape: 1 6 26 34 (5304)
I0206 10:31:04.594758 13912 net.cpp:165] Memory required for data: 965133792
I0206 10:31:04.594761 13912 layer_factory.hpp:77] Creating layer fuse_pool4
I0206 10:31:04.594774 13912 net.cpp:100] Creating Layer fuse_pool4
I0206 10:31:04.594779 13912 net.cpp:434] fuse_pool4 <- upscore2_upscore2_0_split_1
I0206 10:31:04.594784 13912 net.cpp:434] fuse_pool4 <- score_pool4c
I0206 10:31:04.594790 13912 net.cpp:408] fuse_pool4 -> fuse_pool4
I0206 10:31:04.594823 13912 net.cpp:150] Setting up fuse_pool4
I0206 10:31:04.594831 13912 net.cpp:157] Top shape: 1 6 26 34 (5304)
I0206 10:31:04.594835 13912 net.cpp:165] Memory required for data: 965155008
I0206 10:31:04.594840 13912 layer_factory.hpp:77] Creating layer upscore_pool4
I0206 10:31:04.594851 13912 net.cpp:100] Creating Layer upscore_pool4
I0206 10:31:04.594856 13912 net.cpp:434] upscore_pool4 <- fuse_pool4
I0206 10:31:04.594864 13912 net.cpp:408] upscore_pool4 -> upscore_pool4
I0206 10:31:04.595072 13912 net.cpp:150] Setting up upscore_pool4
I0206 10:31:04.595080 13912 net.cpp:157] Top shape: 1 6 54 70 (22680)
I0206 10:31:04.595084 13912 net.cpp:165] Memory required for data: 965245728
I0206 10:31:04.595090 13912 layer_factory.hpp:77] Creating layer upscore_pool4_upscore_pool4_0_split
I0206 10:31:04.595098 13912 net.cpp:100] Creating Layer upscore_pool4_upscore_pool4_0_split
I0206 10:31:04.595103 13912 net.cpp:434] upscore_pool4_upscore_pool4_0_split <- upscore_pool4
I0206 10:31:04.595108 13912 net.cpp:408] upscore_pool4_upscore_pool4_0_split -> upscore_pool4_upscore_pool4_0_split_0
I0206 10:31:04.595116 13912 net.cpp:408] upscore_pool4_upscore_pool4_0_split -> upscore_pool4_upscore_pool4_0_split_1
I0206 10:31:04.595157 13912 net.cpp:150] Setting up upscore_pool4_upscore_pool4_0_split
I0206 10:31:04.595165 13912 net.cpp:157] Top shape: 1 6 54 70 (22680)
I0206 10:31:04.595170 13912 net.cpp:157] Top shape: 1 6 54 70 (22680)
I0206 10:31:04.595173 13912 net.cpp:165] Memory required for data: 965427168
I0206 10:31:04.595177 13912 layer_factory.hpp:77] Creating layer scale_pool3
I0206 10:31:04.595185 13912 net.cpp:100] Creating Layer scale_pool3
I0206 10:31:04.595191 13912 net.cpp:434] scale_pool3 <- pool3_pool3_0_split_1
I0206 10:31:04.595199 13912 net.cpp:408] scale_pool3 -> scale_pool3
I0206 10:31:04.595314 13912 net.cpp:150] Setting up scale_pool3
I0206 10:31:04.595321 13912 net.cpp:157] Top shape: 1 256 72 88 (1622016)
I0206 10:31:04.595325 13912 net.cpp:165] Memory required for data: 971915232
I0206 10:31:04.595331 13912 layer_factory.hpp:77] Creating layer score_pool3
I0206 10:31:04.595342 13912 net.cpp:100] Creating Layer score_pool3
I0206 10:31:04.595347 13912 net.cpp:434] score_pool3 <- scale_pool3
I0206 10:31:04.595355 13912 net.cpp:408] score_pool3 -> score_pool3
I0206 10:31:04.596604 13912 net.cpp:150] Setting up score_pool3
I0206 10:31:04.596626 13912 net.cpp:157] Top shape: 1 6 72 88 (38016)
I0206 10:31:04.596631 13912 net.cpp:165] Memory required for data: 972067296
I0206 10:31:04.596638 13912 layer_factory.hpp:77] Creating layer score_pool3c
I0206 10:31:04.596649 13912 net.cpp:100] Creating Layer score_pool3c
I0206 10:31:04.596654 13912 net.cpp:434] score_pool3c <- score_pool3
I0206 10:31:04.596660 13912 net.cpp:434] score_pool3c <- upscore_pool4_upscore_pool4_0_split_0
I0206 10:31:04.596668 13912 net.cpp:408] score_pool3c -> score_pool3c
I0206 10:31:04.596704 13912 net.cpp:150] Setting up score_pool3c
I0206 10:31:04.596711 13912 net.cpp:157] Top shape: 1 6 54 70 (22680)
I0206 10:31:04.596714 13912 net.cpp:165] Memory required for data: 972158016
I0206 10:31:04.596719 13912 layer_factory.hpp:77] Creating layer fuse_pool3
I0206 10:31:04.596726 13912 net.cpp:100] Creating Layer fuse_pool3
I0206 10:31:04.596731 13912 net.cpp:434] fuse_pool3 <- upscore_pool4_upscore_pool4_0_split_1
I0206 10:31:04.596736 13912 net.cpp:434] fuse_pool3 <- score_pool3c
I0206 10:31:04.596745 13912 net.cpp:408] fuse_pool3 -> fuse_pool3
I0206 10:31:04.596774 13912 net.cpp:150] Setting up fuse_pool3
I0206 10:31:04.596782 13912 net.cpp:157] Top shape: 1 6 54 70 (22680)
I0206 10:31:04.596786 13912 net.cpp:165] Memory required for data: 972248736
I0206 10:31:04.596791 13912 layer_factory.hpp:77] Creating layer upscore8
I0206 10:31:04.596798 13912 net.cpp:100] Creating Layer upscore8
I0206 10:31:04.596802 13912 net.cpp:434] upscore8 <- fuse_pool3
I0206 10:31:04.596812 13912 net.cpp:408] upscore8 -> upscore8
I0206 10:31:04.597079 13912 net.cpp:150] Setting up upscore8
I0206 10:31:04.597087 13912 net.cpp:157] Top shape: 1 6 440 568 (1499520)
I0206 10:31:04.597091 13912 net.cpp:165] Memory required for data: 978246816
I0206 10:31:04.597097 13912 layer_factory.hpp:77] Creating layer score
I0206 10:31:04.597105 13912 net.cpp:100] Creating Layer score
I0206 10:31:04.597110 13912 net.cpp:434] score <- upscore8
I0206 10:31:04.597115 13912 net.cpp:434] score <- data_data_0_split_1
I0206 10:31:04.597121 13912 net.cpp:408] score -> score
I0206 10:31:04.597149 13912 net.cpp:150] Setting up score
I0206 10:31:04.597157 13912 net.cpp:157] Top shape: 1 6 375 500 (1125000)
I0206 10:31:04.597160 13912 net.cpp:165] Memory required for data: 982746816
I0206 10:31:04.597164 13912 layer_factory.hpp:77] Creating layer loss
I0206 10:31:04.597177 13912 net.cpp:100] Creating Layer loss
I0206 10:31:04.597182 13912 net.cpp:434] loss <- score
I0206 10:31:04.597187 13912 net.cpp:434] loss <- label
I0206 10:31:04.597196 13912 net.cpp:408] loss -> loss
I0206 10:31:04.597208 13912 layer_factory.hpp:77] Creating layer loss
…
I0206 10:31:04.600653 13912 net.cpp:283] Network initialization done.
I0206 10:31:04.601858 13912 solver.cpp:181] Creating test net (#0) specified by test_net file: val.prototxt
I0206 10:31:04.602234 13912 net.cpp:58] Initializing net from parameters: 
state {
  phase: TEST
}
layer {
  name: "data"
  type: "Python"
  top: "data"
  top: "label"
  python_param {
    module: "voc_layers"
    layer: "PartialVOCSegDataLayer"
    param_str: "{\'voc_dir\': \'../data/pascal-obfuscated/VOC2011\', \'seed\': 1337, \'split\': \'seg11valid5\', \'mean\': (104.00699, 116.66877, 122.67892)}"
  }
}
layer {
  name: "conv1_1"
  type: "Convolution"
  bottom: "data"
  top: "conv1_1"
  param {
    lr_mult: 1
    decay_mult: 1
  }
  param {
    lr_mult: 2
    decay_mult: 0
  }
  convolution_param {
    num_output: 64
    pad: 100
    kernel_size: 3
    stride: 1
    weight_filler {
      type: "xavier"
    }
  }
}
layer {
  name: "relu1_1"
  type: "ReLU"
  bottom: "conv1_1"
  top: "conv1_1"
}
layer {
  name: "conv1_2"
  type: "Convolution"
  bottom: "conv1_1"
  top: "conv1_2"
  param {
    lr_mult: 1
    decay_mult: 1
  }
  param {
    lr_mult: 2
    decay_mult: 0
  }
  convolution_param {
    num_output: 64
    pad: 1
    kernel_size: 3
    stride: 1
    weight_filler {
      type: "xavier"
    }
  }
}
layer {
  name: "relu1_2"
  type: "ReLU"
  bottom: "conv1_2"
  top: "conv1_2"
}
layer {
  name: "pool1"
  type: "Pooling"
  bottom: "conv1_2"
  top: "pool1"
  pooling_param {
    pool: MAX
    kernel_size: 2
    stride: 2
  }
}
layer {
  name: "conv2_1"
  type: "Convolution"
  bottom: "pool1"
  top: "conv2_1"
  param {
    lr_mult: 1
    decay_mult: 1
  }
  param {
    lr_mult: 2
    decay_mult: 0
  }
  convolution_param {
    num_output: 128
    pad: 1
    kernel_size: 3
    stride: 1
    weight_filler {
      type: "xavier"
    }
  }
}
layer {
  name: "relu2_1"
  type: "ReLU"
  bottom: "conv2_1"
  top: "conv2_1"
}
layer {
  name: "conv2_2"
  type: "Convolution"
  bottom: "conv2_1"
  top: "conv2_2"
  param {
    lr_mult: 1
    decay_mult: 1
  }
  param {
    lr_mult: 2
    decay_mult: 0
  }
  convolution_param {
    num_output: 128
    pad: 1
    kernel_size: 3
    stride: 1
    weight_filler {
      type: "xavier"
    }
  }
}
layer {
  name: "relu2_2"
  type: "ReLU"
  bottom: "conv2_2"
  top: "conv2_2"
}
layer {
  name: "pool2"
  type: "Pooling"
  bottom: "conv2_2"
  top: "pool2"
  pooling_param {
    pool: MAX
    kernel_size: 2
    stride: 2
  }
}
layer {
  name: "conv3_1"
  type: "Convolution"
  bottom: "pool2"
  top: "conv3_1"
  param {
    lr_mult: 1
    decay_mult: 1
  }
  param {
    lr_mult: 2
    decay_mult: 0
  }
  convolution_param {
    num_output: 256
    pad: 1
    kernel_size: 3
    stride: 1
    weight_filler {
      type: "xavier"
    }
  }
}
layer {
  name: "relu3_1"
  type: "ReLU"
  bottom: "conv3_1"
  top: "conv3_1"
}
layer {
  name: "conv3_2"
  type: "Convolution"
  bottom: "conv3_1"
  top: "conv3_2"
  param {
    lr_mult: 1
    decay_mult: 1
  }
  param {
    lr_mult: 2
    decay_mult: 0
  }
  convolution_param {
    num_output: 256
    pad: 1
    kernel_size: 3
    stride: 1
    weight_filler {
      type: "xavier"
    }
  }
}
layer {
  name: "relu3_2"
  type: "ReLU"
  bottom: "conv3_2"
  top: "conv3_2"
}
layer {
  name: "conv3_3"
  type: "Convolution"
  bottom: "conv3_2"
  top: "conv3_3"
  param {
    lr_mult: 1
    decay_mult: 1
  }
  param {
    lr_mult: 2
    decay_mult: 0
  }
  convolution_param {
    num_output: 256
    pad: 1
    kernel_size: 3
    stride: 1
    weight_filler {
      type: "xavier"
    }
  }
}
layer {
  name: "relu3_3"
  type: "ReLU"
  bottom: "conv3_3"
  top: "conv3_3"
}
layer {
  name: "pool3"
  type: "Pooling"
  bottom: "conv3_3"
  top: "pool3"
  pooling_param {
    pool: MAX
    kernel_size: 2
    stride: 2
  }
}
layer {
  name: "conv4_1"
  type: "Convolution"
  bottom: "pool3"
  top: "conv4_1"
  param {
    lr_mult: 1
    decay_mult: 1
  }
  param {
    lr_mult: 2
    decay_mult: 0
  }
  convolution_param {
    num_output: 512
    pad: 1
    kernel_size: 3
    stride: 1
    weight_filler {
      type: "xavier"
    }
  }
}
layer {
  name: "relu4_1"
  type: "ReLU"
  bottom: "conv4_1"
  top: "conv4_1"
}
layer {
  name: "conv4_2"
  type: "Convolution"
  bottom: "conv4_1"
  top: "conv4_2"
  param {
    lr_mult: 1
    decay_mult: 1
  }
  param {
    lr_mult: 2
    decay_mult: 0
  }
  convolution_param {
    num_output: 512
    pad: 1
    kernel_size: 3
    stride: 1
    weight_filler {
      type: "xavier"
    }
  }
}
layer {
  name: "relu4_2"
  type: "ReLU"
  bottom: "conv4_2"
  top: "conv4_2"
}
layer {
  name: "conv4_3"
  type: "Convolution"
  bottom: "conv4_2"
  top: "conv4_3"
  param {
    lr_mult: 1
    decay_mult: 1
  }
  param {
    lr_mult: 2
    decay_mult: 0
  }
  convolution_param {
    num_output: 512
    pad: 1
    kernel_size: 3
    stride: 1
    weight_filler {
      type: "xavier"
    }
  }
}
layer {
  name: "relu4_3"
  type: "ReLU"
  bottom: "conv4_3"
  top: "conv4_3"
}
layer {
  name: "pool4"
  type: "Pooling"
  bottom: "conv4_3"
  top: "pool4"
  pooling_param {
    pool: MAX
    kernel_size: 2
    stride: 2
  }
}
layer {
  name: "conv5_1"
  type: "Convolution"
  bottom: "pool4"
  top: "conv5_1"
  param {
    lr_mult: 1
    decay_mult: 1
  }
  param {
    lr_mult: 2
    decay_mult: 0
  }
  convolution_param {
    num_output: 512
    pad: 1
    kernel_size: 3
    stride: 1
    weight_filler {
      type: "xavier"
    }
  }
}
layer {
  name: "relu5_1"
  type: "ReLU"
  bottom: "conv5_1"
  top: "conv5_1"
}
layer {
  name: "conv5_2"
  type: "Convolution"
  bottom: "conv5_1"
  top: "conv5_2"
  param {
    lr_mult: 1
    decay_mult: 1
  }
  param {
    lr_mult: 2
    decay_mult: 0
  }
  convolution_param {
    num_output: 512
    pad: 1
    kernel_size: 3
    stride: 1
    weight_filler {
      type: "xavier"
    }
  }
}
layer {
  name: "relu5_2"
  type: "ReLU"
  bottom: "conv5_2"
  top: "conv5_2"
}
layer {
  name: "conv5_3"
  type: "Convolution"
  bottom: "conv5_2"
  top: "conv5_3"
  param {
    lr_mult: 1
    decay_mult: 1
  }
  param {
    lr_mult: 2
    decay_mult: 0
  }
  convolution_param {
    num_output: 512
    pad: 1
    kernel_size: 3
    stride: 1
    weight_filler {
      type: "xavier"
    }
  }
}
layer {
  name: "relu5_3"
  type: "ReLU"
  bottom: "conv5_3"
  top: "conv5_3"
}
layer {
  name: "pool5"
  type: "Pooling"
  bottom: "conv5_3"
  top: "pool5"
  pooling_param {
    pool: MAX
    kernel_size: 2
    stride: 2
  }
}
layer {
  name: "fc6"
  type: "Convolution"
  bottom: "pool5"
  top: "fc6"
  param {
    lr_mult: 1
    decay_mult: 1
  }
  param {
    lr_mult: 2
    decay_mult: 0
  }
  convolution_param {
    num_output: 4096
    pad: 0
    kernel_size: 7
    stride: 1
    weight_filler {
      type: "xavier"
    }
  }
}
layer {
  name: "relu6"
  type: "ReLU"
  bottom: "fc6"
  top: "fc6"
}
layer {
  name: "drop6"
  type: "Dropout"
  bottom: "fc6"
  top: "fc6"
  dropout_param {
    dropout_ratio: 0.5
  }
}
layer {
  name: "fc7"
  type: "Convolution"
  bottom: "fc6"
  top: "fc7"
  param {
    lr_mult: 1
    decay_mult: 1
  }
  param {
    lr_mult: 2
    decay_mult: 0
  }
  convolution_param {
    num_output: 4096
    pad: 0
    kernel_size: 1
    stride: 1
    weight_filler {
      type: "xavier"
    }
  }
}
layer {
  name: "relu7"
  type: "ReLU"
  bottom: "fc7"
  top: "fc7"
}
layer {
  name: "drop7"
  type: "Dropout"
  bottom: "fc7"
  top: "fc7"
  dropout_param {
    dropout_ratio: 0.5
  }
}
layer {
  name: "score_fr"
  type: "Convolution"
  bottom: "fc7"
  top: "score_fr"
  param {
    lr_mult: 1
    decay_mult: 1
  }
  param {
    lr_mult: 2
    decay_mult: 0
  }
  convolution_param {
    num_output: 6
    pad: 0
    kernel_size: 1
    weight_filler {
      type: "xavier"
    }
  }
}
layer {
  name: "upscore2"
  type: "Deconvolution"
  bottom: "score_fr"
  top: "upscore2"
  param {
    lr_mult: 0
  }
  convolution_param {
    num_output: 6
    bias_term: false
    kernel_size: 4
    stride: 2
    weight_filler {
      type: "xavier"
    }
  }
}
layer {
  name: "scale_pool4"
  type: "Scale"
  bottom: "pool4"
  top: "scale_pool4"
  param {
    lr_mult: 0
  }
  scale_param {
    filler {
      type: "constant"
      value: 0.01
    }
  }
}
layer {
  name: "score_pool4"
  type: "Convolution"
  bottom: "scale_pool4"
  top: "score_pool4"
  param {
    lr_mult: 1
    decay_mult: 1
  }
  param {
    lr_mult: 2
    decay_mult: 0
  }
  convolution_param {
    num_output: 6
    pad: 0
    kernel_size: 1
    weight_filler {
      type: "xavier"
    }
  }
}
layer {
  name: "score_pool4c"
  type: "Crop"
  bottom: "score_pool4"
  bottom: "upscore2"
  top: "score_pool4c"
  crop_param {
    axis: 2
    offset: 5
  }
}
layer {
  name: "fuse_pool4"
  type: "Eltwise"
  bottom: "upscore2"
  bottom: "score_pool4c"
  top: "fuse_pool4"
  eltwise_param {
    operation: SUM
  }
}
layer {
  name: "upscore_pool4"
  type: "Deconvolution"
  bottom: "fuse_pool4"
  top: "upscore_pool4"
  param {
    lr_mult: 0
  }
  convolution_param {
    num_output: 6
    bias_term: false
    kernel_size: 4
    stride: 2
    weight_filler {
      type: "xavier"
    }
  }
}
layer {
  name: "scale_pool3"
  type: "Scale"
  bottom: "pool3"
  top: "scale_pool3"
  param {
    lr_mult: 0
  }
  scale_param {
    filler {
      type: "constant"
      value: 0.0001
    }
  }
}
layer {
  name: "score_pool3"
  type: "Convolution"
  bottom: "scale_pool3"
  top: "score_pool3"
  param {
    lr_mult: 1
    decay_mult: 1
  }
  param {
    lr_mult: 2
    decay_mult: 0
  }
  convolution_param {
    num_output: 6
    pad: 0
    kernel_size: 1
    weight_filler {
      type: "xavier"
    }
  }
}
layer {
  name: "score_pool3c"
  type: "Crop"
  bottom: "score_pool3"
  bottom: "upscore_pool4"
  top: "score_pool3c"
  crop_param {
    axis: 2
    offset: 9
  }
}
layer {
  name: "fuse_pool3"
  type: "Eltwise"
  bottom: "upscore_pool4"
  bottom: "score_pool3c"
  top: "fuse_pool3"
  eltwise_param {
    operation: SUM
  }
}
layer {
  name: "upscore8"
  type: "Deconvolution"
  bottom: "fuse_pool3"
  top: "upscore8"
  param {
    lr_mult: 0
  }
  convolution_param {
    num_output: 6
    bias_term: false
    kernel_size: 16
    stride: 8
    weight_filler {
      type: "xavier"
    }
  }
}
layer {
  name: "score"
  type: "Crop"
  bottom: "upscore8"
  bottom: "data"
  top: "score"
  crop_param {
    axis: 2
    offset: 31
  }
}
layer {
  name: "loss"
  type: "SoftmaxWithLoss"
  bottom: "score"
  bottom: "label"
  top: "loss"
  loss_param {
    ignore_label: 255
    normalize: false
  }
}
I0206 10:31:04.602465 13912 layer_factory.hpp:77] Creating layer data
I0206 10:31:04.602650 13912 net.cpp:100] Creating Layer data
I0206 10:31:04.602661 13912 net.cpp:408] data -> data
I0206 10:31:04.602670 13912 net.cpp:408] data -> label
I0206 10:31:04.620522 13912 net.cpp:150] Setting up data
I0206 10:31:04.620543 13912 net.cpp:157] Top shape: 1 3 335 500 (502500)
I0206 10:31:04.620550 13912 net.cpp:157] Top shape: 1 1 335 500 (167500)
I0206 10:31:04.620554 13912 net.cpp:165] Memory required for data: 2680000
I0206 10:31:04.620560 13912 layer_factory.hpp:77] Creating layer data_data_0_split
I0206 10:31:04.620569 13912 net.cpp:100] Creating Layer data_data_0_split
I0206 10:31:04.620574 13912 net.cpp:434] data_data_0_split <- data
I0206 10:31:04.620580 13912 net.cpp:408] data_data_0_split -> data_data_0_split_0
I0206 10:31:04.620590 13912 net.cpp:408] data_data_0_split -> data_data_0_split_1
I0206 10:31:04.620633 13912 net.cpp:150] Setting up data_data_0_split
I0206 10:31:04.620641 13912 net.cpp:157] Top shape: 1 3 335 500 (502500)
I0206 10:31:04.620646 13912 net.cpp:157] Top shape: 1 3 335 500 (502500)
I0206 10:31:04.620651 13912 net.cpp:165] Memory required for data: 6700000
I0206 10:31:04.620654 13912 layer_factory.hpp:77] Creating layer conv1_1
I0206 10:31:04.620666 13912 net.cpp:100] Creating Layer conv1_1
I0206 10:31:04.620671 13912 net.cpp:434] conv1_1 <- data_data_0_split_0
I0206 10:31:04.620676 13912 net.cpp:408] conv1_1 -> conv1_1
I0206 10:31:04.622970 13912 net.cpp:150] Setting up conv1_1
I0206 10:31:04.622989 13912 net.cpp:157] Top shape: 1 64 533 698 (23810176)
I0206 10:31:04.622995 13912 net.cpp:165] Memory required for data: 101940704
I0206 10:31:04.623008 13912 layer_factory.hpp:77] Creating layer relu1_1
I0206 10:31:04.623015 13912 net.cpp:100] Creating Layer relu1_1
I0206 10:31:04.623020 13912 net.cpp:434] relu1_1 <- conv1_1
I0206 10:31:04.623028 13912 net.cpp:395] relu1_1 -> conv1_1 (in-place)
I0206 10:31:04.623221 13912 net.cpp:150] Setting up relu1_1
I0206 10:31:04.623234 13912 net.cpp:157] Top shape: 1 64 533 698 (23810176)
I0206 10:31:04.623237 13912 net.cpp:165] Memory required for data: 197181408
I0206 10:31:04.623242 13912 layer_factory.hpp:77] Creating layer conv1_2
I0206 10:31:04.623253 13912 net.cpp:100] Creating Layer conv1_2
I0206 10:31:04.623258 13912 net.cpp:434] conv1_2 <- conv1_1
I0206 10:31:04.623265 13912 net.cpp:408] conv1_2 -> conv1_2
I0206 10:31:04.625669 13912 net.cpp:150] Setting up conv1_2
I0206 10:31:04.625687 13912 net.cpp:157] Top shape: 1 64 533 698 (23810176)
I0206 10:31:04.625692 13912 net.cpp:165] Memory required for data: 292422112
I0206 10:31:04.625705 13912 layer_factory.hpp:77] Creating layer relu1_2
I0206 10:31:04.625712 13912 net.cpp:100] Creating Layer relu1_2
I0206 10:31:04.625717 13912 net.cpp:434] relu1_2 <- conv1_2
I0206 10:31:04.625725 13912 net.cpp:395] relu1_2 -> conv1_2 (in-place)
I0206 10:31:04.626101 13912 net.cpp:150] Setting up relu1_2
I0206 10:31:04.626114 13912 net.cpp:157] Top shape: 1 64 533 698 (23810176)
I0206 10:31:04.626119 13912 net.cpp:165] Memory required for data: 387662816
I0206 10:31:04.626124 13912 layer_factory.hpp:77] Creating layer pool1
I0206 10:31:04.626132 13912 net.cpp:100] Creating Layer pool1
I0206 10:31:04.626137 13912 net.cpp:434] pool1 <- conv1_2
I0206 10:31:04.626144 13912 net.cpp:408] pool1 -> pool1
I0206 10:31:04.626199 13912 net.cpp:150] Setting up pool1
I0206 10:31:04.626206 13912 net.cpp:157] Top shape: 1 64 267 349 (5963712)
I0206 10:31:04.626210 13912 net.cpp:165] Memory required for data: 411517664
I0206 10:31:04.626215 13912 layer_factory.hpp:77] Creating layer conv2_1
I0206 10:31:04.626225 13912 net.cpp:100] Creating Layer conv2_1
I0206 10:31:04.626230 13912 net.cpp:434] conv2_1 <- pool1
I0206 10:31:04.626237 13912 net.cpp:408] conv2_1 -> conv2_1
I0206 10:31:04.628514 13912 net.cpp:150] Setting up conv2_1
I0206 10:31:04.628530 13912 net.cpp:157] Top shape: 1 128 267 349 (11927424)
I0206 10:31:04.628535 13912 net.cpp:165] Memory required for data: 459227360
I0206 10:31:04.628546 13912 layer_factory.hpp:77] Creating layer relu2_1
I0206 10:31:04.628556 13912 net.cpp:100] Creating Layer relu2_1
I0206 10:31:04.628561 13912 net.cpp:434] relu2_1 <- conv2_1
I0206 10:31:04.628567 13912 net.cpp:395] relu2_1 -> conv2_1 (in-place)
I0206 10:31:04.628960 13912 net.cpp:150] Setting up relu2_1
I0206 10:31:04.628974 13912 net.cpp:157] Top shape: 1 128 267 349 (11927424)
I0206 10:31:04.628979 13912 net.cpp:165] Memory required for data: 506937056
I0206 10:31:04.628984 13912 layer_factory.hpp:77] Creating layer conv2_2
I0206 10:31:04.628995 13912 net.cpp:100] Creating Layer conv2_2
I0206 10:31:04.629000 13912 net.cpp:434] conv2_2 <- conv2_1
I0206 10:31:04.629009 13912 net.cpp:408] conv2_2 -> conv2_2
I0206 10:31:04.631649 13912 net.cpp:150] Setting up conv2_2
I0206 10:31:04.631667 13912 net.cpp:157] Top shape: 1 128 267 349 (11927424)
I0206 10:31:04.631672 13912 net.cpp:165] Memory required for data: 554646752
I0206 10:31:04.631681 13912 layer_factory.hpp:77] Creating layer relu2_2
I0206 10:31:04.631690 13912 net.cpp:100] Creating Layer relu2_2
I0206 10:31:04.631695 13912 net.cpp:434] relu2_2 <- conv2_2
I0206 10:31:04.631700 13912 net.cpp:395] relu2_2 -> conv2_2 (in-place)
I0206 10:31:04.631894 13912 net.cpp:150] Setting up relu2_2
I0206 10:31:04.631906 13912 net.cpp:157] Top shape: 1 128 267 349 (11927424)
I0206 10:31:04.631911 13912 net.cpp:165] Memory required for data: 602356448
I0206 10:31:04.631916 13912 layer_factory.hpp:77] Creating layer pool2
I0206 10:31:04.631923 13912 net.cpp:100] Creating Layer pool2
I0206 10:31:04.631927 13912 net.cpp:434] pool2 <- conv2_2
I0206 10:31:04.631935 13912 net.cpp:408] pool2 -> pool2
I0206 10:31:04.631988 13912 net.cpp:150] Setting up pool2
I0206 10:31:04.631995 13912 net.cpp:157] Top shape: 1 128 134 175 (3001600)
I0206 10:31:04.631999 13912 net.cpp:165] Memory required for data: 614362848
I0206 10:31:04.632004 13912 layer_factory.hpp:77] Creating layer conv3_1
I0206 10:31:04.632014 13912 net.cpp:100] Creating Layer conv3_1
I0206 10:31:04.632019 13912 net.cpp:434] conv3_1 <- pool2
I0206 10:31:04.632025 13912 net.cpp:408] conv3_1 -> conv3_1
I0206 10:31:04.635419 13912 net.cpp:150] Setting up conv3_1
I0206 10:31:04.635437 13912 net.cpp:157] Top shape: 1 256 134 175 (6003200)
I0206 10:31:04.635442 13912 net.cpp:165] Memory required for data: 638375648
I0206 10:31:04.635453 13912 layer_factory.hpp:77] Creating layer relu3_1
I0206 10:31:04.635469 13912 net.cpp:100] Creating Layer relu3_1
I0206 10:31:04.635474 13912 net.cpp:434] relu3_1 <- conv3_1
I0206 10:31:04.635481 13912 net.cpp:395] relu3_1 -> conv3_1 (in-place)
I0206 10:31:04.635859 13912 net.cpp:150] Setting up relu3_1
I0206 10:31:04.635874 13912 net.cpp:157] Top shape: 1 256 134 175 (6003200)
I0206 10:31:04.635879 13912 net.cpp:165] Memory required for data: 662388448
I0206 10:31:04.635884 13912 layer_factory.hpp:77] Creating layer conv3_2
I0206 10:31:04.635895 13912 net.cpp:100] Creating Layer conv3_2
I0206 10:31:04.635900 13912 net.cpp:434] conv3_2 <- conv3_1
I0206 10:31:04.635910 13912 net.cpp:408] conv3_2 -> conv3_2
I0206 10:31:04.641314 13912 net.cpp:150] Setting up conv3_2
I0206 10:31:04.641331 13912 net.cpp:157] Top shape: 1 256 134 175 (6003200)
I0206 10:31:04.641336 13912 net.cpp:165] Memory required for data: 686401248
I0206 10:31:04.641345 13912 layer_factory.hpp:77] Creating layer relu3_2
I0206 10:31:04.641353 13912 net.cpp:100] Creating Layer relu3_2
I0206 10:31:04.641358 13912 net.cpp:434] relu3_2 <- conv3_2
I0206 10:31:04.641366 13912 net.cpp:395] relu3_2 -> conv3_2 (in-place)
I0206 10:31:04.641557 13912 net.cpp:150] Setting up relu3_2
I0206 10:31:04.641568 13912 net.cpp:157] Top shape: 1 256 134 175 (6003200)
I0206 10:31:04.641572 13912 net.cpp:165] Memory required for data: 710414048
I0206 10:31:04.641577 13912 layer_factory.hpp:77] Creating layer conv3_3
I0206 10:31:04.641589 13912 net.cpp:100] Creating Layer conv3_3
I0206 10:31:04.641595 13912 net.cpp:434] conv3_3 <- conv3_2
I0206 10:31:04.641602 13912 net.cpp:408] conv3_3 -> conv3_3
I0206 10:31:04.647012 13912 net.cpp:150] Setting up conv3_3
I0206 10:31:04.647030 13912 net.cpp:157] Top shape: 1 256 134 175 (6003200)
I0206 10:31:04.647035 13912 net.cpp:165] Memory required for data: 734426848
I0206 10:31:04.647043 13912 layer_factory.hpp:77] Creating layer relu3_3
I0206 10:31:04.647053 13912 net.cpp:100] Creating Layer relu3_3
I0206 10:31:04.647058 13912 net.cpp:434] relu3_3 <- conv3_3
I0206 10:31:04.647064 13912 net.cpp:395] relu3_3 -> conv3_3 (in-place)
I0206 10:31:04.647263 13912 net.cpp:150] Setting up relu3_3
I0206 10:31:04.647272 13912 net.cpp:157] Top shape: 1 256 134 175 (6003200)
I0206 10:31:04.647277 13912 net.cpp:165] Memory required for data: 758439648
I0206 10:31:04.647281 13912 layer_factory.hpp:77] Creating layer pool3
I0206 10:31:04.647290 13912 net.cpp:100] Creating Layer pool3
I0206 10:31:04.647294 13912 net.cpp:434] pool3 <- conv3_3
I0206 10:31:04.647302 13912 net.cpp:408] pool3 -> pool3
I0206 10:31:04.647356 13912 net.cpp:150] Setting up pool3
I0206 10:31:04.647364 13912 net.cpp:157] Top shape: 1 256 67 88 (1509376)
I0206 10:31:04.647368 13912 net.cpp:165] Memory required for data: 764477152
I0206 10:31:04.647372 13912 layer_factory.hpp:77] Creating layer pool3_pool3_0_split
I0206 10:31:04.647380 13912 net.cpp:100] Creating Layer pool3_pool3_0_split
I0206 10:31:04.647384 13912 net.cpp:434] pool3_pool3_0_split <- pool3
I0206 10:31:04.647392 13912 net.cpp:408] pool3_pool3_0_split -> pool3_pool3_0_split_0
I0206 10:31:04.647398 13912 net.cpp:408] pool3_pool3_0_split -> pool3_pool3_0_split_1
I0206 10:31:04.647440 13912 net.cpp:150] Setting up pool3_pool3_0_split
I0206 10:31:04.647449 13912 net.cpp:157] Top shape: 1 256 67 88 (1509376)
I0206 10:31:04.647454 13912 net.cpp:157] Top shape: 1 256 67 88 (1509376)
I0206 10:31:04.647456 13912 net.cpp:165] Memory required for data: 776552160
I0206 10:31:04.647461 13912 layer_factory.hpp:77] Creating layer conv4_1
I0206 10:31:04.647472 13912 net.cpp:100] Creating Layer conv4_1
I0206 10:31:04.647477 13912 net.cpp:434] conv4_1 <- pool3_pool3_0_split_0
I0206 10:31:04.647485 13912 net.cpp:408] conv4_1 -> conv4_1
I0206 10:31:04.656885 13912 net.cpp:150] Setting up conv4_1
I0206 10:31:04.656904 13912 net.cpp:157] Top shape: 1 512 67 88 (3018752)
I0206 10:31:04.656910 13912 net.cpp:165] Memory required for data: 788627168
I0206 10:31:04.656919 13912 layer_factory.hpp:77] Creating layer relu4_1
I0206 10:31:04.656927 13912 net.cpp:100] Creating Layer relu4_1
I0206 10:31:04.656932 13912 net.cpp:434] relu4_1 <- conv4_1
I0206 10:31:04.656947 13912 net.cpp:395] relu4_1 -> conv4_1 (in-place)
I0206 10:31:04.657332 13912 net.cpp:150] Setting up relu4_1
I0206 10:31:04.657346 13912 net.cpp:157] Top shape: 1 512 67 88 (3018752)
I0206 10:31:04.657351 13912 net.cpp:165] Memory required for data: 800702176
I0206 10:31:04.657356 13912 layer_factory.hpp:77] Creating layer conv4_2
I0206 10:31:04.657367 13912 net.cpp:100] Creating Layer conv4_2
I0206 10:31:04.657372 13912 net.cpp:434] conv4_2 <- conv4_1
I0206 10:31:04.657382 13912 net.cpp:408] conv4_2 -> conv4_2
I0206 10:31:04.674959 13912 net.cpp:150] Setting up conv4_2
I0206 10:31:04.674986 13912 net.cpp:157] Top shape: 1 512 67 88 (3018752)
I0206 10:31:04.674991 13912 net.cpp:165] Memory required for data: 812777184
I0206 10:31:04.675006 13912 layer_factory.hpp:77] Creating layer relu4_2
I0206 10:31:04.675016 13912 net.cpp:100] Creating Layer relu4_2
I0206 10:31:04.675022 13912 net.cpp:434] relu4_2 <- conv4_2
I0206 10:31:04.675030 13912 net.cpp:395] relu4_2 -> conv4_2 (in-place)
I0206 10:31:04.675235 13912 net.cpp:150] Setting up relu4_2
I0206 10:31:04.675245 13912 net.cpp:157] Top shape: 1 512 67 88 (3018752)
I0206 10:31:04.675249 13912 net.cpp:165] Memory required for data: 824852192
I0206 10:31:04.675253 13912 layer_factory.hpp:77] Creating layer conv4_3
I0206 10:31:04.675266 13912 net.cpp:100] Creating Layer conv4_3
I0206 10:31:04.675271 13912 net.cpp:434] conv4_3 <- conv4_2
I0206 10:31:04.675279 13912 net.cpp:408] conv4_3 -> conv4_3
I0206 10:31:04.693137 13912 net.cpp:150] Setting up conv4_3
I0206 10:31:04.693171 13912 net.cpp:157] Top shape: 1 512 67 88 (3018752)
I0206 10:31:04.693176 13912 net.cpp:165] Memory required for data: 836927200
I0206 10:31:04.693186 13912 layer_factory.hpp:77] Creating layer relu4_3
I0206 10:31:04.693197 13912 net.cpp:100] Creating Layer relu4_3
I0206 10:31:04.693203 13912 net.cpp:434] relu4_3 <- conv4_3
I0206 10:31:04.693212 13912 net.cpp:395] relu4_3 -> conv4_3 (in-place)
I0206 10:31:04.693423 13912 net.cpp:150] Setting up relu4_3
I0206 10:31:04.693434 13912 net.cpp:157] Top shape: 1 512 67 88 (3018752)
I0206 10:31:04.693439 13912 net.cpp:165] Memory required for data: 849002208
I0206 10:31:04.693442 13912 layer_factory.hpp:77] Creating layer pool4
I0206 10:31:04.693452 13912 net.cpp:100] Creating Layer pool4
I0206 10:31:04.693457 13912 net.cpp:434] pool4 <- conv4_3
I0206 10:31:04.693464 13912 net.cpp:408] pool4 -> pool4
I0206 10:31:04.693522 13912 net.cpp:150] Setting up pool4
I0206 10:31:04.693531 13912 net.cpp:157] Top shape: 1 512 34 44 (765952)
I0206 10:31:04.693534 13912 net.cpp:165] Memory required for data: 852066016
I0206 10:31:04.693538 13912 layer_factory.hpp:77] Creating layer pool4_pool4_0_split
I0206 10:31:04.693547 13912 net.cpp:100] Creating Layer pool4_pool4_0_split
I0206 10:31:04.693552 13912 net.cpp:434] pool4_pool4_0_split <- pool4
I0206 10:31:04.693558 13912 net.cpp:408] pool4_pool4_0_split -> pool4_pool4_0_split_0
I0206 10:31:04.693567 13912 net.cpp:408] pool4_pool4_0_split -> pool4_pool4_0_split_1
I0206 10:31:04.693609 13912 net.cpp:150] Setting up pool4_pool4_0_split
I0206 10:31:04.693616 13912 net.cpp:157] Top shape: 1 512 34 44 (765952)
I0206 10:31:04.693622 13912 net.cpp:157] Top shape: 1 512 34 44 (765952)
I0206 10:31:04.693625 13912 net.cpp:165] Memory required for data: 858193632
I0206 10:31:04.693630 13912 layer_factory.hpp:77] Creating layer conv5_1
I0206 10:31:04.693647 13912 net.cpp:100] Creating Layer conv5_1
I0206 10:31:04.693653 13912 net.cpp:434] conv5_1 <- pool4_pool4_0_split_0
I0206 10:31:04.693662 13912 net.cpp:408] conv5_1 -> conv5_1
I0206 10:31:04.711325 13912 net.cpp:150] Setting up conv5_1
I0206 10:31:04.711356 13912 net.cpp:157] Top shape: 1 512 34 44 (765952)
I0206 10:31:04.711361 13912 net.cpp:165] Memory required for data: 861257440
I0206 10:31:04.711370 13912 layer_factory.hpp:77] Creating layer relu5_1
I0206 10:31:04.711380 13912 net.cpp:100] Creating Layer relu5_1
I0206 10:31:04.711386 13912 net.cpp:434] relu5_1 <- conv5_1
I0206 10:31:04.711393 13912 net.cpp:395] relu5_1 -> conv5_1 (in-place)
I0206 10:31:04.711796 13912 net.cpp:150] Setting up relu5_1
I0206 10:31:04.711809 13912 net.cpp:157] Top shape: 1 512 34 44 (765952)
I0206 10:31:04.711814 13912 net.cpp:165] Memory required for data: 864321248
I0206 10:31:04.711819 13912 layer_factory.hpp:77] Creating layer conv5_2
I0206 10:31:04.711833 13912 net.cpp:100] Creating Layer conv5_2
I0206 10:31:04.711838 13912 net.cpp:434] conv5_2 <- conv5_1
I0206 10:31:04.711846 13912 net.cpp:408] conv5_2 -> conv5_2
I0206 10:31:04.729518 13912 net.cpp:150] Setting up conv5_2
I0206 10:31:04.729548 13912 net.cpp:157] Top shape: 1 512 34 44 (765952)
I0206 10:31:04.729553 13912 net.cpp:165] Memory required for data: 867385056
I0206 10:31:04.729563 13912 layer_factory.hpp:77] Creating layer relu5_2
I0206 10:31:04.729573 13912 net.cpp:100] Creating Layer relu5_2
I0206 10:31:04.729578 13912 net.cpp:434] relu5_2 <- conv5_2
I0206 10:31:04.729586 13912 net.cpp:395] relu5_2 -> conv5_2 (in-place)
I0206 10:31:04.729794 13912 net.cpp:150] Setting up relu5_2
I0206 10:31:04.729806 13912 net.cpp:157] Top shape: 1 512 34 44 (765952)
I0206 10:31:04.729810 13912 net.cpp:165] Memory required for data: 870448864
I0206 10:31:04.729815 13912 layer_factory.hpp:77] Creating layer conv5_3
I0206 10:31:04.729835 13912 net.cpp:100] Creating Layer conv5_3
I0206 10:31:04.729840 13912 net.cpp:434] conv5_3 <- conv5_2
I0206 10:31:04.729847 13912 net.cpp:408] conv5_3 -> conv5_3
I0206 10:31:04.747468 13912 net.cpp:150] Setting up conv5_3
I0206 10:31:04.747496 13912 net.cpp:157] Top shape: 1 512 34 44 (765952)
I0206 10:31:04.747501 13912 net.cpp:165] Memory required for data: 873512672
I0206 10:31:04.747511 13912 layer_factory.hpp:77] Creating layer relu5_3
I0206 10:31:04.747521 13912 net.cpp:100] Creating Layer relu5_3
I0206 10:31:04.747526 13912 net.cpp:434] relu5_3 <- conv5_3
I0206 10:31:04.747534 13912 net.cpp:395] relu5_3 -> conv5_3 (in-place)
I0206 10:31:04.747732 13912 net.cpp:150] Setting up relu5_3
I0206 10:31:04.747742 13912 net.cpp:157] Top shape: 1 512 34 44 (765952)
I0206 10:31:04.747747 13912 net.cpp:165] Memory required for data: 876576480
I0206 10:31:04.747751 13912 layer_factory.hpp:77] Creating layer pool5
I0206 10:31:04.747761 13912 net.cpp:100] Creating Layer pool5
I0206 10:31:04.747766 13912 net.cpp:434] pool5 <- conv5_3
I0206 10:31:04.747774 13912 net.cpp:408] pool5 -> pool5
I0206 10:31:04.747833 13912 net.cpp:150] Setting up pool5
I0206 10:31:04.747840 13912 net.cpp:157] Top shape: 1 512 17 22 (191488)
I0206 10:31:04.747844 13912 net.cpp:165] Memory required for data: 877342432
I0206 10:31:04.747848 13912 layer_factory.hpp:77] Creating layer fc6
I0206 10:31:04.747860 13912 net.cpp:100] Creating Layer fc6
I0206 10:31:04.747865 13912 net.cpp:434] fc6 <- pool5
I0206 10:31:04.747874 13912 net.cpp:408] fc6 -> fc6
I0206 10:31:05.484050 13912 net.cpp:150] Setting up fc6
I0206 10:31:05.484136 13912 net.cpp:157] Top shape: 1 4096 11 16 (720896)
I0206 10:31:05.484143 13912 net.cpp:165] Memory required for data: 880226016
I0206 10:31:05.484159 13912 layer_factory.hpp:77] Creating layer relu6
I0206 10:31:05.484179 13912 net.cpp:100] Creating Layer relu6
I0206 10:31:05.484186 13912 net.cpp:434] relu6 <- fc6
I0206 10:31:05.484196 13912 net.cpp:395] relu6 -> fc6 (in-place)
I0206 10:31:05.484617 13912 net.cpp:150] Setting up relu6
I0206 10:31:05.484632 13912 net.cpp:157] Top shape: 1 4096 11 16 (720896)
I0206 10:31:05.484637 13912 net.cpp:165] Memory required for data: 883109600
I0206 10:31:05.484642 13912 layer_factory.hpp:77] Creating layer drop6
I0206 10:31:05.484654 13912 net.cpp:100] Creating Layer drop6
I0206 10:31:05.484659 13912 net.cpp:434] drop6 <- fc6
I0206 10:31:05.484668 13912 net.cpp:395] drop6 -> fc6 (in-place)
I0206 10:31:05.484716 13912 net.cpp:150] Setting up drop6
I0206 10:31:05.484724 13912 net.cpp:157] Top shape: 1 4096 11 16 (720896)
I0206 10:31:05.484729 13912 net.cpp:165] Memory required for data: 885993184
I0206 10:31:05.484733 13912 layer_factory.hpp:77] Creating layer fc7
I0206 10:31:05.484750 13912 net.cpp:100] Creating Layer fc7
I0206 10:31:05.484756 13912 net.cpp:434] fc7 <- fc6
I0206 10:31:05.484779 13912 net.cpp:408] fc7 -> fc7
I0206 10:31:05.606295 13912 net.cpp:150] Setting up fc7
I0206 10:31:05.606350 13912 net.cpp:157] Top shape: 1 4096 11 16 (720896)
I0206 10:31:05.606356 13912 net.cpp:165] Memory required for data: 888876768
I0206 10:31:05.606367 13912 layer_factory.hpp:77] Creating layer relu7
I0206 10:31:05.606384 13912 net.cpp:100] Creating Layer relu7
I0206 10:31:05.606389 13912 net.cpp:434] relu7 <- fc7
I0206 10:31:05.606398 13912 net.cpp:395] relu7 -> fc7 (in-place)
I0206 10:31:05.606619 13912 net.cpp:150] Setting up relu7
I0206 10:31:05.606631 13912 net.cpp:157] Top shape: 1 4096 11 16 (720896)
I0206 10:31:05.606634 13912 net.cpp:165] Memory required for data: 891760352
I0206 10:31:05.606639 13912 layer_factory.hpp:77] Creating layer drop7
I0206 10:31:05.606650 13912 net.cpp:100] Creating Layer drop7
I0206 10:31:05.606655 13912 net.cpp:434] drop7 <- fc7
I0206 10:31:05.606662 13912 net.cpp:395] drop7 -> fc7 (in-place)
I0206 10:31:05.606706 13912 net.cpp:150] Setting up drop7
I0206 10:31:05.606714 13912 net.cpp:157] Top shape: 1 4096 11 16 (720896)
I0206 10:31:05.606719 13912 net.cpp:165] Memory required for data: 894643936
I0206 10:31:05.606724 13912 layer_factory.hpp:77] Creating layer score_fr
I0206 10:31:05.606739 13912 net.cpp:100] Creating Layer score_fr
I0206 10:31:05.606742 13912 net.cpp:434] score_fr <- fc7
I0206 10:31:05.606753 13912 net.cpp:408] score_fr -> score_fr
I0206 10:31:05.609171 13912 net.cpp:150] Setting up score_fr
I0206 10:31:05.609187 13912 net.cpp:157] Top shape: 1 6 11 16 (1056)
I0206 10:31:05.609192 13912 net.cpp:165] Memory required for data: 894648160
I0206 10:31:05.609202 13912 layer_factory.hpp:77] Creating layer upscore2
I0206 10:31:05.609216 13912 net.cpp:100] Creating Layer upscore2
I0206 10:31:05.609222 13912 net.cpp:434] upscore2 <- score_fr
I0206 10:31:05.609230 13912 net.cpp:408] upscore2 -> upscore2
I0206 10:31:05.609513 13912 net.cpp:150] Setting up upscore2
I0206 10:31:05.609524 13912 net.cpp:157] Top shape: 1 6 24 34 (4896)
I0206 10:31:05.609527 13912 net.cpp:165] Memory required for data: 894667744
I0206 10:31:05.609547 13912 layer_factory.hpp:77] Creating layer upscore2_upscore2_0_split
I0206 10:31:05.609556 13912 net.cpp:100] Creating Layer upscore2_upscore2_0_split
I0206 10:31:05.609561 13912 net.cpp:434] upscore2_upscore2_0_split <- upscore2
I0206 10:31:05.609568 13912 net.cpp:408] upscore2_upscore2_0_split -> upscore2_upscore2_0_split_0
I0206 10:31:05.609577 13912 net.cpp:408] upscore2_upscore2_0_split -> upscore2_upscore2_0_split_1
I0206 10:31:05.609627 13912 net.cpp:150] Setting up upscore2_upscore2_0_split
I0206 10:31:05.609634 13912 net.cpp:157] Top shape: 1 6 24 34 (4896)
I0206 10:31:05.609647 13912 net.cpp:157] Top shape: 1 6 24 34 (4896)
I0206 10:31:05.609652 13912 net.cpp:165] Memory required for data: 894706912
I0206 10:31:05.609657 13912 layer_factory.hpp:77] Creating layer scale_pool4
I0206 10:31:05.609668 13912 net.cpp:100] Creating Layer scale_pool4
I0206 10:31:05.609674 13912 net.cpp:434] scale_pool4 <- pool4_pool4_0_split_1
I0206 10:31:05.609683 13912 net.cpp:408] scale_pool4 -> scale_pool4
I0206 10:31:05.609828 13912 net.cpp:150] Setting up scale_pool4
I0206 10:31:05.609838 13912 net.cpp:157] Top shape: 1 512 34 44 (765952)
I0206 10:31:05.609843 13912 net.cpp:165] Memory required for data: 897770720
I0206 10:31:05.609849 13912 layer_factory.hpp:77] Creating layer score_pool4
I0206 10:31:05.609863 13912 net.cpp:100] Creating Layer score_pool4
I0206 10:31:05.609869 13912 net.cpp:434] score_pool4 <- scale_pool4
I0206 10:31:05.609875 13912 net.cpp:408] score_pool4 -> score_pool4
I0206 10:31:05.611287 13912 net.cpp:150] Setting up score_pool4
I0206 10:31:05.611304 13912 net.cpp:157] Top shape: 1 6 34 44 (8976)
I0206 10:31:05.611309 13912 net.cpp:165] Memory required for data: 897806624
I0206 10:31:05.611317 13912 layer_factory.hpp:77] Creating layer score_pool4c
I0206 10:31:05.611327 13912 net.cpp:100] Creating Layer score_pool4c
I0206 10:31:05.611332 13912 net.cpp:434] score_pool4c <- score_pool4
I0206 10:31:05.611351 13912 net.cpp:434] score_pool4c <- upscore2_upscore2_0_split_0
I0206 10:31:05.611359 13912 net.cpp:408] score_pool4c -> score_pool4c
I0206 10:31:05.611402 13912 net.cpp:150] Setting up score_pool4c
I0206 10:31:05.611409 13912 net.cpp:157] Top shape: 1 6 24 34 (4896)
I0206 10:31:05.611413 13912 net.cpp:165] Memory required for data: 897826208
I0206 10:31:05.611418 13912 layer_factory.hpp:77] Creating layer fuse_pool4
I0206 10:31:05.611429 13912 net.cpp:100] Creating Layer fuse_pool4
I0206 10:31:05.611433 13912 net.cpp:434] fuse_pool4 <- upscore2_upscore2_0_split_1
I0206 10:31:05.611439 13912 net.cpp:434] fuse_pool4 <- score_pool4c
I0206 10:31:05.611446 13912 net.cpp:408] fuse_pool4 -> fuse_pool4
I0206 10:31:05.611480 13912 net.cpp:150] Setting up fuse_pool4
I0206 10:31:05.611488 13912 net.cpp:157] Top shape: 1 6 24 34 (4896)
I0206 10:31:05.611492 13912 net.cpp:165] Memory required for data: 897845792
I0206 10:31:05.611496 13912 layer_factory.hpp:77] Creating layer upscore_pool4
I0206 10:31:05.611506 13912 net.cpp:100] Creating Layer upscore_pool4
I0206 10:31:05.611511 13912 net.cpp:434] upscore_pool4 <- fuse_pool4
I0206 10:31:05.611519 13912 net.cpp:408] upscore_pool4 -> upscore_pool4
I0206 10:31:05.611776 13912 net.cpp:150] Setting up upscore_pool4
I0206 10:31:05.611785 13912 net.cpp:157] Top shape: 1 6 50 70 (21000)
I0206 10:31:05.611789 13912 net.cpp:165] Memory required for data: 897929792
I0206 10:31:05.611795 13912 layer_factory.hpp:77] Creating layer upscore_pool4_upscore_pool4_0_split
I0206 10:31:05.611804 13912 net.cpp:100] Creating Layer upscore_pool4_upscore_pool4_0_split
I0206 10:31:05.611809 13912 net.cpp:434] upscore_pool4_upscore_pool4_0_split <- upscore_pool4
I0206 10:31:05.611815 13912 net.cpp:408] upscore_pool4_upscore_pool4_0_split -> upscore_pool4_upscore_pool4_0_split_0
I0206 10:31:05.611824 13912 net.cpp:408] upscore_pool4_upscore_pool4_0_split -> upscore_pool4_upscore_pool4_0_split_1
I0206 10:31:05.611871 13912 net.cpp:150] Setting up upscore_pool4_upscore_pool4_0_split
I0206 10:31:05.611878 13912 net.cpp:157] Top shape: 1 6 50 70 (21000)
I0206 10:31:05.611883 13912 net.cpp:157] Top shape: 1 6 50 70 (21000)
I0206 10:31:05.611887 13912 net.cpp:165] Memory required for data: 898097792
I0206 10:31:05.611891 13912 layer_factory.hpp:77] Creating layer scale_pool3
I0206 10:31:05.611901 13912 net.cpp:100] Creating Layer scale_pool3
I0206 10:31:05.611906 13912 net.cpp:434] scale_pool3 <- pool3_pool3_0_split_1
I0206 10:31:05.611913 13912 net.cpp:408] scale_pool3 -> scale_pool3
I0206 10:31:05.612042 13912 net.cpp:150] Setting up scale_pool3
I0206 10:31:05.612051 13912 net.cpp:157] Top shape: 1 256 67 88 (1509376)
I0206 10:31:05.612056 13912 net.cpp:165] Memory required for data: 904135296
I0206 10:31:05.612061 13912 layer_factory.hpp:77] Creating layer score_pool3
I0206 10:31:05.612073 13912 net.cpp:100] Creating Layer score_pool3
I0206 10:31:05.612078 13912 net.cpp:434] score_pool3 <- scale_pool3
I0206 10:31:05.612087 13912 net.cpp:408] score_pool3 -> score_pool3
I0206 10:31:05.613450 13912 net.cpp:150] Setting up score_pool3
I0206 10:31:05.613466 13912 net.cpp:157] Top shape: 1 6 67 88 (35376)
I0206 10:31:05.613471 13912 net.cpp:165] Memory required for data: 904276800
I0206 10:31:05.613478 13912 layer_factory.hpp:77] Creating layer score_pool3c
I0206 10:31:05.613487 13912 net.cpp:100] Creating Layer score_pool3c
I0206 10:31:05.613492 13912 net.cpp:434] score_pool3c <- score_pool3
I0206 10:31:05.613498 13912 net.cpp:434] score_pool3c <- upscore_pool4_upscore_pool4_0_split_0
I0206 10:31:05.613507 13912 net.cpp:408] score_pool3c -> score_pool3c
I0206 10:31:05.613546 13912 net.cpp:150] Setting up score_pool3c
I0206 10:31:05.613555 13912 net.cpp:157] Top shape: 1 6 50 70 (21000)
I0206 10:31:05.613559 13912 net.cpp:165] Memory required for data: 904360800
I0206 10:31:05.613564 13912 layer_factory.hpp:77] Creating layer fuse_pool3
I0206 10:31:05.613574 13912 net.cpp:100] Creating Layer fuse_pool3
I0206 10:31:05.613577 13912 net.cpp:434] fuse_pool3 <- upscore_pool4_upscore_pool4_0_split_1
I0206 10:31:05.613590 13912 net.cpp:434] fuse_pool3 <- score_pool3c
I0206 10:31:05.613597 13912 net.cpp:408] fuse_pool3 -> fuse_pool3
I0206 10:31:05.613634 13912 net.cpp:150] Setting up fuse_pool3
I0206 10:31:05.613649 13912 net.cpp:157] Top shape: 1 6 50 70 (21000)
I0206 10:31:05.613653 13912 net.cpp:165] Memory required for data: 904444800
I0206 10:31:05.613657 13912 layer_factory.hpp:77] Creating layer upscore8
I0206 10:31:05.613677 13912 net.cpp:100] Creating Layer upscore8
I0206 10:31:05.613682 13912 net.cpp:434] upscore8 <- fuse_pool3
I0206 10:31:05.613690 13912 net.cpp:408] upscore8 -> upscore8
I0206 10:31:05.614008 13912 net.cpp:150] Setting up upscore8
I0206 10:31:05.614017 13912 net.cpp:157] Top shape: 1 6 408 568 (1390464)
I0206 10:31:05.614022 13912 net.cpp:165] Memory required for data: 910006656
I0206 10:31:05.614027 13912 layer_factory.hpp:77] Creating layer score
I0206 10:31:05.614037 13912 net.cpp:100] Creating Layer score
I0206 10:31:05.614042 13912 net.cpp:434] score <- upscore8
I0206 10:31:05.614047 13912 net.cpp:434] score <- data_data_0_split_1
I0206 10:31:05.614053 13912 net.cpp:408] score -> score
I0206 10:31:05.614087 13912 net.cpp:150] Setting up score
I0206 10:31:05.614095 13912 net.cpp:157] Top shape: 1 6 335 500 (1005000)
I0206 10:31:05.614099 13912 net.cpp:165] Memory required for data: 914026656
I0206 10:31:05.614104 13912 layer_factory.hpp:77] Creating layer loss
I0206 10:31:05.614112 13912 net.cpp:100] Creating Layer loss
I0206 10:31:05.614116 13912 net.cpp:434] loss <- score
I0206 10:31:05.614121 13912 net.cpp:434] loss <- label
I0206 10:31:05.614128 13912 net.cpp:408] loss -> loss
I0206 10:31:05.614138 13912 layer_factory.hpp:77] Creating layer loss
…
