…
snapshot_prefix: "snapshot/train"
test_initialization: false
average_loss: 20
iter_size: 1
I0114 17:26:21.873903 16159 solver.cpp:81] Creating training net from train_net file: train.prototxt
I0114 17:26:21.875224 16159 net.cpp:58] Initializing net from parameters: 
state {
  phase: TRAIN
}
layer {
  name: "data"
  type: "Python"
  top: "data"
  top: "label"
  python_param {
    module: "voc_layers"
    layer: "RandSBDDSegDataLayer"
    param_str: "{\'sbdd_dir\': \'../data/sbdd/dataset\', \'seed\': 1337, \'split\': \'train15\', \'mean\': (104.00699, 116.66877, 122.67892)}"
  }
}
layer {
  name: "conv1_1"
  type: "Convolution"
  bottom: "data"
  top: "conv1_1"
  param {
    lr_mult: 1
    decay_mult: 1
  }
  param {
    lr_mult: 2
    decay_mult: 0
  }
  convolution_param {
    num_output: 64
    pad: 100
    kernel_size: 3
    stride: 1
    weight_filler {
      type: "xavier"
    }
  }
}
layer {
  name: "relu1_1"
  type: "ReLU"
  bottom: "conv1_1"
  top: "conv1_1"
}
layer {
  name: "conv1_2"
  type: "Convolution"
  bottom: "conv1_1"
  top: "conv1_2"
  param {
    lr_mult: 1
    decay_mult: 1
  }
  param {
    lr_mult: 2
    decay_mult: 0
  }
  convolution_param {
    num_output: 64
    pad: 1
    kernel_size: 3
    stride: 1
    weight_filler {
      type: "xavier"
    }
  }
}
layer {
  name: "relu1_2"
  type: "ReLU"
  bottom: "conv1_2"
  top: "conv1_2"
}
layer {
  name: "pool1"
  type: "Pooling"
  bottom: "conv1_2"
  top: "pool1"
  pooling_param {
    pool: MAX
    kernel_size: 2
    stride: 2
  }
}
layer {
  name: "conv2_1"
  type: "Convolution"
  bottom: "pool1"
  top: "conv2_1"
  param {
    lr_mult: 1
    decay_mult: 1
  }
  param {
    lr_mult: 2
    decay_mult: 0
  }
  convolution_param {
    num_output: 128
    pad: 1
    kernel_size: 3
    stride: 1
    weight_filler {
      type: "xavier"
    }
  }
}
layer {
  name: "relu2_1"
  type: "ReLU"
  bottom: "conv2_1"
  top: "conv2_1"
}
layer {
  name: "conv2_2"
  type: "Convolution"
  bottom: "conv2_1"
  top: "conv2_2"
  param {
    lr_mult: 1
    decay_mult: 1
  }
  param {
    lr_mult: 2
    decay_mult: 0
  }
  convolution_param {
    num_output: 128
    pad: 1
    kernel_size: 3
    stride: 1
    weight_filler {
      type: "xavier"
    }
  }
}
layer {
  name: "relu2_2"
  type: "ReLU"
  bottom: "conv2_2"
  top: "conv2_2"
}
layer {
  name: "pool2"
  type: "Pooling"
  bottom: "conv2_2"
  top: "pool2"
  pooling_param {
    pool: MAX
    kernel_size: 2
    stride: 2
  }
}
layer {
  name: "conv3_1"
  type: "Convolution"
  bottom: "pool2"
  top: "conv3_1"
  param {
    lr_mult: 1
    decay_mult: 1
  }
  param {
    lr_mult: 2
    decay_mult: 0
  }
  convolution_param {
    num_output: 256
    pad: 1
    kernel_size: 3
    stride: 1
    weight_filler {
      type: "xavier"
    }
  }
}
layer {
  name: "relu3_1"
  type: "ReLU"
  bottom: "conv3_1"
  top: "conv3_1"
}
layer {
  name: "conv3_2"
  type: "Convolution"
  bottom: "conv3_1"
  top: "conv3_2"
  param {
    lr_mult: 1
    decay_mult: 1
  }
  param {
    lr_mult: 2
    decay_mult: 0
  }
  convolution_param {
    num_output: 256
    pad: 1
    kernel_size: 3
    stride: 1
    weight_filler {
      type: "xavier"
    }
  }
}
layer {
  name: "relu3_2"
  type: "ReLU"
  bottom: "conv3_2"
  top: "conv3_2"
}
layer {
  name: "conv3_3"
  type: "Convolution"
  bottom: "conv3_2"
  top: "conv3_3"
  param {
    lr_mult: 1
    decay_mult: 1
  }
  param {
    lr_mult: 2
    decay_mult: 0
  }
  convolution_param {
    num_output: 256
    pad: 1
    kernel_size: 3
    stride: 1
    weight_filler {
      type: "xavier"
    }
  }
}
layer {
  name: "relu3_3"
  type: "ReLU"
  bottom: "conv3_3"
  top: "conv3_3"
}
layer {
  name: "pool3"
  type: "Pooling"
  bottom: "conv3_3"
  top: "pool3"
  pooling_param {
    pool: MAX
    kernel_size: 2
    stride: 2
  }
}
layer {
  name: "conv4_1"
  type: "Convolution"
  bottom: "pool3"
  top: "conv4_1"
  param {
    lr_mult: 1
    decay_mult: 1
  }
  param {
    lr_mult: 2
    decay_mult: 0
  }
  convolution_param {
    num_output: 512
    pad: 1
    kernel_size: 3
    stride: 1
    weight_filler {
      type: "xavier"
    }
  }
}
layer {
  name: "relu4_1"
  type: "ReLU"
  bottom: "conv4_1"
  top: "conv4_1"
}
layer {
  name: "conv4_2"
  type: "Convolution"
  bottom: "conv4_1"
  top: "conv4_2"
  param {
    lr_mult: 1
    decay_mult: 1
  }
  param {
    lr_mult: 2
    decay_mult: 0
  }
  convolution_param {
    num_output: 512
    pad: 1
    kernel_size: 3
    stride: 1
    weight_filler {
      type: "xavier"
    }
  }
}
layer {
  name: "relu4_2"
  type: "ReLU"
  bottom: "conv4_2"
  top: "conv4_2"
}
layer {
  name: "conv4_3"
  type: "Convolution"
  bottom: "conv4_2"
  top: "conv4_3"
  param {
    lr_mult: 1
    decay_mult: 1
  }
  param {
    lr_mult: 2
    decay_mult: 0
  }
  convolution_param {
    num_output: 512
    pad: 1
    kernel_size: 3
    stride: 1
    weight_filler {
      type: "xavier"
    }
  }
}
layer {
  name: "relu4_3"
  type: "ReLU"
  bottom: "conv4_3"
  top: "conv4_3"
}
layer {
  name: "pool4"
  type: "Pooling"
  bottom: "conv4_3"
  top: "pool4"
  pooling_param {
    pool: MAX
    kernel_size: 2
    stride: 2
  }
}
layer {
  name: "conv5_1"
  type: "Convolution"
  bottom: "pool4"
  top: "conv5_1"
  param {
    lr_mult: 1
    decay_mult: 1
  }
  param {
    lr_mult: 2
    decay_mult: 0
  }
  convolution_param {
    num_output: 512
    pad: 1
    kernel_size: 3
    stride: 1
    weight_filler {
      type: "xavier"
    }
  }
}
layer {
  name: "relu5_1"
  type: "ReLU"
  bottom: "conv5_1"
  top: "conv5_1"
}
layer {
  name: "conv5_2"
  type: "Convolution"
  bottom: "conv5_1"
  top: "conv5_2"
  param {
    lr_mult: 1
    decay_mult: 1
  }
  param {
    lr_mult: 2
    decay_mult: 0
  }
  convolution_param {
    num_output: 512
    pad: 1
    kernel_size: 3
    stride: 1
    weight_filler {
      type: "xavier"
    }
  }
}
layer {
  name: "relu5_2"
  type: "ReLU"
  bottom: "conv5_2"
  top: "conv5_2"
}
layer {
  name: "conv5_3"
  type: "Convolution"
  bottom: "conv5_2"
  top: "conv5_3"
  param {
    lr_mult: 1
    decay_mult: 1
  }
  param {
    lr_mult: 2
    decay_mult: 0
  }
  convolution_param {
    num_output: 512
    pad: 1
    kernel_size: 3
    stride: 1
    weight_filler {
      type: "xavier"
    }
  }
}
layer {
  name: "relu5_3"
  type: "ReLU"
  bottom: "conv5_3"
  top: "conv5_3"
}
layer {
  name: "pool5"
  type: "Pooling"
  bottom: "conv5_3"
  top: "pool5"
  pooling_param {
    pool: MAX
    kernel_size: 2
    stride: 2
  }
}
layer {
  name: "fc6"
  type: "Convolution"
  bottom: "pool5"
  top: "fc6"
  param {
    lr_mult: 1
    decay_mult: 1
  }
  param {
    lr_mult: 2
    decay_mult: 0
  }
  convolution_param {
    num_output: 4096
    pad: 0
    kernel_size: 7
    stride: 1
    weight_filler {
      type: "xavier"
    }
  }
}
layer {
  name: "relu6"
  type: "ReLU"
  bottom: "fc6"
  top: "fc6"
}
layer {
  name: "drop6"
  type: "Dropout"
  bottom: "fc6"
  top: "fc6"
  dropout_param {
    dropout_ratio: 0.5
  }
}
layer {
  name: "fc7"
  type: "Convolution"
  bottom: "fc6"
  top: "fc7"
  param {
    lr_mult: 1
    decay_mult: 1
  }
  param {
    lr_mult: 2
    decay_mult: 0
  }
  convolution_param {
    num_output: 4096
    pad: 0
    kernel_size: 1
    stride: 1
    weight_filler {
      type: "xavier"
    }
  }
}
layer {
  name: "relu7"
  type: "ReLU"
  bottom: "fc7"
  top: "fc7"
}
layer {
  name: "drop7"
  type: "Dropout"
  bottom: "fc7"
  top: "fc7"
  dropout_param {
    dropout_ratio: 0.5
  }
}
layer {
  name: "score_fr"
  type: "Convolution"
  bottom: "fc7"
  top: "score_fr"
  param {
    lr_mult: 1
    decay_mult: 1
  }
  param {
    lr_mult: 2
    decay_mult: 0
  }
  convolution_param {
    num_output: 16
    pad: 0
    kernel_size: 1
    weight_filler {
      type: "xavier"
    }
  }
}
layer {
  name: "upscore2"
  type: "Deconvolution"
  bottom: "score_fr"
  top: "upscore2"
  param {
    lr_mult: 0
  }
  convolution_param {
    num_output: 16
    bias_term: false
    kernel_size: 4
    stride: 2
    weight_filler {
      type: "xavier"
    }
  }
}
layer {
  name: "scale_pool4"
  type: "Scale"
  bottom: "pool4"
  top: "scale_pool4"
  param {
    lr_mult: 0
  }
  scale_param {
    filler {
      type: "constant"
      value: 0.01
    }
  }
}
layer {
  name: "score_pool4"
  type: "Convolution"
  bottom: "scale_pool4"
  top: "score_pool4"
  param {
    lr_mult: 1
    decay_mult: 1
  }
  param {
    lr_mult: 2
    decay_mult: 0
  }
  convolution_param {
    num_output: 16
    pad: 0
    kernel_size: 1
    weight_filler {
      type: "xavier"
    }
  }
}
layer {
  name: "score_pool4c"
  type: "Crop"
  bottom: "score_pool4"
  bottom: "upscore2"
  top: "score_pool4c"
  crop_param {
    axis: 2
    offset: 5
  }
}
layer {
  name: "fuse_pool4"
  type: "Eltwise"
  bottom: "upscore2"
  bottom: "score_pool4c"
  top: "fuse_pool4"
  eltwise_param {
    operation: SUM
  }
}
layer {
  name: "upscore_pool4"
  type: "Deconvolution"
  bottom: "fuse_pool4"
  top: "upscore_pool4"
  param {
    lr_mult: 0
  }
  convolution_param {
    num_output: 16
    bias_term: false
    kernel_size: 4
    stride: 2
    weight_filler {
      type: "xavier"
    }
  }
}
layer {
  name: "scale_pool3"
  type: "Scale"
  bottom: "pool3"
  top: "scale_pool3"
  param {
    lr_mult: 0
  }
  scale_param {
    filler {
      type: "constant"
      value: 0.0001
    }
  }
}
layer {
  name: "score_pool3"
  type: "Convolution"
  bottom: "scale_pool3"
  top: "score_pool3"
  param {
    lr_mult: 1
    decay_mult: 1
  }
  param {
    lr_mult: 2
    decay_mult: 0
  }
  convolution_param {
    num_output: 16
    pad: 0
    kernel_size: 1
    weight_filler {
      type: "xavier"
    }
  }
}
layer {
  name: "score_pool3c"
  type: "Crop"
  bottom: "score_pool3"
  bottom: "upscore_pool4"
  top: "score_pool3c"
  crop_param {
    axis: 2
    offset: 9
  }
}
layer {
  name: "fuse_pool3"
  type: "Eltwise"
  bottom: "upscore_pool4"
  bottom: "score_pool3c"
  top: "fuse_pool3"
  eltwise_param {
    operation: SUM
  }
}
layer {
  name: "upscore8"
  type: "Deconvolution"
  bottom: "fuse_pool3"
  top: "upscore8"
  param {
    lr_mult: 0
  }
  convolution_param {
    num_output: 16
    bias_term: false
    kernel_size: 16
    stride: 8
    weight_filler {
      type: "xavier"
    }
  }
}
layer {
  name: "score"
  type: "Crop"
  bottom: "upscore8"
  bottom: "data"
  top: "score"
  crop_param {
    axis: 2
    offset: 31
  }
}
layer {
  name: "loss"
  type: "SoftmaxWithLoss"
  bottom: "score"
  bottom: "label"
  top: "loss"
  loss_param {
    ignore_label: 255
    normalize: false
  }
}
I0114 17:26:21.875479 16159 layer_factory.hpp:77] Creating layer data
I0114 17:26:21.878031 16159 net.cpp:100] Creating Layer data
I0114 17:26:21.878047 16159 net.cpp:408] data -> data
I0114 17:26:21.878064 16159 net.cpp:408] data -> label
I0114 17:26:21.949496 16159 net.cpp:150] Setting up data
I0114 17:26:21.949558 16159 net.cpp:157] Top shape: 1 3 500 333 (499500)
I0114 17:26:21.949565 16159 net.cpp:157] Top shape: 1 1 500 333 (166500)
I0114 17:26:21.949569 16159 net.cpp:165] Memory required for data: 2664000
I0114 17:26:21.949580 16159 layer_factory.hpp:77] Creating layer data_data_0_split
I0114 17:26:21.949616 16159 net.cpp:100] Creating Layer data_data_0_split
I0114 17:26:21.949623 16159 net.cpp:434] data_data_0_split <- data
I0114 17:26:21.949633 16159 net.cpp:408] data_data_0_split -> data_data_0_split_0
I0114 17:26:21.949663 16159 net.cpp:408] data_data_0_split -> data_data_0_split_1
I0114 17:26:21.949707 16159 net.cpp:150] Setting up data_data_0_split
I0114 17:26:21.949714 16159 net.cpp:157] Top shape: 1 3 500 333 (499500)
I0114 17:26:21.949719 16159 net.cpp:157] Top shape: 1 3 500 333 (499500)
I0114 17:26:21.949723 16159 net.cpp:165] Memory required for data: 6660000
I0114 17:26:21.949728 16159 layer_factory.hpp:77] Creating layer conv1_1
I0114 17:26:21.949748 16159 net.cpp:100] Creating Layer conv1_1
I0114 17:26:21.949753 16159 net.cpp:434] conv1_1 <- data_data_0_split_0
I0114 17:26:21.949769 16159 net.cpp:408] conv1_1 -> conv1_1
I0114 17:26:22.130184 16159 net.cpp:150] Setting up conv1_1
I0114 17:26:22.130224 16159 net.cpp:157] Top shape: 1 64 698 531 (23720832)
I0114 17:26:22.130229 16159 net.cpp:165] Memory required for data: 101543328
I0114 17:26:22.130250 16159 layer_factory.hpp:77] Creating layer relu1_1
I0114 17:26:22.130276 16159 net.cpp:100] Creating Layer relu1_1
I0114 17:26:22.130283 16159 net.cpp:434] relu1_1 <- conv1_1
I0114 17:26:22.130290 16159 net.cpp:395] relu1_1 -> conv1_1 (in-place)
I0114 17:26:22.130647 16159 net.cpp:150] Setting up relu1_1
I0114 17:26:22.130661 16159 net.cpp:157] Top shape: 1 64 698 531 (23720832)
I0114 17:26:22.130666 16159 net.cpp:165] Memory required for data: 196426656
I0114 17:26:22.130671 16159 layer_factory.hpp:77] Creating layer conv1_2
I0114 17:26:22.130688 16159 net.cpp:100] Creating Layer conv1_2
I0114 17:26:22.130693 16159 net.cpp:434] conv1_2 <- conv1_1
I0114 17:26:22.130700 16159 net.cpp:408] conv1_2 -> conv1_2
I0114 17:26:22.133342 16159 net.cpp:150] Setting up conv1_2
I0114 17:26:22.133358 16159 net.cpp:157] Top shape: 1 64 698 531 (23720832)
I0114 17:26:22.133363 16159 net.cpp:165] Memory required for data: 291309984
I0114 17:26:22.133375 16159 layer_factory.hpp:77] Creating layer relu1_2
I0114 17:26:22.133385 16159 net.cpp:100] Creating Layer relu1_2
I0114 17:26:22.133390 16159 net.cpp:434] relu1_2 <- conv1_2
I0114 17:26:22.133396 16159 net.cpp:395] relu1_2 -> conv1_2 (in-place)
I0114 17:26:22.133746 16159 net.cpp:150] Setting up relu1_2
I0114 17:26:22.133761 16159 net.cpp:157] Top shape: 1 64 698 531 (23720832)
I0114 17:26:22.133766 16159 net.cpp:165] Memory required for data: 386193312
I0114 17:26:22.133772 16159 layer_factory.hpp:77] Creating layer pool1
I0114 17:26:22.133785 16159 net.cpp:100] Creating Layer pool1
I0114 17:26:22.133790 16159 net.cpp:434] pool1 <- conv1_2
I0114 17:26:22.133796 16159 net.cpp:408] pool1 -> pool1
I0114 17:26:22.133843 16159 net.cpp:150] Setting up pool1
I0114 17:26:22.133851 16159 net.cpp:157] Top shape: 1 64 349 266 (5941376)
I0114 17:26:22.133855 16159 net.cpp:165] Memory required for data: 409958816
I0114 17:26:22.133859 16159 layer_factory.hpp:77] Creating layer conv2_1
I0114 17:26:22.133869 16159 net.cpp:100] Creating Layer conv2_1
I0114 17:26:22.133874 16159 net.cpp:434] conv2_1 <- pool1
I0114 17:26:22.133882 16159 net.cpp:408] conv2_1 -> conv2_1
I0114 17:26:22.136158 16159 net.cpp:150] Setting up conv2_1
I0114 17:26:22.136173 16159 net.cpp:157] Top shape: 1 128 349 266 (11882752)
I0114 17:26:22.136178 16159 net.cpp:165] Memory required for data: 457489824
I0114 17:26:22.136189 16159 layer_factory.hpp:77] Creating layer relu2_1
I0114 17:26:22.136201 16159 net.cpp:100] Creating Layer relu2_1
I0114 17:26:22.136206 16159 net.cpp:434] relu2_1 <- conv2_1
I0114 17:26:22.136214 16159 net.cpp:395] relu2_1 -> conv2_1 (in-place)
I0114 17:26:22.136407 16159 net.cpp:150] Setting up relu2_1
I0114 17:26:22.136420 16159 net.cpp:157] Top shape: 1 128 349 266 (11882752)
I0114 17:26:22.136425 16159 net.cpp:165] Memory required for data: 505020832
I0114 17:26:22.136430 16159 layer_factory.hpp:77] Creating layer conv2_2
I0114 17:26:22.136441 16159 net.cpp:100] Creating Layer conv2_2
I0114 17:26:22.136446 16159 net.cpp:434] conv2_2 <- conv2_1
I0114 17:26:22.136456 16159 net.cpp:408] conv2_2 -> conv2_2
I0114 17:26:22.139029 16159 net.cpp:150] Setting up conv2_2
I0114 17:26:22.139045 16159 net.cpp:157] Top shape: 1 128 349 266 (11882752)
I0114 17:26:22.139050 16159 net.cpp:165] Memory required for data: 552551840
I0114 17:26:22.139058 16159 layer_factory.hpp:77] Creating layer relu2_2
I0114 17:26:22.139067 16159 net.cpp:100] Creating Layer relu2_2
I0114 17:26:22.139072 16159 net.cpp:434] relu2_2 <- conv2_2
I0114 17:26:22.139081 16159 net.cpp:395] relu2_2 -> conv2_2 (in-place)
I0114 17:26:22.139444 16159 net.cpp:150] Setting up relu2_2
I0114 17:26:22.139457 16159 net.cpp:157] Top shape: 1 128 349 266 (11882752)
I0114 17:26:22.139462 16159 net.cpp:165] Memory required for data: 600082848
I0114 17:26:22.139475 16159 layer_factory.hpp:77] Creating layer pool2
I0114 17:26:22.139484 16159 net.cpp:100] Creating Layer pool2
I0114 17:26:22.139489 16159 net.cpp:434] pool2 <- conv2_2
I0114 17:26:22.139497 16159 net.cpp:408] pool2 -> pool2
I0114 17:26:22.139542 16159 net.cpp:150] Setting up pool2
I0114 17:26:22.139549 16159 net.cpp:157] Top shape: 1 128 175 133 (2979200)
I0114 17:26:22.139554 16159 net.cpp:165] Memory required for data: 611999648
I0114 17:26:22.139557 16159 layer_factory.hpp:77] Creating layer conv3_1
I0114 17:26:22.139570 16159 net.cpp:100] Creating Layer conv3_1
I0114 17:26:22.139575 16159 net.cpp:434] conv3_1 <- pool2
I0114 17:26:22.139581 16159 net.cpp:408] conv3_1 -> conv3_1
I0114 17:26:22.142706 16159 net.cpp:150] Setting up conv3_1
I0114 17:26:22.142721 16159 net.cpp:157] Top shape: 1 256 175 133 (5958400)
I0114 17:26:22.142726 16159 net.cpp:165] Memory required for data: 635833248
I0114 17:26:22.142737 16159 layer_factory.hpp:77] Creating layer relu3_1
I0114 17:26:22.142746 16159 net.cpp:100] Creating Layer relu3_1
I0114 17:26:22.142753 16159 net.cpp:434] relu3_1 <- conv3_1
I0114 17:26:22.142760 16159 net.cpp:395] relu3_1 -> conv3_1 (in-place)
I0114 17:26:22.143122 16159 net.cpp:150] Setting up relu3_1
I0114 17:26:22.143136 16159 net.cpp:157] Top shape: 1 256 175 133 (5958400)
I0114 17:26:22.143141 16159 net.cpp:165] Memory required for data: 659666848
I0114 17:26:22.143144 16159 layer_factory.hpp:77] Creating layer conv3_2
I0114 17:26:22.143157 16159 net.cpp:100] Creating Layer conv3_2
I0114 17:26:22.143162 16159 net.cpp:434] conv3_2 <- conv3_1
I0114 17:26:22.143172 16159 net.cpp:408] conv3_2 -> conv3_2
I0114 17:26:22.148406 16159 net.cpp:150] Setting up conv3_2
I0114 17:26:22.148422 16159 net.cpp:157] Top shape: 1 256 175 133 (5958400)
I0114 17:26:22.148427 16159 net.cpp:165] Memory required for data: 683500448
I0114 17:26:22.148435 16159 layer_factory.hpp:77] Creating layer relu3_2
I0114 17:26:22.148445 16159 net.cpp:100] Creating Layer relu3_2
I0114 17:26:22.148450 16159 net.cpp:434] relu3_2 <- conv3_2
I0114 17:26:22.148457 16159 net.cpp:395] relu3_2 -> conv3_2 (in-place)
I0114 17:26:22.148644 16159 net.cpp:150] Setting up relu3_2
I0114 17:26:22.148658 16159 net.cpp:157] Top shape: 1 256 175 133 (5958400)
I0114 17:26:22.148661 16159 net.cpp:165] Memory required for data: 707334048
I0114 17:26:22.148666 16159 layer_factory.hpp:77] Creating layer conv3_3
I0114 17:26:22.148679 16159 net.cpp:100] Creating Layer conv3_3
I0114 17:26:22.148684 16159 net.cpp:434] conv3_3 <- conv3_2
I0114 17:26:22.148692 16159 net.cpp:408] conv3_3 -> conv3_3
I0114 17:26:22.153916 16159 net.cpp:150] Setting up conv3_3
I0114 17:26:22.153934 16159 net.cpp:157] Top shape: 1 256 175 133 (5958400)
I0114 17:26:22.153937 16159 net.cpp:165] Memory required for data: 731167648
I0114 17:26:22.153947 16159 layer_factory.hpp:77] Creating layer relu3_3
I0114 17:26:22.153956 16159 net.cpp:100] Creating Layer relu3_3
I0114 17:26:22.153961 16159 net.cpp:434] relu3_3 <- conv3_3
I0114 17:26:22.153970 16159 net.cpp:395] relu3_3 -> conv3_3 (in-place)
I0114 17:26:22.154338 16159 net.cpp:150] Setting up relu3_3
I0114 17:26:22.154351 16159 net.cpp:157] Top shape: 1 256 175 133 (5958400)
I0114 17:26:22.154356 16159 net.cpp:165] Memory required for data: 755001248
I0114 17:26:22.154361 16159 layer_factory.hpp:77] Creating layer pool3
I0114 17:26:22.154369 16159 net.cpp:100] Creating Layer pool3
I0114 17:26:22.154374 16159 net.cpp:434] pool3 <- conv3_3
I0114 17:26:22.154381 16159 net.cpp:408] pool3 -> pool3
I0114 17:26:22.154428 16159 net.cpp:150] Setting up pool3
I0114 17:26:22.154435 16159 net.cpp:157] Top shape: 1 256 88 67 (1509376)
I0114 17:26:22.154439 16159 net.cpp:165] Memory required for data: 761038752
I0114 17:26:22.154443 16159 layer_factory.hpp:77] Creating layer pool3_pool3_0_split
I0114 17:26:22.154450 16159 net.cpp:100] Creating Layer pool3_pool3_0_split
I0114 17:26:22.154454 16159 net.cpp:434] pool3_pool3_0_split <- pool3
I0114 17:26:22.154461 16159 net.cpp:408] pool3_pool3_0_split -> pool3_pool3_0_split_0
I0114 17:26:22.154469 16159 net.cpp:408] pool3_pool3_0_split -> pool3_pool3_0_split_1
I0114 17:26:22.154513 16159 net.cpp:150] Setting up pool3_pool3_0_split
I0114 17:26:22.154520 16159 net.cpp:157] Top shape: 1 256 88 67 (1509376)
I0114 17:26:22.154525 16159 net.cpp:157] Top shape: 1 256 88 67 (1509376)
I0114 17:26:22.154528 16159 net.cpp:165] Memory required for data: 773113760
I0114 17:26:22.154532 16159 layer_factory.hpp:77] Creating layer conv4_1
I0114 17:26:22.154546 16159 net.cpp:100] Creating Layer conv4_1
I0114 17:26:22.154551 16159 net.cpp:434] conv4_1 <- pool3_pool3_0_split_0
I0114 17:26:22.154557 16159 net.cpp:408] conv4_1 -> conv4_1
I0114 17:26:22.164927 16159 net.cpp:150] Setting up conv4_1
I0114 17:26:22.164947 16159 net.cpp:157] Top shape: 1 512 88 67 (3018752)
I0114 17:26:22.164952 16159 net.cpp:165] Memory required for data: 785188768
I0114 17:26:22.164960 16159 layer_factory.hpp:77] Creating layer relu4_1
I0114 17:26:22.164970 16159 net.cpp:100] Creating Layer relu4_1
I0114 17:26:22.164975 16159 net.cpp:434] relu4_1 <- conv4_1
I0114 17:26:22.164983 16159 net.cpp:395] relu4_1 -> conv4_1 (in-place)
I0114 17:26:22.165355 16159 net.cpp:150] Setting up relu4_1
I0114 17:26:22.165369 16159 net.cpp:157] Top shape: 1 512 88 67 (3018752)
I0114 17:26:22.165374 16159 net.cpp:165] Memory required for data: 797263776
I0114 17:26:22.165377 16159 layer_factory.hpp:77] Creating layer conv4_2
I0114 17:26:22.165391 16159 net.cpp:100] Creating Layer conv4_2
I0114 17:26:22.165396 16159 net.cpp:434] conv4_2 <- conv4_1
I0114 17:26:22.165405 16159 net.cpp:408] conv4_2 -> conv4_2
I0114 17:26:22.182440 16159 net.cpp:150] Setting up conv4_2
I0114 17:26:22.182463 16159 net.cpp:157] Top shape: 1 512 88 67 (3018752)
I0114 17:26:22.182468 16159 net.cpp:165] Memory required for data: 809338784
I0114 17:26:22.182484 16159 layer_factory.hpp:77] Creating layer relu4_2
I0114 17:26:22.182500 16159 net.cpp:100] Creating Layer relu4_2
I0114 17:26:22.182505 16159 net.cpp:434] relu4_2 <- conv4_2
I0114 17:26:22.182512 16159 net.cpp:395] relu4_2 -> conv4_2 (in-place)
I0114 17:26:22.182701 16159 net.cpp:150] Setting up relu4_2
I0114 17:26:22.182711 16159 net.cpp:157] Top shape: 1 512 88 67 (3018752)
I0114 17:26:22.182715 16159 net.cpp:165] Memory required for data: 821413792
I0114 17:26:22.182721 16159 layer_factory.hpp:77] Creating layer conv4_3
I0114 17:26:22.182734 16159 net.cpp:100] Creating Layer conv4_3
I0114 17:26:22.182739 16159 net.cpp:434] conv4_3 <- conv4_2
I0114 17:26:22.182747 16159 net.cpp:408] conv4_3 -> conv4_3
I0114 17:26:22.199803 16159 net.cpp:150] Setting up conv4_3
I0114 17:26:22.199829 16159 net.cpp:157] Top shape: 1 512 88 67 (3018752)
I0114 17:26:22.199834 16159 net.cpp:165] Memory required for data: 833488800
I0114 17:26:22.199843 16159 layer_factory.hpp:77] Creating layer relu4_3
I0114 17:26:22.199854 16159 net.cpp:100] Creating Layer relu4_3
I0114 17:26:22.199861 16159 net.cpp:434] relu4_3 <- conv4_3
I0114 17:26:22.199867 16159 net.cpp:395] relu4_3 -> conv4_3 (in-place)
I0114 17:26:22.200230 16159 net.cpp:150] Setting up relu4_3
I0114 17:26:22.200243 16159 net.cpp:157] Top shape: 1 512 88 67 (3018752)
I0114 17:26:22.200248 16159 net.cpp:165] Memory required for data: 845563808
I0114 17:26:22.200253 16159 layer_factory.hpp:77] Creating layer pool4
I0114 17:26:22.200263 16159 net.cpp:100] Creating Layer pool4
I0114 17:26:22.200268 16159 net.cpp:434] pool4 <- conv4_3
I0114 17:26:22.200275 16159 net.cpp:408] pool4 -> pool4
I0114 17:26:22.200326 16159 net.cpp:150] Setting up pool4
I0114 17:26:22.200333 16159 net.cpp:157] Top shape: 1 512 44 34 (765952)
I0114 17:26:22.200337 16159 net.cpp:165] Memory required for data: 848627616
I0114 17:26:22.200341 16159 layer_factory.hpp:77] Creating layer pool4_pool4_0_split
I0114 17:26:22.200348 16159 net.cpp:100] Creating Layer pool4_pool4_0_split
I0114 17:26:22.200352 16159 net.cpp:434] pool4_pool4_0_split <- pool4
I0114 17:26:22.200361 16159 net.cpp:408] pool4_pool4_0_split -> pool4_pool4_0_split_0
I0114 17:26:22.200367 16159 net.cpp:408] pool4_pool4_0_split -> pool4_pool4_0_split_1
I0114 17:26:22.200404 16159 net.cpp:150] Setting up pool4_pool4_0_split
I0114 17:26:22.200419 16159 net.cpp:157] Top shape: 1 512 44 34 (765952)
I0114 17:26:22.200424 16159 net.cpp:157] Top shape: 1 512 44 34 (765952)
I0114 17:26:22.200428 16159 net.cpp:165] Memory required for data: 854755232
I0114 17:26:22.200434 16159 layer_factory.hpp:77] Creating layer conv5_1
I0114 17:26:22.200453 16159 net.cpp:100] Creating Layer conv5_1
I0114 17:26:22.200456 16159 net.cpp:434] conv5_1 <- pool4_pool4_0_split_0
I0114 17:26:22.200464 16159 net.cpp:408] conv5_1 -> conv5_1
I0114 17:26:22.217347 16159 net.cpp:150] Setting up conv5_1
I0114 17:26:22.217371 16159 net.cpp:157] Top shape: 1 512 44 34 (765952)
I0114 17:26:22.217376 16159 net.cpp:165] Memory required for data: 857819040
I0114 17:26:22.217386 16159 layer_factory.hpp:77] Creating layer relu5_1
I0114 17:26:22.217393 16159 net.cpp:100] Creating Layer relu5_1
I0114 17:26:22.217399 16159 net.cpp:434] relu5_1 <- conv5_1
I0114 17:26:22.217408 16159 net.cpp:395] relu5_1 -> conv5_1 (in-place)
I0114 17:26:22.217783 16159 net.cpp:150] Setting up relu5_1
I0114 17:26:22.217798 16159 net.cpp:157] Top shape: 1 512 44 34 (765952)
I0114 17:26:22.217803 16159 net.cpp:165] Memory required for data: 860882848
I0114 17:26:22.217808 16159 layer_factory.hpp:77] Creating layer conv5_2
I0114 17:26:22.217823 16159 net.cpp:100] Creating Layer conv5_2
I0114 17:26:22.217828 16159 net.cpp:434] conv5_2 <- conv5_1
I0114 17:26:22.217838 16159 net.cpp:408] conv5_2 -> conv5_2
I0114 17:26:22.234946 16159 net.cpp:150] Setting up conv5_2
I0114 17:26:22.234968 16159 net.cpp:157] Top shape: 1 512 44 34 (765952)
I0114 17:26:22.234973 16159 net.cpp:165] Memory required for data: 863946656
I0114 17:26:22.234982 16159 layer_factory.hpp:77] Creating layer relu5_2
I0114 17:26:22.234992 16159 net.cpp:100] Creating Layer relu5_2
I0114 17:26:22.234997 16159 net.cpp:434] relu5_2 <- conv5_2
I0114 17:26:22.235007 16159 net.cpp:395] relu5_2 -> conv5_2 (in-place)
I0114 17:26:22.235203 16159 net.cpp:150] Setting up relu5_2
I0114 17:26:22.235213 16159 net.cpp:157] Top shape: 1 512 44 34 (765952)
I0114 17:26:22.235219 16159 net.cpp:165] Memory required for data: 867010464
I0114 17:26:22.235224 16159 layer_factory.hpp:77] Creating layer conv5_3
I0114 17:26:22.235244 16159 net.cpp:100] Creating Layer conv5_3
I0114 17:26:22.235249 16159 net.cpp:434] conv5_3 <- conv5_2
I0114 17:26:22.235257 16159 net.cpp:408] conv5_3 -> conv5_3
I0114 17:26:22.252313 16159 net.cpp:150] Setting up conv5_3
I0114 17:26:22.252336 16159 net.cpp:157] Top shape: 1 512 44 34 (765952)
I0114 17:26:22.252341 16159 net.cpp:165] Memory required for data: 870074272
I0114 17:26:22.252351 16159 layer_factory.hpp:77] Creating layer relu5_3
I0114 17:26:22.252362 16159 net.cpp:100] Creating Layer relu5_3
I0114 17:26:22.252367 16159 net.cpp:434] relu5_3 <- conv5_3
I0114 17:26:22.252377 16159 net.cpp:395] relu5_3 -> conv5_3 (in-place)
I0114 17:26:22.252925 16159 net.cpp:150] Setting up relu5_3
I0114 17:26:22.252938 16159 net.cpp:157] Top shape: 1 512 44 34 (765952)
I0114 17:26:22.252943 16159 net.cpp:165] Memory required for data: 873138080
I0114 17:26:22.252948 16159 layer_factory.hpp:77] Creating layer pool5
I0114 17:26:22.252960 16159 net.cpp:100] Creating Layer pool5
I0114 17:26:22.252965 16159 net.cpp:434] pool5 <- conv5_3
I0114 17:26:22.252974 16159 net.cpp:408] pool5 -> pool5
I0114 17:26:22.253026 16159 net.cpp:150] Setting up pool5
I0114 17:26:22.253032 16159 net.cpp:157] Top shape: 1 512 22 17 (191488)
I0114 17:26:22.253036 16159 net.cpp:165] Memory required for data: 873904032
I0114 17:26:22.253041 16159 layer_factory.hpp:77] Creating layer fc6
I0114 17:26:22.253053 16159 net.cpp:100] Creating Layer fc6
I0114 17:26:22.253058 16159 net.cpp:434] fc6 <- pool5
I0114 17:26:22.253067 16159 net.cpp:408] fc6 -> fc6
I0114 17:26:22.958686 16159 net.cpp:150] Setting up fc6
I0114 17:26:22.958727 16159 net.cpp:157] Top shape: 1 4096 16 11 (720896)
I0114 17:26:22.958732 16159 net.cpp:165] Memory required for data: 876787616
I0114 17:26:22.958745 16159 layer_factory.hpp:77] Creating layer relu6
I0114 17:26:22.958768 16159 net.cpp:100] Creating Layer relu6
I0114 17:26:22.958775 16159 net.cpp:434] relu6 <- fc6
I0114 17:26:22.958783 16159 net.cpp:395] relu6 -> fc6 (in-place)
I0114 17:26:22.959164 16159 net.cpp:150] Setting up relu6
I0114 17:26:22.959178 16159 net.cpp:157] Top shape: 1 4096 16 11 (720896)
I0114 17:26:22.959182 16159 net.cpp:165] Memory required for data: 879671200
I0114 17:26:22.959187 16159 layer_factory.hpp:77] Creating layer drop6
I0114 17:26:22.959200 16159 net.cpp:100] Creating Layer drop6
I0114 17:26:22.959204 16159 net.cpp:434] drop6 <- fc6
I0114 17:26:22.959213 16159 net.cpp:395] drop6 -> fc6 (in-place)
I0114 17:26:22.959249 16159 net.cpp:150] Setting up drop6
I0114 17:26:22.959259 16159 net.cpp:157] Top shape: 1 4096 16 11 (720896)
I0114 17:26:22.959264 16159 net.cpp:165] Memory required for data: 882554784
I0114 17:26:22.959267 16159 layer_factory.hpp:77] Creating layer fc7
I0114 17:26:22.959280 16159 net.cpp:100] Creating Layer fc7
I0114 17:26:22.959285 16159 net.cpp:434] fc7 <- fc6
I0114 17:26:22.959290 16159 net.cpp:408] fc7 -> fc7
I0114 17:26:23.075141 16159 net.cpp:150] Setting up fc7
I0114 17:26:23.075183 16159 net.cpp:157] Top shape: 1 4096 16 11 (720896)
I0114 17:26:23.075188 16159 net.cpp:165] Memory required for data: 885438368
I0114 17:26:23.075201 16159 layer_factory.hpp:77] Creating layer relu7
I0114 17:26:23.075217 16159 net.cpp:100] Creating Layer relu7
I0114 17:26:23.075222 16159 net.cpp:434] relu7 <- fc7
I0114 17:26:23.075230 16159 net.cpp:395] relu7 -> fc7 (in-place)
I0114 17:26:23.075439 16159 net.cpp:150] Setting up relu7
I0114 17:26:23.075449 16159 net.cpp:157] Top shape: 1 4096 16 11 (720896)
I0114 17:26:23.075453 16159 net.cpp:165] Memory required for data: 888321952
I0114 17:26:23.075459 16159 layer_factory.hpp:77] Creating layer drop7
I0114 17:26:23.075467 16159 net.cpp:100] Creating Layer drop7
I0114 17:26:23.075471 16159 net.cpp:434] drop7 <- fc7
I0114 17:26:23.075477 16159 net.cpp:395] drop7 -> fc7 (in-place)
I0114 17:26:23.075512 16159 net.cpp:150] Setting up drop7
I0114 17:26:23.075520 16159 net.cpp:157] Top shape: 1 4096 16 11 (720896)
I0114 17:26:23.075523 16159 net.cpp:165] Memory required for data: 891205536
I0114 17:26:23.075527 16159 layer_factory.hpp:77] Creating layer score_fr
I0114 17:26:23.075541 16159 net.cpp:100] Creating Layer score_fr
I0114 17:26:23.075544 16159 net.cpp:434] score_fr <- fc7
I0114 17:26:23.075553 16159 net.cpp:408] score_fr -> score_fr
I0114 17:26:23.077129 16159 net.cpp:150] Setting up score_fr
I0114 17:26:23.077143 16159 net.cpp:157] Top shape: 1 16 16 11 (2816)
I0114 17:26:23.077148 16159 net.cpp:165] Memory required for data: 891216800
I0114 17:26:23.077157 16159 layer_factory.hpp:77] Creating layer upscore2
I0114 17:26:23.077172 16159 net.cpp:100] Creating Layer upscore2
I0114 17:26:23.077178 16159 net.cpp:434] upscore2 <- score_fr
I0114 17:26:23.077186 16159 net.cpp:408] upscore2 -> upscore2
I0114 17:26:23.077420 16159 net.cpp:150] Setting up upscore2
I0114 17:26:23.077430 16159 net.cpp:157] Top shape: 1 16 34 24 (13056)
I0114 17:26:23.077433 16159 net.cpp:165] Memory required for data: 891269024
I0114 17:26:23.077447 16159 layer_factory.hpp:77] Creating layer upscore2_upscore2_0_split
I0114 17:26:23.077460 16159 net.cpp:100] Creating Layer upscore2_upscore2_0_split
I0114 17:26:23.077463 16159 net.cpp:434] upscore2_upscore2_0_split <- upscore2
I0114 17:26:23.077471 16159 net.cpp:408] upscore2_upscore2_0_split -> upscore2_upscore2_0_split_0
I0114 17:26:23.077477 16159 net.cpp:408] upscore2_upscore2_0_split -> upscore2_upscore2_0_split_1
I0114 17:26:23.077518 16159 net.cpp:150] Setting up upscore2_upscore2_0_split
I0114 17:26:23.077525 16159 net.cpp:157] Top shape: 1 16 34 24 (13056)
I0114 17:26:23.077530 16159 net.cpp:157] Top shape: 1 16 34 24 (13056)
I0114 17:26:23.077534 16159 net.cpp:165] Memory required for data: 891373472
I0114 17:26:23.077539 16159 layer_factory.hpp:77] Creating layer scale_pool4
I0114 17:26:23.077553 16159 net.cpp:100] Creating Layer scale_pool4
I0114 17:26:23.077558 16159 net.cpp:434] scale_pool4 <- pool4_pool4_0_split_1
I0114 17:26:23.077572 16159 net.cpp:408] scale_pool4 -> scale_pool4
I0114 17:26:23.077688 16159 net.cpp:150] Setting up scale_pool4
I0114 17:26:23.077699 16159 net.cpp:157] Top shape: 1 512 44 34 (765952)
I0114 17:26:23.077703 16159 net.cpp:165] Memory required for data: 894437280
I0114 17:26:23.077709 16159 layer_factory.hpp:77] Creating layer score_pool4
I0114 17:26:23.077719 16159 net.cpp:100] Creating Layer score_pool4
I0114 17:26:23.077724 16159 net.cpp:434] score_pool4 <- scale_pool4
I0114 17:26:23.077733 16159 net.cpp:408] score_pool4 -> score_pool4
I0114 17:26:23.079030 16159 net.cpp:150] Setting up score_pool4
I0114 17:26:23.079044 16159 net.cpp:157] Top shape: 1 16 44 34 (23936)
I0114 17:26:23.079049 16159 net.cpp:165] Memory required for data: 894533024
I0114 17:26:23.079057 16159 layer_factory.hpp:77] Creating layer score_pool4c
I0114 17:26:23.079069 16159 net.cpp:100] Creating Layer score_pool4c
I0114 17:26:23.079076 16159 net.cpp:434] score_pool4c <- score_pool4
I0114 17:26:23.079082 16159 net.cpp:434] score_pool4c <- upscore2_upscore2_0_split_0
I0114 17:26:23.079089 16159 net.cpp:408] score_pool4c -> score_pool4c
I0114 17:26:23.079123 16159 net.cpp:150] Setting up score_pool4c
I0114 17:26:23.079133 16159 net.cpp:157] Top shape: 1 16 34 24 (13056)
I0114 17:26:23.079138 16159 net.cpp:165] Memory required for data: 894585248
I0114 17:26:23.079141 16159 layer_factory.hpp:77] Creating layer fuse_pool4
I0114 17:26:23.079151 16159 net.cpp:100] Creating Layer fuse_pool4
I0114 17:26:23.079155 16159 net.cpp:434] fuse_pool4 <- upscore2_upscore2_0_split_1
I0114 17:26:23.079160 16159 net.cpp:434] fuse_pool4 <- score_pool4c
I0114 17:26:23.079166 16159 net.cpp:408] fuse_pool4 -> fuse_pool4
I0114 17:26:23.079196 16159 net.cpp:150] Setting up fuse_pool4
I0114 17:26:23.079203 16159 net.cpp:157] Top shape: 1 16 34 24 (13056)
I0114 17:26:23.079207 16159 net.cpp:165] Memory required for data: 894637472
I0114 17:26:23.079211 16159 layer_factory.hpp:77] Creating layer upscore_pool4
I0114 17:26:23.079221 16159 net.cpp:100] Creating Layer upscore_pool4
I0114 17:26:23.079224 16159 net.cpp:434] upscore_pool4 <- fuse_pool4
I0114 17:26:23.079232 16159 net.cpp:408] upscore_pool4 -> upscore_pool4
I0114 17:26:23.079465 16159 net.cpp:150] Setting up upscore_pool4
I0114 17:26:23.079473 16159 net.cpp:157] Top shape: 1 16 70 50 (56000)
I0114 17:26:23.079478 16159 net.cpp:165] Memory required for data: 894861472
I0114 17:26:23.079483 16159 layer_factory.hpp:77] Creating layer upscore_pool4_upscore_pool4_0_split
I0114 17:26:23.079491 16159 net.cpp:100] Creating Layer upscore_pool4_upscore_pool4_0_split
I0114 17:26:23.079495 16159 net.cpp:434] upscore_pool4_upscore_pool4_0_split <- upscore_pool4
I0114 17:26:23.079501 16159 net.cpp:408] upscore_pool4_upscore_pool4_0_split -> upscore_pool4_upscore_pool4_0_split_0
I0114 17:26:23.079509 16159 net.cpp:408] upscore_pool4_upscore_pool4_0_split -> upscore_pool4_upscore_pool4_0_split_1
I0114 17:26:23.079547 16159 net.cpp:150] Setting up upscore_pool4_upscore_pool4_0_split
I0114 17:26:23.079555 16159 net.cpp:157] Top shape: 1 16 70 50 (56000)
I0114 17:26:23.079560 16159 net.cpp:157] Top shape: 1 16 70 50 (56000)
I0114 17:26:23.079563 16159 net.cpp:165] Memory required for data: 895309472
I0114 17:26:23.079567 16159 layer_factory.hpp:77] Creating layer scale_pool3
I0114 17:26:23.079576 16159 net.cpp:100] Creating Layer scale_pool3
I0114 17:26:23.079579 16159 net.cpp:434] scale_pool3 <- pool3_pool3_0_split_1
I0114 17:26:23.079586 16159 net.cpp:408] scale_pool3 -> scale_pool3
I0114 17:26:23.079682 16159 net.cpp:150] Setting up scale_pool3
I0114 17:26:23.079689 16159 net.cpp:157] Top shape: 1 256 88 67 (1509376)
I0114 17:26:23.079694 16159 net.cpp:165] Memory required for data: 901346976
I0114 17:26:23.079699 16159 layer_factory.hpp:77] Creating layer score_pool3
I0114 17:26:23.079715 16159 net.cpp:100] Creating Layer score_pool3
I0114 17:26:23.079720 16159 net.cpp:434] score_pool3 <- scale_pool3
I0114 17:26:23.079725 16159 net.cpp:408] score_pool3 -> score_pool3
I0114 17:26:23.080960 16159 net.cpp:150] Setting up score_pool3
I0114 17:26:23.080981 16159 net.cpp:157] Top shape: 1 16 88 67 (94336)
I0114 17:26:23.080986 16159 net.cpp:165] Memory required for data: 901724320
I0114 17:26:23.080994 16159 layer_factory.hpp:77] Creating layer score_pool3c
I0114 17:26:23.081002 16159 net.cpp:100] Creating Layer score_pool3c
I0114 17:26:23.081009 16159 net.cpp:434] score_pool3c <- score_pool3
I0114 17:26:23.081015 16159 net.cpp:434] score_pool3c <- upscore_pool4_upscore_pool4_0_split_0
I0114 17:26:23.081022 16159 net.cpp:408] score_pool3c -> score_pool3c
I0114 17:26:23.081053 16159 net.cpp:150] Setting up score_pool3c
I0114 17:26:23.081060 16159 net.cpp:157] Top shape: 1 16 70 50 (56000)
I0114 17:26:23.081064 16159 net.cpp:165] Memory required for data: 901948320
I0114 17:26:23.081069 16159 layer_factory.hpp:77] Creating layer fuse_pool3
I0114 17:26:23.081079 16159 net.cpp:100] Creating Layer fuse_pool3
I0114 17:26:23.081084 16159 net.cpp:434] fuse_pool3 <- upscore_pool4_upscore_pool4_0_split_1
I0114 17:26:23.081089 16159 net.cpp:434] fuse_pool3 <- score_pool3c
I0114 17:26:23.081095 16159 net.cpp:408] fuse_pool3 -> fuse_pool3
I0114 17:26:23.081121 16159 net.cpp:150] Setting up fuse_pool3
I0114 17:26:23.081127 16159 net.cpp:157] Top shape: 1 16 70 50 (56000)
I0114 17:26:23.081131 16159 net.cpp:165] Memory required for data: 902172320
I0114 17:26:23.081135 16159 layer_factory.hpp:77] Creating layer upscore8
I0114 17:26:23.081146 16159 net.cpp:100] Creating Layer upscore8
I0114 17:26:23.081149 16159 net.cpp:434] upscore8 <- fuse_pool3
I0114 17:26:23.081157 16159 net.cpp:408] upscore8 -> upscore8
I0114 17:26:23.081717 16159 net.cpp:150] Setting up upscore8
I0114 17:26:23.081728 16159 net.cpp:157] Top shape: 1 16 568 408 (3707904)
I0114 17:26:23.081732 16159 net.cpp:165] Memory required for data: 917003936
I0114 17:26:23.081738 16159 layer_factory.hpp:77] Creating layer score
I0114 17:26:23.081745 16159 net.cpp:100] Creating Layer score
I0114 17:26:23.081750 16159 net.cpp:434] score <- upscore8
I0114 17:26:23.081755 16159 net.cpp:434] score <- data_data_0_split_1
I0114 17:26:23.081761 16159 net.cpp:408] score -> score
I0114 17:26:23.081790 16159 net.cpp:150] Setting up score
I0114 17:26:23.081797 16159 net.cpp:157] Top shape: 1 16 500 333 (2664000)
I0114 17:26:23.081801 16159 net.cpp:165] Memory required for data: 927659936
I0114 17:26:23.081805 16159 layer_factory.hpp:77] Creating layer loss
I0114 17:26:23.081815 16159 net.cpp:100] Creating Layer loss
I0114 17:26:23.081818 16159 net.cpp:434] loss <- score
I0114 17:26:23.081823 16159 net.cpp:434] loss <- label
I0114 17:26:23.081831 16159 net.cpp:408] loss -> loss
I0114 17:26:23.081842 16159 layer_factory.hpp:77] Creating layer loss
…
I0114 17:26:23.088438 16159 net.cpp:283] Network initialization done.
I0114 17:26:23.089633 16159 solver.cpp:181] Creating test net (#0) specified by test_net file: val.prototxt
I0114 17:26:23.090008 16159 net.cpp:58] Initializing net from parameters: 
state {
  phase: TEST
}
layer {
  name: "data"
  type: "Python"
  top: "data"
  top: "label"
  python_param {
    module: "voc_layers"
    layer: "VOCSegDataLayer"
    param_str: "{\'voc_dir\': \'../data/pascal-obfuscated/VOC2011\', \'seed\': 1337, \'split\': \'seg11valid15\', \'mean\': (104.00699, 116.66877, 122.67892)}"
  }
}
layer {
  name: "conv1_1"
  type: "Convolution"
  bottom: "data"
  top: "conv1_1"
  param {
    lr_mult: 1
    decay_mult: 1
  }
  param {
    lr_mult: 2
    decay_mult: 0
  }
  convolution_param {
    num_output: 64
    pad: 100
    kernel_size: 3
    stride: 1
    weight_filler {
      type: "xavier"
    }
  }
}
layer {
  name: "relu1_1"
  type: "ReLU"
  bottom: "conv1_1"
  top: "conv1_1"
}
layer {
  name: "conv1_2"
  type: "Convolution"
  bottom: "conv1_1"
  top: "conv1_2"
  param {
    lr_mult: 1
    decay_mult: 1
  }
  param {
    lr_mult: 2
    decay_mult: 0
  }
  convolution_param {
    num_output: 64
    pad: 1
    kernel_size: 3
    stride: 1
    weight_filler {
      type: "xavier"
    }
  }
}
layer {
  name: "relu1_2"
  type: "ReLU"
  bottom: "conv1_2"
  top: "conv1_2"
}
layer {
  name: "pool1"
  type: "Pooling"
  bottom: "conv1_2"
  top: "pool1"
  pooling_param {
    pool: MAX
    kernel_size: 2
    stride: 2
  }
}
layer {
  name: "conv2_1"
  type: "Convolution"
  bottom: "pool1"
  top: "conv2_1"
  param {
    lr_mult: 1
    decay_mult: 1
  }
  param {
    lr_mult: 2
    decay_mult: 0
  }
  convolution_param {
    num_output: 128
    pad: 1
    kernel_size: 3
    stride: 1
    weight_filler {
      type: "xavier"
    }
  }
}
layer {
  name: "relu2_1"
  type: "ReLU"
  bottom: "conv2_1"
  top: "conv2_1"
}
layer {
  name: "conv2_2"
  type: "Convolution"
  bottom: "conv2_1"
  top: "conv2_2"
  param {
    lr_mult: 1
    decay_mult: 1
  }
  param {
    lr_mult: 2
    decay_mult: 0
  }
  convolution_param {
    num_output: 128
    pad: 1
    kernel_size: 3
    stride: 1
    weight_filler {
      type: "xavier"
    }
  }
}
layer {
  name: "relu2_2"
  type: "ReLU"
  bottom: "conv2_2"
  top: "conv2_2"
}
layer {
  name: "pool2"
  type: "Pooling"
  bottom: "conv2_2"
  top: "pool2"
  pooling_param {
    pool: MAX
    kernel_size: 2
    stride: 2
  }
}
layer {
  name: "conv3_1"
  type: "Convolution"
  bottom: "pool2"
  top: "conv3_1"
  param {
    lr_mult: 1
    decay_mult: 1
  }
  param {
    lr_mult: 2
    decay_mult: 0
  }
  convolution_param {
    num_output: 256
    pad: 1
    kernel_size: 3
    stride: 1
    weight_filler {
      type: "xavier"
    }
  }
}
layer {
  name: "relu3_1"
  type: "ReLU"
  bottom: "conv3_1"
  top: "conv3_1"
}
layer {
  name: "conv3_2"
  type: "Convolution"
  bottom: "conv3_1"
  top: "conv3_2"
  param {
    lr_mult: 1
    decay_mult: 1
  }
  param {
    lr_mult: 2
    decay_mult: 0
  }
  convolution_param {
    num_output: 256
    pad: 1
    kernel_size: 3
    stride: 1
    weight_filler {
      type: "xavier"
    }
  }
}
layer {
  name: "relu3_2"
  type: "ReLU"
  bottom: "conv3_2"
  top: "conv3_2"
}
layer {
  name: "conv3_3"
  type: "Convolution"
  bottom: "conv3_2"
  top: "conv3_3"
  param {
    lr_mult: 1
    decay_mult: 1
  }
  param {
    lr_mult: 2
    decay_mult: 0
  }
  convolution_param {
    num_output: 256
    pad: 1
    kernel_size: 3
    stride: 1
    weight_filler {
      type: "xavier"
    }
  }
}
layer {
  name: "relu3_3"
  type: "ReLU"
  bottom: "conv3_3"
  top: "conv3_3"
}
layer {
  name: "pool3"
  type: "Pooling"
  bottom: "conv3_3"
  top: "pool3"
  pooling_param {
    pool: MAX
    kernel_size: 2
    stride: 2
  }
}
layer {
  name: "conv4_1"
  type: "Convolution"
  bottom: "pool3"
  top: "conv4_1"
  param {
    lr_mult: 1
    decay_mult: 1
  }
  param {
    lr_mult: 2
    decay_mult: 0
  }
  convolution_param {
    num_output: 512
    pad: 1
    kernel_size: 3
    stride: 1
    weight_filler {
      type: "xavier"
    }
  }
}
layer {
  name: "relu4_1"
  type: "ReLU"
  bottom: "conv4_1"
  top: "conv4_1"
}
layer {
  name: "conv4_2"
  type: "Convolution"
  bottom: "conv4_1"
  top: "conv4_2"
  param {
    lr_mult: 1
    decay_mult: 1
  }
  param {
    lr_mult: 2
    decay_mult: 0
  }
  convolution_param {
    num_output: 512
    pad: 1
    kernel_size: 3
    stride: 1
    weight_filler {
      type: "xavier"
    }
  }
}
layer {
  name: "relu4_2"
  type: "ReLU"
  bottom: "conv4_2"
  top: "conv4_2"
}
layer {
  name: "conv4_3"
  type: "Convolution"
  bottom: "conv4_2"
  top: "conv4_3"
  param {
    lr_mult: 1
    decay_mult: 1
  }
  param {
    lr_mult: 2
    decay_mult: 0
  }
  convolution_param {
    num_output: 512
    pad: 1
    kernel_size: 3
    stride: 1
    weight_filler {
      type: "xavier"
    }
  }
}
layer {
  name: "relu4_3"
  type: "ReLU"
  bottom: "conv4_3"
  top: "conv4_3"
}
layer {
  name: "pool4"
  type: "Pooling"
  bottom: "conv4_3"
  top: "pool4"
  pooling_param {
    pool: MAX
    kernel_size: 2
    stride: 2
  }
}
layer {
  name: "conv5_1"
  type: "Convolution"
  bottom: "pool4"
  top: "conv5_1"
  param {
    lr_mult: 1
    decay_mult: 1
  }
  param {
    lr_mult: 2
    decay_mult: 0
  }
  convolution_param {
    num_output: 512
    pad: 1
    kernel_size: 3
    stride: 1
    weight_filler {
      type: "xavier"
    }
  }
}
layer {
  name: "relu5_1"
  type: "ReLU"
  bottom: "conv5_1"
  top: "conv5_1"
}
layer {
  name: "conv5_2"
  type: "Convolution"
  bottom: "conv5_1"
  top: "conv5_2"
  param {
    lr_mult: 1
    decay_mult: 1
  }
  param {
    lr_mult: 2
    decay_mult: 0
  }
  convolution_param {
    num_output: 512
    pad: 1
    kernel_size: 3
    stride: 1
    weight_filler {
      type: "xavier"
    }
  }
}
layer {
  name: "relu5_2"
  type: "ReLU"
  bottom: "conv5_2"
  top: "conv5_2"
}
layer {
  name: "conv5_3"
  type: "Convolution"
  bottom: "conv5_2"
  top: "conv5_3"
  param {
    lr_mult: 1
    decay_mult: 1
  }
  param {
    lr_mult: 2
    decay_mult: 0
  }
  convolution_param {
    num_output: 512
    pad: 1
    kernel_size: 3
    stride: 1
    weight_filler {
      type: "xavier"
    }
  }
}
layer {
  name: "relu5_3"
  type: "ReLU"
  bottom: "conv5_3"
  top: "conv5_3"
}
layer {
  name: "pool5"
  type: "Pooling"
  bottom: "conv5_3"
  top: "pool5"
  pooling_param {
    pool: MAX
    kernel_size: 2
    stride: 2
  }
}
layer {
  name: "fc6"
  type: "Convolution"
  bottom: "pool5"
  top: "fc6"
  param {
    lr_mult: 1
    decay_mult: 1
  }
  param {
    lr_mult: 2
    decay_mult: 0
  }
  convolution_param {
    num_output: 4096
    pad: 0
    kernel_size: 7
    stride: 1
    weight_filler {
      type: "xavier"
    }
  }
}
layer {
  name: "relu6"
  type: "ReLU"
  bottom: "fc6"
  top: "fc6"
}
layer {
  name: "drop6"
  type: "Dropout"
  bottom: "fc6"
  top: "fc6"
  dropout_param {
    dropout_ratio: 0.5
  }
}
layer {
  name: "fc7"
  type: "Convolution"
  bottom: "fc6"
  top: "fc7"
  param {
    lr_mult: 1
    decay_mult: 1
  }
  param {
    lr_mult: 2
    decay_mult: 0
  }
  convolution_param {
    num_output: 4096
    pad: 0
    kernel_size: 1
    stride: 1
    weight_filler {
      type: "xavier"
    }
  }
}
layer {
  name: "relu7"
  type: "ReLU"
  bottom: "fc7"
  top: "fc7"
}
layer {
  name: "drop7"
  type: "Dropout"
  bottom: "fc7"
  top: "fc7"
  dropout_param {
    dropout_ratio: 0.5
  }
}
layer {
  name: "score_fr"
  type: "Convolution"
  bottom: "fc7"
  top: "score_fr"
  param {
    lr_mult: 1
    decay_mult: 1
  }
  param {
    lr_mult: 2
    decay_mult: 0
  }
  convolution_param {
    num_output: 16
    pad: 0
    kernel_size: 1
    weight_filler {
      type: "xavier"
    }
  }
}
layer {
  name: "upscore2"
  type: "Deconvolution"
  bottom: "score_fr"
  top: "upscore2"
  param {
    lr_mult: 0
  }
  convolution_param {
    num_output: 16
    bias_term: false
    kernel_size: 4
    stride: 2
    weight_filler {
      type: "xavier"
    }
  }
}
layer {
  name: "scale_pool4"
  type: "Scale"
  bottom: "pool4"
  top: "scale_pool4"
  param {
    lr_mult: 0
  }
  scale_param {
    filler {
      type: "constant"
      value: 0.01
    }
  }
}
layer {
  name: "score_pool4"
  type: "Convolution"
  bottom: "scale_pool4"
  top: "score_pool4"
  param {
    lr_mult: 1
    decay_mult: 1
  }
  param {
    lr_mult: 2
    decay_mult: 0
  }
  convolution_param {
    num_output: 16
    pad: 0
    kernel_size: 1
    weight_filler {
      type: "xavier"
    }
  }
}
layer {
  name: "score_pool4c"
  type: "Crop"
  bottom: "score_pool4"
  bottom: "upscore2"
  top: "score_pool4c"
  crop_param {
    axis: 2
    offset: 5
  }
}
layer {
  name: "fuse_pool4"
  type: "Eltwise"
  bottom: "upscore2"
  bottom: "score_pool4c"
  top: "fuse_pool4"
  eltwise_param {
    operation: SUM
  }
}
layer {
  name: "upscore_pool4"
  type: "Deconvolution"
  bottom: "fuse_pool4"
  top: "upscore_pool4"
  param {
    lr_mult: 0
  }
  convolution_param {
    num_output: 16
    bias_term: false
    kernel_size: 4
    stride: 2
    weight_filler {
      type: "xavier"
    }
  }
}
layer {
  name: "scale_pool3"
  type: "Scale"
  bottom: "pool3"
  top: "scale_pool3"
  param {
    lr_mult: 0
  }
  scale_param {
    filler {
      type: "constant"
      value: 0.0001
    }
  }
}
layer {
  name: "score_pool3"
  type: "Convolution"
  bottom: "scale_pool3"
  top: "score_pool3"
  param {
    lr_mult: 1
    decay_mult: 1
  }
  param {
    lr_mult: 2
    decay_mult: 0
  }
  convolution_param {
    num_output: 16
    pad: 0
    kernel_size: 1
    weight_filler {
      type: "xavier"
    }
  }
}
layer {
  name: "score_pool3c"
  type: "Crop"
  bottom: "score_pool3"
  bottom: "upscore_pool4"
  top: "score_pool3c"
  crop_param {
    axis: 2
    offset: 9
  }
}
layer {
  name: "fuse_pool3"
  type: "Eltwise"
  bottom: "upscore_pool4"
  bottom: "score_pool3c"
  top: "fuse_pool3"
  eltwise_param {
    operation: SUM
  }
}
layer {
  name: "upscore8"
  type: "Deconvolution"
  bottom: "fuse_pool3"
  top: "upscore8"
  param {
    lr_mult: 0
  }
  convolution_param {
    num_output: 16
    bias_term: false
    kernel_size: 16
    stride: 8
    weight_filler {
      type: "xavier"
    }
  }
}
layer {
  name: "score"
  type: "Crop"
  bottom: "upscore8"
  bottom: "data"
  top: "score"
  crop_param {
    axis: 2
    offset: 31
  }
}
layer {
  name: "loss"
  type: "SoftmaxWithLoss"
  bottom: "score"
  bottom: "label"
  top: "loss"
  loss_param {
    ignore_label: 255
    normalize: false
  }
}
I0114 17:26:23.090234 16159 layer_factory.hpp:77] Creating layer data
I0114 17:26:23.090327 16159 net.cpp:100] Creating Layer data
I0114 17:26:23.090337 16159 net.cpp:408] data -> data
I0114 17:26:23.090345 16159 net.cpp:408] data -> label
I0114 17:26:23.101810 16159 net.cpp:150] Setting up data
I0114 17:26:23.101830 16159 net.cpp:157] Top shape: 1 3 366 500 (549000)
I0114 17:26:23.101837 16159 net.cpp:157] Top shape: 1 1 366 500 (183000)
I0114 17:26:23.101841 16159 net.cpp:165] Memory required for data: 2928000
I0114 17:26:23.101847 16159 layer_factory.hpp:77] Creating layer data_data_0_split
I0114 17:26:23.101856 16159 net.cpp:100] Creating Layer data_data_0_split
I0114 17:26:23.101861 16159 net.cpp:434] data_data_0_split <- data
I0114 17:26:23.101867 16159 net.cpp:408] data_data_0_split -> data_data_0_split_0
I0114 17:26:23.101876 16159 net.cpp:408] data_data_0_split -> data_data_0_split_1
I0114 17:26:23.101918 16159 net.cpp:150] Setting up data_data_0_split
I0114 17:26:23.101927 16159 net.cpp:157] Top shape: 1 3 366 500 (549000)
I0114 17:26:23.101932 16159 net.cpp:157] Top shape: 1 3 366 500 (549000)
I0114 17:26:23.101935 16159 net.cpp:165] Memory required for data: 7320000
I0114 17:26:23.101940 16159 layer_factory.hpp:77] Creating layer conv1_1
I0114 17:26:23.101951 16159 net.cpp:100] Creating Layer conv1_1
I0114 17:26:23.101955 16159 net.cpp:434] conv1_1 <- data_data_0_split_0
I0114 17:26:23.101963 16159 net.cpp:408] conv1_1 -> conv1_1
I0114 17:26:23.104223 16159 net.cpp:150] Setting up conv1_1
I0114 17:26:23.104241 16159 net.cpp:157] Top shape: 1 64 564 698 (25195008)
I0114 17:26:23.104246 16159 net.cpp:165] Memory required for data: 108100032
I0114 17:26:23.104259 16159 layer_factory.hpp:77] Creating layer relu1_1
I0114 17:26:23.104266 16159 net.cpp:100] Creating Layer relu1_1
I0114 17:26:23.104271 16159 net.cpp:434] relu1_1 <- conv1_1
I0114 17:26:23.104277 16159 net.cpp:395] relu1_1 -> conv1_1 (in-place)
I0114 17:26:23.104467 16159 net.cpp:150] Setting up relu1_1
I0114 17:26:23.104477 16159 net.cpp:157] Top shape: 1 64 564 698 (25195008)
I0114 17:26:23.104482 16159 net.cpp:165] Memory required for data: 208880064
I0114 17:26:23.104486 16159 layer_factory.hpp:77] Creating layer conv1_2
I0114 17:26:23.104497 16159 net.cpp:100] Creating Layer conv1_2
I0114 17:26:23.104501 16159 net.cpp:434] conv1_2 <- conv1_1
I0114 17:26:23.104514 16159 net.cpp:408] conv1_2 -> conv1_2
I0114 17:26:23.107389 16159 net.cpp:150] Setting up conv1_2
I0114 17:26:23.107406 16159 net.cpp:157] Top shape: 1 64 564 698 (25195008)
I0114 17:26:23.107411 16159 net.cpp:165] Memory required for data: 309660096
I0114 17:26:23.107422 16159 layer_factory.hpp:77] Creating layer relu1_2
I0114 17:26:23.107430 16159 net.cpp:100] Creating Layer relu1_2
I0114 17:26:23.107435 16159 net.cpp:434] relu1_2 <- conv1_2
I0114 17:26:23.107440 16159 net.cpp:395] relu1_2 -> conv1_2 (in-place)
I0114 17:26:23.107807 16159 net.cpp:150] Setting up relu1_2
I0114 17:26:23.107820 16159 net.cpp:157] Top shape: 1 64 564 698 (25195008)
I0114 17:26:23.107825 16159 net.cpp:165] Memory required for data: 410440128
I0114 17:26:23.107830 16159 layer_factory.hpp:77] Creating layer pool1
I0114 17:26:23.107837 16159 net.cpp:100] Creating Layer pool1
I0114 17:26:23.107842 16159 net.cpp:434] pool1 <- conv1_2
I0114 17:26:23.107848 16159 net.cpp:408] pool1 -> pool1
I0114 17:26:23.107900 16159 net.cpp:150] Setting up pool1
I0114 17:26:23.107908 16159 net.cpp:157] Top shape: 1 64 282 349 (6298752)
I0114 17:26:23.107911 16159 net.cpp:165] Memory required for data: 435635136
I0114 17:26:23.107915 16159 layer_factory.hpp:77] Creating layer conv2_1
I0114 17:26:23.107924 16159 net.cpp:100] Creating Layer conv2_1
I0114 17:26:23.107928 16159 net.cpp:434] conv2_1 <- pool1
I0114 17:26:23.107935 16159 net.cpp:408] conv2_1 -> conv2_1
I0114 17:26:23.110124 16159 net.cpp:150] Setting up conv2_1
I0114 17:26:23.110141 16159 net.cpp:157] Top shape: 1 128 282 349 (12597504)
I0114 17:26:23.110146 16159 net.cpp:165] Memory required for data: 486025152
I0114 17:26:23.110157 16159 layer_factory.hpp:77] Creating layer relu2_1
I0114 17:26:23.110165 16159 net.cpp:100] Creating Layer relu2_1
I0114 17:26:23.110170 16159 net.cpp:434] relu2_1 <- conv2_1
I0114 17:26:23.110177 16159 net.cpp:395] relu2_1 -> conv2_1 (in-place)
I0114 17:26:23.110561 16159 net.cpp:150] Setting up relu2_1
I0114 17:26:23.110574 16159 net.cpp:157] Top shape: 1 128 282 349 (12597504)
I0114 17:26:23.110579 16159 net.cpp:165] Memory required for data: 536415168
I0114 17:26:23.110584 16159 layer_factory.hpp:77] Creating layer conv2_2
I0114 17:26:23.110594 16159 net.cpp:100] Creating Layer conv2_2
I0114 17:26:23.110599 16159 net.cpp:434] conv2_2 <- conv2_1
I0114 17:26:23.110606 16159 net.cpp:408] conv2_2 -> conv2_2
I0114 17:26:23.113137 16159 net.cpp:150] Setting up conv2_2
I0114 17:26:23.113152 16159 net.cpp:157] Top shape: 1 128 282 349 (12597504)
I0114 17:26:23.113157 16159 net.cpp:165] Memory required for data: 586805184
I0114 17:26:23.113165 16159 layer_factory.hpp:77] Creating layer relu2_2
I0114 17:26:23.113173 16159 net.cpp:100] Creating Layer relu2_2
I0114 17:26:23.113178 16159 net.cpp:434] relu2_2 <- conv2_2
I0114 17:26:23.113183 16159 net.cpp:395] relu2_2 -> conv2_2 (in-place)
I0114 17:26:23.113371 16159 net.cpp:150] Setting up relu2_2
I0114 17:26:23.113381 16159 net.cpp:157] Top shape: 1 128 282 349 (12597504)
I0114 17:26:23.113385 16159 net.cpp:165] Memory required for data: 637195200
I0114 17:26:23.113389 16159 layer_factory.hpp:77] Creating layer pool2
I0114 17:26:23.113396 16159 net.cpp:100] Creating Layer pool2
I0114 17:26:23.113401 16159 net.cpp:434] pool2 <- conv2_2
I0114 17:26:23.113407 16159 net.cpp:408] pool2 -> pool2
I0114 17:26:23.113456 16159 net.cpp:150] Setting up pool2
I0114 17:26:23.113463 16159 net.cpp:157] Top shape: 1 128 141 175 (3158400)
I0114 17:26:23.113467 16159 net.cpp:165] Memory required for data: 649828800
I0114 17:26:23.113471 16159 layer_factory.hpp:77] Creating layer conv3_1
I0114 17:26:23.113481 16159 net.cpp:100] Creating Layer conv3_1
I0114 17:26:23.113486 16159 net.cpp:434] conv3_1 <- pool2
I0114 17:26:23.113492 16159 net.cpp:408] conv3_1 -> conv3_1
I0114 17:26:23.116757 16159 net.cpp:150] Setting up conv3_1
I0114 17:26:23.116773 16159 net.cpp:157] Top shape: 1 256 141 175 (6316800)
I0114 17:26:23.116778 16159 net.cpp:165] Memory required for data: 675096000
I0114 17:26:23.116789 16159 layer_factory.hpp:77] Creating layer relu3_1
I0114 17:26:23.116803 16159 net.cpp:100] Creating Layer relu3_1
I0114 17:26:23.116808 16159 net.cpp:434] relu3_1 <- conv3_1
I0114 17:26:23.116814 16159 net.cpp:395] relu3_1 -> conv3_1 (in-place)
I0114 17:26:23.117175 16159 net.cpp:150] Setting up relu3_1
I0114 17:26:23.117189 16159 net.cpp:157] Top shape: 1 256 141 175 (6316800)
I0114 17:26:23.117193 16159 net.cpp:165] Memory required for data: 700363200
I0114 17:26:23.117198 16159 layer_factory.hpp:77] Creating layer conv3_2
I0114 17:26:23.117208 16159 net.cpp:100] Creating Layer conv3_2
I0114 17:26:23.117213 16159 net.cpp:434] conv3_2 <- conv3_1
I0114 17:26:23.117220 16159 net.cpp:408] conv3_2 -> conv3_2
I0114 17:26:23.122457 16159 net.cpp:150] Setting up conv3_2
I0114 17:26:23.122474 16159 net.cpp:157] Top shape: 1 256 141 175 (6316800)
I0114 17:26:23.122479 16159 net.cpp:165] Memory required for data: 725630400
I0114 17:26:23.122486 16159 layer_factory.hpp:77] Creating layer relu3_2
I0114 17:26:23.122494 16159 net.cpp:100] Creating Layer relu3_2
I0114 17:26:23.122499 16159 net.cpp:434] relu3_2 <- conv3_2
I0114 17:26:23.122506 16159 net.cpp:395] relu3_2 -> conv3_2 (in-place)
I0114 17:26:23.122689 16159 net.cpp:150] Setting up relu3_2
I0114 17:26:23.122699 16159 net.cpp:157] Top shape: 1 256 141 175 (6316800)
I0114 17:26:23.122704 16159 net.cpp:165] Memory required for data: 750897600
I0114 17:26:23.122707 16159 layer_factory.hpp:77] Creating layer conv3_3
I0114 17:26:23.122720 16159 net.cpp:100] Creating Layer conv3_3
I0114 17:26:23.122725 16159 net.cpp:434] conv3_3 <- conv3_2
I0114 17:26:23.122731 16159 net.cpp:408] conv3_3 -> conv3_3
I0114 17:26:23.127946 16159 net.cpp:150] Setting up conv3_3
I0114 17:26:23.127964 16159 net.cpp:157] Top shape: 1 256 141 175 (6316800)
I0114 17:26:23.127967 16159 net.cpp:165] Memory required for data: 776164800
I0114 17:26:23.127975 16159 layer_factory.hpp:77] Creating layer relu3_3
I0114 17:26:23.127984 16159 net.cpp:100] Creating Layer relu3_3
I0114 17:26:23.127988 16159 net.cpp:434] relu3_3 <- conv3_3
I0114 17:26:23.127995 16159 net.cpp:395] relu3_3 -> conv3_3 (in-place)
I0114 17:26:23.128177 16159 net.cpp:150] Setting up relu3_3
I0114 17:26:23.128187 16159 net.cpp:157] Top shape: 1 256 141 175 (6316800)
I0114 17:26:23.128191 16159 net.cpp:165] Memory required for data: 801432000
I0114 17:26:23.128196 16159 layer_factory.hpp:77] Creating layer pool3
I0114 17:26:23.128203 16159 net.cpp:100] Creating Layer pool3
I0114 17:26:23.128208 16159 net.cpp:434] pool3 <- conv3_3
I0114 17:26:23.128214 16159 net.cpp:408] pool3 -> pool3
I0114 17:26:23.128265 16159 net.cpp:150] Setting up pool3
I0114 17:26:23.128273 16159 net.cpp:157] Top shape: 1 256 71 88 (1599488)
I0114 17:26:23.128276 16159 net.cpp:165] Memory required for data: 807829952
I0114 17:26:23.128280 16159 layer_factory.hpp:77] Creating layer pool3_pool3_0_split
I0114 17:26:23.128288 16159 net.cpp:100] Creating Layer pool3_pool3_0_split
I0114 17:26:23.128291 16159 net.cpp:434] pool3_pool3_0_split <- pool3
I0114 17:26:23.128298 16159 net.cpp:408] pool3_pool3_0_split -> pool3_pool3_0_split_0
I0114 17:26:23.128304 16159 net.cpp:408] pool3_pool3_0_split -> pool3_pool3_0_split_1
I0114 17:26:23.128345 16159 net.cpp:150] Setting up pool3_pool3_0_split
I0114 17:26:23.128350 16159 net.cpp:157] Top shape: 1 256 71 88 (1599488)
I0114 17:26:23.128355 16159 net.cpp:157] Top shape: 1 256 71 88 (1599488)
I0114 17:26:23.128360 16159 net.cpp:165] Memory required for data: 820625856
I0114 17:26:23.128363 16159 layer_factory.hpp:77] Creating layer conv4_1
I0114 17:26:23.128372 16159 net.cpp:100] Creating Layer conv4_1
I0114 17:26:23.128377 16159 net.cpp:434] conv4_1 <- pool3_pool3_0_split_0
I0114 17:26:23.128384 16159 net.cpp:408] conv4_1 -> conv4_1
I0114 17:26:23.137430 16159 net.cpp:150] Setting up conv4_1
I0114 17:26:23.137447 16159 net.cpp:157] Top shape: 1 512 71 88 (3198976)
I0114 17:26:23.137452 16159 net.cpp:165] Memory required for data: 833421760
I0114 17:26:23.137460 16159 layer_factory.hpp:77] Creating layer relu4_1
I0114 17:26:23.137468 16159 net.cpp:100] Creating Layer relu4_1
I0114 17:26:23.137481 16159 net.cpp:434] relu4_1 <- conv4_1
I0114 17:26:23.137490 16159 net.cpp:395] relu4_1 -> conv4_1 (in-place)
I0114 17:26:23.137866 16159 net.cpp:150] Setting up relu4_1
I0114 17:26:23.137881 16159 net.cpp:157] Top shape: 1 512 71 88 (3198976)
I0114 17:26:23.137884 16159 net.cpp:165] Memory required for data: 846217664
I0114 17:26:23.137889 16159 layer_factory.hpp:77] Creating layer conv4_2
I0114 17:26:23.137900 16159 net.cpp:100] Creating Layer conv4_2
I0114 17:26:23.137905 16159 net.cpp:434] conv4_2 <- conv4_1
I0114 17:26:23.137913 16159 net.cpp:408] conv4_2 -> conv4_2
I0114 17:26:23.154832 16159 net.cpp:150] Setting up conv4_2
I0114 17:26:23.154857 16159 net.cpp:157] Top shape: 1 512 71 88 (3198976)
I0114 17:26:23.154862 16159 net.cpp:165] Memory required for data: 859013568
I0114 17:26:23.154877 16159 layer_factory.hpp:77] Creating layer relu4_2
I0114 17:26:23.154887 16159 net.cpp:100] Creating Layer relu4_2
I0114 17:26:23.154892 16159 net.cpp:434] relu4_2 <- conv4_2
I0114 17:26:23.154899 16159 net.cpp:395] relu4_2 -> conv4_2 (in-place)
I0114 17:26:23.155100 16159 net.cpp:150] Setting up relu4_2
I0114 17:26:23.155110 16159 net.cpp:157] Top shape: 1 512 71 88 (3198976)
I0114 17:26:23.155117 16159 net.cpp:165] Memory required for data: 871809472
I0114 17:26:23.155122 16159 layer_factory.hpp:77] Creating layer conv4_3
I0114 17:26:23.155133 16159 net.cpp:100] Creating Layer conv4_3
I0114 17:26:23.155136 16159 net.cpp:434] conv4_3 <- conv4_2
I0114 17:26:23.155145 16159 net.cpp:408] conv4_3 -> conv4_3
I0114 17:26:23.172300 16159 net.cpp:150] Setting up conv4_3
I0114 17:26:23.172324 16159 net.cpp:157] Top shape: 1 512 71 88 (3198976)
I0114 17:26:23.172332 16159 net.cpp:165] Memory required for data: 884605376
I0114 17:26:23.172341 16159 layer_factory.hpp:77] Creating layer relu4_3
I0114 17:26:23.172350 16159 net.cpp:100] Creating Layer relu4_3
I0114 17:26:23.172356 16159 net.cpp:434] relu4_3 <- conv4_3
I0114 17:26:23.172363 16159 net.cpp:395] relu4_3 -> conv4_3 (in-place)
I0114 17:26:23.172579 16159 net.cpp:150] Setting up relu4_3
I0114 17:26:23.172590 16159 net.cpp:157] Top shape: 1 512 71 88 (3198976)
I0114 17:26:23.172595 16159 net.cpp:165] Memory required for data: 897401280
I0114 17:26:23.172600 16159 layer_factory.hpp:77] Creating layer pool4
I0114 17:26:23.172608 16159 net.cpp:100] Creating Layer pool4
I0114 17:26:23.172612 16159 net.cpp:434] pool4 <- conv4_3
I0114 17:26:23.172618 16159 net.cpp:408] pool4 -> pool4
I0114 17:26:23.172675 16159 net.cpp:150] Setting up pool4
I0114 17:26:23.172683 16159 net.cpp:157] Top shape: 1 512 36 44 (811008)
I0114 17:26:23.172686 16159 net.cpp:165] Memory required for data: 900645312
I0114 17:26:23.172691 16159 layer_factory.hpp:77] Creating layer pool4_pool4_0_split
I0114 17:26:23.172698 16159 net.cpp:100] Creating Layer pool4_pool4_0_split
I0114 17:26:23.172703 16159 net.cpp:434] pool4_pool4_0_split <- pool4
I0114 17:26:23.172709 16159 net.cpp:408] pool4_pool4_0_split -> pool4_pool4_0_split_0
I0114 17:26:23.172716 16159 net.cpp:408] pool4_pool4_0_split -> pool4_pool4_0_split_1
I0114 17:26:23.172760 16159 net.cpp:150] Setting up pool4_pool4_0_split
I0114 17:26:23.172768 16159 net.cpp:157] Top shape: 1 512 36 44 (811008)
I0114 17:26:23.172773 16159 net.cpp:157] Top shape: 1 512 36 44 (811008)
I0114 17:26:23.172777 16159 net.cpp:165] Memory required for data: 907133376
I0114 17:26:23.172781 16159 layer_factory.hpp:77] Creating layer conv5_1
I0114 17:26:23.172794 16159 net.cpp:100] Creating Layer conv5_1
I0114 17:26:23.172798 16159 net.cpp:434] conv5_1 <- pool4_pool4_0_split_0
I0114 17:26:23.172806 16159 net.cpp:408] conv5_1 -> conv5_1
I0114 17:26:23.189823 16159 net.cpp:150] Setting up conv5_1
I0114 17:26:23.189849 16159 net.cpp:157] Top shape: 1 512 36 44 (811008)
I0114 17:26:23.189854 16159 net.cpp:165] Memory required for data: 910377408
I0114 17:26:23.189863 16159 layer_factory.hpp:77] Creating layer relu5_1
I0114 17:26:23.189872 16159 net.cpp:100] Creating Layer relu5_1
I0114 17:26:23.189877 16159 net.cpp:434] relu5_1 <- conv5_1
I0114 17:26:23.189888 16159 net.cpp:395] relu5_1 -> conv5_1 (in-place)
I0114 17:26:23.190284 16159 net.cpp:150] Setting up relu5_1
I0114 17:26:23.190297 16159 net.cpp:157] Top shape: 1 512 36 44 (811008)
I0114 17:26:23.190301 16159 net.cpp:165] Memory required for data: 913621440
I0114 17:26:23.190306 16159 layer_factory.hpp:77] Creating layer conv5_2
I0114 17:26:23.190320 16159 net.cpp:100] Creating Layer conv5_2
I0114 17:26:23.190325 16159 net.cpp:434] conv5_2 <- conv5_1
I0114 17:26:23.190333 16159 net.cpp:408] conv5_2 -> conv5_2
I0114 17:26:23.207327 16159 net.cpp:150] Setting up conv5_2
I0114 17:26:23.207350 16159 net.cpp:157] Top shape: 1 512 36 44 (811008)
I0114 17:26:23.207355 16159 net.cpp:165] Memory required for data: 916865472
I0114 17:26:23.207365 16159 layer_factory.hpp:77] Creating layer relu5_2
I0114 17:26:23.207376 16159 net.cpp:100] Creating Layer relu5_2
I0114 17:26:23.207381 16159 net.cpp:434] relu5_2 <- conv5_2
I0114 17:26:23.207388 16159 net.cpp:395] relu5_2 -> conv5_2 (in-place)
I0114 17:26:23.207588 16159 net.cpp:150] Setting up relu5_2
I0114 17:26:23.207599 16159 net.cpp:157] Top shape: 1 512 36 44 (811008)
I0114 17:26:23.207603 16159 net.cpp:165] Memory required for data: 920109504
I0114 17:26:23.207607 16159 layer_factory.hpp:77] Creating layer conv5_3
I0114 17:26:23.207628 16159 net.cpp:100] Creating Layer conv5_3
I0114 17:26:23.207633 16159 net.cpp:434] conv5_3 <- conv5_2
I0114 17:26:23.207640 16159 net.cpp:408] conv5_3 -> conv5_3
I0114 17:26:23.224520 16159 net.cpp:150] Setting up conv5_3
I0114 17:26:23.224542 16159 net.cpp:157] Top shape: 1 512 36 44 (811008)
I0114 17:26:23.224547 16159 net.cpp:165] Memory required for data: 923353536
I0114 17:26:23.224556 16159 layer_factory.hpp:77] Creating layer relu5_3
I0114 17:26:23.224565 16159 net.cpp:100] Creating Layer relu5_3
I0114 17:26:23.224571 16159 net.cpp:434] relu5_3 <- conv5_3
I0114 17:26:23.224581 16159 net.cpp:395] relu5_3 -> conv5_3 (in-place)
I0114 17:26:23.224779 16159 net.cpp:150] Setting up relu5_3
I0114 17:26:23.224789 16159 net.cpp:157] Top shape: 1 512 36 44 (811008)
I0114 17:26:23.224794 16159 net.cpp:165] Memory required for data: 926597568
I0114 17:26:23.224798 16159 layer_factory.hpp:77] Creating layer pool5
I0114 17:26:23.224807 16159 net.cpp:100] Creating Layer pool5
I0114 17:26:23.224812 16159 net.cpp:434] pool5 <- conv5_3
I0114 17:26:23.224819 16159 net.cpp:408] pool5 -> pool5
I0114 17:26:23.224879 16159 net.cpp:150] Setting up pool5
I0114 17:26:23.224885 16159 net.cpp:157] Top shape: 1 512 18 22 (202752)
I0114 17:26:23.224889 16159 net.cpp:165] Memory required for data: 927408576
I0114 17:26:23.224894 16159 layer_factory.hpp:77] Creating layer fc6
I0114 17:26:23.224907 16159 net.cpp:100] Creating Layer fc6
I0114 17:26:23.224911 16159 net.cpp:434] fc6 <- pool5
I0114 17:26:23.224918 16159 net.cpp:408] fc6 -> fc6
I0114 17:26:23.926673 16159 net.cpp:150] Setting up fc6
I0114 17:26:23.926722 16159 net.cpp:157] Top shape: 1 4096 12 16 (786432)
I0114 17:26:23.926726 16159 net.cpp:165] Memory required for data: 930554304
I0114 17:26:23.926743 16159 layer_factory.hpp:77] Creating layer relu6
I0114 17:26:23.926764 16159 net.cpp:100] Creating Layer relu6
I0114 17:26:23.926772 16159 net.cpp:434] relu6 <- fc6
I0114 17:26:23.926780 16159 net.cpp:395] relu6 -> fc6 (in-place)
I0114 17:26:23.927186 16159 net.cpp:150] Setting up relu6
I0114 17:26:23.927199 16159 net.cpp:157] Top shape: 1 4096 12 16 (786432)
I0114 17:26:23.927203 16159 net.cpp:165] Memory required for data: 933700032
I0114 17:26:23.927208 16159 layer_factory.hpp:77] Creating layer drop6
I0114 17:26:23.927219 16159 net.cpp:100] Creating Layer drop6
I0114 17:26:23.927224 16159 net.cpp:434] drop6 <- fc6
I0114 17:26:23.927232 16159 net.cpp:395] drop6 -> fc6 (in-place)
I0114 17:26:23.927274 16159 net.cpp:150] Setting up drop6
I0114 17:26:23.927283 16159 net.cpp:157] Top shape: 1 4096 12 16 (786432)
I0114 17:26:23.927286 16159 net.cpp:165] Memory required for data: 936845760
I0114 17:26:23.927291 16159 layer_factory.hpp:77] Creating layer fc7
I0114 17:26:23.927306 16159 net.cpp:100] Creating Layer fc7
I0114 17:26:23.927320 16159 net.cpp:434] fc7 <- fc6
I0114 17:26:23.927326 16159 net.cpp:408] fc7 -> fc7
I0114 17:26:24.043038 16159 net.cpp:150] Setting up fc7
I0114 17:26:24.043079 16159 net.cpp:157] Top shape: 1 4096 12 16 (786432)
I0114 17:26:24.043084 16159 net.cpp:165] Memory required for data: 939991488
I0114 17:26:24.043097 16159 layer_factory.hpp:77] Creating layer relu7
I0114 17:26:24.043113 16159 net.cpp:100] Creating Layer relu7
I0114 17:26:24.043119 16159 net.cpp:434] relu7 <- fc7
I0114 17:26:24.043129 16159 net.cpp:395] relu7 -> fc7 (in-place)
I0114 17:26:24.043345 16159 net.cpp:150] Setting up relu7
I0114 17:26:24.043355 16159 net.cpp:157] Top shape: 1 4096 12 16 (786432)
I0114 17:26:24.043359 16159 net.cpp:165] Memory required for data: 943137216
I0114 17:26:24.043365 16159 layer_factory.hpp:77] Creating layer drop7
I0114 17:26:24.043373 16159 net.cpp:100] Creating Layer drop7
I0114 17:26:24.043378 16159 net.cpp:434] drop7 <- fc7
I0114 17:26:24.043385 16159 net.cpp:395] drop7 -> fc7 (in-place)
I0114 17:26:24.043424 16159 net.cpp:150] Setting up drop7
I0114 17:26:24.043431 16159 net.cpp:157] Top shape: 1 4096 12 16 (786432)
I0114 17:26:24.043436 16159 net.cpp:165] Memory required for data: 946282944
I0114 17:26:24.043439 16159 layer_factory.hpp:77] Creating layer score_fr
I0114 17:26:24.043457 16159 net.cpp:100] Creating Layer score_fr
I0114 17:26:24.043460 16159 net.cpp:434] score_fr <- fc7
I0114 17:26:24.043469 16159 net.cpp:408] score_fr -> score_fr
I0114 17:26:24.045368 16159 net.cpp:150] Setting up score_fr
I0114 17:26:24.045383 16159 net.cpp:157] Top shape: 1 16 12 16 (3072)
I0114 17:26:24.045388 16159 net.cpp:165] Memory required for data: 946295232
I0114 17:26:24.045397 16159 layer_factory.hpp:77] Creating layer upscore2
I0114 17:26:24.045411 16159 net.cpp:100] Creating Layer upscore2
I0114 17:26:24.045416 16159 net.cpp:434] upscore2 <- score_fr
I0114 17:26:24.045425 16159 net.cpp:408] upscore2 -> upscore2
I0114 17:26:24.045711 16159 net.cpp:150] Setting up upscore2
I0114 17:26:24.045720 16159 net.cpp:157] Top shape: 1 16 26 34 (14144)
I0114 17:26:24.045724 16159 net.cpp:165] Memory required for data: 946351808
I0114 17:26:24.045747 16159 layer_factory.hpp:77] Creating layer upscore2_upscore2_0_split
I0114 17:26:24.045755 16159 net.cpp:100] Creating Layer upscore2_upscore2_0_split
I0114 17:26:24.045760 16159 net.cpp:434] upscore2_upscore2_0_split <- upscore2
I0114 17:26:24.045766 16159 net.cpp:408] upscore2_upscore2_0_split -> upscore2_upscore2_0_split_0
I0114 17:26:24.045774 16159 net.cpp:408] upscore2_upscore2_0_split -> upscore2_upscore2_0_split_1
I0114 17:26:24.045822 16159 net.cpp:150] Setting up upscore2_upscore2_0_split
I0114 17:26:24.045830 16159 net.cpp:157] Top shape: 1 16 26 34 (14144)
I0114 17:26:24.045835 16159 net.cpp:157] Top shape: 1 16 26 34 (14144)
I0114 17:26:24.045838 16159 net.cpp:165] Memory required for data: 946464960
I0114 17:26:24.045843 16159 layer_factory.hpp:77] Creating layer scale_pool4
I0114 17:26:24.045855 16159 net.cpp:100] Creating Layer scale_pool4
I0114 17:26:24.045859 16159 net.cpp:434] scale_pool4 <- pool4_pool4_0_split_1
I0114 17:26:24.045866 16159 net.cpp:408] scale_pool4 -> scale_pool4
I0114 17:26:24.046002 16159 net.cpp:150] Setting up scale_pool4
I0114 17:26:24.046011 16159 net.cpp:157] Top shape: 1 512 36 44 (811008)
I0114 17:26:24.046015 16159 net.cpp:165] Memory required for data: 949708992
I0114 17:26:24.046022 16159 layer_factory.hpp:77] Creating layer score_pool4
I0114 17:26:24.046035 16159 net.cpp:100] Creating Layer score_pool4
I0114 17:26:24.046039 16159 net.cpp:434] score_pool4 <- scale_pool4
I0114 17:26:24.046047 16159 net.cpp:408] score_pool4 -> score_pool4
I0114 17:26:24.047448 16159 net.cpp:150] Setting up score_pool4
I0114 17:26:24.047463 16159 net.cpp:157] Top shape: 1 16 36 44 (25344)
I0114 17:26:24.047468 16159 net.cpp:165] Memory required for data: 949810368
I0114 17:26:24.047477 16159 layer_factory.hpp:77] Creating layer score_pool4c
I0114 17:26:24.047485 16159 net.cpp:100] Creating Layer score_pool4c
I0114 17:26:24.047490 16159 net.cpp:434] score_pool4c <- score_pool4
I0114 17:26:24.047508 16159 net.cpp:434] score_pool4c <- upscore2_upscore2_0_split_0
I0114 17:26:24.047516 16159 net.cpp:408] score_pool4c -> score_pool4c
I0114 17:26:24.047555 16159 net.cpp:150] Setting up score_pool4c
I0114 17:26:24.047562 16159 net.cpp:157] Top shape: 1 16 26 34 (14144)
I0114 17:26:24.047566 16159 net.cpp:165] Memory required for data: 949866944
I0114 17:26:24.047570 16159 layer_factory.hpp:77] Creating layer fuse_pool4
I0114 17:26:24.047579 16159 net.cpp:100] Creating Layer fuse_pool4
I0114 17:26:24.047583 16159 net.cpp:434] fuse_pool4 <- upscore2_upscore2_0_split_1
I0114 17:26:24.047588 16159 net.cpp:434] fuse_pool4 <- score_pool4c
I0114 17:26:24.047595 16159 net.cpp:408] fuse_pool4 -> fuse_pool4
I0114 17:26:24.047626 16159 net.cpp:150] Setting up fuse_pool4
I0114 17:26:24.047634 16159 net.cpp:157] Top shape: 1 16 26 34 (14144)
I0114 17:26:24.047638 16159 net.cpp:165] Memory required for data: 949923520
I0114 17:26:24.047642 16159 layer_factory.hpp:77] Creating layer upscore_pool4
I0114 17:26:24.047649 16159 net.cpp:100] Creating Layer upscore_pool4
I0114 17:26:24.047654 16159 net.cpp:434] upscore_pool4 <- fuse_pool4
I0114 17:26:24.047662 16159 net.cpp:408] upscore_pool4 -> upscore_pool4
I0114 17:26:24.047930 16159 net.cpp:150] Setting up upscore_pool4
I0114 17:26:24.047938 16159 net.cpp:157] Top shape: 1 16 54 70 (60480)
I0114 17:26:24.047942 16159 net.cpp:165] Memory required for data: 950165440
I0114 17:26:24.047948 16159 layer_factory.hpp:77] Creating layer upscore_pool4_upscore_pool4_0_split
I0114 17:26:24.047955 16159 net.cpp:100] Creating Layer upscore_pool4_upscore_pool4_0_split
I0114 17:26:24.047960 16159 net.cpp:434] upscore_pool4_upscore_pool4_0_split <- upscore_pool4
I0114 17:26:24.047966 16159 net.cpp:408] upscore_pool4_upscore_pool4_0_split -> upscore_pool4_upscore_pool4_0_split_0
I0114 17:26:24.047971 16159 net.cpp:408] upscore_pool4_upscore_pool4_0_split -> upscore_pool4_upscore_pool4_0_split_1
I0114 17:26:24.048017 16159 net.cpp:150] Setting up upscore_pool4_upscore_pool4_0_split
I0114 17:26:24.048023 16159 net.cpp:157] Top shape: 1 16 54 70 (60480)
I0114 17:26:24.048028 16159 net.cpp:157] Top shape: 1 16 54 70 (60480)
I0114 17:26:24.048032 16159 net.cpp:165] Memory required for data: 950649280
I0114 17:26:24.048036 16159 layer_factory.hpp:77] Creating layer scale_pool3
I0114 17:26:24.048043 16159 net.cpp:100] Creating Layer scale_pool3
I0114 17:26:24.048048 16159 net.cpp:434] scale_pool3 <- pool3_pool3_0_split_1
I0114 17:26:24.048054 16159 net.cpp:408] scale_pool3 -> scale_pool3
I0114 17:26:24.048164 16159 net.cpp:150] Setting up scale_pool3
I0114 17:26:24.048171 16159 net.cpp:157] Top shape: 1 256 71 88 (1599488)
I0114 17:26:24.048176 16159 net.cpp:165] Memory required for data: 957047232
I0114 17:26:24.048182 16159 layer_factory.hpp:77] Creating layer score_pool3
I0114 17:26:24.048192 16159 net.cpp:100] Creating Layer score_pool3
I0114 17:26:24.048195 16159 net.cpp:434] score_pool3 <- scale_pool3
I0114 17:26:24.048203 16159 net.cpp:408] score_pool3 -> score_pool3
I0114 17:26:24.049521 16159 net.cpp:150] Setting up score_pool3
I0114 17:26:24.049536 16159 net.cpp:157] Top shape: 1 16 71 88 (99968)
I0114 17:26:24.049541 16159 net.cpp:165] Memory required for data: 957447104
I0114 17:26:24.049549 16159 layer_factory.hpp:77] Creating layer score_pool3c
I0114 17:26:24.049558 16159 net.cpp:100] Creating Layer score_pool3c
I0114 17:26:24.049563 16159 net.cpp:434] score_pool3c <- score_pool3
I0114 17:26:24.049569 16159 net.cpp:434] score_pool3c <- upscore_pool4_upscore_pool4_0_split_0
I0114 17:26:24.049576 16159 net.cpp:408] score_pool3c -> score_pool3c
I0114 17:26:24.049613 16159 net.cpp:150] Setting up score_pool3c
I0114 17:26:24.049621 16159 net.cpp:157] Top shape: 1 16 54 70 (60480)
I0114 17:26:24.049625 16159 net.cpp:165] Memory required for data: 957689024
I0114 17:26:24.049629 16159 layer_factory.hpp:77] Creating layer fuse_pool3
I0114 17:26:24.049635 16159 net.cpp:100] Creating Layer fuse_pool3
I0114 17:26:24.049648 16159 net.cpp:434] fuse_pool3 <- upscore_pool4_upscore_pool4_0_split_1
I0114 17:26:24.049659 16159 net.cpp:434] fuse_pool3 <- score_pool3c
I0114 17:26:24.049666 16159 net.cpp:408] fuse_pool3 -> fuse_pool3
I0114 17:26:24.049698 16159 net.cpp:150] Setting up fuse_pool3
I0114 17:26:24.049705 16159 net.cpp:157] Top shape: 1 16 54 70 (60480)
I0114 17:26:24.049710 16159 net.cpp:165] Memory required for data: 957930944
I0114 17:26:24.049713 16159 layer_factory.hpp:77] Creating layer upscore8
I0114 17:26:24.049724 16159 net.cpp:100] Creating Layer upscore8
I0114 17:26:24.049728 16159 net.cpp:434] upscore8 <- fuse_pool3
I0114 17:26:24.049736 16159 net.cpp:408] upscore8 -> upscore8
I0114 17:26:24.050323 16159 net.cpp:150] Setting up upscore8
I0114 17:26:24.050333 16159 net.cpp:157] Top shape: 1 16 440 568 (3998720)
I0114 17:26:24.050336 16159 net.cpp:165] Memory required for data: 973925824
I0114 17:26:24.050343 16159 layer_factory.hpp:77] Creating layer score
I0114 17:26:24.050350 16159 net.cpp:100] Creating Layer score
I0114 17:26:24.050355 16159 net.cpp:434] score <- upscore8
I0114 17:26:24.050360 16159 net.cpp:434] score <- data_data_0_split_1
I0114 17:26:24.050366 16159 net.cpp:408] score -> score
I0114 17:26:24.050401 16159 net.cpp:150] Setting up score
I0114 17:26:24.050408 16159 net.cpp:157] Top shape: 1 16 366 500 (2928000)
I0114 17:26:24.050412 16159 net.cpp:165] Memory required for data: 985637824
I0114 17:26:24.050416 16159 layer_factory.hpp:77] Creating layer loss
I0114 17:26:24.050423 16159 net.cpp:100] Creating Layer loss
I0114 17:26:24.050427 16159 net.cpp:434] loss <- score
I0114 17:26:24.050432 16159 net.cpp:434] loss <- label
I0114 17:26:24.050438 16159 net.cpp:408] loss -> loss
I0114 17:26:24.050447 16159 layer_factory.hpp:77] Creating layer loss
…
