…
test_initialization: false
average_loss: 20
iter_size: 1
I1128 05:24:25.731585 14094 solver.cpp:81] Creating training net from train_net file: train.prototxt
I1128 05:24:25.732899 14094 net.cpp:58] Initializing net from parameters: 
state {
  phase: TRAIN
}
layer {
  name: "data"
  type: "Python"
  top: "data"
  top: "label"
  python_param {
    module: "voc_layers"
    layer: "PartialSBDDSegDataLayer"
    param_str: "{\'sbdd_dir\': \'../data/sbdd/dataset\', \'seed\': 1337, \'split\': \'train5\', \'mean\': (104.00699, 116.66877, 122.67892)}"
  }
}
layer {
  name: "conv1_1"
  type: "Convolution"
  bottom: "data"
  top: "conv1_1"
  param {
    lr_mult: 1
    decay_mult: 1
  }
  param {
    lr_mult: 2
    decay_mult: 0
  }
  convolution_param {
    num_output: 64
    pad: 100
    kernel_size: 3
    stride: 1
    weight_filler {
      type: "xavier"
    }
  }
}
layer {
  name: "relu1_1"
  type: "ReLU"
  bottom: "conv1_1"
  top: "conv1_1"
}
layer {
  name: "conv1_2"
  type: "Convolution"
  bottom: "conv1_1"
  top: "conv1_2"
  param {
    lr_mult: 1
    decay_mult: 1
  }
  param {
    lr_mult: 2
    decay_mult: 0
  }
  convolution_param {
    num_output: 64
    pad: 1
    kernel_size: 3
    stride: 1
    weight_filler {
      type: "xavier"
    }
  }
}
layer {
  name: "relu1_2"
  type: "ReLU"
  bottom: "conv1_2"
  top: "conv1_2"
}
layer {
  name: "pool1"
  type: "Pooling"
  bottom: "conv1_2"
  top: "pool1"
  pooling_param {
    pool: MAX
    kernel_size: 2
    stride: 2
  }
}
layer {
  name: "conv2_1"
  type: "Convolution"
  bottom: "pool1"
  top: "conv2_1"
  param {
    lr_mult: 1
    decay_mult: 1
  }
  param {
    lr_mult: 2
    decay_mult: 0
  }
  convolution_param {
    num_output: 128
    pad: 1
    kernel_size: 3
    stride: 1
    weight_filler {
      type: "xavier"
    }
  }
}
layer {
  name: "relu2_1"
  type: "ReLU"
  bottom: "conv2_1"
  top: "conv2_1"
}
layer {
  name: "conv2_2"
  type: "Convolution"
  bottom: "conv2_1"
  top: "conv2_2"
  param {
    lr_mult: 1
    decay_mult: 1
  }
  param {
    lr_mult: 2
    decay_mult: 0
  }
  convolution_param {
    num_output: 128
    pad: 1
    kernel_size: 3
    stride: 1
    weight_filler {
      type: "xavier"
    }
  }
}
layer {
  name: "relu2_2"
  type: "ReLU"
  bottom: "conv2_2"
  top: "conv2_2"
}
layer {
  name: "pool2"
  type: "Pooling"
  bottom: "conv2_2"
  top: "pool2"
  pooling_param {
    pool: MAX
    kernel_size: 2
    stride: 2
  }
}
layer {
  name: "conv3_1"
  type: "Convolution"
  bottom: "pool2"
  top: "conv3_1"
  param {
    lr_mult: 1
    decay_mult: 1
  }
  param {
    lr_mult: 2
    decay_mult: 0
  }
  convolution_param {
    num_output: 256
    pad: 1
    kernel_size: 3
    stride: 1
    weight_filler {
      type: "xavier"
    }
  }
}
layer {
  name: "relu3_1"
  type: "ReLU"
  bottom: "conv3_1"
  top: "conv3_1"
}
layer {
  name: "conv3_2"
  type: "Convolution"
  bottom: "conv3_1"
  top: "conv3_2"
  param {
    lr_mult: 1
    decay_mult: 1
  }
  param {
    lr_mult: 2
    decay_mult: 0
  }
  convolution_param {
    num_output: 256
    pad: 1
    kernel_size: 3
    stride: 1
    weight_filler {
      type: "xavier"
    }
  }
}
layer {
  name: "relu3_2"
  type: "ReLU"
  bottom: "conv3_2"
  top: "conv3_2"
}
layer {
  name: "conv3_3"
  type: "Convolution"
  bottom: "conv3_2"
  top: "conv3_3"
  param {
    lr_mult: 1
    decay_mult: 1
  }
  param {
    lr_mult: 2
    decay_mult: 0
  }
  convolution_param {
    num_output: 256
    pad: 1
    kernel_size: 3
    stride: 1
    weight_filler {
      type: "xavier"
    }
  }
}
layer {
  name: "relu3_3"
  type: "ReLU"
  bottom: "conv3_3"
  top: "conv3_3"
}
layer {
  name: "pool3"
  type: "Pooling"
  bottom: "conv3_3"
  top: "pool3"
  pooling_param {
    pool: MAX
    kernel_size: 2
    stride: 2
  }
}
layer {
  name: "conv4_1"
  type: "Convolution"
  bottom: "pool3"
  top: "conv4_1"
  param {
    lr_mult: 1
    decay_mult: 1
  }
  param {
    lr_mult: 2
    decay_mult: 0
  }
  convolution_param {
    num_output: 512
    pad: 1
    kernel_size: 3
    stride: 1
    weight_filler {
      type: "xavier"
    }
  }
}
layer {
  name: "relu4_1"
  type: "ReLU"
  bottom: "conv4_1"
  top: "conv4_1"
}
layer {
  name: "conv4_2"
  type: "Convolution"
  bottom: "conv4_1"
  top: "conv4_2"
  param {
    lr_mult: 1
    decay_mult: 1
  }
  param {
    lr_mult: 2
    decay_mult: 0
  }
  convolution_param {
    num_output: 512
    pad: 1
    kernel_size: 3
    stride: 1
    weight_filler {
      type: "xavier"
    }
  }
}
layer {
  name: "relu4_2"
  type: "ReLU"
  bottom: "conv4_2"
  top: "conv4_2"
}
layer {
  name: "conv4_3"
  type: "Convolution"
  bottom: "conv4_2"
  top: "conv4_3"
  param {
    lr_mult: 1
    decay_mult: 1
  }
  param {
    lr_mult: 2
    decay_mult: 0
  }
  convolution_param {
    num_output: 512
    pad: 1
    kernel_size: 3
    stride: 1
    weight_filler {
      type: "xavier"
    }
  }
}
layer {
  name: "relu4_3"
  type: "ReLU"
  bottom: "conv4_3"
  top: "conv4_3"
}
layer {
  name: "pool4"
  type: "Pooling"
  bottom: "conv4_3"
  top: "pool4"
  pooling_param {
    pool: MAX
    kernel_size: 2
    stride: 2
  }
}
layer {
  name: "conv5_1"
  type: "Convolution"
  bottom: "pool4"
  top: "conv5_1"
  param {
    lr_mult: 1
    decay_mult: 1
  }
  param {
    lr_mult: 2
    decay_mult: 0
  }
  convolution_param {
    num_output: 512
    pad: 1
    kernel_size: 3
    stride: 1
    weight_filler {
      type: "xavier"
    }
  }
}
layer {
  name: "relu5_1"
  type: "ReLU"
  bottom: "conv5_1"
  top: "conv5_1"
}
layer {
  name: "conv5_2"
  type: "Convolution"
  bottom: "conv5_1"
  top: "conv5_2"
  param {
    lr_mult: 1
    decay_mult: 1
  }
  param {
    lr_mult: 2
    decay_mult: 0
  }
  convolution_param {
    num_output: 512
    pad: 1
    kernel_size: 3
    stride: 1
    weight_filler {
      type: "xavier"
    }
  }
}
layer {
  name: "relu5_2"
  type: "ReLU"
  bottom: "conv5_2"
  top: "conv5_2"
}
layer {
  name: "conv5_3"
  type: "Convolution"
  bottom: "conv5_2"
  top: "conv5_3"
  param {
    lr_mult: 1
    decay_mult: 1
  }
  param {
    lr_mult: 2
    decay_mult: 0
  }
  convolution_param {
    num_output: 512
    pad: 1
    kernel_size: 3
    stride: 1
    weight_filler {
      type: "xavier"
    }
  }
}
layer {
  name: "relu5_3"
  type: "ReLU"
  bottom: "conv5_3"
  top: "conv5_3"
}
layer {
  name: "pool5"
  type: "Pooling"
  bottom: "conv5_3"
  top: "pool5"
  pooling_param {
    pool: MAX
    kernel_size: 2
    stride: 2
  }
}
layer {
  name: "fc6"
  type: "Convolution"
  bottom: "pool5"
  top: "fc6"
  param {
    lr_mult: 1
    decay_mult: 1
  }
  param {
    lr_mult: 2
    decay_mult: 0
  }
  convolution_param {
    num_output: 4096
    pad: 0
    kernel_size: 7
    stride: 1
    weight_filler {
      type: "xavier"
    }
  }
}
layer {
  name: "relu6"
  type: "ReLU"
  bottom: "fc6"
  top: "fc6"
}
layer {
  name: "drop6"
  type: "Dropout"
  bottom: "fc6"
  top: "fc6"
  dropout_param {
    dropout_ratio: 0.5
  }
}
layer {
  name: "fc7"
  type: "Convolution"
  bottom: "fc6"
  top: "fc7"
  param {
    lr_mult: 1
    decay_mult: 1
  }
  param {
    lr_mult: 2
    decay_mult: 0
  }
  convolution_param {
    num_output: 4096
    pad: 0
    kernel_size: 1
    stride: 1
    weight_filler {
      type: "xavier"
    }
  }
}
layer {
  name: "relu7"
  type: "ReLU"
  bottom: "fc7"
  top: "fc7"
}
layer {
  name: "drop7"
  type: "Dropout"
  bottom: "fc7"
  top: "fc7"
  dropout_param {
    dropout_ratio: 0.5
  }
}
layer {
  name: "score_fr"
  type: "Convolution"
  bottom: "fc7"
  top: "score_fr"
  param {
    lr_mult: 1
    decay_mult: 1
  }
  param {
    lr_mult: 2
    decay_mult: 0
  }
  convolution_param {
    num_output: 6
    pad: 0
    kernel_size: 1
    weight_filler {
      type: "xavier"
    }
  }
}
layer {
  name: "upscore2"
  type: "Deconvolution"
  bottom: "score_fr"
  top: "upscore2"
  param {
    lr_mult: 0
  }
  convolution_param {
    num_output: 6
    bias_term: false
    kernel_size: 4
    stride: 2
    weight_filler {
      type: "xavier"
    }
  }
}
layer {
  name: "scale_pool4"
  type: "Scale"
  bottom: "pool4"
  top: "scale_pool4"
  param {
    lr_mult: 0
  }
  scale_param {
    filler {
      type: "constant"
      value: 0.01
    }
  }
}
layer {
  name: "score_pool4"
  type: "Convolution"
  bottom: "scale_pool4"
  top: "score_pool4"
  param {
    lr_mult: 1
    decay_mult: 1
  }
  param {
    lr_mult: 2
    decay_mult: 0
  }
  convolution_param {
    num_output: 6
    pad: 0
    kernel_size: 1
    weight_filler {
      type: "xavier"
    }
  }
}
layer {
  name: "score_pool4c"
  type: "Crop"
  bottom: "score_pool4"
  bottom: "upscore2"
  top: "score_pool4c"
  crop_param {
    axis: 2
    offset: 5
  }
}
layer {
  name: "fuse_pool4"
  type: "Eltwise"
  bottom: "upscore2"
  bottom: "score_pool4c"
  top: "fuse_pool4"
  eltwise_param {
    operation: SUM
  }
}
layer {
  name: "upscore_pool4"
  type: "Deconvolution"
  bottom: "fuse_pool4"
  top: "upscore_pool4"
  param {
    lr_mult: 0
  }
  convolution_param {
    num_output: 6
    bias_term: false
    kernel_size: 4
    stride: 2
    weight_filler {
      type: "xavier"
    }
  }
}
layer {
  name: "scale_pool3"
  type: "Scale"
  bottom: "pool3"
  top: "scale_pool3"
  param {
    lr_mult: 0
  }
  scale_param {
    filler {
      type: "constant"
      value: 0.0001
    }
  }
}
layer {
  name: "score_pool3"
  type: "Convolution"
  bottom: "scale_pool3"
  top: "score_pool3"
  param {
    lr_mult: 1
    decay_mult: 1
  }
  param {
    lr_mult: 2
    decay_mult: 0
  }
  convolution_param {
    num_output: 6
    pad: 0
    kernel_size: 1
    weight_filler {
      type: "xavier"
    }
  }
}
layer {
  name: "score_pool3c"
  type: "Crop"
  bottom: "score_pool3"
  bottom: "upscore_pool4"
  top: "score_pool3c"
  crop_param {
    axis: 2
    offset: 9
  }
}
layer {
  name: "fuse_pool3"
  type: "Eltwise"
  bottom: "upscore_pool4"
  bottom: "score_pool3c"
  top: "fuse_pool3"
  eltwise_param {
    operation: SUM
  }
}
layer {
  name: "upscore8"
  type: "Deconvolution"
  bottom: "fuse_pool3"
  top: "upscore8"
  param {
    lr_mult: 0
  }
  convolution_param {
    num_output: 6
    bias_term: false
    kernel_size: 16
    stride: 8
    weight_filler {
      type: "xavier"
    }
  }
}
layer {
  name: "score"
  type: "Crop"
  bottom: "upscore8"
  bottom: "data"
  top: "score"
  crop_param {
    axis: 2
    offset: 31
  }
}
layer {
  name: "loss"
  type: "SoftmaxWithLoss"
  bottom: "score"
  bottom: "label"
  top: "loss"
  loss_param {
    ignore_label: 255
    normalize: false
  }
}
I1128 05:24:25.733146 14094 layer_factory.hpp:77] Creating layer data
I1128 05:24:25.733803 14094 net.cpp:100] Creating Layer data
I1128 05:24:25.733819 14094 net.cpp:408] data -> data
I1128 05:24:25.733835 14094 net.cpp:408] data -> label
I1128 05:24:25.815187 14094 net.cpp:150] Setting up data
I1128 05:24:25.815225 14094 net.cpp:157] Top shape: 1 3 375 500 (562500)
I1128 05:24:25.815233 14094 net.cpp:157] Top shape: 1 1 375 500 (187500)
I1128 05:24:25.815237 14094 net.cpp:165] Memory required for data: 3000000
I1128 05:24:25.815245 14094 layer_factory.hpp:77] Creating layer data_data_0_split
I1128 05:24:25.815263 14094 net.cpp:100] Creating Layer data_data_0_split
I1128 05:24:25.815268 14094 net.cpp:434] data_data_0_split <- data
I1128 05:24:25.815277 14094 net.cpp:408] data_data_0_split -> data_data_0_split_0
I1128 05:24:25.815289 14094 net.cpp:408] data_data_0_split -> data_data_0_split_1
I1128 05:24:25.815330 14094 net.cpp:150] Setting up data_data_0_split
I1128 05:24:25.815337 14094 net.cpp:157] Top shape: 1 3 375 500 (562500)
I1128 05:24:25.815342 14094 net.cpp:157] Top shape: 1 3 375 500 (562500)
I1128 05:24:25.815346 14094 net.cpp:165] Memory required for data: 7500000
I1128 05:24:25.815351 14094 layer_factory.hpp:77] Creating layer conv1_1
I1128 05:24:25.815371 14094 net.cpp:100] Creating Layer conv1_1
I1128 05:24:25.815376 14094 net.cpp:434] conv1_1 <- data_data_0_split_0
I1128 05:24:25.815390 14094 net.cpp:408] conv1_1 -> conv1_1
I1128 05:24:26.030771 14094 net.cpp:150] Setting up conv1_1
I1128 05:24:26.030823 14094 net.cpp:157] Top shape: 1 64 573 698 (25597056)
I1128 05:24:26.030829 14094 net.cpp:165] Memory required for data: 109888224
I1128 05:24:26.030850 14094 layer_factory.hpp:77] Creating layer relu1_1
I1128 05:24:26.030865 14094 net.cpp:100] Creating Layer relu1_1
I1128 05:24:26.030871 14094 net.cpp:434] relu1_1 <- conv1_1
I1128 05:24:26.030879 14094 net.cpp:395] relu1_1 -> conv1_1 (in-place)
I1128 05:24:26.031239 14094 net.cpp:150] Setting up relu1_1
I1128 05:24:26.031255 14094 net.cpp:157] Top shape: 1 64 573 698 (25597056)
I1128 05:24:26.031260 14094 net.cpp:165] Memory required for data: 212276448
I1128 05:24:26.031265 14094 layer_factory.hpp:77] Creating layer conv1_2
I1128 05:24:26.031281 14094 net.cpp:100] Creating Layer conv1_2
I1128 05:24:26.031286 14094 net.cpp:434] conv1_2 <- conv1_1
I1128 05:24:26.031293 14094 net.cpp:408] conv1_2 -> conv1_2
I1128 05:24:26.034157 14094 net.cpp:150] Setting up conv1_2
I1128 05:24:26.034173 14094 net.cpp:157] Top shape: 1 64 573 698 (25597056)
I1128 05:24:26.034178 14094 net.cpp:165] Memory required for data: 314664672
I1128 05:24:26.034189 14094 layer_factory.hpp:77] Creating layer relu1_2
I1128 05:24:26.034198 14094 net.cpp:100] Creating Layer relu1_2
I1128 05:24:26.034204 14094 net.cpp:434] relu1_2 <- conv1_2
I1128 05:24:26.034211 14094 net.cpp:395] relu1_2 -> conv1_2 (in-place)
I1128 05:24:26.034585 14094 net.cpp:150] Setting up relu1_2
I1128 05:24:26.034600 14094 net.cpp:157] Top shape: 1 64 573 698 (25597056)
I1128 05:24:26.034603 14094 net.cpp:165] Memory required for data: 417052896
I1128 05:24:26.034608 14094 layer_factory.hpp:77] Creating layer pool1
I1128 05:24:26.034621 14094 net.cpp:100] Creating Layer pool1
I1128 05:24:26.034626 14094 net.cpp:434] pool1 <- conv1_2
I1128 05:24:26.034634 14094 net.cpp:408] pool1 -> pool1
I1128 05:24:26.034684 14094 net.cpp:150] Setting up pool1
I1128 05:24:26.034695 14094 net.cpp:157] Top shape: 1 64 287 349 (6410432)
I1128 05:24:26.034699 14094 net.cpp:165] Memory required for data: 442694624
I1128 05:24:26.034703 14094 layer_factory.hpp:77] Creating layer conv2_1
I1128 05:24:26.034713 14094 net.cpp:100] Creating Layer conv2_1
I1128 05:24:26.034718 14094 net.cpp:434] conv2_1 <- pool1
I1128 05:24:26.034729 14094 net.cpp:408] conv2_1 -> conv2_1
I1128 05:24:26.037118 14094 net.cpp:150] Setting up conv2_1
I1128 05:24:26.037135 14094 net.cpp:157] Top shape: 1 128 287 349 (12820864)
I1128 05:24:26.037140 14094 net.cpp:165] Memory required for data: 493978080
I1128 05:24:26.037152 14094 layer_factory.hpp:77] Creating layer relu2_1
I1128 05:24:26.037161 14094 net.cpp:100] Creating Layer relu2_1
I1128 05:24:26.037166 14094 net.cpp:434] relu2_1 <- conv2_1
I1128 05:24:26.037174 14094 net.cpp:395] relu2_1 -> conv2_1 (in-place)
I1128 05:24:26.037376 14094 net.cpp:150] Setting up relu2_1
I1128 05:24:26.037387 14094 net.cpp:157] Top shape: 1 128 287 349 (12820864)
I1128 05:24:26.037391 14094 net.cpp:165] Memory required for data: 545261536
I1128 05:24:26.037396 14094 layer_factory.hpp:77] Creating layer conv2_2
I1128 05:24:26.037410 14094 net.cpp:100] Creating Layer conv2_2
I1128 05:24:26.037415 14094 net.cpp:434] conv2_2 <- conv2_1
I1128 05:24:26.037423 14094 net.cpp:408] conv2_2 -> conv2_2
I1128 05:24:26.040015 14094 net.cpp:150] Setting up conv2_2
I1128 05:24:26.040035 14094 net.cpp:157] Top shape: 1 128 287 349 (12820864)
I1128 05:24:26.040040 14094 net.cpp:165] Memory required for data: 596544992
I1128 05:24:26.040048 14094 layer_factory.hpp:77] Creating layer relu2_2
I1128 05:24:26.040056 14094 net.cpp:100] Creating Layer relu2_2
I1128 05:24:26.040061 14094 net.cpp:434] relu2_2 <- conv2_2
I1128 05:24:26.040067 14094 net.cpp:395] relu2_2 -> conv2_2 (in-place)
I1128 05:24:26.040428 14094 net.cpp:150] Setting up relu2_2
I1128 05:24:26.040442 14094 net.cpp:157] Top shape: 1 128 287 349 (12820864)
I1128 05:24:26.040446 14094 net.cpp:165] Memory required for data: 647828448
I1128 05:24:26.040462 14094 layer_factory.hpp:77] Creating layer pool2
I1128 05:24:26.040473 14094 net.cpp:100] Creating Layer pool2
I1128 05:24:26.040478 14094 net.cpp:434] pool2 <- conv2_2
I1128 05:24:26.040487 14094 net.cpp:408] pool2 -> pool2
I1128 05:24:26.040534 14094 net.cpp:150] Setting up pool2
I1128 05:24:26.040542 14094 net.cpp:157] Top shape: 1 128 144 175 (3225600)
I1128 05:24:26.040546 14094 net.cpp:165] Memory required for data: 660730848
I1128 05:24:26.040550 14094 layer_factory.hpp:77] Creating layer conv3_1
I1128 05:24:26.040562 14094 net.cpp:100] Creating Layer conv3_1
I1128 05:24:26.040567 14094 net.cpp:434] conv3_1 <- pool2
I1128 05:24:26.040575 14094 net.cpp:408] conv3_1 -> conv3_1
I1128 05:24:26.043752 14094 net.cpp:150] Setting up conv3_1
I1128 05:24:26.043769 14094 net.cpp:157] Top shape: 1 256 144 175 (6451200)
I1128 05:24:26.043773 14094 net.cpp:165] Memory required for data: 686535648
I1128 05:24:26.043784 14094 layer_factory.hpp:77] Creating layer relu3_1
I1128 05:24:26.043792 14094 net.cpp:100] Creating Layer relu3_1
I1128 05:24:26.043797 14094 net.cpp:434] relu3_1 <- conv3_1
I1128 05:24:26.043807 14094 net.cpp:395] relu3_1 -> conv3_1 (in-place)
I1128 05:24:26.044178 14094 net.cpp:150] Setting up relu3_1
I1128 05:24:26.044191 14094 net.cpp:157] Top shape: 1 256 144 175 (6451200)
I1128 05:24:26.044195 14094 net.cpp:165] Memory required for data: 712340448
I1128 05:24:26.044200 14094 layer_factory.hpp:77] Creating layer conv3_2
I1128 05:24:26.044214 14094 net.cpp:100] Creating Layer conv3_2
I1128 05:24:26.044219 14094 net.cpp:434] conv3_2 <- conv3_1
I1128 05:24:26.044225 14094 net.cpp:408] conv3_2 -> conv3_2
I1128 05:24:26.049590 14094 net.cpp:150] Setting up conv3_2
I1128 05:24:26.049607 14094 net.cpp:157] Top shape: 1 256 144 175 (6451200)
I1128 05:24:26.049612 14094 net.cpp:165] Memory required for data: 738145248
I1128 05:24:26.049619 14094 layer_factory.hpp:77] Creating layer relu3_2
I1128 05:24:26.049628 14094 net.cpp:100] Creating Layer relu3_2
I1128 05:24:26.049633 14094 net.cpp:434] relu3_2 <- conv3_2
I1128 05:24:26.049641 14094 net.cpp:395] relu3_2 -> conv3_2 (in-place)
I1128 05:24:26.049836 14094 net.cpp:150] Setting up relu3_2
I1128 05:24:26.049847 14094 net.cpp:157] Top shape: 1 256 144 175 (6451200)
I1128 05:24:26.049851 14094 net.cpp:165] Memory required for data: 763950048
I1128 05:24:26.049856 14094 layer_factory.hpp:77] Creating layer conv3_3
I1128 05:24:26.049871 14094 net.cpp:100] Creating Layer conv3_3
I1128 05:24:26.049877 14094 net.cpp:434] conv3_3 <- conv3_2
I1128 05:24:26.049885 14094 net.cpp:408] conv3_3 -> conv3_3
I1128 05:24:26.055238 14094 net.cpp:150] Setting up conv3_3
I1128 05:24:26.055255 14094 net.cpp:157] Top shape: 1 256 144 175 (6451200)
I1128 05:24:26.055260 14094 net.cpp:165] Memory required for data: 789754848
I1128 05:24:26.055269 14094 layer_factory.hpp:77] Creating layer relu3_3
I1128 05:24:26.055276 14094 net.cpp:100] Creating Layer relu3_3
I1128 05:24:26.055281 14094 net.cpp:434] relu3_3 <- conv3_3
I1128 05:24:26.055289 14094 net.cpp:395] relu3_3 -> conv3_3 (in-place)
I1128 05:24:26.055655 14094 net.cpp:150] Setting up relu3_3
I1128 05:24:26.055668 14094 net.cpp:157] Top shape: 1 256 144 175 (6451200)
I1128 05:24:26.055672 14094 net.cpp:165] Memory required for data: 815559648
I1128 05:24:26.055677 14094 layer_factory.hpp:77] Creating layer pool3
I1128 05:24:26.055687 14094 net.cpp:100] Creating Layer pool3
I1128 05:24:26.055692 14094 net.cpp:434] pool3 <- conv3_3
I1128 05:24:26.055699 14094 net.cpp:408] pool3 -> pool3
I1128 05:24:26.055749 14094 net.cpp:150] Setting up pool3
I1128 05:24:26.055757 14094 net.cpp:157] Top shape: 1 256 72 88 (1622016)
I1128 05:24:26.055761 14094 net.cpp:165] Memory required for data: 822047712
I1128 05:24:26.055765 14094 layer_factory.hpp:77] Creating layer pool3_pool3_0_split
I1128 05:24:26.055773 14094 net.cpp:100] Creating Layer pool3_pool3_0_split
I1128 05:24:26.055778 14094 net.cpp:434] pool3_pool3_0_split <- pool3
I1128 05:24:26.055784 14094 net.cpp:408] pool3_pool3_0_split -> pool3_pool3_0_split_0
I1128 05:24:26.055791 14094 net.cpp:408] pool3_pool3_0_split -> pool3_pool3_0_split_1
I1128 05:24:26.055845 14094 net.cpp:150] Setting up pool3_pool3_0_split
I1128 05:24:26.055852 14094 net.cpp:157] Top shape: 1 256 72 88 (1622016)
I1128 05:24:26.055857 14094 net.cpp:157] Top shape: 1 256 72 88 (1622016)
I1128 05:24:26.055860 14094 net.cpp:165] Memory required for data: 835023840
I1128 05:24:26.055866 14094 layer_factory.hpp:77] Creating layer conv4_1
I1128 05:24:26.055877 14094 net.cpp:100] Creating Layer conv4_1
I1128 05:24:26.055882 14094 net.cpp:434] conv4_1 <- pool3_pool3_0_split_0
I1128 05:24:26.055889 14094 net.cpp:408] conv4_1 -> conv4_1
I1128 05:24:26.066507 14094 net.cpp:150] Setting up conv4_1
I1128 05:24:26.066529 14094 net.cpp:157] Top shape: 1 512 72 88 (3244032)
I1128 05:24:26.066534 14094 net.cpp:165] Memory required for data: 847999968
I1128 05:24:26.066542 14094 layer_factory.hpp:77] Creating layer relu4_1
I1128 05:24:26.066553 14094 net.cpp:100] Creating Layer relu4_1
I1128 05:24:26.066558 14094 net.cpp:434] relu4_1 <- conv4_1
I1128 05:24:26.066565 14094 net.cpp:395] relu4_1 -> conv4_1 (in-place)
I1128 05:24:26.066943 14094 net.cpp:150] Setting up relu4_1
I1128 05:24:26.066957 14094 net.cpp:157] Top shape: 1 512 72 88 (3244032)
I1128 05:24:26.066962 14094 net.cpp:165] Memory required for data: 860976096
I1128 05:24:26.066967 14094 layer_factory.hpp:77] Creating layer conv4_2
I1128 05:24:26.066979 14094 net.cpp:100] Creating Layer conv4_2
I1128 05:24:26.066984 14094 net.cpp:434] conv4_2 <- conv4_1
I1128 05:24:26.066993 14094 net.cpp:408] conv4_2 -> conv4_2
I1128 05:24:26.084616 14094 net.cpp:150] Setting up conv4_2
I1128 05:24:26.084645 14094 net.cpp:157] Top shape: 1 512 72 88 (3244032)
I1128 05:24:26.084650 14094 net.cpp:165] Memory required for data: 873952224
I1128 05:24:26.084666 14094 layer_factory.hpp:77] Creating layer relu4_2
I1128 05:24:26.084676 14094 net.cpp:100] Creating Layer relu4_2
I1128 05:24:26.084681 14094 net.cpp:434] relu4_2 <- conv4_2
I1128 05:24:26.084688 14094 net.cpp:395] relu4_2 -> conv4_2 (in-place)
I1128 05:24:26.084889 14094 net.cpp:150] Setting up relu4_2
I1128 05:24:26.084902 14094 net.cpp:157] Top shape: 1 512 72 88 (3244032)
I1128 05:24:26.084905 14094 net.cpp:165] Memory required for data: 886928352
I1128 05:24:26.084909 14094 layer_factory.hpp:77] Creating layer conv4_3
I1128 05:24:26.084923 14094 net.cpp:100] Creating Layer conv4_3
I1128 05:24:26.084928 14094 net.cpp:434] conv4_3 <- conv4_2
I1128 05:24:26.084938 14094 net.cpp:408] conv4_3 -> conv4_3
I1128 05:24:26.102502 14094 net.cpp:150] Setting up conv4_3
I1128 05:24:26.102531 14094 net.cpp:157] Top shape: 1 512 72 88 (3244032)
I1128 05:24:26.102536 14094 net.cpp:165] Memory required for data: 899904480
I1128 05:24:26.102545 14094 layer_factory.hpp:77] Creating layer relu4_3
I1128 05:24:26.102557 14094 net.cpp:100] Creating Layer relu4_3
I1128 05:24:26.102563 14094 net.cpp:434] relu4_3 <- conv4_3
I1128 05:24:26.102571 14094 net.cpp:395] relu4_3 -> conv4_3 (in-place)
I1128 05:24:26.102946 14094 net.cpp:150] Setting up relu4_3
I1128 05:24:26.102960 14094 net.cpp:157] Top shape: 1 512 72 88 (3244032)
I1128 05:24:26.102964 14094 net.cpp:165] Memory required for data: 912880608
I1128 05:24:26.102969 14094 layer_factory.hpp:77] Creating layer pool4
I1128 05:24:26.102979 14094 net.cpp:100] Creating Layer pool4
I1128 05:24:26.102983 14094 net.cpp:434] pool4 <- conv4_3
I1128 05:24:26.102998 14094 net.cpp:408] pool4 -> pool4
I1128 05:24:26.103049 14094 net.cpp:150] Setting up pool4
I1128 05:24:26.103057 14094 net.cpp:157] Top shape: 1 512 36 44 (811008)
I1128 05:24:26.103061 14094 net.cpp:165] Memory required for data: 916124640
I1128 05:24:26.103066 14094 layer_factory.hpp:77] Creating layer pool4_pool4_0_split
I1128 05:24:26.103075 14094 net.cpp:100] Creating Layer pool4_pool4_0_split
I1128 05:24:26.103080 14094 net.cpp:434] pool4_pool4_0_split <- pool4
I1128 05:24:26.103088 14094 net.cpp:408] pool4_pool4_0_split -> pool4_pool4_0_split_0
I1128 05:24:26.103096 14094 net.cpp:408] pool4_pool4_0_split -> pool4_pool4_0_split_1
I1128 05:24:26.103135 14094 net.cpp:150] Setting up pool4_pool4_0_split
I1128 05:24:26.103153 14094 net.cpp:157] Top shape: 1 512 36 44 (811008)
I1128 05:24:26.103158 14094 net.cpp:157] Top shape: 1 512 36 44 (811008)
I1128 05:24:26.103163 14094 net.cpp:165] Memory required for data: 922612704
I1128 05:24:26.103166 14094 layer_factory.hpp:77] Creating layer conv5_1
I1128 05:24:26.103186 14094 net.cpp:100] Creating Layer conv5_1
I1128 05:24:26.103193 14094 net.cpp:434] conv5_1 <- pool4_pool4_0_split_0
I1128 05:24:26.103202 14094 net.cpp:408] conv5_1 -> conv5_1
I1128 05:24:26.120527 14094 net.cpp:150] Setting up conv5_1
I1128 05:24:26.120556 14094 net.cpp:157] Top shape: 1 512 36 44 (811008)
I1128 05:24:26.120561 14094 net.cpp:165] Memory required for data: 925856736
I1128 05:24:26.120571 14094 layer_factory.hpp:77] Creating layer relu5_1
I1128 05:24:26.120580 14094 net.cpp:100] Creating Layer relu5_1
I1128 05:24:26.120586 14094 net.cpp:434] relu5_1 <- conv5_1
I1128 05:24:26.120594 14094 net.cpp:395] relu5_1 -> conv5_1 (in-place)
I1128 05:24:26.120966 14094 net.cpp:150] Setting up relu5_1
I1128 05:24:26.120981 14094 net.cpp:157] Top shape: 1 512 36 44 (811008)
I1128 05:24:26.120985 14094 net.cpp:165] Memory required for data: 929100768
I1128 05:24:26.120990 14094 layer_factory.hpp:77] Creating layer conv5_2
I1128 05:24:26.121006 14094 net.cpp:100] Creating Layer conv5_2
I1128 05:24:26.121011 14094 net.cpp:434] conv5_2 <- conv5_1
I1128 05:24:26.121019 14094 net.cpp:408] conv5_2 -> conv5_2
I1128 05:24:26.138620 14094 net.cpp:150] Setting up conv5_2
I1128 05:24:26.138649 14094 net.cpp:157] Top shape: 1 512 36 44 (811008)
I1128 05:24:26.138654 14094 net.cpp:165] Memory required for data: 932344800
I1128 05:24:26.138664 14094 layer_factory.hpp:77] Creating layer relu5_2
I1128 05:24:26.138674 14094 net.cpp:100] Creating Layer relu5_2
I1128 05:24:26.138679 14094 net.cpp:434] relu5_2 <- conv5_2
I1128 05:24:26.138686 14094 net.cpp:395] relu5_2 -> conv5_2 (in-place)
I1128 05:24:26.138887 14094 net.cpp:150] Setting up relu5_2
I1128 05:24:26.138900 14094 net.cpp:157] Top shape: 1 512 36 44 (811008)
I1128 05:24:26.138903 14094 net.cpp:165] Memory required for data: 935588832
I1128 05:24:26.138908 14094 layer_factory.hpp:77] Creating layer conv5_3
I1128 05:24:26.138926 14094 net.cpp:100] Creating Layer conv5_3
I1128 05:24:26.138931 14094 net.cpp:434] conv5_3 <- conv5_2
I1128 05:24:26.138942 14094 net.cpp:408] conv5_3 -> conv5_3
I1128 05:24:26.156430 14094 net.cpp:150] Setting up conv5_3
I1128 05:24:26.156461 14094 net.cpp:157] Top shape: 1 512 36 44 (811008)
I1128 05:24:26.156466 14094 net.cpp:165] Memory required for data: 938832864
I1128 05:24:26.156476 14094 layer_factory.hpp:77] Creating layer relu5_3
I1128 05:24:26.156486 14094 net.cpp:100] Creating Layer relu5_3
I1128 05:24:26.156491 14094 net.cpp:434] relu5_3 <- conv5_3
I1128 05:24:26.156499 14094 net.cpp:395] relu5_3 -> conv5_3 (in-place)
I1128 05:24:26.157048 14094 net.cpp:150] Setting up relu5_3
I1128 05:24:26.157064 14094 net.cpp:157] Top shape: 1 512 36 44 (811008)
I1128 05:24:26.157069 14094 net.cpp:165] Memory required for data: 942076896
I1128 05:24:26.157074 14094 layer_factory.hpp:77] Creating layer pool5
I1128 05:24:26.157083 14094 net.cpp:100] Creating Layer pool5
I1128 05:24:26.157088 14094 net.cpp:434] pool5 <- conv5_3
I1128 05:24:26.157096 14094 net.cpp:408] pool5 -> pool5
I1128 05:24:26.157152 14094 net.cpp:150] Setting up pool5
I1128 05:24:26.157160 14094 net.cpp:157] Top shape: 1 512 18 22 (202752)
I1128 05:24:26.157165 14094 net.cpp:165] Memory required for data: 942887904
I1128 05:24:26.157169 14094 layer_factory.hpp:77] Creating layer fc6
I1128 05:24:26.157182 14094 net.cpp:100] Creating Layer fc6
I1128 05:24:26.157187 14094 net.cpp:434] fc6 <- pool5
I1128 05:24:26.157196 14094 net.cpp:408] fc6 -> fc6
I1128 05:24:26.886107 14094 net.cpp:150] Setting up fc6
I1128 05:24:26.886168 14094 net.cpp:157] Top shape: 1 4096 12 16 (786432)
I1128 05:24:26.886174 14094 net.cpp:165] Memory required for data: 946033632
I1128 05:24:26.886186 14094 layer_factory.hpp:77] Creating layer relu6
I1128 05:24:26.886214 14094 net.cpp:100] Creating Layer relu6
I1128 05:24:26.886220 14094 net.cpp:434] relu6 <- fc6
I1128 05:24:26.886231 14094 net.cpp:395] relu6 -> fc6 (in-place)
I1128 05:24:26.886620 14094 net.cpp:150] Setting up relu6
I1128 05:24:26.886634 14094 net.cpp:157] Top shape: 1 4096 12 16 (786432)
I1128 05:24:26.886639 14094 net.cpp:165] Memory required for data: 949179360
I1128 05:24:26.886644 14094 layer_factory.hpp:77] Creating layer drop6
I1128 05:24:26.886658 14094 net.cpp:100] Creating Layer drop6
I1128 05:24:26.886663 14094 net.cpp:434] drop6 <- fc6
I1128 05:24:26.886672 14094 net.cpp:395] drop6 -> fc6 (in-place)
I1128 05:24:26.886710 14094 net.cpp:150] Setting up drop6
I1128 05:24:26.886718 14094 net.cpp:157] Top shape: 1 4096 12 16 (786432)
I1128 05:24:26.886721 14094 net.cpp:165] Memory required for data: 952325088
I1128 05:24:26.886725 14094 layer_factory.hpp:77] Creating layer fc7
I1128 05:24:26.886741 14094 net.cpp:100] Creating Layer fc7
I1128 05:24:26.886746 14094 net.cpp:434] fc7 <- fc6
I1128 05:24:26.886752 14094 net.cpp:408] fc7 -> fc7
I1128 05:24:27.007014 14094 net.cpp:150] Setting up fc7
I1128 05:24:27.007067 14094 net.cpp:157] Top shape: 1 4096 12 16 (786432)
I1128 05:24:27.007072 14094 net.cpp:165] Memory required for data: 955470816
I1128 05:24:27.007084 14094 layer_factory.hpp:77] Creating layer relu7
I1128 05:24:27.007100 14094 net.cpp:100] Creating Layer relu7
I1128 05:24:27.007107 14094 net.cpp:434] relu7 <- fc7
I1128 05:24:27.007115 14094 net.cpp:395] relu7 -> fc7 (in-place)
I1128 05:24:27.007341 14094 net.cpp:150] Setting up relu7
I1128 05:24:27.007354 14094 net.cpp:157] Top shape: 1 4096 12 16 (786432)
I1128 05:24:27.007359 14094 net.cpp:165] Memory required for data: 958616544
I1128 05:24:27.007362 14094 layer_factory.hpp:77] Creating layer drop7
I1128 05:24:27.007374 14094 net.cpp:100] Creating Layer drop7
I1128 05:24:27.007378 14094 net.cpp:434] drop7 <- fc7
I1128 05:24:27.007385 14094 net.cpp:395] drop7 -> fc7 (in-place)
I1128 05:24:27.007426 14094 net.cpp:150] Setting up drop7
I1128 05:24:27.007434 14094 net.cpp:157] Top shape: 1 4096 12 16 (786432)
I1128 05:24:27.007438 14094 net.cpp:165] Memory required for data: 961762272
I1128 05:24:27.007442 14094 layer_factory.hpp:77] Creating layer score_fr
I1128 05:24:27.007458 14094 net.cpp:100] Creating Layer score_fr
I1128 05:24:27.007463 14094 net.cpp:434] score_fr <- fc7
I1128 05:24:27.007472 14094 net.cpp:408] score_fr -> score_fr
I1128 05:24:27.008863 14094 net.cpp:150] Setting up score_fr
I1128 05:24:27.008878 14094 net.cpp:157] Top shape: 1 6 12 16 (1152)
I1128 05:24:27.008883 14094 net.cpp:165] Memory required for data: 961766880
I1128 05:24:27.008891 14094 layer_factory.hpp:77] Creating layer upscore2
I1128 05:24:27.008908 14094 net.cpp:100] Creating Layer upscore2
I1128 05:24:27.008913 14094 net.cpp:434] upscore2 <- score_fr
I1128 05:24:27.008922 14094 net.cpp:408] upscore2 -> upscore2
I1128 05:24:27.009140 14094 net.cpp:150] Setting up upscore2
I1128 05:24:27.009150 14094 net.cpp:157] Top shape: 1 6 26 34 (5304)
I1128 05:24:27.009155 14094 net.cpp:165] Memory required for data: 961788096
I1128 05:24:27.009172 14094 layer_factory.hpp:77] Creating layer upscore2_upscore2_0_split
I1128 05:24:27.009181 14094 net.cpp:100] Creating Layer upscore2_upscore2_0_split
I1128 05:24:27.009186 14094 net.cpp:434] upscore2_upscore2_0_split <- upscore2
I1128 05:24:27.009192 14094 net.cpp:408] upscore2_upscore2_0_split -> upscore2_upscore2_0_split_0
I1128 05:24:27.009201 14094 net.cpp:408] upscore2_upscore2_0_split -> upscore2_upscore2_0_split_1
I1128 05:24:27.009243 14094 net.cpp:150] Setting up upscore2_upscore2_0_split
I1128 05:24:27.009250 14094 net.cpp:157] Top shape: 1 6 26 34 (5304)
I1128 05:24:27.009255 14094 net.cpp:157] Top shape: 1 6 26 34 (5304)
I1128 05:24:27.009259 14094 net.cpp:165] Memory required for data: 961830528
I1128 05:24:27.009263 14094 layer_factory.hpp:77] Creating layer scale_pool4
I1128 05:24:27.009274 14094 net.cpp:100] Creating Layer scale_pool4
I1128 05:24:27.009279 14094 net.cpp:434] scale_pool4 <- pool4_pool4_0_split_1
I1128 05:24:27.009302 14094 net.cpp:408] scale_pool4 -> scale_pool4
I1128 05:24:27.009418 14094 net.cpp:150] Setting up scale_pool4
I1128 05:24:27.009428 14094 net.cpp:157] Top shape: 1 512 36 44 (811008)
I1128 05:24:27.009433 14094 net.cpp:165] Memory required for data: 965074560
I1128 05:24:27.009438 14094 layer_factory.hpp:77] Creating layer score_pool4
I1128 05:24:27.009450 14094 net.cpp:100] Creating Layer score_pool4
I1128 05:24:27.009455 14094 net.cpp:434] score_pool4 <- scale_pool4
I1128 05:24:27.009464 14094 net.cpp:408] score_pool4 -> score_pool4
I1128 05:24:27.010746 14094 net.cpp:150] Setting up score_pool4
I1128 05:24:27.010761 14094 net.cpp:157] Top shape: 1 6 36 44 (9504)
I1128 05:24:27.010766 14094 net.cpp:165] Memory required for data: 965112576
I1128 05:24:27.010773 14094 layer_factory.hpp:77] Creating layer score_pool4c
I1128 05:24:27.010787 14094 net.cpp:100] Creating Layer score_pool4c
I1128 05:24:27.010792 14094 net.cpp:434] score_pool4c <- score_pool4
I1128 05:24:27.010798 14094 net.cpp:434] score_pool4c <- upscore2_upscore2_0_split_0
I1128 05:24:27.010805 14094 net.cpp:408] score_pool4c -> score_pool4c
I1128 05:24:27.010843 14094 net.cpp:150] Setting up score_pool4c
I1128 05:24:27.010851 14094 net.cpp:157] Top shape: 1 6 26 34 (5304)
I1128 05:24:27.010855 14094 net.cpp:165] Memory required for data: 965133792
I1128 05:24:27.010859 14094 layer_factory.hpp:77] Creating layer fuse_pool4
I1128 05:24:27.010874 14094 net.cpp:100] Creating Layer fuse_pool4
I1128 05:24:27.010879 14094 net.cpp:434] fuse_pool4 <- upscore2_upscore2_0_split_1
I1128 05:24:27.010884 14094 net.cpp:434] fuse_pool4 <- score_pool4c
I1128 05:24:27.010890 14094 net.cpp:408] fuse_pool4 -> fuse_pool4
I1128 05:24:27.010921 14094 net.cpp:150] Setting up fuse_pool4
I1128 05:24:27.010929 14094 net.cpp:157] Top shape: 1 6 26 34 (5304)
I1128 05:24:27.010932 14094 net.cpp:165] Memory required for data: 965155008
I1128 05:24:27.010937 14094 layer_factory.hpp:77] Creating layer upscore_pool4
I1128 05:24:27.010947 14094 net.cpp:100] Creating Layer upscore_pool4
I1128 05:24:27.010951 14094 net.cpp:434] upscore_pool4 <- fuse_pool4
I1128 05:24:27.010958 14094 net.cpp:408] upscore_pool4 -> upscore_pool4
I1128 05:24:27.011169 14094 net.cpp:150] Setting up upscore_pool4
I1128 05:24:27.011186 14094 net.cpp:157] Top shape: 1 6 54 70 (22680)
I1128 05:24:27.011191 14094 net.cpp:165] Memory required for data: 965245728
I1128 05:24:27.011198 14094 layer_factory.hpp:77] Creating layer upscore_pool4_upscore_pool4_0_split
I1128 05:24:27.011204 14094 net.cpp:100] Creating Layer upscore_pool4_upscore_pool4_0_split
I1128 05:24:27.011209 14094 net.cpp:434] upscore_pool4_upscore_pool4_0_split <- upscore_pool4
I1128 05:24:27.011215 14094 net.cpp:408] upscore_pool4_upscore_pool4_0_split -> upscore_pool4_upscore_pool4_0_split_0
I1128 05:24:27.011222 14094 net.cpp:408] upscore_pool4_upscore_pool4_0_split -> upscore_pool4_upscore_pool4_0_split_1
I1128 05:24:27.011265 14094 net.cpp:150] Setting up upscore_pool4_upscore_pool4_0_split
I1128 05:24:27.011272 14094 net.cpp:157] Top shape: 1 6 54 70 (22680)
I1128 05:24:27.011277 14094 net.cpp:157] Top shape: 1 6 54 70 (22680)
I1128 05:24:27.011281 14094 net.cpp:165] Memory required for data: 965427168
I1128 05:24:27.011284 14094 layer_factory.hpp:77] Creating layer scale_pool3
I1128 05:24:27.011292 14094 net.cpp:100] Creating Layer scale_pool3
I1128 05:24:27.011297 14094 net.cpp:434] scale_pool3 <- pool3_pool3_0_split_1
I1128 05:24:27.011306 14094 net.cpp:408] scale_pool3 -> scale_pool3
I1128 05:24:27.011411 14094 net.cpp:150] Setting up scale_pool3
I1128 05:24:27.011422 14094 net.cpp:157] Top shape: 1 256 72 88 (1622016)
I1128 05:24:27.011426 14094 net.cpp:165] Memory required for data: 971915232
I1128 05:24:27.011431 14094 layer_factory.hpp:77] Creating layer score_pool3
I1128 05:24:27.011441 14094 net.cpp:100] Creating Layer score_pool3
I1128 05:24:27.011446 14094 net.cpp:434] score_pool3 <- scale_pool3
I1128 05:24:27.011454 14094 net.cpp:408] score_pool3 -> score_pool3
I1128 05:24:27.012694 14094 net.cpp:150] Setting up score_pool3
I1128 05:24:27.012715 14094 net.cpp:157] Top shape: 1 6 72 88 (38016)
I1128 05:24:27.012720 14094 net.cpp:165] Memory required for data: 972067296
I1128 05:24:27.012728 14094 layer_factory.hpp:77] Creating layer score_pool3c
I1128 05:24:27.012737 14094 net.cpp:100] Creating Layer score_pool3c
I1128 05:24:27.012742 14094 net.cpp:434] score_pool3c <- score_pool3
I1128 05:24:27.012750 14094 net.cpp:434] score_pool3c <- upscore_pool4_upscore_pool4_0_split_0
I1128 05:24:27.012758 14094 net.cpp:408] score_pool3c -> score_pool3c
I1128 05:24:27.012794 14094 net.cpp:150] Setting up score_pool3c
I1128 05:24:27.012800 14094 net.cpp:157] Top shape: 1 6 54 70 (22680)
I1128 05:24:27.012804 14094 net.cpp:165] Memory required for data: 972158016
I1128 05:24:27.012809 14094 layer_factory.hpp:77] Creating layer fuse_pool3
I1128 05:24:27.012816 14094 net.cpp:100] Creating Layer fuse_pool3
I1128 05:24:27.012820 14094 net.cpp:434] fuse_pool3 <- upscore_pool4_upscore_pool4_0_split_1
I1128 05:24:27.012825 14094 net.cpp:434] fuse_pool3 <- score_pool3c
I1128 05:24:27.012833 14094 net.cpp:408] fuse_pool3 -> fuse_pool3
I1128 05:24:27.012861 14094 net.cpp:150] Setting up fuse_pool3
I1128 05:24:27.012869 14094 net.cpp:157] Top shape: 1 6 54 70 (22680)
I1128 05:24:27.012873 14094 net.cpp:165] Memory required for data: 972248736
I1128 05:24:27.012877 14094 layer_factory.hpp:77] Creating layer upscore8
I1128 05:24:27.012886 14094 net.cpp:100] Creating Layer upscore8
I1128 05:24:27.012890 14094 net.cpp:434] upscore8 <- fuse_pool3
I1128 05:24:27.012898 14094 net.cpp:408] upscore8 -> upscore8
I1128 05:24:27.013166 14094 net.cpp:150] Setting up upscore8
I1128 05:24:27.013175 14094 net.cpp:157] Top shape: 1 6 440 568 (1499520)
I1128 05:24:27.013180 14094 net.cpp:165] Memory required for data: 978246816
I1128 05:24:27.013185 14094 layer_factory.hpp:77] Creating layer score
I1128 05:24:27.013195 14094 net.cpp:100] Creating Layer score
I1128 05:24:27.013200 14094 net.cpp:434] score <- upscore8
I1128 05:24:27.013205 14094 net.cpp:434] score <- data_data_0_split_1
I1128 05:24:27.013211 14094 net.cpp:408] score -> score
I1128 05:24:27.013237 14094 net.cpp:150] Setting up score
I1128 05:24:27.013244 14094 net.cpp:157] Top shape: 1 6 375 500 (1125000)
I1128 05:24:27.013248 14094 net.cpp:165] Memory required for data: 982746816
I1128 05:24:27.013252 14094 layer_factory.hpp:77] Creating layer loss
I1128 05:24:27.013265 14094 net.cpp:100] Creating Layer loss
I1128 05:24:27.013270 14094 net.cpp:434] loss <- score
I1128 05:24:27.013274 14094 net.cpp:434] loss <- label
I1128 05:24:27.013283 14094 net.cpp:408] loss -> loss
I1128 05:24:27.013295 14094 layer_factory.hpp:77] Creating layer loss
…
I1128 05:24:27.016593 14094 net.cpp:283] Network initialization done.
I1128 05:24:27.017714 14094 solver.cpp:181] Creating test net (#0) specified by test_net file: val.prototxt
I1128 05:24:27.018084 14094 net.cpp:58] Initializing net from parameters: 
state {
  phase: TEST
}
layer {
  name: "data"
  type: "Python"
  top: "data"
  top: "label"
  python_param {
    module: "voc_layers"
    layer: "PartialVOCSegDataLayer"
    param_str: "{\'voc_dir\': \'../data/pascal-obfuscated/VOC2011\', \'seed\': 1337, \'split\': \'seg11valid5\', \'mean\': (104.00699, 116.66877, 122.67892)}"
  }
}
layer {
  name: "conv1_1"
  type: "Convolution"
  bottom: "data"
  top: "conv1_1"
  param {
    lr_mult: 1
    decay_mult: 1
  }
  param {
    lr_mult: 2
    decay_mult: 0
  }
  convolution_param {
    num_output: 64
    pad: 100
    kernel_size: 3
    stride: 1
    weight_filler {
      type: "xavier"
    }
  }
}
layer {
  name: "relu1_1"
  type: "ReLU"
  bottom: "conv1_1"
  top: "conv1_1"
}
layer {
  name: "conv1_2"
  type: "Convolution"
  bottom: "conv1_1"
  top: "conv1_2"
  param {
    lr_mult: 1
    decay_mult: 1
  }
  param {
    lr_mult: 2
    decay_mult: 0
  }
  convolution_param {
    num_output: 64
    pad: 1
    kernel_size: 3
    stride: 1
    weight_filler {
      type: "xavier"
    }
  }
}
layer {
  name: "relu1_2"
  type: "ReLU"
  bottom: "conv1_2"
  top: "conv1_2"
}
layer {
  name: "pool1"
  type: "Pooling"
  bottom: "conv1_2"
  top: "pool1"
  pooling_param {
    pool: MAX
    kernel_size: 2
    stride: 2
  }
}
layer {
  name: "conv2_1"
  type: "Convolution"
  bottom: "pool1"
  top: "conv2_1"
  param {
    lr_mult: 1
    decay_mult: 1
  }
  param {
    lr_mult: 2
    decay_mult: 0
  }
  convolution_param {
    num_output: 128
    pad: 1
    kernel_size: 3
    stride: 1
    weight_filler {
      type: "xavier"
    }
  }
}
layer {
  name: "relu2_1"
  type: "ReLU"
  bottom: "conv2_1"
  top: "conv2_1"
}
layer {
  name: "conv2_2"
  type: "Convolution"
  bottom: "conv2_1"
  top: "conv2_2"
  param {
    lr_mult: 1
    decay_mult: 1
  }
  param {
    lr_mult: 2
    decay_mult: 0
  }
  convolution_param {
    num_output: 128
    pad: 1
    kernel_size: 3
    stride: 1
    weight_filler {
      type: "xavier"
    }
  }
}
layer {
  name: "relu2_2"
  type: "ReLU"
  bottom: "conv2_2"
  top: "conv2_2"
}
layer {
  name: "pool2"
  type: "Pooling"
  bottom: "conv2_2"
  top: "pool2"
  pooling_param {
    pool: MAX
    kernel_size: 2
    stride: 2
  }
}
layer {
  name: "conv3_1"
  type: "Convolution"
  bottom: "pool2"
  top: "conv3_1"
  param {
    lr_mult: 1
    decay_mult: 1
  }
  param {
    lr_mult: 2
    decay_mult: 0
  }
  convolution_param {
    num_output: 256
    pad: 1
    kernel_size: 3
    stride: 1
    weight_filler {
      type: "xavier"
    }
  }
}
layer {
  name: "relu3_1"
  type: "ReLU"
  bottom: "conv3_1"
  top: "conv3_1"
}
layer {
  name: "conv3_2"
  type: "Convolution"
  bottom: "conv3_1"
  top: "conv3_2"
  param {
    lr_mult: 1
    decay_mult: 1
  }
  param {
    lr_mult: 2
    decay_mult: 0
  }
  convolution_param {
    num_output: 256
    pad: 1
    kernel_size: 3
    stride: 1
    weight_filler {
      type: "xavier"
    }
  }
}
layer {
  name: "relu3_2"
  type: "ReLU"
  bottom: "conv3_2"
  top: "conv3_2"
}
layer {
  name: "conv3_3"
  type: "Convolution"
  bottom: "conv3_2"
  top: "conv3_3"
  param {
    lr_mult: 1
    decay_mult: 1
  }
  param {
    lr_mult: 2
    decay_mult: 0
  }
  convolution_param {
    num_output: 256
    pad: 1
    kernel_size: 3
    stride: 1
    weight_filler {
      type: "xavier"
    }
  }
}
layer {
  name: "relu3_3"
  type: "ReLU"
  bottom: "conv3_3"
  top: "conv3_3"
}
layer {
  name: "pool3"
  type: "Pooling"
  bottom: "conv3_3"
  top: "pool3"
  pooling_param {
    pool: MAX
    kernel_size: 2
    stride: 2
  }
}
layer {
  name: "conv4_1"
  type: "Convolution"
  bottom: "pool3"
  top: "conv4_1"
  param {
    lr_mult: 1
    decay_mult: 1
  }
  param {
    lr_mult: 2
    decay_mult: 0
  }
  convolution_param {
    num_output: 512
    pad: 1
    kernel_size: 3
    stride: 1
    weight_filler {
      type: "xavier"
    }
  }
}
layer {
  name: "relu4_1"
  type: "ReLU"
  bottom: "conv4_1"
  top: "conv4_1"
}
layer {
  name: "conv4_2"
  type: "Convolution"
  bottom: "conv4_1"
  top: "conv4_2"
  param {
    lr_mult: 1
    decay_mult: 1
  }
  param {
    lr_mult: 2
    decay_mult: 0
  }
  convolution_param {
    num_output: 512
    pad: 1
    kernel_size: 3
    stride: 1
    weight_filler {
      type: "xavier"
    }
  }
}
layer {
  name: "relu4_2"
  type: "ReLU"
  bottom: "conv4_2"
  top: "conv4_2"
}
layer {
  name: "conv4_3"
  type: "Convolution"
  bottom: "conv4_2"
  top: "conv4_3"
  param {
    lr_mult: 1
    decay_mult: 1
  }
  param {
    lr_mult: 2
    decay_mult: 0
  }
  convolution_param {
    num_output: 512
    pad: 1
    kernel_size: 3
    stride: 1
    weight_filler {
      type: "xavier"
    }
  }
}
layer {
  name: "relu4_3"
  type: "ReLU"
  bottom: "conv4_3"
  top: "conv4_3"
}
layer {
  name: "pool4"
  type: "Pooling"
  bottom: "conv4_3"
  top: "pool4"
  pooling_param {
    pool: MAX
    kernel_size: 2
    stride: 2
  }
}
layer {
  name: "conv5_1"
  type: "Convolution"
  bottom: "pool4"
  top: "conv5_1"
  param {
    lr_mult: 1
    decay_mult: 1
  }
  param {
    lr_mult: 2
    decay_mult: 0
  }
  convolution_param {
    num_output: 512
    pad: 1
    kernel_size: 3
    stride: 1
    weight_filler {
      type: "xavier"
    }
  }
}
layer {
  name: "relu5_1"
  type: "ReLU"
  bottom: "conv5_1"
  top: "conv5_1"
}
layer {
  name: "conv5_2"
  type: "Convolution"
  bottom: "conv5_1"
  top: "conv5_2"
  param {
    lr_mult: 1
    decay_mult: 1
  }
  param {
    lr_mult: 2
    decay_mult: 0
  }
  convolution_param {
    num_output: 512
    pad: 1
    kernel_size: 3
    stride: 1
    weight_filler {
      type: "xavier"
    }
  }
}
layer {
  name: "relu5_2"
  type: "ReLU"
  bottom: "conv5_2"
  top: "conv5_2"
}
layer {
  name: "conv5_3"
  type: "Convolution"
  bottom: "conv5_2"
  top: "conv5_3"
  param {
    lr_mult: 1
    decay_mult: 1
  }
  param {
    lr_mult: 2
    decay_mult: 0
  }
  convolution_param {
    num_output: 512
    pad: 1
    kernel_size: 3
    stride: 1
    weight_filler {
      type: "xavier"
    }
  }
}
layer {
  name: "relu5_3"
  type: "ReLU"
  bottom: "conv5_3"
  top: "conv5_3"
}
layer {
  name: "pool5"
  type: "Pooling"
  bottom: "conv5_3"
  top: "pool5"
  pooling_param {
    pool: MAX
    kernel_size: 2
    stride: 2
  }
}
layer {
  name: "fc6"
  type: "Convolution"
  bottom: "pool5"
  top: "fc6"
  param {
    lr_mult: 1
    decay_mult: 1
  }
  param {
    lr_mult: 2
    decay_mult: 0
  }
  convolution_param {
    num_output: 4096
    pad: 0
    kernel_size: 7
    stride: 1
    weight_filler {
      type: "xavier"
    }
  }
}
layer {
  name: "relu6"
  type: "ReLU"
  bottom: "fc6"
  top: "fc6"
}
layer {
  name: "drop6"
  type: "Dropout"
  bottom: "fc6"
  top: "fc6"
  dropout_param {
    dropout_ratio: 0.5
  }
}
layer {
  name: "fc7"
  type: "Convolution"
  bottom: "fc6"
  top: "fc7"
  param {
    lr_mult: 1
    decay_mult: 1
  }
  param {
    lr_mult: 2
    decay_mult: 0
  }
  convolution_param {
    num_output: 4096
    pad: 0
    kernel_size: 1
    stride: 1
    weight_filler {
      type: "xavier"
    }
  }
}
layer {
  name: "relu7"
  type: "ReLU"
  bottom: "fc7"
  top: "fc7"
}
layer {
  name: "drop7"
  type: "Dropout"
  bottom: "fc7"
  top: "fc7"
  dropout_param {
    dropout_ratio: 0.5
  }
}
layer {
  name: "score_fr"
  type: "Convolution"
  bottom: "fc7"
  top: "score_fr"
  param {
    lr_mult: 1
    decay_mult: 1
  }
  param {
    lr_mult: 2
    decay_mult: 0
  }
  convolution_param {
    num_output: 6
    pad: 0
    kernel_size: 1
    weight_filler {
      type: "xavier"
    }
  }
}
layer {
  name: "upscore2"
  type: "Deconvolution"
  bottom: "score_fr"
  top: "upscore2"
  param {
    lr_mult: 0
  }
  convolution_param {
    num_output: 6
    bias_term: false
    kernel_size: 4
    stride: 2
    weight_filler {
      type: "xavier"
    }
  }
}
layer {
  name: "scale_pool4"
  type: "Scale"
  bottom: "pool4"
  top: "scale_pool4"
  param {
    lr_mult: 0
  }
  scale_param {
    filler {
      type: "constant"
      value: 0.01
    }
  }
}
layer {
  name: "score_pool4"
  type: "Convolution"
  bottom: "scale_pool4"
  top: "score_pool4"
  param {
    lr_mult: 1
    decay_mult: 1
  }
  param {
    lr_mult: 2
    decay_mult: 0
  }
  convolution_param {
    num_output: 6
    pad: 0
    kernel_size: 1
    weight_filler {
      type: "xavier"
    }
  }
}
layer {
  name: "score_pool4c"
  type: "Crop"
  bottom: "score_pool4"
  bottom: "upscore2"
  top: "score_pool4c"
  crop_param {
    axis: 2
    offset: 5
  }
}
layer {
  name: "fuse_pool4"
  type: "Eltwise"
  bottom: "upscore2"
  bottom: "score_pool4c"
  top: "fuse_pool4"
  eltwise_param {
    operation: SUM
  }
}
layer {
  name: "upscore_pool4"
  type: "Deconvolution"
  bottom: "fuse_pool4"
  top: "upscore_pool4"
  param {
    lr_mult: 0
  }
  convolution_param {
    num_output: 6
    bias_term: false
    kernel_size: 4
    stride: 2
    weight_filler {
      type: "xavier"
    }
  }
}
layer {
  name: "scale_pool3"
  type: "Scale"
  bottom: "pool3"
  top: "scale_pool3"
  param {
    lr_mult: 0
  }
  scale_param {
    filler {
      type: "constant"
      value: 0.0001
    }
  }
}
layer {
  name: "score_pool3"
  type: "Convolution"
  bottom: "scale_pool3"
  top: "score_pool3"
  param {
    lr_mult: 1
    decay_mult: 1
  }
  param {
    lr_mult: 2
    decay_mult: 0
  }
  convolution_param {
    num_output: 6
    pad: 0
    kernel_size: 1
    weight_filler {
      type: "xavier"
    }
  }
}
layer {
  name: "score_pool3c"
  type: "Crop"
  bottom: "score_pool3"
  bottom: "upscore_pool4"
  top: "score_pool3c"
  crop_param {
    axis: 2
    offset: 9
  }
}
layer {
  name: "fuse_pool3"
  type: "Eltwise"
  bottom: "upscore_pool4"
  bottom: "score_pool3c"
  top: "fuse_pool3"
  eltwise_param {
    operation: SUM
  }
}
layer {
  name: "upscore8"
  type: "Deconvolution"
  bottom: "fuse_pool3"
  top: "upscore8"
  param {
    lr_mult: 0
  }
  convolution_param {
    num_output: 6
    bias_term: false
    kernel_size: 16
    stride: 8
    weight_filler {
      type: "xavier"
    }
  }
}
layer {
  name: "score"
  type: "Crop"
  bottom: "upscore8"
  bottom: "data"
  top: "score"
  crop_param {
    axis: 2
    offset: 31
  }
}
layer {
  name: "loss"
  type: "SoftmaxWithLoss"
  bottom: "score"
  bottom: "label"
  top: "loss"
  loss_param {
    ignore_label: 255
    normalize: false
  }
}
I1128 05:24:27.018314 14094 layer_factory.hpp:77] Creating layer data
I1128 05:24:27.018493 14094 net.cpp:100] Creating Layer data
I1128 05:24:27.018503 14094 net.cpp:408] data -> data
I1128 05:24:27.018512 14094 net.cpp:408] data -> label
I1128 05:24:27.047727 14094 net.cpp:150] Setting up data
I1128 05:24:27.047750 14094 net.cpp:157] Top shape: 1 3 335 500 (502500)
I1128 05:24:27.047756 14094 net.cpp:157] Top shape: 1 1 335 500 (167500)
I1128 05:24:27.047761 14094 net.cpp:165] Memory required for data: 2680000
I1128 05:24:27.047766 14094 layer_factory.hpp:77] Creating layer data_data_0_split
I1128 05:24:27.047776 14094 net.cpp:100] Creating Layer data_data_0_split
I1128 05:24:27.047781 14094 net.cpp:434] data_data_0_split <- data
I1128 05:24:27.047788 14094 net.cpp:408] data_data_0_split -> data_data_0_split_0
I1128 05:24:27.047798 14094 net.cpp:408] data_data_0_split -> data_data_0_split_1
I1128 05:24:27.047840 14094 net.cpp:150] Setting up data_data_0_split
I1128 05:24:27.047849 14094 net.cpp:157] Top shape: 1 3 335 500 (502500)
I1128 05:24:27.047853 14094 net.cpp:157] Top shape: 1 3 335 500 (502500)
I1128 05:24:27.047857 14094 net.cpp:165] Memory required for data: 6700000
I1128 05:24:27.047863 14094 layer_factory.hpp:77] Creating layer conv1_1
I1128 05:24:27.047873 14094 net.cpp:100] Creating Layer conv1_1
I1128 05:24:27.047878 14094 net.cpp:434] conv1_1 <- data_data_0_split_0
I1128 05:24:27.047884 14094 net.cpp:408] conv1_1 -> conv1_1
I1128 05:24:27.050096 14094 net.cpp:150] Setting up conv1_1
I1128 05:24:27.050114 14094 net.cpp:157] Top shape: 1 64 533 698 (23810176)
I1128 05:24:27.050119 14094 net.cpp:165] Memory required for data: 101940704
I1128 05:24:27.050132 14094 layer_factory.hpp:77] Creating layer relu1_1
I1128 05:24:27.050140 14094 net.cpp:100] Creating Layer relu1_1
I1128 05:24:27.050145 14094 net.cpp:434] relu1_1 <- conv1_1
I1128 05:24:27.050151 14094 net.cpp:395] relu1_1 -> conv1_1 (in-place)
I1128 05:24:27.050346 14094 net.cpp:150] Setting up relu1_1
I1128 05:24:27.050359 14094 net.cpp:157] Top shape: 1 64 533 698 (23810176)
I1128 05:24:27.050364 14094 net.cpp:165] Memory required for data: 197181408
I1128 05:24:27.050369 14094 layer_factory.hpp:77] Creating layer conv1_2
I1128 05:24:27.050379 14094 net.cpp:100] Creating Layer conv1_2
I1128 05:24:27.050384 14094 net.cpp:434] conv1_2 <- conv1_1
I1128 05:24:27.050391 14094 net.cpp:408] conv1_2 -> conv1_2
I1128 05:24:27.052728 14094 net.cpp:150] Setting up conv1_2
I1128 05:24:27.052747 14094 net.cpp:157] Top shape: 1 64 533 698 (23810176)
I1128 05:24:27.052752 14094 net.cpp:165] Memory required for data: 292422112
I1128 05:24:27.052762 14094 layer_factory.hpp:77] Creating layer relu1_2
I1128 05:24:27.052772 14094 net.cpp:100] Creating Layer relu1_2
I1128 05:24:27.052777 14094 net.cpp:434] relu1_2 <- conv1_2
I1128 05:24:27.052783 14094 net.cpp:395] relu1_2 -> conv1_2 (in-place)
I1128 05:24:27.053154 14094 net.cpp:150] Setting up relu1_2
I1128 05:24:27.053169 14094 net.cpp:157] Top shape: 1 64 533 698 (23810176)
I1128 05:24:27.053174 14094 net.cpp:165] Memory required for data: 387662816
I1128 05:24:27.053179 14094 layer_factory.hpp:77] Creating layer pool1
I1128 05:24:27.053187 14094 net.cpp:100] Creating Layer pool1
I1128 05:24:27.053192 14094 net.cpp:434] pool1 <- conv1_2
I1128 05:24:27.053200 14094 net.cpp:408] pool1 -> pool1
I1128 05:24:27.053252 14094 net.cpp:150] Setting up pool1
I1128 05:24:27.053261 14094 net.cpp:157] Top shape: 1 64 267 349 (5963712)
I1128 05:24:27.053266 14094 net.cpp:165] Memory required for data: 411517664
I1128 05:24:27.053269 14094 layer_factory.hpp:77] Creating layer conv2_1
I1128 05:24:27.053280 14094 net.cpp:100] Creating Layer conv2_1
I1128 05:24:27.053285 14094 net.cpp:434] conv2_1 <- pool1
I1128 05:24:27.053292 14094 net.cpp:408] conv2_1 -> conv2_1
I1128 05:24:27.055534 14094 net.cpp:150] Setting up conv2_1
I1128 05:24:27.055552 14094 net.cpp:157] Top shape: 1 128 267 349 (11927424)
I1128 05:24:27.055557 14094 net.cpp:165] Memory required for data: 459227360
I1128 05:24:27.055567 14094 layer_factory.hpp:77] Creating layer relu2_1
I1128 05:24:27.055577 14094 net.cpp:100] Creating Layer relu2_1
I1128 05:24:27.055582 14094 net.cpp:434] relu2_1 <- conv2_1
I1128 05:24:27.055588 14094 net.cpp:395] relu2_1 -> conv2_1 (in-place)
I1128 05:24:27.055977 14094 net.cpp:150] Setting up relu2_1
I1128 05:24:27.055991 14094 net.cpp:157] Top shape: 1 128 267 349 (11927424)
I1128 05:24:27.055996 14094 net.cpp:165] Memory required for data: 506937056
I1128 05:24:27.056001 14094 layer_factory.hpp:77] Creating layer conv2_2
I1128 05:24:27.056012 14094 net.cpp:100] Creating Layer conv2_2
I1128 05:24:27.056017 14094 net.cpp:434] conv2_2 <- conv2_1
I1128 05:24:27.056025 14094 net.cpp:408] conv2_2 -> conv2_2
I1128 05:24:27.058617 14094 net.cpp:150] Setting up conv2_2
I1128 05:24:27.058634 14094 net.cpp:157] Top shape: 1 128 267 349 (11927424)
I1128 05:24:27.058640 14094 net.cpp:165] Memory required for data: 554646752
I1128 05:24:27.058647 14094 layer_factory.hpp:77] Creating layer relu2_2
I1128 05:24:27.058655 14094 net.cpp:100] Creating Layer relu2_2
I1128 05:24:27.058660 14094 net.cpp:434] relu2_2 <- conv2_2
I1128 05:24:27.058667 14094 net.cpp:395] relu2_2 -> conv2_2 (in-place)
I1128 05:24:27.058861 14094 net.cpp:150] Setting up relu2_2
I1128 05:24:27.058872 14094 net.cpp:157] Top shape: 1 128 267 349 (11927424)
I1128 05:24:27.058876 14094 net.cpp:165] Memory required for data: 602356448
I1128 05:24:27.058881 14094 layer_factory.hpp:77] Creating layer pool2
I1128 05:24:27.058889 14094 net.cpp:100] Creating Layer pool2
I1128 05:24:27.058894 14094 net.cpp:434] pool2 <- conv2_2
I1128 05:24:27.058900 14094 net.cpp:408] pool2 -> pool2
I1128 05:24:27.058953 14094 net.cpp:150] Setting up pool2
I1128 05:24:27.058961 14094 net.cpp:157] Top shape: 1 128 134 175 (3001600)
I1128 05:24:27.058965 14094 net.cpp:165] Memory required for data: 614362848
I1128 05:24:27.058969 14094 layer_factory.hpp:77] Creating layer conv3_1
I1128 05:24:27.058980 14094 net.cpp:100] Creating Layer conv3_1
I1128 05:24:27.058984 14094 net.cpp:434] conv3_1 <- pool2
I1128 05:24:27.058991 14094 net.cpp:408] conv3_1 -> conv3_1
I1128 05:24:27.062331 14094 net.cpp:150] Setting up conv3_1
I1128 05:24:27.062347 14094 net.cpp:157] Top shape: 1 256 134 175 (6003200)
I1128 05:24:27.062352 14094 net.cpp:165] Memory required for data: 638375648
I1128 05:24:27.062364 14094 layer_factory.hpp:77] Creating layer relu3_1
I1128 05:24:27.062381 14094 net.cpp:100] Creating Layer relu3_1
I1128 05:24:27.062386 14094 net.cpp:434] relu3_1 <- conv3_1
I1128 05:24:27.062392 14094 net.cpp:395] relu3_1 -> conv3_1 (in-place)
I1128 05:24:27.062759 14094 net.cpp:150] Setting up relu3_1
I1128 05:24:27.062773 14094 net.cpp:157] Top shape: 1 256 134 175 (6003200)
I1128 05:24:27.062778 14094 net.cpp:165] Memory required for data: 662388448
I1128 05:24:27.062783 14094 layer_factory.hpp:77] Creating layer conv3_2
I1128 05:24:27.062795 14094 net.cpp:100] Creating Layer conv3_2
I1128 05:24:27.062800 14094 net.cpp:434] conv3_2 <- conv3_1
I1128 05:24:27.062808 14094 net.cpp:408] conv3_2 -> conv3_2
I1128 05:24:27.068133 14094 net.cpp:150] Setting up conv3_2
I1128 05:24:27.068151 14094 net.cpp:157] Top shape: 1 256 134 175 (6003200)
I1128 05:24:27.068156 14094 net.cpp:165] Memory required for data: 686401248
I1128 05:24:27.068166 14094 layer_factory.hpp:77] Creating layer relu3_2
I1128 05:24:27.068173 14094 net.cpp:100] Creating Layer relu3_2
I1128 05:24:27.068178 14094 net.cpp:434] relu3_2 <- conv3_2
I1128 05:24:27.068186 14094 net.cpp:395] relu3_2 -> conv3_2 (in-place)
I1128 05:24:27.068375 14094 net.cpp:150] Setting up relu3_2
I1128 05:24:27.068387 14094 net.cpp:157] Top shape: 1 256 134 175 (6003200)
I1128 05:24:27.068392 14094 net.cpp:165] Memory required for data: 710414048
I1128 05:24:27.068395 14094 layer_factory.hpp:77] Creating layer conv3_3
I1128 05:24:27.068409 14094 net.cpp:100] Creating Layer conv3_3
I1128 05:24:27.068414 14094 net.cpp:434] conv3_3 <- conv3_2
I1128 05:24:27.068423 14094 net.cpp:408] conv3_3 -> conv3_3
I1128 05:24:27.073741 14094 net.cpp:150] Setting up conv3_3
I1128 05:24:27.073758 14094 net.cpp:157] Top shape: 1 256 134 175 (6003200)
I1128 05:24:27.073763 14094 net.cpp:165] Memory required for data: 734426848
I1128 05:24:27.073771 14094 layer_factory.hpp:77] Creating layer relu3_3
I1128 05:24:27.073781 14094 net.cpp:100] Creating Layer relu3_3
I1128 05:24:27.073786 14094 net.cpp:434] relu3_3 <- conv3_3
I1128 05:24:27.073792 14094 net.cpp:395] relu3_3 -> conv3_3 (in-place)
I1128 05:24:27.073983 14094 net.cpp:150] Setting up relu3_3
I1128 05:24:27.073995 14094 net.cpp:157] Top shape: 1 256 134 175 (6003200)
I1128 05:24:27.073999 14094 net.cpp:165] Memory required for data: 758439648
I1128 05:24:27.074004 14094 layer_factory.hpp:77] Creating layer pool3
I1128 05:24:27.074012 14094 net.cpp:100] Creating Layer pool3
I1128 05:24:27.074018 14094 net.cpp:434] pool3 <- conv3_3
I1128 05:24:27.074025 14094 net.cpp:408] pool3 -> pool3
I1128 05:24:27.074077 14094 net.cpp:150] Setting up pool3
I1128 05:24:27.074085 14094 net.cpp:157] Top shape: 1 256 67 88 (1509376)
I1128 05:24:27.074090 14094 net.cpp:165] Memory required for data: 764477152
I1128 05:24:27.074095 14094 layer_factory.hpp:77] Creating layer pool3_pool3_0_split
I1128 05:24:27.074101 14094 net.cpp:100] Creating Layer pool3_pool3_0_split
I1128 05:24:27.074106 14094 net.cpp:434] pool3_pool3_0_split <- pool3
I1128 05:24:27.074112 14094 net.cpp:408] pool3_pool3_0_split -> pool3_pool3_0_split_0
I1128 05:24:27.074120 14094 net.cpp:408] pool3_pool3_0_split -> pool3_pool3_0_split_1
I1128 05:24:27.074162 14094 net.cpp:150] Setting up pool3_pool3_0_split
I1128 05:24:27.074169 14094 net.cpp:157] Top shape: 1 256 67 88 (1509376)
I1128 05:24:27.074174 14094 net.cpp:157] Top shape: 1 256 67 88 (1509376)
I1128 05:24:27.074178 14094 net.cpp:165] Memory required for data: 776552160
I1128 05:24:27.074182 14094 layer_factory.hpp:77] Creating layer conv4_1
I1128 05:24:27.074193 14094 net.cpp:100] Creating Layer conv4_1
I1128 05:24:27.074198 14094 net.cpp:434] conv4_1 <- pool3_pool3_0_split_0
I1128 05:24:27.074206 14094 net.cpp:408] conv4_1 -> conv4_1
I1128 05:24:27.083537 14094 net.cpp:150] Setting up conv4_1
I1128 05:24:27.083557 14094 net.cpp:157] Top shape: 1 512 67 88 (3018752)
I1128 05:24:27.083562 14094 net.cpp:165] Memory required for data: 788627168
I1128 05:24:27.083570 14094 layer_factory.hpp:77] Creating layer relu4_1
I1128 05:24:27.083578 14094 net.cpp:100] Creating Layer relu4_1
I1128 05:24:27.083585 14094 net.cpp:434] relu4_1 <- conv4_1
I1128 05:24:27.083598 14094 net.cpp:395] relu4_1 -> conv4_1 (in-place)
I1128 05:24:27.083977 14094 net.cpp:150] Setting up relu4_1
I1128 05:24:27.083992 14094 net.cpp:157] Top shape: 1 512 67 88 (3018752)
I1128 05:24:27.083995 14094 net.cpp:165] Memory required for data: 800702176
I1128 05:24:27.084000 14094 layer_factory.hpp:77] Creating layer conv4_2
I1128 05:24:27.084013 14094 net.cpp:100] Creating Layer conv4_2
I1128 05:24:27.084018 14094 net.cpp:434] conv4_2 <- conv4_1
I1128 05:24:27.084028 14094 net.cpp:408] conv4_2 -> conv4_2
I1128 05:24:27.101410 14094 net.cpp:150] Setting up conv4_2
I1128 05:24:27.101440 14094 net.cpp:157] Top shape: 1 512 67 88 (3018752)
I1128 05:24:27.101444 14094 net.cpp:165] Memory required for data: 812777184
I1128 05:24:27.101461 14094 layer_factory.hpp:77] Creating layer relu4_2
I1128 05:24:27.101470 14094 net.cpp:100] Creating Layer relu4_2
I1128 05:24:27.101476 14094 net.cpp:434] relu4_2 <- conv4_2
I1128 05:24:27.101485 14094 net.cpp:395] relu4_2 -> conv4_2 (in-place)
I1128 05:24:27.101685 14094 net.cpp:150] Setting up relu4_2
I1128 05:24:27.101696 14094 net.cpp:157] Top shape: 1 512 67 88 (3018752)
I1128 05:24:27.101699 14094 net.cpp:165] Memory required for data: 824852192
I1128 05:24:27.101704 14094 layer_factory.hpp:77] Creating layer conv4_3
I1128 05:24:27.101716 14094 net.cpp:100] Creating Layer conv4_3
I1128 05:24:27.101722 14094 net.cpp:434] conv4_3 <- conv4_2
I1128 05:24:27.101730 14094 net.cpp:408] conv4_3 -> conv4_3
I1128 05:24:27.119220 14094 net.cpp:150] Setting up conv4_3
I1128 05:24:27.119247 14094 net.cpp:157] Top shape: 1 512 67 88 (3018752)
I1128 05:24:27.119253 14094 net.cpp:165] Memory required for data: 836927200
I1128 05:24:27.119263 14094 layer_factory.hpp:77] Creating layer relu4_3
I1128 05:24:27.119273 14094 net.cpp:100] Creating Layer relu4_3
I1128 05:24:27.119279 14094 net.cpp:434] relu4_3 <- conv4_3
I1128 05:24:27.119287 14094 net.cpp:395] relu4_3 -> conv4_3 (in-place)
I1128 05:24:27.119498 14094 net.cpp:150] Setting up relu4_3
I1128 05:24:27.119510 14094 net.cpp:157] Top shape: 1 512 67 88 (3018752)
I1128 05:24:27.119514 14094 net.cpp:165] Memory required for data: 849002208
I1128 05:24:27.119519 14094 layer_factory.hpp:77] Creating layer pool4
I1128 05:24:27.119529 14094 net.cpp:100] Creating Layer pool4
I1128 05:24:27.119534 14094 net.cpp:434] pool4 <- conv4_3
I1128 05:24:27.119541 14094 net.cpp:408] pool4 -> pool4
I1128 05:24:27.119597 14094 net.cpp:150] Setting up pool4
I1128 05:24:27.119606 14094 net.cpp:157] Top shape: 1 512 34 44 (765952)
I1128 05:24:27.119609 14094 net.cpp:165] Memory required for data: 852066016
I1128 05:24:27.119613 14094 layer_factory.hpp:77] Creating layer pool4_pool4_0_split
I1128 05:24:27.119622 14094 net.cpp:100] Creating Layer pool4_pool4_0_split
I1128 05:24:27.119626 14094 net.cpp:434] pool4_pool4_0_split <- pool4
I1128 05:24:27.119633 14094 net.cpp:408] pool4_pool4_0_split -> pool4_pool4_0_split_0
I1128 05:24:27.119640 14094 net.cpp:408] pool4_pool4_0_split -> pool4_pool4_0_split_1
I1128 05:24:27.119684 14094 net.cpp:150] Setting up pool4_pool4_0_split
I1128 05:24:27.119693 14094 net.cpp:157] Top shape: 1 512 34 44 (765952)
I1128 05:24:27.119698 14094 net.cpp:157] Top shape: 1 512 34 44 (765952)
I1128 05:24:27.119701 14094 net.cpp:165] Memory required for data: 858193632
I1128 05:24:27.119705 14094 layer_factory.hpp:77] Creating layer conv5_1
I1128 05:24:27.119717 14094 net.cpp:100] Creating Layer conv5_1
I1128 05:24:27.119722 14094 net.cpp:434] conv5_1 <- pool4_pool4_0_split_0
I1128 05:24:27.119730 14094 net.cpp:408] conv5_1 -> conv5_1
I1128 05:24:27.137038 14094 net.cpp:150] Setting up conv5_1
I1128 05:24:27.137069 14094 net.cpp:157] Top shape: 1 512 34 44 (765952)
I1128 05:24:27.137074 14094 net.cpp:165] Memory required for data: 861257440
I1128 05:24:27.137084 14094 layer_factory.hpp:77] Creating layer relu5_1
I1128 05:24:27.137094 14094 net.cpp:100] Creating Layer relu5_1
I1128 05:24:27.137099 14094 net.cpp:434] relu5_1 <- conv5_1
I1128 05:24:27.137107 14094 net.cpp:395] relu5_1 -> conv5_1 (in-place)
I1128 05:24:27.137500 14094 net.cpp:150] Setting up relu5_1
I1128 05:24:27.137513 14094 net.cpp:157] Top shape: 1 512 34 44 (765952)
I1128 05:24:27.137518 14094 net.cpp:165] Memory required for data: 864321248
I1128 05:24:27.137523 14094 layer_factory.hpp:77] Creating layer conv5_2
I1128 05:24:27.137537 14094 net.cpp:100] Creating Layer conv5_2
I1128 05:24:27.137542 14094 net.cpp:434] conv5_2 <- conv5_1
I1128 05:24:27.137550 14094 net.cpp:408] conv5_2 -> conv5_2
I1128 05:24:27.154899 14094 net.cpp:150] Setting up conv5_2
I1128 05:24:27.154924 14094 net.cpp:157] Top shape: 1 512 34 44 (765952)
I1128 05:24:27.154929 14094 net.cpp:165] Memory required for data: 867385056
I1128 05:24:27.154939 14094 layer_factory.hpp:77] Creating layer relu5_2
I1128 05:24:27.154949 14094 net.cpp:100] Creating Layer relu5_2
I1128 05:24:27.154954 14094 net.cpp:434] relu5_2 <- conv5_2
I1128 05:24:27.154963 14094 net.cpp:395] relu5_2 -> conv5_2 (in-place)
I1128 05:24:27.155163 14094 net.cpp:150] Setting up relu5_2
I1128 05:24:27.155174 14094 net.cpp:157] Top shape: 1 512 34 44 (765952)
I1128 05:24:27.155184 14094 net.cpp:165] Memory required for data: 870448864
I1128 05:24:27.155189 14094 layer_factory.hpp:77] Creating layer conv5_3
I1128 05:24:27.155206 14094 net.cpp:100] Creating Layer conv5_3
I1128 05:24:27.155211 14094 net.cpp:434] conv5_3 <- conv5_2
I1128 05:24:27.155220 14094 net.cpp:408] conv5_3 -> conv5_3
I1128 05:24:27.172488 14094 net.cpp:150] Setting up conv5_3
I1128 05:24:27.172516 14094 net.cpp:157] Top shape: 1 512 34 44 (765952)
I1128 05:24:27.172521 14094 net.cpp:165] Memory required for data: 873512672
I1128 05:24:27.172531 14094 layer_factory.hpp:77] Creating layer relu5_3
I1128 05:24:27.172543 14094 net.cpp:100] Creating Layer relu5_3
I1128 05:24:27.172547 14094 net.cpp:434] relu5_3 <- conv5_3
I1128 05:24:27.172555 14094 net.cpp:395] relu5_3 -> conv5_3 (in-place)
I1128 05:24:27.172754 14094 net.cpp:150] Setting up relu5_3
I1128 05:24:27.172765 14094 net.cpp:157] Top shape: 1 512 34 44 (765952)
I1128 05:24:27.172768 14094 net.cpp:165] Memory required for data: 876576480
I1128 05:24:27.172773 14094 layer_factory.hpp:77] Creating layer pool5
I1128 05:24:27.172783 14094 net.cpp:100] Creating Layer pool5
I1128 05:24:27.172787 14094 net.cpp:434] pool5 <- conv5_3
I1128 05:24:27.172796 14094 net.cpp:408] pool5 -> pool5
I1128 05:24:27.172853 14094 net.cpp:150] Setting up pool5
I1128 05:24:27.172863 14094 net.cpp:157] Top shape: 1 512 17 22 (191488)
I1128 05:24:27.172865 14094 net.cpp:165] Memory required for data: 877342432
I1128 05:24:27.172870 14094 layer_factory.hpp:77] Creating layer fc6
I1128 05:24:27.172881 14094 net.cpp:100] Creating Layer fc6
I1128 05:24:27.172886 14094 net.cpp:434] fc6 <- pool5
I1128 05:24:27.172894 14094 net.cpp:408] fc6 -> fc6
I1128 05:24:27.895808 14094 net.cpp:150] Setting up fc6
I1128 05:24:27.895864 14094 net.cpp:157] Top shape: 1 4096 11 16 (720896)
I1128 05:24:27.895869 14094 net.cpp:165] Memory required for data: 880226016
I1128 05:24:27.895880 14094 layer_factory.hpp:77] Creating layer relu6
I1128 05:24:27.895895 14094 net.cpp:100] Creating Layer relu6
I1128 05:24:27.895901 14094 net.cpp:434] relu6 <- fc6
I1128 05:24:27.895910 14094 net.cpp:395] relu6 -> fc6 (in-place)
I1128 05:24:27.896304 14094 net.cpp:150] Setting up relu6
I1128 05:24:27.896318 14094 net.cpp:157] Top shape: 1 4096 11 16 (720896)
I1128 05:24:27.896323 14094 net.cpp:165] Memory required for data: 883109600
I1128 05:24:27.896328 14094 layer_factory.hpp:77] Creating layer drop6
I1128 05:24:27.896338 14094 net.cpp:100] Creating Layer drop6
I1128 05:24:27.896343 14094 net.cpp:434] drop6 <- fc6
I1128 05:24:27.896350 14094 net.cpp:395] drop6 -> fc6 (in-place)
I1128 05:24:27.896392 14094 net.cpp:150] Setting up drop6
I1128 05:24:27.896400 14094 net.cpp:157] Top shape: 1 4096 11 16 (720896)
I1128 05:24:27.896404 14094 net.cpp:165] Memory required for data: 885993184
I1128 05:24:27.896409 14094 layer_factory.hpp:77] Creating layer fc7
I1128 05:24:27.896421 14094 net.cpp:100] Creating Layer fc7
I1128 05:24:27.896426 14094 net.cpp:434] fc7 <- fc6
I1128 05:24:27.896456 14094 net.cpp:408] fc7 -> fc7
I1128 05:24:28.017735 14094 net.cpp:150] Setting up fc7
I1128 05:24:28.017793 14094 net.cpp:157] Top shape: 1 4096 11 16 (720896)
I1128 05:24:28.017809 14094 net.cpp:165] Memory required for data: 888876768
I1128 05:24:28.017822 14094 layer_factory.hpp:77] Creating layer relu7
I1128 05:24:28.017837 14094 net.cpp:100] Creating Layer relu7
I1128 05:24:28.017843 14094 net.cpp:434] relu7 <- fc7
I1128 05:24:28.017853 14094 net.cpp:395] relu7 -> fc7 (in-place)
I1128 05:24:28.018059 14094 net.cpp:150] Setting up relu7
I1128 05:24:28.018070 14094 net.cpp:157] Top shape: 1 4096 11 16 (720896)
I1128 05:24:28.018075 14094 net.cpp:165] Memory required for data: 891760352
I1128 05:24:28.018079 14094 layer_factory.hpp:77] Creating layer drop7
I1128 05:24:28.018090 14094 net.cpp:100] Creating Layer drop7
I1128 05:24:28.018095 14094 net.cpp:434] drop7 <- fc7
I1128 05:24:28.018101 14094 net.cpp:395] drop7 -> fc7 (in-place)
I1128 05:24:28.018143 14094 net.cpp:150] Setting up drop7
I1128 05:24:28.018151 14094 net.cpp:157] Top shape: 1 4096 11 16 (720896)
I1128 05:24:28.018156 14094 net.cpp:165] Memory required for data: 894643936
I1128 05:24:28.018160 14094 layer_factory.hpp:77] Creating layer score_fr
I1128 05:24:28.018172 14094 net.cpp:100] Creating Layer score_fr
I1128 05:24:28.018177 14094 net.cpp:434] score_fr <- fc7
I1128 05:24:28.018185 14094 net.cpp:408] score_fr -> score_fr
I1128 05:24:28.020462 14094 net.cpp:150] Setting up score_fr
I1128 05:24:28.020478 14094 net.cpp:157] Top shape: 1 6 11 16 (1056)
I1128 05:24:28.020483 14094 net.cpp:165] Memory required for data: 894648160
I1128 05:24:28.020493 14094 layer_factory.hpp:77] Creating layer upscore2
I1128 05:24:28.020504 14094 net.cpp:100] Creating Layer upscore2
I1128 05:24:28.020509 14094 net.cpp:434] upscore2 <- score_fr
I1128 05:24:28.020519 14094 net.cpp:408] upscore2 -> upscore2
I1128 05:24:28.020776 14094 net.cpp:150] Setting up upscore2
I1128 05:24:28.020787 14094 net.cpp:157] Top shape: 1 6 24 34 (4896)
I1128 05:24:28.020790 14094 net.cpp:165] Memory required for data: 894667744
I1128 05:24:28.020805 14094 layer_factory.hpp:77] Creating layer upscore2_upscore2_0_split
I1128 05:24:28.020814 14094 net.cpp:100] Creating Layer upscore2_upscore2_0_split
I1128 05:24:28.020819 14094 net.cpp:434] upscore2_upscore2_0_split <- upscore2
I1128 05:24:28.020826 14094 net.cpp:408] upscore2_upscore2_0_split -> upscore2_upscore2_0_split_0
I1128 05:24:28.020834 14094 net.cpp:408] upscore2_upscore2_0_split -> upscore2_upscore2_0_split_1
I1128 05:24:28.020882 14094 net.cpp:150] Setting up upscore2_upscore2_0_split
I1128 05:24:28.020890 14094 net.cpp:157] Top shape: 1 6 24 34 (4896)
I1128 05:24:28.020895 14094 net.cpp:157] Top shape: 1 6 24 34 (4896)
I1128 05:24:28.020900 14094 net.cpp:165] Memory required for data: 894706912
I1128 05:24:28.020903 14094 layer_factory.hpp:77] Creating layer scale_pool4
I1128 05:24:28.020913 14094 net.cpp:100] Creating Layer scale_pool4
I1128 05:24:28.020918 14094 net.cpp:434] scale_pool4 <- pool4_pool4_0_split_1
I1128 05:24:28.020927 14094 net.cpp:408] scale_pool4 -> scale_pool4
I1128 05:24:28.021054 14094 net.cpp:150] Setting up scale_pool4
I1128 05:24:28.021064 14094 net.cpp:157] Top shape: 1 512 34 44 (765952)
I1128 05:24:28.021067 14094 net.cpp:165] Memory required for data: 897770720
I1128 05:24:28.021073 14094 layer_factory.hpp:77] Creating layer score_pool4
I1128 05:24:28.021085 14094 net.cpp:100] Creating Layer score_pool4
I1128 05:24:28.021090 14094 net.cpp:434] score_pool4 <- scale_pool4
I1128 05:24:28.021097 14094 net.cpp:408] score_pool4 -> score_pool4
I1128 05:24:28.022421 14094 net.cpp:150] Setting up score_pool4
I1128 05:24:28.022438 14094 net.cpp:157] Top shape: 1 6 34 44 (8976)
I1128 05:24:28.022442 14094 net.cpp:165] Memory required for data: 897806624
I1128 05:24:28.022450 14094 layer_factory.hpp:77] Creating layer score_pool4c
I1128 05:24:28.022460 14094 net.cpp:100] Creating Layer score_pool4c
I1128 05:24:28.022465 14094 net.cpp:434] score_pool4c <- score_pool4
I1128 05:24:28.022481 14094 net.cpp:434] score_pool4c <- upscore2_upscore2_0_split_0
I1128 05:24:28.022490 14094 net.cpp:408] score_pool4c -> score_pool4c
I1128 05:24:28.022529 14094 net.cpp:150] Setting up score_pool4c
I1128 05:24:28.022537 14094 net.cpp:157] Top shape: 1 6 24 34 (4896)
I1128 05:24:28.022541 14094 net.cpp:165] Memory required for data: 897826208
I1128 05:24:28.022545 14094 layer_factory.hpp:77] Creating layer fuse_pool4
I1128 05:24:28.022555 14094 net.cpp:100] Creating Layer fuse_pool4
I1128 05:24:28.022559 14094 net.cpp:434] fuse_pool4 <- upscore2_upscore2_0_split_1
I1128 05:24:28.022565 14094 net.cpp:434] fuse_pool4 <- score_pool4c
I1128 05:24:28.022572 14094 net.cpp:408] fuse_pool4 -> fuse_pool4
I1128 05:24:28.022604 14094 net.cpp:150] Setting up fuse_pool4
I1128 05:24:28.022611 14094 net.cpp:157] Top shape: 1 6 24 34 (4896)
I1128 05:24:28.022615 14094 net.cpp:165] Memory required for data: 897845792
I1128 05:24:28.022619 14094 layer_factory.hpp:77] Creating layer upscore_pool4
I1128 05:24:28.022629 14094 net.cpp:100] Creating Layer upscore_pool4
I1128 05:24:28.022634 14094 net.cpp:434] upscore_pool4 <- fuse_pool4
I1128 05:24:28.022641 14094 net.cpp:408] upscore_pool4 -> upscore_pool4
I1128 05:24:28.022884 14094 net.cpp:150] Setting up upscore_pool4
I1128 05:24:28.022893 14094 net.cpp:157] Top shape: 1 6 50 70 (21000)
I1128 05:24:28.022897 14094 net.cpp:165] Memory required for data: 897929792
I1128 05:24:28.022902 14094 layer_factory.hpp:77] Creating layer upscore_pool4_upscore_pool4_0_split
I1128 05:24:28.022910 14094 net.cpp:100] Creating Layer upscore_pool4_upscore_pool4_0_split
I1128 05:24:28.022915 14094 net.cpp:434] upscore_pool4_upscore_pool4_0_split <- upscore_pool4
I1128 05:24:28.022922 14094 net.cpp:408] upscore_pool4_upscore_pool4_0_split -> upscore_pool4_upscore_pool4_0_split_0
I1128 05:24:28.022929 14094 net.cpp:408] upscore_pool4_upscore_pool4_0_split -> upscore_pool4_upscore_pool4_0_split_1
I1128 05:24:28.022975 14094 net.cpp:150] Setting up upscore_pool4_upscore_pool4_0_split
I1128 05:24:28.022982 14094 net.cpp:157] Top shape: 1 6 50 70 (21000)
I1128 05:24:28.022987 14094 net.cpp:157] Top shape: 1 6 50 70 (21000)
I1128 05:24:28.022991 14094 net.cpp:165] Memory required for data: 898097792
I1128 05:24:28.022995 14094 layer_factory.hpp:77] Creating layer scale_pool3
I1128 05:24:28.023005 14094 net.cpp:100] Creating Layer scale_pool3
I1128 05:24:28.023008 14094 net.cpp:434] scale_pool3 <- pool3_pool3_0_split_1
I1128 05:24:28.023015 14094 net.cpp:408] scale_pool3 -> scale_pool3
I1128 05:24:28.023152 14094 net.cpp:150] Setting up scale_pool3
I1128 05:24:28.023162 14094 net.cpp:157] Top shape: 1 256 67 88 (1509376)
I1128 05:24:28.023166 14094 net.cpp:165] Memory required for data: 904135296
I1128 05:24:28.023171 14094 layer_factory.hpp:77] Creating layer score_pool3
I1128 05:24:28.023188 14094 net.cpp:100] Creating Layer score_pool3
I1128 05:24:28.023195 14094 net.cpp:434] score_pool3 <- scale_pool3
I1128 05:24:28.023202 14094 net.cpp:408] score_pool3 -> score_pool3
I1128 05:24:28.024507 14094 net.cpp:150] Setting up score_pool3
I1128 05:24:28.024523 14094 net.cpp:157] Top shape: 1 6 67 88 (35376)
I1128 05:24:28.024528 14094 net.cpp:165] Memory required for data: 904276800
I1128 05:24:28.024535 14094 layer_factory.hpp:77] Creating layer score_pool3c
I1128 05:24:28.024544 14094 net.cpp:100] Creating Layer score_pool3c
I1128 05:24:28.024549 14094 net.cpp:434] score_pool3c <- score_pool3
I1128 05:24:28.024555 14094 net.cpp:434] score_pool3c <- upscore_pool4_upscore_pool4_0_split_0
I1128 05:24:28.024564 14094 net.cpp:408] score_pool3c -> score_pool3c
I1128 05:24:28.024602 14094 net.cpp:150] Setting up score_pool3c
I1128 05:24:28.024610 14094 net.cpp:157] Top shape: 1 6 50 70 (21000)
I1128 05:24:28.024615 14094 net.cpp:165] Memory required for data: 904360800
I1128 05:24:28.024618 14094 layer_factory.hpp:77] Creating layer fuse_pool3
I1128 05:24:28.024626 14094 net.cpp:100] Creating Layer fuse_pool3
I1128 05:24:28.024631 14094 net.cpp:434] fuse_pool3 <- upscore_pool4_upscore_pool4_0_split_1
I1128 05:24:28.024643 14094 net.cpp:434] fuse_pool3 <- score_pool3c
I1128 05:24:28.024651 14094 net.cpp:408] fuse_pool3 -> fuse_pool3
I1128 05:24:28.024685 14094 net.cpp:150] Setting up fuse_pool3
I1128 05:24:28.024693 14094 net.cpp:157] Top shape: 1 6 50 70 (21000)
I1128 05:24:28.024696 14094 net.cpp:165] Memory required for data: 904444800
I1128 05:24:28.024700 14094 layer_factory.hpp:77] Creating layer upscore8
I1128 05:24:28.024710 14094 net.cpp:100] Creating Layer upscore8
I1128 05:24:28.024714 14094 net.cpp:434] upscore8 <- fuse_pool3
I1128 05:24:28.024722 14094 net.cpp:408] upscore8 -> upscore8
I1128 05:24:28.025024 14094 net.cpp:150] Setting up upscore8
I1128 05:24:28.025033 14094 net.cpp:157] Top shape: 1 6 408 568 (1390464)
I1128 05:24:28.025038 14094 net.cpp:165] Memory required for data: 910006656
I1128 05:24:28.025043 14094 layer_factory.hpp:77] Creating layer score
I1128 05:24:28.025051 14094 net.cpp:100] Creating Layer score
I1128 05:24:28.025056 14094 net.cpp:434] score <- upscore8
I1128 05:24:28.025061 14094 net.cpp:434] score <- data_data_0_split_1
I1128 05:24:28.025068 14094 net.cpp:408] score -> score
I1128 05:24:28.025099 14094 net.cpp:150] Setting up score
I1128 05:24:28.025106 14094 net.cpp:157] Top shape: 1 6 335 500 (1005000)
I1128 05:24:28.025110 14094 net.cpp:165] Memory required for data: 914026656
I1128 05:24:28.025115 14094 layer_factory.hpp:77] Creating layer loss
I1128 05:24:28.025123 14094 net.cpp:100] Creating Layer loss
I1128 05:24:28.025127 14094 net.cpp:434] loss <- score
I1128 05:24:28.025132 14094 net.cpp:434] loss <- label
I1128 05:24:28.025140 14094 net.cpp:408] loss -> loss
I1128 05:24:28.025149 14094 layer_factory.hpp:77] Creating layer loss
…
