…
test_initialization: false
average_loss: 20
iter_size: 1
I0216 14:18:49.594156 31691 solver.cpp:81] Creating training net from train_net file: train.prototxt
I0216 14:18:49.595484 31691 net.cpp:58] Initializing net from parameters: 
state {
  phase: TRAIN
}
layer {
  name: "data"
  type: "Python"
  top: "data"
  top: "label"
  python_param {
    module: "voc_layers"
    layer: "ObfSBDDSegDataLayer"
    param_str: "{\'sbdd_dir\': \'../data/sbdd-subsampl/dataset\', \'seed\': 1337, \'split\': \'train_pt4_sglinst\', \'mean\': (104.00699, 116.66877, 122.67892)}"
  }
}
layer {
  name: "conv1_1"
  type: "Convolution"
  bottom: "data"
  top: "conv1_1"
  param {
    lr_mult: 1
    decay_mult: 1
  }
  param {
    lr_mult: 2
    decay_mult: 0
  }
  convolution_param {
    num_output: 64
    pad: 100
    kernel_size: 3
    stride: 1
    weight_filler {
      type: "xavier"
    }
  }
}
layer {
  name: "relu1_1"
  type: "ReLU"
  bottom: "conv1_1"
  top: "conv1_1"
}
layer {
  name: "conv1_2"
  type: "Convolution"
  bottom: "conv1_1"
  top: "conv1_2"
  param {
    lr_mult: 1
    decay_mult: 1
  }
  param {
    lr_mult: 2
    decay_mult: 0
  }
  convolution_param {
    num_output: 64
    pad: 1
    kernel_size: 3
    stride: 1
    weight_filler {
      type: "xavier"
    }
  }
}
layer {
  name: "relu1_2"
  type: "ReLU"
  bottom: "conv1_2"
  top: "conv1_2"
}
layer {
  name: "pool1"
  type: "Pooling"
  bottom: "conv1_2"
  top: "pool1"
  pooling_param {
    pool: MAX
    kernel_size: 2
    stride: 2
  }
}
layer {
  name: "conv2_1"
  type: "Convolution"
  bottom: "pool1"
  top: "conv2_1"
  param {
    lr_mult: 1
    decay_mult: 1
  }
  param {
    lr_mult: 2
    decay_mult: 0
  }
  convolution_param {
    num_output: 128
    pad: 1
    kernel_size: 3
    stride: 1
    weight_filler {
      type: "xavier"
    }
  }
}
layer {
  name: "relu2_1"
  type: "ReLU"
  bottom: "conv2_1"
  top: "conv2_1"
}
layer {
  name: "conv2_2"
  type: "Convolution"
  bottom: "conv2_1"
  top: "conv2_2"
  param {
    lr_mult: 1
    decay_mult: 1
  }
  param {
    lr_mult: 2
    decay_mult: 0
  }
  convolution_param {
    num_output: 128
    pad: 1
    kernel_size: 3
    stride: 1
    weight_filler {
      type: "xavier"
    }
  }
}
layer {
  name: "relu2_2"
  type: "ReLU"
  bottom: "conv2_2"
  top: "conv2_2"
}
layer {
  name: "pool2"
  type: "Pooling"
  bottom: "conv2_2"
  top: "pool2"
  pooling_param {
    pool: MAX
    kernel_size: 2
    stride: 2
  }
}
layer {
  name: "conv3_1"
  type: "Convolution"
  bottom: "pool2"
  top: "conv3_1"
  param {
    lr_mult: 1
    decay_mult: 1
  }
  param {
    lr_mult: 2
    decay_mult: 0
  }
  convolution_param {
    num_output: 256
    pad: 1
    kernel_size: 3
    stride: 1
    weight_filler {
      type: "xavier"
    }
  }
}
layer {
  name: "relu3_1"
  type: "ReLU"
  bottom: "conv3_1"
  top: "conv3_1"
}
layer {
  name: "conv3_2"
  type: "Convolution"
  bottom: "conv3_1"
  top: "conv3_2"
  param {
    lr_mult: 1
    decay_mult: 1
  }
  param {
    lr_mult: 2
    decay_mult: 0
  }
  convolution_param {
    num_output: 256
    pad: 1
    kernel_size: 3
    stride: 1
    weight_filler {
      type: "xavier"
    }
  }
}
layer {
  name: "relu3_2"
  type: "ReLU"
  bottom: "conv3_2"
  top: "conv3_2"
}
layer {
  name: "conv3_3"
  type: "Convolution"
  bottom: "conv3_2"
  top: "conv3_3"
  param {
    lr_mult: 1
    decay_mult: 1
  }
  param {
    lr_mult: 2
    decay_mult: 0
  }
  convolution_param {
    num_output: 256
    pad: 1
    kernel_size: 3
    stride: 1
    weight_filler {
      type: "xavier"
    }
  }
}
layer {
  name: "relu3_3"
  type: "ReLU"
  bottom: "conv3_3"
  top: "conv3_3"
}
layer {
  name: "pool3"
  type: "Pooling"
  bottom: "conv3_3"
  top: "pool3"
  pooling_param {
    pool: MAX
    kernel_size: 2
    stride: 2
  }
}
layer {
  name: "conv4_1"
  type: "Convolution"
  bottom: "pool3"
  top: "conv4_1"
  param {
    lr_mult: 1
    decay_mult: 1
  }
  param {
    lr_mult: 2
    decay_mult: 0
  }
  convolution_param {
    num_output: 512
    pad: 1
    kernel_size: 3
    stride: 1
    weight_filler {
      type: "xavier"
    }
  }
}
layer {
  name: "relu4_1"
  type: "ReLU"
  bottom: "conv4_1"
  top: "conv4_1"
}
layer {
  name: "conv4_2"
  type: "Convolution"
  bottom: "conv4_1"
  top: "conv4_2"
  param {
    lr_mult: 1
    decay_mult: 1
  }
  param {
    lr_mult: 2
    decay_mult: 0
  }
  convolution_param {
    num_output: 512
    pad: 1
    kernel_size: 3
    stride: 1
    weight_filler {
      type: "xavier"
    }
  }
}
layer {
  name: "relu4_2"
  type: "ReLU"
  bottom: "conv4_2"
  top: "conv4_2"
}
layer {
  name: "conv4_3"
  type: "Convolution"
  bottom: "conv4_2"
  top: "conv4_3"
  param {
    lr_mult: 1
    decay_mult: 1
  }
  param {
    lr_mult: 2
    decay_mult: 0
  }
  convolution_param {
    num_output: 512
    pad: 1
    kernel_size: 3
    stride: 1
    weight_filler {
      type: "xavier"
    }
  }
}
layer {
  name: "relu4_3"
  type: "ReLU"
  bottom: "conv4_3"
  top: "conv4_3"
}
layer {
  name: "pool4"
  type: "Pooling"
  bottom: "conv4_3"
  top: "pool4"
  pooling_param {
    pool: MAX
    kernel_size: 2
    stride: 2
  }
}
layer {
  name: "conv5_1"
  type: "Convolution"
  bottom: "pool4"
  top: "conv5_1"
  param {
    lr_mult: 1
    decay_mult: 1
  }
  param {
    lr_mult: 2
    decay_mult: 0
  }
  convolution_param {
    num_output: 512
    pad: 1
    kernel_size: 3
    stride: 1
    weight_filler {
      type: "xavier"
    }
  }
}
layer {
  name: "relu5_1"
  type: "ReLU"
  bottom: "conv5_1"
  top: "conv5_1"
}
layer {
  name: "conv5_2"
  type: "Convolution"
  bottom: "conv5_1"
  top: "conv5_2"
  param {
    lr_mult: 1
    decay_mult: 1
  }
  param {
    lr_mult: 2
    decay_mult: 0
  }
  convolution_param {
    num_output: 512
    pad: 1
    kernel_size: 3
    stride: 1
    weight_filler {
      type: "xavier"
    }
  }
}
layer {
  name: "relu5_2"
  type: "ReLU"
  bottom: "conv5_2"
  top: "conv5_2"
}
layer {
  name: "conv5_3"
  type: "Convolution"
  bottom: "conv5_2"
  top: "conv5_3"
  param {
    lr_mult: 1
    decay_mult: 1
  }
  param {
    lr_mult: 2
    decay_mult: 0
  }
  convolution_param {
    num_output: 512
    pad: 1
    kernel_size: 3
    stride: 1
    weight_filler {
      type: "xavier"
    }
  }
}
layer {
  name: "relu5_3"
  type: "ReLU"
  bottom: "conv5_3"
  top: "conv5_3"
}
layer {
  name: "pool5"
  type: "Pooling"
  bottom: "conv5_3"
  top: "pool5"
  pooling_param {
    pool: MAX
    kernel_size: 2
    stride: 2
  }
}
layer {
  name: "fc6"
  type: "Convolution"
  bottom: "pool5"
  top: "fc6"
  param {
    lr_mult: 1
    decay_mult: 1
  }
  param {
    lr_mult: 2
    decay_mult: 0
  }
  convolution_param {
    num_output: 4096
    pad: 0
    kernel_size: 7
    stride: 1
    weight_filler {
      type: "xavier"
    }
  }
}
layer {
  name: "relu6"
  type: "ReLU"
  bottom: "fc6"
  top: "fc6"
}
layer {
  name: "drop6"
  type: "Dropout"
  bottom: "fc6"
  top: "fc6"
  dropout_param {
    dropout_ratio: 0.5
  }
}
layer {
  name: "fc7"
  type: "Convolution"
  bottom: "fc6"
  top: "fc7"
  param {
    lr_mult: 1
    decay_mult: 1
  }
  param {
    lr_mult: 2
    decay_mult: 0
  }
  convolution_param {
    num_output: 4096
    pad: 0
    kernel_size: 1
    stride: 1
    weight_filler {
      type: "xavier"
    }
  }
}
layer {
  name: "relu7"
  type: "ReLU"
  bottom: "fc7"
  top: "fc7"
}
layer {
  name: "drop7"
  type: "Dropout"
  bottom: "fc7"
  top: "fc7"
  dropout_param {
    dropout_ratio: 0.5
  }
}
layer {
  name: "score_fr"
  type: "Convolution"
  bottom: "fc7"
  top: "score_fr"
  param {
    lr_mult: 1
    decay_mult: 1
  }
  param {
    lr_mult: 2
    decay_mult: 0
  }
  convolution_param {
    num_output: 2
    pad: 0
    kernel_size: 1
    weight_filler {
      type: "xavier"
    }
  }
}
layer {
  name: "upscore2"
  type: "Deconvolution"
  bottom: "score_fr"
  top: "upscore2"
  param {
    lr_mult: 0
  }
  convolution_param {
    num_output: 2
    bias_term: false
    kernel_size: 4
    stride: 2
    weight_filler {
      type: "xavier"
    }
  }
}
layer {
  name: "scale_pool4"
  type: "Scale"
  bottom: "pool4"
  top: "scale_pool4"
  param {
    lr_mult: 0
  }
  scale_param {
    filler {
      type: "constant"
      value: 0.01
    }
  }
}
layer {
  name: "score_pool4"
  type: "Convolution"
  bottom: "scale_pool4"
  top: "score_pool4"
  param {
    lr_mult: 1
    decay_mult: 1
  }
  param {
    lr_mult: 2
    decay_mult: 0
  }
  convolution_param {
    num_output: 2
    pad: 0
    kernel_size: 1
    weight_filler {
      type: "xavier"
    }
  }
}
layer {
  name: "score_pool4c"
  type: "Crop"
  bottom: "score_pool4"
  bottom: "upscore2"
  top: "score_pool4c"
  crop_param {
    axis: 2
    offset: 5
  }
}
layer {
  name: "fuse_pool4"
  type: "Eltwise"
  bottom: "upscore2"
  bottom: "score_pool4c"
  top: "fuse_pool4"
  eltwise_param {
    operation: SUM
  }
}
layer {
  name: "upscore_pool4"
  type: "Deconvolution"
  bottom: "fuse_pool4"
  top: "upscore_pool4"
  param {
    lr_mult: 0
  }
  convolution_param {
    num_output: 2
    bias_term: false
    kernel_size: 4
    stride: 2
    weight_filler {
      type: "xavier"
    }
  }
}
layer {
  name: "scale_pool3"
  type: "Scale"
  bottom: "pool3"
  top: "scale_pool3"
  param {
    lr_mult: 0
  }
  scale_param {
    filler {
      type: "constant"
      value: 0.0001
    }
  }
}
layer {
  name: "score_pool3"
  type: "Convolution"
  bottom: "scale_pool3"
  top: "score_pool3"
  param {
    lr_mult: 1
    decay_mult: 1
  }
  param {
    lr_mult: 2
    decay_mult: 0
  }
  convolution_param {
    num_output: 2
    pad: 0
    kernel_size: 1
    weight_filler {
      type: "xavier"
    }
  }
}
layer {
  name: "score_pool3c"
  type: "Crop"
  bottom: "score_pool3"
  bottom: "upscore_pool4"
  top: "score_pool3c"
  crop_param {
    axis: 2
    offset: 9
  }
}
layer {
  name: "fuse_pool3"
  type: "Eltwise"
  bottom: "upscore_pool4"
  bottom: "score_pool3c"
  top: "fuse_pool3"
  eltwise_param {
    operation: SUM
  }
}
layer {
  name: "upscore8"
  type: "Deconvolution"
  bottom: "fuse_pool3"
  top: "upscore8"
  param {
    lr_mult: 0
  }
  convolution_param {
    num_output: 2
    bias_term: false
    kernel_size: 16
    stride: 8
    weight_filler {
      type: "xavier"
    }
  }
}
layer {
  name: "score"
  type: "Crop"
  bottom: "upscore8"
  bottom: "data"
  top: "score"
  crop_param {
    axis: 2
    offset: 31
  }
}
layer {
  name: "loss"
  type: "SoftmaxWithLoss"
  bottom: "score"
  bottom: "label"
  top: "loss"
  loss_param {
    ignore_label: 255
    normalize: false
  }
}
I0216 14:18:49.595746 31691 layer_factory.hpp:77] Creating layer data
I0216 14:18:49.596274 31691 net.cpp:100] Creating Layer data
I0216 14:18:49.596292 31691 net.cpp:408] data -> data
I0216 14:18:49.596312 31691 net.cpp:408] data -> label
I0216 14:18:49.622853 31691 net.cpp:150] Setting up data
I0216 14:18:49.622889 31691 net.cpp:157] Top shape: 1 3 94 125 (35250)
I0216 14:18:49.622896 31691 net.cpp:157] Top shape: 1 1 94 125 (11750)
I0216 14:18:49.622900 31691 net.cpp:165] Memory required for data: 188000
I0216 14:18:49.622908 31691 layer_factory.hpp:77] Creating layer data_data_0_split
I0216 14:18:49.622923 31691 net.cpp:100] Creating Layer data_data_0_split
I0216 14:18:49.622928 31691 net.cpp:434] data_data_0_split <- data
I0216 14:18:49.622936 31691 net.cpp:408] data_data_0_split -> data_data_0_split_0
I0216 14:18:49.622947 31691 net.cpp:408] data_data_0_split -> data_data_0_split_1
I0216 14:18:49.622992 31691 net.cpp:150] Setting up data_data_0_split
I0216 14:18:49.622999 31691 net.cpp:157] Top shape: 1 3 94 125 (35250)
I0216 14:18:49.623004 31691 net.cpp:157] Top shape: 1 3 94 125 (35250)
I0216 14:18:49.623008 31691 net.cpp:165] Memory required for data: 470000
I0216 14:18:49.623013 31691 layer_factory.hpp:77] Creating layer conv1_1
I0216 14:18:49.623035 31691 net.cpp:100] Creating Layer conv1_1
I0216 14:18:49.623040 31691 net.cpp:434] conv1_1 <- data_data_0_split_0
I0216 14:18:49.623054 31691 net.cpp:408] conv1_1 -> conv1_1
I0216 14:18:49.807873 31691 net.cpp:150] Setting up conv1_1
I0216 14:18:49.807930 31691 net.cpp:157] Top shape: 1 64 292 323 (6036224)
I0216 14:18:49.807935 31691 net.cpp:165] Memory required for data: 24614896
I0216 14:18:49.807960 31691 layer_factory.hpp:77] Creating layer relu1_1
I0216 14:18:49.807981 31691 net.cpp:100] Creating Layer relu1_1
I0216 14:18:49.807986 31691 net.cpp:434] relu1_1 <- conv1_1
I0216 14:18:49.807994 31691 net.cpp:395] relu1_1 -> conv1_1 (in-place)
I0216 14:18:49.808353 31691 net.cpp:150] Setting up relu1_1
I0216 14:18:49.808368 31691 net.cpp:157] Top shape: 1 64 292 323 (6036224)
I0216 14:18:49.808373 31691 net.cpp:165] Memory required for data: 48759792
I0216 14:18:49.808377 31691 layer_factory.hpp:77] Creating layer conv1_2
I0216 14:18:49.808396 31691 net.cpp:100] Creating Layer conv1_2
I0216 14:18:49.808401 31691 net.cpp:434] conv1_2 <- conv1_1
I0216 14:18:49.808408 31691 net.cpp:408] conv1_2 -> conv1_2
I0216 14:18:49.810299 31691 net.cpp:150] Setting up conv1_2
I0216 14:18:49.810317 31691 net.cpp:157] Top shape: 1 64 292 323 (6036224)
I0216 14:18:49.810322 31691 net.cpp:165] Memory required for data: 72904688
I0216 14:18:49.810333 31691 layer_factory.hpp:77] Creating layer relu1_2
I0216 14:18:49.810340 31691 net.cpp:100] Creating Layer relu1_2
I0216 14:18:49.810345 31691 net.cpp:434] relu1_2 <- conv1_2
I0216 14:18:49.810351 31691 net.cpp:395] relu1_2 -> conv1_2 (in-place)
I0216 14:18:49.810721 31691 net.cpp:150] Setting up relu1_2
I0216 14:18:49.810737 31691 net.cpp:157] Top shape: 1 64 292 323 (6036224)
I0216 14:18:49.810741 31691 net.cpp:165] Memory required for data: 97049584
I0216 14:18:49.810746 31691 layer_factory.hpp:77] Creating layer pool1
I0216 14:18:49.810760 31691 net.cpp:100] Creating Layer pool1
I0216 14:18:49.810763 31691 net.cpp:434] pool1 <- conv1_2
I0216 14:18:49.810776 31691 net.cpp:408] pool1 -> pool1
I0216 14:18:49.810828 31691 net.cpp:150] Setting up pool1
I0216 14:18:49.810838 31691 net.cpp:157] Top shape: 1 64 146 162 (1513728)
I0216 14:18:49.810843 31691 net.cpp:165] Memory required for data: 103104496
I0216 14:18:49.810847 31691 layer_factory.hpp:77] Creating layer conv2_1
I0216 14:18:49.810858 31691 net.cpp:100] Creating Layer conv2_1
I0216 14:18:49.810861 31691 net.cpp:434] conv2_1 <- pool1
I0216 14:18:49.810870 31691 net.cpp:408] conv2_1 -> conv2_1
I0216 14:18:49.813258 31691 net.cpp:150] Setting up conv2_1
I0216 14:18:49.813273 31691 net.cpp:157] Top shape: 1 128 146 162 (3027456)
I0216 14:18:49.813278 31691 net.cpp:165] Memory required for data: 115214320
I0216 14:18:49.813290 31691 layer_factory.hpp:77] Creating layer relu2_1
I0216 14:18:49.813299 31691 net.cpp:100] Creating Layer relu2_1
I0216 14:18:49.813304 31691 net.cpp:434] relu2_1 <- conv2_1
I0216 14:18:49.813313 31691 net.cpp:395] relu2_1 -> conv2_1 (in-place)
I0216 14:18:49.813509 31691 net.cpp:150] Setting up relu2_1
I0216 14:18:49.813520 31691 net.cpp:157] Top shape: 1 128 146 162 (3027456)
I0216 14:18:49.813524 31691 net.cpp:165] Memory required for data: 127324144
I0216 14:18:49.813529 31691 layer_factory.hpp:77] Creating layer conv2_2
I0216 14:18:49.813541 31691 net.cpp:100] Creating Layer conv2_2
I0216 14:18:49.813545 31691 net.cpp:434] conv2_2 <- conv2_1
I0216 14:18:49.813555 31691 net.cpp:408] conv2_2 -> conv2_2
I0216 14:18:49.815501 31691 net.cpp:150] Setting up conv2_2
I0216 14:18:49.815518 31691 net.cpp:157] Top shape: 1 128 146 162 (3027456)
I0216 14:18:49.815523 31691 net.cpp:165] Memory required for data: 139433968
I0216 14:18:49.815531 31691 layer_factory.hpp:77] Creating layer relu2_2
I0216 14:18:49.815541 31691 net.cpp:100] Creating Layer relu2_2
I0216 14:18:49.815546 31691 net.cpp:434] relu2_2 <- conv2_2
I0216 14:18:49.815556 31691 net.cpp:395] relu2_2 -> conv2_2 (in-place)
I0216 14:18:49.815920 31691 net.cpp:150] Setting up relu2_2
I0216 14:18:49.815933 31691 net.cpp:157] Top shape: 1 128 146 162 (3027456)
I0216 14:18:49.815938 31691 net.cpp:165] Memory required for data: 151543792
I0216 14:18:49.815943 31691 layer_factory.hpp:77] Creating layer pool2
I0216 14:18:49.815963 31691 net.cpp:100] Creating Layer pool2
I0216 14:18:49.815968 31691 net.cpp:434] pool2 <- conv2_2
I0216 14:18:49.815973 31691 net.cpp:408] pool2 -> pool2
I0216 14:18:49.816026 31691 net.cpp:150] Setting up pool2
I0216 14:18:49.816035 31691 net.cpp:157] Top shape: 1 128 73 81 (756864)
I0216 14:18:49.816037 31691 net.cpp:165] Memory required for data: 154571248
I0216 14:18:49.816042 31691 layer_factory.hpp:77] Creating layer conv3_1
I0216 14:18:49.816053 31691 net.cpp:100] Creating Layer conv3_1
I0216 14:18:49.816058 31691 net.cpp:434] conv3_1 <- pool2
I0216 14:18:49.816067 31691 net.cpp:408] conv3_1 -> conv3_1
I0216 14:18:49.819923 31691 net.cpp:150] Setting up conv3_1
I0216 14:18:49.819942 31691 net.cpp:157] Top shape: 1 256 73 81 (1513728)
I0216 14:18:49.819947 31691 net.cpp:165] Memory required for data: 160626160
I0216 14:18:49.819958 31691 layer_factory.hpp:77] Creating layer relu3_1
I0216 14:18:49.819965 31691 net.cpp:100] Creating Layer relu3_1
I0216 14:18:49.819970 31691 net.cpp:434] relu3_1 <- conv3_1
I0216 14:18:49.819977 31691 net.cpp:395] relu3_1 -> conv3_1 (in-place)
I0216 14:18:49.820350 31691 net.cpp:150] Setting up relu3_1
I0216 14:18:49.820366 31691 net.cpp:157] Top shape: 1 256 73 81 (1513728)
I0216 14:18:49.820370 31691 net.cpp:165] Memory required for data: 166681072
I0216 14:18:49.820375 31691 layer_factory.hpp:77] Creating layer conv3_2
I0216 14:18:49.820389 31691 net.cpp:100] Creating Layer conv3_2
I0216 14:18:49.820394 31691 net.cpp:434] conv3_2 <- conv3_1
I0216 14:18:49.820400 31691 net.cpp:408] conv3_2 -> conv3_2
I0216 14:18:49.825829 31691 net.cpp:150] Setting up conv3_2
I0216 14:18:49.825845 31691 net.cpp:157] Top shape: 1 256 73 81 (1513728)
I0216 14:18:49.825850 31691 net.cpp:165] Memory required for data: 172735984
I0216 14:18:49.825858 31691 layer_factory.hpp:77] Creating layer relu3_2
I0216 14:18:49.825868 31691 net.cpp:100] Creating Layer relu3_2
I0216 14:18:49.825873 31691 net.cpp:434] relu3_2 <- conv3_2
I0216 14:18:49.825881 31691 net.cpp:395] relu3_2 -> conv3_2 (in-place)
I0216 14:18:49.826074 31691 net.cpp:150] Setting up relu3_2
I0216 14:18:49.826084 31691 net.cpp:157] Top shape: 1 256 73 81 (1513728)
I0216 14:18:49.826088 31691 net.cpp:165] Memory required for data: 178790896
I0216 14:18:49.826093 31691 layer_factory.hpp:77] Creating layer conv3_3
I0216 14:18:49.826109 31691 net.cpp:100] Creating Layer conv3_3
I0216 14:18:49.826114 31691 net.cpp:434] conv3_3 <- conv3_2
I0216 14:18:49.826122 31691 net.cpp:408] conv3_3 -> conv3_3
I0216 14:18:49.831519 31691 net.cpp:150] Setting up conv3_3
I0216 14:18:49.831537 31691 net.cpp:157] Top shape: 1 256 73 81 (1513728)
I0216 14:18:49.831542 31691 net.cpp:165] Memory required for data: 184845808
I0216 14:18:49.831549 31691 layer_factory.hpp:77] Creating layer relu3_3
I0216 14:18:49.831558 31691 net.cpp:100] Creating Layer relu3_3
I0216 14:18:49.831562 31691 net.cpp:434] relu3_3 <- conv3_3
I0216 14:18:49.831569 31691 net.cpp:395] relu3_3 -> conv3_3 (in-place)
I0216 14:18:49.831940 31691 net.cpp:150] Setting up relu3_3
I0216 14:18:49.831954 31691 net.cpp:157] Top shape: 1 256 73 81 (1513728)
I0216 14:18:49.831959 31691 net.cpp:165] Memory required for data: 190900720
I0216 14:18:49.831964 31691 layer_factory.hpp:77] Creating layer pool3
I0216 14:18:49.831974 31691 net.cpp:100] Creating Layer pool3
I0216 14:18:49.831979 31691 net.cpp:434] pool3 <- conv3_3
I0216 14:18:49.831986 31691 net.cpp:408] pool3 -> pool3
I0216 14:18:49.832036 31691 net.cpp:150] Setting up pool3
I0216 14:18:49.832043 31691 net.cpp:157] Top shape: 1 256 37 41 (388352)
I0216 14:18:49.832047 31691 net.cpp:165] Memory required for data: 192454128
I0216 14:18:49.832051 31691 layer_factory.hpp:77] Creating layer pool3_pool3_0_split
I0216 14:18:49.832062 31691 net.cpp:100] Creating Layer pool3_pool3_0_split
I0216 14:18:49.832065 31691 net.cpp:434] pool3_pool3_0_split <- pool3
I0216 14:18:49.832072 31691 net.cpp:408] pool3_pool3_0_split -> pool3_pool3_0_split_0
I0216 14:18:49.832078 31691 net.cpp:408] pool3_pool3_0_split -> pool3_pool3_0_split_1
I0216 14:18:49.832125 31691 net.cpp:150] Setting up pool3_pool3_0_split
I0216 14:18:49.832132 31691 net.cpp:157] Top shape: 1 256 37 41 (388352)
I0216 14:18:49.832137 31691 net.cpp:157] Top shape: 1 256 37 41 (388352)
I0216 14:18:49.832141 31691 net.cpp:165] Memory required for data: 195560944
I0216 14:18:49.832145 31691 layer_factory.hpp:77] Creating layer conv4_1
I0216 14:18:49.832159 31691 net.cpp:100] Creating Layer conv4_1
I0216 14:18:49.832162 31691 net.cpp:434] conv4_1 <- pool3_pool3_0_split_0
I0216 14:18:49.832175 31691 net.cpp:408] conv4_1 -> conv4_1
I0216 14:18:49.842331 31691 net.cpp:150] Setting up conv4_1
I0216 14:18:49.842352 31691 net.cpp:157] Top shape: 1 512 37 41 (776704)
I0216 14:18:49.842357 31691 net.cpp:165] Memory required for data: 198667760
I0216 14:18:49.842366 31691 layer_factory.hpp:77] Creating layer relu4_1
I0216 14:18:49.842377 31691 net.cpp:100] Creating Layer relu4_1
I0216 14:18:49.842382 31691 net.cpp:434] relu4_1 <- conv4_1
I0216 14:18:49.842389 31691 net.cpp:395] relu4_1 -> conv4_1 (in-place)
I0216 14:18:49.842768 31691 net.cpp:150] Setting up relu4_1
I0216 14:18:49.842782 31691 net.cpp:157] Top shape: 1 512 37 41 (776704)
I0216 14:18:49.842787 31691 net.cpp:165] Memory required for data: 201774576
I0216 14:18:49.842792 31691 layer_factory.hpp:77] Creating layer conv4_2
I0216 14:18:49.842804 31691 net.cpp:100] Creating Layer conv4_2
I0216 14:18:49.842809 31691 net.cpp:434] conv4_2 <- conv4_1
I0216 14:18:49.842818 31691 net.cpp:408] conv4_2 -> conv4_2
I0216 14:18:49.860518 31691 net.cpp:150] Setting up conv4_2
I0216 14:18:49.860548 31691 net.cpp:157] Top shape: 1 512 37 41 (776704)
I0216 14:18:49.860553 31691 net.cpp:165] Memory required for data: 204881392
I0216 14:18:49.860570 31691 layer_factory.hpp:77] Creating layer relu4_2
I0216 14:18:49.860585 31691 net.cpp:100] Creating Layer relu4_2
I0216 14:18:49.860590 31691 net.cpp:434] relu4_2 <- conv4_2
I0216 14:18:49.860599 31691 net.cpp:395] relu4_2 -> conv4_2 (in-place)
I0216 14:18:49.860793 31691 net.cpp:150] Setting up relu4_2
I0216 14:18:49.860805 31691 net.cpp:157] Top shape: 1 512 37 41 (776704)
I0216 14:18:49.860808 31691 net.cpp:165] Memory required for data: 207988208
I0216 14:18:49.860813 31691 layer_factory.hpp:77] Creating layer conv4_3
I0216 14:18:49.860827 31691 net.cpp:100] Creating Layer conv4_3
I0216 14:18:49.860832 31691 net.cpp:434] conv4_3 <- conv4_2
I0216 14:18:49.860841 31691 net.cpp:408] conv4_3 -> conv4_3
I0216 14:18:49.878669 31691 net.cpp:150] Setting up conv4_3
I0216 14:18:49.878701 31691 net.cpp:157] Top shape: 1 512 37 41 (776704)
I0216 14:18:49.878706 31691 net.cpp:165] Memory required for data: 211095024
I0216 14:18:49.878716 31691 layer_factory.hpp:77] Creating layer relu4_3
I0216 14:18:49.878731 31691 net.cpp:100] Creating Layer relu4_3
I0216 14:18:49.878736 31691 net.cpp:434] relu4_3 <- conv4_3
I0216 14:18:49.878743 31691 net.cpp:395] relu4_3 -> conv4_3 (in-place)
I0216 14:18:49.879114 31691 net.cpp:150] Setting up relu4_3
I0216 14:18:49.879130 31691 net.cpp:157] Top shape: 1 512 37 41 (776704)
I0216 14:18:49.879135 31691 net.cpp:165] Memory required for data: 214201840
I0216 14:18:49.879140 31691 layer_factory.hpp:77] Creating layer pool4
I0216 14:18:49.879150 31691 net.cpp:100] Creating Layer pool4
I0216 14:18:49.879155 31691 net.cpp:434] pool4 <- conv4_3
I0216 14:18:49.879163 31691 net.cpp:408] pool4 -> pool4
I0216 14:18:49.879216 31691 net.cpp:150] Setting up pool4
I0216 14:18:49.879223 31691 net.cpp:157] Top shape: 1 512 19 21 (204288)
I0216 14:18:49.879227 31691 net.cpp:165] Memory required for data: 215018992
I0216 14:18:49.879232 31691 layer_factory.hpp:77] Creating layer pool4_pool4_0_split
I0216 14:18:49.879240 31691 net.cpp:100] Creating Layer pool4_pool4_0_split
I0216 14:18:49.879245 31691 net.cpp:434] pool4_pool4_0_split <- pool4
I0216 14:18:49.879252 31691 net.cpp:408] pool4_pool4_0_split -> pool4_pool4_0_split_0
I0216 14:18:49.879261 31691 net.cpp:408] pool4_pool4_0_split -> pool4_pool4_0_split_1
I0216 14:18:49.879299 31691 net.cpp:150] Setting up pool4_pool4_0_split
I0216 14:18:49.879317 31691 net.cpp:157] Top shape: 1 512 19 21 (204288)
I0216 14:18:49.879323 31691 net.cpp:157] Top shape: 1 512 19 21 (204288)
I0216 14:18:49.879326 31691 net.cpp:165] Memory required for data: 216653296
I0216 14:18:49.879330 31691 layer_factory.hpp:77] Creating layer conv5_1
I0216 14:18:49.879348 31691 net.cpp:100] Creating Layer conv5_1
I0216 14:18:49.879353 31691 net.cpp:434] conv5_1 <- pool4_pool4_0_split_0
I0216 14:18:49.879359 31691 net.cpp:408] conv5_1 -> conv5_1
I0216 14:18:49.896931 31691 net.cpp:150] Setting up conv5_1
I0216 14:18:49.896961 31691 net.cpp:157] Top shape: 1 512 19 21 (204288)
I0216 14:18:49.896966 31691 net.cpp:165] Memory required for data: 217470448
I0216 14:18:49.896976 31691 layer_factory.hpp:77] Creating layer relu5_1
I0216 14:18:49.896987 31691 net.cpp:100] Creating Layer relu5_1
I0216 14:18:49.896993 31691 net.cpp:434] relu5_1 <- conv5_1
I0216 14:18:49.897002 31691 net.cpp:395] relu5_1 -> conv5_1 (in-place)
I0216 14:18:49.897375 31691 net.cpp:150] Setting up relu5_1
I0216 14:18:49.897389 31691 net.cpp:157] Top shape: 1 512 19 21 (204288)
I0216 14:18:49.897393 31691 net.cpp:165] Memory required for data: 218287600
I0216 14:18:49.897398 31691 layer_factory.hpp:77] Creating layer conv5_2
I0216 14:18:49.897413 31691 net.cpp:100] Creating Layer conv5_2
I0216 14:18:49.897419 31691 net.cpp:434] conv5_2 <- conv5_1
I0216 14:18:49.897429 31691 net.cpp:408] conv5_2 -> conv5_2
I0216 14:18:49.915043 31691 net.cpp:150] Setting up conv5_2
I0216 14:18:49.915072 31691 net.cpp:157] Top shape: 1 512 19 21 (204288)
I0216 14:18:49.915078 31691 net.cpp:165] Memory required for data: 219104752
I0216 14:18:49.915089 31691 layer_factory.hpp:77] Creating layer relu5_2
I0216 14:18:49.915101 31691 net.cpp:100] Creating Layer relu5_2
I0216 14:18:49.915105 31691 net.cpp:434] relu5_2 <- conv5_2
I0216 14:18:49.915117 31691 net.cpp:395] relu5_2 -> conv5_2 (in-place)
I0216 14:18:49.915313 31691 net.cpp:150] Setting up relu5_2
I0216 14:18:49.915323 31691 net.cpp:157] Top shape: 1 512 19 21 (204288)
I0216 14:18:49.915326 31691 net.cpp:165] Memory required for data: 219921904
I0216 14:18:49.915331 31691 layer_factory.hpp:77] Creating layer conv5_3
I0216 14:18:49.915351 31691 net.cpp:100] Creating Layer conv5_3
I0216 14:18:49.915357 31691 net.cpp:434] conv5_3 <- conv5_2
I0216 14:18:49.915366 31691 net.cpp:408] conv5_3 -> conv5_3
I0216 14:18:49.933100 31691 net.cpp:150] Setting up conv5_3
I0216 14:18:49.933127 31691 net.cpp:157] Top shape: 1 512 19 21 (204288)
I0216 14:18:49.933132 31691 net.cpp:165] Memory required for data: 220739056
I0216 14:18:49.933142 31691 layer_factory.hpp:77] Creating layer relu5_3
I0216 14:18:49.933156 31691 net.cpp:100] Creating Layer relu5_3
I0216 14:18:49.933161 31691 net.cpp:434] relu5_3 <- conv5_3
I0216 14:18:49.933168 31691 net.cpp:395] relu5_3 -> conv5_3 (in-place)
I0216 14:18:49.933740 31691 net.cpp:150] Setting up relu5_3
I0216 14:18:49.933756 31691 net.cpp:157] Top shape: 1 512 19 21 (204288)
I0216 14:18:49.933761 31691 net.cpp:165] Memory required for data: 221556208
I0216 14:18:49.933766 31691 layer_factory.hpp:77] Creating layer pool5
I0216 14:18:49.933779 31691 net.cpp:100] Creating Layer pool5
I0216 14:18:49.933784 31691 net.cpp:434] pool5 <- conv5_3
I0216 14:18:49.933792 31691 net.cpp:408] pool5 -> pool5
I0216 14:18:49.933846 31691 net.cpp:150] Setting up pool5
I0216 14:18:49.933854 31691 net.cpp:157] Top shape: 1 512 10 11 (56320)
I0216 14:18:49.933858 31691 net.cpp:165] Memory required for data: 221781488
I0216 14:18:49.933862 31691 layer_factory.hpp:77] Creating layer fc6
I0216 14:18:49.933876 31691 net.cpp:100] Creating Layer fc6
I0216 14:18:49.933881 31691 net.cpp:434] fc6 <- pool5
I0216 14:18:49.933890 31691 net.cpp:408] fc6 -> fc6
I0216 14:18:50.671022 31691 net.cpp:150] Setting up fc6
I0216 14:18:50.671116 31691 net.cpp:157] Top shape: 1 4096 4 5 (81920)
I0216 14:18:50.671123 31691 net.cpp:165] Memory required for data: 222109168
I0216 14:18:50.671140 31691 layer_factory.hpp:77] Creating layer relu6
I0216 14:18:50.671191 31691 net.cpp:100] Creating Layer relu6
I0216 14:18:50.671216 31691 net.cpp:434] relu6 <- fc6
I0216 14:18:50.671228 31691 net.cpp:395] relu6 -> fc6 (in-place)
I0216 14:18:50.671619 31691 net.cpp:150] Setting up relu6
I0216 14:18:50.671633 31691 net.cpp:157] Top shape: 1 4096 4 5 (81920)
I0216 14:18:50.671638 31691 net.cpp:165] Memory required for data: 222436848
I0216 14:18:50.671643 31691 layer_factory.hpp:77] Creating layer drop6
I0216 14:18:50.671670 31691 net.cpp:100] Creating Layer drop6
I0216 14:18:50.671675 31691 net.cpp:434] drop6 <- fc6
I0216 14:18:50.671684 31691 net.cpp:395] drop6 -> fc6 (in-place)
I0216 14:18:50.671723 31691 net.cpp:150] Setting up drop6
I0216 14:18:50.671733 31691 net.cpp:157] Top shape: 1 4096 4 5 (81920)
I0216 14:18:50.671737 31691 net.cpp:165] Memory required for data: 222764528
I0216 14:18:50.671741 31691 layer_factory.hpp:77] Creating layer fc7
I0216 14:18:50.671754 31691 net.cpp:100] Creating Layer fc7
I0216 14:18:50.671758 31691 net.cpp:434] fc7 <- fc6
I0216 14:18:50.671767 31691 net.cpp:408] fc7 -> fc7
I0216 14:18:50.791404 31691 net.cpp:150] Setting up fc7
I0216 14:18:50.791462 31691 net.cpp:157] Top shape: 1 4096 4 5 (81920)
I0216 14:18:50.791467 31691 net.cpp:165] Memory required for data: 223092208
I0216 14:18:50.791483 31691 layer_factory.hpp:77] Creating layer relu7
I0216 14:18:50.791499 31691 net.cpp:100] Creating Layer relu7
I0216 14:18:50.791507 31691 net.cpp:434] relu7 <- fc7
I0216 14:18:50.791517 31691 net.cpp:395] relu7 -> fc7 (in-place)
I0216 14:18:50.791731 31691 net.cpp:150] Setting up relu7
I0216 14:18:50.791743 31691 net.cpp:157] Top shape: 1 4096 4 5 (81920)
I0216 14:18:50.791748 31691 net.cpp:165] Memory required for data: 223419888
I0216 14:18:50.791752 31691 layer_factory.hpp:77] Creating layer drop7
I0216 14:18:50.791762 31691 net.cpp:100] Creating Layer drop7
I0216 14:18:50.791767 31691 net.cpp:434] drop7 <- fc7
I0216 14:18:50.791774 31691 net.cpp:395] drop7 -> fc7 (in-place)
I0216 14:18:50.791810 31691 net.cpp:150] Setting up drop7
I0216 14:18:50.791818 31691 net.cpp:157] Top shape: 1 4096 4 5 (81920)
I0216 14:18:50.791822 31691 net.cpp:165] Memory required for data: 223747568
I0216 14:18:50.791826 31691 layer_factory.hpp:77] Creating layer score_fr
I0216 14:18:50.791841 31691 net.cpp:100] Creating Layer score_fr
I0216 14:18:50.791846 31691 net.cpp:434] score_fr <- fc7
I0216 14:18:50.791856 31691 net.cpp:408] score_fr -> score_fr
I0216 14:18:50.793157 31691 net.cpp:150] Setting up score_fr
I0216 14:18:50.793172 31691 net.cpp:157] Top shape: 1 2 4 5 (40)
I0216 14:18:50.793177 31691 net.cpp:165] Memory required for data: 223747728
I0216 14:18:50.793185 31691 layer_factory.hpp:77] Creating layer upscore2
I0216 14:18:50.793205 31691 net.cpp:100] Creating Layer upscore2
I0216 14:18:50.793210 31691 net.cpp:434] upscore2 <- score_fr
I0216 14:18:50.793220 31691 net.cpp:408] upscore2 -> upscore2
I0216 14:18:50.793448 31691 net.cpp:150] Setting up upscore2
I0216 14:18:50.793458 31691 net.cpp:157] Top shape: 1 2 10 12 (240)
I0216 14:18:50.793462 31691 net.cpp:165] Memory required for data: 223748688
I0216 14:18:50.793483 31691 layer_factory.hpp:77] Creating layer upscore2_upscore2_0_split
I0216 14:18:50.793495 31691 net.cpp:100] Creating Layer upscore2_upscore2_0_split
I0216 14:18:50.793500 31691 net.cpp:434] upscore2_upscore2_0_split <- upscore2
I0216 14:18:50.793507 31691 net.cpp:408] upscore2_upscore2_0_split -> upscore2_upscore2_0_split_0
I0216 14:18:50.793515 31691 net.cpp:408] upscore2_upscore2_0_split -> upscore2_upscore2_0_split_1
I0216 14:18:50.793558 31691 net.cpp:150] Setting up upscore2_upscore2_0_split
I0216 14:18:50.793565 31691 net.cpp:157] Top shape: 1 2 10 12 (240)
I0216 14:18:50.793571 31691 net.cpp:157] Top shape: 1 2 10 12 (240)
I0216 14:18:50.793575 31691 net.cpp:165] Memory required for data: 223750608
I0216 14:18:50.793579 31691 layer_factory.hpp:77] Creating layer scale_pool4
I0216 14:18:50.793593 31691 net.cpp:100] Creating Layer scale_pool4
I0216 14:18:50.793598 31691 net.cpp:434] scale_pool4 <- pool4_pool4_0_split_1
I0216 14:18:50.793606 31691 net.cpp:408] scale_pool4 -> scale_pool4
I0216 14:18:50.793752 31691 net.cpp:150] Setting up scale_pool4
I0216 14:18:50.793766 31691 net.cpp:157] Top shape: 1 512 19 21 (204288)
I0216 14:18:50.793771 31691 net.cpp:165] Memory required for data: 224567760
I0216 14:18:50.793776 31691 layer_factory.hpp:77] Creating layer score_pool4
I0216 14:18:50.793787 31691 net.cpp:100] Creating Layer score_pool4
I0216 14:18:50.793790 31691 net.cpp:434] score_pool4 <- scale_pool4
I0216 14:18:50.793800 31691 net.cpp:408] score_pool4 -> score_pool4
I0216 14:18:50.795084 31691 net.cpp:150] Setting up score_pool4
I0216 14:18:50.795099 31691 net.cpp:157] Top shape: 1 2 19 21 (798)
I0216 14:18:50.795104 31691 net.cpp:165] Memory required for data: 224570952
I0216 14:18:50.795111 31691 layer_factory.hpp:77] Creating layer score_pool4c
I0216 14:18:50.795125 31691 net.cpp:100] Creating Layer score_pool4c
I0216 14:18:50.795130 31691 net.cpp:434] score_pool4c <- score_pool4
I0216 14:18:50.795135 31691 net.cpp:434] score_pool4c <- upscore2_upscore2_0_split_0
I0216 14:18:50.795146 31691 net.cpp:408] score_pool4c -> score_pool4c
I0216 14:18:50.795186 31691 net.cpp:150] Setting up score_pool4c
I0216 14:18:50.795194 31691 net.cpp:157] Top shape: 1 2 10 12 (240)
I0216 14:18:50.795197 31691 net.cpp:165] Memory required for data: 224571912
I0216 14:18:50.795202 31691 layer_factory.hpp:77] Creating layer fuse_pool4
I0216 14:18:50.795213 31691 net.cpp:100] Creating Layer fuse_pool4
I0216 14:18:50.795218 31691 net.cpp:434] fuse_pool4 <- upscore2_upscore2_0_split_1
I0216 14:18:50.795223 31691 net.cpp:434] fuse_pool4 <- score_pool4c
I0216 14:18:50.795229 31691 net.cpp:408] fuse_pool4 -> fuse_pool4
I0216 14:18:50.795264 31691 net.cpp:150] Setting up fuse_pool4
I0216 14:18:50.795270 31691 net.cpp:157] Top shape: 1 2 10 12 (240)
I0216 14:18:50.795274 31691 net.cpp:165] Memory required for data: 224572872
I0216 14:18:50.795279 31691 layer_factory.hpp:77] Creating layer upscore_pool4
I0216 14:18:50.795289 31691 net.cpp:100] Creating Layer upscore_pool4
I0216 14:18:50.795292 31691 net.cpp:434] upscore_pool4 <- fuse_pool4
I0216 14:18:50.795301 31691 net.cpp:408] upscore_pool4 -> upscore_pool4
I0216 14:18:50.795511 31691 net.cpp:150] Setting up upscore_pool4
I0216 14:18:50.795521 31691 net.cpp:157] Top shape: 1 2 22 26 (1144)
I0216 14:18:50.795523 31691 net.cpp:165] Memory required for data: 224577448
I0216 14:18:50.795529 31691 layer_factory.hpp:77] Creating layer upscore_pool4_upscore_pool4_0_split
I0216 14:18:50.795538 31691 net.cpp:100] Creating Layer upscore_pool4_upscore_pool4_0_split
I0216 14:18:50.795542 31691 net.cpp:434] upscore_pool4_upscore_pool4_0_split <- upscore_pool4
I0216 14:18:50.795548 31691 net.cpp:408] upscore_pool4_upscore_pool4_0_split -> upscore_pool4_upscore_pool4_0_split_0
I0216 14:18:50.795557 31691 net.cpp:408] upscore_pool4_upscore_pool4_0_split -> upscore_pool4_upscore_pool4_0_split_1
I0216 14:18:50.795595 31691 net.cpp:150] Setting up upscore_pool4_upscore_pool4_0_split
I0216 14:18:50.795603 31691 net.cpp:157] Top shape: 1 2 22 26 (1144)
I0216 14:18:50.795608 31691 net.cpp:157] Top shape: 1 2 22 26 (1144)
I0216 14:18:50.795611 31691 net.cpp:165] Memory required for data: 224586600
I0216 14:18:50.795615 31691 layer_factory.hpp:77] Creating layer scale_pool3
I0216 14:18:50.795624 31691 net.cpp:100] Creating Layer scale_pool3
I0216 14:18:50.795629 31691 net.cpp:434] scale_pool3 <- pool3_pool3_0_split_1
I0216 14:18:50.795635 31691 net.cpp:408] scale_pool3 -> scale_pool3
I0216 14:18:50.795734 31691 net.cpp:150] Setting up scale_pool3
I0216 14:18:50.795742 31691 net.cpp:157] Top shape: 1 256 37 41 (388352)
I0216 14:18:50.795745 31691 net.cpp:165] Memory required for data: 226140008
I0216 14:18:50.795752 31691 layer_factory.hpp:77] Creating layer score_pool3
I0216 14:18:50.795763 31691 net.cpp:100] Creating Layer score_pool3
I0216 14:18:50.795768 31691 net.cpp:434] score_pool3 <- scale_pool3
I0216 14:18:50.795774 31691 net.cpp:408] score_pool3 -> score_pool3
I0216 14:18:50.797209 31691 net.cpp:150] Setting up score_pool3
I0216 14:18:50.797224 31691 net.cpp:157] Top shape: 1 2 37 41 (3034)
I0216 14:18:50.797235 31691 net.cpp:165] Memory required for data: 226152144
I0216 14:18:50.797243 31691 layer_factory.hpp:77] Creating layer score_pool3c
I0216 14:18:50.797255 31691 net.cpp:100] Creating Layer score_pool3c
I0216 14:18:50.797260 31691 net.cpp:434] score_pool3c <- score_pool3
I0216 14:18:50.797264 31691 net.cpp:434] score_pool3c <- upscore_pool4_upscore_pool4_0_split_0
I0216 14:18:50.797273 31691 net.cpp:408] score_pool3c -> score_pool3c
I0216 14:18:50.797309 31691 net.cpp:150] Setting up score_pool3c
I0216 14:18:50.797317 31691 net.cpp:157] Top shape: 1 2 22 26 (1144)
I0216 14:18:50.797320 31691 net.cpp:165] Memory required for data: 226156720
I0216 14:18:50.797324 31691 layer_factory.hpp:77] Creating layer fuse_pool3
I0216 14:18:50.797334 31691 net.cpp:100] Creating Layer fuse_pool3
I0216 14:18:50.797339 31691 net.cpp:434] fuse_pool3 <- upscore_pool4_upscore_pool4_0_split_1
I0216 14:18:50.797344 31691 net.cpp:434] fuse_pool3 <- score_pool3c
I0216 14:18:50.797353 31691 net.cpp:408] fuse_pool3 -> fuse_pool3
I0216 14:18:50.797380 31691 net.cpp:150] Setting up fuse_pool3
I0216 14:18:50.797387 31691 net.cpp:157] Top shape: 1 2 22 26 (1144)
I0216 14:18:50.797391 31691 net.cpp:165] Memory required for data: 226161296
I0216 14:18:50.797394 31691 layer_factory.hpp:77] Creating layer upscore8
I0216 14:18:50.797405 31691 net.cpp:100] Creating Layer upscore8
I0216 14:18:50.797410 31691 net.cpp:434] upscore8 <- fuse_pool3
I0216 14:18:50.797418 31691 net.cpp:408] upscore8 -> upscore8
I0216 14:18:50.797632 31691 net.cpp:150] Setting up upscore8
I0216 14:18:50.797649 31691 net.cpp:157] Top shape: 1 2 184 216 (79488)
I0216 14:18:50.797653 31691 net.cpp:165] Memory required for data: 226479248
I0216 14:18:50.797659 31691 layer_factory.hpp:77] Creating layer score
I0216 14:18:50.797667 31691 net.cpp:100] Creating Layer score
I0216 14:18:50.797672 31691 net.cpp:434] score <- upscore8
I0216 14:18:50.797677 31691 net.cpp:434] score <- data_data_0_split_1
I0216 14:18:50.797683 31691 net.cpp:408] score -> score
I0216 14:18:50.797715 31691 net.cpp:150] Setting up score
I0216 14:18:50.797722 31691 net.cpp:157] Top shape: 1 2 94 125 (23500)
I0216 14:18:50.797726 31691 net.cpp:165] Memory required for data: 226573248
I0216 14:18:50.797730 31691 layer_factory.hpp:77] Creating layer loss
I0216 14:18:50.797741 31691 net.cpp:100] Creating Layer loss
I0216 14:18:50.797745 31691 net.cpp:434] loss <- score
I0216 14:18:50.797750 31691 net.cpp:434] loss <- label
I0216 14:18:50.797760 31691 net.cpp:408] loss -> loss
I0216 14:18:50.797772 31691 layer_factory.hpp:77] Creating layer loss
…
I0216 14:18:50.798485 31691 net.cpp:283] Network initialization done.
I0216 14:18:50.799727 31691 solver.cpp:181] Creating test net (#0) specified by test_net file: val.prototxt
I0216 14:18:50.800104 31691 net.cpp:58] Initializing net from parameters: 
state {
  phase: TEST
}
layer {
  name: "data"
  type: "Python"
  top: "data"
  top: "label"
  python_param {
    module: "voc_layers"
    layer: "ObfVOCSegDataLayer"
    param_str: "{\'voc_dir\': \'../data/pascal-subsampl/VOC2011\', \'seed\': 1337, \'split\': \'seg11valid_pt4_sglinst\', \'mean\': (104.00699, 116.66877, 122.67892)}"
  }
}
layer {
  name: "conv1_1"
  type: "Convolution"
  bottom: "data"
  top: "conv1_1"
  param {
    lr_mult: 1
    decay_mult: 1
  }
  param {
    lr_mult: 2
    decay_mult: 0
  }
  convolution_param {
    num_output: 64
    pad: 100
    kernel_size: 3
    stride: 1
    weight_filler {
      type: "xavier"
    }
  }
}
layer {
  name: "relu1_1"
  type: "ReLU"
  bottom: "conv1_1"
  top: "conv1_1"
}
layer {
  name: "conv1_2"
  type: "Convolution"
  bottom: "conv1_1"
  top: "conv1_2"
  param {
    lr_mult: 1
    decay_mult: 1
  }
  param {
    lr_mult: 2
    decay_mult: 0
  }
  convolution_param {
    num_output: 64
    pad: 1
    kernel_size: 3
    stride: 1
    weight_filler {
      type: "xavier"
    }
  }
}
layer {
  name: "relu1_2"
  type: "ReLU"
  bottom: "conv1_2"
  top: "conv1_2"
}
layer {
  name: "pool1"
  type: "Pooling"
  bottom: "conv1_2"
  top: "pool1"
  pooling_param {
    pool: MAX
    kernel_size: 2
    stride: 2
  }
}
layer {
  name: "conv2_1"
  type: "Convolution"
  bottom: "pool1"
  top: "conv2_1"
  param {
    lr_mult: 1
    decay_mult: 1
  }
  param {
    lr_mult: 2
    decay_mult: 0
  }
  convolution_param {
    num_output: 128
    pad: 1
    kernel_size: 3
    stride: 1
    weight_filler {
      type: "xavier"
    }
  }
}
layer {
  name: "relu2_1"
  type: "ReLU"
  bottom: "conv2_1"
  top: "conv2_1"
}
layer {
  name: "conv2_2"
  type: "Convolution"
  bottom: "conv2_1"
  top: "conv2_2"
  param {
    lr_mult: 1
    decay_mult: 1
  }
  param {
    lr_mult: 2
    decay_mult: 0
  }
  convolution_param {
    num_output: 128
    pad: 1
    kernel_size: 3
    stride: 1
    weight_filler {
      type: "xavier"
    }
  }
}
layer {
  name: "relu2_2"
  type: "ReLU"
  bottom: "conv2_2"
  top: "conv2_2"
}
layer {
  name: "pool2"
  type: "Pooling"
  bottom: "conv2_2"
  top: "pool2"
  pooling_param {
    pool: MAX
    kernel_size: 2
    stride: 2
  }
}
layer {
  name: "conv3_1"
  type: "Convolution"
  bottom: "pool2"
  top: "conv3_1"
  param {
    lr_mult: 1
    decay_mult: 1
  }
  param {
    lr_mult: 2
    decay_mult: 0
  }
  convolution_param {
    num_output: 256
    pad: 1
    kernel_size: 3
    stride: 1
    weight_filler {
      type: "xavier"
    }
  }
}
layer {
  name: "relu3_1"
  type: "ReLU"
  bottom: "conv3_1"
  top: "conv3_1"
}
layer {
  name: "conv3_2"
  type: "Convolution"
  bottom: "conv3_1"
  top: "conv3_2"
  param {
    lr_mult: 1
    decay_mult: 1
  }
  param {
    lr_mult: 2
    decay_mult: 0
  }
  convolution_param {
    num_output: 256
    pad: 1
    kernel_size: 3
    stride: 1
    weight_filler {
      type: "xavier"
    }
  }
}
layer {
  name: "relu3_2"
  type: "ReLU"
  bottom: "conv3_2"
  top: "conv3_2"
}
layer {
  name: "conv3_3"
  type: "Convolution"
  bottom: "conv3_2"
  top: "conv3_3"
  param {
    lr_mult: 1
    decay_mult: 1
  }
  param {
    lr_mult: 2
    decay_mult: 0
  }
  convolution_param {
    num_output: 256
    pad: 1
    kernel_size: 3
    stride: 1
    weight_filler {
      type: "xavier"
    }
  }
}
layer {
  name: "relu3_3"
  type: "ReLU"
  bottom: "conv3_3"
  top: "conv3_3"
}
layer {
  name: "pool3"
  type: "Pooling"
  bottom: "conv3_3"
  top: "pool3"
  pooling_param {
    pool: MAX
    kernel_size: 2
    stride: 2
  }
}
layer {
  name: "conv4_1"
  type: "Convolution"
  bottom: "pool3"
  top: "conv4_1"
  param {
    lr_mult: 1
    decay_mult: 1
  }
  param {
    lr_mult: 2
    decay_mult: 0
  }
  convolution_param {
    num_output: 512
    pad: 1
    kernel_size: 3
    stride: 1
    weight_filler {
      type: "xavier"
    }
  }
}
layer {
  name: "relu4_1"
  type: "ReLU"
  bottom: "conv4_1"
  top: "conv4_1"
}
layer {
  name: "conv4_2"
  type: "Convolution"
  bottom: "conv4_1"
  top: "conv4_2"
  param {
    lr_mult: 1
    decay_mult: 1
  }
  param {
    lr_mult: 2
    decay_mult: 0
  }
  convolution_param {
    num_output: 512
    pad: 1
    kernel_size: 3
    stride: 1
    weight_filler {
      type: "xavier"
    }
  }
}
layer {
  name: "relu4_2"
  type: "ReLU"
  bottom: "conv4_2"
  top: "conv4_2"
}
layer {
  name: "conv4_3"
  type: "Convolution"
  bottom: "conv4_2"
  top: "conv4_3"
  param {
    lr_mult: 1
    decay_mult: 1
  }
  param {
    lr_mult: 2
    decay_mult: 0
  }
  convolution_param {
    num_output: 512
    pad: 1
    kernel_size: 3
    stride: 1
    weight_filler {
      type: "xavier"
    }
  }
}
layer {
  name: "relu4_3"
  type: "ReLU"
  bottom: "conv4_3"
  top: "conv4_3"
}
layer {
  name: "pool4"
  type: "Pooling"
  bottom: "conv4_3"
  top: "pool4"
  pooling_param {
    pool: MAX
    kernel_size: 2
    stride: 2
  }
}
layer {
  name: "conv5_1"
  type: "Convolution"
  bottom: "pool4"
  top: "conv5_1"
  param {
    lr_mult: 1
    decay_mult: 1
  }
  param {
    lr_mult: 2
    decay_mult: 0
  }
  convolution_param {
    num_output: 512
    pad: 1
    kernel_size: 3
    stride: 1
    weight_filler {
      type: "xavier"
    }
  }
}
layer {
  name: "relu5_1"
  type: "ReLU"
  bottom: "conv5_1"
  top: "conv5_1"
}
layer {
  name: "conv5_2"
  type: "Convolution"
  bottom: "conv5_1"
  top: "conv5_2"
  param {
    lr_mult: 1
    decay_mult: 1
  }
  param {
    lr_mult: 2
    decay_mult: 0
  }
  convolution_param {
    num_output: 512
    pad: 1
    kernel_size: 3
    stride: 1
    weight_filler {
      type: "xavier"
    }
  }
}
layer {
  name: "relu5_2"
  type: "ReLU"
  bottom: "conv5_2"
  top: "conv5_2"
}
layer {
  name: "conv5_3"
  type: "Convolution"
  bottom: "conv5_2"
  top: "conv5_3"
  param {
    lr_mult: 1
    decay_mult: 1
  }
  param {
    lr_mult: 2
    decay_mult: 0
  }
  convolution_param {
    num_output: 512
    pad: 1
    kernel_size: 3
    stride: 1
    weight_filler {
      type: "xavier"
    }
  }
}
layer {
  name: "relu5_3"
  type: "ReLU"
  bottom: "conv5_3"
  top: "conv5_3"
}
layer {
  name: "pool5"
  type: "Pooling"
  bottom: "conv5_3"
  top: "pool5"
  pooling_param {
    pool: MAX
    kernel_size: 2
    stride: 2
  }
}
layer {
  name: "fc6"
  type: "Convolution"
  bottom: "pool5"
  top: "fc6"
  param {
    lr_mult: 1
    decay_mult: 1
  }
  param {
    lr_mult: 2
    decay_mult: 0
  }
  convolution_param {
    num_output: 4096
    pad: 0
    kernel_size: 7
    stride: 1
    weight_filler {
      type: "xavier"
    }
  }
}
layer {
  name: "relu6"
  type: "ReLU"
  bottom: "fc6"
  top: "fc6"
}
layer {
  name: "drop6"
  type: "Dropout"
  bottom: "fc6"
  top: "fc6"
  dropout_param {
    dropout_ratio: 0.5
  }
}
layer {
  name: "fc7"
  type: "Convolution"
  bottom: "fc6"
  top: "fc7"
  param {
    lr_mult: 1
    decay_mult: 1
  }
  param {
    lr_mult: 2
    decay_mult: 0
  }
  convolution_param {
    num_output: 4096
    pad: 0
    kernel_size: 1
    stride: 1
    weight_filler {
      type: "xavier"
    }
  }
}
layer {
  name: "relu7"
  type: "ReLU"
  bottom: "fc7"
  top: "fc7"
}
layer {
  name: "drop7"
  type: "Dropout"
  bottom: "fc7"
  top: "fc7"
  dropout_param {
    dropout_ratio: 0.5
  }
}
layer {
  name: "score_fr"
  type: "Convolution"
  bottom: "fc7"
  top: "score_fr"
  param {
    lr_mult: 1
    decay_mult: 1
  }
  param {
    lr_mult: 2
    decay_mult: 0
  }
  convolution_param {
    num_output: 2
    pad: 0
    kernel_size: 1
    weight_filler {
      type: "xavier"
    }
  }
}
layer {
  name: "upscore2"
  type: "Deconvolution"
  bottom: "score_fr"
  top: "upscore2"
  param {
    lr_mult: 0
  }
  convolution_param {
    num_output: 2
    bias_term: false
    kernel_size: 4
    stride: 2
    weight_filler {
      type: "xavier"
    }
  }
}
layer {
  name: "scale_pool4"
  type: "Scale"
  bottom: "pool4"
  top: "scale_pool4"
  param {
    lr_mult: 0
  }
  scale_param {
    filler {
      type: "constant"
      value: 0.01
    }
  }
}
layer {
  name: "score_pool4"
  type: "Convolution"
  bottom: "scale_pool4"
  top: "score_pool4"
  param {
    lr_mult: 1
    decay_mult: 1
  }
  param {
    lr_mult: 2
    decay_mult: 0
  }
  convolution_param {
    num_output: 2
    pad: 0
    kernel_size: 1
    weight_filler {
      type: "xavier"
    }
  }
}
layer {
  name: "score_pool4c"
  type: "Crop"
  bottom: "score_pool4"
  bottom: "upscore2"
  top: "score_pool4c"
  crop_param {
    axis: 2
    offset: 5
  }
}
layer {
  name: "fuse_pool4"
  type: "Eltwise"
  bottom: "upscore2"
  bottom: "score_pool4c"
  top: "fuse_pool4"
  eltwise_param {
    operation: SUM
  }
}
layer {
  name: "upscore_pool4"
  type: "Deconvolution"
  bottom: "fuse_pool4"
  top: "upscore_pool4"
  param {
    lr_mult: 0
  }
  convolution_param {
    num_output: 2
    bias_term: false
    kernel_size: 4
    stride: 2
    weight_filler {
      type: "xavier"
    }
  }
}
layer {
  name: "scale_pool3"
  type: "Scale"
  bottom: "pool3"
  top: "scale_pool3"
  param {
    lr_mult: 0
  }
  scale_param {
    filler {
      type: "constant"
      value: 0.0001
    }
  }
}
layer {
  name: "score_pool3"
  type: "Convolution"
  bottom: "scale_pool3"
  top: "score_pool3"
  param {
    lr_mult: 1
    decay_mult: 1
  }
  param {
    lr_mult: 2
    decay_mult: 0
  }
  convolution_param {
    num_output: 2
    pad: 0
    kernel_size: 1
    weight_filler {
      type: "xavier"
    }
  }
}
layer {
  name: "score_pool3c"
  type: "Crop"
  bottom: "score_pool3"
  bottom: "upscore_pool4"
  top: "score_pool3c"
  crop_param {
    axis: 2
    offset: 9
  }
}
layer {
  name: "fuse_pool3"
  type: "Eltwise"
  bottom: "upscore_pool4"
  bottom: "score_pool3c"
  top: "fuse_pool3"
  eltwise_param {
    operation: SUM
  }
}
layer {
  name: "upscore8"
  type: "Deconvolution"
  bottom: "fuse_pool3"
  top: "upscore8"
  param {
    lr_mult: 0
  }
  convolution_param {
    num_output: 2
    bias_term: false
    kernel_size: 16
    stride: 8
    weight_filler {
      type: "xavier"
    }
  }
}
layer {
  name: "score"
  type: "Crop"
  bottom: "upscore8"
  bottom: "data"
  top: "score"
  crop_param {
    axis: 2
    offset: 31
  }
}
layer {
  name: "loss"
  type: "SoftmaxWithLoss"
  bottom: "score"
  bottom: "label"
  top: "loss"
  loss_param {
    ignore_label: 255
    normalize: false
  }
}
I0216 14:18:50.800336 31691 layer_factory.hpp:77] Creating layer data
I0216 14:18:50.800561 31691 net.cpp:100] Creating Layer data
I0216 14:18:50.800572 31691 net.cpp:408] data -> data
I0216 14:18:50.800581 31691 net.cpp:408] data -> label
I0216 14:18:50.803124 31691 net.cpp:150] Setting up data
I0216 14:18:50.803143 31691 net.cpp:157] Top shape: 1 3 84 125 (31500)
I0216 14:18:50.803149 31691 net.cpp:157] Top shape: 1 1 84 125 (10500)
I0216 14:18:50.803153 31691 net.cpp:165] Memory required for data: 168000
I0216 14:18:50.803158 31691 layer_factory.hpp:77] Creating layer data_data_0_split
I0216 14:18:50.803166 31691 net.cpp:100] Creating Layer data_data_0_split
I0216 14:18:50.803171 31691 net.cpp:434] data_data_0_split <- data
I0216 14:18:50.803179 31691 net.cpp:408] data_data_0_split -> data_data_0_split_0
I0216 14:18:50.803187 31691 net.cpp:408] data_data_0_split -> data_data_0_split_1
I0216 14:18:50.803231 31691 net.cpp:150] Setting up data_data_0_split
I0216 14:18:50.803238 31691 net.cpp:157] Top shape: 1 3 84 125 (31500)
I0216 14:18:50.803243 31691 net.cpp:157] Top shape: 1 3 84 125 (31500)
I0216 14:18:50.803247 31691 net.cpp:165] Memory required for data: 420000
I0216 14:18:50.803251 31691 layer_factory.hpp:77] Creating layer conv1_1
I0216 14:18:50.803261 31691 net.cpp:100] Creating Layer conv1_1
I0216 14:18:50.803267 31691 net.cpp:434] conv1_1 <- data_data_0_split_0
I0216 14:18:50.803272 31691 net.cpp:408] conv1_1 -> conv1_1
I0216 14:18:50.805131 31691 net.cpp:150] Setting up conv1_1
I0216 14:18:50.805148 31691 net.cpp:157] Top shape: 1 64 282 323 (5829504)
I0216 14:18:50.805153 31691 net.cpp:165] Memory required for data: 23738016
I0216 14:18:50.805166 31691 layer_factory.hpp:77] Creating layer relu1_1
I0216 14:18:50.805172 31691 net.cpp:100] Creating Layer relu1_1
I0216 14:18:50.805177 31691 net.cpp:434] relu1_1 <- conv1_1
I0216 14:18:50.805183 31691 net.cpp:395] relu1_1 -> conv1_1 (in-place)
I0216 14:18:50.805374 31691 net.cpp:150] Setting up relu1_1
I0216 14:18:50.805385 31691 net.cpp:157] Top shape: 1 64 282 323 (5829504)
I0216 14:18:50.805389 31691 net.cpp:165] Memory required for data: 47056032
I0216 14:18:50.805393 31691 layer_factory.hpp:77] Creating layer conv1_2
I0216 14:18:50.805404 31691 net.cpp:100] Creating Layer conv1_2
I0216 14:18:50.805408 31691 net.cpp:434] conv1_2 <- conv1_1
I0216 14:18:50.805415 31691 net.cpp:408] conv1_2 -> conv1_2
I0216 14:18:50.806915 31691 net.cpp:150] Setting up conv1_2
I0216 14:18:50.806937 31691 net.cpp:157] Top shape: 1 64 282 323 (5829504)
I0216 14:18:50.806942 31691 net.cpp:165] Memory required for data: 70374048
I0216 14:18:50.806952 31691 layer_factory.hpp:77] Creating layer relu1_2
I0216 14:18:50.806963 31691 net.cpp:100] Creating Layer relu1_2
I0216 14:18:50.806968 31691 net.cpp:434] relu1_2 <- conv1_2
I0216 14:18:50.806975 31691 net.cpp:395] relu1_2 -> conv1_2 (in-place)
I0216 14:18:50.807358 31691 net.cpp:150] Setting up relu1_2
I0216 14:18:50.807373 31691 net.cpp:157] Top shape: 1 64 282 323 (5829504)
I0216 14:18:50.807377 31691 net.cpp:165] Memory required for data: 93692064
I0216 14:18:50.807381 31691 layer_factory.hpp:77] Creating layer pool1
I0216 14:18:50.807389 31691 net.cpp:100] Creating Layer pool1
I0216 14:18:50.807394 31691 net.cpp:434] pool1 <- conv1_2
I0216 14:18:50.807402 31691 net.cpp:408] pool1 -> pool1
I0216 14:18:50.807456 31691 net.cpp:150] Setting up pool1
I0216 14:18:50.807464 31691 net.cpp:157] Top shape: 1 64 141 162 (1461888)
I0216 14:18:50.807468 31691 net.cpp:165] Memory required for data: 99539616
I0216 14:18:50.807472 31691 layer_factory.hpp:77] Creating layer conv2_1
I0216 14:18:50.807485 31691 net.cpp:100] Creating Layer conv2_1
I0216 14:18:50.807489 31691 net.cpp:434] conv2_1 <- pool1
I0216 14:18:50.807497 31691 net.cpp:408] conv2_1 -> conv2_1
I0216 14:18:50.809128 31691 net.cpp:150] Setting up conv2_1
I0216 14:18:50.809142 31691 net.cpp:157] Top shape: 1 128 141 162 (2923776)
I0216 14:18:50.809147 31691 net.cpp:165] Memory required for data: 111234720
I0216 14:18:50.809160 31691 layer_factory.hpp:77] Creating layer relu2_1
I0216 14:18:50.809168 31691 net.cpp:100] Creating Layer relu2_1
I0216 14:18:50.809173 31691 net.cpp:434] relu2_1 <- conv2_1
I0216 14:18:50.809180 31691 net.cpp:395] relu2_1 -> conv2_1 (in-place)
I0216 14:18:50.809576 31691 net.cpp:150] Setting up relu2_1
I0216 14:18:50.809589 31691 net.cpp:157] Top shape: 1 128 141 162 (2923776)
I0216 14:18:50.809593 31691 net.cpp:165] Memory required for data: 122929824
I0216 14:18:50.809598 31691 layer_factory.hpp:77] Creating layer conv2_2
I0216 14:18:50.809612 31691 net.cpp:100] Creating Layer conv2_2
I0216 14:18:50.809617 31691 net.cpp:434] conv2_2 <- conv2_1
I0216 14:18:50.809624 31691 net.cpp:408] conv2_2 -> conv2_2
I0216 14:18:50.812273 31691 net.cpp:150] Setting up conv2_2
I0216 14:18:50.812290 31691 net.cpp:157] Top shape: 1 128 141 162 (2923776)
I0216 14:18:50.812295 31691 net.cpp:165] Memory required for data: 134624928
I0216 14:18:50.812304 31691 layer_factory.hpp:77] Creating layer relu2_2
I0216 14:18:50.812314 31691 net.cpp:100] Creating Layer relu2_2
I0216 14:18:50.812319 31691 net.cpp:434] relu2_2 <- conv2_2
I0216 14:18:50.812325 31691 net.cpp:395] relu2_2 -> conv2_2 (in-place)
I0216 14:18:50.812526 31691 net.cpp:150] Setting up relu2_2
I0216 14:18:50.812539 31691 net.cpp:157] Top shape: 1 128 141 162 (2923776)
I0216 14:18:50.812543 31691 net.cpp:165] Memory required for data: 146320032
I0216 14:18:50.812547 31691 layer_factory.hpp:77] Creating layer pool2
I0216 14:18:50.812554 31691 net.cpp:100] Creating Layer pool2
I0216 14:18:50.812558 31691 net.cpp:434] pool2 <- conv2_2
I0216 14:18:50.812566 31691 net.cpp:408] pool2 -> pool2
I0216 14:18:50.812618 31691 net.cpp:150] Setting up pool2
I0216 14:18:50.812626 31691 net.cpp:157] Top shape: 1 128 71 81 (736128)
I0216 14:18:50.812629 31691 net.cpp:165] Memory required for data: 149264544
I0216 14:18:50.812633 31691 layer_factory.hpp:77] Creating layer conv3_1
I0216 14:18:50.812644 31691 net.cpp:100] Creating Layer conv3_1
I0216 14:18:50.812649 31691 net.cpp:434] conv3_1 <- pool2
I0216 14:18:50.812657 31691 net.cpp:408] conv3_1 -> conv3_1
I0216 14:18:50.816038 31691 net.cpp:150] Setting up conv3_1
I0216 14:18:50.816056 31691 net.cpp:157] Top shape: 1 256 71 81 (1472256)
I0216 14:18:50.816061 31691 net.cpp:165] Memory required for data: 155153568
I0216 14:18:50.816071 31691 layer_factory.hpp:77] Creating layer relu3_1
I0216 14:18:50.816081 31691 net.cpp:100] Creating Layer relu3_1
I0216 14:18:50.816085 31691 net.cpp:434] relu3_1 <- conv3_1
I0216 14:18:50.816097 31691 net.cpp:395] relu3_1 -> conv3_1 (in-place)
I0216 14:18:50.816483 31691 net.cpp:150] Setting up relu3_1
I0216 14:18:50.816498 31691 net.cpp:157] Top shape: 1 256 71 81 (1472256)
I0216 14:18:50.816503 31691 net.cpp:165] Memory required for data: 161042592
I0216 14:18:50.816507 31691 layer_factory.hpp:77] Creating layer conv3_2
I0216 14:18:50.816519 31691 net.cpp:100] Creating Layer conv3_2
I0216 14:18:50.816524 31691 net.cpp:434] conv3_2 <- conv3_1
I0216 14:18:50.816532 31691 net.cpp:408] conv3_2 -> conv3_2
I0216 14:18:50.821904 31691 net.cpp:150] Setting up conv3_2
I0216 14:18:50.821920 31691 net.cpp:157] Top shape: 1 256 71 81 (1472256)
I0216 14:18:50.821925 31691 net.cpp:165] Memory required for data: 166931616
I0216 14:18:50.821933 31691 layer_factory.hpp:77] Creating layer relu3_2
I0216 14:18:50.821940 31691 net.cpp:100] Creating Layer relu3_2
I0216 14:18:50.821945 31691 net.cpp:434] relu3_2 <- conv3_2
I0216 14:18:50.821954 31691 net.cpp:395] relu3_2 -> conv3_2 (in-place)
I0216 14:18:50.822160 31691 net.cpp:150] Setting up relu3_2
I0216 14:18:50.822170 31691 net.cpp:157] Top shape: 1 256 71 81 (1472256)
I0216 14:18:50.822173 31691 net.cpp:165] Memory required for data: 172820640
I0216 14:18:50.822178 31691 layer_factory.hpp:77] Creating layer conv3_3
I0216 14:18:50.822191 31691 net.cpp:100] Creating Layer conv3_3
I0216 14:18:50.822196 31691 net.cpp:434] conv3_3 <- conv3_2
I0216 14:18:50.822206 31691 net.cpp:408] conv3_3 -> conv3_3
I0216 14:18:50.827546 31691 net.cpp:150] Setting up conv3_3
I0216 14:18:50.827564 31691 net.cpp:157] Top shape: 1 256 71 81 (1472256)
I0216 14:18:50.827569 31691 net.cpp:165] Memory required for data: 178709664
I0216 14:18:50.827576 31691 layer_factory.hpp:77] Creating layer relu3_3
I0216 14:18:50.827584 31691 net.cpp:100] Creating Layer relu3_3
I0216 14:18:50.827589 31691 net.cpp:434] relu3_3 <- conv3_3
I0216 14:18:50.827597 31691 net.cpp:395] relu3_3 -> conv3_3 (in-place)
I0216 14:18:50.827795 31691 net.cpp:150] Setting up relu3_3
I0216 14:18:50.827806 31691 net.cpp:157] Top shape: 1 256 71 81 (1472256)
I0216 14:18:50.827811 31691 net.cpp:165] Memory required for data: 184598688
I0216 14:18:50.827814 31691 layer_factory.hpp:77] Creating layer pool3
I0216 14:18:50.827823 31691 net.cpp:100] Creating Layer pool3
I0216 14:18:50.827828 31691 net.cpp:434] pool3 <- conv3_3
I0216 14:18:50.827834 31691 net.cpp:408] pool3 -> pool3
I0216 14:18:50.827889 31691 net.cpp:150] Setting up pool3
I0216 14:18:50.827896 31691 net.cpp:157] Top shape: 1 256 36 41 (377856)
I0216 14:18:50.827900 31691 net.cpp:165] Memory required for data: 186110112
I0216 14:18:50.827904 31691 layer_factory.hpp:77] Creating layer pool3_pool3_0_split
I0216 14:18:50.827911 31691 net.cpp:100] Creating Layer pool3_pool3_0_split
I0216 14:18:50.827915 31691 net.cpp:434] pool3_pool3_0_split <- pool3
I0216 14:18:50.827922 31691 net.cpp:408] pool3_pool3_0_split -> pool3_pool3_0_split_0
I0216 14:18:50.827929 31691 net.cpp:408] pool3_pool3_0_split -> pool3_pool3_0_split_1
I0216 14:18:50.827971 31691 net.cpp:150] Setting up pool3_pool3_0_split
I0216 14:18:50.827980 31691 net.cpp:157] Top shape: 1 256 36 41 (377856)
I0216 14:18:50.827986 31691 net.cpp:157] Top shape: 1 256 36 41 (377856)
I0216 14:18:50.827989 31691 net.cpp:165] Memory required for data: 189132960
I0216 14:18:50.827993 31691 layer_factory.hpp:77] Creating layer conv4_1
I0216 14:18:50.828004 31691 net.cpp:100] Creating Layer conv4_1
I0216 14:18:50.828008 31691 net.cpp:434] conv4_1 <- pool3_pool3_0_split_0
I0216 14:18:50.828016 31691 net.cpp:408] conv4_1 -> conv4_1
I0216 14:18:50.837239 31691 net.cpp:150] Setting up conv4_1
I0216 14:18:50.837258 31691 net.cpp:157] Top shape: 1 512 36 41 (755712)
I0216 14:18:50.837263 31691 net.cpp:165] Memory required for data: 192155808
I0216 14:18:50.837271 31691 layer_factory.hpp:77] Creating layer relu4_1
I0216 14:18:50.837282 31691 net.cpp:100] Creating Layer relu4_1
I0216 14:18:50.837287 31691 net.cpp:434] relu4_1 <- conv4_1
I0216 14:18:50.837293 31691 net.cpp:395] relu4_1 -> conv4_1 (in-place)
I0216 14:18:50.837704 31691 net.cpp:150] Setting up relu4_1
I0216 14:18:50.837719 31691 net.cpp:157] Top shape: 1 512 36 41 (755712)
I0216 14:18:50.837724 31691 net.cpp:165] Memory required for data: 195178656
I0216 14:18:50.837729 31691 layer_factory.hpp:77] Creating layer conv4_2
I0216 14:18:50.837741 31691 net.cpp:100] Creating Layer conv4_2
I0216 14:18:50.837748 31691 net.cpp:434] conv4_2 <- conv4_1
I0216 14:18:50.837756 31691 net.cpp:408] conv4_2 -> conv4_2
I0216 14:18:50.855089 31691 net.cpp:150] Setting up conv4_2
I0216 14:18:50.855119 31691 net.cpp:157] Top shape: 1 512 36 41 (755712)
I0216 14:18:50.855124 31691 net.cpp:165] Memory required for data: 198201504
I0216 14:18:50.855142 31691 layer_factory.hpp:77] Creating layer relu4_2
I0216 14:18:50.855152 31691 net.cpp:100] Creating Layer relu4_2
I0216 14:18:50.855159 31691 net.cpp:434] relu4_2 <- conv4_2
I0216 14:18:50.855165 31691 net.cpp:395] relu4_2 -> conv4_2 (in-place)
I0216 14:18:50.855371 31691 net.cpp:150] Setting up relu4_2
I0216 14:18:50.855382 31691 net.cpp:157] Top shape: 1 512 36 41 (755712)
I0216 14:18:50.855386 31691 net.cpp:165] Memory required for data: 201224352
I0216 14:18:50.855391 31691 layer_factory.hpp:77] Creating layer conv4_3
I0216 14:18:50.855404 31691 net.cpp:100] Creating Layer conv4_3
I0216 14:18:50.855409 31691 net.cpp:434] conv4_3 <- conv4_2
I0216 14:18:50.855422 31691 net.cpp:408] conv4_3 -> conv4_3
I0216 14:18:50.872829 31691 net.cpp:150] Setting up conv4_3
I0216 14:18:50.872858 31691 net.cpp:157] Top shape: 1 512 36 41 (755712)
I0216 14:18:50.872862 31691 net.cpp:165] Memory required for data: 204247200
I0216 14:18:50.872872 31691 layer_factory.hpp:77] Creating layer relu4_3
I0216 14:18:50.872884 31691 net.cpp:100] Creating Layer relu4_3
I0216 14:18:50.872889 31691 net.cpp:434] relu4_3 <- conv4_3
I0216 14:18:50.872900 31691 net.cpp:395] relu4_3 -> conv4_3 (in-place)
I0216 14:18:50.873121 31691 net.cpp:150] Setting up relu4_3
I0216 14:18:50.873132 31691 net.cpp:157] Top shape: 1 512 36 41 (755712)
I0216 14:18:50.873137 31691 net.cpp:165] Memory required for data: 207270048
I0216 14:18:50.873142 31691 layer_factory.hpp:77] Creating layer pool4
I0216 14:18:50.873152 31691 net.cpp:100] Creating Layer pool4
I0216 14:18:50.873155 31691 net.cpp:434] pool4 <- conv4_3
I0216 14:18:50.873164 31691 net.cpp:408] pool4 -> pool4
I0216 14:18:50.873224 31691 net.cpp:150] Setting up pool4
I0216 14:18:50.873231 31691 net.cpp:157] Top shape: 1 512 18 21 (193536)
I0216 14:18:50.873235 31691 net.cpp:165] Memory required for data: 208044192
I0216 14:18:50.873240 31691 layer_factory.hpp:77] Creating layer pool4_pool4_0_split
I0216 14:18:50.873250 31691 net.cpp:100] Creating Layer pool4_pool4_0_split
I0216 14:18:50.873255 31691 net.cpp:434] pool4_pool4_0_split <- pool4
I0216 14:18:50.873260 31691 net.cpp:408] pool4_pool4_0_split -> pool4_pool4_0_split_0
I0216 14:18:50.873270 31691 net.cpp:408] pool4_pool4_0_split -> pool4_pool4_0_split_1
I0216 14:18:50.873316 31691 net.cpp:150] Setting up pool4_pool4_0_split
I0216 14:18:50.873322 31691 net.cpp:157] Top shape: 1 512 18 21 (193536)
I0216 14:18:50.873327 31691 net.cpp:157] Top shape: 1 512 18 21 (193536)
I0216 14:18:50.873332 31691 net.cpp:165] Memory required for data: 209592480
I0216 14:18:50.873335 31691 layer_factory.hpp:77] Creating layer conv5_1
I0216 14:18:50.873353 31691 net.cpp:100] Creating Layer conv5_1
I0216 14:18:50.873358 31691 net.cpp:434] conv5_1 <- pool4_pool4_0_split_0
I0216 14:18:50.873366 31691 net.cpp:408] conv5_1 -> conv5_1
I0216 14:18:50.890619 31691 net.cpp:150] Setting up conv5_1
I0216 14:18:50.890650 31691 net.cpp:157] Top shape: 1 512 18 21 (193536)
I0216 14:18:50.890653 31691 net.cpp:165] Memory required for data: 210366624
I0216 14:18:50.890663 31691 layer_factory.hpp:77] Creating layer relu5_1
I0216 14:18:50.890676 31691 net.cpp:100] Creating Layer relu5_1
I0216 14:18:50.890681 31691 net.cpp:434] relu5_1 <- conv5_1
I0216 14:18:50.890688 31691 net.cpp:395] relu5_1 -> conv5_1 (in-place)
I0216 14:18:50.891077 31691 net.cpp:150] Setting up relu5_1
I0216 14:18:50.891091 31691 net.cpp:157] Top shape: 1 512 18 21 (193536)
I0216 14:18:50.891108 31691 net.cpp:165] Memory required for data: 211140768
I0216 14:18:50.891113 31691 layer_factory.hpp:77] Creating layer conv5_2
I0216 14:18:50.891126 31691 net.cpp:100] Creating Layer conv5_2
I0216 14:18:50.891131 31691 net.cpp:434] conv5_2 <- conv5_1
I0216 14:18:50.891141 31691 net.cpp:408] conv5_2 -> conv5_2
I0216 14:18:50.908543 31691 net.cpp:150] Setting up conv5_2
I0216 14:18:50.908571 31691 net.cpp:157] Top shape: 1 512 18 21 (193536)
I0216 14:18:50.908576 31691 net.cpp:165] Memory required for data: 211914912
I0216 14:18:50.908586 31691 layer_factory.hpp:77] Creating layer relu5_2
I0216 14:18:50.908597 31691 net.cpp:100] Creating Layer relu5_2
I0216 14:18:50.908602 31691 net.cpp:434] relu5_2 <- conv5_2
I0216 14:18:50.908609 31691 net.cpp:395] relu5_2 -> conv5_2 (in-place)
I0216 14:18:50.908818 31691 net.cpp:150] Setting up relu5_2
I0216 14:18:50.908829 31691 net.cpp:157] Top shape: 1 512 18 21 (193536)
I0216 14:18:50.908833 31691 net.cpp:165] Memory required for data: 212689056
I0216 14:18:50.908838 31691 layer_factory.hpp:77] Creating layer conv5_3
I0216 14:18:50.908859 31691 net.cpp:100] Creating Layer conv5_3
I0216 14:18:50.908864 31691 net.cpp:434] conv5_3 <- conv5_2
I0216 14:18:50.908874 31691 net.cpp:408] conv5_3 -> conv5_3
I0216 14:18:50.926221 31691 net.cpp:150] Setting up conv5_3
I0216 14:18:50.926247 31691 net.cpp:157] Top shape: 1 512 18 21 (193536)
I0216 14:18:50.926252 31691 net.cpp:165] Memory required for data: 213463200
I0216 14:18:50.926264 31691 layer_factory.hpp:77] Creating layer relu5_3
I0216 14:18:50.926272 31691 net.cpp:100] Creating Layer relu5_3
I0216 14:18:50.926278 31691 net.cpp:434] relu5_3 <- conv5_3
I0216 14:18:50.926287 31691 net.cpp:395] relu5_3 -> conv5_3 (in-place)
I0216 14:18:50.926491 31691 net.cpp:150] Setting up relu5_3
I0216 14:18:50.926502 31691 net.cpp:157] Top shape: 1 512 18 21 (193536)
I0216 14:18:50.926506 31691 net.cpp:165] Memory required for data: 214237344
I0216 14:18:50.926512 31691 layer_factory.hpp:77] Creating layer pool5
I0216 14:18:50.926520 31691 net.cpp:100] Creating Layer pool5
I0216 14:18:50.926525 31691 net.cpp:434] pool5 <- conv5_3
I0216 14:18:50.926533 31691 net.cpp:408] pool5 -> pool5
I0216 14:18:50.926594 31691 net.cpp:150] Setting up pool5
I0216 14:18:50.926602 31691 net.cpp:157] Top shape: 1 512 9 11 (50688)
I0216 14:18:50.926606 31691 net.cpp:165] Memory required for data: 214440096
I0216 14:18:50.926611 31691 layer_factory.hpp:77] Creating layer fc6
I0216 14:18:50.926623 31691 net.cpp:100] Creating Layer fc6
I0216 14:18:50.926628 31691 net.cpp:434] fc6 <- pool5
I0216 14:18:50.926635 31691 net.cpp:408] fc6 -> fc6
I0216 14:18:51.645740 31691 net.cpp:150] Setting up fc6
I0216 14:18:51.645805 31691 net.cpp:157] Top shape: 1 4096 3 5 (61440)
I0216 14:18:51.645810 31691 net.cpp:165] Memory required for data: 214685856
I0216 14:18:51.645835 31691 layer_factory.hpp:77] Creating layer relu6
I0216 14:18:51.645864 31691 net.cpp:100] Creating Layer relu6
I0216 14:18:51.645870 31691 net.cpp:434] relu6 <- fc6
I0216 14:18:51.645879 31691 net.cpp:395] relu6 -> fc6 (in-place)
I0216 14:18:51.646288 31691 net.cpp:150] Setting up relu6
I0216 14:18:51.646303 31691 net.cpp:157] Top shape: 1 4096 3 5 (61440)
I0216 14:18:51.646307 31691 net.cpp:165] Memory required for data: 214931616
I0216 14:18:51.646312 31691 layer_factory.hpp:77] Creating layer drop6
I0216 14:18:51.646324 31691 net.cpp:100] Creating Layer drop6
I0216 14:18:51.646328 31691 net.cpp:434] drop6 <- fc6
I0216 14:18:51.646335 31691 net.cpp:395] drop6 -> fc6 (in-place)
I0216 14:18:51.646380 31691 net.cpp:150] Setting up drop6
I0216 14:18:51.646389 31691 net.cpp:157] Top shape: 1 4096 3 5 (61440)
I0216 14:18:51.646392 31691 net.cpp:165] Memory required for data: 215177376
I0216 14:18:51.646396 31691 layer_factory.hpp:77] Creating layer fc7
I0216 14:18:51.646411 31691 net.cpp:100] Creating Layer fc7
I0216 14:18:51.646415 31691 net.cpp:434] fc7 <- fc6
I0216 14:18:51.646425 31691 net.cpp:408] fc7 -> fc7
I0216 14:18:51.765283 31691 net.cpp:150] Setting up fc7
I0216 14:18:51.765350 31691 net.cpp:157] Top shape: 1 4096 3 5 (61440)
I0216 14:18:51.765357 31691 net.cpp:165] Memory required for data: 215423136
I0216 14:18:51.765368 31691 layer_factory.hpp:77] Creating layer relu7
I0216 14:18:51.765384 31691 net.cpp:100] Creating Layer relu7
I0216 14:18:51.765391 31691 net.cpp:434] relu7 <- fc7
I0216 14:18:51.765403 31691 net.cpp:395] relu7 -> fc7 (in-place)
I0216 14:18:51.765625 31691 net.cpp:150] Setting up relu7
I0216 14:18:51.765635 31691 net.cpp:157] Top shape: 1 4096 3 5 (61440)
I0216 14:18:51.765650 31691 net.cpp:165] Memory required for data: 215668896
I0216 14:18:51.765655 31691 layer_factory.hpp:77] Creating layer drop7
I0216 14:18:51.765663 31691 net.cpp:100] Creating Layer drop7
I0216 14:18:51.765668 31691 net.cpp:434] drop7 <- fc7
I0216 14:18:51.765676 31691 net.cpp:395] drop7 -> fc7 (in-place)
I0216 14:18:51.765717 31691 net.cpp:150] Setting up drop7
I0216 14:18:51.765724 31691 net.cpp:157] Top shape: 1 4096 3 5 (61440)
I0216 14:18:51.765728 31691 net.cpp:165] Memory required for data: 215914656
I0216 14:18:51.765733 31691 layer_factory.hpp:77] Creating layer score_fr
I0216 14:18:51.765748 31691 net.cpp:100] Creating Layer score_fr
I0216 14:18:51.765753 31691 net.cpp:434] score_fr <- fc7
I0216 14:18:51.765760 31691 net.cpp:408] score_fr -> score_fr
I0216 14:18:51.767382 31691 net.cpp:150] Setting up score_fr
I0216 14:18:51.767397 31691 net.cpp:157] Top shape: 1 2 3 5 (30)
I0216 14:18:51.767402 31691 net.cpp:165] Memory required for data: 215914776
I0216 14:18:51.767412 31691 layer_factory.hpp:77] Creating layer upscore2
I0216 14:18:51.767426 31691 net.cpp:100] Creating Layer upscore2
I0216 14:18:51.767429 31691 net.cpp:434] upscore2 <- score_fr
I0216 14:18:51.767437 31691 net.cpp:408] upscore2 -> upscore2
I0216 14:18:51.767698 31691 net.cpp:150] Setting up upscore2
I0216 14:18:51.767706 31691 net.cpp:157] Top shape: 1 2 8 12 (192)
I0216 14:18:51.767710 31691 net.cpp:165] Memory required for data: 215915544
I0216 14:18:51.767726 31691 layer_factory.hpp:77] Creating layer upscore2_upscore2_0_split
I0216 14:18:51.767735 31691 net.cpp:100] Creating Layer upscore2_upscore2_0_split
I0216 14:18:51.767740 31691 net.cpp:434] upscore2_upscore2_0_split <- upscore2
I0216 14:18:51.767745 31691 net.cpp:408] upscore2_upscore2_0_split -> upscore2_upscore2_0_split_0
I0216 14:18:51.767753 31691 net.cpp:408] upscore2_upscore2_0_split -> upscore2_upscore2_0_split_1
I0216 14:18:51.767802 31691 net.cpp:150] Setting up upscore2_upscore2_0_split
I0216 14:18:51.767809 31691 net.cpp:157] Top shape: 1 2 8 12 (192)
I0216 14:18:51.767817 31691 net.cpp:157] Top shape: 1 2 8 12 (192)
I0216 14:18:51.767820 31691 net.cpp:165] Memory required for data: 215917080
I0216 14:18:51.767824 31691 layer_factory.hpp:77] Creating layer scale_pool4
I0216 14:18:51.767833 31691 net.cpp:100] Creating Layer scale_pool4
I0216 14:18:51.767838 31691 net.cpp:434] scale_pool4 <- pool4_pool4_0_split_1
I0216 14:18:51.767845 31691 net.cpp:408] scale_pool4 -> scale_pool4
I0216 14:18:51.767977 31691 net.cpp:150] Setting up scale_pool4
I0216 14:18:51.767987 31691 net.cpp:157] Top shape: 1 512 18 21 (193536)
I0216 14:18:51.767990 31691 net.cpp:165] Memory required for data: 216691224
I0216 14:18:51.767995 31691 layer_factory.hpp:77] Creating layer score_pool4
I0216 14:18:51.768007 31691 net.cpp:100] Creating Layer score_pool4
I0216 14:18:51.768013 31691 net.cpp:434] score_pool4 <- scale_pool4
I0216 14:18:51.768020 31691 net.cpp:408] score_pool4 -> score_pool4
I0216 14:18:51.769354 31691 net.cpp:150] Setting up score_pool4
I0216 14:18:51.769369 31691 net.cpp:157] Top shape: 1 2 18 21 (756)
I0216 14:18:51.769374 31691 net.cpp:165] Memory required for data: 216694248
I0216 14:18:51.769382 31691 layer_factory.hpp:77] Creating layer score_pool4c
I0216 14:18:51.769393 31691 net.cpp:100] Creating Layer score_pool4c
I0216 14:18:51.769398 31691 net.cpp:434] score_pool4c <- score_pool4
I0216 14:18:51.769404 31691 net.cpp:434] score_pool4c <- upscore2_upscore2_0_split_0
I0216 14:18:51.769412 31691 net.cpp:408] score_pool4c -> score_pool4c
I0216 14:18:51.769456 31691 net.cpp:150] Setting up score_pool4c
I0216 14:18:51.769464 31691 net.cpp:157] Top shape: 1 2 8 12 (192)
I0216 14:18:51.769469 31691 net.cpp:165] Memory required for data: 216695016
I0216 14:18:51.769472 31691 layer_factory.hpp:77] Creating layer fuse_pool4
I0216 14:18:51.769484 31691 net.cpp:100] Creating Layer fuse_pool4
I0216 14:18:51.769489 31691 net.cpp:434] fuse_pool4 <- upscore2_upscore2_0_split_1
I0216 14:18:51.769495 31691 net.cpp:434] fuse_pool4 <- score_pool4c
I0216 14:18:51.769500 31691 net.cpp:408] fuse_pool4 -> fuse_pool4
I0216 14:18:51.769536 31691 net.cpp:150] Setting up fuse_pool4
I0216 14:18:51.769542 31691 net.cpp:157] Top shape: 1 2 8 12 (192)
I0216 14:18:51.769546 31691 net.cpp:165] Memory required for data: 216695784
I0216 14:18:51.769551 31691 layer_factory.hpp:77] Creating layer upscore_pool4
I0216 14:18:51.769560 31691 net.cpp:100] Creating Layer upscore_pool4
I0216 14:18:51.769565 31691 net.cpp:434] upscore_pool4 <- fuse_pool4
I0216 14:18:51.769573 31691 net.cpp:408] upscore_pool4 -> upscore_pool4
I0216 14:18:51.769824 31691 net.cpp:150] Setting up upscore_pool4
I0216 14:18:51.769836 31691 net.cpp:157] Top shape: 1 2 18 26 (936)
I0216 14:18:51.769840 31691 net.cpp:165] Memory required for data: 216699528
I0216 14:18:51.769845 31691 layer_factory.hpp:77] Creating layer upscore_pool4_upscore_pool4_0_split
I0216 14:18:51.769853 31691 net.cpp:100] Creating Layer upscore_pool4_upscore_pool4_0_split
I0216 14:18:51.769857 31691 net.cpp:434] upscore_pool4_upscore_pool4_0_split <- upscore_pool4
I0216 14:18:51.769863 31691 net.cpp:408] upscore_pool4_upscore_pool4_0_split -> upscore_pool4_upscore_pool4_0_split_0
I0216 14:18:51.769870 31691 net.cpp:408] upscore_pool4_upscore_pool4_0_split -> upscore_pool4_upscore_pool4_0_split_1
I0216 14:18:51.769918 31691 net.cpp:150] Setting up upscore_pool4_upscore_pool4_0_split
I0216 14:18:51.769925 31691 net.cpp:157] Top shape: 1 2 18 26 (936)
I0216 14:18:51.769930 31691 net.cpp:157] Top shape: 1 2 18 26 (936)
I0216 14:18:51.769934 31691 net.cpp:165] Memory required for data: 216707016
I0216 14:18:51.769938 31691 layer_factory.hpp:77] Creating layer scale_pool3
I0216 14:18:51.769946 31691 net.cpp:100] Creating Layer scale_pool3
I0216 14:18:51.769950 31691 net.cpp:434] scale_pool3 <- pool3_pool3_0_split_1
I0216 14:18:51.769959 31691 net.cpp:408] scale_pool3 -> scale_pool3
I0216 14:18:51.770072 31691 net.cpp:150] Setting up scale_pool3
I0216 14:18:51.770082 31691 net.cpp:157] Top shape: 1 256 36 41 (377856)
I0216 14:18:51.770087 31691 net.cpp:165] Memory required for data: 218218440
I0216 14:18:51.770092 31691 layer_factory.hpp:77] Creating layer score_pool3
I0216 14:18:51.770102 31691 net.cpp:100] Creating Layer score_pool3
I0216 14:18:51.770105 31691 net.cpp:434] score_pool3 <- scale_pool3
I0216 14:18:51.770114 31691 net.cpp:408] score_pool3 -> score_pool3
I0216 14:18:51.771466 31691 net.cpp:150] Setting up score_pool3
I0216 14:18:51.771482 31691 net.cpp:157] Top shape: 1 2 36 41 (2952)
I0216 14:18:51.771486 31691 net.cpp:165] Memory required for data: 218230248
I0216 14:18:51.771494 31691 layer_factory.hpp:77] Creating layer score_pool3c
I0216 14:18:51.771505 31691 net.cpp:100] Creating Layer score_pool3c
I0216 14:18:51.771510 31691 net.cpp:434] score_pool3c <- score_pool3
I0216 14:18:51.771517 31691 net.cpp:434] score_pool3c <- upscore_pool4_upscore_pool4_0_split_0
I0216 14:18:51.771523 31691 net.cpp:408] score_pool3c -> score_pool3c
I0216 14:18:51.771564 31691 net.cpp:150] Setting up score_pool3c
I0216 14:18:51.771571 31691 net.cpp:157] Top shape: 1 2 18 26 (936)
I0216 14:18:51.771575 31691 net.cpp:165] Memory required for data: 218233992
I0216 14:18:51.771579 31691 layer_factory.hpp:77] Creating layer fuse_pool3
I0216 14:18:51.771586 31691 net.cpp:100] Creating Layer fuse_pool3
I0216 14:18:51.771590 31691 net.cpp:434] fuse_pool3 <- upscore_pool4_upscore_pool4_0_split_1
I0216 14:18:51.771596 31691 net.cpp:434] fuse_pool3 <- score_pool3c
I0216 14:18:51.771603 31691 net.cpp:408] fuse_pool3 -> fuse_pool3
I0216 14:18:51.771637 31691 net.cpp:150] Setting up fuse_pool3
I0216 14:18:51.771649 31691 net.cpp:157] Top shape: 1 2 18 26 (936)
I0216 14:18:51.771653 31691 net.cpp:165] Memory required for data: 218237736
I0216 14:18:51.771657 31691 layer_factory.hpp:77] Creating layer upscore8
I0216 14:18:51.771667 31691 net.cpp:100] Creating Layer upscore8
I0216 14:18:51.771670 31691 net.cpp:434] upscore8 <- fuse_pool3
I0216 14:18:51.771679 31691 net.cpp:408] upscore8 -> upscore8
I0216 14:18:51.771929 31691 net.cpp:150] Setting up upscore8
I0216 14:18:51.771939 31691 net.cpp:157] Top shape: 1 2 152 216 (65664)
I0216 14:18:51.771941 31691 net.cpp:165] Memory required for data: 218500392
I0216 14:18:51.771947 31691 layer_factory.hpp:77] Creating layer score
I0216 14:18:51.771956 31691 net.cpp:100] Creating Layer score
I0216 14:18:51.771961 31691 net.cpp:434] score <- upscore8
I0216 14:18:51.771966 31691 net.cpp:434] score <- data_data_0_split_1
I0216 14:18:51.771973 31691 net.cpp:408] score -> score
I0216 14:18:51.772004 31691 net.cpp:150] Setting up score
I0216 14:18:51.772011 31691 net.cpp:157] Top shape: 1 2 84 125 (21000)
I0216 14:18:51.772014 31691 net.cpp:165] Memory required for data: 218584392
I0216 14:18:51.772018 31691 layer_factory.hpp:77] Creating layer loss
I0216 14:18:51.772029 31691 net.cpp:100] Creating Layer loss
I0216 14:18:51.772034 31691 net.cpp:434] loss <- score
I0216 14:18:51.772039 31691 net.cpp:434] loss <- label
I0216 14:18:51.772045 31691 net.cpp:408] loss -> loss
I0216 14:18:51.772056 31691 layer_factory.hpp:77] Creating layer loss
…
