…
snapshot_prefix: "snapshot/train"
test_initialization: false
average_loss: 20
iter_size: 1
I1223 03:48:59.968022 18197 solver.cpp:81] Creating training net from train_net file: train.prototxt
I1223 03:48:59.969352 18197 net.cpp:58] Initializing net from parameters: 
state {
  phase: TRAIN
}
layer {
  name: "data"
  type: "Python"
  top: "data"
  top: "label"
  python_param {
    module: "voc_layers"
    layer: "SBDDSegDataLayer"
    param_str: "{\'sbdd_dir\': \'../data/sbdd/dataset\', \'seed\': 1337, \'split\': \'train15\', \'mean\': (104.00699, 116.66877, 122.67892)}"
  }
}
layer {
  name: "conv1_1"
  type: "Convolution"
  bottom: "data"
  top: "conv1_1"
  param {
    lr_mult: 1
    decay_mult: 1
  }
  param {
    lr_mult: 2
    decay_mult: 0
  }
  convolution_param {
    num_output: 64
    pad: 100
    kernel_size: 3
    stride: 1
    weight_filler {
      type: "xavier"
    }
  }
}
layer {
  name: "relu1_1"
  type: "ReLU"
  bottom: "conv1_1"
  top: "conv1_1"
}
layer {
  name: "conv1_2"
  type: "Convolution"
  bottom: "conv1_1"
  top: "conv1_2"
  param {
    lr_mult: 1
    decay_mult: 1
  }
  param {
    lr_mult: 2
    decay_mult: 0
  }
  convolution_param {
    num_output: 64
    pad: 1
    kernel_size: 3
    stride: 1
    weight_filler {
      type: "xavier"
    }
  }
}
layer {
  name: "relu1_2"
  type: "ReLU"
  bottom: "conv1_2"
  top: "conv1_2"
}
layer {
  name: "pool1"
  type: "Pooling"
  bottom: "conv1_2"
  top: "pool1"
  pooling_param {
    pool: MAX
    kernel_size: 2
    stride: 2
  }
}
layer {
  name: "conv2_1"
  type: "Convolution"
  bottom: "pool1"
  top: "conv2_1"
  param {
    lr_mult: 1
    decay_mult: 1
  }
  param {
    lr_mult: 2
    decay_mult: 0
  }
  convolution_param {
    num_output: 128
    pad: 1
    kernel_size: 3
    stride: 1
    weight_filler {
      type: "xavier"
    }
  }
}
layer {
  name: "relu2_1"
  type: "ReLU"
  bottom: "conv2_1"
  top: "conv2_1"
}
layer {
  name: "conv2_2"
  type: "Convolution"
  bottom: "conv2_1"
  top: "conv2_2"
  param {
    lr_mult: 1
    decay_mult: 1
  }
  param {
    lr_mult: 2
    decay_mult: 0
  }
  convolution_param {
    num_output: 128
    pad: 1
    kernel_size: 3
    stride: 1
    weight_filler {
      type: "xavier"
    }
  }
}
layer {
  name: "relu2_2"
  type: "ReLU"
  bottom: "conv2_2"
  top: "conv2_2"
}
layer {
  name: "pool2"
  type: "Pooling"
  bottom: "conv2_2"
  top: "pool2"
  pooling_param {
    pool: MAX
    kernel_size: 2
    stride: 2
  }
}
layer {
  name: "conv3_1"
  type: "Convolution"
  bottom: "pool2"
  top: "conv3_1"
  param {
    lr_mult: 1
    decay_mult: 1
  }
  param {
    lr_mult: 2
    decay_mult: 0
  }
  convolution_param {
    num_output: 256
    pad: 1
    kernel_size: 3
    stride: 1
    weight_filler {
      type: "xavier"
    }
  }
}
layer {
  name: "relu3_1"
  type: "ReLU"
  bottom: "conv3_1"
  top: "conv3_1"
}
layer {
  name: "conv3_2"
  type: "Convolution"
  bottom: "conv3_1"
  top: "conv3_2"
  param {
    lr_mult: 1
    decay_mult: 1
  }
  param {
    lr_mult: 2
    decay_mult: 0
  }
  convolution_param {
    num_output: 256
    pad: 1
    kernel_size: 3
    stride: 1
    weight_filler {
      type: "xavier"
    }
  }
}
layer {
  name: "relu3_2"
  type: "ReLU"
  bottom: "conv3_2"
  top: "conv3_2"
}
layer {
  name: "conv3_3"
  type: "Convolution"
  bottom: "conv3_2"
  top: "conv3_3"
  param {
    lr_mult: 1
    decay_mult: 1
  }
  param {
    lr_mult: 2
    decay_mult: 0
  }
  convolution_param {
    num_output: 256
    pad: 1
    kernel_size: 3
    stride: 1
    weight_filler {
      type: "xavier"
    }
  }
}
layer {
  name: "relu3_3"
  type: "ReLU"
  bottom: "conv3_3"
  top: "conv3_3"
}
layer {
  name: "pool3"
  type: "Pooling"
  bottom: "conv3_3"
  top: "pool3"
  pooling_param {
    pool: MAX
    kernel_size: 2
    stride: 2
  }
}
layer {
  name: "conv4_1"
  type: "Convolution"
  bottom: "pool3"
  top: "conv4_1"
  param {
    lr_mult: 1
    decay_mult: 1
  }
  param {
    lr_mult: 2
    decay_mult: 0
  }
  convolution_param {
    num_output: 512
    pad: 1
    kernel_size: 3
    stride: 1
    weight_filler {
      type: "xavier"
    }
  }
}
layer {
  name: "relu4_1"
  type: "ReLU"
  bottom: "conv4_1"
  top: "conv4_1"
}
layer {
  name: "conv4_2"
  type: "Convolution"
  bottom: "conv4_1"
  top: "conv4_2"
  param {
    lr_mult: 1
    decay_mult: 1
  }
  param {
    lr_mult: 2
    decay_mult: 0
  }
  convolution_param {
    num_output: 512
    pad: 1
    kernel_size: 3
    stride: 1
    weight_filler {
      type: "xavier"
    }
  }
}
layer {
  name: "relu4_2"
  type: "ReLU"
  bottom: "conv4_2"
  top: "conv4_2"
}
layer {
  name: "conv4_3"
  type: "Convolution"
  bottom: "conv4_2"
  top: "conv4_3"
  param {
    lr_mult: 1
    decay_mult: 1
  }
  param {
    lr_mult: 2
    decay_mult: 0
  }
  convolution_param {
    num_output: 512
    pad: 1
    kernel_size: 3
    stride: 1
    weight_filler {
      type: "xavier"
    }
  }
}
layer {
  name: "relu4_3"
  type: "ReLU"
  bottom: "conv4_3"
  top: "conv4_3"
}
layer {
  name: "pool4"
  type: "Pooling"
  bottom: "conv4_3"
  top: "pool4"
  pooling_param {
    pool: MAX
    kernel_size: 2
    stride: 2
  }
}
layer {
  name: "conv5_1"
  type: "Convolution"
  bottom: "pool4"
  top: "conv5_1"
  param {
    lr_mult: 1
    decay_mult: 1
  }
  param {
    lr_mult: 2
    decay_mult: 0
  }
  convolution_param {
    num_output: 512
    pad: 1
    kernel_size: 3
    stride: 1
    weight_filler {
      type: "xavier"
    }
  }
}
layer {
  name: "relu5_1"
  type: "ReLU"
  bottom: "conv5_1"
  top: "conv5_1"
}
layer {
  name: "conv5_2"
  type: "Convolution"
  bottom: "conv5_1"
  top: "conv5_2"
  param {
    lr_mult: 1
    decay_mult: 1
  }
  param {
    lr_mult: 2
    decay_mult: 0
  }
  convolution_param {
    num_output: 512
    pad: 1
    kernel_size: 3
    stride: 1
    weight_filler {
      type: "xavier"
    }
  }
}
layer {
  name: "relu5_2"
  type: "ReLU"
  bottom: "conv5_2"
  top: "conv5_2"
}
layer {
  name: "conv5_3"
  type: "Convolution"
  bottom: "conv5_2"
  top: "conv5_3"
  param {
    lr_mult: 1
    decay_mult: 1
  }
  param {
    lr_mult: 2
    decay_mult: 0
  }
  convolution_param {
    num_output: 512
    pad: 1
    kernel_size: 3
    stride: 1
    weight_filler {
      type: "xavier"
    }
  }
}
layer {
  name: "relu5_3"
  type: "ReLU"
  bottom: "conv5_3"
  top: "conv5_3"
}
layer {
  name: "pool5"
  type: "Pooling"
  bottom: "conv5_3"
  top: "pool5"
  pooling_param {
    pool: MAX
    kernel_size: 2
    stride: 2
  }
}
layer {
  name: "fc6"
  type: "Convolution"
  bottom: "pool5"
  top: "fc6"
  param {
    lr_mult: 1
    decay_mult: 1
  }
  param {
    lr_mult: 2
    decay_mult: 0
  }
  convolution_param {
    num_output: 4096
    pad: 0
    kernel_size: 7
    stride: 1
    weight_filler {
      type: "xavier"
    }
  }
}
layer {
  name: "relu6"
  type: "ReLU"
  bottom: "fc6"
  top: "fc6"
}
layer {
  name: "drop6"
  type: "Dropout"
  bottom: "fc6"
  top: "fc6"
  dropout_param {
    dropout_ratio: 0.5
  }
}
layer {
  name: "fc7"
  type: "Convolution"
  bottom: "fc6"
  top: "fc7"
  param {
    lr_mult: 1
    decay_mult: 1
  }
  param {
    lr_mult: 2
    decay_mult: 0
  }
  convolution_param {
    num_output: 4096
    pad: 0
    kernel_size: 1
    stride: 1
    weight_filler {
      type: "xavier"
    }
  }
}
layer {
  name: "relu7"
  type: "ReLU"
  bottom: "fc7"
  top: "fc7"
}
layer {
  name: "drop7"
  type: "Dropout"
  bottom: "fc7"
  top: "fc7"
  dropout_param {
    dropout_ratio: 0.5
  }
}
layer {
  name: "score_fr"
  type: "Convolution"
  bottom: "fc7"
  top: "score_fr"
  param {
    lr_mult: 1
    decay_mult: 1
  }
  param {
    lr_mult: 2
    decay_mult: 0
  }
  convolution_param {
    num_output: 16
    pad: 0
    kernel_size: 1
    weight_filler {
      type: "xavier"
    }
  }
}
layer {
  name: "upscore2"
  type: "Deconvolution"
  bottom: "score_fr"
  top: "upscore2"
  param {
    lr_mult: 0
  }
  convolution_param {
    num_output: 16
    bias_term: false
    kernel_size: 4
    stride: 2
    weight_filler {
      type: "xavier"
    }
  }
}
layer {
  name: "scale_pool4"
  type: "Scale"
  bottom: "pool4"
  top: "scale_pool4"
  param {
    lr_mult: 0
  }
  scale_param {
    filler {
      type: "constant"
      value: 0.01
    }
  }
}
layer {
  name: "score_pool4"
  type: "Convolution"
  bottom: "scale_pool4"
  top: "score_pool4"
  param {
    lr_mult: 1
    decay_mult: 1
  }
  param {
    lr_mult: 2
    decay_mult: 0
  }
  convolution_param {
    num_output: 16
    pad: 0
    kernel_size: 1
    weight_filler {
      type: "xavier"
    }
  }
}
layer {
  name: "score_pool4c"
  type: "Crop"
  bottom: "score_pool4"
  bottom: "upscore2"
  top: "score_pool4c"
  crop_param {
    axis: 2
    offset: 5
  }
}
layer {
  name: "fuse_pool4"
  type: "Eltwise"
  bottom: "upscore2"
  bottom: "score_pool4c"
  top: "fuse_pool4"
  eltwise_param {
    operation: SUM
  }
}
layer {
  name: "upscore_pool4"
  type: "Deconvolution"
  bottom: "fuse_pool4"
  top: "upscore_pool4"
  param {
    lr_mult: 0
  }
  convolution_param {
    num_output: 16
    bias_term: false
    kernel_size: 4
    stride: 2
    weight_filler {
      type: "xavier"
    }
  }
}
layer {
  name: "scale_pool3"
  type: "Scale"
  bottom: "pool3"
  top: "scale_pool3"
  param {
    lr_mult: 0
  }
  scale_param {
    filler {
      type: "constant"
      value: 0.0001
    }
  }
}
layer {
  name: "score_pool3"
  type: "Convolution"
  bottom: "scale_pool3"
  top: "score_pool3"
  param {
    lr_mult: 1
    decay_mult: 1
  }
  param {
    lr_mult: 2
    decay_mult: 0
  }
  convolution_param {
    num_output: 16
    pad: 0
    kernel_size: 1
    weight_filler {
      type: "xavier"
    }
  }
}
layer {
  name: "score_pool3c"
  type: "Crop"
  bottom: "score_pool3"
  bottom: "upscore_pool4"
  top: "score_pool3c"
  crop_param {
    axis: 2
    offset: 9
  }
}
layer {
  name: "fuse_pool3"
  type: "Eltwise"
  bottom: "upscore_pool4"
  bottom: "score_pool3c"
  top: "fuse_pool3"
  eltwise_param {
    operation: SUM
  }
}
layer {
  name: "upscore8"
  type: "Deconvolution"
  bottom: "fuse_pool3"
  top: "upscore8"
  param {
    lr_mult: 0
  }
  convolution_param {
    num_output: 16
    bias_term: false
    kernel_size: 16
    stride: 8
    weight_filler {
      type: "xavier"
    }
  }
}
layer {
  name: "score"
  type: "Crop"
  bottom: "upscore8"
  bottom: "data"
  top: "score"
  crop_param {
    axis: 2
    offset: 31
  }
}
layer {
  name: "loss"
  type: "SoftmaxWithLoss"
  bottom: "score"
  bottom: "label"
  top: "loss"
  loss_param {
    ignore_label: 255
    normalize: false
  }
}
I1223 03:48:59.969601 18197 layer_factory.hpp:77] Creating layer data
I1223 03:48:59.970044 18197 net.cpp:100] Creating Layer data
I1223 03:48:59.970062 18197 net.cpp:408] data -> data
I1223 03:48:59.970080 18197 net.cpp:408] data -> label
I1223 03:49:00.004734 18197 net.cpp:150] Setting up data
I1223 03:49:00.004771 18197 net.cpp:157] Top shape: 1 3 500 333 (499500)
I1223 03:49:00.004779 18197 net.cpp:157] Top shape: 1 1 500 333 (166500)
I1223 03:49:00.004783 18197 net.cpp:165] Memory required for data: 2664000
I1223 03:49:00.004791 18197 layer_factory.hpp:77] Creating layer data_data_0_split
I1223 03:49:00.004808 18197 net.cpp:100] Creating Layer data_data_0_split
I1223 03:49:00.004814 18197 net.cpp:434] data_data_0_split <- data
I1223 03:49:00.004822 18197 net.cpp:408] data_data_0_split -> data_data_0_split_0
I1223 03:49:00.004835 18197 net.cpp:408] data_data_0_split -> data_data_0_split_1
I1223 03:49:00.004874 18197 net.cpp:150] Setting up data_data_0_split
I1223 03:49:00.004884 18197 net.cpp:157] Top shape: 1 3 500 333 (499500)
I1223 03:49:00.004889 18197 net.cpp:157] Top shape: 1 3 500 333 (499500)
I1223 03:49:00.004894 18197 net.cpp:165] Memory required for data: 6660000
I1223 03:49:00.004897 18197 layer_factory.hpp:77] Creating layer conv1_1
I1223 03:49:00.004917 18197 net.cpp:100] Creating Layer conv1_1
I1223 03:49:00.004922 18197 net.cpp:434] conv1_1 <- data_data_0_split_0
I1223 03:49:00.004937 18197 net.cpp:408] conv1_1 -> conv1_1
I1223 03:49:00.188652 18197 net.cpp:150] Setting up conv1_1
I1223 03:49:00.188701 18197 net.cpp:157] Top shape: 1 64 698 531 (23720832)
I1223 03:49:00.188707 18197 net.cpp:165] Memory required for data: 101543328
I1223 03:49:00.188736 18197 layer_factory.hpp:77] Creating layer relu1_1
I1223 03:49:00.188772 18197 net.cpp:100] Creating Layer relu1_1
I1223 03:49:00.188789 18197 net.cpp:434] relu1_1 <- conv1_1
I1223 03:49:00.188797 18197 net.cpp:395] relu1_1 -> conv1_1 (in-place)
I1223 03:49:00.189152 18197 net.cpp:150] Setting up relu1_1
I1223 03:49:00.189167 18197 net.cpp:157] Top shape: 1 64 698 531 (23720832)
I1223 03:49:00.189172 18197 net.cpp:165] Memory required for data: 196426656
I1223 03:49:00.189183 18197 layer_factory.hpp:77] Creating layer conv1_2
I1223 03:49:00.189218 18197 net.cpp:100] Creating Layer conv1_2
I1223 03:49:00.189224 18197 net.cpp:434] conv1_2 <- conv1_1
I1223 03:49:00.189231 18197 net.cpp:408] conv1_2 -> conv1_2
I1223 03:49:00.191822 18197 net.cpp:150] Setting up conv1_2
I1223 03:49:00.191838 18197 net.cpp:157] Top shape: 1 64 698 531 (23720832)
I1223 03:49:00.191843 18197 net.cpp:165] Memory required for data: 291309984
I1223 03:49:00.191864 18197 layer_factory.hpp:77] Creating layer relu1_2
I1223 03:49:00.191875 18197 net.cpp:100] Creating Layer relu1_2
I1223 03:49:00.191880 18197 net.cpp:434] relu1_2 <- conv1_2
I1223 03:49:00.191887 18197 net.cpp:395] relu1_2 -> conv1_2 (in-place)
I1223 03:49:00.192251 18197 net.cpp:150] Setting up relu1_2
I1223 03:49:00.192265 18197 net.cpp:157] Top shape: 1 64 698 531 (23720832)
I1223 03:49:00.192270 18197 net.cpp:165] Memory required for data: 386193312
I1223 03:49:00.192275 18197 layer_factory.hpp:77] Creating layer pool1
I1223 03:49:00.192292 18197 net.cpp:100] Creating Layer pool1
I1223 03:49:00.192297 18197 net.cpp:434] pool1 <- conv1_2
I1223 03:49:00.192306 18197 net.cpp:408] pool1 -> pool1
I1223 03:49:00.192356 18197 net.cpp:150] Setting up pool1
I1223 03:49:00.192363 18197 net.cpp:157] Top shape: 1 64 349 266 (5941376)
I1223 03:49:00.192368 18197 net.cpp:165] Memory required for data: 409958816
I1223 03:49:00.192371 18197 layer_factory.hpp:77] Creating layer conv2_1
I1223 03:49:00.192387 18197 net.cpp:100] Creating Layer conv2_1
I1223 03:49:00.192392 18197 net.cpp:434] conv2_1 <- pool1
I1223 03:49:00.192399 18197 net.cpp:408] conv2_1 -> conv2_1
I1223 03:49:00.194703 18197 net.cpp:150] Setting up conv2_1
I1223 03:49:00.194720 18197 net.cpp:157] Top shape: 1 128 349 266 (11882752)
I1223 03:49:00.194725 18197 net.cpp:165] Memory required for data: 457489824
I1223 03:49:00.194737 18197 layer_factory.hpp:77] Creating layer relu2_1
I1223 03:49:00.194759 18197 net.cpp:100] Creating Layer relu2_1
I1223 03:49:00.194766 18197 net.cpp:434] relu2_1 <- conv2_1
I1223 03:49:00.194772 18197 net.cpp:395] relu2_1 -> conv2_1 (in-place)
I1223 03:49:00.194969 18197 net.cpp:150] Setting up relu2_1
I1223 03:49:00.194982 18197 net.cpp:157] Top shape: 1 128 349 266 (11882752)
I1223 03:49:00.194986 18197 net.cpp:165] Memory required for data: 505020832
I1223 03:49:00.194990 18197 layer_factory.hpp:77] Creating layer conv2_2
I1223 03:49:00.195011 18197 net.cpp:100] Creating Layer conv2_2
I1223 03:49:00.195016 18197 net.cpp:434] conv2_2 <- conv2_1
I1223 03:49:00.195024 18197 net.cpp:408] conv2_2 -> conv2_2
I1223 03:49:00.197552 18197 net.cpp:150] Setting up conv2_2
I1223 03:49:00.197568 18197 net.cpp:157] Top shape: 1 128 349 266 (11882752)
I1223 03:49:00.197572 18197 net.cpp:165] Memory required for data: 552551840
I1223 03:49:00.197582 18197 layer_factory.hpp:77] Creating layer relu2_2
I1223 03:49:00.197588 18197 net.cpp:100] Creating Layer relu2_2
I1223 03:49:00.197593 18197 net.cpp:434] relu2_2 <- conv2_2
I1223 03:49:00.197602 18197 net.cpp:395] relu2_2 -> conv2_2 (in-place)
I1223 03:49:00.197970 18197 net.cpp:150] Setting up relu2_2
I1223 03:49:00.197984 18197 net.cpp:157] Top shape: 1 128 349 266 (11882752)
I1223 03:49:00.197989 18197 net.cpp:165] Memory required for data: 600082848
I1223 03:49:00.198002 18197 layer_factory.hpp:77] Creating layer pool2
I1223 03:49:00.198019 18197 net.cpp:100] Creating Layer pool2
I1223 03:49:00.198024 18197 net.cpp:434] pool2 <- conv2_2
I1223 03:49:00.198032 18197 net.cpp:408] pool2 -> pool2
I1223 03:49:00.198084 18197 net.cpp:150] Setting up pool2
I1223 03:49:00.198092 18197 net.cpp:157] Top shape: 1 128 175 133 (2979200)
I1223 03:49:00.198096 18197 net.cpp:165] Memory required for data: 611999648
I1223 03:49:00.198107 18197 layer_factory.hpp:77] Creating layer conv3_1
I1223 03:49:00.198119 18197 net.cpp:100] Creating Layer conv3_1
I1223 03:49:00.198124 18197 net.cpp:434] conv3_1 <- pool2
I1223 03:49:00.198132 18197 net.cpp:408] conv3_1 -> conv3_1
I1223 03:49:00.201211 18197 net.cpp:150] Setting up conv3_1
I1223 03:49:00.201227 18197 net.cpp:157] Top shape: 1 256 175 133 (5958400)
I1223 03:49:00.201231 18197 net.cpp:165] Memory required for data: 635833248
I1223 03:49:00.201242 18197 layer_factory.hpp:77] Creating layer relu3_1
I1223 03:49:00.201252 18197 net.cpp:100] Creating Layer relu3_1
I1223 03:49:00.201257 18197 net.cpp:434] relu3_1 <- conv3_1
I1223 03:49:00.201263 18197 net.cpp:395] relu3_1 -> conv3_1 (in-place)
I1223 03:49:00.201627 18197 net.cpp:150] Setting up relu3_1
I1223 03:49:00.201645 18197 net.cpp:157] Top shape: 1 256 175 133 (5958400)
I1223 03:49:00.201650 18197 net.cpp:165] Memory required for data: 659666848
I1223 03:49:00.201655 18197 layer_factory.hpp:77] Creating layer conv3_2
I1223 03:49:00.201668 18197 net.cpp:100] Creating Layer conv3_2
I1223 03:49:00.201671 18197 net.cpp:434] conv3_2 <- conv3_1
I1223 03:49:00.201681 18197 net.cpp:408] conv3_2 -> conv3_2
I1223 03:49:00.206852 18197 net.cpp:150] Setting up conv3_2
I1223 03:49:00.206871 18197 net.cpp:157] Top shape: 1 256 175 133 (5958400)
I1223 03:49:00.206876 18197 net.cpp:165] Memory required for data: 683500448
I1223 03:49:00.206883 18197 layer_factory.hpp:77] Creating layer relu3_2
I1223 03:49:00.206890 18197 net.cpp:100] Creating Layer relu3_2
I1223 03:49:00.206895 18197 net.cpp:434] relu3_2 <- conv3_2
I1223 03:49:00.206902 18197 net.cpp:395] relu3_2 -> conv3_2 (in-place)
I1223 03:49:00.207088 18197 net.cpp:150] Setting up relu3_2
I1223 03:49:00.207101 18197 net.cpp:157] Top shape: 1 256 175 133 (5958400)
I1223 03:49:00.207105 18197 net.cpp:165] Memory required for data: 707334048
I1223 03:49:00.207116 18197 layer_factory.hpp:77] Creating layer conv3_3
I1223 03:49:00.207129 18197 net.cpp:100] Creating Layer conv3_3
I1223 03:49:00.207134 18197 net.cpp:434] conv3_3 <- conv3_2
I1223 03:49:00.207142 18197 net.cpp:408] conv3_3 -> conv3_3
I1223 03:49:00.212306 18197 net.cpp:150] Setting up conv3_3
I1223 03:49:00.212324 18197 net.cpp:157] Top shape: 1 256 175 133 (5958400)
I1223 03:49:00.212329 18197 net.cpp:165] Memory required for data: 731167648
I1223 03:49:00.212337 18197 layer_factory.hpp:77] Creating layer relu3_3
I1223 03:49:00.212352 18197 net.cpp:100] Creating Layer relu3_3
I1223 03:49:00.212355 18197 net.cpp:434] relu3_3 <- conv3_3
I1223 03:49:00.212364 18197 net.cpp:395] relu3_3 -> conv3_3 (in-place)
I1223 03:49:00.212729 18197 net.cpp:150] Setting up relu3_3
I1223 03:49:00.212743 18197 net.cpp:157] Top shape: 1 256 175 133 (5958400)
I1223 03:49:00.212748 18197 net.cpp:165] Memory required for data: 755001248
I1223 03:49:00.212751 18197 layer_factory.hpp:77] Creating layer pool3
I1223 03:49:00.212765 18197 net.cpp:100] Creating Layer pool3
I1223 03:49:00.212770 18197 net.cpp:434] pool3 <- conv3_3
I1223 03:49:00.212777 18197 net.cpp:408] pool3 -> pool3
I1223 03:49:00.212824 18197 net.cpp:150] Setting up pool3
I1223 03:49:00.212831 18197 net.cpp:157] Top shape: 1 256 88 67 (1509376)
I1223 03:49:00.212836 18197 net.cpp:165] Memory required for data: 761038752
I1223 03:49:00.212841 18197 layer_factory.hpp:77] Creating layer pool3_pool3_0_split
I1223 03:49:00.212852 18197 net.cpp:100] Creating Layer pool3_pool3_0_split
I1223 03:49:00.212857 18197 net.cpp:434] pool3_pool3_0_split <- pool3
I1223 03:49:00.212863 18197 net.cpp:408] pool3_pool3_0_split -> pool3_pool3_0_split_0
I1223 03:49:00.212869 18197 net.cpp:408] pool3_pool3_0_split -> pool3_pool3_0_split_1
I1223 03:49:00.212914 18197 net.cpp:150] Setting up pool3_pool3_0_split
I1223 03:49:00.212923 18197 net.cpp:157] Top shape: 1 256 88 67 (1509376)
I1223 03:49:00.212927 18197 net.cpp:157] Top shape: 1 256 88 67 (1509376)
I1223 03:49:00.212931 18197 net.cpp:165] Memory required for data: 773113760
I1223 03:49:00.212940 18197 layer_factory.hpp:77] Creating layer conv4_1
I1223 03:49:00.212959 18197 net.cpp:100] Creating Layer conv4_1
I1223 03:49:00.212963 18197 net.cpp:434] conv4_1 <- pool3_pool3_0_split_0
I1223 03:49:00.212971 18197 net.cpp:408] conv4_1 -> conv4_1
I1223 03:49:00.223137 18197 net.cpp:150] Setting up conv4_1
I1223 03:49:00.223156 18197 net.cpp:157] Top shape: 1 512 88 67 (3018752)
I1223 03:49:00.223161 18197 net.cpp:165] Memory required for data: 785188768
I1223 03:49:00.223170 18197 layer_factory.hpp:77] Creating layer relu4_1
I1223 03:49:00.223179 18197 net.cpp:100] Creating Layer relu4_1
I1223 03:49:00.223184 18197 net.cpp:434] relu4_1 <- conv4_1
I1223 03:49:00.223191 18197 net.cpp:395] relu4_1 -> conv4_1 (in-place)
I1223 03:49:00.223564 18197 net.cpp:150] Setting up relu4_1
I1223 03:49:00.223578 18197 net.cpp:157] Top shape: 1 512 88 67 (3018752)
I1223 03:49:00.223582 18197 net.cpp:165] Memory required for data: 797263776
I1223 03:49:00.223587 18197 layer_factory.hpp:77] Creating layer conv4_2
I1223 03:49:00.223605 18197 net.cpp:100] Creating Layer conv4_2
I1223 03:49:00.223611 18197 net.cpp:434] conv4_2 <- conv4_1
I1223 03:49:00.223620 18197 net.cpp:408] conv4_2 -> conv4_2
I1223 03:49:00.240450 18197 net.cpp:150] Setting up conv4_2
I1223 03:49:00.240471 18197 net.cpp:157] Top shape: 1 512 88 67 (3018752)
I1223 03:49:00.240476 18197 net.cpp:165] Memory required for data: 809338784
I1223 03:49:00.240492 18197 layer_factory.hpp:77] Creating layer relu4_2
I1223 03:49:00.240510 18197 net.cpp:100] Creating Layer relu4_2
I1223 03:49:00.240516 18197 net.cpp:434] relu4_2 <- conv4_2
I1223 03:49:00.240523 18197 net.cpp:395] relu4_2 -> conv4_2 (in-place)
I1223 03:49:00.240711 18197 net.cpp:150] Setting up relu4_2
I1223 03:49:00.240721 18197 net.cpp:157] Top shape: 1 512 88 67 (3018752)
I1223 03:49:00.240725 18197 net.cpp:165] Memory required for data: 821413792
I1223 03:49:00.240731 18197 layer_factory.hpp:77] Creating layer conv4_3
I1223 03:49:00.240758 18197 net.cpp:100] Creating Layer conv4_3
I1223 03:49:00.240763 18197 net.cpp:434] conv4_3 <- conv4_2
I1223 03:49:00.240772 18197 net.cpp:408] conv4_3 -> conv4_3
I1223 03:49:00.257598 18197 net.cpp:150] Setting up conv4_3
I1223 03:49:00.257622 18197 net.cpp:157] Top shape: 1 512 88 67 (3018752)
I1223 03:49:00.257627 18197 net.cpp:165] Memory required for data: 833488800
I1223 03:49:00.257634 18197 layer_factory.hpp:77] Creating layer relu4_3
I1223 03:49:00.257655 18197 net.cpp:100] Creating Layer relu4_3
I1223 03:49:00.257661 18197 net.cpp:434] relu4_3 <- conv4_3
I1223 03:49:00.257668 18197 net.cpp:395] relu4_3 -> conv4_3 (in-place)
I1223 03:49:00.258035 18197 net.cpp:150] Setting up relu4_3
I1223 03:49:00.258049 18197 net.cpp:157] Top shape: 1 512 88 67 (3018752)
I1223 03:49:00.258056 18197 net.cpp:165] Memory required for data: 845563808
I1223 03:49:00.258060 18197 layer_factory.hpp:77] Creating layer pool4
I1223 03:49:00.258069 18197 net.cpp:100] Creating Layer pool4
I1223 03:49:00.258074 18197 net.cpp:434] pool4 <- conv4_3
I1223 03:49:00.258080 18197 net.cpp:408] pool4 -> pool4
I1223 03:49:00.258131 18197 net.cpp:150] Setting up pool4
I1223 03:49:00.258139 18197 net.cpp:157] Top shape: 1 512 44 34 (765952)
I1223 03:49:00.258143 18197 net.cpp:165] Memory required for data: 848627616
I1223 03:49:00.258147 18197 layer_factory.hpp:77] Creating layer pool4_pool4_0_split
I1223 03:49:00.258154 18197 net.cpp:100] Creating Layer pool4_pool4_0_split
I1223 03:49:00.258158 18197 net.cpp:434] pool4_pool4_0_split <- pool4
I1223 03:49:00.258165 18197 net.cpp:408] pool4_pool4_0_split -> pool4_pool4_0_split_0
I1223 03:49:00.258172 18197 net.cpp:408] pool4_pool4_0_split -> pool4_pool4_0_split_1
I1223 03:49:00.258209 18197 net.cpp:150] Setting up pool4_pool4_0_split
I1223 03:49:00.258224 18197 net.cpp:157] Top shape: 1 512 44 34 (765952)
I1223 03:49:00.258229 18197 net.cpp:157] Top shape: 1 512 44 34 (765952)
I1223 03:49:00.258234 18197 net.cpp:165] Memory required for data: 854755232
I1223 03:49:00.258246 18197 layer_factory.hpp:77] Creating layer conv5_1
I1223 03:49:00.258260 18197 net.cpp:100] Creating Layer conv5_1
I1223 03:49:00.258265 18197 net.cpp:434] conv5_1 <- pool4_pool4_0_split_0
I1223 03:49:00.258271 18197 net.cpp:408] conv5_1 -> conv5_1
I1223 03:49:00.274868 18197 net.cpp:150] Setting up conv5_1
I1223 03:49:00.274889 18197 net.cpp:157] Top shape: 1 512 44 34 (765952)
I1223 03:49:00.274894 18197 net.cpp:165] Memory required for data: 857819040
I1223 03:49:00.274902 18197 layer_factory.hpp:77] Creating layer relu5_1
I1223 03:49:00.274914 18197 net.cpp:100] Creating Layer relu5_1
I1223 03:49:00.274919 18197 net.cpp:434] relu5_1 <- conv5_1
I1223 03:49:00.274925 18197 net.cpp:395] relu5_1 -> conv5_1 (in-place)
I1223 03:49:00.275298 18197 net.cpp:150] Setting up relu5_1
I1223 03:49:00.275312 18197 net.cpp:157] Top shape: 1 512 44 34 (765952)
I1223 03:49:00.275316 18197 net.cpp:165] Memory required for data: 860882848
I1223 03:49:00.275321 18197 layer_factory.hpp:77] Creating layer conv5_2
I1223 03:49:00.275336 18197 net.cpp:100] Creating Layer conv5_2
I1223 03:49:00.275341 18197 net.cpp:434] conv5_2 <- conv5_1
I1223 03:49:00.275351 18197 net.cpp:408] conv5_2 -> conv5_2
I1223 03:49:00.292228 18197 net.cpp:150] Setting up conv5_2
I1223 03:49:00.292250 18197 net.cpp:157] Top shape: 1 512 44 34 (765952)
I1223 03:49:00.292255 18197 net.cpp:165] Memory required for data: 863946656
I1223 03:49:00.292264 18197 layer_factory.hpp:77] Creating layer relu5_2
I1223 03:49:00.292275 18197 net.cpp:100] Creating Layer relu5_2
I1223 03:49:00.292280 18197 net.cpp:434] relu5_2 <- conv5_2
I1223 03:49:00.292287 18197 net.cpp:395] relu5_2 -> conv5_2 (in-place)
I1223 03:49:00.292477 18197 net.cpp:150] Setting up relu5_2
I1223 03:49:00.292487 18197 net.cpp:157] Top shape: 1 512 44 34 (765952)
I1223 03:49:00.292491 18197 net.cpp:165] Memory required for data: 867010464
I1223 03:49:00.292506 18197 layer_factory.hpp:77] Creating layer conv5_3
I1223 03:49:00.292524 18197 net.cpp:100] Creating Layer conv5_3
I1223 03:49:00.292529 18197 net.cpp:434] conv5_3 <- conv5_2
I1223 03:49:00.292537 18197 net.cpp:408] conv5_3 -> conv5_3
I1223 03:49:00.309312 18197 net.cpp:150] Setting up conv5_3
I1223 03:49:00.309334 18197 net.cpp:157] Top shape: 1 512 44 34 (765952)
I1223 03:49:00.309340 18197 net.cpp:165] Memory required for data: 870074272
I1223 03:49:00.309348 18197 layer_factory.hpp:77] Creating layer relu5_3
I1223 03:49:00.309357 18197 net.cpp:100] Creating Layer relu5_3
I1223 03:49:00.309362 18197 net.cpp:434] relu5_3 <- conv5_3
I1223 03:49:00.309370 18197 net.cpp:395] relu5_3 -> conv5_3 (in-place)
I1223 03:49:00.309952 18197 net.cpp:150] Setting up relu5_3
I1223 03:49:00.309967 18197 net.cpp:157] Top shape: 1 512 44 34 (765952)
I1223 03:49:00.309973 18197 net.cpp:165] Memory required for data: 873138080
I1223 03:49:00.309978 18197 layer_factory.hpp:77] Creating layer pool5
I1223 03:49:00.309985 18197 net.cpp:100] Creating Layer pool5
I1223 03:49:00.309990 18197 net.cpp:434] pool5 <- conv5_3
I1223 03:49:00.309998 18197 net.cpp:408] pool5 -> pool5
I1223 03:49:00.310050 18197 net.cpp:150] Setting up pool5
I1223 03:49:00.310060 18197 net.cpp:157] Top shape: 1 512 22 17 (191488)
I1223 03:49:00.310065 18197 net.cpp:165] Memory required for data: 873904032
I1223 03:49:00.310068 18197 layer_factory.hpp:77] Creating layer fc6
I1223 03:49:00.310077 18197 net.cpp:100] Creating Layer fc6
I1223 03:49:00.310082 18197 net.cpp:434] fc6 <- pool5
I1223 03:49:00.310091 18197 net.cpp:408] fc6 -> fc6
I1223 03:49:01.008880 18197 net.cpp:150] Setting up fc6
I1223 03:49:01.008920 18197 net.cpp:157] Top shape: 1 4096 16 11 (720896)
I1223 03:49:01.008925 18197 net.cpp:165] Memory required for data: 876787616
I1223 03:49:01.008949 18197 layer_factory.hpp:77] Creating layer relu6
I1223 03:49:01.008971 18197 net.cpp:100] Creating Layer relu6
I1223 03:49:01.008977 18197 net.cpp:434] relu6 <- fc6
I1223 03:49:01.008986 18197 net.cpp:395] relu6 -> fc6 (in-place)
I1223 03:49:01.009374 18197 net.cpp:150] Setting up relu6
I1223 03:49:01.009388 18197 net.cpp:157] Top shape: 1 4096 16 11 (720896)
I1223 03:49:01.009393 18197 net.cpp:165] Memory required for data: 879671200
I1223 03:49:01.009397 18197 layer_factory.hpp:77] Creating layer drop6
I1223 03:49:01.009409 18197 net.cpp:100] Creating Layer drop6
I1223 03:49:01.009414 18197 net.cpp:434] drop6 <- fc6
I1223 03:49:01.009423 18197 net.cpp:395] drop6 -> fc6 (in-place)
I1223 03:49:01.009460 18197 net.cpp:150] Setting up drop6
I1223 03:49:01.009467 18197 net.cpp:157] Top shape: 1 4096 16 11 (720896)
I1223 03:49:01.009471 18197 net.cpp:165] Memory required for data: 882554784
I1223 03:49:01.009475 18197 layer_factory.hpp:77] Creating layer fc7
I1223 03:49:01.009487 18197 net.cpp:100] Creating Layer fc7
I1223 03:49:01.009491 18197 net.cpp:434] fc7 <- fc6
I1223 03:49:01.009497 18197 net.cpp:408] fc7 -> fc7
I1223 03:49:01.125118 18197 net.cpp:150] Setting up fc7
I1223 03:49:01.125154 18197 net.cpp:157] Top shape: 1 4096 16 11 (720896)
I1223 03:49:01.125160 18197 net.cpp:165] Memory required for data: 885438368
I1223 03:49:01.125171 18197 layer_factory.hpp:77] Creating layer relu7
I1223 03:49:01.125182 18197 net.cpp:100] Creating Layer relu7
I1223 03:49:01.125188 18197 net.cpp:434] relu7 <- fc7
I1223 03:49:01.125196 18197 net.cpp:395] relu7 -> fc7 (in-place)
I1223 03:49:01.125409 18197 net.cpp:150] Setting up relu7
I1223 03:49:01.125419 18197 net.cpp:157] Top shape: 1 4096 16 11 (720896)
I1223 03:49:01.125424 18197 net.cpp:165] Memory required for data: 888321952
I1223 03:49:01.125439 18197 layer_factory.hpp:77] Creating layer drop7
I1223 03:49:01.125447 18197 net.cpp:100] Creating Layer drop7
I1223 03:49:01.125452 18197 net.cpp:434] drop7 <- fc7
I1223 03:49:01.125459 18197 net.cpp:395] drop7 -> fc7 (in-place)
I1223 03:49:01.125494 18197 net.cpp:150] Setting up drop7
I1223 03:49:01.125504 18197 net.cpp:157] Top shape: 1 4096 16 11 (720896)
I1223 03:49:01.125507 18197 net.cpp:165] Memory required for data: 891205536
I1223 03:49:01.125511 18197 layer_factory.hpp:77] Creating layer score_fr
I1223 03:49:01.125521 18197 net.cpp:100] Creating Layer score_fr
I1223 03:49:01.125525 18197 net.cpp:434] score_fr <- fc7
I1223 03:49:01.125535 18197 net.cpp:408] score_fr -> score_fr
I1223 03:49:01.127138 18197 net.cpp:150] Setting up score_fr
I1223 03:49:01.127153 18197 net.cpp:157] Top shape: 1 16 16 11 (2816)
I1223 03:49:01.127158 18197 net.cpp:165] Memory required for data: 891216800
I1223 03:49:01.127166 18197 layer_factory.hpp:77] Creating layer upscore2
I1223 03:49:01.127180 18197 net.cpp:100] Creating Layer upscore2
I1223 03:49:01.127188 18197 net.cpp:434] upscore2 <- score_fr
I1223 03:49:01.127197 18197 net.cpp:408] upscore2 -> upscore2
I1223 03:49:01.127429 18197 net.cpp:150] Setting up upscore2
I1223 03:49:01.127439 18197 net.cpp:157] Top shape: 1 16 34 24 (13056)
I1223 03:49:01.127442 18197 net.cpp:165] Memory required for data: 891269024
I1223 03:49:01.127462 18197 layer_factory.hpp:77] Creating layer upscore2_upscore2_0_split
I1223 03:49:01.127471 18197 net.cpp:100] Creating Layer upscore2_upscore2_0_split
I1223 03:49:01.127476 18197 net.cpp:434] upscore2_upscore2_0_split <- upscore2
I1223 03:49:01.127482 18197 net.cpp:408] upscore2_upscore2_0_split -> upscore2_upscore2_0_split_0
I1223 03:49:01.127490 18197 net.cpp:408] upscore2_upscore2_0_split -> upscore2_upscore2_0_split_1
I1223 03:49:01.127532 18197 net.cpp:150] Setting up upscore2_upscore2_0_split
I1223 03:49:01.127538 18197 net.cpp:157] Top shape: 1 16 34 24 (13056)
I1223 03:49:01.127543 18197 net.cpp:157] Top shape: 1 16 34 24 (13056)
I1223 03:49:01.127547 18197 net.cpp:165] Memory required for data: 891373472
I1223 03:49:01.127552 18197 layer_factory.hpp:77] Creating layer scale_pool4
I1223 03:49:01.127563 18197 net.cpp:100] Creating Layer scale_pool4
I1223 03:49:01.127568 18197 net.cpp:434] scale_pool4 <- pool4_pool4_0_split_1
I1223 03:49:01.127583 18197 net.cpp:408] scale_pool4 -> scale_pool4
I1223 03:49:01.127689 18197 net.cpp:150] Setting up scale_pool4
I1223 03:49:01.127698 18197 net.cpp:157] Top shape: 1 512 44 34 (765952)
I1223 03:49:01.127702 18197 net.cpp:165] Memory required for data: 894437280
I1223 03:49:01.127707 18197 layer_factory.hpp:77] Creating layer score_pool4
I1223 03:49:01.127719 18197 net.cpp:100] Creating Layer score_pool4
I1223 03:49:01.127723 18197 net.cpp:434] score_pool4 <- scale_pool4
I1223 03:49:01.127732 18197 net.cpp:408] score_pool4 -> score_pool4
I1223 03:49:01.129050 18197 net.cpp:150] Setting up score_pool4
I1223 03:49:01.129065 18197 net.cpp:157] Top shape: 1 16 44 34 (23936)
I1223 03:49:01.129070 18197 net.cpp:165] Memory required for data: 894533024
I1223 03:49:01.129077 18197 layer_factory.hpp:77] Creating layer score_pool4c
I1223 03:49:01.129087 18197 net.cpp:100] Creating Layer score_pool4c
I1223 03:49:01.129093 18197 net.cpp:434] score_pool4c <- score_pool4
I1223 03:49:01.129098 18197 net.cpp:434] score_pool4c <- upscore2_upscore2_0_split_0
I1223 03:49:01.129107 18197 net.cpp:408] score_pool4c -> score_pool4c
I1223 03:49:01.129140 18197 net.cpp:150] Setting up score_pool4c
I1223 03:49:01.129151 18197 net.cpp:157] Top shape: 1 16 34 24 (13056)
I1223 03:49:01.129155 18197 net.cpp:165] Memory required for data: 894585248
I1223 03:49:01.129165 18197 layer_factory.hpp:77] Creating layer fuse_pool4
I1223 03:49:01.129174 18197 net.cpp:100] Creating Layer fuse_pool4
I1223 03:49:01.129179 18197 net.cpp:434] fuse_pool4 <- upscore2_upscore2_0_split_1
I1223 03:49:01.129184 18197 net.cpp:434] fuse_pool4 <- score_pool4c
I1223 03:49:01.129190 18197 net.cpp:408] fuse_pool4 -> fuse_pool4
I1223 03:49:01.129221 18197 net.cpp:150] Setting up fuse_pool4
I1223 03:49:01.129230 18197 net.cpp:157] Top shape: 1 16 34 24 (13056)
I1223 03:49:01.129232 18197 net.cpp:165] Memory required for data: 894637472
I1223 03:49:01.129236 18197 layer_factory.hpp:77] Creating layer upscore_pool4
I1223 03:49:01.129245 18197 net.cpp:100] Creating Layer upscore_pool4
I1223 03:49:01.129251 18197 net.cpp:434] upscore_pool4 <- fuse_pool4
I1223 03:49:01.129257 18197 net.cpp:408] upscore_pool4 -> upscore_pool4
I1223 03:49:01.129495 18197 net.cpp:150] Setting up upscore_pool4
I1223 03:49:01.129504 18197 net.cpp:157] Top shape: 1 16 70 50 (56000)
I1223 03:49:01.129508 18197 net.cpp:165] Memory required for data: 894861472
I1223 03:49:01.129513 18197 layer_factory.hpp:77] Creating layer upscore_pool4_upscore_pool4_0_split
I1223 03:49:01.129521 18197 net.cpp:100] Creating Layer upscore_pool4_upscore_pool4_0_split
I1223 03:49:01.129526 18197 net.cpp:434] upscore_pool4_upscore_pool4_0_split <- upscore_pool4
I1223 03:49:01.129532 18197 net.cpp:408] upscore_pool4_upscore_pool4_0_split -> upscore_pool4_upscore_pool4_0_split_0
I1223 03:49:01.129539 18197 net.cpp:408] upscore_pool4_upscore_pool4_0_split -> upscore_pool4_upscore_pool4_0_split_1
I1223 03:49:01.129578 18197 net.cpp:150] Setting up upscore_pool4_upscore_pool4_0_split
I1223 03:49:01.129585 18197 net.cpp:157] Top shape: 1 16 70 50 (56000)
I1223 03:49:01.129590 18197 net.cpp:157] Top shape: 1 16 70 50 (56000)
I1223 03:49:01.129593 18197 net.cpp:165] Memory required for data: 895309472
I1223 03:49:01.129597 18197 layer_factory.hpp:77] Creating layer scale_pool3
I1223 03:49:01.129604 18197 net.cpp:100] Creating Layer scale_pool3
I1223 03:49:01.129608 18197 net.cpp:434] scale_pool3 <- pool3_pool3_0_split_1
I1223 03:49:01.129614 18197 net.cpp:408] scale_pool3 -> scale_pool3
I1223 03:49:01.129719 18197 net.cpp:150] Setting up scale_pool3
I1223 03:49:01.129729 18197 net.cpp:157] Top shape: 1 256 88 67 (1509376)
I1223 03:49:01.129732 18197 net.cpp:165] Memory required for data: 901346976
I1223 03:49:01.129737 18197 layer_factory.hpp:77] Creating layer score_pool3
I1223 03:49:01.129755 18197 net.cpp:100] Creating Layer score_pool3
I1223 03:49:01.129760 18197 net.cpp:434] score_pool3 <- scale_pool3
I1223 03:49:01.129766 18197 net.cpp:408] score_pool3 -> score_pool3
I1223 03:49:01.131011 18197 net.cpp:150] Setting up score_pool3
I1223 03:49:01.131031 18197 net.cpp:157] Top shape: 1 16 88 67 (94336)
I1223 03:49:01.131036 18197 net.cpp:165] Memory required for data: 901724320
I1223 03:49:01.131044 18197 layer_factory.hpp:77] Creating layer score_pool3c
I1223 03:49:01.131054 18197 net.cpp:100] Creating Layer score_pool3c
I1223 03:49:01.131059 18197 net.cpp:434] score_pool3c <- score_pool3
I1223 03:49:01.131065 18197 net.cpp:434] score_pool3c <- upscore_pool4_upscore_pool4_0_split_0
I1223 03:49:01.131072 18197 net.cpp:408] score_pool3c -> score_pool3c
I1223 03:49:01.131106 18197 net.cpp:150] Setting up score_pool3c
I1223 03:49:01.131114 18197 net.cpp:157] Top shape: 1 16 70 50 (56000)
I1223 03:49:01.131117 18197 net.cpp:165] Memory required for data: 901948320
I1223 03:49:01.131122 18197 layer_factory.hpp:77] Creating layer fuse_pool3
I1223 03:49:01.131129 18197 net.cpp:100] Creating Layer fuse_pool3
I1223 03:49:01.131134 18197 net.cpp:434] fuse_pool3 <- upscore_pool4_upscore_pool4_0_split_1
I1223 03:49:01.131139 18197 net.cpp:434] fuse_pool3 <- score_pool3c
I1223 03:49:01.131145 18197 net.cpp:408] fuse_pool3 -> fuse_pool3
I1223 03:49:01.131172 18197 net.cpp:150] Setting up fuse_pool3
I1223 03:49:01.131178 18197 net.cpp:157] Top shape: 1 16 70 50 (56000)
I1223 03:49:01.131182 18197 net.cpp:165] Memory required for data: 902172320
I1223 03:49:01.131186 18197 layer_factory.hpp:77] Creating layer upscore8
I1223 03:49:01.131196 18197 net.cpp:100] Creating Layer upscore8
I1223 03:49:01.131201 18197 net.cpp:434] upscore8 <- fuse_pool3
I1223 03:49:01.131207 18197 net.cpp:408] upscore8 -> upscore8
I1223 03:49:01.131757 18197 net.cpp:150] Setting up upscore8
I1223 03:49:01.131767 18197 net.cpp:157] Top shape: 1 16 568 408 (3707904)
I1223 03:49:01.131770 18197 net.cpp:165] Memory required for data: 917003936
I1223 03:49:01.131777 18197 layer_factory.hpp:77] Creating layer score
I1223 03:49:01.131783 18197 net.cpp:100] Creating Layer score
I1223 03:49:01.131788 18197 net.cpp:434] score <- upscore8
I1223 03:49:01.131793 18197 net.cpp:434] score <- data_data_0_split_1
I1223 03:49:01.131798 18197 net.cpp:408] score -> score
I1223 03:49:01.131834 18197 net.cpp:150] Setting up score
I1223 03:49:01.131840 18197 net.cpp:157] Top shape: 1 16 500 333 (2664000)
I1223 03:49:01.131844 18197 net.cpp:165] Memory required for data: 927659936
I1223 03:49:01.131849 18197 layer_factory.hpp:77] Creating layer loss
I1223 03:49:01.131857 18197 net.cpp:100] Creating Layer loss
I1223 03:49:01.131861 18197 net.cpp:434] loss <- score
I1223 03:49:01.131866 18197 net.cpp:434] loss <- label
I1223 03:49:01.131873 18197 net.cpp:408] loss -> loss
I1223 03:49:01.131885 18197 layer_factory.hpp:77] Creating layer loss
…
I1223 03:49:01.138264 18197 net.cpp:283] Network initialization done.
I1223 03:49:01.139631 18197 solver.cpp:181] Creating test net (#0) specified by test_net file: val.prototxt
I1223 03:49:01.140012 18197 net.cpp:58] Initializing net from parameters: 
state {
  phase: TEST
}
layer {
  name: "data"
  type: "Python"
  top: "data"
  top: "label"
  python_param {
    module: "voc_layers"
    layer: "VOCSegDataLayer"
    param_str: "{\'voc_dir\': \'../data/pascal-obfuscated/VOC2011\', \'seed\': 1337, \'split\': \'seg11valid15\', \'mean\': (104.00699, 116.66877, 122.67892)}"
  }
}
layer {
  name: "conv1_1"
  type: "Convolution"
  bottom: "data"
  top: "conv1_1"
  param {
    lr_mult: 1
    decay_mult: 1
  }
  param {
    lr_mult: 2
    decay_mult: 0
  }
  convolution_param {
    num_output: 64
    pad: 100
    kernel_size: 3
    stride: 1
    weight_filler {
      type: "xavier"
    }
  }
}
layer {
  name: "relu1_1"
  type: "ReLU"
  bottom: "conv1_1"
  top: "conv1_1"
}
layer {
  name: "conv1_2"
  type: "Convolution"
  bottom: "conv1_1"
  top: "conv1_2"
  param {
    lr_mult: 1
    decay_mult: 1
  }
  param {
    lr_mult: 2
    decay_mult: 0
  }
  convolution_param {
    num_output: 64
    pad: 1
    kernel_size: 3
    stride: 1
    weight_filler {
      type: "xavier"
    }
  }
}
layer {
  name: "relu1_2"
  type: "ReLU"
  bottom: "conv1_2"
  top: "conv1_2"
}
layer {
  name: "pool1"
  type: "Pooling"
  bottom: "conv1_2"
  top: "pool1"
  pooling_param {
    pool: MAX
    kernel_size: 2
    stride: 2
  }
}
layer {
  name: "conv2_1"
  type: "Convolution"
  bottom: "pool1"
  top: "conv2_1"
  param {
    lr_mult: 1
    decay_mult: 1
  }
  param {
    lr_mult: 2
    decay_mult: 0
  }
  convolution_param {
    num_output: 128
    pad: 1
    kernel_size: 3
    stride: 1
    weight_filler {
      type: "xavier"
    }
  }
}
layer {
  name: "relu2_1"
  type: "ReLU"
  bottom: "conv2_1"
  top: "conv2_1"
}
layer {
  name: "conv2_2"
  type: "Convolution"
  bottom: "conv2_1"
  top: "conv2_2"
  param {
    lr_mult: 1
    decay_mult: 1
  }
  param {
    lr_mult: 2
    decay_mult: 0
  }
  convolution_param {
    num_output: 128
    pad: 1
    kernel_size: 3
    stride: 1
    weight_filler {
      type: "xavier"
    }
  }
}
layer {
  name: "relu2_2"
  type: "ReLU"
  bottom: "conv2_2"
  top: "conv2_2"
}
layer {
  name: "pool2"
  type: "Pooling"
  bottom: "conv2_2"
  top: "pool2"
  pooling_param {
    pool: MAX
    kernel_size: 2
    stride: 2
  }
}
layer {
  name: "conv3_1"
  type: "Convolution"
  bottom: "pool2"
  top: "conv3_1"
  param {
    lr_mult: 1
    decay_mult: 1
  }
  param {
    lr_mult: 2
    decay_mult: 0
  }
  convolution_param {
    num_output: 256
    pad: 1
    kernel_size: 3
    stride: 1
    weight_filler {
      type: "xavier"
    }
  }
}
layer {
  name: "relu3_1"
  type: "ReLU"
  bottom: "conv3_1"
  top: "conv3_1"
}
layer {
  name: "conv3_2"
  type: "Convolution"
  bottom: "conv3_1"
  top: "conv3_2"
  param {
    lr_mult: 1
    decay_mult: 1
  }
  param {
    lr_mult: 2
    decay_mult: 0
  }
  convolution_param {
    num_output: 256
    pad: 1
    kernel_size: 3
    stride: 1
    weight_filler {
      type: "xavier"
    }
  }
}
layer {
  name: "relu3_2"
  type: "ReLU"
  bottom: "conv3_2"
  top: "conv3_2"
}
layer {
  name: "conv3_3"
  type: "Convolution"
  bottom: "conv3_2"
  top: "conv3_3"
  param {
    lr_mult: 1
    decay_mult: 1
  }
  param {
    lr_mult: 2
    decay_mult: 0
  }
  convolution_param {
    num_output: 256
    pad: 1
    kernel_size: 3
    stride: 1
    weight_filler {
      type: "xavier"
    }
  }
}
layer {
  name: "relu3_3"
  type: "ReLU"
  bottom: "conv3_3"
  top: "conv3_3"
}
layer {
  name: "pool3"
  type: "Pooling"
  bottom: "conv3_3"
  top: "pool3"
  pooling_param {
    pool: MAX
    kernel_size: 2
    stride: 2
  }
}
layer {
  name: "conv4_1"
  type: "Convolution"
  bottom: "pool3"
  top: "conv4_1"
  param {
    lr_mult: 1
    decay_mult: 1
  }
  param {
    lr_mult: 2
    decay_mult: 0
  }
  convolution_param {
    num_output: 512
    pad: 1
    kernel_size: 3
    stride: 1
    weight_filler {
      type: "xavier"
    }
  }
}
layer {
  name: "relu4_1"
  type: "ReLU"
  bottom: "conv4_1"
  top: "conv4_1"
}
layer {
  name: "conv4_2"
  type: "Convolution"
  bottom: "conv4_1"
  top: "conv4_2"
  param {
    lr_mult: 1
    decay_mult: 1
  }
  param {
    lr_mult: 2
    decay_mult: 0
  }
  convolution_param {
    num_output: 512
    pad: 1
    kernel_size: 3
    stride: 1
    weight_filler {
      type: "xavier"
    }
  }
}
layer {
  name: "relu4_2"
  type: "ReLU"
  bottom: "conv4_2"
  top: "conv4_2"
}
layer {
  name: "conv4_3"
  type: "Convolution"
  bottom: "conv4_2"
  top: "conv4_3"
  param {
    lr_mult: 1
    decay_mult: 1
  }
  param {
    lr_mult: 2
    decay_mult: 0
  }
  convolution_param {
    num_output: 512
    pad: 1
    kernel_size: 3
    stride: 1
    weight_filler {
      type: "xavier"
    }
  }
}
layer {
  name: "relu4_3"
  type: "ReLU"
  bottom: "conv4_3"
  top: "conv4_3"
}
layer {
  name: "pool4"
  type: "Pooling"
  bottom: "conv4_3"
  top: "pool4"
  pooling_param {
    pool: MAX
    kernel_size: 2
    stride: 2
  }
}
layer {
  name: "conv5_1"
  type: "Convolution"
  bottom: "pool4"
  top: "conv5_1"
  param {
    lr_mult: 1
    decay_mult: 1
  }
  param {
    lr_mult: 2
    decay_mult: 0
  }
  convolution_param {
    num_output: 512
    pad: 1
    kernel_size: 3
    stride: 1
    weight_filler {
      type: "xavier"
    }
  }
}
layer {
  name: "relu5_1"
  type: "ReLU"
  bottom: "conv5_1"
  top: "conv5_1"
}
layer {
  name: "conv5_2"
  type: "Convolution"
  bottom: "conv5_1"
  top: "conv5_2"
  param {
    lr_mult: 1
    decay_mult: 1
  }
  param {
    lr_mult: 2
    decay_mult: 0
  }
  convolution_param {
    num_output: 512
    pad: 1
    kernel_size: 3
    stride: 1
    weight_filler {
      type: "xavier"
    }
  }
}
layer {
  name: "relu5_2"
  type: "ReLU"
  bottom: "conv5_2"
  top: "conv5_2"
}
layer {
  name: "conv5_3"
  type: "Convolution"
  bottom: "conv5_2"
  top: "conv5_3"
  param {
    lr_mult: 1
    decay_mult: 1
  }
  param {
    lr_mult: 2
    decay_mult: 0
  }
  convolution_param {
    num_output: 512
    pad: 1
    kernel_size: 3
    stride: 1
    weight_filler {
      type: "xavier"
    }
  }
}
layer {
  name: "relu5_3"
  type: "ReLU"
  bottom: "conv5_3"
  top: "conv5_3"
}
layer {
  name: "pool5"
  type: "Pooling"
  bottom: "conv5_3"
  top: "pool5"
  pooling_param {
    pool: MAX
    kernel_size: 2
    stride: 2
  }
}
layer {
  name: "fc6"
  type: "Convolution"
  bottom: "pool5"
  top: "fc6"
  param {
    lr_mult: 1
    decay_mult: 1
  }
  param {
    lr_mult: 2
    decay_mult: 0
  }
  convolution_param {
    num_output: 4096
    pad: 0
    kernel_size: 7
    stride: 1
    weight_filler {
      type: "xavier"
    }
  }
}
layer {
  name: "relu6"
  type: "ReLU"
  bottom: "fc6"
  top: "fc6"
}
layer {
  name: "drop6"
  type: "Dropout"
  bottom: "fc6"
  top: "fc6"
  dropout_param {
    dropout_ratio: 0.5
  }
}
layer {
  name: "fc7"
  type: "Convolution"
  bottom: "fc6"
  top: "fc7"
  param {
    lr_mult: 1
    decay_mult: 1
  }
  param {
    lr_mult: 2
    decay_mult: 0
  }
  convolution_param {
    num_output: 4096
    pad: 0
    kernel_size: 1
    stride: 1
    weight_filler {
      type: "xavier"
    }
  }
}
layer {
  name: "relu7"
  type: "ReLU"
  bottom: "fc7"
  top: "fc7"
}
layer {
  name: "drop7"
  type: "Dropout"
  bottom: "fc7"
  top: "fc7"
  dropout_param {
    dropout_ratio: 0.5
  }
}
layer {
  name: "score_fr"
  type: "Convolution"
  bottom: "fc7"
  top: "score_fr"
  param {
    lr_mult: 1
    decay_mult: 1
  }
  param {
    lr_mult: 2
    decay_mult: 0
  }
  convolution_param {
    num_output: 16
    pad: 0
    kernel_size: 1
    weight_filler {
      type: "xavier"
    }
  }
}
layer {
  name: "upscore2"
  type: "Deconvolution"
  bottom: "score_fr"
  top: "upscore2"
  param {
    lr_mult: 0
  }
  convolution_param {
    num_output: 16
    bias_term: false
    kernel_size: 4
    stride: 2
    weight_filler {
      type: "xavier"
    }
  }
}
layer {
  name: "scale_pool4"
  type: "Scale"
  bottom: "pool4"
  top: "scale_pool4"
  param {
    lr_mult: 0
  }
  scale_param {
    filler {
      type: "constant"
      value: 0.01
    }
  }
}
layer {
  name: "score_pool4"
  type: "Convolution"
  bottom: "scale_pool4"
  top: "score_pool4"
  param {
    lr_mult: 1
    decay_mult: 1
  }
  param {
    lr_mult: 2
    decay_mult: 0
  }
  convolution_param {
    num_output: 16
    pad: 0
    kernel_size: 1
    weight_filler {
      type: "xavier"
    }
  }
}
layer {
  name: "score_pool4c"
  type: "Crop"
  bottom: "score_pool4"
  bottom: "upscore2"
  top: "score_pool4c"
  crop_param {
    axis: 2
    offset: 5
  }
}
layer {
  name: "fuse_pool4"
  type: "Eltwise"
  bottom: "upscore2"
  bottom: "score_pool4c"
  top: "fuse_pool4"
  eltwise_param {
    operation: SUM
  }
}
layer {
  name: "upscore_pool4"
  type: "Deconvolution"
  bottom: "fuse_pool4"
  top: "upscore_pool4"
  param {
    lr_mult: 0
  }
  convolution_param {
    num_output: 16
    bias_term: false
    kernel_size: 4
    stride: 2
    weight_filler {
      type: "xavier"
    }
  }
}
layer {
  name: "scale_pool3"
  type: "Scale"
  bottom: "pool3"
  top: "scale_pool3"
  param {
    lr_mult: 0
  }
  scale_param {
    filler {
      type: "constant"
      value: 0.0001
    }
  }
}
layer {
  name: "score_pool3"
  type: "Convolution"
  bottom: "scale_pool3"
  top: "score_pool3"
  param {
    lr_mult: 1
    decay_mult: 1
  }
  param {
    lr_mult: 2
    decay_mult: 0
  }
  convolution_param {
    num_output: 16
    pad: 0
    kernel_size: 1
    weight_filler {
      type: "xavier"
    }
  }
}
layer {
  name: "score_pool3c"
  type: "Crop"
  bottom: "score_pool3"
  bottom: "upscore_pool4"
  top: "score_pool3c"
  crop_param {
    axis: 2
    offset: 9
  }
}
layer {
  name: "fuse_pool3"
  type: "Eltwise"
  bottom: "upscore_pool4"
  bottom: "score_pool3c"
  top: "fuse_pool3"
  eltwise_param {
    operation: SUM
  }
}
layer {
  name: "upscore8"
  type: "Deconvolution"
  bottom: "fuse_pool3"
  top: "upscore8"
  param {
    lr_mult: 0
  }
  convolution_param {
    num_output: 16
    bias_term: false
    kernel_size: 16
    stride: 8
    weight_filler {
      type: "xavier"
    }
  }
}
layer {
  name: "score"
  type: "Crop"
  bottom: "upscore8"
  bottom: "data"
  top: "score"
  crop_param {
    axis: 2
    offset: 31
  }
}
layer {
  name: "loss"
  type: "SoftmaxWithLoss"
  bottom: "score"
  bottom: "label"
  top: "loss"
  loss_param {
    ignore_label: 255
    normalize: false
  }
}
I1223 03:49:01.140231 18197 layer_factory.hpp:77] Creating layer data
I1223 03:49:01.140362 18197 net.cpp:100] Creating Layer data
I1223 03:49:01.140372 18197 net.cpp:408] data -> data
I1223 03:49:01.140380 18197 net.cpp:408] data -> label
I1223 03:49:01.151957 18197 net.cpp:150] Setting up data
I1223 03:49:01.151978 18197 net.cpp:157] Top shape: 1 3 366 500 (549000)
I1223 03:49:01.151984 18197 net.cpp:157] Top shape: 1 1 366 500 (183000)
I1223 03:49:01.151988 18197 net.cpp:165] Memory required for data: 2928000
I1223 03:49:01.151993 18197 layer_factory.hpp:77] Creating layer data_data_0_split
I1223 03:49:01.152003 18197 net.cpp:100] Creating Layer data_data_0_split
I1223 03:49:01.152007 18197 net.cpp:434] data_data_0_split <- data
I1223 03:49:01.152014 18197 net.cpp:408] data_data_0_split -> data_data_0_split_0
I1223 03:49:01.152024 18197 net.cpp:408] data_data_0_split -> data_data_0_split_1
I1223 03:49:01.152066 18197 net.cpp:150] Setting up data_data_0_split
I1223 03:49:01.152074 18197 net.cpp:157] Top shape: 1 3 366 500 (549000)
I1223 03:49:01.152079 18197 net.cpp:157] Top shape: 1 3 366 500 (549000)
I1223 03:49:01.152083 18197 net.cpp:165] Memory required for data: 7320000
I1223 03:49:01.152088 18197 layer_factory.hpp:77] Creating layer conv1_1
I1223 03:49:01.152098 18197 net.cpp:100] Creating Layer conv1_1
I1223 03:49:01.152103 18197 net.cpp:434] conv1_1 <- data_data_0_split_0
I1223 03:49:01.152110 18197 net.cpp:408] conv1_1 -> conv1_1
I1223 03:49:01.154371 18197 net.cpp:150] Setting up conv1_1
I1223 03:49:01.154389 18197 net.cpp:157] Top shape: 1 64 564 698 (25195008)
I1223 03:49:01.154394 18197 net.cpp:165] Memory required for data: 108100032
I1223 03:49:01.154407 18197 layer_factory.hpp:77] Creating layer relu1_1
I1223 03:49:01.154415 18197 net.cpp:100] Creating Layer relu1_1
I1223 03:49:01.154420 18197 net.cpp:434] relu1_1 <- conv1_1
I1223 03:49:01.154427 18197 net.cpp:395] relu1_1 -> conv1_1 (in-place)
I1223 03:49:01.154616 18197 net.cpp:150] Setting up relu1_1
I1223 03:49:01.154628 18197 net.cpp:157] Top shape: 1 64 564 698 (25195008)
I1223 03:49:01.154631 18197 net.cpp:165] Memory required for data: 208880064
I1223 03:49:01.154636 18197 layer_factory.hpp:77] Creating layer conv1_2
I1223 03:49:01.154646 18197 net.cpp:100] Creating Layer conv1_2
I1223 03:49:01.154651 18197 net.cpp:434] conv1_2 <- conv1_1
I1223 03:49:01.154664 18197 net.cpp:408] conv1_2 -> conv1_2
I1223 03:49:01.157519 18197 net.cpp:150] Setting up conv1_2
I1223 03:49:01.157536 18197 net.cpp:157] Top shape: 1 64 564 698 (25195008)
I1223 03:49:01.157541 18197 net.cpp:165] Memory required for data: 309660096
I1223 03:49:01.157552 18197 layer_factory.hpp:77] Creating layer relu1_2
I1223 03:49:01.157559 18197 net.cpp:100] Creating Layer relu1_2
I1223 03:49:01.157563 18197 net.cpp:434] relu1_2 <- conv1_2
I1223 03:49:01.157570 18197 net.cpp:395] relu1_2 -> conv1_2 (in-place)
I1223 03:49:01.157956 18197 net.cpp:150] Setting up relu1_2
I1223 03:49:01.157970 18197 net.cpp:157] Top shape: 1 64 564 698 (25195008)
I1223 03:49:01.157975 18197 net.cpp:165] Memory required for data: 410440128
I1223 03:49:01.157980 18197 layer_factory.hpp:77] Creating layer pool1
I1223 03:49:01.157987 18197 net.cpp:100] Creating Layer pool1
I1223 03:49:01.157992 18197 net.cpp:434] pool1 <- conv1_2
I1223 03:49:01.157999 18197 net.cpp:408] pool1 -> pool1
I1223 03:49:01.158051 18197 net.cpp:150] Setting up pool1
I1223 03:49:01.158058 18197 net.cpp:157] Top shape: 1 64 282 349 (6298752)
I1223 03:49:01.158062 18197 net.cpp:165] Memory required for data: 435635136
I1223 03:49:01.158066 18197 layer_factory.hpp:77] Creating layer conv2_1
I1223 03:49:01.158076 18197 net.cpp:100] Creating Layer conv2_1
I1223 03:49:01.158080 18197 net.cpp:434] conv2_1 <- pool1
I1223 03:49:01.158087 18197 net.cpp:408] conv2_1 -> conv2_1
I1223 03:49:01.160274 18197 net.cpp:150] Setting up conv2_1
I1223 03:49:01.160290 18197 net.cpp:157] Top shape: 1 128 282 349 (12597504)
I1223 03:49:01.160295 18197 net.cpp:165] Memory required for data: 486025152
I1223 03:49:01.160305 18197 layer_factory.hpp:77] Creating layer relu2_1
I1223 03:49:01.160313 18197 net.cpp:100] Creating Layer relu2_1
I1223 03:49:01.160318 18197 net.cpp:434] relu2_1 <- conv2_1
I1223 03:49:01.160325 18197 net.cpp:395] relu2_1 -> conv2_1 (in-place)
I1223 03:49:01.160711 18197 net.cpp:150] Setting up relu2_1
I1223 03:49:01.160724 18197 net.cpp:157] Top shape: 1 128 282 349 (12597504)
I1223 03:49:01.160728 18197 net.cpp:165] Memory required for data: 536415168
I1223 03:49:01.160733 18197 layer_factory.hpp:77] Creating layer conv2_2
I1223 03:49:01.160743 18197 net.cpp:100] Creating Layer conv2_2
I1223 03:49:01.160748 18197 net.cpp:434] conv2_2 <- conv2_1
I1223 03:49:01.160755 18197 net.cpp:408] conv2_2 -> conv2_2
I1223 03:49:01.163316 18197 net.cpp:150] Setting up conv2_2
I1223 03:49:01.163333 18197 net.cpp:157] Top shape: 1 128 282 349 (12597504)
I1223 03:49:01.163338 18197 net.cpp:165] Memory required for data: 586805184
I1223 03:49:01.163347 18197 layer_factory.hpp:77] Creating layer relu2_2
I1223 03:49:01.163353 18197 net.cpp:100] Creating Layer relu2_2
I1223 03:49:01.163358 18197 net.cpp:434] relu2_2 <- conv2_2
I1223 03:49:01.163364 18197 net.cpp:395] relu2_2 -> conv2_2 (in-place)
I1223 03:49:01.163553 18197 net.cpp:150] Setting up relu2_2
I1223 03:49:01.163563 18197 net.cpp:157] Top shape: 1 128 282 349 (12597504)
I1223 03:49:01.163568 18197 net.cpp:165] Memory required for data: 637195200
I1223 03:49:01.163573 18197 layer_factory.hpp:77] Creating layer pool2
I1223 03:49:01.163579 18197 net.cpp:100] Creating Layer pool2
I1223 03:49:01.163583 18197 net.cpp:434] pool2 <- conv2_2
I1223 03:49:01.163589 18197 net.cpp:408] pool2 -> pool2
I1223 03:49:01.163640 18197 net.cpp:150] Setting up pool2
I1223 03:49:01.163647 18197 net.cpp:157] Top shape: 1 128 141 175 (3158400)
I1223 03:49:01.163651 18197 net.cpp:165] Memory required for data: 649828800
I1223 03:49:01.163655 18197 layer_factory.hpp:77] Creating layer conv3_1
I1223 03:49:01.163664 18197 net.cpp:100] Creating Layer conv3_1
I1223 03:49:01.163669 18197 net.cpp:434] conv3_1 <- pool2
I1223 03:49:01.163676 18197 net.cpp:408] conv3_1 -> conv3_1
I1223 03:49:01.166951 18197 net.cpp:150] Setting up conv3_1
I1223 03:49:01.166967 18197 net.cpp:157] Top shape: 1 256 141 175 (6316800)
I1223 03:49:01.166972 18197 net.cpp:165] Memory required for data: 675096000
I1223 03:49:01.166983 18197 layer_factory.hpp:77] Creating layer relu3_1
I1223 03:49:01.166997 18197 net.cpp:100] Creating Layer relu3_1
I1223 03:49:01.167002 18197 net.cpp:434] relu3_1 <- conv3_1
I1223 03:49:01.167008 18197 net.cpp:395] relu3_1 -> conv3_1 (in-place)
I1223 03:49:01.167379 18197 net.cpp:150] Setting up relu3_1
I1223 03:49:01.167392 18197 net.cpp:157] Top shape: 1 256 141 175 (6316800)
I1223 03:49:01.167397 18197 net.cpp:165] Memory required for data: 700363200
I1223 03:49:01.167402 18197 layer_factory.hpp:77] Creating layer conv3_2
I1223 03:49:01.167412 18197 net.cpp:100] Creating Layer conv3_2
I1223 03:49:01.167417 18197 net.cpp:434] conv3_2 <- conv3_1
I1223 03:49:01.167423 18197 net.cpp:408] conv3_2 -> conv3_2
I1223 03:49:01.172639 18197 net.cpp:150] Setting up conv3_2
I1223 03:49:01.172657 18197 net.cpp:157] Top shape: 1 256 141 175 (6316800)
I1223 03:49:01.172662 18197 net.cpp:165] Memory required for data: 725630400
I1223 03:49:01.172669 18197 layer_factory.hpp:77] Creating layer relu3_2
I1223 03:49:01.172677 18197 net.cpp:100] Creating Layer relu3_2
I1223 03:49:01.172682 18197 net.cpp:434] relu3_2 <- conv3_2
I1223 03:49:01.172688 18197 net.cpp:395] relu3_2 -> conv3_2 (in-place)
I1223 03:49:01.172876 18197 net.cpp:150] Setting up relu3_2
I1223 03:49:01.172885 18197 net.cpp:157] Top shape: 1 256 141 175 (6316800)
I1223 03:49:01.172890 18197 net.cpp:165] Memory required for data: 750897600
I1223 03:49:01.172894 18197 layer_factory.hpp:77] Creating layer conv3_3
I1223 03:49:01.172906 18197 net.cpp:100] Creating Layer conv3_3
I1223 03:49:01.172911 18197 net.cpp:434] conv3_3 <- conv3_2
I1223 03:49:01.172919 18197 net.cpp:408] conv3_3 -> conv3_3
I1223 03:49:01.178128 18197 net.cpp:150] Setting up conv3_3
I1223 03:49:01.178144 18197 net.cpp:157] Top shape: 1 256 141 175 (6316800)
I1223 03:49:01.178149 18197 net.cpp:165] Memory required for data: 776164800
I1223 03:49:01.178158 18197 layer_factory.hpp:77] Creating layer relu3_3
I1223 03:49:01.178165 18197 net.cpp:100] Creating Layer relu3_3
I1223 03:49:01.178170 18197 net.cpp:434] relu3_3 <- conv3_3
I1223 03:49:01.178176 18197 net.cpp:395] relu3_3 -> conv3_3 (in-place)
I1223 03:49:01.178364 18197 net.cpp:150] Setting up relu3_3
I1223 03:49:01.178375 18197 net.cpp:157] Top shape: 1 256 141 175 (6316800)
I1223 03:49:01.178378 18197 net.cpp:165] Memory required for data: 801432000
I1223 03:49:01.178382 18197 layer_factory.hpp:77] Creating layer pool3
I1223 03:49:01.178390 18197 net.cpp:100] Creating Layer pool3
I1223 03:49:01.178395 18197 net.cpp:434] pool3 <- conv3_3
I1223 03:49:01.178401 18197 net.cpp:408] pool3 -> pool3
I1223 03:49:01.178452 18197 net.cpp:150] Setting up pool3
I1223 03:49:01.178458 18197 net.cpp:157] Top shape: 1 256 71 88 (1599488)
I1223 03:49:01.178462 18197 net.cpp:165] Memory required for data: 807829952
I1223 03:49:01.178467 18197 layer_factory.hpp:77] Creating layer pool3_pool3_0_split
I1223 03:49:01.178474 18197 net.cpp:100] Creating Layer pool3_pool3_0_split
I1223 03:49:01.178478 18197 net.cpp:434] pool3_pool3_0_split <- pool3
I1223 03:49:01.178483 18197 net.cpp:408] pool3_pool3_0_split -> pool3_pool3_0_split_0
I1223 03:49:01.178490 18197 net.cpp:408] pool3_pool3_0_split -> pool3_pool3_0_split_1
I1223 03:49:01.178530 18197 net.cpp:150] Setting up pool3_pool3_0_split
I1223 03:49:01.178537 18197 net.cpp:157] Top shape: 1 256 71 88 (1599488)
I1223 03:49:01.178542 18197 net.cpp:157] Top shape: 1 256 71 88 (1599488)
I1223 03:49:01.178546 18197 net.cpp:165] Memory required for data: 820625856
I1223 03:49:01.178550 18197 layer_factory.hpp:77] Creating layer conv4_1
I1223 03:49:01.178560 18197 net.cpp:100] Creating Layer conv4_1
I1223 03:49:01.178565 18197 net.cpp:434] conv4_1 <- pool3_pool3_0_split_0
I1223 03:49:01.178570 18197 net.cpp:408] conv4_1 -> conv4_1
I1223 03:49:01.187590 18197 net.cpp:150] Setting up conv4_1
I1223 03:49:01.187608 18197 net.cpp:157] Top shape: 1 512 71 88 (3198976)
I1223 03:49:01.187613 18197 net.cpp:165] Memory required for data: 833421760
I1223 03:49:01.187621 18197 layer_factory.hpp:77] Creating layer relu4_1
I1223 03:49:01.187628 18197 net.cpp:100] Creating Layer relu4_1
I1223 03:49:01.187639 18197 net.cpp:434] relu4_1 <- conv4_1
I1223 03:49:01.187647 18197 net.cpp:395] relu4_1 -> conv4_1 (in-place)
I1223 03:49:01.188024 18197 net.cpp:150] Setting up relu4_1
I1223 03:49:01.188037 18197 net.cpp:157] Top shape: 1 512 71 88 (3198976)
I1223 03:49:01.188042 18197 net.cpp:165] Memory required for data: 846217664
I1223 03:49:01.188047 18197 layer_factory.hpp:77] Creating layer conv4_2
I1223 03:49:01.188057 18197 net.cpp:100] Creating Layer conv4_2
I1223 03:49:01.188062 18197 net.cpp:434] conv4_2 <- conv4_1
I1223 03:49:01.188071 18197 net.cpp:408] conv4_2 -> conv4_2
I1223 03:49:01.204938 18197 net.cpp:150] Setting up conv4_2
I1223 03:49:01.204959 18197 net.cpp:157] Top shape: 1 512 71 88 (3198976)
I1223 03:49:01.204964 18197 net.cpp:165] Memory required for data: 859013568
I1223 03:49:01.204980 18197 layer_factory.hpp:77] Creating layer relu4_2
I1223 03:49:01.204989 18197 net.cpp:100] Creating Layer relu4_2
I1223 03:49:01.204995 18197 net.cpp:434] relu4_2 <- conv4_2
I1223 03:49:01.205003 18197 net.cpp:395] relu4_2 -> conv4_2 (in-place)
I1223 03:49:01.205209 18197 net.cpp:150] Setting up relu4_2
I1223 03:49:01.205220 18197 net.cpp:157] Top shape: 1 512 71 88 (3198976)
I1223 03:49:01.205225 18197 net.cpp:165] Memory required for data: 871809472
I1223 03:49:01.205229 18197 layer_factory.hpp:77] Creating layer conv4_3
I1223 03:49:01.205240 18197 net.cpp:100] Creating Layer conv4_3
I1223 03:49:01.205245 18197 net.cpp:434] conv4_3 <- conv4_2
I1223 03:49:01.205252 18197 net.cpp:408] conv4_3 -> conv4_3
I1223 03:49:01.223428 18197 net.cpp:150] Setting up conv4_3
I1223 03:49:01.223454 18197 net.cpp:157] Top shape: 1 512 71 88 (3198976)
I1223 03:49:01.223460 18197 net.cpp:165] Memory required for data: 884605376
I1223 03:49:01.223469 18197 layer_factory.hpp:77] Creating layer relu4_3
I1223 03:49:01.223479 18197 net.cpp:100] Creating Layer relu4_3
I1223 03:49:01.223484 18197 net.cpp:434] relu4_3 <- conv4_3
I1223 03:49:01.223490 18197 net.cpp:395] relu4_3 -> conv4_3 (in-place)
I1223 03:49:01.223709 18197 net.cpp:150] Setting up relu4_3
I1223 03:49:01.223721 18197 net.cpp:157] Top shape: 1 512 71 88 (3198976)
I1223 03:49:01.223726 18197 net.cpp:165] Memory required for data: 897401280
I1223 03:49:01.223731 18197 layer_factory.hpp:77] Creating layer pool4
I1223 03:49:01.223739 18197 net.cpp:100] Creating Layer pool4
I1223 03:49:01.223743 18197 net.cpp:434] pool4 <- conv4_3
I1223 03:49:01.223750 18197 net.cpp:408] pool4 -> pool4
I1223 03:49:01.223808 18197 net.cpp:150] Setting up pool4
I1223 03:49:01.223815 18197 net.cpp:157] Top shape: 1 512 36 44 (811008)
I1223 03:49:01.223819 18197 net.cpp:165] Memory required for data: 900645312
I1223 03:49:01.223824 18197 layer_factory.hpp:77] Creating layer pool4_pool4_0_split
I1223 03:49:01.223830 18197 net.cpp:100] Creating Layer pool4_pool4_0_split
I1223 03:49:01.223834 18197 net.cpp:434] pool4_pool4_0_split <- pool4
I1223 03:49:01.223841 18197 net.cpp:408] pool4_pool4_0_split -> pool4_pool4_0_split_0
I1223 03:49:01.223848 18197 net.cpp:408] pool4_pool4_0_split -> pool4_pool4_0_split_1
I1223 03:49:01.223894 18197 net.cpp:150] Setting up pool4_pool4_0_split
I1223 03:49:01.223901 18197 net.cpp:157] Top shape: 1 512 36 44 (811008)
I1223 03:49:01.223906 18197 net.cpp:157] Top shape: 1 512 36 44 (811008)
I1223 03:49:01.223909 18197 net.cpp:165] Memory required for data: 907133376
I1223 03:49:01.223913 18197 layer_factory.hpp:77] Creating layer conv5_1
I1223 03:49:01.223927 18197 net.cpp:100] Creating Layer conv5_1
I1223 03:49:01.223932 18197 net.cpp:434] conv5_1 <- pool4_pool4_0_split_0
I1223 03:49:01.223938 18197 net.cpp:408] conv5_1 -> conv5_1
I1223 03:49:01.240854 18197 net.cpp:150] Setting up conv5_1
I1223 03:49:01.240876 18197 net.cpp:157] Top shape: 1 512 36 44 (811008)
I1223 03:49:01.240881 18197 net.cpp:165] Memory required for data: 910377408
I1223 03:49:01.240890 18197 layer_factory.hpp:77] Creating layer relu5_1
I1223 03:49:01.240900 18197 net.cpp:100] Creating Layer relu5_1
I1223 03:49:01.240905 18197 net.cpp:434] relu5_1 <- conv5_1
I1223 03:49:01.240913 18197 net.cpp:395] relu5_1 -> conv5_1 (in-place)
I1223 03:49:01.241309 18197 net.cpp:150] Setting up relu5_1
I1223 03:49:01.241323 18197 net.cpp:157] Top shape: 1 512 36 44 (811008)
I1223 03:49:01.241328 18197 net.cpp:165] Memory required for data: 913621440
I1223 03:49:01.241333 18197 layer_factory.hpp:77] Creating layer conv5_2
I1223 03:49:01.241348 18197 net.cpp:100] Creating Layer conv5_2
I1223 03:49:01.241353 18197 net.cpp:434] conv5_2 <- conv5_1
I1223 03:49:01.241361 18197 net.cpp:408] conv5_2 -> conv5_2
I1223 03:49:01.258245 18197 net.cpp:150] Setting up conv5_2
I1223 03:49:01.258266 18197 net.cpp:157] Top shape: 1 512 36 44 (811008)
I1223 03:49:01.258271 18197 net.cpp:165] Memory required for data: 916865472
I1223 03:49:01.258280 18197 layer_factory.hpp:77] Creating layer relu5_2
I1223 03:49:01.258291 18197 net.cpp:100] Creating Layer relu5_2
I1223 03:49:01.258296 18197 net.cpp:434] relu5_2 <- conv5_2
I1223 03:49:01.258302 18197 net.cpp:395] relu5_2 -> conv5_2 (in-place)
I1223 03:49:01.258507 18197 net.cpp:150] Setting up relu5_2
I1223 03:49:01.258517 18197 net.cpp:157] Top shape: 1 512 36 44 (811008)
I1223 03:49:01.258522 18197 net.cpp:165] Memory required for data: 920109504
I1223 03:49:01.258527 18197 layer_factory.hpp:77] Creating layer conv5_3
I1223 03:49:01.258544 18197 net.cpp:100] Creating Layer conv5_3
I1223 03:49:01.258549 18197 net.cpp:434] conv5_3 <- conv5_2
I1223 03:49:01.258556 18197 net.cpp:408] conv5_3 -> conv5_3
I1223 03:49:01.275444 18197 net.cpp:150] Setting up conv5_3
I1223 03:49:01.275467 18197 net.cpp:157] Top shape: 1 512 36 44 (811008)
I1223 03:49:01.275472 18197 net.cpp:165] Memory required for data: 923353536
I1223 03:49:01.275481 18197 layer_factory.hpp:77] Creating layer relu5_3
I1223 03:49:01.275490 18197 net.cpp:100] Creating Layer relu5_3
I1223 03:49:01.275496 18197 net.cpp:434] relu5_3 <- conv5_3
I1223 03:49:01.275503 18197 net.cpp:395] relu5_3 -> conv5_3 (in-place)
I1223 03:49:01.275710 18197 net.cpp:150] Setting up relu5_3
I1223 03:49:01.275720 18197 net.cpp:157] Top shape: 1 512 36 44 (811008)
I1223 03:49:01.275725 18197 net.cpp:165] Memory required for data: 926597568
I1223 03:49:01.275729 18197 layer_factory.hpp:77] Creating layer pool5
I1223 03:49:01.275738 18197 net.cpp:100] Creating Layer pool5
I1223 03:49:01.275743 18197 net.cpp:434] pool5 <- conv5_3
I1223 03:49:01.275750 18197 net.cpp:408] pool5 -> pool5
I1223 03:49:01.275807 18197 net.cpp:150] Setting up pool5
I1223 03:49:01.275815 18197 net.cpp:157] Top shape: 1 512 18 22 (202752)
I1223 03:49:01.275820 18197 net.cpp:165] Memory required for data: 927408576
I1223 03:49:01.275823 18197 layer_factory.hpp:77] Creating layer fc6
I1223 03:49:01.275836 18197 net.cpp:100] Creating Layer fc6
I1223 03:49:01.275840 18197 net.cpp:434] fc6 <- pool5
I1223 03:49:01.275847 18197 net.cpp:408] fc6 -> fc6
I1223 03:49:01.975616 18197 net.cpp:150] Setting up fc6
I1223 03:49:01.975654 18197 net.cpp:157] Top shape: 1 4096 12 16 (786432)
I1223 03:49:01.975659 18197 net.cpp:165] Memory required for data: 930554304
I1223 03:49:01.975672 18197 layer_factory.hpp:77] Creating layer relu6
I1223 03:49:01.975684 18197 net.cpp:100] Creating Layer relu6
I1223 03:49:01.975690 18197 net.cpp:434] relu6 <- fc6
I1223 03:49:01.975698 18197 net.cpp:395] relu6 -> fc6 (in-place)
I1223 03:49:01.976100 18197 net.cpp:150] Setting up relu6
I1223 03:49:01.976114 18197 net.cpp:157] Top shape: 1 4096 12 16 (786432)
I1223 03:49:01.976119 18197 net.cpp:165] Memory required for data: 933700032
I1223 03:49:01.976124 18197 layer_factory.hpp:77] Creating layer drop6
I1223 03:49:01.976131 18197 net.cpp:100] Creating Layer drop6
I1223 03:49:01.976136 18197 net.cpp:434] drop6 <- fc6
I1223 03:49:01.976145 18197 net.cpp:395] drop6 -> fc6 (in-place)
I1223 03:49:01.976186 18197 net.cpp:150] Setting up drop6
I1223 03:49:01.976192 18197 net.cpp:157] Top shape: 1 4096 12 16 (786432)
I1223 03:49:01.976197 18197 net.cpp:165] Memory required for data: 936845760
I1223 03:49:01.976200 18197 layer_factory.hpp:77] Creating layer fc7
I1223 03:49:01.976212 18197 net.cpp:100] Creating Layer fc7
I1223 03:49:01.976225 18197 net.cpp:434] fc7 <- fc6
I1223 03:49:01.976234 18197 net.cpp:408] fc7 -> fc7
I1223 03:49:02.091608 18197 net.cpp:150] Setting up fc7
I1223 03:49:02.091644 18197 net.cpp:157] Top shape: 1 4096 12 16 (786432)
I1223 03:49:02.091650 18197 net.cpp:165] Memory required for data: 939991488
I1223 03:49:02.091660 18197 layer_factory.hpp:77] Creating layer relu7
I1223 03:49:02.091673 18197 net.cpp:100] Creating Layer relu7
I1223 03:49:02.091680 18197 net.cpp:434] relu7 <- fc7
I1223 03:49:02.091691 18197 net.cpp:395] relu7 -> fc7 (in-place)
I1223 03:49:02.091897 18197 net.cpp:150] Setting up relu7
I1223 03:49:02.091907 18197 net.cpp:157] Top shape: 1 4096 12 16 (786432)
I1223 03:49:02.091912 18197 net.cpp:165] Memory required for data: 943137216
I1223 03:49:02.091915 18197 layer_factory.hpp:77] Creating layer drop7
I1223 03:49:02.091923 18197 net.cpp:100] Creating Layer drop7
I1223 03:49:02.091928 18197 net.cpp:434] drop7 <- fc7
I1223 03:49:02.091935 18197 net.cpp:395] drop7 -> fc7 (in-place)
I1223 03:49:02.091974 18197 net.cpp:150] Setting up drop7
I1223 03:49:02.091980 18197 net.cpp:157] Top shape: 1 4096 12 16 (786432)
I1223 03:49:02.091985 18197 net.cpp:165] Memory required for data: 946282944
I1223 03:49:02.091989 18197 layer_factory.hpp:77] Creating layer score_fr
I1223 03:49:02.092002 18197 net.cpp:100] Creating Layer score_fr
I1223 03:49:02.092007 18197 net.cpp:434] score_fr <- fc7
I1223 03:49:02.092015 18197 net.cpp:408] score_fr -> score_fr
I1223 03:49:02.093891 18197 net.cpp:150] Setting up score_fr
I1223 03:49:02.093907 18197 net.cpp:157] Top shape: 1 16 12 16 (3072)
I1223 03:49:02.093912 18197 net.cpp:165] Memory required for data: 946295232
I1223 03:49:02.093921 18197 layer_factory.hpp:77] Creating layer upscore2
I1223 03:49:02.093933 18197 net.cpp:100] Creating Layer upscore2
I1223 03:49:02.093942 18197 net.cpp:434] upscore2 <- score_fr
I1223 03:49:02.093950 18197 net.cpp:408] upscore2 -> upscore2
I1223 03:49:02.094225 18197 net.cpp:150] Setting up upscore2
I1223 03:49:02.094235 18197 net.cpp:157] Top shape: 1 16 26 34 (14144)
I1223 03:49:02.094239 18197 net.cpp:165] Memory required for data: 946351808
I1223 03:49:02.094252 18197 layer_factory.hpp:77] Creating layer upscore2_upscore2_0_split
I1223 03:49:02.094261 18197 net.cpp:100] Creating Layer upscore2_upscore2_0_split
I1223 03:49:02.094266 18197 net.cpp:434] upscore2_upscore2_0_split <- upscore2
I1223 03:49:02.094274 18197 net.cpp:408] upscore2_upscore2_0_split -> upscore2_upscore2_0_split_0
I1223 03:49:02.094280 18197 net.cpp:408] upscore2_upscore2_0_split -> upscore2_upscore2_0_split_1
I1223 03:49:02.094327 18197 net.cpp:150] Setting up upscore2_upscore2_0_split
I1223 03:49:02.094334 18197 net.cpp:157] Top shape: 1 16 26 34 (14144)
I1223 03:49:02.094339 18197 net.cpp:157] Top shape: 1 16 26 34 (14144)
I1223 03:49:02.094343 18197 net.cpp:165] Memory required for data: 946464960
I1223 03:49:02.094347 18197 layer_factory.hpp:77] Creating layer scale_pool4
I1223 03:49:02.094357 18197 net.cpp:100] Creating Layer scale_pool4
I1223 03:49:02.094362 18197 net.cpp:434] scale_pool4 <- pool4_pool4_0_split_1
I1223 03:49:02.094369 18197 net.cpp:408] scale_pool4 -> scale_pool4
I1223 03:49:02.094486 18197 net.cpp:150] Setting up scale_pool4
I1223 03:49:02.094496 18197 net.cpp:157] Top shape: 1 512 36 44 (811008)
I1223 03:49:02.094499 18197 net.cpp:165] Memory required for data: 949708992
I1223 03:49:02.094506 18197 layer_factory.hpp:77] Creating layer score_pool4
I1223 03:49:02.094516 18197 net.cpp:100] Creating Layer score_pool4
I1223 03:49:02.094521 18197 net.cpp:434] score_pool4 <- scale_pool4
I1223 03:49:02.094532 18197 net.cpp:408] score_pool4 -> score_pool4
I1223 03:49:02.095901 18197 net.cpp:150] Setting up score_pool4
I1223 03:49:02.095916 18197 net.cpp:157] Top shape: 1 16 36 44 (25344)
I1223 03:49:02.095921 18197 net.cpp:165] Memory required for data: 949810368
I1223 03:49:02.095928 18197 layer_factory.hpp:77] Creating layer score_pool4c
I1223 03:49:02.095938 18197 net.cpp:100] Creating Layer score_pool4c
I1223 03:49:02.095943 18197 net.cpp:434] score_pool4c <- score_pool4
I1223 03:49:02.095957 18197 net.cpp:434] score_pool4c <- upscore2_upscore2_0_split_0
I1223 03:49:02.095964 18197 net.cpp:408] score_pool4c -> score_pool4c
I1223 03:49:02.096002 18197 net.cpp:150] Setting up score_pool4c
I1223 03:49:02.096010 18197 net.cpp:157] Top shape: 1 16 26 34 (14144)
I1223 03:49:02.096014 18197 net.cpp:165] Memory required for data: 949866944
I1223 03:49:02.096019 18197 layer_factory.hpp:77] Creating layer fuse_pool4
I1223 03:49:02.096026 18197 net.cpp:100] Creating Layer fuse_pool4
I1223 03:49:02.096030 18197 net.cpp:434] fuse_pool4 <- upscore2_upscore2_0_split_1
I1223 03:49:02.096035 18197 net.cpp:434] fuse_pool4 <- score_pool4c
I1223 03:49:02.096043 18197 net.cpp:408] fuse_pool4 -> fuse_pool4
I1223 03:49:02.096073 18197 net.cpp:150] Setting up fuse_pool4
I1223 03:49:02.096082 18197 net.cpp:157] Top shape: 1 16 26 34 (14144)
I1223 03:49:02.096086 18197 net.cpp:165] Memory required for data: 949923520
I1223 03:49:02.096091 18197 layer_factory.hpp:77] Creating layer upscore_pool4
I1223 03:49:02.096097 18197 net.cpp:100] Creating Layer upscore_pool4
I1223 03:49:02.096102 18197 net.cpp:434] upscore_pool4 <- fuse_pool4
I1223 03:49:02.096110 18197 net.cpp:408] upscore_pool4 -> upscore_pool4
I1223 03:49:02.096379 18197 net.cpp:150] Setting up upscore_pool4
I1223 03:49:02.096387 18197 net.cpp:157] Top shape: 1 16 54 70 (60480)
I1223 03:49:02.096391 18197 net.cpp:165] Memory required for data: 950165440
I1223 03:49:02.096397 18197 layer_factory.hpp:77] Creating layer upscore_pool4_upscore_pool4_0_split
I1223 03:49:02.096403 18197 net.cpp:100] Creating Layer upscore_pool4_upscore_pool4_0_split
I1223 03:49:02.096408 18197 net.cpp:434] upscore_pool4_upscore_pool4_0_split <- upscore_pool4
I1223 03:49:02.096413 18197 net.cpp:408] upscore_pool4_upscore_pool4_0_split -> upscore_pool4_upscore_pool4_0_split_0
I1223 03:49:02.096421 18197 net.cpp:408] upscore_pool4_upscore_pool4_0_split -> upscore_pool4_upscore_pool4_0_split_1
I1223 03:49:02.096465 18197 net.cpp:150] Setting up upscore_pool4_upscore_pool4_0_split
I1223 03:49:02.096472 18197 net.cpp:157] Top shape: 1 16 54 70 (60480)
I1223 03:49:02.096478 18197 net.cpp:157] Top shape: 1 16 54 70 (60480)
I1223 03:49:02.096482 18197 net.cpp:165] Memory required for data: 950649280
I1223 03:49:02.096487 18197 layer_factory.hpp:77] Creating layer scale_pool3
I1223 03:49:02.096493 18197 net.cpp:100] Creating Layer scale_pool3
I1223 03:49:02.096498 18197 net.cpp:434] scale_pool3 <- pool3_pool3_0_split_1
I1223 03:49:02.096503 18197 net.cpp:408] scale_pool3 -> scale_pool3
I1223 03:49:02.096614 18197 net.cpp:150] Setting up scale_pool3
I1223 03:49:02.096622 18197 net.cpp:157] Top shape: 1 256 71 88 (1599488)
I1223 03:49:02.096626 18197 net.cpp:165] Memory required for data: 957047232
I1223 03:49:02.096632 18197 layer_factory.hpp:77] Creating layer score_pool3
I1223 03:49:02.096642 18197 net.cpp:100] Creating Layer score_pool3
I1223 03:49:02.096647 18197 net.cpp:434] score_pool3 <- scale_pool3
I1223 03:49:02.096655 18197 net.cpp:408] score_pool3 -> score_pool3
I1223 03:49:02.098021 18197 net.cpp:150] Setting up score_pool3
I1223 03:49:02.098037 18197 net.cpp:157] Top shape: 1 16 71 88 (99968)
I1223 03:49:02.098042 18197 net.cpp:165] Memory required for data: 957447104
I1223 03:49:02.098049 18197 layer_factory.hpp:77] Creating layer score_pool3c
I1223 03:49:02.098059 18197 net.cpp:100] Creating Layer score_pool3c
I1223 03:49:02.098064 18197 net.cpp:434] score_pool3c <- score_pool3
I1223 03:49:02.098070 18197 net.cpp:434] score_pool3c <- upscore_pool4_upscore_pool4_0_split_0
I1223 03:49:02.098078 18197 net.cpp:408] score_pool3c -> score_pool3c
I1223 03:49:02.098115 18197 net.cpp:150] Setting up score_pool3c
I1223 03:49:02.098124 18197 net.cpp:157] Top shape: 1 16 54 70 (60480)
I1223 03:49:02.098127 18197 net.cpp:165] Memory required for data: 957689024
I1223 03:49:02.098131 18197 layer_factory.hpp:77] Creating layer fuse_pool3
I1223 03:49:02.098139 18197 net.cpp:100] Creating Layer fuse_pool3
I1223 03:49:02.098142 18197 net.cpp:434] fuse_pool3 <- upscore_pool4_upscore_pool4_0_split_1
I1223 03:49:02.098152 18197 net.cpp:434] fuse_pool3 <- score_pool3c
I1223 03:49:02.098160 18197 net.cpp:408] fuse_pool3 -> fuse_pool3
I1223 03:49:02.098192 18197 net.cpp:150] Setting up fuse_pool3
I1223 03:49:02.098199 18197 net.cpp:157] Top shape: 1 16 54 70 (60480)
I1223 03:49:02.098203 18197 net.cpp:165] Memory required for data: 957930944
I1223 03:49:02.098207 18197 layer_factory.hpp:77] Creating layer upscore8
I1223 03:49:02.098217 18197 net.cpp:100] Creating Layer upscore8
I1223 03:49:02.098222 18197 net.cpp:434] upscore8 <- fuse_pool3
I1223 03:49:02.098228 18197 net.cpp:408] upscore8 -> upscore8
I1223 03:49:02.098815 18197 net.cpp:150] Setting up upscore8
I1223 03:49:02.098824 18197 net.cpp:157] Top shape: 1 16 440 568 (3998720)
I1223 03:49:02.098829 18197 net.cpp:165] Memory required for data: 973925824
I1223 03:49:02.098834 18197 layer_factory.hpp:77] Creating layer score
I1223 03:49:02.098841 18197 net.cpp:100] Creating Layer score
I1223 03:49:02.098845 18197 net.cpp:434] score <- upscore8
I1223 03:49:02.098851 18197 net.cpp:434] score <- data_data_0_split_1
I1223 03:49:02.098857 18197 net.cpp:408] score -> score
I1223 03:49:02.098889 18197 net.cpp:150] Setting up score
I1223 03:49:02.098896 18197 net.cpp:157] Top shape: 1 16 366 500 (2928000)
I1223 03:49:02.098901 18197 net.cpp:165] Memory required for data: 985637824
I1223 03:49:02.098904 18197 layer_factory.hpp:77] Creating layer loss
I1223 03:49:02.098912 18197 net.cpp:100] Creating Layer loss
I1223 03:49:02.098917 18197 net.cpp:434] loss <- score
I1223 03:49:02.098922 18197 net.cpp:434] loss <- label
I1223 03:49:02.098927 18197 net.cpp:408] loss -> loss
I1223 03:49:02.098937 18197 layer_factory.hpp:77] Creating layer loss
…
