…
snapshot_prefix: "snapshot/train"
test_initialization: false
average_loss: 20
iter_size: 1
I1223 03:40:53.133008 17690 solver.cpp:81] Creating training net from train_net file: train.prototxt
I1223 03:40:53.134753 17690 net.cpp:58] Initializing net from parameters: 
state {
  phase: TRAIN
}
layer {
  name: "data"
  type: "Python"
  top: "data"
  top: "label"
  python_param {
    module: "voc_layers"
    layer: "ObfSBDDSegDataLayer"
    param_str: "{\'sbdd_dir\': \'../data/sbdd/dataset\', \'seed\': 1337, \'split\': \'train15\', \'mean\': (104.00699, 116.66877, 122.67892)}"
  }
}
layer {
  name: "conv1_1"
  type: "Convolution"
  bottom: "data"
  top: "conv1_1"
  param {
    lr_mult: 1
    decay_mult: 1
  }
  param {
    lr_mult: 2
    decay_mult: 0
  }
  convolution_param {
    num_output: 64
    pad: 100
    kernel_size: 3
    stride: 1
    weight_filler {
      type: "xavier"
    }
  }
}
layer {
  name: "relu1_1"
  type: "ReLU"
  bottom: "conv1_1"
  top: "conv1_1"
}
layer {
  name: "conv1_2"
  type: "Convolution"
  bottom: "conv1_1"
  top: "conv1_2"
  param {
    lr_mult: 1
    decay_mult: 1
  }
  param {
    lr_mult: 2
    decay_mult: 0
  }
  convolution_param {
    num_output: 64
    pad: 1
    kernel_size: 3
    stride: 1
    weight_filler {
      type: "xavier"
    }
  }
}
layer {
  name: "relu1_2"
  type: "ReLU"
  bottom: "conv1_2"
  top: "conv1_2"
}
layer {
  name: "pool1"
  type: "Pooling"
  bottom: "conv1_2"
  top: "pool1"
  pooling_param {
    pool: MAX
    kernel_size: 2
    stride: 2
  }
}
layer {
  name: "conv2_1"
  type: "Convolution"
  bottom: "pool1"
  top: "conv2_1"
  param {
    lr_mult: 1
    decay_mult: 1
  }
  param {
    lr_mult: 2
    decay_mult: 0
  }
  convolution_param {
    num_output: 128
    pad: 1
    kernel_size: 3
    stride: 1
    weight_filler {
      type: "xavier"
    }
  }
}
layer {
  name: "relu2_1"
  type: "ReLU"
  bottom: "conv2_1"
  top: "conv2_1"
}
layer {
  name: "conv2_2"
  type: "Convolution"
  bottom: "conv2_1"
  top: "conv2_2"
  param {
    lr_mult: 1
    decay_mult: 1
  }
  param {
    lr_mult: 2
    decay_mult: 0
  }
  convolution_param {
    num_output: 128
    pad: 1
    kernel_size: 3
    stride: 1
    weight_filler {
      type: "xavier"
    }
  }
}
layer {
  name: "relu2_2"
  type: "ReLU"
  bottom: "conv2_2"
  top: "conv2_2"
}
layer {
  name: "pool2"
  type: "Pooling"
  bottom: "conv2_2"
  top: "pool2"
  pooling_param {
    pool: MAX
    kernel_size: 2
    stride: 2
  }
}
layer {
  name: "conv3_1"
  type: "Convolution"
  bottom: "pool2"
  top: "conv3_1"
  param {
    lr_mult: 1
    decay_mult: 1
  }
  param {
    lr_mult: 2
    decay_mult: 0
  }
  convolution_param {
    num_output: 256
    pad: 1
    kernel_size: 3
    stride: 1
    weight_filler {
      type: "xavier"
    }
  }
}
layer {
  name: "relu3_1"
  type: "ReLU"
  bottom: "conv3_1"
  top: "conv3_1"
}
layer {
  name: "conv3_2"
  type: "Convolution"
  bottom: "conv3_1"
  top: "conv3_2"
  param {
    lr_mult: 1
    decay_mult: 1
  }
  param {
    lr_mult: 2
    decay_mult: 0
  }
  convolution_param {
    num_output: 256
    pad: 1
    kernel_size: 3
    stride: 1
    weight_filler {
      type: "xavier"
    }
  }
}
layer {
  name: "relu3_2"
  type: "ReLU"
  bottom: "conv3_2"
  top: "conv3_2"
}
layer {
  name: "conv3_3"
  type: "Convolution"
  bottom: "conv3_2"
  top: "conv3_3"
  param {
    lr_mult: 1
    decay_mult: 1
  }
  param {
    lr_mult: 2
    decay_mult: 0
  }
  convolution_param {
    num_output: 256
    pad: 1
    kernel_size: 3
    stride: 1
    weight_filler {
      type: "xavier"
    }
  }
}
layer {
  name: "relu3_3"
  type: "ReLU"
  bottom: "conv3_3"
  top: "conv3_3"
}
layer {
  name: "pool3"
  type: "Pooling"
  bottom: "conv3_3"
  top: "pool3"
  pooling_param {
    pool: MAX
    kernel_size: 2
    stride: 2
  }
}
layer {
  name: "conv4_1"
  type: "Convolution"
  bottom: "pool3"
  top: "conv4_1"
  param {
    lr_mult: 1
    decay_mult: 1
  }
  param {
    lr_mult: 2
    decay_mult: 0
  }
  convolution_param {
    num_output: 512
    pad: 1
    kernel_size: 3
    stride: 1
    weight_filler {
      type: "xavier"
    }
  }
}
layer {
  name: "relu4_1"
  type: "ReLU"
  bottom: "conv4_1"
  top: "conv4_1"
}
layer {
  name: "conv4_2"
  type: "Convolution"
  bottom: "conv4_1"
  top: "conv4_2"
  param {
    lr_mult: 1
    decay_mult: 1
  }
  param {
    lr_mult: 2
    decay_mult: 0
  }
  convolution_param {
    num_output: 512
    pad: 1
    kernel_size: 3
    stride: 1
    weight_filler {
      type: "xavier"
    }
  }
}
layer {
  name: "relu4_2"
  type: "ReLU"
  bottom: "conv4_2"
  top: "conv4_2"
}
layer {
  name: "conv4_3"
  type: "Convolution"
  bottom: "conv4_2"
  top: "conv4_3"
  param {
    lr_mult: 1
    decay_mult: 1
  }
  param {
    lr_mult: 2
    decay_mult: 0
  }
  convolution_param {
    num_output: 512
    pad: 1
    kernel_size: 3
    stride: 1
    weight_filler {
      type: "xavier"
    }
  }
}
layer {
  name: "relu4_3"
  type: "ReLU"
  bottom: "conv4_3"
  top: "conv4_3"
}
layer {
  name: "pool4"
  type: "Pooling"
  bottom: "conv4_3"
  top: "pool4"
  pooling_param {
    pool: MAX
    kernel_size: 2
    stride: 2
  }
}
layer {
  name: "conv5_1"
  type: "Convolution"
  bottom: "pool4"
  top: "conv5_1"
  param {
    lr_mult: 1
    decay_mult: 1
  }
  param {
    lr_mult: 2
    decay_mult: 0
  }
  convolution_param {
    num_output: 512
    pad: 1
    kernel_size: 3
    stride: 1
    weight_filler {
      type: "xavier"
    }
  }
}
layer {
  name: "relu5_1"
  type: "ReLU"
  bottom: "conv5_1"
  top: "conv5_1"
}
layer {
  name: "conv5_2"
  type: "Convolution"
  bottom: "conv5_1"
  top: "conv5_2"
  param {
    lr_mult: 1
    decay_mult: 1
  }
  param {
    lr_mult: 2
    decay_mult: 0
  }
  convolution_param {
    num_output: 512
    pad: 1
    kernel_size: 3
    stride: 1
    weight_filler {
      type: "xavier"
    }
  }
}
layer {
  name: "relu5_2"
  type: "ReLU"
  bottom: "conv5_2"
  top: "conv5_2"
}
layer {
  name: "conv5_3"
  type: "Convolution"
  bottom: "conv5_2"
  top: "conv5_3"
  param {
    lr_mult: 1
    decay_mult: 1
  }
  param {
    lr_mult: 2
    decay_mult: 0
  }
  convolution_param {
    num_output: 512
    pad: 1
    kernel_size: 3
    stride: 1
    weight_filler {
      type: "xavier"
    }
  }
}
layer {
  name: "relu5_3"
  type: "ReLU"
  bottom: "conv5_3"
  top: "conv5_3"
}
layer {
  name: "pool5"
  type: "Pooling"
  bottom: "conv5_3"
  top: "pool5"
  pooling_param {
    pool: MAX
    kernel_size: 2
    stride: 2
  }
}
layer {
  name: "fc6"
  type: "Convolution"
  bottom: "pool5"
  top: "fc6"
  param {
    lr_mult: 1
    decay_mult: 1
  }
  param {
    lr_mult: 2
    decay_mult: 0
  }
  convolution_param {
    num_output: 4096
    pad: 0
    kernel_size: 7
    stride: 1
    weight_filler {
      type: "xavier"
    }
  }
}
layer {
  name: "relu6"
  type: "ReLU"
  bottom: "fc6"
  top: "fc6"
}
layer {
  name: "drop6"
  type: "Dropout"
  bottom: "fc6"
  top: "fc6"
  dropout_param {
    dropout_ratio: 0.5
  }
}
layer {
  name: "fc7"
  type: "Convolution"
  bottom: "fc6"
  top: "fc7"
  param {
    lr_mult: 1
    decay_mult: 1
  }
  param {
    lr_mult: 2
    decay_mult: 0
  }
  convolution_param {
    num_output: 4096
    pad: 0
    kernel_size: 1
    stride: 1
    weight_filler {
      type: "xavier"
    }
  }
}
layer {
  name: "relu7"
  type: "ReLU"
  bottom: "fc7"
  top: "fc7"
}
layer {
  name: "drop7"
  type: "Dropout"
  bottom: "fc7"
  top: "fc7"
  dropout_param {
    dropout_ratio: 0.5
  }
}
layer {
  name: "score_fr"
  type: "Convolution"
  bottom: "fc7"
  top: "score_fr"
  param {
    lr_mult: 1
    decay_mult: 1
  }
  param {
    lr_mult: 2
    decay_mult: 0
  }
  convolution_param {
    num_output: 2
    pad: 0
    kernel_size: 1
    weight_filler {
      type: "xavier"
    }
  }
}
layer {
  name: "upscore2"
  type: "Deconvolution"
  bottom: "score_fr"
  top: "upscore2"
  param {
    lr_mult: 0
  }
  convolution_param {
    num_output: 2
    bias_term: false
    kernel_size: 4
    stride: 2
    weight_filler {
      type: "xavier"
    }
  }
}
layer {
  name: "scale_pool4"
  type: "Scale"
  bottom: "pool4"
  top: "scale_pool4"
  param {
    lr_mult: 0
  }
  scale_param {
    filler {
      type: "constant"
      value: 0.01
    }
  }
}
layer {
  name: "score_pool4"
  type: "Convolution"
  bottom: "scale_pool4"
  top: "score_pool4"
  param {
    lr_mult: 1
    decay_mult: 1
  }
  param {
    lr_mult: 2
    decay_mult: 0
  }
  convolution_param {
    num_output: 2
    pad: 0
    kernel_size: 1
    weight_filler {
      type: "xavier"
    }
  }
}
layer {
  name: "score_pool4c"
  type: "Crop"
  bottom: "score_pool4"
  bottom: "upscore2"
  top: "score_pool4c"
  crop_param {
    axis: 2
    offset: 5
  }
}
layer {
  name: "fuse_pool4"
  type: "Eltwise"
  bottom: "upscore2"
  bottom: "score_pool4c"
  top: "fuse_pool4"
  eltwise_param {
    operation: SUM
  }
}
layer {
  name: "upscore_pool4"
  type: "Deconvolution"
  bottom: "fuse_pool4"
  top: "upscore_pool4"
  param {
    lr_mult: 0
  }
  convolution_param {
    num_output: 2
    bias_term: false
    kernel_size: 4
    stride: 2
    weight_filler {
      type: "xavier"
    }
  }
}
layer {
  name: "scale_pool3"
  type: "Scale"
  bottom: "pool3"
  top: "scale_pool3"
  param {
    lr_mult: 0
  }
  scale_param {
    filler {
      type: "constant"
      value: 0.0001
    }
  }
}
layer {
  name: "score_pool3"
  type: "Convolution"
  bottom: "scale_pool3"
  top: "score_pool3"
  param {
    lr_mult: 1
    decay_mult: 1
  }
  param {
    lr_mult: 2
    decay_mult: 0
  }
  convolution_param {
    num_output: 2
    pad: 0
    kernel_size: 1
    weight_filler {
      type: "xavier"
    }
  }
}
layer {
  name: "score_pool3c"
  type: "Crop"
  bottom: "score_pool3"
  bottom: "upscore_pool4"
  top: "score_pool3c"
  crop_param {
    axis: 2
    offset: 9
  }
}
layer {
  name: "fuse_pool3"
  type: "Eltwise"
  bottom: "upscore_pool4"
  bottom: "score_pool3c"
  top: "fuse_pool3"
  eltwise_param {
    operation: SUM
  }
}
layer {
  name: "upscore8"
  type: "Deconvolution"
  bottom: "fuse_pool3"
  top: "upscore8"
  param {
    lr_mult: 0
  }
  convolution_param {
    num_output: 2
    bias_term: false
    kernel_size: 16
    stride: 8
    weight_filler {
      type: "xavier"
    }
  }
}
layer {
  name: "score"
  type: "Crop"
  bottom: "upscore8"
  bottom: "data"
  top: "score"
  crop_param {
    axis: 2
    offset: 31
  }
}
layer {
  name: "loss"
  type: "SoftmaxWithLoss"
  bottom: "score"
  bottom: "label"
  top: "loss"
  loss_param {
    ignore_label: 255
    normalize: false
  }
}
I1223 03:40:53.135020 17690 layer_factory.hpp:77] Creating layer data
I1223 03:40:53.136646 17690 net.cpp:100] Creating Layer data
I1223 03:40:53.136663 17690 net.cpp:408] data -> data
I1223 03:40:53.136682 17690 net.cpp:408] data -> label
I1223 03:40:53.479157 17690 net.cpp:150] Setting up data
I1223 03:40:53.479212 17690 net.cpp:157] Top shape: 1 3 500 333 (499500)
I1223 03:40:53.479219 17690 net.cpp:157] Top shape: 1 1 500 333 (166500)
I1223 03:40:53.479223 17690 net.cpp:165] Memory required for data: 2664000
I1223 03:40:53.479235 17690 layer_factory.hpp:77] Creating layer data_data_0_split
I1223 03:40:53.479272 17690 net.cpp:100] Creating Layer data_data_0_split
I1223 03:40:53.479281 17690 net.cpp:434] data_data_0_split <- data
I1223 03:40:53.479291 17690 net.cpp:408] data_data_0_split -> data_data_0_split_0
I1223 03:40:53.479308 17690 net.cpp:408] data_data_0_split -> data_data_0_split_1
I1223 03:40:53.479362 17690 net.cpp:150] Setting up data_data_0_split
I1223 03:40:53.479373 17690 net.cpp:157] Top shape: 1 3 500 333 (499500)
I1223 03:40:53.479378 17690 net.cpp:157] Top shape: 1 3 500 333 (499500)
I1223 03:40:53.479382 17690 net.cpp:165] Memory required for data: 6660000
I1223 03:40:53.479387 17690 layer_factory.hpp:77] Creating layer conv1_1
I1223 03:40:53.479413 17690 net.cpp:100] Creating Layer conv1_1
I1223 03:40:53.479419 17690 net.cpp:434] conv1_1 <- data_data_0_split_0
I1223 03:40:53.479439 17690 net.cpp:408] conv1_1 -> conv1_1
I1223 03:40:54.489253 17690 net.cpp:150] Setting up conv1_1
I1223 03:40:54.489310 17690 net.cpp:157] Top shape: 1 64 698 531 (23720832)
I1223 03:40:54.489317 17690 net.cpp:165] Memory required for data: 101543328
I1223 03:40:54.489344 17690 layer_factory.hpp:77] Creating layer relu1_1
I1223 03:40:54.489363 17690 net.cpp:100] Creating Layer relu1_1
I1223 03:40:54.489372 17690 net.cpp:434] relu1_1 <- conv1_1
I1223 03:40:54.489379 17690 net.cpp:395] relu1_1 -> conv1_1 (in-place)
I1223 03:40:54.489805 17690 net.cpp:150] Setting up relu1_1
I1223 03:40:54.489825 17690 net.cpp:157] Top shape: 1 64 698 531 (23720832)
I1223 03:40:54.489830 17690 net.cpp:165] Memory required for data: 196426656
I1223 03:40:54.489835 17690 layer_factory.hpp:77] Creating layer conv1_2
I1223 03:40:54.489856 17690 net.cpp:100] Creating Layer conv1_2
I1223 03:40:54.489862 17690 net.cpp:434] conv1_2 <- conv1_1
I1223 03:40:54.489873 17690 net.cpp:408] conv1_2 -> conv1_2
I1223 03:40:54.493799 17690 net.cpp:150] Setting up conv1_2
I1223 03:40:54.493836 17690 net.cpp:157] Top shape: 1 64 698 531 (23720832)
I1223 03:40:54.493846 17690 net.cpp:165] Memory required for data: 291309984
I1223 03:40:54.493870 17690 layer_factory.hpp:77] Creating layer relu1_2
I1223 03:40:54.493891 17690 net.cpp:100] Creating Layer relu1_2
I1223 03:40:54.493901 17690 net.cpp:434] relu1_2 <- conv1_2
I1223 03:40:54.493916 17690 net.cpp:395] relu1_2 -> conv1_2 (in-place)
I1223 03:40:54.494470 17690 net.cpp:150] Setting up relu1_2
I1223 03:40:54.494489 17690 net.cpp:157] Top shape: 1 64 698 531 (23720832)
I1223 03:40:54.494493 17690 net.cpp:165] Memory required for data: 386193312
I1223 03:40:54.494499 17690 layer_factory.hpp:77] Creating layer pool1
I1223 03:40:54.494516 17690 net.cpp:100] Creating Layer pool1
I1223 03:40:54.494523 17690 net.cpp:434] pool1 <- conv1_2
I1223 03:40:54.494529 17690 net.cpp:408] pool1 -> pool1
I1223 03:40:54.494597 17690 net.cpp:150] Setting up pool1
I1223 03:40:54.494607 17690 net.cpp:157] Top shape: 1 64 349 266 (5941376)
I1223 03:40:54.494611 17690 net.cpp:165] Memory required for data: 409958816
I1223 03:40:54.494616 17690 layer_factory.hpp:77] Creating layer conv2_1
I1223 03:40:54.494631 17690 net.cpp:100] Creating Layer conv2_1
I1223 03:40:54.494635 17690 net.cpp:434] conv2_1 <- pool1
I1223 03:40:54.494644 17690 net.cpp:408] conv2_1 -> conv2_1
I1223 03:40:54.497311 17690 net.cpp:150] Setting up conv2_1
I1223 03:40:54.497331 17690 net.cpp:157] Top shape: 1 128 349 266 (11882752)
I1223 03:40:54.497336 17690 net.cpp:165] Memory required for data: 457489824
I1223 03:40:54.497349 17690 layer_factory.hpp:77] Creating layer relu2_1
I1223 03:40:54.497364 17690 net.cpp:100] Creating Layer relu2_1
I1223 03:40:54.497369 17690 net.cpp:434] relu2_1 <- conv2_1
I1223 03:40:54.497376 17690 net.cpp:395] relu2_1 -> conv2_1 (in-place)
I1223 03:40:54.497597 17690 net.cpp:150] Setting up relu2_1
I1223 03:40:54.497611 17690 net.cpp:157] Top shape: 1 128 349 266 (11882752)
I1223 03:40:54.497617 17690 net.cpp:165] Memory required for data: 505020832
I1223 03:40:54.497622 17690 layer_factory.hpp:77] Creating layer conv2_2
I1223 03:40:54.497649 17690 net.cpp:100] Creating Layer conv2_2
I1223 03:40:54.497656 17690 net.cpp:434] conv2_2 <- conv2_1
I1223 03:40:54.497665 17690 net.cpp:408] conv2_2 -> conv2_2
I1223 03:40:54.500545 17690 net.cpp:150] Setting up conv2_2
I1223 03:40:54.500566 17690 net.cpp:157] Top shape: 1 128 349 266 (11882752)
I1223 03:40:54.500571 17690 net.cpp:165] Memory required for data: 552551840
I1223 03:40:54.500581 17690 layer_factory.hpp:77] Creating layer relu2_2
I1223 03:40:54.500591 17690 net.cpp:100] Creating Layer relu2_2
I1223 03:40:54.500596 17690 net.cpp:434] relu2_2 <- conv2_2
I1223 03:40:54.500604 17690 net.cpp:395] relu2_2 -> conv2_2 (in-place)
I1223 03:40:54.501015 17690 net.cpp:150] Setting up relu2_2
I1223 03:40:54.501034 17690 net.cpp:157] Top shape: 1 128 349 266 (11882752)
I1223 03:40:54.501039 17690 net.cpp:165] Memory required for data: 600082848
I1223 03:40:54.501054 17690 layer_factory.hpp:77] Creating layer pool2
I1223 03:40:54.501065 17690 net.cpp:100] Creating Layer pool2
I1223 03:40:54.501070 17690 net.cpp:434] pool2 <- conv2_2
I1223 03:40:54.501078 17690 net.cpp:408] pool2 -> pool2
I1223 03:40:54.501137 17690 net.cpp:150] Setting up pool2
I1223 03:40:54.501147 17690 net.cpp:157] Top shape: 1 128 175 133 (2979200)
I1223 03:40:54.501150 17690 net.cpp:165] Memory required for data: 611999648
I1223 03:40:54.501155 17690 layer_factory.hpp:77] Creating layer conv3_1
I1223 03:40:54.501169 17690 net.cpp:100] Creating Layer conv3_1
I1223 03:40:54.501174 17690 net.cpp:434] conv3_1 <- pool2
I1223 03:40:54.501183 17690 net.cpp:408] conv3_1 -> conv3_1
I1223 03:40:54.504639 17690 net.cpp:150] Setting up conv3_1
I1223 03:40:54.504660 17690 net.cpp:157] Top shape: 1 256 175 133 (5958400)
I1223 03:40:54.504664 17690 net.cpp:165] Memory required for data: 635833248
I1223 03:40:54.504678 17690 layer_factory.hpp:77] Creating layer relu3_1
I1223 03:40:54.504689 17690 net.cpp:100] Creating Layer relu3_1
I1223 03:40:54.504694 17690 net.cpp:434] relu3_1 <- conv3_1
I1223 03:40:54.504701 17690 net.cpp:395] relu3_1 -> conv3_1 (in-place)
I1223 03:40:54.505108 17690 net.cpp:150] Setting up relu3_1
I1223 03:40:54.505125 17690 net.cpp:157] Top shape: 1 256 175 133 (5958400)
I1223 03:40:54.505131 17690 net.cpp:165] Memory required for data: 659666848
I1223 03:40:54.505136 17690 layer_factory.hpp:77] Creating layer conv3_2
I1223 03:40:54.505149 17690 net.cpp:100] Creating Layer conv3_2
I1223 03:40:54.505156 17690 net.cpp:434] conv3_2 <- conv3_1
I1223 03:40:54.505165 17690 net.cpp:408] conv3_2 -> conv3_2
I1223 03:40:54.510959 17690 net.cpp:150] Setting up conv3_2
I1223 03:40:54.510980 17690 net.cpp:157] Top shape: 1 256 175 133 (5958400)
I1223 03:40:54.510987 17690 net.cpp:165] Memory required for data: 683500448
I1223 03:40:54.510995 17690 layer_factory.hpp:77] Creating layer relu3_2
I1223 03:40:54.511006 17690 net.cpp:100] Creating Layer relu3_2
I1223 03:40:54.511011 17690 net.cpp:434] relu3_2 <- conv3_2
I1223 03:40:54.511021 17690 net.cpp:395] relu3_2 -> conv3_2 (in-place)
I1223 03:40:54.511231 17690 net.cpp:150] Setting up relu3_2
I1223 03:40:54.511247 17690 net.cpp:157] Top shape: 1 256 175 133 (5958400)
I1223 03:40:54.511251 17690 net.cpp:165] Memory required for data: 707334048
I1223 03:40:54.511256 17690 layer_factory.hpp:77] Creating layer conv3_3
I1223 03:40:54.511272 17690 net.cpp:100] Creating Layer conv3_3
I1223 03:40:54.511278 17690 net.cpp:434] conv3_3 <- conv3_2
I1223 03:40:54.511288 17690 net.cpp:408] conv3_3 -> conv3_3
I1223 03:40:54.517024 17690 net.cpp:150] Setting up conv3_3
I1223 03:40:54.517045 17690 net.cpp:157] Top shape: 1 256 175 133 (5958400)
I1223 03:40:54.517050 17690 net.cpp:165] Memory required for data: 731167648
I1223 03:40:54.517058 17690 layer_factory.hpp:77] Creating layer relu3_3
I1223 03:40:54.517067 17690 net.cpp:100] Creating Layer relu3_3
I1223 03:40:54.517072 17690 net.cpp:434] relu3_3 <- conv3_3
I1223 03:40:54.517081 17690 net.cpp:395] relu3_3 -> conv3_3 (in-place)
I1223 03:40:54.517489 17690 net.cpp:150] Setting up relu3_3
I1223 03:40:54.517506 17690 net.cpp:157] Top shape: 1 256 175 133 (5958400)
I1223 03:40:54.517510 17690 net.cpp:165] Memory required for data: 755001248
I1223 03:40:54.517515 17690 layer_factory.hpp:77] Creating layer pool3
I1223 03:40:54.517525 17690 net.cpp:100] Creating Layer pool3
I1223 03:40:54.517530 17690 net.cpp:434] pool3 <- conv3_3
I1223 03:40:54.517539 17690 net.cpp:408] pool3 -> pool3
I1223 03:40:54.517596 17690 net.cpp:150] Setting up pool3
I1223 03:40:54.517607 17690 net.cpp:157] Top shape: 1 256 88 67 (1509376)
I1223 03:40:54.517611 17690 net.cpp:165] Memory required for data: 761038752
I1223 03:40:54.517616 17690 layer_factory.hpp:77] Creating layer pool3_pool3_0_split
I1223 03:40:54.517624 17690 net.cpp:100] Creating Layer pool3_pool3_0_split
I1223 03:40:54.517628 17690 net.cpp:434] pool3_pool3_0_split <- pool3
I1223 03:40:54.517635 17690 net.cpp:408] pool3_pool3_0_split -> pool3_pool3_0_split_0
I1223 03:40:54.517650 17690 net.cpp:408] pool3_pool3_0_split -> pool3_pool3_0_split_1
I1223 03:40:54.517705 17690 net.cpp:150] Setting up pool3_pool3_0_split
I1223 03:40:54.517715 17690 net.cpp:157] Top shape: 1 256 88 67 (1509376)
I1223 03:40:54.517720 17690 net.cpp:157] Top shape: 1 256 88 67 (1509376)
I1223 03:40:54.517724 17690 net.cpp:165] Memory required for data: 773113760
I1223 03:40:54.517729 17690 layer_factory.hpp:77] Creating layer conv4_1
I1223 03:40:54.517742 17690 net.cpp:100] Creating Layer conv4_1
I1223 03:40:54.517747 17690 net.cpp:434] conv4_1 <- pool3_pool3_0_split_0
I1223 03:40:54.517756 17690 net.cpp:408] conv4_1 -> conv4_1
I1223 03:40:54.529108 17690 net.cpp:150] Setting up conv4_1
I1223 03:40:54.529135 17690 net.cpp:157] Top shape: 1 512 88 67 (3018752)
I1223 03:40:54.529140 17690 net.cpp:165] Memory required for data: 785188768
I1223 03:40:54.529150 17690 layer_factory.hpp:77] Creating layer relu4_1
I1223 03:40:54.529160 17690 net.cpp:100] Creating Layer relu4_1
I1223 03:40:54.529165 17690 net.cpp:434] relu4_1 <- conv4_1
I1223 03:40:54.529171 17690 net.cpp:395] relu4_1 -> conv4_1 (in-place)
I1223 03:40:54.529580 17690 net.cpp:150] Setting up relu4_1
I1223 03:40:54.529597 17690 net.cpp:157] Top shape: 1 512 88 67 (3018752)
I1223 03:40:54.529602 17690 net.cpp:165] Memory required for data: 797263776
I1223 03:40:54.529606 17690 layer_factory.hpp:77] Creating layer conv4_2
I1223 03:40:54.529623 17690 net.cpp:100] Creating Layer conv4_2
I1223 03:40:54.529628 17690 net.cpp:434] conv4_2 <- conv4_1
I1223 03:40:54.529642 17690 net.cpp:408] conv4_2 -> conv4_2
I1223 03:40:54.548115 17690 net.cpp:150] Setting up conv4_2
I1223 03:40:54.548146 17690 net.cpp:157] Top shape: 1 512 88 67 (3018752)
I1223 03:40:54.548151 17690 net.cpp:165] Memory required for data: 809338784
I1223 03:40:54.548167 17690 layer_factory.hpp:77] Creating layer relu4_2
I1223 03:40:54.548177 17690 net.cpp:100] Creating Layer relu4_2
I1223 03:40:54.548183 17690 net.cpp:434] relu4_2 <- conv4_2
I1223 03:40:54.548192 17690 net.cpp:395] relu4_2 -> conv4_2 (in-place)
I1223 03:40:54.548399 17690 net.cpp:150] Setting up relu4_2
I1223 03:40:54.548411 17690 net.cpp:157] Top shape: 1 512 88 67 (3018752)
I1223 03:40:54.548415 17690 net.cpp:165] Memory required for data: 821413792
I1223 03:40:54.548420 17690 layer_factory.hpp:77] Creating layer conv4_3
I1223 03:40:54.548437 17690 net.cpp:100] Creating Layer conv4_3
I1223 03:40:54.548444 17690 net.cpp:434] conv4_3 <- conv4_2
I1223 03:40:54.548454 17690 net.cpp:408] conv4_3 -> conv4_3
I1223 03:40:54.566797 17690 net.cpp:150] Setting up conv4_3
I1223 03:40:54.566829 17690 net.cpp:157] Top shape: 1 512 88 67 (3018752)
I1223 03:40:54.566834 17690 net.cpp:165] Memory required for data: 833488800
I1223 03:40:54.566845 17690 layer_factory.hpp:77] Creating layer relu4_3
I1223 03:40:54.566855 17690 net.cpp:100] Creating Layer relu4_3
I1223 03:40:54.566861 17690 net.cpp:434] relu4_3 <- conv4_3
I1223 03:40:54.566869 17690 net.cpp:395] relu4_3 -> conv4_3 (in-place)
I1223 03:40:54.567252 17690 net.cpp:150] Setting up relu4_3
I1223 03:40:54.567268 17690 net.cpp:157] Top shape: 1 512 88 67 (3018752)
I1223 03:40:54.567272 17690 net.cpp:165] Memory required for data: 845563808
I1223 03:40:54.567277 17690 layer_factory.hpp:77] Creating layer pool4
I1223 03:40:54.567291 17690 net.cpp:100] Creating Layer pool4
I1223 03:40:54.567296 17690 net.cpp:434] pool4 <- conv4_3
I1223 03:40:54.567304 17690 net.cpp:408] pool4 -> pool4
I1223 03:40:54.567360 17690 net.cpp:150] Setting up pool4
I1223 03:40:54.567370 17690 net.cpp:157] Top shape: 1 512 44 34 (765952)
I1223 03:40:54.567374 17690 net.cpp:165] Memory required for data: 848627616
I1223 03:40:54.567378 17690 layer_factory.hpp:77] Creating layer pool4_pool4_0_split
I1223 03:40:54.567389 17690 net.cpp:100] Creating Layer pool4_pool4_0_split
I1223 03:40:54.567394 17690 net.cpp:434] pool4_pool4_0_split <- pool4
I1223 03:40:54.567399 17690 net.cpp:408] pool4_pool4_0_split -> pool4_pool4_0_split_0
I1223 03:40:54.567407 17690 net.cpp:408] pool4_pool4_0_split -> pool4_pool4_0_split_1
I1223 03:40:54.567453 17690 net.cpp:150] Setting up pool4_pool4_0_split
I1223 03:40:54.567472 17690 net.cpp:157] Top shape: 1 512 44 34 (765952)
I1223 03:40:54.567478 17690 net.cpp:157] Top shape: 1 512 44 34 (765952)
I1223 03:40:54.567482 17690 net.cpp:165] Memory required for data: 854755232
I1223 03:40:54.567487 17690 layer_factory.hpp:77] Creating layer conv5_1
I1223 03:40:54.567502 17690 net.cpp:100] Creating Layer conv5_1
I1223 03:40:54.567507 17690 net.cpp:434] conv5_1 <- pool4_pool4_0_split_0
I1223 03:40:54.567515 17690 net.cpp:408] conv5_1 -> conv5_1
I1223 03:40:54.585419 17690 net.cpp:150] Setting up conv5_1
I1223 03:40:54.585450 17690 net.cpp:157] Top shape: 1 512 44 34 (765952)
I1223 03:40:54.585455 17690 net.cpp:165] Memory required for data: 857819040
I1223 03:40:54.585465 17690 layer_factory.hpp:77] Creating layer relu5_1
I1223 03:40:54.585477 17690 net.cpp:100] Creating Layer relu5_1
I1223 03:40:54.585484 17690 net.cpp:434] relu5_1 <- conv5_1
I1223 03:40:54.585490 17690 net.cpp:395] relu5_1 -> conv5_1 (in-place)
I1223 03:40:54.585878 17690 net.cpp:150] Setting up relu5_1
I1223 03:40:54.585893 17690 net.cpp:157] Top shape: 1 512 44 34 (765952)
I1223 03:40:54.585898 17690 net.cpp:165] Memory required for data: 860882848
I1223 03:40:54.585903 17690 layer_factory.hpp:77] Creating layer conv5_2
I1223 03:40:54.585917 17690 net.cpp:100] Creating Layer conv5_2
I1223 03:40:54.585922 17690 net.cpp:434] conv5_2 <- conv5_1
I1223 03:40:54.585932 17690 net.cpp:408] conv5_2 -> conv5_2
I1223 03:40:54.604189 17690 net.cpp:150] Setting up conv5_2
I1223 03:40:54.604218 17690 net.cpp:157] Top shape: 1 512 44 34 (765952)
I1223 03:40:54.604223 17690 net.cpp:165] Memory required for data: 863946656
I1223 03:40:54.604233 17690 layer_factory.hpp:77] Creating layer relu5_2
I1223 03:40:54.604244 17690 net.cpp:100] Creating Layer relu5_2
I1223 03:40:54.604249 17690 net.cpp:434] relu5_2 <- conv5_2
I1223 03:40:54.604257 17690 net.cpp:395] relu5_2 -> conv5_2 (in-place)
I1223 03:40:54.604460 17690 net.cpp:150] Setting up relu5_2
I1223 03:40:54.604472 17690 net.cpp:157] Top shape: 1 512 44 34 (765952)
I1223 03:40:54.604476 17690 net.cpp:165] Memory required for data: 867010464
I1223 03:40:54.604481 17690 layer_factory.hpp:77] Creating layer conv5_3
I1223 03:40:54.604502 17690 net.cpp:100] Creating Layer conv5_3
I1223 03:40:54.604508 17690 net.cpp:434] conv5_3 <- conv5_2
I1223 03:40:54.604516 17690 net.cpp:408] conv5_3 -> conv5_3
I1223 03:40:54.622395 17690 net.cpp:150] Setting up conv5_3
I1223 03:40:54.622423 17690 net.cpp:157] Top shape: 1 512 44 34 (765952)
I1223 03:40:54.622428 17690 net.cpp:165] Memory required for data: 870074272
I1223 03:40:54.622438 17690 layer_factory.hpp:77] Creating layer relu5_3
I1223 03:40:54.622449 17690 net.cpp:100] Creating Layer relu5_3
I1223 03:40:54.622455 17690 net.cpp:434] relu5_3 <- conv5_3
I1223 03:40:54.622464 17690 net.cpp:395] relu5_3 -> conv5_3 (in-place)
I1223 03:40:54.623023 17690 net.cpp:150] Setting up relu5_3
I1223 03:40:54.623039 17690 net.cpp:157] Top shape: 1 512 44 34 (765952)
I1223 03:40:54.623042 17690 net.cpp:165] Memory required for data: 873138080
I1223 03:40:54.623047 17690 layer_factory.hpp:77] Creating layer pool5
I1223 03:40:54.623057 17690 net.cpp:100] Creating Layer pool5
I1223 03:40:54.623062 17690 net.cpp:434] pool5 <- conv5_3
I1223 03:40:54.623071 17690 net.cpp:408] pool5 -> pool5
I1223 03:40:54.623127 17690 net.cpp:150] Setting up pool5
I1223 03:40:54.623136 17690 net.cpp:157] Top shape: 1 512 22 17 (191488)
I1223 03:40:54.623141 17690 net.cpp:165] Memory required for data: 873904032
I1223 03:40:54.623144 17690 layer_factory.hpp:77] Creating layer fc6
I1223 03:40:54.623159 17690 net.cpp:100] Creating Layer fc6
I1223 03:40:54.623164 17690 net.cpp:434] fc6 <- pool5
I1223 03:40:54.623172 17690 net.cpp:408] fc6 -> fc6
I1223 03:40:55.365139 17690 net.cpp:150] Setting up fc6
I1223 03:40:55.365202 17690 net.cpp:157] Top shape: 1 4096 16 11 (720896)
I1223 03:40:55.365208 17690 net.cpp:165] Memory required for data: 876787616
I1223 03:40:55.365226 17690 layer_factory.hpp:77] Creating layer relu6
I1223 03:40:55.365259 17690 net.cpp:100] Creating Layer relu6
I1223 03:40:55.365269 17690 net.cpp:434] relu6 <- fc6
I1223 03:40:55.365279 17690 net.cpp:395] relu6 -> fc6 (in-place)
I1223 03:40:55.365670 17690 net.cpp:150] Setting up relu6
I1223 03:40:55.365685 17690 net.cpp:157] Top shape: 1 4096 16 11 (720896)
I1223 03:40:55.365689 17690 net.cpp:165] Memory required for data: 879671200
I1223 03:40:55.365694 17690 layer_factory.hpp:77] Creating layer drop6
I1223 03:40:55.365715 17690 net.cpp:100] Creating Layer drop6
I1223 03:40:55.365720 17690 net.cpp:434] drop6 <- fc6
I1223 03:40:55.365725 17690 net.cpp:395] drop6 -> fc6 (in-place)
I1223 03:40:55.365774 17690 net.cpp:150] Setting up drop6
I1223 03:40:55.365783 17690 net.cpp:157] Top shape: 1 4096 16 11 (720896)
I1223 03:40:55.365787 17690 net.cpp:165] Memory required for data: 882554784
I1223 03:40:55.365792 17690 layer_factory.hpp:77] Creating layer fc7
I1223 03:40:55.365808 17690 net.cpp:100] Creating Layer fc7
I1223 03:40:55.365813 17690 net.cpp:434] fc7 <- fc6
I1223 03:40:55.365819 17690 net.cpp:408] fc7 -> fc7
I1223 03:40:55.487926 17690 net.cpp:150] Setting up fc7
I1223 03:40:55.487982 17690 net.cpp:157] Top shape: 1 4096 16 11 (720896)
I1223 03:40:55.487987 17690 net.cpp:165] Memory required for data: 885438368
I1223 03:40:55.488000 17690 layer_factory.hpp:77] Creating layer relu7
I1223 03:40:55.488015 17690 net.cpp:100] Creating Layer relu7
I1223 03:40:55.488023 17690 net.cpp:434] relu7 <- fc7
I1223 03:40:55.488035 17690 net.cpp:395] relu7 -> fc7 (in-place)
I1223 03:40:55.488245 17690 net.cpp:150] Setting up relu7
I1223 03:40:55.488256 17690 net.cpp:157] Top shape: 1 4096 16 11 (720896)
I1223 03:40:55.488260 17690 net.cpp:165] Memory required for data: 888321952
I1223 03:40:55.488265 17690 layer_factory.hpp:77] Creating layer drop7
I1223 03:40:55.488275 17690 net.cpp:100] Creating Layer drop7
I1223 03:40:55.488281 17690 net.cpp:434] drop7 <- fc7
I1223 03:40:55.488287 17690 net.cpp:395] drop7 -> fc7 (in-place)
I1223 03:40:55.488322 17690 net.cpp:150] Setting up drop7
I1223 03:40:55.488330 17690 net.cpp:157] Top shape: 1 4096 16 11 (720896)
I1223 03:40:55.488334 17690 net.cpp:165] Memory required for data: 891205536
I1223 03:40:55.488338 17690 layer_factory.hpp:77] Creating layer score_fr
I1223 03:40:55.488358 17690 net.cpp:100] Creating Layer score_fr
I1223 03:40:55.488363 17690 net.cpp:434] score_fr <- fc7
I1223 03:40:55.488373 17690 net.cpp:408] score_fr -> score_fr
I1223 03:40:55.489693 17690 net.cpp:150] Setting up score_fr
I1223 03:40:55.489713 17690 net.cpp:157] Top shape: 1 2 16 11 (352)
I1223 03:40:55.489719 17690 net.cpp:165] Memory required for data: 891206944
I1223 03:40:55.489727 17690 layer_factory.hpp:77] Creating layer upscore2
I1223 03:40:55.489744 17690 net.cpp:100] Creating Layer upscore2
I1223 03:40:55.489749 17690 net.cpp:434] upscore2 <- score_fr
I1223 03:40:55.489758 17690 net.cpp:408] upscore2 -> upscore2
I1223 03:40:55.489977 17690 net.cpp:150] Setting up upscore2
I1223 03:40:55.489986 17690 net.cpp:157] Top shape: 1 2 34 24 (1632)
I1223 03:40:55.489990 17690 net.cpp:165] Memory required for data: 891213472
I1223 03:40:55.490012 17690 layer_factory.hpp:77] Creating layer upscore2_upscore2_0_split
I1223 03:40:55.490021 17690 net.cpp:100] Creating Layer upscore2_upscore2_0_split
I1223 03:40:55.490026 17690 net.cpp:434] upscore2_upscore2_0_split <- upscore2
I1223 03:40:55.490041 17690 net.cpp:408] upscore2_upscore2_0_split -> upscore2_upscore2_0_split_0
I1223 03:40:55.490048 17690 net.cpp:408] upscore2_upscore2_0_split -> upscore2_upscore2_0_split_1
I1223 03:40:55.490090 17690 net.cpp:150] Setting up upscore2_upscore2_0_split
I1223 03:40:55.490097 17690 net.cpp:157] Top shape: 1 2 34 24 (1632)
I1223 03:40:55.490103 17690 net.cpp:157] Top shape: 1 2 34 24 (1632)
I1223 03:40:55.490106 17690 net.cpp:165] Memory required for data: 891226528
I1223 03:40:55.490111 17690 layer_factory.hpp:77] Creating layer scale_pool4
I1223 03:40:55.490128 17690 net.cpp:100] Creating Layer scale_pool4
I1223 03:40:55.490134 17690 net.cpp:434] scale_pool4 <- pool4_pool4_0_split_1
I1223 03:40:55.490154 17690 net.cpp:408] scale_pool4 -> scale_pool4
I1223 03:40:55.490274 17690 net.cpp:150] Setting up scale_pool4
I1223 03:40:55.490283 17690 net.cpp:157] Top shape: 1 512 44 34 (765952)
I1223 03:40:55.490288 17690 net.cpp:165] Memory required for data: 894290336
I1223 03:40:55.490294 17690 layer_factory.hpp:77] Creating layer score_pool4
I1223 03:40:55.490309 17690 net.cpp:100] Creating Layer score_pool4
I1223 03:40:55.490314 17690 net.cpp:434] score_pool4 <- scale_pool4
I1223 03:40:55.490319 17690 net.cpp:408] score_pool4 -> score_pool4
I1223 03:40:55.491595 17690 net.cpp:150] Setting up score_pool4
I1223 03:40:55.491610 17690 net.cpp:157] Top shape: 1 2 44 34 (2992)
I1223 03:40:55.491614 17690 net.cpp:165] Memory required for data: 894302304
I1223 03:40:55.491622 17690 layer_factory.hpp:77] Creating layer score_pool4c
I1223 03:40:55.491636 17690 net.cpp:100] Creating Layer score_pool4c
I1223 03:40:55.491642 17690 net.cpp:434] score_pool4c <- score_pool4
I1223 03:40:55.491648 17690 net.cpp:434] score_pool4c <- upscore2_upscore2_0_split_0
I1223 03:40:55.491655 17690 net.cpp:408] score_pool4c -> score_pool4c
I1223 03:40:55.491693 17690 net.cpp:150] Setting up score_pool4c
I1223 03:40:55.491700 17690 net.cpp:157] Top shape: 1 2 34 24 (1632)
I1223 03:40:55.491704 17690 net.cpp:165] Memory required for data: 894308832
I1223 03:40:55.491709 17690 layer_factory.hpp:77] Creating layer fuse_pool4
I1223 03:40:55.491724 17690 net.cpp:100] Creating Layer fuse_pool4
I1223 03:40:55.491729 17690 net.cpp:434] fuse_pool4 <- upscore2_upscore2_0_split_1
I1223 03:40:55.491734 17690 net.cpp:434] fuse_pool4 <- score_pool4c
I1223 03:40:55.491741 17690 net.cpp:408] fuse_pool4 -> fuse_pool4
I1223 03:40:55.491776 17690 net.cpp:150] Setting up fuse_pool4
I1223 03:40:55.491783 17690 net.cpp:157] Top shape: 1 2 34 24 (1632)
I1223 03:40:55.491787 17690 net.cpp:165] Memory required for data: 894315360
I1223 03:40:55.491791 17690 layer_factory.hpp:77] Creating layer upscore_pool4
I1223 03:40:55.491802 17690 net.cpp:100] Creating Layer upscore_pool4
I1223 03:40:55.491806 17690 net.cpp:434] upscore_pool4 <- fuse_pool4
I1223 03:40:55.491816 17690 net.cpp:408] upscore_pool4 -> upscore_pool4
I1223 03:40:55.492027 17690 net.cpp:150] Setting up upscore_pool4
I1223 03:40:55.492035 17690 net.cpp:157] Top shape: 1 2 70 50 (7000)
I1223 03:40:55.492039 17690 net.cpp:165] Memory required for data: 894343360
I1223 03:40:55.492045 17690 layer_factory.hpp:77] Creating layer upscore_pool4_upscore_pool4_0_split
I1223 03:40:55.492053 17690 net.cpp:100] Creating Layer upscore_pool4_upscore_pool4_0_split
I1223 03:40:55.492058 17690 net.cpp:434] upscore_pool4_upscore_pool4_0_split <- upscore_pool4
I1223 03:40:55.492063 17690 net.cpp:408] upscore_pool4_upscore_pool4_0_split -> upscore_pool4_upscore_pool4_0_split_0
I1223 03:40:55.492070 17690 net.cpp:408] upscore_pool4_upscore_pool4_0_split -> upscore_pool4_upscore_pool4_0_split_1
I1223 03:40:55.492111 17690 net.cpp:150] Setting up upscore_pool4_upscore_pool4_0_split
I1223 03:40:55.492120 17690 net.cpp:157] Top shape: 1 2 70 50 (7000)
I1223 03:40:55.492125 17690 net.cpp:157] Top shape: 1 2 70 50 (7000)
I1223 03:40:55.492128 17690 net.cpp:165] Memory required for data: 894399360
I1223 03:40:55.492132 17690 layer_factory.hpp:77] Creating layer scale_pool3
I1223 03:40:55.492142 17690 net.cpp:100] Creating Layer scale_pool3
I1223 03:40:55.492147 17690 net.cpp:434] scale_pool3 <- pool3_pool3_0_split_1
I1223 03:40:55.492153 17690 net.cpp:408] scale_pool3 -> scale_pool3
I1223 03:40:55.492255 17690 net.cpp:150] Setting up scale_pool3
I1223 03:40:55.492264 17690 net.cpp:157] Top shape: 1 256 88 67 (1509376)
I1223 03:40:55.492267 17690 net.cpp:165] Memory required for data: 900436864
I1223 03:40:55.492274 17690 layer_factory.hpp:77] Creating layer score_pool3
I1223 03:40:55.492285 17690 net.cpp:100] Creating Layer score_pool3
I1223 03:40:55.492290 17690 net.cpp:434] score_pool3 <- scale_pool3
I1223 03:40:55.492300 17690 net.cpp:408] score_pool3 -> score_pool3
I1223 03:40:55.493564 17690 net.cpp:150] Setting up score_pool3
I1223 03:40:55.493585 17690 net.cpp:157] Top shape: 1 2 88 67 (11792)
I1223 03:40:55.493589 17690 net.cpp:165] Memory required for data: 900484032
I1223 03:40:55.493599 17690 layer_factory.hpp:77] Creating layer score_pool3c
I1223 03:40:55.493613 17690 net.cpp:100] Creating Layer score_pool3c
I1223 03:40:55.493618 17690 net.cpp:434] score_pool3c <- score_pool3
I1223 03:40:55.493624 17690 net.cpp:434] score_pool3c <- upscore_pool4_upscore_pool4_0_split_0
I1223 03:40:55.493631 17690 net.cpp:408] score_pool3c -> score_pool3c
I1223 03:40:55.493675 17690 net.cpp:150] Setting up score_pool3c
I1223 03:40:55.493685 17690 net.cpp:157] Top shape: 1 2 70 50 (7000)
I1223 03:40:55.493690 17690 net.cpp:165] Memory required for data: 900512032
I1223 03:40:55.493693 17690 layer_factory.hpp:77] Creating layer fuse_pool3
I1223 03:40:55.493700 17690 net.cpp:100] Creating Layer fuse_pool3
I1223 03:40:55.493705 17690 net.cpp:434] fuse_pool3 <- upscore_pool4_upscore_pool4_0_split_1
I1223 03:40:55.493711 17690 net.cpp:434] fuse_pool3 <- score_pool3c
I1223 03:40:55.493719 17690 net.cpp:408] fuse_pool3 -> fuse_pool3
I1223 03:40:55.493751 17690 net.cpp:150] Setting up fuse_pool3
I1223 03:40:55.493757 17690 net.cpp:157] Top shape: 1 2 70 50 (7000)
I1223 03:40:55.493762 17690 net.cpp:165] Memory required for data: 900540032
I1223 03:40:55.493765 17690 layer_factory.hpp:77] Creating layer upscore8
I1223 03:40:55.493774 17690 net.cpp:100] Creating Layer upscore8
I1223 03:40:55.493778 17690 net.cpp:434] upscore8 <- fuse_pool3
I1223 03:40:55.493788 17690 net.cpp:408] upscore8 -> upscore8
I1223 03:40:55.494007 17690 net.cpp:150] Setting up upscore8
I1223 03:40:55.494016 17690 net.cpp:157] Top shape: 1 2 568 408 (463488)
I1223 03:40:55.494020 17690 net.cpp:165] Memory required for data: 902393984
I1223 03:40:55.494026 17690 layer_factory.hpp:77] Creating layer score
I1223 03:40:55.494036 17690 net.cpp:100] Creating Layer score
I1223 03:40:55.494041 17690 net.cpp:434] score <- upscore8
I1223 03:40:55.494046 17690 net.cpp:434] score <- data_data_0_split_1
I1223 03:40:55.494052 17690 net.cpp:408] score -> score
I1223 03:40:55.494082 17690 net.cpp:150] Setting up score
I1223 03:40:55.494089 17690 net.cpp:157] Top shape: 1 2 500 333 (333000)
I1223 03:40:55.494093 17690 net.cpp:165] Memory required for data: 903725984
I1223 03:40:55.494097 17690 layer_factory.hpp:77] Creating layer loss
I1223 03:40:55.494112 17690 net.cpp:100] Creating Layer loss
I1223 03:40:55.494117 17690 net.cpp:434] loss <- score
I1223 03:40:55.494122 17690 net.cpp:434] loss <- label
I1223 03:40:55.494129 17690 net.cpp:408] loss -> loss
I1223 03:40:55.494143 17690 layer_factory.hpp:77] Creating layer loss
…
I1223 03:40:55.495715 17690 net.cpp:283] Network initialization done.
I1223 03:40:55.500766 17690 solver.cpp:181] Creating test net (#0) specified by test_net file: val.prototxt
I1223 03:40:55.501145 17690 net.cpp:58] Initializing net from parameters: 
state {
  phase: TEST
}
layer {
  name: "data"
  type: "Python"
  top: "data"
  top: "label"
  python_param {
    module: "voc_layers"
    layer: "ObfVOCSegDataLayer"
    param_str: "{\'voc_dir\': \'../data/pascal-obfuscated/VOC2011\', \'seed\': 1337, \'split\': \'seg11valid15\', \'mean\': (104.00699, 116.66877, 122.67892)}"
  }
}
layer {
  name: "conv1_1"
  type: "Convolution"
  bottom: "data"
  top: "conv1_1"
  param {
    lr_mult: 1
    decay_mult: 1
  }
  param {
    lr_mult: 2
    decay_mult: 0
  }
  convolution_param {
    num_output: 64
    pad: 100
    kernel_size: 3
    stride: 1
    weight_filler {
      type: "xavier"
    }
  }
}
layer {
  name: "relu1_1"
  type: "ReLU"
  bottom: "conv1_1"
  top: "conv1_1"
}
layer {
  name: "conv1_2"
  type: "Convolution"
  bottom: "conv1_1"
  top: "conv1_2"
  param {
    lr_mult: 1
    decay_mult: 1
  }
  param {
    lr_mult: 2
    decay_mult: 0
  }
  convolution_param {
    num_output: 64
    pad: 1
    kernel_size: 3
    stride: 1
    weight_filler {
      type: "xavier"
    }
  }
}
layer {
  name: "relu1_2"
  type: "ReLU"
  bottom: "conv1_2"
  top: "conv1_2"
}
layer {
  name: "pool1"
  type: "Pooling"
  bottom: "conv1_2"
  top: "pool1"
  pooling_param {
    pool: MAX
    kernel_size: 2
    stride: 2
  }
}
layer {
  name: "conv2_1"
  type: "Convolution"
  bottom: "pool1"
  top: "conv2_1"
  param {
    lr_mult: 1
    decay_mult: 1
  }
  param {
    lr_mult: 2
    decay_mult: 0
  }
  convolution_param {
    num_output: 128
    pad: 1
    kernel_size: 3
    stride: 1
    weight_filler {
      type: "xavier"
    }
  }
}
layer {
  name: "relu2_1"
  type: "ReLU"
  bottom: "conv2_1"
  top: "conv2_1"
}
layer {
  name: "conv2_2"
  type: "Convolution"
  bottom: "conv2_1"
  top: "conv2_2"
  param {
    lr_mult: 1
    decay_mult: 1
  }
  param {
    lr_mult: 2
    decay_mult: 0
  }
  convolution_param {
    num_output: 128
    pad: 1
    kernel_size: 3
    stride: 1
    weight_filler {
      type: "xavier"
    }
  }
}
layer {
  name: "relu2_2"
  type: "ReLU"
  bottom: "conv2_2"
  top: "conv2_2"
}
layer {
  name: "pool2"
  type: "Pooling"
  bottom: "conv2_2"
  top: "pool2"
  pooling_param {
    pool: MAX
    kernel_size: 2
    stride: 2
  }
}
layer {
  name: "conv3_1"
  type: "Convolution"
  bottom: "pool2"
  top: "conv3_1"
  param {
    lr_mult: 1
    decay_mult: 1
  }
  param {
    lr_mult: 2
    decay_mult: 0
  }
  convolution_param {
    num_output: 256
    pad: 1
    kernel_size: 3
    stride: 1
    weight_filler {
      type: "xavier"
    }
  }
}
layer {
  name: "relu3_1"
  type: "ReLU"
  bottom: "conv3_1"
  top: "conv3_1"
}
layer {
  name: "conv3_2"
  type: "Convolution"
  bottom: "conv3_1"
  top: "conv3_2"
  param {
    lr_mult: 1
    decay_mult: 1
  }
  param {
    lr_mult: 2
    decay_mult: 0
  }
  convolution_param {
    num_output: 256
    pad: 1
    kernel_size: 3
    stride: 1
    weight_filler {
      type: "xavier"
    }
  }
}
layer {
  name: "relu3_2"
  type: "ReLU"
  bottom: "conv3_2"
  top: "conv3_2"
}
layer {
  name: "conv3_3"
  type: "Convolution"
  bottom: "conv3_2"
  top: "conv3_3"
  param {
    lr_mult: 1
    decay_mult: 1
  }
  param {
    lr_mult: 2
    decay_mult: 0
  }
  convolution_param {
    num_output: 256
    pad: 1
    kernel_size: 3
    stride: 1
    weight_filler {
      type: "xavier"
    }
  }
}
layer {
  name: "relu3_3"
  type: "ReLU"
  bottom: "conv3_3"
  top: "conv3_3"
}
layer {
  name: "pool3"
  type: "Pooling"
  bottom: "conv3_3"
  top: "pool3"
  pooling_param {
    pool: MAX
    kernel_size: 2
    stride: 2
  }
}
layer {
  name: "conv4_1"
  type: "Convolution"
  bottom: "pool3"
  top: "conv4_1"
  param {
    lr_mult: 1
    decay_mult: 1
  }
  param {
    lr_mult: 2
    decay_mult: 0
  }
  convolution_param {
    num_output: 512
    pad: 1
    kernel_size: 3
    stride: 1
    weight_filler {
      type: "xavier"
    }
  }
}
layer {
  name: "relu4_1"
  type: "ReLU"
  bottom: "conv4_1"
  top: "conv4_1"
}
layer {
  name: "conv4_2"
  type: "Convolution"
  bottom: "conv4_1"
  top: "conv4_2"
  param {
    lr_mult: 1
    decay_mult: 1
  }
  param {
    lr_mult: 2
    decay_mult: 0
  }
  convolution_param {
    num_output: 512
    pad: 1
    kernel_size: 3
    stride: 1
    weight_filler {
      type: "xavier"
    }
  }
}
layer {
  name: "relu4_2"
  type: "ReLU"
  bottom: "conv4_2"
  top: "conv4_2"
}
layer {
  name: "conv4_3"
  type: "Convolution"
  bottom: "conv4_2"
  top: "conv4_3"
  param {
    lr_mult: 1
    decay_mult: 1
  }
  param {
    lr_mult: 2
    decay_mult: 0
  }
  convolution_param {
    num_output: 512
    pad: 1
    kernel_size: 3
    stride: 1
    weight_filler {
      type: "xavier"
    }
  }
}
layer {
  name: "relu4_3"
  type: "ReLU"
  bottom: "conv4_3"
  top: "conv4_3"
}
layer {
  name: "pool4"
  type: "Pooling"
  bottom: "conv4_3"
  top: "pool4"
  pooling_param {
    pool: MAX
    kernel_size: 2
    stride: 2
  }
}
layer {
  name: "conv5_1"
  type: "Convolution"
  bottom: "pool4"
  top: "conv5_1"
  param {
    lr_mult: 1
    decay_mult: 1
  }
  param {
    lr_mult: 2
    decay_mult: 0
  }
  convolution_param {
    num_output: 512
    pad: 1
    kernel_size: 3
    stride: 1
    weight_filler {
      type: "xavier"
    }
  }
}
layer {
  name: "relu5_1"
  type: "ReLU"
  bottom: "conv5_1"
  top: "conv5_1"
}
layer {
  name: "conv5_2"
  type: "Convolution"
  bottom: "conv5_1"
  top: "conv5_2"
  param {
    lr_mult: 1
    decay_mult: 1
  }
  param {
    lr_mult: 2
    decay_mult: 0
  }
  convolution_param {
    num_output: 512
    pad: 1
    kernel_size: 3
    stride: 1
    weight_filler {
      type: "xavier"
    }
  }
}
layer {
  name: "relu5_2"
  type: "ReLU"
  bottom: "conv5_2"
  top: "conv5_2"
}
layer {
  name: "conv5_3"
  type: "Convolution"
  bottom: "conv5_2"
  top: "conv5_3"
  param {
    lr_mult: 1
    decay_mult: 1
  }
  param {
    lr_mult: 2
    decay_mult: 0
  }
  convolution_param {
    num_output: 512
    pad: 1
    kernel_size: 3
    stride: 1
    weight_filler {
      type: "xavier"
    }
  }
}
layer {
  name: "relu5_3"
  type: "ReLU"
  bottom: "conv5_3"
  top: "conv5_3"
}
layer {
  name: "pool5"
  type: "Pooling"
  bottom: "conv5_3"
  top: "pool5"
  pooling_param {
    pool: MAX
    kernel_size: 2
    stride: 2
  }
}
layer {
  name: "fc6"
  type: "Convolution"
  bottom: "pool5"
  top: "fc6"
  param {
    lr_mult: 1
    decay_mult: 1
  }
  param {
    lr_mult: 2
    decay_mult: 0
  }
  convolution_param {
    num_output: 4096
    pad: 0
    kernel_size: 7
    stride: 1
    weight_filler {
      type: "xavier"
    }
  }
}
layer {
  name: "relu6"
  type: "ReLU"
  bottom: "fc6"
  top: "fc6"
}
layer {
  name: "drop6"
  type: "Dropout"
  bottom: "fc6"
  top: "fc6"
  dropout_param {
    dropout_ratio: 0.5
  }
}
layer {
  name: "fc7"
  type: "Convolution"
  bottom: "fc6"
  top: "fc7"
  param {
    lr_mult: 1
    decay_mult: 1
  }
  param {
    lr_mult: 2
    decay_mult: 0
  }
  convolution_param {
    num_output: 4096
    pad: 0
    kernel_size: 1
    stride: 1
    weight_filler {
      type: "xavier"
    }
  }
}
layer {
  name: "relu7"
  type: "ReLU"
  bottom: "fc7"
  top: "fc7"
}
layer {
  name: "drop7"
  type: "Dropout"
  bottom: "fc7"
  top: "fc7"
  dropout_param {
    dropout_ratio: 0.5
  }
}
layer {
  name: "score_fr"
  type: "Convolution"
  bottom: "fc7"
  top: "score_fr"
  param {
    lr_mult: 1
    decay_mult: 1
  }
  param {
    lr_mult: 2
    decay_mult: 0
  }
  convolution_param {
    num_output: 2
    pad: 0
    kernel_size: 1
    weight_filler {
      type: "xavier"
    }
  }
}
layer {
  name: "upscore2"
  type: "Deconvolution"
  bottom: "score_fr"
  top: "upscore2"
  param {
    lr_mult: 0
  }
  convolution_param {
    num_output: 2
    bias_term: false
    kernel_size: 4
    stride: 2
    weight_filler {
      type: "xavier"
    }
  }
}
layer {
  name: "scale_pool4"
  type: "Scale"
  bottom: "pool4"
  top: "scale_pool4"
  param {
    lr_mult: 0
  }
  scale_param {
    filler {
      type: "constant"
      value: 0.01
    }
  }
}
layer {
  name: "score_pool4"
  type: "Convolution"
  bottom: "scale_pool4"
  top: "score_pool4"
  param {
    lr_mult: 1
    decay_mult: 1
  }
  param {
    lr_mult: 2
    decay_mult: 0
  }
  convolution_param {
    num_output: 2
    pad: 0
    kernel_size: 1
    weight_filler {
      type: "xavier"
    }
  }
}
layer {
  name: "score_pool4c"
  type: "Crop"
  bottom: "score_pool4"
  bottom: "upscore2"
  top: "score_pool4c"
  crop_param {
    axis: 2
    offset: 5
  }
}
layer {
  name: "fuse_pool4"
  type: "Eltwise"
  bottom: "upscore2"
  bottom: "score_pool4c"
  top: "fuse_pool4"
  eltwise_param {
    operation: SUM
  }
}
layer {
  name: "upscore_pool4"
  type: "Deconvolution"
  bottom: "fuse_pool4"
  top: "upscore_pool4"
  param {
    lr_mult: 0
  }
  convolution_param {
    num_output: 2
    bias_term: false
    kernel_size: 4
    stride: 2
    weight_filler {
      type: "xavier"
    }
  }
}
layer {
  name: "scale_pool3"
  type: "Scale"
  bottom: "pool3"
  top: "scale_pool3"
  param {
    lr_mult: 0
  }
  scale_param {
    filler {
      type: "constant"
      value: 0.0001
    }
  }
}
layer {
  name: "score_pool3"
  type: "Convolution"
  bottom: "scale_pool3"
  top: "score_pool3"
  param {
    lr_mult: 1
    decay_mult: 1
  }
  param {
    lr_mult: 2
    decay_mult: 0
  }
  convolution_param {
    num_output: 2
    pad: 0
    kernel_size: 1
    weight_filler {
      type: "xavier"
    }
  }
}
layer {
  name: "score_pool3c"
  type: "Crop"
  bottom: "score_pool3"
  bottom: "upscore_pool4"
  top: "score_pool3c"
  crop_param {
    axis: 2
    offset: 9
  }
}
layer {
  name: "fuse_pool3"
  type: "Eltwise"
  bottom: "upscore_pool4"
  bottom: "score_pool3c"
  top: "fuse_pool3"
  eltwise_param {
    operation: SUM
  }
}
layer {
  name: "upscore8"
  type: "Deconvolution"
  bottom: "fuse_pool3"
  top: "upscore8"
  param {
    lr_mult: 0
  }
  convolution_param {
    num_output: 2
    bias_term: false
    kernel_size: 16
    stride: 8
    weight_filler {
      type: "xavier"
    }
  }
}
layer {
  name: "score"
  type: "Crop"
  bottom: "upscore8"
  bottom: "data"
  top: "score"
  crop_param {
    axis: 2
    offset: 31
  }
}
layer {
  name: "loss"
  type: "SoftmaxWithLoss"
  bottom: "score"
  bottom: "label"
  top: "loss"
  loss_param {
    ignore_label: 255
    normalize: false
  }
}
I1223 03:40:55.501374 17690 layer_factory.hpp:77] Creating layer data
I1223 03:40:55.501533 17690 net.cpp:100] Creating Layer data
I1223 03:40:55.501544 17690 net.cpp:408] data -> data
I1223 03:40:55.501554 17690 net.cpp:408] data -> label
I1223 03:40:55.553400 17690 net.cpp:150] Setting up data
I1223 03:40:55.553421 17690 net.cpp:157] Top shape: 1 3 366 500 (549000)
I1223 03:40:55.553427 17690 net.cpp:157] Top shape: 1 1 366 500 (183000)
I1223 03:40:55.553431 17690 net.cpp:165] Memory required for data: 2928000
I1223 03:40:55.553437 17690 layer_factory.hpp:77] Creating layer data_data_0_split
I1223 03:40:55.553447 17690 net.cpp:100] Creating Layer data_data_0_split
I1223 03:40:55.553452 17690 net.cpp:434] data_data_0_split <- data
I1223 03:40:55.553458 17690 net.cpp:408] data_data_0_split -> data_data_0_split_0
I1223 03:40:55.553467 17690 net.cpp:408] data_data_0_split -> data_data_0_split_1
I1223 03:40:55.553513 17690 net.cpp:150] Setting up data_data_0_split
I1223 03:40:55.553521 17690 net.cpp:157] Top shape: 1 3 366 500 (549000)
I1223 03:40:55.553526 17690 net.cpp:157] Top shape: 1 3 366 500 (549000)
I1223 03:40:55.553530 17690 net.cpp:165] Memory required for data: 7320000
I1223 03:40:55.553534 17690 layer_factory.hpp:77] Creating layer conv1_1
I1223 03:40:55.553544 17690 net.cpp:100] Creating Layer conv1_1
I1223 03:40:55.553550 17690 net.cpp:434] conv1_1 <- data_data_0_split_0
I1223 03:40:55.553556 17690 net.cpp:408] conv1_1 -> conv1_1
I1223 03:40:55.555785 17690 net.cpp:150] Setting up conv1_1
I1223 03:40:55.555804 17690 net.cpp:157] Top shape: 1 64 564 698 (25195008)
I1223 03:40:55.555809 17690 net.cpp:165] Memory required for data: 108100032
I1223 03:40:55.555821 17690 layer_factory.hpp:77] Creating layer relu1_1
I1223 03:40:55.555830 17690 net.cpp:100] Creating Layer relu1_1
I1223 03:40:55.555835 17690 net.cpp:434] relu1_1 <- conv1_1
I1223 03:40:55.555841 17690 net.cpp:395] relu1_1 -> conv1_1 (in-place)
I1223 03:40:55.556035 17690 net.cpp:150] Setting up relu1_1
I1223 03:40:55.556046 17690 net.cpp:157] Top shape: 1 64 564 698 (25195008)
I1223 03:40:55.556051 17690 net.cpp:165] Memory required for data: 208880064
I1223 03:40:55.556054 17690 layer_factory.hpp:77] Creating layer conv1_2
I1223 03:40:55.556066 17690 net.cpp:100] Creating Layer conv1_2
I1223 03:40:55.556071 17690 net.cpp:434] conv1_2 <- conv1_1
I1223 03:40:55.556077 17690 net.cpp:408] conv1_2 -> conv1_2
I1223 03:40:55.558488 17690 net.cpp:150] Setting up conv1_2
I1223 03:40:55.558506 17690 net.cpp:157] Top shape: 1 64 564 698 (25195008)
I1223 03:40:55.558511 17690 net.cpp:165] Memory required for data: 309660096
I1223 03:40:55.558522 17690 layer_factory.hpp:77] Creating layer relu1_2
I1223 03:40:55.558531 17690 net.cpp:100] Creating Layer relu1_2
I1223 03:40:55.558535 17690 net.cpp:434] relu1_2 <- conv1_2
I1223 03:40:55.558542 17690 net.cpp:395] relu1_2 -> conv1_2 (in-place)
I1223 03:40:55.558914 17690 net.cpp:150] Setting up relu1_2
I1223 03:40:55.558928 17690 net.cpp:157] Top shape: 1 64 564 698 (25195008)
I1223 03:40:55.558933 17690 net.cpp:165] Memory required for data: 410440128
I1223 03:40:55.558938 17690 layer_factory.hpp:77] Creating layer pool1
I1223 03:40:55.558945 17690 net.cpp:100] Creating Layer pool1
I1223 03:40:55.558950 17690 net.cpp:434] pool1 <- conv1_2
I1223 03:40:55.558956 17690 net.cpp:408] pool1 -> pool1
I1223 03:40:55.559011 17690 net.cpp:150] Setting up pool1
I1223 03:40:55.559020 17690 net.cpp:157] Top shape: 1 64 282 349 (6298752)
I1223 03:40:55.559023 17690 net.cpp:165] Memory required for data: 435635136
I1223 03:40:55.559027 17690 layer_factory.hpp:77] Creating layer conv2_1
I1223 03:40:55.559036 17690 net.cpp:100] Creating Layer conv2_1
I1223 03:40:55.559041 17690 net.cpp:434] conv2_1 <- pool1
I1223 03:40:55.559048 17690 net.cpp:408] conv2_1 -> conv2_1
I1223 03:40:55.561269 17690 net.cpp:150] Setting up conv2_1
I1223 03:40:55.561285 17690 net.cpp:157] Top shape: 1 128 282 349 (12597504)
I1223 03:40:55.561290 17690 net.cpp:165] Memory required for data: 486025152
I1223 03:40:55.561301 17690 layer_factory.hpp:77] Creating layer relu2_1
I1223 03:40:55.561311 17690 net.cpp:100] Creating Layer relu2_1
I1223 03:40:55.561316 17690 net.cpp:434] relu2_1 <- conv2_1
I1223 03:40:55.561321 17690 net.cpp:395] relu2_1 -> conv2_1 (in-place)
I1223 03:40:55.561712 17690 net.cpp:150] Setting up relu2_1
I1223 03:40:55.561725 17690 net.cpp:157] Top shape: 1 128 282 349 (12597504)
I1223 03:40:55.561730 17690 net.cpp:165] Memory required for data: 536415168
I1223 03:40:55.561735 17690 layer_factory.hpp:77] Creating layer conv2_2
I1223 03:40:55.561745 17690 net.cpp:100] Creating Layer conv2_2
I1223 03:40:55.561750 17690 net.cpp:434] conv2_2 <- conv2_1
I1223 03:40:55.561758 17690 net.cpp:408] conv2_2 -> conv2_2
I1223 03:40:55.564343 17690 net.cpp:150] Setting up conv2_2
I1223 03:40:55.564360 17690 net.cpp:157] Top shape: 1 128 282 349 (12597504)
I1223 03:40:55.564365 17690 net.cpp:165] Memory required for data: 586805184
I1223 03:40:55.564373 17690 layer_factory.hpp:77] Creating layer relu2_2
I1223 03:40:55.564381 17690 net.cpp:100] Creating Layer relu2_2
I1223 03:40:55.564386 17690 net.cpp:434] relu2_2 <- conv2_2
I1223 03:40:55.564393 17690 net.cpp:395] relu2_2 -> conv2_2 (in-place)
I1223 03:40:55.564580 17690 net.cpp:150] Setting up relu2_2
I1223 03:40:55.564591 17690 net.cpp:157] Top shape: 1 128 282 349 (12597504)
I1223 03:40:55.564595 17690 net.cpp:165] Memory required for data: 637195200
I1223 03:40:55.564600 17690 layer_factory.hpp:77] Creating layer pool2
I1223 03:40:55.564607 17690 net.cpp:100] Creating Layer pool2
I1223 03:40:55.564612 17690 net.cpp:434] pool2 <- conv2_2
I1223 03:40:55.564618 17690 net.cpp:408] pool2 -> pool2
I1223 03:40:55.564688 17690 net.cpp:150] Setting up pool2
I1223 03:40:55.564697 17690 net.cpp:157] Top shape: 1 128 141 175 (3158400)
I1223 03:40:55.564702 17690 net.cpp:165] Memory required for data: 649828800
I1223 03:40:55.564705 17690 layer_factory.hpp:77] Creating layer conv3_1
I1223 03:40:55.564714 17690 net.cpp:100] Creating Layer conv3_1
I1223 03:40:55.564719 17690 net.cpp:434] conv3_1 <- pool2
I1223 03:40:55.564726 17690 net.cpp:408] conv3_1 -> conv3_1
I1223 03:40:55.568095 17690 net.cpp:150] Setting up conv3_1
I1223 03:40:55.568112 17690 net.cpp:157] Top shape: 1 256 141 175 (6316800)
I1223 03:40:55.568116 17690 net.cpp:165] Memory required for data: 675096000
I1223 03:40:55.568128 17690 layer_factory.hpp:77] Creating layer relu3_1
I1223 03:40:55.568136 17690 net.cpp:100] Creating Layer relu3_1
I1223 03:40:55.568146 17690 net.cpp:434] relu3_1 <- conv3_1
I1223 03:40:55.568153 17690 net.cpp:395] relu3_1 -> conv3_1 (in-place)
I1223 03:40:55.568512 17690 net.cpp:150] Setting up relu3_1
I1223 03:40:55.568526 17690 net.cpp:157] Top shape: 1 256 141 175 (6316800)
I1223 03:40:55.568531 17690 net.cpp:165] Memory required for data: 700363200
I1223 03:40:55.568536 17690 layer_factory.hpp:77] Creating layer conv3_2
I1223 03:40:55.568547 17690 net.cpp:100] Creating Layer conv3_2
I1223 03:40:55.568552 17690 net.cpp:434] conv3_2 <- conv3_1
I1223 03:40:55.568559 17690 net.cpp:408] conv3_2 -> conv3_2
I1223 03:40:55.573871 17690 net.cpp:150] Setting up conv3_2
I1223 03:40:55.573889 17690 net.cpp:157] Top shape: 1 256 141 175 (6316800)
I1223 03:40:55.573894 17690 net.cpp:165] Memory required for data: 725630400
I1223 03:40:55.573902 17690 layer_factory.hpp:77] Creating layer relu3_2
I1223 03:40:55.573910 17690 net.cpp:100] Creating Layer relu3_2
I1223 03:40:55.573915 17690 net.cpp:434] relu3_2 <- conv3_2
I1223 03:40:55.573922 17690 net.cpp:395] relu3_2 -> conv3_2 (in-place)
I1223 03:40:55.574113 17690 net.cpp:150] Setting up relu3_2
I1223 03:40:55.574125 17690 net.cpp:157] Top shape: 1 256 141 175 (6316800)
I1223 03:40:55.574129 17690 net.cpp:165] Memory required for data: 750897600
I1223 03:40:55.574133 17690 layer_factory.hpp:77] Creating layer conv3_3
I1223 03:40:55.574146 17690 net.cpp:100] Creating Layer conv3_3
I1223 03:40:55.574151 17690 net.cpp:434] conv3_3 <- conv3_2
I1223 03:40:55.574158 17690 net.cpp:408] conv3_3 -> conv3_3
I1223 03:40:55.579463 17690 net.cpp:150] Setting up conv3_3
I1223 03:40:55.579480 17690 net.cpp:157] Top shape: 1 256 141 175 (6316800)
I1223 03:40:55.579485 17690 net.cpp:165] Memory required for data: 776164800
I1223 03:40:55.579493 17690 layer_factory.hpp:77] Creating layer relu3_3
I1223 03:40:55.579501 17690 net.cpp:100] Creating Layer relu3_3
I1223 03:40:55.579506 17690 net.cpp:434] relu3_3 <- conv3_3
I1223 03:40:55.579514 17690 net.cpp:395] relu3_3 -> conv3_3 (in-place)
I1223 03:40:55.579708 17690 net.cpp:150] Setting up relu3_3
I1223 03:40:55.579720 17690 net.cpp:157] Top shape: 1 256 141 175 (6316800)
I1223 03:40:55.579723 17690 net.cpp:165] Memory required for data: 801432000
I1223 03:40:55.579728 17690 layer_factory.hpp:77] Creating layer pool3
I1223 03:40:55.579736 17690 net.cpp:100] Creating Layer pool3
I1223 03:40:55.579741 17690 net.cpp:434] pool3 <- conv3_3
I1223 03:40:55.579747 17690 net.cpp:408] pool3 -> pool3
I1223 03:40:55.579802 17690 net.cpp:150] Setting up pool3
I1223 03:40:55.579809 17690 net.cpp:157] Top shape: 1 256 71 88 (1599488)
I1223 03:40:55.579813 17690 net.cpp:165] Memory required for data: 807829952
I1223 03:40:55.579818 17690 layer_factory.hpp:77] Creating layer pool3_pool3_0_split
I1223 03:40:55.579825 17690 net.cpp:100] Creating Layer pool3_pool3_0_split
I1223 03:40:55.579830 17690 net.cpp:434] pool3_pool3_0_split <- pool3
I1223 03:40:55.579836 17690 net.cpp:408] pool3_pool3_0_split -> pool3_pool3_0_split_0
I1223 03:40:55.579843 17690 net.cpp:408] pool3_pool3_0_split -> pool3_pool3_0_split_1
I1223 03:40:55.579885 17690 net.cpp:150] Setting up pool3_pool3_0_split
I1223 03:40:55.579893 17690 net.cpp:157] Top shape: 1 256 71 88 (1599488)
I1223 03:40:55.579898 17690 net.cpp:157] Top shape: 1 256 71 88 (1599488)
I1223 03:40:55.579902 17690 net.cpp:165] Memory required for data: 820625856
I1223 03:40:55.579906 17690 layer_factory.hpp:77] Creating layer conv4_1
I1223 03:40:55.579916 17690 net.cpp:100] Creating Layer conv4_1
I1223 03:40:55.579921 17690 net.cpp:434] conv4_1 <- pool3_pool3_0_split_0
I1223 03:40:55.579928 17690 net.cpp:408] conv4_1 -> conv4_1
I1223 03:40:55.589105 17690 net.cpp:150] Setting up conv4_1
I1223 03:40:55.589124 17690 net.cpp:157] Top shape: 1 512 71 88 (3198976)
I1223 03:40:55.589129 17690 net.cpp:165] Memory required for data: 833421760
I1223 03:40:55.589138 17690 layer_factory.hpp:77] Creating layer relu4_1
I1223 03:40:55.589146 17690 net.cpp:100] Creating Layer relu4_1
I1223 03:40:55.589151 17690 net.cpp:434] relu4_1 <- conv4_1
I1223 03:40:55.589165 17690 net.cpp:395] relu4_1 -> conv4_1 (in-place)
I1223 03:40:55.589542 17690 net.cpp:150] Setting up relu4_1
I1223 03:40:55.589556 17690 net.cpp:157] Top shape: 1 512 71 88 (3198976)
I1223 03:40:55.589560 17690 net.cpp:165] Memory required for data: 846217664
I1223 03:40:55.589565 17690 layer_factory.hpp:77] Creating layer conv4_2
I1223 03:40:55.589577 17690 net.cpp:100] Creating Layer conv4_2
I1223 03:40:55.589582 17690 net.cpp:434] conv4_2 <- conv4_1
I1223 03:40:55.589591 17690 net.cpp:408] conv4_2 -> conv4_2
I1223 03:40:55.606925 17690 net.cpp:150] Setting up conv4_2
I1223 03:40:55.606956 17690 net.cpp:157] Top shape: 1 512 71 88 (3198976)
I1223 03:40:55.606961 17690 net.cpp:165] Memory required for data: 859013568
I1223 03:40:55.606977 17690 layer_factory.hpp:77] Creating layer relu4_2
I1223 03:40:55.606987 17690 net.cpp:100] Creating Layer relu4_2
I1223 03:40:55.606993 17690 net.cpp:434] relu4_2 <- conv4_2
I1223 03:40:55.607002 17690 net.cpp:395] relu4_2 -> conv4_2 (in-place)
I1223 03:40:55.607213 17690 net.cpp:150] Setting up relu4_2
I1223 03:40:55.607223 17690 net.cpp:157] Top shape: 1 512 71 88 (3198976)
I1223 03:40:55.607228 17690 net.cpp:165] Memory required for data: 871809472
I1223 03:40:55.607233 17690 layer_factory.hpp:77] Creating layer conv4_3
I1223 03:40:55.607245 17690 net.cpp:100] Creating Layer conv4_3
I1223 03:40:55.607250 17690 net.cpp:434] conv4_3 <- conv4_2
I1223 03:40:55.607260 17690 net.cpp:408] conv4_3 -> conv4_3
I1223 03:40:55.624656 17690 net.cpp:150] Setting up conv4_3
I1223 03:40:55.624686 17690 net.cpp:157] Top shape: 1 512 71 88 (3198976)
I1223 03:40:55.624691 17690 net.cpp:165] Memory required for data: 884605376
I1223 03:40:55.624699 17690 layer_factory.hpp:77] Creating layer relu4_3
I1223 03:40:55.624709 17690 net.cpp:100] Creating Layer relu4_3
I1223 03:40:55.624716 17690 net.cpp:434] relu4_3 <- conv4_3
I1223 03:40:55.624724 17690 net.cpp:395] relu4_3 -> conv4_3 (in-place)
I1223 03:40:55.624940 17690 net.cpp:150] Setting up relu4_3
I1223 03:40:55.624951 17690 net.cpp:157] Top shape: 1 512 71 88 (3198976)
I1223 03:40:55.624955 17690 net.cpp:165] Memory required for data: 897401280
I1223 03:40:55.624960 17690 layer_factory.hpp:77] Creating layer pool4
I1223 03:40:55.624971 17690 net.cpp:100] Creating Layer pool4
I1223 03:40:55.624976 17690 net.cpp:434] pool4 <- conv4_3
I1223 03:40:55.624984 17690 net.cpp:408] pool4 -> pool4
I1223 03:40:55.625044 17690 net.cpp:150] Setting up pool4
I1223 03:40:55.625053 17690 net.cpp:157] Top shape: 1 512 36 44 (811008)
I1223 03:40:55.625057 17690 net.cpp:165] Memory required for data: 900645312
I1223 03:40:55.625061 17690 layer_factory.hpp:77] Creating layer pool4_pool4_0_split
I1223 03:40:55.625069 17690 net.cpp:100] Creating Layer pool4_pool4_0_split
I1223 03:40:55.625074 17690 net.cpp:434] pool4_pool4_0_split <- pool4
I1223 03:40:55.625082 17690 net.cpp:408] pool4_pool4_0_split -> pool4_pool4_0_split_0
I1223 03:40:55.625089 17690 net.cpp:408] pool4_pool4_0_split -> pool4_pool4_0_split_1
I1223 03:40:55.625135 17690 net.cpp:150] Setting up pool4_pool4_0_split
I1223 03:40:55.625145 17690 net.cpp:157] Top shape: 1 512 36 44 (811008)
I1223 03:40:55.625150 17690 net.cpp:157] Top shape: 1 512 36 44 (811008)
I1223 03:40:55.625154 17690 net.cpp:165] Memory required for data: 907133376
I1223 03:40:55.625159 17690 layer_factory.hpp:77] Creating layer conv5_1
I1223 03:40:55.625170 17690 net.cpp:100] Creating Layer conv5_1
I1223 03:40:55.625174 17690 net.cpp:434] conv5_1 <- pool4_pool4_0_split_0
I1223 03:40:55.625185 17690 net.cpp:408] conv5_1 -> conv5_1
I1223 03:40:55.642530 17690 net.cpp:150] Setting up conv5_1
I1223 03:40:55.642560 17690 net.cpp:157] Top shape: 1 512 36 44 (811008)
I1223 03:40:55.642565 17690 net.cpp:165] Memory required for data: 910377408
I1223 03:40:55.642577 17690 layer_factory.hpp:77] Creating layer relu5_1
I1223 03:40:55.642588 17690 net.cpp:100] Creating Layer relu5_1
I1223 03:40:55.642594 17690 net.cpp:434] relu5_1 <- conv5_1
I1223 03:40:55.642603 17690 net.cpp:395] relu5_1 -> conv5_1 (in-place)
I1223 03:40:55.642998 17690 net.cpp:150] Setting up relu5_1
I1223 03:40:55.643013 17690 net.cpp:157] Top shape: 1 512 36 44 (811008)
I1223 03:40:55.643018 17690 net.cpp:165] Memory required for data: 913621440
I1223 03:40:55.643023 17690 layer_factory.hpp:77] Creating layer conv5_2
I1223 03:40:55.643036 17690 net.cpp:100] Creating Layer conv5_2
I1223 03:40:55.643041 17690 net.cpp:434] conv5_2 <- conv5_1
I1223 03:40:55.643049 17690 net.cpp:408] conv5_2 -> conv5_2
I1223 03:40:55.660336 17690 net.cpp:150] Setting up conv5_2
I1223 03:40:55.660364 17690 net.cpp:157] Top shape: 1 512 36 44 (811008)
I1223 03:40:55.660369 17690 net.cpp:165] Memory required for data: 916865472
I1223 03:40:55.660379 17690 layer_factory.hpp:77] Creating layer relu5_2
I1223 03:40:55.660388 17690 net.cpp:100] Creating Layer relu5_2
I1223 03:40:55.660395 17690 net.cpp:434] relu5_2 <- conv5_2
I1223 03:40:55.660403 17690 net.cpp:395] relu5_2 -> conv5_2 (in-place)
I1223 03:40:55.660606 17690 net.cpp:150] Setting up relu5_2
I1223 03:40:55.660617 17690 net.cpp:157] Top shape: 1 512 36 44 (811008)
I1223 03:40:55.660621 17690 net.cpp:165] Memory required for data: 920109504
I1223 03:40:55.660626 17690 layer_factory.hpp:77] Creating layer conv5_3
I1223 03:40:55.660648 17690 net.cpp:100] Creating Layer conv5_3
I1223 03:40:55.660653 17690 net.cpp:434] conv5_3 <- conv5_2
I1223 03:40:55.660661 17690 net.cpp:408] conv5_3 -> conv5_3
I1223 03:40:55.677812 17690 net.cpp:150] Setting up conv5_3
I1223 03:40:55.677839 17690 net.cpp:157] Top shape: 1 512 36 44 (811008)
I1223 03:40:55.677844 17690 net.cpp:165] Memory required for data: 923353536
I1223 03:40:55.677852 17690 layer_factory.hpp:77] Creating layer relu5_3
I1223 03:40:55.677865 17690 net.cpp:100] Creating Layer relu5_3
I1223 03:40:55.677870 17690 net.cpp:434] relu5_3 <- conv5_3
I1223 03:40:55.677877 17690 net.cpp:395] relu5_3 -> conv5_3 (in-place)
I1223 03:40:55.678081 17690 net.cpp:150] Setting up relu5_3
I1223 03:40:55.678092 17690 net.cpp:157] Top shape: 1 512 36 44 (811008)
I1223 03:40:55.678097 17690 net.cpp:165] Memory required for data: 926597568
I1223 03:40:55.678102 17690 layer_factory.hpp:77] Creating layer pool5
I1223 03:40:55.678112 17690 net.cpp:100] Creating Layer pool5
I1223 03:40:55.678117 17690 net.cpp:434] pool5 <- conv5_3
I1223 03:40:55.678127 17690 net.cpp:408] pool5 -> pool5
I1223 03:40:55.678185 17690 net.cpp:150] Setting up pool5
I1223 03:40:55.678194 17690 net.cpp:157] Top shape: 1 512 18 22 (202752)
I1223 03:40:55.678197 17690 net.cpp:165] Memory required for data: 927408576
I1223 03:40:55.678202 17690 layer_factory.hpp:77] Creating layer fc6
I1223 03:40:55.678215 17690 net.cpp:100] Creating Layer fc6
I1223 03:40:55.678220 17690 net.cpp:434] fc6 <- pool5
I1223 03:40:55.678228 17690 net.cpp:408] fc6 -> fc6
I1223 03:40:56.394462 17690 net.cpp:150] Setting up fc6
I1223 03:40:56.394518 17690 net.cpp:157] Top shape: 1 4096 12 16 (786432)
I1223 03:40:56.394523 17690 net.cpp:165] Memory required for data: 930554304
I1223 03:40:56.394537 17690 layer_factory.hpp:77] Creating layer relu6
I1223 03:40:56.394552 17690 net.cpp:100] Creating Layer relu6
I1223 03:40:56.394559 17690 net.cpp:434] relu6 <- fc6
I1223 03:40:56.394570 17690 net.cpp:395] relu6 -> fc6 (in-place)
I1223 03:40:56.394974 17690 net.cpp:150] Setting up relu6
I1223 03:40:56.394989 17690 net.cpp:157] Top shape: 1 4096 12 16 (786432)
I1223 03:40:56.394994 17690 net.cpp:165] Memory required for data: 933700032
I1223 03:40:56.394999 17690 layer_factory.hpp:77] Creating layer drop6
I1223 03:40:56.395009 17690 net.cpp:100] Creating Layer drop6
I1223 03:40:56.395012 17690 net.cpp:434] drop6 <- fc6
I1223 03:40:56.395021 17690 net.cpp:395] drop6 -> fc6 (in-place)
I1223 03:40:56.395062 17690 net.cpp:150] Setting up drop6
I1223 03:40:56.395071 17690 net.cpp:157] Top shape: 1 4096 12 16 (786432)
I1223 03:40:56.395076 17690 net.cpp:165] Memory required for data: 936845760
I1223 03:40:56.395079 17690 layer_factory.hpp:77] Creating layer fc7
I1223 03:40:56.395097 17690 net.cpp:100] Creating Layer fc7
I1223 03:40:56.395102 17690 net.cpp:434] fc7 <- fc6
I1223 03:40:56.395120 17690 net.cpp:408] fc7 -> fc7
I1223 03:40:56.513463 17690 net.cpp:150] Setting up fc7
I1223 03:40:56.513519 17690 net.cpp:157] Top shape: 1 4096 12 16 (786432)
I1223 03:40:56.513523 17690 net.cpp:165] Memory required for data: 939991488
I1223 03:40:56.513537 17690 layer_factory.hpp:77] Creating layer relu7
I1223 03:40:56.513555 17690 net.cpp:100] Creating Layer relu7
I1223 03:40:56.513561 17690 net.cpp:434] relu7 <- fc7
I1223 03:40:56.513569 17690 net.cpp:395] relu7 -> fc7 (in-place)
I1223 03:40:56.513797 17690 net.cpp:150] Setting up relu7
I1223 03:40:56.513811 17690 net.cpp:157] Top shape: 1 4096 12 16 (786432)
I1223 03:40:56.513815 17690 net.cpp:165] Memory required for data: 943137216
I1223 03:40:56.513820 17690 layer_factory.hpp:77] Creating layer drop7
I1223 03:40:56.513830 17690 net.cpp:100] Creating Layer drop7
I1223 03:40:56.513834 17690 net.cpp:434] drop7 <- fc7
I1223 03:40:56.513840 17690 net.cpp:395] drop7 -> fc7 (in-place)
I1223 03:40:56.513885 17690 net.cpp:150] Setting up drop7
I1223 03:40:56.513893 17690 net.cpp:157] Top shape: 1 4096 12 16 (786432)
I1223 03:40:56.513897 17690 net.cpp:165] Memory required for data: 946282944
I1223 03:40:56.513902 17690 layer_factory.hpp:77] Creating layer score_fr
I1223 03:40:56.513916 17690 net.cpp:100] Creating Layer score_fr
I1223 03:40:56.513921 17690 net.cpp:434] score_fr <- fc7
I1223 03:40:56.513931 17690 net.cpp:408] score_fr -> score_fr
I1223 03:40:56.515507 17690 net.cpp:150] Setting up score_fr
I1223 03:40:56.515523 17690 net.cpp:157] Top shape: 1 2 12 16 (384)
I1223 03:40:56.515528 17690 net.cpp:165] Memory required for data: 946284480
I1223 03:40:56.515537 17690 layer_factory.hpp:77] Creating layer upscore2
I1223 03:40:56.515549 17690 net.cpp:100] Creating Layer upscore2
I1223 03:40:56.515555 17690 net.cpp:434] upscore2 <- score_fr
I1223 03:40:56.515565 17690 net.cpp:408] upscore2 -> upscore2
I1223 03:40:56.515822 17690 net.cpp:150] Setting up upscore2
I1223 03:40:56.515832 17690 net.cpp:157] Top shape: 1 2 26 34 (1768)
I1223 03:40:56.515836 17690 net.cpp:165] Memory required for data: 946291552
I1223 03:40:56.515856 17690 layer_factory.hpp:77] Creating layer upscore2_upscore2_0_split
I1223 03:40:56.515864 17690 net.cpp:100] Creating Layer upscore2_upscore2_0_split
I1223 03:40:56.515868 17690 net.cpp:434] upscore2_upscore2_0_split <- upscore2
I1223 03:40:56.515875 17690 net.cpp:408] upscore2_upscore2_0_split -> upscore2_upscore2_0_split_0
I1223 03:40:56.515883 17690 net.cpp:408] upscore2_upscore2_0_split -> upscore2_upscore2_0_split_1
I1223 03:40:56.515933 17690 net.cpp:150] Setting up upscore2_upscore2_0_split
I1223 03:40:56.515941 17690 net.cpp:157] Top shape: 1 2 26 34 (1768)
I1223 03:40:56.515946 17690 net.cpp:157] Top shape: 1 2 26 34 (1768)
I1223 03:40:56.515950 17690 net.cpp:165] Memory required for data: 946305696
I1223 03:40:56.515955 17690 layer_factory.hpp:77] Creating layer scale_pool4
I1223 03:40:56.515964 17690 net.cpp:100] Creating Layer scale_pool4
I1223 03:40:56.515969 17690 net.cpp:434] scale_pool4 <- pool4_pool4_0_split_1
I1223 03:40:56.515979 17690 net.cpp:408] scale_pool4 -> scale_pool4
I1223 03:40:56.516106 17690 net.cpp:150] Setting up scale_pool4
I1223 03:40:56.516115 17690 net.cpp:157] Top shape: 1 512 36 44 (811008)
I1223 03:40:56.516119 17690 net.cpp:165] Memory required for data: 949549728
I1223 03:40:56.516126 17690 layer_factory.hpp:77] Creating layer score_pool4
I1223 03:40:56.516137 17690 net.cpp:100] Creating Layer score_pool4
I1223 03:40:56.516142 17690 net.cpp:434] score_pool4 <- scale_pool4
I1223 03:40:56.516151 17690 net.cpp:408] score_pool4 -> score_pool4
I1223 03:40:56.517483 17690 net.cpp:150] Setting up score_pool4
I1223 03:40:56.517499 17690 net.cpp:157] Top shape: 1 2 36 44 (3168)
I1223 03:40:56.517504 17690 net.cpp:165] Memory required for data: 949562400
I1223 03:40:56.517513 17690 layer_factory.hpp:77] Creating layer score_pool4c
I1223 03:40:56.517524 17690 net.cpp:100] Creating Layer score_pool4c
I1223 03:40:56.517529 17690 net.cpp:434] score_pool4c <- score_pool4
I1223 03:40:56.517534 17690 net.cpp:434] score_pool4c <- upscore2_upscore2_0_split_0
I1223 03:40:56.517555 17690 net.cpp:408] score_pool4c -> score_pool4c
I1223 03:40:56.517596 17690 net.cpp:150] Setting up score_pool4c
I1223 03:40:56.517603 17690 net.cpp:157] Top shape: 1 2 26 34 (1768)
I1223 03:40:56.517607 17690 net.cpp:165] Memory required for data: 949569472
I1223 03:40:56.517612 17690 layer_factory.hpp:77] Creating layer fuse_pool4
I1223 03:40:56.517623 17690 net.cpp:100] Creating Layer fuse_pool4
I1223 03:40:56.517627 17690 net.cpp:434] fuse_pool4 <- upscore2_upscore2_0_split_1
I1223 03:40:56.517633 17690 net.cpp:434] fuse_pool4 <- score_pool4c
I1223 03:40:56.517644 17690 net.cpp:408] fuse_pool4 -> fuse_pool4
I1223 03:40:56.517683 17690 net.cpp:150] Setting up fuse_pool4
I1223 03:40:56.517693 17690 net.cpp:157] Top shape: 1 2 26 34 (1768)
I1223 03:40:56.517696 17690 net.cpp:165] Memory required for data: 949576544
I1223 03:40:56.517700 17690 layer_factory.hpp:77] Creating layer upscore_pool4
I1223 03:40:56.517712 17690 net.cpp:100] Creating Layer upscore_pool4
I1223 03:40:56.517717 17690 net.cpp:434] upscore_pool4 <- fuse_pool4
I1223 03:40:56.517726 17690 net.cpp:408] upscore_pool4 -> upscore_pool4
I1223 03:40:56.517974 17690 net.cpp:150] Setting up upscore_pool4
I1223 03:40:56.517983 17690 net.cpp:157] Top shape: 1 2 54 70 (7560)
I1223 03:40:56.517987 17690 net.cpp:165] Memory required for data: 949606784
I1223 03:40:56.517993 17690 layer_factory.hpp:77] Creating layer upscore_pool4_upscore_pool4_0_split
I1223 03:40:56.518002 17690 net.cpp:100] Creating Layer upscore_pool4_upscore_pool4_0_split
I1223 03:40:56.518005 17690 net.cpp:434] upscore_pool4_upscore_pool4_0_split <- upscore_pool4
I1223 03:40:56.518012 17690 net.cpp:408] upscore_pool4_upscore_pool4_0_split -> upscore_pool4_upscore_pool4_0_split_0
I1223 03:40:56.518018 17690 net.cpp:408] upscore_pool4_upscore_pool4_0_split -> upscore_pool4_upscore_pool4_0_split_1
I1223 03:40:56.518066 17690 net.cpp:150] Setting up upscore_pool4_upscore_pool4_0_split
I1223 03:40:56.518074 17690 net.cpp:157] Top shape: 1 2 54 70 (7560)
I1223 03:40:56.518079 17690 net.cpp:157] Top shape: 1 2 54 70 (7560)
I1223 03:40:56.518084 17690 net.cpp:165] Memory required for data: 949667264
I1223 03:40:56.518087 17690 layer_factory.hpp:77] Creating layer scale_pool3
I1223 03:40:56.518097 17690 net.cpp:100] Creating Layer scale_pool3
I1223 03:40:56.518101 17690 net.cpp:434] scale_pool3 <- pool3_pool3_0_split_1
I1223 03:40:56.518108 17690 net.cpp:408] scale_pool3 -> scale_pool3
I1223 03:40:56.518226 17690 net.cpp:150] Setting up scale_pool3
I1223 03:40:56.518235 17690 net.cpp:157] Top shape: 1 256 71 88 (1599488)
I1223 03:40:56.518239 17690 net.cpp:165] Memory required for data: 956065216
I1223 03:40:56.518245 17690 layer_factory.hpp:77] Creating layer score_pool3
I1223 03:40:56.518256 17690 net.cpp:100] Creating Layer score_pool3
I1223 03:40:56.518261 17690 net.cpp:434] score_pool3 <- scale_pool3
I1223 03:40:56.518268 17690 net.cpp:408] score_pool3 -> score_pool3
I1223 03:40:56.519590 17690 net.cpp:150] Setting up score_pool3
I1223 03:40:56.519605 17690 net.cpp:157] Top shape: 1 2 71 88 (12496)
I1223 03:40:56.519610 17690 net.cpp:165] Memory required for data: 956115200
I1223 03:40:56.519618 17690 layer_factory.hpp:77] Creating layer score_pool3c
I1223 03:40:56.519628 17690 net.cpp:100] Creating Layer score_pool3c
I1223 03:40:56.519632 17690 net.cpp:434] score_pool3c <- score_pool3
I1223 03:40:56.519637 17690 net.cpp:434] score_pool3c <- upscore_pool4_upscore_pool4_0_split_0
I1223 03:40:56.519646 17690 net.cpp:408] score_pool3c -> score_pool3c
I1223 03:40:56.519685 17690 net.cpp:150] Setting up score_pool3c
I1223 03:40:56.519697 17690 net.cpp:157] Top shape: 1 2 54 70 (7560)
I1223 03:40:56.519702 17690 net.cpp:165] Memory required for data: 956145440
I1223 03:40:56.519706 17690 layer_factory.hpp:77] Creating layer fuse_pool3
I1223 03:40:56.519713 17690 net.cpp:100] Creating Layer fuse_pool3
I1223 03:40:56.519718 17690 net.cpp:434] fuse_pool3 <- upscore_pool4_upscore_pool4_0_split_1
I1223 03:40:56.519723 17690 net.cpp:434] fuse_pool3 <- score_pool3c
I1223 03:40:56.519736 17690 net.cpp:408] fuse_pool3 -> fuse_pool3
I1223 03:40:56.519770 17690 net.cpp:150] Setting up fuse_pool3
I1223 03:40:56.519778 17690 net.cpp:157] Top shape: 1 2 54 70 (7560)
I1223 03:40:56.519783 17690 net.cpp:165] Memory required for data: 956175680
I1223 03:40:56.519788 17690 layer_factory.hpp:77] Creating layer upscore8
I1223 03:40:56.519798 17690 net.cpp:100] Creating Layer upscore8
I1223 03:40:56.519801 17690 net.cpp:434] upscore8 <- fuse_pool3
I1223 03:40:56.519810 17690 net.cpp:408] upscore8 -> upscore8
I1223 03:40:56.520059 17690 net.cpp:150] Setting up upscore8
I1223 03:40:56.520068 17690 net.cpp:157] Top shape: 1 2 440 568 (499840)
I1223 03:40:56.520072 17690 net.cpp:165] Memory required for data: 958175040
I1223 03:40:56.520078 17690 layer_factory.hpp:77] Creating layer score
I1223 03:40:56.520087 17690 net.cpp:100] Creating Layer score
I1223 03:40:56.520090 17690 net.cpp:434] score <- upscore8
I1223 03:40:56.520095 17690 net.cpp:434] score <- data_data_0_split_1
I1223 03:40:56.520103 17690 net.cpp:408] score -> score
I1223 03:40:56.520134 17690 net.cpp:150] Setting up score
I1223 03:40:56.520143 17690 net.cpp:157] Top shape: 1 2 366 500 (366000)
I1223 03:40:56.520146 17690 net.cpp:165] Memory required for data: 959639040
I1223 03:40:56.520150 17690 layer_factory.hpp:77] Creating layer loss
I1223 03:40:56.520159 17690 net.cpp:100] Creating Layer loss
I1223 03:40:56.520164 17690 net.cpp:434] loss <- score
I1223 03:40:56.520167 17690 net.cpp:434] loss <- label
I1223 03:40:56.520176 17690 net.cpp:408] loss -> loss
I1223 03:40:56.520187 17690 layer_factory.hpp:77] Creating layer loss
…
