…
snapshot_prefix: "snapshot/train"
test_initialization: false
average_loss: 20
iter_size: 1
I0123 15:56:49.244078 18171 solver.cpp:81] Creating training net from train_net file: train.prototxt
I0123 15:56:49.245400 18171 net.cpp:58] Initializing net from parameters: 
state {
  phase: TRAIN
}
layer {
  name: "data"
  type: "Python"
  top: "data"
  top: "label"
  python_param {
    module: "voc_layers"
    layer: "CatSBDDSegDataLayer"
    param_str: "{\'sbdd_dir\': \'../data/sbdd/dataset\', \'seed\': 1337, \'split\': \'train15\', \'mean\': (104.00699, 116.66877, 122.67892)}"
  }
}
layer {
  name: "conv1_1"
  type: "Convolution"
  bottom: "data"
  top: "conv1_1"
  param {
    lr_mult: 1
    decay_mult: 1
  }
  param {
    lr_mult: 2
    decay_mult: 0
  }
  convolution_param {
    num_output: 64
    pad: 100
    kernel_size: 3
    stride: 1
    weight_filler {
      type: "xavier"
    }
  }
}
layer {
  name: "relu1_1"
  type: "ReLU"
  bottom: "conv1_1"
  top: "conv1_1"
}
layer {
  name: "conv1_2"
  type: "Convolution"
  bottom: "conv1_1"
  top: "conv1_2"
  param {
    lr_mult: 1
    decay_mult: 1
  }
  param {
    lr_mult: 2
    decay_mult: 0
  }
  convolution_param {
    num_output: 64
    pad: 1
    kernel_size: 3
    stride: 1
    weight_filler {
      type: "xavier"
    }
  }
}
layer {
  name: "relu1_2"
  type: "ReLU"
  bottom: "conv1_2"
  top: "conv1_2"
}
layer {
  name: "pool1"
  type: "Pooling"
  bottom: "conv1_2"
  top: "pool1"
  pooling_param {
    pool: MAX
    kernel_size: 2
    stride: 2
  }
}
layer {
  name: "conv2_1"
  type: "Convolution"
  bottom: "pool1"
  top: "conv2_1"
  param {
    lr_mult: 1
    decay_mult: 1
  }
  param {
    lr_mult: 2
    decay_mult: 0
  }
  convolution_param {
    num_output: 128
    pad: 1
    kernel_size: 3
    stride: 1
    weight_filler {
      type: "xavier"
    }
  }
}
layer {
  name: "relu2_1"
  type: "ReLU"
  bottom: "conv2_1"
  top: "conv2_1"
}
layer {
  name: "conv2_2"
  type: "Convolution"
  bottom: "conv2_1"
  top: "conv2_2"
  param {
    lr_mult: 1
    decay_mult: 1
  }
  param {
    lr_mult: 2
    decay_mult: 0
  }
  convolution_param {
    num_output: 128
    pad: 1
    kernel_size: 3
    stride: 1
    weight_filler {
      type: "xavier"
    }
  }
}
layer {
  name: "relu2_2"
  type: "ReLU"
  bottom: "conv2_2"
  top: "conv2_2"
}
layer {
  name: "pool2"
  type: "Pooling"
  bottom: "conv2_2"
  top: "pool2"
  pooling_param {
    pool: MAX
    kernel_size: 2
    stride: 2
  }
}
layer {
  name: "conv3_1"
  type: "Convolution"
  bottom: "pool2"
  top: "conv3_1"
  param {
    lr_mult: 1
    decay_mult: 1
  }
  param {
    lr_mult: 2
    decay_mult: 0
  }
  convolution_param {
    num_output: 256
    pad: 1
    kernel_size: 3
    stride: 1
    weight_filler {
      type: "xavier"
    }
  }
}
layer {
  name: "relu3_1"
  type: "ReLU"
  bottom: "conv3_1"
  top: "conv3_1"
}
layer {
  name: "conv3_2"
  type: "Convolution"
  bottom: "conv3_1"
  top: "conv3_2"
  param {
    lr_mult: 1
    decay_mult: 1
  }
  param {
    lr_mult: 2
    decay_mult: 0
  }
  convolution_param {
    num_output: 256
    pad: 1
    kernel_size: 3
    stride: 1
    weight_filler {
      type: "xavier"
    }
  }
}
layer {
  name: "relu3_2"
  type: "ReLU"
  bottom: "conv3_2"
  top: "conv3_2"
}
layer {
  name: "conv3_3"
  type: "Convolution"
  bottom: "conv3_2"
  top: "conv3_3"
  param {
    lr_mult: 1
    decay_mult: 1
  }
  param {
    lr_mult: 2
    decay_mult: 0
  }
  convolution_param {
    num_output: 256
    pad: 1
    kernel_size: 3
    stride: 1
    weight_filler {
      type: "xavier"
    }
  }
}
layer {
  name: "relu3_3"
  type: "ReLU"
  bottom: "conv3_3"
  top: "conv3_3"
}
layer {
  name: "pool3"
  type: "Pooling"
  bottom: "conv3_3"
  top: "pool3"
  pooling_param {
    pool: MAX
    kernel_size: 2
    stride: 2
  }
}
layer {
  name: "conv4_1"
  type: "Convolution"
  bottom: "pool3"
  top: "conv4_1"
  param {
    lr_mult: 1
    decay_mult: 1
  }
  param {
    lr_mult: 2
    decay_mult: 0
  }
  convolution_param {
    num_output: 512
    pad: 1
    kernel_size: 3
    stride: 1
    weight_filler {
      type: "xavier"
    }
  }
}
layer {
  name: "relu4_1"
  type: "ReLU"
  bottom: "conv4_1"
  top: "conv4_1"
}
layer {
  name: "conv4_2"
  type: "Convolution"
  bottom: "conv4_1"
  top: "conv4_2"
  param {
    lr_mult: 1
    decay_mult: 1
  }
  param {
    lr_mult: 2
    decay_mult: 0
  }
  convolution_param {
    num_output: 512
    pad: 1
    kernel_size: 3
    stride: 1
    weight_filler {
      type: "xavier"
    }
  }
}
layer {
  name: "relu4_2"
  type: "ReLU"
  bottom: "conv4_2"
  top: "conv4_2"
}
layer {
  name: "conv4_3"
  type: "Convolution"
  bottom: "conv4_2"
  top: "conv4_3"
  param {
    lr_mult: 1
    decay_mult: 1
  }
  param {
    lr_mult: 2
    decay_mult: 0
  }
  convolution_param {
    num_output: 512
    pad: 1
    kernel_size: 3
    stride: 1
    weight_filler {
      type: "xavier"
    }
  }
}
layer {
  name: "relu4_3"
  type: "ReLU"
  bottom: "conv4_3"
  top: "conv4_3"
}
layer {
  name: "pool4"
  type: "Pooling"
  bottom: "conv4_3"
  top: "pool4"
  pooling_param {
    pool: MAX
    kernel_size: 2
    stride: 2
  }
}
layer {
  name: "conv5_1"
  type: "Convolution"
  bottom: "pool4"
  top: "conv5_1"
  param {
    lr_mult: 1
    decay_mult: 1
  }
  param {
    lr_mult: 2
    decay_mult: 0
  }
  convolution_param {
    num_output: 512
    pad: 1
    kernel_size: 3
    stride: 1
    weight_filler {
      type: "xavier"
    }
  }
}
layer {
  name: "relu5_1"
  type: "ReLU"
  bottom: "conv5_1"
  top: "conv5_1"
}
layer {
  name: "conv5_2"
  type: "Convolution"
  bottom: "conv5_1"
  top: "conv5_2"
  param {
    lr_mult: 1
    decay_mult: 1
  }
  param {
    lr_mult: 2
    decay_mult: 0
  }
  convolution_param {
    num_output: 512
    pad: 1
    kernel_size: 3
    stride: 1
    weight_filler {
      type: "xavier"
    }
  }
}
layer {
  name: "relu5_2"
  type: "ReLU"
  bottom: "conv5_2"
  top: "conv5_2"
}
layer {
  name: "conv5_3"
  type: "Convolution"
  bottom: "conv5_2"
  top: "conv5_3"
  param {
    lr_mult: 1
    decay_mult: 1
  }
  param {
    lr_mult: 2
    decay_mult: 0
  }
  convolution_param {
    num_output: 512
    pad: 1
    kernel_size: 3
    stride: 1
    weight_filler {
      type: "xavier"
    }
  }
}
layer {
  name: "relu5_3"
  type: "ReLU"
  bottom: "conv5_3"
  top: "conv5_3"
}
layer {
  name: "pool5"
  type: "Pooling"
  bottom: "conv5_3"
  top: "pool5"
  pooling_param {
    pool: MAX
    kernel_size: 2
    stride: 2
  }
}
layer {
  name: "fc6"
  type: "Convolution"
  bottom: "pool5"
  top: "fc6"
  param {
    lr_mult: 1
    decay_mult: 1
  }
  param {
    lr_mult: 2
    decay_mult: 0
  }
  convolution_param {
    num_output: 4096
    pad: 0
    kernel_size: 7
    stride: 1
    weight_filler {
      type: "xavier"
    }
  }
}
layer {
  name: "relu6"
  type: "ReLU"
  bottom: "fc6"
  top: "fc6"
}
layer {
  name: "drop6"
  type: "Dropout"
  bottom: "fc6"
  top: "fc6"
  dropout_param {
    dropout_ratio: 0.5
  }
}
layer {
  name: "fc7"
  type: "Convolution"
  bottom: "fc6"
  top: "fc7"
  param {
    lr_mult: 1
    decay_mult: 1
  }
  param {
    lr_mult: 2
    decay_mult: 0
  }
  convolution_param {
    num_output: 4096
    pad: 0
    kernel_size: 1
    stride: 1
    weight_filler {
      type: "xavier"
    }
  }
}
layer {
  name: "relu7"
  type: "ReLU"
  bottom: "fc7"
  top: "fc7"
}
layer {
  name: "drop7"
  type: "Dropout"
  bottom: "fc7"
  top: "fc7"
  dropout_param {
    dropout_ratio: 0.5
  }
}
layer {
  name: "score_fr"
  type: "Convolution"
  bottom: "fc7"
  top: "score_fr"
  param {
    lr_mult: 1
    decay_mult: 1
  }
  param {
    lr_mult: 2
    decay_mult: 0
  }
  convolution_param {
    num_output: 5
    pad: 0
    kernel_size: 1
    weight_filler {
      type: "xavier"
    }
  }
}
layer {
  name: "upscore2"
  type: "Deconvolution"
  bottom: "score_fr"
  top: "upscore2"
  param {
    lr_mult: 0
  }
  convolution_param {
    num_output: 5
    bias_term: false
    kernel_size: 4
    stride: 2
    weight_filler {
      type: "xavier"
    }
  }
}
layer {
  name: "scale_pool4"
  type: "Scale"
  bottom: "pool4"
  top: "scale_pool4"
  param {
    lr_mult: 0
  }
  scale_param {
    filler {
      type: "constant"
      value: 0.01
    }
  }
}
layer {
  name: "score_pool4"
  type: "Convolution"
  bottom: "scale_pool4"
  top: "score_pool4"
  param {
    lr_mult: 1
    decay_mult: 1
  }
  param {
    lr_mult: 2
    decay_mult: 0
  }
  convolution_param {
    num_output: 5
    pad: 0
    kernel_size: 1
    weight_filler {
      type: "xavier"
    }
  }
}
layer {
  name: "score_pool4c"
  type: "Crop"
  bottom: "score_pool4"
  bottom: "upscore2"
  top: "score_pool4c"
  crop_param {
    axis: 2
    offset: 5
  }
}
layer {
  name: "fuse_pool4"
  type: "Eltwise"
  bottom: "upscore2"
  bottom: "score_pool4c"
  top: "fuse_pool4"
  eltwise_param {
    operation: SUM
  }
}
layer {
  name: "upscore_pool4"
  type: "Deconvolution"
  bottom: "fuse_pool4"
  top: "upscore_pool4"
  param {
    lr_mult: 0
  }
  convolution_param {
    num_output: 5
    bias_term: false
    kernel_size: 4
    stride: 2
    weight_filler {
      type: "xavier"
    }
  }
}
layer {
  name: "scale_pool3"
  type: "Scale"
  bottom: "pool3"
  top: "scale_pool3"
  param {
    lr_mult: 0
  }
  scale_param {
    filler {
      type: "constant"
      value: 0.0001
    }
  }
}
layer {
  name: "score_pool3"
  type: "Convolution"
  bottom: "scale_pool3"
  top: "score_pool3"
  param {
    lr_mult: 1
    decay_mult: 1
  }
  param {
    lr_mult: 2
    decay_mult: 0
  }
  convolution_param {
    num_output: 5
    pad: 0
    kernel_size: 1
    weight_filler {
      type: "xavier"
    }
  }
}
layer {
  name: "score_pool3c"
  type: "Crop"
  bottom: "score_pool3"
  bottom: "upscore_pool4"
  top: "score_pool3c"
  crop_param {
    axis: 2
    offset: 9
  }
}
layer {
  name: "fuse_pool3"
  type: "Eltwise"
  bottom: "upscore_pool4"
  bottom: "score_pool3c"
  top: "fuse_pool3"
  eltwise_param {
    operation: SUM
  }
}
layer {
  name: "upscore8"
  type: "Deconvolution"
  bottom: "fuse_pool3"
  top: "upscore8"
  param {
    lr_mult: 0
  }
  convolution_param {
    num_output: 5
    bias_term: false
    kernel_size: 16
    stride: 8
    weight_filler {
      type: "xavier"
    }
  }
}
layer {
  name: "score"
  type: "Crop"
  bottom: "upscore8"
  bottom: "data"
  top: "score"
  crop_param {
    axis: 2
    offset: 31
  }
}
layer {
  name: "loss"
  type: "SoftmaxWithLoss"
  bottom: "score"
  bottom: "label"
  top: "loss"
  loss_param {
    ignore_label: 255
    normalize: false
  }
}
I0123 15:56:49.245656 18171 layer_factory.hpp:77] Creating layer data
I0123 15:56:49.246098 18171 net.cpp:100] Creating Layer data
I0123 15:56:49.246112 18171 net.cpp:408] data -> data
I0123 15:56:49.246127 18171 net.cpp:408] data -> label
I0123 15:56:49.279824 18171 net.cpp:150] Setting up data
I0123 15:56:49.279857 18171 net.cpp:157] Top shape: 1 3 500 333 (499500)
I0123 15:56:49.279865 18171 net.cpp:157] Top shape: 1 1 500 333 (166500)
I0123 15:56:49.279868 18171 net.cpp:165] Memory required for data: 2664000
I0123 15:56:49.279876 18171 layer_factory.hpp:77] Creating layer data_data_0_split
I0123 15:56:49.279888 18171 net.cpp:100] Creating Layer data_data_0_split
I0123 15:56:49.279892 18171 net.cpp:434] data_data_0_split <- data
I0123 15:56:49.279903 18171 net.cpp:408] data_data_0_split -> data_data_0_split_0
I0123 15:56:49.279913 18171 net.cpp:408] data_data_0_split -> data_data_0_split_1
I0123 15:56:49.279950 18171 net.cpp:150] Setting up data_data_0_split
I0123 15:56:49.279958 18171 net.cpp:157] Top shape: 1 3 500 333 (499500)
I0123 15:56:49.279964 18171 net.cpp:157] Top shape: 1 3 500 333 (499500)
I0123 15:56:49.279968 18171 net.cpp:165] Memory required for data: 6660000
I0123 15:56:49.279973 18171 layer_factory.hpp:77] Creating layer conv1_1
I0123 15:56:49.279989 18171 net.cpp:100] Creating Layer conv1_1
I0123 15:56:49.279994 18171 net.cpp:434] conv1_1 <- data_data_0_split_0
I0123 15:56:49.280009 18171 net.cpp:408] conv1_1 -> conv1_1
I0123 15:56:49.459383 18171 net.cpp:150] Setting up conv1_1
I0123 15:56:49.459432 18171 net.cpp:157] Top shape: 1 64 698 531 (23720832)
I0123 15:56:49.459439 18171 net.cpp:165] Memory required for data: 101543328
I0123 15:56:49.459460 18171 layer_factory.hpp:77] Creating layer relu1_1
I0123 15:56:49.459481 18171 net.cpp:100] Creating Layer relu1_1
I0123 15:56:49.459487 18171 net.cpp:434] relu1_1 <- conv1_1
I0123 15:56:49.459494 18171 net.cpp:395] relu1_1 -> conv1_1 (in-place)
I0123 15:56:49.459841 18171 net.cpp:150] Setting up relu1_1
I0123 15:56:49.459853 18171 net.cpp:157] Top shape: 1 64 698 531 (23720832)
I0123 15:56:49.459859 18171 net.cpp:165] Memory required for data: 196426656
I0123 15:56:49.459863 18171 layer_factory.hpp:77] Creating layer conv1_2
I0123 15:56:49.459884 18171 net.cpp:100] Creating Layer conv1_2
I0123 15:56:49.459888 18171 net.cpp:434] conv1_2 <- conv1_1
I0123 15:56:49.459897 18171 net.cpp:408] conv1_2 -> conv1_2
I0123 15:56:49.462553 18171 net.cpp:150] Setting up conv1_2
I0123 15:56:49.462570 18171 net.cpp:157] Top shape: 1 64 698 531 (23720832)
I0123 15:56:49.462574 18171 net.cpp:165] Memory required for data: 291309984
I0123 15:56:49.462585 18171 layer_factory.hpp:77] Creating layer relu1_2
I0123 15:56:49.462594 18171 net.cpp:100] Creating Layer relu1_2
I0123 15:56:49.462599 18171 net.cpp:434] relu1_2 <- conv1_2
I0123 15:56:49.462608 18171 net.cpp:395] relu1_2 -> conv1_2 (in-place)
I0123 15:56:49.462967 18171 net.cpp:150] Setting up relu1_2
I0123 15:56:49.462980 18171 net.cpp:157] Top shape: 1 64 698 531 (23720832)
I0123 15:56:49.462985 18171 net.cpp:165] Memory required for data: 386193312
I0123 15:56:49.462990 18171 layer_factory.hpp:77] Creating layer pool1
I0123 15:56:49.463001 18171 net.cpp:100] Creating Layer pool1
I0123 15:56:49.463006 18171 net.cpp:434] pool1 <- conv1_2
I0123 15:56:49.463014 18171 net.cpp:408] pool1 -> pool1
I0123 15:56:49.463062 18171 net.cpp:150] Setting up pool1
I0123 15:56:49.463070 18171 net.cpp:157] Top shape: 1 64 349 266 (5941376)
I0123 15:56:49.463074 18171 net.cpp:165] Memory required for data: 409958816
I0123 15:56:49.463079 18171 layer_factory.hpp:77] Creating layer conv2_1
I0123 15:56:49.463089 18171 net.cpp:100] Creating Layer conv2_1
I0123 15:56:49.463093 18171 net.cpp:434] conv2_1 <- pool1
I0123 15:56:49.463101 18171 net.cpp:408] conv2_1 -> conv2_1
I0123 15:56:49.465371 18171 net.cpp:150] Setting up conv2_1
I0123 15:56:49.465386 18171 net.cpp:157] Top shape: 1 128 349 266 (11882752)
I0123 15:56:49.465391 18171 net.cpp:165] Memory required for data: 457489824
I0123 15:56:49.465402 18171 layer_factory.hpp:77] Creating layer relu2_1
I0123 15:56:49.465411 18171 net.cpp:100] Creating Layer relu2_1
I0123 15:56:49.465415 18171 net.cpp:434] relu2_1 <- conv2_1
I0123 15:56:49.465425 18171 net.cpp:395] relu2_1 -> conv2_1 (in-place)
I0123 15:56:49.465621 18171 net.cpp:150] Setting up relu2_1
I0123 15:56:49.465631 18171 net.cpp:157] Top shape: 1 128 349 266 (11882752)
I0123 15:56:49.465636 18171 net.cpp:165] Memory required for data: 505020832
I0123 15:56:49.465646 18171 layer_factory.hpp:77] Creating layer conv2_2
I0123 15:56:49.465662 18171 net.cpp:100] Creating Layer conv2_2
I0123 15:56:49.465665 18171 net.cpp:434] conv2_2 <- conv2_1
I0123 15:56:49.465674 18171 net.cpp:408] conv2_2 -> conv2_2
I0123 15:56:49.468165 18171 net.cpp:150] Setting up conv2_2
I0123 15:56:49.468180 18171 net.cpp:157] Top shape: 1 128 349 266 (11882752)
I0123 15:56:49.468185 18171 net.cpp:165] Memory required for data: 552551840
I0123 15:56:49.468194 18171 layer_factory.hpp:77] Creating layer relu2_2
I0123 15:56:49.468202 18171 net.cpp:100] Creating Layer relu2_2
I0123 15:56:49.468207 18171 net.cpp:434] relu2_2 <- conv2_2
I0123 15:56:49.468214 18171 net.cpp:395] relu2_2 -> conv2_2 (in-place)
I0123 15:56:49.468567 18171 net.cpp:150] Setting up relu2_2
I0123 15:56:49.468581 18171 net.cpp:157] Top shape: 1 128 349 266 (11882752)
I0123 15:56:49.468585 18171 net.cpp:165] Memory required for data: 600082848
I0123 15:56:49.468600 18171 layer_factory.hpp:77] Creating layer pool2
I0123 15:56:49.468612 18171 net.cpp:100] Creating Layer pool2
I0123 15:56:49.468616 18171 net.cpp:434] pool2 <- conv2_2
I0123 15:56:49.468624 18171 net.cpp:408] pool2 -> pool2
I0123 15:56:49.468669 18171 net.cpp:150] Setting up pool2
I0123 15:56:49.468677 18171 net.cpp:157] Top shape: 1 128 175 133 (2979200)
I0123 15:56:49.468682 18171 net.cpp:165] Memory required for data: 611999648
I0123 15:56:49.468685 18171 layer_factory.hpp:77] Creating layer conv3_1
I0123 15:56:49.468698 18171 net.cpp:100] Creating Layer conv3_1
I0123 15:56:49.468701 18171 net.cpp:434] conv3_1 <- pool2
I0123 15:56:49.468709 18171 net.cpp:408] conv3_1 -> conv3_1
I0123 15:56:49.471791 18171 net.cpp:150] Setting up conv3_1
I0123 15:56:49.471807 18171 net.cpp:157] Top shape: 1 256 175 133 (5958400)
I0123 15:56:49.471812 18171 net.cpp:165] Memory required for data: 635833248
I0123 15:56:49.471822 18171 layer_factory.hpp:77] Creating layer relu3_1
I0123 15:56:49.471832 18171 net.cpp:100] Creating Layer relu3_1
I0123 15:56:49.471835 18171 net.cpp:434] relu3_1 <- conv3_1
I0123 15:56:49.471843 18171 net.cpp:395] relu3_1 -> conv3_1 (in-place)
I0123 15:56:49.472199 18171 net.cpp:150] Setting up relu3_1
I0123 15:56:49.472213 18171 net.cpp:157] Top shape: 1 256 175 133 (5958400)
I0123 15:56:49.472218 18171 net.cpp:165] Memory required for data: 659666848
I0123 15:56:49.472221 18171 layer_factory.hpp:77] Creating layer conv3_2
I0123 15:56:49.472234 18171 net.cpp:100] Creating Layer conv3_2
I0123 15:56:49.472239 18171 net.cpp:434] conv3_2 <- conv3_1
I0123 15:56:49.472249 18171 net.cpp:408] conv3_2 -> conv3_2
I0123 15:56:49.477409 18171 net.cpp:150] Setting up conv3_2
I0123 15:56:49.477425 18171 net.cpp:157] Top shape: 1 256 175 133 (5958400)
I0123 15:56:49.477430 18171 net.cpp:165] Memory required for data: 683500448
I0123 15:56:49.477439 18171 layer_factory.hpp:77] Creating layer relu3_2
I0123 15:56:49.477448 18171 net.cpp:100] Creating Layer relu3_2
I0123 15:56:49.477453 18171 net.cpp:434] relu3_2 <- conv3_2
I0123 15:56:49.477459 18171 net.cpp:395] relu3_2 -> conv3_2 (in-place)
I0123 15:56:49.477653 18171 net.cpp:150] Setting up relu3_2
I0123 15:56:49.477663 18171 net.cpp:157] Top shape: 1 256 175 133 (5958400)
I0123 15:56:49.477668 18171 net.cpp:165] Memory required for data: 707334048
I0123 15:56:49.477672 18171 layer_factory.hpp:77] Creating layer conv3_3
I0123 15:56:49.477687 18171 net.cpp:100] Creating Layer conv3_3
I0123 15:56:49.477692 18171 net.cpp:434] conv3_3 <- conv3_2
I0123 15:56:49.477700 18171 net.cpp:408] conv3_3 -> conv3_3
I0123 15:56:49.482830 18171 net.cpp:150] Setting up conv3_3
I0123 15:56:49.482847 18171 net.cpp:157] Top shape: 1 256 175 133 (5958400)
I0123 15:56:49.482852 18171 net.cpp:165] Memory required for data: 731167648
I0123 15:56:49.482861 18171 layer_factory.hpp:77] Creating layer relu3_3
I0123 15:56:49.482868 18171 net.cpp:100] Creating Layer relu3_3
I0123 15:56:49.482873 18171 net.cpp:434] relu3_3 <- conv3_3
I0123 15:56:49.482879 18171 net.cpp:395] relu3_3 -> conv3_3 (in-place)
I0123 15:56:49.483235 18171 net.cpp:150] Setting up relu3_3
I0123 15:56:49.483249 18171 net.cpp:157] Top shape: 1 256 175 133 (5958400)
I0123 15:56:49.483253 18171 net.cpp:165] Memory required for data: 755001248
I0123 15:56:49.483258 18171 layer_factory.hpp:77] Creating layer pool3
I0123 15:56:49.483268 18171 net.cpp:100] Creating Layer pool3
I0123 15:56:49.483271 18171 net.cpp:434] pool3 <- conv3_3
I0123 15:56:49.483278 18171 net.cpp:408] pool3 -> pool3
I0123 15:56:49.483325 18171 net.cpp:150] Setting up pool3
I0123 15:56:49.483333 18171 net.cpp:157] Top shape: 1 256 88 67 (1509376)
I0123 15:56:49.483337 18171 net.cpp:165] Memory required for data: 761038752
I0123 15:56:49.483342 18171 layer_factory.hpp:77] Creating layer pool3_pool3_0_split
I0123 15:56:49.483352 18171 net.cpp:100] Creating Layer pool3_pool3_0_split
I0123 15:56:49.483358 18171 net.cpp:434] pool3_pool3_0_split <- pool3
I0123 15:56:49.483363 18171 net.cpp:408] pool3_pool3_0_split -> pool3_pool3_0_split_0
I0123 15:56:49.483371 18171 net.cpp:408] pool3_pool3_0_split -> pool3_pool3_0_split_1
I0123 15:56:49.483417 18171 net.cpp:150] Setting up pool3_pool3_0_split
I0123 15:56:49.483423 18171 net.cpp:157] Top shape: 1 256 88 67 (1509376)
I0123 15:56:49.483428 18171 net.cpp:157] Top shape: 1 256 88 67 (1509376)
I0123 15:56:49.483433 18171 net.cpp:165] Memory required for data: 773113760
I0123 15:56:49.483436 18171 layer_factory.hpp:77] Creating layer conv4_1
I0123 15:56:49.483448 18171 net.cpp:100] Creating Layer conv4_1
I0123 15:56:49.483453 18171 net.cpp:434] conv4_1 <- pool3_pool3_0_split_0
I0123 15:56:49.483459 18171 net.cpp:408] conv4_1 -> conv4_1
I0123 15:56:49.493561 18171 net.cpp:150] Setting up conv4_1
I0123 15:56:49.493582 18171 net.cpp:157] Top shape: 1 512 88 67 (3018752)
I0123 15:56:49.493587 18171 net.cpp:165] Memory required for data: 785188768
I0123 15:56:49.493594 18171 layer_factory.hpp:77] Creating layer relu4_1
I0123 15:56:49.493603 18171 net.cpp:100] Creating Layer relu4_1
I0123 15:56:49.493608 18171 net.cpp:434] relu4_1 <- conv4_1
I0123 15:56:49.493615 18171 net.cpp:395] relu4_1 -> conv4_1 (in-place)
I0123 15:56:49.493988 18171 net.cpp:150] Setting up relu4_1
I0123 15:56:49.494002 18171 net.cpp:157] Top shape: 1 512 88 67 (3018752)
I0123 15:56:49.494006 18171 net.cpp:165] Memory required for data: 797263776
I0123 15:56:49.494011 18171 layer_factory.hpp:77] Creating layer conv4_2
I0123 15:56:49.494025 18171 net.cpp:100] Creating Layer conv4_2
I0123 15:56:49.494030 18171 net.cpp:434] conv4_2 <- conv4_1
I0123 15:56:49.494040 18171 net.cpp:408] conv4_2 -> conv4_2
I0123 15:56:49.510762 18171 net.cpp:150] Setting up conv4_2
I0123 15:56:49.510787 18171 net.cpp:157] Top shape: 1 512 88 67 (3018752)
I0123 15:56:49.510792 18171 net.cpp:165] Memory required for data: 809338784
I0123 15:56:49.510807 18171 layer_factory.hpp:77] Creating layer relu4_2
I0123 15:56:49.510815 18171 net.cpp:100] Creating Layer relu4_2
I0123 15:56:49.510820 18171 net.cpp:434] relu4_2 <- conv4_2
I0123 15:56:49.510828 18171 net.cpp:395] relu4_2 -> conv4_2 (in-place)
I0123 15:56:49.511018 18171 net.cpp:150] Setting up relu4_2
I0123 15:56:49.511028 18171 net.cpp:157] Top shape: 1 512 88 67 (3018752)
I0123 15:56:49.511032 18171 net.cpp:165] Memory required for data: 821413792
I0123 15:56:49.511036 18171 layer_factory.hpp:77] Creating layer conv4_3
I0123 15:56:49.511050 18171 net.cpp:100] Creating Layer conv4_3
I0123 15:56:49.511055 18171 net.cpp:434] conv4_3 <- conv4_2
I0123 15:56:49.511063 18171 net.cpp:408] conv4_3 -> conv4_3
I0123 15:56:49.527770 18171 net.cpp:150] Setting up conv4_3
I0123 15:56:49.527793 18171 net.cpp:157] Top shape: 1 512 88 67 (3018752)
I0123 15:56:49.527798 18171 net.cpp:165] Memory required for data: 833488800
I0123 15:56:49.527807 18171 layer_factory.hpp:77] Creating layer relu4_3
I0123 15:56:49.527817 18171 net.cpp:100] Creating Layer relu4_3
I0123 15:56:49.527822 18171 net.cpp:434] relu4_3 <- conv4_3
I0123 15:56:49.527829 18171 net.cpp:395] relu4_3 -> conv4_3 (in-place)
I0123 15:56:49.528189 18171 net.cpp:150] Setting up relu4_3
I0123 15:56:49.528203 18171 net.cpp:157] Top shape: 1 512 88 67 (3018752)
I0123 15:56:49.528208 18171 net.cpp:165] Memory required for data: 845563808
I0123 15:56:49.528211 18171 layer_factory.hpp:77] Creating layer pool4
I0123 15:56:49.528220 18171 net.cpp:100] Creating Layer pool4
I0123 15:56:49.528225 18171 net.cpp:434] pool4 <- conv4_3
I0123 15:56:49.528234 18171 net.cpp:408] pool4 -> pool4
I0123 15:56:49.528285 18171 net.cpp:150] Setting up pool4
I0123 15:56:49.528293 18171 net.cpp:157] Top shape: 1 512 44 34 (765952)
I0123 15:56:49.528297 18171 net.cpp:165] Memory required for data: 848627616
I0123 15:56:49.528301 18171 layer_factory.hpp:77] Creating layer pool4_pool4_0_split
I0123 15:56:49.528308 18171 net.cpp:100] Creating Layer pool4_pool4_0_split
I0123 15:56:49.528312 18171 net.cpp:434] pool4_pool4_0_split <- pool4
I0123 15:56:49.528321 18171 net.cpp:408] pool4_pool4_0_split -> pool4_pool4_0_split_0
I0123 15:56:49.528327 18171 net.cpp:408] pool4_pool4_0_split -> pool4_pool4_0_split_1
I0123 15:56:49.528364 18171 net.cpp:150] Setting up pool4_pool4_0_split
I0123 15:56:49.528381 18171 net.cpp:157] Top shape: 1 512 44 34 (765952)
I0123 15:56:49.528386 18171 net.cpp:157] Top shape: 1 512 44 34 (765952)
I0123 15:56:49.528390 18171 net.cpp:165] Memory required for data: 854755232
I0123 15:56:49.528396 18171 layer_factory.hpp:77] Creating layer conv5_1
I0123 15:56:49.528409 18171 net.cpp:100] Creating Layer conv5_1
I0123 15:56:49.528414 18171 net.cpp:434] conv5_1 <- pool4_pool4_0_split_0
I0123 15:56:49.528421 18171 net.cpp:408] conv5_1 -> conv5_1
I0123 15:56:49.544976 18171 net.cpp:150] Setting up conv5_1
I0123 15:56:49.545001 18171 net.cpp:157] Top shape: 1 512 44 34 (765952)
I0123 15:56:49.545006 18171 net.cpp:165] Memory required for data: 857819040
I0123 15:56:49.545016 18171 layer_factory.hpp:77] Creating layer relu5_1
I0123 15:56:49.545023 18171 net.cpp:100] Creating Layer relu5_1
I0123 15:56:49.545028 18171 net.cpp:434] relu5_1 <- conv5_1
I0123 15:56:49.545037 18171 net.cpp:395] relu5_1 -> conv5_1 (in-place)
I0123 15:56:49.545398 18171 net.cpp:150] Setting up relu5_1
I0123 15:56:49.545413 18171 net.cpp:157] Top shape: 1 512 44 34 (765952)
I0123 15:56:49.545416 18171 net.cpp:165] Memory required for data: 860882848
I0123 15:56:49.545421 18171 layer_factory.hpp:77] Creating layer conv5_2
I0123 15:56:49.545433 18171 net.cpp:100] Creating Layer conv5_2
I0123 15:56:49.545439 18171 net.cpp:434] conv5_2 <- conv5_1
I0123 15:56:49.545445 18171 net.cpp:408] conv5_2 -> conv5_2
I0123 15:56:49.562189 18171 net.cpp:150] Setting up conv5_2
I0123 15:56:49.562212 18171 net.cpp:157] Top shape: 1 512 44 34 (765952)
I0123 15:56:49.562217 18171 net.cpp:165] Memory required for data: 863946656
I0123 15:56:49.562227 18171 layer_factory.hpp:77] Creating layer relu5_2
I0123 15:56:49.562234 18171 net.cpp:100] Creating Layer relu5_2
I0123 15:56:49.562240 18171 net.cpp:434] relu5_2 <- conv5_2
I0123 15:56:49.562247 18171 net.cpp:395] relu5_2 -> conv5_2 (in-place)
I0123 15:56:49.562438 18171 net.cpp:150] Setting up relu5_2
I0123 15:56:49.562448 18171 net.cpp:157] Top shape: 1 512 44 34 (765952)
I0123 15:56:49.562453 18171 net.cpp:165] Memory required for data: 867010464
I0123 15:56:49.562458 18171 layer_factory.hpp:77] Creating layer conv5_3
I0123 15:56:49.562475 18171 net.cpp:100] Creating Layer conv5_3
I0123 15:56:49.562481 18171 net.cpp:434] conv5_3 <- conv5_2
I0123 15:56:49.562489 18171 net.cpp:408] conv5_3 -> conv5_3
I0123 15:56:49.579155 18171 net.cpp:150] Setting up conv5_3
I0123 15:56:49.579180 18171 net.cpp:157] Top shape: 1 512 44 34 (765952)
I0123 15:56:49.579185 18171 net.cpp:165] Memory required for data: 870074272
I0123 15:56:49.579193 18171 layer_factory.hpp:77] Creating layer relu5_3
I0123 15:56:49.579201 18171 net.cpp:100] Creating Layer relu5_3
I0123 15:56:49.579206 18171 net.cpp:434] relu5_3 <- conv5_3
I0123 15:56:49.579213 18171 net.cpp:395] relu5_3 -> conv5_3 (in-place)
I0123 15:56:49.579743 18171 net.cpp:150] Setting up relu5_3
I0123 15:56:49.579759 18171 net.cpp:157] Top shape: 1 512 44 34 (765952)
I0123 15:56:49.579763 18171 net.cpp:165] Memory required for data: 873138080
I0123 15:56:49.579768 18171 layer_factory.hpp:77] Creating layer pool5
I0123 15:56:49.579777 18171 net.cpp:100] Creating Layer pool5
I0123 15:56:49.579782 18171 net.cpp:434] pool5 <- conv5_3
I0123 15:56:49.579788 18171 net.cpp:408] pool5 -> pool5
I0123 15:56:49.579841 18171 net.cpp:150] Setting up pool5
I0123 15:56:49.579849 18171 net.cpp:157] Top shape: 1 512 22 17 (191488)
I0123 15:56:49.579854 18171 net.cpp:165] Memory required for data: 873904032
I0123 15:56:49.579857 18171 layer_factory.hpp:77] Creating layer fc6
I0123 15:56:49.579869 18171 net.cpp:100] Creating Layer fc6
I0123 15:56:49.579874 18171 net.cpp:434] fc6 <- pool5
I0123 15:56:49.579881 18171 net.cpp:408] fc6 -> fc6
I0123 15:56:50.279178 18171 net.cpp:150] Setting up fc6
I0123 15:56:50.279227 18171 net.cpp:157] Top shape: 1 4096 16 11 (720896)
I0123 15:56:50.279232 18171 net.cpp:165] Memory required for data: 876787616
I0123 15:56:50.279247 18171 layer_factory.hpp:77] Creating layer relu6
I0123 15:56:50.279270 18171 net.cpp:100] Creating Layer relu6
I0123 15:56:50.279278 18171 net.cpp:434] relu6 <- fc6
I0123 15:56:50.279287 18171 net.cpp:395] relu6 -> fc6 (in-place)
I0123 15:56:50.279666 18171 net.cpp:150] Setting up relu6
I0123 15:56:50.279681 18171 net.cpp:157] Top shape: 1 4096 16 11 (720896)
I0123 15:56:50.279686 18171 net.cpp:165] Memory required for data: 879671200
I0123 15:56:50.279691 18171 layer_factory.hpp:77] Creating layer drop6
I0123 15:56:50.279703 18171 net.cpp:100] Creating Layer drop6
I0123 15:56:50.279708 18171 net.cpp:434] drop6 <- fc6
I0123 15:56:50.279718 18171 net.cpp:395] drop6 -> fc6 (in-place)
I0123 15:56:50.279757 18171 net.cpp:150] Setting up drop6
I0123 15:56:50.279765 18171 net.cpp:157] Top shape: 1 4096 16 11 (720896)
I0123 15:56:50.279769 18171 net.cpp:165] Memory required for data: 882554784
I0123 15:56:50.279773 18171 layer_factory.hpp:77] Creating layer fc7
I0123 15:56:50.279788 18171 net.cpp:100] Creating Layer fc7
I0123 15:56:50.279793 18171 net.cpp:434] fc7 <- fc6
I0123 15:56:50.279800 18171 net.cpp:408] fc7 -> fc7
I0123 15:56:50.397282 18171 net.cpp:150] Setting up fc7
I0123 15:56:50.397333 18171 net.cpp:157] Top shape: 1 4096 16 11 (720896)
I0123 15:56:50.397339 18171 net.cpp:165] Memory required for data: 885438368
I0123 15:56:50.397356 18171 layer_factory.hpp:77] Creating layer relu7
I0123 15:56:50.397373 18171 net.cpp:100] Creating Layer relu7
I0123 15:56:50.397384 18171 net.cpp:434] relu7 <- fc7
I0123 15:56:50.397393 18171 net.cpp:395] relu7 -> fc7 (in-place)
I0123 15:56:50.397606 18171 net.cpp:150] Setting up relu7
I0123 15:56:50.397617 18171 net.cpp:157] Top shape: 1 4096 16 11 (720896)
I0123 15:56:50.397621 18171 net.cpp:165] Memory required for data: 888321952
I0123 15:56:50.397627 18171 layer_factory.hpp:77] Creating layer drop7
I0123 15:56:50.397647 18171 net.cpp:100] Creating Layer drop7
I0123 15:56:50.397653 18171 net.cpp:434] drop7 <- fc7
I0123 15:56:50.397661 18171 net.cpp:395] drop7 -> fc7 (in-place)
I0123 15:56:50.397703 18171 net.cpp:150] Setting up drop7
I0123 15:56:50.397711 18171 net.cpp:157] Top shape: 1 4096 16 11 (720896)
I0123 15:56:50.397716 18171 net.cpp:165] Memory required for data: 891205536
I0123 15:56:50.397720 18171 layer_factory.hpp:77] Creating layer score_fr
I0123 15:56:50.397733 18171 net.cpp:100] Creating Layer score_fr
I0123 15:56:50.397738 18171 net.cpp:434] score_fr <- fc7
I0123 15:56:50.397750 18171 net.cpp:408] score_fr -> score_fr
I0123 15:56:50.399116 18171 net.cpp:150] Setting up score_fr
I0123 15:56:50.399132 18171 net.cpp:157] Top shape: 1 5 16 11 (880)
I0123 15:56:50.399135 18171 net.cpp:165] Memory required for data: 891209056
I0123 15:56:50.399144 18171 layer_factory.hpp:77] Creating layer upscore2
I0123 15:56:50.399160 18171 net.cpp:100] Creating Layer upscore2
I0123 15:56:50.399166 18171 net.cpp:434] upscore2 <- score_fr
I0123 15:56:50.399175 18171 net.cpp:408] upscore2 -> upscore2
I0123 15:56:50.399394 18171 net.cpp:150] Setting up upscore2
I0123 15:56:50.399402 18171 net.cpp:157] Top shape: 1 5 34 24 (4080)
I0123 15:56:50.399406 18171 net.cpp:165] Memory required for data: 891225376
I0123 15:56:50.399428 18171 layer_factory.hpp:77] Creating layer upscore2_upscore2_0_split
I0123 15:56:50.399436 18171 net.cpp:100] Creating Layer upscore2_upscore2_0_split
I0123 15:56:50.399441 18171 net.cpp:434] upscore2_upscore2_0_split <- upscore2
I0123 15:56:50.399448 18171 net.cpp:408] upscore2_upscore2_0_split -> upscore2_upscore2_0_split_0
I0123 15:56:50.399456 18171 net.cpp:408] upscore2_upscore2_0_split -> upscore2_upscore2_0_split_1
I0123 15:56:50.399498 18171 net.cpp:150] Setting up upscore2_upscore2_0_split
I0123 15:56:50.399505 18171 net.cpp:157] Top shape: 1 5 34 24 (4080)
I0123 15:56:50.399510 18171 net.cpp:157] Top shape: 1 5 34 24 (4080)
I0123 15:56:50.399514 18171 net.cpp:165] Memory required for data: 891258016
I0123 15:56:50.399518 18171 layer_factory.hpp:77] Creating layer scale_pool4
I0123 15:56:50.399529 18171 net.cpp:100] Creating Layer scale_pool4
I0123 15:56:50.399534 18171 net.cpp:434] scale_pool4 <- pool4_pool4_0_split_1
I0123 15:56:50.399554 18171 net.cpp:408] scale_pool4 -> scale_pool4
I0123 15:56:50.399677 18171 net.cpp:150] Setting up scale_pool4
I0123 15:56:50.399688 18171 net.cpp:157] Top shape: 1 512 44 34 (765952)
I0123 15:56:50.399691 18171 net.cpp:165] Memory required for data: 894321824
I0123 15:56:50.399698 18171 layer_factory.hpp:77] Creating layer score_pool4
I0123 15:56:50.399711 18171 net.cpp:100] Creating Layer score_pool4
I0123 15:56:50.399716 18171 net.cpp:434] score_pool4 <- scale_pool4
I0123 15:56:50.399725 18171 net.cpp:408] score_pool4 -> score_pool4
I0123 15:56:50.401018 18171 net.cpp:150] Setting up score_pool4
I0123 15:56:50.401033 18171 net.cpp:157] Top shape: 1 5 44 34 (7480)
I0123 15:56:50.401038 18171 net.cpp:165] Memory required for data: 894351744
I0123 15:56:50.401046 18171 layer_factory.hpp:77] Creating layer score_pool4c
I0123 15:56:50.401059 18171 net.cpp:100] Creating Layer score_pool4c
I0123 15:56:50.401064 18171 net.cpp:434] score_pool4c <- score_pool4
I0123 15:56:50.401070 18171 net.cpp:434] score_pool4c <- upscore2_upscore2_0_split_0
I0123 15:56:50.401078 18171 net.cpp:408] score_pool4c -> score_pool4c
I0123 15:56:50.401114 18171 net.cpp:150] Setting up score_pool4c
I0123 15:56:50.401124 18171 net.cpp:157] Top shape: 1 5 34 24 (4080)
I0123 15:56:50.401126 18171 net.cpp:165] Memory required for data: 894368064
I0123 15:56:50.401132 18171 layer_factory.hpp:77] Creating layer fuse_pool4
I0123 15:56:50.401146 18171 net.cpp:100] Creating Layer fuse_pool4
I0123 15:56:50.401151 18171 net.cpp:434] fuse_pool4 <- upscore2_upscore2_0_split_1
I0123 15:56:50.401157 18171 net.cpp:434] fuse_pool4 <- score_pool4c
I0123 15:56:50.401163 18171 net.cpp:408] fuse_pool4 -> fuse_pool4
I0123 15:56:50.401197 18171 net.cpp:150] Setting up fuse_pool4
I0123 15:56:50.401206 18171 net.cpp:157] Top shape: 1 5 34 24 (4080)
I0123 15:56:50.401209 18171 net.cpp:165] Memory required for data: 894384384
I0123 15:56:50.401213 18171 layer_factory.hpp:77] Creating layer upscore_pool4
I0123 15:56:50.401224 18171 net.cpp:100] Creating Layer upscore_pool4
I0123 15:56:50.401228 18171 net.cpp:434] upscore_pool4 <- fuse_pool4
I0123 15:56:50.401237 18171 net.cpp:408] upscore_pool4 -> upscore_pool4
I0123 15:56:50.401443 18171 net.cpp:150] Setting up upscore_pool4
I0123 15:56:50.401451 18171 net.cpp:157] Top shape: 1 5 70 50 (17500)
I0123 15:56:50.401455 18171 net.cpp:165] Memory required for data: 894454384
I0123 15:56:50.401461 18171 layer_factory.hpp:77] Creating layer upscore_pool4_upscore_pool4_0_split
I0123 15:56:50.401468 18171 net.cpp:100] Creating Layer upscore_pool4_upscore_pool4_0_split
I0123 15:56:50.401473 18171 net.cpp:434] upscore_pool4_upscore_pool4_0_split <- upscore_pool4
I0123 15:56:50.401479 18171 net.cpp:408] upscore_pool4_upscore_pool4_0_split -> upscore_pool4_upscore_pool4_0_split_0
I0123 15:56:50.401486 18171 net.cpp:408] upscore_pool4_upscore_pool4_0_split -> upscore_pool4_upscore_pool4_0_split_1
I0123 15:56:50.401535 18171 net.cpp:150] Setting up upscore_pool4_upscore_pool4_0_split
I0123 15:56:50.401546 18171 net.cpp:157] Top shape: 1 5 70 50 (17500)
I0123 15:56:50.401556 18171 net.cpp:157] Top shape: 1 5 70 50 (17500)
I0123 15:56:50.401561 18171 net.cpp:165] Memory required for data: 894594384
I0123 15:56:50.401568 18171 layer_factory.hpp:77] Creating layer scale_pool3
I0123 15:56:50.401583 18171 net.cpp:100] Creating Layer scale_pool3
I0123 15:56:50.401592 18171 net.cpp:434] scale_pool3 <- pool3_pool3_0_split_1
I0123 15:56:50.401605 18171 net.cpp:408] scale_pool3 -> scale_pool3
I0123 15:56:50.401765 18171 net.cpp:150] Setting up scale_pool3
I0123 15:56:50.401784 18171 net.cpp:157] Top shape: 1 256 88 67 (1509376)
I0123 15:56:50.401790 18171 net.cpp:165] Memory required for data: 900631888
I0123 15:56:50.401800 18171 layer_factory.hpp:77] Creating layer score_pool3
I0123 15:56:50.401815 18171 net.cpp:100] Creating Layer score_pool3
I0123 15:56:50.401824 18171 net.cpp:434] score_pool3 <- scale_pool3
I0123 15:56:50.401839 18171 net.cpp:408] score_pool3 -> score_pool3
I0123 15:56:50.403726 18171 net.cpp:150] Setting up score_pool3
I0123 15:56:50.403748 18171 net.cpp:157] Top shape: 1 5 88 67 (29480)
I0123 15:56:50.403753 18171 net.cpp:165] Memory required for data: 900749808
I0123 15:56:50.403760 18171 layer_factory.hpp:77] Creating layer score_pool3c
I0123 15:56:50.403769 18171 net.cpp:100] Creating Layer score_pool3c
I0123 15:56:50.403774 18171 net.cpp:434] score_pool3c <- score_pool3
I0123 15:56:50.403782 18171 net.cpp:434] score_pool3c <- upscore_pool4_upscore_pool4_0_split_0
I0123 15:56:50.403789 18171 net.cpp:408] score_pool3c -> score_pool3c
I0123 15:56:50.403825 18171 net.cpp:150] Setting up score_pool3c
I0123 15:56:50.403834 18171 net.cpp:157] Top shape: 1 5 70 50 (17500)
I0123 15:56:50.403837 18171 net.cpp:165] Memory required for data: 900819808
I0123 15:56:50.403842 18171 layer_factory.hpp:77] Creating layer fuse_pool3
I0123 15:56:50.403849 18171 net.cpp:100] Creating Layer fuse_pool3
I0123 15:56:50.403854 18171 net.cpp:434] fuse_pool3 <- upscore_pool4_upscore_pool4_0_split_1
I0123 15:56:50.403859 18171 net.cpp:434] fuse_pool3 <- score_pool3c
I0123 15:56:50.403867 18171 net.cpp:408] fuse_pool3 -> fuse_pool3
I0123 15:56:50.403897 18171 net.cpp:150] Setting up fuse_pool3
I0123 15:56:50.403905 18171 net.cpp:157] Top shape: 1 5 70 50 (17500)
I0123 15:56:50.403909 18171 net.cpp:165] Memory required for data: 900889808
I0123 15:56:50.403913 18171 layer_factory.hpp:77] Creating layer upscore8
I0123 15:56:50.403923 18171 net.cpp:100] Creating Layer upscore8
I0123 15:56:50.403928 18171 net.cpp:434] upscore8 <- fuse_pool3
I0123 15:56:50.403935 18171 net.cpp:408] upscore8 -> upscore8
I0123 15:56:50.404189 18171 net.cpp:150] Setting up upscore8
I0123 15:56:50.404198 18171 net.cpp:157] Top shape: 1 5 568 408 (1158720)
I0123 15:56:50.404202 18171 net.cpp:165] Memory required for data: 905524688
I0123 15:56:50.404209 18171 layer_factory.hpp:77] Creating layer score
I0123 15:56:50.404217 18171 net.cpp:100] Creating Layer score
I0123 15:56:50.404220 18171 net.cpp:434] score <- upscore8
I0123 15:56:50.404227 18171 net.cpp:434] score <- data_data_0_split_1
I0123 15:56:50.404232 18171 net.cpp:408] score -> score
I0123 15:56:50.404263 18171 net.cpp:150] Setting up score
I0123 15:56:50.404269 18171 net.cpp:157] Top shape: 1 5 500 333 (832500)
I0123 15:56:50.404273 18171 net.cpp:165] Memory required for data: 908854688
I0123 15:56:50.404278 18171 layer_factory.hpp:77] Creating layer loss
I0123 15:56:50.404290 18171 net.cpp:100] Creating Layer loss
I0123 15:56:50.404295 18171 net.cpp:434] loss <- score
I0123 15:56:50.404300 18171 net.cpp:434] loss <- label
I0123 15:56:50.404309 18171 net.cpp:408] loss -> loss
I0123 15:56:50.404320 18171 layer_factory.hpp:77] Creating layer loss
…
I0123 15:56:50.406853 18171 net.cpp:283] Network initialization done.
I0123 15:56:50.408017 18171 solver.cpp:181] Creating test net (#0) specified by test_net file: val.prototxt
I0123 15:56:50.408378 18171 net.cpp:58] Initializing net from parameters: 
state {
  phase: TEST
}
layer {
  name: "data"
  type: "Python"
  top: "data"
  top: "label"
  python_param {
    module: "voc_layers"
    layer: "CatVOCSegDataLayer"
    param_str: "{\'voc_dir\': \'../data/pascal-obfuscated/VOC2011\', \'seed\': 1337, \'split\': \'seg11valid15\', \'mean\': (104.00699, 116.66877, 122.67892)}"
  }
}
layer {
  name: "conv1_1"
  type: "Convolution"
  bottom: "data"
  top: "conv1_1"
  param {
    lr_mult: 1
    decay_mult: 1
  }
  param {
    lr_mult: 2
    decay_mult: 0
  }
  convolution_param {
    num_output: 64
    pad: 100
    kernel_size: 3
    stride: 1
    weight_filler {
      type: "xavier"
    }
  }
}
layer {
  name: "relu1_1"
  type: "ReLU"
  bottom: "conv1_1"
  top: "conv1_1"
}
layer {
  name: "conv1_2"
  type: "Convolution"
  bottom: "conv1_1"
  top: "conv1_2"
  param {
    lr_mult: 1
    decay_mult: 1
  }
  param {
    lr_mult: 2
    decay_mult: 0
  }
  convolution_param {
    num_output: 64
    pad: 1
    kernel_size: 3
    stride: 1
    weight_filler {
      type: "xavier"
    }
  }
}
layer {
  name: "relu1_2"
  type: "ReLU"
  bottom: "conv1_2"
  top: "conv1_2"
}
layer {
  name: "pool1"
  type: "Pooling"
  bottom: "conv1_2"
  top: "pool1"
  pooling_param {
    pool: MAX
    kernel_size: 2
    stride: 2
  }
}
layer {
  name: "conv2_1"
  type: "Convolution"
  bottom: "pool1"
  top: "conv2_1"
  param {
    lr_mult: 1
    decay_mult: 1
  }
  param {
    lr_mult: 2
    decay_mult: 0
  }
  convolution_param {
    num_output: 128
    pad: 1
    kernel_size: 3
    stride: 1
    weight_filler {
      type: "xavier"
    }
  }
}
layer {
  name: "relu2_1"
  type: "ReLU"
  bottom: "conv2_1"
  top: "conv2_1"
}
layer {
  name: "conv2_2"
  type: "Convolution"
  bottom: "conv2_1"
  top: "conv2_2"
  param {
    lr_mult: 1
    decay_mult: 1
  }
  param {
    lr_mult: 2
    decay_mult: 0
  }
  convolution_param {
    num_output: 128
    pad: 1
    kernel_size: 3
    stride: 1
    weight_filler {
      type: "xavier"
    }
  }
}
layer {
  name: "relu2_2"
  type: "ReLU"
  bottom: "conv2_2"
  top: "conv2_2"
}
layer {
  name: "pool2"
  type: "Pooling"
  bottom: "conv2_2"
  top: "pool2"
  pooling_param {
    pool: MAX
    kernel_size: 2
    stride: 2
  }
}
layer {
  name: "conv3_1"
  type: "Convolution"
  bottom: "pool2"
  top: "conv3_1"
  param {
    lr_mult: 1
    decay_mult: 1
  }
  param {
    lr_mult: 2
    decay_mult: 0
  }
  convolution_param {
    num_output: 256
    pad: 1
    kernel_size: 3
    stride: 1
    weight_filler {
      type: "xavier"
    }
  }
}
layer {
  name: "relu3_1"
  type: "ReLU"
  bottom: "conv3_1"
  top: "conv3_1"
}
layer {
  name: "conv3_2"
  type: "Convolution"
  bottom: "conv3_1"
  top: "conv3_2"
  param {
    lr_mult: 1
    decay_mult: 1
  }
  param {
    lr_mult: 2
    decay_mult: 0
  }
  convolution_param {
    num_output: 256
    pad: 1
    kernel_size: 3
    stride: 1
    weight_filler {
      type: "xavier"
    }
  }
}
layer {
  name: "relu3_2"
  type: "ReLU"
  bottom: "conv3_2"
  top: "conv3_2"
}
layer {
  name: "conv3_3"
  type: "Convolution"
  bottom: "conv3_2"
  top: "conv3_3"
  param {
    lr_mult: 1
    decay_mult: 1
  }
  param {
    lr_mult: 2
    decay_mult: 0
  }
  convolution_param {
    num_output: 256
    pad: 1
    kernel_size: 3
    stride: 1
    weight_filler {
      type: "xavier"
    }
  }
}
layer {
  name: "relu3_3"
  type: "ReLU"
  bottom: "conv3_3"
  top: "conv3_3"
}
layer {
  name: "pool3"
  type: "Pooling"
  bottom: "conv3_3"
  top: "pool3"
  pooling_param {
    pool: MAX
    kernel_size: 2
    stride: 2
  }
}
layer {
  name: "conv4_1"
  type: "Convolution"
  bottom: "pool3"
  top: "conv4_1"
  param {
    lr_mult: 1
    decay_mult: 1
  }
  param {
    lr_mult: 2
    decay_mult: 0
  }
  convolution_param {
    num_output: 512
    pad: 1
    kernel_size: 3
    stride: 1
    weight_filler {
      type: "xavier"
    }
  }
}
layer {
  name: "relu4_1"
  type: "ReLU"
  bottom: "conv4_1"
  top: "conv4_1"
}
layer {
  name: "conv4_2"
  type: "Convolution"
  bottom: "conv4_1"
  top: "conv4_2"
  param {
    lr_mult: 1
    decay_mult: 1
  }
  param {
    lr_mult: 2
    decay_mult: 0
  }
  convolution_param {
    num_output: 512
    pad: 1
    kernel_size: 3
    stride: 1
    weight_filler {
      type: "xavier"
    }
  }
}
layer {
  name: "relu4_2"
  type: "ReLU"
  bottom: "conv4_2"
  top: "conv4_2"
}
layer {
  name: "conv4_3"
  type: "Convolution"
  bottom: "conv4_2"
  top: "conv4_3"
  param {
    lr_mult: 1
    decay_mult: 1
  }
  param {
    lr_mult: 2
    decay_mult: 0
  }
  convolution_param {
    num_output: 512
    pad: 1
    kernel_size: 3
    stride: 1
    weight_filler {
      type: "xavier"
    }
  }
}
layer {
  name: "relu4_3"
  type: "ReLU"
  bottom: "conv4_3"
  top: "conv4_3"
}
layer {
  name: "pool4"
  type: "Pooling"
  bottom: "conv4_3"
  top: "pool4"
  pooling_param {
    pool: MAX
    kernel_size: 2
    stride: 2
  }
}
layer {
  name: "conv5_1"
  type: "Convolution"
  bottom: "pool4"
  top: "conv5_1"
  param {
    lr_mult: 1
    decay_mult: 1
  }
  param {
    lr_mult: 2
    decay_mult: 0
  }
  convolution_param {
    num_output: 512
    pad: 1
    kernel_size: 3
    stride: 1
    weight_filler {
      type: "xavier"
    }
  }
}
layer {
  name: "relu5_1"
  type: "ReLU"
  bottom: "conv5_1"
  top: "conv5_1"
}
layer {
  name: "conv5_2"
  type: "Convolution"
  bottom: "conv5_1"
  top: "conv5_2"
  param {
    lr_mult: 1
    decay_mult: 1
  }
  param {
    lr_mult: 2
    decay_mult: 0
  }
  convolution_param {
    num_output: 512
    pad: 1
    kernel_size: 3
    stride: 1
    weight_filler {
      type: "xavier"
    }
  }
}
layer {
  name: "relu5_2"
  type: "ReLU"
  bottom: "conv5_2"
  top: "conv5_2"
}
layer {
  name: "conv5_3"
  type: "Convolution"
  bottom: "conv5_2"
  top: "conv5_3"
  param {
    lr_mult: 1
    decay_mult: 1
  }
  param {
    lr_mult: 2
    decay_mult: 0
  }
  convolution_param {
    num_output: 512
    pad: 1
    kernel_size: 3
    stride: 1
    weight_filler {
      type: "xavier"
    }
  }
}
layer {
  name: "relu5_3"
  type: "ReLU"
  bottom: "conv5_3"
  top: "conv5_3"
}
layer {
  name: "pool5"
  type: "Pooling"
  bottom: "conv5_3"
  top: "pool5"
  pooling_param {
    pool: MAX
    kernel_size: 2
    stride: 2
  }
}
layer {
  name: "fc6"
  type: "Convolution"
  bottom: "pool5"
  top: "fc6"
  param {
    lr_mult: 1
    decay_mult: 1
  }
  param {
    lr_mult: 2
    decay_mult: 0
  }
  convolution_param {
    num_output: 4096
    pad: 0
    kernel_size: 7
    stride: 1
    weight_filler {
      type: "xavier"
    }
  }
}
layer {
  name: "relu6"
  type: "ReLU"
  bottom: "fc6"
  top: "fc6"
}
layer {
  name: "drop6"
  type: "Dropout"
  bottom: "fc6"
  top: "fc6"
  dropout_param {
    dropout_ratio: 0.5
  }
}
layer {
  name: "fc7"
  type: "Convolution"
  bottom: "fc6"
  top: "fc7"
  param {
    lr_mult: 1
    decay_mult: 1
  }
  param {
    lr_mult: 2
    decay_mult: 0
  }
  convolution_param {
    num_output: 4096
    pad: 0
    kernel_size: 1
    stride: 1
    weight_filler {
      type: "xavier"
    }
  }
}
layer {
  name: "relu7"
  type: "ReLU"
  bottom: "fc7"
  top: "fc7"
}
layer {
  name: "drop7"
  type: "Dropout"
  bottom: "fc7"
  top: "fc7"
  dropout_param {
    dropout_ratio: 0.5
  }
}
layer {
  name: "score_fr"
  type: "Convolution"
  bottom: "fc7"
  top: "score_fr"
  param {
    lr_mult: 1
    decay_mult: 1
  }
  param {
    lr_mult: 2
    decay_mult: 0
  }
  convolution_param {
    num_output: 5
    pad: 0
    kernel_size: 1
    weight_filler {
      type: "xavier"
    }
  }
}
layer {
  name: "upscore2"
  type: "Deconvolution"
  bottom: "score_fr"
  top: "upscore2"
  param {
    lr_mult: 0
  }
  convolution_param {
    num_output: 5
    bias_term: false
    kernel_size: 4
    stride: 2
    weight_filler {
      type: "xavier"
    }
  }
}
layer {
  name: "scale_pool4"
  type: "Scale"
  bottom: "pool4"
  top: "scale_pool4"
  param {
    lr_mult: 0
  }
  scale_param {
    filler {
      type: "constant"
      value: 0.01
    }
  }
}
layer {
  name: "score_pool4"
  type: "Convolution"
  bottom: "scale_pool4"
  top: "score_pool4"
  param {
    lr_mult: 1
    decay_mult: 1
  }
  param {
    lr_mult: 2
    decay_mult: 0
  }
  convolution_param {
    num_output: 5
    pad: 0
    kernel_size: 1
    weight_filler {
      type: "xavier"
    }
  }
}
layer {
  name: "score_pool4c"
  type: "Crop"
  bottom: "score_pool4"
  bottom: "upscore2"
  top: "score_pool4c"
  crop_param {
    axis: 2
    offset: 5
  }
}
layer {
  name: "fuse_pool4"
  type: "Eltwise"
  bottom: "upscore2"
  bottom: "score_pool4c"
  top: "fuse_pool4"
  eltwise_param {
    operation: SUM
  }
}
layer {
  name: "upscore_pool4"
  type: "Deconvolution"
  bottom: "fuse_pool4"
  top: "upscore_pool4"
  param {
    lr_mult: 0
  }
  convolution_param {
    num_output: 5
    bias_term: false
    kernel_size: 4
    stride: 2
    weight_filler {
      type: "xavier"
    }
  }
}
layer {
  name: "scale_pool3"
  type: "Scale"
  bottom: "pool3"
  top: "scale_pool3"
  param {
    lr_mult: 0
  }
  scale_param {
    filler {
      type: "constant"
      value: 0.0001
    }
  }
}
layer {
  name: "score_pool3"
  type: "Convolution"
  bottom: "scale_pool3"
  top: "score_pool3"
  param {
    lr_mult: 1
    decay_mult: 1
  }
  param {
    lr_mult: 2
    decay_mult: 0
  }
  convolution_param {
    num_output: 5
    pad: 0
    kernel_size: 1
    weight_filler {
      type: "xavier"
    }
  }
}
layer {
  name: "score_pool3c"
  type: "Crop"
  bottom: "score_pool3"
  bottom: "upscore_pool4"
  top: "score_pool3c"
  crop_param {
    axis: 2
    offset: 9
  }
}
layer {
  name: "fuse_pool3"
  type: "Eltwise"
  bottom: "upscore_pool4"
  bottom: "score_pool3c"
  top: "fuse_pool3"
  eltwise_param {
    operation: SUM
  }
}
layer {
  name: "upscore8"
  type: "Deconvolution"
  bottom: "fuse_pool3"
  top: "upscore8"
  param {
    lr_mult: 0
  }
  convolution_param {
    num_output: 5
    bias_term: false
    kernel_size: 16
    stride: 8
    weight_filler {
      type: "xavier"
    }
  }
}
layer {
  name: "score"
  type: "Crop"
  bottom: "upscore8"
  bottom: "data"
  top: "score"
  crop_param {
    axis: 2
    offset: 31
  }
}
layer {
  name: "loss"
  type: "SoftmaxWithLoss"
  bottom: "score"
  bottom: "label"
  top: "loss"
  loss_param {
    ignore_label: 255
    normalize: false
  }
}
I0123 15:56:50.408607 18171 layer_factory.hpp:77] Creating layer data
I0123 15:56:50.408749 18171 net.cpp:100] Creating Layer data
I0123 15:56:50.408761 18171 net.cpp:408] data -> data
I0123 15:56:50.408769 18171 net.cpp:408] data -> label
I0123 15:56:50.420497 18171 net.cpp:150] Setting up data
I0123 15:56:50.420516 18171 net.cpp:157] Top shape: 1 3 366 500 (549000)
I0123 15:56:50.420523 18171 net.cpp:157] Top shape: 1 1 366 500 (183000)
I0123 15:56:50.420527 18171 net.cpp:165] Memory required for data: 2928000
I0123 15:56:50.420532 18171 layer_factory.hpp:77] Creating layer data_data_0_split
I0123 15:56:50.420542 18171 net.cpp:100] Creating Layer data_data_0_split
I0123 15:56:50.420545 18171 net.cpp:434] data_data_0_split <- data
I0123 15:56:50.420552 18171 net.cpp:408] data_data_0_split -> data_data_0_split_0
I0123 15:56:50.420562 18171 net.cpp:408] data_data_0_split -> data_data_0_split_1
I0123 15:56:50.420605 18171 net.cpp:150] Setting up data_data_0_split
I0123 15:56:50.420614 18171 net.cpp:157] Top shape: 1 3 366 500 (549000)
I0123 15:56:50.420619 18171 net.cpp:157] Top shape: 1 3 366 500 (549000)
I0123 15:56:50.420622 18171 net.cpp:165] Memory required for data: 7320000
I0123 15:56:50.420627 18171 layer_factory.hpp:77] Creating layer conv1_1
I0123 15:56:50.420637 18171 net.cpp:100] Creating Layer conv1_1
I0123 15:56:50.420642 18171 net.cpp:434] conv1_1 <- data_data_0_split_0
I0123 15:56:50.420650 18171 net.cpp:408] conv1_1 -> conv1_1
I0123 15:56:50.422791 18171 net.cpp:150] Setting up conv1_1
I0123 15:56:50.422811 18171 net.cpp:157] Top shape: 1 64 564 698 (25195008)
I0123 15:56:50.422816 18171 net.cpp:165] Memory required for data: 108100032
I0123 15:56:50.422827 18171 layer_factory.hpp:77] Creating layer relu1_1
I0123 15:56:50.422835 18171 net.cpp:100] Creating Layer relu1_1
I0123 15:56:50.422840 18171 net.cpp:434] relu1_1 <- conv1_1
I0123 15:56:50.422847 18171 net.cpp:395] relu1_1 -> conv1_1 (in-place)
I0123 15:56:50.423043 18171 net.cpp:150] Setting up relu1_1
I0123 15:56:50.423053 18171 net.cpp:157] Top shape: 1 64 564 698 (25195008)
I0123 15:56:50.423058 18171 net.cpp:165] Memory required for data: 208880064
I0123 15:56:50.423063 18171 layer_factory.hpp:77] Creating layer conv1_2
I0123 15:56:50.423074 18171 net.cpp:100] Creating Layer conv1_2
I0123 15:56:50.423077 18171 net.cpp:434] conv1_2 <- conv1_1
I0123 15:56:50.423084 18171 net.cpp:408] conv1_2 -> conv1_2
I0123 15:56:50.425881 18171 net.cpp:150] Setting up conv1_2
I0123 15:56:50.425902 18171 net.cpp:157] Top shape: 1 64 564 698 (25195008)
I0123 15:56:50.425906 18171 net.cpp:165] Memory required for data: 309660096
I0123 15:56:50.425918 18171 layer_factory.hpp:77] Creating layer relu1_2
I0123 15:56:50.425927 18171 net.cpp:100] Creating Layer relu1_2
I0123 15:56:50.425931 18171 net.cpp:434] relu1_2 <- conv1_2
I0123 15:56:50.425938 18171 net.cpp:395] relu1_2 -> conv1_2 (in-place)
I0123 15:56:50.426307 18171 net.cpp:150] Setting up relu1_2
I0123 15:56:50.426322 18171 net.cpp:157] Top shape: 1 64 564 698 (25195008)
I0123 15:56:50.426327 18171 net.cpp:165] Memory required for data: 410440128
I0123 15:56:50.426331 18171 layer_factory.hpp:77] Creating layer pool1
I0123 15:56:50.426339 18171 net.cpp:100] Creating Layer pool1
I0123 15:56:50.426344 18171 net.cpp:434] pool1 <- conv1_2
I0123 15:56:50.426352 18171 net.cpp:408] pool1 -> pool1
I0123 15:56:50.426403 18171 net.cpp:150] Setting up pool1
I0123 15:56:50.426411 18171 net.cpp:157] Top shape: 1 64 282 349 (6298752)
I0123 15:56:50.426415 18171 net.cpp:165] Memory required for data: 435635136
I0123 15:56:50.426419 18171 layer_factory.hpp:77] Creating layer conv2_1
I0123 15:56:50.426429 18171 net.cpp:100] Creating Layer conv2_1
I0123 15:56:50.426434 18171 net.cpp:434] conv2_1 <- pool1
I0123 15:56:50.426441 18171 net.cpp:408] conv2_1 -> conv2_1
I0123 15:56:50.428622 18171 net.cpp:150] Setting up conv2_1
I0123 15:56:50.428638 18171 net.cpp:157] Top shape: 1 128 282 349 (12597504)
I0123 15:56:50.428643 18171 net.cpp:165] Memory required for data: 486025152
I0123 15:56:50.428655 18171 layer_factory.hpp:77] Creating layer relu2_1
I0123 15:56:50.428664 18171 net.cpp:100] Creating Layer relu2_1
I0123 15:56:50.428669 18171 net.cpp:434] relu2_1 <- conv2_1
I0123 15:56:50.428675 18171 net.cpp:395] relu2_1 -> conv2_1 (in-place)
I0123 15:56:50.429054 18171 net.cpp:150] Setting up relu2_1
I0123 15:56:50.429069 18171 net.cpp:157] Top shape: 1 128 282 349 (12597504)
I0123 15:56:50.429074 18171 net.cpp:165] Memory required for data: 536415168
I0123 15:56:50.429078 18171 layer_factory.hpp:77] Creating layer conv2_2
I0123 15:56:50.429088 18171 net.cpp:100] Creating Layer conv2_2
I0123 15:56:50.429093 18171 net.cpp:434] conv2_2 <- conv2_1
I0123 15:56:50.429101 18171 net.cpp:408] conv2_2 -> conv2_2
I0123 15:56:50.431653 18171 net.cpp:150] Setting up conv2_2
I0123 15:56:50.431671 18171 net.cpp:157] Top shape: 1 128 282 349 (12597504)
I0123 15:56:50.431675 18171 net.cpp:165] Memory required for data: 586805184
I0123 15:56:50.431684 18171 layer_factory.hpp:77] Creating layer relu2_2
I0123 15:56:50.431692 18171 net.cpp:100] Creating Layer relu2_2
I0123 15:56:50.431697 18171 net.cpp:434] relu2_2 <- conv2_2
I0123 15:56:50.431704 18171 net.cpp:395] relu2_2 -> conv2_2 (in-place)
I0123 15:56:50.431895 18171 net.cpp:150] Setting up relu2_2
I0123 15:56:50.431906 18171 net.cpp:157] Top shape: 1 128 282 349 (12597504)
I0123 15:56:50.431910 18171 net.cpp:165] Memory required for data: 637195200
I0123 15:56:50.431915 18171 layer_factory.hpp:77] Creating layer pool2
I0123 15:56:50.431922 18171 net.cpp:100] Creating Layer pool2
I0123 15:56:50.431927 18171 net.cpp:434] pool2 <- conv2_2
I0123 15:56:50.431933 18171 net.cpp:408] pool2 -> pool2
I0123 15:56:50.431985 18171 net.cpp:150] Setting up pool2
I0123 15:56:50.431993 18171 net.cpp:157] Top shape: 1 128 141 175 (3158400)
I0123 15:56:50.431998 18171 net.cpp:165] Memory required for data: 649828800
I0123 15:56:50.432003 18171 layer_factory.hpp:77] Creating layer conv3_1
I0123 15:56:50.432011 18171 net.cpp:100] Creating Layer conv3_1
I0123 15:56:50.432016 18171 net.cpp:434] conv3_1 <- pool2
I0123 15:56:50.432024 18171 net.cpp:408] conv3_1 -> conv3_1
I0123 15:56:50.435291 18171 net.cpp:150] Setting up conv3_1
I0123 15:56:50.435307 18171 net.cpp:157] Top shape: 1 256 141 175 (6316800)
I0123 15:56:50.435312 18171 net.cpp:165] Memory required for data: 675096000
I0123 15:56:50.435323 18171 layer_factory.hpp:77] Creating layer relu3_1
I0123 15:56:50.435331 18171 net.cpp:100] Creating Layer relu3_1
I0123 15:56:50.435343 18171 net.cpp:434] relu3_1 <- conv3_1
I0123 15:56:50.435349 18171 net.cpp:395] relu3_1 -> conv3_1 (in-place)
I0123 15:56:50.435710 18171 net.cpp:150] Setting up relu3_1
I0123 15:56:50.435724 18171 net.cpp:157] Top shape: 1 256 141 175 (6316800)
I0123 15:56:50.435729 18171 net.cpp:165] Memory required for data: 700363200
I0123 15:56:50.435734 18171 layer_factory.hpp:77] Creating layer conv3_2
I0123 15:56:50.435745 18171 net.cpp:100] Creating Layer conv3_2
I0123 15:56:50.435750 18171 net.cpp:434] conv3_2 <- conv3_1
I0123 15:56:50.435757 18171 net.cpp:408] conv3_2 -> conv3_2
I0123 15:56:50.440951 18171 net.cpp:150] Setting up conv3_2
I0123 15:56:50.440968 18171 net.cpp:157] Top shape: 1 256 141 175 (6316800)
I0123 15:56:50.440973 18171 net.cpp:165] Memory required for data: 725630400
I0123 15:56:50.440981 18171 layer_factory.hpp:77] Creating layer relu3_2
I0123 15:56:50.440989 18171 net.cpp:100] Creating Layer relu3_2
I0123 15:56:50.440994 18171 net.cpp:434] relu3_2 <- conv3_2
I0123 15:56:50.441001 18171 net.cpp:395] relu3_2 -> conv3_2 (in-place)
I0123 15:56:50.441191 18171 net.cpp:150] Setting up relu3_2
I0123 15:56:50.441202 18171 net.cpp:157] Top shape: 1 256 141 175 (6316800)
I0123 15:56:50.441206 18171 net.cpp:165] Memory required for data: 750897600
I0123 15:56:50.441211 18171 layer_factory.hpp:77] Creating layer conv3_3
I0123 15:56:50.441223 18171 net.cpp:100] Creating Layer conv3_3
I0123 15:56:50.441228 18171 net.cpp:434] conv3_3 <- conv3_2
I0123 15:56:50.441236 18171 net.cpp:408] conv3_3 -> conv3_3
I0123 15:56:50.446441 18171 net.cpp:150] Setting up conv3_3
I0123 15:56:50.446460 18171 net.cpp:157] Top shape: 1 256 141 175 (6316800)
I0123 15:56:50.446463 18171 net.cpp:165] Memory required for data: 776164800
I0123 15:56:50.446472 18171 layer_factory.hpp:77] Creating layer relu3_3
I0123 15:56:50.446480 18171 net.cpp:100] Creating Layer relu3_3
I0123 15:56:50.446485 18171 net.cpp:434] relu3_3 <- conv3_3
I0123 15:56:50.446492 18171 net.cpp:395] relu3_3 -> conv3_3 (in-place)
I0123 15:56:50.446684 18171 net.cpp:150] Setting up relu3_3
I0123 15:56:50.446696 18171 net.cpp:157] Top shape: 1 256 141 175 (6316800)
I0123 15:56:50.446701 18171 net.cpp:165] Memory required for data: 801432000
I0123 15:56:50.446705 18171 layer_factory.hpp:77] Creating layer pool3
I0123 15:56:50.446713 18171 net.cpp:100] Creating Layer pool3
I0123 15:56:50.446717 18171 net.cpp:434] pool3 <- conv3_3
I0123 15:56:50.446724 18171 net.cpp:408] pool3 -> pool3
I0123 15:56:50.446779 18171 net.cpp:150] Setting up pool3
I0123 15:56:50.446786 18171 net.cpp:157] Top shape: 1 256 71 88 (1599488)
I0123 15:56:50.446790 18171 net.cpp:165] Memory required for data: 807829952
I0123 15:56:50.446794 18171 layer_factory.hpp:77] Creating layer pool3_pool3_0_split
I0123 15:56:50.446801 18171 net.cpp:100] Creating Layer pool3_pool3_0_split
I0123 15:56:50.446805 18171 net.cpp:434] pool3_pool3_0_split <- pool3
I0123 15:56:50.446811 18171 net.cpp:408] pool3_pool3_0_split -> pool3_pool3_0_split_0
I0123 15:56:50.446818 18171 net.cpp:408] pool3_pool3_0_split -> pool3_pool3_0_split_1
I0123 15:56:50.446859 18171 net.cpp:150] Setting up pool3_pool3_0_split
I0123 15:56:50.446867 18171 net.cpp:157] Top shape: 1 256 71 88 (1599488)
I0123 15:56:50.446872 18171 net.cpp:157] Top shape: 1 256 71 88 (1599488)
I0123 15:56:50.446876 18171 net.cpp:165] Memory required for data: 820625856
I0123 15:56:50.446879 18171 layer_factory.hpp:77] Creating layer conv4_1
I0123 15:56:50.446889 18171 net.cpp:100] Creating Layer conv4_1
I0123 15:56:50.446894 18171 net.cpp:434] conv4_1 <- pool3_pool3_0_split_0
I0123 15:56:50.446902 18171 net.cpp:408] conv4_1 -> conv4_1
I0123 15:56:50.455910 18171 net.cpp:150] Setting up conv4_1
I0123 15:56:50.455930 18171 net.cpp:157] Top shape: 1 512 71 88 (3198976)
I0123 15:56:50.455935 18171 net.cpp:165] Memory required for data: 833421760
I0123 15:56:50.455943 18171 layer_factory.hpp:77] Creating layer relu4_1
I0123 15:56:50.455952 18171 net.cpp:100] Creating Layer relu4_1
I0123 15:56:50.455957 18171 net.cpp:434] relu4_1 <- conv4_1
I0123 15:56:50.455971 18171 net.cpp:395] relu4_1 -> conv4_1 (in-place)
I0123 15:56:50.456351 18171 net.cpp:150] Setting up relu4_1
I0123 15:56:50.456364 18171 net.cpp:157] Top shape: 1 512 71 88 (3198976)
I0123 15:56:50.456369 18171 net.cpp:165] Memory required for data: 846217664
I0123 15:56:50.456373 18171 layer_factory.hpp:77] Creating layer conv4_2
I0123 15:56:50.456385 18171 net.cpp:100] Creating Layer conv4_2
I0123 15:56:50.456390 18171 net.cpp:434] conv4_2 <- conv4_1
I0123 15:56:50.456398 18171 net.cpp:408] conv4_2 -> conv4_2
I0123 15:56:50.473268 18171 net.cpp:150] Setting up conv4_2
I0123 15:56:50.473294 18171 net.cpp:157] Top shape: 1 512 71 88 (3198976)
I0123 15:56:50.473299 18171 net.cpp:165] Memory required for data: 859013568
I0123 15:56:50.473316 18171 layer_factory.hpp:77] Creating layer relu4_2
I0123 15:56:50.473325 18171 net.cpp:100] Creating Layer relu4_2
I0123 15:56:50.473330 18171 net.cpp:434] relu4_2 <- conv4_2
I0123 15:56:50.473337 18171 net.cpp:395] relu4_2 -> conv4_2 (in-place)
I0123 15:56:50.473552 18171 net.cpp:150] Setting up relu4_2
I0123 15:56:50.473564 18171 net.cpp:157] Top shape: 1 512 71 88 (3198976)
I0123 15:56:50.473568 18171 net.cpp:165] Memory required for data: 871809472
I0123 15:56:50.473573 18171 layer_factory.hpp:77] Creating layer conv4_3
I0123 15:56:50.473587 18171 net.cpp:100] Creating Layer conv4_3
I0123 15:56:50.473592 18171 net.cpp:434] conv4_3 <- conv4_2
I0123 15:56:50.473599 18171 net.cpp:408] conv4_3 -> conv4_3
I0123 15:56:50.490721 18171 net.cpp:150] Setting up conv4_3
I0123 15:56:50.490747 18171 net.cpp:157] Top shape: 1 512 71 88 (3198976)
I0123 15:56:50.490752 18171 net.cpp:165] Memory required for data: 884605376
I0123 15:56:50.490762 18171 layer_factory.hpp:77] Creating layer relu4_3
I0123 15:56:50.490772 18171 net.cpp:100] Creating Layer relu4_3
I0123 15:56:50.490777 18171 net.cpp:434] relu4_3 <- conv4_3
I0123 15:56:50.490783 18171 net.cpp:395] relu4_3 -> conv4_3 (in-place)
I0123 15:56:50.491005 18171 net.cpp:150] Setting up relu4_3
I0123 15:56:50.491017 18171 net.cpp:157] Top shape: 1 512 71 88 (3198976)
I0123 15:56:50.491021 18171 net.cpp:165] Memory required for data: 897401280
I0123 15:56:50.491026 18171 layer_factory.hpp:77] Creating layer pool4
I0123 15:56:50.491035 18171 net.cpp:100] Creating Layer pool4
I0123 15:56:50.491039 18171 net.cpp:434] pool4 <- conv4_3
I0123 15:56:50.491049 18171 net.cpp:408] pool4 -> pool4
I0123 15:56:50.491106 18171 net.cpp:150] Setting up pool4
I0123 15:56:50.491113 18171 net.cpp:157] Top shape: 1 512 36 44 (811008)
I0123 15:56:50.491117 18171 net.cpp:165] Memory required for data: 900645312
I0123 15:56:50.491122 18171 layer_factory.hpp:77] Creating layer pool4_pool4_0_split
I0123 15:56:50.491132 18171 net.cpp:100] Creating Layer pool4_pool4_0_split
I0123 15:56:50.491135 18171 net.cpp:434] pool4_pool4_0_split <- pool4
I0123 15:56:50.491142 18171 net.cpp:408] pool4_pool4_0_split -> pool4_pool4_0_split_0
I0123 15:56:50.491148 18171 net.cpp:408] pool4_pool4_0_split -> pool4_pool4_0_split_1
I0123 15:56:50.491195 18171 net.cpp:150] Setting up pool4_pool4_0_split
I0123 15:56:50.491204 18171 net.cpp:157] Top shape: 1 512 36 44 (811008)
I0123 15:56:50.491209 18171 net.cpp:157] Top shape: 1 512 36 44 (811008)
I0123 15:56:50.491212 18171 net.cpp:165] Memory required for data: 907133376
I0123 15:56:50.491216 18171 layer_factory.hpp:77] Creating layer conv5_1
I0123 15:56:50.491230 18171 net.cpp:100] Creating Layer conv5_1
I0123 15:56:50.491235 18171 net.cpp:434] conv5_1 <- pool4_pool4_0_split_0
I0123 15:56:50.491243 18171 net.cpp:408] conv5_1 -> conv5_1
I0123 15:56:50.508021 18171 net.cpp:150] Setting up conv5_1
I0123 15:56:50.508049 18171 net.cpp:157] Top shape: 1 512 36 44 (811008)
I0123 15:56:50.508054 18171 net.cpp:165] Memory required for data: 910377408
I0123 15:56:50.508062 18171 layer_factory.hpp:77] Creating layer relu5_1
I0123 15:56:50.508074 18171 net.cpp:100] Creating Layer relu5_1
I0123 15:56:50.508080 18171 net.cpp:434] relu5_1 <- conv5_1
I0123 15:56:50.508086 18171 net.cpp:395] relu5_1 -> conv5_1 (in-place)
I0123 15:56:50.508487 18171 net.cpp:150] Setting up relu5_1
I0123 15:56:50.508502 18171 net.cpp:157] Top shape: 1 512 36 44 (811008)
I0123 15:56:50.508507 18171 net.cpp:165] Memory required for data: 913621440
I0123 15:56:50.508512 18171 layer_factory.hpp:77] Creating layer conv5_2
I0123 15:56:50.508524 18171 net.cpp:100] Creating Layer conv5_2
I0123 15:56:50.508529 18171 net.cpp:434] conv5_2 <- conv5_1
I0123 15:56:50.508539 18171 net.cpp:408] conv5_2 -> conv5_2
I0123 15:56:50.525482 18171 net.cpp:150] Setting up conv5_2
I0123 15:56:50.525507 18171 net.cpp:157] Top shape: 1 512 36 44 (811008)
I0123 15:56:50.525512 18171 net.cpp:165] Memory required for data: 916865472
I0123 15:56:50.525522 18171 layer_factory.hpp:77] Creating layer relu5_2
I0123 15:56:50.525533 18171 net.cpp:100] Creating Layer relu5_2
I0123 15:56:50.525539 18171 net.cpp:434] relu5_2 <- conv5_2
I0123 15:56:50.525547 18171 net.cpp:395] relu5_2 -> conv5_2 (in-place)
I0123 15:56:50.525763 18171 net.cpp:150] Setting up relu5_2
I0123 15:56:50.525774 18171 net.cpp:157] Top shape: 1 512 36 44 (811008)
I0123 15:56:50.525779 18171 net.cpp:165] Memory required for data: 920109504
I0123 15:56:50.525784 18171 layer_factory.hpp:77] Creating layer conv5_3
I0123 15:56:50.525804 18171 net.cpp:100] Creating Layer conv5_3
I0123 15:56:50.525809 18171 net.cpp:434] conv5_3 <- conv5_2
I0123 15:56:50.525817 18171 net.cpp:408] conv5_3 -> conv5_3
I0123 15:56:50.542688 18171 net.cpp:150] Setting up conv5_3
I0123 15:56:50.542712 18171 net.cpp:157] Top shape: 1 512 36 44 (811008)
I0123 15:56:50.542717 18171 net.cpp:165] Memory required for data: 923353536
I0123 15:56:50.542727 18171 layer_factory.hpp:77] Creating layer relu5_3
I0123 15:56:50.542737 18171 net.cpp:100] Creating Layer relu5_3
I0123 15:56:50.542742 18171 net.cpp:434] relu5_3 <- conv5_3
I0123 15:56:50.542750 18171 net.cpp:395] relu5_3 -> conv5_3 (in-place)
I0123 15:56:50.542958 18171 net.cpp:150] Setting up relu5_3
I0123 15:56:50.542969 18171 net.cpp:157] Top shape: 1 512 36 44 (811008)
I0123 15:56:50.542973 18171 net.cpp:165] Memory required for data: 926597568
I0123 15:56:50.542979 18171 layer_factory.hpp:77] Creating layer pool5
I0123 15:56:50.542989 18171 net.cpp:100] Creating Layer pool5
I0123 15:56:50.542994 18171 net.cpp:434] pool5 <- conv5_3
I0123 15:56:50.543000 18171 net.cpp:408] pool5 -> pool5
I0123 15:56:50.543062 18171 net.cpp:150] Setting up pool5
I0123 15:56:50.543071 18171 net.cpp:157] Top shape: 1 512 18 22 (202752)
I0123 15:56:50.543076 18171 net.cpp:165] Memory required for data: 927408576
I0123 15:56:50.543079 18171 layer_factory.hpp:77] Creating layer fc6
I0123 15:56:50.543092 18171 net.cpp:100] Creating Layer fc6
I0123 15:56:50.543097 18171 net.cpp:434] fc6 <- pool5
I0123 15:56:50.543104 18171 net.cpp:408] fc6 -> fc6
I0123 15:56:51.289829 18171 net.cpp:150] Setting up fc6
I0123 15:56:51.289880 18171 net.cpp:157] Top shape: 1 4096 12 16 (786432)
I0123 15:56:51.289887 18171 net.cpp:165] Memory required for data: 930554304
I0123 15:56:51.289902 18171 layer_factory.hpp:77] Creating layer relu6
I0123 15:56:51.289916 18171 net.cpp:100] Creating Layer relu6
I0123 15:56:51.289921 18171 net.cpp:434] relu6 <- fc6
I0123 15:56:51.289929 18171 net.cpp:395] relu6 -> fc6 (in-place)
I0123 15:56:51.290343 18171 net.cpp:150] Setting up relu6
I0123 15:56:51.290359 18171 net.cpp:157] Top shape: 1 4096 12 16 (786432)
I0123 15:56:51.290362 18171 net.cpp:165] Memory required for data: 933700032
I0123 15:56:51.290367 18171 layer_factory.hpp:77] Creating layer drop6
I0123 15:56:51.290380 18171 net.cpp:100] Creating Layer drop6
I0123 15:56:51.290385 18171 net.cpp:434] drop6 <- fc6
I0123 15:56:51.290390 18171 net.cpp:395] drop6 -> fc6 (in-place)
I0123 15:56:51.290434 18171 net.cpp:150] Setting up drop6
I0123 15:56:51.290443 18171 net.cpp:157] Top shape: 1 4096 12 16 (786432)
I0123 15:56:51.290447 18171 net.cpp:165] Memory required for data: 936845760
I0123 15:56:51.290452 18171 layer_factory.hpp:77] Creating layer fc7
I0123 15:56:51.290465 18171 net.cpp:100] Creating Layer fc7
I0123 15:56:51.290470 18171 net.cpp:434] fc7 <- fc6
I0123 15:56:51.290493 18171 net.cpp:408] fc7 -> fc7
I0123 15:56:51.430796 18171 net.cpp:150] Setting up fc7
I0123 15:56:51.430846 18171 net.cpp:157] Top shape: 1 4096 12 16 (786432)
I0123 15:56:51.430851 18171 net.cpp:165] Memory required for data: 939991488
I0123 15:56:51.430862 18171 layer_factory.hpp:77] Creating layer relu7
I0123 15:56:51.430874 18171 net.cpp:100] Creating Layer relu7
I0123 15:56:51.430881 18171 net.cpp:434] relu7 <- fc7
I0123 15:56:51.430891 18171 net.cpp:395] relu7 -> fc7 (in-place)
I0123 15:56:51.431110 18171 net.cpp:150] Setting up relu7
I0123 15:56:51.431121 18171 net.cpp:157] Top shape: 1 4096 12 16 (786432)
I0123 15:56:51.431125 18171 net.cpp:165] Memory required for data: 943137216
I0123 15:56:51.431130 18171 layer_factory.hpp:77] Creating layer drop7
I0123 15:56:51.431141 18171 net.cpp:100] Creating Layer drop7
I0123 15:56:51.431146 18171 net.cpp:434] drop7 <- fc7
I0123 15:56:51.431154 18171 net.cpp:395] drop7 -> fc7 (in-place)
I0123 15:56:51.431195 18171 net.cpp:150] Setting up drop7
I0123 15:56:51.431202 18171 net.cpp:157] Top shape: 1 4096 12 16 (786432)
I0123 15:56:51.431206 18171 net.cpp:165] Memory required for data: 946282944
I0123 15:56:51.431211 18171 layer_factory.hpp:77] Creating layer score_fr
I0123 15:56:51.431226 18171 net.cpp:100] Creating Layer score_fr
I0123 15:56:51.431231 18171 net.cpp:434] score_fr <- fc7
I0123 15:56:51.431239 18171 net.cpp:408] score_fr -> score_fr
I0123 15:56:51.432915 18171 net.cpp:150] Setting up score_fr
I0123 15:56:51.432931 18171 net.cpp:157] Top shape: 1 5 12 16 (960)
I0123 15:56:51.432936 18171 net.cpp:165] Memory required for data: 946286784
I0123 15:56:51.432948 18171 layer_factory.hpp:77] Creating layer upscore2
I0123 15:56:51.432961 18171 net.cpp:100] Creating Layer upscore2
I0123 15:56:51.432966 18171 net.cpp:434] upscore2 <- score_fr
I0123 15:56:51.432974 18171 net.cpp:408] upscore2 -> upscore2
I0123 15:56:51.433238 18171 net.cpp:150] Setting up upscore2
I0123 15:56:51.433249 18171 net.cpp:157] Top shape: 1 5 26 34 (4420)
I0123 15:56:51.433254 18171 net.cpp:165] Memory required for data: 946304464
I0123 15:56:51.433269 18171 layer_factory.hpp:77] Creating layer upscore2_upscore2_0_split
I0123 15:56:51.433277 18171 net.cpp:100] Creating Layer upscore2_upscore2_0_split
I0123 15:56:51.433281 18171 net.cpp:434] upscore2_upscore2_0_split <- upscore2
I0123 15:56:51.433289 18171 net.cpp:408] upscore2_upscore2_0_split -> upscore2_upscore2_0_split_0
I0123 15:56:51.433296 18171 net.cpp:408] upscore2_upscore2_0_split -> upscore2_upscore2_0_split_1
I0123 15:56:51.433346 18171 net.cpp:150] Setting up upscore2_upscore2_0_split
I0123 15:56:51.433354 18171 net.cpp:157] Top shape: 1 5 26 34 (4420)
I0123 15:56:51.433359 18171 net.cpp:157] Top shape: 1 5 26 34 (4420)
I0123 15:56:51.433363 18171 net.cpp:165] Memory required for data: 946339824
I0123 15:56:51.433368 18171 layer_factory.hpp:77] Creating layer scale_pool4
I0123 15:56:51.433379 18171 net.cpp:100] Creating Layer scale_pool4
I0123 15:56:51.433384 18171 net.cpp:434] scale_pool4 <- pool4_pool4_0_split_1
I0123 15:56:51.433392 18171 net.cpp:408] scale_pool4 -> scale_pool4
I0123 15:56:51.433518 18171 net.cpp:150] Setting up scale_pool4
I0123 15:56:51.433531 18171 net.cpp:157] Top shape: 1 512 36 44 (811008)
I0123 15:56:51.433535 18171 net.cpp:165] Memory required for data: 949583856
I0123 15:56:51.433542 18171 layer_factory.hpp:77] Creating layer score_pool4
I0123 15:56:51.433553 18171 net.cpp:100] Creating Layer score_pool4
I0123 15:56:51.433558 18171 net.cpp:434] score_pool4 <- scale_pool4
I0123 15:56:51.433565 18171 net.cpp:408] score_pool4 -> score_pool4
I0123 15:56:51.434937 18171 net.cpp:150] Setting up score_pool4
I0123 15:56:51.434952 18171 net.cpp:157] Top shape: 1 5 36 44 (7920)
I0123 15:56:51.434957 18171 net.cpp:165] Memory required for data: 949615536
I0123 15:56:51.434967 18171 layer_factory.hpp:77] Creating layer score_pool4c
I0123 15:56:51.434978 18171 net.cpp:100] Creating Layer score_pool4c
I0123 15:56:51.434983 18171 net.cpp:434] score_pool4c <- score_pool4
I0123 15:56:51.434988 18171 net.cpp:434] score_pool4c <- upscore2_upscore2_0_split_0
I0123 15:56:51.435008 18171 net.cpp:408] score_pool4c -> score_pool4c
I0123 15:56:51.435048 18171 net.cpp:150] Setting up score_pool4c
I0123 15:56:51.435056 18171 net.cpp:157] Top shape: 1 5 26 34 (4420)
I0123 15:56:51.435060 18171 net.cpp:165] Memory required for data: 949633216
I0123 15:56:51.435065 18171 layer_factory.hpp:77] Creating layer fuse_pool4
I0123 15:56:51.435072 18171 net.cpp:100] Creating Layer fuse_pool4
I0123 15:56:51.435077 18171 net.cpp:434] fuse_pool4 <- upscore2_upscore2_0_split_1
I0123 15:56:51.435082 18171 net.cpp:434] fuse_pool4 <- score_pool4c
I0123 15:56:51.435091 18171 net.cpp:408] fuse_pool4 -> fuse_pool4
I0123 15:56:51.435127 18171 net.cpp:150] Setting up fuse_pool4
I0123 15:56:51.435133 18171 net.cpp:157] Top shape: 1 5 26 34 (4420)
I0123 15:56:51.435137 18171 net.cpp:165] Memory required for data: 949650896
I0123 15:56:51.435142 18171 layer_factory.hpp:77] Creating layer upscore_pool4
I0123 15:56:51.435153 18171 net.cpp:100] Creating Layer upscore_pool4
I0123 15:56:51.435158 18171 net.cpp:434] upscore_pool4 <- fuse_pool4
I0123 15:56:51.435163 18171 net.cpp:408] upscore_pool4 -> upscore_pool4
I0123 15:56:51.435416 18171 net.cpp:150] Setting up upscore_pool4
I0123 15:56:51.435425 18171 net.cpp:157] Top shape: 1 5 54 70 (18900)
I0123 15:56:51.435430 18171 net.cpp:165] Memory required for data: 949726496
I0123 15:56:51.435436 18171 layer_factory.hpp:77] Creating layer upscore_pool4_upscore_pool4_0_split
I0123 15:56:51.435446 18171 net.cpp:100] Creating Layer upscore_pool4_upscore_pool4_0_split
I0123 15:56:51.435451 18171 net.cpp:434] upscore_pool4_upscore_pool4_0_split <- upscore_pool4
I0123 15:56:51.435456 18171 net.cpp:408] upscore_pool4_upscore_pool4_0_split -> upscore_pool4_upscore_pool4_0_split_0
I0123 15:56:51.435463 18171 net.cpp:408] upscore_pool4_upscore_pool4_0_split -> upscore_pool4_upscore_pool4_0_split_1
I0123 15:56:51.435511 18171 net.cpp:150] Setting up upscore_pool4_upscore_pool4_0_split
I0123 15:56:51.435518 18171 net.cpp:157] Top shape: 1 5 54 70 (18900)
I0123 15:56:51.435523 18171 net.cpp:157] Top shape: 1 5 54 70 (18900)
I0123 15:56:51.435528 18171 net.cpp:165] Memory required for data: 949877696
I0123 15:56:51.435533 18171 layer_factory.hpp:77] Creating layer scale_pool3
I0123 15:56:51.435539 18171 net.cpp:100] Creating Layer scale_pool3
I0123 15:56:51.435544 18171 net.cpp:434] scale_pool3 <- pool3_pool3_0_split_1
I0123 15:56:51.435550 18171 net.cpp:408] scale_pool3 -> scale_pool3
I0123 15:56:51.435678 18171 net.cpp:150] Setting up scale_pool3
I0123 15:56:51.435686 18171 net.cpp:157] Top shape: 1 256 71 88 (1599488)
I0123 15:56:51.435690 18171 net.cpp:165] Memory required for data: 956275648
I0123 15:56:51.435695 18171 layer_factory.hpp:77] Creating layer score_pool3
I0123 15:56:51.435708 18171 net.cpp:100] Creating Layer score_pool3
I0123 15:56:51.435712 18171 net.cpp:434] score_pool3 <- scale_pool3
I0123 15:56:51.435721 18171 net.cpp:408] score_pool3 -> score_pool3
I0123 15:56:51.437074 18171 net.cpp:150] Setting up score_pool3
I0123 15:56:51.437089 18171 net.cpp:157] Top shape: 1 5 71 88 (31240)
I0123 15:56:51.437094 18171 net.cpp:165] Memory required for data: 956400608
I0123 15:56:51.437103 18171 layer_factory.hpp:77] Creating layer score_pool3c
I0123 15:56:51.437110 18171 net.cpp:100] Creating Layer score_pool3c
I0123 15:56:51.437115 18171 net.cpp:434] score_pool3c <- score_pool3
I0123 15:56:51.437121 18171 net.cpp:434] score_pool3c <- upscore_pool4_upscore_pool4_0_split_0
I0123 15:56:51.437129 18171 net.cpp:408] score_pool3c -> score_pool3c
I0123 15:56:51.437168 18171 net.cpp:150] Setting up score_pool3c
I0123 15:56:51.437176 18171 net.cpp:157] Top shape: 1 5 54 70 (18900)
I0123 15:56:51.437180 18171 net.cpp:165] Memory required for data: 956476208
I0123 15:56:51.437185 18171 layer_factory.hpp:77] Creating layer fuse_pool3
I0123 15:56:51.437194 18171 net.cpp:100] Creating Layer fuse_pool3
I0123 15:56:51.437199 18171 net.cpp:434] fuse_pool3 <- upscore_pool4_upscore_pool4_0_split_1
I0123 15:56:51.437204 18171 net.cpp:434] fuse_pool3 <- score_pool3c
I0123 15:56:51.437216 18171 net.cpp:408] fuse_pool3 -> fuse_pool3
I0123 15:56:51.437253 18171 net.cpp:150] Setting up fuse_pool3
I0123 15:56:51.437260 18171 net.cpp:157] Top shape: 1 5 54 70 (18900)
I0123 15:56:51.437264 18171 net.cpp:165] Memory required for data: 956551808
I0123 15:56:51.437269 18171 layer_factory.hpp:77] Creating layer upscore8
I0123 15:56:51.437279 18171 net.cpp:100] Creating Layer upscore8
I0123 15:56:51.437283 18171 net.cpp:434] upscore8 <- fuse_pool3
I0123 15:56:51.437290 18171 net.cpp:408] upscore8 -> upscore8
I0123 15:56:51.437578 18171 net.cpp:150] Setting up upscore8
I0123 15:56:51.437588 18171 net.cpp:157] Top shape: 1 5 440 568 (1249600)
I0123 15:56:51.437592 18171 net.cpp:165] Memory required for data: 961550208
I0123 15:56:51.437598 18171 layer_factory.hpp:77] Creating layer score
I0123 15:56:51.437605 18171 net.cpp:100] Creating Layer score
I0123 15:56:51.437610 18171 net.cpp:434] score <- upscore8
I0123 15:56:51.437618 18171 net.cpp:434] score <- data_data_0_split_1
I0123 15:56:51.437624 18171 net.cpp:408] score -> score
I0123 15:56:51.437662 18171 net.cpp:150] Setting up score
I0123 15:56:51.437671 18171 net.cpp:157] Top shape: 1 5 366 500 (915000)
I0123 15:56:51.437675 18171 net.cpp:165] Memory required for data: 965210208
I0123 15:56:51.437680 18171 layer_factory.hpp:77] Creating layer loss
I0123 15:56:51.437688 18171 net.cpp:100] Creating Layer loss
I0123 15:56:51.437692 18171 net.cpp:434] loss <- score
I0123 15:56:51.437697 18171 net.cpp:434] loss <- label
I0123 15:56:51.437707 18171 net.cpp:408] loss -> loss
I0123 15:56:51.437717 18171 layer_factory.hpp:77] Creating layer loss
…
