…
test_initialization: false
average_loss: 20
iter_size: 1
I1122 03:11:04.648005  7059 solver.cpp:81] Creating training net from train_net file: train.prototxt
I1122 03:11:04.649325  7059 net.cpp:58] Initializing net from parameters: 
state {
  phase: TRAIN
}
layer {
  name: "data"
  type: "Python"
  top: "data"
  top: "label"
  python_param {
    module: "voc_layers"
    layer: "PartialSBDDSegDataLayer"
    param_str: "{\'sbdd_dir\': \'../data/sbdd/dataset\', \'seed\': 1337, \'split\': \'train5\', \'mean\': (104.00699, 116.66877, 122.67892)}"
  }
}
layer {
  name: "conv1_1"
  type: "Convolution"
  bottom: "data"
  top: "conv1_1"
  param {
    lr_mult: 1
    decay_mult: 1
  }
  param {
    lr_mult: 2
    decay_mult: 0
  }
  convolution_param {
    num_output: 64
    pad: 100
    kernel_size: 3
    stride: 1
    weight_filler {
      type: "xavier"
    }
  }
}
layer {
  name: "relu1_1"
  type: "ReLU"
  bottom: "conv1_1"
  top: "conv1_1"
}
layer {
  name: "conv1_2"
  type: "Convolution"
  bottom: "conv1_1"
  top: "conv1_2"
  param {
    lr_mult: 1
    decay_mult: 1
  }
  param {
    lr_mult: 2
    decay_mult: 0
  }
  convolution_param {
    num_output: 64
    pad: 1
    kernel_size: 3
    stride: 1
    weight_filler {
      type: "xavier"
    }
  }
}
layer {
  name: "relu1_2"
  type: "ReLU"
  bottom: "conv1_2"
  top: "conv1_2"
}
layer {
  name: "pool1"
  type: "Pooling"
  bottom: "conv1_2"
  top: "pool1"
  pooling_param {
    pool: MAX
    kernel_size: 2
    stride: 2
  }
}
layer {
  name: "conv2_1"
  type: "Convolution"
  bottom: "pool1"
  top: "conv2_1"
  param {
    lr_mult: 1
    decay_mult: 1
  }
  param {
    lr_mult: 2
    decay_mult: 0
  }
  convolution_param {
    num_output: 128
    pad: 1
    kernel_size: 3
    stride: 1
    weight_filler {
      type: "xavier"
    }
  }
}
layer {
  name: "relu2_1"
  type: "ReLU"
  bottom: "conv2_1"
  top: "conv2_1"
}
layer {
  name: "conv2_2"
  type: "Convolution"
  bottom: "conv2_1"
  top: "conv2_2"
  param {
    lr_mult: 1
    decay_mult: 1
  }
  param {
    lr_mult: 2
    decay_mult: 0
  }
  convolution_param {
    num_output: 128
    pad: 1
    kernel_size: 3
    stride: 1
    weight_filler {
      type: "xavier"
    }
  }
}
layer {
  name: "relu2_2"
  type: "ReLU"
  bottom: "conv2_2"
  top: "conv2_2"
}
layer {
  name: "pool2"
  type: "Pooling"
  bottom: "conv2_2"
  top: "pool2"
  pooling_param {
    pool: MAX
    kernel_size: 2
    stride: 2
  }
}
layer {
  name: "conv3_1"
  type: "Convolution"
  bottom: "pool2"
  top: "conv3_1"
  param {
    lr_mult: 1
    decay_mult: 1
  }
  param {
    lr_mult: 2
    decay_mult: 0
  }
  convolution_param {
    num_output: 256
    pad: 1
    kernel_size: 3
    stride: 1
    weight_filler {
      type: "xavier"
    }
  }
}
layer {
  name: "relu3_1"
  type: "ReLU"
  bottom: "conv3_1"
  top: "conv3_1"
}
layer {
  name: "conv3_2"
  type: "Convolution"
  bottom: "conv3_1"
  top: "conv3_2"
  param {
    lr_mult: 1
    decay_mult: 1
  }
  param {
    lr_mult: 2
    decay_mult: 0
  }
  convolution_param {
    num_output: 256
    pad: 1
    kernel_size: 3
    stride: 1
    weight_filler {
      type: "xavier"
    }
  }
}
layer {
  name: "relu3_2"
  type: "ReLU"
  bottom: "conv3_2"
  top: "conv3_2"
}
layer {
  name: "conv3_3"
  type: "Convolution"
  bottom: "conv3_2"
  top: "conv3_3"
  param {
    lr_mult: 1
    decay_mult: 1
  }
  param {
    lr_mult: 2
    decay_mult: 0
  }
  convolution_param {
    num_output: 256
    pad: 1
    kernel_size: 3
    stride: 1
    weight_filler {
      type: "xavier"
    }
  }
}
layer {
  name: "relu3_3"
  type: "ReLU"
  bottom: "conv3_3"
  top: "conv3_3"
}
layer {
  name: "pool3"
  type: "Pooling"
  bottom: "conv3_3"
  top: "pool3"
  pooling_param {
    pool: MAX
    kernel_size: 2
    stride: 2
  }
}
layer {
  name: "conv4_1"
  type: "Convolution"
  bottom: "pool3"
  top: "conv4_1"
  param {
    lr_mult: 1
    decay_mult: 1
  }
  param {
    lr_mult: 2
    decay_mult: 0
  }
  convolution_param {
    num_output: 512
    pad: 1
    kernel_size: 3
    stride: 1
    weight_filler {
      type: "xavier"
    }
  }
}
layer {
  name: "relu4_1"
  type: "ReLU"
  bottom: "conv4_1"
  top: "conv4_1"
}
layer {
  name: "conv4_2"
  type: "Convolution"
  bottom: "conv4_1"
  top: "conv4_2"
  param {
    lr_mult: 1
    decay_mult: 1
  }
  param {
    lr_mult: 2
    decay_mult: 0
  }
  convolution_param {
    num_output: 512
    pad: 1
    kernel_size: 3
    stride: 1
    weight_filler {
      type: "xavier"
    }
  }
}
layer {
  name: "relu4_2"
  type: "ReLU"
  bottom: "conv4_2"
  top: "conv4_2"
}
layer {
  name: "conv4_3"
  type: "Convolution"
  bottom: "conv4_2"
  top: "conv4_3"
  param {
    lr_mult: 1
    decay_mult: 1
  }
  param {
    lr_mult: 2
    decay_mult: 0
  }
  convolution_param {
    num_output: 512
    pad: 1
    kernel_size: 3
    stride: 1
    weight_filler {
      type: "xavier"
    }
  }
}
layer {
  name: "relu4_3"
  type: "ReLU"
  bottom: "conv4_3"
  top: "conv4_3"
}
layer {
  name: "pool4"
  type: "Pooling"
  bottom: "conv4_3"
  top: "pool4"
  pooling_param {
    pool: MAX
    kernel_size: 2
    stride: 2
  }
}
layer {
  name: "conv5_1"
  type: "Convolution"
  bottom: "pool4"
  top: "conv5_1"
  param {
    lr_mult: 1
    decay_mult: 1
  }
  param {
    lr_mult: 2
    decay_mult: 0
  }
  convolution_param {
    num_output: 512
    pad: 1
    kernel_size: 3
    stride: 1
    weight_filler {
      type: "xavier"
    }
  }
}
layer {
  name: "relu5_1"
  type: "ReLU"
  bottom: "conv5_1"
  top: "conv5_1"
}
layer {
  name: "conv5_2"
  type: "Convolution"
  bottom: "conv5_1"
  top: "conv5_2"
  param {
    lr_mult: 1
    decay_mult: 1
  }
  param {
    lr_mult: 2
    decay_mult: 0
  }
  convolution_param {
    num_output: 512
    pad: 1
    kernel_size: 3
    stride: 1
    weight_filler {
      type: "xavier"
    }
  }
}
layer {
  name: "relu5_2"
  type: "ReLU"
  bottom: "conv5_2"
  top: "conv5_2"
}
layer {
  name: "conv5_3"
  type: "Convolution"
  bottom: "conv5_2"
  top: "conv5_3"
  param {
    lr_mult: 1
    decay_mult: 1
  }
  param {
    lr_mult: 2
    decay_mult: 0
  }
  convolution_param {
    num_output: 512
    pad: 1
    kernel_size: 3
    stride: 1
    weight_filler {
      type: "xavier"
    }
  }
}
layer {
  name: "relu5_3"
  type: "ReLU"
  bottom: "conv5_3"
  top: "conv5_3"
}
layer {
  name: "pool5"
  type: "Pooling"
  bottom: "conv5_3"
  top: "pool5"
  pooling_param {
    pool: MAX
    kernel_size: 2
    stride: 2
  }
}
layer {
  name: "fc6"
  type: "Convolution"
  bottom: "pool5"
  top: "fc6"
  param {
    lr_mult: 1
    decay_mult: 1
  }
  param {
    lr_mult: 2
    decay_mult: 0
  }
  convolution_param {
    num_output: 4096
    pad: 0
    kernel_size: 7
    stride: 1
    weight_filler {
      type: "xavier"
    }
  }
}
layer {
  name: "relu6"
  type: "ReLU"
  bottom: "fc6"
  top: "fc6"
}
layer {
  name: "drop6"
  type: "Dropout"
  bottom: "fc6"
  top: "fc6"
  dropout_param {
    dropout_ratio: 0.5
  }
}
layer {
  name: "fc7"
  type: "Convolution"
  bottom: "fc6"
  top: "fc7"
  param {
    lr_mult: 1
    decay_mult: 1
  }
  param {
    lr_mult: 2
    decay_mult: 0
  }
  convolution_param {
    num_output: 4096
    pad: 0
    kernel_size: 1
    stride: 1
    weight_filler {
      type: "xavier"
    }
  }
}
layer {
  name: "relu7"
  type: "ReLU"
  bottom: "fc7"
  top: "fc7"
}
layer {
  name: "drop7"
  type: "Dropout"
  bottom: "fc7"
  top: "fc7"
  dropout_param {
    dropout_ratio: 0.5
  }
}
layer {
  name: "score_fr"
  type: "Convolution"
  bottom: "fc7"
  top: "score_fr"
  param {
    lr_mult: 1
    decay_mult: 1
  }
  param {
    lr_mult: 2
    decay_mult: 0
  }
  convolution_param {
    num_output: 6
    pad: 0
    kernel_size: 1
    weight_filler {
      type: "xavier"
    }
  }
}
layer {
  name: "upscore2"
  type: "Deconvolution"
  bottom: "score_fr"
  top: "upscore2"
  param {
    lr_mult: 0
  }
  convolution_param {
    num_output: 6
    bias_term: false
    kernel_size: 4
    stride: 2
    weight_filler {
      type: "xavier"
    }
  }
}
layer {
  name: "scale_pool4"
  type: "Scale"
  bottom: "pool4"
  top: "scale_pool4"
  param {
    lr_mult: 0
  }
  scale_param {
    filler {
      type: "constant"
      value: 0.01
    }
  }
}
layer {
  name: "score_pool4"
  type: "Convolution"
  bottom: "scale_pool4"
  top: "score_pool4"
  param {
    lr_mult: 1
    decay_mult: 1
  }
  param {
    lr_mult: 2
    decay_mult: 0
  }
  convolution_param {
    num_output: 6
    pad: 0
    kernel_size: 1
    weight_filler {
      type: "xavier"
    }
  }
}
layer {
  name: "score_pool4c"
  type: "Crop"
  bottom: "score_pool4"
  bottom: "upscore2"
  top: "score_pool4c"
  crop_param {
    axis: 2
    offset: 5
  }
}
layer {
  name: "fuse_pool4"
  type: "Eltwise"
  bottom: "upscore2"
  bottom: "score_pool4c"
  top: "fuse_pool4"
  eltwise_param {
    operation: SUM
  }
}
layer {
  name: "upscore_pool4"
  type: "Deconvolution"
  bottom: "fuse_pool4"
  top: "upscore_pool4"
  param {
    lr_mult: 0
  }
  convolution_param {
    num_output: 6
    bias_term: false
    kernel_size: 4
    stride: 2
    weight_filler {
      type: "xavier"
    }
  }
}
layer {
  name: "scale_pool3"
  type: "Scale"
  bottom: "pool3"
  top: "scale_pool3"
  param {
    lr_mult: 0
  }
  scale_param {
    filler {
      type: "constant"
      value: 0.0001
    }
  }
}
layer {
  name: "score_pool3"
  type: "Convolution"
  bottom: "scale_pool3"
  top: "score_pool3"
  param {
    lr_mult: 1
    decay_mult: 1
  }
  param {
    lr_mult: 2
    decay_mult: 0
  }
  convolution_param {
    num_output: 6
    pad: 0
    kernel_size: 1
    weight_filler {
      type: "xavier"
    }
  }
}
layer {
  name: "score_pool3c"
  type: "Crop"
  bottom: "score_pool3"
  bottom: "upscore_pool4"
  top: "score_pool3c"
  crop_param {
    axis: 2
    offset: 9
  }
}
layer {
  name: "fuse_pool3"
  type: "Eltwise"
  bottom: "upscore_pool4"
  bottom: "score_pool3c"
  top: "fuse_pool3"
  eltwise_param {
    operation: SUM
  }
}
layer {
  name: "upscore8"
  type: "Deconvolution"
  bottom: "fuse_pool3"
  top: "upscore8"
  param {
    lr_mult: 0
  }
  convolution_param {
    num_output: 6
    bias_term: false
    kernel_size: 16
    stride: 8
    weight_filler {
      type: "xavier"
    }
  }
}
layer {
  name: "score"
  type: "Crop"
  bottom: "upscore8"
  bottom: "data"
  top: "score"
  crop_param {
    axis: 2
    offset: 31
  }
}
layer {
  name: "loss"
  type: "SoftmaxWithLoss"
  bottom: "score"
  bottom: "label"
  top: "loss"
  loss_param {
    ignore_label: 255
    normalize: false
  }
}
I1122 03:11:04.649577  7059 layer_factory.hpp:77] Creating layer data
I1122 03:11:04.650358  7059 net.cpp:100] Creating Layer data
I1122 03:11:04.650375  7059 net.cpp:408] data -> data
I1122 03:11:04.650391  7059 net.cpp:408] data -> label
I1122 03:11:04.694334  7059 net.cpp:150] Setting up data
I1122 03:11:04.694373  7059 net.cpp:157] Top shape: 1 3 375 500 (562500)
I1122 03:11:04.694380  7059 net.cpp:157] Top shape: 1 1 375 500 (187500)
I1122 03:11:04.694385  7059 net.cpp:165] Memory required for data: 3000000
I1122 03:11:04.694392  7059 layer_factory.hpp:77] Creating layer data_data_0_split
I1122 03:11:04.694407  7059 net.cpp:100] Creating Layer data_data_0_split
I1122 03:11:04.694413  7059 net.cpp:434] data_data_0_split <- data
I1122 03:11:04.694422  7059 net.cpp:408] data_data_0_split -> data_data_0_split_0
I1122 03:11:04.694432  7059 net.cpp:408] data_data_0_split -> data_data_0_split_1
I1122 03:11:04.694466  7059 net.cpp:150] Setting up data_data_0_split
I1122 03:11:04.694474  7059 net.cpp:157] Top shape: 1 3 375 500 (562500)
I1122 03:11:04.694479  7059 net.cpp:157] Top shape: 1 3 375 500 (562500)
I1122 03:11:04.694483  7059 net.cpp:165] Memory required for data: 7500000
I1122 03:11:04.694489  7059 layer_factory.hpp:77] Creating layer conv1_1
I1122 03:11:04.694504  7059 net.cpp:100] Creating Layer conv1_1
I1122 03:11:04.694509  7059 net.cpp:434] conv1_1 <- data_data_0_split_0
I1122 03:11:04.694524  7059 net.cpp:408] conv1_1 -> conv1_1
I1122 03:11:04.873015  7059 net.cpp:150] Setting up conv1_1
I1122 03:11:04.873060  7059 net.cpp:157] Top shape: 1 64 573 698 (25597056)
I1122 03:11:04.873065  7059 net.cpp:165] Memory required for data: 109888224
I1122 03:11:04.873085  7059 layer_factory.hpp:77] Creating layer relu1_1
I1122 03:11:04.873097  7059 net.cpp:100] Creating Layer relu1_1
I1122 03:11:04.873103  7059 net.cpp:434] relu1_1 <- conv1_1
I1122 03:11:04.873111  7059 net.cpp:395] relu1_1 -> conv1_1 (in-place)
I1122 03:11:04.873461  7059 net.cpp:150] Setting up relu1_1
I1122 03:11:04.873474  7059 net.cpp:157] Top shape: 1 64 573 698 (25597056)
I1122 03:11:04.873479  7059 net.cpp:165] Memory required for data: 212276448
I1122 03:11:04.873484  7059 layer_factory.hpp:77] Creating layer conv1_2
I1122 03:11:04.873499  7059 net.cpp:100] Creating Layer conv1_2
I1122 03:11:04.873505  7059 net.cpp:434] conv1_2 <- conv1_1
I1122 03:11:04.873517  7059 net.cpp:408] conv1_2 -> conv1_2
I1122 03:11:04.876277  7059 net.cpp:150] Setting up conv1_2
I1122 03:11:04.876294  7059 net.cpp:157] Top shape: 1 64 573 698 (25597056)
I1122 03:11:04.876299  7059 net.cpp:165] Memory required for data: 314664672
I1122 03:11:04.876312  7059 layer_factory.hpp:77] Creating layer relu1_2
I1122 03:11:04.876320  7059 net.cpp:100] Creating Layer relu1_2
I1122 03:11:04.876325  7059 net.cpp:434] relu1_2 <- conv1_2
I1122 03:11:04.876333  7059 net.cpp:395] relu1_2 -> conv1_2 (in-place)
I1122 03:11:04.876687  7059 net.cpp:150] Setting up relu1_2
I1122 03:11:04.876699  7059 net.cpp:157] Top shape: 1 64 573 698 (25597056)
I1122 03:11:04.876704  7059 net.cpp:165] Memory required for data: 417052896
I1122 03:11:04.876709  7059 layer_factory.hpp:77] Creating layer pool1
I1122 03:11:04.876720  7059 net.cpp:100] Creating Layer pool1
I1122 03:11:04.876725  7059 net.cpp:434] pool1 <- conv1_2
I1122 03:11:04.876732  7059 net.cpp:408] pool1 -> pool1
I1122 03:11:04.876782  7059 net.cpp:150] Setting up pool1
I1122 03:11:04.876791  7059 net.cpp:157] Top shape: 1 64 287 349 (6410432)
I1122 03:11:04.876794  7059 net.cpp:165] Memory required for data: 442694624
I1122 03:11:04.876798  7059 layer_factory.hpp:77] Creating layer conv2_1
I1122 03:11:04.876811  7059 net.cpp:100] Creating Layer conv2_1
I1122 03:11:04.876814  7059 net.cpp:434] conv2_1 <- pool1
I1122 03:11:04.876824  7059 net.cpp:408] conv2_1 -> conv2_1
I1122 03:11:04.879112  7059 net.cpp:150] Setting up conv2_1
I1122 03:11:04.879127  7059 net.cpp:157] Top shape: 1 128 287 349 (12820864)
I1122 03:11:04.879132  7059 net.cpp:165] Memory required for data: 493978080
I1122 03:11:04.879145  7059 layer_factory.hpp:77] Creating layer relu2_1
I1122 03:11:04.879155  7059 net.cpp:100] Creating Layer relu2_1
I1122 03:11:04.879160  7059 net.cpp:434] relu2_1 <- conv2_1
I1122 03:11:04.879168  7059 net.cpp:395] relu2_1 -> conv2_1 (in-place)
I1122 03:11:04.879374  7059 net.cpp:150] Setting up relu2_1
I1122 03:11:04.879385  7059 net.cpp:157] Top shape: 1 128 287 349 (12820864)
I1122 03:11:04.879390  7059 net.cpp:165] Memory required for data: 545261536
I1122 03:11:04.879395  7059 layer_factory.hpp:77] Creating layer conv2_2
I1122 03:11:04.879406  7059 net.cpp:100] Creating Layer conv2_2
I1122 03:11:04.879411  7059 net.cpp:434] conv2_2 <- conv2_1
I1122 03:11:04.879420  7059 net.cpp:408] conv2_2 -> conv2_2
I1122 03:11:04.881937  7059 net.cpp:150] Setting up conv2_2
I1122 03:11:04.881952  7059 net.cpp:157] Top shape: 1 128 287 349 (12820864)
I1122 03:11:04.881956  7059 net.cpp:165] Memory required for data: 596544992
I1122 03:11:04.881964  7059 layer_factory.hpp:77] Creating layer relu2_2
I1122 03:11:04.881976  7059 net.cpp:100] Creating Layer relu2_2
I1122 03:11:04.881981  7059 net.cpp:434] relu2_2 <- conv2_2
I1122 03:11:04.881989  7059 net.cpp:395] relu2_2 -> conv2_2 (in-place)
I1122 03:11:04.882341  7059 net.cpp:150] Setting up relu2_2
I1122 03:11:04.882356  7059 net.cpp:157] Top shape: 1 128 287 349 (12820864)
I1122 03:11:04.882361  7059 net.cpp:165] Memory required for data: 647828448
I1122 03:11:04.882376  7059 layer_factory.hpp:77] Creating layer pool2
I1122 03:11:04.882385  7059 net.cpp:100] Creating Layer pool2
I1122 03:11:04.882390  7059 net.cpp:434] pool2 <- conv2_2
I1122 03:11:04.882396  7059 net.cpp:408] pool2 -> pool2
I1122 03:11:04.882443  7059 net.cpp:150] Setting up pool2
I1122 03:11:04.882452  7059 net.cpp:157] Top shape: 1 128 144 175 (3225600)
I1122 03:11:04.882455  7059 net.cpp:165] Memory required for data: 660730848
I1122 03:11:04.882459  7059 layer_factory.hpp:77] Creating layer conv3_1
I1122 03:11:04.882470  7059 net.cpp:100] Creating Layer conv3_1
I1122 03:11:04.882475  7059 net.cpp:434] conv3_1 <- pool2
I1122 03:11:04.882483  7059 net.cpp:408] conv3_1 -> conv3_1
I1122 03:11:04.885573  7059 net.cpp:150] Setting up conv3_1
I1122 03:11:04.885589  7059 net.cpp:157] Top shape: 1 256 144 175 (6451200)
I1122 03:11:04.885593  7059 net.cpp:165] Memory required for data: 686535648
I1122 03:11:04.885607  7059 layer_factory.hpp:77] Creating layer relu3_1
I1122 03:11:04.885614  7059 net.cpp:100] Creating Layer relu3_1
I1122 03:11:04.885620  7059 net.cpp:434] relu3_1 <- conv3_1
I1122 03:11:04.885627  7059 net.cpp:395] relu3_1 -> conv3_1 (in-place)
I1122 03:11:04.885982  7059 net.cpp:150] Setting up relu3_1
I1122 03:11:04.885996  7059 net.cpp:157] Top shape: 1 256 144 175 (6451200)
I1122 03:11:04.886000  7059 net.cpp:165] Memory required for data: 712340448
I1122 03:11:04.886005  7059 layer_factory.hpp:77] Creating layer conv3_2
I1122 03:11:04.886018  7059 net.cpp:100] Creating Layer conv3_2
I1122 03:11:04.886023  7059 net.cpp:434] conv3_2 <- conv3_1
I1122 03:11:04.886030  7059 net.cpp:408] conv3_2 -> conv3_2
I1122 03:11:04.891223  7059 net.cpp:150] Setting up conv3_2
I1122 03:11:04.891239  7059 net.cpp:157] Top shape: 1 256 144 175 (6451200)
I1122 03:11:04.891244  7059 net.cpp:165] Memory required for data: 738145248
I1122 03:11:04.891253  7059 layer_factory.hpp:77] Creating layer relu3_2
I1122 03:11:04.891260  7059 net.cpp:100] Creating Layer relu3_2
I1122 03:11:04.891268  7059 net.cpp:434] relu3_2 <- conv3_2
I1122 03:11:04.891274  7059 net.cpp:395] relu3_2 -> conv3_2 (in-place)
I1122 03:11:04.891463  7059 net.cpp:150] Setting up relu3_2
I1122 03:11:04.891474  7059 net.cpp:157] Top shape: 1 256 144 175 (6451200)
I1122 03:11:04.891477  7059 net.cpp:165] Memory required for data: 763950048
I1122 03:11:04.891482  7059 layer_factory.hpp:77] Creating layer conv3_3
I1122 03:11:04.891495  7059 net.cpp:100] Creating Layer conv3_3
I1122 03:11:04.891500  7059 net.cpp:434] conv3_3 <- conv3_2
I1122 03:11:04.891510  7059 net.cpp:408] conv3_3 -> conv3_3
I1122 03:11:04.896708  7059 net.cpp:150] Setting up conv3_3
I1122 03:11:04.896724  7059 net.cpp:157] Top shape: 1 256 144 175 (6451200)
I1122 03:11:04.896729  7059 net.cpp:165] Memory required for data: 789754848
I1122 03:11:04.896737  7059 layer_factory.hpp:77] Creating layer relu3_3
I1122 03:11:04.896747  7059 net.cpp:100] Creating Layer relu3_3
I1122 03:11:04.896752  7059 net.cpp:434] relu3_3 <- conv3_3
I1122 03:11:04.896759  7059 net.cpp:395] relu3_3 -> conv3_3 (in-place)
I1122 03:11:04.897110  7059 net.cpp:150] Setting up relu3_3
I1122 03:11:04.897124  7059 net.cpp:157] Top shape: 1 256 144 175 (6451200)
I1122 03:11:04.897128  7059 net.cpp:165] Memory required for data: 815559648
I1122 03:11:04.897133  7059 layer_factory.hpp:77] Creating layer pool3
I1122 03:11:04.897142  7059 net.cpp:100] Creating Layer pool3
I1122 03:11:04.897147  7059 net.cpp:434] pool3 <- conv3_3
I1122 03:11:04.897155  7059 net.cpp:408] pool3 -> pool3
I1122 03:11:04.897202  7059 net.cpp:150] Setting up pool3
I1122 03:11:04.897209  7059 net.cpp:157] Top shape: 1 256 72 88 (1622016)
I1122 03:11:04.897213  7059 net.cpp:165] Memory required for data: 822047712
I1122 03:11:04.897218  7059 layer_factory.hpp:77] Creating layer pool3_pool3_0_split
I1122 03:11:04.897224  7059 net.cpp:100] Creating Layer pool3_pool3_0_split
I1122 03:11:04.897229  7059 net.cpp:434] pool3_pool3_0_split <- pool3
I1122 03:11:04.897236  7059 net.cpp:408] pool3_pool3_0_split -> pool3_pool3_0_split_0
I1122 03:11:04.897243  7059 net.cpp:408] pool3_pool3_0_split -> pool3_pool3_0_split_1
I1122 03:11:04.897285  7059 net.cpp:150] Setting up pool3_pool3_0_split
I1122 03:11:04.897292  7059 net.cpp:157] Top shape: 1 256 72 88 (1622016)
I1122 03:11:04.897297  7059 net.cpp:157] Top shape: 1 256 72 88 (1622016)
I1122 03:11:04.897301  7059 net.cpp:165] Memory required for data: 835023840
I1122 03:11:04.897306  7059 layer_factory.hpp:77] Creating layer conv4_1
I1122 03:11:04.897318  7059 net.cpp:100] Creating Layer conv4_1
I1122 03:11:04.897323  7059 net.cpp:434] conv4_1 <- pool3_pool3_0_split_0
I1122 03:11:04.897330  7059 net.cpp:408] conv4_1 -> conv4_1
I1122 03:11:04.907830  7059 net.cpp:150] Setting up conv4_1
I1122 03:11:04.907851  7059 net.cpp:157] Top shape: 1 512 72 88 (3244032)
I1122 03:11:04.907856  7059 net.cpp:165] Memory required for data: 847999968
I1122 03:11:04.907866  7059 layer_factory.hpp:77] Creating layer relu4_1
I1122 03:11:04.907874  7059 net.cpp:100] Creating Layer relu4_1
I1122 03:11:04.907879  7059 net.cpp:434] relu4_1 <- conv4_1
I1122 03:11:04.907888  7059 net.cpp:395] relu4_1 -> conv4_1 (in-place)
I1122 03:11:04.908252  7059 net.cpp:150] Setting up relu4_1
I1122 03:11:04.908267  7059 net.cpp:157] Top shape: 1 512 72 88 (3244032)
I1122 03:11:04.908272  7059 net.cpp:165] Memory required for data: 860976096
I1122 03:11:04.908277  7059 layer_factory.hpp:77] Creating layer conv4_2
I1122 03:11:04.908289  7059 net.cpp:100] Creating Layer conv4_2
I1122 03:11:04.908294  7059 net.cpp:434] conv4_2 <- conv4_1
I1122 03:11:04.908303  7059 net.cpp:408] conv4_2 -> conv4_2
I1122 03:11:04.926224  7059 net.cpp:150] Setting up conv4_2
I1122 03:11:04.926270  7059 net.cpp:157] Top shape: 1 512 72 88 (3244032)
I1122 03:11:04.926275  7059 net.cpp:165] Memory required for data: 873952224
I1122 03:11:04.926291  7059 layer_factory.hpp:77] Creating layer relu4_2
I1122 03:11:04.926306  7059 net.cpp:100] Creating Layer relu4_2
I1122 03:11:04.926312  7059 net.cpp:434] relu4_2 <- conv4_2
I1122 03:11:04.926321  7059 net.cpp:395] relu4_2 -> conv4_2 (in-place)
I1122 03:11:04.926512  7059 net.cpp:150] Setting up relu4_2
I1122 03:11:04.926522  7059 net.cpp:157] Top shape: 1 512 72 88 (3244032)
I1122 03:11:04.926527  7059 net.cpp:165] Memory required for data: 886928352
I1122 03:11:04.926532  7059 layer_factory.hpp:77] Creating layer conv4_3
I1122 03:11:04.926547  7059 net.cpp:100] Creating Layer conv4_3
I1122 03:11:04.926551  7059 net.cpp:434] conv4_3 <- conv4_2
I1122 03:11:04.926559  7059 net.cpp:408] conv4_3 -> conv4_3
I1122 03:11:04.943552  7059 net.cpp:150] Setting up conv4_3
I1122 03:11:04.943583  7059 net.cpp:157] Top shape: 1 512 72 88 (3244032)
I1122 03:11:04.943588  7059 net.cpp:165] Memory required for data: 899904480
I1122 03:11:04.943596  7059 layer_factory.hpp:77] Creating layer relu4_3
I1122 03:11:04.943605  7059 net.cpp:100] Creating Layer relu4_3
I1122 03:11:04.943610  7059 net.cpp:434] relu4_3 <- conv4_3
I1122 03:11:04.943620  7059 net.cpp:395] relu4_3 -> conv4_3 (in-place)
I1122 03:11:04.943982  7059 net.cpp:150] Setting up relu4_3
I1122 03:11:04.943995  7059 net.cpp:157] Top shape: 1 512 72 88 (3244032)
I1122 03:11:04.944000  7059 net.cpp:165] Memory required for data: 912880608
I1122 03:11:04.944005  7059 layer_factory.hpp:77] Creating layer pool4
I1122 03:11:04.944015  7059 net.cpp:100] Creating Layer pool4
I1122 03:11:04.944020  7059 net.cpp:434] pool4 <- conv4_3
I1122 03:11:04.944028  7059 net.cpp:408] pool4 -> pool4
I1122 03:11:04.944077  7059 net.cpp:150] Setting up pool4
I1122 03:11:04.944087  7059 net.cpp:157] Top shape: 1 512 36 44 (811008)
I1122 03:11:04.944090  7059 net.cpp:165] Memory required for data: 916124640
I1122 03:11:04.944094  7059 layer_factory.hpp:77] Creating layer pool4_pool4_0_split
I1122 03:11:04.944102  7059 net.cpp:100] Creating Layer pool4_pool4_0_split
I1122 03:11:04.944106  7059 net.cpp:434] pool4_pool4_0_split <- pool4
I1122 03:11:04.944113  7059 net.cpp:408] pool4_pool4_0_split -> pool4_pool4_0_split_0
I1122 03:11:04.944118  7059 net.cpp:408] pool4_pool4_0_split -> pool4_pool4_0_split_1
I1122 03:11:04.944157  7059 net.cpp:150] Setting up pool4_pool4_0_split
I1122 03:11:04.944175  7059 net.cpp:157] Top shape: 1 512 36 44 (811008)
I1122 03:11:04.944181  7059 net.cpp:157] Top shape: 1 512 36 44 (811008)
I1122 03:11:04.944185  7059 net.cpp:165] Memory required for data: 922612704
I1122 03:11:04.944190  7059 layer_factory.hpp:77] Creating layer conv5_1
I1122 03:11:04.944202  7059 net.cpp:100] Creating Layer conv5_1
I1122 03:11:04.944207  7059 net.cpp:434] conv5_1 <- pool4_pool4_0_split_0
I1122 03:11:04.944216  7059 net.cpp:408] conv5_1 -> conv5_1
I1122 03:11:04.961057  7059 net.cpp:150] Setting up conv5_1
I1122 03:11:04.961086  7059 net.cpp:157] Top shape: 1 512 36 44 (811008)
I1122 03:11:04.961091  7059 net.cpp:165] Memory required for data: 925856736
I1122 03:11:04.961102  7059 layer_factory.hpp:77] Creating layer relu5_1
I1122 03:11:04.961112  7059 net.cpp:100] Creating Layer relu5_1
I1122 03:11:04.961119  7059 net.cpp:434] relu5_1 <- conv5_1
I1122 03:11:04.961127  7059 net.cpp:395] relu5_1 -> conv5_1 (in-place)
I1122 03:11:04.961489  7059 net.cpp:150] Setting up relu5_1
I1122 03:11:04.961505  7059 net.cpp:157] Top shape: 1 512 36 44 (811008)
I1122 03:11:04.961509  7059 net.cpp:165] Memory required for data: 929100768
I1122 03:11:04.961514  7059 layer_factory.hpp:77] Creating layer conv5_2
I1122 03:11:04.961529  7059 net.cpp:100] Creating Layer conv5_2
I1122 03:11:04.961534  7059 net.cpp:434] conv5_2 <- conv5_1
I1122 03:11:04.961541  7059 net.cpp:408] conv5_2 -> conv5_2
I1122 03:11:04.978595  7059 net.cpp:150] Setting up conv5_2
I1122 03:11:04.978626  7059 net.cpp:157] Top shape: 1 512 36 44 (811008)
I1122 03:11:04.978631  7059 net.cpp:165] Memory required for data: 932344800
I1122 03:11:04.978641  7059 layer_factory.hpp:77] Creating layer relu5_2
I1122 03:11:04.978652  7059 net.cpp:100] Creating Layer relu5_2
I1122 03:11:04.978658  7059 net.cpp:434] relu5_2 <- conv5_2
I1122 03:11:04.978665  7059 net.cpp:395] relu5_2 -> conv5_2 (in-place)
I1122 03:11:04.978858  7059 net.cpp:150] Setting up relu5_2
I1122 03:11:04.978869  7059 net.cpp:157] Top shape: 1 512 36 44 (811008)
I1122 03:11:04.978873  7059 net.cpp:165] Memory required for data: 935588832
I1122 03:11:04.978878  7059 layer_factory.hpp:77] Creating layer conv5_3
I1122 03:11:04.978898  7059 net.cpp:100] Creating Layer conv5_3
I1122 03:11:04.978904  7059 net.cpp:434] conv5_3 <- conv5_2
I1122 03:11:04.978912  7059 net.cpp:408] conv5_3 -> conv5_3
I1122 03:11:04.995908  7059 net.cpp:150] Setting up conv5_3
I1122 03:11:04.995936  7059 net.cpp:157] Top shape: 1 512 36 44 (811008)
I1122 03:11:04.995942  7059 net.cpp:165] Memory required for data: 938832864
I1122 03:11:04.995951  7059 layer_factory.hpp:77] Creating layer relu5_3
I1122 03:11:04.995965  7059 net.cpp:100] Creating Layer relu5_3
I1122 03:11:04.995970  7059 net.cpp:434] relu5_3 <- conv5_3
I1122 03:11:04.995977  7059 net.cpp:395] relu5_3 -> conv5_3 (in-place)
I1122 03:11:04.996523  7059 net.cpp:150] Setting up relu5_3
I1122 03:11:04.996536  7059 net.cpp:157] Top shape: 1 512 36 44 (811008)
I1122 03:11:04.996541  7059 net.cpp:165] Memory required for data: 942076896
I1122 03:11:04.996546  7059 layer_factory.hpp:77] Creating layer pool5
I1122 03:11:04.996556  7059 net.cpp:100] Creating Layer pool5
I1122 03:11:04.996562  7059 net.cpp:434] pool5 <- conv5_3
I1122 03:11:04.996569  7059 net.cpp:408] pool5 -> pool5
I1122 03:11:04.996621  7059 net.cpp:150] Setting up pool5
I1122 03:11:04.996629  7059 net.cpp:157] Top shape: 1 512 18 22 (202752)
I1122 03:11:04.996634  7059 net.cpp:165] Memory required for data: 942887904
I1122 03:11:04.996637  7059 layer_factory.hpp:77] Creating layer fc6
I1122 03:11:04.996650  7059 net.cpp:100] Creating Layer fc6
I1122 03:11:04.996655  7059 net.cpp:434] fc6 <- pool5
I1122 03:11:04.996664  7059 net.cpp:408] fc6 -> fc6
I1122 03:11:05.703307  7059 net.cpp:150] Setting up fc6
I1122 03:11:05.703361  7059 net.cpp:157] Top shape: 1 4096 12 16 (786432)
I1122 03:11:05.703366  7059 net.cpp:165] Memory required for data: 946033632
I1122 03:11:05.703388  7059 layer_factory.hpp:77] Creating layer relu6
I1122 03:11:05.703413  7059 net.cpp:100] Creating Layer relu6
I1122 03:11:05.703418  7059 net.cpp:434] relu6 <- fc6
I1122 03:11:05.703428  7059 net.cpp:395] relu6 -> fc6 (in-place)
I1122 03:11:05.703814  7059 net.cpp:150] Setting up relu6
I1122 03:11:05.703829  7059 net.cpp:157] Top shape: 1 4096 12 16 (786432)
I1122 03:11:05.703833  7059 net.cpp:165] Memory required for data: 949179360
I1122 03:11:05.703838  7059 layer_factory.hpp:77] Creating layer drop6
I1122 03:11:05.703850  7059 net.cpp:100] Creating Layer drop6
I1122 03:11:05.703855  7059 net.cpp:434] drop6 <- fc6
I1122 03:11:05.703862  7059 net.cpp:395] drop6 -> fc6 (in-place)
I1122 03:11:05.703902  7059 net.cpp:150] Setting up drop6
I1122 03:11:05.703908  7059 net.cpp:157] Top shape: 1 4096 12 16 (786432)
I1122 03:11:05.703912  7059 net.cpp:165] Memory required for data: 952325088
I1122 03:11:05.703917  7059 layer_factory.hpp:77] Creating layer fc7
I1122 03:11:05.703929  7059 net.cpp:100] Creating Layer fc7
I1122 03:11:05.703934  7059 net.cpp:434] fc7 <- fc6
I1122 03:11:05.703943  7059 net.cpp:408] fc7 -> fc7
I1122 03:11:05.820704  7059 net.cpp:150] Setting up fc7
I1122 03:11:05.820751  7059 net.cpp:157] Top shape: 1 4096 12 16 (786432)
I1122 03:11:05.820756  7059 net.cpp:165] Memory required for data: 955470816
I1122 03:11:05.820770  7059 layer_factory.hpp:77] Creating layer relu7
I1122 03:11:05.820781  7059 net.cpp:100] Creating Layer relu7
I1122 03:11:05.820788  7059 net.cpp:434] relu7 <- fc7
I1122 03:11:05.820796  7059 net.cpp:395] relu7 -> fc7 (in-place)
I1122 03:11:05.821007  7059 net.cpp:150] Setting up relu7
I1122 03:11:05.821020  7059 net.cpp:157] Top shape: 1 4096 12 16 (786432)
I1122 03:11:05.821024  7059 net.cpp:165] Memory required for data: 958616544
I1122 03:11:05.821029  7059 layer_factory.hpp:77] Creating layer drop7
I1122 03:11:05.821038  7059 net.cpp:100] Creating Layer drop7
I1122 03:11:05.821041  7059 net.cpp:434] drop7 <- fc7
I1122 03:11:05.821048  7059 net.cpp:395] drop7 -> fc7 (in-place)
I1122 03:11:05.821084  7059 net.cpp:150] Setting up drop7
I1122 03:11:05.821090  7059 net.cpp:157] Top shape: 1 4096 12 16 (786432)
I1122 03:11:05.821094  7059 net.cpp:165] Memory required for data: 961762272
I1122 03:11:05.821099  7059 layer_factory.hpp:77] Creating layer score_fr
I1122 03:11:05.821110  7059 net.cpp:100] Creating Layer score_fr
I1122 03:11:05.821115  7059 net.cpp:434] score_fr <- fc7
I1122 03:11:05.821125  7059 net.cpp:408] score_fr -> score_fr
I1122 03:11:05.822499  7059 net.cpp:150] Setting up score_fr
I1122 03:11:05.822513  7059 net.cpp:157] Top shape: 1 6 12 16 (1152)
I1122 03:11:05.822518  7059 net.cpp:165] Memory required for data: 961766880
I1122 03:11:05.822526  7059 layer_factory.hpp:77] Creating layer upscore2
I1122 03:11:05.822543  7059 net.cpp:100] Creating Layer upscore2
I1122 03:11:05.822548  7059 net.cpp:434] upscore2 <- score_fr
I1122 03:11:05.822558  7059 net.cpp:408] upscore2 -> upscore2
I1122 03:11:05.822774  7059 net.cpp:150] Setting up upscore2
I1122 03:11:05.822783  7059 net.cpp:157] Top shape: 1 6 26 34 (5304)
I1122 03:11:05.822788  7059 net.cpp:165] Memory required for data: 961788096
I1122 03:11:05.822800  7059 layer_factory.hpp:77] Creating layer upscore2_upscore2_0_split
I1122 03:11:05.822808  7059 net.cpp:100] Creating Layer upscore2_upscore2_0_split
I1122 03:11:05.822813  7059 net.cpp:434] upscore2_upscore2_0_split <- upscore2
I1122 03:11:05.822821  7059 net.cpp:408] upscore2_upscore2_0_split -> upscore2_upscore2_0_split_0
I1122 03:11:05.822829  7059 net.cpp:408] upscore2_upscore2_0_split -> upscore2_upscore2_0_split_1
I1122 03:11:05.822867  7059 net.cpp:150] Setting up upscore2_upscore2_0_split
I1122 03:11:05.822875  7059 net.cpp:157] Top shape: 1 6 26 34 (5304)
I1122 03:11:05.822880  7059 net.cpp:157] Top shape: 1 6 26 34 (5304)
I1122 03:11:05.822885  7059 net.cpp:165] Memory required for data: 961830528
I1122 03:11:05.822888  7059 layer_factory.hpp:77] Creating layer scale_pool4
I1122 03:11:05.822901  7059 net.cpp:100] Creating Layer scale_pool4
I1122 03:11:05.822906  7059 net.cpp:434] scale_pool4 <- pool4_pool4_0_split_1
I1122 03:11:05.822926  7059 net.cpp:408] scale_pool4 -> scale_pool4
I1122 03:11:05.823036  7059 net.cpp:150] Setting up scale_pool4
I1122 03:11:05.823045  7059 net.cpp:157] Top shape: 1 512 36 44 (811008)
I1122 03:11:05.823048  7059 net.cpp:165] Memory required for data: 965074560
I1122 03:11:05.823055  7059 layer_factory.hpp:77] Creating layer score_pool4
I1122 03:11:05.823065  7059 net.cpp:100] Creating Layer score_pool4
I1122 03:11:05.823071  7059 net.cpp:434] score_pool4 <- scale_pool4
I1122 03:11:05.823077  7059 net.cpp:408] score_pool4 -> score_pool4
I1122 03:11:05.824343  7059 net.cpp:150] Setting up score_pool4
I1122 03:11:05.824360  7059 net.cpp:157] Top shape: 1 6 36 44 (9504)
I1122 03:11:05.824365  7059 net.cpp:165] Memory required for data: 965112576
I1122 03:11:05.824373  7059 layer_factory.hpp:77] Creating layer score_pool4c
I1122 03:11:05.824383  7059 net.cpp:100] Creating Layer score_pool4c
I1122 03:11:05.824388  7059 net.cpp:434] score_pool4c <- score_pool4
I1122 03:11:05.824395  7059 net.cpp:434] score_pool4c <- upscore2_upscore2_0_split_0
I1122 03:11:05.824401  7059 net.cpp:408] score_pool4c -> score_pool4c
I1122 03:11:05.824437  7059 net.cpp:150] Setting up score_pool4c
I1122 03:11:05.824445  7059 net.cpp:157] Top shape: 1 6 26 34 (5304)
I1122 03:11:05.824450  7059 net.cpp:165] Memory required for data: 965133792
I1122 03:11:05.824453  7059 layer_factory.hpp:77] Creating layer fuse_pool4
I1122 03:11:05.824465  7059 net.cpp:100] Creating Layer fuse_pool4
I1122 03:11:05.824470  7059 net.cpp:434] fuse_pool4 <- upscore2_upscore2_0_split_1
I1122 03:11:05.824476  7059 net.cpp:434] fuse_pool4 <- score_pool4c
I1122 03:11:05.824481  7059 net.cpp:408] fuse_pool4 -> fuse_pool4
I1122 03:11:05.824512  7059 net.cpp:150] Setting up fuse_pool4
I1122 03:11:05.824518  7059 net.cpp:157] Top shape: 1 6 26 34 (5304)
I1122 03:11:05.824522  7059 net.cpp:165] Memory required for data: 965155008
I1122 03:11:05.824527  7059 layer_factory.hpp:77] Creating layer upscore_pool4
I1122 03:11:05.824535  7059 net.cpp:100] Creating Layer upscore_pool4
I1122 03:11:05.824540  7059 net.cpp:434] upscore_pool4 <- fuse_pool4
I1122 03:11:05.824546  7059 net.cpp:408] upscore_pool4 -> upscore_pool4
I1122 03:11:05.824746  7059 net.cpp:150] Setting up upscore_pool4
I1122 03:11:05.824755  7059 net.cpp:157] Top shape: 1 6 54 70 (22680)
I1122 03:11:05.824759  7059 net.cpp:165] Memory required for data: 965245728
I1122 03:11:05.824764  7059 layer_factory.hpp:77] Creating layer upscore_pool4_upscore_pool4_0_split
I1122 03:11:05.824771  7059 net.cpp:100] Creating Layer upscore_pool4_upscore_pool4_0_split
I1122 03:11:05.824776  7059 net.cpp:434] upscore_pool4_upscore_pool4_0_split <- upscore_pool4
I1122 03:11:05.824781  7059 net.cpp:408] upscore_pool4_upscore_pool4_0_split -> upscore_pool4_upscore_pool4_0_split_0
I1122 03:11:05.824790  7059 net.cpp:408] upscore_pool4_upscore_pool4_0_split -> upscore_pool4_upscore_pool4_0_split_1
I1122 03:11:05.824827  7059 net.cpp:150] Setting up upscore_pool4_upscore_pool4_0_split
I1122 03:11:05.824833  7059 net.cpp:157] Top shape: 1 6 54 70 (22680)
I1122 03:11:05.824838  7059 net.cpp:157] Top shape: 1 6 54 70 (22680)
I1122 03:11:05.824842  7059 net.cpp:165] Memory required for data: 965427168
I1122 03:11:05.824846  7059 layer_factory.hpp:77] Creating layer scale_pool3
I1122 03:11:05.824856  7059 net.cpp:100] Creating Layer scale_pool3
I1122 03:11:05.824861  7059 net.cpp:434] scale_pool3 <- pool3_pool3_0_split_1
I1122 03:11:05.824869  7059 net.cpp:408] scale_pool3 -> scale_pool3
I1122 03:11:05.824970  7059 net.cpp:150] Setting up scale_pool3
I1122 03:11:05.824977  7059 net.cpp:157] Top shape: 1 256 72 88 (1622016)
I1122 03:11:05.824981  7059 net.cpp:165] Memory required for data: 971915232
I1122 03:11:05.824986  7059 layer_factory.hpp:77] Creating layer score_pool3
I1122 03:11:05.824998  7059 net.cpp:100] Creating Layer score_pool3
I1122 03:11:05.825003  7059 net.cpp:434] score_pool3 <- scale_pool3
I1122 03:11:05.825011  7059 net.cpp:408] score_pool3 -> score_pool3
I1122 03:11:05.826221  7059 net.cpp:150] Setting up score_pool3
I1122 03:11:05.826242  7059 net.cpp:157] Top shape: 1 6 72 88 (38016)
I1122 03:11:05.826247  7059 net.cpp:165] Memory required for data: 972067296
I1122 03:11:05.826256  7059 layer_factory.hpp:77] Creating layer score_pool3c
I1122 03:11:05.826263  7059 net.cpp:100] Creating Layer score_pool3c
I1122 03:11:05.826268  7059 net.cpp:434] score_pool3c <- score_pool3
I1122 03:11:05.826277  7059 net.cpp:434] score_pool3c <- upscore_pool4_upscore_pool4_0_split_0
I1122 03:11:05.826283  7059 net.cpp:408] score_pool3c -> score_pool3c
I1122 03:11:05.826314  7059 net.cpp:150] Setting up score_pool3c
I1122 03:11:05.826321  7059 net.cpp:157] Top shape: 1 6 54 70 (22680)
I1122 03:11:05.826325  7059 net.cpp:165] Memory required for data: 972158016
I1122 03:11:05.826330  7059 layer_factory.hpp:77] Creating layer fuse_pool3
I1122 03:11:05.826339  7059 net.cpp:100] Creating Layer fuse_pool3
I1122 03:11:05.826344  7059 net.cpp:434] fuse_pool3 <- upscore_pool4_upscore_pool4_0_split_1
I1122 03:11:05.826349  7059 net.cpp:434] fuse_pool3 <- score_pool3c
I1122 03:11:05.826356  7059 net.cpp:408] fuse_pool3 -> fuse_pool3
I1122 03:11:05.826382  7059 net.cpp:150] Setting up fuse_pool3
I1122 03:11:05.826390  7059 net.cpp:157] Top shape: 1 6 54 70 (22680)
I1122 03:11:05.826393  7059 net.cpp:165] Memory required for data: 972248736
I1122 03:11:05.826397  7059 layer_factory.hpp:77] Creating layer upscore8
I1122 03:11:05.826406  7059 net.cpp:100] Creating Layer upscore8
I1122 03:11:05.826411  7059 net.cpp:434] upscore8 <- fuse_pool3
I1122 03:11:05.826419  7059 net.cpp:408] upscore8 -> upscore8
I1122 03:11:05.826678  7059 net.cpp:150] Setting up upscore8
I1122 03:11:05.826688  7059 net.cpp:157] Top shape: 1 6 440 568 (1499520)
I1122 03:11:05.826691  7059 net.cpp:165] Memory required for data: 978246816
I1122 03:11:05.826697  7059 layer_factory.hpp:77] Creating layer score
I1122 03:11:05.826704  7059 net.cpp:100] Creating Layer score
I1122 03:11:05.826709  7059 net.cpp:434] score <- upscore8
I1122 03:11:05.826714  7059 net.cpp:434] score <- data_data_0_split_1
I1122 03:11:05.826719  7059 net.cpp:408] score -> score
I1122 03:11:05.826746  7059 net.cpp:150] Setting up score
I1122 03:11:05.826753  7059 net.cpp:157] Top shape: 1 6 375 500 (1125000)
I1122 03:11:05.826757  7059 net.cpp:165] Memory required for data: 982746816
I1122 03:11:05.826761  7059 layer_factory.hpp:77] Creating layer loss
I1122 03:11:05.826771  7059 net.cpp:100] Creating Layer loss
I1122 03:11:05.826774  7059 net.cpp:434] loss <- score
I1122 03:11:05.826781  7059 net.cpp:434] loss <- label
I1122 03:11:05.826787  7059 net.cpp:408] loss -> loss
I1122 03:11:05.826799  7059 layer_factory.hpp:77] Creating layer loss
…
I1122 03:11:05.830008  7059 net.cpp:283] Network initialization done.
I1122 03:11:05.831118  7059 solver.cpp:181] Creating test net (#0) specified by test_net file: val.prototxt
I1122 03:11:05.831490  7059 net.cpp:58] Initializing net from parameters: 
state {
  phase: TEST
}
layer {
  name: "data"
  type: "Python"
  top: "data"
  top: "label"
  python_param {
    module: "voc_layers"
    layer: "PartialVOCSegDataLayer"
    param_str: "{\'voc_dir\': \'../data/pascal-obfuscated/VOC2011\', \'seed\': 1337, \'split\': \'seg11valid5\', \'mean\': (104.00699, 116.66877, 122.67892)}"
  }
}
layer {
  name: "conv1_1"
  type: "Convolution"
  bottom: "data"
  top: "conv1_1"
  param {
    lr_mult: 1
    decay_mult: 1
  }
  param {
    lr_mult: 2
    decay_mult: 0
  }
  convolution_param {
    num_output: 64
    pad: 100
    kernel_size: 3
    stride: 1
    weight_filler {
      type: "xavier"
    }
  }
}
layer {
  name: "relu1_1"
  type: "ReLU"
  bottom: "conv1_1"
  top: "conv1_1"
}
layer {
  name: "conv1_2"
  type: "Convolution"
  bottom: "conv1_1"
  top: "conv1_2"
  param {
    lr_mult: 1
    decay_mult: 1
  }
  param {
    lr_mult: 2
    decay_mult: 0
  }
  convolution_param {
    num_output: 64
    pad: 1
    kernel_size: 3
    stride: 1
    weight_filler {
      type: "xavier"
    }
  }
}
layer {
  name: "relu1_2"
  type: "ReLU"
  bottom: "conv1_2"
  top: "conv1_2"
}
layer {
  name: "pool1"
  type: "Pooling"
  bottom: "conv1_2"
  top: "pool1"
  pooling_param {
    pool: MAX
    kernel_size: 2
    stride: 2
  }
}
layer {
  name: "conv2_1"
  type: "Convolution"
  bottom: "pool1"
  top: "conv2_1"
  param {
    lr_mult: 1
    decay_mult: 1
  }
  param {
    lr_mult: 2
    decay_mult: 0
  }
  convolution_param {
    num_output: 128
    pad: 1
    kernel_size: 3
    stride: 1
    weight_filler {
      type: "xavier"
    }
  }
}
layer {
  name: "relu2_1"
  type: "ReLU"
  bottom: "conv2_1"
  top: "conv2_1"
}
layer {
  name: "conv2_2"
  type: "Convolution"
  bottom: "conv2_1"
  top: "conv2_2"
  param {
    lr_mult: 1
    decay_mult: 1
  }
  param {
    lr_mult: 2
    decay_mult: 0
  }
  convolution_param {
    num_output: 128
    pad: 1
    kernel_size: 3
    stride: 1
    weight_filler {
      type: "xavier"
    }
  }
}
layer {
  name: "relu2_2"
  type: "ReLU"
  bottom: "conv2_2"
  top: "conv2_2"
}
layer {
  name: "pool2"
  type: "Pooling"
  bottom: "conv2_2"
  top: "pool2"
  pooling_param {
    pool: MAX
    kernel_size: 2
    stride: 2
  }
}
layer {
  name: "conv3_1"
  type: "Convolution"
  bottom: "pool2"
  top: "conv3_1"
  param {
    lr_mult: 1
    decay_mult: 1
  }
  param {
    lr_mult: 2
    decay_mult: 0
  }
  convolution_param {
    num_output: 256
    pad: 1
    kernel_size: 3
    stride: 1
    weight_filler {
      type: "xavier"
    }
  }
}
layer {
  name: "relu3_1"
  type: "ReLU"
  bottom: "conv3_1"
  top: "conv3_1"
}
layer {
  name: "conv3_2"
  type: "Convolution"
  bottom: "conv3_1"
  top: "conv3_2"
  param {
    lr_mult: 1
    decay_mult: 1
  }
  param {
    lr_mult: 2
    decay_mult: 0
  }
  convolution_param {
    num_output: 256
    pad: 1
    kernel_size: 3
    stride: 1
    weight_filler {
      type: "xavier"
    }
  }
}
layer {
  name: "relu3_2"
  type: "ReLU"
  bottom: "conv3_2"
  top: "conv3_2"
}
layer {
  name: "conv3_3"
  type: "Convolution"
  bottom: "conv3_2"
  top: "conv3_3"
  param {
    lr_mult: 1
    decay_mult: 1
  }
  param {
    lr_mult: 2
    decay_mult: 0
  }
  convolution_param {
    num_output: 256
    pad: 1
    kernel_size: 3
    stride: 1
    weight_filler {
      type: "xavier"
    }
  }
}
layer {
  name: "relu3_3"
  type: "ReLU"
  bottom: "conv3_3"
  top: "conv3_3"
}
layer {
  name: "pool3"
  type: "Pooling"
  bottom: "conv3_3"
  top: "pool3"
  pooling_param {
    pool: MAX
    kernel_size: 2
    stride: 2
  }
}
layer {
  name: "conv4_1"
  type: "Convolution"
  bottom: "pool3"
  top: "conv4_1"
  param {
    lr_mult: 1
    decay_mult: 1
  }
  param {
    lr_mult: 2
    decay_mult: 0
  }
  convolution_param {
    num_output: 512
    pad: 1
    kernel_size: 3
    stride: 1
    weight_filler {
      type: "xavier"
    }
  }
}
layer {
  name: "relu4_1"
  type: "ReLU"
  bottom: "conv4_1"
  top: "conv4_1"
}
layer {
  name: "conv4_2"
  type: "Convolution"
  bottom: "conv4_1"
  top: "conv4_2"
  param {
    lr_mult: 1
    decay_mult: 1
  }
  param {
    lr_mult: 2
    decay_mult: 0
  }
  convolution_param {
    num_output: 512
    pad: 1
    kernel_size: 3
    stride: 1
    weight_filler {
      type: "xavier"
    }
  }
}
layer {
  name: "relu4_2"
  type: "ReLU"
  bottom: "conv4_2"
  top: "conv4_2"
}
layer {
  name: "conv4_3"
  type: "Convolution"
  bottom: "conv4_2"
  top: "conv4_3"
  param {
    lr_mult: 1
    decay_mult: 1
  }
  param {
    lr_mult: 2
    decay_mult: 0
  }
  convolution_param {
    num_output: 512
    pad: 1
    kernel_size: 3
    stride: 1
    weight_filler {
      type: "xavier"
    }
  }
}
layer {
  name: "relu4_3"
  type: "ReLU"
  bottom: "conv4_3"
  top: "conv4_3"
}
layer {
  name: "pool4"
  type: "Pooling"
  bottom: "conv4_3"
  top: "pool4"
  pooling_param {
    pool: MAX
    kernel_size: 2
    stride: 2
  }
}
layer {
  name: "conv5_1"
  type: "Convolution"
  bottom: "pool4"
  top: "conv5_1"
  param {
    lr_mult: 1
    decay_mult: 1
  }
  param {
    lr_mult: 2
    decay_mult: 0
  }
  convolution_param {
    num_output: 512
    pad: 1
    kernel_size: 3
    stride: 1
    weight_filler {
      type: "xavier"
    }
  }
}
layer {
  name: "relu5_1"
  type: "ReLU"
  bottom: "conv5_1"
  top: "conv5_1"
}
layer {
  name: "conv5_2"
  type: "Convolution"
  bottom: "conv5_1"
  top: "conv5_2"
  param {
    lr_mult: 1
    decay_mult: 1
  }
  param {
    lr_mult: 2
    decay_mult: 0
  }
  convolution_param {
    num_output: 512
    pad: 1
    kernel_size: 3
    stride: 1
    weight_filler {
      type: "xavier"
    }
  }
}
layer {
  name: "relu5_2"
  type: "ReLU"
  bottom: "conv5_2"
  top: "conv5_2"
}
layer {
  name: "conv5_3"
  type: "Convolution"
  bottom: "conv5_2"
  top: "conv5_3"
  param {
    lr_mult: 1
    decay_mult: 1
  }
  param {
    lr_mult: 2
    decay_mult: 0
  }
  convolution_param {
    num_output: 512
    pad: 1
    kernel_size: 3
    stride: 1
    weight_filler {
      type: "xavier"
    }
  }
}
layer {
  name: "relu5_3"
  type: "ReLU"
  bottom: "conv5_3"
  top: "conv5_3"
}
layer {
  name: "pool5"
  type: "Pooling"
  bottom: "conv5_3"
  top: "pool5"
  pooling_param {
    pool: MAX
    kernel_size: 2
    stride: 2
  }
}
layer {
  name: "fc6"
  type: "Convolution"
  bottom: "pool5"
  top: "fc6"
  param {
    lr_mult: 1
    decay_mult: 1
  }
  param {
    lr_mult: 2
    decay_mult: 0
  }
  convolution_param {
    num_output: 4096
    pad: 0
    kernel_size: 7
    stride: 1
    weight_filler {
      type: "xavier"
    }
  }
}
layer {
  name: "relu6"
  type: "ReLU"
  bottom: "fc6"
  top: "fc6"
}
layer {
  name: "drop6"
  type: "Dropout"
  bottom: "fc6"
  top: "fc6"
  dropout_param {
    dropout_ratio: 0.5
  }
}
layer {
  name: "fc7"
  type: "Convolution"
  bottom: "fc6"
  top: "fc7"
  param {
    lr_mult: 1
    decay_mult: 1
  }
  param {
    lr_mult: 2
    decay_mult: 0
  }
  convolution_param {
    num_output: 4096
    pad: 0
    kernel_size: 1
    stride: 1
    weight_filler {
      type: "xavier"
    }
  }
}
layer {
  name: "relu7"
  type: "ReLU"
  bottom: "fc7"
  top: "fc7"
}
layer {
  name: "drop7"
  type: "Dropout"
  bottom: "fc7"
  top: "fc7"
  dropout_param {
    dropout_ratio: 0.5
  }
}
layer {
  name: "score_fr"
  type: "Convolution"
  bottom: "fc7"
  top: "score_fr"
  param {
    lr_mult: 1
    decay_mult: 1
  }
  param {
    lr_mult: 2
    decay_mult: 0
  }
  convolution_param {
    num_output: 6
    pad: 0
    kernel_size: 1
    weight_filler {
      type: "xavier"
    }
  }
}
layer {
  name: "upscore2"
  type: "Deconvolution"
  bottom: "score_fr"
  top: "upscore2"
  param {
    lr_mult: 0
  }
  convolution_param {
    num_output: 6
    bias_term: false
    kernel_size: 4
    stride: 2
    weight_filler {
      type: "xavier"
    }
  }
}
layer {
  name: "scale_pool4"
  type: "Scale"
  bottom: "pool4"
  top: "scale_pool4"
  param {
    lr_mult: 0
  }
  scale_param {
    filler {
      type: "constant"
      value: 0.01
    }
  }
}
layer {
  name: "score_pool4"
  type: "Convolution"
  bottom: "scale_pool4"
  top: "score_pool4"
  param {
    lr_mult: 1
    decay_mult: 1
  }
  param {
    lr_mult: 2
    decay_mult: 0
  }
  convolution_param {
    num_output: 6
    pad: 0
    kernel_size: 1
    weight_filler {
      type: "xavier"
    }
  }
}
layer {
  name: "score_pool4c"
  type: "Crop"
  bottom: "score_pool4"
  bottom: "upscore2"
  top: "score_pool4c"
  crop_param {
    axis: 2
    offset: 5
  }
}
layer {
  name: "fuse_pool4"
  type: "Eltwise"
  bottom: "upscore2"
  bottom: "score_pool4c"
  top: "fuse_pool4"
  eltwise_param {
    operation: SUM
  }
}
layer {
  name: "upscore_pool4"
  type: "Deconvolution"
  bottom: "fuse_pool4"
  top: "upscore_pool4"
  param {
    lr_mult: 0
  }
  convolution_param {
    num_output: 6
    bias_term: false
    kernel_size: 4
    stride: 2
    weight_filler {
      type: "xavier"
    }
  }
}
layer {
  name: "scale_pool3"
  type: "Scale"
  bottom: "pool3"
  top: "scale_pool3"
  param {
    lr_mult: 0
  }
  scale_param {
    filler {
      type: "constant"
      value: 0.0001
    }
  }
}
layer {
  name: "score_pool3"
  type: "Convolution"
  bottom: "scale_pool3"
  top: "score_pool3"
  param {
    lr_mult: 1
    decay_mult: 1
  }
  param {
    lr_mult: 2
    decay_mult: 0
  }
  convolution_param {
    num_output: 6
    pad: 0
    kernel_size: 1
    weight_filler {
      type: "xavier"
    }
  }
}
layer {
  name: "score_pool3c"
  type: "Crop"
  bottom: "score_pool3"
  bottom: "upscore_pool4"
  top: "score_pool3c"
  crop_param {
    axis: 2
    offset: 9
  }
}
layer {
  name: "fuse_pool3"
  type: "Eltwise"
  bottom: "upscore_pool4"
  bottom: "score_pool3c"
  top: "fuse_pool3"
  eltwise_param {
    operation: SUM
  }
}
layer {
  name: "upscore8"
  type: "Deconvolution"
  bottom: "fuse_pool3"
  top: "upscore8"
  param {
    lr_mult: 0
  }
  convolution_param {
    num_output: 6
    bias_term: false
    kernel_size: 16
    stride: 8
    weight_filler {
      type: "xavier"
    }
  }
}
layer {
  name: "score"
  type: "Crop"
  bottom: "upscore8"
  bottom: "data"
  top: "score"
  crop_param {
    axis: 2
    offset: 31
  }
}
layer {
  name: "loss"
  type: "SoftmaxWithLoss"
  bottom: "score"
  bottom: "label"
  top: "loss"
  loss_param {
    ignore_label: 255
    normalize: false
  }
}
I1122 03:11:05.831712  7059 layer_factory.hpp:77] Creating layer data
I1122 03:11:05.831871  7059 net.cpp:100] Creating Layer data
I1122 03:11:05.831879  7059 net.cpp:408] data -> data
I1122 03:11:05.831888  7059 net.cpp:408] data -> label
I1122 03:11:05.849253  7059 net.cpp:150] Setting up data
I1122 03:11:05.849275  7059 net.cpp:157] Top shape: 1 3 335 500 (502500)
I1122 03:11:05.849282  7059 net.cpp:157] Top shape: 1 1 335 500 (167500)
I1122 03:11:05.849287  7059 net.cpp:165] Memory required for data: 2680000
I1122 03:11:05.849292  7059 layer_factory.hpp:77] Creating layer data_data_0_split
I1122 03:11:05.849300  7059 net.cpp:100] Creating Layer data_data_0_split
I1122 03:11:05.849305  7059 net.cpp:434] data_data_0_split <- data
I1122 03:11:05.849313  7059 net.cpp:408] data_data_0_split -> data_data_0_split_0
I1122 03:11:05.849321  7059 net.cpp:408] data_data_0_split -> data_data_0_split_1
I1122 03:11:05.849364  7059 net.cpp:150] Setting up data_data_0_split
I1122 03:11:05.849371  7059 net.cpp:157] Top shape: 1 3 335 500 (502500)
I1122 03:11:05.849376  7059 net.cpp:157] Top shape: 1 3 335 500 (502500)
I1122 03:11:05.849380  7059 net.cpp:165] Memory required for data: 6700000
I1122 03:11:05.849385  7059 layer_factory.hpp:77] Creating layer conv1_1
I1122 03:11:05.849396  7059 net.cpp:100] Creating Layer conv1_1
I1122 03:11:05.849400  7059 net.cpp:434] conv1_1 <- data_data_0_split_0
I1122 03:11:05.849407  7059 net.cpp:408] conv1_1 -> conv1_1
I1122 03:11:05.851552  7059 net.cpp:150] Setting up conv1_1
I1122 03:11:05.851569  7059 net.cpp:157] Top shape: 1 64 533 698 (23810176)
I1122 03:11:05.851574  7059 net.cpp:165] Memory required for data: 101940704
I1122 03:11:05.851588  7059 layer_factory.hpp:77] Creating layer relu1_1
I1122 03:11:05.851595  7059 net.cpp:100] Creating Layer relu1_1
I1122 03:11:05.851600  7059 net.cpp:434] relu1_1 <- conv1_1
I1122 03:11:05.851606  7059 net.cpp:395] relu1_1 -> conv1_1 (in-place)
I1122 03:11:05.851796  7059 net.cpp:150] Setting up relu1_1
I1122 03:11:05.851807  7059 net.cpp:157] Top shape: 1 64 533 698 (23810176)
I1122 03:11:05.851812  7059 net.cpp:165] Memory required for data: 197181408
I1122 03:11:05.851816  7059 layer_factory.hpp:77] Creating layer conv1_2
I1122 03:11:05.851829  7059 net.cpp:100] Creating Layer conv1_2
I1122 03:11:05.851833  7059 net.cpp:434] conv1_2 <- conv1_1
I1122 03:11:05.851840  7059 net.cpp:408] conv1_2 -> conv1_2
I1122 03:11:05.854106  7059 net.cpp:150] Setting up conv1_2
I1122 03:11:05.854123  7059 net.cpp:157] Top shape: 1 64 533 698 (23810176)
I1122 03:11:05.854128  7059 net.cpp:165] Memory required for data: 292422112
I1122 03:11:05.854140  7059 layer_factory.hpp:77] Creating layer relu1_2
I1122 03:11:05.854149  7059 net.cpp:100] Creating Layer relu1_2
I1122 03:11:05.854156  7059 net.cpp:434] relu1_2 <- conv1_2
I1122 03:11:05.854162  7059 net.cpp:395] relu1_2 -> conv1_2 (in-place)
I1122 03:11:05.854526  7059 net.cpp:150] Setting up relu1_2
I1122 03:11:05.854540  7059 net.cpp:157] Top shape: 1 64 533 698 (23810176)
I1122 03:11:05.854544  7059 net.cpp:165] Memory required for data: 387662816
I1122 03:11:05.854549  7059 layer_factory.hpp:77] Creating layer pool1
I1122 03:11:05.854558  7059 net.cpp:100] Creating Layer pool1
I1122 03:11:05.854563  7059 net.cpp:434] pool1 <- conv1_2
I1122 03:11:05.854569  7059 net.cpp:408] pool1 -> pool1
I1122 03:11:05.854622  7059 net.cpp:150] Setting up pool1
I1122 03:11:05.854629  7059 net.cpp:157] Top shape: 1 64 267 349 (5963712)
I1122 03:11:05.854635  7059 net.cpp:165] Memory required for data: 411517664
I1122 03:11:05.854638  7059 layer_factory.hpp:77] Creating layer conv2_1
I1122 03:11:05.854648  7059 net.cpp:100] Creating Layer conv2_1
I1122 03:11:05.854653  7059 net.cpp:434] conv2_1 <- pool1
I1122 03:11:05.854660  7059 net.cpp:408] conv2_1 -> conv2_1
I1122 03:11:05.856849  7059 net.cpp:150] Setting up conv2_1
I1122 03:11:05.856865  7059 net.cpp:157] Top shape: 1 128 267 349 (11927424)
I1122 03:11:05.856870  7059 net.cpp:165] Memory required for data: 459227360
I1122 03:11:05.856881  7059 layer_factory.hpp:77] Creating layer relu2_1
I1122 03:11:05.856890  7059 net.cpp:100] Creating Layer relu2_1
I1122 03:11:05.856895  7059 net.cpp:434] relu2_1 <- conv2_1
I1122 03:11:05.856901  7059 net.cpp:395] relu2_1 -> conv2_1 (in-place)
I1122 03:11:05.857273  7059 net.cpp:150] Setting up relu2_1
I1122 03:11:05.857287  7059 net.cpp:157] Top shape: 1 128 267 349 (11927424)
I1122 03:11:05.857292  7059 net.cpp:165] Memory required for data: 506937056
I1122 03:11:05.857297  7059 layer_factory.hpp:77] Creating layer conv2_2
I1122 03:11:05.857308  7059 net.cpp:100] Creating Layer conv2_2
I1122 03:11:05.857313  7059 net.cpp:434] conv2_2 <- conv2_1
I1122 03:11:05.857321  7059 net.cpp:408] conv2_2 -> conv2_2
I1122 03:11:05.859854  7059 net.cpp:150] Setting up conv2_2
I1122 03:11:05.859871  7059 net.cpp:157] Top shape: 1 128 267 349 (11927424)
I1122 03:11:05.859876  7059 net.cpp:165] Memory required for data: 554646752
I1122 03:11:05.859884  7059 layer_factory.hpp:77] Creating layer relu2_2
I1122 03:11:05.859892  7059 net.cpp:100] Creating Layer relu2_2
I1122 03:11:05.859897  7059 net.cpp:434] relu2_2 <- conv2_2
I1122 03:11:05.859905  7059 net.cpp:395] relu2_2 -> conv2_2 (in-place)
I1122 03:11:05.860090  7059 net.cpp:150] Setting up relu2_2
I1122 03:11:05.860100  7059 net.cpp:157] Top shape: 1 128 267 349 (11927424)
I1122 03:11:05.860105  7059 net.cpp:165] Memory required for data: 602356448
I1122 03:11:05.860108  7059 layer_factory.hpp:77] Creating layer pool2
I1122 03:11:05.860116  7059 net.cpp:100] Creating Layer pool2
I1122 03:11:05.860121  7059 net.cpp:434] pool2 <- conv2_2
I1122 03:11:05.860127  7059 net.cpp:408] pool2 -> pool2
I1122 03:11:05.860177  7059 net.cpp:150] Setting up pool2
I1122 03:11:05.860185  7059 net.cpp:157] Top shape: 1 128 134 175 (3001600)
I1122 03:11:05.860189  7059 net.cpp:165] Memory required for data: 614362848
I1122 03:11:05.860193  7059 layer_factory.hpp:77] Creating layer conv3_1
I1122 03:11:05.860203  7059 net.cpp:100] Creating Layer conv3_1
I1122 03:11:05.860208  7059 net.cpp:434] conv3_1 <- pool2
I1122 03:11:05.860215  7059 net.cpp:408] conv3_1 -> conv3_1
I1122 03:11:05.863486  7059 net.cpp:150] Setting up conv3_1
I1122 03:11:05.863502  7059 net.cpp:157] Top shape: 1 256 134 175 (6003200)
I1122 03:11:05.863507  7059 net.cpp:165] Memory required for data: 638375648
I1122 03:11:05.863518  7059 layer_factory.hpp:77] Creating layer relu3_1
I1122 03:11:05.863533  7059 net.cpp:100] Creating Layer relu3_1
I1122 03:11:05.863538  7059 net.cpp:434] relu3_1 <- conv3_1
I1122 03:11:05.863545  7059 net.cpp:395] relu3_1 -> conv3_1 (in-place)
I1122 03:11:05.863898  7059 net.cpp:150] Setting up relu3_1
I1122 03:11:05.863912  7059 net.cpp:157] Top shape: 1 256 134 175 (6003200)
I1122 03:11:05.863917  7059 net.cpp:165] Memory required for data: 662388448
I1122 03:11:05.863922  7059 layer_factory.hpp:77] Creating layer conv3_2
I1122 03:11:05.863932  7059 net.cpp:100] Creating Layer conv3_2
I1122 03:11:05.863939  7059 net.cpp:434] conv3_2 <- conv3_1
I1122 03:11:05.863945  7059 net.cpp:408] conv3_2 -> conv3_2
I1122 03:11:05.869160  7059 net.cpp:150] Setting up conv3_2
I1122 03:11:05.869177  7059 net.cpp:157] Top shape: 1 256 134 175 (6003200)
I1122 03:11:05.869182  7059 net.cpp:165] Memory required for data: 686401248
I1122 03:11:05.869190  7059 layer_factory.hpp:77] Creating layer relu3_2
I1122 03:11:05.869199  7059 net.cpp:100] Creating Layer relu3_2
I1122 03:11:05.869204  7059 net.cpp:434] relu3_2 <- conv3_2
I1122 03:11:05.869211  7059 net.cpp:395] relu3_2 -> conv3_2 (in-place)
I1122 03:11:05.869396  7059 net.cpp:150] Setting up relu3_2
I1122 03:11:05.869407  7059 net.cpp:157] Top shape: 1 256 134 175 (6003200)
I1122 03:11:05.869411  7059 net.cpp:165] Memory required for data: 710414048
I1122 03:11:05.869416  7059 layer_factory.hpp:77] Creating layer conv3_3
I1122 03:11:05.869429  7059 net.cpp:100] Creating Layer conv3_3
I1122 03:11:05.869434  7059 net.cpp:434] conv3_3 <- conv3_2
I1122 03:11:05.869442  7059 net.cpp:408] conv3_3 -> conv3_3
I1122 03:11:05.874691  7059 net.cpp:150] Setting up conv3_3
I1122 03:11:05.874707  7059 net.cpp:157] Top shape: 1 256 134 175 (6003200)
I1122 03:11:05.874712  7059 net.cpp:165] Memory required for data: 734426848
I1122 03:11:05.874722  7059 layer_factory.hpp:77] Creating layer relu3_3
I1122 03:11:05.874729  7059 net.cpp:100] Creating Layer relu3_3
I1122 03:11:05.874734  7059 net.cpp:434] relu3_3 <- conv3_3
I1122 03:11:05.874742  7059 net.cpp:395] relu3_3 -> conv3_3 (in-place)
I1122 03:11:05.874929  7059 net.cpp:150] Setting up relu3_3
I1122 03:11:05.874939  7059 net.cpp:157] Top shape: 1 256 134 175 (6003200)
I1122 03:11:05.874944  7059 net.cpp:165] Memory required for data: 758439648
I1122 03:11:05.874948  7059 layer_factory.hpp:77] Creating layer pool3
I1122 03:11:05.874956  7059 net.cpp:100] Creating Layer pool3
I1122 03:11:05.874961  7059 net.cpp:434] pool3 <- conv3_3
I1122 03:11:05.874969  7059 net.cpp:408] pool3 -> pool3
I1122 03:11:05.875020  7059 net.cpp:150] Setting up pool3
I1122 03:11:05.875026  7059 net.cpp:157] Top shape: 1 256 67 88 (1509376)
I1122 03:11:05.875031  7059 net.cpp:165] Memory required for data: 764477152
I1122 03:11:05.875036  7059 layer_factory.hpp:77] Creating layer pool3_pool3_0_split
I1122 03:11:05.875042  7059 net.cpp:100] Creating Layer pool3_pool3_0_split
I1122 03:11:05.875047  7059 net.cpp:434] pool3_pool3_0_split <- pool3
I1122 03:11:05.875053  7059 net.cpp:408] pool3_pool3_0_split -> pool3_pool3_0_split_0
I1122 03:11:05.875061  7059 net.cpp:408] pool3_pool3_0_split -> pool3_pool3_0_split_1
I1122 03:11:05.875102  7059 net.cpp:150] Setting up pool3_pool3_0_split
I1122 03:11:05.875109  7059 net.cpp:157] Top shape: 1 256 67 88 (1509376)
I1122 03:11:05.875114  7059 net.cpp:157] Top shape: 1 256 67 88 (1509376)
I1122 03:11:05.875118  7059 net.cpp:165] Memory required for data: 776552160
I1122 03:11:05.875123  7059 layer_factory.hpp:77] Creating layer conv4_1
I1122 03:11:05.875133  7059 net.cpp:100] Creating Layer conv4_1
I1122 03:11:05.875138  7059 net.cpp:434] conv4_1 <- pool3_pool3_0_split_0
I1122 03:11:05.875145  7059 net.cpp:408] conv4_1 -> conv4_1
I1122 03:11:05.884254  7059 net.cpp:150] Setting up conv4_1
I1122 03:11:05.884274  7059 net.cpp:157] Top shape: 1 512 67 88 (3018752)
I1122 03:11:05.884279  7059 net.cpp:165] Memory required for data: 788627168
I1122 03:11:05.884286  7059 layer_factory.hpp:77] Creating layer relu4_1
I1122 03:11:05.884295  7059 net.cpp:100] Creating Layer relu4_1
I1122 03:11:05.884300  7059 net.cpp:434] relu4_1 <- conv4_1
I1122 03:11:05.884315  7059 net.cpp:395] relu4_1 -> conv4_1 (in-place)
I1122 03:11:05.884677  7059 net.cpp:150] Setting up relu4_1
I1122 03:11:05.884690  7059 net.cpp:157] Top shape: 1 512 67 88 (3018752)
I1122 03:11:05.884696  7059 net.cpp:165] Memory required for data: 800702176
I1122 03:11:05.884701  7059 layer_factory.hpp:77] Creating layer conv4_2
I1122 03:11:05.884711  7059 net.cpp:100] Creating Layer conv4_2
I1122 03:11:05.884716  7059 net.cpp:434] conv4_2 <- conv4_1
I1122 03:11:05.884726  7059 net.cpp:408] conv4_2 -> conv4_2
I1122 03:11:05.901851  7059 net.cpp:150] Setting up conv4_2
I1122 03:11:05.901885  7059 net.cpp:157] Top shape: 1 512 67 88 (3018752)
I1122 03:11:05.901890  7059 net.cpp:165] Memory required for data: 812777184
I1122 03:11:05.901904  7059 layer_factory.hpp:77] Creating layer relu4_2
I1122 03:11:05.901914  7059 net.cpp:100] Creating Layer relu4_2
I1122 03:11:05.901921  7059 net.cpp:434] relu4_2 <- conv4_2
I1122 03:11:05.901928  7059 net.cpp:395] relu4_2 -> conv4_2 (in-place)
I1122 03:11:05.902124  7059 net.cpp:150] Setting up relu4_2
I1122 03:11:05.902134  7059 net.cpp:157] Top shape: 1 512 67 88 (3018752)
I1122 03:11:05.902139  7059 net.cpp:165] Memory required for data: 824852192
I1122 03:11:05.902144  7059 layer_factory.hpp:77] Creating layer conv4_3
I1122 03:11:05.902155  7059 net.cpp:100] Creating Layer conv4_3
I1122 03:11:05.902160  7059 net.cpp:434] conv4_3 <- conv4_2
I1122 03:11:05.902168  7059 net.cpp:408] conv4_3 -> conv4_3
I1122 03:11:05.919487  7059 net.cpp:150] Setting up conv4_3
I1122 03:11:05.919523  7059 net.cpp:157] Top shape: 1 512 67 88 (3018752)
I1122 03:11:05.919528  7059 net.cpp:165] Memory required for data: 836927200
I1122 03:11:05.919538  7059 layer_factory.hpp:77] Creating layer relu4_3
I1122 03:11:05.919548  7059 net.cpp:100] Creating Layer relu4_3
I1122 03:11:05.919554  7059 net.cpp:434] relu4_3 <- conv4_3
I1122 03:11:05.919562  7059 net.cpp:395] relu4_3 -> conv4_3 (in-place)
I1122 03:11:05.919770  7059 net.cpp:150] Setting up relu4_3
I1122 03:11:05.919780  7059 net.cpp:157] Top shape: 1 512 67 88 (3018752)
I1122 03:11:05.919785  7059 net.cpp:165] Memory required for data: 849002208
I1122 03:11:05.919788  7059 layer_factory.hpp:77] Creating layer pool4
I1122 03:11:05.919797  7059 net.cpp:100] Creating Layer pool4
I1122 03:11:05.919802  7059 net.cpp:434] pool4 <- conv4_3
I1122 03:11:05.919809  7059 net.cpp:408] pool4 -> pool4
I1122 03:11:05.919863  7059 net.cpp:150] Setting up pool4
I1122 03:11:05.919872  7059 net.cpp:157] Top shape: 1 512 34 44 (765952)
I1122 03:11:05.919875  7059 net.cpp:165] Memory required for data: 852066016
I1122 03:11:05.919879  7059 layer_factory.hpp:77] Creating layer pool4_pool4_0_split
I1122 03:11:05.919888  7059 net.cpp:100] Creating Layer pool4_pool4_0_split
I1122 03:11:05.919891  7059 net.cpp:434] pool4_pool4_0_split <- pool4
I1122 03:11:05.919898  7059 net.cpp:408] pool4_pool4_0_split -> pool4_pool4_0_split_0
I1122 03:11:05.919905  7059 net.cpp:408] pool4_pool4_0_split -> pool4_pool4_0_split_1
I1122 03:11:05.919947  7059 net.cpp:150] Setting up pool4_pool4_0_split
I1122 03:11:05.919955  7059 net.cpp:157] Top shape: 1 512 34 44 (765952)
I1122 03:11:05.919960  7059 net.cpp:157] Top shape: 1 512 34 44 (765952)
I1122 03:11:05.919963  7059 net.cpp:165] Memory required for data: 858193632
I1122 03:11:05.919968  7059 layer_factory.hpp:77] Creating layer conv5_1
I1122 03:11:05.919980  7059 net.cpp:100] Creating Layer conv5_1
I1122 03:11:05.919984  7059 net.cpp:434] conv5_1 <- pool4_pool4_0_split_0
I1122 03:11:05.919991  7059 net.cpp:408] conv5_1 -> conv5_1
I1122 03:11:05.937146  7059 net.cpp:150] Setting up conv5_1
I1122 03:11:05.937180  7059 net.cpp:157] Top shape: 1 512 34 44 (765952)
I1122 03:11:05.937186  7059 net.cpp:165] Memory required for data: 861257440
I1122 03:11:05.937196  7059 layer_factory.hpp:77] Creating layer relu5_1
I1122 03:11:05.937206  7059 net.cpp:100] Creating Layer relu5_1
I1122 03:11:05.937211  7059 net.cpp:434] relu5_1 <- conv5_1
I1122 03:11:05.937219  7059 net.cpp:395] relu5_1 -> conv5_1 (in-place)
I1122 03:11:05.937597  7059 net.cpp:150] Setting up relu5_1
I1122 03:11:05.937610  7059 net.cpp:157] Top shape: 1 512 34 44 (765952)
I1122 03:11:05.937615  7059 net.cpp:165] Memory required for data: 864321248
I1122 03:11:05.937620  7059 layer_factory.hpp:77] Creating layer conv5_2
I1122 03:11:05.937633  7059 net.cpp:100] Creating Layer conv5_2
I1122 03:11:05.937638  7059 net.cpp:434] conv5_2 <- conv5_1
I1122 03:11:05.937645  7059 net.cpp:408] conv5_2 -> conv5_2
I1122 03:11:05.954694  7059 net.cpp:150] Setting up conv5_2
I1122 03:11:05.954723  7059 net.cpp:157] Top shape: 1 512 34 44 (765952)
I1122 03:11:05.954728  7059 net.cpp:165] Memory required for data: 867385056
I1122 03:11:05.954737  7059 layer_factory.hpp:77] Creating layer relu5_2
I1122 03:11:05.954748  7059 net.cpp:100] Creating Layer relu5_2
I1122 03:11:05.954754  7059 net.cpp:434] relu5_2 <- conv5_2
I1122 03:11:05.954762  7059 net.cpp:395] relu5_2 -> conv5_2 (in-place)
I1122 03:11:05.954957  7059 net.cpp:150] Setting up relu5_2
I1122 03:11:05.954967  7059 net.cpp:157] Top shape: 1 512 34 44 (765952)
I1122 03:11:05.954970  7059 net.cpp:165] Memory required for data: 870448864
I1122 03:11:05.954975  7059 layer_factory.hpp:77] Creating layer conv5_3
I1122 03:11:05.954991  7059 net.cpp:100] Creating Layer conv5_3
I1122 03:11:05.954998  7059 net.cpp:434] conv5_3 <- conv5_2
I1122 03:11:05.955005  7059 net.cpp:408] conv5_3 -> conv5_3
I1122 03:11:05.972028  7059 net.cpp:150] Setting up conv5_3
I1122 03:11:05.972054  7059 net.cpp:157] Top shape: 1 512 34 44 (765952)
I1122 03:11:05.972060  7059 net.cpp:165] Memory required for data: 873512672
I1122 03:11:05.972069  7059 layer_factory.hpp:77] Creating layer relu5_3
I1122 03:11:05.972079  7059 net.cpp:100] Creating Layer relu5_3
I1122 03:11:05.972084  7059 net.cpp:434] relu5_3 <- conv5_3
I1122 03:11:05.972092  7059 net.cpp:395] relu5_3 -> conv5_3 (in-place)
I1122 03:11:05.972280  7059 net.cpp:150] Setting up relu5_3
I1122 03:11:05.972290  7059 net.cpp:157] Top shape: 1 512 34 44 (765952)
I1122 03:11:05.972295  7059 net.cpp:165] Memory required for data: 876576480
I1122 03:11:05.972298  7059 layer_factory.hpp:77] Creating layer pool5
I1122 03:11:05.972308  7059 net.cpp:100] Creating Layer pool5
I1122 03:11:05.972312  7059 net.cpp:434] pool5 <- conv5_3
I1122 03:11:05.972319  7059 net.cpp:408] pool5 -> pool5
I1122 03:11:05.972375  7059 net.cpp:150] Setting up pool5
I1122 03:11:05.972383  7059 net.cpp:157] Top shape: 1 512 17 22 (191488)
I1122 03:11:05.972386  7059 net.cpp:165] Memory required for data: 877342432
I1122 03:11:05.972390  7059 layer_factory.hpp:77] Creating layer fc6
I1122 03:11:05.972403  7059 net.cpp:100] Creating Layer fc6
I1122 03:11:05.972406  7059 net.cpp:434] fc6 <- pool5
I1122 03:11:05.972414  7059 net.cpp:408] fc6 -> fc6
I1122 03:11:06.681118  7059 net.cpp:150] Setting up fc6
I1122 03:11:06.681179  7059 net.cpp:157] Top shape: 1 4096 11 16 (720896)
I1122 03:11:06.681185  7059 net.cpp:165] Memory required for data: 880226016
I1122 03:11:06.681200  7059 layer_factory.hpp:77] Creating layer relu6
I1122 03:11:06.681219  7059 net.cpp:100] Creating Layer relu6
I1122 03:11:06.681228  7059 net.cpp:434] relu6 <- fc6
I1122 03:11:06.681237  7059 net.cpp:395] relu6 -> fc6 (in-place)
I1122 03:11:06.681628  7059 net.cpp:150] Setting up relu6
I1122 03:11:06.681643  7059 net.cpp:157] Top shape: 1 4096 11 16 (720896)
I1122 03:11:06.681648  7059 net.cpp:165] Memory required for data: 883109600
I1122 03:11:06.681653  7059 layer_factory.hpp:77] Creating layer drop6
I1122 03:11:06.681663  7059 net.cpp:100] Creating Layer drop6
I1122 03:11:06.681668  7059 net.cpp:434] drop6 <- fc6
I1122 03:11:06.681674  7059 net.cpp:395] drop6 -> fc6 (in-place)
I1122 03:11:06.681731  7059 net.cpp:150] Setting up drop6
I1122 03:11:06.681740  7059 net.cpp:157] Top shape: 1 4096 11 16 (720896)
I1122 03:11:06.681743  7059 net.cpp:165] Memory required for data: 885993184
I1122 03:11:06.681748  7059 layer_factory.hpp:77] Creating layer fc7
I1122 03:11:06.681763  7059 net.cpp:100] Creating Layer fc7
I1122 03:11:06.681767  7059 net.cpp:434] fc7 <- fc6
I1122 03:11:06.681792  7059 net.cpp:408] fc7 -> fc7
I1122 03:11:06.798696  7059 net.cpp:150] Setting up fc7
I1122 03:11:06.798741  7059 net.cpp:157] Top shape: 1 4096 11 16 (720896)
I1122 03:11:06.798746  7059 net.cpp:165] Memory required for data: 888876768
I1122 03:11:06.798758  7059 layer_factory.hpp:77] Creating layer relu7
I1122 03:11:06.798770  7059 net.cpp:100] Creating Layer relu7
I1122 03:11:06.798776  7059 net.cpp:434] relu7 <- fc7
I1122 03:11:06.798785  7059 net.cpp:395] relu7 -> fc7 (in-place)
I1122 03:11:06.798991  7059 net.cpp:150] Setting up relu7
I1122 03:11:06.799002  7059 net.cpp:157] Top shape: 1 4096 11 16 (720896)
I1122 03:11:06.799006  7059 net.cpp:165] Memory required for data: 891760352
I1122 03:11:06.799011  7059 layer_factory.hpp:77] Creating layer drop7
I1122 03:11:06.799021  7059 net.cpp:100] Creating Layer drop7
I1122 03:11:06.799026  7059 net.cpp:434] drop7 <- fc7
I1122 03:11:06.799032  7059 net.cpp:395] drop7 -> fc7 (in-place)
I1122 03:11:06.799073  7059 net.cpp:150] Setting up drop7
I1122 03:11:06.799080  7059 net.cpp:157] Top shape: 1 4096 11 16 (720896)
I1122 03:11:06.799084  7059 net.cpp:165] Memory required for data: 894643936
I1122 03:11:06.799088  7059 layer_factory.hpp:77] Creating layer score_fr
I1122 03:11:06.799103  7059 net.cpp:100] Creating Layer score_fr
I1122 03:11:06.799106  7059 net.cpp:434] score_fr <- fc7
I1122 03:11:06.799116  7059 net.cpp:408] score_fr -> score_fr
I1122 03:11:06.801391  7059 net.cpp:150] Setting up score_fr
I1122 03:11:06.801409  7059 net.cpp:157] Top shape: 1 6 11 16 (1056)
I1122 03:11:06.801414  7059 net.cpp:165] Memory required for data: 894648160
I1122 03:11:06.801424  7059 layer_factory.hpp:77] Creating layer upscore2
I1122 03:11:06.801434  7059 net.cpp:100] Creating Layer upscore2
I1122 03:11:06.801440  7059 net.cpp:434] upscore2 <- score_fr
I1122 03:11:06.801448  7059 net.cpp:408] upscore2 -> upscore2
I1122 03:11:06.801714  7059 net.cpp:150] Setting up upscore2
I1122 03:11:06.801723  7059 net.cpp:157] Top shape: 1 6 24 34 (4896)
I1122 03:11:06.801728  7059 net.cpp:165] Memory required for data: 894667744
I1122 03:11:06.801748  7059 layer_factory.hpp:77] Creating layer upscore2_upscore2_0_split
I1122 03:11:06.801759  7059 net.cpp:100] Creating Layer upscore2_upscore2_0_split
I1122 03:11:06.801762  7059 net.cpp:434] upscore2_upscore2_0_split <- upscore2
I1122 03:11:06.801769  7059 net.cpp:408] upscore2_upscore2_0_split -> upscore2_upscore2_0_split_0
I1122 03:11:06.801777  7059 net.cpp:408] upscore2_upscore2_0_split -> upscore2_upscore2_0_split_1
I1122 03:11:06.801825  7059 net.cpp:150] Setting up upscore2_upscore2_0_split
I1122 03:11:06.801831  7059 net.cpp:157] Top shape: 1 6 24 34 (4896)
I1122 03:11:06.801837  7059 net.cpp:157] Top shape: 1 6 24 34 (4896)
I1122 03:11:06.801841  7059 net.cpp:165] Memory required for data: 894706912
I1122 03:11:06.801846  7059 layer_factory.hpp:77] Creating layer scale_pool4
I1122 03:11:06.801856  7059 net.cpp:100] Creating Layer scale_pool4
I1122 03:11:06.801861  7059 net.cpp:434] scale_pool4 <- pool4_pool4_0_split_1
I1122 03:11:06.801868  7059 net.cpp:408] scale_pool4 -> scale_pool4
I1122 03:11:06.802007  7059 net.cpp:150] Setting up scale_pool4
I1122 03:11:06.802016  7059 net.cpp:157] Top shape: 1 512 34 44 (765952)
I1122 03:11:06.802021  7059 net.cpp:165] Memory required for data: 897770720
I1122 03:11:06.802026  7059 layer_factory.hpp:77] Creating layer score_pool4
I1122 03:11:06.802038  7059 net.cpp:100] Creating Layer score_pool4
I1122 03:11:06.802042  7059 net.cpp:434] score_pool4 <- scale_pool4
I1122 03:11:06.802050  7059 net.cpp:408] score_pool4 -> score_pool4
I1122 03:11:06.803390  7059 net.cpp:150] Setting up score_pool4
I1122 03:11:06.803406  7059 net.cpp:157] Top shape: 1 6 34 44 (8976)
I1122 03:11:06.803411  7059 net.cpp:165] Memory required for data: 897806624
I1122 03:11:06.803421  7059 layer_factory.hpp:77] Creating layer score_pool4c
I1122 03:11:06.803431  7059 net.cpp:100] Creating Layer score_pool4c
I1122 03:11:06.803436  7059 net.cpp:434] score_pool4c <- score_pool4
I1122 03:11:06.803454  7059 net.cpp:434] score_pool4c <- upscore2_upscore2_0_split_0
I1122 03:11:06.803463  7059 net.cpp:408] score_pool4c -> score_pool4c
I1122 03:11:06.803503  7059 net.cpp:150] Setting up score_pool4c
I1122 03:11:06.803510  7059 net.cpp:157] Top shape: 1 6 24 34 (4896)
I1122 03:11:06.803514  7059 net.cpp:165] Memory required for data: 897826208
I1122 03:11:06.803519  7059 layer_factory.hpp:77] Creating layer fuse_pool4
I1122 03:11:06.803527  7059 net.cpp:100] Creating Layer fuse_pool4
I1122 03:11:06.803531  7059 net.cpp:434] fuse_pool4 <- upscore2_upscore2_0_split_1
I1122 03:11:06.803537  7059 net.cpp:434] fuse_pool4 <- score_pool4c
I1122 03:11:06.803544  7059 net.cpp:408] fuse_pool4 -> fuse_pool4
I1122 03:11:06.803577  7059 net.cpp:150] Setting up fuse_pool4
I1122 03:11:06.803586  7059 net.cpp:157] Top shape: 1 6 24 34 (4896)
I1122 03:11:06.803589  7059 net.cpp:165] Memory required for data: 897845792
I1122 03:11:06.803593  7059 layer_factory.hpp:77] Creating layer upscore_pool4
I1122 03:11:06.803602  7059 net.cpp:100] Creating Layer upscore_pool4
I1122 03:11:06.803606  7059 net.cpp:434] upscore_pool4 <- fuse_pool4
I1122 03:11:06.803614  7059 net.cpp:408] upscore_pool4 -> upscore_pool4
I1122 03:11:06.803858  7059 net.cpp:150] Setting up upscore_pool4
I1122 03:11:06.803867  7059 net.cpp:157] Top shape: 1 6 50 70 (21000)
I1122 03:11:06.803871  7059 net.cpp:165] Memory required for data: 897929792
I1122 03:11:06.803877  7059 layer_factory.hpp:77] Creating layer upscore_pool4_upscore_pool4_0_split
I1122 03:11:06.803885  7059 net.cpp:100] Creating Layer upscore_pool4_upscore_pool4_0_split
I1122 03:11:06.803889  7059 net.cpp:434] upscore_pool4_upscore_pool4_0_split <- upscore_pool4
I1122 03:11:06.803896  7059 net.cpp:408] upscore_pool4_upscore_pool4_0_split -> upscore_pool4_upscore_pool4_0_split_0
I1122 03:11:06.803903  7059 net.cpp:408] upscore_pool4_upscore_pool4_0_split -> upscore_pool4_upscore_pool4_0_split_1
I1122 03:11:06.803949  7059 net.cpp:150] Setting up upscore_pool4_upscore_pool4_0_split
I1122 03:11:06.803956  7059 net.cpp:157] Top shape: 1 6 50 70 (21000)
I1122 03:11:06.803962  7059 net.cpp:157] Top shape: 1 6 50 70 (21000)
I1122 03:11:06.803966  7059 net.cpp:165] Memory required for data: 898097792
I1122 03:11:06.803971  7059 layer_factory.hpp:77] Creating layer scale_pool3
I1122 03:11:06.803978  7059 net.cpp:100] Creating Layer scale_pool3
I1122 03:11:06.803982  7059 net.cpp:434] scale_pool3 <- pool3_pool3_0_split_1
I1122 03:11:06.803989  7059 net.cpp:408] scale_pool3 -> scale_pool3
I1122 03:11:06.804112  7059 net.cpp:150] Setting up scale_pool3
I1122 03:11:06.804121  7059 net.cpp:157] Top shape: 1 256 67 88 (1509376)
I1122 03:11:06.804124  7059 net.cpp:165] Memory required for data: 904135296
I1122 03:11:06.804129  7059 layer_factory.hpp:77] Creating layer score_pool3
I1122 03:11:06.804141  7059 net.cpp:100] Creating Layer score_pool3
I1122 03:11:06.804146  7059 net.cpp:434] score_pool3 <- scale_pool3
I1122 03:11:06.804153  7059 net.cpp:408] score_pool3 -> score_pool3
I1122 03:11:06.805452  7059 net.cpp:150] Setting up score_pool3
I1122 03:11:06.805467  7059 net.cpp:157] Top shape: 1 6 67 88 (35376)
I1122 03:11:06.805472  7059 net.cpp:165] Memory required for data: 904276800
I1122 03:11:06.805480  7059 layer_factory.hpp:77] Creating layer score_pool3c
I1122 03:11:06.805490  7059 net.cpp:100] Creating Layer score_pool3c
I1122 03:11:06.805495  7059 net.cpp:434] score_pool3c <- score_pool3
I1122 03:11:06.805501  7059 net.cpp:434] score_pool3c <- upscore_pool4_upscore_pool4_0_split_0
I1122 03:11:06.805508  7059 net.cpp:408] score_pool3c -> score_pool3c
I1122 03:11:06.805546  7059 net.cpp:150] Setting up score_pool3c
I1122 03:11:06.805554  7059 net.cpp:157] Top shape: 1 6 50 70 (21000)
I1122 03:11:06.805558  7059 net.cpp:165] Memory required for data: 904360800
I1122 03:11:06.805562  7059 layer_factory.hpp:77] Creating layer fuse_pool3
I1122 03:11:06.805569  7059 net.cpp:100] Creating Layer fuse_pool3
I1122 03:11:06.805575  7059 net.cpp:434] fuse_pool3 <- upscore_pool4_upscore_pool4_0_split_1
I1122 03:11:06.805586  7059 net.cpp:434] fuse_pool3 <- score_pool3c
I1122 03:11:06.805593  7059 net.cpp:408] fuse_pool3 -> fuse_pool3
I1122 03:11:06.805626  7059 net.cpp:150] Setting up fuse_pool3
I1122 03:11:06.805634  7059 net.cpp:157] Top shape: 1 6 50 70 (21000)
I1122 03:11:06.805637  7059 net.cpp:165] Memory required for data: 904444800
I1122 03:11:06.805641  7059 layer_factory.hpp:77] Creating layer upscore8
I1122 03:11:06.805652  7059 net.cpp:100] Creating Layer upscore8
I1122 03:11:06.805656  7059 net.cpp:434] upscore8 <- fuse_pool3
I1122 03:11:06.805663  7059 net.cpp:408] upscore8 -> upscore8
I1122 03:11:06.805968  7059 net.cpp:150] Setting up upscore8
I1122 03:11:06.805977  7059 net.cpp:157] Top shape: 1 6 408 568 (1390464)
I1122 03:11:06.805981  7059 net.cpp:165] Memory required for data: 910006656
I1122 03:11:06.805987  7059 layer_factory.hpp:77] Creating layer score
I1122 03:11:06.805995  7059 net.cpp:100] Creating Layer score
I1122 03:11:06.806000  7059 net.cpp:434] score <- upscore8
I1122 03:11:06.806005  7059 net.cpp:434] score <- data_data_0_split_1
I1122 03:11:06.806012  7059 net.cpp:408] score -> score
I1122 03:11:06.806043  7059 net.cpp:150] Setting up score
I1122 03:11:06.806051  7059 net.cpp:157] Top shape: 1 6 335 500 (1005000)
I1122 03:11:06.806054  7059 net.cpp:165] Memory required for data: 914026656
I1122 03:11:06.806058  7059 layer_factory.hpp:77] Creating layer loss
I1122 03:11:06.806067  7059 net.cpp:100] Creating Layer loss
I1122 03:11:06.806072  7059 net.cpp:434] loss <- score
I1122 03:11:06.806077  7059 net.cpp:434] loss <- label
I1122 03:11:06.806083  7059 net.cpp:408] loss -> loss
I1122 03:11:06.806093  7059 layer_factory.hpp:77] Creating layer loss
…
