…
test_initialization: false
average_loss: 20
iter_size: 1
I0115 15:10:04.315538 23441 solver.cpp:81] Creating training net from train_net file: train.prototxt
I0115 15:10:04.317806 23441 net.cpp:58] Initializing net from parameters: 
state {
  phase: TRAIN
}
layer {
  name: "data"
  type: "Python"
  top: "data"
  top: "label"
  python_param {
    module: "voc_layers"
    layer: "PartialSBDDSegDataLayer"
    param_str: "{\'sbdd_dir\': \'../data/sbdd/dataset\', \'seed\': 1337, \'split\': \'train5\', \'mean\': (104.00699, 116.66877, 122.67892)}"
  }
}
layer {
  name: "conv1_1"
  type: "Convolution"
  bottom: "data"
  top: "conv1_1"
  param {
    lr_mult: 1
    decay_mult: 1
  }
  param {
    lr_mult: 2
    decay_mult: 0
  }
  convolution_param {
    num_output: 64
    pad: 100
    kernel_size: 3
    stride: 1
    weight_filler {
      type: "xavier"
    }
  }
}
layer {
  name: "relu1_1"
  type: "ReLU"
  bottom: "conv1_1"
  top: "conv1_1"
}
layer {
  name: "conv1_2"
  type: "Convolution"
  bottom: "conv1_1"
  top: "conv1_2"
  param {
    lr_mult: 1
    decay_mult: 1
  }
  param {
    lr_mult: 2
    decay_mult: 0
  }
  convolution_param {
    num_output: 64
    pad: 1
    kernel_size: 3
    stride: 1
    weight_filler {
      type: "xavier"
    }
  }
}
layer {
  name: "relu1_2"
  type: "ReLU"
  bottom: "conv1_2"
  top: "conv1_2"
}
layer {
  name: "pool1"
  type: "Pooling"
  bottom: "conv1_2"
  top: "pool1"
  pooling_param {
    pool: MAX
    kernel_size: 2
    stride: 2
  }
}
layer {
  name: "conv2_1"
  type: "Convolution"
  bottom: "pool1"
  top: "conv2_1"
  param {
    lr_mult: 1
    decay_mult: 1
  }
  param {
    lr_mult: 2
    decay_mult: 0
  }
  convolution_param {
    num_output: 128
    pad: 1
    kernel_size: 3
    stride: 1
    weight_filler {
      type: "xavier"
    }
  }
}
layer {
  name: "relu2_1"
  type: "ReLU"
  bottom: "conv2_1"
  top: "conv2_1"
}
layer {
  name: "conv2_2"
  type: "Convolution"
  bottom: "conv2_1"
  top: "conv2_2"
  param {
    lr_mult: 1
    decay_mult: 1
  }
  param {
    lr_mult: 2
    decay_mult: 0
  }
  convolution_param {
    num_output: 128
    pad: 1
    kernel_size: 3
    stride: 1
    weight_filler {
      type: "xavier"
    }
  }
}
layer {
  name: "relu2_2"
  type: "ReLU"
  bottom: "conv2_2"
  top: "conv2_2"
}
layer {
  name: "pool2"
  type: "Pooling"
  bottom: "conv2_2"
  top: "pool2"
  pooling_param {
    pool: MAX
    kernel_size: 2
    stride: 2
  }
}
layer {
  name: "conv3_1"
  type: "Convolution"
  bottom: "pool2"
  top: "conv3_1"
  param {
    lr_mult: 1
    decay_mult: 1
  }
  param {
    lr_mult: 2
    decay_mult: 0
  }
  convolution_param {
    num_output: 256
    pad: 1
    kernel_size: 3
    stride: 1
    weight_filler {
      type: "xavier"
    }
  }
}
layer {
  name: "relu3_1"
  type: "ReLU"
  bottom: "conv3_1"
  top: "conv3_1"
}
layer {
  name: "conv3_2"
  type: "Convolution"
  bottom: "conv3_1"
  top: "conv3_2"
  param {
    lr_mult: 1
    decay_mult: 1
  }
  param {
    lr_mult: 2
    decay_mult: 0
  }
  convolution_param {
    num_output: 256
    pad: 1
    kernel_size: 3
    stride: 1
    weight_filler {
      type: "xavier"
    }
  }
}
layer {
  name: "relu3_2"
  type: "ReLU"
  bottom: "conv3_2"
  top: "conv3_2"
}
layer {
  name: "conv3_3"
  type: "Convolution"
  bottom: "conv3_2"
  top: "conv3_3"
  param {
    lr_mult: 1
    decay_mult: 1
  }
  param {
    lr_mult: 2
    decay_mult: 0
  }
  convolution_param {
    num_output: 256
    pad: 1
    kernel_size: 3
    stride: 1
    weight_filler {
      type: "xavier"
    }
  }
}
layer {
  name: "relu3_3"
  type: "ReLU"
  bottom: "conv3_3"
  top: "conv3_3"
}
layer {
  name: "pool3"
  type: "Pooling"
  bottom: "conv3_3"
  top: "pool3"
  pooling_param {
    pool: MAX
    kernel_size: 2
    stride: 2
  }
}
layer {
  name: "conv4_1"
  type: "Convolution"
  bottom: "pool3"
  top: "conv4_1"
  param {
    lr_mult: 1
    decay_mult: 1
  }
  param {
    lr_mult: 2
    decay_mult: 0
  }
  convolution_param {
    num_output: 512
    pad: 1
    kernel_size: 3
    stride: 1
    weight_filler {
      type: "xavier"
    }
  }
}
layer {
  name: "relu4_1"
  type: "ReLU"
  bottom: "conv4_1"
  top: "conv4_1"
}
layer {
  name: "conv4_2"
  type: "Convolution"
  bottom: "conv4_1"
  top: "conv4_2"
  param {
    lr_mult: 1
    decay_mult: 1
  }
  param {
    lr_mult: 2
    decay_mult: 0
  }
  convolution_param {
    num_output: 512
    pad: 1
    kernel_size: 3
    stride: 1
    weight_filler {
      type: "xavier"
    }
  }
}
layer {
  name: "relu4_2"
  type: "ReLU"
  bottom: "conv4_2"
  top: "conv4_2"
}
layer {
  name: "conv4_3"
  type: "Convolution"
  bottom: "conv4_2"
  top: "conv4_3"
  param {
    lr_mult: 1
    decay_mult: 1
  }
  param {
    lr_mult: 2
    decay_mult: 0
  }
  convolution_param {
    num_output: 512
    pad: 1
    kernel_size: 3
    stride: 1
    weight_filler {
      type: "xavier"
    }
  }
}
layer {
  name: "relu4_3"
  type: "ReLU"
  bottom: "conv4_3"
  top: "conv4_3"
}
layer {
  name: "pool4"
  type: "Pooling"
  bottom: "conv4_3"
  top: "pool4"
  pooling_param {
    pool: MAX
    kernel_size: 2
    stride: 2
  }
}
layer {
  name: "conv5_1"
  type: "Convolution"
  bottom: "pool4"
  top: "conv5_1"
  param {
    lr_mult: 1
    decay_mult: 1
  }
  param {
    lr_mult: 2
    decay_mult: 0
  }
  convolution_param {
    num_output: 512
    pad: 1
    kernel_size: 3
    stride: 1
    weight_filler {
      type: "xavier"
    }
  }
}
layer {
  name: "relu5_1"
  type: "ReLU"
  bottom: "conv5_1"
  top: "conv5_1"
}
layer {
  name: "conv5_2"
  type: "Convolution"
  bottom: "conv5_1"
  top: "conv5_2"
  param {
    lr_mult: 1
    decay_mult: 1
  }
  param {
    lr_mult: 2
    decay_mult: 0
  }
  convolution_param {
    num_output: 512
    pad: 1
    kernel_size: 3
    stride: 1
    weight_filler {
      type: "xavier"
    }
  }
}
layer {
  name: "relu5_2"
  type: "ReLU"
  bottom: "conv5_2"
  top: "conv5_2"
}
layer {
  name: "conv5_3"
  type: "Convolution"
  bottom: "conv5_2"
  top: "conv5_3"
  param {
    lr_mult: 1
    decay_mult: 1
  }
  param {
    lr_mult: 2
    decay_mult: 0
  }
  convolution_param {
    num_output: 512
    pad: 1
    kernel_size: 3
    stride: 1
    weight_filler {
      type: "xavier"
    }
  }
}
layer {
  name: "relu5_3"
  type: "ReLU"
  bottom: "conv5_3"
  top: "conv5_3"
}
layer {
  name: "pool5"
  type: "Pooling"
  bottom: "conv5_3"
  top: "pool5"
  pooling_param {
    pool: MAX
    kernel_size: 2
    stride: 2
  }
}
layer {
  name: "fc6"
  type: "Convolution"
  bottom: "pool5"
  top: "fc6"
  param {
    lr_mult: 1
    decay_mult: 1
  }
  param {
    lr_mult: 2
    decay_mult: 0
  }
  convolution_param {
    num_output: 4096
    pad: 0
    kernel_size: 7
    stride: 1
    weight_filler {
      type: "xavier"
    }
  }
}
layer {
  name: "relu6"
  type: "ReLU"
  bottom: "fc6"
  top: "fc6"
}
layer {
  name: "drop6"
  type: "Dropout"
  bottom: "fc6"
  top: "fc6"
  dropout_param {
    dropout_ratio: 0.5
  }
}
layer {
  name: "fc7"
  type: "Convolution"
  bottom: "fc6"
  top: "fc7"
  param {
    lr_mult: 1
    decay_mult: 1
  }
  param {
    lr_mult: 2
    decay_mult: 0
  }
  convolution_param {
    num_output: 4096
    pad: 0
    kernel_size: 1
    stride: 1
    weight_filler {
      type: "xavier"
    }
  }
}
layer {
  name: "relu7"
  type: "ReLU"
  bottom: "fc7"
  top: "fc7"
}
layer {
  name: "drop7"
  type: "Dropout"
  bottom: "fc7"
  top: "fc7"
  dropout_param {
    dropout_ratio: 0.5
  }
}
layer {
  name: "score_fr"
  type: "Convolution"
  bottom: "fc7"
  top: "score_fr"
  param {
    lr_mult: 1
    decay_mult: 1
  }
  param {
    lr_mult: 2
    decay_mult: 0
  }
  convolution_param {
    num_output: 6
    pad: 0
    kernel_size: 1
    weight_filler {
      type: "xavier"
    }
  }
}
layer {
  name: "upscore2"
  type: "Deconvolution"
  bottom: "score_fr"
  top: "upscore2"
  param {
    lr_mult: 0
  }
  convolution_param {
    num_output: 6
    bias_term: false
    kernel_size: 4
    stride: 2
    weight_filler {
      type: "xavier"
    }
  }
}
layer {
  name: "scale_pool4"
  type: "Scale"
  bottom: "pool4"
  top: "scale_pool4"
  param {
    lr_mult: 0
  }
  scale_param {
    filler {
      type: "constant"
      value: 0.01
    }
  }
}
layer {
  name: "score_pool4"
  type: "Convolution"
  bottom: "scale_pool4"
  top: "score_pool4"
  param {
    lr_mult: 1
    decay_mult: 1
  }
  param {
    lr_mult: 2
    decay_mult: 0
  }
  convolution_param {
    num_output: 6
    pad: 0
    kernel_size: 1
    weight_filler {
      type: "xavier"
    }
  }
}
layer {
  name: "score_pool4c"
  type: "Crop"
  bottom: "score_pool4"
  bottom: "upscore2"
  top: "score_pool4c"
  crop_param {
    axis: 2
    offset: 5
  }
}
layer {
  name: "fuse_pool4"
  type: "Eltwise"
  bottom: "upscore2"
  bottom: "score_pool4c"
  top: "fuse_pool4"
  eltwise_param {
    operation: SUM
  }
}
layer {
  name: "upscore_pool4"
  type: "Deconvolution"
  bottom: "fuse_pool4"
  top: "upscore_pool4"
  param {
    lr_mult: 0
  }
  convolution_param {
    num_output: 6
    bias_term: false
    kernel_size: 4
    stride: 2
    weight_filler {
      type: "xavier"
    }
  }
}
layer {
  name: "scale_pool3"
  type: "Scale"
  bottom: "pool3"
  top: "scale_pool3"
  param {
    lr_mult: 0
  }
  scale_param {
    filler {
      type: "constant"
      value: 0.0001
    }
  }
}
layer {
  name: "score_pool3"
  type: "Convolution"
  bottom: "scale_pool3"
  top: "score_pool3"
  param {
    lr_mult: 1
    decay_mult: 1
  }
  param {
    lr_mult: 2
    decay_mult: 0
  }
  convolution_param {
    num_output: 6
    pad: 0
    kernel_size: 1
    weight_filler {
      type: "xavier"
    }
  }
}
layer {
  name: "score_pool3c"
  type: "Crop"
  bottom: "score_pool3"
  bottom: "upscore_pool4"
  top: "score_pool3c"
  crop_param {
    axis: 2
    offset: 9
  }
}
layer {
  name: "fuse_pool3"
  type: "Eltwise"
  bottom: "upscore_pool4"
  bottom: "score_pool3c"
  top: "fuse_pool3"
  eltwise_param {
    operation: SUM
  }
}
layer {
  name: "upscore8"
  type: "Deconvolution"
  bottom: "fuse_pool3"
  top: "upscore8"
  param {
    lr_mult: 0
  }
  convolution_param {
    num_output: 6
    bias_term: false
    kernel_size: 16
    stride: 8
    weight_filler {
      type: "xavier"
    }
  }
}
layer {
  name: "score"
  type: "Crop"
  bottom: "upscore8"
  bottom: "data"
  top: "score"
  crop_param {
    axis: 2
    offset: 31
  }
}
layer {
  name: "loss"
  type: "SoftmaxWithLoss"
  bottom: "score"
  bottom: "label"
  top: "loss"
  loss_param {
    ignore_label: 255
    normalize: false
  }
}
I0115 15:10:04.318182 23441 layer_factory.hpp:77] Creating layer data
I0115 15:10:04.319787 23441 net.cpp:100] Creating Layer data
I0115 15:10:04.319808 23441 net.cpp:408] data -> data
I0115 15:10:04.319830 23441 net.cpp:408] data -> label
I0115 15:10:04.389391 23441 net.cpp:150] Setting up data
I0115 15:10:04.389441 23441 net.cpp:157] Top shape: 1 3 375 500 (562500)
I0115 15:10:04.389451 23441 net.cpp:157] Top shape: 1 1 375 500 (187500)
I0115 15:10:04.389458 23441 net.cpp:165] Memory required for data: 3000000
I0115 15:10:04.389472 23441 layer_factory.hpp:77] Creating layer data_data_0_split
I0115 15:10:04.389502 23441 net.cpp:100] Creating Layer data_data_0_split
I0115 15:10:04.389509 23441 net.cpp:434] data_data_0_split <- data
I0115 15:10:04.389523 23441 net.cpp:408] data_data_0_split -> data_data_0_split_0
I0115 15:10:04.389541 23441 net.cpp:408] data_data_0_split -> data_data_0_split_1
I0115 15:10:04.389593 23441 net.cpp:150] Setting up data_data_0_split
I0115 15:10:04.389605 23441 net.cpp:157] Top shape: 1 3 375 500 (562500)
I0115 15:10:04.389614 23441 net.cpp:157] Top shape: 1 3 375 500 (562500)
I0115 15:10:04.389621 23441 net.cpp:165] Memory required for data: 7500000
I0115 15:10:04.389627 23441 layer_factory.hpp:77] Creating layer conv1_1
I0115 15:10:04.389662 23441 net.cpp:100] Creating Layer conv1_1
I0115 15:10:04.389672 23441 net.cpp:434] conv1_1 <- data_data_0_split_0
I0115 15:10:04.389691 23441 net.cpp:408] conv1_1 -> conv1_1
I0115 15:10:04.646512 23441 net.cpp:150] Setting up conv1_1
I0115 15:10:04.646562 23441 net.cpp:157] Top shape: 1 64 573 698 (25597056)
I0115 15:10:04.646570 23441 net.cpp:165] Memory required for data: 109888224
I0115 15:10:04.646598 23441 layer_factory.hpp:77] Creating layer relu1_1
I0115 15:10:04.646618 23441 net.cpp:100] Creating Layer relu1_1
I0115 15:10:04.646626 23441 net.cpp:434] relu1_1 <- conv1_1
I0115 15:10:04.646639 23441 net.cpp:395] relu1_1 -> conv1_1 (in-place)
I0115 15:10:04.647130 23441 net.cpp:150] Setting up relu1_1
I0115 15:10:04.647148 23441 net.cpp:157] Top shape: 1 64 573 698 (25597056)
I0115 15:10:04.647156 23441 net.cpp:165] Memory required for data: 212276448
I0115 15:10:04.647162 23441 layer_factory.hpp:77] Creating layer conv1_2
I0115 15:10:04.647186 23441 net.cpp:100] Creating Layer conv1_2
I0115 15:10:04.647193 23441 net.cpp:434] conv1_2 <- conv1_1
I0115 15:10:04.647207 23441 net.cpp:408] conv1_2 -> conv1_2
I0115 15:10:04.650889 23441 net.cpp:150] Setting up conv1_2
I0115 15:10:04.650912 23441 net.cpp:157] Top shape: 1 64 573 698 (25597056)
I0115 15:10:04.650918 23441 net.cpp:165] Memory required for data: 314664672
I0115 15:10:04.650938 23441 layer_factory.hpp:77] Creating layer relu1_2
I0115 15:10:04.650950 23441 net.cpp:100] Creating Layer relu1_2
I0115 15:10:04.650957 23441 net.cpp:434] relu1_2 <- conv1_2
I0115 15:10:04.650966 23441 net.cpp:395] relu1_2 -> conv1_2 (in-place)
I0115 15:10:04.651440 23441 net.cpp:150] Setting up relu1_2
I0115 15:10:04.651460 23441 net.cpp:157] Top shape: 1 64 573 698 (25597056)
I0115 15:10:04.651468 23441 net.cpp:165] Memory required for data: 417052896
I0115 15:10:04.651475 23441 layer_factory.hpp:77] Creating layer pool1
I0115 15:10:04.651490 23441 net.cpp:100] Creating Layer pool1
I0115 15:10:04.651496 23441 net.cpp:434] pool1 <- conv1_2
I0115 15:10:04.651506 23441 net.cpp:408] pool1 -> pool1
I0115 15:10:04.651573 23441 net.cpp:150] Setting up pool1
I0115 15:10:04.651584 23441 net.cpp:157] Top shape: 1 64 287 349 (6410432)
I0115 15:10:04.651592 23441 net.cpp:165] Memory required for data: 442694624
I0115 15:10:04.651597 23441 layer_factory.hpp:77] Creating layer conv2_1
I0115 15:10:04.651613 23441 net.cpp:100] Creating Layer conv2_1
I0115 15:10:04.651620 23441 net.cpp:434] conv2_1 <- pool1
I0115 15:10:04.651634 23441 net.cpp:408] conv2_1 -> conv2_1
I0115 15:10:04.654865 23441 net.cpp:150] Setting up conv2_1
I0115 15:10:04.654886 23441 net.cpp:157] Top shape: 1 128 287 349 (12820864)
I0115 15:10:04.654892 23441 net.cpp:165] Memory required for data: 493978080
I0115 15:10:04.654911 23441 layer_factory.hpp:77] Creating layer relu2_1
I0115 15:10:04.654924 23441 net.cpp:100] Creating Layer relu2_1
I0115 15:10:04.654932 23441 net.cpp:434] relu2_1 <- conv2_1
I0115 15:10:04.654942 23441 net.cpp:395] relu2_1 -> conv2_1 (in-place)
I0115 15:10:04.655208 23441 net.cpp:150] Setting up relu2_1
I0115 15:10:04.655222 23441 net.cpp:157] Top shape: 1 128 287 349 (12820864)
I0115 15:10:04.655230 23441 net.cpp:165] Memory required for data: 545261536
I0115 15:10:04.655236 23441 layer_factory.hpp:77] Creating layer conv2_2
I0115 15:10:04.655252 23441 net.cpp:100] Creating Layer conv2_2
I0115 15:10:04.655259 23441 net.cpp:434] conv2_2 <- conv2_1
I0115 15:10:04.655272 23441 net.cpp:408] conv2_2 -> conv2_2
I0115 15:10:04.658983 23441 net.cpp:150] Setting up conv2_2
I0115 15:10:04.659004 23441 net.cpp:157] Top shape: 1 128 287 349 (12820864)
I0115 15:10:04.659011 23441 net.cpp:165] Memory required for data: 596544992
I0115 15:10:04.659024 23441 layer_factory.hpp:77] Creating layer relu2_2
I0115 15:10:04.659036 23441 net.cpp:100] Creating Layer relu2_2
I0115 15:10:04.659044 23441 net.cpp:434] relu2_2 <- conv2_2
I0115 15:10:04.659054 23441 net.cpp:395] relu2_2 -> conv2_2 (in-place)
I0115 15:10:04.659528 23441 net.cpp:150] Setting up relu2_2
I0115 15:10:04.659545 23441 net.cpp:157] Top shape: 1 128 287 349 (12820864)
I0115 15:10:04.659553 23441 net.cpp:165] Memory required for data: 647828448
I0115 15:10:04.659569 23441 layer_factory.hpp:77] Creating layer pool2
I0115 15:10:04.659584 23441 net.cpp:100] Creating Layer pool2
I0115 15:10:04.659590 23441 net.cpp:434] pool2 <- conv2_2
I0115 15:10:04.659600 23441 net.cpp:408] pool2 -> pool2
I0115 15:10:04.659662 23441 net.cpp:150] Setting up pool2
I0115 15:10:04.659672 23441 net.cpp:157] Top shape: 1 128 144 175 (3225600)
I0115 15:10:04.659679 23441 net.cpp:165] Memory required for data: 660730848
I0115 15:10:04.659685 23441 layer_factory.hpp:77] Creating layer conv3_1
I0115 15:10:04.659718 23441 net.cpp:100] Creating Layer conv3_1
I0115 15:10:04.659730 23441 net.cpp:434] conv3_1 <- pool2
I0115 15:10:04.659746 23441 net.cpp:408] conv3_1 -> conv3_1
I0115 15:10:04.664710 23441 net.cpp:150] Setting up conv3_1
I0115 15:10:04.664731 23441 net.cpp:157] Top shape: 1 256 144 175 (6451200)
I0115 15:10:04.664737 23441 net.cpp:165] Memory required for data: 686535648
I0115 15:10:04.664757 23441 layer_factory.hpp:77] Creating layer relu3_1
I0115 15:10:04.664767 23441 net.cpp:100] Creating Layer relu3_1
I0115 15:10:04.664774 23441 net.cpp:434] relu3_1 <- conv3_1
I0115 15:10:04.664783 23441 net.cpp:395] relu3_1 -> conv3_1 (in-place)
I0115 15:10:04.665256 23441 net.cpp:150] Setting up relu3_1
I0115 15:10:04.665273 23441 net.cpp:157] Top shape: 1 256 144 175 (6451200)
I0115 15:10:04.665280 23441 net.cpp:165] Memory required for data: 712340448
I0115 15:10:04.665288 23441 layer_factory.hpp:77] Creating layer conv3_2
I0115 15:10:04.665304 23441 net.cpp:100] Creating Layer conv3_2
I0115 15:10:04.665312 23441 net.cpp:434] conv3_2 <- conv3_1
I0115 15:10:04.665323 23441 net.cpp:408] conv3_2 -> conv3_2
I0115 15:10:04.673621 23441 net.cpp:150] Setting up conv3_2
I0115 15:10:04.673648 23441 net.cpp:157] Top shape: 1 256 144 175 (6451200)
I0115 15:10:04.673657 23441 net.cpp:165] Memory required for data: 738145248
I0115 15:10:04.673669 23441 layer_factory.hpp:77] Creating layer relu3_2
I0115 15:10:04.673681 23441 net.cpp:100] Creating Layer relu3_2
I0115 15:10:04.673687 23441 net.cpp:434] relu3_2 <- conv3_2
I0115 15:10:04.673699 23441 net.cpp:395] relu3_2 -> conv3_2 (in-place)
I0115 15:10:04.673959 23441 net.cpp:150] Setting up relu3_2
I0115 15:10:04.673974 23441 net.cpp:157] Top shape: 1 256 144 175 (6451200)
I0115 15:10:04.673980 23441 net.cpp:165] Memory required for data: 763950048
I0115 15:10:04.673988 23441 layer_factory.hpp:77] Creating layer conv3_3
I0115 15:10:04.674006 23441 net.cpp:100] Creating Layer conv3_3
I0115 15:10:04.674013 23441 net.cpp:434] conv3_3 <- conv3_2
I0115 15:10:04.674026 23441 net.cpp:408] conv3_3 -> conv3_3
I0115 15:10:04.682330 23441 net.cpp:150] Setting up conv3_3
I0115 15:10:04.682351 23441 net.cpp:157] Top shape: 1 256 144 175 (6451200)
I0115 15:10:04.682358 23441 net.cpp:165] Memory required for data: 789754848
I0115 15:10:04.682370 23441 layer_factory.hpp:77] Creating layer relu3_3
I0115 15:10:04.682384 23441 net.cpp:100] Creating Layer relu3_3
I0115 15:10:04.682390 23441 net.cpp:434] relu3_3 <- conv3_3
I0115 15:10:04.682400 23441 net.cpp:395] relu3_3 -> conv3_3 (in-place)
I0115 15:10:04.682874 23441 net.cpp:150] Setting up relu3_3
I0115 15:10:04.682893 23441 net.cpp:157] Top shape: 1 256 144 175 (6451200)
I0115 15:10:04.682899 23441 net.cpp:165] Memory required for data: 815559648
I0115 15:10:04.682906 23441 layer_factory.hpp:77] Creating layer pool3
I0115 15:10:04.682919 23441 net.cpp:100] Creating Layer pool3
I0115 15:10:04.682926 23441 net.cpp:434] pool3 <- conv3_3
I0115 15:10:04.682936 23441 net.cpp:408] pool3 -> pool3
I0115 15:10:04.682998 23441 net.cpp:150] Setting up pool3
I0115 15:10:04.683010 23441 net.cpp:157] Top shape: 1 256 72 88 (1622016)
I0115 15:10:04.683017 23441 net.cpp:165] Memory required for data: 822047712
I0115 15:10:04.683022 23441 layer_factory.hpp:77] Creating layer pool3_pool3_0_split
I0115 15:10:04.683032 23441 net.cpp:100] Creating Layer pool3_pool3_0_split
I0115 15:10:04.683040 23441 net.cpp:434] pool3_pool3_0_split <- pool3
I0115 15:10:04.683065 23441 net.cpp:408] pool3_pool3_0_split -> pool3_pool3_0_split_0
I0115 15:10:04.683080 23441 net.cpp:408] pool3_pool3_0_split -> pool3_pool3_0_split_1
I0115 15:10:04.683145 23441 net.cpp:150] Setting up pool3_pool3_0_split
I0115 15:10:04.683156 23441 net.cpp:157] Top shape: 1 256 72 88 (1622016)
I0115 15:10:04.683163 23441 net.cpp:157] Top shape: 1 256 72 88 (1622016)
I0115 15:10:04.683169 23441 net.cpp:165] Memory required for data: 835023840
I0115 15:10:04.683176 23441 layer_factory.hpp:77] Creating layer conv4_1
I0115 15:10:04.683193 23441 net.cpp:100] Creating Layer conv4_1
I0115 15:10:04.683200 23441 net.cpp:434] conv4_1 <- pool3_pool3_0_split_0
I0115 15:10:04.683210 23441 net.cpp:408] conv4_1 -> conv4_1
I0115 15:10:04.699544 23441 net.cpp:150] Setting up conv4_1
I0115 15:10:04.699569 23441 net.cpp:157] Top shape: 1 512 72 88 (3244032)
I0115 15:10:04.699578 23441 net.cpp:165] Memory required for data: 847999968
I0115 15:10:04.699589 23441 layer_factory.hpp:77] Creating layer relu4_1
I0115 15:10:04.699600 23441 net.cpp:100] Creating Layer relu4_1
I0115 15:10:04.699609 23441 net.cpp:434] relu4_1 <- conv4_1
I0115 15:10:04.699617 23441 net.cpp:395] relu4_1 -> conv4_1 (in-place)
I0115 15:10:04.700099 23441 net.cpp:150] Setting up relu4_1
I0115 15:10:04.700117 23441 net.cpp:157] Top shape: 1 512 72 88 (3244032)
I0115 15:10:04.700124 23441 net.cpp:165] Memory required for data: 860976096
I0115 15:10:04.700131 23441 layer_factory.hpp:77] Creating layer conv4_2
I0115 15:10:04.700153 23441 net.cpp:100] Creating Layer conv4_2
I0115 15:10:04.700160 23441 net.cpp:434] conv4_2 <- conv4_1
I0115 15:10:04.700171 23441 net.cpp:408] conv4_2 -> conv4_2
I0115 15:10:04.728160 23441 net.cpp:150] Setting up conv4_2
I0115 15:10:04.728190 23441 net.cpp:157] Top shape: 1 512 72 88 (3244032)
I0115 15:10:04.728198 23441 net.cpp:165] Memory required for data: 873952224
I0115 15:10:04.728219 23441 layer_factory.hpp:77] Creating layer relu4_2
I0115 15:10:04.728233 23441 net.cpp:100] Creating Layer relu4_2
I0115 15:10:04.728240 23441 net.cpp:434] relu4_2 <- conv4_2
I0115 15:10:04.728250 23441 net.cpp:395] relu4_2 -> conv4_2 (in-place)
I0115 15:10:04.728515 23441 net.cpp:150] Setting up relu4_2
I0115 15:10:04.728529 23441 net.cpp:157] Top shape: 1 512 72 88 (3244032)
I0115 15:10:04.728536 23441 net.cpp:165] Memory required for data: 886928352
I0115 15:10:04.728543 23441 layer_factory.hpp:77] Creating layer conv4_3
I0115 15:10:04.728561 23441 net.cpp:100] Creating Layer conv4_3
I0115 15:10:04.728569 23441 net.cpp:434] conv4_3 <- conv4_2
I0115 15:10:04.728579 23441 net.cpp:408] conv4_3 -> conv4_3
I0115 15:10:04.756582 23441 net.cpp:150] Setting up conv4_3
I0115 15:10:04.756614 23441 net.cpp:157] Top shape: 1 512 72 88 (3244032)
I0115 15:10:04.756623 23441 net.cpp:165] Memory required for data: 899904480
I0115 15:10:04.756635 23441 layer_factory.hpp:77] Creating layer relu4_3
I0115 15:10:04.756649 23441 net.cpp:100] Creating Layer relu4_3
I0115 15:10:04.756656 23441 net.cpp:434] relu4_3 <- conv4_3
I0115 15:10:04.756669 23441 net.cpp:395] relu4_3 -> conv4_3 (in-place)
I0115 15:10:04.757160 23441 net.cpp:150] Setting up relu4_3
I0115 15:10:04.757179 23441 net.cpp:157] Top shape: 1 512 72 88 (3244032)
I0115 15:10:04.757185 23441 net.cpp:165] Memory required for data: 912880608
I0115 15:10:04.757194 23441 layer_factory.hpp:77] Creating layer pool4
I0115 15:10:04.757206 23441 net.cpp:100] Creating Layer pool4
I0115 15:10:04.757213 23441 net.cpp:434] pool4 <- conv4_3
I0115 15:10:04.757225 23441 net.cpp:408] pool4 -> pool4
I0115 15:10:04.757292 23441 net.cpp:150] Setting up pool4
I0115 15:10:04.757304 23441 net.cpp:157] Top shape: 1 512 36 44 (811008)
I0115 15:10:04.757311 23441 net.cpp:165] Memory required for data: 916124640
I0115 15:10:04.757318 23441 layer_factory.hpp:77] Creating layer pool4_pool4_0_split
I0115 15:10:04.757328 23441 net.cpp:100] Creating Layer pool4_pool4_0_split
I0115 15:10:04.757334 23441 net.cpp:434] pool4_pool4_0_split <- pool4
I0115 15:10:04.757344 23441 net.cpp:408] pool4_pool4_0_split -> pool4_pool4_0_split_0
I0115 15:10:04.757354 23441 net.cpp:408] pool4_pool4_0_split -> pool4_pool4_0_split_1
I0115 15:10:04.757408 23441 net.cpp:150] Setting up pool4_pool4_0_split
I0115 15:10:04.757429 23441 net.cpp:157] Top shape: 1 512 36 44 (811008)
I0115 15:10:04.757437 23441 net.cpp:157] Top shape: 1 512 36 44 (811008)
I0115 15:10:04.757444 23441 net.cpp:165] Memory required for data: 922612704
I0115 15:10:04.757450 23441 layer_factory.hpp:77] Creating layer conv5_1
I0115 15:10:04.757468 23441 net.cpp:100] Creating Layer conv5_1
I0115 15:10:04.757477 23441 net.cpp:434] conv5_1 <- pool4_pool4_0_split_0
I0115 15:10:04.757488 23441 net.cpp:408] conv5_1 -> conv5_1
I0115 15:10:04.785255 23441 net.cpp:150] Setting up conv5_1
I0115 15:10:04.785284 23441 net.cpp:157] Top shape: 1 512 36 44 (811008)
I0115 15:10:04.785291 23441 net.cpp:165] Memory required for data: 925856736
I0115 15:10:04.785305 23441 layer_factory.hpp:77] Creating layer relu5_1
I0115 15:10:04.785320 23441 net.cpp:100] Creating Layer relu5_1
I0115 15:10:04.785326 23441 net.cpp:434] relu5_1 <- conv5_1
I0115 15:10:04.785336 23441 net.cpp:395] relu5_1 -> conv5_1 (in-place)
I0115 15:10:04.785825 23441 net.cpp:150] Setting up relu5_1
I0115 15:10:04.785845 23441 net.cpp:157] Top shape: 1 512 36 44 (811008)
I0115 15:10:04.785852 23441 net.cpp:165] Memory required for data: 929100768
I0115 15:10:04.785861 23441 layer_factory.hpp:77] Creating layer conv5_2
I0115 15:10:04.785878 23441 net.cpp:100] Creating Layer conv5_2
I0115 15:10:04.785886 23441 net.cpp:434] conv5_2 <- conv5_1
I0115 15:10:04.785897 23441 net.cpp:408] conv5_2 -> conv5_2
I0115 15:10:04.806403 23441 net.cpp:150] Setting up conv5_2
I0115 15:10:04.806429 23441 net.cpp:157] Top shape: 1 512 36 44 (811008)
I0115 15:10:04.806434 23441 net.cpp:165] Memory required for data: 932344800
I0115 15:10:04.806444 23441 layer_factory.hpp:77] Creating layer relu5_2
I0115 15:10:04.806455 23441 net.cpp:100] Creating Layer relu5_2
I0115 15:10:04.806460 23441 net.cpp:434] relu5_2 <- conv5_2
I0115 15:10:04.806468 23441 net.cpp:395] relu5_2 -> conv5_2 (in-place)
I0115 15:10:04.806659 23441 net.cpp:150] Setting up relu5_2
I0115 15:10:04.806669 23441 net.cpp:157] Top shape: 1 512 36 44 (811008)
I0115 15:10:04.806674 23441 net.cpp:165] Memory required for data: 935588832
I0115 15:10:04.806679 23441 layer_factory.hpp:77] Creating layer conv5_3
I0115 15:10:04.806699 23441 net.cpp:100] Creating Layer conv5_3
I0115 15:10:04.806704 23441 net.cpp:434] conv5_3 <- conv5_2
I0115 15:10:04.806712 23441 net.cpp:408] conv5_3 -> conv5_3
I0115 15:10:04.823542 23441 net.cpp:150] Setting up conv5_3
I0115 15:10:04.823566 23441 net.cpp:157] Top shape: 1 512 36 44 (811008)
I0115 15:10:04.823571 23441 net.cpp:165] Memory required for data: 938832864
I0115 15:10:04.823581 23441 layer_factory.hpp:77] Creating layer relu5_3
I0115 15:10:04.823592 23441 net.cpp:100] Creating Layer relu5_3
I0115 15:10:04.823597 23441 net.cpp:434] relu5_3 <- conv5_3
I0115 15:10:04.823604 23441 net.cpp:395] relu5_3 -> conv5_3 (in-place)
I0115 15:10:04.824162 23441 net.cpp:150] Setting up relu5_3
I0115 15:10:04.824177 23441 net.cpp:157] Top shape: 1 512 36 44 (811008)
I0115 15:10:04.824180 23441 net.cpp:165] Memory required for data: 942076896
I0115 15:10:04.824185 23441 layer_factory.hpp:77] Creating layer pool5
I0115 15:10:04.824196 23441 net.cpp:100] Creating Layer pool5
I0115 15:10:04.824201 23441 net.cpp:434] pool5 <- conv5_3
I0115 15:10:04.824208 23441 net.cpp:408] pool5 -> pool5
I0115 15:10:04.824261 23441 net.cpp:150] Setting up pool5
I0115 15:10:04.824268 23441 net.cpp:157] Top shape: 1 512 18 22 (202752)
I0115 15:10:04.824272 23441 net.cpp:165] Memory required for data: 942887904
I0115 15:10:04.824276 23441 layer_factory.hpp:77] Creating layer fc6
I0115 15:10:04.824288 23441 net.cpp:100] Creating Layer fc6
I0115 15:10:04.824292 23441 net.cpp:434] fc6 <- pool5
I0115 15:10:04.824300 23441 net.cpp:408] fc6 -> fc6
I0115 15:10:05.538287 23441 net.cpp:150] Setting up fc6
I0115 15:10:05.538333 23441 net.cpp:157] Top shape: 1 4096 12 16 (786432)
I0115 15:10:05.538339 23441 net.cpp:165] Memory required for data: 946033632
I0115 15:10:05.538353 23441 layer_factory.hpp:77] Creating layer relu6
I0115 15:10:05.538374 23441 net.cpp:100] Creating Layer relu6
I0115 15:10:05.538381 23441 net.cpp:434] relu6 <- fc6
I0115 15:10:05.538390 23441 net.cpp:395] relu6 -> fc6 (in-place)
I0115 15:10:05.538777 23441 net.cpp:150] Setting up relu6
I0115 15:10:05.538790 23441 net.cpp:157] Top shape: 1 4096 12 16 (786432)
I0115 15:10:05.538795 23441 net.cpp:165] Memory required for data: 949179360
I0115 15:10:05.538800 23441 layer_factory.hpp:77] Creating layer drop6
I0115 15:10:05.538813 23441 net.cpp:100] Creating Layer drop6
I0115 15:10:05.538817 23441 net.cpp:434] drop6 <- fc6
I0115 15:10:05.538823 23441 net.cpp:395] drop6 -> fc6 (in-place)
I0115 15:10:05.538862 23441 net.cpp:150] Setting up drop6
I0115 15:10:05.538869 23441 net.cpp:157] Top shape: 1 4096 12 16 (786432)
I0115 15:10:05.538873 23441 net.cpp:165] Memory required for data: 952325088
I0115 15:10:05.538877 23441 layer_factory.hpp:77] Creating layer fc7
I0115 15:10:05.538889 23441 net.cpp:100] Creating Layer fc7
I0115 15:10:05.538894 23441 net.cpp:434] fc7 <- fc6
I0115 15:10:05.538902 23441 net.cpp:408] fc7 -> fc7
I0115 15:10:05.654361 23441 net.cpp:150] Setting up fc7
I0115 15:10:05.654400 23441 net.cpp:157] Top shape: 1 4096 12 16 (786432)
I0115 15:10:05.654405 23441 net.cpp:165] Memory required for data: 955470816
I0115 15:10:05.654417 23441 layer_factory.hpp:77] Creating layer relu7
I0115 15:10:05.654433 23441 net.cpp:100] Creating Layer relu7
I0115 15:10:05.654438 23441 net.cpp:434] relu7 <- fc7
I0115 15:10:05.654446 23441 net.cpp:395] relu7 -> fc7 (in-place)
I0115 15:10:05.654655 23441 net.cpp:150] Setting up relu7
I0115 15:10:05.654665 23441 net.cpp:157] Top shape: 1 4096 12 16 (786432)
I0115 15:10:05.654670 23441 net.cpp:165] Memory required for data: 958616544
I0115 15:10:05.654673 23441 layer_factory.hpp:77] Creating layer drop7
I0115 15:10:05.654685 23441 net.cpp:100] Creating Layer drop7
I0115 15:10:05.654688 23441 net.cpp:434] drop7 <- fc7
I0115 15:10:05.654695 23441 net.cpp:395] drop7 -> fc7 (in-place)
I0115 15:10:05.654731 23441 net.cpp:150] Setting up drop7
I0115 15:10:05.654736 23441 net.cpp:157] Top shape: 1 4096 12 16 (786432)
I0115 15:10:05.654741 23441 net.cpp:165] Memory required for data: 961762272
I0115 15:10:05.654744 23441 layer_factory.hpp:77] Creating layer score_fr
I0115 15:10:05.654757 23441 net.cpp:100] Creating Layer score_fr
I0115 15:10:05.654760 23441 net.cpp:434] score_fr <- fc7
I0115 15:10:05.654767 23441 net.cpp:408] score_fr -> score_fr
I0115 15:10:05.656146 23441 net.cpp:150] Setting up score_fr
I0115 15:10:05.656160 23441 net.cpp:157] Top shape: 1 6 12 16 (1152)
I0115 15:10:05.656165 23441 net.cpp:165] Memory required for data: 961766880
I0115 15:10:05.656173 23441 layer_factory.hpp:77] Creating layer upscore2
I0115 15:10:05.656190 23441 net.cpp:100] Creating Layer upscore2
I0115 15:10:05.656195 23441 net.cpp:434] upscore2 <- score_fr
I0115 15:10:05.656206 23441 net.cpp:408] upscore2 -> upscore2
I0115 15:10:05.656421 23441 net.cpp:150] Setting up upscore2
I0115 15:10:05.656430 23441 net.cpp:157] Top shape: 1 6 26 34 (5304)
I0115 15:10:05.656435 23441 net.cpp:165] Memory required for data: 961788096
I0115 15:10:05.656447 23441 layer_factory.hpp:77] Creating layer upscore2_upscore2_0_split
I0115 15:10:05.656455 23441 net.cpp:100] Creating Layer upscore2_upscore2_0_split
I0115 15:10:05.656460 23441 net.cpp:434] upscore2_upscore2_0_split <- upscore2
I0115 15:10:05.656467 23441 net.cpp:408] upscore2_upscore2_0_split -> upscore2_upscore2_0_split_0
I0115 15:10:05.656474 23441 net.cpp:408] upscore2_upscore2_0_split -> upscore2_upscore2_0_split_1
I0115 15:10:05.656513 23441 net.cpp:150] Setting up upscore2_upscore2_0_split
I0115 15:10:05.656520 23441 net.cpp:157] Top shape: 1 6 26 34 (5304)
I0115 15:10:05.656525 23441 net.cpp:157] Top shape: 1 6 26 34 (5304)
I0115 15:10:05.656528 23441 net.cpp:165] Memory required for data: 961830528
I0115 15:10:05.656533 23441 layer_factory.hpp:77] Creating layer scale_pool4
I0115 15:10:05.656545 23441 net.cpp:100] Creating Layer scale_pool4
I0115 15:10:05.656549 23441 net.cpp:434] scale_pool4 <- pool4_pool4_0_split_1
I0115 15:10:05.656568 23441 net.cpp:408] scale_pool4 -> scale_pool4
I0115 15:10:05.656680 23441 net.cpp:150] Setting up scale_pool4
I0115 15:10:05.656689 23441 net.cpp:157] Top shape: 1 512 36 44 (811008)
I0115 15:10:05.656692 23441 net.cpp:165] Memory required for data: 965074560
I0115 15:10:05.656698 23441 layer_factory.hpp:77] Creating layer score_pool4
I0115 15:10:05.656709 23441 net.cpp:100] Creating Layer score_pool4
I0115 15:10:05.656714 23441 net.cpp:434] score_pool4 <- scale_pool4
I0115 15:10:05.656720 23441 net.cpp:408] score_pool4 -> score_pool4
I0115 15:10:05.658007 23441 net.cpp:150] Setting up score_pool4
I0115 15:10:05.658023 23441 net.cpp:157] Top shape: 1 6 36 44 (9504)
I0115 15:10:05.658027 23441 net.cpp:165] Memory required for data: 965112576
I0115 15:10:05.658035 23441 layer_factory.hpp:77] Creating layer score_pool4c
I0115 15:10:05.658047 23441 net.cpp:100] Creating Layer score_pool4c
I0115 15:10:05.658052 23441 net.cpp:434] score_pool4c <- score_pool4
I0115 15:10:05.658058 23441 net.cpp:434] score_pool4c <- upscore2_upscore2_0_split_0
I0115 15:10:05.658064 23441 net.cpp:408] score_pool4c -> score_pool4c
I0115 15:10:05.658100 23441 net.cpp:150] Setting up score_pool4c
I0115 15:10:05.658107 23441 net.cpp:157] Top shape: 1 6 26 34 (5304)
I0115 15:10:05.658112 23441 net.cpp:165] Memory required for data: 965133792
I0115 15:10:05.658115 23441 layer_factory.hpp:77] Creating layer fuse_pool4
I0115 15:10:05.658125 23441 net.cpp:100] Creating Layer fuse_pool4
I0115 15:10:05.658133 23441 net.cpp:434] fuse_pool4 <- upscore2_upscore2_0_split_1
I0115 15:10:05.658138 23441 net.cpp:434] fuse_pool4 <- score_pool4c
I0115 15:10:05.658143 23441 net.cpp:408] fuse_pool4 -> fuse_pool4
I0115 15:10:05.658171 23441 net.cpp:150] Setting up fuse_pool4
I0115 15:10:05.658179 23441 net.cpp:157] Top shape: 1 6 26 34 (5304)
I0115 15:10:05.658181 23441 net.cpp:165] Memory required for data: 965155008
I0115 15:10:05.658185 23441 layer_factory.hpp:77] Creating layer upscore_pool4
I0115 15:10:05.658196 23441 net.cpp:100] Creating Layer upscore_pool4
I0115 15:10:05.658201 23441 net.cpp:434] upscore_pool4 <- fuse_pool4
I0115 15:10:05.658207 23441 net.cpp:408] upscore_pool4 -> upscore_pool4
I0115 15:10:05.658414 23441 net.cpp:150] Setting up upscore_pool4
I0115 15:10:05.658422 23441 net.cpp:157] Top shape: 1 6 54 70 (22680)
I0115 15:10:05.658427 23441 net.cpp:165] Memory required for data: 965245728
I0115 15:10:05.658432 23441 layer_factory.hpp:77] Creating layer upscore_pool4_upscore_pool4_0_split
I0115 15:10:05.658438 23441 net.cpp:100] Creating Layer upscore_pool4_upscore_pool4_0_split
I0115 15:10:05.658442 23441 net.cpp:434] upscore_pool4_upscore_pool4_0_split <- upscore_pool4
I0115 15:10:05.658448 23441 net.cpp:408] upscore_pool4_upscore_pool4_0_split -> upscore_pool4_upscore_pool4_0_split_0
I0115 15:10:05.658455 23441 net.cpp:408] upscore_pool4_upscore_pool4_0_split -> upscore_pool4_upscore_pool4_0_split_1
I0115 15:10:05.658493 23441 net.cpp:150] Setting up upscore_pool4_upscore_pool4_0_split
I0115 15:10:05.658499 23441 net.cpp:157] Top shape: 1 6 54 70 (22680)
I0115 15:10:05.658504 23441 net.cpp:157] Top shape: 1 6 54 70 (22680)
I0115 15:10:05.658509 23441 net.cpp:165] Memory required for data: 965427168
I0115 15:10:05.658512 23441 layer_factory.hpp:77] Creating layer scale_pool3
I0115 15:10:05.658520 23441 net.cpp:100] Creating Layer scale_pool3
I0115 15:10:05.658525 23441 net.cpp:434] scale_pool3 <- pool3_pool3_0_split_1
I0115 15:10:05.658530 23441 net.cpp:408] scale_pool3 -> scale_pool3
I0115 15:10:05.658638 23441 net.cpp:150] Setting up scale_pool3
I0115 15:10:05.658645 23441 net.cpp:157] Top shape: 1 256 72 88 (1622016)
I0115 15:10:05.658649 23441 net.cpp:165] Memory required for data: 971915232
I0115 15:10:05.658654 23441 layer_factory.hpp:77] Creating layer score_pool3
I0115 15:10:05.658665 23441 net.cpp:100] Creating Layer score_pool3
I0115 15:10:05.658670 23441 net.cpp:434] score_pool3 <- scale_pool3
I0115 15:10:05.658677 23441 net.cpp:408] score_pool3 -> score_pool3
I0115 15:10:05.659921 23441 net.cpp:150] Setting up score_pool3
I0115 15:10:05.659940 23441 net.cpp:157] Top shape: 1 6 72 88 (38016)
I0115 15:10:05.659945 23441 net.cpp:165] Memory required for data: 972067296
I0115 15:10:05.659952 23441 layer_factory.hpp:77] Creating layer score_pool3c
I0115 15:10:05.659960 23441 net.cpp:100] Creating Layer score_pool3c
I0115 15:10:05.659965 23441 net.cpp:434] score_pool3c <- score_pool3
I0115 15:10:05.659971 23441 net.cpp:434] score_pool3c <- upscore_pool4_upscore_pool4_0_split_0
I0115 15:10:05.659979 23441 net.cpp:408] score_pool3c -> score_pool3c
I0115 15:10:05.660012 23441 net.cpp:150] Setting up score_pool3c
I0115 15:10:05.660017 23441 net.cpp:157] Top shape: 1 6 54 70 (22680)
I0115 15:10:05.660022 23441 net.cpp:165] Memory required for data: 972158016
I0115 15:10:05.660025 23441 layer_factory.hpp:77] Creating layer fuse_pool3
I0115 15:10:05.660033 23441 net.cpp:100] Creating Layer fuse_pool3
I0115 15:10:05.660038 23441 net.cpp:434] fuse_pool3 <- upscore_pool4_upscore_pool4_0_split_1
I0115 15:10:05.660043 23441 net.cpp:434] fuse_pool3 <- score_pool3c
I0115 15:10:05.660048 23441 net.cpp:408] fuse_pool3 -> fuse_pool3
I0115 15:10:05.660075 23441 net.cpp:150] Setting up fuse_pool3
I0115 15:10:05.660081 23441 net.cpp:157] Top shape: 1 6 54 70 (22680)
I0115 15:10:05.660085 23441 net.cpp:165] Memory required for data: 972248736
I0115 15:10:05.660089 23441 layer_factory.hpp:77] Creating layer upscore8
I0115 15:10:05.660099 23441 net.cpp:100] Creating Layer upscore8
I0115 15:10:05.660102 23441 net.cpp:434] upscore8 <- fuse_pool3
I0115 15:10:05.660110 23441 net.cpp:408] upscore8 -> upscore8
I0115 15:10:05.660372 23441 net.cpp:150] Setting up upscore8
I0115 15:10:05.660379 23441 net.cpp:157] Top shape: 1 6 440 568 (1499520)
I0115 15:10:05.660383 23441 net.cpp:165] Memory required for data: 978246816
I0115 15:10:05.660389 23441 layer_factory.hpp:77] Creating layer score
I0115 15:10:05.660395 23441 net.cpp:100] Creating Layer score
I0115 15:10:05.660400 23441 net.cpp:434] score <- upscore8
I0115 15:10:05.660405 23441 net.cpp:434] score <- data_data_0_split_1
I0115 15:10:05.660410 23441 net.cpp:408] score -> score
I0115 15:10:05.660437 23441 net.cpp:150] Setting up score
I0115 15:10:05.660444 23441 net.cpp:157] Top shape: 1 6 375 500 (1125000)
I0115 15:10:05.660447 23441 net.cpp:165] Memory required for data: 982746816
I0115 15:10:05.660451 23441 layer_factory.hpp:77] Creating layer loss
I0115 15:10:05.660460 23441 net.cpp:100] Creating Layer loss
I0115 15:10:05.660465 23441 net.cpp:434] loss <- score
I0115 15:10:05.660470 23441 net.cpp:434] loss <- label
I0115 15:10:05.660476 23441 net.cpp:408] loss -> loss
I0115 15:10:05.660488 23441 layer_factory.hpp:77] Creating layer loss
…
I0115 15:10:05.663555 23441 net.cpp:283] Network initialization done.
I0115 15:10:05.664669 23441 solver.cpp:181] Creating test net (#0) specified by test_net file: val.prototxt
I0115 15:10:05.665026 23441 net.cpp:58] Initializing net from parameters: 
state {
  phase: TEST
}
layer {
  name: "data"
  type: "Python"
  top: "data"
  top: "label"
  python_param {
    module: "voc_layers"
    layer: "PartialVOCSegDataLayer"
    param_str: "{\'voc_dir\': \'../data/pascal-obfuscated/VOC2011\', \'seed\': 1337, \'split\': \'seg11valid5\', \'mean\': (104.00699, 116.66877, 122.67892)}"
  }
}
layer {
  name: "conv1_1"
  type: "Convolution"
  bottom: "data"
  top: "conv1_1"
  param {
    lr_mult: 1
    decay_mult: 1
  }
  param {
    lr_mult: 2
    decay_mult: 0
  }
  convolution_param {
    num_output: 64
    pad: 100
    kernel_size: 3
    stride: 1
    weight_filler {
      type: "xavier"
    }
  }
}
layer {
  name: "relu1_1"
  type: "ReLU"
  bottom: "conv1_1"
  top: "conv1_1"
}
layer {
  name: "conv1_2"
  type: "Convolution"
  bottom: "conv1_1"
  top: "conv1_2"
  param {
    lr_mult: 1
    decay_mult: 1
  }
  param {
    lr_mult: 2
    decay_mult: 0
  }
  convolution_param {
    num_output: 64
    pad: 1
    kernel_size: 3
    stride: 1
    weight_filler {
      type: "xavier"
    }
  }
}
layer {
  name: "relu1_2"
  type: "ReLU"
  bottom: "conv1_2"
  top: "conv1_2"
}
layer {
  name: "pool1"
  type: "Pooling"
  bottom: "conv1_2"
  top: "pool1"
  pooling_param {
    pool: MAX
    kernel_size: 2
    stride: 2
  }
}
layer {
  name: "conv2_1"
  type: "Convolution"
  bottom: "pool1"
  top: "conv2_1"
  param {
    lr_mult: 1
    decay_mult: 1
  }
  param {
    lr_mult: 2
    decay_mult: 0
  }
  convolution_param {
    num_output: 128
    pad: 1
    kernel_size: 3
    stride: 1
    weight_filler {
      type: "xavier"
    }
  }
}
layer {
  name: "relu2_1"
  type: "ReLU"
  bottom: "conv2_1"
  top: "conv2_1"
}
layer {
  name: "conv2_2"
  type: "Convolution"
  bottom: "conv2_1"
  top: "conv2_2"
  param {
    lr_mult: 1
    decay_mult: 1
  }
  param {
    lr_mult: 2
    decay_mult: 0
  }
  convolution_param {
    num_output: 128
    pad: 1
    kernel_size: 3
    stride: 1
    weight_filler {
      type: "xavier"
    }
  }
}
layer {
  name: "relu2_2"
  type: "ReLU"
  bottom: "conv2_2"
  top: "conv2_2"
}
layer {
  name: "pool2"
  type: "Pooling"
  bottom: "conv2_2"
  top: "pool2"
  pooling_param {
    pool: MAX
    kernel_size: 2
    stride: 2
  }
}
layer {
  name: "conv3_1"
  type: "Convolution"
  bottom: "pool2"
  top: "conv3_1"
  param {
    lr_mult: 1
    decay_mult: 1
  }
  param {
    lr_mult: 2
    decay_mult: 0
  }
  convolution_param {
    num_output: 256
    pad: 1
    kernel_size: 3
    stride: 1
    weight_filler {
      type: "xavier"
    }
  }
}
layer {
  name: "relu3_1"
  type: "ReLU"
  bottom: "conv3_1"
  top: "conv3_1"
}
layer {
  name: "conv3_2"
  type: "Convolution"
  bottom: "conv3_1"
  top: "conv3_2"
  param {
    lr_mult: 1
    decay_mult: 1
  }
  param {
    lr_mult: 2
    decay_mult: 0
  }
  convolution_param {
    num_output: 256
    pad: 1
    kernel_size: 3
    stride: 1
    weight_filler {
      type: "xavier"
    }
  }
}
layer {
  name: "relu3_2"
  type: "ReLU"
  bottom: "conv3_2"
  top: "conv3_2"
}
layer {
  name: "conv3_3"
  type: "Convolution"
  bottom: "conv3_2"
  top: "conv3_3"
  param {
    lr_mult: 1
    decay_mult: 1
  }
  param {
    lr_mult: 2
    decay_mult: 0
  }
  convolution_param {
    num_output: 256
    pad: 1
    kernel_size: 3
    stride: 1
    weight_filler {
      type: "xavier"
    }
  }
}
layer {
  name: "relu3_3"
  type: "ReLU"
  bottom: "conv3_3"
  top: "conv3_3"
}
layer {
  name: "pool3"
  type: "Pooling"
  bottom: "conv3_3"
  top: "pool3"
  pooling_param {
    pool: MAX
    kernel_size: 2
    stride: 2
  }
}
layer {
  name: "conv4_1"
  type: "Convolution"
  bottom: "pool3"
  top: "conv4_1"
  param {
    lr_mult: 1
    decay_mult: 1
  }
  param {
    lr_mult: 2
    decay_mult: 0
  }
  convolution_param {
    num_output: 512
    pad: 1
    kernel_size: 3
    stride: 1
    weight_filler {
      type: "xavier"
    }
  }
}
layer {
  name: "relu4_1"
  type: "ReLU"
  bottom: "conv4_1"
  top: "conv4_1"
}
layer {
  name: "conv4_2"
  type: "Convolution"
  bottom: "conv4_1"
  top: "conv4_2"
  param {
    lr_mult: 1
    decay_mult: 1
  }
  param {
    lr_mult: 2
    decay_mult: 0
  }
  convolution_param {
    num_output: 512
    pad: 1
    kernel_size: 3
    stride: 1
    weight_filler {
      type: "xavier"
    }
  }
}
layer {
  name: "relu4_2"
  type: "ReLU"
  bottom: "conv4_2"
  top: "conv4_2"
}
layer {
  name: "conv4_3"
  type: "Convolution"
  bottom: "conv4_2"
  top: "conv4_3"
  param {
    lr_mult: 1
    decay_mult: 1
  }
  param {
    lr_mult: 2
    decay_mult: 0
  }
  convolution_param {
    num_output: 512
    pad: 1
    kernel_size: 3
    stride: 1
    weight_filler {
      type: "xavier"
    }
  }
}
layer {
  name: "relu4_3"
  type: "ReLU"
  bottom: "conv4_3"
  top: "conv4_3"
}
layer {
  name: "pool4"
  type: "Pooling"
  bottom: "conv4_3"
  top: "pool4"
  pooling_param {
    pool: MAX
    kernel_size: 2
    stride: 2
  }
}
layer {
  name: "conv5_1"
  type: "Convolution"
  bottom: "pool4"
  top: "conv5_1"
  param {
    lr_mult: 1
    decay_mult: 1
  }
  param {
    lr_mult: 2
    decay_mult: 0
  }
  convolution_param {
    num_output: 512
    pad: 1
    kernel_size: 3
    stride: 1
    weight_filler {
      type: "xavier"
    }
  }
}
layer {
  name: "relu5_1"
  type: "ReLU"
  bottom: "conv5_1"
  top: "conv5_1"
}
layer {
  name: "conv5_2"
  type: "Convolution"
  bottom: "conv5_1"
  top: "conv5_2"
  param {
    lr_mult: 1
    decay_mult: 1
  }
  param {
    lr_mult: 2
    decay_mult: 0
  }
  convolution_param {
    num_output: 512
    pad: 1
    kernel_size: 3
    stride: 1
    weight_filler {
      type: "xavier"
    }
  }
}
layer {
  name: "relu5_2"
  type: "ReLU"
  bottom: "conv5_2"
  top: "conv5_2"
}
layer {
  name: "conv5_3"
  type: "Convolution"
  bottom: "conv5_2"
  top: "conv5_3"
  param {
    lr_mult: 1
    decay_mult: 1
  }
  param {
    lr_mult: 2
    decay_mult: 0
  }
  convolution_param {
    num_output: 512
    pad: 1
    kernel_size: 3
    stride: 1
    weight_filler {
      type: "xavier"
    }
  }
}
layer {
  name: "relu5_3"
  type: "ReLU"
  bottom: "conv5_3"
  top: "conv5_3"
}
layer {
  name: "pool5"
  type: "Pooling"
  bottom: "conv5_3"
  top: "pool5"
  pooling_param {
    pool: MAX
    kernel_size: 2
    stride: 2
  }
}
layer {
  name: "fc6"
  type: "Convolution"
  bottom: "pool5"
  top: "fc6"
  param {
    lr_mult: 1
    decay_mult: 1
  }
  param {
    lr_mult: 2
    decay_mult: 0
  }
  convolution_param {
    num_output: 4096
    pad: 0
    kernel_size: 7
    stride: 1
    weight_filler {
      type: "xavier"
    }
  }
}
layer {
  name: "relu6"
  type: "ReLU"
  bottom: "fc6"
  top: "fc6"
}
layer {
  name: "drop6"
  type: "Dropout"
  bottom: "fc6"
  top: "fc6"
  dropout_param {
    dropout_ratio: 0.5
  }
}
layer {
  name: "fc7"
  type: "Convolution"
  bottom: "fc6"
  top: "fc7"
  param {
    lr_mult: 1
    decay_mult: 1
  }
  param {
    lr_mult: 2
    decay_mult: 0
  }
  convolution_param {
    num_output: 4096
    pad: 0
    kernel_size: 1
    stride: 1
    weight_filler {
      type: "xavier"
    }
  }
}
layer {
  name: "relu7"
  type: "ReLU"
  bottom: "fc7"
  top: "fc7"
}
layer {
  name: "drop7"
  type: "Dropout"
  bottom: "fc7"
  top: "fc7"
  dropout_param {
    dropout_ratio: 0.5
  }
}
layer {
  name: "score_fr"
  type: "Convolution"
  bottom: "fc7"
  top: "score_fr"
  param {
    lr_mult: 1
    decay_mult: 1
  }
  param {
    lr_mult: 2
    decay_mult: 0
  }
  convolution_param {
    num_output: 6
    pad: 0
    kernel_size: 1
    weight_filler {
      type: "xavier"
    }
  }
}
layer {
  name: "upscore2"
  type: "Deconvolution"
  bottom: "score_fr"
  top: "upscore2"
  param {
    lr_mult: 0
  }
  convolution_param {
    num_output: 6
    bias_term: false
    kernel_size: 4
    stride: 2
    weight_filler {
      type: "xavier"
    }
  }
}
layer {
  name: "scale_pool4"
  type: "Scale"
  bottom: "pool4"
  top: "scale_pool4"
  param {
    lr_mult: 0
  }
  scale_param {
    filler {
      type: "constant"
      value: 0.01
    }
  }
}
layer {
  name: "score_pool4"
  type: "Convolution"
  bottom: "scale_pool4"
  top: "score_pool4"
  param {
    lr_mult: 1
    decay_mult: 1
  }
  param {
    lr_mult: 2
    decay_mult: 0
  }
  convolution_param {
    num_output: 6
    pad: 0
    kernel_size: 1
    weight_filler {
      type: "xavier"
    }
  }
}
layer {
  name: "score_pool4c"
  type: "Crop"
  bottom: "score_pool4"
  bottom: "upscore2"
  top: "score_pool4c"
  crop_param {
    axis: 2
    offset: 5
  }
}
layer {
  name: "fuse_pool4"
  type: "Eltwise"
  bottom: "upscore2"
  bottom: "score_pool4c"
  top: "fuse_pool4"
  eltwise_param {
    operation: SUM
  }
}
layer {
  name: "upscore_pool4"
  type: "Deconvolution"
  bottom: "fuse_pool4"
  top: "upscore_pool4"
  param {
    lr_mult: 0
  }
  convolution_param {
    num_output: 6
    bias_term: false
    kernel_size: 4
    stride: 2
    weight_filler {
      type: "xavier"
    }
  }
}
layer {
  name: "scale_pool3"
  type: "Scale"
  bottom: "pool3"
  top: "scale_pool3"
  param {
    lr_mult: 0
  }
  scale_param {
    filler {
      type: "constant"
      value: 0.0001
    }
  }
}
layer {
  name: "score_pool3"
  type: "Convolution"
  bottom: "scale_pool3"
  top: "score_pool3"
  param {
    lr_mult: 1
    decay_mult: 1
  }
  param {
    lr_mult: 2
    decay_mult: 0
  }
  convolution_param {
    num_output: 6
    pad: 0
    kernel_size: 1
    weight_filler {
      type: "xavier"
    }
  }
}
layer {
  name: "score_pool3c"
  type: "Crop"
  bottom: "score_pool3"
  bottom: "upscore_pool4"
  top: "score_pool3c"
  crop_param {
    axis: 2
    offset: 9
  }
}
layer {
  name: "fuse_pool3"
  type: "Eltwise"
  bottom: "upscore_pool4"
  bottom: "score_pool3c"
  top: "fuse_pool3"
  eltwise_param {
    operation: SUM
  }
}
layer {
  name: "upscore8"
  type: "Deconvolution"
  bottom: "fuse_pool3"
  top: "upscore8"
  param {
    lr_mult: 0
  }
  convolution_param {
    num_output: 6
    bias_term: false
    kernel_size: 16
    stride: 8
    weight_filler {
      type: "xavier"
    }
  }
}
layer {
  name: "score"
  type: "Crop"
  bottom: "upscore8"
  bottom: "data"
  top: "score"
  crop_param {
    axis: 2
    offset: 31
  }
}
layer {
  name: "loss"
  type: "SoftmaxWithLoss"
  bottom: "score"
  bottom: "label"
  top: "loss"
  loss_param {
    ignore_label: 255
    normalize: false
  }
}
I0115 15:10:05.665246 23441 layer_factory.hpp:77] Creating layer data
I0115 15:10:05.665405 23441 net.cpp:100] Creating Layer data
I0115 15:10:05.665415 23441 net.cpp:408] data -> data
I0115 15:10:05.665422 23441 net.cpp:408] data -> label
I0115 15:10:05.683205 23441 net.cpp:150] Setting up data
I0115 15:10:05.683248 23441 net.cpp:157] Top shape: 1 3 335 500 (502500)
I0115 15:10:05.683255 23441 net.cpp:157] Top shape: 1 1 335 500 (167500)
I0115 15:10:05.683259 23441 net.cpp:165] Memory required for data: 2680000
I0115 15:10:05.683267 23441 layer_factory.hpp:77] Creating layer data_data_0_split
I0115 15:10:05.683281 23441 net.cpp:100] Creating Layer data_data_0_split
I0115 15:10:05.683287 23441 net.cpp:434] data_data_0_split <- data
I0115 15:10:05.683295 23441 net.cpp:408] data_data_0_split -> data_data_0_split_0
I0115 15:10:05.683307 23441 net.cpp:408] data_data_0_split -> data_data_0_split_1
I0115 15:10:05.683353 23441 net.cpp:150] Setting up data_data_0_split
I0115 15:10:05.683362 23441 net.cpp:157] Top shape: 1 3 335 500 (502500)
I0115 15:10:05.683367 23441 net.cpp:157] Top shape: 1 3 335 500 (502500)
I0115 15:10:05.683370 23441 net.cpp:165] Memory required for data: 6700000
I0115 15:10:05.683375 23441 layer_factory.hpp:77] Creating layer conv1_1
I0115 15:10:05.683389 23441 net.cpp:100] Creating Layer conv1_1
I0115 15:10:05.683394 23441 net.cpp:434] conv1_1 <- data_data_0_split_0
I0115 15:10:05.683401 23441 net.cpp:408] conv1_1 -> conv1_1
I0115 15:10:05.685714 23441 net.cpp:150] Setting up conv1_1
I0115 15:10:05.685734 23441 net.cpp:157] Top shape: 1 64 533 698 (23810176)
I0115 15:10:05.685739 23441 net.cpp:165] Memory required for data: 101940704
I0115 15:10:05.685752 23441 layer_factory.hpp:77] Creating layer relu1_1
I0115 15:10:05.685761 23441 net.cpp:100] Creating Layer relu1_1
I0115 15:10:05.685765 23441 net.cpp:434] relu1_1 <- conv1_1
I0115 15:10:05.685772 23441 net.cpp:395] relu1_1 -> conv1_1 (in-place)
I0115 15:10:05.685971 23441 net.cpp:150] Setting up relu1_1
I0115 15:10:05.685981 23441 net.cpp:157] Top shape: 1 64 533 698 (23810176)
I0115 15:10:05.685986 23441 net.cpp:165] Memory required for data: 197181408
I0115 15:10:05.685992 23441 layer_factory.hpp:77] Creating layer conv1_2
I0115 15:10:05.686003 23441 net.cpp:100] Creating Layer conv1_2
I0115 15:10:05.686007 23441 net.cpp:434] conv1_2 <- conv1_1
I0115 15:10:05.686014 23441 net.cpp:408] conv1_2 -> conv1_2
I0115 15:10:05.688314 23441 net.cpp:150] Setting up conv1_2
I0115 15:10:05.688333 23441 net.cpp:157] Top shape: 1 64 533 698 (23810176)
I0115 15:10:05.688338 23441 net.cpp:165] Memory required for data: 292422112
I0115 15:10:05.688349 23441 layer_factory.hpp:77] Creating layer relu1_2
I0115 15:10:05.688357 23441 net.cpp:100] Creating Layer relu1_2
I0115 15:10:05.688362 23441 net.cpp:434] relu1_2 <- conv1_2
I0115 15:10:05.688369 23441 net.cpp:395] relu1_2 -> conv1_2 (in-place)
I0115 15:10:05.688753 23441 net.cpp:150] Setting up relu1_2
I0115 15:10:05.688768 23441 net.cpp:157] Top shape: 1 64 533 698 (23810176)
I0115 15:10:05.688773 23441 net.cpp:165] Memory required for data: 387662816
I0115 15:10:05.688778 23441 layer_factory.hpp:77] Creating layer pool1
I0115 15:10:05.688788 23441 net.cpp:100] Creating Layer pool1
I0115 15:10:05.688793 23441 net.cpp:434] pool1 <- conv1_2
I0115 15:10:05.688801 23441 net.cpp:408] pool1 -> pool1
I0115 15:10:05.688858 23441 net.cpp:150] Setting up pool1
I0115 15:10:05.688865 23441 net.cpp:157] Top shape: 1 64 267 349 (5963712)
I0115 15:10:05.688869 23441 net.cpp:165] Memory required for data: 411517664
I0115 15:10:05.688874 23441 layer_factory.hpp:77] Creating layer conv2_1
I0115 15:10:05.688885 23441 net.cpp:100] Creating Layer conv2_1
I0115 15:10:05.688890 23441 net.cpp:434] conv2_1 <- pool1
I0115 15:10:05.688899 23441 net.cpp:408] conv2_1 -> conv2_1
I0115 15:10:05.691179 23441 net.cpp:150] Setting up conv2_1
I0115 15:10:05.691195 23441 net.cpp:157] Top shape: 1 128 267 349 (11927424)
I0115 15:10:05.691200 23441 net.cpp:165] Memory required for data: 459227360
I0115 15:10:05.691212 23441 layer_factory.hpp:77] Creating layer relu2_1
I0115 15:10:05.691222 23441 net.cpp:100] Creating Layer relu2_1
I0115 15:10:05.691227 23441 net.cpp:434] relu2_1 <- conv2_1
I0115 15:10:05.691233 23441 net.cpp:395] relu2_1 -> conv2_1 (in-place)
I0115 15:10:05.691625 23441 net.cpp:150] Setting up relu2_1
I0115 15:10:05.691638 23441 net.cpp:157] Top shape: 1 128 267 349 (11927424)
I0115 15:10:05.691643 23441 net.cpp:165] Memory required for data: 506937056
I0115 15:10:05.691648 23441 layer_factory.hpp:77] Creating layer conv2_2
I0115 15:10:05.691659 23441 net.cpp:100] Creating Layer conv2_2
I0115 15:10:05.691664 23441 net.cpp:434] conv2_2 <- conv2_1
I0115 15:10:05.691673 23441 net.cpp:408] conv2_2 -> conv2_2
I0115 15:10:05.694247 23441 net.cpp:150] Setting up conv2_2
I0115 15:10:05.694267 23441 net.cpp:157] Top shape: 1 128 267 349 (11927424)
I0115 15:10:05.694272 23441 net.cpp:165] Memory required for data: 554646752
I0115 15:10:05.694279 23441 layer_factory.hpp:77] Creating layer relu2_2
I0115 15:10:05.694288 23441 net.cpp:100] Creating Layer relu2_2
I0115 15:10:05.694293 23441 net.cpp:434] relu2_2 <- conv2_2
I0115 15:10:05.694300 23441 net.cpp:395] relu2_2 -> conv2_2 (in-place)
I0115 15:10:05.694504 23441 net.cpp:150] Setting up relu2_2
I0115 15:10:05.694514 23441 net.cpp:157] Top shape: 1 128 267 349 (11927424)
I0115 15:10:05.694519 23441 net.cpp:165] Memory required for data: 602356448
I0115 15:10:05.694524 23441 layer_factory.hpp:77] Creating layer pool2
I0115 15:10:05.694533 23441 net.cpp:100] Creating Layer pool2
I0115 15:10:05.694537 23441 net.cpp:434] pool2 <- conv2_2
I0115 15:10:05.694545 23441 net.cpp:408] pool2 -> pool2
I0115 15:10:05.694602 23441 net.cpp:150] Setting up pool2
I0115 15:10:05.694609 23441 net.cpp:157] Top shape: 1 128 134 175 (3001600)
I0115 15:10:05.694613 23441 net.cpp:165] Memory required for data: 614362848
I0115 15:10:05.694617 23441 layer_factory.hpp:77] Creating layer conv3_1
I0115 15:10:05.694629 23441 net.cpp:100] Creating Layer conv3_1
I0115 15:10:05.694634 23441 net.cpp:434] conv3_1 <- pool2
I0115 15:10:05.694643 23441 net.cpp:408] conv3_1 -> conv3_1
I0115 15:10:05.697989 23441 net.cpp:150] Setting up conv3_1
I0115 15:10:05.698006 23441 net.cpp:157] Top shape: 1 256 134 175 (6003200)
I0115 15:10:05.698011 23441 net.cpp:165] Memory required for data: 638375648
I0115 15:10:05.698024 23441 layer_factory.hpp:77] Creating layer relu3_1
I0115 15:10:05.698040 23441 net.cpp:100] Creating Layer relu3_1
I0115 15:10:05.698045 23441 net.cpp:434] relu3_1 <- conv3_1
I0115 15:10:05.698052 23441 net.cpp:395] relu3_1 -> conv3_1 (in-place)
I0115 15:10:05.698429 23441 net.cpp:150] Setting up relu3_1
I0115 15:10:05.698443 23441 net.cpp:157] Top shape: 1 256 134 175 (6003200)
I0115 15:10:05.698448 23441 net.cpp:165] Memory required for data: 662388448
I0115 15:10:05.698453 23441 layer_factory.hpp:77] Creating layer conv3_2
I0115 15:10:05.698465 23441 net.cpp:100] Creating Layer conv3_2
I0115 15:10:05.698470 23441 net.cpp:434] conv3_2 <- conv3_1
I0115 15:10:05.698479 23441 net.cpp:408] conv3_2 -> conv3_2
I0115 15:10:05.703773 23441 net.cpp:150] Setting up conv3_2
I0115 15:10:05.703789 23441 net.cpp:157] Top shape: 1 256 134 175 (6003200)
I0115 15:10:05.703794 23441 net.cpp:165] Memory required for data: 686401248
I0115 15:10:05.703804 23441 layer_factory.hpp:77] Creating layer relu3_2
I0115 15:10:05.703811 23441 net.cpp:100] Creating Layer relu3_2
I0115 15:10:05.703816 23441 net.cpp:434] relu3_2 <- conv3_2
I0115 15:10:05.703824 23441 net.cpp:395] relu3_2 -> conv3_2 (in-place)
I0115 15:10:05.704020 23441 net.cpp:150] Setting up relu3_2
I0115 15:10:05.704030 23441 net.cpp:157] Top shape: 1 256 134 175 (6003200)
I0115 15:10:05.704035 23441 net.cpp:165] Memory required for data: 710414048
I0115 15:10:05.704040 23441 layer_factory.hpp:77] Creating layer conv3_3
I0115 15:10:05.704052 23441 net.cpp:100] Creating Layer conv3_3
I0115 15:10:05.704058 23441 net.cpp:434] conv3_3 <- conv3_2
I0115 15:10:05.704066 23441 net.cpp:408] conv3_3 -> conv3_3
I0115 15:10:05.709369 23441 net.cpp:150] Setting up conv3_3
I0115 15:10:05.709386 23441 net.cpp:157] Top shape: 1 256 134 175 (6003200)
I0115 15:10:05.709391 23441 net.cpp:165] Memory required for data: 734426848
I0115 15:10:05.709400 23441 layer_factory.hpp:77] Creating layer relu3_3
I0115 15:10:05.709408 23441 net.cpp:100] Creating Layer relu3_3
I0115 15:10:05.709414 23441 net.cpp:434] relu3_3 <- conv3_3
I0115 15:10:05.709420 23441 net.cpp:395] relu3_3 -> conv3_3 (in-place)
I0115 15:10:05.709612 23441 net.cpp:150] Setting up relu3_3
I0115 15:10:05.709623 23441 net.cpp:157] Top shape: 1 256 134 175 (6003200)
I0115 15:10:05.709628 23441 net.cpp:165] Memory required for data: 758439648
I0115 15:10:05.709632 23441 layer_factory.hpp:77] Creating layer pool3
I0115 15:10:05.709646 23441 net.cpp:100] Creating Layer pool3
I0115 15:10:05.709652 23441 net.cpp:434] pool3 <- conv3_3
I0115 15:10:05.709659 23441 net.cpp:408] pool3 -> pool3
I0115 15:10:05.709713 23441 net.cpp:150] Setting up pool3
I0115 15:10:05.709722 23441 net.cpp:157] Top shape: 1 256 67 88 (1509376)
I0115 15:10:05.709727 23441 net.cpp:165] Memory required for data: 764477152
I0115 15:10:05.709730 23441 layer_factory.hpp:77] Creating layer pool3_pool3_0_split
I0115 15:10:05.709738 23441 net.cpp:100] Creating Layer pool3_pool3_0_split
I0115 15:10:05.709743 23441 net.cpp:434] pool3_pool3_0_split <- pool3
I0115 15:10:05.709749 23441 net.cpp:408] pool3_pool3_0_split -> pool3_pool3_0_split_0
I0115 15:10:05.709756 23441 net.cpp:408] pool3_pool3_0_split -> pool3_pool3_0_split_1
I0115 15:10:05.709799 23441 net.cpp:150] Setting up pool3_pool3_0_split
I0115 15:10:05.709805 23441 net.cpp:157] Top shape: 1 256 67 88 (1509376)
I0115 15:10:05.709810 23441 net.cpp:157] Top shape: 1 256 67 88 (1509376)
I0115 15:10:05.709815 23441 net.cpp:165] Memory required for data: 776552160
I0115 15:10:05.709818 23441 layer_factory.hpp:77] Creating layer conv4_1
I0115 15:10:05.709830 23441 net.cpp:100] Creating Layer conv4_1
I0115 15:10:05.709834 23441 net.cpp:434] conv4_1 <- pool3_pool3_0_split_0
I0115 15:10:05.709842 23441 net.cpp:408] conv4_1 -> conv4_1
I0115 15:10:05.719039 23441 net.cpp:150] Setting up conv4_1
I0115 15:10:05.719059 23441 net.cpp:157] Top shape: 1 512 67 88 (3018752)
I0115 15:10:05.719064 23441 net.cpp:165] Memory required for data: 788627168
I0115 15:10:05.719072 23441 layer_factory.hpp:77] Creating layer relu4_1
I0115 15:10:05.719081 23441 net.cpp:100] Creating Layer relu4_1
I0115 15:10:05.719086 23441 net.cpp:434] relu4_1 <- conv4_1
I0115 15:10:05.719104 23441 net.cpp:395] relu4_1 -> conv4_1 (in-place)
I0115 15:10:05.719483 23441 net.cpp:150] Setting up relu4_1
I0115 15:10:05.719497 23441 net.cpp:157] Top shape: 1 512 67 88 (3018752)
I0115 15:10:05.719502 23441 net.cpp:165] Memory required for data: 800702176
I0115 15:10:05.719506 23441 layer_factory.hpp:77] Creating layer conv4_2
I0115 15:10:05.719518 23441 net.cpp:100] Creating Layer conv4_2
I0115 15:10:05.719523 23441 net.cpp:434] conv4_2 <- conv4_1
I0115 15:10:05.719532 23441 net.cpp:408] conv4_2 -> conv4_2
I0115 15:10:05.736714 23441 net.cpp:150] Setting up conv4_2
I0115 15:10:05.736742 23441 net.cpp:157] Top shape: 1 512 67 88 (3018752)
I0115 15:10:05.736747 23441 net.cpp:165] Memory required for data: 812777184
I0115 15:10:05.736763 23441 layer_factory.hpp:77] Creating layer relu4_2
I0115 15:10:05.736773 23441 net.cpp:100] Creating Layer relu4_2
I0115 15:10:05.736778 23441 net.cpp:434] relu4_2 <- conv4_2
I0115 15:10:05.736785 23441 net.cpp:395] relu4_2 -> conv4_2 (in-place)
I0115 15:10:05.736984 23441 net.cpp:150] Setting up relu4_2
I0115 15:10:05.736995 23441 net.cpp:157] Top shape: 1 512 67 88 (3018752)
I0115 15:10:05.736999 23441 net.cpp:165] Memory required for data: 824852192
I0115 15:10:05.737004 23441 layer_factory.hpp:77] Creating layer conv4_3
I0115 15:10:05.737017 23441 net.cpp:100] Creating Layer conv4_3
I0115 15:10:05.737022 23441 net.cpp:434] conv4_3 <- conv4_2
I0115 15:10:05.737030 23441 net.cpp:408] conv4_3 -> conv4_3
I0115 15:10:05.754389 23441 net.cpp:150] Setting up conv4_3
I0115 15:10:05.754417 23441 net.cpp:157] Top shape: 1 512 67 88 (3018752)
I0115 15:10:05.754423 23441 net.cpp:165] Memory required for data: 836927200
I0115 15:10:05.754433 23441 layer_factory.hpp:77] Creating layer relu4_3
I0115 15:10:05.754443 23441 net.cpp:100] Creating Layer relu4_3
I0115 15:10:05.754449 23441 net.cpp:434] relu4_3 <- conv4_3
I0115 15:10:05.754457 23441 net.cpp:395] relu4_3 -> conv4_3 (in-place)
I0115 15:10:05.754667 23441 net.cpp:150] Setting up relu4_3
I0115 15:10:05.754678 23441 net.cpp:157] Top shape: 1 512 67 88 (3018752)
I0115 15:10:05.754683 23441 net.cpp:165] Memory required for data: 849002208
I0115 15:10:05.754688 23441 layer_factory.hpp:77] Creating layer pool4
I0115 15:10:05.754698 23441 net.cpp:100] Creating Layer pool4
I0115 15:10:05.754703 23441 net.cpp:434] pool4 <- conv4_3
I0115 15:10:05.754709 23441 net.cpp:408] pool4 -> pool4
I0115 15:10:05.754766 23441 net.cpp:150] Setting up pool4
I0115 15:10:05.754773 23441 net.cpp:157] Top shape: 1 512 34 44 (765952)
I0115 15:10:05.754777 23441 net.cpp:165] Memory required for data: 852066016
I0115 15:10:05.754781 23441 layer_factory.hpp:77] Creating layer pool4_pool4_0_split
I0115 15:10:05.754791 23441 net.cpp:100] Creating Layer pool4_pool4_0_split
I0115 15:10:05.754794 23441 net.cpp:434] pool4_pool4_0_split <- pool4
I0115 15:10:05.754801 23441 net.cpp:408] pool4_pool4_0_split -> pool4_pool4_0_split_0
I0115 15:10:05.754808 23441 net.cpp:408] pool4_pool4_0_split -> pool4_pool4_0_split_1
I0115 15:10:05.754851 23441 net.cpp:150] Setting up pool4_pool4_0_split
I0115 15:10:05.754858 23441 net.cpp:157] Top shape: 1 512 34 44 (765952)
I0115 15:10:05.754863 23441 net.cpp:157] Top shape: 1 512 34 44 (765952)
I0115 15:10:05.754868 23441 net.cpp:165] Memory required for data: 858193632
I0115 15:10:05.754871 23441 layer_factory.hpp:77] Creating layer conv5_1
I0115 15:10:05.754884 23441 net.cpp:100] Creating Layer conv5_1
I0115 15:10:05.754889 23441 net.cpp:434] conv5_1 <- pool4_pool4_0_split_0
I0115 15:10:05.754896 23441 net.cpp:408] conv5_1 -> conv5_1
I0115 15:10:05.772392 23441 net.cpp:150] Setting up conv5_1
I0115 15:10:05.772423 23441 net.cpp:157] Top shape: 1 512 34 44 (765952)
I0115 15:10:05.772428 23441 net.cpp:165] Memory required for data: 861257440
I0115 15:10:05.772438 23441 layer_factory.hpp:77] Creating layer relu5_1
I0115 15:10:05.772449 23441 net.cpp:100] Creating Layer relu5_1
I0115 15:10:05.772454 23441 net.cpp:434] relu5_1 <- conv5_1
I0115 15:10:05.772461 23441 net.cpp:395] relu5_1 -> conv5_1 (in-place)
I0115 15:10:05.772858 23441 net.cpp:150] Setting up relu5_1
I0115 15:10:05.772872 23441 net.cpp:157] Top shape: 1 512 34 44 (765952)
I0115 15:10:05.772876 23441 net.cpp:165] Memory required for data: 864321248
I0115 15:10:05.772881 23441 layer_factory.hpp:77] Creating layer conv5_2
I0115 15:10:05.772894 23441 net.cpp:100] Creating Layer conv5_2
I0115 15:10:05.772899 23441 net.cpp:434] conv5_2 <- conv5_1
I0115 15:10:05.772907 23441 net.cpp:408] conv5_2 -> conv5_2
I0115 15:10:05.790092 23441 net.cpp:150] Setting up conv5_2
I0115 15:10:05.790117 23441 net.cpp:157] Top shape: 1 512 34 44 (765952)
I0115 15:10:05.790122 23441 net.cpp:165] Memory required for data: 867385056
I0115 15:10:05.790132 23441 layer_factory.hpp:77] Creating layer relu5_2
I0115 15:10:05.790143 23441 net.cpp:100] Creating Layer relu5_2
I0115 15:10:05.790148 23441 net.cpp:434] relu5_2 <- conv5_2
I0115 15:10:05.790155 23441 net.cpp:395] relu5_2 -> conv5_2 (in-place)
I0115 15:10:05.790356 23441 net.cpp:150] Setting up relu5_2
I0115 15:10:05.790367 23441 net.cpp:157] Top shape: 1 512 34 44 (765952)
I0115 15:10:05.790371 23441 net.cpp:165] Memory required for data: 870448864
I0115 15:10:05.790376 23441 layer_factory.hpp:77] Creating layer conv5_3
I0115 15:10:05.790395 23441 net.cpp:100] Creating Layer conv5_3
I0115 15:10:05.790400 23441 net.cpp:434] conv5_3 <- conv5_2
I0115 15:10:05.790408 23441 net.cpp:408] conv5_3 -> conv5_3
I0115 15:10:05.807557 23441 net.cpp:150] Setting up conv5_3
I0115 15:10:05.807582 23441 net.cpp:157] Top shape: 1 512 34 44 (765952)
I0115 15:10:05.807587 23441 net.cpp:165] Memory required for data: 873512672
I0115 15:10:05.807596 23441 layer_factory.hpp:77] Creating layer relu5_3
I0115 15:10:05.807606 23441 net.cpp:100] Creating Layer relu5_3
I0115 15:10:05.807612 23441 net.cpp:434] relu5_3 <- conv5_3
I0115 15:10:05.807620 23441 net.cpp:395] relu5_3 -> conv5_3 (in-place)
I0115 15:10:05.807817 23441 net.cpp:150] Setting up relu5_3
I0115 15:10:05.807828 23441 net.cpp:157] Top shape: 1 512 34 44 (765952)
I0115 15:10:05.807832 23441 net.cpp:165] Memory required for data: 876576480
I0115 15:10:05.807837 23441 layer_factory.hpp:77] Creating layer pool5
I0115 15:10:05.807847 23441 net.cpp:100] Creating Layer pool5
I0115 15:10:05.807852 23441 net.cpp:434] pool5 <- conv5_3
I0115 15:10:05.807860 23441 net.cpp:408] pool5 -> pool5
I0115 15:10:05.807917 23441 net.cpp:150] Setting up pool5
I0115 15:10:05.807925 23441 net.cpp:157] Top shape: 1 512 17 22 (191488)
I0115 15:10:05.807929 23441 net.cpp:165] Memory required for data: 877342432
I0115 15:10:05.807934 23441 layer_factory.hpp:77] Creating layer fc6
I0115 15:10:05.807945 23441 net.cpp:100] Creating Layer fc6
I0115 15:10:05.807950 23441 net.cpp:434] fc6 <- pool5
I0115 15:10:05.807958 23441 net.cpp:408] fc6 -> fc6
I0115 15:10:06.704546 23441 net.cpp:150] Setting up fc6
I0115 15:10:06.704609 23441 net.cpp:157] Top shape: 1 4096 11 16 (720896)
I0115 15:10:06.704614 23441 net.cpp:165] Memory required for data: 880226016
I0115 15:10:06.704648 23441 layer_factory.hpp:77] Creating layer relu6
I0115 15:10:06.704674 23441 net.cpp:100] Creating Layer relu6
I0115 15:10:06.704700 23441 net.cpp:434] relu6 <- fc6
I0115 15:10:06.704710 23441 net.cpp:395] relu6 -> fc6 (in-place)
I0115 15:10:06.705119 23441 net.cpp:150] Setting up relu6
I0115 15:10:06.705134 23441 net.cpp:157] Top shape: 1 4096 11 16 (720896)
I0115 15:10:06.705139 23441 net.cpp:165] Memory required for data: 883109600
I0115 15:10:06.705150 23441 layer_factory.hpp:77] Creating layer drop6
I0115 15:10:06.705169 23441 net.cpp:100] Creating Layer drop6
I0115 15:10:06.705174 23441 net.cpp:434] drop6 <- fc6
I0115 15:10:06.705181 23441 net.cpp:395] drop6 -> fc6 (in-place)
I0115 15:10:06.705312 23441 net.cpp:150] Setting up drop6
I0115 15:10:06.705322 23441 net.cpp:157] Top shape: 1 4096 11 16 (720896)
I0115 15:10:06.705327 23441 net.cpp:165] Memory required for data: 885993184
I0115 15:10:06.705332 23441 layer_factory.hpp:77] Creating layer fc7
I0115 15:10:06.705358 23441 net.cpp:100] Creating Layer fc7
I0115 15:10:06.705363 23441 net.cpp:434] fc7 <- fc6
I0115 15:10:06.705384 23441 net.cpp:408] fc7 -> fc7
I0115 15:10:06.821154 23441 net.cpp:150] Setting up fc7
I0115 15:10:06.821202 23441 net.cpp:157] Top shape: 1 4096 11 16 (720896)
I0115 15:10:06.821208 23441 net.cpp:165] Memory required for data: 888876768
I0115 15:10:06.821220 23441 layer_factory.hpp:77] Creating layer relu7
I0115 15:10:06.821239 23441 net.cpp:100] Creating Layer relu7
I0115 15:10:06.821246 23441 net.cpp:434] relu7 <- fc7
I0115 15:10:06.821256 23441 net.cpp:395] relu7 -> fc7 (in-place)
I0115 15:10:06.821475 23441 net.cpp:150] Setting up relu7
I0115 15:10:06.821485 23441 net.cpp:157] Top shape: 1 4096 11 16 (720896)
I0115 15:10:06.821491 23441 net.cpp:165] Memory required for data: 891760352
I0115 15:10:06.821494 23441 layer_factory.hpp:77] Creating layer drop7
I0115 15:10:06.821511 23441 net.cpp:100] Creating Layer drop7
I0115 15:10:06.821516 23441 net.cpp:434] drop7 <- fc7
I0115 15:10:06.821524 23441 net.cpp:395] drop7 -> fc7 (in-place)
I0115 15:10:06.821568 23441 net.cpp:150] Setting up drop7
I0115 15:10:06.821576 23441 net.cpp:157] Top shape: 1 4096 11 16 (720896)
I0115 15:10:06.821580 23441 net.cpp:165] Memory required for data: 894643936
I0115 15:10:06.821590 23441 layer_factory.hpp:77] Creating layer score_fr
I0115 15:10:06.821609 23441 net.cpp:100] Creating Layer score_fr
I0115 15:10:06.821614 23441 net.cpp:434] score_fr <- fc7
I0115 15:10:06.821627 23441 net.cpp:408] score_fr -> score_fr
I0115 15:10:06.823984 23441 net.cpp:150] Setting up score_fr
I0115 15:10:06.824002 23441 net.cpp:157] Top shape: 1 6 11 16 (1056)
I0115 15:10:06.824007 23441 net.cpp:165] Memory required for data: 894648160
I0115 15:10:06.824015 23441 layer_factory.hpp:77] Creating layer upscore2
I0115 15:10:06.824034 23441 net.cpp:100] Creating Layer upscore2
I0115 15:10:06.824039 23441 net.cpp:434] upscore2 <- score_fr
I0115 15:10:06.824048 23441 net.cpp:408] upscore2 -> upscore2
I0115 15:10:06.824352 23441 net.cpp:150] Setting up upscore2
I0115 15:10:06.824362 23441 net.cpp:157] Top shape: 1 6 24 34 (4896)
I0115 15:10:06.824367 23441 net.cpp:165] Memory required for data: 894667744
I0115 15:10:06.824417 23441 layer_factory.hpp:77] Creating layer upscore2_upscore2_0_split
I0115 15:10:06.824429 23441 net.cpp:100] Creating Layer upscore2_upscore2_0_split
I0115 15:10:06.824434 23441 net.cpp:434] upscore2_upscore2_0_split <- upscore2
I0115 15:10:06.824440 23441 net.cpp:408] upscore2_upscore2_0_split -> upscore2_upscore2_0_split_0
I0115 15:10:06.824448 23441 net.cpp:408] upscore2_upscore2_0_split -> upscore2_upscore2_0_split_1
I0115 15:10:06.824501 23441 net.cpp:150] Setting up upscore2_upscore2_0_split
I0115 15:10:06.824507 23441 net.cpp:157] Top shape: 1 6 24 34 (4896)
I0115 15:10:06.824513 23441 net.cpp:157] Top shape: 1 6 24 34 (4896)
I0115 15:10:06.824517 23441 net.cpp:165] Memory required for data: 894706912
I0115 15:10:06.824522 23441 layer_factory.hpp:77] Creating layer scale_pool4
I0115 15:10:06.824538 23441 net.cpp:100] Creating Layer scale_pool4
I0115 15:10:06.824543 23441 net.cpp:434] scale_pool4 <- pool4_pool4_0_split_1
I0115 15:10:06.824551 23441 net.cpp:408] scale_pool4 -> scale_pool4
I0115 15:10:06.824765 23441 net.cpp:150] Setting up scale_pool4
I0115 15:10:06.824776 23441 net.cpp:157] Top shape: 1 512 34 44 (765952)
I0115 15:10:06.824780 23441 net.cpp:165] Memory required for data: 897770720
I0115 15:10:06.824786 23441 layer_factory.hpp:77] Creating layer score_pool4
I0115 15:10:06.824797 23441 net.cpp:100] Creating Layer score_pool4
I0115 15:10:06.824802 23441 net.cpp:434] score_pool4 <- scale_pool4
I0115 15:10:06.824810 23441 net.cpp:408] score_pool4 -> score_pool4
I0115 15:10:06.826310 23441 net.cpp:150] Setting up score_pool4
I0115 15:10:06.826328 23441 net.cpp:157] Top shape: 1 6 34 44 (8976)
I0115 15:10:06.826331 23441 net.cpp:165] Memory required for data: 897806624
I0115 15:10:06.826340 23441 layer_factory.hpp:77] Creating layer score_pool4c
I0115 15:10:06.826349 23441 net.cpp:100] Creating Layer score_pool4c
I0115 15:10:06.826354 23441 net.cpp:434] score_pool4c <- score_pool4
I0115 15:10:06.826370 23441 net.cpp:434] score_pool4c <- upscore2_upscore2_0_split_0
I0115 15:10:06.826378 23441 net.cpp:408] score_pool4c -> score_pool4c
I0115 15:10:06.826422 23441 net.cpp:150] Setting up score_pool4c
I0115 15:10:06.826431 23441 net.cpp:157] Top shape: 1 6 24 34 (4896)
I0115 15:10:06.826434 23441 net.cpp:165] Memory required for data: 897826208
I0115 15:10:06.826438 23441 layer_factory.hpp:77] Creating layer fuse_pool4
I0115 15:10:06.826447 23441 net.cpp:100] Creating Layer fuse_pool4
I0115 15:10:06.826452 23441 net.cpp:434] fuse_pool4 <- upscore2_upscore2_0_split_1
I0115 15:10:06.826457 23441 net.cpp:434] fuse_pool4 <- score_pool4c
I0115 15:10:06.826465 23441 net.cpp:408] fuse_pool4 -> fuse_pool4
I0115 15:10:06.826498 23441 net.cpp:150] Setting up fuse_pool4
I0115 15:10:06.826506 23441 net.cpp:157] Top shape: 1 6 24 34 (4896)
I0115 15:10:06.826510 23441 net.cpp:165] Memory required for data: 897845792
I0115 15:10:06.826514 23441 layer_factory.hpp:77] Creating layer upscore_pool4
I0115 15:10:06.826524 23441 net.cpp:100] Creating Layer upscore_pool4
I0115 15:10:06.826529 23441 net.cpp:434] upscore_pool4 <- fuse_pool4
I0115 15:10:06.826536 23441 net.cpp:408] upscore_pool4 -> upscore_pool4
I0115 15:10:06.826788 23441 net.cpp:150] Setting up upscore_pool4
I0115 15:10:06.826797 23441 net.cpp:157] Top shape: 1 6 50 70 (21000)
I0115 15:10:06.826802 23441 net.cpp:165] Memory required for data: 897929792
I0115 15:10:06.826807 23441 layer_factory.hpp:77] Creating layer upscore_pool4_upscore_pool4_0_split
I0115 15:10:06.826815 23441 net.cpp:100] Creating Layer upscore_pool4_upscore_pool4_0_split
I0115 15:10:06.826820 23441 net.cpp:434] upscore_pool4_upscore_pool4_0_split <- upscore_pool4
I0115 15:10:06.826827 23441 net.cpp:408] upscore_pool4_upscore_pool4_0_split -> upscore_pool4_upscore_pool4_0_split_0
I0115 15:10:06.826834 23441 net.cpp:408] upscore_pool4_upscore_pool4_0_split -> upscore_pool4_upscore_pool4_0_split_1
I0115 15:10:06.826881 23441 net.cpp:150] Setting up upscore_pool4_upscore_pool4_0_split
I0115 15:10:06.826889 23441 net.cpp:157] Top shape: 1 6 50 70 (21000)
I0115 15:10:06.826894 23441 net.cpp:157] Top shape: 1 6 50 70 (21000)
I0115 15:10:06.826899 23441 net.cpp:165] Memory required for data: 898097792
I0115 15:10:06.826902 23441 layer_factory.hpp:77] Creating layer scale_pool3
I0115 15:10:06.826910 23441 net.cpp:100] Creating Layer scale_pool3
I0115 15:10:06.826915 23441 net.cpp:434] scale_pool3 <- pool3_pool3_0_split_1
I0115 15:10:06.826921 23441 net.cpp:408] scale_pool3 -> scale_pool3
I0115 15:10:06.827062 23441 net.cpp:150] Setting up scale_pool3
I0115 15:10:06.827071 23441 net.cpp:157] Top shape: 1 256 67 88 (1509376)
I0115 15:10:06.827075 23441 net.cpp:165] Memory required for data: 904135296
I0115 15:10:06.827081 23441 layer_factory.hpp:77] Creating layer score_pool3
I0115 15:10:06.827105 23441 net.cpp:100] Creating Layer score_pool3
I0115 15:10:06.827111 23441 net.cpp:434] score_pool3 <- scale_pool3
I0115 15:10:06.827118 23441 net.cpp:408] score_pool3 -> score_pool3
I0115 15:10:06.828477 23441 net.cpp:150] Setting up score_pool3
I0115 15:10:06.828492 23441 net.cpp:157] Top shape: 1 6 67 88 (35376)
I0115 15:10:06.828497 23441 net.cpp:165] Memory required for data: 904276800
I0115 15:10:06.828505 23441 layer_factory.hpp:77] Creating layer score_pool3c
I0115 15:10:06.828516 23441 net.cpp:100] Creating Layer score_pool3c
I0115 15:10:06.828521 23441 net.cpp:434] score_pool3c <- score_pool3
I0115 15:10:06.828526 23441 net.cpp:434] score_pool3c <- upscore_pool4_upscore_pool4_0_split_0
I0115 15:10:06.828534 23441 net.cpp:408] score_pool3c -> score_pool3c
I0115 15:10:06.828574 23441 net.cpp:150] Setting up score_pool3c
I0115 15:10:06.828582 23441 net.cpp:157] Top shape: 1 6 50 70 (21000)
I0115 15:10:06.828585 23441 net.cpp:165] Memory required for data: 904360800
I0115 15:10:06.828589 23441 layer_factory.hpp:77] Creating layer fuse_pool3
I0115 15:10:06.828598 23441 net.cpp:100] Creating Layer fuse_pool3
I0115 15:10:06.828603 23441 net.cpp:434] fuse_pool3 <- upscore_pool4_upscore_pool4_0_split_1
I0115 15:10:06.828613 23441 net.cpp:434] fuse_pool3 <- score_pool3c
I0115 15:10:06.828620 23441 net.cpp:408] fuse_pool3 -> fuse_pool3
I0115 15:10:06.828655 23441 net.cpp:150] Setting up fuse_pool3
I0115 15:10:06.828662 23441 net.cpp:157] Top shape: 1 6 50 70 (21000)
I0115 15:10:06.828666 23441 net.cpp:165] Memory required for data: 904444800
I0115 15:10:06.828670 23441 layer_factory.hpp:77] Creating layer upscore8
I0115 15:10:06.828687 23441 net.cpp:100] Creating Layer upscore8
I0115 15:10:06.828693 23441 net.cpp:434] upscore8 <- fuse_pool3
I0115 15:10:06.828701 23441 net.cpp:408] upscore8 -> upscore8
I0115 15:10:06.829018 23441 net.cpp:150] Setting up upscore8
I0115 15:10:06.829027 23441 net.cpp:157] Top shape: 1 6 408 568 (1390464)
I0115 15:10:06.829031 23441 net.cpp:165] Memory required for data: 910006656
I0115 15:10:06.829037 23441 layer_factory.hpp:77] Creating layer score
I0115 15:10:06.829051 23441 net.cpp:100] Creating Layer score
I0115 15:10:06.829056 23441 net.cpp:434] score <- upscore8
I0115 15:10:06.829061 23441 net.cpp:434] score <- data_data_0_split_1
I0115 15:10:06.829068 23441 net.cpp:408] score -> score
I0115 15:10:06.829102 23441 net.cpp:150] Setting up score
I0115 15:10:06.829108 23441 net.cpp:157] Top shape: 1 6 335 500 (1005000)
I0115 15:10:06.829113 23441 net.cpp:165] Memory required for data: 914026656
I0115 15:10:06.829116 23441 layer_factory.hpp:77] Creating layer loss
I0115 15:10:06.829130 23441 net.cpp:100] Creating Layer loss
I0115 15:10:06.829134 23441 net.cpp:434] loss <- score
I0115 15:10:06.829140 23441 net.cpp:434] loss <- label
I0115 15:10:06.829146 23441 net.cpp:408] loss -> loss
I0115 15:10:06.829156 23441 layer_factory.hpp:77] Creating layer loss
…
