…
test_initialization: false
average_loss: 20
iter_size: 1
I0120 04:11:36.462748 27487 solver.cpp:81] Creating training net from train_net file: train.prototxt
I0120 04:11:36.464066 27487 net.cpp:58] Initializing net from parameters: 
state {
  phase: TRAIN
}
layer {
  name: "data"
  type: "Python"
  top: "data"
  top: "label"
  python_param {
    module: "voc_layers"
    layer: "PartialSBDDSegDataLayer"
    param_str: "{\'sbdd_dir\': \'../data/sbdd/dataset\', \'seed\': 1337, \'split\': \'train5\', \'mean\': (104.00699, 116.66877, 122.67892)}"
  }
}
layer {
  name: "conv1_1"
  type: "Convolution"
  bottom: "data"
  top: "conv1_1"
  param {
    lr_mult: 1
    decay_mult: 1
  }
  param {
    lr_mult: 2
    decay_mult: 0
  }
  convolution_param {
    num_output: 64
    pad: 100
    kernel_size: 3
    stride: 1
    weight_filler {
      type: "xavier"
    }
  }
}
layer {
  name: "relu1_1"
  type: "ReLU"
  bottom: "conv1_1"
  top: "conv1_1"
}
layer {
  name: "conv1_2"
  type: "Convolution"
  bottom: "conv1_1"
  top: "conv1_2"
  param {
    lr_mult: 1
    decay_mult: 1
  }
  param {
    lr_mult: 2
    decay_mult: 0
  }
  convolution_param {
    num_output: 64
    pad: 1
    kernel_size: 3
    stride: 1
    weight_filler {
      type: "xavier"
    }
  }
}
layer {
  name: "relu1_2"
  type: "ReLU"
  bottom: "conv1_2"
  top: "conv1_2"
}
layer {
  name: "pool1"
  type: "Pooling"
  bottom: "conv1_2"
  top: "pool1"
  pooling_param {
    pool: MAX
    kernel_size: 2
    stride: 2
  }
}
layer {
  name: "conv2_1"
  type: "Convolution"
  bottom: "pool1"
  top: "conv2_1"
  param {
    lr_mult: 1
    decay_mult: 1
  }
  param {
    lr_mult: 2
    decay_mult: 0
  }
  convolution_param {
    num_output: 128
    pad: 1
    kernel_size: 3
    stride: 1
    weight_filler {
      type: "xavier"
    }
  }
}
layer {
  name: "relu2_1"
  type: "ReLU"
  bottom: "conv2_1"
  top: "conv2_1"
}
layer {
  name: "conv2_2"
  type: "Convolution"
  bottom: "conv2_1"
  top: "conv2_2"
  param {
    lr_mult: 1
    decay_mult: 1
  }
  param {
    lr_mult: 2
    decay_mult: 0
  }
  convolution_param {
    num_output: 128
    pad: 1
    kernel_size: 3
    stride: 1
    weight_filler {
      type: "xavier"
    }
  }
}
layer {
  name: "relu2_2"
  type: "ReLU"
  bottom: "conv2_2"
  top: "conv2_2"
}
layer {
  name: "pool2"
  type: "Pooling"
  bottom: "conv2_2"
  top: "pool2"
  pooling_param {
    pool: MAX
    kernel_size: 2
    stride: 2
  }
}
layer {
  name: "conv3_1"
  type: "Convolution"
  bottom: "pool2"
  top: "conv3_1"
  param {
    lr_mult: 1
    decay_mult: 1
  }
  param {
    lr_mult: 2
    decay_mult: 0
  }
  convolution_param {
    num_output: 256
    pad: 1
    kernel_size: 3
    stride: 1
    weight_filler {
      type: "xavier"
    }
  }
}
layer {
  name: "relu3_1"
  type: "ReLU"
  bottom: "conv3_1"
  top: "conv3_1"
}
layer {
  name: "conv3_2"
  type: "Convolution"
  bottom: "conv3_1"
  top: "conv3_2"
  param {
    lr_mult: 1
    decay_mult: 1
  }
  param {
    lr_mult: 2
    decay_mult: 0
  }
  convolution_param {
    num_output: 256
    pad: 1
    kernel_size: 3
    stride: 1
    weight_filler {
      type: "xavier"
    }
  }
}
layer {
  name: "relu3_2"
  type: "ReLU"
  bottom: "conv3_2"
  top: "conv3_2"
}
layer {
  name: "conv3_3"
  type: "Convolution"
  bottom: "conv3_2"
  top: "conv3_3"
  param {
    lr_mult: 1
    decay_mult: 1
  }
  param {
    lr_mult: 2
    decay_mult: 0
  }
  convolution_param {
    num_output: 256
    pad: 1
    kernel_size: 3
    stride: 1
    weight_filler {
      type: "xavier"
    }
  }
}
layer {
  name: "relu3_3"
  type: "ReLU"
  bottom: "conv3_3"
  top: "conv3_3"
}
layer {
  name: "pool3"
  type: "Pooling"
  bottom: "conv3_3"
  top: "pool3"
  pooling_param {
    pool: MAX
    kernel_size: 2
    stride: 2
  }
}
layer {
  name: "conv4_1"
  type: "Convolution"
  bottom: "pool3"
  top: "conv4_1"
  param {
    lr_mult: 1
    decay_mult: 1
  }
  param {
    lr_mult: 2
    decay_mult: 0
  }
  convolution_param {
    num_output: 512
    pad: 1
    kernel_size: 3
    stride: 1
    weight_filler {
      type: "xavier"
    }
  }
}
layer {
  name: "relu4_1"
  type: "ReLU"
  bottom: "conv4_1"
  top: "conv4_1"
}
layer {
  name: "conv4_2"
  type: "Convolution"
  bottom: "conv4_1"
  top: "conv4_2"
  param {
    lr_mult: 1
    decay_mult: 1
  }
  param {
    lr_mult: 2
    decay_mult: 0
  }
  convolution_param {
    num_output: 512
    pad: 1
    kernel_size: 3
    stride: 1
    weight_filler {
      type: "xavier"
    }
  }
}
layer {
  name: "relu4_2"
  type: "ReLU"
  bottom: "conv4_2"
  top: "conv4_2"
}
layer {
  name: "conv4_3"
  type: "Convolution"
  bottom: "conv4_2"
  top: "conv4_3"
  param {
    lr_mult: 1
    decay_mult: 1
  }
  param {
    lr_mult: 2
    decay_mult: 0
  }
  convolution_param {
    num_output: 512
    pad: 1
    kernel_size: 3
    stride: 1
    weight_filler {
      type: "xavier"
    }
  }
}
layer {
  name: "relu4_3"
  type: "ReLU"
  bottom: "conv4_3"
  top: "conv4_3"
}
layer {
  name: "pool4"
  type: "Pooling"
  bottom: "conv4_3"
  top: "pool4"
  pooling_param {
    pool: MAX
    kernel_size: 2
    stride: 2
  }
}
layer {
  name: "conv5_1"
  type: "Convolution"
  bottom: "pool4"
  top: "conv5_1"
  param {
    lr_mult: 1
    decay_mult: 1
  }
  param {
    lr_mult: 2
    decay_mult: 0
  }
  convolution_param {
    num_output: 512
    pad: 1
    kernel_size: 3
    stride: 1
    weight_filler {
      type: "xavier"
    }
  }
}
layer {
  name: "relu5_1"
  type: "ReLU"
  bottom: "conv5_1"
  top: "conv5_1"
}
layer {
  name: "conv5_2"
  type: "Convolution"
  bottom: "conv5_1"
  top: "conv5_2"
  param {
    lr_mult: 1
    decay_mult: 1
  }
  param {
    lr_mult: 2
    decay_mult: 0
  }
  convolution_param {
    num_output: 512
    pad: 1
    kernel_size: 3
    stride: 1
    weight_filler {
      type: "xavier"
    }
  }
}
layer {
  name: "relu5_2"
  type: "ReLU"
  bottom: "conv5_2"
  top: "conv5_2"
}
layer {
  name: "conv5_3"
  type: "Convolution"
  bottom: "conv5_2"
  top: "conv5_3"
  param {
    lr_mult: 1
    decay_mult: 1
  }
  param {
    lr_mult: 2
    decay_mult: 0
  }
  convolution_param {
    num_output: 512
    pad: 1
    kernel_size: 3
    stride: 1
    weight_filler {
      type: "xavier"
    }
  }
}
layer {
  name: "relu5_3"
  type: "ReLU"
  bottom: "conv5_3"
  top: "conv5_3"
}
layer {
  name: "pool5"
  type: "Pooling"
  bottom: "conv5_3"
  top: "pool5"
  pooling_param {
    pool: MAX
    kernel_size: 2
    stride: 2
  }
}
layer {
  name: "fc6"
  type: "Convolution"
  bottom: "pool5"
  top: "fc6"
  param {
    lr_mult: 1
    decay_mult: 1
  }
  param {
    lr_mult: 2
    decay_mult: 0
  }
  convolution_param {
    num_output: 4096
    pad: 0
    kernel_size: 7
    stride: 1
    weight_filler {
      type: "xavier"
    }
  }
}
layer {
  name: "relu6"
  type: "ReLU"
  bottom: "fc6"
  top: "fc6"
}
layer {
  name: "drop6"
  type: "Dropout"
  bottom: "fc6"
  top: "fc6"
  dropout_param {
    dropout_ratio: 0.5
  }
}
layer {
  name: "fc7"
  type: "Convolution"
  bottom: "fc6"
  top: "fc7"
  param {
    lr_mult: 1
    decay_mult: 1
  }
  param {
    lr_mult: 2
    decay_mult: 0
  }
  convolution_param {
    num_output: 4096
    pad: 0
    kernel_size: 1
    stride: 1
    weight_filler {
      type: "xavier"
    }
  }
}
layer {
  name: "relu7"
  type: "ReLU"
  bottom: "fc7"
  top: "fc7"
}
layer {
  name: "drop7"
  type: "Dropout"
  bottom: "fc7"
  top: "fc7"
  dropout_param {
    dropout_ratio: 0.5
  }
}
layer {
  name: "score_fr"
  type: "Convolution"
  bottom: "fc7"
  top: "score_fr"
  param {
    lr_mult: 1
    decay_mult: 1
  }
  param {
    lr_mult: 2
    decay_mult: 0
  }
  convolution_param {
    num_output: 6
    pad: 0
    kernel_size: 1
    weight_filler {
      type: "xavier"
    }
  }
}
layer {
  name: "upscore2"
  type: "Deconvolution"
  bottom: "score_fr"
  top: "upscore2"
  param {
    lr_mult: 0
  }
  convolution_param {
    num_output: 6
    bias_term: false
    kernel_size: 4
    stride: 2
    weight_filler {
      type: "xavier"
    }
  }
}
layer {
  name: "scale_pool4"
  type: "Scale"
  bottom: "pool4"
  top: "scale_pool4"
  param {
    lr_mult: 0
  }
  scale_param {
    filler {
      type: "constant"
      value: 0.01
    }
  }
}
layer {
  name: "score_pool4"
  type: "Convolution"
  bottom: "scale_pool4"
  top: "score_pool4"
  param {
    lr_mult: 1
    decay_mult: 1
  }
  param {
    lr_mult: 2
    decay_mult: 0
  }
  convolution_param {
    num_output: 6
    pad: 0
    kernel_size: 1
    weight_filler {
      type: "xavier"
    }
  }
}
layer {
  name: "score_pool4c"
  type: "Crop"
  bottom: "score_pool4"
  bottom: "upscore2"
  top: "score_pool4c"
  crop_param {
    axis: 2
    offset: 5
  }
}
layer {
  name: "fuse_pool4"
  type: "Eltwise"
  bottom: "upscore2"
  bottom: "score_pool4c"
  top: "fuse_pool4"
  eltwise_param {
    operation: SUM
  }
}
layer {
  name: "upscore_pool4"
  type: "Deconvolution"
  bottom: "fuse_pool4"
  top: "upscore_pool4"
  param {
    lr_mult: 0
  }
  convolution_param {
    num_output: 6
    bias_term: false
    kernel_size: 4
    stride: 2
    weight_filler {
      type: "xavier"
    }
  }
}
layer {
  name: "scale_pool3"
  type: "Scale"
  bottom: "pool3"
  top: "scale_pool3"
  param {
    lr_mult: 0
  }
  scale_param {
    filler {
      type: "constant"
      value: 0.0001
    }
  }
}
layer {
  name: "score_pool3"
  type: "Convolution"
  bottom: "scale_pool3"
  top: "score_pool3"
  param {
    lr_mult: 1
    decay_mult: 1
  }
  param {
    lr_mult: 2
    decay_mult: 0
  }
  convolution_param {
    num_output: 6
    pad: 0
    kernel_size: 1
    weight_filler {
      type: "xavier"
    }
  }
}
layer {
  name: "score_pool3c"
  type: "Crop"
  bottom: "score_pool3"
  bottom: "upscore_pool4"
  top: "score_pool3c"
  crop_param {
    axis: 2
    offset: 9
  }
}
layer {
  name: "fuse_pool3"
  type: "Eltwise"
  bottom: "upscore_pool4"
  bottom: "score_pool3c"
  top: "fuse_pool3"
  eltwise_param {
    operation: SUM
  }
}
layer {
  name: "upscore8"
  type: "Deconvolution"
  bottom: "fuse_pool3"
  top: "upscore8"
  param {
    lr_mult: 0
  }
  convolution_param {
    num_output: 6
    bias_term: false
    kernel_size: 16
    stride: 8
    weight_filler {
      type: "xavier"
    }
  }
}
layer {
  name: "score"
  type: "Crop"
  bottom: "upscore8"
  bottom: "data"
  top: "score"
  crop_param {
    axis: 2
    offset: 31
  }
}
layer {
  name: "loss"
  type: "SoftmaxWithLoss"
  bottom: "score"
  bottom: "label"
  top: "loss"
  loss_param {
    ignore_label: 255
    normalize: false
  }
}
I0120 04:11:36.464318 27487 layer_factory.hpp:77] Creating layer data
I0120 04:11:36.464911 27487 net.cpp:100] Creating Layer data
I0120 04:11:36.464927 27487 net.cpp:408] data -> data
I0120 04:11:36.464946 27487 net.cpp:408] data -> label
I0120 04:11:36.508371 27487 net.cpp:150] Setting up data
I0120 04:11:36.508412 27487 net.cpp:157] Top shape: 1 3 375 500 (562500)
I0120 04:11:36.508419 27487 net.cpp:157] Top shape: 1 1 375 500 (187500)
I0120 04:11:36.508424 27487 net.cpp:165] Memory required for data: 3000000
I0120 04:11:36.508433 27487 layer_factory.hpp:77] Creating layer data_data_0_split
I0120 04:11:36.508451 27487 net.cpp:100] Creating Layer data_data_0_split
I0120 04:11:36.508456 27487 net.cpp:434] data_data_0_split <- data
I0120 04:11:36.508466 27487 net.cpp:408] data_data_0_split -> data_data_0_split_0
I0120 04:11:36.508479 27487 net.cpp:408] data_data_0_split -> data_data_0_split_1
I0120 04:11:36.508519 27487 net.cpp:150] Setting up data_data_0_split
I0120 04:11:36.508527 27487 net.cpp:157] Top shape: 1 3 375 500 (562500)
I0120 04:11:36.508533 27487 net.cpp:157] Top shape: 1 3 375 500 (562500)
I0120 04:11:36.508535 27487 net.cpp:165] Memory required for data: 7500000
I0120 04:11:36.508539 27487 layer_factory.hpp:77] Creating layer conv1_1
I0120 04:11:36.508561 27487 net.cpp:100] Creating Layer conv1_1
I0120 04:11:36.508565 27487 net.cpp:434] conv1_1 <- data_data_0_split_0
I0120 04:11:36.508580 27487 net.cpp:408] conv1_1 -> conv1_1
I0120 04:11:36.692322 27487 net.cpp:150] Setting up conv1_1
I0120 04:11:36.692363 27487 net.cpp:157] Top shape: 1 64 573 698 (25597056)
I0120 04:11:36.692368 27487 net.cpp:165] Memory required for data: 109888224
I0120 04:11:36.692389 27487 layer_factory.hpp:77] Creating layer relu1_1
I0120 04:11:36.692404 27487 net.cpp:100] Creating Layer relu1_1
I0120 04:11:36.692410 27487 net.cpp:434] relu1_1 <- conv1_1
I0120 04:11:36.692417 27487 net.cpp:395] relu1_1 -> conv1_1 (in-place)
I0120 04:11:36.692797 27487 net.cpp:150] Setting up relu1_1
I0120 04:11:36.692812 27487 net.cpp:157] Top shape: 1 64 573 698 (25597056)
I0120 04:11:36.692817 27487 net.cpp:165] Memory required for data: 212276448
I0120 04:11:36.692822 27487 layer_factory.hpp:77] Creating layer conv1_2
I0120 04:11:36.692839 27487 net.cpp:100] Creating Layer conv1_2
I0120 04:11:36.692844 27487 net.cpp:434] conv1_2 <- conv1_1
I0120 04:11:36.692852 27487 net.cpp:408] conv1_2 -> conv1_2
I0120 04:11:36.695724 27487 net.cpp:150] Setting up conv1_2
I0120 04:11:36.695741 27487 net.cpp:157] Top shape: 1 64 573 698 (25597056)
I0120 04:11:36.695745 27487 net.cpp:165] Memory required for data: 314664672
I0120 04:11:36.695757 27487 layer_factory.hpp:77] Creating layer relu1_2
I0120 04:11:36.695765 27487 net.cpp:100] Creating Layer relu1_2
I0120 04:11:36.695770 27487 net.cpp:434] relu1_2 <- conv1_2
I0120 04:11:36.695778 27487 net.cpp:395] relu1_2 -> conv1_2 (in-place)
I0120 04:11:36.696148 27487 net.cpp:150] Setting up relu1_2
I0120 04:11:36.696161 27487 net.cpp:157] Top shape: 1 64 573 698 (25597056)
I0120 04:11:36.696166 27487 net.cpp:165] Memory required for data: 417052896
I0120 04:11:36.696171 27487 layer_factory.hpp:77] Creating layer pool1
I0120 04:11:36.696184 27487 net.cpp:100] Creating Layer pool1
I0120 04:11:36.696188 27487 net.cpp:434] pool1 <- conv1_2
I0120 04:11:36.696195 27487 net.cpp:408] pool1 -> pool1
I0120 04:11:36.696245 27487 net.cpp:150] Setting up pool1
I0120 04:11:36.696252 27487 net.cpp:157] Top shape: 1 64 287 349 (6410432)
I0120 04:11:36.696256 27487 net.cpp:165] Memory required for data: 442694624
I0120 04:11:36.696260 27487 layer_factory.hpp:77] Creating layer conv2_1
I0120 04:11:36.696272 27487 net.cpp:100] Creating Layer conv2_1
I0120 04:11:36.696277 27487 net.cpp:434] conv2_1 <- pool1
I0120 04:11:36.696286 27487 net.cpp:408] conv2_1 -> conv2_1
I0120 04:11:36.698691 27487 net.cpp:150] Setting up conv2_1
I0120 04:11:36.698709 27487 net.cpp:157] Top shape: 1 128 287 349 (12820864)
I0120 04:11:36.698714 27487 net.cpp:165] Memory required for data: 493978080
I0120 04:11:36.698724 27487 layer_factory.hpp:77] Creating layer relu2_1
I0120 04:11:36.698735 27487 net.cpp:100] Creating Layer relu2_1
I0120 04:11:36.698740 27487 net.cpp:434] relu2_1 <- conv2_1
I0120 04:11:36.698746 27487 net.cpp:395] relu2_1 -> conv2_1 (in-place)
I0120 04:11:36.698947 27487 net.cpp:150] Setting up relu2_1
I0120 04:11:36.698957 27487 net.cpp:157] Top shape: 1 128 287 349 (12820864)
I0120 04:11:36.698961 27487 net.cpp:165] Memory required for data: 545261536
I0120 04:11:36.698966 27487 layer_factory.hpp:77] Creating layer conv2_2
I0120 04:11:36.698979 27487 net.cpp:100] Creating Layer conv2_2
I0120 04:11:36.698984 27487 net.cpp:434] conv2_2 <- conv2_1
I0120 04:11:36.698990 27487 net.cpp:408] conv2_2 -> conv2_2
I0120 04:11:36.701562 27487 net.cpp:150] Setting up conv2_2
I0120 04:11:36.701580 27487 net.cpp:157] Top shape: 1 128 287 349 (12820864)
I0120 04:11:36.701584 27487 net.cpp:165] Memory required for data: 596544992
I0120 04:11:36.701592 27487 layer_factory.hpp:77] Creating layer relu2_2
I0120 04:11:36.701599 27487 net.cpp:100] Creating Layer relu2_2
I0120 04:11:36.701604 27487 net.cpp:434] relu2_2 <- conv2_2
I0120 04:11:36.701612 27487 net.cpp:395] relu2_2 -> conv2_2 (in-place)
I0120 04:11:36.701985 27487 net.cpp:150] Setting up relu2_2
I0120 04:11:36.701999 27487 net.cpp:157] Top shape: 1 128 287 349 (12820864)
I0120 04:11:36.702004 27487 net.cpp:165] Memory required for data: 647828448
I0120 04:11:36.702018 27487 layer_factory.hpp:77] Creating layer pool2
I0120 04:11:36.702025 27487 net.cpp:100] Creating Layer pool2
I0120 04:11:36.702029 27487 net.cpp:434] pool2 <- conv2_2
I0120 04:11:36.702038 27487 net.cpp:408] pool2 -> pool2
I0120 04:11:36.702088 27487 net.cpp:150] Setting up pool2
I0120 04:11:36.702096 27487 net.cpp:157] Top shape: 1 128 144 175 (3225600)
I0120 04:11:36.702100 27487 net.cpp:165] Memory required for data: 660730848
I0120 04:11:36.702103 27487 layer_factory.hpp:77] Creating layer conv3_1
I0120 04:11:36.702116 27487 net.cpp:100] Creating Layer conv3_1
I0120 04:11:36.702119 27487 net.cpp:434] conv3_1 <- pool2
I0120 04:11:36.702126 27487 net.cpp:408] conv3_1 -> conv3_1
I0120 04:11:36.705282 27487 net.cpp:150] Setting up conv3_1
I0120 04:11:36.705299 27487 net.cpp:157] Top shape: 1 256 144 175 (6451200)
I0120 04:11:36.705303 27487 net.cpp:165] Memory required for data: 686535648
I0120 04:11:36.705314 27487 layer_factory.hpp:77] Creating layer relu3_1
I0120 04:11:36.705324 27487 net.cpp:100] Creating Layer relu3_1
I0120 04:11:36.705329 27487 net.cpp:434] relu3_1 <- conv3_1
I0120 04:11:36.705334 27487 net.cpp:395] relu3_1 -> conv3_1 (in-place)
I0120 04:11:36.705718 27487 net.cpp:150] Setting up relu3_1
I0120 04:11:36.705732 27487 net.cpp:157] Top shape: 1 256 144 175 (6451200)
I0120 04:11:36.705736 27487 net.cpp:165] Memory required for data: 712340448
I0120 04:11:36.705741 27487 layer_factory.hpp:77] Creating layer conv3_2
I0120 04:11:36.705754 27487 net.cpp:100] Creating Layer conv3_2
I0120 04:11:36.705759 27487 net.cpp:434] conv3_2 <- conv3_1
I0120 04:11:36.705767 27487 net.cpp:408] conv3_2 -> conv3_2
I0120 04:11:36.711052 27487 net.cpp:150] Setting up conv3_2
I0120 04:11:36.711069 27487 net.cpp:157] Top shape: 1 256 144 175 (6451200)
I0120 04:11:36.711073 27487 net.cpp:165] Memory required for data: 738145248
I0120 04:11:36.711082 27487 layer_factory.hpp:77] Creating layer relu3_2
I0120 04:11:36.711091 27487 net.cpp:100] Creating Layer relu3_2
I0120 04:11:36.711097 27487 net.cpp:434] relu3_2 <- conv3_2
I0120 04:11:36.711102 27487 net.cpp:395] relu3_2 -> conv3_2 (in-place)
I0120 04:11:36.711287 27487 net.cpp:150] Setting up relu3_2
I0120 04:11:36.711297 27487 net.cpp:157] Top shape: 1 256 144 175 (6451200)
I0120 04:11:36.711302 27487 net.cpp:165] Memory required for data: 763950048
I0120 04:11:36.711305 27487 layer_factory.hpp:77] Creating layer conv3_3
I0120 04:11:36.711321 27487 net.cpp:100] Creating Layer conv3_3
I0120 04:11:36.711326 27487 net.cpp:434] conv3_3 <- conv3_2
I0120 04:11:36.711333 27487 net.cpp:408] conv3_3 -> conv3_3
I0120 04:11:36.716562 27487 net.cpp:150] Setting up conv3_3
I0120 04:11:36.716579 27487 net.cpp:157] Top shape: 1 256 144 175 (6451200)
I0120 04:11:36.716583 27487 net.cpp:165] Memory required for data: 789754848
I0120 04:11:36.716591 27487 layer_factory.hpp:77] Creating layer relu3_3
I0120 04:11:36.716598 27487 net.cpp:100] Creating Layer relu3_3
I0120 04:11:36.716603 27487 net.cpp:434] relu3_3 <- conv3_3
I0120 04:11:36.716611 27487 net.cpp:395] relu3_3 -> conv3_3 (in-place)
I0120 04:11:36.716984 27487 net.cpp:150] Setting up relu3_3
I0120 04:11:36.716996 27487 net.cpp:157] Top shape: 1 256 144 175 (6451200)
I0120 04:11:36.717001 27487 net.cpp:165] Memory required for data: 815559648
I0120 04:11:36.717005 27487 layer_factory.hpp:77] Creating layer pool3
I0120 04:11:36.717015 27487 net.cpp:100] Creating Layer pool3
I0120 04:11:36.717018 27487 net.cpp:434] pool3 <- conv3_3
I0120 04:11:36.717027 27487 net.cpp:408] pool3 -> pool3
I0120 04:11:36.717074 27487 net.cpp:150] Setting up pool3
I0120 04:11:36.717083 27487 net.cpp:157] Top shape: 1 256 72 88 (1622016)
I0120 04:11:36.717087 27487 net.cpp:165] Memory required for data: 822047712
I0120 04:11:36.717092 27487 layer_factory.hpp:77] Creating layer pool3_pool3_0_split
I0120 04:11:36.717098 27487 net.cpp:100] Creating Layer pool3_pool3_0_split
I0120 04:11:36.717103 27487 net.cpp:434] pool3_pool3_0_split <- pool3
I0120 04:11:36.717108 27487 net.cpp:408] pool3_pool3_0_split -> pool3_pool3_0_split_0
I0120 04:11:36.717114 27487 net.cpp:408] pool3_pool3_0_split -> pool3_pool3_0_split_1
I0120 04:11:36.717160 27487 net.cpp:150] Setting up pool3_pool3_0_split
I0120 04:11:36.717167 27487 net.cpp:157] Top shape: 1 256 72 88 (1622016)
I0120 04:11:36.717172 27487 net.cpp:157] Top shape: 1 256 72 88 (1622016)
I0120 04:11:36.717176 27487 net.cpp:165] Memory required for data: 835023840
I0120 04:11:36.717180 27487 layer_factory.hpp:77] Creating layer conv4_1
I0120 04:11:36.717190 27487 net.cpp:100] Creating Layer conv4_1
I0120 04:11:36.717195 27487 net.cpp:434] conv4_1 <- pool3_pool3_0_split_0
I0120 04:11:36.717203 27487 net.cpp:408] conv4_1 -> conv4_1
I0120 04:11:36.727527 27487 net.cpp:150] Setting up conv4_1
I0120 04:11:36.727553 27487 net.cpp:157] Top shape: 1 512 72 88 (3244032)
I0120 04:11:36.727558 27487 net.cpp:165] Memory required for data: 847999968
I0120 04:11:36.727566 27487 layer_factory.hpp:77] Creating layer relu4_1
I0120 04:11:36.727576 27487 net.cpp:100] Creating Layer relu4_1
I0120 04:11:36.727581 27487 net.cpp:434] relu4_1 <- conv4_1
I0120 04:11:36.727587 27487 net.cpp:395] relu4_1 -> conv4_1 (in-place)
I0120 04:11:36.727962 27487 net.cpp:150] Setting up relu4_1
I0120 04:11:36.727977 27487 net.cpp:157] Top shape: 1 512 72 88 (3244032)
I0120 04:11:36.727982 27487 net.cpp:165] Memory required for data: 860976096
I0120 04:11:36.727985 27487 layer_factory.hpp:77] Creating layer conv4_2
I0120 04:11:36.727999 27487 net.cpp:100] Creating Layer conv4_2
I0120 04:11:36.728004 27487 net.cpp:434] conv4_2 <- conv4_1
I0120 04:11:36.728011 27487 net.cpp:408] conv4_2 -> conv4_2
I0120 04:11:36.745793 27487 net.cpp:150] Setting up conv4_2
I0120 04:11:36.745834 27487 net.cpp:157] Top shape: 1 512 72 88 (3244032)
I0120 04:11:36.745839 27487 net.cpp:165] Memory required for data: 873952224
I0120 04:11:36.745857 27487 layer_factory.hpp:77] Creating layer relu4_2
I0120 04:11:36.745869 27487 net.cpp:100] Creating Layer relu4_2
I0120 04:11:36.745875 27487 net.cpp:434] relu4_2 <- conv4_2
I0120 04:11:36.745888 27487 net.cpp:395] relu4_2 -> conv4_2 (in-place)
I0120 04:11:36.746083 27487 net.cpp:150] Setting up relu4_2
I0120 04:11:36.746093 27487 net.cpp:157] Top shape: 1 512 72 88 (3244032)
I0120 04:11:36.746098 27487 net.cpp:165] Memory required for data: 886928352
I0120 04:11:36.746103 27487 layer_factory.hpp:77] Creating layer conv4_3
I0120 04:11:36.746115 27487 net.cpp:100] Creating Layer conv4_3
I0120 04:11:36.746120 27487 net.cpp:434] conv4_3 <- conv4_2
I0120 04:11:36.746129 27487 net.cpp:408] conv4_3 -> conv4_3
I0120 04:11:36.763994 27487 net.cpp:150] Setting up conv4_3
I0120 04:11:36.764035 27487 net.cpp:157] Top shape: 1 512 72 88 (3244032)
I0120 04:11:36.764040 27487 net.cpp:165] Memory required for data: 899904480
I0120 04:11:36.764051 27487 layer_factory.hpp:77] Creating layer relu4_3
I0120 04:11:36.764063 27487 net.cpp:100] Creating Layer relu4_3
I0120 04:11:36.764070 27487 net.cpp:434] relu4_3 <- conv4_3
I0120 04:11:36.764078 27487 net.cpp:395] relu4_3 -> conv4_3 (in-place)
I0120 04:11:36.764463 27487 net.cpp:150] Setting up relu4_3
I0120 04:11:36.764477 27487 net.cpp:157] Top shape: 1 512 72 88 (3244032)
I0120 04:11:36.764482 27487 net.cpp:165] Memory required for data: 912880608
I0120 04:11:36.764487 27487 layer_factory.hpp:77] Creating layer pool4
I0120 04:11:36.764497 27487 net.cpp:100] Creating Layer pool4
I0120 04:11:36.764502 27487 net.cpp:434] pool4 <- conv4_3
I0120 04:11:36.764508 27487 net.cpp:408] pool4 -> pool4
I0120 04:11:36.764560 27487 net.cpp:150] Setting up pool4
I0120 04:11:36.764567 27487 net.cpp:157] Top shape: 1 512 36 44 (811008)
I0120 04:11:36.764571 27487 net.cpp:165] Memory required for data: 916124640
I0120 04:11:36.764575 27487 layer_factory.hpp:77] Creating layer pool4_pool4_0_split
I0120 04:11:36.764582 27487 net.cpp:100] Creating Layer pool4_pool4_0_split
I0120 04:11:36.764586 27487 net.cpp:434] pool4_pool4_0_split <- pool4
I0120 04:11:36.764593 27487 net.cpp:408] pool4_pool4_0_split -> pool4_pool4_0_split_0
I0120 04:11:36.764600 27487 net.cpp:408] pool4_pool4_0_split -> pool4_pool4_0_split_1
I0120 04:11:36.764639 27487 net.cpp:150] Setting up pool4_pool4_0_split
I0120 04:11:36.764655 27487 net.cpp:157] Top shape: 1 512 36 44 (811008)
I0120 04:11:36.764660 27487 net.cpp:157] Top shape: 1 512 36 44 (811008)
I0120 04:11:36.764664 27487 net.cpp:165] Memory required for data: 922612704
I0120 04:11:36.764668 27487 layer_factory.hpp:77] Creating layer conv5_1
I0120 04:11:36.764683 27487 net.cpp:100] Creating Layer conv5_1
I0120 04:11:36.764686 27487 net.cpp:434] conv5_1 <- pool4_pool4_0_split_0
I0120 04:11:36.764693 27487 net.cpp:408] conv5_1 -> conv5_1
I0120 04:11:36.781934 27487 net.cpp:150] Setting up conv5_1
I0120 04:11:36.781973 27487 net.cpp:157] Top shape: 1 512 36 44 (811008)
I0120 04:11:36.781978 27487 net.cpp:165] Memory required for data: 925856736
I0120 04:11:36.781990 27487 layer_factory.hpp:77] Creating layer relu5_1
I0120 04:11:36.782001 27487 net.cpp:100] Creating Layer relu5_1
I0120 04:11:36.782008 27487 net.cpp:434] relu5_1 <- conv5_1
I0120 04:11:36.782018 27487 net.cpp:395] relu5_1 -> conv5_1 (in-place)
I0120 04:11:36.782397 27487 net.cpp:150] Setting up relu5_1
I0120 04:11:36.782411 27487 net.cpp:157] Top shape: 1 512 36 44 (811008)
I0120 04:11:36.782415 27487 net.cpp:165] Memory required for data: 929100768
I0120 04:11:36.782419 27487 layer_factory.hpp:77] Creating layer conv5_2
I0120 04:11:36.782434 27487 net.cpp:100] Creating Layer conv5_2
I0120 04:11:36.782439 27487 net.cpp:434] conv5_2 <- conv5_1
I0120 04:11:36.782449 27487 net.cpp:408] conv5_2 -> conv5_2
I0120 04:11:36.800317 27487 net.cpp:150] Setting up conv5_2
I0120 04:11:36.800354 27487 net.cpp:157] Top shape: 1 512 36 44 (811008)
I0120 04:11:36.800359 27487 net.cpp:165] Memory required for data: 932344800
I0120 04:11:36.800370 27487 layer_factory.hpp:77] Creating layer relu5_2
I0120 04:11:36.800384 27487 net.cpp:100] Creating Layer relu5_2
I0120 04:11:36.800390 27487 net.cpp:434] relu5_2 <- conv5_2
I0120 04:11:36.800400 27487 net.cpp:395] relu5_2 -> conv5_2 (in-place)
I0120 04:11:36.800593 27487 net.cpp:150] Setting up relu5_2
I0120 04:11:36.800604 27487 net.cpp:157] Top shape: 1 512 36 44 (811008)
I0120 04:11:36.800608 27487 net.cpp:165] Memory required for data: 935588832
I0120 04:11:36.800612 27487 layer_factory.hpp:77] Creating layer conv5_3
I0120 04:11:36.800633 27487 net.cpp:100] Creating Layer conv5_3
I0120 04:11:36.800638 27487 net.cpp:434] conv5_3 <- conv5_2
I0120 04:11:36.800645 27487 net.cpp:408] conv5_3 -> conv5_3
I0120 04:11:36.818161 27487 net.cpp:150] Setting up conv5_3
I0120 04:11:36.818200 27487 net.cpp:157] Top shape: 1 512 36 44 (811008)
I0120 04:11:36.818205 27487 net.cpp:165] Memory required for data: 938832864
I0120 04:11:36.818217 27487 layer_factory.hpp:77] Creating layer relu5_3
I0120 04:11:36.818228 27487 net.cpp:100] Creating Layer relu5_3
I0120 04:11:36.818234 27487 net.cpp:434] relu5_3 <- conv5_3
I0120 04:11:36.818244 27487 net.cpp:395] relu5_3 -> conv5_3 (in-place)
I0120 04:11:36.818809 27487 net.cpp:150] Setting up relu5_3
I0120 04:11:36.818822 27487 net.cpp:157] Top shape: 1 512 36 44 (811008)
I0120 04:11:36.818826 27487 net.cpp:165] Memory required for data: 942076896
I0120 04:11:36.818831 27487 layer_factory.hpp:77] Creating layer pool5
I0120 04:11:36.818840 27487 net.cpp:100] Creating Layer pool5
I0120 04:11:36.818845 27487 net.cpp:434] pool5 <- conv5_3
I0120 04:11:36.818855 27487 net.cpp:408] pool5 -> pool5
I0120 04:11:36.818905 27487 net.cpp:150] Setting up pool5
I0120 04:11:36.818912 27487 net.cpp:157] Top shape: 1 512 18 22 (202752)
I0120 04:11:36.818917 27487 net.cpp:165] Memory required for data: 942887904
I0120 04:11:36.818920 27487 layer_factory.hpp:77] Creating layer fc6
I0120 04:11:36.818935 27487 net.cpp:100] Creating Layer fc6
I0120 04:11:36.818939 27487 net.cpp:434] fc6 <- pool5
I0120 04:11:36.818946 27487 net.cpp:408] fc6 -> fc6
I0120 04:11:37.529773 27487 net.cpp:150] Setting up fc6
I0120 04:11:37.529813 27487 net.cpp:157] Top shape: 1 4096 12 16 (786432)
I0120 04:11:37.529817 27487 net.cpp:165] Memory required for data: 946033632
I0120 04:11:37.529829 27487 layer_factory.hpp:77] Creating layer relu6
I0120 04:11:37.529852 27487 net.cpp:100] Creating Layer relu6
I0120 04:11:37.529860 27487 net.cpp:434] relu6 <- fc6
I0120 04:11:37.529867 27487 net.cpp:395] relu6 -> fc6 (in-place)
I0120 04:11:37.530251 27487 net.cpp:150] Setting up relu6
I0120 04:11:37.530264 27487 net.cpp:157] Top shape: 1 4096 12 16 (786432)
I0120 04:11:37.530268 27487 net.cpp:165] Memory required for data: 949179360
I0120 04:11:37.530272 27487 layer_factory.hpp:77] Creating layer drop6
I0120 04:11:37.530288 27487 net.cpp:100] Creating Layer drop6
I0120 04:11:37.530292 27487 net.cpp:434] drop6 <- fc6
I0120 04:11:37.530298 27487 net.cpp:395] drop6 -> fc6 (in-place)
I0120 04:11:37.530339 27487 net.cpp:150] Setting up drop6
I0120 04:11:37.530346 27487 net.cpp:157] Top shape: 1 4096 12 16 (786432)
I0120 04:11:37.530349 27487 net.cpp:165] Memory required for data: 952325088
I0120 04:11:37.530354 27487 layer_factory.hpp:77] Creating layer fc7
I0120 04:11:37.530366 27487 net.cpp:100] Creating Layer fc7
I0120 04:11:37.530370 27487 net.cpp:434] fc7 <- fc6
I0120 04:11:37.530376 27487 net.cpp:408] fc7 -> fc7
I0120 04:11:37.646950 27487 net.cpp:150] Setting up fc7
I0120 04:11:37.646997 27487 net.cpp:157] Top shape: 1 4096 12 16 (786432)
I0120 04:11:37.647117 27487 net.cpp:165] Memory required for data: 955470816
I0120 04:11:37.647138 27487 layer_factory.hpp:77] Creating layer relu7
I0120 04:11:37.647156 27487 net.cpp:100] Creating Layer relu7
I0120 04:11:37.647162 27487 net.cpp:434] relu7 <- fc7
I0120 04:11:37.647178 27487 net.cpp:395] relu7 -> fc7 (in-place)
I0120 04:11:37.647393 27487 net.cpp:150] Setting up relu7
I0120 04:11:37.647405 27487 net.cpp:157] Top shape: 1 4096 12 16 (786432)
I0120 04:11:37.647409 27487 net.cpp:165] Memory required for data: 958616544
I0120 04:11:37.647413 27487 layer_factory.hpp:77] Creating layer drop7
I0120 04:11:37.647423 27487 net.cpp:100] Creating Layer drop7
I0120 04:11:37.647426 27487 net.cpp:434] drop7 <- fc7
I0120 04:11:37.647438 27487 net.cpp:395] drop7 -> fc7 (in-place)
I0120 04:11:37.647472 27487 net.cpp:150] Setting up drop7
I0120 04:11:37.647480 27487 net.cpp:157] Top shape: 1 4096 12 16 (786432)
I0120 04:11:37.647483 27487 net.cpp:165] Memory required for data: 961762272
I0120 04:11:37.647487 27487 layer_factory.hpp:77] Creating layer score_fr
I0120 04:11:37.647501 27487 net.cpp:100] Creating Layer score_fr
I0120 04:11:37.647505 27487 net.cpp:434] score_fr <- fc7
I0120 04:11:37.647512 27487 net.cpp:408] score_fr -> score_fr
I0120 04:11:37.648895 27487 net.cpp:150] Setting up score_fr
I0120 04:11:37.648911 27487 net.cpp:157] Top shape: 1 6 12 16 (1152)
I0120 04:11:37.648916 27487 net.cpp:165] Memory required for data: 961766880
I0120 04:11:37.648924 27487 layer_factory.hpp:77] Creating layer upscore2
I0120 04:11:37.648937 27487 net.cpp:100] Creating Layer upscore2
I0120 04:11:37.648942 27487 net.cpp:434] upscore2 <- score_fr
I0120 04:11:37.648952 27487 net.cpp:408] upscore2 -> upscore2
I0120 04:11:37.649165 27487 net.cpp:150] Setting up upscore2
I0120 04:11:37.649174 27487 net.cpp:157] Top shape: 1 6 26 34 (5304)
I0120 04:11:37.649178 27487 net.cpp:165] Memory required for data: 961788096
I0120 04:11:37.649194 27487 layer_factory.hpp:77] Creating layer upscore2_upscore2_0_split
I0120 04:11:37.649200 27487 net.cpp:100] Creating Layer upscore2_upscore2_0_split
I0120 04:11:37.649204 27487 net.cpp:434] upscore2_upscore2_0_split <- upscore2
I0120 04:11:37.649211 27487 net.cpp:408] upscore2_upscore2_0_split -> upscore2_upscore2_0_split_0
I0120 04:11:37.649219 27487 net.cpp:408] upscore2_upscore2_0_split -> upscore2_upscore2_0_split_1
I0120 04:11:37.649260 27487 net.cpp:150] Setting up upscore2_upscore2_0_split
I0120 04:11:37.649266 27487 net.cpp:157] Top shape: 1 6 26 34 (5304)
I0120 04:11:37.649271 27487 net.cpp:157] Top shape: 1 6 26 34 (5304)
I0120 04:11:37.649276 27487 net.cpp:165] Memory required for data: 961830528
I0120 04:11:37.649279 27487 layer_factory.hpp:77] Creating layer scale_pool4
I0120 04:11:37.649292 27487 net.cpp:100] Creating Layer scale_pool4
I0120 04:11:37.649297 27487 net.cpp:434] scale_pool4 <- pool4_pool4_0_split_1
I0120 04:11:37.649312 27487 net.cpp:408] scale_pool4 -> scale_pool4
I0120 04:11:37.649423 27487 net.cpp:150] Setting up scale_pool4
I0120 04:11:37.649432 27487 net.cpp:157] Top shape: 1 512 36 44 (811008)
I0120 04:11:37.649436 27487 net.cpp:165] Memory required for data: 965074560
I0120 04:11:37.649441 27487 layer_factory.hpp:77] Creating layer score_pool4
I0120 04:11:37.649454 27487 net.cpp:100] Creating Layer score_pool4
I0120 04:11:37.649459 27487 net.cpp:434] score_pool4 <- scale_pool4
I0120 04:11:37.649466 27487 net.cpp:408] score_pool4 -> score_pool4
I0120 04:11:37.650759 27487 net.cpp:150] Setting up score_pool4
I0120 04:11:37.650775 27487 net.cpp:157] Top shape: 1 6 36 44 (9504)
I0120 04:11:37.650780 27487 net.cpp:165] Memory required for data: 965112576
I0120 04:11:37.650787 27487 layer_factory.hpp:77] Creating layer score_pool4c
I0120 04:11:37.650799 27487 net.cpp:100] Creating Layer score_pool4c
I0120 04:11:37.650804 27487 net.cpp:434] score_pool4c <- score_pool4
I0120 04:11:37.650812 27487 net.cpp:434] score_pool4c <- upscore2_upscore2_0_split_0
I0120 04:11:37.650820 27487 net.cpp:408] score_pool4c -> score_pool4c
I0120 04:11:37.650854 27487 net.cpp:150] Setting up score_pool4c
I0120 04:11:37.650862 27487 net.cpp:157] Top shape: 1 6 26 34 (5304)
I0120 04:11:37.650866 27487 net.cpp:165] Memory required for data: 965133792
I0120 04:11:37.650869 27487 layer_factory.hpp:77] Creating layer fuse_pool4
I0120 04:11:37.650883 27487 net.cpp:100] Creating Layer fuse_pool4
I0120 04:11:37.650888 27487 net.cpp:434] fuse_pool4 <- upscore2_upscore2_0_split_1
I0120 04:11:37.650893 27487 net.cpp:434] fuse_pool4 <- score_pool4c
I0120 04:11:37.650900 27487 net.cpp:408] fuse_pool4 -> fuse_pool4
I0120 04:11:37.650931 27487 net.cpp:150] Setting up fuse_pool4
I0120 04:11:37.650938 27487 net.cpp:157] Top shape: 1 6 26 34 (5304)
I0120 04:11:37.650941 27487 net.cpp:165] Memory required for data: 965155008
I0120 04:11:37.650945 27487 layer_factory.hpp:77] Creating layer upscore_pool4
I0120 04:11:37.650955 27487 net.cpp:100] Creating Layer upscore_pool4
I0120 04:11:37.650959 27487 net.cpp:434] upscore_pool4 <- fuse_pool4
I0120 04:11:37.650970 27487 net.cpp:408] upscore_pool4 -> upscore_pool4
I0120 04:11:37.651171 27487 net.cpp:150] Setting up upscore_pool4
I0120 04:11:37.651180 27487 net.cpp:157] Top shape: 1 6 54 70 (22680)
I0120 04:11:37.651183 27487 net.cpp:165] Memory required for data: 965245728
I0120 04:11:37.651190 27487 layer_factory.hpp:77] Creating layer upscore_pool4_upscore_pool4_0_split
I0120 04:11:37.651196 27487 net.cpp:100] Creating Layer upscore_pool4_upscore_pool4_0_split
I0120 04:11:37.651199 27487 net.cpp:434] upscore_pool4_upscore_pool4_0_split <- upscore_pool4
I0120 04:11:37.651206 27487 net.cpp:408] upscore_pool4_upscore_pool4_0_split -> upscore_pool4_upscore_pool4_0_split_0
I0120 04:11:37.651212 27487 net.cpp:408] upscore_pool4_upscore_pool4_0_split -> upscore_pool4_upscore_pool4_0_split_1
I0120 04:11:37.651250 27487 net.cpp:150] Setting up upscore_pool4_upscore_pool4_0_split
I0120 04:11:37.651257 27487 net.cpp:157] Top shape: 1 6 54 70 (22680)
I0120 04:11:37.651262 27487 net.cpp:157] Top shape: 1 6 54 70 (22680)
I0120 04:11:37.651267 27487 net.cpp:165] Memory required for data: 965427168
I0120 04:11:37.651270 27487 layer_factory.hpp:77] Creating layer scale_pool3
I0120 04:11:37.651278 27487 net.cpp:100] Creating Layer scale_pool3
I0120 04:11:37.651281 27487 net.cpp:434] scale_pool3 <- pool3_pool3_0_split_1
I0120 04:11:37.651288 27487 net.cpp:408] scale_pool3 -> scale_pool3
I0120 04:11:37.651393 27487 net.cpp:150] Setting up scale_pool3
I0120 04:11:37.651401 27487 net.cpp:157] Top shape: 1 256 72 88 (1622016)
I0120 04:11:37.651406 27487 net.cpp:165] Memory required for data: 971915232
I0120 04:11:37.651410 27487 layer_factory.hpp:77] Creating layer score_pool3
I0120 04:11:37.651422 27487 net.cpp:100] Creating Layer score_pool3
I0120 04:11:37.651425 27487 net.cpp:434] score_pool3 <- scale_pool3
I0120 04:11:37.651434 27487 net.cpp:408] score_pool3 -> score_pool3
I0120 04:11:37.652668 27487 net.cpp:150] Setting up score_pool3
I0120 04:11:37.652688 27487 net.cpp:157] Top shape: 1 6 72 88 (38016)
I0120 04:11:37.652693 27487 net.cpp:165] Memory required for data: 972067296
I0120 04:11:37.652700 27487 layer_factory.hpp:77] Creating layer score_pool3c
I0120 04:11:37.652710 27487 net.cpp:100] Creating Layer score_pool3c
I0120 04:11:37.652715 27487 net.cpp:434] score_pool3c <- score_pool3
I0120 04:11:37.652721 27487 net.cpp:434] score_pool3c <- upscore_pool4_upscore_pool4_0_split_0
I0120 04:11:37.652727 27487 net.cpp:408] score_pool3c -> score_pool3c
I0120 04:11:37.652761 27487 net.cpp:150] Setting up score_pool3c
I0120 04:11:37.652770 27487 net.cpp:157] Top shape: 1 6 54 70 (22680)
I0120 04:11:37.652773 27487 net.cpp:165] Memory required for data: 972158016
I0120 04:11:37.652777 27487 layer_factory.hpp:77] Creating layer fuse_pool3
I0120 04:11:37.652783 27487 net.cpp:100] Creating Layer fuse_pool3
I0120 04:11:37.652787 27487 net.cpp:434] fuse_pool3 <- upscore_pool4_upscore_pool4_0_split_1
I0120 04:11:37.652794 27487 net.cpp:434] fuse_pool3 <- score_pool3c
I0120 04:11:37.652801 27487 net.cpp:408] fuse_pool3 -> fuse_pool3
I0120 04:11:37.652828 27487 net.cpp:150] Setting up fuse_pool3
I0120 04:11:37.652835 27487 net.cpp:157] Top shape: 1 6 54 70 (22680)
I0120 04:11:37.652838 27487 net.cpp:165] Memory required for data: 972248736
I0120 04:11:37.652842 27487 layer_factory.hpp:77] Creating layer upscore8
I0120 04:11:37.652851 27487 net.cpp:100] Creating Layer upscore8
I0120 04:11:37.652855 27487 net.cpp:434] upscore8 <- fuse_pool3
I0120 04:11:37.652863 27487 net.cpp:408] upscore8 -> upscore8
I0120 04:11:37.653121 27487 net.cpp:150] Setting up upscore8
I0120 04:11:37.653131 27487 net.cpp:157] Top shape: 1 6 440 568 (1499520)
I0120 04:11:37.653133 27487 net.cpp:165] Memory required for data: 978246816
I0120 04:11:37.653139 27487 layer_factory.hpp:77] Creating layer score
I0120 04:11:37.653146 27487 net.cpp:100] Creating Layer score
I0120 04:11:37.653151 27487 net.cpp:434] score <- upscore8
I0120 04:11:37.653156 27487 net.cpp:434] score <- data_data_0_split_1
I0120 04:11:37.653161 27487 net.cpp:408] score -> score
I0120 04:11:37.653187 27487 net.cpp:150] Setting up score
I0120 04:11:37.653192 27487 net.cpp:157] Top shape: 1 6 375 500 (1125000)
I0120 04:11:37.653197 27487 net.cpp:165] Memory required for data: 982746816
I0120 04:11:37.653200 27487 layer_factory.hpp:77] Creating layer loss
I0120 04:11:37.653213 27487 net.cpp:100] Creating Layer loss
I0120 04:11:37.653216 27487 net.cpp:434] loss <- score
I0120 04:11:37.653221 27487 net.cpp:434] loss <- label
I0120 04:11:37.653229 27487 net.cpp:408] loss -> loss
I0120 04:11:37.653241 27487 layer_factory.hpp:77] Creating layer loss
…
I0120 04:11:37.656363 27487 net.cpp:283] Network initialization done.
I0120 04:11:37.657480 27487 solver.cpp:181] Creating test net (#0) specified by test_net file: val.prototxt
I0120 04:11:37.657855 27487 net.cpp:58] Initializing net from parameters: 
state {
  phase: TEST
}
layer {
  name: "data"
  type: "Python"
  top: "data"
  top: "label"
  python_param {
    module: "voc_layers"
    layer: "PartialVOCSegDataLayer"
    param_str: "{\'voc_dir\': \'../data/pascal-obfuscated/VOC2011\', \'seed\': 1337, \'split\': \'seg11valid5\', \'mean\': (104.00699, 116.66877, 122.67892)}"
  }
}
layer {
  name: "conv1_1"
  type: "Convolution"
  bottom: "data"
  top: "conv1_1"
  param {
    lr_mult: 1
    decay_mult: 1
  }
  param {
    lr_mult: 2
    decay_mult: 0
  }
  convolution_param {
    num_output: 64
    pad: 100
    kernel_size: 3
    stride: 1
    weight_filler {
      type: "xavier"
    }
  }
}
layer {
  name: "relu1_1"
  type: "ReLU"
  bottom: "conv1_1"
  top: "conv1_1"
}
layer {
  name: "conv1_2"
  type: "Convolution"
  bottom: "conv1_1"
  top: "conv1_2"
  param {
    lr_mult: 1
    decay_mult: 1
  }
  param {
    lr_mult: 2
    decay_mult: 0
  }
  convolution_param {
    num_output: 64
    pad: 1
    kernel_size: 3
    stride: 1
    weight_filler {
      type: "xavier"
    }
  }
}
layer {
  name: "relu1_2"
  type: "ReLU"
  bottom: "conv1_2"
  top: "conv1_2"
}
layer {
  name: "pool1"
  type: "Pooling"
  bottom: "conv1_2"
  top: "pool1"
  pooling_param {
    pool: MAX
    kernel_size: 2
    stride: 2
  }
}
layer {
  name: "conv2_1"
  type: "Convolution"
  bottom: "pool1"
  top: "conv2_1"
  param {
    lr_mult: 1
    decay_mult: 1
  }
  param {
    lr_mult: 2
    decay_mult: 0
  }
  convolution_param {
    num_output: 128
    pad: 1
    kernel_size: 3
    stride: 1
    weight_filler {
      type: "xavier"
    }
  }
}
layer {
  name: "relu2_1"
  type: "ReLU"
  bottom: "conv2_1"
  top: "conv2_1"
}
layer {
  name: "conv2_2"
  type: "Convolution"
  bottom: "conv2_1"
  top: "conv2_2"
  param {
    lr_mult: 1
    decay_mult: 1
  }
  param {
    lr_mult: 2
    decay_mult: 0
  }
  convolution_param {
    num_output: 128
    pad: 1
    kernel_size: 3
    stride: 1
    weight_filler {
      type: "xavier"
    }
  }
}
layer {
  name: "relu2_2"
  type: "ReLU"
  bottom: "conv2_2"
  top: "conv2_2"
}
layer {
  name: "pool2"
  type: "Pooling"
  bottom: "conv2_2"
  top: "pool2"
  pooling_param {
    pool: MAX
    kernel_size: 2
    stride: 2
  }
}
layer {
  name: "conv3_1"
  type: "Convolution"
  bottom: "pool2"
  top: "conv3_1"
  param {
    lr_mult: 1
    decay_mult: 1
  }
  param {
    lr_mult: 2
    decay_mult: 0
  }
  convolution_param {
    num_output: 256
    pad: 1
    kernel_size: 3
    stride: 1
    weight_filler {
      type: "xavier"
    }
  }
}
layer {
  name: "relu3_1"
  type: "ReLU"
  bottom: "conv3_1"
  top: "conv3_1"
}
layer {
  name: "conv3_2"
  type: "Convolution"
  bottom: "conv3_1"
  top: "conv3_2"
  param {
    lr_mult: 1
    decay_mult: 1
  }
  param {
    lr_mult: 2
    decay_mult: 0
  }
  convolution_param {
    num_output: 256
    pad: 1
    kernel_size: 3
    stride: 1
    weight_filler {
      type: "xavier"
    }
  }
}
layer {
  name: "relu3_2"
  type: "ReLU"
  bottom: "conv3_2"
  top: "conv3_2"
}
layer {
  name: "conv3_3"
  type: "Convolution"
  bottom: "conv3_2"
  top: "conv3_3"
  param {
    lr_mult: 1
    decay_mult: 1
  }
  param {
    lr_mult: 2
    decay_mult: 0
  }
  convolution_param {
    num_output: 256
    pad: 1
    kernel_size: 3
    stride: 1
    weight_filler {
      type: "xavier"
    }
  }
}
layer {
  name: "relu3_3"
  type: "ReLU"
  bottom: "conv3_3"
  top: "conv3_3"
}
layer {
  name: "pool3"
  type: "Pooling"
  bottom: "conv3_3"
  top: "pool3"
  pooling_param {
    pool: MAX
    kernel_size: 2
    stride: 2
  }
}
layer {
  name: "conv4_1"
  type: "Convolution"
  bottom: "pool3"
  top: "conv4_1"
  param {
    lr_mult: 1
    decay_mult: 1
  }
  param {
    lr_mult: 2
    decay_mult: 0
  }
  convolution_param {
    num_output: 512
    pad: 1
    kernel_size: 3
    stride: 1
    weight_filler {
      type: "xavier"
    }
  }
}
layer {
  name: "relu4_1"
  type: "ReLU"
  bottom: "conv4_1"
  top: "conv4_1"
}
layer {
  name: "conv4_2"
  type: "Convolution"
  bottom: "conv4_1"
  top: "conv4_2"
  param {
    lr_mult: 1
    decay_mult: 1
  }
  param {
    lr_mult: 2
    decay_mult: 0
  }
  convolution_param {
    num_output: 512
    pad: 1
    kernel_size: 3
    stride: 1
    weight_filler {
      type: "xavier"
    }
  }
}
layer {
  name: "relu4_2"
  type: "ReLU"
  bottom: "conv4_2"
  top: "conv4_2"
}
layer {
  name: "conv4_3"
  type: "Convolution"
  bottom: "conv4_2"
  top: "conv4_3"
  param {
    lr_mult: 1
    decay_mult: 1
  }
  param {
    lr_mult: 2
    decay_mult: 0
  }
  convolution_param {
    num_output: 512
    pad: 1
    kernel_size: 3
    stride: 1
    weight_filler {
      type: "xavier"
    }
  }
}
layer {
  name: "relu4_3"
  type: "ReLU"
  bottom: "conv4_3"
  top: "conv4_3"
}
layer {
  name: "pool4"
  type: "Pooling"
  bottom: "conv4_3"
  top: "pool4"
  pooling_param {
    pool: MAX
    kernel_size: 2
    stride: 2
  }
}
layer {
  name: "conv5_1"
  type: "Convolution"
  bottom: "pool4"
  top: "conv5_1"
  param {
    lr_mult: 1
    decay_mult: 1
  }
  param {
    lr_mult: 2
    decay_mult: 0
  }
  convolution_param {
    num_output: 512
    pad: 1
    kernel_size: 3
    stride: 1
    weight_filler {
      type: "xavier"
    }
  }
}
layer {
  name: "relu5_1"
  type: "ReLU"
  bottom: "conv5_1"
  top: "conv5_1"
}
layer {
  name: "conv5_2"
  type: "Convolution"
  bottom: "conv5_1"
  top: "conv5_2"
  param {
    lr_mult: 1
    decay_mult: 1
  }
  param {
    lr_mult: 2
    decay_mult: 0
  }
  convolution_param {
    num_output: 512
    pad: 1
    kernel_size: 3
    stride: 1
    weight_filler {
      type: "xavier"
    }
  }
}
layer {
  name: "relu5_2"
  type: "ReLU"
  bottom: "conv5_2"
  top: "conv5_2"
}
layer {
  name: "conv5_3"
  type: "Convolution"
  bottom: "conv5_2"
  top: "conv5_3"
  param {
    lr_mult: 1
    decay_mult: 1
  }
  param {
    lr_mult: 2
    decay_mult: 0
  }
  convolution_param {
    num_output: 512
    pad: 1
    kernel_size: 3
    stride: 1
    weight_filler {
      type: "xavier"
    }
  }
}
layer {
  name: "relu5_3"
  type: "ReLU"
  bottom: "conv5_3"
  top: "conv5_3"
}
layer {
  name: "pool5"
  type: "Pooling"
  bottom: "conv5_3"
  top: "pool5"
  pooling_param {
    pool: MAX
    kernel_size: 2
    stride: 2
  }
}
layer {
  name: "fc6"
  type: "Convolution"
  bottom: "pool5"
  top: "fc6"
  param {
    lr_mult: 1
    decay_mult: 1
  }
  param {
    lr_mult: 2
    decay_mult: 0
  }
  convolution_param {
    num_output: 4096
    pad: 0
    kernel_size: 7
    stride: 1
    weight_filler {
      type: "xavier"
    }
  }
}
layer {
  name: "relu6"
  type: "ReLU"
  bottom: "fc6"
  top: "fc6"
}
layer {
  name: "drop6"
  type: "Dropout"
  bottom: "fc6"
  top: "fc6"
  dropout_param {
    dropout_ratio: 0.5
  }
}
layer {
  name: "fc7"
  type: "Convolution"
  bottom: "fc6"
  top: "fc7"
  param {
    lr_mult: 1
    decay_mult: 1
  }
  param {
    lr_mult: 2
    decay_mult: 0
  }
  convolution_param {
    num_output: 4096
    pad: 0
    kernel_size: 1
    stride: 1
    weight_filler {
      type: "xavier"
    }
  }
}
layer {
  name: "relu7"
  type: "ReLU"
  bottom: "fc7"
  top: "fc7"
}
layer {
  name: "drop7"
  type: "Dropout"
  bottom: "fc7"
  top: "fc7"
  dropout_param {
    dropout_ratio: 0.5
  }
}
layer {
  name: "score_fr"
  type: "Convolution"
  bottom: "fc7"
  top: "score_fr"
  param {
    lr_mult: 1
    decay_mult: 1
  }
  param {
    lr_mult: 2
    decay_mult: 0
  }
  convolution_param {
    num_output: 6
    pad: 0
    kernel_size: 1
    weight_filler {
      type: "xavier"
    }
  }
}
layer {
  name: "upscore2"
  type: "Deconvolution"
  bottom: "score_fr"
  top: "upscore2"
  param {
    lr_mult: 0
  }
  convolution_param {
    num_output: 6
    bias_term: false
    kernel_size: 4
    stride: 2
    weight_filler {
      type: "xavier"
    }
  }
}
layer {
  name: "scale_pool4"
  type: "Scale"
  bottom: "pool4"
  top: "scale_pool4"
  param {
    lr_mult: 0
  }
  scale_param {
    filler {
      type: "constant"
      value: 0.01
    }
  }
}
layer {
  name: "score_pool4"
  type: "Convolution"
  bottom: "scale_pool4"
  top: "score_pool4"
  param {
    lr_mult: 1
    decay_mult: 1
  }
  param {
    lr_mult: 2
    decay_mult: 0
  }
  convolution_param {
    num_output: 6
    pad: 0
    kernel_size: 1
    weight_filler {
      type: "xavier"
    }
  }
}
layer {
  name: "score_pool4c"
  type: "Crop"
  bottom: "score_pool4"
  bottom: "upscore2"
  top: "score_pool4c"
  crop_param {
    axis: 2
    offset: 5
  }
}
layer {
  name: "fuse_pool4"
  type: "Eltwise"
  bottom: "upscore2"
  bottom: "score_pool4c"
  top: "fuse_pool4"
  eltwise_param {
    operation: SUM
  }
}
layer {
  name: "upscore_pool4"
  type: "Deconvolution"
  bottom: "fuse_pool4"
  top: "upscore_pool4"
  param {
    lr_mult: 0
  }
  convolution_param {
    num_output: 6
    bias_term: false
    kernel_size: 4
    stride: 2
    weight_filler {
      type: "xavier"
    }
  }
}
layer {
  name: "scale_pool3"
  type: "Scale"
  bottom: "pool3"
  top: "scale_pool3"
  param {
    lr_mult: 0
  }
  scale_param {
    filler {
      type: "constant"
      value: 0.0001
    }
  }
}
layer {
  name: "score_pool3"
  type: "Convolution"
  bottom: "scale_pool3"
  top: "score_pool3"
  param {
    lr_mult: 1
    decay_mult: 1
  }
  param {
    lr_mult: 2
    decay_mult: 0
  }
  convolution_param {
    num_output: 6
    pad: 0
    kernel_size: 1
    weight_filler {
      type: "xavier"
    }
  }
}
layer {
  name: "score_pool3c"
  type: "Crop"
  bottom: "score_pool3"
  bottom: "upscore_pool4"
  top: "score_pool3c"
  crop_param {
    axis: 2
    offset: 9
  }
}
layer {
  name: "fuse_pool3"
  type: "Eltwise"
  bottom: "upscore_pool4"
  bottom: "score_pool3c"
  top: "fuse_pool3"
  eltwise_param {
    operation: SUM
  }
}
layer {
  name: "upscore8"
  type: "Deconvolution"
  bottom: "fuse_pool3"
  top: "upscore8"
  param {
    lr_mult: 0
  }
  convolution_param {
    num_output: 6
    bias_term: false
    kernel_size: 16
    stride: 8
    weight_filler {
      type: "xavier"
    }
  }
}
layer {
  name: "score"
  type: "Crop"
  bottom: "upscore8"
  bottom: "data"
  top: "score"
  crop_param {
    axis: 2
    offset: 31
  }
}
layer {
  name: "loss"
  type: "SoftmaxWithLoss"
  bottom: "score"
  bottom: "label"
  top: "loss"
  loss_param {
    ignore_label: 255
    normalize: false
  }
}
I0120 04:11:37.658083 27487 layer_factory.hpp:77] Creating layer data
I0120 04:11:37.658160 27487 net.cpp:100] Creating Layer data
I0120 04:11:37.658169 27487 net.cpp:408] data -> data
I0120 04:11:37.658176 27487 net.cpp:408] data -> label
I0120 04:11:37.675182 27487 net.cpp:150] Setting up data
I0120 04:11:37.675207 27487 net.cpp:157] Top shape: 1 3 335 500 (502500)
I0120 04:11:37.675215 27487 net.cpp:157] Top shape: 1 1 335 500 (167500)
I0120 04:11:37.675218 27487 net.cpp:165] Memory required for data: 2680000
I0120 04:11:37.675225 27487 layer_factory.hpp:77] Creating layer data_data_0_split
I0120 04:11:37.675235 27487 net.cpp:100] Creating Layer data_data_0_split
I0120 04:11:37.675240 27487 net.cpp:434] data_data_0_split <- data
I0120 04:11:37.675247 27487 net.cpp:408] data_data_0_split -> data_data_0_split_0
I0120 04:11:37.675256 27487 net.cpp:408] data_data_0_split -> data_data_0_split_1
I0120 04:11:37.675299 27487 net.cpp:150] Setting up data_data_0_split
I0120 04:11:37.675307 27487 net.cpp:157] Top shape: 1 3 335 500 (502500)
I0120 04:11:37.675312 27487 net.cpp:157] Top shape: 1 3 335 500 (502500)
I0120 04:11:37.675315 27487 net.cpp:165] Memory required for data: 6700000
I0120 04:11:37.675319 27487 layer_factory.hpp:77] Creating layer conv1_1
I0120 04:11:37.675331 27487 net.cpp:100] Creating Layer conv1_1
I0120 04:11:37.675335 27487 net.cpp:434] conv1_1 <- data_data_0_split_0
I0120 04:11:37.675341 27487 net.cpp:408] conv1_1 -> conv1_1
I0120 04:11:37.677570 27487 net.cpp:150] Setting up conv1_1
I0120 04:11:37.677588 27487 net.cpp:157] Top shape: 1 64 533 698 (23810176)
I0120 04:11:37.677593 27487 net.cpp:165] Memory required for data: 101940704
I0120 04:11:37.677608 27487 layer_factory.hpp:77] Creating layer relu1_1
I0120 04:11:37.677615 27487 net.cpp:100] Creating Layer relu1_1
I0120 04:11:37.677619 27487 net.cpp:434] relu1_1 <- conv1_1
I0120 04:11:37.677625 27487 net.cpp:395] relu1_1 -> conv1_1 (in-place)
I0120 04:11:37.677825 27487 net.cpp:150] Setting up relu1_1
I0120 04:11:37.677839 27487 net.cpp:157] Top shape: 1 64 533 698 (23810176)
I0120 04:11:37.677842 27487 net.cpp:165] Memory required for data: 197181408
I0120 04:11:37.677847 27487 layer_factory.hpp:77] Creating layer conv1_2
I0120 04:11:37.677860 27487 net.cpp:100] Creating Layer conv1_2
I0120 04:11:37.677865 27487 net.cpp:434] conv1_2 <- conv1_1
I0120 04:11:37.677871 27487 net.cpp:408] conv1_2 -> conv1_2
I0120 04:11:37.680166 27487 net.cpp:150] Setting up conv1_2
I0120 04:11:37.680183 27487 net.cpp:157] Top shape: 1 64 533 698 (23810176)
I0120 04:11:37.680188 27487 net.cpp:165] Memory required for data: 292422112
I0120 04:11:37.680199 27487 layer_factory.hpp:77] Creating layer relu1_2
I0120 04:11:37.680207 27487 net.cpp:100] Creating Layer relu1_2
I0120 04:11:37.680212 27487 net.cpp:434] relu1_2 <- conv1_2
I0120 04:11:37.680218 27487 net.cpp:395] relu1_2 -> conv1_2 (in-place)
I0120 04:11:37.680600 27487 net.cpp:150] Setting up relu1_2
I0120 04:11:37.680614 27487 net.cpp:157] Top shape: 1 64 533 698 (23810176)
I0120 04:11:37.680619 27487 net.cpp:165] Memory required for data: 387662816
I0120 04:11:37.680624 27487 layer_factory.hpp:77] Creating layer pool1
I0120 04:11:37.680634 27487 net.cpp:100] Creating Layer pool1
I0120 04:11:37.680637 27487 net.cpp:434] pool1 <- conv1_2
I0120 04:11:37.680644 27487 net.cpp:408] pool1 -> pool1
I0120 04:11:37.680698 27487 net.cpp:150] Setting up pool1
I0120 04:11:37.680706 27487 net.cpp:157] Top shape: 1 64 267 349 (5963712)
I0120 04:11:37.680711 27487 net.cpp:165] Memory required for data: 411517664
I0120 04:11:37.680714 27487 layer_factory.hpp:77] Creating layer conv2_1
I0120 04:11:37.680724 27487 net.cpp:100] Creating Layer conv2_1
I0120 04:11:37.680729 27487 net.cpp:434] conv2_1 <- pool1
I0120 04:11:37.680737 27487 net.cpp:408] conv2_1 -> conv2_1
I0120 04:11:37.682976 27487 net.cpp:150] Setting up conv2_1
I0120 04:11:37.682993 27487 net.cpp:157] Top shape: 1 128 267 349 (11927424)
I0120 04:11:37.682998 27487 net.cpp:165] Memory required for data: 459227360
I0120 04:11:37.683009 27487 layer_factory.hpp:77] Creating layer relu2_1
I0120 04:11:37.683018 27487 net.cpp:100] Creating Layer relu2_1
I0120 04:11:37.683023 27487 net.cpp:434] relu2_1 <- conv2_1
I0120 04:11:37.683030 27487 net.cpp:395] relu2_1 -> conv2_1 (in-place)
I0120 04:11:37.683426 27487 net.cpp:150] Setting up relu2_1
I0120 04:11:37.683440 27487 net.cpp:157] Top shape: 1 128 267 349 (11927424)
I0120 04:11:37.683444 27487 net.cpp:165] Memory required for data: 506937056
I0120 04:11:37.683449 27487 layer_factory.hpp:77] Creating layer conv2_2
I0120 04:11:37.683460 27487 net.cpp:100] Creating Layer conv2_2
I0120 04:11:37.683465 27487 net.cpp:434] conv2_2 <- conv2_1
I0120 04:11:37.683473 27487 net.cpp:408] conv2_2 -> conv2_2
I0120 04:11:37.686053 27487 net.cpp:150] Setting up conv2_2
I0120 04:11:37.686071 27487 net.cpp:157] Top shape: 1 128 267 349 (11927424)
I0120 04:11:37.686076 27487 net.cpp:165] Memory required for data: 554646752
I0120 04:11:37.686084 27487 layer_factory.hpp:77] Creating layer relu2_2
I0120 04:11:37.686092 27487 net.cpp:100] Creating Layer relu2_2
I0120 04:11:37.686097 27487 net.cpp:434] relu2_2 <- conv2_2
I0120 04:11:37.686103 27487 net.cpp:395] relu2_2 -> conv2_2 (in-place)
I0120 04:11:37.686297 27487 net.cpp:150] Setting up relu2_2
I0120 04:11:37.686307 27487 net.cpp:157] Top shape: 1 128 267 349 (11927424)
I0120 04:11:37.686311 27487 net.cpp:165] Memory required for data: 602356448
I0120 04:11:37.686316 27487 layer_factory.hpp:77] Creating layer pool2
I0120 04:11:37.686324 27487 net.cpp:100] Creating Layer pool2
I0120 04:11:37.686329 27487 net.cpp:434] pool2 <- conv2_2
I0120 04:11:37.686336 27487 net.cpp:408] pool2 -> pool2
I0120 04:11:37.686386 27487 net.cpp:150] Setting up pool2
I0120 04:11:37.686394 27487 net.cpp:157] Top shape: 1 128 134 175 (3001600)
I0120 04:11:37.686398 27487 net.cpp:165] Memory required for data: 614362848
I0120 04:11:37.686403 27487 layer_factory.hpp:77] Creating layer conv3_1
I0120 04:11:37.686414 27487 net.cpp:100] Creating Layer conv3_1
I0120 04:11:37.686417 27487 net.cpp:434] conv3_1 <- pool2
I0120 04:11:37.686425 27487 net.cpp:408] conv3_1 -> conv3_1
I0120 04:11:37.689761 27487 net.cpp:150] Setting up conv3_1
I0120 04:11:37.689779 27487 net.cpp:157] Top shape: 1 256 134 175 (6003200)
I0120 04:11:37.689784 27487 net.cpp:165] Memory required for data: 638375648
I0120 04:11:37.689795 27487 layer_factory.hpp:77] Creating layer relu3_1
I0120 04:11:37.689811 27487 net.cpp:100] Creating Layer relu3_1
I0120 04:11:37.689816 27487 net.cpp:434] relu3_1 <- conv3_1
I0120 04:11:37.689823 27487 net.cpp:395] relu3_1 -> conv3_1 (in-place)
I0120 04:11:37.690201 27487 net.cpp:150] Setting up relu3_1
I0120 04:11:37.690214 27487 net.cpp:157] Top shape: 1 256 134 175 (6003200)
I0120 04:11:37.690219 27487 net.cpp:165] Memory required for data: 662388448
I0120 04:11:37.690223 27487 layer_factory.hpp:77] Creating layer conv3_2
I0120 04:11:37.690235 27487 net.cpp:100] Creating Layer conv3_2
I0120 04:11:37.690240 27487 net.cpp:434] conv3_2 <- conv3_1
I0120 04:11:37.690248 27487 net.cpp:408] conv3_2 -> conv3_2
I0120 04:11:37.695510 27487 net.cpp:150] Setting up conv3_2
I0120 04:11:37.695528 27487 net.cpp:157] Top shape: 1 256 134 175 (6003200)
I0120 04:11:37.695533 27487 net.cpp:165] Memory required for data: 686401248
I0120 04:11:37.695540 27487 layer_factory.hpp:77] Creating layer relu3_2
I0120 04:11:37.695549 27487 net.cpp:100] Creating Layer relu3_2
I0120 04:11:37.695554 27487 net.cpp:434] relu3_2 <- conv3_2
I0120 04:11:37.695560 27487 net.cpp:395] relu3_2 -> conv3_2 (in-place)
I0120 04:11:37.695751 27487 net.cpp:150] Setting up relu3_2
I0120 04:11:37.695761 27487 net.cpp:157] Top shape: 1 256 134 175 (6003200)
I0120 04:11:37.695765 27487 net.cpp:165] Memory required for data: 710414048
I0120 04:11:37.695770 27487 layer_factory.hpp:77] Creating layer conv3_3
I0120 04:11:37.695783 27487 net.cpp:100] Creating Layer conv3_3
I0120 04:11:37.695788 27487 net.cpp:434] conv3_3 <- conv3_2
I0120 04:11:37.695796 27487 net.cpp:408] conv3_3 -> conv3_3
I0120 04:11:37.701040 27487 net.cpp:150] Setting up conv3_3
I0120 04:11:37.701058 27487 net.cpp:157] Top shape: 1 256 134 175 (6003200)
I0120 04:11:37.701063 27487 net.cpp:165] Memory required for data: 734426848
I0120 04:11:37.701071 27487 layer_factory.hpp:77] Creating layer relu3_3
I0120 04:11:37.701079 27487 net.cpp:100] Creating Layer relu3_3
I0120 04:11:37.701084 27487 net.cpp:434] relu3_3 <- conv3_3
I0120 04:11:37.701091 27487 net.cpp:395] relu3_3 -> conv3_3 (in-place)
I0120 04:11:37.701279 27487 net.cpp:150] Setting up relu3_3
I0120 04:11:37.701289 27487 net.cpp:157] Top shape: 1 256 134 175 (6003200)
I0120 04:11:37.701293 27487 net.cpp:165] Memory required for data: 758439648
I0120 04:11:37.701298 27487 layer_factory.hpp:77] Creating layer pool3
I0120 04:11:37.701306 27487 net.cpp:100] Creating Layer pool3
I0120 04:11:37.701311 27487 net.cpp:434] pool3 <- conv3_3
I0120 04:11:37.701318 27487 net.cpp:408] pool3 -> pool3
I0120 04:11:37.701370 27487 net.cpp:150] Setting up pool3
I0120 04:11:37.701378 27487 net.cpp:157] Top shape: 1 256 67 88 (1509376)
I0120 04:11:37.701382 27487 net.cpp:165] Memory required for data: 764477152
I0120 04:11:37.701386 27487 layer_factory.hpp:77] Creating layer pool3_pool3_0_split
I0120 04:11:37.701393 27487 net.cpp:100] Creating Layer pool3_pool3_0_split
I0120 04:11:37.701397 27487 net.cpp:434] pool3_pool3_0_split <- pool3
I0120 04:11:37.701405 27487 net.cpp:408] pool3_pool3_0_split -> pool3_pool3_0_split_0
I0120 04:11:37.701411 27487 net.cpp:408] pool3_pool3_0_split -> pool3_pool3_0_split_1
I0120 04:11:37.701452 27487 net.cpp:150] Setting up pool3_pool3_0_split
I0120 04:11:37.701458 27487 net.cpp:157] Top shape: 1 256 67 88 (1509376)
I0120 04:11:37.701464 27487 net.cpp:157] Top shape: 1 256 67 88 (1509376)
I0120 04:11:37.701467 27487 net.cpp:165] Memory required for data: 776552160
I0120 04:11:37.701472 27487 layer_factory.hpp:77] Creating layer conv4_1
I0120 04:11:37.701483 27487 net.cpp:100] Creating Layer conv4_1
I0120 04:11:37.701488 27487 net.cpp:434] conv4_1 <- pool3_pool3_0_split_0
I0120 04:11:37.701493 27487 net.cpp:408] conv4_1 -> conv4_1
I0120 04:11:37.710644 27487 net.cpp:150] Setting up conv4_1
I0120 04:11:37.710671 27487 net.cpp:157] Top shape: 1 512 67 88 (3018752)
I0120 04:11:37.710676 27487 net.cpp:165] Memory required for data: 788627168
I0120 04:11:37.710685 27487 layer_factory.hpp:77] Creating layer relu4_1
I0120 04:11:37.710695 27487 net.cpp:100] Creating Layer relu4_1
I0120 04:11:37.710700 27487 net.cpp:434] relu4_1 <- conv4_1
I0120 04:11:37.710716 27487 net.cpp:395] relu4_1 -> conv4_1 (in-place)
I0120 04:11:37.711100 27487 net.cpp:150] Setting up relu4_1
I0120 04:11:37.711113 27487 net.cpp:157] Top shape: 1 512 67 88 (3018752)
I0120 04:11:37.711117 27487 net.cpp:165] Memory required for data: 800702176
I0120 04:11:37.711122 27487 layer_factory.hpp:77] Creating layer conv4_2
I0120 04:11:37.711133 27487 net.cpp:100] Creating Layer conv4_2
I0120 04:11:37.711138 27487 net.cpp:434] conv4_2 <- conv4_1
I0120 04:11:37.711148 27487 net.cpp:408] conv4_2 -> conv4_2
I0120 04:11:37.728741 27487 net.cpp:150] Setting up conv4_2
I0120 04:11:37.728803 27487 net.cpp:157] Top shape: 1 512 67 88 (3018752)
I0120 04:11:37.728809 27487 net.cpp:165] Memory required for data: 812777184
I0120 04:11:37.728834 27487 layer_factory.hpp:77] Creating layer relu4_2
I0120 04:11:37.728858 27487 net.cpp:100] Creating Layer relu4_2
I0120 04:11:37.728864 27487 net.cpp:434] relu4_2 <- conv4_2
I0120 04:11:37.728875 27487 net.cpp:395] relu4_2 -> conv4_2 (in-place)
I0120 04:11:37.729082 27487 net.cpp:150] Setting up relu4_2
I0120 04:11:37.729094 27487 net.cpp:157] Top shape: 1 512 67 88 (3018752)
I0120 04:11:37.729097 27487 net.cpp:165] Memory required for data: 824852192
I0120 04:11:37.729101 27487 layer_factory.hpp:77] Creating layer conv4_3
I0120 04:11:37.729115 27487 net.cpp:100] Creating Layer conv4_3
I0120 04:11:37.729120 27487 net.cpp:434] conv4_3 <- conv4_2
I0120 04:11:37.729128 27487 net.cpp:408] conv4_3 -> conv4_3
I0120 04:11:37.747361 27487 net.cpp:150] Setting up conv4_3
I0120 04:11:37.747400 27487 net.cpp:157] Top shape: 1 512 67 88 (3018752)
I0120 04:11:37.747404 27487 net.cpp:165] Memory required for data: 836927200
I0120 04:11:37.747416 27487 layer_factory.hpp:77] Creating layer relu4_3
I0120 04:11:37.747428 27487 net.cpp:100] Creating Layer relu4_3
I0120 04:11:37.747434 27487 net.cpp:434] relu4_3 <- conv4_3
I0120 04:11:37.747443 27487 net.cpp:395] relu4_3 -> conv4_3 (in-place)
I0120 04:11:37.747653 27487 net.cpp:150] Setting up relu4_3
I0120 04:11:37.747663 27487 net.cpp:157] Top shape: 1 512 67 88 (3018752)
I0120 04:11:37.747666 27487 net.cpp:165] Memory required for data: 849002208
I0120 04:11:37.747671 27487 layer_factory.hpp:77] Creating layer pool4
I0120 04:11:37.747680 27487 net.cpp:100] Creating Layer pool4
I0120 04:11:37.747684 27487 net.cpp:434] pool4 <- conv4_3
I0120 04:11:37.747691 27487 net.cpp:408] pool4 -> pool4
I0120 04:11:37.747747 27487 net.cpp:150] Setting up pool4
I0120 04:11:37.747755 27487 net.cpp:157] Top shape: 1 512 34 44 (765952)
I0120 04:11:37.747758 27487 net.cpp:165] Memory required for data: 852066016
I0120 04:11:37.747762 27487 layer_factory.hpp:77] Creating layer pool4_pool4_0_split
I0120 04:11:37.747769 27487 net.cpp:100] Creating Layer pool4_pool4_0_split
I0120 04:11:37.747773 27487 net.cpp:434] pool4_pool4_0_split <- pool4
I0120 04:11:37.747781 27487 net.cpp:408] pool4_pool4_0_split -> pool4_pool4_0_split_0
I0120 04:11:37.747786 27487 net.cpp:408] pool4_pool4_0_split -> pool4_pool4_0_split_1
I0120 04:11:37.747828 27487 net.cpp:150] Setting up pool4_pool4_0_split
I0120 04:11:37.747835 27487 net.cpp:157] Top shape: 1 512 34 44 (765952)
I0120 04:11:37.747840 27487 net.cpp:157] Top shape: 1 512 34 44 (765952)
I0120 04:11:37.747844 27487 net.cpp:165] Memory required for data: 858193632
I0120 04:11:37.747848 27487 layer_factory.hpp:77] Creating layer conv5_1
I0120 04:11:37.747860 27487 net.cpp:100] Creating Layer conv5_1
I0120 04:11:37.747864 27487 net.cpp:434] conv5_1 <- pool4_pool4_0_split_0
I0120 04:11:37.747872 27487 net.cpp:408] conv5_1 -> conv5_1
I0120 04:11:37.765522 27487 net.cpp:150] Setting up conv5_1
I0120 04:11:37.765561 27487 net.cpp:157] Top shape: 1 512 34 44 (765952)
I0120 04:11:37.765566 27487 net.cpp:165] Memory required for data: 861257440
I0120 04:11:37.765578 27487 layer_factory.hpp:77] Creating layer relu5_1
I0120 04:11:37.765593 27487 net.cpp:100] Creating Layer relu5_1
I0120 04:11:37.765599 27487 net.cpp:434] relu5_1 <- conv5_1
I0120 04:11:37.765609 27487 net.cpp:395] relu5_1 -> conv5_1 (in-place)
I0120 04:11:37.766012 27487 net.cpp:150] Setting up relu5_1
I0120 04:11:37.766027 27487 net.cpp:157] Top shape: 1 512 34 44 (765952)
I0120 04:11:37.766031 27487 net.cpp:165] Memory required for data: 864321248
I0120 04:11:37.766036 27487 layer_factory.hpp:77] Creating layer conv5_2
I0120 04:11:37.766049 27487 net.cpp:100] Creating Layer conv5_2
I0120 04:11:37.766054 27487 net.cpp:434] conv5_2 <- conv5_1
I0120 04:11:37.766062 27487 net.cpp:408] conv5_2 -> conv5_2
I0120 04:11:37.783565 27487 net.cpp:150] Setting up conv5_2
I0120 04:11:37.783602 27487 net.cpp:157] Top shape: 1 512 34 44 (765952)
I0120 04:11:37.783607 27487 net.cpp:165] Memory required for data: 867385056
I0120 04:11:37.783618 27487 layer_factory.hpp:77] Creating layer relu5_2
I0120 04:11:37.783632 27487 net.cpp:100] Creating Layer relu5_2
I0120 04:11:37.783638 27487 net.cpp:434] relu5_2 <- conv5_2
I0120 04:11:37.783646 27487 net.cpp:395] relu5_2 -> conv5_2 (in-place)
I0120 04:11:37.783845 27487 net.cpp:150] Setting up relu5_2
I0120 04:11:37.783855 27487 net.cpp:157] Top shape: 1 512 34 44 (765952)
I0120 04:11:37.783859 27487 net.cpp:165] Memory required for data: 870448864
I0120 04:11:37.783864 27487 layer_factory.hpp:77] Creating layer conv5_3
I0120 04:11:37.783881 27487 net.cpp:100] Creating Layer conv5_3
I0120 04:11:37.783886 27487 net.cpp:434] conv5_3 <- conv5_2
I0120 04:11:37.783895 27487 net.cpp:408] conv5_3 -> conv5_3
I0120 04:11:37.801203 27487 net.cpp:150] Setting up conv5_3
I0120 04:11:37.801241 27487 net.cpp:157] Top shape: 1 512 34 44 (765952)
I0120 04:11:37.801246 27487 net.cpp:165] Memory required for data: 873512672
I0120 04:11:37.801257 27487 layer_factory.hpp:77] Creating layer relu5_3
I0120 04:11:37.801271 27487 net.cpp:100] Creating Layer relu5_3
I0120 04:11:37.801278 27487 net.cpp:434] relu5_3 <- conv5_3
I0120 04:11:37.801287 27487 net.cpp:395] relu5_3 -> conv5_3 (in-place)
I0120 04:11:37.801482 27487 net.cpp:150] Setting up relu5_3
I0120 04:11:37.801491 27487 net.cpp:157] Top shape: 1 512 34 44 (765952)
I0120 04:11:37.801496 27487 net.cpp:165] Memory required for data: 876576480
I0120 04:11:37.801501 27487 layer_factory.hpp:77] Creating layer pool5
I0120 04:11:37.801509 27487 net.cpp:100] Creating Layer pool5
I0120 04:11:37.801514 27487 net.cpp:434] pool5 <- conv5_3
I0120 04:11:37.801522 27487 net.cpp:408] pool5 -> pool5
I0120 04:11:37.801578 27487 net.cpp:150] Setting up pool5
I0120 04:11:37.801584 27487 net.cpp:157] Top shape: 1 512 17 22 (191488)
I0120 04:11:37.801589 27487 net.cpp:165] Memory required for data: 877342432
I0120 04:11:37.801592 27487 layer_factory.hpp:77] Creating layer fc6
I0120 04:11:37.801605 27487 net.cpp:100] Creating Layer fc6
I0120 04:11:37.801610 27487 net.cpp:434] fc6 <- pool5
I0120 04:11:37.801618 27487 net.cpp:408] fc6 -> fc6
I0120 04:11:38.515880 27487 net.cpp:150] Setting up fc6
I0120 04:11:38.515928 27487 net.cpp:157] Top shape: 1 4096 11 16 (720896)
I0120 04:11:38.515933 27487 net.cpp:165] Memory required for data: 880226016
I0120 04:11:38.515949 27487 layer_factory.hpp:77] Creating layer relu6
I0120 04:11:38.515969 27487 net.cpp:100] Creating Layer relu6
I0120 04:11:38.515976 27487 net.cpp:434] relu6 <- fc6
I0120 04:11:38.515985 27487 net.cpp:395] relu6 -> fc6 (in-place)
I0120 04:11:38.516396 27487 net.cpp:150] Setting up relu6
I0120 04:11:38.516410 27487 net.cpp:157] Top shape: 1 4096 11 16 (720896)
I0120 04:11:38.516415 27487 net.cpp:165] Memory required for data: 883109600
I0120 04:11:38.516419 27487 layer_factory.hpp:77] Creating layer drop6
I0120 04:11:38.516432 27487 net.cpp:100] Creating Layer drop6
I0120 04:11:38.516435 27487 net.cpp:434] drop6 <- fc6
I0120 04:11:38.516443 27487 net.cpp:395] drop6 -> fc6 (in-place)
I0120 04:11:38.516500 27487 net.cpp:150] Setting up drop6
I0120 04:11:38.516507 27487 net.cpp:157] Top shape: 1 4096 11 16 (720896)
I0120 04:11:38.516511 27487 net.cpp:165] Memory required for data: 885993184
I0120 04:11:38.516515 27487 layer_factory.hpp:77] Creating layer fc7
I0120 04:11:38.516531 27487 net.cpp:100] Creating Layer fc7
I0120 04:11:38.516536 27487 net.cpp:434] fc7 <- fc6
I0120 04:11:38.516556 27487 net.cpp:408] fc7 -> fc7
I0120 04:11:38.632853 27487 net.cpp:150] Setting up fc7
I0120 04:11:38.632892 27487 net.cpp:157] Top shape: 1 4096 11 16 (720896)
I0120 04:11:38.632897 27487 net.cpp:165] Memory required for data: 888876768
I0120 04:11:38.632908 27487 layer_factory.hpp:77] Creating layer relu7
I0120 04:11:38.632925 27487 net.cpp:100] Creating Layer relu7
I0120 04:11:38.632930 27487 net.cpp:434] relu7 <- fc7
I0120 04:11:38.632939 27487 net.cpp:395] relu7 -> fc7 (in-place)
I0120 04:11:38.633149 27487 net.cpp:150] Setting up relu7
I0120 04:11:38.633159 27487 net.cpp:157] Top shape: 1 4096 11 16 (720896)
I0120 04:11:38.633163 27487 net.cpp:165] Memory required for data: 891760352
I0120 04:11:38.633167 27487 layer_factory.hpp:77] Creating layer drop7
I0120 04:11:38.633177 27487 net.cpp:100] Creating Layer drop7
I0120 04:11:38.633183 27487 net.cpp:434] drop7 <- fc7
I0120 04:11:38.633189 27487 net.cpp:395] drop7 -> fc7 (in-place)
I0120 04:11:38.633229 27487 net.cpp:150] Setting up drop7
I0120 04:11:38.633236 27487 net.cpp:157] Top shape: 1 4096 11 16 (720896)
I0120 04:11:38.633240 27487 net.cpp:165] Memory required for data: 894643936
I0120 04:11:38.633244 27487 layer_factory.hpp:77] Creating layer score_fr
I0120 04:11:38.633257 27487 net.cpp:100] Creating Layer score_fr
I0120 04:11:38.633261 27487 net.cpp:434] score_fr <- fc7
I0120 04:11:38.633272 27487 net.cpp:408] score_fr -> score_fr
I0120 04:11:38.635571 27487 net.cpp:150] Setting up score_fr
I0120 04:11:38.635588 27487 net.cpp:157] Top shape: 1 6 11 16 (1056)
I0120 04:11:38.635592 27487 net.cpp:165] Memory required for data: 894648160
I0120 04:11:38.635601 27487 layer_factory.hpp:77] Creating layer upscore2
I0120 04:11:38.635613 27487 net.cpp:100] Creating Layer upscore2
I0120 04:11:38.635618 27487 net.cpp:434] upscore2 <- score_fr
I0120 04:11:38.635627 27487 net.cpp:408] upscore2 -> upscore2
I0120 04:11:38.635895 27487 net.cpp:150] Setting up upscore2
I0120 04:11:38.635905 27487 net.cpp:157] Top shape: 1 6 24 34 (4896)
I0120 04:11:38.635908 27487 net.cpp:165] Memory required for data: 894667744
I0120 04:11:38.635928 27487 layer_factory.hpp:77] Creating layer upscore2_upscore2_0_split
I0120 04:11:38.635936 27487 net.cpp:100] Creating Layer upscore2_upscore2_0_split
I0120 04:11:38.635941 27487 net.cpp:434] upscore2_upscore2_0_split <- upscore2
I0120 04:11:38.635948 27487 net.cpp:408] upscore2_upscore2_0_split -> upscore2_upscore2_0_split_0
I0120 04:11:38.635956 27487 net.cpp:408] upscore2_upscore2_0_split -> upscore2_upscore2_0_split_1
I0120 04:11:38.636003 27487 net.cpp:150] Setting up upscore2_upscore2_0_split
I0120 04:11:38.636009 27487 net.cpp:157] Top shape: 1 6 24 34 (4896)
I0120 04:11:38.636015 27487 net.cpp:157] Top shape: 1 6 24 34 (4896)
I0120 04:11:38.636019 27487 net.cpp:165] Memory required for data: 894706912
I0120 04:11:38.636023 27487 layer_factory.hpp:77] Creating layer scale_pool4
I0120 04:11:38.636034 27487 net.cpp:100] Creating Layer scale_pool4
I0120 04:11:38.636039 27487 net.cpp:434] scale_pool4 <- pool4_pool4_0_split_1
I0120 04:11:38.636047 27487 net.cpp:408] scale_pool4 -> scale_pool4
I0120 04:11:38.636184 27487 net.cpp:150] Setting up scale_pool4
I0120 04:11:38.636193 27487 net.cpp:157] Top shape: 1 512 34 44 (765952)
I0120 04:11:38.636198 27487 net.cpp:165] Memory required for data: 897770720
I0120 04:11:38.636204 27487 layer_factory.hpp:77] Creating layer score_pool4
I0120 04:11:38.636214 27487 net.cpp:100] Creating Layer score_pool4
I0120 04:11:38.636219 27487 net.cpp:434] score_pool4 <- scale_pool4
I0120 04:11:38.636225 27487 net.cpp:408] score_pool4 -> score_pool4
I0120 04:11:38.637600 27487 net.cpp:150] Setting up score_pool4
I0120 04:11:38.637616 27487 net.cpp:157] Top shape: 1 6 34 44 (8976)
I0120 04:11:38.637620 27487 net.cpp:165] Memory required for data: 897806624
I0120 04:11:38.637629 27487 layer_factory.hpp:77] Creating layer score_pool4c
I0120 04:11:38.637648 27487 net.cpp:100] Creating Layer score_pool4c
I0120 04:11:38.637655 27487 net.cpp:434] score_pool4c <- score_pool4
I0120 04:11:38.637671 27487 net.cpp:434] score_pool4c <- upscore2_upscore2_0_split_0
I0120 04:11:38.637678 27487 net.cpp:408] score_pool4c -> score_pool4c
I0120 04:11:38.637720 27487 net.cpp:150] Setting up score_pool4c
I0120 04:11:38.637728 27487 net.cpp:157] Top shape: 1 6 24 34 (4896)
I0120 04:11:38.637732 27487 net.cpp:165] Memory required for data: 897826208
I0120 04:11:38.637735 27487 layer_factory.hpp:77] Creating layer fuse_pool4
I0120 04:11:38.637745 27487 net.cpp:100] Creating Layer fuse_pool4
I0120 04:11:38.637749 27487 net.cpp:434] fuse_pool4 <- upscore2_upscore2_0_split_1
I0120 04:11:38.637754 27487 net.cpp:434] fuse_pool4 <- score_pool4c
I0120 04:11:38.637760 27487 net.cpp:408] fuse_pool4 -> fuse_pool4
I0120 04:11:38.637794 27487 net.cpp:150] Setting up fuse_pool4
I0120 04:11:38.637801 27487 net.cpp:157] Top shape: 1 6 24 34 (4896)
I0120 04:11:38.637805 27487 net.cpp:165] Memory required for data: 897845792
I0120 04:11:38.637809 27487 layer_factory.hpp:77] Creating layer upscore_pool4
I0120 04:11:38.637819 27487 net.cpp:100] Creating Layer upscore_pool4
I0120 04:11:38.637822 27487 net.cpp:434] upscore_pool4 <- fuse_pool4
I0120 04:11:38.637830 27487 net.cpp:408] upscore_pool4 -> upscore_pool4
I0120 04:11:38.638077 27487 net.cpp:150] Setting up upscore_pool4
I0120 04:11:38.638085 27487 net.cpp:157] Top shape: 1 6 50 70 (21000)
I0120 04:11:38.638089 27487 net.cpp:165] Memory required for data: 897929792
I0120 04:11:38.638094 27487 layer_factory.hpp:77] Creating layer upscore_pool4_upscore_pool4_0_split
I0120 04:11:38.638103 27487 net.cpp:100] Creating Layer upscore_pool4_upscore_pool4_0_split
I0120 04:11:38.638106 27487 net.cpp:434] upscore_pool4_upscore_pool4_0_split <- upscore_pool4
I0120 04:11:38.638113 27487 net.cpp:408] upscore_pool4_upscore_pool4_0_split -> upscore_pool4_upscore_pool4_0_split_0
I0120 04:11:38.638120 27487 net.cpp:408] upscore_pool4_upscore_pool4_0_split -> upscore_pool4_upscore_pool4_0_split_1
I0120 04:11:38.638165 27487 net.cpp:150] Setting up upscore_pool4_upscore_pool4_0_split
I0120 04:11:38.638172 27487 net.cpp:157] Top shape: 1 6 50 70 (21000)
I0120 04:11:38.638177 27487 net.cpp:157] Top shape: 1 6 50 70 (21000)
I0120 04:11:38.638180 27487 net.cpp:165] Memory required for data: 898097792
I0120 04:11:38.638185 27487 layer_factory.hpp:77] Creating layer scale_pool3
I0120 04:11:38.638193 27487 net.cpp:100] Creating Layer scale_pool3
I0120 04:11:38.638197 27487 net.cpp:434] scale_pool3 <- pool3_pool3_0_split_1
I0120 04:11:38.638206 27487 net.cpp:408] scale_pool3 -> scale_pool3
I0120 04:11:38.638327 27487 net.cpp:150] Setting up scale_pool3
I0120 04:11:38.638335 27487 net.cpp:157] Top shape: 1 256 67 88 (1509376)
I0120 04:11:38.638339 27487 net.cpp:165] Memory required for data: 904135296
I0120 04:11:38.638345 27487 layer_factory.hpp:77] Creating layer score_pool3
I0120 04:11:38.638355 27487 net.cpp:100] Creating Layer score_pool3
I0120 04:11:38.638360 27487 net.cpp:434] score_pool3 <- scale_pool3
I0120 04:11:38.638367 27487 net.cpp:408] score_pool3 -> score_pool3
I0120 04:11:38.639708 27487 net.cpp:150] Setting up score_pool3
I0120 04:11:38.639724 27487 net.cpp:157] Top shape: 1 6 67 88 (35376)
I0120 04:11:38.639729 27487 net.cpp:165] Memory required for data: 904276800
I0120 04:11:38.639736 27487 layer_factory.hpp:77] Creating layer score_pool3c
I0120 04:11:38.639744 27487 net.cpp:100] Creating Layer score_pool3c
I0120 04:11:38.639750 27487 net.cpp:434] score_pool3c <- score_pool3
I0120 04:11:38.639755 27487 net.cpp:434] score_pool3c <- upscore_pool4_upscore_pool4_0_split_0
I0120 04:11:38.639763 27487 net.cpp:408] score_pool3c -> score_pool3c
I0120 04:11:38.639801 27487 net.cpp:150] Setting up score_pool3c
I0120 04:11:38.639808 27487 net.cpp:157] Top shape: 1 6 50 70 (21000)
I0120 04:11:38.639812 27487 net.cpp:165] Memory required for data: 904360800
I0120 04:11:38.639816 27487 layer_factory.hpp:77] Creating layer fuse_pool3
I0120 04:11:38.639825 27487 net.cpp:100] Creating Layer fuse_pool3
I0120 04:11:38.639829 27487 net.cpp:434] fuse_pool3 <- upscore_pool4_upscore_pool4_0_split_1
I0120 04:11:38.639840 27487 net.cpp:434] fuse_pool3 <- score_pool3c
I0120 04:11:38.639847 27487 net.cpp:408] fuse_pool3 -> fuse_pool3
I0120 04:11:38.639881 27487 net.cpp:150] Setting up fuse_pool3
I0120 04:11:38.639889 27487 net.cpp:157] Top shape: 1 6 50 70 (21000)
I0120 04:11:38.639892 27487 net.cpp:165] Memory required for data: 904444800
I0120 04:11:38.639896 27487 layer_factory.hpp:77] Creating layer upscore8
I0120 04:11:38.639905 27487 net.cpp:100] Creating Layer upscore8
I0120 04:11:38.639909 27487 net.cpp:434] upscore8 <- fuse_pool3
I0120 04:11:38.639917 27487 net.cpp:408] upscore8 -> upscore8
I0120 04:11:38.640220 27487 net.cpp:150] Setting up upscore8
I0120 04:11:38.640228 27487 net.cpp:157] Top shape: 1 6 408 568 (1390464)
I0120 04:11:38.640233 27487 net.cpp:165] Memory required for data: 910006656
I0120 04:11:38.640239 27487 layer_factory.hpp:77] Creating layer score
I0120 04:11:38.640246 27487 net.cpp:100] Creating Layer score
I0120 04:11:38.640250 27487 net.cpp:434] score <- upscore8
I0120 04:11:38.640256 27487 net.cpp:434] score <- data_data_0_split_1
I0120 04:11:38.640261 27487 net.cpp:408] score -> score
I0120 04:11:38.640295 27487 net.cpp:150] Setting up score
I0120 04:11:38.640301 27487 net.cpp:157] Top shape: 1 6 335 500 (1005000)
I0120 04:11:38.640305 27487 net.cpp:165] Memory required for data: 914026656
I0120 04:11:38.640310 27487 layer_factory.hpp:77] Creating layer loss
I0120 04:11:38.640318 27487 net.cpp:100] Creating Layer loss
I0120 04:11:38.640322 27487 net.cpp:434] loss <- score
I0120 04:11:38.640327 27487 net.cpp:434] loss <- label
I0120 04:11:38.640333 27487 net.cpp:408] loss -> loss
I0120 04:11:38.640343 27487 layer_factory.hpp:77] Creating layer loss
…
