…
test_initialization: false
average_loss: 20
iter_size: 1
I0112 09:55:05.953557   406 solver.cpp:81] Creating training net from train_net file: train.prototxt
I0112 09:55:05.955168   406 net.cpp:58] Initializing net from parameters: 
state {
  phase: TRAIN
}
layer {
  name: "data"
  type: "Python"
  top: "data"
  top: "label"
  python_param {
    module: "voc_layers"
    layer: "PartialSBDDSegDataLayer"
    param_str: "{\'sbdd_dir\': \'../data/sbdd/dataset\', \'seed\': 1337, \'split\': \'train5\', \'mean\': (104.00699, 116.66877, 122.67892)}"
  }
}
layer {
  name: "conv1_1"
  type: "Convolution"
  bottom: "data"
  top: "conv1_1"
  param {
    lr_mult: 1
    decay_mult: 1
  }
  param {
    lr_mult: 2
    decay_mult: 0
  }
  convolution_param {
    num_output: 64
    pad: 100
    kernel_size: 3
    stride: 1
    weight_filler {
      type: "xavier"
    }
  }
}
layer {
  name: "relu1_1"
  type: "ReLU"
  bottom: "conv1_1"
  top: "conv1_1"
}
layer {
  name: "conv1_2"
  type: "Convolution"
  bottom: "conv1_1"
  top: "conv1_2"
  param {
    lr_mult: 1
    decay_mult: 1
  }
  param {
    lr_mult: 2
    decay_mult: 0
  }
  convolution_param {
    num_output: 64
    pad: 1
    kernel_size: 3
    stride: 1
    weight_filler {
      type: "xavier"
    }
  }
}
layer {
  name: "relu1_2"
  type: "ReLU"
  bottom: "conv1_2"
  top: "conv1_2"
}
layer {
  name: "pool1"
  type: "Pooling"
  bottom: "conv1_2"
  top: "pool1"
  pooling_param {
    pool: MAX
    kernel_size: 2
    stride: 2
  }
}
layer {
  name: "conv2_1"
  type: "Convolution"
  bottom: "pool1"
  top: "conv2_1"
  param {
    lr_mult: 1
    decay_mult: 1
  }
  param {
    lr_mult: 2
    decay_mult: 0
  }
  convolution_param {
    num_output: 128
    pad: 1
    kernel_size: 3
    stride: 1
    weight_filler {
      type: "xavier"
    }
  }
}
layer {
  name: "relu2_1"
  type: "ReLU"
  bottom: "conv2_1"
  top: "conv2_1"
}
layer {
  name: "conv2_2"
  type: "Convolution"
  bottom: "conv2_1"
  top: "conv2_2"
  param {
    lr_mult: 1
    decay_mult: 1
  }
  param {
    lr_mult: 2
    decay_mult: 0
  }
  convolution_param {
    num_output: 128
    pad: 1
    kernel_size: 3
    stride: 1
    weight_filler {
      type: "xavier"
    }
  }
}
layer {
  name: "relu2_2"
  type: "ReLU"
  bottom: "conv2_2"
  top: "conv2_2"
}
layer {
  name: "pool2"
  type: "Pooling"
  bottom: "conv2_2"
  top: "pool2"
  pooling_param {
    pool: MAX
    kernel_size: 2
    stride: 2
  }
}
layer {
  name: "conv3_1"
  type: "Convolution"
  bottom: "pool2"
  top: "conv3_1"
  param {
    lr_mult: 1
    decay_mult: 1
  }
  param {
    lr_mult: 2
    decay_mult: 0
  }
  convolution_param {
    num_output: 256
    pad: 1
    kernel_size: 3
    stride: 1
    weight_filler {
      type: "xavier"
    }
  }
}
layer {
  name: "relu3_1"
  type: "ReLU"
  bottom: "conv3_1"
  top: "conv3_1"
}
layer {
  name: "conv3_2"
  type: "Convolution"
  bottom: "conv3_1"
  top: "conv3_2"
  param {
    lr_mult: 1
    decay_mult: 1
  }
  param {
    lr_mult: 2
    decay_mult: 0
  }
  convolution_param {
    num_output: 256
    pad: 1
    kernel_size: 3
    stride: 1
    weight_filler {
      type: "xavier"
    }
  }
}
layer {
  name: "relu3_2"
  type: "ReLU"
  bottom: "conv3_2"
  top: "conv3_2"
}
layer {
  name: "conv3_3"
  type: "Convolution"
  bottom: "conv3_2"
  top: "conv3_3"
  param {
    lr_mult: 1
    decay_mult: 1
  }
  param {
    lr_mult: 2
    decay_mult: 0
  }
  convolution_param {
    num_output: 256
    pad: 1
    kernel_size: 3
    stride: 1
    weight_filler {
      type: "xavier"
    }
  }
}
layer {
  name: "relu3_3"
  type: "ReLU"
  bottom: "conv3_3"
  top: "conv3_3"
}
layer {
  name: "pool3"
  type: "Pooling"
  bottom: "conv3_3"
  top: "pool3"
  pooling_param {
    pool: MAX
    kernel_size: 2
    stride: 2
  }
}
layer {
  name: "conv4_1"
  type: "Convolution"
  bottom: "pool3"
  top: "conv4_1"
  param {
    lr_mult: 1
    decay_mult: 1
  }
  param {
    lr_mult: 2
    decay_mult: 0
  }
  convolution_param {
    num_output: 512
    pad: 1
    kernel_size: 3
    stride: 1
    weight_filler {
      type: "xavier"
    }
  }
}
layer {
  name: "relu4_1"
  type: "ReLU"
  bottom: "conv4_1"
  top: "conv4_1"
}
layer {
  name: "conv4_2"
  type: "Convolution"
  bottom: "conv4_1"
  top: "conv4_2"
  param {
    lr_mult: 1
    decay_mult: 1
  }
  param {
    lr_mult: 2
    decay_mult: 0
  }
  convolution_param {
    num_output: 512
    pad: 1
    kernel_size: 3
    stride: 1
    weight_filler {
      type: "xavier"
    }
  }
}
layer {
  name: "relu4_2"
  type: "ReLU"
  bottom: "conv4_2"
  top: "conv4_2"
}
layer {
  name: "conv4_3"
  type: "Convolution"
  bottom: "conv4_2"
  top: "conv4_3"
  param {
    lr_mult: 1
    decay_mult: 1
  }
  param {
    lr_mult: 2
    decay_mult: 0
  }
  convolution_param {
    num_output: 512
    pad: 1
    kernel_size: 3
    stride: 1
    weight_filler {
      type: "xavier"
    }
  }
}
layer {
  name: "relu4_3"
  type: "ReLU"
  bottom: "conv4_3"
  top: "conv4_3"
}
layer {
  name: "pool4"
  type: "Pooling"
  bottom: "conv4_3"
  top: "pool4"
  pooling_param {
    pool: MAX
    kernel_size: 2
    stride: 2
  }
}
layer {
  name: "conv5_1"
  type: "Convolution"
  bottom: "pool4"
  top: "conv5_1"
  param {
    lr_mult: 1
    decay_mult: 1
  }
  param {
    lr_mult: 2
    decay_mult: 0
  }
  convolution_param {
    num_output: 512
    pad: 1
    kernel_size: 3
    stride: 1
    weight_filler {
      type: "xavier"
    }
  }
}
layer {
  name: "relu5_1"
  type: "ReLU"
  bottom: "conv5_1"
  top: "conv5_1"
}
layer {
  name: "conv5_2"
  type: "Convolution"
  bottom: "conv5_1"
  top: "conv5_2"
  param {
    lr_mult: 1
    decay_mult: 1
  }
  param {
    lr_mult: 2
    decay_mult: 0
  }
  convolution_param {
    num_output: 512
    pad: 1
    kernel_size: 3
    stride: 1
    weight_filler {
      type: "xavier"
    }
  }
}
layer {
  name: "relu5_2"
  type: "ReLU"
  bottom: "conv5_2"
  top: "conv5_2"
}
layer {
  name: "conv5_3"
  type: "Convolution"
  bottom: "conv5_2"
  top: "conv5_3"
  param {
    lr_mult: 1
    decay_mult: 1
  }
  param {
    lr_mult: 2
    decay_mult: 0
  }
  convolution_param {
    num_output: 512
    pad: 1
    kernel_size: 3
    stride: 1
    weight_filler {
      type: "xavier"
    }
  }
}
layer {
  name: "relu5_3"
  type: "ReLU"
  bottom: "conv5_3"
  top: "conv5_3"
}
layer {
  name: "pool5"
  type: "Pooling"
  bottom: "conv5_3"
  top: "pool5"
  pooling_param {
    pool: MAX
    kernel_size: 2
    stride: 2
  }
}
layer {
  name: "fc6"
  type: "Convolution"
  bottom: "pool5"
  top: "fc6"
  param {
    lr_mult: 1
    decay_mult: 1
  }
  param {
    lr_mult: 2
    decay_mult: 0
  }
  convolution_param {
    num_output: 4096
    pad: 0
    kernel_size: 7
    stride: 1
    weight_filler {
      type: "xavier"
    }
  }
}
layer {
  name: "relu6"
  type: "ReLU"
  bottom: "fc6"
  top: "fc6"
}
layer {
  name: "drop6"
  type: "Dropout"
  bottom: "fc6"
  top: "fc6"
  dropout_param {
    dropout_ratio: 0.5
  }
}
layer {
  name: "fc7"
  type: "Convolution"
  bottom: "fc6"
  top: "fc7"
  param {
    lr_mult: 1
    decay_mult: 1
  }
  param {
    lr_mult: 2
    decay_mult: 0
  }
  convolution_param {
    num_output: 4096
    pad: 0
    kernel_size: 1
    stride: 1
    weight_filler {
      type: "xavier"
    }
  }
}
layer {
  name: "relu7"
  type: "ReLU"
  bottom: "fc7"
  top: "fc7"
}
layer {
  name: "drop7"
  type: "Dropout"
  bottom: "fc7"
  top: "fc7"
  dropout_param {
    dropout_ratio: 0.5
  }
}
layer {
  name: "score_fr"
  type: "Convolution"
  bottom: "fc7"
  top: "score_fr"
  param {
    lr_mult: 1
    decay_mult: 1
  }
  param {
    lr_mult: 2
    decay_mult: 0
  }
  convolution_param {
    num_output: 6
    pad: 0
    kernel_size: 1
    weight_filler {
      type: "xavier"
    }
  }
}
layer {
  name: "upscore2"
  type: "Deconvolution"
  bottom: "score_fr"
  top: "upscore2"
  param {
    lr_mult: 0
  }
  convolution_param {
    num_output: 6
    bias_term: false
    kernel_size: 4
    stride: 2
    weight_filler {
      type: "xavier"
    }
  }
}
layer {
  name: "scale_pool4"
  type: "Scale"
  bottom: "pool4"
  top: "scale_pool4"
  param {
    lr_mult: 0
  }
  scale_param {
    filler {
      type: "constant"
      value: 0.01
    }
  }
}
layer {
  name: "score_pool4"
  type: "Convolution"
  bottom: "scale_pool4"
  top: "score_pool4"
  param {
    lr_mult: 1
    decay_mult: 1
  }
  param {
    lr_mult: 2
    decay_mult: 0
  }
  convolution_param {
    num_output: 6
    pad: 0
    kernel_size: 1
    weight_filler {
      type: "xavier"
    }
  }
}
layer {
  name: "score_pool4c"
  type: "Crop"
  bottom: "score_pool4"
  bottom: "upscore2"
  top: "score_pool4c"
  crop_param {
    axis: 2
    offset: 5
  }
}
layer {
  name: "fuse_pool4"
  type: "Eltwise"
  bottom: "upscore2"
  bottom: "score_pool4c"
  top: "fuse_pool4"
  eltwise_param {
    operation: SUM
  }
}
layer {
  name: "upscore_pool4"
  type: "Deconvolution"
  bottom: "fuse_pool4"
  top: "upscore_pool4"
  param {
    lr_mult: 0
  }
  convolution_param {
    num_output: 6
    bias_term: false
    kernel_size: 4
    stride: 2
    weight_filler {
      type: "xavier"
    }
  }
}
layer {
  name: "scale_pool3"
  type: "Scale"
  bottom: "pool3"
  top: "scale_pool3"
  param {
    lr_mult: 0
  }
  scale_param {
    filler {
      type: "constant"
      value: 0.0001
    }
  }
}
layer {
  name: "score_pool3"
  type: "Convolution"
  bottom: "scale_pool3"
  top: "score_pool3"
  param {
    lr_mult: 1
    decay_mult: 1
  }
  param {
    lr_mult: 2
    decay_mult: 0
  }
  convolution_param {
    num_output: 6
    pad: 0
    kernel_size: 1
    weight_filler {
      type: "xavier"
    }
  }
}
layer {
  name: "score_pool3c"
  type: "Crop"
  bottom: "score_pool3"
  bottom: "upscore_pool4"
  top: "score_pool3c"
  crop_param {
    axis: 2
    offset: 9
  }
}
layer {
  name: "fuse_pool3"
  type: "Eltwise"
  bottom: "upscore_pool4"
  bottom: "score_pool3c"
  top: "fuse_pool3"
  eltwise_param {
    operation: SUM
  }
}
layer {
  name: "upscore8"
  type: "Deconvolution"
  bottom: "fuse_pool3"
  top: "upscore8"
  param {
    lr_mult: 0
  }
  convolution_param {
    num_output: 6
    bias_term: false
    kernel_size: 16
    stride: 8
    weight_filler {
      type: "xavier"
    }
  }
}
layer {
  name: "score"
  type: "Crop"
  bottom: "upscore8"
  bottom: "data"
  top: "score"
  crop_param {
    axis: 2
    offset: 31
  }
}
layer {
  name: "loss"
  type: "SoftmaxWithLoss"
  bottom: "score"
  bottom: "label"
  top: "loss"
  loss_param {
    ignore_label: 255
    normalize: false
  }
}
I0112 09:55:05.955410   406 layer_factory.hpp:77] Creating layer data
I0112 09:55:05.956073   406 net.cpp:100] Creating Layer data
I0112 09:55:05.956089   406 net.cpp:408] data -> data
I0112 09:55:05.956105   406 net.cpp:408] data -> label
I0112 09:55:05.999403   406 net.cpp:150] Setting up data
I0112 09:55:05.999440   406 net.cpp:157] Top shape: 1 3 375 500 (562500)
I0112 09:55:05.999447   406 net.cpp:157] Top shape: 1 1 375 500 (187500)
I0112 09:55:05.999451   406 net.cpp:165] Memory required for data: 3000000
I0112 09:55:05.999460   406 layer_factory.hpp:77] Creating layer data_data_0_split
I0112 09:55:05.999477   406 net.cpp:100] Creating Layer data_data_0_split
I0112 09:55:05.999482   406 net.cpp:434] data_data_0_split <- data
I0112 09:55:05.999490   406 net.cpp:408] data_data_0_split -> data_data_0_split_0
I0112 09:55:05.999501   406 net.cpp:408] data_data_0_split -> data_data_0_split_1
I0112 09:55:05.999539   406 net.cpp:150] Setting up data_data_0_split
I0112 09:55:05.999547   406 net.cpp:157] Top shape: 1 3 375 500 (562500)
I0112 09:55:05.999552   406 net.cpp:157] Top shape: 1 3 375 500 (562500)
I0112 09:55:05.999555   406 net.cpp:165] Memory required for data: 7500000
I0112 09:55:05.999559   406 layer_factory.hpp:77] Creating layer conv1_1
I0112 09:55:05.999577   406 net.cpp:100] Creating Layer conv1_1
I0112 09:55:05.999581   406 net.cpp:434] conv1_1 <- data_data_0_split_0
I0112 09:55:05.999600   406 net.cpp:408] conv1_1 -> conv1_1
I0112 09:55:06.181761   406 net.cpp:150] Setting up conv1_1
I0112 09:55:06.181807   406 net.cpp:157] Top shape: 1 64 573 698 (25597056)
I0112 09:55:06.181813   406 net.cpp:165] Memory required for data: 109888224
I0112 09:55:06.181831   406 layer_factory.hpp:77] Creating layer relu1_1
I0112 09:55:06.181846   406 net.cpp:100] Creating Layer relu1_1
I0112 09:55:06.181851   406 net.cpp:434] relu1_1 <- conv1_1
I0112 09:55:06.181859   406 net.cpp:395] relu1_1 -> conv1_1 (in-place)
I0112 09:55:06.182207   406 net.cpp:150] Setting up relu1_1
I0112 09:55:06.182221   406 net.cpp:157] Top shape: 1 64 573 698 (25597056)
I0112 09:55:06.182226   406 net.cpp:165] Memory required for data: 212276448
I0112 09:55:06.182231   406 layer_factory.hpp:77] Creating layer conv1_2
I0112 09:55:06.182246   406 net.cpp:100] Creating Layer conv1_2
I0112 09:55:06.182251   406 net.cpp:434] conv1_2 <- conv1_1
I0112 09:55:06.182258   406 net.cpp:408] conv1_2 -> conv1_2
I0112 09:55:06.185046   406 net.cpp:150] Setting up conv1_2
I0112 09:55:06.185062   406 net.cpp:157] Top shape: 1 64 573 698 (25597056)
I0112 09:55:06.185067   406 net.cpp:165] Memory required for data: 314664672
I0112 09:55:06.185078   406 layer_factory.hpp:77] Creating layer relu1_2
I0112 09:55:06.185087   406 net.cpp:100] Creating Layer relu1_2
I0112 09:55:06.185091   406 net.cpp:434] relu1_2 <- conv1_2
I0112 09:55:06.185098   406 net.cpp:395] relu1_2 -> conv1_2 (in-place)
I0112 09:55:06.185443   406 net.cpp:150] Setting up relu1_2
I0112 09:55:06.185456   406 net.cpp:157] Top shape: 1 64 573 698 (25597056)
I0112 09:55:06.185461   406 net.cpp:165] Memory required for data: 417052896
I0112 09:55:06.185467   406 layer_factory.hpp:77] Creating layer pool1
I0112 09:55:06.185478   406 net.cpp:100] Creating Layer pool1
I0112 09:55:06.185482   406 net.cpp:434] pool1 <- conv1_2
I0112 09:55:06.185489   406 net.cpp:408] pool1 -> pool1
I0112 09:55:06.185535   406 net.cpp:150] Setting up pool1
I0112 09:55:06.185542   406 net.cpp:157] Top shape: 1 64 287 349 (6410432)
I0112 09:55:06.185546   406 net.cpp:165] Memory required for data: 442694624
I0112 09:55:06.185550   406 layer_factory.hpp:77] Creating layer conv2_1
I0112 09:55:06.185560   406 net.cpp:100] Creating Layer conv2_1
I0112 09:55:06.185565   406 net.cpp:434] conv2_1 <- pool1
I0112 09:55:06.185572   406 net.cpp:408] conv2_1 -> conv2_1
I0112 09:55:06.187913   406 net.cpp:150] Setting up conv2_1
I0112 09:55:06.187929   406 net.cpp:157] Top shape: 1 128 287 349 (12820864)
I0112 09:55:06.187934   406 net.cpp:165] Memory required for data: 493978080
I0112 09:55:06.187948   406 layer_factory.hpp:77] Creating layer relu2_1
I0112 09:55:06.187958   406 net.cpp:100] Creating Layer relu2_1
I0112 09:55:06.187961   406 net.cpp:434] relu2_1 <- conv2_1
I0112 09:55:06.187968   406 net.cpp:395] relu2_1 -> conv2_1 (in-place)
I0112 09:55:06.188165   406 net.cpp:150] Setting up relu2_1
I0112 09:55:06.188177   406 net.cpp:157] Top shape: 1 128 287 349 (12820864)
I0112 09:55:06.188181   406 net.cpp:165] Memory required for data: 545261536
I0112 09:55:06.188186   406 layer_factory.hpp:77] Creating layer conv2_2
I0112 09:55:06.188197   406 net.cpp:100] Creating Layer conv2_2
I0112 09:55:06.188202   406 net.cpp:434] conv2_2 <- conv2_1
I0112 09:55:06.188210   406 net.cpp:408] conv2_2 -> conv2_2
I0112 09:55:06.190778   406 net.cpp:150] Setting up conv2_2
I0112 09:55:06.190795   406 net.cpp:157] Top shape: 1 128 287 349 (12820864)
I0112 09:55:06.190799   406 net.cpp:165] Memory required for data: 596544992
I0112 09:55:06.190807   406 layer_factory.hpp:77] Creating layer relu2_2
I0112 09:55:06.190815   406 net.cpp:100] Creating Layer relu2_2
I0112 09:55:06.190820   406 net.cpp:434] relu2_2 <- conv2_2
I0112 09:55:06.190829   406 net.cpp:395] relu2_2 -> conv2_2 (in-place)
I0112 09:55:06.191184   406 net.cpp:150] Setting up relu2_2
I0112 09:55:06.191196   406 net.cpp:157] Top shape: 1 128 287 349 (12820864)
I0112 09:55:06.191200   406 net.cpp:165] Memory required for data: 647828448
I0112 09:55:06.191216   406 layer_factory.hpp:77] Creating layer pool2
I0112 09:55:06.191225   406 net.cpp:100] Creating Layer pool2
I0112 09:55:06.191228   406 net.cpp:434] pool2 <- conv2_2
I0112 09:55:06.191237   406 net.cpp:408] pool2 -> pool2
I0112 09:55:06.191282   406 net.cpp:150] Setting up pool2
I0112 09:55:06.191288   406 net.cpp:157] Top shape: 1 128 144 175 (3225600)
I0112 09:55:06.191293   406 net.cpp:165] Memory required for data: 660730848
I0112 09:55:06.191296   406 layer_factory.hpp:77] Creating layer conv3_1
I0112 09:55:06.191309   406 net.cpp:100] Creating Layer conv3_1
I0112 09:55:06.191314   406 net.cpp:434] conv3_1 <- pool2
I0112 09:55:06.191320   406 net.cpp:408] conv3_1 -> conv3_1
I0112 09:55:06.194460   406 net.cpp:150] Setting up conv3_1
I0112 09:55:06.194475   406 net.cpp:157] Top shape: 1 256 144 175 (6451200)
I0112 09:55:06.194480   406 net.cpp:165] Memory required for data: 686535648
I0112 09:55:06.194491   406 layer_factory.hpp:77] Creating layer relu3_1
I0112 09:55:06.194501   406 net.cpp:100] Creating Layer relu3_1
I0112 09:55:06.194506   406 net.cpp:434] relu3_1 <- conv3_1
I0112 09:55:06.194512   406 net.cpp:395] relu3_1 -> conv3_1 (in-place)
I0112 09:55:06.194875   406 net.cpp:150] Setting up relu3_1
I0112 09:55:06.194888   406 net.cpp:157] Top shape: 1 256 144 175 (6451200)
I0112 09:55:06.194892   406 net.cpp:165] Memory required for data: 712340448
I0112 09:55:06.194897   406 layer_factory.hpp:77] Creating layer conv3_2
I0112 09:55:06.194910   406 net.cpp:100] Creating Layer conv3_2
I0112 09:55:06.194914   406 net.cpp:434] conv3_2 <- conv3_1
I0112 09:55:06.194923   406 net.cpp:408] conv3_2 -> conv3_2
I0112 09:55:06.200191   406 net.cpp:150] Setting up conv3_2
I0112 09:55:06.200209   406 net.cpp:157] Top shape: 1 256 144 175 (6451200)
I0112 09:55:06.200214   406 net.cpp:165] Memory required for data: 738145248
I0112 09:55:06.200222   406 layer_factory.hpp:77] Creating layer relu3_2
I0112 09:55:06.200229   406 net.cpp:100] Creating Layer relu3_2
I0112 09:55:06.200234   406 net.cpp:434] relu3_2 <- conv3_2
I0112 09:55:06.200240   406 net.cpp:395] relu3_2 -> conv3_2 (in-place)
I0112 09:55:06.200433   406 net.cpp:150] Setting up relu3_2
I0112 09:55:06.200441   406 net.cpp:157] Top shape: 1 256 144 175 (6451200)
I0112 09:55:06.200445   406 net.cpp:165] Memory required for data: 763950048
I0112 09:55:06.200450   406 layer_factory.hpp:77] Creating layer conv3_3
I0112 09:55:06.200464   406 net.cpp:100] Creating Layer conv3_3
I0112 09:55:06.200469   406 net.cpp:434] conv3_3 <- conv3_2
I0112 09:55:06.200476   406 net.cpp:408] conv3_3 -> conv3_3
I0112 09:55:06.205760   406 net.cpp:150] Setting up conv3_3
I0112 09:55:06.205777   406 net.cpp:157] Top shape: 1 256 144 175 (6451200)
I0112 09:55:06.205782   406 net.cpp:165] Memory required for data: 789754848
I0112 09:55:06.205790   406 layer_factory.hpp:77] Creating layer relu3_3
I0112 09:55:06.205798   406 net.cpp:100] Creating Layer relu3_3
I0112 09:55:06.205802   406 net.cpp:434] relu3_3 <- conv3_3
I0112 09:55:06.205811   406 net.cpp:395] relu3_3 -> conv3_3 (in-place)
I0112 09:55:06.206163   406 net.cpp:150] Setting up relu3_3
I0112 09:55:06.206176   406 net.cpp:157] Top shape: 1 256 144 175 (6451200)
I0112 09:55:06.206181   406 net.cpp:165] Memory required for data: 815559648
I0112 09:55:06.206185   406 layer_factory.hpp:77] Creating layer pool3
I0112 09:55:06.206193   406 net.cpp:100] Creating Layer pool3
I0112 09:55:06.206197   406 net.cpp:434] pool3 <- conv3_3
I0112 09:55:06.206205   406 net.cpp:408] pool3 -> pool3
I0112 09:55:06.206251   406 net.cpp:150] Setting up pool3
I0112 09:55:06.206259   406 net.cpp:157] Top shape: 1 256 72 88 (1622016)
I0112 09:55:06.206262   406 net.cpp:165] Memory required for data: 822047712
I0112 09:55:06.206266   406 layer_factory.hpp:77] Creating layer pool3_pool3_0_split
I0112 09:55:06.206274   406 net.cpp:100] Creating Layer pool3_pool3_0_split
I0112 09:55:06.206279   406 net.cpp:434] pool3_pool3_0_split <- pool3
I0112 09:55:06.206284   406 net.cpp:408] pool3_pool3_0_split -> pool3_pool3_0_split_0
I0112 09:55:06.206290   406 net.cpp:408] pool3_pool3_0_split -> pool3_pool3_0_split_1
I0112 09:55:06.206337   406 net.cpp:150] Setting up pool3_pool3_0_split
I0112 09:55:06.206344   406 net.cpp:157] Top shape: 1 256 72 88 (1622016)
I0112 09:55:06.206349   406 net.cpp:157] Top shape: 1 256 72 88 (1622016)
I0112 09:55:06.206353   406 net.cpp:165] Memory required for data: 835023840
I0112 09:55:06.206357   406 layer_factory.hpp:77] Creating layer conv4_1
I0112 09:55:06.206367   406 net.cpp:100] Creating Layer conv4_1
I0112 09:55:06.206372   406 net.cpp:434] conv4_1 <- pool3_pool3_0_split_0
I0112 09:55:06.206382   406 net.cpp:408] conv4_1 -> conv4_1
I0112 09:55:06.216977   406 net.cpp:150] Setting up conv4_1
I0112 09:55:06.217000   406 net.cpp:157] Top shape: 1 512 72 88 (3244032)
I0112 09:55:06.217005   406 net.cpp:165] Memory required for data: 847999968
I0112 09:55:06.217012   406 layer_factory.hpp:77] Creating layer relu4_1
I0112 09:55:06.217022   406 net.cpp:100] Creating Layer relu4_1
I0112 09:55:06.217028   406 net.cpp:434] relu4_1 <- conv4_1
I0112 09:55:06.217034   406 net.cpp:395] relu4_1 -> conv4_1 (in-place)
I0112 09:55:06.217403   406 net.cpp:150] Setting up relu4_1
I0112 09:55:06.217417   406 net.cpp:157] Top shape: 1 512 72 88 (3244032)
I0112 09:55:06.217422   406 net.cpp:165] Memory required for data: 860976096
I0112 09:55:06.217427   406 layer_factory.hpp:77] Creating layer conv4_2
I0112 09:55:06.217438   406 net.cpp:100] Creating Layer conv4_2
I0112 09:55:06.217443   406 net.cpp:434] conv4_2 <- conv4_1
I0112 09:55:06.217453   406 net.cpp:408] conv4_2 -> conv4_2
I0112 09:55:06.234644   406 net.cpp:150] Setting up conv4_2
I0112 09:55:06.234669   406 net.cpp:157] Top shape: 1 512 72 88 (3244032)
I0112 09:55:06.234674   406 net.cpp:165] Memory required for data: 873952224
I0112 09:55:06.234690   406 layer_factory.hpp:77] Creating layer relu4_2
I0112 09:55:06.234702   406 net.cpp:100] Creating Layer relu4_2
I0112 09:55:06.234709   406 net.cpp:434] relu4_2 <- conv4_2
I0112 09:55:06.234715   406 net.cpp:395] relu4_2 -> conv4_2 (in-place)
I0112 09:55:06.234904   406 net.cpp:150] Setting up relu4_2
I0112 09:55:06.234913   406 net.cpp:157] Top shape: 1 512 72 88 (3244032)
I0112 09:55:06.234917   406 net.cpp:165] Memory required for data: 886928352
I0112 09:55:06.234921   406 layer_factory.hpp:77] Creating layer conv4_3
I0112 09:55:06.234935   406 net.cpp:100] Creating Layer conv4_3
I0112 09:55:06.234938   406 net.cpp:434] conv4_3 <- conv4_2
I0112 09:55:06.234947   406 net.cpp:408] conv4_3 -> conv4_3
I0112 09:55:06.252054   406 net.cpp:150] Setting up conv4_3
I0112 09:55:06.252080   406 net.cpp:157] Top shape: 1 512 72 88 (3244032)
I0112 09:55:06.252085   406 net.cpp:165] Memory required for data: 899904480
I0112 09:55:06.252095   406 layer_factory.hpp:77] Creating layer relu4_3
I0112 09:55:06.252106   406 net.cpp:100] Creating Layer relu4_3
I0112 09:55:06.252111   406 net.cpp:434] relu4_3 <- conv4_3
I0112 09:55:06.252118   406 net.cpp:395] relu4_3 -> conv4_3 (in-place)
I0112 09:55:06.252478   406 net.cpp:150] Setting up relu4_3
I0112 09:55:06.252493   406 net.cpp:157] Top shape: 1 512 72 88 (3244032)
I0112 09:55:06.252498   406 net.cpp:165] Memory required for data: 912880608
I0112 09:55:06.252502   406 layer_factory.hpp:77] Creating layer pool4
I0112 09:55:06.252511   406 net.cpp:100] Creating Layer pool4
I0112 09:55:06.252516   406 net.cpp:434] pool4 <- conv4_3
I0112 09:55:06.252523   406 net.cpp:408] pool4 -> pool4
I0112 09:55:06.252575   406 net.cpp:150] Setting up pool4
I0112 09:55:06.252583   406 net.cpp:157] Top shape: 1 512 36 44 (811008)
I0112 09:55:06.252586   406 net.cpp:165] Memory required for data: 916124640
I0112 09:55:06.252590   406 layer_factory.hpp:77] Creating layer pool4_pool4_0_split
I0112 09:55:06.252598   406 net.cpp:100] Creating Layer pool4_pool4_0_split
I0112 09:55:06.252601   406 net.cpp:434] pool4_pool4_0_split <- pool4
I0112 09:55:06.252609   406 net.cpp:408] pool4_pool4_0_split -> pool4_pool4_0_split_0
I0112 09:55:06.252616   406 net.cpp:408] pool4_pool4_0_split -> pool4_pool4_0_split_1
I0112 09:55:06.252653   406 net.cpp:150] Setting up pool4_pool4_0_split
I0112 09:55:06.252671   406 net.cpp:157] Top shape: 1 512 36 44 (811008)
I0112 09:55:06.252676   406 net.cpp:157] Top shape: 1 512 36 44 (811008)
I0112 09:55:06.252681   406 net.cpp:165] Memory required for data: 922612704
I0112 09:55:06.252684   406 layer_factory.hpp:77] Creating layer conv5_1
I0112 09:55:06.252698   406 net.cpp:100] Creating Layer conv5_1
I0112 09:55:06.252703   406 net.cpp:434] conv5_1 <- pool4_pool4_0_split_0
I0112 09:55:06.252710   406 net.cpp:408] conv5_1 -> conv5_1
I0112 09:55:06.269657   406 net.cpp:150] Setting up conv5_1
I0112 09:55:06.269683   406 net.cpp:157] Top shape: 1 512 36 44 (811008)
I0112 09:55:06.269687   406 net.cpp:165] Memory required for data: 925856736
I0112 09:55:06.269696   406 layer_factory.hpp:77] Creating layer relu5_1
I0112 09:55:06.269707   406 net.cpp:100] Creating Layer relu5_1
I0112 09:55:06.269712   406 net.cpp:434] relu5_1 <- conv5_1
I0112 09:55:06.269719   406 net.cpp:395] relu5_1 -> conv5_1 (in-place)
I0112 09:55:06.270087   406 net.cpp:150] Setting up relu5_1
I0112 09:55:06.270102   406 net.cpp:157] Top shape: 1 512 36 44 (811008)
I0112 09:55:06.270105   406 net.cpp:165] Memory required for data: 929100768
I0112 09:55:06.270110   406 layer_factory.hpp:77] Creating layer conv5_2
I0112 09:55:06.270123   406 net.cpp:100] Creating Layer conv5_2
I0112 09:55:06.270128   406 net.cpp:434] conv5_2 <- conv5_1
I0112 09:55:06.270138   406 net.cpp:408] conv5_2 -> conv5_2
I0112 09:55:06.287324   406 net.cpp:150] Setting up conv5_2
I0112 09:55:06.287351   406 net.cpp:157] Top shape: 1 512 36 44 (811008)
I0112 09:55:06.287356   406 net.cpp:165] Memory required for data: 932344800
I0112 09:55:06.287365   406 layer_factory.hpp:77] Creating layer relu5_2
I0112 09:55:06.287376   406 net.cpp:100] Creating Layer relu5_2
I0112 09:55:06.287381   406 net.cpp:434] relu5_2 <- conv5_2
I0112 09:55:06.287389   406 net.cpp:395] relu5_2 -> conv5_2 (in-place)
I0112 09:55:06.287583   406 net.cpp:150] Setting up relu5_2
I0112 09:55:06.287593   406 net.cpp:157] Top shape: 1 512 36 44 (811008)
I0112 09:55:06.287597   406 net.cpp:165] Memory required for data: 935588832
I0112 09:55:06.287601   406 layer_factory.hpp:77] Creating layer conv5_3
I0112 09:55:06.287621   406 net.cpp:100] Creating Layer conv5_3
I0112 09:55:06.287626   406 net.cpp:434] conv5_3 <- conv5_2
I0112 09:55:06.287634   406 net.cpp:408] conv5_3 -> conv5_3
I0112 09:55:06.304788   406 net.cpp:150] Setting up conv5_3
I0112 09:55:06.304813   406 net.cpp:157] Top shape: 1 512 36 44 (811008)
I0112 09:55:06.304818   406 net.cpp:165] Memory required for data: 938832864
I0112 09:55:06.304827   406 layer_factory.hpp:77] Creating layer relu5_3
I0112 09:55:06.304836   406 net.cpp:100] Creating Layer relu5_3
I0112 09:55:06.304841   406 net.cpp:434] relu5_3 <- conv5_3
I0112 09:55:06.304849   406 net.cpp:395] relu5_3 -> conv5_3 (in-place)
I0112 09:55:06.305388   406 net.cpp:150] Setting up relu5_3
I0112 09:55:06.305402   406 net.cpp:157] Top shape: 1 512 36 44 (811008)
I0112 09:55:06.305408   406 net.cpp:165] Memory required for data: 942076896
I0112 09:55:06.305411   406 layer_factory.hpp:77] Creating layer pool5
I0112 09:55:06.305420   406 net.cpp:100] Creating Layer pool5
I0112 09:55:06.305425   406 net.cpp:434] pool5 <- conv5_3
I0112 09:55:06.305434   406 net.cpp:408] pool5 -> pool5
I0112 09:55:06.305485   406 net.cpp:150] Setting up pool5
I0112 09:55:06.305495   406 net.cpp:157] Top shape: 1 512 18 22 (202752)
I0112 09:55:06.305498   406 net.cpp:165] Memory required for data: 942887904
I0112 09:55:06.305502   406 layer_factory.hpp:77] Creating layer fc6
I0112 09:55:06.305512   406 net.cpp:100] Creating Layer fc6
I0112 09:55:06.305517   406 net.cpp:434] fc6 <- pool5
I0112 09:55:06.305526   406 net.cpp:408] fc6 -> fc6
I0112 09:55:07.023072   406 net.cpp:150] Setting up fc6
I0112 09:55:07.023125   406 net.cpp:157] Top shape: 1 4096 12 16 (786432)
I0112 09:55:07.023130   406 net.cpp:165] Memory required for data: 946033632
I0112 09:55:07.023144   406 layer_factory.hpp:77] Creating layer relu6
I0112 09:55:07.023167   406 net.cpp:100] Creating Layer relu6
I0112 09:55:07.023174   406 net.cpp:434] relu6 <- fc6
I0112 09:55:07.023181   406 net.cpp:395] relu6 -> fc6 (in-place)
I0112 09:55:07.023561   406 net.cpp:150] Setting up relu6
I0112 09:55:07.023573   406 net.cpp:157] Top shape: 1 4096 12 16 (786432)
I0112 09:55:07.023578   406 net.cpp:165] Memory required for data: 949179360
I0112 09:55:07.023582   406 layer_factory.hpp:77] Creating layer drop6
I0112 09:55:07.023597   406 net.cpp:100] Creating Layer drop6
I0112 09:55:07.023602   406 net.cpp:434] drop6 <- fc6
I0112 09:55:07.023609   406 net.cpp:395] drop6 -> fc6 (in-place)
I0112 09:55:07.023648   406 net.cpp:150] Setting up drop6
I0112 09:55:07.023655   406 net.cpp:157] Top shape: 1 4096 12 16 (786432)
I0112 09:55:07.023659   406 net.cpp:165] Memory required for data: 952325088
I0112 09:55:07.023663   406 layer_factory.hpp:77] Creating layer fc7
I0112 09:55:07.023676   406 net.cpp:100] Creating Layer fc7
I0112 09:55:07.023680   406 net.cpp:434] fc7 <- fc6
I0112 09:55:07.023689   406 net.cpp:408] fc7 -> fc7
I0112 09:55:07.142371   406 net.cpp:150] Setting up fc7
I0112 09:55:07.142418   406 net.cpp:157] Top shape: 1 4096 12 16 (786432)
I0112 09:55:07.142423   406 net.cpp:165] Memory required for data: 955470816
I0112 09:55:07.142436   406 layer_factory.hpp:77] Creating layer relu7
I0112 09:55:07.142447   406 net.cpp:100] Creating Layer relu7
I0112 09:55:07.142454   406 net.cpp:434] relu7 <- fc7
I0112 09:55:07.142462   406 net.cpp:395] relu7 -> fc7 (in-place)
I0112 09:55:07.142675   406 net.cpp:150] Setting up relu7
I0112 09:55:07.142685   406 net.cpp:157] Top shape: 1 4096 12 16 (786432)
I0112 09:55:07.142690   406 net.cpp:165] Memory required for data: 958616544
I0112 09:55:07.142694   406 layer_factory.hpp:77] Creating layer drop7
I0112 09:55:07.142702   406 net.cpp:100] Creating Layer drop7
I0112 09:55:07.142707   406 net.cpp:434] drop7 <- fc7
I0112 09:55:07.142714   406 net.cpp:395] drop7 -> fc7 (in-place)
I0112 09:55:07.142748   406 net.cpp:150] Setting up drop7
I0112 09:55:07.142757   406 net.cpp:157] Top shape: 1 4096 12 16 (786432)
I0112 09:55:07.142761   406 net.cpp:165] Memory required for data: 961762272
I0112 09:55:07.142765   406 layer_factory.hpp:77] Creating layer score_fr
I0112 09:55:07.142776   406 net.cpp:100] Creating Layer score_fr
I0112 09:55:07.142779   406 net.cpp:434] score_fr <- fc7
I0112 09:55:07.142788   406 net.cpp:408] score_fr -> score_fr
I0112 09:55:07.144150   406 net.cpp:150] Setting up score_fr
I0112 09:55:07.144165   406 net.cpp:157] Top shape: 1 6 12 16 (1152)
I0112 09:55:07.144170   406 net.cpp:165] Memory required for data: 961766880
I0112 09:55:07.144176   406 layer_factory.hpp:77] Creating layer upscore2
I0112 09:55:07.144192   406 net.cpp:100] Creating Layer upscore2
I0112 09:55:07.144198   406 net.cpp:434] upscore2 <- score_fr
I0112 09:55:07.144206   406 net.cpp:408] upscore2 -> upscore2
I0112 09:55:07.144419   406 net.cpp:150] Setting up upscore2
I0112 09:55:07.144441   406 net.cpp:157] Top shape: 1 6 26 34 (5304)
I0112 09:55:07.144445   406 net.cpp:165] Memory required for data: 961788096
I0112 09:55:07.144459   406 layer_factory.hpp:77] Creating layer upscore2_upscore2_0_split
I0112 09:55:07.144471   406 net.cpp:100] Creating Layer upscore2_upscore2_0_split
I0112 09:55:07.144476   406 net.cpp:434] upscore2_upscore2_0_split <- upscore2
I0112 09:55:07.144482   406 net.cpp:408] upscore2_upscore2_0_split -> upscore2_upscore2_0_split_0
I0112 09:55:07.144490   406 net.cpp:408] upscore2_upscore2_0_split -> upscore2_upscore2_0_split_1
I0112 09:55:07.144531   406 net.cpp:150] Setting up upscore2_upscore2_0_split
I0112 09:55:07.144538   406 net.cpp:157] Top shape: 1 6 26 34 (5304)
I0112 09:55:07.144543   406 net.cpp:157] Top shape: 1 6 26 34 (5304)
I0112 09:55:07.144547   406 net.cpp:165] Memory required for data: 961830528
I0112 09:55:07.144552   406 layer_factory.hpp:77] Creating layer scale_pool4
I0112 09:55:07.144565   406 net.cpp:100] Creating Layer scale_pool4
I0112 09:55:07.144570   406 net.cpp:434] scale_pool4 <- pool4_pool4_0_split_1
I0112 09:55:07.144588   406 net.cpp:408] scale_pool4 -> scale_pool4
I0112 09:55:07.144700   406 net.cpp:150] Setting up scale_pool4
I0112 09:55:07.144711   406 net.cpp:157] Top shape: 1 512 36 44 (811008)
I0112 09:55:07.144714   406 net.cpp:165] Memory required for data: 965074560
I0112 09:55:07.144719   406 layer_factory.hpp:77] Creating layer score_pool4
I0112 09:55:07.144728   406 net.cpp:100] Creating Layer score_pool4
I0112 09:55:07.144733   406 net.cpp:434] score_pool4 <- scale_pool4
I0112 09:55:07.144742   406 net.cpp:408] score_pool4 -> score_pool4
I0112 09:55:07.146024   406 net.cpp:150] Setting up score_pool4
I0112 09:55:07.146040   406 net.cpp:157] Top shape: 1 6 36 44 (9504)
I0112 09:55:07.146045   406 net.cpp:165] Memory required for data: 965112576
I0112 09:55:07.146052   406 layer_factory.hpp:77] Creating layer score_pool4c
I0112 09:55:07.146064   406 net.cpp:100] Creating Layer score_pool4c
I0112 09:55:07.146069   406 net.cpp:434] score_pool4c <- score_pool4
I0112 09:55:07.146075   406 net.cpp:434] score_pool4c <- upscore2_upscore2_0_split_0
I0112 09:55:07.146083   406 net.cpp:408] score_pool4c -> score_pool4c
I0112 09:55:07.146118   406 net.cpp:150] Setting up score_pool4c
I0112 09:55:07.146128   406 net.cpp:157] Top shape: 1 6 26 34 (5304)
I0112 09:55:07.146132   406 net.cpp:165] Memory required for data: 965133792
I0112 09:55:07.146136   406 layer_factory.hpp:77] Creating layer fuse_pool4
I0112 09:55:07.146147   406 net.cpp:100] Creating Layer fuse_pool4
I0112 09:55:07.146150   406 net.cpp:434] fuse_pool4 <- upscore2_upscore2_0_split_1
I0112 09:55:07.146155   406 net.cpp:434] fuse_pool4 <- score_pool4c
I0112 09:55:07.146160   406 net.cpp:408] fuse_pool4 -> fuse_pool4
I0112 09:55:07.146191   406 net.cpp:150] Setting up fuse_pool4
I0112 09:55:07.146198   406 net.cpp:157] Top shape: 1 6 26 34 (5304)
I0112 09:55:07.146201   406 net.cpp:165] Memory required for data: 965155008
I0112 09:55:07.146205   406 layer_factory.hpp:77] Creating layer upscore_pool4
I0112 09:55:07.146215   406 net.cpp:100] Creating Layer upscore_pool4
I0112 09:55:07.146219   406 net.cpp:434] upscore_pool4 <- fuse_pool4
I0112 09:55:07.146227   406 net.cpp:408] upscore_pool4 -> upscore_pool4
I0112 09:55:07.146430   406 net.cpp:150] Setting up upscore_pool4
I0112 09:55:07.146437   406 net.cpp:157] Top shape: 1 6 54 70 (22680)
I0112 09:55:07.146441   406 net.cpp:165] Memory required for data: 965245728
I0112 09:55:07.146447   406 layer_factory.hpp:77] Creating layer upscore_pool4_upscore_pool4_0_split
I0112 09:55:07.146453   406 net.cpp:100] Creating Layer upscore_pool4_upscore_pool4_0_split
I0112 09:55:07.146458   406 net.cpp:434] upscore_pool4_upscore_pool4_0_split <- upscore_pool4
I0112 09:55:07.146466   406 net.cpp:408] upscore_pool4_upscore_pool4_0_split -> upscore_pool4_upscore_pool4_0_split_0
I0112 09:55:07.146472   406 net.cpp:408] upscore_pool4_upscore_pool4_0_split -> upscore_pool4_upscore_pool4_0_split_1
I0112 09:55:07.146510   406 net.cpp:150] Setting up upscore_pool4_upscore_pool4_0_split
I0112 09:55:07.146517   406 net.cpp:157] Top shape: 1 6 54 70 (22680)
I0112 09:55:07.146522   406 net.cpp:157] Top shape: 1 6 54 70 (22680)
I0112 09:55:07.146525   406 net.cpp:165] Memory required for data: 965427168
I0112 09:55:07.146529   406 layer_factory.hpp:77] Creating layer scale_pool3
I0112 09:55:07.146536   406 net.cpp:100] Creating Layer scale_pool3
I0112 09:55:07.146541   406 net.cpp:434] scale_pool3 <- pool3_pool3_0_split_1
I0112 09:55:07.146548   406 net.cpp:408] scale_pool3 -> scale_pool3
I0112 09:55:07.146652   406 net.cpp:150] Setting up scale_pool3
I0112 09:55:07.146659   406 net.cpp:157] Top shape: 1 256 72 88 (1622016)
I0112 09:55:07.146663   406 net.cpp:165] Memory required for data: 971915232
I0112 09:55:07.146668   406 layer_factory.hpp:77] Creating layer score_pool3
I0112 09:55:07.146679   406 net.cpp:100] Creating Layer score_pool3
I0112 09:55:07.146683   406 net.cpp:434] score_pool3 <- scale_pool3
I0112 09:55:07.146690   406 net.cpp:408] score_pool3 -> score_pool3
I0112 09:55:07.147909   406 net.cpp:150] Setting up score_pool3
I0112 09:55:07.147933   406 net.cpp:157] Top shape: 1 6 72 88 (38016)
I0112 09:55:07.147938   406 net.cpp:165] Memory required for data: 972067296
I0112 09:55:07.147946   406 layer_factory.hpp:77] Creating layer score_pool3c
I0112 09:55:07.147954   406 net.cpp:100] Creating Layer score_pool3c
I0112 09:55:07.147959   406 net.cpp:434] score_pool3c <- score_pool3
I0112 09:55:07.147965   406 net.cpp:434] score_pool3c <- upscore_pool4_upscore_pool4_0_split_0
I0112 09:55:07.147972   406 net.cpp:408] score_pool3c -> score_pool3c
I0112 09:55:07.148005   406 net.cpp:150] Setting up score_pool3c
I0112 09:55:07.148013   406 net.cpp:157] Top shape: 1 6 54 70 (22680)
I0112 09:55:07.148017   406 net.cpp:165] Memory required for data: 972158016
I0112 09:55:07.148021   406 layer_factory.hpp:77] Creating layer fuse_pool3
I0112 09:55:07.148030   406 net.cpp:100] Creating Layer fuse_pool3
I0112 09:55:07.148033   406 net.cpp:434] fuse_pool3 <- upscore_pool4_upscore_pool4_0_split_1
I0112 09:55:07.148038   406 net.cpp:434] fuse_pool3 <- score_pool3c
I0112 09:55:07.148044   406 net.cpp:408] fuse_pool3 -> fuse_pool3
I0112 09:55:07.148072   406 net.cpp:150] Setting up fuse_pool3
I0112 09:55:07.148078   406 net.cpp:157] Top shape: 1 6 54 70 (22680)
I0112 09:55:07.148082   406 net.cpp:165] Memory required for data: 972248736
I0112 09:55:07.148087   406 layer_factory.hpp:77] Creating layer upscore8
I0112 09:55:07.148095   406 net.cpp:100] Creating Layer upscore8
I0112 09:55:07.148100   406 net.cpp:434] upscore8 <- fuse_pool3
I0112 09:55:07.148107   406 net.cpp:408] upscore8 -> upscore8
I0112 09:55:07.148363   406 net.cpp:150] Setting up upscore8
I0112 09:55:07.148371   406 net.cpp:157] Top shape: 1 6 440 568 (1499520)
I0112 09:55:07.148375   406 net.cpp:165] Memory required for data: 978246816
I0112 09:55:07.148381   406 layer_factory.hpp:77] Creating layer score
I0112 09:55:07.148387   406 net.cpp:100] Creating Layer score
I0112 09:55:07.148392   406 net.cpp:434] score <- upscore8
I0112 09:55:07.148397   406 net.cpp:434] score <- data_data_0_split_1
I0112 09:55:07.148404   406 net.cpp:408] score -> score
I0112 09:55:07.148430   406 net.cpp:150] Setting up score
I0112 09:55:07.148437   406 net.cpp:157] Top shape: 1 6 375 500 (1125000)
I0112 09:55:07.148440   406 net.cpp:165] Memory required for data: 982746816
I0112 09:55:07.148444   406 layer_factory.hpp:77] Creating layer loss
I0112 09:55:07.148454   406 net.cpp:100] Creating Layer loss
I0112 09:55:07.148458   406 net.cpp:434] loss <- score
I0112 09:55:07.148463   406 net.cpp:434] loss <- label
I0112 09:55:07.148471   406 net.cpp:408] loss -> loss
I0112 09:55:07.148484   406 layer_factory.hpp:77] Creating layer loss
…
I0112 09:55:07.151712   406 net.cpp:283] Network initialization done.
I0112 09:55:07.156010   406 solver.cpp:181] Creating test net (#0) specified by test_net file: val.prototxt
I0112 09:55:07.156375   406 net.cpp:58] Initializing net from parameters: 
state {
  phase: TEST
}
layer {
  name: "data"
  type: "Python"
  top: "data"
  top: "label"
  python_param {
    module: "voc_layers"
    layer: "PartialVOCSegDataLayer"
    param_str: "{\'voc_dir\': \'../data/pascal-obfuscated/VOC2011\', \'seed\': 1337, \'split\': \'seg11valid5\', \'mean\': (104.00699, 116.66877, 122.67892)}"
  }
}
layer {
  name: "conv1_1"
  type: "Convolution"
  bottom: "data"
  top: "conv1_1"
  param {
    lr_mult: 1
    decay_mult: 1
  }
  param {
    lr_mult: 2
    decay_mult: 0
  }
  convolution_param {
    num_output: 64
    pad: 100
    kernel_size: 3
    stride: 1
    weight_filler {
      type: "xavier"
    }
  }
}
layer {
  name: "relu1_1"
  type: "ReLU"
  bottom: "conv1_1"
  top: "conv1_1"
}
layer {
  name: "conv1_2"
  type: "Convolution"
  bottom: "conv1_1"
  top: "conv1_2"
  param {
    lr_mult: 1
    decay_mult: 1
  }
  param {
    lr_mult: 2
    decay_mult: 0
  }
  convolution_param {
    num_output: 64
    pad: 1
    kernel_size: 3
    stride: 1
    weight_filler {
      type: "xavier"
    }
  }
}
layer {
  name: "relu1_2"
  type: "ReLU"
  bottom: "conv1_2"
  top: "conv1_2"
}
layer {
  name: "pool1"
  type: "Pooling"
  bottom: "conv1_2"
  top: "pool1"
  pooling_param {
    pool: MAX
    kernel_size: 2
    stride: 2
  }
}
layer {
  name: "conv2_1"
  type: "Convolution"
  bottom: "pool1"
  top: "conv2_1"
  param {
    lr_mult: 1
    decay_mult: 1
  }
  param {
    lr_mult: 2
    decay_mult: 0
  }
  convolution_param {
    num_output: 128
    pad: 1
    kernel_size: 3
    stride: 1
    weight_filler {
      type: "xavier"
    }
  }
}
layer {
  name: "relu2_1"
  type: "ReLU"
  bottom: "conv2_1"
  top: "conv2_1"
}
layer {
  name: "conv2_2"
  type: "Convolution"
  bottom: "conv2_1"
  top: "conv2_2"
  param {
    lr_mult: 1
    decay_mult: 1
  }
  param {
    lr_mult: 2
    decay_mult: 0
  }
  convolution_param {
    num_output: 128
    pad: 1
    kernel_size: 3
    stride: 1
    weight_filler {
      type: "xavier"
    }
  }
}
layer {
  name: "relu2_2"
  type: "ReLU"
  bottom: "conv2_2"
  top: "conv2_2"
}
layer {
  name: "pool2"
  type: "Pooling"
  bottom: "conv2_2"
  top: "pool2"
  pooling_param {
    pool: MAX
    kernel_size: 2
    stride: 2
  }
}
layer {
  name: "conv3_1"
  type: "Convolution"
  bottom: "pool2"
  top: "conv3_1"
  param {
    lr_mult: 1
    decay_mult: 1
  }
  param {
    lr_mult: 2
    decay_mult: 0
  }
  convolution_param {
    num_output: 256
    pad: 1
    kernel_size: 3
    stride: 1
    weight_filler {
      type: "xavier"
    }
  }
}
layer {
  name: "relu3_1"
  type: "ReLU"
  bottom: "conv3_1"
  top: "conv3_1"
}
layer {
  name: "conv3_2"
  type: "Convolution"
  bottom: "conv3_1"
  top: "conv3_2"
  param {
    lr_mult: 1
    decay_mult: 1
  }
  param {
    lr_mult: 2
    decay_mult: 0
  }
  convolution_param {
    num_output: 256
    pad: 1
    kernel_size: 3
    stride: 1
    weight_filler {
      type: "xavier"
    }
  }
}
layer {
  name: "relu3_2"
  type: "ReLU"
  bottom: "conv3_2"
  top: "conv3_2"
}
layer {
  name: "conv3_3"
  type: "Convolution"
  bottom: "conv3_2"
  top: "conv3_3"
  param {
    lr_mult: 1
    decay_mult: 1
  }
  param {
    lr_mult: 2
    decay_mult: 0
  }
  convolution_param {
    num_output: 256
    pad: 1
    kernel_size: 3
    stride: 1
    weight_filler {
      type: "xavier"
    }
  }
}
layer {
  name: "relu3_3"
  type: "ReLU"
  bottom: "conv3_3"
  top: "conv3_3"
}
layer {
  name: "pool3"
  type: "Pooling"
  bottom: "conv3_3"
  top: "pool3"
  pooling_param {
    pool: MAX
    kernel_size: 2
    stride: 2
  }
}
layer {
  name: "conv4_1"
  type: "Convolution"
  bottom: "pool3"
  top: "conv4_1"
  param {
    lr_mult: 1
    decay_mult: 1
  }
  param {
    lr_mult: 2
    decay_mult: 0
  }
  convolution_param {
    num_output: 512
    pad: 1
    kernel_size: 3
    stride: 1
    weight_filler {
      type: "xavier"
    }
  }
}
layer {
  name: "relu4_1"
  type: "ReLU"
  bottom: "conv4_1"
  top: "conv4_1"
}
layer {
  name: "conv4_2"
  type: "Convolution"
  bottom: "conv4_1"
  top: "conv4_2"
  param {
    lr_mult: 1
    decay_mult: 1
  }
  param {
    lr_mult: 2
    decay_mult: 0
  }
  convolution_param {
    num_output: 512
    pad: 1
    kernel_size: 3
    stride: 1
    weight_filler {
      type: "xavier"
    }
  }
}
layer {
  name: "relu4_2"
  type: "ReLU"
  bottom: "conv4_2"
  top: "conv4_2"
}
layer {
  name: "conv4_3"
  type: "Convolution"
  bottom: "conv4_2"
  top: "conv4_3"
  param {
    lr_mult: 1
    decay_mult: 1
  }
  param {
    lr_mult: 2
    decay_mult: 0
  }
  convolution_param {
    num_output: 512
    pad: 1
    kernel_size: 3
    stride: 1
    weight_filler {
      type: "xavier"
    }
  }
}
layer {
  name: "relu4_3"
  type: "ReLU"
  bottom: "conv4_3"
  top: "conv4_3"
}
layer {
  name: "pool4"
  type: "Pooling"
  bottom: "conv4_3"
  top: "pool4"
  pooling_param {
    pool: MAX
    kernel_size: 2
    stride: 2
  }
}
layer {
  name: "conv5_1"
  type: "Convolution"
  bottom: "pool4"
  top: "conv5_1"
  param {
    lr_mult: 1
    decay_mult: 1
  }
  param {
    lr_mult: 2
    decay_mult: 0
  }
  convolution_param {
    num_output: 512
    pad: 1
    kernel_size: 3
    stride: 1
    weight_filler {
      type: "xavier"
    }
  }
}
layer {
  name: "relu5_1"
  type: "ReLU"
  bottom: "conv5_1"
  top: "conv5_1"
}
layer {
  name: "conv5_2"
  type: "Convolution"
  bottom: "conv5_1"
  top: "conv5_2"
  param {
    lr_mult: 1
    decay_mult: 1
  }
  param {
    lr_mult: 2
    decay_mult: 0
  }
  convolution_param {
    num_output: 512
    pad: 1
    kernel_size: 3
    stride: 1
    weight_filler {
      type: "xavier"
    }
  }
}
layer {
  name: "relu5_2"
  type: "ReLU"
  bottom: "conv5_2"
  top: "conv5_2"
}
layer {
  name: "conv5_3"
  type: "Convolution"
  bottom: "conv5_2"
  top: "conv5_3"
  param {
    lr_mult: 1
    decay_mult: 1
  }
  param {
    lr_mult: 2
    decay_mult: 0
  }
  convolution_param {
    num_output: 512
    pad: 1
    kernel_size: 3
    stride: 1
    weight_filler {
      type: "xavier"
    }
  }
}
layer {
  name: "relu5_3"
  type: "ReLU"
  bottom: "conv5_3"
  top: "conv5_3"
}
layer {
  name: "pool5"
  type: "Pooling"
  bottom: "conv5_3"
  top: "pool5"
  pooling_param {
    pool: MAX
    kernel_size: 2
    stride: 2
  }
}
layer {
  name: "fc6"
  type: "Convolution"
  bottom: "pool5"
  top: "fc6"
  param {
    lr_mult: 1
    decay_mult: 1
  }
  param {
    lr_mult: 2
    decay_mult: 0
  }
  convolution_param {
    num_output: 4096
    pad: 0
    kernel_size: 7
    stride: 1
    weight_filler {
      type: "xavier"
    }
  }
}
layer {
  name: "relu6"
  type: "ReLU"
  bottom: "fc6"
  top: "fc6"
}
layer {
  name: "drop6"
  type: "Dropout"
  bottom: "fc6"
  top: "fc6"
  dropout_param {
    dropout_ratio: 0.5
  }
}
layer {
  name: "fc7"
  type: "Convolution"
  bottom: "fc6"
  top: "fc7"
  param {
    lr_mult: 1
    decay_mult: 1
  }
  param {
    lr_mult: 2
    decay_mult: 0
  }
  convolution_param {
    num_output: 4096
    pad: 0
    kernel_size: 1
    stride: 1
    weight_filler {
      type: "xavier"
    }
  }
}
layer {
  name: "relu7"
  type: "ReLU"
  bottom: "fc7"
  top: "fc7"
}
layer {
  name: "drop7"
  type: "Dropout"
  bottom: "fc7"
  top: "fc7"
  dropout_param {
    dropout_ratio: 0.5
  }
}
layer {
  name: "score_fr"
  type: "Convolution"
  bottom: "fc7"
  top: "score_fr"
  param {
    lr_mult: 1
    decay_mult: 1
  }
  param {
    lr_mult: 2
    decay_mult: 0
  }
  convolution_param {
    num_output: 6
    pad: 0
    kernel_size: 1
    weight_filler {
      type: "xavier"
    }
  }
}
layer {
  name: "upscore2"
  type: "Deconvolution"
  bottom: "score_fr"
  top: "upscore2"
  param {
    lr_mult: 0
  }
  convolution_param {
    num_output: 6
    bias_term: false
    kernel_size: 4
    stride: 2
    weight_filler {
      type: "xavier"
    }
  }
}
layer {
  name: "scale_pool4"
  type: "Scale"
  bottom: "pool4"
  top: "scale_pool4"
  param {
    lr_mult: 0
  }
  scale_param {
    filler {
      type: "constant"
      value: 0.01
    }
  }
}
layer {
  name: "score_pool4"
  type: "Convolution"
  bottom: "scale_pool4"
  top: "score_pool4"
  param {
    lr_mult: 1
    decay_mult: 1
  }
  param {
    lr_mult: 2
    decay_mult: 0
  }
  convolution_param {
    num_output: 6
    pad: 0
    kernel_size: 1
    weight_filler {
      type: "xavier"
    }
  }
}
layer {
  name: "score_pool4c"
  type: "Crop"
  bottom: "score_pool4"
  bottom: "upscore2"
  top: "score_pool4c"
  crop_param {
    axis: 2
    offset: 5
  }
}
layer {
  name: "fuse_pool4"
  type: "Eltwise"
  bottom: "upscore2"
  bottom: "score_pool4c"
  top: "fuse_pool4"
  eltwise_param {
    operation: SUM
  }
}
layer {
  name: "upscore_pool4"
  type: "Deconvolution"
  bottom: "fuse_pool4"
  top: "upscore_pool4"
  param {
    lr_mult: 0
  }
  convolution_param {
    num_output: 6
    bias_term: false
    kernel_size: 4
    stride: 2
    weight_filler {
      type: "xavier"
    }
  }
}
layer {
  name: "scale_pool3"
  type: "Scale"
  bottom: "pool3"
  top: "scale_pool3"
  param {
    lr_mult: 0
  }
  scale_param {
    filler {
      type: "constant"
      value: 0.0001
    }
  }
}
layer {
  name: "score_pool3"
  type: "Convolution"
  bottom: "scale_pool3"
  top: "score_pool3"
  param {
    lr_mult: 1
    decay_mult: 1
  }
  param {
    lr_mult: 2
    decay_mult: 0
  }
  convolution_param {
    num_output: 6
    pad: 0
    kernel_size: 1
    weight_filler {
      type: "xavier"
    }
  }
}
layer {
  name: "score_pool3c"
  type: "Crop"
  bottom: "score_pool3"
  bottom: "upscore_pool4"
  top: "score_pool3c"
  crop_param {
    axis: 2
    offset: 9
  }
}
layer {
  name: "fuse_pool3"
  type: "Eltwise"
  bottom: "upscore_pool4"
  bottom: "score_pool3c"
  top: "fuse_pool3"
  eltwise_param {
    operation: SUM
  }
}
layer {
  name: "upscore8"
  type: "Deconvolution"
  bottom: "fuse_pool3"
  top: "upscore8"
  param {
    lr_mult: 0
  }
  convolution_param {
    num_output: 6
    bias_term: false
    kernel_size: 16
    stride: 8
    weight_filler {
      type: "xavier"
    }
  }
}
layer {
  name: "score"
  type: "Crop"
  bottom: "upscore8"
  bottom: "data"
  top: "score"
  crop_param {
    axis: 2
    offset: 31
  }
}
layer {
  name: "loss"
  type: "SoftmaxWithLoss"
  bottom: "score"
  bottom: "label"
  top: "loss"
  loss_param {
    ignore_label: 255
    normalize: false
  }
}
I0112 09:55:07.156594   406 layer_factory.hpp:77] Creating layer data
I0112 09:55:07.156764   406 net.cpp:100] Creating Layer data
I0112 09:55:07.156774   406 net.cpp:408] data -> data
I0112 09:55:07.156783   406 net.cpp:408] data -> label
I0112 09:55:07.174325   406 net.cpp:150] Setting up data
I0112 09:55:07.174345   406 net.cpp:157] Top shape: 1 3 335 500 (502500)
I0112 09:55:07.174352   406 net.cpp:157] Top shape: 1 1 335 500 (167500)
I0112 09:55:07.174356   406 net.cpp:165] Memory required for data: 2680000
I0112 09:55:07.174361   406 layer_factory.hpp:77] Creating layer data_data_0_split
I0112 09:55:07.174371   406 net.cpp:100] Creating Layer data_data_0_split
I0112 09:55:07.174376   406 net.cpp:434] data_data_0_split <- data
I0112 09:55:07.174383   406 net.cpp:408] data_data_0_split -> data_data_0_split_0
I0112 09:55:07.174391   406 net.cpp:408] data_data_0_split -> data_data_0_split_1
I0112 09:55:07.174433   406 net.cpp:150] Setting up data_data_0_split
I0112 09:55:07.174440   406 net.cpp:157] Top shape: 1 3 335 500 (502500)
I0112 09:55:07.174446   406 net.cpp:157] Top shape: 1 3 335 500 (502500)
I0112 09:55:07.174450   406 net.cpp:165] Memory required for data: 6700000
I0112 09:55:07.174454   406 layer_factory.hpp:77] Creating layer conv1_1
I0112 09:55:07.174465   406 net.cpp:100] Creating Layer conv1_1
I0112 09:55:07.174469   406 net.cpp:434] conv1_1 <- data_data_0_split_0
I0112 09:55:07.174476   406 net.cpp:408] conv1_1 -> conv1_1
I0112 09:55:07.176643   406 net.cpp:150] Setting up conv1_1
I0112 09:55:07.176661   406 net.cpp:157] Top shape: 1 64 533 698 (23810176)
I0112 09:55:07.176666   406 net.cpp:165] Memory required for data: 101940704
I0112 09:55:07.176677   406 layer_factory.hpp:77] Creating layer relu1_1
I0112 09:55:07.176686   406 net.cpp:100] Creating Layer relu1_1
I0112 09:55:07.176690   406 net.cpp:434] relu1_1 <- conv1_1
I0112 09:55:07.176697   406 net.cpp:395] relu1_1 -> conv1_1 (in-place)
I0112 09:55:07.176887   406 net.cpp:150] Setting up relu1_1
I0112 09:55:07.176898   406 net.cpp:157] Top shape: 1 64 533 698 (23810176)
I0112 09:55:07.176903   406 net.cpp:165] Memory required for data: 197181408
I0112 09:55:07.176908   406 layer_factory.hpp:77] Creating layer conv1_2
I0112 09:55:07.176918   406 net.cpp:100] Creating Layer conv1_2
I0112 09:55:07.176923   406 net.cpp:434] conv1_2 <- conv1_1
I0112 09:55:07.176929   406 net.cpp:408] conv1_2 -> conv1_2
I0112 09:55:07.179219   406 net.cpp:150] Setting up conv1_2
I0112 09:55:07.179235   406 net.cpp:157] Top shape: 1 64 533 698 (23810176)
I0112 09:55:07.179240   406 net.cpp:165] Memory required for data: 292422112
I0112 09:55:07.179251   406 layer_factory.hpp:77] Creating layer relu1_2
I0112 09:55:07.179258   406 net.cpp:100] Creating Layer relu1_2
I0112 09:55:07.179263   406 net.cpp:434] relu1_2 <- conv1_2
I0112 09:55:07.179270   406 net.cpp:395] relu1_2 -> conv1_2 (in-place)
I0112 09:55:07.179633   406 net.cpp:150] Setting up relu1_2
I0112 09:55:07.179647   406 net.cpp:157] Top shape: 1 64 533 698 (23810176)
I0112 09:55:07.179652   406 net.cpp:165] Memory required for data: 387662816
I0112 09:55:07.179657   406 layer_factory.hpp:77] Creating layer pool1
I0112 09:55:07.179666   406 net.cpp:100] Creating Layer pool1
I0112 09:55:07.179669   406 net.cpp:434] pool1 <- conv1_2
I0112 09:55:07.179677   406 net.cpp:408] pool1 -> pool1
I0112 09:55:07.179728   406 net.cpp:150] Setting up pool1
I0112 09:55:07.179734   406 net.cpp:157] Top shape: 1 64 267 349 (5963712)
I0112 09:55:07.179738   406 net.cpp:165] Memory required for data: 411517664
I0112 09:55:07.179743   406 layer_factory.hpp:77] Creating layer conv2_1
I0112 09:55:07.179752   406 net.cpp:100] Creating Layer conv2_1
I0112 09:55:07.179756   406 net.cpp:434] conv2_1 <- pool1
I0112 09:55:07.179764   406 net.cpp:408] conv2_1 -> conv2_1
I0112 09:55:07.181967   406 net.cpp:150] Setting up conv2_1
I0112 09:55:07.181984   406 net.cpp:157] Top shape: 1 128 267 349 (11927424)
I0112 09:55:07.181989   406 net.cpp:165] Memory required for data: 459227360
I0112 09:55:07.181999   406 layer_factory.hpp:77] Creating layer relu2_1
I0112 09:55:07.182008   406 net.cpp:100] Creating Layer relu2_1
I0112 09:55:07.182013   406 net.cpp:434] relu2_1 <- conv2_1
I0112 09:55:07.182019   406 net.cpp:395] relu2_1 -> conv2_1 (in-place)
I0112 09:55:07.182397   406 net.cpp:150] Setting up relu2_1
I0112 09:55:07.182411   406 net.cpp:157] Top shape: 1 128 267 349 (11927424)
I0112 09:55:07.182415   406 net.cpp:165] Memory required for data: 506937056
I0112 09:55:07.182420   406 layer_factory.hpp:77] Creating layer conv2_2
I0112 09:55:07.182431   406 net.cpp:100] Creating Layer conv2_2
I0112 09:55:07.182436   406 net.cpp:434] conv2_2 <- conv2_1
I0112 09:55:07.182445   406 net.cpp:408] conv2_2 -> conv2_2
I0112 09:55:07.184993   406 net.cpp:150] Setting up conv2_2
I0112 09:55:07.185009   406 net.cpp:157] Top shape: 1 128 267 349 (11927424)
I0112 09:55:07.185014   406 net.cpp:165] Memory required for data: 554646752
I0112 09:55:07.185021   406 layer_factory.hpp:77] Creating layer relu2_2
I0112 09:55:07.185029   406 net.cpp:100] Creating Layer relu2_2
I0112 09:55:07.185034   406 net.cpp:434] relu2_2 <- conv2_2
I0112 09:55:07.185039   406 net.cpp:395] relu2_2 -> conv2_2 (in-place)
I0112 09:55:07.185227   406 net.cpp:150] Setting up relu2_2
I0112 09:55:07.185236   406 net.cpp:157] Top shape: 1 128 267 349 (11927424)
I0112 09:55:07.185240   406 net.cpp:165] Memory required for data: 602356448
I0112 09:55:07.185245   406 layer_factory.hpp:77] Creating layer pool2
I0112 09:55:07.185252   406 net.cpp:100] Creating Layer pool2
I0112 09:55:07.185256   406 net.cpp:434] pool2 <- conv2_2
I0112 09:55:07.185262   406 net.cpp:408] pool2 -> pool2
I0112 09:55:07.185312   406 net.cpp:150] Setting up pool2
I0112 09:55:07.185319   406 net.cpp:157] Top shape: 1 128 134 175 (3001600)
I0112 09:55:07.185323   406 net.cpp:165] Memory required for data: 614362848
I0112 09:55:07.185328   406 layer_factory.hpp:77] Creating layer conv3_1
I0112 09:55:07.185336   406 net.cpp:100] Creating Layer conv3_1
I0112 09:55:07.185341   406 net.cpp:434] conv3_1 <- pool2
I0112 09:55:07.185348   406 net.cpp:408] conv3_1 -> conv3_1
I0112 09:55:07.188642   406 net.cpp:150] Setting up conv3_1
I0112 09:55:07.188657   406 net.cpp:157] Top shape: 1 256 134 175 (6003200)
I0112 09:55:07.188663   406 net.cpp:165] Memory required for data: 638375648
I0112 09:55:07.188674   406 layer_factory.hpp:77] Creating layer relu3_1
I0112 09:55:07.188688   406 net.cpp:100] Creating Layer relu3_1
I0112 09:55:07.188694   406 net.cpp:434] relu3_1 <- conv3_1
I0112 09:55:07.188700   406 net.cpp:395] relu3_1 -> conv3_1 (in-place)
I0112 09:55:07.189056   406 net.cpp:150] Setting up relu3_1
I0112 09:55:07.189070   406 net.cpp:157] Top shape: 1 256 134 175 (6003200)
I0112 09:55:07.189074   406 net.cpp:165] Memory required for data: 662388448
I0112 09:55:07.189079   406 layer_factory.hpp:77] Creating layer conv3_2
I0112 09:55:07.189090   406 net.cpp:100] Creating Layer conv3_2
I0112 09:55:07.189095   406 net.cpp:434] conv3_2 <- conv3_1
I0112 09:55:07.189102   406 net.cpp:408] conv3_2 -> conv3_2
I0112 09:55:07.194360   406 net.cpp:150] Setting up conv3_2
I0112 09:55:07.194376   406 net.cpp:157] Top shape: 1 256 134 175 (6003200)
I0112 09:55:07.194381   406 net.cpp:165] Memory required for data: 686401248
I0112 09:55:07.194389   406 layer_factory.hpp:77] Creating layer relu3_2
I0112 09:55:07.194397   406 net.cpp:100] Creating Layer relu3_2
I0112 09:55:07.194402   406 net.cpp:434] relu3_2 <- conv3_2
I0112 09:55:07.194408   406 net.cpp:395] relu3_2 -> conv3_2 (in-place)
I0112 09:55:07.194595   406 net.cpp:150] Setting up relu3_2
I0112 09:55:07.194605   406 net.cpp:157] Top shape: 1 256 134 175 (6003200)
I0112 09:55:07.194609   406 net.cpp:165] Memory required for data: 710414048
I0112 09:55:07.194613   406 layer_factory.hpp:77] Creating layer conv3_3
I0112 09:55:07.194625   406 net.cpp:100] Creating Layer conv3_3
I0112 09:55:07.194630   406 net.cpp:434] conv3_3 <- conv3_2
I0112 09:55:07.194638   406 net.cpp:408] conv3_3 -> conv3_3
I0112 09:55:07.199889   406 net.cpp:150] Setting up conv3_3
I0112 09:55:07.199906   406 net.cpp:157] Top shape: 1 256 134 175 (6003200)
I0112 09:55:07.199911   406 net.cpp:165] Memory required for data: 734426848
I0112 09:55:07.199920   406 layer_factory.hpp:77] Creating layer relu3_3
I0112 09:55:07.199928   406 net.cpp:100] Creating Layer relu3_3
I0112 09:55:07.199934   406 net.cpp:434] relu3_3 <- conv3_3
I0112 09:55:07.199939   406 net.cpp:395] relu3_3 -> conv3_3 (in-place)
I0112 09:55:07.200131   406 net.cpp:150] Setting up relu3_3
I0112 09:55:07.200142   406 net.cpp:157] Top shape: 1 256 134 175 (6003200)
I0112 09:55:07.200146   406 net.cpp:165] Memory required for data: 758439648
I0112 09:55:07.200150   406 layer_factory.hpp:77] Creating layer pool3
I0112 09:55:07.200158   406 net.cpp:100] Creating Layer pool3
I0112 09:55:07.200163   406 net.cpp:434] pool3 <- conv3_3
I0112 09:55:07.200170   406 net.cpp:408] pool3 -> pool3
I0112 09:55:07.200222   406 net.cpp:150] Setting up pool3
I0112 09:55:07.200228   406 net.cpp:157] Top shape: 1 256 67 88 (1509376)
I0112 09:55:07.200232   406 net.cpp:165] Memory required for data: 764477152
I0112 09:55:07.200237   406 layer_factory.hpp:77] Creating layer pool3_pool3_0_split
I0112 09:55:07.200244   406 net.cpp:100] Creating Layer pool3_pool3_0_split
I0112 09:55:07.200248   406 net.cpp:434] pool3_pool3_0_split <- pool3
I0112 09:55:07.200254   406 net.cpp:408] pool3_pool3_0_split -> pool3_pool3_0_split_0
I0112 09:55:07.200260   406 net.cpp:408] pool3_pool3_0_split -> pool3_pool3_0_split_1
I0112 09:55:07.200300   406 net.cpp:150] Setting up pool3_pool3_0_split
I0112 09:55:07.200307   406 net.cpp:157] Top shape: 1 256 67 88 (1509376)
I0112 09:55:07.200312   406 net.cpp:157] Top shape: 1 256 67 88 (1509376)
I0112 09:55:07.200316   406 net.cpp:165] Memory required for data: 776552160
I0112 09:55:07.200320   406 layer_factory.hpp:77] Creating layer conv4_1
I0112 09:55:07.200330   406 net.cpp:100] Creating Layer conv4_1
I0112 09:55:07.200335   406 net.cpp:434] conv4_1 <- pool3_pool3_0_split_0
I0112 09:55:07.200342   406 net.cpp:408] conv4_1 -> conv4_1
I0112 09:55:07.209462   406 net.cpp:150] Setting up conv4_1
I0112 09:55:07.209481   406 net.cpp:157] Top shape: 1 512 67 88 (3018752)
I0112 09:55:07.209486   406 net.cpp:165] Memory required for data: 788627168
I0112 09:55:07.209493   406 layer_factory.hpp:77] Creating layer relu4_1
I0112 09:55:07.209502   406 net.cpp:100] Creating Layer relu4_1
I0112 09:55:07.209507   406 net.cpp:434] relu4_1 <- conv4_1
I0112 09:55:07.209522   406 net.cpp:395] relu4_1 -> conv4_1 (in-place)
I0112 09:55:07.209918   406 net.cpp:150] Setting up relu4_1
I0112 09:55:07.209933   406 net.cpp:157] Top shape: 1 512 67 88 (3018752)
I0112 09:55:07.209938   406 net.cpp:165] Memory required for data: 800702176
I0112 09:55:07.209942   406 layer_factory.hpp:77] Creating layer conv4_2
I0112 09:55:07.209954   406 net.cpp:100] Creating Layer conv4_2
I0112 09:55:07.209959   406 net.cpp:434] conv4_2 <- conv4_1
I0112 09:55:07.209966   406 net.cpp:408] conv4_2 -> conv4_2
I0112 09:55:07.227028   406 net.cpp:150] Setting up conv4_2
I0112 09:55:07.227053   406 net.cpp:157] Top shape: 1 512 67 88 (3018752)
I0112 09:55:07.227059   406 net.cpp:165] Memory required for data: 812777184
I0112 09:55:07.227074   406 layer_factory.hpp:77] Creating layer relu4_2
I0112 09:55:07.227083   406 net.cpp:100] Creating Layer relu4_2
I0112 09:55:07.227088   406 net.cpp:434] relu4_2 <- conv4_2
I0112 09:55:07.227095   406 net.cpp:395] relu4_2 -> conv4_2 (in-place)
I0112 09:55:07.227289   406 net.cpp:150] Setting up relu4_2
I0112 09:55:07.227299   406 net.cpp:157] Top shape: 1 512 67 88 (3018752)
I0112 09:55:07.227303   406 net.cpp:165] Memory required for data: 824852192
I0112 09:55:07.227308   406 layer_factory.hpp:77] Creating layer conv4_3
I0112 09:55:07.227319   406 net.cpp:100] Creating Layer conv4_3
I0112 09:55:07.227324   406 net.cpp:434] conv4_3 <- conv4_2
I0112 09:55:07.227332   406 net.cpp:408] conv4_3 -> conv4_3
I0112 09:55:07.244566   406 net.cpp:150] Setting up conv4_3
I0112 09:55:07.244591   406 net.cpp:157] Top shape: 1 512 67 88 (3018752)
I0112 09:55:07.244596   406 net.cpp:165] Memory required for data: 836927200
I0112 09:55:07.244606   406 layer_factory.hpp:77] Creating layer relu4_3
I0112 09:55:07.244616   406 net.cpp:100] Creating Layer relu4_3
I0112 09:55:07.244621   406 net.cpp:434] relu4_3 <- conv4_3
I0112 09:55:07.244628   406 net.cpp:395] relu4_3 -> conv4_3 (in-place)
I0112 09:55:07.244833   406 net.cpp:150] Setting up relu4_3
I0112 09:55:07.244843   406 net.cpp:157] Top shape: 1 512 67 88 (3018752)
I0112 09:55:07.244848   406 net.cpp:165] Memory required for data: 849002208
I0112 09:55:07.244851   406 layer_factory.hpp:77] Creating layer pool4
I0112 09:55:07.244860   406 net.cpp:100] Creating Layer pool4
I0112 09:55:07.244864   406 net.cpp:434] pool4 <- conv4_3
I0112 09:55:07.244871   406 net.cpp:408] pool4 -> pool4
I0112 09:55:07.244926   406 net.cpp:150] Setting up pool4
I0112 09:55:07.244933   406 net.cpp:157] Top shape: 1 512 34 44 (765952)
I0112 09:55:07.244937   406 net.cpp:165] Memory required for data: 852066016
I0112 09:55:07.244941   406 layer_factory.hpp:77] Creating layer pool4_pool4_0_split
I0112 09:55:07.244948   406 net.cpp:100] Creating Layer pool4_pool4_0_split
I0112 09:55:07.244953   406 net.cpp:434] pool4_pool4_0_split <- pool4
I0112 09:55:07.244959   406 net.cpp:408] pool4_pool4_0_split -> pool4_pool4_0_split_0
I0112 09:55:07.244966   406 net.cpp:408] pool4_pool4_0_split -> pool4_pool4_0_split_1
I0112 09:55:07.245007   406 net.cpp:150] Setting up pool4_pool4_0_split
I0112 09:55:07.245014   406 net.cpp:157] Top shape: 1 512 34 44 (765952)
I0112 09:55:07.245019   406 net.cpp:157] Top shape: 1 512 34 44 (765952)
I0112 09:55:07.245023   406 net.cpp:165] Memory required for data: 858193632
I0112 09:55:07.245028   406 layer_factory.hpp:77] Creating layer conv5_1
I0112 09:55:07.245038   406 net.cpp:100] Creating Layer conv5_1
I0112 09:55:07.245043   406 net.cpp:434] conv5_1 <- pool4_pool4_0_split_0
I0112 09:55:07.245050   406 net.cpp:408] conv5_1 -> conv5_1
I0112 09:55:07.262154   406 net.cpp:150] Setting up conv5_1
I0112 09:55:07.262181   406 net.cpp:157] Top shape: 1 512 34 44 (765952)
I0112 09:55:07.262186   406 net.cpp:165] Memory required for data: 861257440
I0112 09:55:07.262194   406 layer_factory.hpp:77] Creating layer relu5_1
I0112 09:55:07.262204   406 net.cpp:100] Creating Layer relu5_1
I0112 09:55:07.262209   406 net.cpp:434] relu5_1 <- conv5_1
I0112 09:55:07.262217   406 net.cpp:395] relu5_1 -> conv5_1 (in-place)
I0112 09:55:07.262595   406 net.cpp:150] Setting up relu5_1
I0112 09:55:07.262609   406 net.cpp:157] Top shape: 1 512 34 44 (765952)
I0112 09:55:07.262614   406 net.cpp:165] Memory required for data: 864321248
I0112 09:55:07.262619   406 layer_factory.hpp:77] Creating layer conv5_2
I0112 09:55:07.262630   406 net.cpp:100] Creating Layer conv5_2
I0112 09:55:07.262635   406 net.cpp:434] conv5_2 <- conv5_1
I0112 09:55:07.262643   406 net.cpp:408] conv5_2 -> conv5_2
I0112 09:55:07.279793   406 net.cpp:150] Setting up conv5_2
I0112 09:55:07.279816   406 net.cpp:157] Top shape: 1 512 34 44 (765952)
I0112 09:55:07.279821   406 net.cpp:165] Memory required for data: 867385056
I0112 09:55:07.279830   406 layer_factory.hpp:77] Creating layer relu5_2
I0112 09:55:07.279839   406 net.cpp:100] Creating Layer relu5_2
I0112 09:55:07.279845   406 net.cpp:434] relu5_2 <- conv5_2
I0112 09:55:07.279852   406 net.cpp:395] relu5_2 -> conv5_2 (in-place)
I0112 09:55:07.280047   406 net.cpp:150] Setting up relu5_2
I0112 09:55:07.280056   406 net.cpp:157] Top shape: 1 512 34 44 (765952)
I0112 09:55:07.280061   406 net.cpp:165] Memory required for data: 870448864
I0112 09:55:07.280066   406 layer_factory.hpp:77] Creating layer conv5_3
I0112 09:55:07.280083   406 net.cpp:100] Creating Layer conv5_3
I0112 09:55:07.280087   406 net.cpp:434] conv5_3 <- conv5_2
I0112 09:55:07.280095   406 net.cpp:408] conv5_3 -> conv5_3
I0112 09:55:07.297166   406 net.cpp:150] Setting up conv5_3
I0112 09:55:07.297191   406 net.cpp:157] Top shape: 1 512 34 44 (765952)
I0112 09:55:07.297196   406 net.cpp:165] Memory required for data: 873512672
I0112 09:55:07.297205   406 layer_factory.hpp:77] Creating layer relu5_3
I0112 09:55:07.297215   406 net.cpp:100] Creating Layer relu5_3
I0112 09:55:07.297220   406 net.cpp:434] relu5_3 <- conv5_3
I0112 09:55:07.297227   406 net.cpp:395] relu5_3 -> conv5_3 (in-place)
I0112 09:55:07.297420   406 net.cpp:150] Setting up relu5_3
I0112 09:55:07.297430   406 net.cpp:157] Top shape: 1 512 34 44 (765952)
I0112 09:55:07.297435   406 net.cpp:165] Memory required for data: 876576480
I0112 09:55:07.297438   406 layer_factory.hpp:77] Creating layer pool5
I0112 09:55:07.297447   406 net.cpp:100] Creating Layer pool5
I0112 09:55:07.297451   406 net.cpp:434] pool5 <- conv5_3
I0112 09:55:07.297458   406 net.cpp:408] pool5 -> pool5
I0112 09:55:07.297514   406 net.cpp:150] Setting up pool5
I0112 09:55:07.297521   406 net.cpp:157] Top shape: 1 512 17 22 (191488)
I0112 09:55:07.297525   406 net.cpp:165] Memory required for data: 877342432
I0112 09:55:07.297529   406 layer_factory.hpp:77] Creating layer fc6
I0112 09:55:07.297541   406 net.cpp:100] Creating Layer fc6
I0112 09:55:07.297545   406 net.cpp:434] fc6 <- pool5
I0112 09:55:07.297552   406 net.cpp:408] fc6 -> fc6
I0112 09:55:08.012717   406 net.cpp:150] Setting up fc6
I0112 09:55:08.012766   406 net.cpp:157] Top shape: 1 4096 11 16 (720896)
I0112 09:55:08.012771   406 net.cpp:165] Memory required for data: 880226016
I0112 09:55:08.012784   406 layer_factory.hpp:77] Creating layer relu6
I0112 09:55:08.012795   406 net.cpp:100] Creating Layer relu6
I0112 09:55:08.012802   406 net.cpp:434] relu6 <- fc6
I0112 09:55:08.012811   406 net.cpp:395] relu6 -> fc6 (in-place)
I0112 09:55:08.013196   406 net.cpp:150] Setting up relu6
I0112 09:55:08.013211   406 net.cpp:157] Top shape: 1 4096 11 16 (720896)
I0112 09:55:08.013216   406 net.cpp:165] Memory required for data: 883109600
I0112 09:55:08.013219   406 layer_factory.hpp:77] Creating layer drop6
I0112 09:55:08.013229   406 net.cpp:100] Creating Layer drop6
I0112 09:55:08.013233   406 net.cpp:434] drop6 <- fc6
I0112 09:55:08.013240   406 net.cpp:395] drop6 -> fc6 (in-place)
I0112 09:55:08.013281   406 net.cpp:150] Setting up drop6
I0112 09:55:08.013288   406 net.cpp:157] Top shape: 1 4096 11 16 (720896)
I0112 09:55:08.013293   406 net.cpp:165] Memory required for data: 885993184
I0112 09:55:08.013296   406 layer_factory.hpp:77] Creating layer fc7
I0112 09:55:08.013309   406 net.cpp:100] Creating Layer fc7
I0112 09:55:08.013312   406 net.cpp:434] fc7 <- fc6
I0112 09:55:08.013337   406 net.cpp:408] fc7 -> fc7
I0112 09:55:08.131163   406 net.cpp:150] Setting up fc7
I0112 09:55:08.131212   406 net.cpp:157] Top shape: 1 4096 11 16 (720896)
I0112 09:55:08.131218   406 net.cpp:165] Memory required for data: 888876768
I0112 09:55:08.131228   406 layer_factory.hpp:77] Creating layer relu7
I0112 09:55:08.131242   406 net.cpp:100] Creating Layer relu7
I0112 09:55:08.131248   406 net.cpp:434] relu7 <- fc7
I0112 09:55:08.131256   406 net.cpp:395] relu7 -> fc7 (in-place)
I0112 09:55:08.131453   406 net.cpp:150] Setting up relu7
I0112 09:55:08.131463   406 net.cpp:157] Top shape: 1 4096 11 16 (720896)
I0112 09:55:08.131466   406 net.cpp:165] Memory required for data: 891760352
I0112 09:55:08.131471   406 layer_factory.hpp:77] Creating layer drop7
I0112 09:55:08.131479   406 net.cpp:100] Creating Layer drop7
I0112 09:55:08.131484   406 net.cpp:434] drop7 <- fc7
I0112 09:55:08.131490   406 net.cpp:395] drop7 -> fc7 (in-place)
I0112 09:55:08.131531   406 net.cpp:150] Setting up drop7
I0112 09:55:08.131537   406 net.cpp:157] Top shape: 1 4096 11 16 (720896)
I0112 09:55:08.131541   406 net.cpp:165] Memory required for data: 894643936
I0112 09:55:08.131546   406 layer_factory.hpp:77] Creating layer score_fr
I0112 09:55:08.131556   406 net.cpp:100] Creating Layer score_fr
I0112 09:55:08.131561   406 net.cpp:434] score_fr <- fc7
I0112 09:55:08.131568   406 net.cpp:408] score_fr -> score_fr
I0112 09:55:08.133806   406 net.cpp:150] Setting up score_fr
I0112 09:55:08.133822   406 net.cpp:157] Top shape: 1 6 11 16 (1056)
I0112 09:55:08.133827   406 net.cpp:165] Memory required for data: 894648160
I0112 09:55:08.133836   406 layer_factory.hpp:77] Creating layer upscore2
I0112 09:55:08.133847   406 net.cpp:100] Creating Layer upscore2
I0112 09:55:08.133852   406 net.cpp:434] upscore2 <- score_fr
I0112 09:55:08.133859   406 net.cpp:408] upscore2 -> upscore2
I0112 09:55:08.134116   406 net.cpp:150] Setting up upscore2
I0112 09:55:08.134125   406 net.cpp:157] Top shape: 1 6 24 34 (4896)
I0112 09:55:08.134130   406 net.cpp:165] Memory required for data: 894667744
I0112 09:55:08.134143   406 layer_factory.hpp:77] Creating layer upscore2_upscore2_0_split
I0112 09:55:08.134151   406 net.cpp:100] Creating Layer upscore2_upscore2_0_split
I0112 09:55:08.134156   406 net.cpp:434] upscore2_upscore2_0_split <- upscore2
I0112 09:55:08.134163   406 net.cpp:408] upscore2_upscore2_0_split -> upscore2_upscore2_0_split_0
I0112 09:55:08.134171   406 net.cpp:408] upscore2_upscore2_0_split -> upscore2_upscore2_0_split_1
I0112 09:55:08.134215   406 net.cpp:150] Setting up upscore2_upscore2_0_split
I0112 09:55:08.134222   406 net.cpp:157] Top shape: 1 6 24 34 (4896)
I0112 09:55:08.134227   406 net.cpp:157] Top shape: 1 6 24 34 (4896)
I0112 09:55:08.134232   406 net.cpp:165] Memory required for data: 894706912
I0112 09:55:08.134235   406 layer_factory.hpp:77] Creating layer scale_pool4
I0112 09:55:08.134245   406 net.cpp:100] Creating Layer scale_pool4
I0112 09:55:08.134249   406 net.cpp:434] scale_pool4 <- pool4_pool4_0_split_1
I0112 09:55:08.134258   406 net.cpp:408] scale_pool4 -> scale_pool4
I0112 09:55:08.134382   406 net.cpp:150] Setting up scale_pool4
I0112 09:55:08.134389   406 net.cpp:157] Top shape: 1 512 34 44 (765952)
I0112 09:55:08.134394   406 net.cpp:165] Memory required for data: 897770720
I0112 09:55:08.134399   406 layer_factory.hpp:77] Creating layer score_pool4
I0112 09:55:08.134409   406 net.cpp:100] Creating Layer score_pool4
I0112 09:55:08.134414   406 net.cpp:434] score_pool4 <- scale_pool4
I0112 09:55:08.134423   406 net.cpp:408] score_pool4 -> score_pool4
I0112 09:55:08.135731   406 net.cpp:150] Setting up score_pool4
I0112 09:55:08.135746   406 net.cpp:157] Top shape: 1 6 34 44 (8976)
I0112 09:55:08.135751   406 net.cpp:165] Memory required for data: 897806624
I0112 09:55:08.135758   406 layer_factory.hpp:77] Creating layer score_pool4c
I0112 09:55:08.135767   406 net.cpp:100] Creating Layer score_pool4c
I0112 09:55:08.135773   406 net.cpp:434] score_pool4c <- score_pool4
I0112 09:55:08.135790   406 net.cpp:434] score_pool4c <- upscore2_upscore2_0_split_0
I0112 09:55:08.135798   406 net.cpp:408] score_pool4c -> score_pool4c
I0112 09:55:08.135835   406 net.cpp:150] Setting up score_pool4c
I0112 09:55:08.135843   406 net.cpp:157] Top shape: 1 6 24 34 (4896)
I0112 09:55:08.135846   406 net.cpp:165] Memory required for data: 897826208
I0112 09:55:08.135850   406 layer_factory.hpp:77] Creating layer fuse_pool4
I0112 09:55:08.135859   406 net.cpp:100] Creating Layer fuse_pool4
I0112 09:55:08.135864   406 net.cpp:434] fuse_pool4 <- upscore2_upscore2_0_split_1
I0112 09:55:08.135869   406 net.cpp:434] fuse_pool4 <- score_pool4c
I0112 09:55:08.135874   406 net.cpp:408] fuse_pool4 -> fuse_pool4
I0112 09:55:08.135905   406 net.cpp:150] Setting up fuse_pool4
I0112 09:55:08.135911   406 net.cpp:157] Top shape: 1 6 24 34 (4896)
I0112 09:55:08.135915   406 net.cpp:165] Memory required for data: 897845792
I0112 09:55:08.135920   406 layer_factory.hpp:77] Creating layer upscore_pool4
I0112 09:55:08.135928   406 net.cpp:100] Creating Layer upscore_pool4
I0112 09:55:08.135932   406 net.cpp:434] upscore_pool4 <- fuse_pool4
I0112 09:55:08.135939   406 net.cpp:408] upscore_pool4 -> upscore_pool4
I0112 09:55:08.136179   406 net.cpp:150] Setting up upscore_pool4
I0112 09:55:08.136188   406 net.cpp:157] Top shape: 1 6 50 70 (21000)
I0112 09:55:08.136191   406 net.cpp:165] Memory required for data: 897929792
I0112 09:55:08.136196   406 layer_factory.hpp:77] Creating layer upscore_pool4_upscore_pool4_0_split
I0112 09:55:08.136204   406 net.cpp:100] Creating Layer upscore_pool4_upscore_pool4_0_split
I0112 09:55:08.136209   406 net.cpp:434] upscore_pool4_upscore_pool4_0_split <- upscore_pool4
I0112 09:55:08.136214   406 net.cpp:408] upscore_pool4_upscore_pool4_0_split -> upscore_pool4_upscore_pool4_0_split_0
I0112 09:55:08.136221   406 net.cpp:408] upscore_pool4_upscore_pool4_0_split -> upscore_pool4_upscore_pool4_0_split_1
I0112 09:55:08.136265   406 net.cpp:150] Setting up upscore_pool4_upscore_pool4_0_split
I0112 09:55:08.136270   406 net.cpp:157] Top shape: 1 6 50 70 (21000)
I0112 09:55:08.136276   406 net.cpp:157] Top shape: 1 6 50 70 (21000)
I0112 09:55:08.136279   406 net.cpp:165] Memory required for data: 898097792
I0112 09:55:08.136284   406 layer_factory.hpp:77] Creating layer scale_pool3
I0112 09:55:08.136291   406 net.cpp:100] Creating Layer scale_pool3
I0112 09:55:08.136296   406 net.cpp:434] scale_pool3 <- pool3_pool3_0_split_1
I0112 09:55:08.136302   406 net.cpp:408] scale_pool3 -> scale_pool3
I0112 09:55:08.136420   406 net.cpp:150] Setting up scale_pool3
I0112 09:55:08.136427   406 net.cpp:157] Top shape: 1 256 67 88 (1509376)
I0112 09:55:08.136430   406 net.cpp:165] Memory required for data: 904135296
I0112 09:55:08.136436   406 layer_factory.hpp:77] Creating layer score_pool3
I0112 09:55:08.136446   406 net.cpp:100] Creating Layer score_pool3
I0112 09:55:08.136451   406 net.cpp:434] score_pool3 <- scale_pool3
I0112 09:55:08.136457   406 net.cpp:408] score_pool3 -> score_pool3
I0112 09:55:08.137749   406 net.cpp:150] Setting up score_pool3
I0112 09:55:08.137765   406 net.cpp:157] Top shape: 1 6 67 88 (35376)
I0112 09:55:08.137770   406 net.cpp:165] Memory required for data: 904276800
I0112 09:55:08.137778   406 layer_factory.hpp:77] Creating layer score_pool3c
I0112 09:55:08.137786   406 net.cpp:100] Creating Layer score_pool3c
I0112 09:55:08.137791   406 net.cpp:434] score_pool3c <- score_pool3
I0112 09:55:08.137797   406 net.cpp:434] score_pool3c <- upscore_pool4_upscore_pool4_0_split_0
I0112 09:55:08.137804   406 net.cpp:408] score_pool3c -> score_pool3c
I0112 09:55:08.137840   406 net.cpp:150] Setting up score_pool3c
I0112 09:55:08.137847   406 net.cpp:157] Top shape: 1 6 50 70 (21000)
I0112 09:55:08.137851   406 net.cpp:165] Memory required for data: 904360800
I0112 09:55:08.137856   406 layer_factory.hpp:77] Creating layer fuse_pool3
I0112 09:55:08.137863   406 net.cpp:100] Creating Layer fuse_pool3
I0112 09:55:08.137867   406 net.cpp:434] fuse_pool3 <- upscore_pool4_upscore_pool4_0_split_1
I0112 09:55:08.137877   406 net.cpp:434] fuse_pool3 <- score_pool3c
I0112 09:55:08.137886   406 net.cpp:408] fuse_pool3 -> fuse_pool3
I0112 09:55:08.137917   406 net.cpp:150] Setting up fuse_pool3
I0112 09:55:08.137923   406 net.cpp:157] Top shape: 1 6 50 70 (21000)
I0112 09:55:08.137926   406 net.cpp:165] Memory required for data: 904444800
I0112 09:55:08.137930   406 layer_factory.hpp:77] Creating layer upscore8
I0112 09:55:08.137939   406 net.cpp:100] Creating Layer upscore8
I0112 09:55:08.137944   406 net.cpp:434] upscore8 <- fuse_pool3
I0112 09:55:08.137950   406 net.cpp:408] upscore8 -> upscore8
I0112 09:55:08.138248   406 net.cpp:150] Setting up upscore8
I0112 09:55:08.138257   406 net.cpp:157] Top shape: 1 6 408 568 (1390464)
I0112 09:55:08.138260   406 net.cpp:165] Memory required for data: 910006656
I0112 09:55:08.138265   406 layer_factory.hpp:77] Creating layer score
I0112 09:55:08.138273   406 net.cpp:100] Creating Layer score
I0112 09:55:08.138276   406 net.cpp:434] score <- upscore8
I0112 09:55:08.138283   406 net.cpp:434] score <- data_data_0_split_1
I0112 09:55:08.138288   406 net.cpp:408] score -> score
I0112 09:55:08.138317   406 net.cpp:150] Setting up score
I0112 09:55:08.138324   406 net.cpp:157] Top shape: 1 6 335 500 (1005000)
I0112 09:55:08.138327   406 net.cpp:165] Memory required for data: 914026656
I0112 09:55:08.138331   406 layer_factory.hpp:77] Creating layer loss
I0112 09:55:08.138340   406 net.cpp:100] Creating Layer loss
I0112 09:55:08.138345   406 net.cpp:434] loss <- score
I0112 09:55:08.138350   406 net.cpp:434] loss <- label
I0112 09:55:08.138355   406 net.cpp:408] loss -> loss
I0112 09:55:08.138365   406 layer_factory.hpp:77] Creating layer loss
…
