…
snapshot_prefix: "snapshot/train"
test_initialization: false
average_loss: 20
iter_size: 1
I1126 06:01:56.665426 29814 solver.cpp:81] Creating training net from train_net file: train.prototxt
I1126 06:01:56.666733 29814 net.cpp:58] Initializing net from parameters: 
state {
  phase: TRAIN
}
layer {
  name: "data"
  type: "Python"
  top: "data"
  top: "label"
  python_param {
    module: "voc_layers"
    layer: "SBDDSegDataLayer"
    param_str: "{\'sbdd_dir\': \'../data/sbdd/dataset\', \'seed\': 1337, \'split\': \'train15\', \'mean\': (104.00699, 116.66877, 122.67892)}"
  }
}
layer {
  name: "conv1_1"
  type: "Convolution"
  bottom: "data"
  top: "conv1_1"
  param {
    lr_mult: 1
    decay_mult: 1
  }
  param {
    lr_mult: 2
    decay_mult: 0
  }
  convolution_param {
    num_output: 64
    pad: 100
    kernel_size: 3
    stride: 1
    weight_filler {
      type: "xavier"
    }
  }
}
layer {
  name: "relu1_1"
  type: "ReLU"
  bottom: "conv1_1"
  top: "conv1_1"
}
layer {
  name: "conv1_2"
  type: "Convolution"
  bottom: "conv1_1"
  top: "conv1_2"
  param {
    lr_mult: 1
    decay_mult: 1
  }
  param {
    lr_mult: 2
    decay_mult: 0
  }
  convolution_param {
    num_output: 64
    pad: 1
    kernel_size: 3
    stride: 1
    weight_filler {
      type: "xavier"
    }
  }
}
layer {
  name: "relu1_2"
  type: "ReLU"
  bottom: "conv1_2"
  top: "conv1_2"
}
layer {
  name: "pool1"
  type: "Pooling"
  bottom: "conv1_2"
  top: "pool1"
  pooling_param {
    pool: MAX
    kernel_size: 2
    stride: 2
  }
}
layer {
  name: "conv2_1"
  type: "Convolution"
  bottom: "pool1"
  top: "conv2_1"
  param {
    lr_mult: 1
    decay_mult: 1
  }
  param {
    lr_mult: 2
    decay_mult: 0
  }
  convolution_param {
    num_output: 128
    pad: 1
    kernel_size: 3
    stride: 1
    weight_filler {
      type: "xavier"
    }
  }
}
layer {
  name: "relu2_1"
  type: "ReLU"
  bottom: "conv2_1"
  top: "conv2_1"
}
layer {
  name: "conv2_2"
  type: "Convolution"
  bottom: "conv2_1"
  top: "conv2_2"
  param {
    lr_mult: 1
    decay_mult: 1
  }
  param {
    lr_mult: 2
    decay_mult: 0
  }
  convolution_param {
    num_output: 128
    pad: 1
    kernel_size: 3
    stride: 1
    weight_filler {
      type: "xavier"
    }
  }
}
layer {
  name: "relu2_2"
  type: "ReLU"
  bottom: "conv2_2"
  top: "conv2_2"
}
layer {
  name: "pool2"
  type: "Pooling"
  bottom: "conv2_2"
  top: "pool2"
  pooling_param {
    pool: MAX
    kernel_size: 2
    stride: 2
  }
}
layer {
  name: "conv3_1"
  type: "Convolution"
  bottom: "pool2"
  top: "conv3_1"
  param {
    lr_mult: 1
    decay_mult: 1
  }
  param {
    lr_mult: 2
    decay_mult: 0
  }
  convolution_param {
    num_output: 256
    pad: 1
    kernel_size: 3
    stride: 1
    weight_filler {
      type: "xavier"
    }
  }
}
layer {
  name: "relu3_1"
  type: "ReLU"
  bottom: "conv3_1"
  top: "conv3_1"
}
layer {
  name: "conv3_2"
  type: "Convolution"
  bottom: "conv3_1"
  top: "conv3_2"
  param {
    lr_mult: 1
    decay_mult: 1
  }
  param {
    lr_mult: 2
    decay_mult: 0
  }
  convolution_param {
    num_output: 256
    pad: 1
    kernel_size: 3
    stride: 1
    weight_filler {
      type: "xavier"
    }
  }
}
layer {
  name: "relu3_2"
  type: "ReLU"
  bottom: "conv3_2"
  top: "conv3_2"
}
layer {
  name: "conv3_3"
  type: "Convolution"
  bottom: "conv3_2"
  top: "conv3_3"
  param {
    lr_mult: 1
    decay_mult: 1
  }
  param {
    lr_mult: 2
    decay_mult: 0
  }
  convolution_param {
    num_output: 256
    pad: 1
    kernel_size: 3
    stride: 1
    weight_filler {
      type: "xavier"
    }
  }
}
layer {
  name: "relu3_3"
  type: "ReLU"
  bottom: "conv3_3"
  top: "conv3_3"
}
layer {
  name: "pool3"
  type: "Pooling"
  bottom: "conv3_3"
  top: "pool3"
  pooling_param {
    pool: MAX
    kernel_size: 2
    stride: 2
  }
}
layer {
  name: "conv4_1"
  type: "Convolution"
  bottom: "pool3"
  top: "conv4_1"
  param {
    lr_mult: 1
    decay_mult: 1
  }
  param {
    lr_mult: 2
    decay_mult: 0
  }
  convolution_param {
    num_output: 512
    pad: 1
    kernel_size: 3
    stride: 1
    weight_filler {
      type: "xavier"
    }
  }
}
layer {
  name: "relu4_1"
  type: "ReLU"
  bottom: "conv4_1"
  top: "conv4_1"
}
layer {
  name: "conv4_2"
  type: "Convolution"
  bottom: "conv4_1"
  top: "conv4_2"
  param {
    lr_mult: 1
    decay_mult: 1
  }
  param {
    lr_mult: 2
    decay_mult: 0
  }
  convolution_param {
    num_output: 512
    pad: 1
    kernel_size: 3
    stride: 1
    weight_filler {
      type: "xavier"
    }
  }
}
layer {
  name: "relu4_2"
  type: "ReLU"
  bottom: "conv4_2"
  top: "conv4_2"
}
layer {
  name: "conv4_3"
  type: "Convolution"
  bottom: "conv4_2"
  top: "conv4_3"
  param {
    lr_mult: 1
    decay_mult: 1
  }
  param {
    lr_mult: 2
    decay_mult: 0
  }
  convolution_param {
    num_output: 512
    pad: 1
    kernel_size: 3
    stride: 1
    weight_filler {
      type: "xavier"
    }
  }
}
layer {
  name: "relu4_3"
  type: "ReLU"
  bottom: "conv4_3"
  top: "conv4_3"
}
layer {
  name: "pool4"
  type: "Pooling"
  bottom: "conv4_3"
  top: "pool4"
  pooling_param {
    pool: MAX
    kernel_size: 2
    stride: 2
  }
}
layer {
  name: "conv5_1"
  type: "Convolution"
  bottom: "pool4"
  top: "conv5_1"
  param {
    lr_mult: 1
    decay_mult: 1
  }
  param {
    lr_mult: 2
    decay_mult: 0
  }
  convolution_param {
    num_output: 512
    pad: 1
    kernel_size: 3
    stride: 1
    weight_filler {
      type: "xavier"
    }
  }
}
layer {
  name: "relu5_1"
  type: "ReLU"
  bottom: "conv5_1"
  top: "conv5_1"
}
layer {
  name: "conv5_2"
  type: "Convolution"
  bottom: "conv5_1"
  top: "conv5_2"
  param {
    lr_mult: 1
    decay_mult: 1
  }
  param {
    lr_mult: 2
    decay_mult: 0
  }
  convolution_param {
    num_output: 512
    pad: 1
    kernel_size: 3
    stride: 1
    weight_filler {
      type: "xavier"
    }
  }
}
layer {
  name: "relu5_2"
  type: "ReLU"
  bottom: "conv5_2"
  top: "conv5_2"
}
layer {
  name: "conv5_3"
  type: "Convolution"
  bottom: "conv5_2"
  top: "conv5_3"
  param {
    lr_mult: 1
    decay_mult: 1
  }
  param {
    lr_mult: 2
    decay_mult: 0
  }
  convolution_param {
    num_output: 512
    pad: 1
    kernel_size: 3
    stride: 1
    weight_filler {
      type: "xavier"
    }
  }
}
layer {
  name: "relu5_3"
  type: "ReLU"
  bottom: "conv5_3"
  top: "conv5_3"
}
layer {
  name: "pool5"
  type: "Pooling"
  bottom: "conv5_3"
  top: "pool5"
  pooling_param {
    pool: MAX
    kernel_size: 2
    stride: 2
  }
}
layer {
  name: "fc6"
  type: "Convolution"
  bottom: "pool5"
  top: "fc6"
  param {
    lr_mult: 1
    decay_mult: 1
  }
  param {
    lr_mult: 2
    decay_mult: 0
  }
  convolution_param {
    num_output: 4096
    pad: 0
    kernel_size: 7
    stride: 1
    weight_filler {
      type: "xavier"
    }
  }
}
layer {
  name: "relu6"
  type: "ReLU"
  bottom: "fc6"
  top: "fc6"
}
layer {
  name: "drop6"
  type: "Dropout"
  bottom: "fc6"
  top: "fc6"
  dropout_param {
    dropout_ratio: 0.5
  }
}
layer {
  name: "fc7"
  type: "Convolution"
  bottom: "fc6"
  top: "fc7"
  param {
    lr_mult: 1
    decay_mult: 1
  }
  param {
    lr_mult: 2
    decay_mult: 0
  }
  convolution_param {
    num_output: 4096
    pad: 0
    kernel_size: 1
    stride: 1
    weight_filler {
      type: "xavier"
    }
  }
}
layer {
  name: "relu7"
  type: "ReLU"
  bottom: "fc7"
  top: "fc7"
}
layer {
  name: "drop7"
  type: "Dropout"
  bottom: "fc7"
  top: "fc7"
  dropout_param {
    dropout_ratio: 0.5
  }
}
layer {
  name: "score_fr"
  type: "Convolution"
  bottom: "fc7"
  top: "score_fr"
  param {
    lr_mult: 1
    decay_mult: 1
  }
  param {
    lr_mult: 2
    decay_mult: 0
  }
  convolution_param {
    num_output: 16
    pad: 0
    kernel_size: 1
    weight_filler {
      type: "xavier"
    }
  }
}
layer {
  name: "upscore2"
  type: "Deconvolution"
  bottom: "score_fr"
  top: "upscore2"
  param {
    lr_mult: 0
  }
  convolution_param {
    num_output: 16
    bias_term: false
    kernel_size: 4
    stride: 2
    weight_filler {
      type: "xavier"
    }
  }
}
layer {
  name: "scale_pool4"
  type: "Scale"
  bottom: "pool4"
  top: "scale_pool4"
  param {
    lr_mult: 0
  }
  scale_param {
    filler {
      type: "constant"
      value: 0.01
    }
  }
}
layer {
  name: "score_pool4"
  type: "Convolution"
  bottom: "scale_pool4"
  top: "score_pool4"
  param {
    lr_mult: 1
    decay_mult: 1
  }
  param {
    lr_mult: 2
    decay_mult: 0
  }
  convolution_param {
    num_output: 16
    pad: 0
    kernel_size: 1
    weight_filler {
      type: "xavier"
    }
  }
}
layer {
  name: "score_pool4c"
  type: "Crop"
  bottom: "score_pool4"
  bottom: "upscore2"
  top: "score_pool4c"
  crop_param {
    axis: 2
    offset: 5
  }
}
layer {
  name: "fuse_pool4"
  type: "Eltwise"
  bottom: "upscore2"
  bottom: "score_pool4c"
  top: "fuse_pool4"
  eltwise_param {
    operation: SUM
  }
}
layer {
  name: "upscore_pool4"
  type: "Deconvolution"
  bottom: "fuse_pool4"
  top: "upscore_pool4"
  param {
    lr_mult: 0
  }
  convolution_param {
    num_output: 16
    bias_term: false
    kernel_size: 4
    stride: 2
    weight_filler {
      type: "xavier"
    }
  }
}
layer {
  name: "scale_pool3"
  type: "Scale"
  bottom: "pool3"
  top: "scale_pool3"
  param {
    lr_mult: 0
  }
  scale_param {
    filler {
      type: "constant"
      value: 0.0001
    }
  }
}
layer {
  name: "score_pool3"
  type: "Convolution"
  bottom: "scale_pool3"
  top: "score_pool3"
  param {
    lr_mult: 1
    decay_mult: 1
  }
  param {
    lr_mult: 2
    decay_mult: 0
  }
  convolution_param {
    num_output: 16
    pad: 0
    kernel_size: 1
    weight_filler {
      type: "xavier"
    }
  }
}
layer {
  name: "score_pool3c"
  type: "Crop"
  bottom: "score_pool3"
  bottom: "upscore_pool4"
  top: "score_pool3c"
  crop_param {
    axis: 2
    offset: 9
  }
}
layer {
  name: "fuse_pool3"
  type: "Eltwise"
  bottom: "upscore_pool4"
  bottom: "score_pool3c"
  top: "fuse_pool3"
  eltwise_param {
    operation: SUM
  }
}
layer {
  name: "upscore8"
  type: "Deconvolution"
  bottom: "fuse_pool3"
  top: "upscore8"
  param {
    lr_mult: 0
  }
  convolution_param {
    num_output: 16
    bias_term: false
    kernel_size: 16
    stride: 8
    weight_filler {
      type: "xavier"
    }
  }
}
layer {
  name: "score"
  type: "Crop"
  bottom: "upscore8"
  bottom: "data"
  top: "score"
  crop_param {
    axis: 2
    offset: 31
  }
}
layer {
  name: "loss"
  type: "SoftmaxWithLoss"
  bottom: "score"
  bottom: "label"
  top: "loss"
  loss_param {
    ignore_label: 255
    normalize: false
  }
}
I1126 06:01:56.666980 29814 layer_factory.hpp:77] Creating layer data
I1126 06:01:56.667390 29814 net.cpp:100] Creating Layer data
I1126 06:01:56.667407 29814 net.cpp:408] data -> data
I1126 06:01:56.667423 29814 net.cpp:408] data -> label
I1126 06:01:56.700158 29814 net.cpp:150] Setting up data
I1126 06:01:56.700206 29814 net.cpp:157] Top shape: 1 3 500 333 (499500)
I1126 06:01:56.700213 29814 net.cpp:157] Top shape: 1 1 500 333 (166500)
I1126 06:01:56.700218 29814 net.cpp:165] Memory required for data: 2664000
I1126 06:01:56.700227 29814 layer_factory.hpp:77] Creating layer data_data_0_split
I1126 06:01:56.700242 29814 net.cpp:100] Creating Layer data_data_0_split
I1126 06:01:56.700248 29814 net.cpp:434] data_data_0_split <- data
I1126 06:01:56.700259 29814 net.cpp:408] data_data_0_split -> data_data_0_split_0
I1126 06:01:56.700273 29814 net.cpp:408] data_data_0_split -> data_data_0_split_1
I1126 06:01:56.700309 29814 net.cpp:150] Setting up data_data_0_split
I1126 06:01:56.700320 29814 net.cpp:157] Top shape: 1 3 500 333 (499500)
I1126 06:01:56.700325 29814 net.cpp:157] Top shape: 1 3 500 333 (499500)
I1126 06:01:56.700330 29814 net.cpp:165] Memory required for data: 6660000
I1126 06:01:56.700333 29814 layer_factory.hpp:77] Creating layer conv1_1
I1126 06:01:56.700356 29814 net.cpp:100] Creating Layer conv1_1
I1126 06:01:56.700361 29814 net.cpp:434] conv1_1 <- data_data_0_split_0
I1126 06:01:56.700377 29814 net.cpp:408] conv1_1 -> conv1_1
I1126 06:01:56.884464 29814 net.cpp:150] Setting up conv1_1
I1126 06:01:56.884543 29814 net.cpp:157] Top shape: 1 64 698 531 (23720832)
I1126 06:01:56.884549 29814 net.cpp:165] Memory required for data: 101543328
I1126 06:01:56.884575 29814 layer_factory.hpp:77] Creating layer relu1_1
I1126 06:01:56.884631 29814 net.cpp:100] Creating Layer relu1_1
I1126 06:01:56.884640 29814 net.cpp:434] relu1_1 <- conv1_1
I1126 06:01:56.884647 29814 net.cpp:395] relu1_1 -> conv1_1 (in-place)
I1126 06:01:56.884995 29814 net.cpp:150] Setting up relu1_1
I1126 06:01:56.885010 29814 net.cpp:157] Top shape: 1 64 698 531 (23720832)
I1126 06:01:56.885015 29814 net.cpp:165] Memory required for data: 196426656
I1126 06:01:56.885020 29814 layer_factory.hpp:77] Creating layer conv1_2
I1126 06:01:56.885046 29814 net.cpp:100] Creating Layer conv1_2
I1126 06:01:56.885052 29814 net.cpp:434] conv1_2 <- conv1_1
I1126 06:01:56.885061 29814 net.cpp:408] conv1_2 -> conv1_2
I1126 06:01:56.887763 29814 net.cpp:150] Setting up conv1_2
I1126 06:01:56.887783 29814 net.cpp:157] Top shape: 1 64 698 531 (23720832)
I1126 06:01:56.887787 29814 net.cpp:165] Memory required for data: 291309984
I1126 06:01:56.887800 29814 layer_factory.hpp:77] Creating layer relu1_2
I1126 06:01:56.887810 29814 net.cpp:100] Creating Layer relu1_2
I1126 06:01:56.887814 29814 net.cpp:434] relu1_2 <- conv1_2
I1126 06:01:56.887821 29814 net.cpp:395] relu1_2 -> conv1_2 (in-place)
I1126 06:01:56.888180 29814 net.cpp:150] Setting up relu1_2
I1126 06:01:56.888195 29814 net.cpp:157] Top shape: 1 64 698 531 (23720832)
I1126 06:01:56.888198 29814 net.cpp:165] Memory required for data: 386193312
I1126 06:01:56.888203 29814 layer_factory.hpp:77] Creating layer pool1
I1126 06:01:56.888218 29814 net.cpp:100] Creating Layer pool1
I1126 06:01:56.888223 29814 net.cpp:434] pool1 <- conv1_2
I1126 06:01:56.888231 29814 net.cpp:408] pool1 -> pool1
I1126 06:01:56.888279 29814 net.cpp:150] Setting up pool1
I1126 06:01:56.888288 29814 net.cpp:157] Top shape: 1 64 349 266 (5941376)
I1126 06:01:56.888291 29814 net.cpp:165] Memory required for data: 409958816
I1126 06:01:56.888295 29814 layer_factory.hpp:77] Creating layer conv2_1
I1126 06:01:56.888306 29814 net.cpp:100] Creating Layer conv2_1
I1126 06:01:56.888311 29814 net.cpp:434] conv2_1 <- pool1
I1126 06:01:56.888319 29814 net.cpp:408] conv2_1 -> conv2_1
I1126 06:01:56.890622 29814 net.cpp:150] Setting up conv2_1
I1126 06:01:56.890638 29814 net.cpp:157] Top shape: 1 128 349 266 (11882752)
I1126 06:01:56.890643 29814 net.cpp:165] Memory required for data: 457489824
I1126 06:01:56.890655 29814 layer_factory.hpp:77] Creating layer relu2_1
I1126 06:01:56.890664 29814 net.cpp:100] Creating Layer relu2_1
I1126 06:01:56.890669 29814 net.cpp:434] relu2_1 <- conv2_1
I1126 06:01:56.890677 29814 net.cpp:395] relu2_1 -> conv2_1 (in-place)
I1126 06:01:56.890875 29814 net.cpp:150] Setting up relu2_1
I1126 06:01:56.890887 29814 net.cpp:157] Top shape: 1 128 349 266 (11882752)
I1126 06:01:56.890890 29814 net.cpp:165] Memory required for data: 505020832
I1126 06:01:56.890895 29814 layer_factory.hpp:77] Creating layer conv2_2
I1126 06:01:56.890909 29814 net.cpp:100] Creating Layer conv2_2
I1126 06:01:56.890914 29814 net.cpp:434] conv2_2 <- conv2_1
I1126 06:01:56.890923 29814 net.cpp:408] conv2_2 -> conv2_2
I1126 06:01:56.893431 29814 net.cpp:150] Setting up conv2_2
I1126 06:01:56.893450 29814 net.cpp:157] Top shape: 1 128 349 266 (11882752)
I1126 06:01:56.893455 29814 net.cpp:165] Memory required for data: 552551840
I1126 06:01:56.893463 29814 layer_factory.hpp:77] Creating layer relu2_2
I1126 06:01:56.893472 29814 net.cpp:100] Creating Layer relu2_2
I1126 06:01:56.893477 29814 net.cpp:434] relu2_2 <- conv2_2
I1126 06:01:56.893484 29814 net.cpp:395] relu2_2 -> conv2_2 (in-place)
I1126 06:01:56.893844 29814 net.cpp:150] Setting up relu2_2
I1126 06:01:56.893857 29814 net.cpp:157] Top shape: 1 128 349 266 (11882752)
I1126 06:01:56.893862 29814 net.cpp:165] Memory required for data: 600082848
I1126 06:01:56.893877 29814 layer_factory.hpp:77] Creating layer pool2
I1126 06:01:56.893888 29814 net.cpp:100] Creating Layer pool2
I1126 06:01:56.893893 29814 net.cpp:434] pool2 <- conv2_2
I1126 06:01:56.893900 29814 net.cpp:408] pool2 -> pool2
I1126 06:01:56.893947 29814 net.cpp:150] Setting up pool2
I1126 06:01:56.893955 29814 net.cpp:157] Top shape: 1 128 175 133 (2979200)
I1126 06:01:56.893959 29814 net.cpp:165] Memory required for data: 611999648
I1126 06:01:56.893964 29814 layer_factory.hpp:77] Creating layer conv3_1
I1126 06:01:56.893975 29814 net.cpp:100] Creating Layer conv3_1
I1126 06:01:56.893980 29814 net.cpp:434] conv3_1 <- pool2
I1126 06:01:56.893987 29814 net.cpp:408] conv3_1 -> conv3_1
I1126 06:01:56.897089 29814 net.cpp:150] Setting up conv3_1
I1126 06:01:56.897106 29814 net.cpp:157] Top shape: 1 256 175 133 (5958400)
I1126 06:01:56.897111 29814 net.cpp:165] Memory required for data: 635833248
I1126 06:01:56.897124 29814 layer_factory.hpp:77] Creating layer relu3_1
I1126 06:01:56.897131 29814 net.cpp:100] Creating Layer relu3_1
I1126 06:01:56.897136 29814 net.cpp:434] relu3_1 <- conv3_1
I1126 06:01:56.897142 29814 net.cpp:395] relu3_1 -> conv3_1 (in-place)
I1126 06:01:56.897505 29814 net.cpp:150] Setting up relu3_1
I1126 06:01:56.897517 29814 net.cpp:157] Top shape: 1 256 175 133 (5958400)
I1126 06:01:56.897522 29814 net.cpp:165] Memory required for data: 659666848
I1126 06:01:56.897526 29814 layer_factory.hpp:77] Creating layer conv3_2
I1126 06:01:56.897541 29814 net.cpp:100] Creating Layer conv3_2
I1126 06:01:56.897547 29814 net.cpp:434] conv3_2 <- conv3_1
I1126 06:01:56.897554 29814 net.cpp:408] conv3_2 -> conv3_2
I1126 06:01:56.902745 29814 net.cpp:150] Setting up conv3_2
I1126 06:01:56.902763 29814 net.cpp:157] Top shape: 1 256 175 133 (5958400)
I1126 06:01:56.902768 29814 net.cpp:165] Memory required for data: 683500448
I1126 06:01:56.902776 29814 layer_factory.hpp:77] Creating layer relu3_2
I1126 06:01:56.902784 29814 net.cpp:100] Creating Layer relu3_2
I1126 06:01:56.902789 29814 net.cpp:434] relu3_2 <- conv3_2
I1126 06:01:56.902798 29814 net.cpp:395] relu3_2 -> conv3_2 (in-place)
I1126 06:01:56.902992 29814 net.cpp:150] Setting up relu3_2
I1126 06:01:56.903002 29814 net.cpp:157] Top shape: 1 256 175 133 (5958400)
I1126 06:01:56.903007 29814 net.cpp:165] Memory required for data: 707334048
I1126 06:01:56.903012 29814 layer_factory.hpp:77] Creating layer conv3_3
I1126 06:01:56.903026 29814 net.cpp:100] Creating Layer conv3_3
I1126 06:01:56.903033 29814 net.cpp:434] conv3_3 <- conv3_2
I1126 06:01:56.903040 29814 net.cpp:408] conv3_3 -> conv3_3
I1126 06:01:56.908236 29814 net.cpp:150] Setting up conv3_3
I1126 06:01:56.908252 29814 net.cpp:157] Top shape: 1 256 175 133 (5958400)
I1126 06:01:56.908257 29814 net.cpp:165] Memory required for data: 731167648
I1126 06:01:56.908267 29814 layer_factory.hpp:77] Creating layer relu3_3
I1126 06:01:56.908277 29814 net.cpp:100] Creating Layer relu3_3
I1126 06:01:56.908282 29814 net.cpp:434] relu3_3 <- conv3_3
I1126 06:01:56.908288 29814 net.cpp:395] relu3_3 -> conv3_3 (in-place)
I1126 06:01:56.908649 29814 net.cpp:150] Setting up relu3_3
I1126 06:01:56.908663 29814 net.cpp:157] Top shape: 1 256 175 133 (5958400)
I1126 06:01:56.908666 29814 net.cpp:165] Memory required for data: 755001248
I1126 06:01:56.908671 29814 layer_factory.hpp:77] Creating layer pool3
I1126 06:01:56.908681 29814 net.cpp:100] Creating Layer pool3
I1126 06:01:56.908686 29814 net.cpp:434] pool3 <- conv3_3
I1126 06:01:56.908694 29814 net.cpp:408] pool3 -> pool3
I1126 06:01:56.908742 29814 net.cpp:150] Setting up pool3
I1126 06:01:56.908751 29814 net.cpp:157] Top shape: 1 256 88 67 (1509376)
I1126 06:01:56.908754 29814 net.cpp:165] Memory required for data: 761038752
I1126 06:01:56.908758 29814 layer_factory.hpp:77] Creating layer pool3_pool3_0_split
I1126 06:01:56.908766 29814 net.cpp:100] Creating Layer pool3_pool3_0_split
I1126 06:01:56.908769 29814 net.cpp:434] pool3_pool3_0_split <- pool3
I1126 06:01:56.908777 29814 net.cpp:408] pool3_pool3_0_split -> pool3_pool3_0_split_0
I1126 06:01:56.908783 29814 net.cpp:408] pool3_pool3_0_split -> pool3_pool3_0_split_1
I1126 06:01:56.908831 29814 net.cpp:150] Setting up pool3_pool3_0_split
I1126 06:01:56.908840 29814 net.cpp:157] Top shape: 1 256 88 67 (1509376)
I1126 06:01:56.908845 29814 net.cpp:157] Top shape: 1 256 88 67 (1509376)
I1126 06:01:56.908849 29814 net.cpp:165] Memory required for data: 773113760
I1126 06:01:56.908854 29814 layer_factory.hpp:77] Creating layer conv4_1
I1126 06:01:56.908864 29814 net.cpp:100] Creating Layer conv4_1
I1126 06:01:56.908869 29814 net.cpp:434] conv4_1 <- pool3_pool3_0_split_0
I1126 06:01:56.908877 29814 net.cpp:408] conv4_1 -> conv4_1
I1126 06:01:56.919175 29814 net.cpp:150] Setting up conv4_1
I1126 06:01:56.919211 29814 net.cpp:157] Top shape: 1 512 88 67 (3018752)
I1126 06:01:56.919216 29814 net.cpp:165] Memory required for data: 785188768
I1126 06:01:56.919225 29814 layer_factory.hpp:77] Creating layer relu4_1
I1126 06:01:56.919234 29814 net.cpp:100] Creating Layer relu4_1
I1126 06:01:56.919240 29814 net.cpp:434] relu4_1 <- conv4_1
I1126 06:01:56.919250 29814 net.cpp:395] relu4_1 -> conv4_1 (in-place)
I1126 06:01:56.919616 29814 net.cpp:150] Setting up relu4_1
I1126 06:01:56.919631 29814 net.cpp:157] Top shape: 1 512 88 67 (3018752)
I1126 06:01:56.919634 29814 net.cpp:165] Memory required for data: 797263776
I1126 06:01:56.919639 29814 layer_factory.hpp:77] Creating layer conv4_2
I1126 06:01:56.919652 29814 net.cpp:100] Creating Layer conv4_2
I1126 06:01:56.919657 29814 net.cpp:434] conv4_2 <- conv4_1
I1126 06:01:56.919667 29814 net.cpp:408] conv4_2 -> conv4_2
I1126 06:01:56.937103 29814 net.cpp:150] Setting up conv4_2
I1126 06:01:56.937145 29814 net.cpp:157] Top shape: 1 512 88 67 (3018752)
I1126 06:01:56.937150 29814 net.cpp:165] Memory required for data: 809338784
I1126 06:01:56.937170 29814 layer_factory.hpp:77] Creating layer relu4_2
I1126 06:01:56.937183 29814 net.cpp:100] Creating Layer relu4_2
I1126 06:01:56.937191 29814 net.cpp:434] relu4_2 <- conv4_2
I1126 06:01:56.937198 29814 net.cpp:395] relu4_2 -> conv4_2 (in-place)
I1126 06:01:56.937394 29814 net.cpp:150] Setting up relu4_2
I1126 06:01:56.937405 29814 net.cpp:157] Top shape: 1 512 88 67 (3018752)
I1126 06:01:56.937409 29814 net.cpp:165] Memory required for data: 821413792
I1126 06:01:56.937414 29814 layer_factory.hpp:77] Creating layer conv4_3
I1126 06:01:56.937427 29814 net.cpp:100] Creating Layer conv4_3
I1126 06:01:56.937433 29814 net.cpp:434] conv4_3 <- conv4_2
I1126 06:01:56.937440 29814 net.cpp:408] conv4_3 -> conv4_3
I1126 06:01:56.954741 29814 net.cpp:150] Setting up conv4_3
I1126 06:01:56.954784 29814 net.cpp:157] Top shape: 1 512 88 67 (3018752)
I1126 06:01:56.954789 29814 net.cpp:165] Memory required for data: 833488800
I1126 06:01:56.954799 29814 layer_factory.hpp:77] Creating layer relu4_3
I1126 06:01:56.954812 29814 net.cpp:100] Creating Layer relu4_3
I1126 06:01:56.954818 29814 net.cpp:434] relu4_3 <- conv4_3
I1126 06:01:56.954828 29814 net.cpp:395] relu4_3 -> conv4_3 (in-place)
I1126 06:01:56.955193 29814 net.cpp:150] Setting up relu4_3
I1126 06:01:56.955209 29814 net.cpp:157] Top shape: 1 512 88 67 (3018752)
I1126 06:01:56.955214 29814 net.cpp:165] Memory required for data: 845563808
I1126 06:01:56.955217 29814 layer_factory.hpp:77] Creating layer pool4
I1126 06:01:56.955226 29814 net.cpp:100] Creating Layer pool4
I1126 06:01:56.955231 29814 net.cpp:434] pool4 <- conv4_3
I1126 06:01:56.955241 29814 net.cpp:408] pool4 -> pool4
I1126 06:01:56.955291 29814 net.cpp:150] Setting up pool4
I1126 06:01:56.955299 29814 net.cpp:157] Top shape: 1 512 44 34 (765952)
I1126 06:01:56.955303 29814 net.cpp:165] Memory required for data: 848627616
I1126 06:01:56.955307 29814 layer_factory.hpp:77] Creating layer pool4_pool4_0_split
I1126 06:01:56.955318 29814 net.cpp:100] Creating Layer pool4_pool4_0_split
I1126 06:01:56.955323 29814 net.cpp:434] pool4_pool4_0_split <- pool4
I1126 06:01:56.955329 29814 net.cpp:408] pool4_pool4_0_split -> pool4_pool4_0_split_0
I1126 06:01:56.955337 29814 net.cpp:408] pool4_pool4_0_split -> pool4_pool4_0_split_1
I1126 06:01:56.955376 29814 net.cpp:150] Setting up pool4_pool4_0_split
I1126 06:01:56.955395 29814 net.cpp:157] Top shape: 1 512 44 34 (765952)
I1126 06:01:56.955400 29814 net.cpp:157] Top shape: 1 512 44 34 (765952)
I1126 06:01:56.955404 29814 net.cpp:165] Memory required for data: 854755232
I1126 06:01:56.955409 29814 layer_factory.hpp:77] Creating layer conv5_1
I1126 06:01:56.955422 29814 net.cpp:100] Creating Layer conv5_1
I1126 06:01:56.955426 29814 net.cpp:434] conv5_1 <- pool4_pool4_0_split_0
I1126 06:01:56.955435 29814 net.cpp:408] conv5_1 -> conv5_1
I1126 06:01:56.972947 29814 net.cpp:150] Setting up conv5_1
I1126 06:01:56.972993 29814 net.cpp:157] Top shape: 1 512 44 34 (765952)
I1126 06:01:56.972998 29814 net.cpp:165] Memory required for data: 857819040
I1126 06:01:56.973009 29814 layer_factory.hpp:77] Creating layer relu5_1
I1126 06:01:56.973021 29814 net.cpp:100] Creating Layer relu5_1
I1126 06:01:56.973027 29814 net.cpp:434] relu5_1 <- conv5_1
I1126 06:01:56.973036 29814 net.cpp:395] relu5_1 -> conv5_1 (in-place)
I1126 06:01:56.973403 29814 net.cpp:150] Setting up relu5_1
I1126 06:01:56.973417 29814 net.cpp:157] Top shape: 1 512 44 34 (765952)
I1126 06:01:56.973422 29814 net.cpp:165] Memory required for data: 860882848
I1126 06:01:56.973426 29814 layer_factory.hpp:77] Creating layer conv5_2
I1126 06:01:56.973444 29814 net.cpp:100] Creating Layer conv5_2
I1126 06:01:56.973449 29814 net.cpp:434] conv5_2 <- conv5_1
I1126 06:01:56.973458 29814 net.cpp:408] conv5_2 -> conv5_2
I1126 06:01:56.990726 29814 net.cpp:150] Setting up conv5_2
I1126 06:01:56.990767 29814 net.cpp:157] Top shape: 1 512 44 34 (765952)
I1126 06:01:56.990772 29814 net.cpp:165] Memory required for data: 863946656
I1126 06:01:56.990782 29814 layer_factory.hpp:77] Creating layer relu5_2
I1126 06:01:56.990793 29814 net.cpp:100] Creating Layer relu5_2
I1126 06:01:56.990799 29814 net.cpp:434] relu5_2 <- conv5_2
I1126 06:01:56.990808 29814 net.cpp:395] relu5_2 -> conv5_2 (in-place)
I1126 06:01:56.991005 29814 net.cpp:150] Setting up relu5_2
I1126 06:01:56.991016 29814 net.cpp:157] Top shape: 1 512 44 34 (765952)
I1126 06:01:56.991020 29814 net.cpp:165] Memory required for data: 867010464
I1126 06:01:56.991025 29814 layer_factory.hpp:77] Creating layer conv5_3
I1126 06:01:56.991044 29814 net.cpp:100] Creating Layer conv5_3
I1126 06:01:56.991049 29814 net.cpp:434] conv5_3 <- conv5_2
I1126 06:01:56.991057 29814 net.cpp:408] conv5_3 -> conv5_3
I1126 06:01:57.008543 29814 net.cpp:150] Setting up conv5_3
I1126 06:01:57.008587 29814 net.cpp:157] Top shape: 1 512 44 34 (765952)
I1126 06:01:57.008594 29814 net.cpp:165] Memory required for data: 870074272
I1126 06:01:57.008604 29814 layer_factory.hpp:77] Creating layer relu5_3
I1126 06:01:57.008617 29814 net.cpp:100] Creating Layer relu5_3
I1126 06:01:57.008625 29814 net.cpp:434] relu5_3 <- conv5_3
I1126 06:01:57.008633 29814 net.cpp:395] relu5_3 -> conv5_3 (in-place)
I1126 06:01:57.009174 29814 net.cpp:150] Setting up relu5_3
I1126 06:01:57.009188 29814 net.cpp:157] Top shape: 1 512 44 34 (765952)
I1126 06:01:57.009192 29814 net.cpp:165] Memory required for data: 873138080
I1126 06:01:57.009197 29814 layer_factory.hpp:77] Creating layer pool5
I1126 06:01:57.009208 29814 net.cpp:100] Creating Layer pool5
I1126 06:01:57.009213 29814 net.cpp:434] pool5 <- conv5_3
I1126 06:01:57.009220 29814 net.cpp:408] pool5 -> pool5
I1126 06:01:57.009274 29814 net.cpp:150] Setting up pool5
I1126 06:01:57.009282 29814 net.cpp:157] Top shape: 1 512 22 17 (191488)
I1126 06:01:57.009286 29814 net.cpp:165] Memory required for data: 873904032
I1126 06:01:57.009290 29814 layer_factory.hpp:77] Creating layer fc6
I1126 06:01:57.009305 29814 net.cpp:100] Creating Layer fc6
I1126 06:01:57.009310 29814 net.cpp:434] fc6 <- pool5
I1126 06:01:57.009320 29814 net.cpp:408] fc6 -> fc6
I1126 06:01:57.706652 29814 net.cpp:150] Setting up fc6
I1126 06:01:57.706707 29814 net.cpp:157] Top shape: 1 4096 16 11 (720896)
I1126 06:01:57.706712 29814 net.cpp:165] Memory required for data: 876787616
I1126 06:01:57.706723 29814 layer_factory.hpp:77] Creating layer relu6
I1126 06:01:57.706748 29814 net.cpp:100] Creating Layer relu6
I1126 06:01:57.706753 29814 net.cpp:434] relu6 <- fc6
I1126 06:01:57.706761 29814 net.cpp:395] relu6 -> fc6 (in-place)
I1126 06:01:57.707141 29814 net.cpp:150] Setting up relu6
I1126 06:01:57.707155 29814 net.cpp:157] Top shape: 1 4096 16 11 (720896)
I1126 06:01:57.707160 29814 net.cpp:165] Memory required for data: 879671200
I1126 06:01:57.707165 29814 layer_factory.hpp:77] Creating layer drop6
I1126 06:01:57.707186 29814 net.cpp:100] Creating Layer drop6
I1126 06:01:57.707192 29814 net.cpp:434] drop6 <- fc6
I1126 06:01:57.707201 29814 net.cpp:395] drop6 -> fc6 (in-place)
I1126 06:01:57.707237 29814 net.cpp:150] Setting up drop6
I1126 06:01:57.707245 29814 net.cpp:157] Top shape: 1 4096 16 11 (720896)
I1126 06:01:57.707249 29814 net.cpp:165] Memory required for data: 882554784
I1126 06:01:57.707254 29814 layer_factory.hpp:77] Creating layer fc7
I1126 06:01:57.707267 29814 net.cpp:100] Creating Layer fc7
I1126 06:01:57.707271 29814 net.cpp:434] fc7 <- fc6
I1126 06:01:57.707279 29814 net.cpp:408] fc7 -> fc7
I1126 06:01:57.825947 29814 net.cpp:150] Setting up fc7
I1126 06:01:57.826000 29814 net.cpp:157] Top shape: 1 4096 16 11 (720896)
I1126 06:01:57.826005 29814 net.cpp:165] Memory required for data: 885438368
I1126 06:01:57.826020 29814 layer_factory.hpp:77] Creating layer relu7
I1126 06:01:57.826035 29814 net.cpp:100] Creating Layer relu7
I1126 06:01:57.826046 29814 net.cpp:434] relu7 <- fc7
I1126 06:01:57.826056 29814 net.cpp:395] relu7 -> fc7 (in-place)
I1126 06:01:57.826264 29814 net.cpp:150] Setting up relu7
I1126 06:01:57.826275 29814 net.cpp:157] Top shape: 1 4096 16 11 (720896)
I1126 06:01:57.826279 29814 net.cpp:165] Memory required for data: 888321952
I1126 06:01:57.826284 29814 layer_factory.hpp:77] Creating layer drop7
I1126 06:01:57.826294 29814 net.cpp:100] Creating Layer drop7
I1126 06:01:57.826299 29814 net.cpp:434] drop7 <- fc7
I1126 06:01:57.826305 29814 net.cpp:395] drop7 -> fc7 (in-place)
I1126 06:01:57.826349 29814 net.cpp:150] Setting up drop7
I1126 06:01:57.826356 29814 net.cpp:157] Top shape: 1 4096 16 11 (720896)
I1126 06:01:57.826360 29814 net.cpp:165] Memory required for data: 891205536
I1126 06:01:57.826364 29814 layer_factory.hpp:77] Creating layer score_fr
I1126 06:01:57.826378 29814 net.cpp:100] Creating Layer score_fr
I1126 06:01:57.826382 29814 net.cpp:434] score_fr <- fc7
I1126 06:01:57.826395 29814 net.cpp:408] score_fr -> score_fr
I1126 06:01:57.827977 29814 net.cpp:150] Setting up score_fr
I1126 06:01:57.827993 29814 net.cpp:157] Top shape: 1 16 16 11 (2816)
I1126 06:01:57.827998 29814 net.cpp:165] Memory required for data: 891216800
I1126 06:01:57.828006 29814 layer_factory.hpp:77] Creating layer upscore2
I1126 06:01:57.828023 29814 net.cpp:100] Creating Layer upscore2
I1126 06:01:57.828028 29814 net.cpp:434] upscore2 <- score_fr
I1126 06:01:57.828037 29814 net.cpp:408] upscore2 -> upscore2
I1126 06:01:57.828270 29814 net.cpp:150] Setting up upscore2
I1126 06:01:57.828279 29814 net.cpp:157] Top shape: 1 16 34 24 (13056)
I1126 06:01:57.828284 29814 net.cpp:165] Memory required for data: 891269024
I1126 06:01:57.828310 29814 layer_factory.hpp:77] Creating layer upscore2_upscore2_0_split
I1126 06:01:57.828317 29814 net.cpp:100] Creating Layer upscore2_upscore2_0_split
I1126 06:01:57.828322 29814 net.cpp:434] upscore2_upscore2_0_split <- upscore2
I1126 06:01:57.828330 29814 net.cpp:408] upscore2_upscore2_0_split -> upscore2_upscore2_0_split_0
I1126 06:01:57.828336 29814 net.cpp:408] upscore2_upscore2_0_split -> upscore2_upscore2_0_split_1
I1126 06:01:57.828378 29814 net.cpp:150] Setting up upscore2_upscore2_0_split
I1126 06:01:57.828387 29814 net.cpp:157] Top shape: 1 16 34 24 (13056)
I1126 06:01:57.828392 29814 net.cpp:157] Top shape: 1 16 34 24 (13056)
I1126 06:01:57.828397 29814 net.cpp:165] Memory required for data: 891373472
I1126 06:01:57.828400 29814 layer_factory.hpp:77] Creating layer scale_pool4
I1126 06:01:57.828411 29814 net.cpp:100] Creating Layer scale_pool4
I1126 06:01:57.828416 29814 net.cpp:434] scale_pool4 <- pool4_pool4_0_split_1
I1126 06:01:57.828436 29814 net.cpp:408] scale_pool4 -> scale_pool4
I1126 06:01:57.828562 29814 net.cpp:150] Setting up scale_pool4
I1126 06:01:57.828573 29814 net.cpp:157] Top shape: 1 512 44 34 (765952)
I1126 06:01:57.828577 29814 net.cpp:165] Memory required for data: 894437280
I1126 06:01:57.828583 29814 layer_factory.hpp:77] Creating layer score_pool4
I1126 06:01:57.828595 29814 net.cpp:100] Creating Layer score_pool4
I1126 06:01:57.828599 29814 net.cpp:434] score_pool4 <- scale_pool4
I1126 06:01:57.828606 29814 net.cpp:408] score_pool4 -> score_pool4
I1126 06:01:57.829912 29814 net.cpp:150] Setting up score_pool4
I1126 06:01:57.829927 29814 net.cpp:157] Top shape: 1 16 44 34 (23936)
I1126 06:01:57.829931 29814 net.cpp:165] Memory required for data: 894533024
I1126 06:01:57.829941 29814 layer_factory.hpp:77] Creating layer score_pool4c
I1126 06:01:57.829953 29814 net.cpp:100] Creating Layer score_pool4c
I1126 06:01:57.829958 29814 net.cpp:434] score_pool4c <- score_pool4
I1126 06:01:57.829964 29814 net.cpp:434] score_pool4c <- upscore2_upscore2_0_split_0
I1126 06:01:57.829972 29814 net.cpp:408] score_pool4c -> score_pool4c
I1126 06:01:57.830008 29814 net.cpp:150] Setting up score_pool4c
I1126 06:01:57.830016 29814 net.cpp:157] Top shape: 1 16 34 24 (13056)
I1126 06:01:57.830020 29814 net.cpp:165] Memory required for data: 894585248
I1126 06:01:57.830024 29814 layer_factory.hpp:77] Creating layer fuse_pool4
I1126 06:01:57.830034 29814 net.cpp:100] Creating Layer fuse_pool4
I1126 06:01:57.830039 29814 net.cpp:434] fuse_pool4 <- upscore2_upscore2_0_split_1
I1126 06:01:57.830044 29814 net.cpp:434] fuse_pool4 <- score_pool4c
I1126 06:01:57.830052 29814 net.cpp:408] fuse_pool4 -> fuse_pool4
I1126 06:01:57.830085 29814 net.cpp:150] Setting up fuse_pool4
I1126 06:01:57.830091 29814 net.cpp:157] Top shape: 1 16 34 24 (13056)
I1126 06:01:57.830096 29814 net.cpp:165] Memory required for data: 894637472
I1126 06:01:57.830099 29814 layer_factory.hpp:77] Creating layer upscore_pool4
I1126 06:01:57.830107 29814 net.cpp:100] Creating Layer upscore_pool4
I1126 06:01:57.830112 29814 net.cpp:434] upscore_pool4 <- fuse_pool4
I1126 06:01:57.830121 29814 net.cpp:408] upscore_pool4 -> upscore_pool4
I1126 06:01:57.830353 29814 net.cpp:150] Setting up upscore_pool4
I1126 06:01:57.830361 29814 net.cpp:157] Top shape: 1 16 70 50 (56000)
I1126 06:01:57.830366 29814 net.cpp:165] Memory required for data: 894861472
I1126 06:01:57.830371 29814 layer_factory.hpp:77] Creating layer upscore_pool4_upscore_pool4_0_split
I1126 06:01:57.830379 29814 net.cpp:100] Creating Layer upscore_pool4_upscore_pool4_0_split
I1126 06:01:57.830384 29814 net.cpp:434] upscore_pool4_upscore_pool4_0_split <- upscore_pool4
I1126 06:01:57.830389 29814 net.cpp:408] upscore_pool4_upscore_pool4_0_split -> upscore_pool4_upscore_pool4_0_split_0
I1126 06:01:57.830396 29814 net.cpp:408] upscore_pool4_upscore_pool4_0_split -> upscore_pool4_upscore_pool4_0_split_1
I1126 06:01:57.830435 29814 net.cpp:150] Setting up upscore_pool4_upscore_pool4_0_split
I1126 06:01:57.830442 29814 net.cpp:157] Top shape: 1 16 70 50 (56000)
I1126 06:01:57.830447 29814 net.cpp:157] Top shape: 1 16 70 50 (56000)
I1126 06:01:57.830451 29814 net.cpp:165] Memory required for data: 895309472
I1126 06:01:57.830456 29814 layer_factory.hpp:77] Creating layer scale_pool3
I1126 06:01:57.830464 29814 net.cpp:100] Creating Layer scale_pool3
I1126 06:01:57.830468 29814 net.cpp:434] scale_pool3 <- pool3_pool3_0_split_1
I1126 06:01:57.830476 29814 net.cpp:408] scale_pool3 -> scale_pool3
I1126 06:01:57.830574 29814 net.cpp:150] Setting up scale_pool3
I1126 06:01:57.830581 29814 net.cpp:157] Top shape: 1 256 88 67 (1509376)
I1126 06:01:57.830585 29814 net.cpp:165] Memory required for data: 901346976
I1126 06:01:57.830590 29814 layer_factory.hpp:77] Creating layer score_pool3
I1126 06:01:57.830601 29814 net.cpp:100] Creating Layer score_pool3
I1126 06:01:57.830605 29814 net.cpp:434] score_pool3 <- scale_pool3
I1126 06:01:57.830615 29814 net.cpp:408] score_pool3 -> score_pool3
I1126 06:01:57.831843 29814 net.cpp:150] Setting up score_pool3
I1126 06:01:57.831867 29814 net.cpp:157] Top shape: 1 16 88 67 (94336)
I1126 06:01:57.831872 29814 net.cpp:165] Memory required for data: 901724320
I1126 06:01:57.831881 29814 layer_factory.hpp:77] Creating layer score_pool3c
I1126 06:01:57.831888 29814 net.cpp:100] Creating Layer score_pool3c
I1126 06:01:57.831893 29814 net.cpp:434] score_pool3c <- score_pool3
I1126 06:01:57.831899 29814 net.cpp:434] score_pool3c <- upscore_pool4_upscore_pool4_0_split_0
I1126 06:01:57.831905 29814 net.cpp:408] score_pool3c -> score_pool3c
I1126 06:01:57.831939 29814 net.cpp:150] Setting up score_pool3c
I1126 06:01:57.831948 29814 net.cpp:157] Top shape: 1 16 70 50 (56000)
I1126 06:01:57.831951 29814 net.cpp:165] Memory required for data: 901948320
I1126 06:01:57.831955 29814 layer_factory.hpp:77] Creating layer fuse_pool3
I1126 06:01:57.831965 29814 net.cpp:100] Creating Layer fuse_pool3
I1126 06:01:57.831970 29814 net.cpp:434] fuse_pool3 <- upscore_pool4_upscore_pool4_0_split_1
I1126 06:01:57.831975 29814 net.cpp:434] fuse_pool3 <- score_pool3c
I1126 06:01:57.831981 29814 net.cpp:408] fuse_pool3 -> fuse_pool3
I1126 06:01:57.832010 29814 net.cpp:150] Setting up fuse_pool3
I1126 06:01:57.832017 29814 net.cpp:157] Top shape: 1 16 70 50 (56000)
I1126 06:01:57.832020 29814 net.cpp:165] Memory required for data: 902172320
I1126 06:01:57.832025 29814 layer_factory.hpp:77] Creating layer upscore8
I1126 06:01:57.832034 29814 net.cpp:100] Creating Layer upscore8
I1126 06:01:57.832039 29814 net.cpp:434] upscore8 <- fuse_pool3
I1126 06:01:57.832046 29814 net.cpp:408] upscore8 -> upscore8
I1126 06:01:57.832599 29814 net.cpp:150] Setting up upscore8
I1126 06:01:57.832608 29814 net.cpp:157] Top shape: 1 16 568 408 (3707904)
I1126 06:01:57.832613 29814 net.cpp:165] Memory required for data: 917003936
I1126 06:01:57.832618 29814 layer_factory.hpp:77] Creating layer score
I1126 06:01:57.832626 29814 net.cpp:100] Creating Layer score
I1126 06:01:57.832631 29814 net.cpp:434] score <- upscore8
I1126 06:01:57.832636 29814 net.cpp:434] score <- data_data_0_split_1
I1126 06:01:57.832644 29814 net.cpp:408] score -> score
I1126 06:01:57.832671 29814 net.cpp:150] Setting up score
I1126 06:01:57.832679 29814 net.cpp:157] Top shape: 1 16 500 333 (2664000)
I1126 06:01:57.832682 29814 net.cpp:165] Memory required for data: 927659936
I1126 06:01:57.832686 29814 layer_factory.hpp:77] Creating layer loss
I1126 06:01:57.832697 29814 net.cpp:100] Creating Layer loss
I1126 06:01:57.832701 29814 net.cpp:434] loss <- score
I1126 06:01:57.832706 29814 net.cpp:434] loss <- label
I1126 06:01:57.832715 29814 net.cpp:408] loss -> loss
I1126 06:01:57.832726 29814 layer_factory.hpp:77] Creating layer loss
…
I1126 06:01:57.839747 29814 net.cpp:283] Network initialization done.
I1126 06:01:57.840978 29814 solver.cpp:181] Creating test net (#0) specified by test_net file: val.prototxt
I1126 06:01:57.841343 29814 net.cpp:58] Initializing net from parameters: 
state {
  phase: TEST
}
layer {
  name: "data"
  type: "Python"
  top: "data"
  top: "label"
  python_param {
    module: "voc_layers"
    layer: "VOCSegDataLayer"
    param_str: "{\'voc_dir\': \'../data/pascal-obfuscated/VOC2011\', \'seed\': 1337, \'split\': \'seg11valid15\', \'mean\': (104.00699, 116.66877, 122.67892)}"
  }
}
layer {
  name: "conv1_1"
  type: "Convolution"
  bottom: "data"
  top: "conv1_1"
  param {
    lr_mult: 1
    decay_mult: 1
  }
  param {
    lr_mult: 2
    decay_mult: 0
  }
  convolution_param {
    num_output: 64
    pad: 100
    kernel_size: 3
    stride: 1
    weight_filler {
      type: "xavier"
    }
  }
}
layer {
  name: "relu1_1"
  type: "ReLU"
  bottom: "conv1_1"
  top: "conv1_1"
}
layer {
  name: "conv1_2"
  type: "Convolution"
  bottom: "conv1_1"
  top: "conv1_2"
  param {
    lr_mult: 1
    decay_mult: 1
  }
  param {
    lr_mult: 2
    decay_mult: 0
  }
  convolution_param {
    num_output: 64
    pad: 1
    kernel_size: 3
    stride: 1
    weight_filler {
      type: "xavier"
    }
  }
}
layer {
  name: "relu1_2"
  type: "ReLU"
  bottom: "conv1_2"
  top: "conv1_2"
}
layer {
  name: "pool1"
  type: "Pooling"
  bottom: "conv1_2"
  top: "pool1"
  pooling_param {
    pool: MAX
    kernel_size: 2
    stride: 2
  }
}
layer {
  name: "conv2_1"
  type: "Convolution"
  bottom: "pool1"
  top: "conv2_1"
  param {
    lr_mult: 1
    decay_mult: 1
  }
  param {
    lr_mult: 2
    decay_mult: 0
  }
  convolution_param {
    num_output: 128
    pad: 1
    kernel_size: 3
    stride: 1
    weight_filler {
      type: "xavier"
    }
  }
}
layer {
  name: "relu2_1"
  type: "ReLU"
  bottom: "conv2_1"
  top: "conv2_1"
}
layer {
  name: "conv2_2"
  type: "Convolution"
  bottom: "conv2_1"
  top: "conv2_2"
  param {
    lr_mult: 1
    decay_mult: 1
  }
  param {
    lr_mult: 2
    decay_mult: 0
  }
  convolution_param {
    num_output: 128
    pad: 1
    kernel_size: 3
    stride: 1
    weight_filler {
      type: "xavier"
    }
  }
}
layer {
  name: "relu2_2"
  type: "ReLU"
  bottom: "conv2_2"
  top: "conv2_2"
}
layer {
  name: "pool2"
  type: "Pooling"
  bottom: "conv2_2"
  top: "pool2"
  pooling_param {
    pool: MAX
    kernel_size: 2
    stride: 2
  }
}
layer {
  name: "conv3_1"
  type: "Convolution"
  bottom: "pool2"
  top: "conv3_1"
  param {
    lr_mult: 1
    decay_mult: 1
  }
  param {
    lr_mult: 2
    decay_mult: 0
  }
  convolution_param {
    num_output: 256
    pad: 1
    kernel_size: 3
    stride: 1
    weight_filler {
      type: "xavier"
    }
  }
}
layer {
  name: "relu3_1"
  type: "ReLU"
  bottom: "conv3_1"
  top: "conv3_1"
}
layer {
  name: "conv3_2"
  type: "Convolution"
  bottom: "conv3_1"
  top: "conv3_2"
  param {
    lr_mult: 1
    decay_mult: 1
  }
  param {
    lr_mult: 2
    decay_mult: 0
  }
  convolution_param {
    num_output: 256
    pad: 1
    kernel_size: 3
    stride: 1
    weight_filler {
      type: "xavier"
    }
  }
}
layer {
  name: "relu3_2"
  type: "ReLU"
  bottom: "conv3_2"
  top: "conv3_2"
}
layer {
  name: "conv3_3"
  type: "Convolution"
  bottom: "conv3_2"
  top: "conv3_3"
  param {
    lr_mult: 1
    decay_mult: 1
  }
  param {
    lr_mult: 2
    decay_mult: 0
  }
  convolution_param {
    num_output: 256
    pad: 1
    kernel_size: 3
    stride: 1
    weight_filler {
      type: "xavier"
    }
  }
}
layer {
  name: "relu3_3"
  type: "ReLU"
  bottom: "conv3_3"
  top: "conv3_3"
}
layer {
  name: "pool3"
  type: "Pooling"
  bottom: "conv3_3"
  top: "pool3"
  pooling_param {
    pool: MAX
    kernel_size: 2
    stride: 2
  }
}
layer {
  name: "conv4_1"
  type: "Convolution"
  bottom: "pool3"
  top: "conv4_1"
  param {
    lr_mult: 1
    decay_mult: 1
  }
  param {
    lr_mult: 2
    decay_mult: 0
  }
  convolution_param {
    num_output: 512
    pad: 1
    kernel_size: 3
    stride: 1
    weight_filler {
      type: "xavier"
    }
  }
}
layer {
  name: "relu4_1"
  type: "ReLU"
  bottom: "conv4_1"
  top: "conv4_1"
}
layer {
  name: "conv4_2"
  type: "Convolution"
  bottom: "conv4_1"
  top: "conv4_2"
  param {
    lr_mult: 1
    decay_mult: 1
  }
  param {
    lr_mult: 2
    decay_mult: 0
  }
  convolution_param {
    num_output: 512
    pad: 1
    kernel_size: 3
    stride: 1
    weight_filler {
      type: "xavier"
    }
  }
}
layer {
  name: "relu4_2"
  type: "ReLU"
  bottom: "conv4_2"
  top: "conv4_2"
}
layer {
  name: "conv4_3"
  type: "Convolution"
  bottom: "conv4_2"
  top: "conv4_3"
  param {
    lr_mult: 1
    decay_mult: 1
  }
  param {
    lr_mult: 2
    decay_mult: 0
  }
  convolution_param {
    num_output: 512
    pad: 1
    kernel_size: 3
    stride: 1
    weight_filler {
      type: "xavier"
    }
  }
}
layer {
  name: "relu4_3"
  type: "ReLU"
  bottom: "conv4_3"
  top: "conv4_3"
}
layer {
  name: "pool4"
  type: "Pooling"
  bottom: "conv4_3"
  top: "pool4"
  pooling_param {
    pool: MAX
    kernel_size: 2
    stride: 2
  }
}
layer {
  name: "conv5_1"
  type: "Convolution"
  bottom: "pool4"
  top: "conv5_1"
  param {
    lr_mult: 1
    decay_mult: 1
  }
  param {
    lr_mult: 2
    decay_mult: 0
  }
  convolution_param {
    num_output: 512
    pad: 1
    kernel_size: 3
    stride: 1
    weight_filler {
      type: "xavier"
    }
  }
}
layer {
  name: "relu5_1"
  type: "ReLU"
  bottom: "conv5_1"
  top: "conv5_1"
}
layer {
  name: "conv5_2"
  type: "Convolution"
  bottom: "conv5_1"
  top: "conv5_2"
  param {
    lr_mult: 1
    decay_mult: 1
  }
  param {
    lr_mult: 2
    decay_mult: 0
  }
  convolution_param {
    num_output: 512
    pad: 1
    kernel_size: 3
    stride: 1
    weight_filler {
      type: "xavier"
    }
  }
}
layer {
  name: "relu5_2"
  type: "ReLU"
  bottom: "conv5_2"
  top: "conv5_2"
}
layer {
  name: "conv5_3"
  type: "Convolution"
  bottom: "conv5_2"
  top: "conv5_3"
  param {
    lr_mult: 1
    decay_mult: 1
  }
  param {
    lr_mult: 2
    decay_mult: 0
  }
  convolution_param {
    num_output: 512
    pad: 1
    kernel_size: 3
    stride: 1
    weight_filler {
      type: "xavier"
    }
  }
}
layer {
  name: "relu5_3"
  type: "ReLU"
  bottom: "conv5_3"
  top: "conv5_3"
}
layer {
  name: "pool5"
  type: "Pooling"
  bottom: "conv5_3"
  top: "pool5"
  pooling_param {
    pool: MAX
    kernel_size: 2
    stride: 2
  }
}
layer {
  name: "fc6"
  type: "Convolution"
  bottom: "pool5"
  top: "fc6"
  param {
    lr_mult: 1
    decay_mult: 1
  }
  param {
    lr_mult: 2
    decay_mult: 0
  }
  convolution_param {
    num_output: 4096
    pad: 0
    kernel_size: 7
    stride: 1
    weight_filler {
      type: "xavier"
    }
  }
}
layer {
  name: "relu6"
  type: "ReLU"
  bottom: "fc6"
  top: "fc6"
}
layer {
  name: "drop6"
  type: "Dropout"
  bottom: "fc6"
  top: "fc6"
  dropout_param {
    dropout_ratio: 0.5
  }
}
layer {
  name: "fc7"
  type: "Convolution"
  bottom: "fc6"
  top: "fc7"
  param {
    lr_mult: 1
    decay_mult: 1
  }
  param {
    lr_mult: 2
    decay_mult: 0
  }
  convolution_param {
    num_output: 4096
    pad: 0
    kernel_size: 1
    stride: 1
    weight_filler {
      type: "xavier"
    }
  }
}
layer {
  name: "relu7"
  type: "ReLU"
  bottom: "fc7"
  top: "fc7"
}
layer {
  name: "drop7"
  type: "Dropout"
  bottom: "fc7"
  top: "fc7"
  dropout_param {
    dropout_ratio: 0.5
  }
}
layer {
  name: "score_fr"
  type: "Convolution"
  bottom: "fc7"
  top: "score_fr"
  param {
    lr_mult: 1
    decay_mult: 1
  }
  param {
    lr_mult: 2
    decay_mult: 0
  }
  convolution_param {
    num_output: 16
    pad: 0
    kernel_size: 1
    weight_filler {
      type: "xavier"
    }
  }
}
layer {
  name: "upscore2"
  type: "Deconvolution"
  bottom: "score_fr"
  top: "upscore2"
  param {
    lr_mult: 0
  }
  convolution_param {
    num_output: 16
    bias_term: false
    kernel_size: 4
    stride: 2
    weight_filler {
      type: "xavier"
    }
  }
}
layer {
  name: "scale_pool4"
  type: "Scale"
  bottom: "pool4"
  top: "scale_pool4"
  param {
    lr_mult: 0
  }
  scale_param {
    filler {
      type: "constant"
      value: 0.01
    }
  }
}
layer {
  name: "score_pool4"
  type: "Convolution"
  bottom: "scale_pool4"
  top: "score_pool4"
  param {
    lr_mult: 1
    decay_mult: 1
  }
  param {
    lr_mult: 2
    decay_mult: 0
  }
  convolution_param {
    num_output: 16
    pad: 0
    kernel_size: 1
    weight_filler {
      type: "xavier"
    }
  }
}
layer {
  name: "score_pool4c"
  type: "Crop"
  bottom: "score_pool4"
  bottom: "upscore2"
  top: "score_pool4c"
  crop_param {
    axis: 2
    offset: 5
  }
}
layer {
  name: "fuse_pool4"
  type: "Eltwise"
  bottom: "upscore2"
  bottom: "score_pool4c"
  top: "fuse_pool4"
  eltwise_param {
    operation: SUM
  }
}
layer {
  name: "upscore_pool4"
  type: "Deconvolution"
  bottom: "fuse_pool4"
  top: "upscore_pool4"
  param {
    lr_mult: 0
  }
  convolution_param {
    num_output: 16
    bias_term: false
    kernel_size: 4
    stride: 2
    weight_filler {
      type: "xavier"
    }
  }
}
layer {
  name: "scale_pool3"
  type: "Scale"
  bottom: "pool3"
  top: "scale_pool3"
  param {
    lr_mult: 0
  }
  scale_param {
    filler {
      type: "constant"
      value: 0.0001
    }
  }
}
layer {
  name: "score_pool3"
  type: "Convolution"
  bottom: "scale_pool3"
  top: "score_pool3"
  param {
    lr_mult: 1
    decay_mult: 1
  }
  param {
    lr_mult: 2
    decay_mult: 0
  }
  convolution_param {
    num_output: 16
    pad: 0
    kernel_size: 1
    weight_filler {
      type: "xavier"
    }
  }
}
layer {
  name: "score_pool3c"
  type: "Crop"
  bottom: "score_pool3"
  bottom: "upscore_pool4"
  top: "score_pool3c"
  crop_param {
    axis: 2
    offset: 9
  }
}
layer {
  name: "fuse_pool3"
  type: "Eltwise"
  bottom: "upscore_pool4"
  bottom: "score_pool3c"
  top: "fuse_pool3"
  eltwise_param {
    operation: SUM
  }
}
layer {
  name: "upscore8"
  type: "Deconvolution"
  bottom: "fuse_pool3"
  top: "upscore8"
  param {
    lr_mult: 0
  }
  convolution_param {
    num_output: 16
    bias_term: false
    kernel_size: 16
    stride: 8
    weight_filler {
      type: "xavier"
    }
  }
}
layer {
  name: "score"
  type: "Crop"
  bottom: "upscore8"
  bottom: "data"
  top: "score"
  crop_param {
    axis: 2
    offset: 31
  }
}
layer {
  name: "loss"
  type: "SoftmaxWithLoss"
  bottom: "score"
  bottom: "label"
  top: "loss"
  loss_param {
    ignore_label: 255
    normalize: false
  }
}
I1126 06:01:57.841576 29814 layer_factory.hpp:77] Creating layer data
I1126 06:01:57.841936 29814 net.cpp:100] Creating Layer data
I1126 06:01:57.841948 29814 net.cpp:408] data -> data
I1126 06:01:57.841958 29814 net.cpp:408] data -> label
I1126 06:01:57.854749 29814 net.cpp:150] Setting up data
I1126 06:01:57.854796 29814 net.cpp:157] Top shape: 1 3 366 500 (549000)
I1126 06:01:57.854804 29814 net.cpp:157] Top shape: 1 1 366 500 (183000)
I1126 06:01:57.854807 29814 net.cpp:165] Memory required for data: 2928000
I1126 06:01:57.854815 29814 layer_factory.hpp:77] Creating layer data_data_0_split
I1126 06:01:57.854830 29814 net.cpp:100] Creating Layer data_data_0_split
I1126 06:01:57.854836 29814 net.cpp:434] data_data_0_split <- data
I1126 06:01:57.854846 29814 net.cpp:408] data_data_0_split -> data_data_0_split_0
I1126 06:01:57.854857 29814 net.cpp:408] data_data_0_split -> data_data_0_split_1
I1126 06:01:57.854902 29814 net.cpp:150] Setting up data_data_0_split
I1126 06:01:57.854910 29814 net.cpp:157] Top shape: 1 3 366 500 (549000)
I1126 06:01:57.854915 29814 net.cpp:157] Top shape: 1 3 366 500 (549000)
I1126 06:01:57.854919 29814 net.cpp:165] Memory required for data: 7320000
I1126 06:01:57.854924 29814 layer_factory.hpp:77] Creating layer conv1_1
I1126 06:01:57.854938 29814 net.cpp:100] Creating Layer conv1_1
I1126 06:01:57.854943 29814 net.cpp:434] conv1_1 <- data_data_0_split_0
I1126 06:01:57.854949 29814 net.cpp:408] conv1_1 -> conv1_1
I1126 06:01:57.857276 29814 net.cpp:150] Setting up conv1_1
I1126 06:01:57.857295 29814 net.cpp:157] Top shape: 1 64 564 698 (25195008)
I1126 06:01:57.857300 29814 net.cpp:165] Memory required for data: 108100032
I1126 06:01:57.857313 29814 layer_factory.hpp:77] Creating layer relu1_1
I1126 06:01:57.857322 29814 net.cpp:100] Creating Layer relu1_1
I1126 06:01:57.857327 29814 net.cpp:434] relu1_1 <- conv1_1
I1126 06:01:57.857333 29814 net.cpp:395] relu1_1 -> conv1_1 (in-place)
I1126 06:01:57.857525 29814 net.cpp:150] Setting up relu1_1
I1126 06:01:57.857537 29814 net.cpp:157] Top shape: 1 64 564 698 (25195008)
I1126 06:01:57.857540 29814 net.cpp:165] Memory required for data: 208880064
I1126 06:01:57.857545 29814 layer_factory.hpp:77] Creating layer conv1_2
I1126 06:01:57.857556 29814 net.cpp:100] Creating Layer conv1_2
I1126 06:01:57.857561 29814 net.cpp:434] conv1_2 <- conv1_1
I1126 06:01:57.857580 29814 net.cpp:408] conv1_2 -> conv1_2
I1126 06:01:57.860425 29814 net.cpp:150] Setting up conv1_2
I1126 06:01:57.860442 29814 net.cpp:157] Top shape: 1 64 564 698 (25195008)
I1126 06:01:57.860447 29814 net.cpp:165] Memory required for data: 309660096
I1126 06:01:57.860458 29814 layer_factory.hpp:77] Creating layer relu1_2
I1126 06:01:57.860466 29814 net.cpp:100] Creating Layer relu1_2
I1126 06:01:57.860471 29814 net.cpp:434] relu1_2 <- conv1_2
I1126 06:01:57.860478 29814 net.cpp:395] relu1_2 -> conv1_2 (in-place)
I1126 06:01:57.860847 29814 net.cpp:150] Setting up relu1_2
I1126 06:01:57.860862 29814 net.cpp:157] Top shape: 1 64 564 698 (25195008)
I1126 06:01:57.860865 29814 net.cpp:165] Memory required for data: 410440128
I1126 06:01:57.860870 29814 layer_factory.hpp:77] Creating layer pool1
I1126 06:01:57.860878 29814 net.cpp:100] Creating Layer pool1
I1126 06:01:57.860883 29814 net.cpp:434] pool1 <- conv1_2
I1126 06:01:57.860890 29814 net.cpp:408] pool1 -> pool1
I1126 06:01:57.860944 29814 net.cpp:150] Setting up pool1
I1126 06:01:57.860951 29814 net.cpp:157] Top shape: 1 64 282 349 (6298752)
I1126 06:01:57.860955 29814 net.cpp:165] Memory required for data: 435635136
I1126 06:01:57.860960 29814 layer_factory.hpp:77] Creating layer conv2_1
I1126 06:01:57.860970 29814 net.cpp:100] Creating Layer conv2_1
I1126 06:01:57.860975 29814 net.cpp:434] conv2_1 <- pool1
I1126 06:01:57.860982 29814 net.cpp:408] conv2_1 -> conv2_1
I1126 06:01:57.863171 29814 net.cpp:150] Setting up conv2_1
I1126 06:01:57.863194 29814 net.cpp:157] Top shape: 1 128 282 349 (12597504)
I1126 06:01:57.863199 29814 net.cpp:165] Memory required for data: 486025152
I1126 06:01:57.863210 29814 layer_factory.hpp:77] Creating layer relu2_1
I1126 06:01:57.863220 29814 net.cpp:100] Creating Layer relu2_1
I1126 06:01:57.863224 29814 net.cpp:434] relu2_1 <- conv2_1
I1126 06:01:57.863231 29814 net.cpp:395] relu2_1 -> conv2_1 (in-place)
I1126 06:01:57.863612 29814 net.cpp:150] Setting up relu2_1
I1126 06:01:57.863626 29814 net.cpp:157] Top shape: 1 128 282 349 (12597504)
I1126 06:01:57.863631 29814 net.cpp:165] Memory required for data: 536415168
I1126 06:01:57.863636 29814 layer_factory.hpp:77] Creating layer conv2_2
I1126 06:01:57.863646 29814 net.cpp:100] Creating Layer conv2_2
I1126 06:01:57.863651 29814 net.cpp:434] conv2_2 <- conv2_1
I1126 06:01:57.863658 29814 net.cpp:408] conv2_2 -> conv2_2
I1126 06:01:57.866199 29814 net.cpp:150] Setting up conv2_2
I1126 06:01:57.866214 29814 net.cpp:157] Top shape: 1 128 282 349 (12597504)
I1126 06:01:57.866219 29814 net.cpp:165] Memory required for data: 586805184
I1126 06:01:57.866227 29814 layer_factory.hpp:77] Creating layer relu2_2
I1126 06:01:57.866235 29814 net.cpp:100] Creating Layer relu2_2
I1126 06:01:57.866240 29814 net.cpp:434] relu2_2 <- conv2_2
I1126 06:01:57.866247 29814 net.cpp:395] relu2_2 -> conv2_2 (in-place)
I1126 06:01:57.866442 29814 net.cpp:150] Setting up relu2_2
I1126 06:01:57.866453 29814 net.cpp:157] Top shape: 1 128 282 349 (12597504)
I1126 06:01:57.866457 29814 net.cpp:165] Memory required for data: 637195200
I1126 06:01:57.866461 29814 layer_factory.hpp:77] Creating layer pool2
I1126 06:01:57.866469 29814 net.cpp:100] Creating Layer pool2
I1126 06:01:57.866474 29814 net.cpp:434] pool2 <- conv2_2
I1126 06:01:57.866482 29814 net.cpp:408] pool2 -> pool2
I1126 06:01:57.866533 29814 net.cpp:150] Setting up pool2
I1126 06:01:57.866541 29814 net.cpp:157] Top shape: 1 128 141 175 (3158400)
I1126 06:01:57.866545 29814 net.cpp:165] Memory required for data: 649828800
I1126 06:01:57.866549 29814 layer_factory.hpp:77] Creating layer conv3_1
I1126 06:01:57.866559 29814 net.cpp:100] Creating Layer conv3_1
I1126 06:01:57.866564 29814 net.cpp:434] conv3_1 <- pool2
I1126 06:01:57.866571 29814 net.cpp:408] conv3_1 -> conv3_1
I1126 06:01:57.869837 29814 net.cpp:150] Setting up conv3_1
I1126 06:01:57.869854 29814 net.cpp:157] Top shape: 1 256 141 175 (6316800)
I1126 06:01:57.869859 29814 net.cpp:165] Memory required for data: 675096000
I1126 06:01:57.869871 29814 layer_factory.hpp:77] Creating layer relu3_1
I1126 06:01:57.869890 29814 net.cpp:100] Creating Layer relu3_1
I1126 06:01:57.869895 29814 net.cpp:434] relu3_1 <- conv3_1
I1126 06:01:57.869902 29814 net.cpp:395] relu3_1 -> conv3_1 (in-place)
I1126 06:01:57.870270 29814 net.cpp:150] Setting up relu3_1
I1126 06:01:57.870283 29814 net.cpp:157] Top shape: 1 256 141 175 (6316800)
I1126 06:01:57.870287 29814 net.cpp:165] Memory required for data: 700363200
I1126 06:01:57.870292 29814 layer_factory.hpp:77] Creating layer conv3_2
I1126 06:01:57.870303 29814 net.cpp:100] Creating Layer conv3_2
I1126 06:01:57.870308 29814 net.cpp:434] conv3_2 <- conv3_1
I1126 06:01:57.870316 29814 net.cpp:408] conv3_2 -> conv3_2
I1126 06:01:57.875509 29814 net.cpp:150] Setting up conv3_2
I1126 06:01:57.875526 29814 net.cpp:157] Top shape: 1 256 141 175 (6316800)
I1126 06:01:57.875531 29814 net.cpp:165] Memory required for data: 725630400
I1126 06:01:57.875540 29814 layer_factory.hpp:77] Creating layer relu3_2
I1126 06:01:57.875547 29814 net.cpp:100] Creating Layer relu3_2
I1126 06:01:57.875552 29814 net.cpp:434] relu3_2 <- conv3_2
I1126 06:01:57.875560 29814 net.cpp:395] relu3_2 -> conv3_2 (in-place)
I1126 06:01:57.875751 29814 net.cpp:150] Setting up relu3_2
I1126 06:01:57.875761 29814 net.cpp:157] Top shape: 1 256 141 175 (6316800)
I1126 06:01:57.875766 29814 net.cpp:165] Memory required for data: 750897600
I1126 06:01:57.875769 29814 layer_factory.hpp:77] Creating layer conv3_3
I1126 06:01:57.875782 29814 net.cpp:100] Creating Layer conv3_3
I1126 06:01:57.875787 29814 net.cpp:434] conv3_3 <- conv3_2
I1126 06:01:57.875794 29814 net.cpp:408] conv3_3 -> conv3_3
I1126 06:01:57.880962 29814 net.cpp:150] Setting up conv3_3
I1126 06:01:57.880980 29814 net.cpp:157] Top shape: 1 256 141 175 (6316800)
I1126 06:01:57.880985 29814 net.cpp:165] Memory required for data: 776164800
I1126 06:01:57.880993 29814 layer_factory.hpp:77] Creating layer relu3_3
I1126 06:01:57.881001 29814 net.cpp:100] Creating Layer relu3_3
I1126 06:01:57.881006 29814 net.cpp:434] relu3_3 <- conv3_3
I1126 06:01:57.881013 29814 net.cpp:395] relu3_3 -> conv3_3 (in-place)
I1126 06:01:57.881204 29814 net.cpp:150] Setting up relu3_3
I1126 06:01:57.881214 29814 net.cpp:157] Top shape: 1 256 141 175 (6316800)
I1126 06:01:57.881219 29814 net.cpp:165] Memory required for data: 801432000
I1126 06:01:57.881223 29814 layer_factory.hpp:77] Creating layer pool3
I1126 06:01:57.881232 29814 net.cpp:100] Creating Layer pool3
I1126 06:01:57.881237 29814 net.cpp:434] pool3 <- conv3_3
I1126 06:01:57.881242 29814 net.cpp:408] pool3 -> pool3
I1126 06:01:57.881296 29814 net.cpp:150] Setting up pool3
I1126 06:01:57.881304 29814 net.cpp:157] Top shape: 1 256 71 88 (1599488)
I1126 06:01:57.881307 29814 net.cpp:165] Memory required for data: 807829952
I1126 06:01:57.881311 29814 layer_factory.hpp:77] Creating layer pool3_pool3_0_split
I1126 06:01:57.881319 29814 net.cpp:100] Creating Layer pool3_pool3_0_split
I1126 06:01:57.881323 29814 net.cpp:434] pool3_pool3_0_split <- pool3
I1126 06:01:57.881330 29814 net.cpp:408] pool3_pool3_0_split -> pool3_pool3_0_split_0
I1126 06:01:57.881336 29814 net.cpp:408] pool3_pool3_0_split -> pool3_pool3_0_split_1
I1126 06:01:57.881378 29814 net.cpp:150] Setting up pool3_pool3_0_split
I1126 06:01:57.881386 29814 net.cpp:157] Top shape: 1 256 71 88 (1599488)
I1126 06:01:57.881391 29814 net.cpp:157] Top shape: 1 256 71 88 (1599488)
I1126 06:01:57.881394 29814 net.cpp:165] Memory required for data: 820625856
I1126 06:01:57.881398 29814 layer_factory.hpp:77] Creating layer conv4_1
I1126 06:01:57.881408 29814 net.cpp:100] Creating Layer conv4_1
I1126 06:01:57.881413 29814 net.cpp:434] conv4_1 <- pool3_pool3_0_split_0
I1126 06:01:57.881422 29814 net.cpp:408] conv4_1 -> conv4_1
I1126 06:01:57.890446 29814 net.cpp:150] Setting up conv4_1
I1126 06:01:57.890475 29814 net.cpp:157] Top shape: 1 512 71 88 (3198976)
I1126 06:01:57.890481 29814 net.cpp:165] Memory required for data: 833421760
I1126 06:01:57.890491 29814 layer_factory.hpp:77] Creating layer relu4_1
I1126 06:01:57.890499 29814 net.cpp:100] Creating Layer relu4_1
I1126 06:01:57.890517 29814 net.cpp:434] relu4_1 <- conv4_1
I1126 06:01:57.890525 29814 net.cpp:395] relu4_1 -> conv4_1 (in-place)
I1126 06:01:57.890897 29814 net.cpp:150] Setting up relu4_1
I1126 06:01:57.890910 29814 net.cpp:157] Top shape: 1 512 71 88 (3198976)
I1126 06:01:57.890915 29814 net.cpp:165] Memory required for data: 846217664
I1126 06:01:57.890920 29814 layer_factory.hpp:77] Creating layer conv4_2
I1126 06:01:57.890931 29814 net.cpp:100] Creating Layer conv4_2
I1126 06:01:57.890938 29814 net.cpp:434] conv4_2 <- conv4_1
I1126 06:01:57.890945 29814 net.cpp:408] conv4_2 -> conv4_2
I1126 06:01:57.908023 29814 net.cpp:150] Setting up conv4_2
I1126 06:01:57.908064 29814 net.cpp:157] Top shape: 1 512 71 88 (3198976)
I1126 06:01:57.908069 29814 net.cpp:165] Memory required for data: 859013568
I1126 06:01:57.908085 29814 layer_factory.hpp:77] Creating layer relu4_2
I1126 06:01:57.908097 29814 net.cpp:100] Creating Layer relu4_2
I1126 06:01:57.908103 29814 net.cpp:434] relu4_2 <- conv4_2
I1126 06:01:57.908113 29814 net.cpp:395] relu4_2 -> conv4_2 (in-place)
I1126 06:01:57.908324 29814 net.cpp:150] Setting up relu4_2
I1126 06:01:57.908335 29814 net.cpp:157] Top shape: 1 512 71 88 (3198976)
I1126 06:01:57.908339 29814 net.cpp:165] Memory required for data: 871809472
I1126 06:01:57.908344 29814 layer_factory.hpp:77] Creating layer conv4_3
I1126 06:01:57.908357 29814 net.cpp:100] Creating Layer conv4_3
I1126 06:01:57.908362 29814 net.cpp:434] conv4_3 <- conv4_2
I1126 06:01:57.908371 29814 net.cpp:408] conv4_3 -> conv4_3
I1126 06:01:57.925545 29814 net.cpp:150] Setting up conv4_3
I1126 06:01:57.925587 29814 net.cpp:157] Top shape: 1 512 71 88 (3198976)
I1126 06:01:57.925592 29814 net.cpp:165] Memory required for data: 884605376
I1126 06:01:57.925603 29814 layer_factory.hpp:77] Creating layer relu4_3
I1126 06:01:57.925616 29814 net.cpp:100] Creating Layer relu4_3
I1126 06:01:57.925621 29814 net.cpp:434] relu4_3 <- conv4_3
I1126 06:01:57.925635 29814 net.cpp:395] relu4_3 -> conv4_3 (in-place)
I1126 06:01:57.925855 29814 net.cpp:150] Setting up relu4_3
I1126 06:01:57.925866 29814 net.cpp:157] Top shape: 1 512 71 88 (3198976)
I1126 06:01:57.925870 29814 net.cpp:165] Memory required for data: 897401280
I1126 06:01:57.925875 29814 layer_factory.hpp:77] Creating layer pool4
I1126 06:01:57.925885 29814 net.cpp:100] Creating Layer pool4
I1126 06:01:57.925890 29814 net.cpp:434] pool4 <- conv4_3
I1126 06:01:57.925896 29814 net.cpp:408] pool4 -> pool4
I1126 06:01:57.925954 29814 net.cpp:150] Setting up pool4
I1126 06:01:57.925962 29814 net.cpp:157] Top shape: 1 512 36 44 (811008)
I1126 06:01:57.925966 29814 net.cpp:165] Memory required for data: 900645312
I1126 06:01:57.925971 29814 layer_factory.hpp:77] Creating layer pool4_pool4_0_split
I1126 06:01:57.925977 29814 net.cpp:100] Creating Layer pool4_pool4_0_split
I1126 06:01:57.925981 29814 net.cpp:434] pool4_pool4_0_split <- pool4
I1126 06:01:57.925989 29814 net.cpp:408] pool4_pool4_0_split -> pool4_pool4_0_split_0
I1126 06:01:57.925997 29814 net.cpp:408] pool4_pool4_0_split -> pool4_pool4_0_split_1
I1126 06:01:57.926040 29814 net.cpp:150] Setting up pool4_pool4_0_split
I1126 06:01:57.926049 29814 net.cpp:157] Top shape: 1 512 36 44 (811008)
I1126 06:01:57.926054 29814 net.cpp:157] Top shape: 1 512 36 44 (811008)
I1126 06:01:57.926059 29814 net.cpp:165] Memory required for data: 907133376
I1126 06:01:57.926062 29814 layer_factory.hpp:77] Creating layer conv5_1
I1126 06:01:57.926074 29814 net.cpp:100] Creating Layer conv5_1
I1126 06:01:57.926079 29814 net.cpp:434] conv5_1 <- pool4_pool4_0_split_0
I1126 06:01:57.926087 29814 net.cpp:408] conv5_1 -> conv5_1
I1126 06:01:57.943125 29814 net.cpp:150] Setting up conv5_1
I1126 06:01:57.943162 29814 net.cpp:157] Top shape: 1 512 36 44 (811008)
I1126 06:01:57.943167 29814 net.cpp:165] Memory required for data: 910377408
I1126 06:01:57.943183 29814 layer_factory.hpp:77] Creating layer relu5_1
I1126 06:01:57.943197 29814 net.cpp:100] Creating Layer relu5_1
I1126 06:01:57.943204 29814 net.cpp:434] relu5_1 <- conv5_1
I1126 06:01:57.943213 29814 net.cpp:395] relu5_1 -> conv5_1 (in-place)
I1126 06:01:57.943606 29814 net.cpp:150] Setting up relu5_1
I1126 06:01:57.943620 29814 net.cpp:157] Top shape: 1 512 36 44 (811008)
I1126 06:01:57.943624 29814 net.cpp:165] Memory required for data: 913621440
I1126 06:01:57.943629 29814 layer_factory.hpp:77] Creating layer conv5_2
I1126 06:01:57.943644 29814 net.cpp:100] Creating Layer conv5_2
I1126 06:01:57.943650 29814 net.cpp:434] conv5_2 <- conv5_1
I1126 06:01:57.943656 29814 net.cpp:408] conv5_2 -> conv5_2
I1126 06:01:57.960993 29814 net.cpp:150] Setting up conv5_2
I1126 06:01:57.961032 29814 net.cpp:157] Top shape: 1 512 36 44 (811008)
I1126 06:01:57.961038 29814 net.cpp:165] Memory required for data: 916865472
I1126 06:01:57.961048 29814 layer_factory.hpp:77] Creating layer relu5_2
I1126 06:01:57.961061 29814 net.cpp:100] Creating Layer relu5_2
I1126 06:01:57.961067 29814 net.cpp:434] relu5_2 <- conv5_2
I1126 06:01:57.961078 29814 net.cpp:395] relu5_2 -> conv5_2 (in-place)
I1126 06:01:57.961282 29814 net.cpp:150] Setting up relu5_2
I1126 06:01:57.961293 29814 net.cpp:157] Top shape: 1 512 36 44 (811008)
I1126 06:01:57.961297 29814 net.cpp:165] Memory required for data: 920109504
I1126 06:01:57.961302 29814 layer_factory.hpp:77] Creating layer conv5_3
I1126 06:01:57.961321 29814 net.cpp:100] Creating Layer conv5_3
I1126 06:01:57.961326 29814 net.cpp:434] conv5_3 <- conv5_2
I1126 06:01:57.961333 29814 net.cpp:408] conv5_3 -> conv5_3
I1126 06:01:57.978437 29814 net.cpp:150] Setting up conv5_3
I1126 06:01:57.978478 29814 net.cpp:157] Top shape: 1 512 36 44 (811008)
I1126 06:01:57.978483 29814 net.cpp:165] Memory required for data: 923353536
I1126 06:01:57.978492 29814 layer_factory.hpp:77] Creating layer relu5_3
I1126 06:01:57.978507 29814 net.cpp:100] Creating Layer relu5_3
I1126 06:01:57.978513 29814 net.cpp:434] relu5_3 <- conv5_3
I1126 06:01:57.978521 29814 net.cpp:395] relu5_3 -> conv5_3 (in-place)
I1126 06:01:57.978729 29814 net.cpp:150] Setting up relu5_3
I1126 06:01:57.978739 29814 net.cpp:157] Top shape: 1 512 36 44 (811008)
I1126 06:01:57.978744 29814 net.cpp:165] Memory required for data: 926597568
I1126 06:01:57.978747 29814 layer_factory.hpp:77] Creating layer pool5
I1126 06:01:57.978757 29814 net.cpp:100] Creating Layer pool5
I1126 06:01:57.978762 29814 net.cpp:434] pool5 <- conv5_3
I1126 06:01:57.978771 29814 net.cpp:408] pool5 -> pool5
I1126 06:01:57.978827 29814 net.cpp:150] Setting up pool5
I1126 06:01:57.978835 29814 net.cpp:157] Top shape: 1 512 18 22 (202752)
I1126 06:01:57.978839 29814 net.cpp:165] Memory required for data: 927408576
I1126 06:01:57.978843 29814 layer_factory.hpp:77] Creating layer fc6
I1126 06:01:57.978857 29814 net.cpp:100] Creating Layer fc6
I1126 06:01:57.978862 29814 net.cpp:434] fc6 <- pool5
I1126 06:01:57.978869 29814 net.cpp:408] fc6 -> fc6
I1126 06:01:58.834496 29814 net.cpp:150] Setting up fc6
I1126 06:01:58.834554 29814 net.cpp:157] Top shape: 1 4096 12 16 (786432)
I1126 06:01:58.834560 29814 net.cpp:165] Memory required for data: 930554304
I1126 06:01:58.834573 29814 layer_factory.hpp:77] Creating layer relu6
I1126 06:01:58.834588 29814 net.cpp:100] Creating Layer relu6
I1126 06:01:58.834594 29814 net.cpp:434] relu6 <- fc6
I1126 06:01:58.834602 29814 net.cpp:395] relu6 -> fc6 (in-place)
I1126 06:01:58.835003 29814 net.cpp:150] Setting up relu6
I1126 06:01:58.835019 29814 net.cpp:157] Top shape: 1 4096 12 16 (786432)
I1126 06:01:58.835026 29814 net.cpp:165] Memory required for data: 933700032
I1126 06:01:58.835031 29814 layer_factory.hpp:77] Creating layer drop6
I1126 06:01:58.835039 29814 net.cpp:100] Creating Layer drop6
I1126 06:01:58.835044 29814 net.cpp:434] drop6 <- fc6
I1126 06:01:58.835052 29814 net.cpp:395] drop6 -> fc6 (in-place)
I1126 06:01:58.835093 29814 net.cpp:150] Setting up drop6
I1126 06:01:58.835100 29814 net.cpp:157] Top shape: 1 4096 12 16 (786432)
I1126 06:01:58.835105 29814 net.cpp:165] Memory required for data: 936845760
I1126 06:01:58.835110 29814 layer_factory.hpp:77] Creating layer fc7
I1126 06:01:58.835124 29814 net.cpp:100] Creating Layer fc7
I1126 06:01:58.835144 29814 net.cpp:434] fc7 <- fc6
I1126 06:01:58.835151 29814 net.cpp:408] fc7 -> fc7
I1126 06:01:58.951339 29814 net.cpp:150] Setting up fc7
I1126 06:01:58.951385 29814 net.cpp:157] Top shape: 1 4096 12 16 (786432)
I1126 06:01:58.951390 29814 net.cpp:165] Memory required for data: 939991488
I1126 06:01:58.951400 29814 layer_factory.hpp:77] Creating layer relu7
I1126 06:01:58.951416 29814 net.cpp:100] Creating Layer relu7
I1126 06:01:58.951421 29814 net.cpp:434] relu7 <- fc7
I1126 06:01:58.951428 29814 net.cpp:395] relu7 -> fc7 (in-place)
I1126 06:01:58.951640 29814 net.cpp:150] Setting up relu7
I1126 06:01:58.951653 29814 net.cpp:157] Top shape: 1 4096 12 16 (786432)
I1126 06:01:58.951658 29814 net.cpp:165] Memory required for data: 943137216
I1126 06:01:58.951661 29814 layer_factory.hpp:77] Creating layer drop7
I1126 06:01:58.951670 29814 net.cpp:100] Creating Layer drop7
I1126 06:01:58.951674 29814 net.cpp:434] drop7 <- fc7
I1126 06:01:58.951680 29814 net.cpp:395] drop7 -> fc7 (in-place)
I1126 06:01:58.951721 29814 net.cpp:150] Setting up drop7
I1126 06:01:58.951730 29814 net.cpp:157] Top shape: 1 4096 12 16 (786432)
I1126 06:01:58.951733 29814 net.cpp:165] Memory required for data: 946282944
I1126 06:01:58.951737 29814 layer_factory.hpp:77] Creating layer score_fr
I1126 06:01:58.951750 29814 net.cpp:100] Creating Layer score_fr
I1126 06:01:58.951753 29814 net.cpp:434] score_fr <- fc7
I1126 06:01:58.951762 29814 net.cpp:408] score_fr -> score_fr
I1126 06:01:58.953611 29814 net.cpp:150] Setting up score_fr
I1126 06:01:58.953626 29814 net.cpp:157] Top shape: 1 16 12 16 (3072)
I1126 06:01:58.953631 29814 net.cpp:165] Memory required for data: 946295232
I1126 06:01:58.953639 29814 layer_factory.hpp:77] Creating layer upscore2
I1126 06:01:58.953651 29814 net.cpp:100] Creating Layer upscore2
I1126 06:01:58.953656 29814 net.cpp:434] upscore2 <- score_fr
I1126 06:01:58.953666 29814 net.cpp:408] upscore2 -> upscore2
I1126 06:01:58.953946 29814 net.cpp:150] Setting up upscore2
I1126 06:01:58.953955 29814 net.cpp:157] Top shape: 1 16 26 34 (14144)
I1126 06:01:58.953960 29814 net.cpp:165] Memory required for data: 946351808
I1126 06:01:58.953974 29814 layer_factory.hpp:77] Creating layer upscore2_upscore2_0_split
I1126 06:01:58.953984 29814 net.cpp:100] Creating Layer upscore2_upscore2_0_split
I1126 06:01:58.953987 29814 net.cpp:434] upscore2_upscore2_0_split <- upscore2
I1126 06:01:58.953994 29814 net.cpp:408] upscore2_upscore2_0_split -> upscore2_upscore2_0_split_0
I1126 06:01:58.954002 29814 net.cpp:408] upscore2_upscore2_0_split -> upscore2_upscore2_0_split_1
I1126 06:01:58.954052 29814 net.cpp:150] Setting up upscore2_upscore2_0_split
I1126 06:01:58.954061 29814 net.cpp:157] Top shape: 1 16 26 34 (14144)
I1126 06:01:58.954066 29814 net.cpp:157] Top shape: 1 16 26 34 (14144)
I1126 06:01:58.954069 29814 net.cpp:165] Memory required for data: 946464960
I1126 06:01:58.954073 29814 layer_factory.hpp:77] Creating layer scale_pool4
I1126 06:01:58.954082 29814 net.cpp:100] Creating Layer scale_pool4
I1126 06:01:58.954087 29814 net.cpp:434] scale_pool4 <- pool4_pool4_0_split_1
I1126 06:01:58.954094 29814 net.cpp:408] scale_pool4 -> scale_pool4
I1126 06:01:58.954216 29814 net.cpp:150] Setting up scale_pool4
I1126 06:01:58.954226 29814 net.cpp:157] Top shape: 1 512 36 44 (811008)
I1126 06:01:58.954229 29814 net.cpp:165] Memory required for data: 949708992
I1126 06:01:58.954234 29814 layer_factory.hpp:77] Creating layer score_pool4
I1126 06:01:58.954246 29814 net.cpp:100] Creating Layer score_pool4
I1126 06:01:58.954251 29814 net.cpp:434] score_pool4 <- scale_pool4
I1126 06:01:58.954257 29814 net.cpp:408] score_pool4 -> score_pool4
I1126 06:01:58.955624 29814 net.cpp:150] Setting up score_pool4
I1126 06:01:58.955641 29814 net.cpp:157] Top shape: 1 16 36 44 (25344)
I1126 06:01:58.955647 29814 net.cpp:165] Memory required for data: 949810368
I1126 06:01:58.955656 29814 layer_factory.hpp:77] Creating layer score_pool4c
I1126 06:01:58.955664 29814 net.cpp:100] Creating Layer score_pool4c
I1126 06:01:58.955669 29814 net.cpp:434] score_pool4c <- score_pool4
I1126 06:01:58.955687 29814 net.cpp:434] score_pool4c <- upscore2_upscore2_0_split_0
I1126 06:01:58.955695 29814 net.cpp:408] score_pool4c -> score_pool4c
I1126 06:01:58.955734 29814 net.cpp:150] Setting up score_pool4c
I1126 06:01:58.955741 29814 net.cpp:157] Top shape: 1 16 26 34 (14144)
I1126 06:01:58.955745 29814 net.cpp:165] Memory required for data: 949866944
I1126 06:01:58.955750 29814 layer_factory.hpp:77] Creating layer fuse_pool4
I1126 06:01:58.955760 29814 net.cpp:100] Creating Layer fuse_pool4
I1126 06:01:58.955765 29814 net.cpp:434] fuse_pool4 <- upscore2_upscore2_0_split_1
I1126 06:01:58.955770 29814 net.cpp:434] fuse_pool4 <- score_pool4c
I1126 06:01:58.955775 29814 net.cpp:408] fuse_pool4 -> fuse_pool4
I1126 06:01:58.955809 29814 net.cpp:150] Setting up fuse_pool4
I1126 06:01:58.955816 29814 net.cpp:157] Top shape: 1 16 26 34 (14144)
I1126 06:01:58.955821 29814 net.cpp:165] Memory required for data: 949923520
I1126 06:01:58.955824 29814 layer_factory.hpp:77] Creating layer upscore_pool4
I1126 06:01:58.955834 29814 net.cpp:100] Creating Layer upscore_pool4
I1126 06:01:58.955838 29814 net.cpp:434] upscore_pool4 <- fuse_pool4
I1126 06:01:58.955847 29814 net.cpp:408] upscore_pool4 -> upscore_pool4
I1126 06:01:58.956113 29814 net.cpp:150] Setting up upscore_pool4
I1126 06:01:58.956122 29814 net.cpp:157] Top shape: 1 16 54 70 (60480)
I1126 06:01:58.956126 29814 net.cpp:165] Memory required for data: 950165440
I1126 06:01:58.956132 29814 layer_factory.hpp:77] Creating layer upscore_pool4_upscore_pool4_0_split
I1126 06:01:58.956140 29814 net.cpp:100] Creating Layer upscore_pool4_upscore_pool4_0_split
I1126 06:01:58.956143 29814 net.cpp:434] upscore_pool4_upscore_pool4_0_split <- upscore_pool4
I1126 06:01:58.956149 29814 net.cpp:408] upscore_pool4_upscore_pool4_0_split -> upscore_pool4_upscore_pool4_0_split_0
I1126 06:01:58.956156 29814 net.cpp:408] upscore_pool4_upscore_pool4_0_split -> upscore_pool4_upscore_pool4_0_split_1
I1126 06:01:58.956202 29814 net.cpp:150] Setting up upscore_pool4_upscore_pool4_0_split
I1126 06:01:58.956209 29814 net.cpp:157] Top shape: 1 16 54 70 (60480)
I1126 06:01:58.956214 29814 net.cpp:157] Top shape: 1 16 54 70 (60480)
I1126 06:01:58.956218 29814 net.cpp:165] Memory required for data: 950649280
I1126 06:01:58.956223 29814 layer_factory.hpp:77] Creating layer scale_pool3
I1126 06:01:58.956230 29814 net.cpp:100] Creating Layer scale_pool3
I1126 06:01:58.956234 29814 net.cpp:434] scale_pool3 <- pool3_pool3_0_split_1
I1126 06:01:58.956243 29814 net.cpp:408] scale_pool3 -> scale_pool3
I1126 06:01:58.956357 29814 net.cpp:150] Setting up scale_pool3
I1126 06:01:58.956365 29814 net.cpp:157] Top shape: 1 256 71 88 (1599488)
I1126 06:01:58.956369 29814 net.cpp:165] Memory required for data: 957047232
I1126 06:01:58.956374 29814 layer_factory.hpp:77] Creating layer score_pool3
I1126 06:01:58.956385 29814 net.cpp:100] Creating Layer score_pool3
I1126 06:01:58.956390 29814 net.cpp:434] score_pool3 <- scale_pool3
I1126 06:01:58.956396 29814 net.cpp:408] score_pool3 -> score_pool3
I1126 06:01:58.957712 29814 net.cpp:150] Setting up score_pool3
I1126 06:01:58.957726 29814 net.cpp:157] Top shape: 1 16 71 88 (99968)
I1126 06:01:58.957731 29814 net.cpp:165] Memory required for data: 957447104
I1126 06:01:58.957739 29814 layer_factory.hpp:77] Creating layer score_pool3c
I1126 06:01:58.957747 29814 net.cpp:100] Creating Layer score_pool3c
I1126 06:01:58.957752 29814 net.cpp:434] score_pool3c <- score_pool3
I1126 06:01:58.957758 29814 net.cpp:434] score_pool3c <- upscore_pool4_upscore_pool4_0_split_0
I1126 06:01:58.957764 29814 net.cpp:408] score_pool3c -> score_pool3c
I1126 06:01:58.957803 29814 net.cpp:150] Setting up score_pool3c
I1126 06:01:58.957810 29814 net.cpp:157] Top shape: 1 16 54 70 (60480)
I1126 06:01:58.957814 29814 net.cpp:165] Memory required for data: 957689024
I1126 06:01:58.957818 29814 layer_factory.hpp:77] Creating layer fuse_pool3
I1126 06:01:58.957828 29814 net.cpp:100] Creating Layer fuse_pool3
I1126 06:01:58.957833 29814 net.cpp:434] fuse_pool3 <- upscore_pool4_upscore_pool4_0_split_1
I1126 06:01:58.957845 29814 net.cpp:434] fuse_pool3 <- score_pool3c
I1126 06:01:58.957852 29814 net.cpp:408] fuse_pool3 -> fuse_pool3
I1126 06:01:58.957886 29814 net.cpp:150] Setting up fuse_pool3
I1126 06:01:58.957895 29814 net.cpp:157] Top shape: 1 16 54 70 (60480)
I1126 06:01:58.957898 29814 net.cpp:165] Memory required for data: 957930944
I1126 06:01:58.957902 29814 layer_factory.hpp:77] Creating layer upscore8
I1126 06:01:58.957911 29814 net.cpp:100] Creating Layer upscore8
I1126 06:01:58.957916 29814 net.cpp:434] upscore8 <- fuse_pool3
I1126 06:01:58.957922 29814 net.cpp:408] upscore8 -> upscore8
I1126 06:01:58.958509 29814 net.cpp:150] Setting up upscore8
I1126 06:01:58.958519 29814 net.cpp:157] Top shape: 1 16 440 568 (3998720)
I1126 06:01:58.958523 29814 net.cpp:165] Memory required for data: 973925824
I1126 06:01:58.958529 29814 layer_factory.hpp:77] Creating layer score
I1126 06:01:58.958536 29814 net.cpp:100] Creating Layer score
I1126 06:01:58.958540 29814 net.cpp:434] score <- upscore8
I1126 06:01:58.958545 29814 net.cpp:434] score <- data_data_0_split_1
I1126 06:01:58.958554 29814 net.cpp:408] score -> score
I1126 06:01:58.958585 29814 net.cpp:150] Setting up score
I1126 06:01:58.958591 29814 net.cpp:157] Top shape: 1 16 366 500 (2928000)
I1126 06:01:58.958595 29814 net.cpp:165] Memory required for data: 985637824
I1126 06:01:58.958600 29814 layer_factory.hpp:77] Creating layer loss
I1126 06:01:58.958606 29814 net.cpp:100] Creating Layer loss
I1126 06:01:58.958611 29814 net.cpp:434] loss <- score
I1126 06:01:58.958616 29814 net.cpp:434] loss <- label
I1126 06:01:58.958622 29814 net.cpp:408] loss -> loss
I1126 06:01:58.958633 29814 layer_factory.hpp:77] Creating layer loss
…
