…
test_initialization: false
average_loss: 20
iter_size: 1
I0109 06:24:39.329769 13270 solver.cpp:81] Creating training net from train_net file: train.prototxt
I0109 06:24:39.331123 13270 net.cpp:58] Initializing net from parameters: 
state {
  phase: TRAIN
}
layer {
  name: "data"
  type: "Python"
  top: "data"
  top: "label"
  python_param {
    module: "voc_layers"
    layer: "PartialSBDDSegDataLayer"
    param_str: "{\'sbdd_dir\': \'../data/sbdd/dataset\', \'seed\': 1337, \'split\': \'train5\', \'mean\': (104.00699, 116.66877, 122.67892)}"
  }
}
layer {
  name: "conv1_1"
  type: "Convolution"
  bottom: "data"
  top: "conv1_1"
  param {
    lr_mult: 1
    decay_mult: 1
  }
  param {
    lr_mult: 2
    decay_mult: 0
  }
  convolution_param {
    num_output: 64
    pad: 100
    kernel_size: 3
    stride: 1
    weight_filler {
      type: "xavier"
    }
  }
}
layer {
  name: "relu1_1"
  type: "ReLU"
  bottom: "conv1_1"
  top: "conv1_1"
}
layer {
  name: "conv1_2"
  type: "Convolution"
  bottom: "conv1_1"
  top: "conv1_2"
  param {
    lr_mult: 1
    decay_mult: 1
  }
  param {
    lr_mult: 2
    decay_mult: 0
  }
  convolution_param {
    num_output: 64
    pad: 1
    kernel_size: 3
    stride: 1
    weight_filler {
      type: "xavier"
    }
  }
}
layer {
  name: "relu1_2"
  type: "ReLU"
  bottom: "conv1_2"
  top: "conv1_2"
}
layer {
  name: "pool1"
  type: "Pooling"
  bottom: "conv1_2"
  top: "pool1"
  pooling_param {
    pool: MAX
    kernel_size: 2
    stride: 2
  }
}
layer {
  name: "conv2_1"
  type: "Convolution"
  bottom: "pool1"
  top: "conv2_1"
  param {
    lr_mult: 1
    decay_mult: 1
  }
  param {
    lr_mult: 2
    decay_mult: 0
  }
  convolution_param {
    num_output: 128
    pad: 1
    kernel_size: 3
    stride: 1
    weight_filler {
      type: "xavier"
    }
  }
}
layer {
  name: "relu2_1"
  type: "ReLU"
  bottom: "conv2_1"
  top: "conv2_1"
}
layer {
  name: "conv2_2"
  type: "Convolution"
  bottom: "conv2_1"
  top: "conv2_2"
  param {
    lr_mult: 1
    decay_mult: 1
  }
  param {
    lr_mult: 2
    decay_mult: 0
  }
  convolution_param {
    num_output: 128
    pad: 1
    kernel_size: 3
    stride: 1
    weight_filler {
      type: "xavier"
    }
  }
}
layer {
  name: "relu2_2"
  type: "ReLU"
  bottom: "conv2_2"
  top: "conv2_2"
}
layer {
  name: "pool2"
  type: "Pooling"
  bottom: "conv2_2"
  top: "pool2"
  pooling_param {
    pool: MAX
    kernel_size: 2
    stride: 2
  }
}
layer {
  name: "conv3_1"
  type: "Convolution"
  bottom: "pool2"
  top: "conv3_1"
  param {
    lr_mult: 1
    decay_mult: 1
  }
  param {
    lr_mult: 2
    decay_mult: 0
  }
  convolution_param {
    num_output: 256
    pad: 1
    kernel_size: 3
    stride: 1
    weight_filler {
      type: "xavier"
    }
  }
}
layer {
  name: "relu3_1"
  type: "ReLU"
  bottom: "conv3_1"
  top: "conv3_1"
}
layer {
  name: "conv3_2"
  type: "Convolution"
  bottom: "conv3_1"
  top: "conv3_2"
  param {
    lr_mult: 1
    decay_mult: 1
  }
  param {
    lr_mult: 2
    decay_mult: 0
  }
  convolution_param {
    num_output: 256
    pad: 1
    kernel_size: 3
    stride: 1
    weight_filler {
      type: "xavier"
    }
  }
}
layer {
  name: "relu3_2"
  type: "ReLU"
  bottom: "conv3_2"
  top: "conv3_2"
}
layer {
  name: "conv3_3"
  type: "Convolution"
  bottom: "conv3_2"
  top: "conv3_3"
  param {
    lr_mult: 1
    decay_mult: 1
  }
  param {
    lr_mult: 2
    decay_mult: 0
  }
  convolution_param {
    num_output: 256
    pad: 1
    kernel_size: 3
    stride: 1
    weight_filler {
      type: "xavier"
    }
  }
}
layer {
  name: "relu3_3"
  type: "ReLU"
  bottom: "conv3_3"
  top: "conv3_3"
}
layer {
  name: "pool3"
  type: "Pooling"
  bottom: "conv3_3"
  top: "pool3"
  pooling_param {
    pool: MAX
    kernel_size: 2
    stride: 2
  }
}
layer {
  name: "conv4_1"
  type: "Convolution"
  bottom: "pool3"
  top: "conv4_1"
  param {
    lr_mult: 1
    decay_mult: 1
  }
  param {
    lr_mult: 2
    decay_mult: 0
  }
  convolution_param {
    num_output: 512
    pad: 1
    kernel_size: 3
    stride: 1
    weight_filler {
      type: "xavier"
    }
  }
}
layer {
  name: "relu4_1"
  type: "ReLU"
  bottom: "conv4_1"
  top: "conv4_1"
}
layer {
  name: "conv4_2"
  type: "Convolution"
  bottom: "conv4_1"
  top: "conv4_2"
  param {
    lr_mult: 1
    decay_mult: 1
  }
  param {
    lr_mult: 2
    decay_mult: 0
  }
  convolution_param {
    num_output: 512
    pad: 1
    kernel_size: 3
    stride: 1
    weight_filler {
      type: "xavier"
    }
  }
}
layer {
  name: "relu4_2"
  type: "ReLU"
  bottom: "conv4_2"
  top: "conv4_2"
}
layer {
  name: "conv4_3"
  type: "Convolution"
  bottom: "conv4_2"
  top: "conv4_3"
  param {
    lr_mult: 1
    decay_mult: 1
  }
  param {
    lr_mult: 2
    decay_mult: 0
  }
  convolution_param {
    num_output: 512
    pad: 1
    kernel_size: 3
    stride: 1
    weight_filler {
      type: "xavier"
    }
  }
}
layer {
  name: "relu4_3"
  type: "ReLU"
  bottom: "conv4_3"
  top: "conv4_3"
}
layer {
  name: "pool4"
  type: "Pooling"
  bottom: "conv4_3"
  top: "pool4"
  pooling_param {
    pool: MAX
    kernel_size: 2
    stride: 2
  }
}
layer {
  name: "conv5_1"
  type: "Convolution"
  bottom: "pool4"
  top: "conv5_1"
  param {
    lr_mult: 1
    decay_mult: 1
  }
  param {
    lr_mult: 2
    decay_mult: 0
  }
  convolution_param {
    num_output: 512
    pad: 1
    kernel_size: 3
    stride: 1
    weight_filler {
      type: "xavier"
    }
  }
}
layer {
  name: "relu5_1"
  type: "ReLU"
  bottom: "conv5_1"
  top: "conv5_1"
}
layer {
  name: "conv5_2"
  type: "Convolution"
  bottom: "conv5_1"
  top: "conv5_2"
  param {
    lr_mult: 1
    decay_mult: 1
  }
  param {
    lr_mult: 2
    decay_mult: 0
  }
  convolution_param {
    num_output: 512
    pad: 1
    kernel_size: 3
    stride: 1
    weight_filler {
      type: "xavier"
    }
  }
}
layer {
  name: "relu5_2"
  type: "ReLU"
  bottom: "conv5_2"
  top: "conv5_2"
}
layer {
  name: "conv5_3"
  type: "Convolution"
  bottom: "conv5_2"
  top: "conv5_3"
  param {
    lr_mult: 1
    decay_mult: 1
  }
  param {
    lr_mult: 2
    decay_mult: 0
  }
  convolution_param {
    num_output: 512
    pad: 1
    kernel_size: 3
    stride: 1
    weight_filler {
      type: "xavier"
    }
  }
}
layer {
  name: "relu5_3"
  type: "ReLU"
  bottom: "conv5_3"
  top: "conv5_3"
}
layer {
  name: "pool5"
  type: "Pooling"
  bottom: "conv5_3"
  top: "pool5"
  pooling_param {
    pool: MAX
    kernel_size: 2
    stride: 2
  }
}
layer {
  name: "fc6"
  type: "Convolution"
  bottom: "pool5"
  top: "fc6"
  param {
    lr_mult: 1
    decay_mult: 1
  }
  param {
    lr_mult: 2
    decay_mult: 0
  }
  convolution_param {
    num_output: 4096
    pad: 0
    kernel_size: 7
    stride: 1
    weight_filler {
      type: "xavier"
    }
  }
}
layer {
  name: "relu6"
  type: "ReLU"
  bottom: "fc6"
  top: "fc6"
}
layer {
  name: "drop6"
  type: "Dropout"
  bottom: "fc6"
  top: "fc6"
  dropout_param {
    dropout_ratio: 0.5
  }
}
layer {
  name: "fc7"
  type: "Convolution"
  bottom: "fc6"
  top: "fc7"
  param {
    lr_mult: 1
    decay_mult: 1
  }
  param {
    lr_mult: 2
    decay_mult: 0
  }
  convolution_param {
    num_output: 4096
    pad: 0
    kernel_size: 1
    stride: 1
    weight_filler {
      type: "xavier"
    }
  }
}
layer {
  name: "relu7"
  type: "ReLU"
  bottom: "fc7"
  top: "fc7"
}
layer {
  name: "drop7"
  type: "Dropout"
  bottom: "fc7"
  top: "fc7"
  dropout_param {
    dropout_ratio: 0.5
  }
}
layer {
  name: "score_fr"
  type: "Convolution"
  bottom: "fc7"
  top: "score_fr"
  param {
    lr_mult: 1
    decay_mult: 1
  }
  param {
    lr_mult: 2
    decay_mult: 0
  }
  convolution_param {
    num_output: 6
    pad: 0
    kernel_size: 1
    weight_filler {
      type: "xavier"
    }
  }
}
layer {
  name: "upscore2"
  type: "Deconvolution"
  bottom: "score_fr"
  top: "upscore2"
  param {
    lr_mult: 0
  }
  convolution_param {
    num_output: 6
    bias_term: false
    kernel_size: 4
    stride: 2
    weight_filler {
      type: "xavier"
    }
  }
}
layer {
  name: "scale_pool4"
  type: "Scale"
  bottom: "pool4"
  top: "scale_pool4"
  param {
    lr_mult: 0
  }
  scale_param {
    filler {
      type: "constant"
      value: 0.01
    }
  }
}
layer {
  name: "score_pool4"
  type: "Convolution"
  bottom: "scale_pool4"
  top: "score_pool4"
  param {
    lr_mult: 1
    decay_mult: 1
  }
  param {
    lr_mult: 2
    decay_mult: 0
  }
  convolution_param {
    num_output: 6
    pad: 0
    kernel_size: 1
    weight_filler {
      type: "xavier"
    }
  }
}
layer {
  name: "score_pool4c"
  type: "Crop"
  bottom: "score_pool4"
  bottom: "upscore2"
  top: "score_pool4c"
  crop_param {
    axis: 2
    offset: 5
  }
}
layer {
  name: "fuse_pool4"
  type: "Eltwise"
  bottom: "upscore2"
  bottom: "score_pool4c"
  top: "fuse_pool4"
  eltwise_param {
    operation: SUM
  }
}
layer {
  name: "upscore_pool4"
  type: "Deconvolution"
  bottom: "fuse_pool4"
  top: "upscore_pool4"
  param {
    lr_mult: 0
  }
  convolution_param {
    num_output: 6
    bias_term: false
    kernel_size: 4
    stride: 2
    weight_filler {
      type: "xavier"
    }
  }
}
layer {
  name: "scale_pool3"
  type: "Scale"
  bottom: "pool3"
  top: "scale_pool3"
  param {
    lr_mult: 0
  }
  scale_param {
    filler {
      type: "constant"
      value: 0.0001
    }
  }
}
layer {
  name: "score_pool3"
  type: "Convolution"
  bottom: "scale_pool3"
  top: "score_pool3"
  param {
    lr_mult: 1
    decay_mult: 1
  }
  param {
    lr_mult: 2
    decay_mult: 0
  }
  convolution_param {
    num_output: 6
    pad: 0
    kernel_size: 1
    weight_filler {
      type: "xavier"
    }
  }
}
layer {
  name: "score_pool3c"
  type: "Crop"
  bottom: "score_pool3"
  bottom: "upscore_pool4"
  top: "score_pool3c"
  crop_param {
    axis: 2
    offset: 9
  }
}
layer {
  name: "fuse_pool3"
  type: "Eltwise"
  bottom: "upscore_pool4"
  bottom: "score_pool3c"
  top: "fuse_pool3"
  eltwise_param {
    operation: SUM
  }
}
layer {
  name: "upscore8"
  type: "Deconvolution"
  bottom: "fuse_pool3"
  top: "upscore8"
  param {
    lr_mult: 0
  }
  convolution_param {
    num_output: 6
    bias_term: false
    kernel_size: 16
    stride: 8
    weight_filler {
      type: "xavier"
    }
  }
}
layer {
  name: "score"
  type: "Crop"
  bottom: "upscore8"
  bottom: "data"
  top: "score"
  crop_param {
    axis: 2
    offset: 31
  }
}
layer {
  name: "loss"
  type: "SoftmaxWithLoss"
  bottom: "score"
  bottom: "label"
  top: "loss"
  loss_param {
    ignore_label: 255
    normalize: false
  }
}
I0109 06:24:39.331373 13270 layer_factory.hpp:77] Creating layer data
I0109 06:24:39.332857 13270 net.cpp:100] Creating Layer data
I0109 06:24:39.332875 13270 net.cpp:408] data -> data
I0109 06:24:39.332891 13270 net.cpp:408] data -> label
I0109 06:24:39.383829 13270 net.cpp:150] Setting up data
I0109 06:24:39.383878 13270 net.cpp:157] Top shape: 1 3 375 500 (562500)
I0109 06:24:39.383885 13270 net.cpp:157] Top shape: 1 1 375 500 (187500)
I0109 06:24:39.383889 13270 net.cpp:165] Memory required for data: 3000000
I0109 06:24:39.383899 13270 layer_factory.hpp:77] Creating layer data_data_0_split
I0109 06:24:39.383927 13270 net.cpp:100] Creating Layer data_data_0_split
I0109 06:24:39.383935 13270 net.cpp:434] data_data_0_split <- data
I0109 06:24:39.383944 13270 net.cpp:408] data_data_0_split -> data_data_0_split_0
I0109 06:24:39.383957 13270 net.cpp:408] data_data_0_split -> data_data_0_split_1
I0109 06:24:39.384001 13270 net.cpp:150] Setting up data_data_0_split
I0109 06:24:39.384008 13270 net.cpp:157] Top shape: 1 3 375 500 (562500)
I0109 06:24:39.384014 13270 net.cpp:157] Top shape: 1 3 375 500 (562500)
I0109 06:24:39.384018 13270 net.cpp:165] Memory required for data: 7500000
I0109 06:24:39.384022 13270 layer_factory.hpp:77] Creating layer conv1_1
I0109 06:24:39.384043 13270 net.cpp:100] Creating Layer conv1_1
I0109 06:24:39.384048 13270 net.cpp:434] conv1_1 <- data_data_0_split_0
I0109 06:24:39.384066 13270 net.cpp:408] conv1_1 -> conv1_1
I0109 06:24:39.563335 13270 net.cpp:150] Setting up conv1_1
I0109 06:24:39.563388 13270 net.cpp:157] Top shape: 1 64 573 698 (25597056)
I0109 06:24:39.563395 13270 net.cpp:165] Memory required for data: 109888224
I0109 06:24:39.563416 13270 layer_factory.hpp:77] Creating layer relu1_1
I0109 06:24:39.563431 13270 net.cpp:100] Creating Layer relu1_1
I0109 06:24:39.563437 13270 net.cpp:434] relu1_1 <- conv1_1
I0109 06:24:39.563444 13270 net.cpp:395] relu1_1 -> conv1_1 (in-place)
I0109 06:24:39.563797 13270 net.cpp:150] Setting up relu1_1
I0109 06:24:39.563812 13270 net.cpp:157] Top shape: 1 64 573 698 (25597056)
I0109 06:24:39.563817 13270 net.cpp:165] Memory required for data: 212276448
I0109 06:24:39.563822 13270 layer_factory.hpp:77] Creating layer conv1_2
I0109 06:24:39.563838 13270 net.cpp:100] Creating Layer conv1_2
I0109 06:24:39.563843 13270 net.cpp:434] conv1_2 <- conv1_1
I0109 06:24:39.563850 13270 net.cpp:408] conv1_2 -> conv1_2
I0109 06:24:39.566581 13270 net.cpp:150] Setting up conv1_2
I0109 06:24:39.566599 13270 net.cpp:157] Top shape: 1 64 573 698 (25597056)
I0109 06:24:39.566604 13270 net.cpp:165] Memory required for data: 314664672
I0109 06:24:39.566615 13270 layer_factory.hpp:77] Creating layer relu1_2
I0109 06:24:39.566627 13270 net.cpp:100] Creating Layer relu1_2
I0109 06:24:39.566632 13270 net.cpp:434] relu1_2 <- conv1_2
I0109 06:24:39.566637 13270 net.cpp:395] relu1_2 -> conv1_2 (in-place)
I0109 06:24:39.567085 13270 net.cpp:150] Setting up relu1_2
I0109 06:24:39.567101 13270 net.cpp:157] Top shape: 1 64 573 698 (25597056)
I0109 06:24:39.567106 13270 net.cpp:165] Memory required for data: 417052896
I0109 06:24:39.567111 13270 layer_factory.hpp:77] Creating layer pool1
I0109 06:24:39.567121 13270 net.cpp:100] Creating Layer pool1
I0109 06:24:39.567126 13270 net.cpp:434] pool1 <- conv1_2
I0109 06:24:39.567133 13270 net.cpp:408] pool1 -> pool1
I0109 06:24:39.567188 13270 net.cpp:150] Setting up pool1
I0109 06:24:39.567196 13270 net.cpp:157] Top shape: 1 64 287 349 (6410432)
I0109 06:24:39.567201 13270 net.cpp:165] Memory required for data: 442694624
I0109 06:24:39.567205 13270 layer_factory.hpp:77] Creating layer conv2_1
I0109 06:24:39.567217 13270 net.cpp:100] Creating Layer conv2_1
I0109 06:24:39.567222 13270 net.cpp:434] conv2_1 <- pool1
I0109 06:24:39.567232 13270 net.cpp:408] conv2_1 -> conv2_1
I0109 06:24:39.569562 13270 net.cpp:150] Setting up conv2_1
I0109 06:24:39.569578 13270 net.cpp:157] Top shape: 1 128 287 349 (12820864)
I0109 06:24:39.569583 13270 net.cpp:165] Memory required for data: 493978080
I0109 06:24:39.569594 13270 layer_factory.hpp:77] Creating layer relu2_1
I0109 06:24:39.569605 13270 net.cpp:100] Creating Layer relu2_1
I0109 06:24:39.569610 13270 net.cpp:434] relu2_1 <- conv2_1
I0109 06:24:39.569618 13270 net.cpp:395] relu2_1 -> conv2_1 (in-place)
I0109 06:24:39.569826 13270 net.cpp:150] Setting up relu2_1
I0109 06:24:39.569839 13270 net.cpp:157] Top shape: 1 128 287 349 (12820864)
I0109 06:24:39.569842 13270 net.cpp:165] Memory required for data: 545261536
I0109 06:24:39.569847 13270 layer_factory.hpp:77] Creating layer conv2_2
I0109 06:24:39.569859 13270 net.cpp:100] Creating Layer conv2_2
I0109 06:24:39.569864 13270 net.cpp:434] conv2_2 <- conv2_1
I0109 06:24:39.569872 13270 net.cpp:408] conv2_2 -> conv2_2
I0109 06:24:39.572420 13270 net.cpp:150] Setting up conv2_2
I0109 06:24:39.572437 13270 net.cpp:157] Top shape: 1 128 287 349 (12820864)
I0109 06:24:39.572441 13270 net.cpp:165] Memory required for data: 596544992
I0109 06:24:39.572450 13270 layer_factory.hpp:77] Creating layer relu2_2
I0109 06:24:39.572460 13270 net.cpp:100] Creating Layer relu2_2
I0109 06:24:39.572464 13270 net.cpp:434] relu2_2 <- conv2_2
I0109 06:24:39.572471 13270 net.cpp:395] relu2_2 -> conv2_2 (in-place)
I0109 06:24:39.572830 13270 net.cpp:150] Setting up relu2_2
I0109 06:24:39.572844 13270 net.cpp:157] Top shape: 1 128 287 349 (12820864)
I0109 06:24:39.572849 13270 net.cpp:165] Memory required for data: 647828448
I0109 06:24:39.572865 13270 layer_factory.hpp:77] Creating layer pool2
I0109 06:24:39.572875 13270 net.cpp:100] Creating Layer pool2
I0109 06:24:39.572880 13270 net.cpp:434] pool2 <- conv2_2
I0109 06:24:39.572886 13270 net.cpp:408] pool2 -> pool2
I0109 06:24:39.572934 13270 net.cpp:150] Setting up pool2
I0109 06:24:39.572942 13270 net.cpp:157] Top shape: 1 128 144 175 (3225600)
I0109 06:24:39.572947 13270 net.cpp:165] Memory required for data: 660730848
I0109 06:24:39.572950 13270 layer_factory.hpp:77] Creating layer conv3_1
I0109 06:24:39.572962 13270 net.cpp:100] Creating Layer conv3_1
I0109 06:24:39.572968 13270 net.cpp:434] conv3_1 <- pool2
I0109 06:24:39.572976 13270 net.cpp:408] conv3_1 -> conv3_1
I0109 06:24:39.576128 13270 net.cpp:150] Setting up conv3_1
I0109 06:24:39.576143 13270 net.cpp:157] Top shape: 1 256 144 175 (6451200)
I0109 06:24:39.576148 13270 net.cpp:165] Memory required for data: 686535648
I0109 06:24:39.576159 13270 layer_factory.hpp:77] Creating layer relu3_1
I0109 06:24:39.576169 13270 net.cpp:100] Creating Layer relu3_1
I0109 06:24:39.576174 13270 net.cpp:434] relu3_1 <- conv3_1
I0109 06:24:39.576180 13270 net.cpp:395] relu3_1 -> conv3_1 (in-place)
I0109 06:24:39.576545 13270 net.cpp:150] Setting up relu3_1
I0109 06:24:39.576561 13270 net.cpp:157] Top shape: 1 256 144 175 (6451200)
I0109 06:24:39.576566 13270 net.cpp:165] Memory required for data: 712340448
I0109 06:24:39.576571 13270 layer_factory.hpp:77] Creating layer conv3_2
I0109 06:24:39.576582 13270 net.cpp:100] Creating Layer conv3_2
I0109 06:24:39.576586 13270 net.cpp:434] conv3_2 <- conv3_1
I0109 06:24:39.576596 13270 net.cpp:408] conv3_2 -> conv3_2
I0109 06:24:39.581864 13270 net.cpp:150] Setting up conv3_2
I0109 06:24:39.581881 13270 net.cpp:157] Top shape: 1 256 144 175 (6451200)
I0109 06:24:39.581887 13270 net.cpp:165] Memory required for data: 738145248
I0109 06:24:39.581897 13270 layer_factory.hpp:77] Creating layer relu3_2
I0109 06:24:39.581904 13270 net.cpp:100] Creating Layer relu3_2
I0109 06:24:39.581908 13270 net.cpp:434] relu3_2 <- conv3_2
I0109 06:24:39.581918 13270 net.cpp:395] relu3_2 -> conv3_2 (in-place)
I0109 06:24:39.582108 13270 net.cpp:150] Setting up relu3_2
I0109 06:24:39.582119 13270 net.cpp:157] Top shape: 1 256 144 175 (6451200)
I0109 06:24:39.582123 13270 net.cpp:165] Memory required for data: 763950048
I0109 06:24:39.582129 13270 layer_factory.hpp:77] Creating layer conv3_3
I0109 06:24:39.582141 13270 net.cpp:100] Creating Layer conv3_3
I0109 06:24:39.582146 13270 net.cpp:434] conv3_3 <- conv3_2
I0109 06:24:39.582156 13270 net.cpp:408] conv3_3 -> conv3_3
I0109 06:24:39.587390 13270 net.cpp:150] Setting up conv3_3
I0109 06:24:39.587407 13270 net.cpp:157] Top shape: 1 256 144 175 (6451200)
I0109 06:24:39.587412 13270 net.cpp:165] Memory required for data: 789754848
I0109 06:24:39.587420 13270 layer_factory.hpp:77] Creating layer relu3_3
I0109 06:24:39.587429 13270 net.cpp:100] Creating Layer relu3_3
I0109 06:24:39.587432 13270 net.cpp:434] relu3_3 <- conv3_3
I0109 06:24:39.587441 13270 net.cpp:395] relu3_3 -> conv3_3 (in-place)
I0109 06:24:39.587810 13270 net.cpp:150] Setting up relu3_3
I0109 06:24:39.587823 13270 net.cpp:157] Top shape: 1 256 144 175 (6451200)
I0109 06:24:39.587827 13270 net.cpp:165] Memory required for data: 815559648
I0109 06:24:39.587832 13270 layer_factory.hpp:77] Creating layer pool3
I0109 06:24:39.587842 13270 net.cpp:100] Creating Layer pool3
I0109 06:24:39.587847 13270 net.cpp:434] pool3 <- conv3_3
I0109 06:24:39.587853 13270 net.cpp:408] pool3 -> pool3
I0109 06:24:39.587903 13270 net.cpp:150] Setting up pool3
I0109 06:24:39.587911 13270 net.cpp:157] Top shape: 1 256 72 88 (1622016)
I0109 06:24:39.587915 13270 net.cpp:165] Memory required for data: 822047712
I0109 06:24:39.587920 13270 layer_factory.hpp:77] Creating layer pool3_pool3_0_split
I0109 06:24:39.587927 13270 net.cpp:100] Creating Layer pool3_pool3_0_split
I0109 06:24:39.587932 13270 net.cpp:434] pool3_pool3_0_split <- pool3
I0109 06:24:39.587937 13270 net.cpp:408] pool3_pool3_0_split -> pool3_pool3_0_split_0
I0109 06:24:39.587944 13270 net.cpp:408] pool3_pool3_0_split -> pool3_pool3_0_split_1
I0109 06:24:39.587990 13270 net.cpp:150] Setting up pool3_pool3_0_split
I0109 06:24:39.587997 13270 net.cpp:157] Top shape: 1 256 72 88 (1622016)
I0109 06:24:39.588003 13270 net.cpp:157] Top shape: 1 256 72 88 (1622016)
I0109 06:24:39.588007 13270 net.cpp:165] Memory required for data: 835023840
I0109 06:24:39.588011 13270 layer_factory.hpp:77] Creating layer conv4_1
I0109 06:24:39.588022 13270 net.cpp:100] Creating Layer conv4_1
I0109 06:24:39.588027 13270 net.cpp:434] conv4_1 <- pool3_pool3_0_split_0
I0109 06:24:39.588037 13270 net.cpp:408] conv4_1 -> conv4_1
I0109 06:24:39.598600 13270 net.cpp:150] Setting up conv4_1
I0109 06:24:39.598633 13270 net.cpp:157] Top shape: 1 512 72 88 (3244032)
I0109 06:24:39.598637 13270 net.cpp:165] Memory required for data: 847999968
I0109 06:24:39.598646 13270 layer_factory.hpp:77] Creating layer relu4_1
I0109 06:24:39.598655 13270 net.cpp:100] Creating Layer relu4_1
I0109 06:24:39.598660 13270 net.cpp:434] relu4_1 <- conv4_1
I0109 06:24:39.598667 13270 net.cpp:395] relu4_1 -> conv4_1 (in-place)
I0109 06:24:39.599047 13270 net.cpp:150] Setting up relu4_1
I0109 06:24:39.599062 13270 net.cpp:157] Top shape: 1 512 72 88 (3244032)
I0109 06:24:39.599066 13270 net.cpp:165] Memory required for data: 860976096
I0109 06:24:39.599071 13270 layer_factory.hpp:77] Creating layer conv4_2
I0109 06:24:39.599086 13270 net.cpp:100] Creating Layer conv4_2
I0109 06:24:39.599090 13270 net.cpp:434] conv4_2 <- conv4_1
I0109 06:24:39.599098 13270 net.cpp:408] conv4_2 -> conv4_2
I0109 06:24:39.616216 13270 net.cpp:150] Setting up conv4_2
I0109 06:24:39.616245 13270 net.cpp:157] Top shape: 1 512 72 88 (3244032)
I0109 06:24:39.616250 13270 net.cpp:165] Memory required for data: 873952224
I0109 06:24:39.616266 13270 layer_factory.hpp:77] Creating layer relu4_2
I0109 06:24:39.616277 13270 net.cpp:100] Creating Layer relu4_2
I0109 06:24:39.616283 13270 net.cpp:434] relu4_2 <- conv4_2
I0109 06:24:39.616291 13270 net.cpp:395] relu4_2 -> conv4_2 (in-place)
I0109 06:24:39.616492 13270 net.cpp:150] Setting up relu4_2
I0109 06:24:39.616503 13270 net.cpp:157] Top shape: 1 512 72 88 (3244032)
I0109 06:24:39.616506 13270 net.cpp:165] Memory required for data: 886928352
I0109 06:24:39.616511 13270 layer_factory.hpp:77] Creating layer conv4_3
I0109 06:24:39.616525 13270 net.cpp:100] Creating Layer conv4_3
I0109 06:24:39.616531 13270 net.cpp:434] conv4_3 <- conv4_2
I0109 06:24:39.616539 13270 net.cpp:408] conv4_3 -> conv4_3
I0109 06:24:39.633635 13270 net.cpp:150] Setting up conv4_3
I0109 06:24:39.633667 13270 net.cpp:157] Top shape: 1 512 72 88 (3244032)
I0109 06:24:39.633672 13270 net.cpp:165] Memory required for data: 899904480
I0109 06:24:39.633682 13270 layer_factory.hpp:77] Creating layer relu4_3
I0109 06:24:39.633690 13270 net.cpp:100] Creating Layer relu4_3
I0109 06:24:39.633695 13270 net.cpp:434] relu4_3 <- conv4_3
I0109 06:24:39.633702 13270 net.cpp:395] relu4_3 -> conv4_3 (in-place)
I0109 06:24:39.634071 13270 net.cpp:150] Setting up relu4_3
I0109 06:24:39.634085 13270 net.cpp:157] Top shape: 1 512 72 88 (3244032)
I0109 06:24:39.634089 13270 net.cpp:165] Memory required for data: 912880608
I0109 06:24:39.634094 13270 layer_factory.hpp:77] Creating layer pool4
I0109 06:24:39.634109 13270 net.cpp:100] Creating Layer pool4
I0109 06:24:39.634114 13270 net.cpp:434] pool4 <- conv4_3
I0109 06:24:39.634122 13270 net.cpp:408] pool4 -> pool4
I0109 06:24:39.634174 13270 net.cpp:150] Setting up pool4
I0109 06:24:39.634182 13270 net.cpp:157] Top shape: 1 512 36 44 (811008)
I0109 06:24:39.634186 13270 net.cpp:165] Memory required for data: 916124640
I0109 06:24:39.634191 13270 layer_factory.hpp:77] Creating layer pool4_pool4_0_split
I0109 06:24:39.634201 13270 net.cpp:100] Creating Layer pool4_pool4_0_split
I0109 06:24:39.634205 13270 net.cpp:434] pool4_pool4_0_split <- pool4
I0109 06:24:39.634212 13270 net.cpp:408] pool4_pool4_0_split -> pool4_pool4_0_split_0
I0109 06:24:39.634218 13270 net.cpp:408] pool4_pool4_0_split -> pool4_pool4_0_split_1
I0109 06:24:39.634259 13270 net.cpp:150] Setting up pool4_pool4_0_split
I0109 06:24:39.634277 13270 net.cpp:157] Top shape: 1 512 36 44 (811008)
I0109 06:24:39.634284 13270 net.cpp:157] Top shape: 1 512 36 44 (811008)
I0109 06:24:39.634287 13270 net.cpp:165] Memory required for data: 922612704
I0109 06:24:39.634291 13270 layer_factory.hpp:77] Creating layer conv5_1
I0109 06:24:39.634305 13270 net.cpp:100] Creating Layer conv5_1
I0109 06:24:39.634310 13270 net.cpp:434] conv5_1 <- pool4_pool4_0_split_0
I0109 06:24:39.634318 13270 net.cpp:408] conv5_1 -> conv5_1
I0109 06:24:39.651291 13270 net.cpp:150] Setting up conv5_1
I0109 06:24:39.651321 13270 net.cpp:157] Top shape: 1 512 36 44 (811008)
I0109 06:24:39.651326 13270 net.cpp:165] Memory required for data: 925856736
I0109 06:24:39.651335 13270 layer_factory.hpp:77] Creating layer relu5_1
I0109 06:24:39.651347 13270 net.cpp:100] Creating Layer relu5_1
I0109 06:24:39.651353 13270 net.cpp:434] relu5_1 <- conv5_1
I0109 06:24:39.651360 13270 net.cpp:395] relu5_1 -> conv5_1 (in-place)
I0109 06:24:39.651727 13270 net.cpp:150] Setting up relu5_1
I0109 06:24:39.651741 13270 net.cpp:157] Top shape: 1 512 36 44 (811008)
I0109 06:24:39.651746 13270 net.cpp:165] Memory required for data: 929100768
I0109 06:24:39.651751 13270 layer_factory.hpp:77] Creating layer conv5_2
I0109 06:24:39.651764 13270 net.cpp:100] Creating Layer conv5_2
I0109 06:24:39.651769 13270 net.cpp:434] conv5_2 <- conv5_1
I0109 06:24:39.651778 13270 net.cpp:408] conv5_2 -> conv5_2
I0109 06:24:39.668980 13270 net.cpp:150] Setting up conv5_2
I0109 06:24:39.669008 13270 net.cpp:157] Top shape: 1 512 36 44 (811008)
I0109 06:24:39.669013 13270 net.cpp:165] Memory required for data: 932344800
I0109 06:24:39.669021 13270 layer_factory.hpp:77] Creating layer relu5_2
I0109 06:24:39.669033 13270 net.cpp:100] Creating Layer relu5_2
I0109 06:24:39.669039 13270 net.cpp:434] relu5_2 <- conv5_2
I0109 06:24:39.669045 13270 net.cpp:395] relu5_2 -> conv5_2 (in-place)
I0109 06:24:39.669245 13270 net.cpp:150] Setting up relu5_2
I0109 06:24:39.669255 13270 net.cpp:157] Top shape: 1 512 36 44 (811008)
I0109 06:24:39.669260 13270 net.cpp:165] Memory required for data: 935588832
I0109 06:24:39.669265 13270 layer_factory.hpp:77] Creating layer conv5_3
I0109 06:24:39.669284 13270 net.cpp:100] Creating Layer conv5_3
I0109 06:24:39.669289 13270 net.cpp:434] conv5_3 <- conv5_2
I0109 06:24:39.669297 13270 net.cpp:408] conv5_3 -> conv5_3
I0109 06:24:39.686368 13270 net.cpp:150] Setting up conv5_3
I0109 06:24:39.686395 13270 net.cpp:157] Top shape: 1 512 36 44 (811008)
I0109 06:24:39.686400 13270 net.cpp:165] Memory required for data: 938832864
I0109 06:24:39.686408 13270 layer_factory.hpp:77] Creating layer relu5_3
I0109 06:24:39.686417 13270 net.cpp:100] Creating Layer relu5_3
I0109 06:24:39.686424 13270 net.cpp:434] relu5_3 <- conv5_3
I0109 06:24:39.686431 13270 net.cpp:395] relu5_3 -> conv5_3 (in-place)
I0109 06:24:39.686982 13270 net.cpp:150] Setting up relu5_3
I0109 06:24:39.686996 13270 net.cpp:157] Top shape: 1 512 36 44 (811008)
I0109 06:24:39.687000 13270 net.cpp:165] Memory required for data: 942076896
I0109 06:24:39.687005 13270 layer_factory.hpp:77] Creating layer pool5
I0109 06:24:39.687014 13270 net.cpp:100] Creating Layer pool5
I0109 06:24:39.687019 13270 net.cpp:434] pool5 <- conv5_3
I0109 06:24:39.687028 13270 net.cpp:408] pool5 -> pool5
I0109 06:24:39.687081 13270 net.cpp:150] Setting up pool5
I0109 06:24:39.687089 13270 net.cpp:157] Top shape: 1 512 18 22 (202752)
I0109 06:24:39.687093 13270 net.cpp:165] Memory required for data: 942887904
I0109 06:24:39.687098 13270 layer_factory.hpp:77] Creating layer fc6
I0109 06:24:39.687111 13270 net.cpp:100] Creating Layer fc6
I0109 06:24:39.687116 13270 net.cpp:434] fc6 <- pool5
I0109 06:24:39.687124 13270 net.cpp:408] fc6 -> fc6
I0109 06:24:40.404757 13270 net.cpp:150] Setting up fc6
I0109 06:24:40.404809 13270 net.cpp:157] Top shape: 1 4096 12 16 (786432)
I0109 06:24:40.404814 13270 net.cpp:165] Memory required for data: 946033632
I0109 06:24:40.404827 13270 layer_factory.hpp:77] Creating layer relu6
I0109 06:24:40.404855 13270 net.cpp:100] Creating Layer relu6
I0109 06:24:40.404862 13270 net.cpp:434] relu6 <- fc6
I0109 06:24:40.404870 13270 net.cpp:395] relu6 -> fc6 (in-place)
I0109 06:24:40.405256 13270 net.cpp:150] Setting up relu6
I0109 06:24:40.405270 13270 net.cpp:157] Top shape: 1 4096 12 16 (786432)
I0109 06:24:40.405275 13270 net.cpp:165] Memory required for data: 949179360
I0109 06:24:40.405279 13270 layer_factory.hpp:77] Creating layer drop6
I0109 06:24:40.405293 13270 net.cpp:100] Creating Layer drop6
I0109 06:24:40.405298 13270 net.cpp:434] drop6 <- fc6
I0109 06:24:40.405304 13270 net.cpp:395] drop6 -> fc6 (in-place)
I0109 06:24:40.405347 13270 net.cpp:150] Setting up drop6
I0109 06:24:40.405354 13270 net.cpp:157] Top shape: 1 4096 12 16 (786432)
I0109 06:24:40.405359 13270 net.cpp:165] Memory required for data: 952325088
I0109 06:24:40.405364 13270 layer_factory.hpp:77] Creating layer fc7
I0109 06:24:40.405376 13270 net.cpp:100] Creating Layer fc7
I0109 06:24:40.405381 13270 net.cpp:434] fc7 <- fc6
I0109 06:24:40.405390 13270 net.cpp:408] fc7 -> fc7
I0109 06:24:40.523941 13270 net.cpp:150] Setting up fc7
I0109 06:24:40.523991 13270 net.cpp:157] Top shape: 1 4096 12 16 (786432)
I0109 06:24:40.523998 13270 net.cpp:165] Memory required for data: 955470816
I0109 06:24:40.524009 13270 layer_factory.hpp:77] Creating layer relu7
I0109 06:24:40.524024 13270 net.cpp:100] Creating Layer relu7
I0109 06:24:40.524030 13270 net.cpp:434] relu7 <- fc7
I0109 06:24:40.524040 13270 net.cpp:395] relu7 -> fc7 (in-place)
I0109 06:24:40.524252 13270 net.cpp:150] Setting up relu7
I0109 06:24:40.524263 13270 net.cpp:157] Top shape: 1 4096 12 16 (786432)
I0109 06:24:40.524267 13270 net.cpp:165] Memory required for data: 958616544
I0109 06:24:40.524272 13270 layer_factory.hpp:77] Creating layer drop7
I0109 06:24:40.524282 13270 net.cpp:100] Creating Layer drop7
I0109 06:24:40.524287 13270 net.cpp:434] drop7 <- fc7
I0109 06:24:40.524293 13270 net.cpp:395] drop7 -> fc7 (in-place)
I0109 06:24:40.524328 13270 net.cpp:150] Setting up drop7
I0109 06:24:40.524335 13270 net.cpp:157] Top shape: 1 4096 12 16 (786432)
I0109 06:24:40.524339 13270 net.cpp:165] Memory required for data: 961762272
I0109 06:24:40.524343 13270 layer_factory.hpp:77] Creating layer score_fr
I0109 06:24:40.524358 13270 net.cpp:100] Creating Layer score_fr
I0109 06:24:40.524363 13270 net.cpp:434] score_fr <- fc7
I0109 06:24:40.524370 13270 net.cpp:408] score_fr -> score_fr
I0109 06:24:40.525758 13270 net.cpp:150] Setting up score_fr
I0109 06:24:40.525774 13270 net.cpp:157] Top shape: 1 6 12 16 (1152)
I0109 06:24:40.525779 13270 net.cpp:165] Memory required for data: 961766880
I0109 06:24:40.525787 13270 layer_factory.hpp:77] Creating layer upscore2
I0109 06:24:40.525804 13270 net.cpp:100] Creating Layer upscore2
I0109 06:24:40.525810 13270 net.cpp:434] upscore2 <- score_fr
I0109 06:24:40.525817 13270 net.cpp:408] upscore2 -> upscore2
I0109 06:24:40.526041 13270 net.cpp:150] Setting up upscore2
I0109 06:24:40.526049 13270 net.cpp:157] Top shape: 1 6 26 34 (5304)
I0109 06:24:40.526053 13270 net.cpp:165] Memory required for data: 961788096
I0109 06:24:40.526067 13270 layer_factory.hpp:77] Creating layer upscore2_upscore2_0_split
I0109 06:24:40.526075 13270 net.cpp:100] Creating Layer upscore2_upscore2_0_split
I0109 06:24:40.526080 13270 net.cpp:434] upscore2_upscore2_0_split <- upscore2
I0109 06:24:40.526087 13270 net.cpp:408] upscore2_upscore2_0_split -> upscore2_upscore2_0_split_0
I0109 06:24:40.526095 13270 net.cpp:408] upscore2_upscore2_0_split -> upscore2_upscore2_0_split_1
I0109 06:24:40.526139 13270 net.cpp:150] Setting up upscore2_upscore2_0_split
I0109 06:24:40.526147 13270 net.cpp:157] Top shape: 1 6 26 34 (5304)
I0109 06:24:40.526152 13270 net.cpp:157] Top shape: 1 6 26 34 (5304)
I0109 06:24:40.526156 13270 net.cpp:165] Memory required for data: 961830528
I0109 06:24:40.526161 13270 layer_factory.hpp:77] Creating layer scale_pool4
I0109 06:24:40.526175 13270 net.cpp:100] Creating Layer scale_pool4
I0109 06:24:40.526180 13270 net.cpp:434] scale_pool4 <- pool4_pool4_0_split_1
I0109 06:24:40.526201 13270 net.cpp:408] scale_pool4 -> scale_pool4
I0109 06:24:40.526317 13270 net.cpp:150] Setting up scale_pool4
I0109 06:24:40.526329 13270 net.cpp:157] Top shape: 1 512 36 44 (811008)
I0109 06:24:40.526332 13270 net.cpp:165] Memory required for data: 965074560
I0109 06:24:40.526338 13270 layer_factory.hpp:77] Creating layer score_pool4
I0109 06:24:40.526350 13270 net.cpp:100] Creating Layer score_pool4
I0109 06:24:40.526355 13270 net.cpp:434] score_pool4 <- scale_pool4
I0109 06:24:40.526361 13270 net.cpp:408] score_pool4 -> score_pool4
I0109 06:24:40.527642 13270 net.cpp:150] Setting up score_pool4
I0109 06:24:40.527657 13270 net.cpp:157] Top shape: 1 6 36 44 (9504)
I0109 06:24:40.527662 13270 net.cpp:165] Memory required for data: 965112576
I0109 06:24:40.527669 13270 layer_factory.hpp:77] Creating layer score_pool4c
I0109 06:24:40.527683 13270 net.cpp:100] Creating Layer score_pool4c
I0109 06:24:40.527688 13270 net.cpp:434] score_pool4c <- score_pool4
I0109 06:24:40.527694 13270 net.cpp:434] score_pool4c <- upscore2_upscore2_0_split_0
I0109 06:24:40.527701 13270 net.cpp:408] score_pool4c -> score_pool4c
I0109 06:24:40.527741 13270 net.cpp:150] Setting up score_pool4c
I0109 06:24:40.527750 13270 net.cpp:157] Top shape: 1 6 26 34 (5304)
I0109 06:24:40.527753 13270 net.cpp:165] Memory required for data: 965133792
I0109 06:24:40.527757 13270 layer_factory.hpp:77] Creating layer fuse_pool4
I0109 06:24:40.527767 13270 net.cpp:100] Creating Layer fuse_pool4
I0109 06:24:40.527772 13270 net.cpp:434] fuse_pool4 <- upscore2_upscore2_0_split_1
I0109 06:24:40.527777 13270 net.cpp:434] fuse_pool4 <- score_pool4c
I0109 06:24:40.527786 13270 net.cpp:408] fuse_pool4 -> fuse_pool4
I0109 06:24:40.527818 13270 net.cpp:150] Setting up fuse_pool4
I0109 06:24:40.527825 13270 net.cpp:157] Top shape: 1 6 26 34 (5304)
I0109 06:24:40.527828 13270 net.cpp:165] Memory required for data: 965155008
I0109 06:24:40.527833 13270 layer_factory.hpp:77] Creating layer upscore_pool4
I0109 06:24:40.527843 13270 net.cpp:100] Creating Layer upscore_pool4
I0109 06:24:40.527848 13270 net.cpp:434] upscore_pool4 <- fuse_pool4
I0109 06:24:40.527856 13270 net.cpp:408] upscore_pool4 -> upscore_pool4
I0109 06:24:40.528065 13270 net.cpp:150] Setting up upscore_pool4
I0109 06:24:40.528074 13270 net.cpp:157] Top shape: 1 6 54 70 (22680)
I0109 06:24:40.528079 13270 net.cpp:165] Memory required for data: 965245728
I0109 06:24:40.528084 13270 layer_factory.hpp:77] Creating layer upscore_pool4_upscore_pool4_0_split
I0109 06:24:40.528091 13270 net.cpp:100] Creating Layer upscore_pool4_upscore_pool4_0_split
I0109 06:24:40.528095 13270 net.cpp:434] upscore_pool4_upscore_pool4_0_split <- upscore_pool4
I0109 06:24:40.528101 13270 net.cpp:408] upscore_pool4_upscore_pool4_0_split -> upscore_pool4_upscore_pool4_0_split_0
I0109 06:24:40.528110 13270 net.cpp:408] upscore_pool4_upscore_pool4_0_split -> upscore_pool4_upscore_pool4_0_split_1
I0109 06:24:40.528149 13270 net.cpp:150] Setting up upscore_pool4_upscore_pool4_0_split
I0109 06:24:40.528156 13270 net.cpp:157] Top shape: 1 6 54 70 (22680)
I0109 06:24:40.528162 13270 net.cpp:157] Top shape: 1 6 54 70 (22680)
I0109 06:24:40.528165 13270 net.cpp:165] Memory required for data: 965427168
I0109 06:24:40.528169 13270 layer_factory.hpp:77] Creating layer scale_pool3
I0109 06:24:40.528178 13270 net.cpp:100] Creating Layer scale_pool3
I0109 06:24:40.528183 13270 net.cpp:434] scale_pool3 <- pool3_pool3_0_split_1
I0109 06:24:40.528190 13270 net.cpp:408] scale_pool3 -> scale_pool3
I0109 06:24:40.528301 13270 net.cpp:150] Setting up scale_pool3
I0109 06:24:40.528308 13270 net.cpp:157] Top shape: 1 256 72 88 (1622016)
I0109 06:24:40.528312 13270 net.cpp:165] Memory required for data: 971915232
I0109 06:24:40.528318 13270 layer_factory.hpp:77] Creating layer score_pool3
I0109 06:24:40.528331 13270 net.cpp:100] Creating Layer score_pool3
I0109 06:24:40.528336 13270 net.cpp:434] score_pool3 <- scale_pool3
I0109 06:24:40.528343 13270 net.cpp:408] score_pool3 -> score_pool3
I0109 06:24:40.529577 13270 net.cpp:150] Setting up score_pool3
I0109 06:24:40.529597 13270 net.cpp:157] Top shape: 1 6 72 88 (38016)
I0109 06:24:40.529602 13270 net.cpp:165] Memory required for data: 972067296
I0109 06:24:40.529609 13270 layer_factory.hpp:77] Creating layer score_pool3c
I0109 06:24:40.529620 13270 net.cpp:100] Creating Layer score_pool3c
I0109 06:24:40.529625 13270 net.cpp:434] score_pool3c <- score_pool3
I0109 06:24:40.529631 13270 net.cpp:434] score_pool3c <- upscore_pool4_upscore_pool4_0_split_0
I0109 06:24:40.529646 13270 net.cpp:408] score_pool3c -> score_pool3c
I0109 06:24:40.529681 13270 net.cpp:150] Setting up score_pool3c
I0109 06:24:40.529690 13270 net.cpp:157] Top shape: 1 6 54 70 (22680)
I0109 06:24:40.529693 13270 net.cpp:165] Memory required for data: 972158016
I0109 06:24:40.529697 13270 layer_factory.hpp:77] Creating layer fuse_pool3
I0109 06:24:40.529706 13270 net.cpp:100] Creating Layer fuse_pool3
I0109 06:24:40.529711 13270 net.cpp:434] fuse_pool3 <- upscore_pool4_upscore_pool4_0_split_1
I0109 06:24:40.529716 13270 net.cpp:434] fuse_pool3 <- score_pool3c
I0109 06:24:40.529722 13270 net.cpp:408] fuse_pool3 -> fuse_pool3
I0109 06:24:40.529752 13270 net.cpp:150] Setting up fuse_pool3
I0109 06:24:40.529760 13270 net.cpp:157] Top shape: 1 6 54 70 (22680)
I0109 06:24:40.529764 13270 net.cpp:165] Memory required for data: 972248736
I0109 06:24:40.529768 13270 layer_factory.hpp:77] Creating layer upscore8
I0109 06:24:40.529778 13270 net.cpp:100] Creating Layer upscore8
I0109 06:24:40.529783 13270 net.cpp:434] upscore8 <- fuse_pool3
I0109 06:24:40.529791 13270 net.cpp:408] upscore8 -> upscore8
I0109 06:24:40.530055 13270 net.cpp:150] Setting up upscore8
I0109 06:24:40.530066 13270 net.cpp:157] Top shape: 1 6 440 568 (1499520)
I0109 06:24:40.530069 13270 net.cpp:165] Memory required for data: 978246816
I0109 06:24:40.530076 13270 layer_factory.hpp:77] Creating layer score
I0109 06:24:40.530082 13270 net.cpp:100] Creating Layer score
I0109 06:24:40.530086 13270 net.cpp:434] score <- upscore8
I0109 06:24:40.530092 13270 net.cpp:434] score <- data_data_0_split_1
I0109 06:24:40.530098 13270 net.cpp:408] score -> score
I0109 06:24:40.530128 13270 net.cpp:150] Setting up score
I0109 06:24:40.530135 13270 net.cpp:157] Top shape: 1 6 375 500 (1125000)
I0109 06:24:40.530138 13270 net.cpp:165] Memory required for data: 982746816
I0109 06:24:40.530143 13270 layer_factory.hpp:77] Creating layer loss
I0109 06:24:40.530153 13270 net.cpp:100] Creating Layer loss
I0109 06:24:40.530158 13270 net.cpp:434] loss <- score
I0109 06:24:40.530164 13270 net.cpp:434] loss <- label
I0109 06:24:40.530171 13270 net.cpp:408] loss -> loss
I0109 06:24:40.530184 13270 layer_factory.hpp:77] Creating layer loss
…
I0109 06:24:40.533368 13270 net.cpp:283] Network initialization done.
I0109 06:24:40.549098 13270 solver.cpp:181] Creating test net (#0) specified by test_net file: val.prototxt
I0109 06:24:40.549473 13270 net.cpp:58] Initializing net from parameters: 
state {
  phase: TEST
}
layer {
  name: "data"
  type: "Python"
  top: "data"
  top: "label"
  python_param {
    module: "voc_layers"
    layer: "PartialVOCSegDataLayer"
    param_str: "{\'voc_dir\': \'../data/pascal-obfuscated/VOC2011\', \'seed\': 1337, \'split\': \'seg11valid5\', \'mean\': (104.00699, 116.66877, 122.67892)}"
  }
}
layer {
  name: "conv1_1"
  type: "Convolution"
  bottom: "data"
  top: "conv1_1"
  param {
    lr_mult: 1
    decay_mult: 1
  }
  param {
    lr_mult: 2
    decay_mult: 0
  }
  convolution_param {
    num_output: 64
    pad: 100
    kernel_size: 3
    stride: 1
    weight_filler {
      type: "xavier"
    }
  }
}
layer {
  name: "relu1_1"
  type: "ReLU"
  bottom: "conv1_1"
  top: "conv1_1"
}
layer {
  name: "conv1_2"
  type: "Convolution"
  bottom: "conv1_1"
  top: "conv1_2"
  param {
    lr_mult: 1
    decay_mult: 1
  }
  param {
    lr_mult: 2
    decay_mult: 0
  }
  convolution_param {
    num_output: 64
    pad: 1
    kernel_size: 3
    stride: 1
    weight_filler {
      type: "xavier"
    }
  }
}
layer {
  name: "relu1_2"
  type: "ReLU"
  bottom: "conv1_2"
  top: "conv1_2"
}
layer {
  name: "pool1"
  type: "Pooling"
  bottom: "conv1_2"
  top: "pool1"
  pooling_param {
    pool: MAX
    kernel_size: 2
    stride: 2
  }
}
layer {
  name: "conv2_1"
  type: "Convolution"
  bottom: "pool1"
  top: "conv2_1"
  param {
    lr_mult: 1
    decay_mult: 1
  }
  param {
    lr_mult: 2
    decay_mult: 0
  }
  convolution_param {
    num_output: 128
    pad: 1
    kernel_size: 3
    stride: 1
    weight_filler {
      type: "xavier"
    }
  }
}
layer {
  name: "relu2_1"
  type: "ReLU"
  bottom: "conv2_1"
  top: "conv2_1"
}
layer {
  name: "conv2_2"
  type: "Convolution"
  bottom: "conv2_1"
  top: "conv2_2"
  param {
    lr_mult: 1
    decay_mult: 1
  }
  param {
    lr_mult: 2
    decay_mult: 0
  }
  convolution_param {
    num_output: 128
    pad: 1
    kernel_size: 3
    stride: 1
    weight_filler {
      type: "xavier"
    }
  }
}
layer {
  name: "relu2_2"
  type: "ReLU"
  bottom: "conv2_2"
  top: "conv2_2"
}
layer {
  name: "pool2"
  type: "Pooling"
  bottom: "conv2_2"
  top: "pool2"
  pooling_param {
    pool: MAX
    kernel_size: 2
    stride: 2
  }
}
layer {
  name: "conv3_1"
  type: "Convolution"
  bottom: "pool2"
  top: "conv3_1"
  param {
    lr_mult: 1
    decay_mult: 1
  }
  param {
    lr_mult: 2
    decay_mult: 0
  }
  convolution_param {
    num_output: 256
    pad: 1
    kernel_size: 3
    stride: 1
    weight_filler {
      type: "xavier"
    }
  }
}
layer {
  name: "relu3_1"
  type: "ReLU"
  bottom: "conv3_1"
  top: "conv3_1"
}
layer {
  name: "conv3_2"
  type: "Convolution"
  bottom: "conv3_1"
  top: "conv3_2"
  param {
    lr_mult: 1
    decay_mult: 1
  }
  param {
    lr_mult: 2
    decay_mult: 0
  }
  convolution_param {
    num_output: 256
    pad: 1
    kernel_size: 3
    stride: 1
    weight_filler {
      type: "xavier"
    }
  }
}
layer {
  name: "relu3_2"
  type: "ReLU"
  bottom: "conv3_2"
  top: "conv3_2"
}
layer {
  name: "conv3_3"
  type: "Convolution"
  bottom: "conv3_2"
  top: "conv3_3"
  param {
    lr_mult: 1
    decay_mult: 1
  }
  param {
    lr_mult: 2
    decay_mult: 0
  }
  convolution_param {
    num_output: 256
    pad: 1
    kernel_size: 3
    stride: 1
    weight_filler {
      type: "xavier"
    }
  }
}
layer {
  name: "relu3_3"
  type: "ReLU"
  bottom: "conv3_3"
  top: "conv3_3"
}
layer {
  name: "pool3"
  type: "Pooling"
  bottom: "conv3_3"
  top: "pool3"
  pooling_param {
    pool: MAX
    kernel_size: 2
    stride: 2
  }
}
layer {
  name: "conv4_1"
  type: "Convolution"
  bottom: "pool3"
  top: "conv4_1"
  param {
    lr_mult: 1
    decay_mult: 1
  }
  param {
    lr_mult: 2
    decay_mult: 0
  }
  convolution_param {
    num_output: 512
    pad: 1
    kernel_size: 3
    stride: 1
    weight_filler {
      type: "xavier"
    }
  }
}
layer {
  name: "relu4_1"
  type: "ReLU"
  bottom: "conv4_1"
  top: "conv4_1"
}
layer {
  name: "conv4_2"
  type: "Convolution"
  bottom: "conv4_1"
  top: "conv4_2"
  param {
    lr_mult: 1
    decay_mult: 1
  }
  param {
    lr_mult: 2
    decay_mult: 0
  }
  convolution_param {
    num_output: 512
    pad: 1
    kernel_size: 3
    stride: 1
    weight_filler {
      type: "xavier"
    }
  }
}
layer {
  name: "relu4_2"
  type: "ReLU"
  bottom: "conv4_2"
  top: "conv4_2"
}
layer {
  name: "conv4_3"
  type: "Convolution"
  bottom: "conv4_2"
  top: "conv4_3"
  param {
    lr_mult: 1
    decay_mult: 1
  }
  param {
    lr_mult: 2
    decay_mult: 0
  }
  convolution_param {
    num_output: 512
    pad: 1
    kernel_size: 3
    stride: 1
    weight_filler {
      type: "xavier"
    }
  }
}
layer {
  name: "relu4_3"
  type: "ReLU"
  bottom: "conv4_3"
  top: "conv4_3"
}
layer {
  name: "pool4"
  type: "Pooling"
  bottom: "conv4_3"
  top: "pool4"
  pooling_param {
    pool: MAX
    kernel_size: 2
    stride: 2
  }
}
layer {
  name: "conv5_1"
  type: "Convolution"
  bottom: "pool4"
  top: "conv5_1"
  param {
    lr_mult: 1
    decay_mult: 1
  }
  param {
    lr_mult: 2
    decay_mult: 0
  }
  convolution_param {
    num_output: 512
    pad: 1
    kernel_size: 3
    stride: 1
    weight_filler {
      type: "xavier"
    }
  }
}
layer {
  name: "relu5_1"
  type: "ReLU"
  bottom: "conv5_1"
  top: "conv5_1"
}
layer {
  name: "conv5_2"
  type: "Convolution"
  bottom: "conv5_1"
  top: "conv5_2"
  param {
    lr_mult: 1
    decay_mult: 1
  }
  param {
    lr_mult: 2
    decay_mult: 0
  }
  convolution_param {
    num_output: 512
    pad: 1
    kernel_size: 3
    stride: 1
    weight_filler {
      type: "xavier"
    }
  }
}
layer {
  name: "relu5_2"
  type: "ReLU"
  bottom: "conv5_2"
  top: "conv5_2"
}
layer {
  name: "conv5_3"
  type: "Convolution"
  bottom: "conv5_2"
  top: "conv5_3"
  param {
    lr_mult: 1
    decay_mult: 1
  }
  param {
    lr_mult: 2
    decay_mult: 0
  }
  convolution_param {
    num_output: 512
    pad: 1
    kernel_size: 3
    stride: 1
    weight_filler {
      type: "xavier"
    }
  }
}
layer {
  name: "relu5_3"
  type: "ReLU"
  bottom: "conv5_3"
  top: "conv5_3"
}
layer {
  name: "pool5"
  type: "Pooling"
  bottom: "conv5_3"
  top: "pool5"
  pooling_param {
    pool: MAX
    kernel_size: 2
    stride: 2
  }
}
layer {
  name: "fc6"
  type: "Convolution"
  bottom: "pool5"
  top: "fc6"
  param {
    lr_mult: 1
    decay_mult: 1
  }
  param {
    lr_mult: 2
    decay_mult: 0
  }
  convolution_param {
    num_output: 4096
    pad: 0
    kernel_size: 7
    stride: 1
    weight_filler {
      type: "xavier"
    }
  }
}
layer {
  name: "relu6"
  type: "ReLU"
  bottom: "fc6"
  top: "fc6"
}
layer {
  name: "drop6"
  type: "Dropout"
  bottom: "fc6"
  top: "fc6"
  dropout_param {
    dropout_ratio: 0.5
  }
}
layer {
  name: "fc7"
  type: "Convolution"
  bottom: "fc6"
  top: "fc7"
  param {
    lr_mult: 1
    decay_mult: 1
  }
  param {
    lr_mult: 2
    decay_mult: 0
  }
  convolution_param {
    num_output: 4096
    pad: 0
    kernel_size: 1
    stride: 1
    weight_filler {
      type: "xavier"
    }
  }
}
layer {
  name: "relu7"
  type: "ReLU"
  bottom: "fc7"
  top: "fc7"
}
layer {
  name: "drop7"
  type: "Dropout"
  bottom: "fc7"
  top: "fc7"
  dropout_param {
    dropout_ratio: 0.5
  }
}
layer {
  name: "score_fr"
  type: "Convolution"
  bottom: "fc7"
  top: "score_fr"
  param {
    lr_mult: 1
    decay_mult: 1
  }
  param {
    lr_mult: 2
    decay_mult: 0
  }
  convolution_param {
    num_output: 6
    pad: 0
    kernel_size: 1
    weight_filler {
      type: "xavier"
    }
  }
}
layer {
  name: "upscore2"
  type: "Deconvolution"
  bottom: "score_fr"
  top: "upscore2"
  param {
    lr_mult: 0
  }
  convolution_param {
    num_output: 6
    bias_term: false
    kernel_size: 4
    stride: 2
    weight_filler {
      type: "xavier"
    }
  }
}
layer {
  name: "scale_pool4"
  type: "Scale"
  bottom: "pool4"
  top: "scale_pool4"
  param {
    lr_mult: 0
  }
  scale_param {
    filler {
      type: "constant"
      value: 0.01
    }
  }
}
layer {
  name: "score_pool4"
  type: "Convolution"
  bottom: "scale_pool4"
  top: "score_pool4"
  param {
    lr_mult: 1
    decay_mult: 1
  }
  param {
    lr_mult: 2
    decay_mult: 0
  }
  convolution_param {
    num_output: 6
    pad: 0
    kernel_size: 1
    weight_filler {
      type: "xavier"
    }
  }
}
layer {
  name: "score_pool4c"
  type: "Crop"
  bottom: "score_pool4"
  bottom: "upscore2"
  top: "score_pool4c"
  crop_param {
    axis: 2
    offset: 5
  }
}
layer {
  name: "fuse_pool4"
  type: "Eltwise"
  bottom: "upscore2"
  bottom: "score_pool4c"
  top: "fuse_pool4"
  eltwise_param {
    operation: SUM
  }
}
layer {
  name: "upscore_pool4"
  type: "Deconvolution"
  bottom: "fuse_pool4"
  top: "upscore_pool4"
  param {
    lr_mult: 0
  }
  convolution_param {
    num_output: 6
    bias_term: false
    kernel_size: 4
    stride: 2
    weight_filler {
      type: "xavier"
    }
  }
}
layer {
  name: "scale_pool3"
  type: "Scale"
  bottom: "pool3"
  top: "scale_pool3"
  param {
    lr_mult: 0
  }
  scale_param {
    filler {
      type: "constant"
      value: 0.0001
    }
  }
}
layer {
  name: "score_pool3"
  type: "Convolution"
  bottom: "scale_pool3"
  top: "score_pool3"
  param {
    lr_mult: 1
    decay_mult: 1
  }
  param {
    lr_mult: 2
    decay_mult: 0
  }
  convolution_param {
    num_output: 6
    pad: 0
    kernel_size: 1
    weight_filler {
      type: "xavier"
    }
  }
}
layer {
  name: "score_pool3c"
  type: "Crop"
  bottom: "score_pool3"
  bottom: "upscore_pool4"
  top: "score_pool3c"
  crop_param {
    axis: 2
    offset: 9
  }
}
layer {
  name: "fuse_pool3"
  type: "Eltwise"
  bottom: "upscore_pool4"
  bottom: "score_pool3c"
  top: "fuse_pool3"
  eltwise_param {
    operation: SUM
  }
}
layer {
  name: "upscore8"
  type: "Deconvolution"
  bottom: "fuse_pool3"
  top: "upscore8"
  param {
    lr_mult: 0
  }
  convolution_param {
    num_output: 6
    bias_term: false
    kernel_size: 16
    stride: 8
    weight_filler {
      type: "xavier"
    }
  }
}
layer {
  name: "score"
  type: "Crop"
  bottom: "upscore8"
  bottom: "data"
  top: "score"
  crop_param {
    axis: 2
    offset: 31
  }
}
layer {
  name: "loss"
  type: "SoftmaxWithLoss"
  bottom: "score"
  bottom: "label"
  top: "loss"
  loss_param {
    ignore_label: 255
    normalize: false
  }
}
I0109 06:24:40.549716 13270 layer_factory.hpp:77] Creating layer data
I0109 06:24:40.549899 13270 net.cpp:100] Creating Layer data
I0109 06:24:40.549911 13270 net.cpp:408] data -> data
I0109 06:24:40.549919 13270 net.cpp:408] data -> label
I0109 06:24:40.614922 13270 net.cpp:150] Setting up data
I0109 06:24:40.614954 13270 net.cpp:157] Top shape: 1 3 335 500 (502500)
I0109 06:24:40.614961 13270 net.cpp:157] Top shape: 1 1 335 500 (167500)
I0109 06:24:40.614965 13270 net.cpp:165] Memory required for data: 2680000
I0109 06:24:40.614974 13270 layer_factory.hpp:77] Creating layer data_data_0_split
I0109 06:24:40.614990 13270 net.cpp:100] Creating Layer data_data_0_split
I0109 06:24:40.614995 13270 net.cpp:434] data_data_0_split <- data
I0109 06:24:40.615005 13270 net.cpp:408] data_data_0_split -> data_data_0_split_0
I0109 06:24:40.615016 13270 net.cpp:408] data_data_0_split -> data_data_0_split_1
I0109 06:24:40.615062 13270 net.cpp:150] Setting up data_data_0_split
I0109 06:24:40.615070 13270 net.cpp:157] Top shape: 1 3 335 500 (502500)
I0109 06:24:40.615077 13270 net.cpp:157] Top shape: 1 3 335 500 (502500)
I0109 06:24:40.615080 13270 net.cpp:165] Memory required for data: 6700000
I0109 06:24:40.615085 13270 layer_factory.hpp:77] Creating layer conv1_1
I0109 06:24:40.615100 13270 net.cpp:100] Creating Layer conv1_1
I0109 06:24:40.615105 13270 net.cpp:434] conv1_1 <- data_data_0_split_0
I0109 06:24:40.615113 13270 net.cpp:408] conv1_1 -> conv1_1
I0109 06:24:40.617717 13270 net.cpp:150] Setting up conv1_1
I0109 06:24:40.617735 13270 net.cpp:157] Top shape: 1 64 533 698 (23810176)
I0109 06:24:40.617740 13270 net.cpp:165] Memory required for data: 101940704
I0109 06:24:40.617754 13270 layer_factory.hpp:77] Creating layer relu1_1
I0109 06:24:40.617766 13270 net.cpp:100] Creating Layer relu1_1
I0109 06:24:40.617770 13270 net.cpp:434] relu1_1 <- conv1_1
I0109 06:24:40.617777 13270 net.cpp:395] relu1_1 -> conv1_1 (in-place)
I0109 06:24:40.617981 13270 net.cpp:150] Setting up relu1_1
I0109 06:24:40.617992 13270 net.cpp:157] Top shape: 1 64 533 698 (23810176)
I0109 06:24:40.617997 13270 net.cpp:165] Memory required for data: 197181408
I0109 06:24:40.618003 13270 layer_factory.hpp:77] Creating layer conv1_2
I0109 06:24:40.618016 13270 net.cpp:100] Creating Layer conv1_2
I0109 06:24:40.618021 13270 net.cpp:434] conv1_2 <- conv1_1
I0109 06:24:40.618028 13270 net.cpp:408] conv1_2 -> conv1_2
I0109 06:24:40.620389 13270 net.cpp:150] Setting up conv1_2
I0109 06:24:40.620406 13270 net.cpp:157] Top shape: 1 64 533 698 (23810176)
I0109 06:24:40.620411 13270 net.cpp:165] Memory required for data: 292422112
I0109 06:24:40.620424 13270 layer_factory.hpp:77] Creating layer relu1_2
I0109 06:24:40.620434 13270 net.cpp:100] Creating Layer relu1_2
I0109 06:24:40.620438 13270 net.cpp:434] relu1_2 <- conv1_2
I0109 06:24:40.620445 13270 net.cpp:395] relu1_2 -> conv1_2 (in-place)
I0109 06:24:40.620831 13270 net.cpp:150] Setting up relu1_2
I0109 06:24:40.620846 13270 net.cpp:157] Top shape: 1 64 533 698 (23810176)
I0109 06:24:40.620851 13270 net.cpp:165] Memory required for data: 387662816
I0109 06:24:40.620856 13270 layer_factory.hpp:77] Creating layer pool1
I0109 06:24:40.620867 13270 net.cpp:100] Creating Layer pool1
I0109 06:24:40.620872 13270 net.cpp:434] pool1 <- conv1_2
I0109 06:24:40.620879 13270 net.cpp:408] pool1 -> pool1
I0109 06:24:40.620937 13270 net.cpp:150] Setting up pool1
I0109 06:24:40.620945 13270 net.cpp:157] Top shape: 1 64 267 349 (5963712)
I0109 06:24:40.620949 13270 net.cpp:165] Memory required for data: 411517664
I0109 06:24:40.620954 13270 layer_factory.hpp:77] Creating layer conv2_1
I0109 06:24:40.620966 13270 net.cpp:100] Creating Layer conv2_1
I0109 06:24:40.620971 13270 net.cpp:434] conv2_1 <- pool1
I0109 06:24:40.620980 13270 net.cpp:408] conv2_1 -> conv2_1
I0109 06:24:40.623287 13270 net.cpp:150] Setting up conv2_1
I0109 06:24:40.623304 13270 net.cpp:157] Top shape: 1 128 267 349 (11927424)
I0109 06:24:40.623311 13270 net.cpp:165] Memory required for data: 459227360
I0109 06:24:40.623322 13270 layer_factory.hpp:77] Creating layer relu2_1
I0109 06:24:40.623332 13270 net.cpp:100] Creating Layer relu2_1
I0109 06:24:40.623337 13270 net.cpp:434] relu2_1 <- conv2_1
I0109 06:24:40.623342 13270 net.cpp:395] relu2_1 -> conv2_1 (in-place)
I0109 06:24:40.623733 13270 net.cpp:150] Setting up relu2_1
I0109 06:24:40.623747 13270 net.cpp:157] Top shape: 1 128 267 349 (11927424)
I0109 06:24:40.623752 13270 net.cpp:165] Memory required for data: 506937056
I0109 06:24:40.623757 13270 layer_factory.hpp:77] Creating layer conv2_2
I0109 06:24:40.623771 13270 net.cpp:100] Creating Layer conv2_2
I0109 06:24:40.623776 13270 net.cpp:434] conv2_2 <- conv2_1
I0109 06:24:40.623785 13270 net.cpp:408] conv2_2 -> conv2_2
I0109 06:24:40.626395 13270 net.cpp:150] Setting up conv2_2
I0109 06:24:40.626412 13270 net.cpp:157] Top shape: 1 128 267 349 (11927424)
I0109 06:24:40.626417 13270 net.cpp:165] Memory required for data: 554646752
I0109 06:24:40.626426 13270 layer_factory.hpp:77] Creating layer relu2_2
I0109 06:24:40.626436 13270 net.cpp:100] Creating Layer relu2_2
I0109 06:24:40.626441 13270 net.cpp:434] relu2_2 <- conv2_2
I0109 06:24:40.626448 13270 net.cpp:395] relu2_2 -> conv2_2 (in-place)
I0109 06:24:40.626652 13270 net.cpp:150] Setting up relu2_2
I0109 06:24:40.626662 13270 net.cpp:157] Top shape: 1 128 267 349 (11927424)
I0109 06:24:40.626667 13270 net.cpp:165] Memory required for data: 602356448
I0109 06:24:40.626672 13270 layer_factory.hpp:77] Creating layer pool2
I0109 06:24:40.626682 13270 net.cpp:100] Creating Layer pool2
I0109 06:24:40.626685 13270 net.cpp:434] pool2 <- conv2_2
I0109 06:24:40.626693 13270 net.cpp:408] pool2 -> pool2
I0109 06:24:40.626749 13270 net.cpp:150] Setting up pool2
I0109 06:24:40.626757 13270 net.cpp:157] Top shape: 1 128 134 175 (3001600)
I0109 06:24:40.626761 13270 net.cpp:165] Memory required for data: 614362848
I0109 06:24:40.626765 13270 layer_factory.hpp:77] Creating layer conv3_1
I0109 06:24:40.626780 13270 net.cpp:100] Creating Layer conv3_1
I0109 06:24:40.626785 13270 net.cpp:434] conv3_1 <- pool2
I0109 06:24:40.626792 13270 net.cpp:408] conv3_1 -> conv3_1
I0109 06:24:40.630205 13270 net.cpp:150] Setting up conv3_1
I0109 06:24:40.630223 13270 net.cpp:157] Top shape: 1 256 134 175 (6003200)
I0109 06:24:40.630229 13270 net.cpp:165] Memory required for data: 638375648
I0109 06:24:40.630242 13270 layer_factory.hpp:77] Creating layer relu3_1
I0109 06:24:40.630256 13270 net.cpp:100] Creating Layer relu3_1
I0109 06:24:40.630261 13270 net.cpp:434] relu3_1 <- conv3_1
I0109 06:24:40.630269 13270 net.cpp:395] relu3_1 -> conv3_1 (in-place)
I0109 06:24:40.630650 13270 net.cpp:150] Setting up relu3_1
I0109 06:24:40.630664 13270 net.cpp:157] Top shape: 1 256 134 175 (6003200)
I0109 06:24:40.630668 13270 net.cpp:165] Memory required for data: 662388448
I0109 06:24:40.630673 13270 layer_factory.hpp:77] Creating layer conv3_2
I0109 06:24:40.630686 13270 net.cpp:100] Creating Layer conv3_2
I0109 06:24:40.630692 13270 net.cpp:434] conv3_2 <- conv3_1
I0109 06:24:40.630700 13270 net.cpp:408] conv3_2 -> conv3_2
I0109 06:24:40.636066 13270 net.cpp:150] Setting up conv3_2
I0109 06:24:40.636083 13270 net.cpp:157] Top shape: 1 256 134 175 (6003200)
I0109 06:24:40.636090 13270 net.cpp:165] Memory required for data: 686401248
I0109 06:24:40.636097 13270 layer_factory.hpp:77] Creating layer relu3_2
I0109 06:24:40.636106 13270 net.cpp:100] Creating Layer relu3_2
I0109 06:24:40.636111 13270 net.cpp:434] relu3_2 <- conv3_2
I0109 06:24:40.636118 13270 net.cpp:395] relu3_2 -> conv3_2 (in-place)
I0109 06:24:40.636320 13270 net.cpp:150] Setting up relu3_2
I0109 06:24:40.636332 13270 net.cpp:157] Top shape: 1 256 134 175 (6003200)
I0109 06:24:40.636335 13270 net.cpp:165] Memory required for data: 710414048
I0109 06:24:40.636339 13270 layer_factory.hpp:77] Creating layer conv3_3
I0109 06:24:40.636355 13270 net.cpp:100] Creating Layer conv3_3
I0109 06:24:40.636360 13270 net.cpp:434] conv3_3 <- conv3_2
I0109 06:24:40.636369 13270 net.cpp:408] conv3_3 -> conv3_3
I0109 06:24:40.641757 13270 net.cpp:150] Setting up conv3_3
I0109 06:24:40.641775 13270 net.cpp:157] Top shape: 1 256 134 175 (6003200)
I0109 06:24:40.641780 13270 net.cpp:165] Memory required for data: 734426848
I0109 06:24:40.641788 13270 layer_factory.hpp:77] Creating layer relu3_3
I0109 06:24:40.641798 13270 net.cpp:100] Creating Layer relu3_3
I0109 06:24:40.641803 13270 net.cpp:434] relu3_3 <- conv3_3
I0109 06:24:40.641810 13270 net.cpp:395] relu3_3 -> conv3_3 (in-place)
I0109 06:24:40.642014 13270 net.cpp:150] Setting up relu3_3
I0109 06:24:40.642026 13270 net.cpp:157] Top shape: 1 256 134 175 (6003200)
I0109 06:24:40.642031 13270 net.cpp:165] Memory required for data: 758439648
I0109 06:24:40.642036 13270 layer_factory.hpp:77] Creating layer pool3
I0109 06:24:40.642045 13270 net.cpp:100] Creating Layer pool3
I0109 06:24:40.642050 13270 net.cpp:434] pool3 <- conv3_3
I0109 06:24:40.642057 13270 net.cpp:408] pool3 -> pool3
I0109 06:24:40.642115 13270 net.cpp:150] Setting up pool3
I0109 06:24:40.642123 13270 net.cpp:157] Top shape: 1 256 67 88 (1509376)
I0109 06:24:40.642127 13270 net.cpp:165] Memory required for data: 764477152
I0109 06:24:40.642132 13270 layer_factory.hpp:77] Creating layer pool3_pool3_0_split
I0109 06:24:40.642140 13270 net.cpp:100] Creating Layer pool3_pool3_0_split
I0109 06:24:40.642144 13270 net.cpp:434] pool3_pool3_0_split <- pool3
I0109 06:24:40.642151 13270 net.cpp:408] pool3_pool3_0_split -> pool3_pool3_0_split_0
I0109 06:24:40.642159 13270 net.cpp:408] pool3_pool3_0_split -> pool3_pool3_0_split_1
I0109 06:24:40.642204 13270 net.cpp:150] Setting up pool3_pool3_0_split
I0109 06:24:40.642211 13270 net.cpp:157] Top shape: 1 256 67 88 (1509376)
I0109 06:24:40.642216 13270 net.cpp:157] Top shape: 1 256 67 88 (1509376)
I0109 06:24:40.642220 13270 net.cpp:165] Memory required for data: 776552160
I0109 06:24:40.642225 13270 layer_factory.hpp:77] Creating layer conv4_1
I0109 06:24:40.642238 13270 net.cpp:100] Creating Layer conv4_1
I0109 06:24:40.642243 13270 net.cpp:434] conv4_1 <- pool3_pool3_0_split_0
I0109 06:24:40.642251 13270 net.cpp:408] conv4_1 -> conv4_1
I0109 06:24:40.651468 13270 net.cpp:150] Setting up conv4_1
I0109 06:24:40.651487 13270 net.cpp:157] Top shape: 1 512 67 88 (3018752)
I0109 06:24:40.651492 13270 net.cpp:165] Memory required for data: 788627168
I0109 06:24:40.651500 13270 layer_factory.hpp:77] Creating layer relu4_1
I0109 06:24:40.651510 13270 net.cpp:100] Creating Layer relu4_1
I0109 06:24:40.651515 13270 net.cpp:434] relu4_1 <- conv4_1
I0109 06:24:40.651527 13270 net.cpp:395] relu4_1 -> conv4_1 (in-place)
I0109 06:24:40.651906 13270 net.cpp:150] Setting up relu4_1
I0109 06:24:40.651919 13270 net.cpp:157] Top shape: 1 512 67 88 (3018752)
I0109 06:24:40.651924 13270 net.cpp:165] Memory required for data: 800702176
I0109 06:24:40.651928 13270 layer_factory.hpp:77] Creating layer conv4_2
I0109 06:24:40.651940 13270 net.cpp:100] Creating Layer conv4_2
I0109 06:24:40.651945 13270 net.cpp:434] conv4_2 <- conv4_1
I0109 06:24:40.651954 13270 net.cpp:408] conv4_2 -> conv4_2
I0109 06:24:40.669045 13270 net.cpp:150] Setting up conv4_2
I0109 06:24:40.669071 13270 net.cpp:157] Top shape: 1 512 67 88 (3018752)
I0109 06:24:40.669077 13270 net.cpp:165] Memory required for data: 812777184
I0109 06:24:40.669091 13270 layer_factory.hpp:77] Creating layer relu4_2
I0109 06:24:40.669106 13270 net.cpp:100] Creating Layer relu4_2
I0109 06:24:40.669111 13270 net.cpp:434] relu4_2 <- conv4_2
I0109 06:24:40.669118 13270 net.cpp:395] relu4_2 -> conv4_2 (in-place)
I0109 06:24:40.669322 13270 net.cpp:150] Setting up relu4_2
I0109 06:24:40.669332 13270 net.cpp:157] Top shape: 1 512 67 88 (3018752)
I0109 06:24:40.669337 13270 net.cpp:165] Memory required for data: 824852192
I0109 06:24:40.669342 13270 layer_factory.hpp:77] Creating layer conv4_3
I0109 06:24:40.669353 13270 net.cpp:100] Creating Layer conv4_3
I0109 06:24:40.669358 13270 net.cpp:434] conv4_3 <- conv4_2
I0109 06:24:40.669368 13270 net.cpp:408] conv4_3 -> conv4_3
I0109 06:24:40.686661 13270 net.cpp:150] Setting up conv4_3
I0109 06:24:40.686686 13270 net.cpp:157] Top shape: 1 512 67 88 (3018752)
I0109 06:24:40.686691 13270 net.cpp:165] Memory required for data: 836927200
I0109 06:24:40.686699 13270 layer_factory.hpp:77] Creating layer relu4_3
I0109 06:24:40.686709 13270 net.cpp:100] Creating Layer relu4_3
I0109 06:24:40.686714 13270 net.cpp:434] relu4_3 <- conv4_3
I0109 06:24:40.686722 13270 net.cpp:395] relu4_3 -> conv4_3 (in-place)
I0109 06:24:40.686931 13270 net.cpp:150] Setting up relu4_3
I0109 06:24:40.686942 13270 net.cpp:157] Top shape: 1 512 67 88 (3018752)
I0109 06:24:40.686947 13270 net.cpp:165] Memory required for data: 849002208
I0109 06:24:40.686951 13270 layer_factory.hpp:77] Creating layer pool4
I0109 06:24:40.686960 13270 net.cpp:100] Creating Layer pool4
I0109 06:24:40.686965 13270 net.cpp:434] pool4 <- conv4_3
I0109 06:24:40.686975 13270 net.cpp:408] pool4 -> pool4
I0109 06:24:40.687032 13270 net.cpp:150] Setting up pool4
I0109 06:24:40.687039 13270 net.cpp:157] Top shape: 1 512 34 44 (765952)
I0109 06:24:40.687043 13270 net.cpp:165] Memory required for data: 852066016
I0109 06:24:40.687052 13270 layer_factory.hpp:77] Creating layer pool4_pool4_0_split
I0109 06:24:40.687060 13270 net.cpp:100] Creating Layer pool4_pool4_0_split
I0109 06:24:40.687064 13270 net.cpp:434] pool4_pool4_0_split <- pool4
I0109 06:24:40.687072 13270 net.cpp:408] pool4_pool4_0_split -> pool4_pool4_0_split_0
I0109 06:24:40.687079 13270 net.cpp:408] pool4_pool4_0_split -> pool4_pool4_0_split_1
I0109 06:24:40.687124 13270 net.cpp:150] Setting up pool4_pool4_0_split
I0109 06:24:40.687130 13270 net.cpp:157] Top shape: 1 512 34 44 (765952)
I0109 06:24:40.687135 13270 net.cpp:157] Top shape: 1 512 34 44 (765952)
I0109 06:24:40.687139 13270 net.cpp:165] Memory required for data: 858193632
I0109 06:24:40.687145 13270 layer_factory.hpp:77] Creating layer conv5_1
I0109 06:24:40.687156 13270 net.cpp:100] Creating Layer conv5_1
I0109 06:24:40.687161 13270 net.cpp:434] conv5_1 <- pool4_pool4_0_split_0
I0109 06:24:40.687170 13270 net.cpp:408] conv5_1 -> conv5_1
I0109 06:24:40.704282 13270 net.cpp:150] Setting up conv5_1
I0109 06:24:40.704308 13270 net.cpp:157] Top shape: 1 512 34 44 (765952)
I0109 06:24:40.704313 13270 net.cpp:165] Memory required for data: 861257440
I0109 06:24:40.704324 13270 layer_factory.hpp:77] Creating layer relu5_1
I0109 06:24:40.704332 13270 net.cpp:100] Creating Layer relu5_1
I0109 06:24:40.704337 13270 net.cpp:434] relu5_1 <- conv5_1
I0109 06:24:40.704345 13270 net.cpp:395] relu5_1 -> conv5_1 (in-place)
I0109 06:24:40.704741 13270 net.cpp:150] Setting up relu5_1
I0109 06:24:40.704754 13270 net.cpp:157] Top shape: 1 512 34 44 (765952)
I0109 06:24:40.704759 13270 net.cpp:165] Memory required for data: 864321248
I0109 06:24:40.704763 13270 layer_factory.hpp:77] Creating layer conv5_2
I0109 06:24:40.704776 13270 net.cpp:100] Creating Layer conv5_2
I0109 06:24:40.704782 13270 net.cpp:434] conv5_2 <- conv5_1
I0109 06:24:40.704790 13270 net.cpp:408] conv5_2 -> conv5_2
I0109 06:24:40.722025 13270 net.cpp:150] Setting up conv5_2
I0109 06:24:40.722050 13270 net.cpp:157] Top shape: 1 512 34 44 (765952)
I0109 06:24:40.722055 13270 net.cpp:165] Memory required for data: 867385056
I0109 06:24:40.722064 13270 layer_factory.hpp:77] Creating layer relu5_2
I0109 06:24:40.722074 13270 net.cpp:100] Creating Layer relu5_2
I0109 06:24:40.722079 13270 net.cpp:434] relu5_2 <- conv5_2
I0109 06:24:40.722086 13270 net.cpp:395] relu5_2 -> conv5_2 (in-place)
I0109 06:24:40.722286 13270 net.cpp:150] Setting up relu5_2
I0109 06:24:40.722297 13270 net.cpp:157] Top shape: 1 512 34 44 (765952)
I0109 06:24:40.722301 13270 net.cpp:165] Memory required for data: 870448864
I0109 06:24:40.722308 13270 layer_factory.hpp:77] Creating layer conv5_3
I0109 06:24:40.722326 13270 net.cpp:100] Creating Layer conv5_3
I0109 06:24:40.722332 13270 net.cpp:434] conv5_3 <- conv5_2
I0109 06:24:40.722340 13270 net.cpp:408] conv5_3 -> conv5_3
I0109 06:24:40.739385 13270 net.cpp:150] Setting up conv5_3
I0109 06:24:40.739409 13270 net.cpp:157] Top shape: 1 512 34 44 (765952)
I0109 06:24:40.739414 13270 net.cpp:165] Memory required for data: 873512672
I0109 06:24:40.739423 13270 layer_factory.hpp:77] Creating layer relu5_3
I0109 06:24:40.739435 13270 net.cpp:100] Creating Layer relu5_3
I0109 06:24:40.739441 13270 net.cpp:434] relu5_3 <- conv5_3
I0109 06:24:40.739449 13270 net.cpp:395] relu5_3 -> conv5_3 (in-place)
I0109 06:24:40.739645 13270 net.cpp:150] Setting up relu5_3
I0109 06:24:40.739656 13270 net.cpp:157] Top shape: 1 512 34 44 (765952)
I0109 06:24:40.739660 13270 net.cpp:165] Memory required for data: 876576480
I0109 06:24:40.739665 13270 layer_factory.hpp:77] Creating layer pool5
I0109 06:24:40.739675 13270 net.cpp:100] Creating Layer pool5
I0109 06:24:40.739680 13270 net.cpp:434] pool5 <- conv5_3
I0109 06:24:40.739687 13270 net.cpp:408] pool5 -> pool5
I0109 06:24:40.739745 13270 net.cpp:150] Setting up pool5
I0109 06:24:40.739753 13270 net.cpp:157] Top shape: 1 512 17 22 (191488)
I0109 06:24:40.739758 13270 net.cpp:165] Memory required for data: 877342432
I0109 06:24:40.739761 13270 layer_factory.hpp:77] Creating layer fc6
I0109 06:24:40.739774 13270 net.cpp:100] Creating Layer fc6
I0109 06:24:40.739779 13270 net.cpp:434] fc6 <- pool5
I0109 06:24:40.739787 13270 net.cpp:408] fc6 -> fc6
I0109 06:24:41.455536 13270 net.cpp:150] Setting up fc6
I0109 06:24:41.455587 13270 net.cpp:157] Top shape: 1 4096 11 16 (720896)
I0109 06:24:41.455593 13270 net.cpp:165] Memory required for data: 880226016
I0109 06:24:41.455606 13270 layer_factory.hpp:77] Creating layer relu6
I0109 06:24:41.455621 13270 net.cpp:100] Creating Layer relu6
I0109 06:24:41.455627 13270 net.cpp:434] relu6 <- fc6
I0109 06:24:41.455636 13270 net.cpp:395] relu6 -> fc6 (in-place)
I0109 06:24:41.456029 13270 net.cpp:150] Setting up relu6
I0109 06:24:41.456044 13270 net.cpp:157] Top shape: 1 4096 11 16 (720896)
I0109 06:24:41.456048 13270 net.cpp:165] Memory required for data: 883109600
I0109 06:24:41.456053 13270 layer_factory.hpp:77] Creating layer drop6
I0109 06:24:41.456063 13270 net.cpp:100] Creating Layer drop6
I0109 06:24:41.456068 13270 net.cpp:434] drop6 <- fc6
I0109 06:24:41.456075 13270 net.cpp:395] drop6 -> fc6 (in-place)
I0109 06:24:41.456121 13270 net.cpp:150] Setting up drop6
I0109 06:24:41.456130 13270 net.cpp:157] Top shape: 1 4096 11 16 (720896)
I0109 06:24:41.456133 13270 net.cpp:165] Memory required for data: 885993184
I0109 06:24:41.456138 13270 layer_factory.hpp:77] Creating layer fc7
I0109 06:24:41.456151 13270 net.cpp:100] Creating Layer fc7
I0109 06:24:41.456156 13270 net.cpp:434] fc7 <- fc6
I0109 06:24:41.456179 13270 net.cpp:408] fc7 -> fc7
I0109 06:24:41.574681 13270 net.cpp:150] Setting up fc7
I0109 06:24:41.574733 13270 net.cpp:157] Top shape: 1 4096 11 16 (720896)
I0109 06:24:41.574738 13270 net.cpp:165] Memory required for data: 888876768
I0109 06:24:41.574751 13270 layer_factory.hpp:77] Creating layer relu7
I0109 06:24:41.574766 13270 net.cpp:100] Creating Layer relu7
I0109 06:24:41.574772 13270 net.cpp:434] relu7 <- fc7
I0109 06:24:41.574781 13270 net.cpp:395] relu7 -> fc7 (in-place)
I0109 06:24:41.574992 13270 net.cpp:150] Setting up relu7
I0109 06:24:41.575003 13270 net.cpp:157] Top shape: 1 4096 11 16 (720896)
I0109 06:24:41.575008 13270 net.cpp:165] Memory required for data: 891760352
I0109 06:24:41.575012 13270 layer_factory.hpp:77] Creating layer drop7
I0109 06:24:41.575024 13270 net.cpp:100] Creating Layer drop7
I0109 06:24:41.575031 13270 net.cpp:434] drop7 <- fc7
I0109 06:24:41.575042 13270 net.cpp:395] drop7 -> fc7 (in-place)
I0109 06:24:41.575084 13270 net.cpp:150] Setting up drop7
I0109 06:24:41.575096 13270 net.cpp:157] Top shape: 1 4096 11 16 (720896)
I0109 06:24:41.575103 13270 net.cpp:165] Memory required for data: 894643936
I0109 06:24:41.575109 13270 layer_factory.hpp:77] Creating layer score_fr
I0109 06:24:41.575125 13270 net.cpp:100] Creating Layer score_fr
I0109 06:24:41.575134 13270 net.cpp:434] score_fr <- fc7
I0109 06:24:41.575143 13270 net.cpp:408] score_fr -> score_fr
I0109 06:24:41.577450 13270 net.cpp:150] Setting up score_fr
I0109 06:24:41.577466 13270 net.cpp:157] Top shape: 1 6 11 16 (1056)
I0109 06:24:41.577471 13270 net.cpp:165] Memory required for data: 894648160
I0109 06:24:41.577481 13270 layer_factory.hpp:77] Creating layer upscore2
I0109 06:24:41.577491 13270 net.cpp:100] Creating Layer upscore2
I0109 06:24:41.577497 13270 net.cpp:434] upscore2 <- score_fr
I0109 06:24:41.577505 13270 net.cpp:408] upscore2 -> upscore2
I0109 06:24:41.577786 13270 net.cpp:150] Setting up upscore2
I0109 06:24:41.577797 13270 net.cpp:157] Top shape: 1 6 24 34 (4896)
I0109 06:24:41.577801 13270 net.cpp:165] Memory required for data: 894667744
I0109 06:24:41.577818 13270 layer_factory.hpp:77] Creating layer upscore2_upscore2_0_split
I0109 06:24:41.577827 13270 net.cpp:100] Creating Layer upscore2_upscore2_0_split
I0109 06:24:41.577832 13270 net.cpp:434] upscore2_upscore2_0_split <- upscore2
I0109 06:24:41.577839 13270 net.cpp:408] upscore2_upscore2_0_split -> upscore2_upscore2_0_split_0
I0109 06:24:41.577847 13270 net.cpp:408] upscore2_upscore2_0_split -> upscore2_upscore2_0_split_1
I0109 06:24:41.577896 13270 net.cpp:150] Setting up upscore2_upscore2_0_split
I0109 06:24:41.577904 13270 net.cpp:157] Top shape: 1 6 24 34 (4896)
I0109 06:24:41.577909 13270 net.cpp:157] Top shape: 1 6 24 34 (4896)
I0109 06:24:41.577913 13270 net.cpp:165] Memory required for data: 894706912
I0109 06:24:41.577917 13270 layer_factory.hpp:77] Creating layer scale_pool4
I0109 06:24:41.577929 13270 net.cpp:100] Creating Layer scale_pool4
I0109 06:24:41.577932 13270 net.cpp:434] scale_pool4 <- pool4_pool4_0_split_1
I0109 06:24:41.577941 13270 net.cpp:408] scale_pool4 -> scale_pool4
I0109 06:24:41.578070 13270 net.cpp:150] Setting up scale_pool4
I0109 06:24:41.578080 13270 net.cpp:157] Top shape: 1 512 34 44 (765952)
I0109 06:24:41.578084 13270 net.cpp:165] Memory required for data: 897770720
I0109 06:24:41.578090 13270 layer_factory.hpp:77] Creating layer score_pool4
I0109 06:24:41.578101 13270 net.cpp:100] Creating Layer score_pool4
I0109 06:24:41.578106 13270 net.cpp:434] score_pool4 <- scale_pool4
I0109 06:24:41.578114 13270 net.cpp:408] score_pool4 -> score_pool4
I0109 06:24:41.579459 13270 net.cpp:150] Setting up score_pool4
I0109 06:24:41.579474 13270 net.cpp:157] Top shape: 1 6 34 44 (8976)
I0109 06:24:41.579479 13270 net.cpp:165] Memory required for data: 897806624
I0109 06:24:41.579488 13270 layer_factory.hpp:77] Creating layer score_pool4c
I0109 06:24:41.579499 13270 net.cpp:100] Creating Layer score_pool4c
I0109 06:24:41.579504 13270 net.cpp:434] score_pool4c <- score_pool4
I0109 06:24:41.579524 13270 net.cpp:434] score_pool4c <- upscore2_upscore2_0_split_0
I0109 06:24:41.579531 13270 net.cpp:408] score_pool4c -> score_pool4c
I0109 06:24:41.579571 13270 net.cpp:150] Setting up score_pool4c
I0109 06:24:41.579579 13270 net.cpp:157] Top shape: 1 6 24 34 (4896)
I0109 06:24:41.579582 13270 net.cpp:165] Memory required for data: 897826208
I0109 06:24:41.579587 13270 layer_factory.hpp:77] Creating layer fuse_pool4
I0109 06:24:41.579596 13270 net.cpp:100] Creating Layer fuse_pool4
I0109 06:24:41.579601 13270 net.cpp:434] fuse_pool4 <- upscore2_upscore2_0_split_1
I0109 06:24:41.579607 13270 net.cpp:434] fuse_pool4 <- score_pool4c
I0109 06:24:41.579612 13270 net.cpp:408] fuse_pool4 -> fuse_pool4
I0109 06:24:41.579646 13270 net.cpp:150] Setting up fuse_pool4
I0109 06:24:41.579653 13270 net.cpp:157] Top shape: 1 6 24 34 (4896)
I0109 06:24:41.579658 13270 net.cpp:165] Memory required for data: 897845792
I0109 06:24:41.579661 13270 layer_factory.hpp:77] Creating layer upscore_pool4
I0109 06:24:41.579670 13270 net.cpp:100] Creating Layer upscore_pool4
I0109 06:24:41.579675 13270 net.cpp:434] upscore_pool4 <- fuse_pool4
I0109 06:24:41.579681 13270 net.cpp:408] upscore_pool4 -> upscore_pool4
I0109 06:24:41.579932 13270 net.cpp:150] Setting up upscore_pool4
I0109 06:24:41.579941 13270 net.cpp:157] Top shape: 1 6 50 70 (21000)
I0109 06:24:41.579946 13270 net.cpp:165] Memory required for data: 897929792
I0109 06:24:41.579952 13270 layer_factory.hpp:77] Creating layer upscore_pool4_upscore_pool4_0_split
I0109 06:24:41.579959 13270 net.cpp:100] Creating Layer upscore_pool4_upscore_pool4_0_split
I0109 06:24:41.579963 13270 net.cpp:434] upscore_pool4_upscore_pool4_0_split <- upscore_pool4
I0109 06:24:41.579970 13270 net.cpp:408] upscore_pool4_upscore_pool4_0_split -> upscore_pool4_upscore_pool4_0_split_0
I0109 06:24:41.579977 13270 net.cpp:408] upscore_pool4_upscore_pool4_0_split -> upscore_pool4_upscore_pool4_0_split_1
I0109 06:24:41.580024 13270 net.cpp:150] Setting up upscore_pool4_upscore_pool4_0_split
I0109 06:24:41.580031 13270 net.cpp:157] Top shape: 1 6 50 70 (21000)
I0109 06:24:41.580036 13270 net.cpp:157] Top shape: 1 6 50 70 (21000)
I0109 06:24:41.580040 13270 net.cpp:165] Memory required for data: 898097792
I0109 06:24:41.580044 13270 layer_factory.hpp:77] Creating layer scale_pool3
I0109 06:24:41.580054 13270 net.cpp:100] Creating Layer scale_pool3
I0109 06:24:41.580057 13270 net.cpp:434] scale_pool3 <- pool3_pool3_0_split_1
I0109 06:24:41.580065 13270 net.cpp:408] scale_pool3 -> scale_pool3
I0109 06:24:41.580189 13270 net.cpp:150] Setting up scale_pool3
I0109 06:24:41.580198 13270 net.cpp:157] Top shape: 1 256 67 88 (1509376)
I0109 06:24:41.580201 13270 net.cpp:165] Memory required for data: 904135296
I0109 06:24:41.580206 13270 layer_factory.hpp:77] Creating layer score_pool3
I0109 06:24:41.580219 13270 net.cpp:100] Creating Layer score_pool3
I0109 06:24:41.580222 13270 net.cpp:434] score_pool3 <- scale_pool3
I0109 06:24:41.580230 13270 net.cpp:408] score_pool3 -> score_pool3
I0109 06:24:41.581545 13270 net.cpp:150] Setting up score_pool3
I0109 06:24:41.581560 13270 net.cpp:157] Top shape: 1 6 67 88 (35376)
I0109 06:24:41.581565 13270 net.cpp:165] Memory required for data: 904276800
I0109 06:24:41.581573 13270 layer_factory.hpp:77] Creating layer score_pool3c
I0109 06:24:41.581583 13270 net.cpp:100] Creating Layer score_pool3c
I0109 06:24:41.581588 13270 net.cpp:434] score_pool3c <- score_pool3
I0109 06:24:41.581593 13270 net.cpp:434] score_pool3c <- upscore_pool4_upscore_pool4_0_split_0
I0109 06:24:41.581601 13270 net.cpp:408] score_pool3c -> score_pool3c
I0109 06:24:41.581646 13270 net.cpp:150] Setting up score_pool3c
I0109 06:24:41.581655 13270 net.cpp:157] Top shape: 1 6 50 70 (21000)
I0109 06:24:41.581660 13270 net.cpp:165] Memory required for data: 904360800
I0109 06:24:41.581665 13270 layer_factory.hpp:77] Creating layer fuse_pool3
I0109 06:24:41.581674 13270 net.cpp:100] Creating Layer fuse_pool3
I0109 06:24:41.581678 13270 net.cpp:434] fuse_pool3 <- upscore_pool4_upscore_pool4_0_split_1
I0109 06:24:41.581691 13270 net.cpp:434] fuse_pool3 <- score_pool3c
I0109 06:24:41.581698 13270 net.cpp:408] fuse_pool3 -> fuse_pool3
I0109 06:24:41.581734 13270 net.cpp:150] Setting up fuse_pool3
I0109 06:24:41.581742 13270 net.cpp:157] Top shape: 1 6 50 70 (21000)
I0109 06:24:41.581745 13270 net.cpp:165] Memory required for data: 904444800
I0109 06:24:41.581750 13270 layer_factory.hpp:77] Creating layer upscore8
I0109 06:24:41.581759 13270 net.cpp:100] Creating Layer upscore8
I0109 06:24:41.581763 13270 net.cpp:434] upscore8 <- fuse_pool3
I0109 06:24:41.581771 13270 net.cpp:408] upscore8 -> upscore8
I0109 06:24:41.582082 13270 net.cpp:150] Setting up upscore8
I0109 06:24:41.582092 13270 net.cpp:157] Top shape: 1 6 408 568 (1390464)
I0109 06:24:41.582095 13270 net.cpp:165] Memory required for data: 910006656
I0109 06:24:41.582101 13270 layer_factory.hpp:77] Creating layer score
I0109 06:24:41.582109 13270 net.cpp:100] Creating Layer score
I0109 06:24:41.582114 13270 net.cpp:434] score <- upscore8
I0109 06:24:41.582119 13270 net.cpp:434] score <- data_data_0_split_1
I0109 06:24:41.582126 13270 net.cpp:408] score -> score
I0109 06:24:41.582159 13270 net.cpp:150] Setting up score
I0109 06:24:41.582165 13270 net.cpp:157] Top shape: 1 6 335 500 (1005000)
I0109 06:24:41.582170 13270 net.cpp:165] Memory required for data: 914026656
I0109 06:24:41.582173 13270 layer_factory.hpp:77] Creating layer loss
I0109 06:24:41.582182 13270 net.cpp:100] Creating Layer loss
I0109 06:24:41.582187 13270 net.cpp:434] loss <- score
I0109 06:24:41.582192 13270 net.cpp:434] loss <- label
I0109 06:24:41.582198 13270 net.cpp:408] loss -> loss
I0109 06:24:41.582208 13270 layer_factory.hpp:77] Creating layer loss
…
