…
snapshot_prefix: "snapshot/train"
test_initialization: false
average_loss: 20
iter_size: 1
I1119 12:20:36.719231 24038 solver.cpp:81] Creating training net from train_net file: train.prototxt
I1119 12:20:36.720554 24038 net.cpp:58] Initializing net from parameters: 
state {
  phase: TRAIN
}
layer {
  name: "data"
  type: "Python"
  top: "data"
  top: "label"
  python_param {
    module: "voc_layers"
    layer: "ObfSBDDSegDataLayer"
    param_str: "{\'sbdd_dir\': \'../data/sbdd/dataset\', \'seed\': 1337, \'split\': \'train15\', \'mean\': (104.00699, 116.66877, 122.67892)}"
  }
}
layer {
  name: "conv1_1"
  type: "Convolution"
  bottom: "data"
  top: "conv1_1"
  param {
    lr_mult: 1
    decay_mult: 1
  }
  param {
    lr_mult: 2
    decay_mult: 0
  }
  convolution_param {
    num_output: 64
    pad: 100
    kernel_size: 3
    stride: 1
    weight_filler {
      type: "xavier"
    }
  }
}
layer {
  name: "relu1_1"
  type: "ReLU"
  bottom: "conv1_1"
  top: "conv1_1"
}
layer {
  name: "conv1_2"
  type: "Convolution"
  bottom: "conv1_1"
  top: "conv1_2"
  param {
    lr_mult: 1
    decay_mult: 1
  }
  param {
    lr_mult: 2
    decay_mult: 0
  }
  convolution_param {
    num_output: 64
    pad: 1
    kernel_size: 3
    stride: 1
    weight_filler {
      type: "xavier"
    }
  }
}
layer {
  name: "relu1_2"
  type: "ReLU"
  bottom: "conv1_2"
  top: "conv1_2"
}
layer {
  name: "pool1"
  type: "Pooling"
  bottom: "conv1_2"
  top: "pool1"
  pooling_param {
    pool: MAX
    kernel_size: 2
    stride: 2
  }
}
layer {
  name: "conv2_1"
  type: "Convolution"
  bottom: "pool1"
  top: "conv2_1"
  param {
    lr_mult: 1
    decay_mult: 1
  }
  param {
    lr_mult: 2
    decay_mult: 0
  }
  convolution_param {
    num_output: 128
    pad: 1
    kernel_size: 3
    stride: 1
    weight_filler {
      type: "xavier"
    }
  }
}
layer {
  name: "relu2_1"
  type: "ReLU"
  bottom: "conv2_1"
  top: "conv2_1"
}
layer {
  name: "conv2_2"
  type: "Convolution"
  bottom: "conv2_1"
  top: "conv2_2"
  param {
    lr_mult: 1
    decay_mult: 1
  }
  param {
    lr_mult: 2
    decay_mult: 0
  }
  convolution_param {
    num_output: 128
    pad: 1
    kernel_size: 3
    stride: 1
    weight_filler {
      type: "xavier"
    }
  }
}
layer {
  name: "relu2_2"
  type: "ReLU"
  bottom: "conv2_2"
  top: "conv2_2"
}
layer {
  name: "pool2"
  type: "Pooling"
  bottom: "conv2_2"
  top: "pool2"
  pooling_param {
    pool: MAX
    kernel_size: 2
    stride: 2
  }
}
layer {
  name: "conv3_1"
  type: "Convolution"
  bottom: "pool2"
  top: "conv3_1"
  param {
    lr_mult: 1
    decay_mult: 1
  }
  param {
    lr_mult: 2
    decay_mult: 0
  }
  convolution_param {
    num_output: 256
    pad: 1
    kernel_size: 3
    stride: 1
    weight_filler {
      type: "xavier"
    }
  }
}
layer {
  name: "relu3_1"
  type: "ReLU"
  bottom: "conv3_1"
  top: "conv3_1"
}
layer {
  name: "conv3_2"
  type: "Convolution"
  bottom: "conv3_1"
  top: "conv3_2"
  param {
    lr_mult: 1
    decay_mult: 1
  }
  param {
    lr_mult: 2
    decay_mult: 0
  }
  convolution_param {
    num_output: 256
    pad: 1
    kernel_size: 3
    stride: 1
    weight_filler {
      type: "xavier"
    }
  }
}
layer {
  name: "relu3_2"
  type: "ReLU"
  bottom: "conv3_2"
  top: "conv3_2"
}
layer {
  name: "conv3_3"
  type: "Convolution"
  bottom: "conv3_2"
  top: "conv3_3"
  param {
    lr_mult: 1
    decay_mult: 1
  }
  param {
    lr_mult: 2
    decay_mult: 0
  }
  convolution_param {
    num_output: 256
    pad: 1
    kernel_size: 3
    stride: 1
    weight_filler {
      type: "xavier"
    }
  }
}
layer {
  name: "relu3_3"
  type: "ReLU"
  bottom: "conv3_3"
  top: "conv3_3"
}
layer {
  name: "pool3"
  type: "Pooling"
  bottom: "conv3_3"
  top: "pool3"
  pooling_param {
    pool: MAX
    kernel_size: 2
    stride: 2
  }
}
layer {
  name: "conv4_1"
  type: "Convolution"
  bottom: "pool3"
  top: "conv4_1"
  param {
    lr_mult: 1
    decay_mult: 1
  }
  param {
    lr_mult: 2
    decay_mult: 0
  }
  convolution_param {
    num_output: 512
    pad: 1
    kernel_size: 3
    stride: 1
    weight_filler {
      type: "xavier"
    }
  }
}
layer {
  name: "relu4_1"
  type: "ReLU"
  bottom: "conv4_1"
  top: "conv4_1"
}
layer {
  name: "conv4_2"
  type: "Convolution"
  bottom: "conv4_1"
  top: "conv4_2"
  param {
    lr_mult: 1
    decay_mult: 1
  }
  param {
    lr_mult: 2
    decay_mult: 0
  }
  convolution_param {
    num_output: 512
    pad: 1
    kernel_size: 3
    stride: 1
    weight_filler {
      type: "xavier"
    }
  }
}
layer {
  name: "relu4_2"
  type: "ReLU"
  bottom: "conv4_2"
  top: "conv4_2"
}
layer {
  name: "conv4_3"
  type: "Convolution"
  bottom: "conv4_2"
  top: "conv4_3"
  param {
    lr_mult: 1
    decay_mult: 1
  }
  param {
    lr_mult: 2
    decay_mult: 0
  }
  convolution_param {
    num_output: 512
    pad: 1
    kernel_size: 3
    stride: 1
    weight_filler {
      type: "xavier"
    }
  }
}
layer {
  name: "relu4_3"
  type: "ReLU"
  bottom: "conv4_3"
  top: "conv4_3"
}
layer {
  name: "pool4"
  type: "Pooling"
  bottom: "conv4_3"
  top: "pool4"
  pooling_param {
    pool: MAX
    kernel_size: 2
    stride: 2
  }
}
layer {
  name: "conv5_1"
  type: "Convolution"
  bottom: "pool4"
  top: "conv5_1"
  param {
    lr_mult: 1
    decay_mult: 1
  }
  param {
    lr_mult: 2
    decay_mult: 0
  }
  convolution_param {
    num_output: 512
    pad: 1
    kernel_size: 3
    stride: 1
    weight_filler {
      type: "xavier"
    }
  }
}
layer {
  name: "relu5_1"
  type: "ReLU"
  bottom: "conv5_1"
  top: "conv5_1"
}
layer {
  name: "conv5_2"
  type: "Convolution"
  bottom: "conv5_1"
  top: "conv5_2"
  param {
    lr_mult: 1
    decay_mult: 1
  }
  param {
    lr_mult: 2
    decay_mult: 0
  }
  convolution_param {
    num_output: 512
    pad: 1
    kernel_size: 3
    stride: 1
    weight_filler {
      type: "xavier"
    }
  }
}
layer {
  name: "relu5_2"
  type: "ReLU"
  bottom: "conv5_2"
  top: "conv5_2"
}
layer {
  name: "conv5_3"
  type: "Convolution"
  bottom: "conv5_2"
  top: "conv5_3"
  param {
    lr_mult: 1
    decay_mult: 1
  }
  param {
    lr_mult: 2
    decay_mult: 0
  }
  convolution_param {
    num_output: 512
    pad: 1
    kernel_size: 3
    stride: 1
    weight_filler {
      type: "xavier"
    }
  }
}
layer {
  name: "relu5_3"
  type: "ReLU"
  bottom: "conv5_3"
  top: "conv5_3"
}
layer {
  name: "pool5"
  type: "Pooling"
  bottom: "conv5_3"
  top: "pool5"
  pooling_param {
    pool: MAX
    kernel_size: 2
    stride: 2
  }
}
layer {
  name: "fc6"
  type: "Convolution"
  bottom: "pool5"
  top: "fc6"
  param {
    lr_mult: 1
    decay_mult: 1
  }
  param {
    lr_mult: 2
    decay_mult: 0
  }
  convolution_param {
    num_output: 4096
    pad: 0
    kernel_size: 7
    stride: 1
    weight_filler {
      type: "xavier"
    }
  }
}
layer {
  name: "relu6"
  type: "ReLU"
  bottom: "fc6"
  top: "fc6"
}
layer {
  name: "drop6"
  type: "Dropout"
  bottom: "fc6"
  top: "fc6"
  dropout_param {
    dropout_ratio: 0.5
  }
}
layer {
  name: "fc7"
  type: "Convolution"
  bottom: "fc6"
  top: "fc7"
  param {
    lr_mult: 1
    decay_mult: 1
  }
  param {
    lr_mult: 2
    decay_mult: 0
  }
  convolution_param {
    num_output: 4096
    pad: 0
    kernel_size: 1
    stride: 1
    weight_filler {
      type: "xavier"
    }
  }
}
layer {
  name: "relu7"
  type: "ReLU"
  bottom: "fc7"
  top: "fc7"
}
layer {
  name: "drop7"
  type: "Dropout"
  bottom: "fc7"
  top: "fc7"
  dropout_param {
    dropout_ratio: 0.5
  }
}
layer {
  name: "score_fr"
  type: "Convolution"
  bottom: "fc7"
  top: "score_fr"
  param {
    lr_mult: 1
    decay_mult: 1
  }
  param {
    lr_mult: 2
    decay_mult: 0
  }
  convolution_param {
    num_output: 2
    pad: 0
    kernel_size: 1
    weight_filler {
      type: "xavier"
    }
  }
}
layer {
  name: "upscore2"
  type: "Deconvolution"
  bottom: "score_fr"
  top: "upscore2"
  param {
    lr_mult: 0
  }
  convolution_param {
    num_output: 2
    bias_term: false
    kernel_size: 4
    stride: 2
    weight_filler {
      type: "xavier"
    }
  }
}
layer {
  name: "scale_pool4"
  type: "Scale"
  bottom: "pool4"
  top: "scale_pool4"
  param {
    lr_mult: 0
  }
  scale_param {
    filler {
      type: "constant"
      value: 0.01
    }
  }
}
layer {
  name: "score_pool4"
  type: "Convolution"
  bottom: "scale_pool4"
  top: "score_pool4"
  param {
    lr_mult: 1
    decay_mult: 1
  }
  param {
    lr_mult: 2
    decay_mult: 0
  }
  convolution_param {
    num_output: 2
    pad: 0
    kernel_size: 1
    weight_filler {
      type: "xavier"
    }
  }
}
layer {
  name: "score_pool4c"
  type: "Crop"
  bottom: "score_pool4"
  bottom: "upscore2"
  top: "score_pool4c"
  crop_param {
    axis: 2
    offset: 5
  }
}
layer {
  name: "fuse_pool4"
  type: "Eltwise"
  bottom: "upscore2"
  bottom: "score_pool4c"
  top: "fuse_pool4"
  eltwise_param {
    operation: SUM
  }
}
layer {
  name: "upscore_pool4"
  type: "Deconvolution"
  bottom: "fuse_pool4"
  top: "upscore_pool4"
  param {
    lr_mult: 0
  }
  convolution_param {
    num_output: 2
    bias_term: false
    kernel_size: 4
    stride: 2
    weight_filler {
      type: "xavier"
    }
  }
}
layer {
  name: "scale_pool3"
  type: "Scale"
  bottom: "pool3"
  top: "scale_pool3"
  param {
    lr_mult: 0
  }
  scale_param {
    filler {
      type: "constant"
      value: 0.0001
    }
  }
}
layer {
  name: "score_pool3"
  type: "Convolution"
  bottom: "scale_pool3"
  top: "score_pool3"
  param {
    lr_mult: 1
    decay_mult: 1
  }
  param {
    lr_mult: 2
    decay_mult: 0
  }
  convolution_param {
    num_output: 2
    pad: 0
    kernel_size: 1
    weight_filler {
      type: "xavier"
    }
  }
}
layer {
  name: "score_pool3c"
  type: "Crop"
  bottom: "score_pool3"
  bottom: "upscore_pool4"
  top: "score_pool3c"
  crop_param {
    axis: 2
    offset: 9
  }
}
layer {
  name: "fuse_pool3"
  type: "Eltwise"
  bottom: "upscore_pool4"
  bottom: "score_pool3c"
  top: "fuse_pool3"
  eltwise_param {
    operation: SUM
  }
}
layer {
  name: "upscore8"
  type: "Deconvolution"
  bottom: "fuse_pool3"
  top: "upscore8"
  param {
    lr_mult: 0
  }
  convolution_param {
    num_output: 2
    bias_term: false
    kernel_size: 16
    stride: 8
    weight_filler {
      type: "xavier"
    }
  }
}
layer {
  name: "score"
  type: "Crop"
  bottom: "upscore8"
  bottom: "data"
  top: "score"
  crop_param {
    axis: 2
    offset: 31
  }
}
layer {
  name: "loss"
  type: "SoftmaxWithLoss"
  bottom: "score"
  bottom: "label"
  top: "loss"
  loss_param {
    ignore_label: 255
    normalize: false
  }
}
I1119 12:20:36.720806 24038 layer_factory.hpp:77] Creating layer data
I1119 12:20:36.721156 24038 net.cpp:100] Creating Layer data
I1119 12:20:36.721171 24038 net.cpp:408] data -> data
I1119 12:20:36.721189 24038 net.cpp:408] data -> label
I1119 12:20:36.755667 24038 net.cpp:150] Setting up data
I1119 12:20:36.755700 24038 net.cpp:157] Top shape: 1 3 500 333 (499500)
I1119 12:20:36.755707 24038 net.cpp:157] Top shape: 1 1 500 333 (166500)
I1119 12:20:36.755712 24038 net.cpp:165] Memory required for data: 2664000
I1119 12:20:36.755720 24038 layer_factory.hpp:77] Creating layer data_data_0_split
I1119 12:20:36.755735 24038 net.cpp:100] Creating Layer data_data_0_split
I1119 12:20:36.755740 24038 net.cpp:434] data_data_0_split <- data
I1119 12:20:36.755753 24038 net.cpp:408] data_data_0_split -> data_data_0_split_0
I1119 12:20:36.755764 24038 net.cpp:408] data_data_0_split -> data_data_0_split_1
I1119 12:20:36.755802 24038 net.cpp:150] Setting up data_data_0_split
I1119 12:20:36.755810 24038 net.cpp:157] Top shape: 1 3 500 333 (499500)
I1119 12:20:36.755815 24038 net.cpp:157] Top shape: 1 3 500 333 (499500)
I1119 12:20:36.755818 24038 net.cpp:165] Memory required for data: 6660000
I1119 12:20:36.755823 24038 layer_factory.hpp:77] Creating layer conv1_1
I1119 12:20:36.755843 24038 net.cpp:100] Creating Layer conv1_1
I1119 12:20:36.755848 24038 net.cpp:434] conv1_1 <- data_data_0_split_0
I1119 12:20:36.755864 24038 net.cpp:408] conv1_1 -> conv1_1
I1119 12:20:36.950337 24038 net.cpp:150] Setting up conv1_1
I1119 12:20:36.950392 24038 net.cpp:157] Top shape: 1 64 698 531 (23720832)
I1119 12:20:36.950397 24038 net.cpp:165] Memory required for data: 101543328
I1119 12:20:36.950428 24038 layer_factory.hpp:77] Creating layer relu1_1
I1119 12:20:36.950464 24038 net.cpp:100] Creating Layer relu1_1
I1119 12:20:36.950474 24038 net.cpp:434] relu1_1 <- conv1_1
I1119 12:20:36.950484 24038 net.cpp:395] relu1_1 -> conv1_1 (in-place)
I1119 12:20:36.950872 24038 net.cpp:150] Setting up relu1_1
I1119 12:20:36.950886 24038 net.cpp:157] Top shape: 1 64 698 531 (23720832)
I1119 12:20:36.950891 24038 net.cpp:165] Memory required for data: 196426656
I1119 12:20:36.950911 24038 layer_factory.hpp:77] Creating layer conv1_2
I1119 12:20:36.950958 24038 net.cpp:100] Creating Layer conv1_2
I1119 12:20:36.950964 24038 net.cpp:434] conv1_2 <- conv1_1
I1119 12:20:36.950971 24038 net.cpp:408] conv1_2 -> conv1_2
I1119 12:20:36.953681 24038 net.cpp:150] Setting up conv1_2
I1119 12:20:36.953697 24038 net.cpp:157] Top shape: 1 64 698 531 (23720832)
I1119 12:20:36.953702 24038 net.cpp:165] Memory required for data: 291309984
I1119 12:20:36.953716 24038 layer_factory.hpp:77] Creating layer relu1_2
I1119 12:20:36.953732 24038 net.cpp:100] Creating Layer relu1_2
I1119 12:20:36.953737 24038 net.cpp:434] relu1_2 <- conv1_2
I1119 12:20:36.953743 24038 net.cpp:395] relu1_2 -> conv1_2 (in-place)
I1119 12:20:36.954110 24038 net.cpp:150] Setting up relu1_2
I1119 12:20:36.954124 24038 net.cpp:157] Top shape: 1 64 698 531 (23720832)
I1119 12:20:36.954128 24038 net.cpp:165] Memory required for data: 386193312
I1119 12:20:36.954133 24038 layer_factory.hpp:77] Creating layer pool1
I1119 12:20:36.954152 24038 net.cpp:100] Creating Layer pool1
I1119 12:20:36.954157 24038 net.cpp:434] pool1 <- conv1_2
I1119 12:20:36.954164 24038 net.cpp:408] pool1 -> pool1
I1119 12:20:36.954217 24038 net.cpp:150] Setting up pool1
I1119 12:20:36.954226 24038 net.cpp:157] Top shape: 1 64 349 266 (5941376)
I1119 12:20:36.954229 24038 net.cpp:165] Memory required for data: 409958816
I1119 12:20:36.954233 24038 layer_factory.hpp:77] Creating layer conv2_1
I1119 12:20:36.954253 24038 net.cpp:100] Creating Layer conv2_1
I1119 12:20:36.954258 24038 net.cpp:434] conv2_1 <- pool1
I1119 12:20:36.954264 24038 net.cpp:408] conv2_1 -> conv2_1
I1119 12:20:36.956568 24038 net.cpp:150] Setting up conv2_1
I1119 12:20:36.956583 24038 net.cpp:157] Top shape: 1 128 349 266 (11882752)
I1119 12:20:36.956588 24038 net.cpp:165] Memory required for data: 457489824
I1119 12:20:36.956609 24038 layer_factory.hpp:77] Creating layer relu2_1
I1119 12:20:36.956622 24038 net.cpp:100] Creating Layer relu2_1
I1119 12:20:36.956627 24038 net.cpp:434] relu2_1 <- conv2_1
I1119 12:20:36.956634 24038 net.cpp:395] relu2_1 -> conv2_1 (in-place)
I1119 12:20:36.956832 24038 net.cpp:150] Setting up relu2_1
I1119 12:20:36.956843 24038 net.cpp:157] Top shape: 1 128 349 266 (11882752)
I1119 12:20:36.956847 24038 net.cpp:165] Memory required for data: 505020832
I1119 12:20:36.956851 24038 layer_factory.hpp:77] Creating layer conv2_2
I1119 12:20:36.956872 24038 net.cpp:100] Creating Layer conv2_2
I1119 12:20:36.956877 24038 net.cpp:434] conv2_2 <- conv2_1
I1119 12:20:36.956884 24038 net.cpp:408] conv2_2 -> conv2_2
I1119 12:20:36.959395 24038 net.cpp:150] Setting up conv2_2
I1119 12:20:36.959411 24038 net.cpp:157] Top shape: 1 128 349 266 (11882752)
I1119 12:20:36.959415 24038 net.cpp:165] Memory required for data: 552551840
I1119 12:20:36.959424 24038 layer_factory.hpp:77] Creating layer relu2_2
I1119 12:20:36.959439 24038 net.cpp:100] Creating Layer relu2_2
I1119 12:20:36.959444 24038 net.cpp:434] relu2_2 <- conv2_2
I1119 12:20:36.959452 24038 net.cpp:395] relu2_2 -> conv2_2 (in-place)
I1119 12:20:36.959825 24038 net.cpp:150] Setting up relu2_2
I1119 12:20:36.959838 24038 net.cpp:157] Top shape: 1 128 349 266 (11882752)
I1119 12:20:36.959843 24038 net.cpp:165] Memory required for data: 600082848
I1119 12:20:36.959856 24038 layer_factory.hpp:77] Creating layer pool2
I1119 12:20:36.959869 24038 net.cpp:100] Creating Layer pool2
I1119 12:20:36.959875 24038 net.cpp:434] pool2 <- conv2_2
I1119 12:20:36.959882 24038 net.cpp:408] pool2 -> pool2
I1119 12:20:36.959936 24038 net.cpp:150] Setting up pool2
I1119 12:20:36.959944 24038 net.cpp:157] Top shape: 1 128 175 133 (2979200)
I1119 12:20:36.959949 24038 net.cpp:165] Memory required for data: 611999648
I1119 12:20:36.959957 24038 layer_factory.hpp:77] Creating layer conv3_1
I1119 12:20:36.959970 24038 net.cpp:100] Creating Layer conv3_1
I1119 12:20:36.959975 24038 net.cpp:434] conv3_1 <- pool2
I1119 12:20:36.959981 24038 net.cpp:408] conv3_1 -> conv3_1
I1119 12:20:36.963037 24038 net.cpp:150] Setting up conv3_1
I1119 12:20:36.963050 24038 net.cpp:157] Top shape: 1 256 175 133 (5958400)
I1119 12:20:36.963055 24038 net.cpp:165] Memory required for data: 635833248
I1119 12:20:36.963066 24038 layer_factory.hpp:77] Creating layer relu3_1
I1119 12:20:36.963075 24038 net.cpp:100] Creating Layer relu3_1
I1119 12:20:36.963080 24038 net.cpp:434] relu3_1 <- conv3_1
I1119 12:20:36.963086 24038 net.cpp:395] relu3_1 -> conv3_1 (in-place)
I1119 12:20:36.963474 24038 net.cpp:150] Setting up relu3_1
I1119 12:20:36.963487 24038 net.cpp:157] Top shape: 1 256 175 133 (5958400)
I1119 12:20:36.963491 24038 net.cpp:165] Memory required for data: 659666848
I1119 12:20:36.963495 24038 layer_factory.hpp:77] Creating layer conv3_2
I1119 12:20:36.963508 24038 net.cpp:100] Creating Layer conv3_2
I1119 12:20:36.963512 24038 net.cpp:434] conv3_2 <- conv3_1
I1119 12:20:36.963521 24038 net.cpp:408] conv3_2 -> conv3_2
I1119 12:20:36.968675 24038 net.cpp:150] Setting up conv3_2
I1119 12:20:36.968693 24038 net.cpp:157] Top shape: 1 256 175 133 (5958400)
I1119 12:20:36.968698 24038 net.cpp:165] Memory required for data: 683500448
I1119 12:20:36.968704 24038 layer_factory.hpp:77] Creating layer relu3_2
I1119 12:20:36.968719 24038 net.cpp:100] Creating Layer relu3_2
I1119 12:20:36.968724 24038 net.cpp:434] relu3_2 <- conv3_2
I1119 12:20:36.968730 24038 net.cpp:395] relu3_2 -> conv3_2 (in-place)
I1119 12:20:36.968924 24038 net.cpp:150] Setting up relu3_2
I1119 12:20:36.968933 24038 net.cpp:157] Top shape: 1 256 175 133 (5958400)
I1119 12:20:36.968937 24038 net.cpp:165] Memory required for data: 707334048
I1119 12:20:36.968942 24038 layer_factory.hpp:77] Creating layer conv3_3
I1119 12:20:36.968961 24038 net.cpp:100] Creating Layer conv3_3
I1119 12:20:36.968966 24038 net.cpp:434] conv3_3 <- conv3_2
I1119 12:20:36.968974 24038 net.cpp:408] conv3_3 -> conv3_3
I1119 12:20:36.974136 24038 net.cpp:150] Setting up conv3_3
I1119 12:20:36.974153 24038 net.cpp:157] Top shape: 1 256 175 133 (5958400)
I1119 12:20:36.974156 24038 net.cpp:165] Memory required for data: 731167648
I1119 12:20:36.974164 24038 layer_factory.hpp:77] Creating layer relu3_3
I1119 12:20:36.974171 24038 net.cpp:100] Creating Layer relu3_3
I1119 12:20:36.974176 24038 net.cpp:434] relu3_3 <- conv3_3
I1119 12:20:36.974184 24038 net.cpp:395] relu3_3 -> conv3_3 (in-place)
I1119 12:20:36.974547 24038 net.cpp:150] Setting up relu3_3
I1119 12:20:36.974560 24038 net.cpp:157] Top shape: 1 256 175 133 (5958400)
I1119 12:20:36.974565 24038 net.cpp:165] Memory required for data: 755001248
I1119 12:20:36.974570 24038 layer_factory.hpp:77] Creating layer pool3
I1119 12:20:36.974588 24038 net.cpp:100] Creating Layer pool3
I1119 12:20:36.974593 24038 net.cpp:434] pool3 <- conv3_3
I1119 12:20:36.974601 24038 net.cpp:408] pool3 -> pool3
I1119 12:20:36.974649 24038 net.cpp:150] Setting up pool3
I1119 12:20:36.974658 24038 net.cpp:157] Top shape: 1 256 88 67 (1509376)
I1119 12:20:36.974661 24038 net.cpp:165] Memory required for data: 761038752
I1119 12:20:36.974670 24038 layer_factory.hpp:77] Creating layer pool3_pool3_0_split
I1119 12:20:36.974678 24038 net.cpp:100] Creating Layer pool3_pool3_0_split
I1119 12:20:36.974683 24038 net.cpp:434] pool3_pool3_0_split <- pool3
I1119 12:20:36.974689 24038 net.cpp:408] pool3_pool3_0_split -> pool3_pool3_0_split_0
I1119 12:20:36.974694 24038 net.cpp:408] pool3_pool3_0_split -> pool3_pool3_0_split_1
I1119 12:20:36.974740 24038 net.cpp:150] Setting up pool3_pool3_0_split
I1119 12:20:36.974748 24038 net.cpp:157] Top shape: 1 256 88 67 (1509376)
I1119 12:20:36.974753 24038 net.cpp:157] Top shape: 1 256 88 67 (1509376)
I1119 12:20:36.974757 24038 net.cpp:165] Memory required for data: 773113760
I1119 12:20:36.974761 24038 layer_factory.hpp:77] Creating layer conv4_1
I1119 12:20:36.974781 24038 net.cpp:100] Creating Layer conv4_1
I1119 12:20:36.974786 24038 net.cpp:434] conv4_1 <- pool3_pool3_0_split_0
I1119 12:20:36.974793 24038 net.cpp:408] conv4_1 -> conv4_1
I1119 12:20:36.985146 24038 net.cpp:150] Setting up conv4_1
I1119 12:20:36.985167 24038 net.cpp:157] Top shape: 1 512 88 67 (3018752)
I1119 12:20:36.985172 24038 net.cpp:165] Memory required for data: 785188768
I1119 12:20:36.985182 24038 layer_factory.hpp:77] Creating layer relu4_1
I1119 12:20:36.985191 24038 net.cpp:100] Creating Layer relu4_1
I1119 12:20:36.985196 24038 net.cpp:434] relu4_1 <- conv4_1
I1119 12:20:36.985203 24038 net.cpp:395] relu4_1 -> conv4_1 (in-place)
I1119 12:20:36.985580 24038 net.cpp:150] Setting up relu4_1
I1119 12:20:36.985594 24038 net.cpp:157] Top shape: 1 512 88 67 (3018752)
I1119 12:20:36.985597 24038 net.cpp:165] Memory required for data: 797263776
I1119 12:20:36.985602 24038 layer_factory.hpp:77] Creating layer conv4_2
I1119 12:20:36.985613 24038 net.cpp:100] Creating Layer conv4_2
I1119 12:20:36.985618 24038 net.cpp:434] conv4_2 <- conv4_1
I1119 12:20:36.985627 24038 net.cpp:408] conv4_2 -> conv4_2
I1119 12:20:37.002320 24038 net.cpp:150] Setting up conv4_2
I1119 12:20:37.002341 24038 net.cpp:157] Top shape: 1 512 88 67 (3018752)
I1119 12:20:37.002346 24038 net.cpp:165] Memory required for data: 809338784
I1119 12:20:37.002362 24038 layer_factory.hpp:77] Creating layer relu4_2
I1119 12:20:37.002374 24038 net.cpp:100] Creating Layer relu4_2
I1119 12:20:37.002379 24038 net.cpp:434] relu4_2 <- conv4_2
I1119 12:20:37.002387 24038 net.cpp:395] relu4_2 -> conv4_2 (in-place)
I1119 12:20:37.002575 24038 net.cpp:150] Setting up relu4_2
I1119 12:20:37.002584 24038 net.cpp:157] Top shape: 1 512 88 67 (3018752)
I1119 12:20:37.002589 24038 net.cpp:165] Memory required for data: 821413792
I1119 12:20:37.002602 24038 layer_factory.hpp:77] Creating layer conv4_3
I1119 12:20:37.002620 24038 net.cpp:100] Creating Layer conv4_3
I1119 12:20:37.002625 24038 net.cpp:434] conv4_3 <- conv4_2
I1119 12:20:37.002635 24038 net.cpp:408] conv4_3 -> conv4_3
I1119 12:20:37.020359 24038 net.cpp:150] Setting up conv4_3
I1119 12:20:37.020386 24038 net.cpp:157] Top shape: 1 512 88 67 (3018752)
I1119 12:20:37.020390 24038 net.cpp:165] Memory required for data: 833488800
I1119 12:20:37.020401 24038 layer_factory.hpp:77] Creating layer relu4_3
I1119 12:20:37.020411 24038 net.cpp:100] Creating Layer relu4_3
I1119 12:20:37.020417 24038 net.cpp:434] relu4_3 <- conv4_3
I1119 12:20:37.020424 24038 net.cpp:395] relu4_3 -> conv4_3 (in-place)
I1119 12:20:37.020797 24038 net.cpp:150] Setting up relu4_3
I1119 12:20:37.020812 24038 net.cpp:157] Top shape: 1 512 88 67 (3018752)
I1119 12:20:37.020815 24038 net.cpp:165] Memory required for data: 845563808
I1119 12:20:37.020820 24038 layer_factory.hpp:77] Creating layer pool4
I1119 12:20:37.020829 24038 net.cpp:100] Creating Layer pool4
I1119 12:20:37.020833 24038 net.cpp:434] pool4 <- conv4_3
I1119 12:20:37.020840 24038 net.cpp:408] pool4 -> pool4
I1119 12:20:37.020892 24038 net.cpp:150] Setting up pool4
I1119 12:20:37.020900 24038 net.cpp:157] Top shape: 1 512 44 34 (765952)
I1119 12:20:37.020903 24038 net.cpp:165] Memory required for data: 848627616
I1119 12:20:37.020907 24038 layer_factory.hpp:77] Creating layer pool4_pool4_0_split
I1119 12:20:37.020915 24038 net.cpp:100] Creating Layer pool4_pool4_0_split
I1119 12:20:37.020920 24038 net.cpp:434] pool4_pool4_0_split <- pool4
I1119 12:20:37.020926 24038 net.cpp:408] pool4_pool4_0_split -> pool4_pool4_0_split_0
I1119 12:20:37.020933 24038 net.cpp:408] pool4_pool4_0_split -> pool4_pool4_0_split_1
I1119 12:20:37.020969 24038 net.cpp:150] Setting up pool4_pool4_0_split
I1119 12:20:37.020984 24038 net.cpp:157] Top shape: 1 512 44 34 (765952)
I1119 12:20:37.020989 24038 net.cpp:157] Top shape: 1 512 44 34 (765952)
I1119 12:20:37.020993 24038 net.cpp:165] Memory required for data: 854755232
I1119 12:20:37.021008 24038 layer_factory.hpp:77] Creating layer conv5_1
I1119 12:20:37.021021 24038 net.cpp:100] Creating Layer conv5_1
I1119 12:20:37.021026 24038 net.cpp:434] conv5_1 <- pool4_pool4_0_split_0
I1119 12:20:37.021034 24038 net.cpp:408] conv5_1 -> conv5_1
I1119 12:20:37.037565 24038 net.cpp:150] Setting up conv5_1
I1119 12:20:37.037587 24038 net.cpp:157] Top shape: 1 512 44 34 (765952)
I1119 12:20:37.037592 24038 net.cpp:165] Memory required for data: 857819040
I1119 12:20:37.037601 24038 layer_factory.hpp:77] Creating layer relu5_1
I1119 12:20:37.037612 24038 net.cpp:100] Creating Layer relu5_1
I1119 12:20:37.037618 24038 net.cpp:434] relu5_1 <- conv5_1
I1119 12:20:37.037626 24038 net.cpp:395] relu5_1 -> conv5_1 (in-place)
I1119 12:20:37.038002 24038 net.cpp:150] Setting up relu5_1
I1119 12:20:37.038014 24038 net.cpp:157] Top shape: 1 512 44 34 (765952)
I1119 12:20:37.038018 24038 net.cpp:165] Memory required for data: 860882848
I1119 12:20:37.038023 24038 layer_factory.hpp:77] Creating layer conv5_2
I1119 12:20:37.038036 24038 net.cpp:100] Creating Layer conv5_2
I1119 12:20:37.038041 24038 net.cpp:434] conv5_2 <- conv5_1
I1119 12:20:37.038050 24038 net.cpp:408] conv5_2 -> conv5_2
I1119 12:20:37.055605 24038 net.cpp:150] Setting up conv5_2
I1119 12:20:37.055635 24038 net.cpp:157] Top shape: 1 512 44 34 (765952)
I1119 12:20:37.055640 24038 net.cpp:165] Memory required for data: 863946656
I1119 12:20:37.055650 24038 layer_factory.hpp:77] Creating layer relu5_2
I1119 12:20:37.105454 24038 net.cpp:100] Creating Layer relu5_2
I1119 12:20:37.105463 24038 net.cpp:434] relu5_2 <- conv5_2
I1119 12:20:37.105470 24038 net.cpp:395] relu5_2 -> conv5_2 (in-place)
I1119 12:20:37.105669 24038 net.cpp:150] Setting up relu5_2
I1119 12:20:37.105679 24038 net.cpp:157] Top shape: 1 512 44 34 (765952)
I1119 12:20:37.105684 24038 net.cpp:165] Memory required for data: 867010464
I1119 12:20:37.105689 24038 layer_factory.hpp:77] Creating layer conv5_3
I1119 12:20:37.105710 24038 net.cpp:100] Creating Layer conv5_3
I1119 12:20:37.105715 24038 net.cpp:434] conv5_3 <- conv5_2
I1119 12:20:37.105722 24038 net.cpp:408] conv5_3 -> conv5_3
I1119 12:20:37.122411 24038 net.cpp:150] Setting up conv5_3
I1119 12:20:37.122432 24038 net.cpp:157] Top shape: 1 512 44 34 (765952)
I1119 12:20:37.122437 24038 net.cpp:165] Memory required for data: 870074272
I1119 12:20:37.122447 24038 layer_factory.hpp:77] Creating layer relu5_3
I1119 12:20:37.122457 24038 net.cpp:100] Creating Layer relu5_3
I1119 12:20:37.122462 24038 net.cpp:434] relu5_3 <- conv5_3
I1119 12:20:37.122470 24038 net.cpp:395] relu5_3 -> conv5_3 (in-place)
I1119 12:20:37.123030 24038 net.cpp:150] Setting up relu5_3
I1119 12:20:37.123044 24038 net.cpp:157] Top shape: 1 512 44 34 (765952)
I1119 12:20:37.123049 24038 net.cpp:165] Memory required for data: 873138080
I1119 12:20:37.123052 24038 layer_factory.hpp:77] Creating layer pool5
I1119 12:20:37.123062 24038 net.cpp:100] Creating Layer pool5
I1119 12:20:37.123067 24038 net.cpp:434] pool5 <- conv5_3
I1119 12:20:37.123075 24038 net.cpp:408] pool5 -> pool5
I1119 12:20:37.123128 24038 net.cpp:150] Setting up pool5
I1119 12:20:37.123137 24038 net.cpp:157] Top shape: 1 512 22 17 (191488)
I1119 12:20:37.123142 24038 net.cpp:165] Memory required for data: 873904032
I1119 12:20:37.123145 24038 layer_factory.hpp:77] Creating layer fc6
I1119 12:20:37.123167 24038 net.cpp:100] Creating Layer fc6
I1119 12:20:37.123172 24038 net.cpp:434] fc6 <- pool5
I1119 12:20:37.123185 24038 net.cpp:408] fc6 -> fc6
I1119 12:20:37.855072 24038 net.cpp:150] Setting up fc6
I1119 12:20:37.855146 24038 net.cpp:157] Top shape: 1 4096 16 11 (720896)
I1119 12:20:37.855152 24038 net.cpp:165] Memory required for data: 876787616
I1119 12:20:37.855175 24038 layer_factory.hpp:77] Creating layer relu6
I1119 12:20:37.855237 24038 net.cpp:100] Creating Layer relu6
I1119 12:20:37.855260 24038 net.cpp:434] relu6 <- fc6
I1119 12:20:37.855276 24038 net.cpp:395] relu6 -> fc6 (in-place)
I1119 12:20:37.855672 24038 net.cpp:150] Setting up relu6
I1119 12:20:37.855685 24038 net.cpp:157] Top shape: 1 4096 16 11 (720896)
I1119 12:20:37.855690 24038 net.cpp:165] Memory required for data: 879671200
I1119 12:20:37.855695 24038 layer_factory.hpp:77] Creating layer drop6
I1119 12:20:37.855710 24038 net.cpp:100] Creating Layer drop6
I1119 12:20:37.855715 24038 net.cpp:434] drop6 <- fc6
I1119 12:20:37.855720 24038 net.cpp:395] drop6 -> fc6 (in-place)
I1119 12:20:37.855796 24038 net.cpp:150] Setting up drop6
I1119 12:20:37.855805 24038 net.cpp:157] Top shape: 1 4096 16 11 (720896)
I1119 12:20:37.855808 24038 net.cpp:165] Memory required for data: 882554784
I1119 12:20:37.855813 24038 layer_factory.hpp:77] Creating layer fc7
I1119 12:20:37.855834 24038 net.cpp:100] Creating Layer fc7
I1119 12:20:37.855840 24038 net.cpp:434] fc7 <- fc6
I1119 12:20:37.855849 24038 net.cpp:408] fc7 -> fc7
I1119 12:20:37.974697 24038 net.cpp:150] Setting up fc7
I1119 12:20:37.974737 24038 net.cpp:157] Top shape: 1 4096 16 11 (720896)
I1119 12:20:37.974742 24038 net.cpp:165] Memory required for data: 885438368
I1119 12:20:37.974767 24038 layer_factory.hpp:77] Creating layer relu7
I1119 12:20:37.974781 24038 net.cpp:100] Creating Layer relu7
I1119 12:20:37.974787 24038 net.cpp:434] relu7 <- fc7
I1119 12:20:37.974795 24038 net.cpp:395] relu7 -> fc7 (in-place)
I1119 12:20:37.975008 24038 net.cpp:150] Setting up relu7
I1119 12:20:37.975018 24038 net.cpp:157] Top shape: 1 4096 16 11 (720896)
I1119 12:20:37.975023 24038 net.cpp:165] Memory required for data: 888321952
I1119 12:20:37.975028 24038 layer_factory.hpp:77] Creating layer drop7
I1119 12:20:37.975036 24038 net.cpp:100] Creating Layer drop7
I1119 12:20:37.975040 24038 net.cpp:434] drop7 <- fc7
I1119 12:20:37.975050 24038 net.cpp:395] drop7 -> fc7 (in-place)
I1119 12:20:37.975085 24038 net.cpp:150] Setting up drop7
I1119 12:20:37.975093 24038 net.cpp:157] Top shape: 1 4096 16 11 (720896)
I1119 12:20:37.975097 24038 net.cpp:165] Memory required for data: 891205536
I1119 12:20:37.975101 24038 layer_factory.hpp:77] Creating layer score_fr
I1119 12:20:37.975111 24038 net.cpp:100] Creating Layer score_fr
I1119 12:20:37.975116 24038 net.cpp:434] score_fr <- fc7
I1119 12:20:37.975131 24038 net.cpp:408] score_fr -> score_fr
I1119 12:20:37.976441 24038 net.cpp:150] Setting up score_fr
I1119 12:20:37.976456 24038 net.cpp:157] Top shape: 1 2 16 11 (352)
I1119 12:20:37.976461 24038 net.cpp:165] Memory required for data: 891206944
I1119 12:20:37.976469 24038 layer_factory.hpp:77] Creating layer upscore2
I1119 12:20:37.976495 24038 net.cpp:100] Creating Layer upscore2
I1119 12:20:37.976500 24038 net.cpp:434] upscore2 <- score_fr
I1119 12:20:37.976507 24038 net.cpp:408] upscore2 -> upscore2
I1119 12:20:37.976725 24038 net.cpp:150] Setting up upscore2
I1119 12:20:37.976734 24038 net.cpp:157] Top shape: 1 2 34 24 (1632)
I1119 12:20:37.976738 24038 net.cpp:165] Memory required for data: 891213472
I1119 12:20:37.976761 24038 layer_factory.hpp:77] Creating layer upscore2_upscore2_0_split
I1119 12:20:37.976769 24038 net.cpp:100] Creating Layer upscore2_upscore2_0_split
I1119 12:20:37.976774 24038 net.cpp:434] upscore2_upscore2_0_split <- upscore2
I1119 12:20:37.976780 24038 net.cpp:408] upscore2_upscore2_0_split -> upscore2_upscore2_0_split_0
I1119 12:20:37.976788 24038 net.cpp:408] upscore2_upscore2_0_split -> upscore2_upscore2_0_split_1
I1119 12:20:37.976829 24038 net.cpp:150] Setting up upscore2_upscore2_0_split
I1119 12:20:37.976835 24038 net.cpp:157] Top shape: 1 2 34 24 (1632)
I1119 12:20:37.976840 24038 net.cpp:157] Top shape: 1 2 34 24 (1632)
I1119 12:20:37.976845 24038 net.cpp:165] Memory required for data: 891226528
I1119 12:20:37.976848 24038 layer_factory.hpp:77] Creating layer scale_pool4
I1119 12:20:37.976862 24038 net.cpp:100] Creating Layer scale_pool4
I1119 12:20:37.976867 24038 net.cpp:434] scale_pool4 <- pool4_pool4_0_split_1
I1119 12:20:37.976881 24038 net.cpp:408] scale_pool4 -> scale_pool4
I1119 12:20:37.977008 24038 net.cpp:150] Setting up scale_pool4
I1119 12:20:37.977020 24038 net.cpp:157] Top shape: 1 512 44 34 (765952)
I1119 12:20:37.977023 24038 net.cpp:165] Memory required for data: 894290336
I1119 12:20:37.977030 24038 layer_factory.hpp:77] Creating layer score_pool4
I1119 12:20:37.977039 24038 net.cpp:100] Creating Layer score_pool4
I1119 12:20:37.977043 24038 net.cpp:434] score_pool4 <- scale_pool4
I1119 12:20:37.977051 24038 net.cpp:408] score_pool4 -> score_pool4
I1119 12:20:37.978374 24038 net.cpp:150] Setting up score_pool4
I1119 12:20:37.978389 24038 net.cpp:157] Top shape: 1 2 44 34 (2992)
I1119 12:20:37.978394 24038 net.cpp:165] Memory required for data: 894302304
I1119 12:20:37.978400 24038 layer_factory.hpp:77] Creating layer score_pool4c
I1119 12:20:37.978416 24038 net.cpp:100] Creating Layer score_pool4c
I1119 12:20:37.978421 24038 net.cpp:434] score_pool4c <- score_pool4
I1119 12:20:37.978427 24038 net.cpp:434] score_pool4c <- upscore2_upscore2_0_split_0
I1119 12:20:37.978435 24038 net.cpp:408] score_pool4c -> score_pool4c
I1119 12:20:37.978474 24038 net.cpp:150] Setting up score_pool4c
I1119 12:20:37.978482 24038 net.cpp:157] Top shape: 1 2 34 24 (1632)
I1119 12:20:37.978485 24038 net.cpp:165] Memory required for data: 894308832
I1119 12:20:37.978489 24038 layer_factory.hpp:77] Creating layer fuse_pool4
I1119 12:20:37.978498 24038 net.cpp:100] Creating Layer fuse_pool4
I1119 12:20:37.978502 24038 net.cpp:434] fuse_pool4 <- upscore2_upscore2_0_split_1
I1119 12:20:37.978507 24038 net.cpp:434] fuse_pool4 <- score_pool4c
I1119 12:20:37.978513 24038 net.cpp:408] fuse_pool4 -> fuse_pool4
I1119 12:20:37.978543 24038 net.cpp:150] Setting up fuse_pool4
I1119 12:20:37.978550 24038 net.cpp:157] Top shape: 1 2 34 24 (1632)
I1119 12:20:37.978554 24038 net.cpp:165] Memory required for data: 894315360
I1119 12:20:37.978557 24038 layer_factory.hpp:77] Creating layer upscore_pool4
I1119 12:20:37.978569 24038 net.cpp:100] Creating Layer upscore_pool4
I1119 12:20:37.978574 24038 net.cpp:434] upscore_pool4 <- fuse_pool4
I1119 12:20:37.978580 24038 net.cpp:408] upscore_pool4 -> upscore_pool4
I1119 12:20:37.978790 24038 net.cpp:150] Setting up upscore_pool4
I1119 12:20:37.978797 24038 net.cpp:157] Top shape: 1 2 70 50 (7000)
I1119 12:20:37.978801 24038 net.cpp:165] Memory required for data: 894343360
I1119 12:20:37.978807 24038 layer_factory.hpp:77] Creating layer upscore_pool4_upscore_pool4_0_split
I1119 12:20:37.978814 24038 net.cpp:100] Creating Layer upscore_pool4_upscore_pool4_0_split
I1119 12:20:37.978819 24038 net.cpp:434] upscore_pool4_upscore_pool4_0_split <- upscore_pool4
I1119 12:20:37.978824 24038 net.cpp:408] upscore_pool4_upscore_pool4_0_split -> upscore_pool4_upscore_pool4_0_split_0
I1119 12:20:37.978832 24038 net.cpp:408] upscore_pool4_upscore_pool4_0_split -> upscore_pool4_upscore_pool4_0_split_1
I1119 12:20:37.978868 24038 net.cpp:150] Setting up upscore_pool4_upscore_pool4_0_split
I1119 12:20:37.978875 24038 net.cpp:157] Top shape: 1 2 70 50 (7000)
I1119 12:20:37.978879 24038 net.cpp:157] Top shape: 1 2 70 50 (7000)
I1119 12:20:37.978883 24038 net.cpp:165] Memory required for data: 894399360
I1119 12:20:37.978888 24038 layer_factory.hpp:77] Creating layer scale_pool3
I1119 12:20:37.978893 24038 net.cpp:100] Creating Layer scale_pool3
I1119 12:20:37.978898 24038 net.cpp:434] scale_pool3 <- pool3_pool3_0_split_1
I1119 12:20:37.978904 24038 net.cpp:408] scale_pool3 -> scale_pool3
I1119 12:20:37.979001 24038 net.cpp:150] Setting up scale_pool3
I1119 12:20:37.979009 24038 net.cpp:157] Top shape: 1 256 88 67 (1509376)
I1119 12:20:37.979012 24038 net.cpp:165] Memory required for data: 900436864
I1119 12:20:37.979017 24038 layer_factory.hpp:77] Creating layer score_pool3
I1119 12:20:37.979037 24038 net.cpp:100] Creating Layer score_pool3
I1119 12:20:37.979041 24038 net.cpp:434] score_pool3 <- scale_pool3
I1119 12:20:37.979048 24038 net.cpp:408] score_pool3 -> score_pool3
I1119 12:20:37.980295 24038 net.cpp:150] Setting up score_pool3
I1119 12:20:37.980315 24038 net.cpp:157] Top shape: 1 2 88 67 (11792)
I1119 12:20:37.980319 24038 net.cpp:165] Memory required for data: 900484032
I1119 12:20:37.980327 24038 layer_factory.hpp:77] Creating layer score_pool3c
I1119 12:20:37.980337 24038 net.cpp:100] Creating Layer score_pool3c
I1119 12:20:37.980342 24038 net.cpp:434] score_pool3c <- score_pool3
I1119 12:20:37.980348 24038 net.cpp:434] score_pool3c <- upscore_pool4_upscore_pool4_0_split_0
I1119 12:20:37.980355 24038 net.cpp:408] score_pool3c -> score_pool3c
I1119 12:20:37.980388 24038 net.cpp:150] Setting up score_pool3c
I1119 12:20:37.980396 24038 net.cpp:157] Top shape: 1 2 70 50 (7000)
I1119 12:20:37.980399 24038 net.cpp:165] Memory required for data: 900512032
I1119 12:20:37.980403 24038 layer_factory.hpp:77] Creating layer fuse_pool3
I1119 12:20:37.980409 24038 net.cpp:100] Creating Layer fuse_pool3
I1119 12:20:37.980414 24038 net.cpp:434] fuse_pool3 <- upscore_pool4_upscore_pool4_0_split_1
I1119 12:20:37.980418 24038 net.cpp:434] fuse_pool3 <- score_pool3c
I1119 12:20:37.980427 24038 net.cpp:408] fuse_pool3 -> fuse_pool3
I1119 12:20:37.980453 24038 net.cpp:150] Setting up fuse_pool3
I1119 12:20:37.980459 24038 net.cpp:157] Top shape: 1 2 70 50 (7000)
I1119 12:20:37.980463 24038 net.cpp:165] Memory required for data: 900540032
I1119 12:20:37.980466 24038 layer_factory.hpp:77] Creating layer upscore8
I1119 12:20:37.980475 24038 net.cpp:100] Creating Layer upscore8
I1119 12:20:37.980481 24038 net.cpp:434] upscore8 <- fuse_pool3
I1119 12:20:37.980487 24038 net.cpp:408] upscore8 -> upscore8
I1119 12:20:37.980705 24038 net.cpp:150] Setting up upscore8
I1119 12:20:37.980712 24038 net.cpp:157] Top shape: 1 2 568 408 (463488)
I1119 12:20:37.980716 24038 net.cpp:165] Memory required for data: 902393984
I1119 12:20:37.980721 24038 layer_factory.hpp:77] Creating layer score
I1119 12:20:37.980728 24038 net.cpp:100] Creating Layer score
I1119 12:20:37.980732 24038 net.cpp:434] score <- upscore8
I1119 12:20:37.980737 24038 net.cpp:434] score <- data_data_0_split_1
I1119 12:20:37.980743 24038 net.cpp:408] score -> score
I1119 12:20:37.980778 24038 net.cpp:150] Setting up score
I1119 12:20:37.980785 24038 net.cpp:157] Top shape: 1 2 500 333 (333000)
I1119 12:20:37.980789 24038 net.cpp:165] Memory required for data: 903725984
I1119 12:20:37.980793 24038 layer_factory.hpp:77] Creating layer loss
I1119 12:20:37.980808 24038 net.cpp:100] Creating Layer loss
I1119 12:20:37.980811 24038 net.cpp:434] loss <- score
I1119 12:20:37.980816 24038 net.cpp:434] loss <- label
I1119 12:20:37.980824 24038 net.cpp:408] loss -> loss
I1119 12:20:37.980836 24038 layer_factory.hpp:77] Creating layer loss
…
I1119 12:20:37.982359 24038 net.cpp:283] Network initialization done.
I1119 12:20:37.983760 24038 solver.cpp:181] Creating test net (#0) specified by test_net file: val.prototxt
I1119 12:20:37.984130 24038 net.cpp:58] Initializing net from parameters: 
state {
  phase: TEST
}
layer {
  name: "data"
  type: "Python"
  top: "data"
  top: "label"
  python_param {
    module: "voc_layers"
    layer: "ObfVOCSegDataLayer"
    param_str: "{\'voc_dir\': \'../data/pascal-obfuscated/VOC2011\', \'seed\': 1337, \'split\': \'seg11valid15\', \'mean\': (104.00699, 116.66877, 122.67892)}"
  }
}
layer {
  name: "conv1_1"
  type: "Convolution"
  bottom: "data"
  top: "conv1_1"
  param {
    lr_mult: 1
    decay_mult: 1
  }
  param {
    lr_mult: 2
    decay_mult: 0
  }
  convolution_param {
    num_output: 64
    pad: 100
    kernel_size: 3
    stride: 1
    weight_filler {
      type: "xavier"
    }
  }
}
layer {
  name: "relu1_1"
  type: "ReLU"
  bottom: "conv1_1"
  top: "conv1_1"
}
layer {
  name: "conv1_2"
  type: "Convolution"
  bottom: "conv1_1"
  top: "conv1_2"
  param {
    lr_mult: 1
    decay_mult: 1
  }
  param {
    lr_mult: 2
    decay_mult: 0
  }
  convolution_param {
    num_output: 64
    pad: 1
    kernel_size: 3
    stride: 1
    weight_filler {
      type: "xavier"
    }
  }
}
layer {
  name: "relu1_2"
  type: "ReLU"
  bottom: "conv1_2"
  top: "conv1_2"
}
layer {
  name: "pool1"
  type: "Pooling"
  bottom: "conv1_2"
  top: "pool1"
  pooling_param {
    pool: MAX
    kernel_size: 2
    stride: 2
  }
}
layer {
  name: "conv2_1"
  type: "Convolution"
  bottom: "pool1"
  top: "conv2_1"
  param {
    lr_mult: 1
    decay_mult: 1
  }
  param {
    lr_mult: 2
    decay_mult: 0
  }
  convolution_param {
    num_output: 128
    pad: 1
    kernel_size: 3
    stride: 1
    weight_filler {
      type: "xavier"
    }
  }
}
layer {
  name: "relu2_1"
  type: "ReLU"
  bottom: "conv2_1"
  top: "conv2_1"
}
layer {
  name: "conv2_2"
  type: "Convolution"
  bottom: "conv2_1"
  top: "conv2_2"
  param {
    lr_mult: 1
    decay_mult: 1
  }
  param {
    lr_mult: 2
    decay_mult: 0
  }
  convolution_param {
    num_output: 128
    pad: 1
    kernel_size: 3
    stride: 1
    weight_filler {
      type: "xavier"
    }
  }
}
layer {
  name: "relu2_2"
  type: "ReLU"
  bottom: "conv2_2"
  top: "conv2_2"
}
layer {
  name: "pool2"
  type: "Pooling"
  bottom: "conv2_2"
  top: "pool2"
  pooling_param {
    pool: MAX
    kernel_size: 2
    stride: 2
  }
}
layer {
  name: "conv3_1"
  type: "Convolution"
  bottom: "pool2"
  top: "conv3_1"
  param {
    lr_mult: 1
    decay_mult: 1
  }
  param {
    lr_mult: 2
    decay_mult: 0
  }
  convolution_param {
    num_output: 256
    pad: 1
    kernel_size: 3
    stride: 1
    weight_filler {
      type: "xavier"
    }
  }
}
layer {
  name: "relu3_1"
  type: "ReLU"
  bottom: "conv3_1"
  top: "conv3_1"
}
layer {
  name: "conv3_2"
  type: "Convolution"
  bottom: "conv3_1"
  top: "conv3_2"
  param {
    lr_mult: 1
    decay_mult: 1
  }
  param {
    lr_mult: 2
    decay_mult: 0
  }
  convolution_param {
    num_output: 256
    pad: 1
    kernel_size: 3
    stride: 1
    weight_filler {
      type: "xavier"
    }
  }
}
layer {
  name: "relu3_2"
  type: "ReLU"
  bottom: "conv3_2"
  top: "conv3_2"
}
layer {
  name: "conv3_3"
  type: "Convolution"
  bottom: "conv3_2"
  top: "conv3_3"
  param {
    lr_mult: 1
    decay_mult: 1
  }
  param {
    lr_mult: 2
    decay_mult: 0
  }
  convolution_param {
    num_output: 256
    pad: 1
    kernel_size: 3
    stride: 1
    weight_filler {
      type: "xavier"
    }
  }
}
layer {
  name: "relu3_3"
  type: "ReLU"
  bottom: "conv3_3"
  top: "conv3_3"
}
layer {
  name: "pool3"
  type: "Pooling"
  bottom: "conv3_3"
  top: "pool3"
  pooling_param {
    pool: MAX
    kernel_size: 2
    stride: 2
  }
}
layer {
  name: "conv4_1"
  type: "Convolution"
  bottom: "pool3"
  top: "conv4_1"
  param {
    lr_mult: 1
    decay_mult: 1
  }
  param {
    lr_mult: 2
    decay_mult: 0
  }
  convolution_param {
    num_output: 512
    pad: 1
    kernel_size: 3
    stride: 1
    weight_filler {
      type: "xavier"
    }
  }
}
layer {
  name: "relu4_1"
  type: "ReLU"
  bottom: "conv4_1"
  top: "conv4_1"
}
layer {
  name: "conv4_2"
  type: "Convolution"
  bottom: "conv4_1"
  top: "conv4_2"
  param {
    lr_mult: 1
    decay_mult: 1
  }
  param {
    lr_mult: 2
    decay_mult: 0
  }
  convolution_param {
    num_output: 512
    pad: 1
    kernel_size: 3
    stride: 1
    weight_filler {
      type: "xavier"
    }
  }
}
layer {
  name: "relu4_2"
  type: "ReLU"
  bottom: "conv4_2"
  top: "conv4_2"
}
layer {
  name: "conv4_3"
  type: "Convolution"
  bottom: "conv4_2"
  top: "conv4_3"
  param {
    lr_mult: 1
    decay_mult: 1
  }
  param {
    lr_mult: 2
    decay_mult: 0
  }
  convolution_param {
    num_output: 512
    pad: 1
    kernel_size: 3
    stride: 1
    weight_filler {
      type: "xavier"
    }
  }
}
layer {
  name: "relu4_3"
  type: "ReLU"
  bottom: "conv4_3"
  top: "conv4_3"
}
layer {
  name: "pool4"
  type: "Pooling"
  bottom: "conv4_3"
  top: "pool4"
  pooling_param {
    pool: MAX
    kernel_size: 2
    stride: 2
  }
}
layer {
  name: "conv5_1"
  type: "Convolution"
  bottom: "pool4"
  top: "conv5_1"
  param {
    lr_mult: 1
    decay_mult: 1
  }
  param {
    lr_mult: 2
    decay_mult: 0
  }
  convolution_param {
    num_output: 512
    pad: 1
    kernel_size: 3
    stride: 1
    weight_filler {
      type: "xavier"
    }
  }
}
layer {
  name: "relu5_1"
  type: "ReLU"
  bottom: "conv5_1"
  top: "conv5_1"
}
layer {
  name: "conv5_2"
  type: "Convolution"
  bottom: "conv5_1"
  top: "conv5_2"
  param {
    lr_mult: 1
    decay_mult: 1
  }
  param {
    lr_mult: 2
    decay_mult: 0
  }
  convolution_param {
    num_output: 512
    pad: 1
    kernel_size: 3
    stride: 1
    weight_filler {
      type: "xavier"
    }
  }
}
layer {
  name: "relu5_2"
  type: "ReLU"
  bottom: "conv5_2"
  top: "conv5_2"
}
layer {
  name: "conv5_3"
  type: "Convolution"
  bottom: "conv5_2"
  top: "conv5_3"
  param {
    lr_mult: 1
    decay_mult: 1
  }
  param {
    lr_mult: 2
    decay_mult: 0
  }
  convolution_param {
    num_output: 512
    pad: 1
    kernel_size: 3
    stride: 1
    weight_filler {
      type: "xavier"
    }
  }
}
layer {
  name: "relu5_3"
  type: "ReLU"
  bottom: "conv5_3"
  top: "conv5_3"
}
layer {
  name: "pool5"
  type: "Pooling"
  bottom: "conv5_3"
  top: "pool5"
  pooling_param {
    pool: MAX
    kernel_size: 2
    stride: 2
  }
}
layer {
  name: "fc6"
  type: "Convolution"
  bottom: "pool5"
  top: "fc6"
  param {
    lr_mult: 1
    decay_mult: 1
  }
  param {
    lr_mult: 2
    decay_mult: 0
  }
  convolution_param {
    num_output: 4096
    pad: 0
    kernel_size: 7
    stride: 1
    weight_filler {
      type: "xavier"
    }
  }
}
layer {
  name: "relu6"
  type: "ReLU"
  bottom: "fc6"
  top: "fc6"
}
layer {
  name: "drop6"
  type: "Dropout"
  bottom: "fc6"
  top: "fc6"
  dropout_param {
    dropout_ratio: 0.5
  }
}
layer {
  name: "fc7"
  type: "Convolution"
  bottom: "fc6"
  top: "fc7"
  param {
    lr_mult: 1
    decay_mult: 1
  }
  param {
    lr_mult: 2
    decay_mult: 0
  }
  convolution_param {
    num_output: 4096
    pad: 0
    kernel_size: 1
    stride: 1
    weight_filler {
      type: "xavier"
    }
  }
}
layer {
  name: "relu7"
  type: "ReLU"
  bottom: "fc7"
  top: "fc7"
}
layer {
  name: "drop7"
  type: "Dropout"
  bottom: "fc7"
  top: "fc7"
  dropout_param {
    dropout_ratio: 0.5
  }
}
layer {
  name: "score_fr"
  type: "Convolution"
  bottom: "fc7"
  top: "score_fr"
  param {
    lr_mult: 1
    decay_mult: 1
  }
  param {
    lr_mult: 2
    decay_mult: 0
  }
  convolution_param {
    num_output: 2
    pad: 0
    kernel_size: 1
    weight_filler {
      type: "xavier"
    }
  }
}
layer {
  name: "upscore2"
  type: "Deconvolution"
  bottom: "score_fr"
  top: "upscore2"
  param {
    lr_mult: 0
  }
  convolution_param {
    num_output: 2
    bias_term: false
    kernel_size: 4
    stride: 2
    weight_filler {
      type: "xavier"
    }
  }
}
layer {
  name: "scale_pool4"
  type: "Scale"
  bottom: "pool4"
  top: "scale_pool4"
  param {
    lr_mult: 0
  }
  scale_param {
    filler {
      type: "constant"
      value: 0.01
    }
  }
}
layer {
  name: "score_pool4"
  type: "Convolution"
  bottom: "scale_pool4"
  top: "score_pool4"
  param {
    lr_mult: 1
    decay_mult: 1
  }
  param {
    lr_mult: 2
    decay_mult: 0
  }
  convolution_param {
    num_output: 2
    pad: 0
    kernel_size: 1
    weight_filler {
      type: "xavier"
    }
  }
}
layer {
  name: "score_pool4c"
  type: "Crop"
  bottom: "score_pool4"
  bottom: "upscore2"
  top: "score_pool4c"
  crop_param {
    axis: 2
    offset: 5
  }
}
layer {
  name: "fuse_pool4"
  type: "Eltwise"
  bottom: "upscore2"
  bottom: "score_pool4c"
  top: "fuse_pool4"
  eltwise_param {
    operation: SUM
  }
}
layer {
  name: "upscore_pool4"
  type: "Deconvolution"
  bottom: "fuse_pool4"
  top: "upscore_pool4"
  param {
    lr_mult: 0
  }
  convolution_param {
    num_output: 2
    bias_term: false
    kernel_size: 4
    stride: 2
    weight_filler {
      type: "xavier"
    }
  }
}
layer {
  name: "scale_pool3"
  type: "Scale"
  bottom: "pool3"
  top: "scale_pool3"
  param {
    lr_mult: 0
  }
  scale_param {
    filler {
      type: "constant"
      value: 0.0001
    }
  }
}
layer {
  name: "score_pool3"
  type: "Convolution"
  bottom: "scale_pool3"
  top: "score_pool3"
  param {
    lr_mult: 1
    decay_mult: 1
  }
  param {
    lr_mult: 2
    decay_mult: 0
  }
  convolution_param {
    num_output: 2
    pad: 0
    kernel_size: 1
    weight_filler {
      type: "xavier"
    }
  }
}
layer {
  name: "score_pool3c"
  type: "Crop"
  bottom: "score_pool3"
  bottom: "upscore_pool4"
  top: "score_pool3c"
  crop_param {
    axis: 2
    offset: 9
  }
}
layer {
  name: "fuse_pool3"
  type: "Eltwise"
  bottom: "upscore_pool4"
  bottom: "score_pool3c"
  top: "fuse_pool3"
  eltwise_param {
    operation: SUM
  }
}
layer {
  name: "upscore8"
  type: "Deconvolution"
  bottom: "fuse_pool3"
  top: "upscore8"
  param {
    lr_mult: 0
  }
  convolution_param {
    num_output: 2
    bias_term: false
    kernel_size: 16
    stride: 8
    weight_filler {
      type: "xavier"
    }
  }
}
layer {
  name: "score"
  type: "Crop"
  bottom: "upscore8"
  bottom: "data"
  top: "score"
  crop_param {
    axis: 2
    offset: 31
  }
}
layer {
  name: "loss"
  type: "SoftmaxWithLoss"
  bottom: "score"
  bottom: "label"
  top: "loss"
  loss_param {
    ignore_label: 255
    normalize: false
  }
}
I1119 12:20:37.984350 24038 layer_factory.hpp:77] Creating layer data
I1119 12:20:37.984586 24038 net.cpp:100] Creating Layer data
I1119 12:20:37.984594 24038 net.cpp:408] data -> data
I1119 12:20:37.984602 24038 net.cpp:408] data -> label
I1119 12:20:37.997608 24038 net.cpp:150] Setting up data
I1119 12:20:37.997627 24038 net.cpp:157] Top shape: 1 3 366 500 (549000)
I1119 12:20:37.997633 24038 net.cpp:157] Top shape: 1 1 366 500 (183000)
I1119 12:20:37.997637 24038 net.cpp:165] Memory required for data: 2928000
I1119 12:20:37.997642 24038 layer_factory.hpp:77] Creating layer data_data_0_split
I1119 12:20:37.997651 24038 net.cpp:100] Creating Layer data_data_0_split
I1119 12:20:37.997656 24038 net.cpp:434] data_data_0_split <- data
I1119 12:20:37.997663 24038 net.cpp:408] data_data_0_split -> data_data_0_split_0
I1119 12:20:37.997671 24038 net.cpp:408] data_data_0_split -> data_data_0_split_1
I1119 12:20:37.997714 24038 net.cpp:150] Setting up data_data_0_split
I1119 12:20:37.997721 24038 net.cpp:157] Top shape: 1 3 366 500 (549000)
I1119 12:20:37.997725 24038 net.cpp:157] Top shape: 1 3 366 500 (549000)
I1119 12:20:37.997730 24038 net.cpp:165] Memory required for data: 7320000
I1119 12:20:37.997733 24038 layer_factory.hpp:77] Creating layer conv1_1
I1119 12:20:37.997743 24038 net.cpp:100] Creating Layer conv1_1
I1119 12:20:37.997748 24038 net.cpp:434] conv1_1 <- data_data_0_split_0
I1119 12:20:37.997755 24038 net.cpp:408] conv1_1 -> conv1_1
I1119 12:20:37.999948 24038 net.cpp:150] Setting up conv1_1
I1119 12:20:37.999965 24038 net.cpp:157] Top shape: 1 64 564 698 (25195008)
I1119 12:20:37.999970 24038 net.cpp:165] Memory required for data: 108100032
I1119 12:20:37.999982 24038 layer_factory.hpp:77] Creating layer relu1_1
I1119 12:20:37.999991 24038 net.cpp:100] Creating Layer relu1_1
I1119 12:20:37.999995 24038 net.cpp:434] relu1_1 <- conv1_1
I1119 12:20:38.000001 24038 net.cpp:395] relu1_1 -> conv1_1 (in-place)
I1119 12:20:38.000191 24038 net.cpp:150] Setting up relu1_1
I1119 12:20:38.000201 24038 net.cpp:157] Top shape: 1 64 564 698 (25195008)
I1119 12:20:38.000205 24038 net.cpp:165] Memory required for data: 208880064
I1119 12:20:38.000211 24038 layer_factory.hpp:77] Creating layer conv1_2
I1119 12:20:38.000221 24038 net.cpp:100] Creating Layer conv1_2
I1119 12:20:38.000224 24038 net.cpp:434] conv1_2 <- conv1_1
I1119 12:20:38.000231 24038 net.cpp:408] conv1_2 -> conv1_2
I1119 12:20:38.002606 24038 net.cpp:150] Setting up conv1_2
I1119 12:20:38.002622 24038 net.cpp:157] Top shape: 1 64 564 698 (25195008)
I1119 12:20:38.002627 24038 net.cpp:165] Memory required for data: 309660096
I1119 12:20:38.002638 24038 layer_factory.hpp:77] Creating layer relu1_2
I1119 12:20:38.002646 24038 net.cpp:100] Creating Layer relu1_2
I1119 12:20:38.002650 24038 net.cpp:434] relu1_2 <- conv1_2
I1119 12:20:38.002656 24038 net.cpp:395] relu1_2 -> conv1_2 (in-place)
I1119 12:20:38.003028 24038 net.cpp:150] Setting up relu1_2
I1119 12:20:38.003042 24038 net.cpp:157] Top shape: 1 64 564 698 (25195008)
I1119 12:20:38.003046 24038 net.cpp:165] Memory required for data: 410440128
I1119 12:20:38.003051 24038 layer_factory.hpp:77] Creating layer pool1
I1119 12:20:38.003058 24038 net.cpp:100] Creating Layer pool1
I1119 12:20:38.003062 24038 net.cpp:434] pool1 <- conv1_2
I1119 12:20:38.003068 24038 net.cpp:408] pool1 -> pool1
I1119 12:20:38.003119 24038 net.cpp:150] Setting up pool1
I1119 12:20:38.003126 24038 net.cpp:157] Top shape: 1 64 282 349 (6298752)
I1119 12:20:38.003130 24038 net.cpp:165] Memory required for data: 435635136
I1119 12:20:38.003134 24038 layer_factory.hpp:77] Creating layer conv2_1
I1119 12:20:38.003144 24038 net.cpp:100] Creating Layer conv2_1
I1119 12:20:38.003147 24038 net.cpp:434] conv2_1 <- pool1
I1119 12:20:38.003154 24038 net.cpp:408] conv2_1 -> conv2_1
I1119 12:20:38.005373 24038 net.cpp:150] Setting up conv2_1
I1119 12:20:38.005389 24038 net.cpp:157] Top shape: 1 128 282 349 (12597504)
I1119 12:20:38.005394 24038 net.cpp:165] Memory required for data: 486025152
I1119 12:20:38.005405 24038 layer_factory.hpp:77] Creating layer relu2_1
I1119 12:20:38.005414 24038 net.cpp:100] Creating Layer relu2_1
I1119 12:20:38.005419 24038 net.cpp:434] relu2_1 <- conv2_1
I1119 12:20:38.005424 24038 net.cpp:395] relu2_1 -> conv2_1 (in-place)
I1119 12:20:38.005810 24038 net.cpp:150] Setting up relu2_1
I1119 12:20:38.005822 24038 net.cpp:157] Top shape: 1 128 282 349 (12597504)
I1119 12:20:38.005826 24038 net.cpp:165] Memory required for data: 536415168
I1119 12:20:38.005831 24038 layer_factory.hpp:77] Creating layer conv2_2
I1119 12:20:38.005841 24038 net.cpp:100] Creating Layer conv2_2
I1119 12:20:38.005846 24038 net.cpp:434] conv2_2 <- conv2_1
I1119 12:20:38.005852 24038 net.cpp:408] conv2_2 -> conv2_2
I1119 12:20:38.008422 24038 net.cpp:150] Setting up conv2_2
I1119 12:20:38.008440 24038 net.cpp:157] Top shape: 1 128 282 349 (12597504)
I1119 12:20:38.008443 24038 net.cpp:165] Memory required for data: 586805184
I1119 12:20:38.008451 24038 layer_factory.hpp:77] Creating layer relu2_2
I1119 12:20:38.008460 24038 net.cpp:100] Creating Layer relu2_2
I1119 12:20:38.008463 24038 net.cpp:434] relu2_2 <- conv2_2
I1119 12:20:38.008469 24038 net.cpp:395] relu2_2 -> conv2_2 (in-place)
I1119 12:20:38.008658 24038 net.cpp:150] Setting up relu2_2
I1119 12:20:38.008668 24038 net.cpp:157] Top shape: 1 128 282 349 (12597504)
I1119 12:20:38.008672 24038 net.cpp:165] Memory required for data: 637195200
I1119 12:20:38.008677 24038 layer_factory.hpp:77] Creating layer pool2
I1119 12:20:38.008683 24038 net.cpp:100] Creating Layer pool2
I1119 12:20:38.008687 24038 net.cpp:434] pool2 <- conv2_2
I1119 12:20:38.008693 24038 net.cpp:408] pool2 -> pool2
I1119 12:20:38.008744 24038 net.cpp:150] Setting up pool2
I1119 12:20:38.008750 24038 net.cpp:157] Top shape: 1 128 141 175 (3158400)
I1119 12:20:38.008754 24038 net.cpp:165] Memory required for data: 649828800
I1119 12:20:38.008759 24038 layer_factory.hpp:77] Creating layer conv3_1
I1119 12:20:38.008767 24038 net.cpp:100] Creating Layer conv3_1
I1119 12:20:38.008771 24038 net.cpp:434] conv3_1 <- pool2
I1119 12:20:38.008777 24038 net.cpp:408] conv3_1 -> conv3_1
I1119 12:20:38.012061 24038 net.cpp:150] Setting up conv3_1
I1119 12:20:38.012078 24038 net.cpp:157] Top shape: 1 256 141 175 (6316800)
I1119 12:20:38.012081 24038 net.cpp:165] Memory required for data: 675096000
I1119 12:20:38.012092 24038 layer_factory.hpp:77] Creating layer relu3_1
I1119 12:20:38.012100 24038 net.cpp:100] Creating Layer relu3_1
I1119 12:20:38.012111 24038 net.cpp:434] relu3_1 <- conv3_1
I1119 12:20:38.012117 24038 net.cpp:395] relu3_1 -> conv3_1 (in-place)
I1119 12:20:38.012485 24038 net.cpp:150] Setting up relu3_1
I1119 12:20:38.012498 24038 net.cpp:157] Top shape: 1 256 141 175 (6316800)
I1119 12:20:38.012502 24038 net.cpp:165] Memory required for data: 700363200
I1119 12:20:38.012507 24038 layer_factory.hpp:77] Creating layer conv3_2
I1119 12:20:38.012516 24038 net.cpp:100] Creating Layer conv3_2
I1119 12:20:38.012521 24038 net.cpp:434] conv3_2 <- conv3_1
I1119 12:20:38.012528 24038 net.cpp:408] conv3_2 -> conv3_2
I1119 12:20:38.017786 24038 net.cpp:150] Setting up conv3_2
I1119 12:20:38.017802 24038 net.cpp:157] Top shape: 1 256 141 175 (6316800)
I1119 12:20:38.017807 24038 net.cpp:165] Memory required for data: 725630400
I1119 12:20:38.017814 24038 layer_factory.hpp:77] Creating layer relu3_2
I1119 12:20:38.017822 24038 net.cpp:100] Creating Layer relu3_2
I1119 12:20:38.017827 24038 net.cpp:434] relu3_2 <- conv3_2
I1119 12:20:38.017833 24038 net.cpp:395] relu3_2 -> conv3_2 (in-place)
I1119 12:20:38.018023 24038 net.cpp:150] Setting up relu3_2
I1119 12:20:38.018033 24038 net.cpp:157] Top shape: 1 256 141 175 (6316800)
I1119 12:20:38.018038 24038 net.cpp:165] Memory required for data: 750897600
I1119 12:20:38.018041 24038 layer_factory.hpp:77] Creating layer conv3_3
I1119 12:20:38.018054 24038 net.cpp:100] Creating Layer conv3_3
I1119 12:20:38.018057 24038 net.cpp:434] conv3_3 <- conv3_2
I1119 12:20:38.018064 24038 net.cpp:408] conv3_3 -> conv3_3
I1119 12:20:38.023300 24038 net.cpp:150] Setting up conv3_3
I1119 12:20:38.023317 24038 net.cpp:157] Top shape: 1 256 141 175 (6316800)
I1119 12:20:38.023322 24038 net.cpp:165] Memory required for data: 776164800
I1119 12:20:38.023329 24038 layer_factory.hpp:77] Creating layer relu3_3
I1119 12:20:38.023337 24038 net.cpp:100] Creating Layer relu3_3
I1119 12:20:38.023342 24038 net.cpp:434] relu3_3 <- conv3_3
I1119 12:20:38.023350 24038 net.cpp:395] relu3_3 -> conv3_3 (in-place)
I1119 12:20:38.023538 24038 net.cpp:150] Setting up relu3_3
I1119 12:20:38.023548 24038 net.cpp:157] Top shape: 1 256 141 175 (6316800)
I1119 12:20:38.023553 24038 net.cpp:165] Memory required for data: 801432000
I1119 12:20:38.023557 24038 layer_factory.hpp:77] Creating layer pool3
I1119 12:20:38.023564 24038 net.cpp:100] Creating Layer pool3
I1119 12:20:38.023568 24038 net.cpp:434] pool3 <- conv3_3
I1119 12:20:38.023576 24038 net.cpp:408] pool3 -> pool3
I1119 12:20:38.023627 24038 net.cpp:150] Setting up pool3
I1119 12:20:38.023633 24038 net.cpp:157] Top shape: 1 256 71 88 (1599488)
I1119 12:20:38.023638 24038 net.cpp:165] Memory required for data: 807829952
I1119 12:20:38.023641 24038 layer_factory.hpp:77] Creating layer pool3_pool3_0_split
I1119 12:20:38.023648 24038 net.cpp:100] Creating Layer pool3_pool3_0_split
I1119 12:20:38.023653 24038 net.cpp:434] pool3_pool3_0_split <- pool3
I1119 12:20:38.023658 24038 net.cpp:408] pool3_pool3_0_split -> pool3_pool3_0_split_0
I1119 12:20:38.023664 24038 net.cpp:408] pool3_pool3_0_split -> pool3_pool3_0_split_1
I1119 12:20:38.023705 24038 net.cpp:150] Setting up pool3_pool3_0_split
I1119 12:20:38.023711 24038 net.cpp:157] Top shape: 1 256 71 88 (1599488)
I1119 12:20:38.023716 24038 net.cpp:157] Top shape: 1 256 71 88 (1599488)
I1119 12:20:38.023720 24038 net.cpp:165] Memory required for data: 820625856
I1119 12:20:38.023723 24038 layer_factory.hpp:77] Creating layer conv4_1
I1119 12:20:38.023733 24038 net.cpp:100] Creating Layer conv4_1
I1119 12:20:38.023737 24038 net.cpp:434] conv4_1 <- pool3_pool3_0_split_0
I1119 12:20:38.023744 24038 net.cpp:408] conv4_1 -> conv4_1
I1119 12:20:38.032766 24038 net.cpp:150] Setting up conv4_1
I1119 12:20:38.032784 24038 net.cpp:157] Top shape: 1 512 71 88 (3198976)
I1119 12:20:38.032789 24038 net.cpp:165] Memory required for data: 833421760
I1119 12:20:38.032798 24038 layer_factory.hpp:77] Creating layer relu4_1
I1119 12:20:38.032805 24038 net.cpp:100] Creating Layer relu4_1
I1119 12:20:38.032810 24038 net.cpp:434] relu4_1 <- conv4_1
I1119 12:20:38.032824 24038 net.cpp:395] relu4_1 -> conv4_1 (in-place)
I1119 12:20:38.033205 24038 net.cpp:150] Setting up relu4_1
I1119 12:20:38.033218 24038 net.cpp:157] Top shape: 1 512 71 88 (3198976)
I1119 12:20:38.033222 24038 net.cpp:165] Memory required for data: 846217664
I1119 12:20:38.033226 24038 layer_factory.hpp:77] Creating layer conv4_2
I1119 12:20:38.033237 24038 net.cpp:100] Creating Layer conv4_2
I1119 12:20:38.033242 24038 net.cpp:434] conv4_2 <- conv4_1
I1119 12:20:38.033249 24038 net.cpp:408] conv4_2 -> conv4_2
I1119 12:20:38.050482 24038 net.cpp:150] Setting up conv4_2
I1119 12:20:38.050513 24038 net.cpp:157] Top shape: 1 512 71 88 (3198976)
I1119 12:20:38.050518 24038 net.cpp:165] Memory required for data: 859013568
I1119 12:20:38.050535 24038 layer_factory.hpp:77] Creating layer relu4_2
I1119 12:20:38.050545 24038 net.cpp:100] Creating Layer relu4_2
I1119 12:20:38.050551 24038 net.cpp:434] relu4_2 <- conv4_2
I1119 12:20:38.050559 24038 net.cpp:395] relu4_2 -> conv4_2 (in-place)
I1119 12:20:38.050767 24038 net.cpp:150] Setting up relu4_2
I1119 12:20:38.050778 24038 net.cpp:157] Top shape: 1 512 71 88 (3198976)
I1119 12:20:38.050782 24038 net.cpp:165] Memory required for data: 871809472
I1119 12:20:38.050786 24038 layer_factory.hpp:77] Creating layer conv4_3
I1119 12:20:38.050798 24038 net.cpp:100] Creating Layer conv4_3
I1119 12:20:38.050803 24038 net.cpp:434] conv4_3 <- conv4_2
I1119 12:20:38.050813 24038 net.cpp:408] conv4_3 -> conv4_3
I1119 12:20:38.067968 24038 net.cpp:150] Setting up conv4_3
I1119 12:20:38.067991 24038 net.cpp:157] Top shape: 1 512 71 88 (3198976)
I1119 12:20:38.067996 24038 net.cpp:165] Memory required for data: 884605376
I1119 12:20:38.068006 24038 layer_factory.hpp:77] Creating layer relu4_3
I1119 12:20:38.068014 24038 net.cpp:100] Creating Layer relu4_3
I1119 12:20:38.068020 24038 net.cpp:434] relu4_3 <- conv4_3
I1119 12:20:38.068030 24038 net.cpp:395] relu4_3 -> conv4_3 (in-place)
I1119 12:20:38.068244 24038 net.cpp:150] Setting up relu4_3
I1119 12:20:38.068254 24038 net.cpp:157] Top shape: 1 512 71 88 (3198976)
I1119 12:20:38.068259 24038 net.cpp:165] Memory required for data: 897401280
I1119 12:20:38.068262 24038 layer_factory.hpp:77] Creating layer pool4
I1119 12:20:38.068272 24038 net.cpp:100] Creating Layer pool4
I1119 12:20:38.068277 24038 net.cpp:434] pool4 <- conv4_3
I1119 12:20:38.068284 24038 net.cpp:408] pool4 -> pool4
I1119 12:20:38.068341 24038 net.cpp:150] Setting up pool4
I1119 12:20:38.068348 24038 net.cpp:157] Top shape: 1 512 36 44 (811008)
I1119 12:20:38.068352 24038 net.cpp:165] Memory required for data: 900645312
I1119 12:20:38.068357 24038 layer_factory.hpp:77] Creating layer pool4_pool4_0_split
I1119 12:20:38.068363 24038 net.cpp:100] Creating Layer pool4_pool4_0_split
I1119 12:20:38.068368 24038 net.cpp:434] pool4_pool4_0_split <- pool4
I1119 12:20:38.068373 24038 net.cpp:408] pool4_pool4_0_split -> pool4_pool4_0_split_0
I1119 12:20:38.068382 24038 net.cpp:408] pool4_pool4_0_split -> pool4_pool4_0_split_1
I1119 12:20:38.068425 24038 net.cpp:150] Setting up pool4_pool4_0_split
I1119 12:20:38.068433 24038 net.cpp:157] Top shape: 1 512 36 44 (811008)
I1119 12:20:38.068437 24038 net.cpp:157] Top shape: 1 512 36 44 (811008)
I1119 12:20:38.068440 24038 net.cpp:165] Memory required for data: 907133376
I1119 12:20:38.068444 24038 layer_factory.hpp:77] Creating layer conv5_1
I1119 12:20:38.068461 24038 net.cpp:100] Creating Layer conv5_1
I1119 12:20:38.068466 24038 net.cpp:434] conv5_1 <- pool4_pool4_0_split_0
I1119 12:20:38.068472 24038 net.cpp:408] conv5_1 -> conv5_1
I1119 12:20:38.085508 24038 net.cpp:150] Setting up conv5_1
I1119 12:20:38.085530 24038 net.cpp:157] Top shape: 1 512 36 44 (811008)
I1119 12:20:38.085536 24038 net.cpp:165] Memory required for data: 910377408
I1119 12:20:38.085544 24038 layer_factory.hpp:77] Creating layer relu5_1
I1119 12:20:38.085554 24038 net.cpp:100] Creating Layer relu5_1
I1119 12:20:38.085559 24038 net.cpp:434] relu5_1 <- conv5_1
I1119 12:20:38.085566 24038 net.cpp:395] relu5_1 -> conv5_1 (in-place)
I1119 12:20:38.085966 24038 net.cpp:150] Setting up relu5_1
I1119 12:20:38.085980 24038 net.cpp:157] Top shape: 1 512 36 44 (811008)
I1119 12:20:38.085984 24038 net.cpp:165] Memory required for data: 913621440
I1119 12:20:38.085989 24038 layer_factory.hpp:77] Creating layer conv5_2
I1119 12:20:38.086004 24038 net.cpp:100] Creating Layer conv5_2
I1119 12:20:38.086009 24038 net.cpp:434] conv5_2 <- conv5_1
I1119 12:20:38.086015 24038 net.cpp:408] conv5_2 -> conv5_2
I1119 12:20:38.103303 24038 net.cpp:150] Setting up conv5_2
I1119 12:20:38.103327 24038 net.cpp:157] Top shape: 1 512 36 44 (811008)
I1119 12:20:38.103330 24038 net.cpp:165] Memory required for data: 916865472
I1119 12:20:38.103339 24038 layer_factory.hpp:77] Creating layer relu5_2
I1119 12:20:38.103349 24038 net.cpp:100] Creating Layer relu5_2
I1119 12:20:38.103354 24038 net.cpp:434] relu5_2 <- conv5_2
I1119 12:20:38.103364 24038 net.cpp:395] relu5_2 -> conv5_2 (in-place)
I1119 12:20:38.103571 24038 net.cpp:150] Setting up relu5_2
I1119 12:20:38.103581 24038 net.cpp:157] Top shape: 1 512 36 44 (811008)
I1119 12:20:38.103585 24038 net.cpp:165] Memory required for data: 920109504
I1119 12:20:38.103590 24038 layer_factory.hpp:77] Creating layer conv5_3
I1119 12:20:38.103608 24038 net.cpp:100] Creating Layer conv5_3
I1119 12:20:38.103613 24038 net.cpp:434] conv5_3 <- conv5_2
I1119 12:20:38.103621 24038 net.cpp:408] conv5_3 -> conv5_3
I1119 12:20:38.120930 24038 net.cpp:150] Setting up conv5_3
I1119 12:20:38.120954 24038 net.cpp:157] Top shape: 1 512 36 44 (811008)
I1119 12:20:38.120959 24038 net.cpp:165] Memory required for data: 923353536
I1119 12:20:38.120966 24038 layer_factory.hpp:77] Creating layer relu5_3
I1119 12:20:38.120977 24038 net.cpp:100] Creating Layer relu5_3
I1119 12:20:38.120983 24038 net.cpp:434] relu5_3 <- conv5_3
I1119 12:20:38.120990 24038 net.cpp:395] relu5_3 -> conv5_3 (in-place)
I1119 12:20:38.121201 24038 net.cpp:150] Setting up relu5_3
I1119 12:20:38.121212 24038 net.cpp:157] Top shape: 1 512 36 44 (811008)
I1119 12:20:38.121217 24038 net.cpp:165] Memory required for data: 926597568
I1119 12:20:38.121222 24038 layer_factory.hpp:77] Creating layer pool5
I1119 12:20:38.121229 24038 net.cpp:100] Creating Layer pool5
I1119 12:20:38.121234 24038 net.cpp:434] pool5 <- conv5_3
I1119 12:20:38.121240 24038 net.cpp:408] pool5 -> pool5
I1119 12:20:38.121299 24038 net.cpp:150] Setting up pool5
I1119 12:20:38.121307 24038 net.cpp:157] Top shape: 1 512 18 22 (202752)
I1119 12:20:38.121310 24038 net.cpp:165] Memory required for data: 927408576
I1119 12:20:38.121315 24038 layer_factory.hpp:77] Creating layer fc6
I1119 12:20:38.121327 24038 net.cpp:100] Creating Layer fc6
I1119 12:20:38.121331 24038 net.cpp:434] fc6 <- pool5
I1119 12:20:38.121340 24038 net.cpp:408] fc6 -> fc6
I1119 12:20:38.844202 24038 net.cpp:150] Setting up fc6
I1119 12:20:38.844249 24038 net.cpp:157] Top shape: 1 4096 12 16 (786432)
I1119 12:20:38.844254 24038 net.cpp:165] Memory required for data: 930554304
I1119 12:20:38.844272 24038 layer_factory.hpp:77] Creating layer relu6
I1119 12:20:38.844293 24038 net.cpp:100] Creating Layer relu6
I1119 12:20:38.844300 24038 net.cpp:434] relu6 <- fc6
I1119 12:20:38.844310 24038 net.cpp:395] relu6 -> fc6 (in-place)
I1119 12:20:38.844723 24038 net.cpp:150] Setting up relu6
I1119 12:20:38.844738 24038 net.cpp:157] Top shape: 1 4096 12 16 (786432)
I1119 12:20:38.844741 24038 net.cpp:165] Memory required for data: 933700032
I1119 12:20:38.844746 24038 layer_factory.hpp:77] Creating layer drop6
I1119 12:20:38.844754 24038 net.cpp:100] Creating Layer drop6
I1119 12:20:38.844759 24038 net.cpp:434] drop6 <- fc6
I1119 12:20:38.844765 24038 net.cpp:395] drop6 -> fc6 (in-place)
I1119 12:20:38.844805 24038 net.cpp:150] Setting up drop6
I1119 12:20:38.844812 24038 net.cpp:157] Top shape: 1 4096 12 16 (786432)
I1119 12:20:38.844816 24038 net.cpp:165] Memory required for data: 936845760
I1119 12:20:38.844820 24038 layer_factory.hpp:77] Creating layer fc7
I1119 12:20:38.844832 24038 net.cpp:100] Creating Layer fc7
I1119 12:20:38.844836 24038 net.cpp:434] fc7 <- fc6
I1119 12:20:38.844853 24038 net.cpp:408] fc7 -> fc7
I1119 12:20:38.966099 24038 net.cpp:150] Setting up fc7
I1119 12:20:38.966145 24038 net.cpp:157] Top shape: 1 4096 12 16 (786432)
I1119 12:20:38.966150 24038 net.cpp:165] Memory required for data: 939991488
I1119 12:20:38.966166 24038 layer_factory.hpp:77] Creating layer relu7
I1119 12:20:38.966187 24038 net.cpp:100] Creating Layer relu7
I1119 12:20:38.966195 24038 net.cpp:434] relu7 <- fc7
I1119 12:20:38.966204 24038 net.cpp:395] relu7 -> fc7 (in-place)
I1119 12:20:38.966419 24038 net.cpp:150] Setting up relu7
I1119 12:20:38.966429 24038 net.cpp:157] Top shape: 1 4096 12 16 (786432)
I1119 12:20:38.966434 24038 net.cpp:165] Memory required for data: 943137216
I1119 12:20:38.966437 24038 layer_factory.hpp:77] Creating layer drop7
I1119 12:20:38.966449 24038 net.cpp:100] Creating Layer drop7
I1119 12:20:38.966454 24038 net.cpp:434] drop7 <- fc7
I1119 12:20:38.966459 24038 net.cpp:395] drop7 -> fc7 (in-place)
I1119 12:20:38.966513 24038 net.cpp:150] Setting up drop7
I1119 12:20:38.966521 24038 net.cpp:157] Top shape: 1 4096 12 16 (786432)
I1119 12:20:38.966524 24038 net.cpp:165] Memory required for data: 946282944
I1119 12:20:38.966529 24038 layer_factory.hpp:77] Creating layer score_fr
I1119 12:20:38.966543 24038 net.cpp:100] Creating Layer score_fr
I1119 12:20:38.966547 24038 net.cpp:434] score_fr <- fc7
I1119 12:20:38.966557 24038 net.cpp:408] score_fr -> score_fr
I1119 12:20:38.968178 24038 net.cpp:150] Setting up score_fr
I1119 12:20:38.968194 24038 net.cpp:157] Top shape: 1 2 12 16 (384)
I1119 12:20:38.968199 24038 net.cpp:165] Memory required for data: 946284480
I1119 12:20:38.968206 24038 layer_factory.hpp:77] Creating layer upscore2
I1119 12:20:38.968219 24038 net.cpp:100] Creating Layer upscore2
I1119 12:20:38.968224 24038 net.cpp:434] upscore2 <- score_fr
I1119 12:20:38.968231 24038 net.cpp:408] upscore2 -> upscore2
I1119 12:20:38.968488 24038 net.cpp:150] Setting up upscore2
I1119 12:20:38.968497 24038 net.cpp:157] Top shape: 1 2 26 34 (1768)
I1119 12:20:38.968502 24038 net.cpp:165] Memory required for data: 946291552
I1119 12:20:38.968523 24038 layer_factory.hpp:77] Creating layer upscore2_upscore2_0_split
I1119 12:20:38.968533 24038 net.cpp:100] Creating Layer upscore2_upscore2_0_split
I1119 12:20:38.968538 24038 net.cpp:434] upscore2_upscore2_0_split <- upscore2
I1119 12:20:38.968544 24038 net.cpp:408] upscore2_upscore2_0_split -> upscore2_upscore2_0_split_0
I1119 12:20:38.968550 24038 net.cpp:408] upscore2_upscore2_0_split -> upscore2_upscore2_0_split_1
I1119 12:20:38.968595 24038 net.cpp:150] Setting up upscore2_upscore2_0_split
I1119 12:20:38.968605 24038 net.cpp:157] Top shape: 1 2 26 34 (1768)
I1119 12:20:38.968610 24038 net.cpp:157] Top shape: 1 2 26 34 (1768)
I1119 12:20:38.968612 24038 net.cpp:165] Memory required for data: 946305696
I1119 12:20:38.968616 24038 layer_factory.hpp:77] Creating layer scale_pool4
I1119 12:20:38.968626 24038 net.cpp:100] Creating Layer scale_pool4
I1119 12:20:38.968631 24038 net.cpp:434] scale_pool4 <- pool4_pool4_0_split_1
I1119 12:20:38.968641 24038 net.cpp:408] scale_pool4 -> scale_pool4
I1119 12:20:38.968778 24038 net.cpp:150] Setting up scale_pool4
I1119 12:20:38.968786 24038 net.cpp:157] Top shape: 1 512 36 44 (811008)
I1119 12:20:38.968791 24038 net.cpp:165] Memory required for data: 949549728
I1119 12:20:38.968796 24038 layer_factory.hpp:77] Creating layer score_pool4
I1119 12:20:38.968806 24038 net.cpp:100] Creating Layer score_pool4
I1119 12:20:38.968811 24038 net.cpp:434] score_pool4 <- scale_pool4
I1119 12:20:38.968817 24038 net.cpp:408] score_pool4 -> score_pool4
I1119 12:20:38.970171 24038 net.cpp:150] Setting up score_pool4
I1119 12:20:38.970186 24038 net.cpp:157] Top shape: 1 2 36 44 (3168)
I1119 12:20:38.970191 24038 net.cpp:165] Memory required for data: 949562400
I1119 12:20:38.970198 24038 layer_factory.hpp:77] Creating layer score_pool4c
I1119 12:20:38.970207 24038 net.cpp:100] Creating Layer score_pool4c
I1119 12:20:38.970212 24038 net.cpp:434] score_pool4c <- score_pool4
I1119 12:20:38.970218 24038 net.cpp:434] score_pool4c <- upscore2_upscore2_0_split_0
I1119 12:20:38.970233 24038 net.cpp:408] score_pool4c -> score_pool4c
I1119 12:20:38.970273 24038 net.cpp:150] Setting up score_pool4c
I1119 12:20:38.970280 24038 net.cpp:157] Top shape: 1 2 26 34 (1768)
I1119 12:20:38.970284 24038 net.cpp:165] Memory required for data: 949569472
I1119 12:20:38.970288 24038 layer_factory.hpp:77] Creating layer fuse_pool4
I1119 12:20:38.970299 24038 net.cpp:100] Creating Layer fuse_pool4
I1119 12:20:38.970302 24038 net.cpp:434] fuse_pool4 <- upscore2_upscore2_0_split_1
I1119 12:20:38.970307 24038 net.cpp:434] fuse_pool4 <- score_pool4c
I1119 12:20:38.970314 24038 net.cpp:408] fuse_pool4 -> fuse_pool4
I1119 12:20:38.970345 24038 net.cpp:150] Setting up fuse_pool4
I1119 12:20:38.970352 24038 net.cpp:157] Top shape: 1 2 26 34 (1768)
I1119 12:20:38.970355 24038 net.cpp:165] Memory required for data: 949576544
I1119 12:20:38.970360 24038 layer_factory.hpp:77] Creating layer upscore_pool4
I1119 12:20:38.970368 24038 net.cpp:100] Creating Layer upscore_pool4
I1119 12:20:38.970373 24038 net.cpp:434] upscore_pool4 <- fuse_pool4
I1119 12:20:38.970378 24038 net.cpp:408] upscore_pool4 -> upscore_pool4
I1119 12:20:38.970621 24038 net.cpp:150] Setting up upscore_pool4
I1119 12:20:38.970629 24038 net.cpp:157] Top shape: 1 2 54 70 (7560)
I1119 12:20:38.970633 24038 net.cpp:165] Memory required for data: 949606784
I1119 12:20:38.970638 24038 layer_factory.hpp:77] Creating layer upscore_pool4_upscore_pool4_0_split
I1119 12:20:38.970645 24038 net.cpp:100] Creating Layer upscore_pool4_upscore_pool4_0_split
I1119 12:20:38.970649 24038 net.cpp:434] upscore_pool4_upscore_pool4_0_split <- upscore_pool4
I1119 12:20:38.970656 24038 net.cpp:408] upscore_pool4_upscore_pool4_0_split -> upscore_pool4_upscore_pool4_0_split_0
I1119 12:20:38.970664 24038 net.cpp:408] upscore_pool4_upscore_pool4_0_split -> upscore_pool4_upscore_pool4_0_split_1
I1119 12:20:38.970710 24038 net.cpp:150] Setting up upscore_pool4_upscore_pool4_0_split
I1119 12:20:38.970716 24038 net.cpp:157] Top shape: 1 2 54 70 (7560)
I1119 12:20:38.970721 24038 net.cpp:157] Top shape: 1 2 54 70 (7560)
I1119 12:20:38.970724 24038 net.cpp:165] Memory required for data: 949667264
I1119 12:20:38.970728 24038 layer_factory.hpp:77] Creating layer scale_pool3
I1119 12:20:38.970736 24038 net.cpp:100] Creating Layer scale_pool3
I1119 12:20:38.970741 24038 net.cpp:434] scale_pool3 <- pool3_pool3_0_split_1
I1119 12:20:38.970747 24038 net.cpp:408] scale_pool3 -> scale_pool3
I1119 12:20:38.970860 24038 net.cpp:150] Setting up scale_pool3
I1119 12:20:38.970867 24038 net.cpp:157] Top shape: 1 256 71 88 (1599488)
I1119 12:20:38.970871 24038 net.cpp:165] Memory required for data: 956065216
I1119 12:20:38.970876 24038 layer_factory.hpp:77] Creating layer score_pool3
I1119 12:20:38.970887 24038 net.cpp:100] Creating Layer score_pool3
I1119 12:20:38.970892 24038 net.cpp:434] score_pool3 <- scale_pool3
I1119 12:20:38.970898 24038 net.cpp:408] score_pool3 -> score_pool3
I1119 12:20:38.972220 24038 net.cpp:150] Setting up score_pool3
I1119 12:20:38.972236 24038 net.cpp:157] Top shape: 1 2 71 88 (12496)
I1119 12:20:38.972240 24038 net.cpp:165] Memory required for data: 956115200
I1119 12:20:38.972249 24038 layer_factory.hpp:77] Creating layer score_pool3c
I1119 12:20:38.972259 24038 net.cpp:100] Creating Layer score_pool3c
I1119 12:20:38.972264 24038 net.cpp:434] score_pool3c <- score_pool3
I1119 12:20:38.972270 24038 net.cpp:434] score_pool3c <- upscore_pool4_upscore_pool4_0_split_0
I1119 12:20:38.972277 24038 net.cpp:408] score_pool3c -> score_pool3c
I1119 12:20:38.972312 24038 net.cpp:150] Setting up score_pool3c
I1119 12:20:38.972319 24038 net.cpp:157] Top shape: 1 2 54 70 (7560)
I1119 12:20:38.972323 24038 net.cpp:165] Memory required for data: 956145440
I1119 12:20:38.972327 24038 layer_factory.hpp:77] Creating layer fuse_pool3
I1119 12:20:38.972337 24038 net.cpp:100] Creating Layer fuse_pool3
I1119 12:20:38.972342 24038 net.cpp:434] fuse_pool3 <- upscore_pool4_upscore_pool4_0_split_1
I1119 12:20:38.972347 24038 net.cpp:434] fuse_pool3 <- score_pool3c
I1119 12:20:38.972359 24038 net.cpp:408] fuse_pool3 -> fuse_pool3
I1119 12:20:38.972393 24038 net.cpp:150] Setting up fuse_pool3
I1119 12:20:38.972399 24038 net.cpp:157] Top shape: 1 2 54 70 (7560)
I1119 12:20:38.972404 24038 net.cpp:165] Memory required for data: 956175680
I1119 12:20:38.972406 24038 layer_factory.hpp:77] Creating layer upscore8
I1119 12:20:38.972415 24038 net.cpp:100] Creating Layer upscore8
I1119 12:20:38.972420 24038 net.cpp:434] upscore8 <- fuse_pool3
I1119 12:20:38.972427 24038 net.cpp:408] upscore8 -> upscore8
I1119 12:20:38.972674 24038 net.cpp:150] Setting up upscore8
I1119 12:20:38.972682 24038 net.cpp:157] Top shape: 1 2 440 568 (499840)
I1119 12:20:38.972687 24038 net.cpp:165] Memory required for data: 958175040
I1119 12:20:38.972692 24038 layer_factory.hpp:77] Creating layer score
I1119 12:20:38.972698 24038 net.cpp:100] Creating Layer score
I1119 12:20:38.972702 24038 net.cpp:434] score <- upscore8
I1119 12:20:38.972707 24038 net.cpp:434] score <- data_data_0_split_1
I1119 12:20:38.972712 24038 net.cpp:408] score -> score
I1119 12:20:38.972743 24038 net.cpp:150] Setting up score
I1119 12:20:38.972748 24038 net.cpp:157] Top shape: 1 2 366 500 (366000)
I1119 12:20:38.972753 24038 net.cpp:165] Memory required for data: 959639040
I1119 12:20:38.972755 24038 layer_factory.hpp:77] Creating layer loss
I1119 12:20:38.972765 24038 net.cpp:100] Creating Layer loss
I1119 12:20:38.972769 24038 net.cpp:434] loss <- score
I1119 12:20:38.972774 24038 net.cpp:434] loss <- label
I1119 12:20:38.972779 24038 net.cpp:408] loss -> loss
I1119 12:20:38.972789 24038 layer_factory.hpp:77] Creating layer loss
…
