…
test_initialization: false
average_loss: 20
iter_size: 1
I0202 03:06:38.088150 21597 solver.cpp:81] Creating training net from train_net file: train.prototxt
I0202 03:06:38.089519 21597 net.cpp:58] Initializing net from parameters: 
state {
  phase: TRAIN
}
layer {
  name: "data"
  type: "Python"
  top: "data"
  top: "label"
  python_param {
    module: "voc_layers"
    layer: "SBDDSegDataLayer"
    param_str: "{\'sbdd_dir\': \'../data/sbdd/dataset\', \'seed\': 1337, \'split\': \'train15_single_inst\', \'mean\': (104.00699, 116.66877, 122.67892)}"
  }
}
layer {
  name: "conv1_1"
  type: "Convolution"
  bottom: "data"
  top: "conv1_1"
  param {
    lr_mult: 1
    decay_mult: 1
  }
  param {
    lr_mult: 2
    decay_mult: 0
  }
  convolution_param {
    num_output: 64
    pad: 100
    kernel_size: 3
    stride: 1
    weight_filler {
      type: "xavier"
    }
  }
}
layer {
  name: "relu1_1"
  type: "ReLU"
  bottom: "conv1_1"
  top: "conv1_1"
}
layer {
  name: "conv1_2"
  type: "Convolution"
  bottom: "conv1_1"
  top: "conv1_2"
  param {
    lr_mult: 1
    decay_mult: 1
  }
  param {
    lr_mult: 2
    decay_mult: 0
  }
  convolution_param {
    num_output: 64
    pad: 1
    kernel_size: 3
    stride: 1
    weight_filler {
      type: "xavier"
    }
  }
}
layer {
  name: "relu1_2"
  type: "ReLU"
  bottom: "conv1_2"
  top: "conv1_2"
}
layer {
  name: "pool1"
  type: "Pooling"
  bottom: "conv1_2"
  top: "pool1"
  pooling_param {
    pool: MAX
    kernel_size: 2
    stride: 2
  }
}
layer {
  name: "conv2_1"
  type: "Convolution"
  bottom: "pool1"
  top: "conv2_1"
  param {
    lr_mult: 1
    decay_mult: 1
  }
  param {
    lr_mult: 2
    decay_mult: 0
  }
  convolution_param {
    num_output: 128
    pad: 1
    kernel_size: 3
    stride: 1
    weight_filler {
      type: "xavier"
    }
  }
}
layer {
  name: "relu2_1"
  type: "ReLU"
  bottom: "conv2_1"
  top: "conv2_1"
}
layer {
  name: "conv2_2"
  type: "Convolution"
  bottom: "conv2_1"
  top: "conv2_2"
  param {
    lr_mult: 1
    decay_mult: 1
  }
  param {
    lr_mult: 2
    decay_mult: 0
  }
  convolution_param {
    num_output: 128
    pad: 1
    kernel_size: 3
    stride: 1
    weight_filler {
      type: "xavier"
    }
  }
}
layer {
  name: "relu2_2"
  type: "ReLU"
  bottom: "conv2_2"
  top: "conv2_2"
}
layer {
  name: "pool2"
  type: "Pooling"
  bottom: "conv2_2"
  top: "pool2"
  pooling_param {
    pool: MAX
    kernel_size: 2
    stride: 2
  }
}
layer {
  name: "conv3_1"
  type: "Convolution"
  bottom: "pool2"
  top: "conv3_1"
  param {
    lr_mult: 1
    decay_mult: 1
  }
  param {
    lr_mult: 2
    decay_mult: 0
  }
  convolution_param {
    num_output: 256
    pad: 1
    kernel_size: 3
    stride: 1
    weight_filler {
      type: "xavier"
    }
  }
}
layer {
  name: "relu3_1"
  type: "ReLU"
  bottom: "conv3_1"
  top: "conv3_1"
}
layer {
  name: "conv3_2"
  type: "Convolution"
  bottom: "conv3_1"
  top: "conv3_2"
  param {
    lr_mult: 1
    decay_mult: 1
  }
  param {
    lr_mult: 2
    decay_mult: 0
  }
  convolution_param {
    num_output: 256
    pad: 1
    kernel_size: 3
    stride: 1
    weight_filler {
      type: "xavier"
    }
  }
}
layer {
  name: "relu3_2"
  type: "ReLU"
  bottom: "conv3_2"
  top: "conv3_2"
}
layer {
  name: "conv3_3"
  type: "Convolution"
  bottom: "conv3_2"
  top: "conv3_3"
  param {
    lr_mult: 1
    decay_mult: 1
  }
  param {
    lr_mult: 2
    decay_mult: 0
  }
  convolution_param {
    num_output: 256
    pad: 1
    kernel_size: 3
    stride: 1
    weight_filler {
      type: "xavier"
    }
  }
}
layer {
  name: "relu3_3"
  type: "ReLU"
  bottom: "conv3_3"
  top: "conv3_3"
}
layer {
  name: "pool3"
  type: "Pooling"
  bottom: "conv3_3"
  top: "pool3"
  pooling_param {
    pool: MAX
    kernel_size: 2
    stride: 2
  }
}
layer {
  name: "conv4_1"
  type: "Convolution"
  bottom: "pool3"
  top: "conv4_1"
  param {
    lr_mult: 1
    decay_mult: 1
  }
  param {
    lr_mult: 2
    decay_mult: 0
  }
  convolution_param {
    num_output: 512
    pad: 1
    kernel_size: 3
    stride: 1
    weight_filler {
      type: "xavier"
    }
  }
}
layer {
  name: "relu4_1"
  type: "ReLU"
  bottom: "conv4_1"
  top: "conv4_1"
}
layer {
  name: "conv4_2"
  type: "Convolution"
  bottom: "conv4_1"
  top: "conv4_2"
  param {
    lr_mult: 1
    decay_mult: 1
  }
  param {
    lr_mult: 2
    decay_mult: 0
  }
  convolution_param {
    num_output: 512
    pad: 1
    kernel_size: 3
    stride: 1
    weight_filler {
      type: "xavier"
    }
  }
}
layer {
  name: "relu4_2"
  type: "ReLU"
  bottom: "conv4_2"
  top: "conv4_2"
}
layer {
  name: "conv4_3"
  type: "Convolution"
  bottom: "conv4_2"
  top: "conv4_3"
  param {
    lr_mult: 1
    decay_mult: 1
  }
  param {
    lr_mult: 2
    decay_mult: 0
  }
  convolution_param {
    num_output: 512
    pad: 1
    kernel_size: 3
    stride: 1
    weight_filler {
      type: "xavier"
    }
  }
}
layer {
  name: "relu4_3"
  type: "ReLU"
  bottom: "conv4_3"
  top: "conv4_3"
}
layer {
  name: "pool4"
  type: "Pooling"
  bottom: "conv4_3"
  top: "pool4"
  pooling_param {
    pool: MAX
    kernel_size: 2
    stride: 2
  }
}
layer {
  name: "conv5_1"
  type: "Convolution"
  bottom: "pool4"
  top: "conv5_1"
  param {
    lr_mult: 1
    decay_mult: 1
  }
  param {
    lr_mult: 2
    decay_mult: 0
  }
  convolution_param {
    num_output: 512
    pad: 1
    kernel_size: 3
    stride: 1
    weight_filler {
      type: "xavier"
    }
  }
}
layer {
  name: "relu5_1"
  type: "ReLU"
  bottom: "conv5_1"
  top: "conv5_1"
}
layer {
  name: "conv5_2"
  type: "Convolution"
  bottom: "conv5_1"
  top: "conv5_2"
  param {
    lr_mult: 1
    decay_mult: 1
  }
  param {
    lr_mult: 2
    decay_mult: 0
  }
  convolution_param {
    num_output: 512
    pad: 1
    kernel_size: 3
    stride: 1
    weight_filler {
      type: "xavier"
    }
  }
}
layer {
  name: "relu5_2"
  type: "ReLU"
  bottom: "conv5_2"
  top: "conv5_2"
}
layer {
  name: "conv5_3"
  type: "Convolution"
  bottom: "conv5_2"
  top: "conv5_3"
  param {
    lr_mult: 1
    decay_mult: 1
  }
  param {
    lr_mult: 2
    decay_mult: 0
  }
  convolution_param {
    num_output: 512
    pad: 1
    kernel_size: 3
    stride: 1
    weight_filler {
      type: "xavier"
    }
  }
}
layer {
  name: "relu5_3"
  type: "ReLU"
  bottom: "conv5_3"
  top: "conv5_3"
}
layer {
  name: "pool5"
  type: "Pooling"
  bottom: "conv5_3"
  top: "pool5"
  pooling_param {
    pool: MAX
    kernel_size: 2
    stride: 2
  }
}
layer {
  name: "fc6"
  type: "Convolution"
  bottom: "pool5"
  top: "fc6"
  param {
    lr_mult: 1
    decay_mult: 1
  }
  param {
    lr_mult: 2
    decay_mult: 0
  }
  convolution_param {
    num_output: 4096
    pad: 0
    kernel_size: 7
    stride: 1
    weight_filler {
      type: "xavier"
    }
  }
}
layer {
  name: "relu6"
  type: "ReLU"
  bottom: "fc6"
  top: "fc6"
}
layer {
  name: "drop6"
  type: "Dropout"
  bottom: "fc6"
  top: "fc6"
  dropout_param {
    dropout_ratio: 0.5
  }
}
layer {
  name: "fc7"
  type: "Convolution"
  bottom: "fc6"
  top: "fc7"
  param {
    lr_mult: 1
    decay_mult: 1
  }
  param {
    lr_mult: 2
    decay_mult: 0
  }
  convolution_param {
    num_output: 4096
    pad: 0
    kernel_size: 1
    stride: 1
    weight_filler {
      type: "xavier"
    }
  }
}
layer {
  name: "relu7"
  type: "ReLU"
  bottom: "fc7"
  top: "fc7"
}
layer {
  name: "drop7"
  type: "Dropout"
  bottom: "fc7"
  top: "fc7"
  dropout_param {
    dropout_ratio: 0.5
  }
}
layer {
  name: "score_fr"
  type: "Convolution"
  bottom: "fc7"
  top: "score_fr"
  param {
    lr_mult: 1
    decay_mult: 1
  }
  param {
    lr_mult: 2
    decay_mult: 0
  }
  convolution_param {
    num_output: 16
    pad: 0
    kernel_size: 1
    weight_filler {
      type: "xavier"
    }
  }
}
layer {
  name: "upscore2"
  type: "Deconvolution"
  bottom: "score_fr"
  top: "upscore2"
  param {
    lr_mult: 0
  }
  convolution_param {
    num_output: 16
    bias_term: false
    kernel_size: 4
    stride: 2
    weight_filler {
      type: "xavier"
    }
  }
}
layer {
  name: "scale_pool4"
  type: "Scale"
  bottom: "pool4"
  top: "scale_pool4"
  param {
    lr_mult: 0
  }
  scale_param {
    filler {
      type: "constant"
      value: 0.01
    }
  }
}
layer {
  name: "score_pool4"
  type: "Convolution"
  bottom: "scale_pool4"
  top: "score_pool4"
  param {
    lr_mult: 1
    decay_mult: 1
  }
  param {
    lr_mult: 2
    decay_mult: 0
  }
  convolution_param {
    num_output: 16
    pad: 0
    kernel_size: 1
    weight_filler {
      type: "xavier"
    }
  }
}
layer {
  name: "score_pool4c"
  type: "Crop"
  bottom: "score_pool4"
  bottom: "upscore2"
  top: "score_pool4c"
  crop_param {
    axis: 2
    offset: 5
  }
}
layer {
  name: "fuse_pool4"
  type: "Eltwise"
  bottom: "upscore2"
  bottom: "score_pool4c"
  top: "fuse_pool4"
  eltwise_param {
    operation: SUM
  }
}
layer {
  name: "upscore_pool4"
  type: "Deconvolution"
  bottom: "fuse_pool4"
  top: "upscore_pool4"
  param {
    lr_mult: 0
  }
  convolution_param {
    num_output: 16
    bias_term: false
    kernel_size: 4
    stride: 2
    weight_filler {
      type: "xavier"
    }
  }
}
layer {
  name: "scale_pool3"
  type: "Scale"
  bottom: "pool3"
  top: "scale_pool3"
  param {
    lr_mult: 0
  }
  scale_param {
    filler {
      type: "constant"
      value: 0.0001
    }
  }
}
layer {
  name: "score_pool3"
  type: "Convolution"
  bottom: "scale_pool3"
  top: "score_pool3"
  param {
    lr_mult: 1
    decay_mult: 1
  }
  param {
    lr_mult: 2
    decay_mult: 0
  }
  convolution_param {
    num_output: 16
    pad: 0
    kernel_size: 1
    weight_filler {
      type: "xavier"
    }
  }
}
layer {
  name: "score_pool3c"
  type: "Crop"
  bottom: "score_pool3"
  bottom: "upscore_pool4"
  top: "score_pool3c"
  crop_param {
    axis: 2
    offset: 9
  }
}
layer {
  name: "fuse_pool3"
  type: "Eltwise"
  bottom: "upscore_pool4"
  bottom: "score_pool3c"
  top: "fuse_pool3"
  eltwise_param {
    operation: SUM
  }
}
layer {
  name: "upscore8"
  type: "Deconvolution"
  bottom: "fuse_pool3"
  top: "upscore8"
  param {
    lr_mult: 0
  }
  convolution_param {
    num_output: 16
    bias_term: false
    kernel_size: 16
    stride: 8
    weight_filler {
      type: "xavier"
    }
  }
}
layer {
  name: "score"
  type: "Crop"
  bottom: "upscore8"
  bottom: "data"
  top: "score"
  crop_param {
    axis: 2
    offset: 31
  }
}
layer {
  name: "loss"
  type: "SoftmaxWithLoss"
  bottom: "score"
  bottom: "label"
  top: "loss"
  loss_param {
    ignore_label: 255
    normalize: false
  }
}
I0202 03:06:38.089776 21597 layer_factory.hpp:77] Creating layer data
I0202 03:06:38.091120 21597 net.cpp:100] Creating Layer data
I0202 03:06:38.091135 21597 net.cpp:408] data -> data
I0202 03:06:38.091151 21597 net.cpp:408] data -> label
I0202 03:06:38.175982 21597 net.cpp:150] Setting up data
I0202 03:06:38.176028 21597 net.cpp:157] Top shape: 1 3 375 500 (562500)
I0202 03:06:38.176035 21597 net.cpp:157] Top shape: 1 1 375 500 (187500)
I0202 03:06:38.176039 21597 net.cpp:165] Memory required for data: 3000000
I0202 03:06:38.176048 21597 layer_factory.hpp:77] Creating layer data_data_0_split
I0202 03:06:38.176067 21597 net.cpp:100] Creating Layer data_data_0_split
I0202 03:06:38.176074 21597 net.cpp:434] data_data_0_split <- data
I0202 03:06:38.176082 21597 net.cpp:408] data_data_0_split -> data_data_0_split_0
I0202 03:06:38.176095 21597 net.cpp:408] data_data_0_split -> data_data_0_split_1
I0202 03:06:38.176133 21597 net.cpp:150] Setting up data_data_0_split
I0202 03:06:38.176141 21597 net.cpp:157] Top shape: 1 3 375 500 (562500)
I0202 03:06:38.176146 21597 net.cpp:157] Top shape: 1 3 375 500 (562500)
I0202 03:06:38.176151 21597 net.cpp:165] Memory required for data: 7500000
I0202 03:06:38.176154 21597 layer_factory.hpp:77] Creating layer conv1_1
I0202 03:06:38.176174 21597 net.cpp:100] Creating Layer conv1_1
I0202 03:06:38.176179 21597 net.cpp:434] conv1_1 <- data_data_0_split_0
I0202 03:06:38.176195 21597 net.cpp:408] conv1_1 -> conv1_1
I0202 03:06:38.513593 21597 net.cpp:150] Setting up conv1_1
I0202 03:06:38.513655 21597 net.cpp:157] Top shape: 1 64 573 698 (25597056)
I0202 03:06:38.513662 21597 net.cpp:165] Memory required for data: 109888224
I0202 03:06:38.513681 21597 layer_factory.hpp:77] Creating layer relu1_1
I0202 03:06:38.513695 21597 net.cpp:100] Creating Layer relu1_1
I0202 03:06:38.513701 21597 net.cpp:434] relu1_1 <- conv1_1
I0202 03:06:38.513708 21597 net.cpp:395] relu1_1 -> conv1_1 (in-place)
I0202 03:06:38.514657 21597 net.cpp:150] Setting up relu1_1
I0202 03:06:38.514672 21597 net.cpp:157] Top shape: 1 64 573 698 (25597056)
I0202 03:06:38.514677 21597 net.cpp:165] Memory required for data: 212276448
I0202 03:06:38.514681 21597 layer_factory.hpp:77] Creating layer conv1_2
I0202 03:06:38.514698 21597 net.cpp:100] Creating Layer conv1_2
I0202 03:06:38.514703 21597 net.cpp:434] conv1_2 <- conv1_1
I0202 03:06:38.514710 21597 net.cpp:408] conv1_2 -> conv1_2
I0202 03:06:38.520584 21597 net.cpp:150] Setting up conv1_2
I0202 03:06:38.520607 21597 net.cpp:157] Top shape: 1 64 573 698 (25597056)
I0202 03:06:38.520613 21597 net.cpp:165] Memory required for data: 314664672
I0202 03:06:38.520627 21597 layer_factory.hpp:77] Creating layer relu1_2
I0202 03:06:38.520635 21597 net.cpp:100] Creating Layer relu1_2
I0202 03:06:38.520642 21597 net.cpp:434] relu1_2 <- conv1_2
I0202 03:06:38.520648 21597 net.cpp:395] relu1_2 -> conv1_2 (in-place)
I0202 03:06:38.521009 21597 net.cpp:150] Setting up relu1_2
I0202 03:06:38.521023 21597 net.cpp:157] Top shape: 1 64 573 698 (25597056)
I0202 03:06:38.521028 21597 net.cpp:165] Memory required for data: 417052896
I0202 03:06:38.521033 21597 layer_factory.hpp:77] Creating layer pool1
I0202 03:06:38.521044 21597 net.cpp:100] Creating Layer pool1
I0202 03:06:38.521049 21597 net.cpp:434] pool1 <- conv1_2
I0202 03:06:38.521056 21597 net.cpp:408] pool1 -> pool1
I0202 03:06:38.521106 21597 net.cpp:150] Setting up pool1
I0202 03:06:38.521113 21597 net.cpp:157] Top shape: 1 64 287 349 (6410432)
I0202 03:06:38.521117 21597 net.cpp:165] Memory required for data: 442694624
I0202 03:06:38.521121 21597 layer_factory.hpp:77] Creating layer conv2_1
I0202 03:06:38.521133 21597 net.cpp:100] Creating Layer conv2_1
I0202 03:06:38.521137 21597 net.cpp:434] conv2_1 <- pool1
I0202 03:06:38.521145 21597 net.cpp:408] conv2_1 -> conv2_1
I0202 03:06:38.525790 21597 net.cpp:150] Setting up conv2_1
I0202 03:06:38.525807 21597 net.cpp:157] Top shape: 1 128 287 349 (12820864)
I0202 03:06:38.525812 21597 net.cpp:165] Memory required for data: 493978080
I0202 03:06:38.525825 21597 layer_factory.hpp:77] Creating layer relu2_1
I0202 03:06:38.525836 21597 net.cpp:100] Creating Layer relu2_1
I0202 03:06:38.525840 21597 net.cpp:434] relu2_1 <- conv2_1
I0202 03:06:38.525847 21597 net.cpp:395] relu2_1 -> conv2_1 (in-place)
I0202 03:06:38.526588 21597 net.cpp:150] Setting up relu2_1
I0202 03:06:38.526598 21597 net.cpp:157] Top shape: 1 128 287 349 (12820864)
I0202 03:06:38.526603 21597 net.cpp:165] Memory required for data: 545261536
I0202 03:06:38.526607 21597 layer_factory.hpp:77] Creating layer conv2_2
I0202 03:06:38.526619 21597 net.cpp:100] Creating Layer conv2_2
I0202 03:06:38.526623 21597 net.cpp:434] conv2_2 <- conv2_1
I0202 03:06:38.526631 21597 net.cpp:408] conv2_2 -> conv2_2
I0202 03:06:38.531467 21597 net.cpp:150] Setting up conv2_2
I0202 03:06:38.531488 21597 net.cpp:157] Top shape: 1 128 287 349 (12820864)
I0202 03:06:38.531493 21597 net.cpp:165] Memory required for data: 596544992
I0202 03:06:38.531502 21597 layer_factory.hpp:77] Creating layer relu2_2
I0202 03:06:38.531510 21597 net.cpp:100] Creating Layer relu2_2
I0202 03:06:38.531515 21597 net.cpp:434] relu2_2 <- conv2_2
I0202 03:06:38.531522 21597 net.cpp:395] relu2_2 -> conv2_2 (in-place)
I0202 03:06:38.533377 21597 net.cpp:150] Setting up relu2_2
I0202 03:06:38.533390 21597 net.cpp:157] Top shape: 1 128 287 349 (12820864)
I0202 03:06:38.533396 21597 net.cpp:165] Memory required for data: 647828448
I0202 03:06:38.533411 21597 layer_factory.hpp:77] Creating layer pool2
I0202 03:06:38.533422 21597 net.cpp:100] Creating Layer pool2
I0202 03:06:38.533427 21597 net.cpp:434] pool2 <- conv2_2
I0202 03:06:38.533437 21597 net.cpp:408] pool2 -> pool2
I0202 03:06:38.533485 21597 net.cpp:150] Setting up pool2
I0202 03:06:38.533493 21597 net.cpp:157] Top shape: 1 128 144 175 (3225600)
I0202 03:06:38.533498 21597 net.cpp:165] Memory required for data: 660730848
I0202 03:06:38.533501 21597 layer_factory.hpp:77] Creating layer conv3_1
I0202 03:06:38.533512 21597 net.cpp:100] Creating Layer conv3_1
I0202 03:06:38.533517 21597 net.cpp:434] conv3_1 <- pool2
I0202 03:06:38.533525 21597 net.cpp:408] conv3_1 -> conv3_1
I0202 03:06:38.539209 21597 net.cpp:150] Setting up conv3_1
I0202 03:06:38.539233 21597 net.cpp:157] Top shape: 1 256 144 175 (6451200)
I0202 03:06:38.539239 21597 net.cpp:165] Memory required for data: 686535648
I0202 03:06:38.539253 21597 layer_factory.hpp:77] Creating layer relu3_1
I0202 03:06:38.539261 21597 net.cpp:100] Creating Layer relu3_1
I0202 03:06:38.539266 21597 net.cpp:434] relu3_1 <- conv3_1
I0202 03:06:38.539274 21597 net.cpp:395] relu3_1 -> conv3_1 (in-place)
I0202 03:06:38.541154 21597 net.cpp:150] Setting up relu3_1
I0202 03:06:38.541169 21597 net.cpp:157] Top shape: 1 256 144 175 (6451200)
I0202 03:06:38.541173 21597 net.cpp:165] Memory required for data: 712340448
I0202 03:06:38.541178 21597 layer_factory.hpp:77] Creating layer conv3_2
I0202 03:06:38.541193 21597 net.cpp:100] Creating Layer conv3_2
I0202 03:06:38.541198 21597 net.cpp:434] conv3_2 <- conv3_1
I0202 03:06:38.541206 21597 net.cpp:408] conv3_2 -> conv3_2
I0202 03:06:38.548053 21597 net.cpp:150] Setting up conv3_2
I0202 03:06:38.548091 21597 net.cpp:157] Top shape: 1 256 144 175 (6451200)
I0202 03:06:38.548096 21597 net.cpp:165] Memory required for data: 738145248
I0202 03:06:38.548106 21597 layer_factory.hpp:77] Creating layer relu3_2
I0202 03:06:38.548120 21597 net.cpp:100] Creating Layer relu3_2
I0202 03:06:38.548126 21597 net.cpp:434] relu3_2 <- conv3_2
I0202 03:06:38.548133 21597 net.cpp:395] relu3_2 -> conv3_2 (in-place)
I0202 03:06:38.550025 21597 net.cpp:150] Setting up relu3_2
I0202 03:06:38.550040 21597 net.cpp:157] Top shape: 1 256 144 175 (6451200)
I0202 03:06:38.550043 21597 net.cpp:165] Memory required for data: 763950048
I0202 03:06:38.550048 21597 layer_factory.hpp:77] Creating layer conv3_3
I0202 03:06:38.550066 21597 net.cpp:100] Creating Layer conv3_3
I0202 03:06:38.550071 21597 net.cpp:434] conv3_3 <- conv3_2
I0202 03:06:38.550079 21597 net.cpp:408] conv3_3 -> conv3_3
I0202 03:06:38.557917 21597 net.cpp:150] Setting up conv3_3
I0202 03:06:38.557965 21597 net.cpp:157] Top shape: 1 256 144 175 (6451200)
I0202 03:06:38.557971 21597 net.cpp:165] Memory required for data: 789754848
I0202 03:06:38.557982 21597 layer_factory.hpp:77] Creating layer relu3_3
I0202 03:06:38.557996 21597 net.cpp:100] Creating Layer relu3_3
I0202 03:06:38.558001 21597 net.cpp:434] relu3_3 <- conv3_3
I0202 03:06:38.558009 21597 net.cpp:395] relu3_3 -> conv3_3 (in-place)
I0202 03:06:38.559135 21597 net.cpp:150] Setting up relu3_3
I0202 03:06:38.559159 21597 net.cpp:157] Top shape: 1 256 144 175 (6451200)
I0202 03:06:38.559162 21597 net.cpp:165] Memory required for data: 815559648
I0202 03:06:38.559168 21597 layer_factory.hpp:77] Creating layer pool3
I0202 03:06:38.559180 21597 net.cpp:100] Creating Layer pool3
I0202 03:06:38.559185 21597 net.cpp:434] pool3 <- conv3_3
I0202 03:06:38.559193 21597 net.cpp:408] pool3 -> pool3
I0202 03:06:38.559250 21597 net.cpp:150] Setting up pool3
I0202 03:06:38.559258 21597 net.cpp:157] Top shape: 1 256 72 88 (1622016)
I0202 03:06:38.559262 21597 net.cpp:165] Memory required for data: 822047712
I0202 03:06:38.559267 21597 layer_factory.hpp:77] Creating layer pool3_pool3_0_split
I0202 03:06:38.559275 21597 net.cpp:100] Creating Layer pool3_pool3_0_split
I0202 03:06:38.559279 21597 net.cpp:434] pool3_pool3_0_split <- pool3
I0202 03:06:38.559285 21597 net.cpp:408] pool3_pool3_0_split -> pool3_pool3_0_split_0
I0202 03:06:38.559303 21597 net.cpp:408] pool3_pool3_0_split -> pool3_pool3_0_split_1
I0202 03:06:38.559341 21597 net.cpp:150] Setting up pool3_pool3_0_split
I0202 03:06:38.559348 21597 net.cpp:157] Top shape: 1 256 72 88 (1622016)
I0202 03:06:38.559352 21597 net.cpp:157] Top shape: 1 256 72 88 (1622016)
I0202 03:06:38.559356 21597 net.cpp:165] Memory required for data: 835023840
I0202 03:06:38.559360 21597 layer_factory.hpp:77] Creating layer conv4_1
I0202 03:06:38.559375 21597 net.cpp:100] Creating Layer conv4_1
I0202 03:06:38.559379 21597 net.cpp:434] conv4_1 <- pool3_pool3_0_split_0
I0202 03:06:38.559387 21597 net.cpp:408] conv4_1 -> conv4_1
I0202 03:06:38.572346 21597 net.cpp:150] Setting up conv4_1
I0202 03:06:38.572392 21597 net.cpp:157] Top shape: 1 512 72 88 (3244032)
I0202 03:06:38.572397 21597 net.cpp:165] Memory required for data: 847999968
I0202 03:06:38.572409 21597 layer_factory.hpp:77] Creating layer relu4_1
I0202 03:06:38.572425 21597 net.cpp:100] Creating Layer relu4_1
I0202 03:06:38.572432 21597 net.cpp:434] relu4_1 <- conv4_1
I0202 03:06:38.572439 21597 net.cpp:395] relu4_1 -> conv4_1 (in-place)
I0202 03:06:38.573184 21597 net.cpp:150] Setting up relu4_1
I0202 03:06:38.573199 21597 net.cpp:157] Top shape: 1 512 72 88 (3244032)
I0202 03:06:38.573202 21597 net.cpp:165] Memory required for data: 860976096
I0202 03:06:38.573207 21597 layer_factory.hpp:77] Creating layer conv4_2
I0202 03:06:38.573223 21597 net.cpp:100] Creating Layer conv4_2
I0202 03:06:38.573228 21597 net.cpp:434] conv4_2 <- conv4_1
I0202 03:06:38.573237 21597 net.cpp:408] conv4_2 -> conv4_2
I0202 03:06:38.591094 21597 net.cpp:150] Setting up conv4_2
I0202 03:06:38.591156 21597 net.cpp:157] Top shape: 1 512 72 88 (3244032)
I0202 03:06:38.591161 21597 net.cpp:165] Memory required for data: 873952224
I0202 03:06:38.591181 21597 layer_factory.hpp:77] Creating layer relu4_2
I0202 03:06:38.591195 21597 net.cpp:100] Creating Layer relu4_2
I0202 03:06:38.591202 21597 net.cpp:434] relu4_2 <- conv4_2
I0202 03:06:38.591210 21597 net.cpp:395] relu4_2 -> conv4_2 (in-place)
I0202 03:06:38.591409 21597 net.cpp:150] Setting up relu4_2
I0202 03:06:38.591420 21597 net.cpp:157] Top shape: 1 512 72 88 (3244032)
I0202 03:06:38.591424 21597 net.cpp:165] Memory required for data: 886928352
I0202 03:06:38.591429 21597 layer_factory.hpp:77] Creating layer conv4_3
I0202 03:06:38.591444 21597 net.cpp:100] Creating Layer conv4_3
I0202 03:06:38.591449 21597 net.cpp:434] conv4_3 <- conv4_2
I0202 03:06:38.591457 21597 net.cpp:408] conv4_3 -> conv4_3
I0202 03:06:38.611950 21597 net.cpp:150] Setting up conv4_3
I0202 03:06:38.612004 21597 net.cpp:157] Top shape: 1 512 72 88 (3244032)
I0202 03:06:38.612010 21597 net.cpp:165] Memory required for data: 899904480
I0202 03:06:38.612021 21597 layer_factory.hpp:77] Creating layer relu4_3
I0202 03:06:38.612035 21597 net.cpp:100] Creating Layer relu4_3
I0202 03:06:38.612041 21597 net.cpp:434] relu4_3 <- conv4_3
I0202 03:06:38.612049 21597 net.cpp:395] relu4_3 -> conv4_3 (in-place)
I0202 03:06:38.612960 21597 net.cpp:150] Setting up relu4_3
I0202 03:06:38.612974 21597 net.cpp:157] Top shape: 1 512 72 88 (3244032)
I0202 03:06:38.612979 21597 net.cpp:165] Memory required for data: 912880608
I0202 03:06:38.612983 21597 layer_factory.hpp:77] Creating layer pool4
I0202 03:06:38.612994 21597 net.cpp:100] Creating Layer pool4
I0202 03:06:38.612999 21597 net.cpp:434] pool4 <- conv4_3
I0202 03:06:38.613005 21597 net.cpp:408] pool4 -> pool4
I0202 03:06:38.613059 21597 net.cpp:150] Setting up pool4
I0202 03:06:38.613066 21597 net.cpp:157] Top shape: 1 512 36 44 (811008)
I0202 03:06:38.613070 21597 net.cpp:165] Memory required for data: 916124640
I0202 03:06:38.613075 21597 layer_factory.hpp:77] Creating layer pool4_pool4_0_split
I0202 03:06:38.613081 21597 net.cpp:100] Creating Layer pool4_pool4_0_split
I0202 03:06:38.613085 21597 net.cpp:434] pool4_pool4_0_split <- pool4
I0202 03:06:38.613092 21597 net.cpp:408] pool4_pool4_0_split -> pool4_pool4_0_split_0
I0202 03:06:38.613100 21597 net.cpp:408] pool4_pool4_0_split -> pool4_pool4_0_split_1
I0202 03:06:38.613149 21597 net.cpp:150] Setting up pool4_pool4_0_split
I0202 03:06:38.613158 21597 net.cpp:157] Top shape: 1 512 36 44 (811008)
I0202 03:06:38.613164 21597 net.cpp:157] Top shape: 1 512 36 44 (811008)
I0202 03:06:38.613168 21597 net.cpp:165] Memory required for data: 922612704
I0202 03:06:38.613171 21597 layer_factory.hpp:77] Creating layer conv5_1
I0202 03:06:38.613183 21597 net.cpp:100] Creating Layer conv5_1
I0202 03:06:38.613188 21597 net.cpp:434] conv5_1 <- pool4_pool4_0_split_0
I0202 03:06:38.613195 21597 net.cpp:408] conv5_1 -> conv5_1
I0202 03:06:38.633559 21597 net.cpp:150] Setting up conv5_1
I0202 03:06:38.633602 21597 net.cpp:157] Top shape: 1 512 36 44 (811008)
I0202 03:06:38.633607 21597 net.cpp:165] Memory required for data: 925856736
I0202 03:06:38.633617 21597 layer_factory.hpp:77] Creating layer relu5_1
I0202 03:06:38.633630 21597 net.cpp:100] Creating Layer relu5_1
I0202 03:06:38.633635 21597 net.cpp:434] relu5_1 <- conv5_1
I0202 03:06:38.633652 21597 net.cpp:395] relu5_1 -> conv5_1 (in-place)
I0202 03:06:38.634413 21597 net.cpp:150] Setting up relu5_1
I0202 03:06:38.634426 21597 net.cpp:157] Top shape: 1 512 36 44 (811008)
I0202 03:06:38.634431 21597 net.cpp:165] Memory required for data: 929100768
I0202 03:06:38.634436 21597 layer_factory.hpp:77] Creating layer conv5_2
I0202 03:06:38.634450 21597 net.cpp:100] Creating Layer conv5_2
I0202 03:06:38.634456 21597 net.cpp:434] conv5_2 <- conv5_1
I0202 03:06:38.634464 21597 net.cpp:408] conv5_2 -> conv5_2
I0202 03:06:38.654419 21597 net.cpp:150] Setting up conv5_2
I0202 03:06:38.654464 21597 net.cpp:157] Top shape: 1 512 36 44 (811008)
I0202 03:06:38.654469 21597 net.cpp:165] Memory required for data: 932344800
I0202 03:06:38.654479 21597 layer_factory.hpp:77] Creating layer relu5_2
I0202 03:06:38.654491 21597 net.cpp:100] Creating Layer relu5_2
I0202 03:06:38.654497 21597 net.cpp:434] relu5_2 <- conv5_2
I0202 03:06:38.654506 21597 net.cpp:395] relu5_2 -> conv5_2 (in-place)
I0202 03:06:38.655410 21597 net.cpp:150] Setting up relu5_2
I0202 03:06:38.655421 21597 net.cpp:157] Top shape: 1 512 36 44 (811008)
I0202 03:06:38.655424 21597 net.cpp:165] Memory required for data: 935588832
I0202 03:06:38.655429 21597 layer_factory.hpp:77] Creating layer conv5_3
I0202 03:06:38.655450 21597 net.cpp:100] Creating Layer conv5_3
I0202 03:06:38.655455 21597 net.cpp:434] conv5_3 <- conv5_2
I0202 03:06:38.655462 21597 net.cpp:408] conv5_3 -> conv5_3
I0202 03:06:38.675606 21597 net.cpp:150] Setting up conv5_3
I0202 03:06:38.675648 21597 net.cpp:157] Top shape: 1 512 36 44 (811008)
I0202 03:06:38.675654 21597 net.cpp:165] Memory required for data: 938832864
I0202 03:06:38.675664 21597 layer_factory.hpp:77] Creating layer relu5_3
I0202 03:06:38.675676 21597 net.cpp:100] Creating Layer relu5_3
I0202 03:06:38.675683 21597 net.cpp:434] relu5_3 <- conv5_3
I0202 03:06:38.675690 21597 net.cpp:395] relu5_3 -> conv5_3 (in-place)
I0202 03:06:38.677121 21597 net.cpp:150] Setting up relu5_3
I0202 03:06:38.677135 21597 net.cpp:157] Top shape: 1 512 36 44 (811008)
I0202 03:06:38.677140 21597 net.cpp:165] Memory required for data: 942076896
I0202 03:06:38.677145 21597 layer_factory.hpp:77] Creating layer pool5
I0202 03:06:38.677153 21597 net.cpp:100] Creating Layer pool5
I0202 03:06:38.677158 21597 net.cpp:434] pool5 <- conv5_3
I0202 03:06:38.677165 21597 net.cpp:408] pool5 -> pool5
I0202 03:06:38.677219 21597 net.cpp:150] Setting up pool5
I0202 03:06:38.677227 21597 net.cpp:157] Top shape: 1 512 18 22 (202752)
I0202 03:06:38.677230 21597 net.cpp:165] Memory required for data: 942887904
I0202 03:06:38.677234 21597 layer_factory.hpp:77] Creating layer fc6
I0202 03:06:38.677248 21597 net.cpp:100] Creating Layer fc6
I0202 03:06:38.677253 21597 net.cpp:434] fc6 <- pool5
I0202 03:06:38.677260 21597 net.cpp:408] fc6 -> fc6
I0202 03:06:39.500464 21597 net.cpp:150] Setting up fc6
I0202 03:06:39.500520 21597 net.cpp:157] Top shape: 1 4096 12 16 (786432)
I0202 03:06:39.500526 21597 net.cpp:165] Memory required for data: 946033632
I0202 03:06:39.500536 21597 layer_factory.hpp:77] Creating layer relu6
I0202 03:06:39.500560 21597 net.cpp:100] Creating Layer relu6
I0202 03:06:39.500567 21597 net.cpp:434] relu6 <- fc6
I0202 03:06:39.500579 21597 net.cpp:395] relu6 -> fc6 (in-place)
I0202 03:06:39.501034 21597 net.cpp:150] Setting up relu6
I0202 03:06:39.501049 21597 net.cpp:157] Top shape: 1 4096 12 16 (786432)
I0202 03:06:39.501052 21597 net.cpp:165] Memory required for data: 949179360
I0202 03:06:39.501057 21597 layer_factory.hpp:77] Creating layer drop6
I0202 03:06:39.501070 21597 net.cpp:100] Creating Layer drop6
I0202 03:06:39.501075 21597 net.cpp:434] drop6 <- fc6
I0202 03:06:39.501082 21597 net.cpp:395] drop6 -> fc6 (in-place)
I0202 03:06:39.501121 21597 net.cpp:150] Setting up drop6
I0202 03:06:39.501128 21597 net.cpp:157] Top shape: 1 4096 12 16 (786432)
I0202 03:06:39.501132 21597 net.cpp:165] Memory required for data: 952325088
I0202 03:06:39.501137 21597 layer_factory.hpp:77] Creating layer fc7
I0202 03:06:39.501152 21597 net.cpp:100] Creating Layer fc7
I0202 03:06:39.501157 21597 net.cpp:434] fc7 <- fc6
I0202 03:06:39.501163 21597 net.cpp:408] fc7 -> fc7
I0202 03:06:39.670750 21597 net.cpp:150] Setting up fc7
I0202 03:06:39.670809 21597 net.cpp:157] Top shape: 1 4096 12 16 (786432)
I0202 03:06:39.670817 21597 net.cpp:165] Memory required for data: 955470816
I0202 03:06:39.670833 21597 layer_factory.hpp:77] Creating layer relu7
I0202 03:06:39.670853 21597 net.cpp:100] Creating Layer relu7
I0202 03:06:39.670863 21597 net.cpp:434] relu7 <- fc7
I0202 03:06:39.670874 21597 net.cpp:395] relu7 -> fc7 (in-place)
I0202 03:06:39.671161 21597 net.cpp:150] Setting up relu7
I0202 03:06:39.671177 21597 net.cpp:157] Top shape: 1 4096 12 16 (786432)
I0202 03:06:39.671185 21597 net.cpp:165] Memory required for data: 958616544
I0202 03:06:39.671191 21597 layer_factory.hpp:77] Creating layer drop7
I0202 03:06:39.671205 21597 net.cpp:100] Creating Layer drop7
I0202 03:06:39.671212 21597 net.cpp:434] drop7 <- fc7
I0202 03:06:39.671223 21597 net.cpp:395] drop7 -> fc7 (in-place)
I0202 03:06:39.671269 21597 net.cpp:150] Setting up drop7
I0202 03:06:39.671280 21597 net.cpp:157] Top shape: 1 4096 12 16 (786432)
I0202 03:06:39.671286 21597 net.cpp:165] Memory required for data: 961762272
I0202 03:06:39.671293 21597 layer_factory.hpp:77] Creating layer score_fr
I0202 03:06:39.671313 21597 net.cpp:100] Creating Layer score_fr
I0202 03:06:39.671319 21597 net.cpp:434] score_fr <- fc7
I0202 03:06:39.671332 21597 net.cpp:408] score_fr -> score_fr
I0202 03:06:39.673842 21597 net.cpp:150] Setting up score_fr
I0202 03:06:39.673867 21597 net.cpp:157] Top shape: 1 16 12 16 (3072)
I0202 03:06:39.673872 21597 net.cpp:165] Memory required for data: 961774560
I0202 03:06:39.673882 21597 layer_factory.hpp:77] Creating layer upscore2
I0202 03:06:39.673897 21597 net.cpp:100] Creating Layer upscore2
I0202 03:06:39.673903 21597 net.cpp:434] upscore2 <- score_fr
I0202 03:06:39.673913 21597 net.cpp:408] upscore2 -> upscore2
I0202 03:06:39.674155 21597 net.cpp:150] Setting up upscore2
I0202 03:06:39.674165 21597 net.cpp:157] Top shape: 1 16 26 34 (14144)
I0202 03:06:39.674168 21597 net.cpp:165] Memory required for data: 961831136
I0202 03:06:39.674183 21597 layer_factory.hpp:77] Creating layer upscore2_upscore2_0_split
I0202 03:06:39.674190 21597 net.cpp:100] Creating Layer upscore2_upscore2_0_split
I0202 03:06:39.674196 21597 net.cpp:434] upscore2_upscore2_0_split <- upscore2
I0202 03:06:39.674201 21597 net.cpp:408] upscore2_upscore2_0_split -> upscore2_upscore2_0_split_0
I0202 03:06:39.674209 21597 net.cpp:408] upscore2_upscore2_0_split -> upscore2_upscore2_0_split_1
I0202 03:06:39.674254 21597 net.cpp:150] Setting up upscore2_upscore2_0_split
I0202 03:06:39.674262 21597 net.cpp:157] Top shape: 1 16 26 34 (14144)
I0202 03:06:39.674266 21597 net.cpp:157] Top shape: 1 16 26 34 (14144)
I0202 03:06:39.674270 21597 net.cpp:165] Memory required for data: 961944288
I0202 03:06:39.674274 21597 layer_factory.hpp:77] Creating layer scale_pool4
I0202 03:06:39.674284 21597 net.cpp:100] Creating Layer scale_pool4
I0202 03:06:39.674289 21597 net.cpp:434] scale_pool4 <- pool4_pool4_0_split_1
I0202 03:06:39.674309 21597 net.cpp:408] scale_pool4 -> scale_pool4
I0202 03:06:39.674418 21597 net.cpp:150] Setting up scale_pool4
I0202 03:06:39.674427 21597 net.cpp:157] Top shape: 1 512 36 44 (811008)
I0202 03:06:39.674430 21597 net.cpp:165] Memory required for data: 965188320
I0202 03:06:39.674437 21597 layer_factory.hpp:77] Creating layer score_pool4
I0202 03:06:39.674448 21597 net.cpp:100] Creating Layer score_pool4
I0202 03:06:39.674453 21597 net.cpp:434] score_pool4 <- scale_pool4
I0202 03:06:39.674460 21597 net.cpp:408] score_pool4 -> score_pool4
I0202 03:06:39.675889 21597 net.cpp:150] Setting up score_pool4
I0202 03:06:39.675904 21597 net.cpp:157] Top shape: 1 16 36 44 (25344)
I0202 03:06:39.675909 21597 net.cpp:165] Memory required for data: 965289696
I0202 03:06:39.675916 21597 layer_factory.hpp:77] Creating layer score_pool4c
I0202 03:06:39.675930 21597 net.cpp:100] Creating Layer score_pool4c
I0202 03:06:39.675935 21597 net.cpp:434] score_pool4c <- score_pool4
I0202 03:06:39.675940 21597 net.cpp:434] score_pool4c <- upscore2_upscore2_0_split_0
I0202 03:06:39.675950 21597 net.cpp:408] score_pool4c -> score_pool4c
I0202 03:06:39.675984 21597 net.cpp:150] Setting up score_pool4c
I0202 03:06:39.675992 21597 net.cpp:157] Top shape: 1 16 26 34 (14144)
I0202 03:06:39.675997 21597 net.cpp:165] Memory required for data: 965346272
I0202 03:06:39.676000 21597 layer_factory.hpp:77] Creating layer fuse_pool4
I0202 03:06:39.676012 21597 net.cpp:100] Creating Layer fuse_pool4
I0202 03:06:39.676015 21597 net.cpp:434] fuse_pool4 <- upscore2_upscore2_0_split_1
I0202 03:06:39.676020 21597 net.cpp:434] fuse_pool4 <- score_pool4c
I0202 03:06:39.676026 21597 net.cpp:408] fuse_pool4 -> fuse_pool4
I0202 03:06:39.676057 21597 net.cpp:150] Setting up fuse_pool4
I0202 03:06:39.676064 21597 net.cpp:157] Top shape: 1 16 26 34 (14144)
I0202 03:06:39.676069 21597 net.cpp:165] Memory required for data: 965402848
I0202 03:06:39.676072 21597 layer_factory.hpp:77] Creating layer upscore_pool4
I0202 03:06:39.676081 21597 net.cpp:100] Creating Layer upscore_pool4
I0202 03:06:39.676086 21597 net.cpp:434] upscore_pool4 <- fuse_pool4
I0202 03:06:39.676093 21597 net.cpp:408] upscore_pool4 -> upscore_pool4
I0202 03:06:39.676329 21597 net.cpp:150] Setting up upscore_pool4
I0202 03:06:39.676337 21597 net.cpp:157] Top shape: 1 16 54 70 (60480)
I0202 03:06:39.676342 21597 net.cpp:165] Memory required for data: 965644768
I0202 03:06:39.676347 21597 layer_factory.hpp:77] Creating layer upscore_pool4_upscore_pool4_0_split
I0202 03:06:39.676353 21597 net.cpp:100] Creating Layer upscore_pool4_upscore_pool4_0_split
I0202 03:06:39.676357 21597 net.cpp:434] upscore_pool4_upscore_pool4_0_split <- upscore_pool4
I0202 03:06:39.676363 21597 net.cpp:408] upscore_pool4_upscore_pool4_0_split -> upscore_pool4_upscore_pool4_0_split_0
I0202 03:06:39.676370 21597 net.cpp:408] upscore_pool4_upscore_pool4_0_split -> upscore_pool4_upscore_pool4_0_split_1
I0202 03:06:39.676409 21597 net.cpp:150] Setting up upscore_pool4_upscore_pool4_0_split
I0202 03:06:39.676416 21597 net.cpp:157] Top shape: 1 16 54 70 (60480)
I0202 03:06:39.676421 21597 net.cpp:157] Top shape: 1 16 54 70 (60480)
I0202 03:06:39.676424 21597 net.cpp:165] Memory required for data: 966128608
I0202 03:06:39.676429 21597 layer_factory.hpp:77] Creating layer scale_pool3
I0202 03:06:39.676435 21597 net.cpp:100] Creating Layer scale_pool3
I0202 03:06:39.676440 21597 net.cpp:434] scale_pool3 <- pool3_pool3_0_split_1
I0202 03:06:39.676447 21597 net.cpp:408] scale_pool3 -> scale_pool3
I0202 03:06:39.676547 21597 net.cpp:150] Setting up scale_pool3
I0202 03:06:39.676553 21597 net.cpp:157] Top shape: 1 256 72 88 (1622016)
I0202 03:06:39.676558 21597 net.cpp:165] Memory required for data: 972616672
I0202 03:06:39.676563 21597 layer_factory.hpp:77] Creating layer score_pool3
I0202 03:06:39.676573 21597 net.cpp:100] Creating Layer score_pool3
I0202 03:06:39.676578 21597 net.cpp:434] score_pool3 <- scale_pool3
I0202 03:06:39.676584 21597 net.cpp:408] score_pool3 -> score_pool3
I0202 03:06:39.677964 21597 net.cpp:150] Setting up score_pool3
I0202 03:06:39.677987 21597 net.cpp:157] Top shape: 1 16 72 88 (101376)
I0202 03:06:39.677992 21597 net.cpp:165] Memory required for data: 973022176
I0202 03:06:39.678000 21597 layer_factory.hpp:77] Creating layer score_pool3c
I0202 03:06:39.678009 21597 net.cpp:100] Creating Layer score_pool3c
I0202 03:06:39.678014 21597 net.cpp:434] score_pool3c <- score_pool3
I0202 03:06:39.678019 21597 net.cpp:434] score_pool3c <- upscore_pool4_upscore_pool4_0_split_0
I0202 03:06:39.678027 21597 net.cpp:408] score_pool3c -> score_pool3c
I0202 03:06:39.678061 21597 net.cpp:150] Setting up score_pool3c
I0202 03:06:39.678068 21597 net.cpp:157] Top shape: 1 16 54 70 (60480)
I0202 03:06:39.678072 21597 net.cpp:165] Memory required for data: 973264096
I0202 03:06:39.678076 21597 layer_factory.hpp:77] Creating layer fuse_pool3
I0202 03:06:39.678082 21597 net.cpp:100] Creating Layer fuse_pool3
I0202 03:06:39.678086 21597 net.cpp:434] fuse_pool3 <- upscore_pool4_upscore_pool4_0_split_1
I0202 03:06:39.678092 21597 net.cpp:434] fuse_pool3 <- score_pool3c
I0202 03:06:39.678097 21597 net.cpp:408] fuse_pool3 -> fuse_pool3
I0202 03:06:39.678125 21597 net.cpp:150] Setting up fuse_pool3
I0202 03:06:39.678131 21597 net.cpp:157] Top shape: 1 16 54 70 (60480)
I0202 03:06:39.678135 21597 net.cpp:165] Memory required for data: 973506016
I0202 03:06:39.678139 21597 layer_factory.hpp:77] Creating layer upscore8
I0202 03:06:39.678148 21597 net.cpp:100] Creating Layer upscore8
I0202 03:06:39.678153 21597 net.cpp:434] upscore8 <- fuse_pool3
I0202 03:06:39.678160 21597 net.cpp:408] upscore8 -> upscore8
I0202 03:06:39.678714 21597 net.cpp:150] Setting up upscore8
I0202 03:06:39.678722 21597 net.cpp:157] Top shape: 1 16 440 568 (3998720)
I0202 03:06:39.678726 21597 net.cpp:165] Memory required for data: 989500896
I0202 03:06:39.678731 21597 layer_factory.hpp:77] Creating layer score
I0202 03:06:39.678740 21597 net.cpp:100] Creating Layer score
I0202 03:06:39.678745 21597 net.cpp:434] score <- upscore8
I0202 03:06:39.678750 21597 net.cpp:434] score <- data_data_0_split_1
I0202 03:06:39.678756 21597 net.cpp:408] score -> score
I0202 03:06:39.678782 21597 net.cpp:150] Setting up score
I0202 03:06:39.678789 21597 net.cpp:157] Top shape: 1 16 375 500 (3000000)
I0202 03:06:39.678792 21597 net.cpp:165] Memory required for data: 1001500896
I0202 03:06:39.678797 21597 layer_factory.hpp:77] Creating layer loss
I0202 03:06:39.678805 21597 net.cpp:100] Creating Layer loss
I0202 03:06:39.678809 21597 net.cpp:434] loss <- score
I0202 03:06:39.678815 21597 net.cpp:434] loss <- label
I0202 03:06:39.678824 21597 net.cpp:408] loss -> loss
I0202 03:06:39.678835 21597 layer_factory.hpp:77] Creating layer loss
…
I0202 03:06:39.687153 21597 net.cpp:283] Network initialization done.
I0202 03:06:39.689008 21597 solver.cpp:181] Creating test net (#0) specified by test_net file: val.prototxt
I0202 03:06:39.689635 21597 net.cpp:58] Initializing net from parameters: 
state {
  phase: TEST
}
layer {
  name: "data"
  type: "Python"
  top: "data"
  top: "label"
  python_param {
    module: "voc_layers"
    layer: "VOCSegDataLayer"
    param_str: "{\'voc_dir\': \'../data/pascal-obfuscated/VOC2011\', \'seed\': 1337, \'split\': \'seg11valid15\', \'mean\': (104.00699, 116.66877, 122.67892)}"
  }
}
layer {
  name: "conv1_1"
  type: "Convolution"
  bottom: "data"
  top: "conv1_1"
  param {
    lr_mult: 1
    decay_mult: 1
  }
  param {
    lr_mult: 2
    decay_mult: 0
  }
  convolution_param {
    num_output: 64
    pad: 100
    kernel_size: 3
    stride: 1
    weight_filler {
      type: "xavier"
    }
  }
}
layer {
  name: "relu1_1"
  type: "ReLU"
  bottom: "conv1_1"
  top: "conv1_1"
}
layer {
  name: "conv1_2"
  type: "Convolution"
  bottom: "conv1_1"
  top: "conv1_2"
  param {
    lr_mult: 1
    decay_mult: 1
  }
  param {
    lr_mult: 2
    decay_mult: 0
  }
  convolution_param {
    num_output: 64
    pad: 1
    kernel_size: 3
    stride: 1
    weight_filler {
      type: "xavier"
    }
  }
}
layer {
  name: "relu1_2"
  type: "ReLU"
  bottom: "conv1_2"
  top: "conv1_2"
}
layer {
  name: "pool1"
  type: "Pooling"
  bottom: "conv1_2"
  top: "pool1"
  pooling_param {
    pool: MAX
    kernel_size: 2
    stride: 2
  }
}
layer {
  name: "conv2_1"
  type: "Convolution"
  bottom: "pool1"
  top: "conv2_1"
  param {
    lr_mult: 1
    decay_mult: 1
  }
  param {
    lr_mult: 2
    decay_mult: 0
  }
  convolution_param {
    num_output: 128
    pad: 1
    kernel_size: 3
    stride: 1
    weight_filler {
      type: "xavier"
    }
  }
}
layer {
  name: "relu2_1"
  type: "ReLU"
  bottom: "conv2_1"
  top: "conv2_1"
}
layer {
  name: "conv2_2"
  type: "Convolution"
  bottom: "conv2_1"
  top: "conv2_2"
  param {
    lr_mult: 1
    decay_mult: 1
  }
  param {
    lr_mult: 2
    decay_mult: 0
  }
  convolution_param {
    num_output: 128
    pad: 1
    kernel_size: 3
    stride: 1
    weight_filler {
      type: "xavier"
    }
  }
}
layer {
  name: "relu2_2"
  type: "ReLU"
  bottom: "conv2_2"
  top: "conv2_2"
}
layer {
  name: "pool2"
  type: "Pooling"
  bottom: "conv2_2"
  top: "pool2"
  pooling_param {
    pool: MAX
    kernel_size: 2
    stride: 2
  }
}
layer {
  name: "conv3_1"
  type: "Convolution"
  bottom: "pool2"
  top: "conv3_1"
  param {
    lr_mult: 1
    decay_mult: 1
  }
  param {
    lr_mult: 2
    decay_mult: 0
  }
  convolution_param {
    num_output: 256
    pad: 1
    kernel_size: 3
    stride: 1
    weight_filler {
      type: "xavier"
    }
  }
}
layer {
  name: "relu3_1"
  type: "ReLU"
  bottom: "conv3_1"
  top: "conv3_1"
}
layer {
  name: "conv3_2"
  type: "Convolution"
  bottom: "conv3_1"
  top: "conv3_2"
  param {
    lr_mult: 1
    decay_mult: 1
  }
  param {
    lr_mult: 2
    decay_mult: 0
  }
  convolution_param {
    num_output: 256
    pad: 1
    kernel_size: 3
    stride: 1
    weight_filler {
      type: "xavier"
    }
  }
}
layer {
  name: "relu3_2"
  type: "ReLU"
  bottom: "conv3_2"
  top: "conv3_2"
}
layer {
  name: "conv3_3"
  type: "Convolution"
  bottom: "conv3_2"
  top: "conv3_3"
  param {
    lr_mult: 1
    decay_mult: 1
  }
  param {
    lr_mult: 2
    decay_mult: 0
  }
  convolution_param {
    num_output: 256
    pad: 1
    kernel_size: 3
    stride: 1
    weight_filler {
      type: "xavier"
    }
  }
}
layer {
  name: "relu3_3"
  type: "ReLU"
  bottom: "conv3_3"
  top: "conv3_3"
}
layer {
  name: "pool3"
  type: "Pooling"
  bottom: "conv3_3"
  top: "pool3"
  pooling_param {
    pool: MAX
    kernel_size: 2
    stride: 2
  }
}
layer {
  name: "conv4_1"
  type: "Convolution"
  bottom: "pool3"
  top: "conv4_1"
  param {
    lr_mult: 1
    decay_mult: 1
  }
  param {
    lr_mult: 2
    decay_mult: 0
  }
  convolution_param {
    num_output: 512
    pad: 1
    kernel_size: 3
    stride: 1
    weight_filler {
      type: "xavier"
    }
  }
}
layer {
  name: "relu4_1"
  type: "ReLU"
  bottom: "conv4_1"
  top: "conv4_1"
}
layer {
  name: "conv4_2"
  type: "Convolution"
  bottom: "conv4_1"
  top: "conv4_2"
  param {
    lr_mult: 1
    decay_mult: 1
  }
  param {
    lr_mult: 2
    decay_mult: 0
  }
  convolution_param {
    num_output: 512
    pad: 1
    kernel_size: 3
    stride: 1
    weight_filler {
      type: "xavier"
    }
  }
}
layer {
  name: "relu4_2"
  type: "ReLU"
  bottom: "conv4_2"
  top: "conv4_2"
}
layer {
  name: "conv4_3"
  type: "Convolution"
  bottom: "conv4_2"
  top: "conv4_3"
  param {
    lr_mult: 1
    decay_mult: 1
  }
  param {
    lr_mult: 2
    decay_mult: 0
  }
  convolution_param {
    num_output: 512
    pad: 1
    kernel_size: 3
    stride: 1
    weight_filler {
      type: "xavier"
    }
  }
}
layer {
  name: "relu4_3"
  type: "ReLU"
  bottom: "conv4_3"
  top: "conv4_3"
}
layer {
  name: "pool4"
  type: "Pooling"
  bottom: "conv4_3"
  top: "pool4"
  pooling_param {
    pool: MAX
    kernel_size: 2
    stride: 2
  }
}
layer {
  name: "conv5_1"
  type: "Convolution"
  bottom: "pool4"
  top: "conv5_1"
  param {
    lr_mult: 1
    decay_mult: 1
  }
  param {
    lr_mult: 2
    decay_mult: 0
  }
  convolution_param {
    num_output: 512
    pad: 1
    kernel_size: 3
    stride: 1
    weight_filler {
      type: "xavier"
    }
  }
}
layer {
  name: "relu5_1"
  type: "ReLU"
  bottom: "conv5_1"
  top: "conv5_1"
}
layer {
  name: "conv5_2"
  type: "Convolution"
  bottom: "conv5_1"
  top: "conv5_2"
  param {
    lr_mult: 1
    decay_mult: 1
  }
  param {
    lr_mult: 2
    decay_mult: 0
  }
  convolution_param {
    num_output: 512
    pad: 1
    kernel_size: 3
    stride: 1
    weight_filler {
      type: "xavier"
    }
  }
}
layer {
  name: "relu5_2"
  type: "ReLU"
  bottom: "conv5_2"
  top: "conv5_2"
}
layer {
  name: "conv5_3"
  type: "Convolution"
  bottom: "conv5_2"
  top: "conv5_3"
  param {
    lr_mult: 1
    decay_mult: 1
  }
  param {
    lr_mult: 2
    decay_mult: 0
  }
  convolution_param {
    num_output: 512
    pad: 1
    kernel_size: 3
    stride: 1
    weight_filler {
      type: "xavier"
    }
  }
}
layer {
  name: "relu5_3"
  type: "ReLU"
  bottom: "conv5_3"
  top: "conv5_3"
}
layer {
  name: "pool5"
  type: "Pooling"
  bottom: "conv5_3"
  top: "pool5"
  pooling_param {
    pool: MAX
    kernel_size: 2
    stride: 2
  }
}
layer {
  name: "fc6"
  type: "Convolution"
  bottom: "pool5"
  top: "fc6"
  param {
    lr_mult: 1
    decay_mult: 1
  }
  param {
    lr_mult: 2
    decay_mult: 0
  }
  convolution_param {
    num_output: 4096
    pad: 0
    kernel_size: 7
    stride: 1
    weight_filler {
      type: "xavier"
    }
  }
}
layer {
  name: "relu6"
  type: "ReLU"
  bottom: "fc6"
  top: "fc6"
}
layer {
  name: "drop6"
  type: "Dropout"
  bottom: "fc6"
  top: "fc6"
  dropout_param {
    dropout_ratio: 0.5
  }
}
layer {
  name: "fc7"
  type: "Convolution"
  bottom: "fc6"
  top: "fc7"
  param {
    lr_mult: 1
    decay_mult: 1
  }
  param {
    lr_mult: 2
    decay_mult: 0
  }
  convolution_param {
    num_output: 4096
    pad: 0
    kernel_size: 1
    stride: 1
    weight_filler {
      type: "xavier"
    }
  }
}
layer {
  name: "relu7"
  type: "ReLU"
  bottom: "fc7"
  top: "fc7"
}
layer {
  name: "drop7"
  type: "Dropout"
  bottom: "fc7"
  top: "fc7"
  dropout_param {
    dropout_ratio: 0.5
  }
}
layer {
  name: "score_fr"
  type: "Convolution"
  bottom: "fc7"
  top: "score_fr"
  param {
    lr_mult: 1
    decay_mult: 1
  }
  param {
    lr_mult: 2
    decay_mult: 0
  }
  convolution_param {
    num_output: 16
    pad: 0
    kernel_size: 1
    weight_filler {
      type: "xavier"
    }
  }
}
layer {
  name: "upscore2"
  type: "Deconvolution"
  bottom: "score_fr"
  top: "upscore2"
  param {
    lr_mult: 0
  }
  convolution_param {
    num_output: 16
    bias_term: false
    kernel_size: 4
    stride: 2
    weight_filler {
      type: "xavier"
    }
  }
}
layer {
  name: "scale_pool4"
  type: "Scale"
  bottom: "pool4"
  top: "scale_pool4"
  param {
    lr_mult: 0
  }
  scale_param {
    filler {
      type: "constant"
      value: 0.01
    }
  }
}
layer {
  name: "score_pool4"
  type: "Convolution"
  bottom: "scale_pool4"
  top: "score_pool4"
  param {
    lr_mult: 1
    decay_mult: 1
  }
  param {
    lr_mult: 2
    decay_mult: 0
  }
  convolution_param {
    num_output: 16
    pad: 0
    kernel_size: 1
    weight_filler {
      type: "xavier"
    }
  }
}
layer {
  name: "score_pool4c"
  type: "Crop"
  bottom: "score_pool4"
  bottom: "upscore2"
  top: "score_pool4c"
  crop_param {
    axis: 2
    offset: 5
  }
}
layer {
  name: "fuse_pool4"
  type: "Eltwise"
  bottom: "upscore2"
  bottom: "score_pool4c"
  top: "fuse_pool4"
  eltwise_param {
    operation: SUM
  }
}
layer {
  name: "upscore_pool4"
  type: "Deconvolution"
  bottom: "fuse_pool4"
  top: "upscore_pool4"
  param {
    lr_mult: 0
  }
  convolution_param {
    num_output: 16
    bias_term: false
    kernel_size: 4
    stride: 2
    weight_filler {
      type: "xavier"
    }
  }
}
layer {
  name: "scale_pool3"
  type: "Scale"
  bottom: "pool3"
  top: "scale_pool3"
  param {
    lr_mult: 0
  }
  scale_param {
    filler {
      type: "constant"
      value: 0.0001
    }
  }
}
layer {
  name: "score_pool3"
  type: "Convolution"
  bottom: "scale_pool3"
  top: "score_pool3"
  param {
    lr_mult: 1
    decay_mult: 1
  }
  param {
    lr_mult: 2
    decay_mult: 0
  }
  convolution_param {
    num_output: 16
    pad: 0
    kernel_size: 1
    weight_filler {
      type: "xavier"
    }
  }
}
layer {
  name: "score_pool3c"
  type: "Crop"
  bottom: "score_pool3"
  bottom: "upscore_pool4"
  top: "score_pool3c"
  crop_param {
    axis: 2
    offset: 9
  }
}
layer {
  name: "fuse_pool3"
  type: "Eltwise"
  bottom: "upscore_pool4"
  bottom: "score_pool3c"
  top: "fuse_pool3"
  eltwise_param {
    operation: SUM
  }
}
layer {
  name: "upscore8"
  type: "Deconvolution"
  bottom: "fuse_pool3"
  top: "upscore8"
  param {
    lr_mult: 0
  }
  convolution_param {
    num_output: 16
    bias_term: false
    kernel_size: 16
    stride: 8
    weight_filler {
      type: "xavier"
    }
  }
}
layer {
  name: "score"
  type: "Crop"
  bottom: "upscore8"
  bottom: "data"
  top: "score"
  crop_param {
    axis: 2
    offset: 31
  }
}
layer {
  name: "loss"
  type: "SoftmaxWithLoss"
  bottom: "score"
  bottom: "label"
  top: "loss"
  loss_param {
    ignore_label: 255
    normalize: false
  }
}
I0202 03:06:39.689877 21597 layer_factory.hpp:77] Creating layer data
I0202 03:06:39.690018 21597 net.cpp:100] Creating Layer data
I0202 03:06:39.690027 21597 net.cpp:408] data -> data
I0202 03:06:39.690037 21597 net.cpp:408] data -> label
I0202 03:06:39.701388 21597 net.cpp:150] Setting up data
I0202 03:06:39.701423 21597 net.cpp:157] Top shape: 1 3 366 500 (549000)
I0202 03:06:39.701431 21597 net.cpp:157] Top shape: 1 1 366 500 (183000)
I0202 03:06:39.701436 21597 net.cpp:165] Memory required for data: 2928000
I0202 03:06:39.701442 21597 layer_factory.hpp:77] Creating layer data_data_0_split
I0202 03:06:39.701454 21597 net.cpp:100] Creating Layer data_data_0_split
I0202 03:06:39.701460 21597 net.cpp:434] data_data_0_split <- data
I0202 03:06:39.701468 21597 net.cpp:408] data_data_0_split -> data_data_0_split_0
I0202 03:06:39.701479 21597 net.cpp:408] data_data_0_split -> data_data_0_split_1
I0202 03:06:39.701522 21597 net.cpp:150] Setting up data_data_0_split
I0202 03:06:39.701530 21597 net.cpp:157] Top shape: 1 3 366 500 (549000)
I0202 03:06:39.701535 21597 net.cpp:157] Top shape: 1 3 366 500 (549000)
I0202 03:06:39.701539 21597 net.cpp:165] Memory required for data: 7320000
I0202 03:06:39.701544 21597 layer_factory.hpp:77] Creating layer conv1_1
I0202 03:06:39.701557 21597 net.cpp:100] Creating Layer conv1_1
I0202 03:06:39.701561 21597 net.cpp:434] conv1_1 <- data_data_0_split_0
I0202 03:06:39.701567 21597 net.cpp:408] conv1_1 -> conv1_1
I0202 03:06:39.704011 21597 net.cpp:150] Setting up conv1_1
I0202 03:06:39.704030 21597 net.cpp:157] Top shape: 1 64 564 698 (25195008)
I0202 03:06:39.704035 21597 net.cpp:165] Memory required for data: 108100032
I0202 03:06:39.704047 21597 layer_factory.hpp:77] Creating layer relu1_1
I0202 03:06:39.704056 21597 net.cpp:100] Creating Layer relu1_1
I0202 03:06:39.704061 21597 net.cpp:434] relu1_1 <- conv1_1
I0202 03:06:39.704067 21597 net.cpp:395] relu1_1 -> conv1_1 (in-place)
I0202 03:06:39.704262 21597 net.cpp:150] Setting up relu1_1
I0202 03:06:39.704272 21597 net.cpp:157] Top shape: 1 64 564 698 (25195008)
I0202 03:06:39.704277 21597 net.cpp:165] Memory required for data: 208880064
I0202 03:06:39.704280 21597 layer_factory.hpp:77] Creating layer conv1_2
I0202 03:06:39.704291 21597 net.cpp:100] Creating Layer conv1_2
I0202 03:06:39.704295 21597 net.cpp:434] conv1_2 <- conv1_1
I0202 03:06:39.704313 21597 net.cpp:408] conv1_2 -> conv1_2
I0202 03:06:39.707303 21597 net.cpp:150] Setting up conv1_2
I0202 03:06:39.707320 21597 net.cpp:157] Top shape: 1 64 564 698 (25195008)
I0202 03:06:39.707324 21597 net.cpp:165] Memory required for data: 309660096
I0202 03:06:39.707335 21597 layer_factory.hpp:77] Creating layer relu1_2
I0202 03:06:39.707343 21597 net.cpp:100] Creating Layer relu1_2
I0202 03:06:39.707348 21597 net.cpp:434] relu1_2 <- conv1_2
I0202 03:06:39.707355 21597 net.cpp:395] relu1_2 -> conv1_2 (in-place)
I0202 03:06:39.707789 21597 net.cpp:150] Setting up relu1_2
I0202 03:06:39.707803 21597 net.cpp:157] Top shape: 1 64 564 698 (25195008)
I0202 03:06:39.707808 21597 net.cpp:165] Memory required for data: 410440128
I0202 03:06:39.707813 21597 layer_factory.hpp:77] Creating layer pool1
I0202 03:06:39.707821 21597 net.cpp:100] Creating Layer pool1
I0202 03:06:39.707825 21597 net.cpp:434] pool1 <- conv1_2
I0202 03:06:39.707833 21597 net.cpp:408] pool1 -> pool1
I0202 03:06:39.707886 21597 net.cpp:150] Setting up pool1
I0202 03:06:39.707893 21597 net.cpp:157] Top shape: 1 64 282 349 (6298752)
I0202 03:06:39.707897 21597 net.cpp:165] Memory required for data: 435635136
I0202 03:06:39.707901 21597 layer_factory.hpp:77] Creating layer conv2_1
I0202 03:06:39.707912 21597 net.cpp:100] Creating Layer conv2_1
I0202 03:06:39.707916 21597 net.cpp:434] conv2_1 <- pool1
I0202 03:06:39.707923 21597 net.cpp:408] conv2_1 -> conv2_1
I0202 03:06:39.710269 21597 net.cpp:150] Setting up conv2_1
I0202 03:06:39.710285 21597 net.cpp:157] Top shape: 1 128 282 349 (12597504)
I0202 03:06:39.710290 21597 net.cpp:165] Memory required for data: 486025152
I0202 03:06:39.710301 21597 layer_factory.hpp:77] Creating layer relu2_1
I0202 03:06:39.710311 21597 net.cpp:100] Creating Layer relu2_1
I0202 03:06:39.710316 21597 net.cpp:434] relu2_1 <- conv2_1
I0202 03:06:39.710322 21597 net.cpp:395] relu2_1 -> conv2_1 (in-place)
I0202 03:06:39.710778 21597 net.cpp:150] Setting up relu2_1
I0202 03:06:39.710791 21597 net.cpp:157] Top shape: 1 128 282 349 (12597504)
I0202 03:06:39.710796 21597 net.cpp:165] Memory required for data: 536415168
I0202 03:06:39.710801 21597 layer_factory.hpp:77] Creating layer conv2_2
I0202 03:06:39.710813 21597 net.cpp:100] Creating Layer conv2_2
I0202 03:06:39.710817 21597 net.cpp:434] conv2_2 <- conv2_1
I0202 03:06:39.710824 21597 net.cpp:408] conv2_2 -> conv2_2
I0202 03:06:39.713517 21597 net.cpp:150] Setting up conv2_2
I0202 03:06:39.713536 21597 net.cpp:157] Top shape: 1 128 282 349 (12597504)
I0202 03:06:39.713539 21597 net.cpp:165] Memory required for data: 586805184
I0202 03:06:39.713547 21597 layer_factory.hpp:77] Creating layer relu2_2
I0202 03:06:39.713556 21597 net.cpp:100] Creating Layer relu2_2
I0202 03:06:39.713560 21597 net.cpp:434] relu2_2 <- conv2_2
I0202 03:06:39.713567 21597 net.cpp:395] relu2_2 -> conv2_2 (in-place)
I0202 03:06:39.713827 21597 net.cpp:150] Setting up relu2_2
I0202 03:06:39.713845 21597 net.cpp:157] Top shape: 1 128 282 349 (12597504)
I0202 03:06:39.713851 21597 net.cpp:165] Memory required for data: 637195200
I0202 03:06:39.713858 21597 layer_factory.hpp:77] Creating layer pool2
I0202 03:06:39.713871 21597 net.cpp:100] Creating Layer pool2
I0202 03:06:39.713877 21597 net.cpp:434] pool2 <- conv2_2
I0202 03:06:39.713887 21597 net.cpp:408] pool2 -> pool2
I0202 03:06:39.713959 21597 net.cpp:150] Setting up pool2
I0202 03:06:39.713970 21597 net.cpp:157] Top shape: 1 128 141 175 (3158400)
I0202 03:06:39.713976 21597 net.cpp:165] Memory required for data: 649828800
I0202 03:06:39.713984 21597 layer_factory.hpp:77] Creating layer conv3_1
I0202 03:06:39.713999 21597 net.cpp:100] Creating Layer conv3_1
I0202 03:06:39.714005 21597 net.cpp:434] conv3_1 <- pool2
I0202 03:06:39.714016 21597 net.cpp:408] conv3_1 -> conv3_1
I0202 03:06:39.719347 21597 net.cpp:150] Setting up conv3_1
I0202 03:06:39.719373 21597 net.cpp:157] Top shape: 1 256 141 175 (6316800)
I0202 03:06:39.719382 21597 net.cpp:165] Memory required for data: 675096000
I0202 03:06:39.719399 21597 layer_factory.hpp:77] Creating layer relu3_1
I0202 03:06:39.719424 21597 net.cpp:100] Creating Layer relu3_1
I0202 03:06:39.719431 21597 net.cpp:434] relu3_1 <- conv3_1
I0202 03:06:39.719441 21597 net.cpp:395] relu3_1 -> conv3_1 (in-place)
I0202 03:06:39.720049 21597 net.cpp:150] Setting up relu3_1
I0202 03:06:39.720067 21597 net.cpp:157] Top shape: 1 256 141 175 (6316800)
I0202 03:06:39.720074 21597 net.cpp:165] Memory required for data: 700363200
I0202 03:06:39.720082 21597 layer_factory.hpp:77] Creating layer conv3_2
I0202 03:06:39.720098 21597 net.cpp:100] Creating Layer conv3_2
I0202 03:06:39.720105 21597 net.cpp:434] conv3_2 <- conv3_1
I0202 03:06:39.720116 21597 net.cpp:408] conv3_2 -> conv3_2
I0202 03:06:39.728811 21597 net.cpp:150] Setting up conv3_2
I0202 03:06:39.728852 21597 net.cpp:157] Top shape: 1 256 141 175 (6316800)
I0202 03:06:39.728858 21597 net.cpp:165] Memory required for data: 725630400
I0202 03:06:39.728873 21597 layer_factory.hpp:77] Creating layer relu3_2
I0202 03:06:39.728888 21597 net.cpp:100] Creating Layer relu3_2
I0202 03:06:39.728895 21597 net.cpp:434] relu3_2 <- conv3_2
I0202 03:06:39.728905 21597 net.cpp:395] relu3_2 -> conv3_2 (in-place)
I0202 03:06:39.729171 21597 net.cpp:150] Setting up relu3_2
I0202 03:06:39.729184 21597 net.cpp:157] Top shape: 1 256 141 175 (6316800)
I0202 03:06:39.729192 21597 net.cpp:165] Memory required for data: 750897600
I0202 03:06:39.729198 21597 layer_factory.hpp:77] Creating layer conv3_3
I0202 03:06:39.729218 21597 net.cpp:100] Creating Layer conv3_3
I0202 03:06:39.729225 21597 net.cpp:434] conv3_3 <- conv3_2
I0202 03:06:39.729238 21597 net.cpp:408] conv3_3 -> conv3_3
I0202 03:06:39.737893 21597 net.cpp:150] Setting up conv3_3
I0202 03:06:39.737920 21597 net.cpp:157] Top shape: 1 256 141 175 (6316800)
I0202 03:06:39.737924 21597 net.cpp:165] Memory required for data: 776164800
I0202 03:06:39.737934 21597 layer_factory.hpp:77] Creating layer relu3_3
I0202 03:06:39.737943 21597 net.cpp:100] Creating Layer relu3_3
I0202 03:06:39.737948 21597 net.cpp:434] relu3_3 <- conv3_3
I0202 03:06:39.737956 21597 net.cpp:395] relu3_3 -> conv3_3 (in-place)
I0202 03:06:39.738148 21597 net.cpp:150] Setting up relu3_3
I0202 03:06:39.738158 21597 net.cpp:157] Top shape: 1 256 141 175 (6316800)
I0202 03:06:39.738162 21597 net.cpp:165] Memory required for data: 801432000
I0202 03:06:39.738168 21597 layer_factory.hpp:77] Creating layer pool3
I0202 03:06:39.738176 21597 net.cpp:100] Creating Layer pool3
I0202 03:06:39.738181 21597 net.cpp:434] pool3 <- conv3_3
I0202 03:06:39.738188 21597 net.cpp:408] pool3 -> pool3
I0202 03:06:39.738241 21597 net.cpp:150] Setting up pool3
I0202 03:06:39.738250 21597 net.cpp:157] Top shape: 1 256 71 88 (1599488)
I0202 03:06:39.738253 21597 net.cpp:165] Memory required for data: 807829952
I0202 03:06:39.738257 21597 layer_factory.hpp:77] Creating layer pool3_pool3_0_split
I0202 03:06:39.738265 21597 net.cpp:100] Creating Layer pool3_pool3_0_split
I0202 03:06:39.738268 21597 net.cpp:434] pool3_pool3_0_split <- pool3
I0202 03:06:39.738275 21597 net.cpp:408] pool3_pool3_0_split -> pool3_pool3_0_split_0
I0202 03:06:39.738281 21597 net.cpp:408] pool3_pool3_0_split -> pool3_pool3_0_split_1
I0202 03:06:39.738323 21597 net.cpp:150] Setting up pool3_pool3_0_split
I0202 03:06:39.738330 21597 net.cpp:157] Top shape: 1 256 71 88 (1599488)
I0202 03:06:39.738335 21597 net.cpp:157] Top shape: 1 256 71 88 (1599488)
I0202 03:06:39.738338 21597 net.cpp:165] Memory required for data: 820625856
I0202 03:06:39.738343 21597 layer_factory.hpp:77] Creating layer conv4_1
I0202 03:06:39.738353 21597 net.cpp:100] Creating Layer conv4_1
I0202 03:06:39.738358 21597 net.cpp:434] conv4_1 <- pool3_pool3_0_split_0
I0202 03:06:39.738365 21597 net.cpp:408] conv4_1 -> conv4_1
I0202 03:06:39.747751 21597 net.cpp:150] Setting up conv4_1
I0202 03:06:39.747792 21597 net.cpp:157] Top shape: 1 512 71 88 (3198976)
I0202 03:06:39.747797 21597 net.cpp:165] Memory required for data: 833421760
I0202 03:06:39.747807 21597 layer_factory.hpp:77] Creating layer relu4_1
I0202 03:06:39.747819 21597 net.cpp:100] Creating Layer relu4_1
I0202 03:06:39.747836 21597 net.cpp:434] relu4_1 <- conv4_1
I0202 03:06:39.747843 21597 net.cpp:395] relu4_1 -> conv4_1 (in-place)
I0202 03:06:39.748294 21597 net.cpp:150] Setting up relu4_1
I0202 03:06:39.748308 21597 net.cpp:157] Top shape: 1 512 71 88 (3198976)
I0202 03:06:39.748313 21597 net.cpp:165] Memory required for data: 846217664
I0202 03:06:39.748317 21597 layer_factory.hpp:77] Creating layer conv4_2
I0202 03:06:39.748330 21597 net.cpp:100] Creating Layer conv4_2
I0202 03:06:39.748335 21597 net.cpp:434] conv4_2 <- conv4_1
I0202 03:06:39.748343 21597 net.cpp:408] conv4_2 -> conv4_2
I0202 03:06:39.776778 21597 net.cpp:150] Setting up conv4_2
I0202 03:06:39.776834 21597 net.cpp:157] Top shape: 1 512 71 88 (3198976)
I0202 03:06:39.776844 21597 net.cpp:165] Memory required for data: 859013568
I0202 03:06:39.776867 21597 layer_factory.hpp:77] Creating layer relu4_2
I0202 03:06:39.776886 21597 net.cpp:100] Creating Layer relu4_2
I0202 03:06:39.776896 21597 net.cpp:434] relu4_2 <- conv4_2
I0202 03:06:39.776909 21597 net.cpp:395] relu4_2 -> conv4_2 (in-place)
I0202 03:06:39.777206 21597 net.cpp:150] Setting up relu4_2
I0202 03:06:39.777221 21597 net.cpp:157] Top shape: 1 512 71 88 (3198976)
I0202 03:06:39.777228 21597 net.cpp:165] Memory required for data: 871809472
I0202 03:06:39.777235 21597 layer_factory.hpp:77] Creating layer conv4_3
I0202 03:06:39.777253 21597 net.cpp:100] Creating Layer conv4_3
I0202 03:06:39.777261 21597 net.cpp:434] conv4_3 <- conv4_2
I0202 03:06:39.777274 21597 net.cpp:408] conv4_3 -> conv4_3
I0202 03:06:39.797510 21597 net.cpp:150] Setting up conv4_3
I0202 03:06:39.797550 21597 net.cpp:157] Top shape: 1 512 71 88 (3198976)
I0202 03:06:39.797555 21597 net.cpp:165] Memory required for data: 884605376
I0202 03:06:39.797566 21597 layer_factory.hpp:77] Creating layer relu4_3
I0202 03:06:39.797580 21597 net.cpp:100] Creating Layer relu4_3
I0202 03:06:39.797587 21597 net.cpp:434] relu4_3 <- conv4_3
I0202 03:06:39.797595 21597 net.cpp:395] relu4_3 -> conv4_3 (in-place)
I0202 03:06:39.797830 21597 net.cpp:150] Setting up relu4_3
I0202 03:06:39.797843 21597 net.cpp:157] Top shape: 1 512 71 88 (3198976)
I0202 03:06:39.797847 21597 net.cpp:165] Memory required for data: 897401280
I0202 03:06:39.797852 21597 layer_factory.hpp:77] Creating layer pool4
I0202 03:06:39.797864 21597 net.cpp:100] Creating Layer pool4
I0202 03:06:39.797869 21597 net.cpp:434] pool4 <- conv4_3
I0202 03:06:39.797875 21597 net.cpp:408] pool4 -> pool4
I0202 03:06:39.797935 21597 net.cpp:150] Setting up pool4
I0202 03:06:39.797942 21597 net.cpp:157] Top shape: 1 512 36 44 (811008)
I0202 03:06:39.797946 21597 net.cpp:165] Memory required for data: 900645312
I0202 03:06:39.797950 21597 layer_factory.hpp:77] Creating layer pool4_pool4_0_split
I0202 03:06:39.797958 21597 net.cpp:100] Creating Layer pool4_pool4_0_split
I0202 03:06:39.797962 21597 net.cpp:434] pool4_pool4_0_split <- pool4
I0202 03:06:39.797969 21597 net.cpp:408] pool4_pool4_0_split -> pool4_pool4_0_split_0
I0202 03:06:39.797976 21597 net.cpp:408] pool4_pool4_0_split -> pool4_pool4_0_split_1
I0202 03:06:39.798022 21597 net.cpp:150] Setting up pool4_pool4_0_split
I0202 03:06:39.798029 21597 net.cpp:157] Top shape: 1 512 36 44 (811008)
I0202 03:06:39.798034 21597 net.cpp:157] Top shape: 1 512 36 44 (811008)
I0202 03:06:39.798038 21597 net.cpp:165] Memory required for data: 907133376
I0202 03:06:39.798041 21597 layer_factory.hpp:77] Creating layer conv5_1
I0202 03:06:39.798055 21597 net.cpp:100] Creating Layer conv5_1
I0202 03:06:39.798060 21597 net.cpp:434] conv5_1 <- pool4_pool4_0_split_0
I0202 03:06:39.798066 21597 net.cpp:408] conv5_1 -> conv5_1
I0202 03:06:39.817381 21597 net.cpp:150] Setting up conv5_1
I0202 03:06:39.817423 21597 net.cpp:157] Top shape: 1 512 36 44 (811008)
I0202 03:06:39.817428 21597 net.cpp:165] Memory required for data: 910377408
I0202 03:06:39.817437 21597 layer_factory.hpp:77] Creating layer relu5_1
I0202 03:06:39.817450 21597 net.cpp:100] Creating Layer relu5_1
I0202 03:06:39.817457 21597 net.cpp:434] relu5_1 <- conv5_1
I0202 03:06:39.817466 21597 net.cpp:395] relu5_1 -> conv5_1 (in-place)
I0202 03:06:39.817953 21597 net.cpp:150] Setting up relu5_1
I0202 03:06:39.817970 21597 net.cpp:157] Top shape: 1 512 36 44 (811008)
I0202 03:06:39.817975 21597 net.cpp:165] Memory required for data: 913621440
I0202 03:06:39.817980 21597 layer_factory.hpp:77] Creating layer conv5_2
I0202 03:06:39.817993 21597 net.cpp:100] Creating Layer conv5_2
I0202 03:06:39.817998 21597 net.cpp:434] conv5_2 <- conv5_1
I0202 03:06:39.818007 21597 net.cpp:408] conv5_2 -> conv5_2
I0202 03:06:39.835467 21597 net.cpp:150] Setting up conv5_2
I0202 03:06:39.835495 21597 net.cpp:157] Top shape: 1 512 36 44 (811008)
I0202 03:06:39.835500 21597 net.cpp:165] Memory required for data: 916865472
I0202 03:06:39.835510 21597 layer_factory.hpp:77] Creating layer relu5_2
I0202 03:06:39.835523 21597 net.cpp:100] Creating Layer relu5_2
I0202 03:06:39.835530 21597 net.cpp:434] relu5_2 <- conv5_2
I0202 03:06:39.835536 21597 net.cpp:395] relu5_2 -> conv5_2 (in-place)
I0202 03:06:39.835743 21597 net.cpp:150] Setting up relu5_2
I0202 03:06:39.835754 21597 net.cpp:157] Top shape: 1 512 36 44 (811008)
I0202 03:06:39.835758 21597 net.cpp:165] Memory required for data: 920109504
I0202 03:06:39.835763 21597 layer_factory.hpp:77] Creating layer conv5_3
I0202 03:06:39.835783 21597 net.cpp:100] Creating Layer conv5_3
I0202 03:06:39.835788 21597 net.cpp:434] conv5_3 <- conv5_2
I0202 03:06:39.835794 21597 net.cpp:408] conv5_3 -> conv5_3
I0202 03:06:39.853144 21597 net.cpp:150] Setting up conv5_3
I0202 03:06:39.853170 21597 net.cpp:157] Top shape: 1 512 36 44 (811008)
I0202 03:06:39.853175 21597 net.cpp:165] Memory required for data: 923353536
I0202 03:06:39.853185 21597 layer_factory.hpp:77] Creating layer relu5_3
I0202 03:06:39.853196 21597 net.cpp:100] Creating Layer relu5_3
I0202 03:06:39.853201 21597 net.cpp:434] relu5_3 <- conv5_3
I0202 03:06:39.853211 21597 net.cpp:395] relu5_3 -> conv5_3 (in-place)
I0202 03:06:39.853411 21597 net.cpp:150] Setting up relu5_3
I0202 03:06:39.853422 21597 net.cpp:157] Top shape: 1 512 36 44 (811008)
I0202 03:06:39.853426 21597 net.cpp:165] Memory required for data: 926597568
I0202 03:06:39.853431 21597 layer_factory.hpp:77] Creating layer pool5
I0202 03:06:39.853440 21597 net.cpp:100] Creating Layer pool5
I0202 03:06:39.853443 21597 net.cpp:434] pool5 <- conv5_3
I0202 03:06:39.853454 21597 net.cpp:408] pool5 -> pool5
I0202 03:06:39.853514 21597 net.cpp:150] Setting up pool5
I0202 03:06:39.853524 21597 net.cpp:157] Top shape: 1 512 18 22 (202752)
I0202 03:06:39.853528 21597 net.cpp:165] Memory required for data: 927408576
I0202 03:06:39.853533 21597 layer_factory.hpp:77] Creating layer fc6
I0202 03:06:39.853543 21597 net.cpp:100] Creating Layer fc6
I0202 03:06:39.853548 21597 net.cpp:434] fc6 <- pool5
I0202 03:06:39.853555 21597 net.cpp:408] fc6 -> fc6
I0202 03:06:40.603999 21597 net.cpp:150] Setting up fc6
I0202 03:06:40.604053 21597 net.cpp:157] Top shape: 1 4096 12 16 (786432)
I0202 03:06:40.604058 21597 net.cpp:165] Memory required for data: 930554304
I0202 03:06:40.604075 21597 layer_factory.hpp:77] Creating layer relu6
I0202 03:06:40.604094 21597 net.cpp:100] Creating Layer relu6
I0202 03:06:40.604102 21597 net.cpp:434] relu6 <- fc6
I0202 03:06:40.604112 21597 net.cpp:395] relu6 -> fc6 (in-place)
I0202 03:06:40.604776 21597 net.cpp:150] Setting up relu6
I0202 03:06:40.604790 21597 net.cpp:157] Top shape: 1 4096 12 16 (786432)
I0202 03:06:40.604795 21597 net.cpp:165] Memory required for data: 933700032
I0202 03:06:40.604800 21597 layer_factory.hpp:77] Creating layer drop6
I0202 03:06:40.604811 21597 net.cpp:100] Creating Layer drop6
I0202 03:06:40.604816 21597 net.cpp:434] drop6 <- fc6
I0202 03:06:40.604825 21597 net.cpp:395] drop6 -> fc6 (in-place)
I0202 03:06:40.604869 21597 net.cpp:150] Setting up drop6
I0202 03:06:40.604877 21597 net.cpp:157] Top shape: 1 4096 12 16 (786432)
I0202 03:06:40.604882 21597 net.cpp:165] Memory required for data: 936845760
I0202 03:06:40.604885 21597 layer_factory.hpp:77] Creating layer fc7
I0202 03:06:40.604905 21597 net.cpp:100] Creating Layer fc7
I0202 03:06:40.604920 21597 net.cpp:434] fc7 <- fc6
I0202 03:06:40.604928 21597 net.cpp:408] fc7 -> fc7
I0202 03:06:40.722975 21597 net.cpp:150] Setting up fc7
I0202 03:06:40.723018 21597 net.cpp:157] Top shape: 1 4096 12 16 (786432)
I0202 03:06:40.723024 21597 net.cpp:165] Memory required for data: 939991488
I0202 03:06:40.723036 21597 layer_factory.hpp:77] Creating layer relu7
I0202 03:06:40.723047 21597 net.cpp:100] Creating Layer relu7
I0202 03:06:40.723054 21597 net.cpp:434] relu7 <- fc7
I0202 03:06:40.723062 21597 net.cpp:395] relu7 -> fc7 (in-place)
I0202 03:06:40.724984 21597 net.cpp:150] Setting up relu7
I0202 03:06:40.724995 21597 net.cpp:157] Top shape: 1 4096 12 16 (786432)
I0202 03:06:40.724999 21597 net.cpp:165] Memory required for data: 943137216
I0202 03:06:40.725004 21597 layer_factory.hpp:77] Creating layer drop7
I0202 03:06:40.725013 21597 net.cpp:100] Creating Layer drop7
I0202 03:06:40.725018 21597 net.cpp:434] drop7 <- fc7
I0202 03:06:40.725023 21597 net.cpp:395] drop7 -> fc7 (in-place)
I0202 03:06:40.725066 21597 net.cpp:150] Setting up drop7
I0202 03:06:40.725073 21597 net.cpp:157] Top shape: 1 4096 12 16 (786432)
I0202 03:06:40.725077 21597 net.cpp:165] Memory required for data: 946282944
I0202 03:06:40.725081 21597 layer_factory.hpp:77] Creating layer score_fr
I0202 03:06:40.725095 21597 net.cpp:100] Creating Layer score_fr
I0202 03:06:40.725100 21597 net.cpp:434] score_fr <- fc7
I0202 03:06:40.725109 21597 net.cpp:408] score_fr -> score_fr
I0202 03:06:40.730545 21597 net.cpp:150] Setting up score_fr
I0202 03:06:40.730561 21597 net.cpp:157] Top shape: 1 16 12 16 (3072)
I0202 03:06:40.730566 21597 net.cpp:165] Memory required for data: 946295232
I0202 03:06:40.730581 21597 layer_factory.hpp:77] Creating layer upscore2
I0202 03:06:40.730593 21597 net.cpp:100] Creating Layer upscore2
I0202 03:06:40.730598 21597 net.cpp:434] upscore2 <- score_fr
I0202 03:06:40.730607 21597 net.cpp:408] upscore2 -> upscore2
I0202 03:06:40.730892 21597 net.cpp:150] Setting up upscore2
I0202 03:06:40.730902 21597 net.cpp:157] Top shape: 1 16 26 34 (14144)
I0202 03:06:40.730906 21597 net.cpp:165] Memory required for data: 946351808
I0202 03:06:40.730926 21597 layer_factory.hpp:77] Creating layer upscore2_upscore2_0_split
I0202 03:06:40.730933 21597 net.cpp:100] Creating Layer upscore2_upscore2_0_split
I0202 03:06:40.730937 21597 net.cpp:434] upscore2_upscore2_0_split <- upscore2
I0202 03:06:40.730944 21597 net.cpp:408] upscore2_upscore2_0_split -> upscore2_upscore2_0_split_0
I0202 03:06:40.730952 21597 net.cpp:408] upscore2_upscore2_0_split -> upscore2_upscore2_0_split_1
I0202 03:06:40.730998 21597 net.cpp:150] Setting up upscore2_upscore2_0_split
I0202 03:06:40.731006 21597 net.cpp:157] Top shape: 1 16 26 34 (14144)
I0202 03:06:40.731011 21597 net.cpp:157] Top shape: 1 16 26 34 (14144)
I0202 03:06:40.731015 21597 net.cpp:165] Memory required for data: 946464960
I0202 03:06:40.731019 21597 layer_factory.hpp:77] Creating layer scale_pool4
I0202 03:06:40.731027 21597 net.cpp:100] Creating Layer scale_pool4
I0202 03:06:40.731032 21597 net.cpp:434] scale_pool4 <- pool4_pool4_0_split_1
I0202 03:06:40.731040 21597 net.cpp:408] scale_pool4 -> scale_pool4
I0202 03:06:40.731173 21597 net.cpp:150] Setting up scale_pool4
I0202 03:06:40.731181 21597 net.cpp:157] Top shape: 1 512 36 44 (811008)
I0202 03:06:40.731185 21597 net.cpp:165] Memory required for data: 949708992
I0202 03:06:40.731191 21597 layer_factory.hpp:77] Creating layer score_pool4
I0202 03:06:40.731202 21597 net.cpp:100] Creating Layer score_pool4
I0202 03:06:40.731206 21597 net.cpp:434] score_pool4 <- scale_pool4
I0202 03:06:40.731215 21597 net.cpp:408] score_pool4 -> score_pool4
I0202 03:06:40.735373 21597 net.cpp:150] Setting up score_pool4
I0202 03:06:40.735388 21597 net.cpp:157] Top shape: 1 16 36 44 (25344)
I0202 03:06:40.735394 21597 net.cpp:165] Memory required for data: 949810368
I0202 03:06:40.735402 21597 layer_factory.hpp:77] Creating layer score_pool4c
I0202 03:06:40.735411 21597 net.cpp:100] Creating Layer score_pool4c
I0202 03:06:40.735416 21597 net.cpp:434] score_pool4c <- score_pool4
I0202 03:06:40.735433 21597 net.cpp:434] score_pool4c <- upscore2_upscore2_0_split_0
I0202 03:06:40.735440 21597 net.cpp:408] score_pool4c -> score_pool4c
I0202 03:06:40.735477 21597 net.cpp:150] Setting up score_pool4c
I0202 03:06:40.735484 21597 net.cpp:157] Top shape: 1 16 26 34 (14144)
I0202 03:06:40.735488 21597 net.cpp:165] Memory required for data: 949866944
I0202 03:06:40.735492 21597 layer_factory.hpp:77] Creating layer fuse_pool4
I0202 03:06:40.735503 21597 net.cpp:100] Creating Layer fuse_pool4
I0202 03:06:40.735507 21597 net.cpp:434] fuse_pool4 <- upscore2_upscore2_0_split_1
I0202 03:06:40.735512 21597 net.cpp:434] fuse_pool4 <- score_pool4c
I0202 03:06:40.735519 21597 net.cpp:408] fuse_pool4 -> fuse_pool4
I0202 03:06:40.735550 21597 net.cpp:150] Setting up fuse_pool4
I0202 03:06:40.735558 21597 net.cpp:157] Top shape: 1 16 26 34 (14144)
I0202 03:06:40.735560 21597 net.cpp:165] Memory required for data: 949923520
I0202 03:06:40.735564 21597 layer_factory.hpp:77] Creating layer upscore_pool4
I0202 03:06:40.735576 21597 net.cpp:100] Creating Layer upscore_pool4
I0202 03:06:40.735581 21597 net.cpp:434] upscore_pool4 <- fuse_pool4
I0202 03:06:40.735589 21597 net.cpp:408] upscore_pool4 -> upscore_pool4
I0202 03:06:40.735864 21597 net.cpp:150] Setting up upscore_pool4
I0202 03:06:40.735873 21597 net.cpp:157] Top shape: 1 16 54 70 (60480)
I0202 03:06:40.735877 21597 net.cpp:165] Memory required for data: 950165440
I0202 03:06:40.735882 21597 layer_factory.hpp:77] Creating layer upscore_pool4_upscore_pool4_0_split
I0202 03:06:40.735889 21597 net.cpp:100] Creating Layer upscore_pool4_upscore_pool4_0_split
I0202 03:06:40.735893 21597 net.cpp:434] upscore_pool4_upscore_pool4_0_split <- upscore_pool4
I0202 03:06:40.735899 21597 net.cpp:408] upscore_pool4_upscore_pool4_0_split -> upscore_pool4_upscore_pool4_0_split_0
I0202 03:06:40.735905 21597 net.cpp:408] upscore_pool4_upscore_pool4_0_split -> upscore_pool4_upscore_pool4_0_split_1
I0202 03:06:40.735950 21597 net.cpp:150] Setting up upscore_pool4_upscore_pool4_0_split
I0202 03:06:40.735957 21597 net.cpp:157] Top shape: 1 16 54 70 (60480)
I0202 03:06:40.735962 21597 net.cpp:157] Top shape: 1 16 54 70 (60480)
I0202 03:06:40.735966 21597 net.cpp:165] Memory required for data: 950649280
I0202 03:06:40.735970 21597 layer_factory.hpp:77] Creating layer scale_pool3
I0202 03:06:40.735980 21597 net.cpp:100] Creating Layer scale_pool3
I0202 03:06:40.735983 21597 net.cpp:434] scale_pool3 <- pool3_pool3_0_split_1
I0202 03:06:40.735990 21597 net.cpp:408] scale_pool3 -> scale_pool3
I0202 03:06:40.736107 21597 net.cpp:150] Setting up scale_pool3
I0202 03:06:40.736115 21597 net.cpp:157] Top shape: 1 256 71 88 (1599488)
I0202 03:06:40.736119 21597 net.cpp:165] Memory required for data: 957047232
I0202 03:06:40.736124 21597 layer_factory.hpp:77] Creating layer score_pool3
I0202 03:06:40.736135 21597 net.cpp:100] Creating Layer score_pool3
I0202 03:06:40.736140 21597 net.cpp:434] score_pool3 <- scale_pool3
I0202 03:06:40.736147 21597 net.cpp:408] score_pool3 -> score_pool3
I0202 03:06:40.740322 21597 net.cpp:150] Setting up score_pool3
I0202 03:06:40.740339 21597 net.cpp:157] Top shape: 1 16 71 88 (99968)
I0202 03:06:40.740344 21597 net.cpp:165] Memory required for data: 957447104
I0202 03:06:40.740351 21597 layer_factory.hpp:77] Creating layer score_pool3c
I0202 03:06:40.740360 21597 net.cpp:100] Creating Layer score_pool3c
I0202 03:06:40.740365 21597 net.cpp:434] score_pool3c <- score_pool3
I0202 03:06:40.740370 21597 net.cpp:434] score_pool3c <- upscore_pool4_upscore_pool4_0_split_0
I0202 03:06:40.740378 21597 net.cpp:408] score_pool3c -> score_pool3c
I0202 03:06:40.740417 21597 net.cpp:150] Setting up score_pool3c
I0202 03:06:40.740424 21597 net.cpp:157] Top shape: 1 16 54 70 (60480)
I0202 03:06:40.740428 21597 net.cpp:165] Memory required for data: 957689024
I0202 03:06:40.740432 21597 layer_factory.hpp:77] Creating layer fuse_pool3
I0202 03:06:40.740440 21597 net.cpp:100] Creating Layer fuse_pool3
I0202 03:06:40.740444 21597 net.cpp:434] fuse_pool3 <- upscore_pool4_upscore_pool4_0_split_1
I0202 03:06:40.740458 21597 net.cpp:434] fuse_pool3 <- score_pool3c
I0202 03:06:40.740463 21597 net.cpp:408] fuse_pool3 -> fuse_pool3
I0202 03:06:40.740497 21597 net.cpp:150] Setting up fuse_pool3
I0202 03:06:40.740504 21597 net.cpp:157] Top shape: 1 16 54 70 (60480)
I0202 03:06:40.740507 21597 net.cpp:165] Memory required for data: 957930944
I0202 03:06:40.740511 21597 layer_factory.hpp:77] Creating layer upscore8
I0202 03:06:40.740522 21597 net.cpp:100] Creating Layer upscore8
I0202 03:06:40.740526 21597 net.cpp:434] upscore8 <- fuse_pool3
I0202 03:06:40.740535 21597 net.cpp:408] upscore8 -> upscore8
I0202 03:06:40.741122 21597 net.cpp:150] Setting up upscore8
I0202 03:06:40.741130 21597 net.cpp:157] Top shape: 1 16 440 568 (3998720)
I0202 03:06:40.741134 21597 net.cpp:165] Memory required for data: 973925824
I0202 03:06:40.741140 21597 layer_factory.hpp:77] Creating layer score
I0202 03:06:40.741150 21597 net.cpp:100] Creating Layer score
I0202 03:06:40.741154 21597 net.cpp:434] score <- upscore8
I0202 03:06:40.741159 21597 net.cpp:434] score <- data_data_0_split_1
I0202 03:06:40.741165 21597 net.cpp:408] score -> score
I0202 03:06:40.741195 21597 net.cpp:150] Setting up score
I0202 03:06:40.741202 21597 net.cpp:157] Top shape: 1 16 366 500 (2928000)
I0202 03:06:40.741206 21597 net.cpp:165] Memory required for data: 985637824
I0202 03:06:40.741210 21597 layer_factory.hpp:77] Creating layer loss
I0202 03:06:40.741217 21597 net.cpp:100] Creating Layer loss
I0202 03:06:40.741221 21597 net.cpp:434] loss <- score
I0202 03:06:40.741226 21597 net.cpp:434] loss <- label
I0202 03:06:40.741233 21597 net.cpp:408] loss -> loss
I0202 03:06:40.741243 21597 layer_factory.hpp:77] Creating layer loss
…
