…
test_initialization: false
average_loss: 20
iter_size: 1
I1124 11:24:47.797592 19567 solver.cpp:81] Creating training net from train_net file: train.prototxt
I1124 11:24:47.798902 19567 net.cpp:58] Initializing net from parameters: 
state {
  phase: TRAIN
}
layer {
  name: "data"
  type: "Python"
  top: "data"
  top: "label"
  python_param {
    module: "voc_layers"
    layer: "PartialSBDDSegDataLayer"
    param_str: "{\'sbdd_dir\': \'../data/sbdd/dataset\', \'seed\': 1337, \'split\': \'train5\', \'mean\': (104.00699, 116.66877, 122.67892)}"
  }
}
layer {
  name: "conv1_1"
  type: "Convolution"
  bottom: "data"
  top: "conv1_1"
  param {
    lr_mult: 1
    decay_mult: 1
  }
  param {
    lr_mult: 2
    decay_mult: 0
  }
  convolution_param {
    num_output: 64
    pad: 100
    kernel_size: 3
    stride: 1
    weight_filler {
      type: "xavier"
    }
  }
}
layer {
  name: "relu1_1"
  type: "ReLU"
  bottom: "conv1_1"
  top: "conv1_1"
}
layer {
  name: "conv1_2"
  type: "Convolution"
  bottom: "conv1_1"
  top: "conv1_2"
  param {
    lr_mult: 1
    decay_mult: 1
  }
  param {
    lr_mult: 2
    decay_mult: 0
  }
  convolution_param {
    num_output: 64
    pad: 1
    kernel_size: 3
    stride: 1
    weight_filler {
      type: "xavier"
    }
  }
}
layer {
  name: "relu1_2"
  type: "ReLU"
  bottom: "conv1_2"
  top: "conv1_2"
}
layer {
  name: "pool1"
  type: "Pooling"
  bottom: "conv1_2"
  top: "pool1"
  pooling_param {
    pool: MAX
    kernel_size: 2
    stride: 2
  }
}
layer {
  name: "conv2_1"
  type: "Convolution"
  bottom: "pool1"
  top: "conv2_1"
  param {
    lr_mult: 1
    decay_mult: 1
  }
  param {
    lr_mult: 2
    decay_mult: 0
  }
  convolution_param {
    num_output: 128
    pad: 1
    kernel_size: 3
    stride: 1
    weight_filler {
      type: "xavier"
    }
  }
}
layer {
  name: "relu2_1"
  type: "ReLU"
  bottom: "conv2_1"
  top: "conv2_1"
}
layer {
  name: "conv2_2"
  type: "Convolution"
  bottom: "conv2_1"
  top: "conv2_2"
  param {
    lr_mult: 1
    decay_mult: 1
  }
  param {
    lr_mult: 2
    decay_mult: 0
  }
  convolution_param {
    num_output: 128
    pad: 1
    kernel_size: 3
    stride: 1
    weight_filler {
      type: "xavier"
    }
  }
}
layer {
  name: "relu2_2"
  type: "ReLU"
  bottom: "conv2_2"
  top: "conv2_2"
}
layer {
  name: "pool2"
  type: "Pooling"
  bottom: "conv2_2"
  top: "pool2"
  pooling_param {
    pool: MAX
    kernel_size: 2
    stride: 2
  }
}
layer {
  name: "conv3_1"
  type: "Convolution"
  bottom: "pool2"
  top: "conv3_1"
  param {
    lr_mult: 1
    decay_mult: 1
  }
  param {
    lr_mult: 2
    decay_mult: 0
  }
  convolution_param {
    num_output: 256
    pad: 1
    kernel_size: 3
    stride: 1
    weight_filler {
      type: "xavier"
    }
  }
}
layer {
  name: "relu3_1"
  type: "ReLU"
  bottom: "conv3_1"
  top: "conv3_1"
}
layer {
  name: "conv3_2"
  type: "Convolution"
  bottom: "conv3_1"
  top: "conv3_2"
  param {
    lr_mult: 1
    decay_mult: 1
  }
  param {
    lr_mult: 2
    decay_mult: 0
  }
  convolution_param {
    num_output: 256
    pad: 1
    kernel_size: 3
    stride: 1
    weight_filler {
      type: "xavier"
    }
  }
}
layer {
  name: "relu3_2"
  type: "ReLU"
  bottom: "conv3_2"
  top: "conv3_2"
}
layer {
  name: "conv3_3"
  type: "Convolution"
  bottom: "conv3_2"
  top: "conv3_3"
  param {
    lr_mult: 1
    decay_mult: 1
  }
  param {
    lr_mult: 2
    decay_mult: 0
  }
  convolution_param {
    num_output: 256
    pad: 1
    kernel_size: 3
    stride: 1
    weight_filler {
      type: "xavier"
    }
  }
}
layer {
  name: "relu3_3"
  type: "ReLU"
  bottom: "conv3_3"
  top: "conv3_3"
}
layer {
  name: "pool3"
  type: "Pooling"
  bottom: "conv3_3"
  top: "pool3"
  pooling_param {
    pool: MAX
    kernel_size: 2
    stride: 2
  }
}
layer {
  name: "conv4_1"
  type: "Convolution"
  bottom: "pool3"
  top: "conv4_1"
  param {
    lr_mult: 1
    decay_mult: 1
  }
  param {
    lr_mult: 2
    decay_mult: 0
  }
  convolution_param {
    num_output: 512
    pad: 1
    kernel_size: 3
    stride: 1
    weight_filler {
      type: "xavier"
    }
  }
}
layer {
  name: "relu4_1"
  type: "ReLU"
  bottom: "conv4_1"
  top: "conv4_1"
}
layer {
  name: "conv4_2"
  type: "Convolution"
  bottom: "conv4_1"
  top: "conv4_2"
  param {
    lr_mult: 1
    decay_mult: 1
  }
  param {
    lr_mult: 2
    decay_mult: 0
  }
  convolution_param {
    num_output: 512
    pad: 1
    kernel_size: 3
    stride: 1
    weight_filler {
      type: "xavier"
    }
  }
}
layer {
  name: "relu4_2"
  type: "ReLU"
  bottom: "conv4_2"
  top: "conv4_2"
}
layer {
  name: "conv4_3"
  type: "Convolution"
  bottom: "conv4_2"
  top: "conv4_3"
  param {
    lr_mult: 1
    decay_mult: 1
  }
  param {
    lr_mult: 2
    decay_mult: 0
  }
  convolution_param {
    num_output: 512
    pad: 1
    kernel_size: 3
    stride: 1
    weight_filler {
      type: "xavier"
    }
  }
}
layer {
  name: "relu4_3"
  type: "ReLU"
  bottom: "conv4_3"
  top: "conv4_3"
}
layer {
  name: "pool4"
  type: "Pooling"
  bottom: "conv4_3"
  top: "pool4"
  pooling_param {
    pool: MAX
    kernel_size: 2
    stride: 2
  }
}
layer {
  name: "conv5_1"
  type: "Convolution"
  bottom: "pool4"
  top: "conv5_1"
  param {
    lr_mult: 1
    decay_mult: 1
  }
  param {
    lr_mult: 2
    decay_mult: 0
  }
  convolution_param {
    num_output: 512
    pad: 1
    kernel_size: 3
    stride: 1
    weight_filler {
      type: "xavier"
    }
  }
}
layer {
  name: "relu5_1"
  type: "ReLU"
  bottom: "conv5_1"
  top: "conv5_1"
}
layer {
  name: "conv5_2"
  type: "Convolution"
  bottom: "conv5_1"
  top: "conv5_2"
  param {
    lr_mult: 1
    decay_mult: 1
  }
  param {
    lr_mult: 2
    decay_mult: 0
  }
  convolution_param {
    num_output: 512
    pad: 1
    kernel_size: 3
    stride: 1
    weight_filler {
      type: "xavier"
    }
  }
}
layer {
  name: "relu5_2"
  type: "ReLU"
  bottom: "conv5_2"
  top: "conv5_2"
}
layer {
  name: "conv5_3"
  type: "Convolution"
  bottom: "conv5_2"
  top: "conv5_3"
  param {
    lr_mult: 1
    decay_mult: 1
  }
  param {
    lr_mult: 2
    decay_mult: 0
  }
  convolution_param {
    num_output: 512
    pad: 1
    kernel_size: 3
    stride: 1
    weight_filler {
      type: "xavier"
    }
  }
}
layer {
  name: "relu5_3"
  type: "ReLU"
  bottom: "conv5_3"
  top: "conv5_3"
}
layer {
  name: "pool5"
  type: "Pooling"
  bottom: "conv5_3"
  top: "pool5"
  pooling_param {
    pool: MAX
    kernel_size: 2
    stride: 2
  }
}
layer {
  name: "fc6"
  type: "Convolution"
  bottom: "pool5"
  top: "fc6"
  param {
    lr_mult: 1
    decay_mult: 1
  }
  param {
    lr_mult: 2
    decay_mult: 0
  }
  convolution_param {
    num_output: 4096
    pad: 0
    kernel_size: 7
    stride: 1
    weight_filler {
      type: "xavier"
    }
  }
}
layer {
  name: "relu6"
  type: "ReLU"
  bottom: "fc6"
  top: "fc6"
}
layer {
  name: "drop6"
  type: "Dropout"
  bottom: "fc6"
  top: "fc6"
  dropout_param {
    dropout_ratio: 0.5
  }
}
layer {
  name: "fc7"
  type: "Convolution"
  bottom: "fc6"
  top: "fc7"
  param {
    lr_mult: 1
    decay_mult: 1
  }
  param {
    lr_mult: 2
    decay_mult: 0
  }
  convolution_param {
    num_output: 4096
    pad: 0
    kernel_size: 1
    stride: 1
    weight_filler {
      type: "xavier"
    }
  }
}
layer {
  name: "relu7"
  type: "ReLU"
  bottom: "fc7"
  top: "fc7"
}
layer {
  name: "drop7"
  type: "Dropout"
  bottom: "fc7"
  top: "fc7"
  dropout_param {
    dropout_ratio: 0.5
  }
}
layer {
  name: "score_fr"
  type: "Convolution"
  bottom: "fc7"
  top: "score_fr"
  param {
    lr_mult: 1
    decay_mult: 1
  }
  param {
    lr_mult: 2
    decay_mult: 0
  }
  convolution_param {
    num_output: 6
    pad: 0
    kernel_size: 1
    weight_filler {
      type: "xavier"
    }
  }
}
layer {
  name: "upscore2"
  type: "Deconvolution"
  bottom: "score_fr"
  top: "upscore2"
  param {
    lr_mult: 0
  }
  convolution_param {
    num_output: 6
    bias_term: false
    kernel_size: 4
    stride: 2
    weight_filler {
      type: "xavier"
    }
  }
}
layer {
  name: "scale_pool4"
  type: "Scale"
  bottom: "pool4"
  top: "scale_pool4"
  param {
    lr_mult: 0
  }
  scale_param {
    filler {
      type: "constant"
      value: 0.01
    }
  }
}
layer {
  name: "score_pool4"
  type: "Convolution"
  bottom: "scale_pool4"
  top: "score_pool4"
  param {
    lr_mult: 1
    decay_mult: 1
  }
  param {
    lr_mult: 2
    decay_mult: 0
  }
  convolution_param {
    num_output: 6
    pad: 0
    kernel_size: 1
    weight_filler {
      type: "xavier"
    }
  }
}
layer {
  name: "score_pool4c"
  type: "Crop"
  bottom: "score_pool4"
  bottom: "upscore2"
  top: "score_pool4c"
  crop_param {
    axis: 2
    offset: 5
  }
}
layer {
  name: "fuse_pool4"
  type: "Eltwise"
  bottom: "upscore2"
  bottom: "score_pool4c"
  top: "fuse_pool4"
  eltwise_param {
    operation: SUM
  }
}
layer {
  name: "upscore_pool4"
  type: "Deconvolution"
  bottom: "fuse_pool4"
  top: "upscore_pool4"
  param {
    lr_mult: 0
  }
  convolution_param {
    num_output: 6
    bias_term: false
    kernel_size: 4
    stride: 2
    weight_filler {
      type: "xavier"
    }
  }
}
layer {
  name: "scale_pool3"
  type: "Scale"
  bottom: "pool3"
  top: "scale_pool3"
  param {
    lr_mult: 0
  }
  scale_param {
    filler {
      type: "constant"
      value: 0.0001
    }
  }
}
layer {
  name: "score_pool3"
  type: "Convolution"
  bottom: "scale_pool3"
  top: "score_pool3"
  param {
    lr_mult: 1
    decay_mult: 1
  }
  param {
    lr_mult: 2
    decay_mult: 0
  }
  convolution_param {
    num_output: 6
    pad: 0
    kernel_size: 1
    weight_filler {
      type: "xavier"
    }
  }
}
layer {
  name: "score_pool3c"
  type: "Crop"
  bottom: "score_pool3"
  bottom: "upscore_pool4"
  top: "score_pool3c"
  crop_param {
    axis: 2
    offset: 9
  }
}
layer {
  name: "fuse_pool3"
  type: "Eltwise"
  bottom: "upscore_pool4"
  bottom: "score_pool3c"
  top: "fuse_pool3"
  eltwise_param {
    operation: SUM
  }
}
layer {
  name: "upscore8"
  type: "Deconvolution"
  bottom: "fuse_pool3"
  top: "upscore8"
  param {
    lr_mult: 0
  }
  convolution_param {
    num_output: 6
    bias_term: false
    kernel_size: 16
    stride: 8
    weight_filler {
      type: "xavier"
    }
  }
}
layer {
  name: "score"
  type: "Crop"
  bottom: "upscore8"
  bottom: "data"
  top: "score"
  crop_param {
    axis: 2
    offset: 31
  }
}
layer {
  name: "loss"
  type: "SoftmaxWithLoss"
  bottom: "score"
  bottom: "label"
  top: "loss"
  loss_param {
    ignore_label: 255
    normalize: false
  }
}
I1124 11:24:47.799150 19567 layer_factory.hpp:77] Creating layer data
I1124 11:24:47.799723 19567 net.cpp:100] Creating Layer data
I1124 11:24:47.799741 19567 net.cpp:408] data -> data
I1124 11:24:47.799756 19567 net.cpp:408] data -> label
I1124 11:24:47.843135 19567 net.cpp:150] Setting up data
I1124 11:24:47.843186 19567 net.cpp:157] Top shape: 1 3 375 500 (562500)
I1124 11:24:47.843196 19567 net.cpp:157] Top shape: 1 1 375 500 (187500)
I1124 11:24:47.843200 19567 net.cpp:165] Memory required for data: 3000000
I1124 11:24:47.843209 19567 layer_factory.hpp:77] Creating layer data_data_0_split
I1124 11:24:47.843225 19567 net.cpp:100] Creating Layer data_data_0_split
I1124 11:24:47.843231 19567 net.cpp:434] data_data_0_split <- data
I1124 11:24:47.843241 19567 net.cpp:408] data_data_0_split -> data_data_0_split_0
I1124 11:24:47.843255 19567 net.cpp:408] data_data_0_split -> data_data_0_split_1
I1124 11:24:47.843294 19567 net.cpp:150] Setting up data_data_0_split
I1124 11:24:47.843302 19567 net.cpp:157] Top shape: 1 3 375 500 (562500)
I1124 11:24:47.843307 19567 net.cpp:157] Top shape: 1 3 375 500 (562500)
I1124 11:24:47.843310 19567 net.cpp:165] Memory required for data: 7500000
I1124 11:24:47.843314 19567 layer_factory.hpp:77] Creating layer conv1_1
I1124 11:24:47.843333 19567 net.cpp:100] Creating Layer conv1_1
I1124 11:24:47.843338 19567 net.cpp:434] conv1_1 <- data_data_0_split_0
I1124 11:24:47.843358 19567 net.cpp:408] conv1_1 -> conv1_1
I1124 11:24:48.024709 19567 net.cpp:150] Setting up conv1_1
I1124 11:24:48.024754 19567 net.cpp:157] Top shape: 1 64 573 698 (25597056)
I1124 11:24:48.024760 19567 net.cpp:165] Memory required for data: 109888224
I1124 11:24:48.024776 19567 layer_factory.hpp:77] Creating layer relu1_1
I1124 11:24:48.024791 19567 net.cpp:100] Creating Layer relu1_1
I1124 11:24:48.024796 19567 net.cpp:434] relu1_1 <- conv1_1
I1124 11:24:48.024803 19567 net.cpp:395] relu1_1 -> conv1_1 (in-place)
I1124 11:24:48.025151 19567 net.cpp:150] Setting up relu1_1
I1124 11:24:48.025164 19567 net.cpp:157] Top shape: 1 64 573 698 (25597056)
I1124 11:24:48.025169 19567 net.cpp:165] Memory required for data: 212276448
I1124 11:24:48.025173 19567 layer_factory.hpp:77] Creating layer conv1_2
I1124 11:24:48.025188 19567 net.cpp:100] Creating Layer conv1_2
I1124 11:24:48.025193 19567 net.cpp:434] conv1_2 <- conv1_1
I1124 11:24:48.025200 19567 net.cpp:408] conv1_2 -> conv1_2
I1124 11:24:48.027896 19567 net.cpp:150] Setting up conv1_2
I1124 11:24:48.027915 19567 net.cpp:157] Top shape: 1 64 573 698 (25597056)
I1124 11:24:48.027918 19567 net.cpp:165] Memory required for data: 314664672
I1124 11:24:48.027930 19567 layer_factory.hpp:77] Creating layer relu1_2
I1124 11:24:48.027937 19567 net.cpp:100] Creating Layer relu1_2
I1124 11:24:48.027942 19567 net.cpp:434] relu1_2 <- conv1_2
I1124 11:24:48.027950 19567 net.cpp:395] relu1_2 -> conv1_2 (in-place)
I1124 11:24:48.028300 19567 net.cpp:150] Setting up relu1_2
I1124 11:24:48.028313 19567 net.cpp:157] Top shape: 1 64 573 698 (25597056)
I1124 11:24:48.028317 19567 net.cpp:165] Memory required for data: 417052896
I1124 11:24:48.028322 19567 layer_factory.hpp:77] Creating layer pool1
I1124 11:24:48.028336 19567 net.cpp:100] Creating Layer pool1
I1124 11:24:48.028340 19567 net.cpp:434] pool1 <- conv1_2
I1124 11:24:48.028347 19567 net.cpp:408] pool1 -> pool1
I1124 11:24:48.028396 19567 net.cpp:150] Setting up pool1
I1124 11:24:48.028403 19567 net.cpp:157] Top shape: 1 64 287 349 (6410432)
I1124 11:24:48.028408 19567 net.cpp:165] Memory required for data: 442694624
I1124 11:24:48.028411 19567 layer_factory.hpp:77] Creating layer conv2_1
I1124 11:24:48.028422 19567 net.cpp:100] Creating Layer conv2_1
I1124 11:24:48.028427 19567 net.cpp:434] conv2_1 <- pool1
I1124 11:24:48.028435 19567 net.cpp:408] conv2_1 -> conv2_1
I1124 11:24:48.030740 19567 net.cpp:150] Setting up conv2_1
I1124 11:24:48.030756 19567 net.cpp:157] Top shape: 1 128 287 349 (12820864)
I1124 11:24:48.030761 19567 net.cpp:165] Memory required for data: 493978080
I1124 11:24:48.030771 19567 layer_factory.hpp:77] Creating layer relu2_1
I1124 11:24:48.030782 19567 net.cpp:100] Creating Layer relu2_1
I1124 11:24:48.030787 19567 net.cpp:434] relu2_1 <- conv2_1
I1124 11:24:48.030793 19567 net.cpp:395] relu2_1 -> conv2_1 (in-place)
I1124 11:24:48.030992 19567 net.cpp:150] Setting up relu2_1
I1124 11:24:48.031003 19567 net.cpp:157] Top shape: 1 128 287 349 (12820864)
I1124 11:24:48.031008 19567 net.cpp:165] Memory required for data: 545261536
I1124 11:24:48.031013 19567 layer_factory.hpp:77] Creating layer conv2_2
I1124 11:24:48.031023 19567 net.cpp:100] Creating Layer conv2_2
I1124 11:24:48.031028 19567 net.cpp:434] conv2_2 <- conv2_1
I1124 11:24:48.031035 19567 net.cpp:408] conv2_2 -> conv2_2
I1124 11:24:48.033574 19567 net.cpp:150] Setting up conv2_2
I1124 11:24:48.033591 19567 net.cpp:157] Top shape: 1 128 287 349 (12820864)
I1124 11:24:48.033596 19567 net.cpp:165] Memory required for data: 596544992
I1124 11:24:48.033603 19567 layer_factory.hpp:77] Creating layer relu2_2
I1124 11:24:48.033610 19567 net.cpp:100] Creating Layer relu2_2
I1124 11:24:48.033615 19567 net.cpp:434] relu2_2 <- conv2_2
I1124 11:24:48.033625 19567 net.cpp:395] relu2_2 -> conv2_2 (in-place)
I1124 11:24:48.033984 19567 net.cpp:150] Setting up relu2_2
I1124 11:24:48.033998 19567 net.cpp:157] Top shape: 1 128 287 349 (12820864)
I1124 11:24:48.034003 19567 net.cpp:165] Memory required for data: 647828448
I1124 11:24:48.034016 19567 layer_factory.hpp:77] Creating layer pool2
I1124 11:24:48.034025 19567 net.cpp:100] Creating Layer pool2
I1124 11:24:48.034030 19567 net.cpp:434] pool2 <- conv2_2
I1124 11:24:48.034036 19567 net.cpp:408] pool2 -> pool2
I1124 11:24:48.034081 19567 net.cpp:150] Setting up pool2
I1124 11:24:48.034090 19567 net.cpp:157] Top shape: 1 128 144 175 (3225600)
I1124 11:24:48.034092 19567 net.cpp:165] Memory required for data: 660730848
I1124 11:24:48.034096 19567 layer_factory.hpp:77] Creating layer conv3_1
I1124 11:24:48.034107 19567 net.cpp:100] Creating Layer conv3_1
I1124 11:24:48.034111 19567 net.cpp:434] conv3_1 <- pool2
I1124 11:24:48.034117 19567 net.cpp:408] conv3_1 -> conv3_1
I1124 11:24:48.037617 19567 net.cpp:150] Setting up conv3_1
I1124 11:24:48.037636 19567 net.cpp:157] Top shape: 1 256 144 175 (6451200)
I1124 11:24:48.037641 19567 net.cpp:165] Memory required for data: 686535648
I1124 11:24:48.037650 19567 layer_factory.hpp:77] Creating layer relu3_1
I1124 11:24:48.037662 19567 net.cpp:100] Creating Layer relu3_1
I1124 11:24:48.037665 19567 net.cpp:434] relu3_1 <- conv3_1
I1124 11:24:48.037672 19567 net.cpp:395] relu3_1 -> conv3_1 (in-place)
I1124 11:24:48.038033 19567 net.cpp:150] Setting up relu3_1
I1124 11:24:48.038046 19567 net.cpp:157] Top shape: 1 256 144 175 (6451200)
I1124 11:24:48.038053 19567 net.cpp:165] Memory required for data: 712340448
I1124 11:24:48.038058 19567 layer_factory.hpp:77] Creating layer conv3_2
I1124 11:24:48.038067 19567 net.cpp:100] Creating Layer conv3_2
I1124 11:24:48.038072 19567 net.cpp:434] conv3_2 <- conv3_1
I1124 11:24:48.038084 19567 net.cpp:408] conv3_2 -> conv3_2
I1124 11:24:48.043329 19567 net.cpp:150] Setting up conv3_2
I1124 11:24:48.043347 19567 net.cpp:157] Top shape: 1 256 144 175 (6451200)
I1124 11:24:48.043352 19567 net.cpp:165] Memory required for data: 738145248
I1124 11:24:48.043359 19567 layer_factory.hpp:77] Creating layer relu3_2
I1124 11:24:48.043370 19567 net.cpp:100] Creating Layer relu3_2
I1124 11:24:48.043375 19567 net.cpp:434] relu3_2 <- conv3_2
I1124 11:24:48.043382 19567 net.cpp:395] relu3_2 -> conv3_2 (in-place)
I1124 11:24:48.043576 19567 net.cpp:150] Setting up relu3_2
I1124 11:24:48.043586 19567 net.cpp:157] Top shape: 1 256 144 175 (6451200)
I1124 11:24:48.043591 19567 net.cpp:165] Memory required for data: 763950048
I1124 11:24:48.043596 19567 layer_factory.hpp:77] Creating layer conv3_3
I1124 11:24:48.043609 19567 net.cpp:100] Creating Layer conv3_3
I1124 11:24:48.043614 19567 net.cpp:434] conv3_3 <- conv3_2
I1124 11:24:48.043622 19567 net.cpp:408] conv3_3 -> conv3_3
I1124 11:24:48.048866 19567 net.cpp:150] Setting up conv3_3
I1124 11:24:48.048883 19567 net.cpp:157] Top shape: 1 256 144 175 (6451200)
I1124 11:24:48.048888 19567 net.cpp:165] Memory required for data: 789754848
I1124 11:24:48.048897 19567 layer_factory.hpp:77] Creating layer relu3_3
I1124 11:24:48.048904 19567 net.cpp:100] Creating Layer relu3_3
I1124 11:24:48.048909 19567 net.cpp:434] relu3_3 <- conv3_3
I1124 11:24:48.048918 19567 net.cpp:395] relu3_3 -> conv3_3 (in-place)
I1124 11:24:48.049278 19567 net.cpp:150] Setting up relu3_3
I1124 11:24:48.049290 19567 net.cpp:157] Top shape: 1 256 144 175 (6451200)
I1124 11:24:48.049294 19567 net.cpp:165] Memory required for data: 815559648
I1124 11:24:48.049299 19567 layer_factory.hpp:77] Creating layer pool3
I1124 11:24:48.049307 19567 net.cpp:100] Creating Layer pool3
I1124 11:24:48.049311 19567 net.cpp:434] pool3 <- conv3_3
I1124 11:24:48.049319 19567 net.cpp:408] pool3 -> pool3
I1124 11:24:48.049366 19567 net.cpp:150] Setting up pool3
I1124 11:24:48.049376 19567 net.cpp:157] Top shape: 1 256 72 88 (1622016)
I1124 11:24:48.049378 19567 net.cpp:165] Memory required for data: 822047712
I1124 11:24:48.049383 19567 layer_factory.hpp:77] Creating layer pool3_pool3_0_split
I1124 11:24:48.049389 19567 net.cpp:100] Creating Layer pool3_pool3_0_split
I1124 11:24:48.049393 19567 net.cpp:434] pool3_pool3_0_split <- pool3
I1124 11:24:48.049399 19567 net.cpp:408] pool3_pool3_0_split -> pool3_pool3_0_split_0
I1124 11:24:48.049406 19567 net.cpp:408] pool3_pool3_0_split -> pool3_pool3_0_split_1
I1124 11:24:48.049451 19567 net.cpp:150] Setting up pool3_pool3_0_split
I1124 11:24:48.049458 19567 net.cpp:157] Top shape: 1 256 72 88 (1622016)
I1124 11:24:48.049463 19567 net.cpp:157] Top shape: 1 256 72 88 (1622016)
I1124 11:24:48.049466 19567 net.cpp:165] Memory required for data: 835023840
I1124 11:24:48.049470 19567 layer_factory.hpp:77] Creating layer conv4_1
I1124 11:24:48.049481 19567 net.cpp:100] Creating Layer conv4_1
I1124 11:24:48.049486 19567 net.cpp:434] conv4_1 <- pool3_pool3_0_split_0
I1124 11:24:48.049494 19567 net.cpp:408] conv4_1 -> conv4_1
I1124 11:24:48.059959 19567 net.cpp:150] Setting up conv4_1
I1124 11:24:48.059995 19567 net.cpp:157] Top shape: 1 512 72 88 (3244032)
I1124 11:24:48.060000 19567 net.cpp:165] Memory required for data: 847999968
I1124 11:24:48.060009 19567 layer_factory.hpp:77] Creating layer relu4_1
I1124 11:24:48.060019 19567 net.cpp:100] Creating Layer relu4_1
I1124 11:24:48.060025 19567 net.cpp:434] relu4_1 <- conv4_1
I1124 11:24:48.060032 19567 net.cpp:395] relu4_1 -> conv4_1 (in-place)
I1124 11:24:48.060401 19567 net.cpp:150] Setting up relu4_1
I1124 11:24:48.060415 19567 net.cpp:157] Top shape: 1 512 72 88 (3244032)
I1124 11:24:48.060420 19567 net.cpp:165] Memory required for data: 860976096
I1124 11:24:48.060423 19567 layer_factory.hpp:77] Creating layer conv4_2
I1124 11:24:48.060438 19567 net.cpp:100] Creating Layer conv4_2
I1124 11:24:48.060443 19567 net.cpp:434] conv4_2 <- conv4_1
I1124 11:24:48.060451 19567 net.cpp:408] conv4_2 -> conv4_2
I1124 11:24:48.078130 19567 net.cpp:150] Setting up conv4_2
I1124 11:24:48.078171 19567 net.cpp:157] Top shape: 1 512 72 88 (3244032)
I1124 11:24:48.078176 19567 net.cpp:165] Memory required for data: 873952224
I1124 11:24:48.078192 19567 layer_factory.hpp:77] Creating layer relu4_2
I1124 11:24:48.078204 19567 net.cpp:100] Creating Layer relu4_2
I1124 11:24:48.078210 19567 net.cpp:434] relu4_2 <- conv4_2
I1124 11:24:48.078219 19567 net.cpp:395] relu4_2 -> conv4_2 (in-place)
I1124 11:24:48.078411 19567 net.cpp:150] Setting up relu4_2
I1124 11:24:48.078421 19567 net.cpp:157] Top shape: 1 512 72 88 (3244032)
I1124 11:24:48.078425 19567 net.cpp:165] Memory required for data: 886928352
I1124 11:24:48.078429 19567 layer_factory.hpp:77] Creating layer conv4_3
I1124 11:24:48.078444 19567 net.cpp:100] Creating Layer conv4_3
I1124 11:24:48.078449 19567 net.cpp:434] conv4_3 <- conv4_2
I1124 11:24:48.078456 19567 net.cpp:408] conv4_3 -> conv4_3
I1124 11:24:48.095821 19567 net.cpp:150] Setting up conv4_3
I1124 11:24:48.095867 19567 net.cpp:157] Top shape: 1 512 72 88 (3244032)
I1124 11:24:48.095872 19567 net.cpp:165] Memory required for data: 899904480
I1124 11:24:48.095882 19567 layer_factory.hpp:77] Creating layer relu4_3
I1124 11:24:48.095893 19567 net.cpp:100] Creating Layer relu4_3
I1124 11:24:48.095899 19567 net.cpp:434] relu4_3 <- conv4_3
I1124 11:24:48.095906 19567 net.cpp:395] relu4_3 -> conv4_3 (in-place)
I1124 11:24:48.096268 19567 net.cpp:150] Setting up relu4_3
I1124 11:24:48.096282 19567 net.cpp:157] Top shape: 1 512 72 88 (3244032)
I1124 11:24:48.096285 19567 net.cpp:165] Memory required for data: 912880608
I1124 11:24:48.096290 19567 layer_factory.hpp:77] Creating layer pool4
I1124 11:24:48.096300 19567 net.cpp:100] Creating Layer pool4
I1124 11:24:48.096305 19567 net.cpp:434] pool4 <- conv4_3
I1124 11:24:48.096313 19567 net.cpp:408] pool4 -> pool4
I1124 11:24:48.096364 19567 net.cpp:150] Setting up pool4
I1124 11:24:48.096370 19567 net.cpp:157] Top shape: 1 512 36 44 (811008)
I1124 11:24:48.096374 19567 net.cpp:165] Memory required for data: 916124640
I1124 11:24:48.096379 19567 layer_factory.hpp:77] Creating layer pool4_pool4_0_split
I1124 11:24:48.096386 19567 net.cpp:100] Creating Layer pool4_pool4_0_split
I1124 11:24:48.096391 19567 net.cpp:434] pool4_pool4_0_split <- pool4
I1124 11:24:48.096397 19567 net.cpp:408] pool4_pool4_0_split -> pool4_pool4_0_split_0
I1124 11:24:48.096403 19567 net.cpp:408] pool4_pool4_0_split -> pool4_pool4_0_split_1
I1124 11:24:48.096442 19567 net.cpp:150] Setting up pool4_pool4_0_split
I1124 11:24:48.096459 19567 net.cpp:157] Top shape: 1 512 36 44 (811008)
I1124 11:24:48.096464 19567 net.cpp:157] Top shape: 1 512 36 44 (811008)
I1124 11:24:48.096467 19567 net.cpp:165] Memory required for data: 922612704
I1124 11:24:48.096472 19567 layer_factory.hpp:77] Creating layer conv5_1
I1124 11:24:48.096485 19567 net.cpp:100] Creating Layer conv5_1
I1124 11:24:48.096490 19567 net.cpp:434] conv5_1 <- pool4_pool4_0_split_0
I1124 11:24:48.096498 19567 net.cpp:408] conv5_1 -> conv5_1
I1124 11:24:48.113822 19567 net.cpp:150] Setting up conv5_1
I1124 11:24:48.113868 19567 net.cpp:157] Top shape: 1 512 36 44 (811008)
I1124 11:24:48.113873 19567 net.cpp:165] Memory required for data: 925856736
I1124 11:24:48.113883 19567 layer_factory.hpp:77] Creating layer relu5_1
I1124 11:24:48.113898 19567 net.cpp:100] Creating Layer relu5_1
I1124 11:24:48.113904 19567 net.cpp:434] relu5_1 <- conv5_1
I1124 11:24:48.113911 19567 net.cpp:395] relu5_1 -> conv5_1 (in-place)
I1124 11:24:48.114280 19567 net.cpp:150] Setting up relu5_1
I1124 11:24:48.114294 19567 net.cpp:157] Top shape: 1 512 36 44 (811008)
I1124 11:24:48.114298 19567 net.cpp:165] Memory required for data: 929100768
I1124 11:24:48.114302 19567 layer_factory.hpp:77] Creating layer conv5_2
I1124 11:24:48.114315 19567 net.cpp:100] Creating Layer conv5_2
I1124 11:24:48.114320 19567 net.cpp:434] conv5_2 <- conv5_1
I1124 11:24:48.114329 19567 net.cpp:408] conv5_2 -> conv5_2
I1124 11:24:48.131731 19567 net.cpp:150] Setting up conv5_2
I1124 11:24:48.131768 19567 net.cpp:157] Top shape: 1 512 36 44 (811008)
I1124 11:24:48.131773 19567 net.cpp:165] Memory required for data: 932344800
I1124 11:24:48.131783 19567 layer_factory.hpp:77] Creating layer relu5_2
I1124 11:24:48.131796 19567 net.cpp:100] Creating Layer relu5_2
I1124 11:24:48.131803 19567 net.cpp:434] relu5_2 <- conv5_2
I1124 11:24:48.131810 19567 net.cpp:395] relu5_2 -> conv5_2 (in-place)
I1124 11:24:48.132007 19567 net.cpp:150] Setting up relu5_2
I1124 11:24:48.132016 19567 net.cpp:157] Top shape: 1 512 36 44 (811008)
I1124 11:24:48.132020 19567 net.cpp:165] Memory required for data: 935588832
I1124 11:24:48.132025 19567 layer_factory.hpp:77] Creating layer conv5_3
I1124 11:24:48.132045 19567 net.cpp:100] Creating Layer conv5_3
I1124 11:24:48.132050 19567 net.cpp:434] conv5_3 <- conv5_2
I1124 11:24:48.132056 19567 net.cpp:408] conv5_3 -> conv5_3
I1124 11:24:48.149626 19567 net.cpp:150] Setting up conv5_3
I1124 11:24:48.149665 19567 net.cpp:157] Top shape: 1 512 36 44 (811008)
I1124 11:24:48.149670 19567 net.cpp:165] Memory required for data: 938832864
I1124 11:24:48.149680 19567 layer_factory.hpp:77] Creating layer relu5_3
I1124 11:24:48.149693 19567 net.cpp:100] Creating Layer relu5_3
I1124 11:24:48.149699 19567 net.cpp:434] relu5_3 <- conv5_3
I1124 11:24:48.149708 19567 net.cpp:395] relu5_3 -> conv5_3 (in-place)
I1124 11:24:48.150245 19567 net.cpp:150] Setting up relu5_3
I1124 11:24:48.150259 19567 net.cpp:157] Top shape: 1 512 36 44 (811008)
I1124 11:24:48.150264 19567 net.cpp:165] Memory required for data: 942076896
I1124 11:24:48.150269 19567 layer_factory.hpp:77] Creating layer pool5
I1124 11:24:48.150276 19567 net.cpp:100] Creating Layer pool5
I1124 11:24:48.150281 19567 net.cpp:434] pool5 <- conv5_3
I1124 11:24:48.150293 19567 net.cpp:408] pool5 -> pool5
I1124 11:24:48.150344 19567 net.cpp:150] Setting up pool5
I1124 11:24:48.150352 19567 net.cpp:157] Top shape: 1 512 18 22 (202752)
I1124 11:24:48.150355 19567 net.cpp:165] Memory required for data: 942887904
I1124 11:24:48.150359 19567 layer_factory.hpp:77] Creating layer fc6
I1124 11:24:48.150374 19567 net.cpp:100] Creating Layer fc6
I1124 11:24:48.150378 19567 net.cpp:434] fc6 <- pool5
I1124 11:24:48.150385 19567 net.cpp:408] fc6 -> fc6
I1124 11:24:48.858428 19567 net.cpp:150] Setting up fc6
I1124 11:24:48.858508 19567 net.cpp:157] Top shape: 1 4096 12 16 (786432)
I1124 11:24:48.858515 19567 net.cpp:165] Memory required for data: 946033632
I1124 11:24:48.858526 19567 layer_factory.hpp:77] Creating layer relu6
I1124 11:24:48.858556 19567 net.cpp:100] Creating Layer relu6
I1124 11:24:48.858563 19567 net.cpp:434] relu6 <- fc6
I1124 11:24:48.858572 19567 net.cpp:395] relu6 -> fc6 (in-place)
I1124 11:24:48.858942 19567 net.cpp:150] Setting up relu6
I1124 11:24:48.858958 19567 net.cpp:157] Top shape: 1 4096 12 16 (786432)
I1124 11:24:48.858963 19567 net.cpp:165] Memory required for data: 949179360
I1124 11:24:48.858968 19567 layer_factory.hpp:77] Creating layer drop6
I1124 11:24:48.858981 19567 net.cpp:100] Creating Layer drop6
I1124 11:24:48.858985 19567 net.cpp:434] drop6 <- fc6
I1124 11:24:48.858991 19567 net.cpp:395] drop6 -> fc6 (in-place)
I1124 11:24:48.859031 19567 net.cpp:150] Setting up drop6
I1124 11:24:48.859038 19567 net.cpp:157] Top shape: 1 4096 12 16 (786432)
I1124 11:24:48.859042 19567 net.cpp:165] Memory required for data: 952325088
I1124 11:24:48.859046 19567 layer_factory.hpp:77] Creating layer fc7
I1124 11:24:48.859058 19567 net.cpp:100] Creating Layer fc7
I1124 11:24:48.859063 19567 net.cpp:434] fc7 <- fc6
I1124 11:24:48.859071 19567 net.cpp:408] fc7 -> fc7
I1124 11:24:48.977478 19567 net.cpp:150] Setting up fc7
I1124 11:24:48.977520 19567 net.cpp:157] Top shape: 1 4096 12 16 (786432)
I1124 11:24:48.977525 19567 net.cpp:165] Memory required for data: 955470816
I1124 11:24:48.977536 19567 layer_factory.hpp:77] Creating layer relu7
I1124 11:24:48.977547 19567 net.cpp:100] Creating Layer relu7
I1124 11:24:48.977553 19567 net.cpp:434] relu7 <- fc7
I1124 11:24:48.977563 19567 net.cpp:395] relu7 -> fc7 (in-place)
I1124 11:24:48.977769 19567 net.cpp:150] Setting up relu7
I1124 11:24:48.977778 19567 net.cpp:157] Top shape: 1 4096 12 16 (786432)
I1124 11:24:48.977782 19567 net.cpp:165] Memory required for data: 958616544
I1124 11:24:48.977787 19567 layer_factory.hpp:77] Creating layer drop7
I1124 11:24:48.977797 19567 net.cpp:100] Creating Layer drop7
I1124 11:24:48.977802 19567 net.cpp:434] drop7 <- fc7
I1124 11:24:48.977807 19567 net.cpp:395] drop7 -> fc7 (in-place)
I1124 11:24:48.977840 19567 net.cpp:150] Setting up drop7
I1124 11:24:48.977846 19567 net.cpp:157] Top shape: 1 4096 12 16 (786432)
I1124 11:24:48.977850 19567 net.cpp:165] Memory required for data: 961762272
I1124 11:24:48.977854 19567 layer_factory.hpp:77] Creating layer score_fr
I1124 11:24:48.977872 19567 net.cpp:100] Creating Layer score_fr
I1124 11:24:48.977876 19567 net.cpp:434] score_fr <- fc7
I1124 11:24:48.977883 19567 net.cpp:408] score_fr -> score_fr
I1124 11:24:48.979254 19567 net.cpp:150] Setting up score_fr
I1124 11:24:48.979269 19567 net.cpp:157] Top shape: 1 6 12 16 (1152)
I1124 11:24:48.979274 19567 net.cpp:165] Memory required for data: 961766880
I1124 11:24:48.979281 19567 layer_factory.hpp:77] Creating layer upscore2
I1124 11:24:48.979295 19567 net.cpp:100] Creating Layer upscore2
I1124 11:24:48.979300 19567 net.cpp:434] upscore2 <- score_fr
I1124 11:24:48.979308 19567 net.cpp:408] upscore2 -> upscore2
I1124 11:24:48.979522 19567 net.cpp:150] Setting up upscore2
I1124 11:24:48.979531 19567 net.cpp:157] Top shape: 1 6 26 34 (5304)
I1124 11:24:48.979534 19567 net.cpp:165] Memory required for data: 961788096
I1124 11:24:48.979548 19567 layer_factory.hpp:77] Creating layer upscore2_upscore2_0_split
I1124 11:24:48.979557 19567 net.cpp:100] Creating Layer upscore2_upscore2_0_split
I1124 11:24:48.979560 19567 net.cpp:434] upscore2_upscore2_0_split <- upscore2
I1124 11:24:48.979567 19567 net.cpp:408] upscore2_upscore2_0_split -> upscore2_upscore2_0_split_0
I1124 11:24:48.979574 19567 net.cpp:408] upscore2_upscore2_0_split -> upscore2_upscore2_0_split_1
I1124 11:24:48.979616 19567 net.cpp:150] Setting up upscore2_upscore2_0_split
I1124 11:24:48.979624 19567 net.cpp:157] Top shape: 1 6 26 34 (5304)
I1124 11:24:48.979629 19567 net.cpp:157] Top shape: 1 6 26 34 (5304)
I1124 11:24:48.979631 19567 net.cpp:165] Memory required for data: 961830528
I1124 11:24:48.979635 19567 layer_factory.hpp:77] Creating layer scale_pool4
I1124 11:24:48.979650 19567 net.cpp:100] Creating Layer scale_pool4
I1124 11:24:48.979655 19567 net.cpp:434] scale_pool4 <- pool4_pool4_0_split_1
I1124 11:24:48.979671 19567 net.cpp:408] scale_pool4 -> scale_pool4
I1124 11:24:48.979782 19567 net.cpp:150] Setting up scale_pool4
I1124 11:24:48.979790 19567 net.cpp:157] Top shape: 1 512 36 44 (811008)
I1124 11:24:48.979794 19567 net.cpp:165] Memory required for data: 965074560
I1124 11:24:48.979799 19567 layer_factory.hpp:77] Creating layer score_pool4
I1124 11:24:48.979812 19567 net.cpp:100] Creating Layer score_pool4
I1124 11:24:48.979816 19567 net.cpp:434] score_pool4 <- scale_pool4
I1124 11:24:48.979822 19567 net.cpp:408] score_pool4 -> score_pool4
I1124 11:24:48.981083 19567 net.cpp:150] Setting up score_pool4
I1124 11:24:48.981097 19567 net.cpp:157] Top shape: 1 6 36 44 (9504)
I1124 11:24:48.981101 19567 net.cpp:165] Memory required for data: 965112576
I1124 11:24:48.981109 19567 layer_factory.hpp:77] Creating layer score_pool4c
I1124 11:24:48.981122 19567 net.cpp:100] Creating Layer score_pool4c
I1124 11:24:48.981127 19567 net.cpp:434] score_pool4c <- score_pool4
I1124 11:24:48.981132 19567 net.cpp:434] score_pool4c <- upscore2_upscore2_0_split_0
I1124 11:24:48.981138 19567 net.cpp:408] score_pool4c -> score_pool4c
I1124 11:24:48.981171 19567 net.cpp:150] Setting up score_pool4c
I1124 11:24:48.981178 19567 net.cpp:157] Top shape: 1 6 26 34 (5304)
I1124 11:24:48.981183 19567 net.cpp:165] Memory required for data: 965133792
I1124 11:24:48.981186 19567 layer_factory.hpp:77] Creating layer fuse_pool4
I1124 11:24:48.981196 19567 net.cpp:100] Creating Layer fuse_pool4
I1124 11:24:48.981201 19567 net.cpp:434] fuse_pool4 <- upscore2_upscore2_0_split_1
I1124 11:24:48.981206 19567 net.cpp:434] fuse_pool4 <- score_pool4c
I1124 11:24:48.981215 19567 net.cpp:408] fuse_pool4 -> fuse_pool4
I1124 11:24:48.981243 19567 net.cpp:150] Setting up fuse_pool4
I1124 11:24:48.981250 19567 net.cpp:157] Top shape: 1 6 26 34 (5304)
I1124 11:24:48.981252 19567 net.cpp:165] Memory required for data: 965155008
I1124 11:24:48.981256 19567 layer_factory.hpp:77] Creating layer upscore_pool4
I1124 11:24:48.981266 19567 net.cpp:100] Creating Layer upscore_pool4
I1124 11:24:48.981271 19567 net.cpp:434] upscore_pool4 <- fuse_pool4
I1124 11:24:48.981278 19567 net.cpp:408] upscore_pool4 -> upscore_pool4
I1124 11:24:48.981482 19567 net.cpp:150] Setting up upscore_pool4
I1124 11:24:48.981490 19567 net.cpp:157] Top shape: 1 6 54 70 (22680)
I1124 11:24:48.981494 19567 net.cpp:165] Memory required for data: 965245728
I1124 11:24:48.981499 19567 layer_factory.hpp:77] Creating layer upscore_pool4_upscore_pool4_0_split
I1124 11:24:48.981506 19567 net.cpp:100] Creating Layer upscore_pool4_upscore_pool4_0_split
I1124 11:24:48.981510 19567 net.cpp:434] upscore_pool4_upscore_pool4_0_split <- upscore_pool4
I1124 11:24:48.981515 19567 net.cpp:408] upscore_pool4_upscore_pool4_0_split -> upscore_pool4_upscore_pool4_0_split_0
I1124 11:24:48.981523 19567 net.cpp:408] upscore_pool4_upscore_pool4_0_split -> upscore_pool4_upscore_pool4_0_split_1
I1124 11:24:48.981560 19567 net.cpp:150] Setting up upscore_pool4_upscore_pool4_0_split
I1124 11:24:48.981566 19567 net.cpp:157] Top shape: 1 6 54 70 (22680)
I1124 11:24:48.981571 19567 net.cpp:157] Top shape: 1 6 54 70 (22680)
I1124 11:24:48.981575 19567 net.cpp:165] Memory required for data: 965427168
I1124 11:24:48.981580 19567 layer_factory.hpp:77] Creating layer scale_pool3
I1124 11:24:48.981585 19567 net.cpp:100] Creating Layer scale_pool3
I1124 11:24:48.981590 19567 net.cpp:434] scale_pool3 <- pool3_pool3_0_split_1
I1124 11:24:48.981597 19567 net.cpp:408] scale_pool3 -> scale_pool3
I1124 11:24:48.981700 19567 net.cpp:150] Setting up scale_pool3
I1124 11:24:48.981708 19567 net.cpp:157] Top shape: 1 256 72 88 (1622016)
I1124 11:24:48.981711 19567 net.cpp:165] Memory required for data: 971915232
I1124 11:24:48.981716 19567 layer_factory.hpp:77] Creating layer score_pool3
I1124 11:24:48.981727 19567 net.cpp:100] Creating Layer score_pool3
I1124 11:24:48.981732 19567 net.cpp:434] score_pool3 <- scale_pool3
I1124 11:24:48.981739 19567 net.cpp:408] score_pool3 -> score_pool3
I1124 11:24:48.982949 19567 net.cpp:150] Setting up score_pool3
I1124 11:24:48.982967 19567 net.cpp:157] Top shape: 1 6 72 88 (38016)
I1124 11:24:48.982972 19567 net.cpp:165] Memory required for data: 972067296
I1124 11:24:48.982980 19567 layer_factory.hpp:77] Creating layer score_pool3c
I1124 11:24:48.982990 19567 net.cpp:100] Creating Layer score_pool3c
I1124 11:24:48.982995 19567 net.cpp:434] score_pool3c <- score_pool3
I1124 11:24:48.983000 19567 net.cpp:434] score_pool3c <- upscore_pool4_upscore_pool4_0_split_0
I1124 11:24:48.983008 19567 net.cpp:408] score_pool3c -> score_pool3c
I1124 11:24:48.983041 19567 net.cpp:150] Setting up score_pool3c
I1124 11:24:48.983047 19567 net.cpp:157] Top shape: 1 6 54 70 (22680)
I1124 11:24:48.983050 19567 net.cpp:165] Memory required for data: 972158016
I1124 11:24:48.983054 19567 layer_factory.hpp:77] Creating layer fuse_pool3
I1124 11:24:48.983063 19567 net.cpp:100] Creating Layer fuse_pool3
I1124 11:24:48.983067 19567 net.cpp:434] fuse_pool3 <- upscore_pool4_upscore_pool4_0_split_1
I1124 11:24:48.983072 19567 net.cpp:434] fuse_pool3 <- score_pool3c
I1124 11:24:48.983078 19567 net.cpp:408] fuse_pool3 -> fuse_pool3
I1124 11:24:48.983105 19567 net.cpp:150] Setting up fuse_pool3
I1124 11:24:48.983111 19567 net.cpp:157] Top shape: 1 6 54 70 (22680)
I1124 11:24:48.983115 19567 net.cpp:165] Memory required for data: 972248736
I1124 11:24:48.983119 19567 layer_factory.hpp:77] Creating layer upscore8
I1124 11:24:48.983129 19567 net.cpp:100] Creating Layer upscore8
I1124 11:24:48.983134 19567 net.cpp:434] upscore8 <- fuse_pool3
I1124 11:24:48.983140 19567 net.cpp:408] upscore8 -> upscore8
I1124 11:24:48.983412 19567 net.cpp:150] Setting up upscore8
I1124 11:24:48.983422 19567 net.cpp:157] Top shape: 1 6 440 568 (1499520)
I1124 11:24:48.983427 19567 net.cpp:165] Memory required for data: 978246816
I1124 11:24:48.983431 19567 layer_factory.hpp:77] Creating layer score
I1124 11:24:48.983438 19567 net.cpp:100] Creating Layer score
I1124 11:24:48.983443 19567 net.cpp:434] score <- upscore8
I1124 11:24:48.983448 19567 net.cpp:434] score <- data_data_0_split_1
I1124 11:24:48.983453 19567 net.cpp:408] score -> score
I1124 11:24:48.983481 19567 net.cpp:150] Setting up score
I1124 11:24:48.983489 19567 net.cpp:157] Top shape: 1 6 375 500 (1125000)
I1124 11:24:48.983491 19567 net.cpp:165] Memory required for data: 982746816
I1124 11:24:48.983495 19567 layer_factory.hpp:77] Creating layer loss
I1124 11:24:48.983505 19567 net.cpp:100] Creating Layer loss
I1124 11:24:48.983510 19567 net.cpp:434] loss <- score
I1124 11:24:48.983513 19567 net.cpp:434] loss <- label
I1124 11:24:48.983520 19567 net.cpp:408] loss -> loss
I1124 11:24:48.983531 19567 layer_factory.hpp:77] Creating layer loss
…
I1124 11:24:48.986758 19567 net.cpp:283] Network initialization done.
I1124 11:24:48.987896 19567 solver.cpp:181] Creating test net (#0) specified by test_net file: val.prototxt
I1124 11:24:48.988267 19567 net.cpp:58] Initializing net from parameters: 
state {
  phase: TEST
}
layer {
  name: "data"
  type: "Python"
  top: "data"
  top: "label"
  python_param {
    module: "voc_layers"
    layer: "PartialVOCSegDataLayer"
    param_str: "{\'voc_dir\': \'../data/pascal-obfuscated/VOC2011\', \'seed\': 1337, \'split\': \'seg11valid5\', \'mean\': (104.00699, 116.66877, 122.67892)}"
  }
}
layer {
  name: "conv1_1"
  type: "Convolution"
  bottom: "data"
  top: "conv1_1"
  param {
    lr_mult: 1
    decay_mult: 1
  }
  param {
    lr_mult: 2
    decay_mult: 0
  }
  convolution_param {
    num_output: 64
    pad: 100
    kernel_size: 3
    stride: 1
    weight_filler {
      type: "xavier"
    }
  }
}
layer {
  name: "relu1_1"
  type: "ReLU"
  bottom: "conv1_1"
  top: "conv1_1"
}
layer {
  name: "conv1_2"
  type: "Convolution"
  bottom: "conv1_1"
  top: "conv1_2"
  param {
    lr_mult: 1
    decay_mult: 1
  }
  param {
    lr_mult: 2
    decay_mult: 0
  }
  convolution_param {
    num_output: 64
    pad: 1
    kernel_size: 3
    stride: 1
    weight_filler {
      type: "xavier"
    }
  }
}
layer {
  name: "relu1_2"
  type: "ReLU"
  bottom: "conv1_2"
  top: "conv1_2"
}
layer {
  name: "pool1"
  type: "Pooling"
  bottom: "conv1_2"
  top: "pool1"
  pooling_param {
    pool: MAX
    kernel_size: 2
    stride: 2
  }
}
layer {
  name: "conv2_1"
  type: "Convolution"
  bottom: "pool1"
  top: "conv2_1"
  param {
    lr_mult: 1
    decay_mult: 1
  }
  param {
    lr_mult: 2
    decay_mult: 0
  }
  convolution_param {
    num_output: 128
    pad: 1
    kernel_size: 3
    stride: 1
    weight_filler {
      type: "xavier"
    }
  }
}
layer {
  name: "relu2_1"
  type: "ReLU"
  bottom: "conv2_1"
  top: "conv2_1"
}
layer {
  name: "conv2_2"
  type: "Convolution"
  bottom: "conv2_1"
  top: "conv2_2"
  param {
    lr_mult: 1
    decay_mult: 1
  }
  param {
    lr_mult: 2
    decay_mult: 0
  }
  convolution_param {
    num_output: 128
    pad: 1
    kernel_size: 3
    stride: 1
    weight_filler {
      type: "xavier"
    }
  }
}
layer {
  name: "relu2_2"
  type: "ReLU"
  bottom: "conv2_2"
  top: "conv2_2"
}
layer {
  name: "pool2"
  type: "Pooling"
  bottom: "conv2_2"
  top: "pool2"
  pooling_param {
    pool: MAX
    kernel_size: 2
    stride: 2
  }
}
layer {
  name: "conv3_1"
  type: "Convolution"
  bottom: "pool2"
  top: "conv3_1"
  param {
    lr_mult: 1
    decay_mult: 1
  }
  param {
    lr_mult: 2
    decay_mult: 0
  }
  convolution_param {
    num_output: 256
    pad: 1
    kernel_size: 3
    stride: 1
    weight_filler {
      type: "xavier"
    }
  }
}
layer {
  name: "relu3_1"
  type: "ReLU"
  bottom: "conv3_1"
  top: "conv3_1"
}
layer {
  name: "conv3_2"
  type: "Convolution"
  bottom: "conv3_1"
  top: "conv3_2"
  param {
    lr_mult: 1
    decay_mult: 1
  }
  param {
    lr_mult: 2
    decay_mult: 0
  }
  convolution_param {
    num_output: 256
    pad: 1
    kernel_size: 3
    stride: 1
    weight_filler {
      type: "xavier"
    }
  }
}
layer {
  name: "relu3_2"
  type: "ReLU"
  bottom: "conv3_2"
  top: "conv3_2"
}
layer {
  name: "conv3_3"
  type: "Convolution"
  bottom: "conv3_2"
  top: "conv3_3"
  param {
    lr_mult: 1
    decay_mult: 1
  }
  param {
    lr_mult: 2
    decay_mult: 0
  }
  convolution_param {
    num_output: 256
    pad: 1
    kernel_size: 3
    stride: 1
    weight_filler {
      type: "xavier"
    }
  }
}
layer {
  name: "relu3_3"
  type: "ReLU"
  bottom: "conv3_3"
  top: "conv3_3"
}
layer {
  name: "pool3"
  type: "Pooling"
  bottom: "conv3_3"
  top: "pool3"
  pooling_param {
    pool: MAX
    kernel_size: 2
    stride: 2
  }
}
layer {
  name: "conv4_1"
  type: "Convolution"
  bottom: "pool3"
  top: "conv4_1"
  param {
    lr_mult: 1
    decay_mult: 1
  }
  param {
    lr_mult: 2
    decay_mult: 0
  }
  convolution_param {
    num_output: 512
    pad: 1
    kernel_size: 3
    stride: 1
    weight_filler {
      type: "xavier"
    }
  }
}
layer {
  name: "relu4_1"
  type: "ReLU"
  bottom: "conv4_1"
  top: "conv4_1"
}
layer {
  name: "conv4_2"
  type: "Convolution"
  bottom: "conv4_1"
  top: "conv4_2"
  param {
    lr_mult: 1
    decay_mult: 1
  }
  param {
    lr_mult: 2
    decay_mult: 0
  }
  convolution_param {
    num_output: 512
    pad: 1
    kernel_size: 3
    stride: 1
    weight_filler {
      type: "xavier"
    }
  }
}
layer {
  name: "relu4_2"
  type: "ReLU"
  bottom: "conv4_2"
  top: "conv4_2"
}
layer {
  name: "conv4_3"
  type: "Convolution"
  bottom: "conv4_2"
  top: "conv4_3"
  param {
    lr_mult: 1
    decay_mult: 1
  }
  param {
    lr_mult: 2
    decay_mult: 0
  }
  convolution_param {
    num_output: 512
    pad: 1
    kernel_size: 3
    stride: 1
    weight_filler {
      type: "xavier"
    }
  }
}
layer {
  name: "relu4_3"
  type: "ReLU"
  bottom: "conv4_3"
  top: "conv4_3"
}
layer {
  name: "pool4"
  type: "Pooling"
  bottom: "conv4_3"
  top: "pool4"
  pooling_param {
    pool: MAX
    kernel_size: 2
    stride: 2
  }
}
layer {
  name: "conv5_1"
  type: "Convolution"
  bottom: "pool4"
  top: "conv5_1"
  param {
    lr_mult: 1
    decay_mult: 1
  }
  param {
    lr_mult: 2
    decay_mult: 0
  }
  convolution_param {
    num_output: 512
    pad: 1
    kernel_size: 3
    stride: 1
    weight_filler {
      type: "xavier"
    }
  }
}
layer {
  name: "relu5_1"
  type: "ReLU"
  bottom: "conv5_1"
  top: "conv5_1"
}
layer {
  name: "conv5_2"
  type: "Convolution"
  bottom: "conv5_1"
  top: "conv5_2"
  param {
    lr_mult: 1
    decay_mult: 1
  }
  param {
    lr_mult: 2
    decay_mult: 0
  }
  convolution_param {
    num_output: 512
    pad: 1
    kernel_size: 3
    stride: 1
    weight_filler {
      type: "xavier"
    }
  }
}
layer {
  name: "relu5_2"
  type: "ReLU"
  bottom: "conv5_2"
  top: "conv5_2"
}
layer {
  name: "conv5_3"
  type: "Convolution"
  bottom: "conv5_2"
  top: "conv5_3"
  param {
    lr_mult: 1
    decay_mult: 1
  }
  param {
    lr_mult: 2
    decay_mult: 0
  }
  convolution_param {
    num_output: 512
    pad: 1
    kernel_size: 3
    stride: 1
    weight_filler {
      type: "xavier"
    }
  }
}
layer {
  name: "relu5_3"
  type: "ReLU"
  bottom: "conv5_3"
  top: "conv5_3"
}
layer {
  name: "pool5"
  type: "Pooling"
  bottom: "conv5_3"
  top: "pool5"
  pooling_param {
    pool: MAX
    kernel_size: 2
    stride: 2
  }
}
layer {
  name: "fc6"
  type: "Convolution"
  bottom: "pool5"
  top: "fc6"
  param {
    lr_mult: 1
    decay_mult: 1
  }
  param {
    lr_mult: 2
    decay_mult: 0
  }
  convolution_param {
    num_output: 4096
    pad: 0
    kernel_size: 7
    stride: 1
    weight_filler {
      type: "xavier"
    }
  }
}
layer {
  name: "relu6"
  type: "ReLU"
  bottom: "fc6"
  top: "fc6"
}
layer {
  name: "drop6"
  type: "Dropout"
  bottom: "fc6"
  top: "fc6"
  dropout_param {
    dropout_ratio: 0.5
  }
}
layer {
  name: "fc7"
  type: "Convolution"
  bottom: "fc6"
  top: "fc7"
  param {
    lr_mult: 1
    decay_mult: 1
  }
  param {
    lr_mult: 2
    decay_mult: 0
  }
  convolution_param {
    num_output: 4096
    pad: 0
    kernel_size: 1
    stride: 1
    weight_filler {
      type: "xavier"
    }
  }
}
layer {
  name: "relu7"
  type: "ReLU"
  bottom: "fc7"
  top: "fc7"
}
layer {
  name: "drop7"
  type: "Dropout"
  bottom: "fc7"
  top: "fc7"
  dropout_param {
    dropout_ratio: 0.5
  }
}
layer {
  name: "score_fr"
  type: "Convolution"
  bottom: "fc7"
  top: "score_fr"
  param {
    lr_mult: 1
    decay_mult: 1
  }
  param {
    lr_mult: 2
    decay_mult: 0
  }
  convolution_param {
    num_output: 6
    pad: 0
    kernel_size: 1
    weight_filler {
      type: "xavier"
    }
  }
}
layer {
  name: "upscore2"
  type: "Deconvolution"
  bottom: "score_fr"
  top: "upscore2"
  param {
    lr_mult: 0
  }
  convolution_param {
    num_output: 6
    bias_term: false
    kernel_size: 4
    stride: 2
    weight_filler {
      type: "xavier"
    }
  }
}
layer {
  name: "scale_pool4"
  type: "Scale"
  bottom: "pool4"
  top: "scale_pool4"
  param {
    lr_mult: 0
  }
  scale_param {
    filler {
      type: "constant"
      value: 0.01
    }
  }
}
layer {
  name: "score_pool4"
  type: "Convolution"
  bottom: "scale_pool4"
  top: "score_pool4"
  param {
    lr_mult: 1
    decay_mult: 1
  }
  param {
    lr_mult: 2
    decay_mult: 0
  }
  convolution_param {
    num_output: 6
    pad: 0
    kernel_size: 1
    weight_filler {
      type: "xavier"
    }
  }
}
layer {
  name: "score_pool4c"
  type: "Crop"
  bottom: "score_pool4"
  bottom: "upscore2"
  top: "score_pool4c"
  crop_param {
    axis: 2
    offset: 5
  }
}
layer {
  name: "fuse_pool4"
  type: "Eltwise"
  bottom: "upscore2"
  bottom: "score_pool4c"
  top: "fuse_pool4"
  eltwise_param {
    operation: SUM
  }
}
layer {
  name: "upscore_pool4"
  type: "Deconvolution"
  bottom: "fuse_pool4"
  top: "upscore_pool4"
  param {
    lr_mult: 0
  }
  convolution_param {
    num_output: 6
    bias_term: false
    kernel_size: 4
    stride: 2
    weight_filler {
      type: "xavier"
    }
  }
}
layer {
  name: "scale_pool3"
  type: "Scale"
  bottom: "pool3"
  top: "scale_pool3"
  param {
    lr_mult: 0
  }
  scale_param {
    filler {
      type: "constant"
      value: 0.0001
    }
  }
}
layer {
  name: "score_pool3"
  type: "Convolution"
  bottom: "scale_pool3"
  top: "score_pool3"
  param {
    lr_mult: 1
    decay_mult: 1
  }
  param {
    lr_mult: 2
    decay_mult: 0
  }
  convolution_param {
    num_output: 6
    pad: 0
    kernel_size: 1
    weight_filler {
      type: "xavier"
    }
  }
}
layer {
  name: "score_pool3c"
  type: "Crop"
  bottom: "score_pool3"
  bottom: "upscore_pool4"
  top: "score_pool3c"
  crop_param {
    axis: 2
    offset: 9
  }
}
layer {
  name: "fuse_pool3"
  type: "Eltwise"
  bottom: "upscore_pool4"
  bottom: "score_pool3c"
  top: "fuse_pool3"
  eltwise_param {
    operation: SUM
  }
}
layer {
  name: "upscore8"
  type: "Deconvolution"
  bottom: "fuse_pool3"
  top: "upscore8"
  param {
    lr_mult: 0
  }
  convolution_param {
    num_output: 6
    bias_term: false
    kernel_size: 16
    stride: 8
    weight_filler {
      type: "xavier"
    }
  }
}
layer {
  name: "score"
  type: "Crop"
  bottom: "upscore8"
  bottom: "data"
  top: "score"
  crop_param {
    axis: 2
    offset: 31
  }
}
layer {
  name: "loss"
  type: "SoftmaxWithLoss"
  bottom: "score"
  bottom: "label"
  top: "loss"
  loss_param {
    ignore_label: 255
    normalize: false
  }
}
I1124 11:24:48.988494 19567 layer_factory.hpp:77] Creating layer data
I1124 11:24:48.988575 19567 net.cpp:100] Creating Layer data
I1124 11:24:48.988584 19567 net.cpp:408] data -> data
I1124 11:24:48.988592 19567 net.cpp:408] data -> label
I1124 11:24:49.006970 19567 net.cpp:150] Setting up data
I1124 11:24:49.007004 19567 net.cpp:157] Top shape: 1 3 335 500 (502500)
I1124 11:24:49.007010 19567 net.cpp:157] Top shape: 1 1 335 500 (167500)
I1124 11:24:49.007015 19567 net.cpp:165] Memory required for data: 2680000
I1124 11:24:49.007021 19567 layer_factory.hpp:77] Creating layer data_data_0_split
I1124 11:24:49.007033 19567 net.cpp:100] Creating Layer data_data_0_split
I1124 11:24:49.007038 19567 net.cpp:434] data_data_0_split <- data
I1124 11:24:49.007046 19567 net.cpp:408] data_data_0_split -> data_data_0_split_0
I1124 11:24:49.007057 19567 net.cpp:408] data_data_0_split -> data_data_0_split_1
I1124 11:24:49.007098 19567 net.cpp:150] Setting up data_data_0_split
I1124 11:24:49.007105 19567 net.cpp:157] Top shape: 1 3 335 500 (502500)
I1124 11:24:49.007110 19567 net.cpp:157] Top shape: 1 3 335 500 (502500)
I1124 11:24:49.007114 19567 net.cpp:165] Memory required for data: 6700000
I1124 11:24:49.007119 19567 layer_factory.hpp:77] Creating layer conv1_1
I1124 11:24:49.007131 19567 net.cpp:100] Creating Layer conv1_1
I1124 11:24:49.007135 19567 net.cpp:434] conv1_1 <- data_data_0_split_0
I1124 11:24:49.007143 19567 net.cpp:408] conv1_1 -> conv1_1
I1124 11:24:49.009413 19567 net.cpp:150] Setting up conv1_1
I1124 11:24:49.009431 19567 net.cpp:157] Top shape: 1 64 533 698 (23810176)
I1124 11:24:49.009438 19567 net.cpp:165] Memory required for data: 101940704
I1124 11:24:49.009450 19567 layer_factory.hpp:77] Creating layer relu1_1
I1124 11:24:49.009459 19567 net.cpp:100] Creating Layer relu1_1
I1124 11:24:49.009464 19567 net.cpp:434] relu1_1 <- conv1_1
I1124 11:24:49.009469 19567 net.cpp:395] relu1_1 -> conv1_1 (in-place)
I1124 11:24:49.009659 19567 net.cpp:150] Setting up relu1_1
I1124 11:24:49.009668 19567 net.cpp:157] Top shape: 1 64 533 698 (23810176)
I1124 11:24:49.009673 19567 net.cpp:165] Memory required for data: 197181408
I1124 11:24:49.009677 19567 layer_factory.hpp:77] Creating layer conv1_2
I1124 11:24:49.009690 19567 net.cpp:100] Creating Layer conv1_2
I1124 11:24:49.009694 19567 net.cpp:434] conv1_2 <- conv1_1
I1124 11:24:49.009701 19567 net.cpp:408] conv1_2 -> conv1_2
I1124 11:24:49.011977 19567 net.cpp:150] Setting up conv1_2
I1124 11:24:49.011994 19567 net.cpp:157] Top shape: 1 64 533 698 (23810176)
I1124 11:24:49.011999 19567 net.cpp:165] Memory required for data: 292422112
I1124 11:24:49.012011 19567 layer_factory.hpp:77] Creating layer relu1_2
I1124 11:24:49.012018 19567 net.cpp:100] Creating Layer relu1_2
I1124 11:24:49.012023 19567 net.cpp:434] relu1_2 <- conv1_2
I1124 11:24:49.012029 19567 net.cpp:395] relu1_2 -> conv1_2 (in-place)
I1124 11:24:49.012398 19567 net.cpp:150] Setting up relu1_2
I1124 11:24:49.012410 19567 net.cpp:157] Top shape: 1 64 533 698 (23810176)
I1124 11:24:49.012415 19567 net.cpp:165] Memory required for data: 387662816
I1124 11:24:49.012420 19567 layer_factory.hpp:77] Creating layer pool1
I1124 11:24:49.012429 19567 net.cpp:100] Creating Layer pool1
I1124 11:24:49.012434 19567 net.cpp:434] pool1 <- conv1_2
I1124 11:24:49.012440 19567 net.cpp:408] pool1 -> pool1
I1124 11:24:49.012491 19567 net.cpp:150] Setting up pool1
I1124 11:24:49.012500 19567 net.cpp:157] Top shape: 1 64 267 349 (5963712)
I1124 11:24:49.012503 19567 net.cpp:165] Memory required for data: 411517664
I1124 11:24:49.012507 19567 layer_factory.hpp:77] Creating layer conv2_1
I1124 11:24:49.012517 19567 net.cpp:100] Creating Layer conv2_1
I1124 11:24:49.012521 19567 net.cpp:434] conv2_1 <- pool1
I1124 11:24:49.012528 19567 net.cpp:408] conv2_1 -> conv2_1
I1124 11:24:49.014713 19567 net.cpp:150] Setting up conv2_1
I1124 11:24:49.014729 19567 net.cpp:157] Top shape: 1 128 267 349 (11927424)
I1124 11:24:49.014734 19567 net.cpp:165] Memory required for data: 459227360
I1124 11:24:49.014744 19567 layer_factory.hpp:77] Creating layer relu2_1
I1124 11:24:49.014753 19567 net.cpp:100] Creating Layer relu2_1
I1124 11:24:49.014758 19567 net.cpp:434] relu2_1 <- conv2_1
I1124 11:24:49.014765 19567 net.cpp:395] relu2_1 -> conv2_1 (in-place)
I1124 11:24:49.015148 19567 net.cpp:150] Setting up relu2_1
I1124 11:24:49.015162 19567 net.cpp:157] Top shape: 1 128 267 349 (11927424)
I1124 11:24:49.015166 19567 net.cpp:165] Memory required for data: 506937056
I1124 11:24:49.015172 19567 layer_factory.hpp:77] Creating layer conv2_2
I1124 11:24:49.015193 19567 net.cpp:100] Creating Layer conv2_2
I1124 11:24:49.015203 19567 net.cpp:434] conv2_2 <- conv2_1
I1124 11:24:49.015214 19567 net.cpp:408] conv2_2 -> conv2_2
I1124 11:24:49.017765 19567 net.cpp:150] Setting up conv2_2
I1124 11:24:49.017782 19567 net.cpp:157] Top shape: 1 128 267 349 (11927424)
I1124 11:24:49.017787 19567 net.cpp:165] Memory required for data: 554646752
I1124 11:24:49.017796 19567 layer_factory.hpp:77] Creating layer relu2_2
I1124 11:24:49.017803 19567 net.cpp:100] Creating Layer relu2_2
I1124 11:24:49.017807 19567 net.cpp:434] relu2_2 <- conv2_2
I1124 11:24:49.017814 19567 net.cpp:395] relu2_2 -> conv2_2 (in-place)
I1124 11:24:49.018002 19567 net.cpp:150] Setting up relu2_2
I1124 11:24:49.018013 19567 net.cpp:157] Top shape: 1 128 267 349 (11927424)
I1124 11:24:49.018016 19567 net.cpp:165] Memory required for data: 602356448
I1124 11:24:49.018021 19567 layer_factory.hpp:77] Creating layer pool2
I1124 11:24:49.018029 19567 net.cpp:100] Creating Layer pool2
I1124 11:24:49.018033 19567 net.cpp:434] pool2 <- conv2_2
I1124 11:24:49.018040 19567 net.cpp:408] pool2 -> pool2
I1124 11:24:49.018090 19567 net.cpp:150] Setting up pool2
I1124 11:24:49.018098 19567 net.cpp:157] Top shape: 1 128 134 175 (3001600)
I1124 11:24:49.018102 19567 net.cpp:165] Memory required for data: 614362848
I1124 11:24:49.018106 19567 layer_factory.hpp:77] Creating layer conv3_1
I1124 11:24:49.018116 19567 net.cpp:100] Creating Layer conv3_1
I1124 11:24:49.018121 19567 net.cpp:434] conv3_1 <- pool2
I1124 11:24:49.018128 19567 net.cpp:408] conv3_1 -> conv3_1
I1124 11:24:49.021438 19567 net.cpp:150] Setting up conv3_1
I1124 11:24:49.021456 19567 net.cpp:157] Top shape: 1 256 134 175 (6003200)
I1124 11:24:49.021461 19567 net.cpp:165] Memory required for data: 638375648
I1124 11:24:49.021472 19567 layer_factory.hpp:77] Creating layer relu3_1
I1124 11:24:49.021492 19567 net.cpp:100] Creating Layer relu3_1
I1124 11:24:49.021497 19567 net.cpp:434] relu3_1 <- conv3_1
I1124 11:24:49.021503 19567 net.cpp:395] relu3_1 -> conv3_1 (in-place)
I1124 11:24:49.021867 19567 net.cpp:150] Setting up relu3_1
I1124 11:24:49.021880 19567 net.cpp:157] Top shape: 1 256 134 175 (6003200)
I1124 11:24:49.021885 19567 net.cpp:165] Memory required for data: 662388448
I1124 11:24:49.021890 19567 layer_factory.hpp:77] Creating layer conv3_2
I1124 11:24:49.021901 19567 net.cpp:100] Creating Layer conv3_2
I1124 11:24:49.021906 19567 net.cpp:434] conv3_2 <- conv3_1
I1124 11:24:49.021914 19567 net.cpp:408] conv3_2 -> conv3_2
I1124 11:24:49.027204 19567 net.cpp:150] Setting up conv3_2
I1124 11:24:49.027223 19567 net.cpp:157] Top shape: 1 256 134 175 (6003200)
I1124 11:24:49.027228 19567 net.cpp:165] Memory required for data: 686401248
I1124 11:24:49.027236 19567 layer_factory.hpp:77] Creating layer relu3_2
I1124 11:24:49.027245 19567 net.cpp:100] Creating Layer relu3_2
I1124 11:24:49.027250 19567 net.cpp:434] relu3_2 <- conv3_2
I1124 11:24:49.027256 19567 net.cpp:395] relu3_2 -> conv3_2 (in-place)
I1124 11:24:49.027441 19567 net.cpp:150] Setting up relu3_2
I1124 11:24:49.027451 19567 net.cpp:157] Top shape: 1 256 134 175 (6003200)
I1124 11:24:49.027456 19567 net.cpp:165] Memory required for data: 710414048
I1124 11:24:49.027461 19567 layer_factory.hpp:77] Creating layer conv3_3
I1124 11:24:49.027472 19567 net.cpp:100] Creating Layer conv3_3
I1124 11:24:49.027477 19567 net.cpp:434] conv3_3 <- conv3_2
I1124 11:24:49.027485 19567 net.cpp:408] conv3_3 -> conv3_3
I1124 11:24:49.032718 19567 net.cpp:150] Setting up conv3_3
I1124 11:24:49.032737 19567 net.cpp:157] Top shape: 1 256 134 175 (6003200)
I1124 11:24:49.032742 19567 net.cpp:165] Memory required for data: 734426848
I1124 11:24:49.032749 19567 layer_factory.hpp:77] Creating layer relu3_3
I1124 11:24:49.032757 19567 net.cpp:100] Creating Layer relu3_3
I1124 11:24:49.032763 19567 net.cpp:434] relu3_3 <- conv3_3
I1124 11:24:49.032769 19567 net.cpp:395] relu3_3 -> conv3_3 (in-place)
I1124 11:24:49.032954 19567 net.cpp:150] Setting up relu3_3
I1124 11:24:49.032963 19567 net.cpp:157] Top shape: 1 256 134 175 (6003200)
I1124 11:24:49.032968 19567 net.cpp:165] Memory required for data: 758439648
I1124 11:24:49.032973 19567 layer_factory.hpp:77] Creating layer pool3
I1124 11:24:49.032980 19567 net.cpp:100] Creating Layer pool3
I1124 11:24:49.032985 19567 net.cpp:434] pool3 <- conv3_3
I1124 11:24:49.032991 19567 net.cpp:408] pool3 -> pool3
I1124 11:24:49.033043 19567 net.cpp:150] Setting up pool3
I1124 11:24:49.033051 19567 net.cpp:157] Top shape: 1 256 67 88 (1509376)
I1124 11:24:49.033056 19567 net.cpp:165] Memory required for data: 764477152
I1124 11:24:49.033059 19567 layer_factory.hpp:77] Creating layer pool3_pool3_0_split
I1124 11:24:49.033066 19567 net.cpp:100] Creating Layer pool3_pool3_0_split
I1124 11:24:49.033071 19567 net.cpp:434] pool3_pool3_0_split <- pool3
I1124 11:24:49.033077 19567 net.cpp:408] pool3_pool3_0_split -> pool3_pool3_0_split_0
I1124 11:24:49.033083 19567 net.cpp:408] pool3_pool3_0_split -> pool3_pool3_0_split_1
I1124 11:24:49.033123 19567 net.cpp:150] Setting up pool3_pool3_0_split
I1124 11:24:49.033129 19567 net.cpp:157] Top shape: 1 256 67 88 (1509376)
I1124 11:24:49.033134 19567 net.cpp:157] Top shape: 1 256 67 88 (1509376)
I1124 11:24:49.033138 19567 net.cpp:165] Memory required for data: 776552160
I1124 11:24:49.033143 19567 layer_factory.hpp:77] Creating layer conv4_1
I1124 11:24:49.033152 19567 net.cpp:100] Creating Layer conv4_1
I1124 11:24:49.033156 19567 net.cpp:434] conv4_1 <- pool3_pool3_0_split_0
I1124 11:24:49.033164 19567 net.cpp:408] conv4_1 -> conv4_1
I1124 11:24:49.042335 19567 net.cpp:150] Setting up conv4_1
I1124 11:24:49.042366 19567 net.cpp:157] Top shape: 1 512 67 88 (3018752)
I1124 11:24:49.042371 19567 net.cpp:165] Memory required for data: 788627168
I1124 11:24:49.042381 19567 layer_factory.hpp:77] Creating layer relu4_1
I1124 11:24:49.042389 19567 net.cpp:100] Creating Layer relu4_1
I1124 11:24:49.042395 19567 net.cpp:434] relu4_1 <- conv4_1
I1124 11:24:49.042414 19567 net.cpp:395] relu4_1 -> conv4_1 (in-place)
I1124 11:24:49.042781 19567 net.cpp:150] Setting up relu4_1
I1124 11:24:49.042794 19567 net.cpp:157] Top shape: 1 512 67 88 (3018752)
I1124 11:24:49.042799 19567 net.cpp:165] Memory required for data: 800702176
I1124 11:24:49.042804 19567 layer_factory.hpp:77] Creating layer conv4_2
I1124 11:24:49.042814 19567 net.cpp:100] Creating Layer conv4_2
I1124 11:24:49.042819 19567 net.cpp:434] conv4_2 <- conv4_1
I1124 11:24:49.042827 19567 net.cpp:408] conv4_2 -> conv4_2
I1124 11:24:49.060219 19567 net.cpp:150] Setting up conv4_2
I1124 11:24:49.060259 19567 net.cpp:157] Top shape: 1 512 67 88 (3018752)
I1124 11:24:49.060264 19567 net.cpp:165] Memory required for data: 812777184
I1124 11:24:49.060281 19567 layer_factory.hpp:77] Creating layer relu4_2
I1124 11:24:49.060292 19567 net.cpp:100] Creating Layer relu4_2
I1124 11:24:49.060297 19567 net.cpp:434] relu4_2 <- conv4_2
I1124 11:24:49.060305 19567 net.cpp:395] relu4_2 -> conv4_2 (in-place)
I1124 11:24:49.060497 19567 net.cpp:150] Setting up relu4_2
I1124 11:24:49.060506 19567 net.cpp:157] Top shape: 1 512 67 88 (3018752)
I1124 11:24:49.060510 19567 net.cpp:165] Memory required for data: 824852192
I1124 11:24:49.060515 19567 layer_factory.hpp:77] Creating layer conv4_3
I1124 11:24:49.060528 19567 net.cpp:100] Creating Layer conv4_3
I1124 11:24:49.060533 19567 net.cpp:434] conv4_3 <- conv4_2
I1124 11:24:49.060540 19567 net.cpp:408] conv4_3 -> conv4_3
I1124 11:24:49.078030 19567 net.cpp:150] Setting up conv4_3
I1124 11:24:49.078066 19567 net.cpp:157] Top shape: 1 512 67 88 (3018752)
I1124 11:24:49.078071 19567 net.cpp:165] Memory required for data: 836927200
I1124 11:24:49.078081 19567 layer_factory.hpp:77] Creating layer relu4_3
I1124 11:24:49.078094 19567 net.cpp:100] Creating Layer relu4_3
I1124 11:24:49.078099 19567 net.cpp:434] relu4_3 <- conv4_3
I1124 11:24:49.078106 19567 net.cpp:395] relu4_3 -> conv4_3 (in-place)
I1124 11:24:49.078313 19567 net.cpp:150] Setting up relu4_3
I1124 11:24:49.078323 19567 net.cpp:157] Top shape: 1 512 67 88 (3018752)
I1124 11:24:49.078327 19567 net.cpp:165] Memory required for data: 849002208
I1124 11:24:49.078332 19567 layer_factory.hpp:77] Creating layer pool4
I1124 11:24:49.078341 19567 net.cpp:100] Creating Layer pool4
I1124 11:24:49.078346 19567 net.cpp:434] pool4 <- conv4_3
I1124 11:24:49.078351 19567 net.cpp:408] pool4 -> pool4
I1124 11:24:49.078405 19567 net.cpp:150] Setting up pool4
I1124 11:24:49.078413 19567 net.cpp:157] Top shape: 1 512 34 44 (765952)
I1124 11:24:49.078416 19567 net.cpp:165] Memory required for data: 852066016
I1124 11:24:49.078420 19567 layer_factory.hpp:77] Creating layer pool4_pool4_0_split
I1124 11:24:49.078428 19567 net.cpp:100] Creating Layer pool4_pool4_0_split
I1124 11:24:49.078431 19567 net.cpp:434] pool4_pool4_0_split <- pool4
I1124 11:24:49.078438 19567 net.cpp:408] pool4_pool4_0_split -> pool4_pool4_0_split_0
I1124 11:24:49.078444 19567 net.cpp:408] pool4_pool4_0_split -> pool4_pool4_0_split_1
I1124 11:24:49.078486 19567 net.cpp:150] Setting up pool4_pool4_0_split
I1124 11:24:49.078493 19567 net.cpp:157] Top shape: 1 512 34 44 (765952)
I1124 11:24:49.078498 19567 net.cpp:157] Top shape: 1 512 34 44 (765952)
I1124 11:24:49.078501 19567 net.cpp:165] Memory required for data: 858193632
I1124 11:24:49.078505 19567 layer_factory.hpp:77] Creating layer conv5_1
I1124 11:24:49.078517 19567 net.cpp:100] Creating Layer conv5_1
I1124 11:24:49.078521 19567 net.cpp:434] conv5_1 <- pool4_pool4_0_split_0
I1124 11:24:49.078529 19567 net.cpp:408] conv5_1 -> conv5_1
I1124 11:24:49.095927 19567 net.cpp:150] Setting up conv5_1
I1124 11:24:49.095966 19567 net.cpp:157] Top shape: 1 512 34 44 (765952)
I1124 11:24:49.095971 19567 net.cpp:165] Memory required for data: 861257440
I1124 11:24:49.095983 19567 layer_factory.hpp:77] Creating layer relu5_1
I1124 11:24:49.095993 19567 net.cpp:100] Creating Layer relu5_1
I1124 11:24:49.095999 19567 net.cpp:434] relu5_1 <- conv5_1
I1124 11:24:49.096007 19567 net.cpp:395] relu5_1 -> conv5_1 (in-place)
I1124 11:24:49.096388 19567 net.cpp:150] Setting up relu5_1
I1124 11:24:49.096402 19567 net.cpp:157] Top shape: 1 512 34 44 (765952)
I1124 11:24:49.096406 19567 net.cpp:165] Memory required for data: 864321248
I1124 11:24:49.096411 19567 layer_factory.hpp:77] Creating layer conv5_2
I1124 11:24:49.096423 19567 net.cpp:100] Creating Layer conv5_2
I1124 11:24:49.096428 19567 net.cpp:434] conv5_2 <- conv5_1
I1124 11:24:49.096436 19567 net.cpp:408] conv5_2 -> conv5_2
I1124 11:24:49.114033 19567 net.cpp:150] Setting up conv5_2
I1124 11:24:49.114078 19567 net.cpp:157] Top shape: 1 512 34 44 (765952)
I1124 11:24:49.114084 19567 net.cpp:165] Memory required for data: 867385056
I1124 11:24:49.114094 19567 layer_factory.hpp:77] Creating layer relu5_2
I1124 11:24:49.114105 19567 net.cpp:100] Creating Layer relu5_2
I1124 11:24:49.114111 19567 net.cpp:434] relu5_2 <- conv5_2
I1124 11:24:49.114120 19567 net.cpp:395] relu5_2 -> conv5_2 (in-place)
I1124 11:24:49.114312 19567 net.cpp:150] Setting up relu5_2
I1124 11:24:49.114322 19567 net.cpp:157] Top shape: 1 512 34 44 (765952)
I1124 11:24:49.114326 19567 net.cpp:165] Memory required for data: 870448864
I1124 11:24:49.114331 19567 layer_factory.hpp:77] Creating layer conv5_3
I1124 11:24:49.114347 19567 net.cpp:100] Creating Layer conv5_3
I1124 11:24:49.114352 19567 net.cpp:434] conv5_3 <- conv5_2
I1124 11:24:49.114361 19567 net.cpp:408] conv5_3 -> conv5_3
I1124 11:24:49.131659 19567 net.cpp:150] Setting up conv5_3
I1124 11:24:49.131700 19567 net.cpp:157] Top shape: 1 512 34 44 (765952)
I1124 11:24:49.131705 19567 net.cpp:165] Memory required for data: 873512672
I1124 11:24:49.131714 19567 layer_factory.hpp:77] Creating layer relu5_3
I1124 11:24:49.131726 19567 net.cpp:100] Creating Layer relu5_3
I1124 11:24:49.131732 19567 net.cpp:434] relu5_3 <- conv5_3
I1124 11:24:49.131741 19567 net.cpp:395] relu5_3 -> conv5_3 (in-place)
I1124 11:24:49.131935 19567 net.cpp:150] Setting up relu5_3
I1124 11:24:49.131945 19567 net.cpp:157] Top shape: 1 512 34 44 (765952)
I1124 11:24:49.131949 19567 net.cpp:165] Memory required for data: 876576480
I1124 11:24:49.131953 19567 layer_factory.hpp:77] Creating layer pool5
I1124 11:24:49.131965 19567 net.cpp:100] Creating Layer pool5
I1124 11:24:49.131969 19567 net.cpp:434] pool5 <- conv5_3
I1124 11:24:49.131976 19567 net.cpp:408] pool5 -> pool5
I1124 11:24:49.132031 19567 net.cpp:150] Setting up pool5
I1124 11:24:49.132038 19567 net.cpp:157] Top shape: 1 512 17 22 (191488)
I1124 11:24:49.132042 19567 net.cpp:165] Memory required for data: 877342432
I1124 11:24:49.132046 19567 layer_factory.hpp:77] Creating layer fc6
I1124 11:24:49.132058 19567 net.cpp:100] Creating Layer fc6
I1124 11:24:49.132062 19567 net.cpp:434] fc6 <- pool5
I1124 11:24:49.132071 19567 net.cpp:408] fc6 -> fc6
I1124 11:24:49.834828 19567 net.cpp:150] Setting up fc6
I1124 11:24:49.834883 19567 net.cpp:157] Top shape: 1 4096 11 16 (720896)
I1124 11:24:49.834888 19567 net.cpp:165] Memory required for data: 880226016
I1124 11:24:49.834903 19567 layer_factory.hpp:77] Creating layer relu6
I1124 11:24:49.834921 19567 net.cpp:100] Creating Layer relu6
I1124 11:24:49.834928 19567 net.cpp:434] relu6 <- fc6
I1124 11:24:49.834938 19567 net.cpp:395] relu6 -> fc6 (in-place)
I1124 11:24:49.835343 19567 net.cpp:150] Setting up relu6
I1124 11:24:49.835357 19567 net.cpp:157] Top shape: 1 4096 11 16 (720896)
I1124 11:24:49.835361 19567 net.cpp:165] Memory required for data: 883109600
I1124 11:24:49.835366 19567 layer_factory.hpp:77] Creating layer drop6
I1124 11:24:49.835377 19567 net.cpp:100] Creating Layer drop6
I1124 11:24:49.835382 19567 net.cpp:434] drop6 <- fc6
I1124 11:24:49.835389 19567 net.cpp:395] drop6 -> fc6 (in-place)
I1124 11:24:49.835444 19567 net.cpp:150] Setting up drop6
I1124 11:24:49.835453 19567 net.cpp:157] Top shape: 1 4096 11 16 (720896)
I1124 11:24:49.835456 19567 net.cpp:165] Memory required for data: 885993184
I1124 11:24:49.835460 19567 layer_factory.hpp:77] Creating layer fc7
I1124 11:24:49.835474 19567 net.cpp:100] Creating Layer fc7
I1124 11:24:49.835479 19567 net.cpp:434] fc7 <- fc6
I1124 11:24:49.835500 19567 net.cpp:408] fc7 -> fc7
I1124 11:24:49.952447 19567 net.cpp:150] Setting up fc7
I1124 11:24:49.952489 19567 net.cpp:157] Top shape: 1 4096 11 16 (720896)
I1124 11:24:49.952494 19567 net.cpp:165] Memory required for data: 888876768
I1124 11:24:49.952504 19567 layer_factory.hpp:77] Creating layer relu7
I1124 11:24:49.952517 19567 net.cpp:100] Creating Layer relu7
I1124 11:24:49.952523 19567 net.cpp:434] relu7 <- fc7
I1124 11:24:49.952533 19567 net.cpp:395] relu7 -> fc7 (in-place)
I1124 11:24:49.952738 19567 net.cpp:150] Setting up relu7
I1124 11:24:49.952747 19567 net.cpp:157] Top shape: 1 4096 11 16 (720896)
I1124 11:24:49.952751 19567 net.cpp:165] Memory required for data: 891760352
I1124 11:24:49.952756 19567 layer_factory.hpp:77] Creating layer drop7
I1124 11:24:49.952765 19567 net.cpp:100] Creating Layer drop7
I1124 11:24:49.952769 19567 net.cpp:434] drop7 <- fc7
I1124 11:24:49.952776 19567 net.cpp:395] drop7 -> fc7 (in-place)
I1124 11:24:49.952816 19567 net.cpp:150] Setting up drop7
I1124 11:24:49.952824 19567 net.cpp:157] Top shape: 1 4096 11 16 (720896)
I1124 11:24:49.952828 19567 net.cpp:165] Memory required for data: 894643936
I1124 11:24:49.952832 19567 layer_factory.hpp:77] Creating layer score_fr
I1124 11:24:49.952846 19567 net.cpp:100] Creating Layer score_fr
I1124 11:24:49.952849 19567 net.cpp:434] score_fr <- fc7
I1124 11:24:49.952858 19567 net.cpp:408] score_fr -> score_fr
I1124 11:24:49.955080 19567 net.cpp:150] Setting up score_fr
I1124 11:24:49.955094 19567 net.cpp:157] Top shape: 1 6 11 16 (1056)
I1124 11:24:49.955099 19567 net.cpp:165] Memory required for data: 894648160
I1124 11:24:49.955107 19567 layer_factory.hpp:77] Creating layer upscore2
I1124 11:24:49.955119 19567 net.cpp:100] Creating Layer upscore2
I1124 11:24:49.955124 19567 net.cpp:434] upscore2 <- score_fr
I1124 11:24:49.955132 19567 net.cpp:408] upscore2 -> upscore2
I1124 11:24:49.955415 19567 net.cpp:150] Setting up upscore2
I1124 11:24:49.955425 19567 net.cpp:157] Top shape: 1 6 24 34 (4896)
I1124 11:24:49.955430 19567 net.cpp:165] Memory required for data: 894667744
I1124 11:24:49.955448 19567 layer_factory.hpp:77] Creating layer upscore2_upscore2_0_split
I1124 11:24:49.955457 19567 net.cpp:100] Creating Layer upscore2_upscore2_0_split
I1124 11:24:49.955461 19567 net.cpp:434] upscore2_upscore2_0_split <- upscore2
I1124 11:24:49.955468 19567 net.cpp:408] upscore2_upscore2_0_split -> upscore2_upscore2_0_split_0
I1124 11:24:49.955476 19567 net.cpp:408] upscore2_upscore2_0_split -> upscore2_upscore2_0_split_1
I1124 11:24:49.955523 19567 net.cpp:150] Setting up upscore2_upscore2_0_split
I1124 11:24:49.955529 19567 net.cpp:157] Top shape: 1 6 24 34 (4896)
I1124 11:24:49.955534 19567 net.cpp:157] Top shape: 1 6 24 34 (4896)
I1124 11:24:49.955538 19567 net.cpp:165] Memory required for data: 894706912
I1124 11:24:49.955543 19567 layer_factory.hpp:77] Creating layer scale_pool4
I1124 11:24:49.955552 19567 net.cpp:100] Creating Layer scale_pool4
I1124 11:24:49.955556 19567 net.cpp:434] scale_pool4 <- pool4_pool4_0_split_1
I1124 11:24:49.955564 19567 net.cpp:408] scale_pool4 -> scale_pool4
I1124 11:24:49.955703 19567 net.cpp:150] Setting up scale_pool4
I1124 11:24:49.955713 19567 net.cpp:157] Top shape: 1 512 34 44 (765952)
I1124 11:24:49.955716 19567 net.cpp:165] Memory required for data: 897770720
I1124 11:24:49.955721 19567 layer_factory.hpp:77] Creating layer score_pool4
I1124 11:24:49.955732 19567 net.cpp:100] Creating Layer score_pool4
I1124 11:24:49.955737 19567 net.cpp:434] score_pool4 <- scale_pool4
I1124 11:24:49.955744 19567 net.cpp:408] score_pool4 -> score_pool4
I1124 11:24:49.957088 19567 net.cpp:150] Setting up score_pool4
I1124 11:24:49.957103 19567 net.cpp:157] Top shape: 1 6 34 44 (8976)
I1124 11:24:49.957108 19567 net.cpp:165] Memory required for data: 897806624
I1124 11:24:49.957115 19567 layer_factory.hpp:77] Creating layer score_pool4c
I1124 11:24:49.957124 19567 net.cpp:100] Creating Layer score_pool4c
I1124 11:24:49.957129 19567 net.cpp:434] score_pool4c <- score_pool4
I1124 11:24:49.957146 19567 net.cpp:434] score_pool4c <- upscore2_upscore2_0_split_0
I1124 11:24:49.957155 19567 net.cpp:408] score_pool4c -> score_pool4c
I1124 11:24:49.957193 19567 net.cpp:150] Setting up score_pool4c
I1124 11:24:49.957201 19567 net.cpp:157] Top shape: 1 6 24 34 (4896)
I1124 11:24:49.957206 19567 net.cpp:165] Memory required for data: 897826208
I1124 11:24:49.957209 19567 layer_factory.hpp:77] Creating layer fuse_pool4
I1124 11:24:49.957218 19567 net.cpp:100] Creating Layer fuse_pool4
I1124 11:24:49.957222 19567 net.cpp:434] fuse_pool4 <- upscore2_upscore2_0_split_1
I1124 11:24:49.957227 19567 net.cpp:434] fuse_pool4 <- score_pool4c
I1124 11:24:49.957233 19567 net.cpp:408] fuse_pool4 -> fuse_pool4
I1124 11:24:49.957265 19567 net.cpp:150] Setting up fuse_pool4
I1124 11:24:49.957273 19567 net.cpp:157] Top shape: 1 6 24 34 (4896)
I1124 11:24:49.957275 19567 net.cpp:165] Memory required for data: 897845792
I1124 11:24:49.957279 19567 layer_factory.hpp:77] Creating layer upscore_pool4
I1124 11:24:49.957288 19567 net.cpp:100] Creating Layer upscore_pool4
I1124 11:24:49.957293 19567 net.cpp:434] upscore_pool4 <- fuse_pool4
I1124 11:24:49.957300 19567 net.cpp:408] upscore_pool4 -> upscore_pool4
I1124 11:24:49.957545 19567 net.cpp:150] Setting up upscore_pool4
I1124 11:24:49.957553 19567 net.cpp:157] Top shape: 1 6 50 70 (21000)
I1124 11:24:49.957557 19567 net.cpp:165] Memory required for data: 897929792
I1124 11:24:49.957562 19567 layer_factory.hpp:77] Creating layer upscore_pool4_upscore_pool4_0_split
I1124 11:24:49.957569 19567 net.cpp:100] Creating Layer upscore_pool4_upscore_pool4_0_split
I1124 11:24:49.957574 19567 net.cpp:434] upscore_pool4_upscore_pool4_0_split <- upscore_pool4
I1124 11:24:49.957581 19567 net.cpp:408] upscore_pool4_upscore_pool4_0_split -> upscore_pool4_upscore_pool4_0_split_0
I1124 11:24:49.957588 19567 net.cpp:408] upscore_pool4_upscore_pool4_0_split -> upscore_pool4_upscore_pool4_0_split_1
I1124 11:24:49.957633 19567 net.cpp:150] Setting up upscore_pool4_upscore_pool4_0_split
I1124 11:24:49.957638 19567 net.cpp:157] Top shape: 1 6 50 70 (21000)
I1124 11:24:49.957643 19567 net.cpp:157] Top shape: 1 6 50 70 (21000)
I1124 11:24:49.957648 19567 net.cpp:165] Memory required for data: 898097792
I1124 11:24:49.957651 19567 layer_factory.hpp:77] Creating layer scale_pool3
I1124 11:24:49.957659 19567 net.cpp:100] Creating Layer scale_pool3
I1124 11:24:49.957664 19567 net.cpp:434] scale_pool3 <- pool3_pool3_0_split_1
I1124 11:24:49.957670 19567 net.cpp:408] scale_pool3 -> scale_pool3
I1124 11:24:49.957793 19567 net.cpp:150] Setting up scale_pool3
I1124 11:24:49.957800 19567 net.cpp:157] Top shape: 1 256 67 88 (1509376)
I1124 11:24:49.957804 19567 net.cpp:165] Memory required for data: 904135296
I1124 11:24:49.957809 19567 layer_factory.hpp:77] Creating layer score_pool3
I1124 11:24:49.957819 19567 net.cpp:100] Creating Layer score_pool3
I1124 11:24:49.957824 19567 net.cpp:434] score_pool3 <- scale_pool3
I1124 11:24:49.957831 19567 net.cpp:408] score_pool3 -> score_pool3
I1124 11:24:49.959122 19567 net.cpp:150] Setting up score_pool3
I1124 11:24:49.959137 19567 net.cpp:157] Top shape: 1 6 67 88 (35376)
I1124 11:24:49.959141 19567 net.cpp:165] Memory required for data: 904276800
I1124 11:24:49.959148 19567 layer_factory.hpp:77] Creating layer score_pool3c
I1124 11:24:49.959158 19567 net.cpp:100] Creating Layer score_pool3c
I1124 11:24:49.959163 19567 net.cpp:434] score_pool3c <- score_pool3
I1124 11:24:49.959169 19567 net.cpp:434] score_pool3c <- upscore_pool4_upscore_pool4_0_split_0
I1124 11:24:49.959175 19567 net.cpp:408] score_pool3c -> score_pool3c
I1124 11:24:49.959223 19567 net.cpp:150] Setting up score_pool3c
I1124 11:24:49.959231 19567 net.cpp:157] Top shape: 1 6 50 70 (21000)
I1124 11:24:49.959235 19567 net.cpp:165] Memory required for data: 904360800
I1124 11:24:49.959239 19567 layer_factory.hpp:77] Creating layer fuse_pool3
I1124 11:24:49.959249 19567 net.cpp:100] Creating Layer fuse_pool3
I1124 11:24:49.959252 19567 net.cpp:434] fuse_pool3 <- upscore_pool4_upscore_pool4_0_split_1
I1124 11:24:49.959264 19567 net.cpp:434] fuse_pool3 <- score_pool3c
I1124 11:24:49.959271 19567 net.cpp:408] fuse_pool3 -> fuse_pool3
I1124 11:24:49.959303 19567 net.cpp:150] Setting up fuse_pool3
I1124 11:24:49.959311 19567 net.cpp:157] Top shape: 1 6 50 70 (21000)
I1124 11:24:49.959314 19567 net.cpp:165] Memory required for data: 904444800
I1124 11:24:49.959318 19567 layer_factory.hpp:77] Creating layer upscore8
I1124 11:24:49.959327 19567 net.cpp:100] Creating Layer upscore8
I1124 11:24:49.959331 19567 net.cpp:434] upscore8 <- fuse_pool3
I1124 11:24:49.959339 19567 net.cpp:408] upscore8 -> upscore8
I1124 11:24:49.959640 19567 net.cpp:150] Setting up upscore8
I1124 11:24:49.959647 19567 net.cpp:157] Top shape: 1 6 408 568 (1390464)
I1124 11:24:49.959651 19567 net.cpp:165] Memory required for data: 910006656
I1124 11:24:49.959656 19567 layer_factory.hpp:77] Creating layer score
I1124 11:24:49.959666 19567 net.cpp:100] Creating Layer score
I1124 11:24:49.959671 19567 net.cpp:434] score <- upscore8
I1124 11:24:49.959676 19567 net.cpp:434] score <- data_data_0_split_1
I1124 11:24:49.959681 19567 net.cpp:408] score -> score
I1124 11:24:49.959712 19567 net.cpp:150] Setting up score
I1124 11:24:49.959717 19567 net.cpp:157] Top shape: 1 6 335 500 (1005000)
I1124 11:24:49.959722 19567 net.cpp:165] Memory required for data: 914026656
I1124 11:24:49.959725 19567 layer_factory.hpp:77] Creating layer loss
I1124 11:24:49.959734 19567 net.cpp:100] Creating Layer loss
I1124 11:24:49.959738 19567 net.cpp:434] loss <- score
I1124 11:24:49.959743 19567 net.cpp:434] loss <- label
I1124 11:24:49.959748 19567 net.cpp:408] loss -> loss
I1124 11:24:49.959758 19567 layer_factory.hpp:77] Creating layer loss
…
