…
test_initialization: false
average_loss: 20
iter_size: 1
I0125 13:12:40.294447  1998 solver.cpp:81] Creating training net from train_net file: train.prototxt
I0125 13:12:40.295799  1998 net.cpp:58] Initializing net from parameters: 
state {
  phase: TRAIN
}
layer {
  name: "data"
  type: "Python"
  top: "data"
  top: "label"
  python_param {
    module: "voc_layers"
    layer: "PartialSBDDSegDataLayer"
    param_str: "{\'sbdd_dir\': \'../data/sbdd/dataset\', \'seed\': 1337, \'split\': \'train5\', \'mean\': (104.00699, 116.66877, 122.67892)}"
  }
}
layer {
  name: "conv1_1"
  type: "Convolution"
  bottom: "data"
  top: "conv1_1"
  param {
    lr_mult: 1
    decay_mult: 1
  }
  param {
    lr_mult: 2
    decay_mult: 0
  }
  convolution_param {
    num_output: 64
    pad: 100
    kernel_size: 3
    stride: 1
    weight_filler {
      type: "xavier"
    }
  }
}
layer {
  name: "relu1_1"
  type: "ReLU"
  bottom: "conv1_1"
  top: "conv1_1"
}
layer {
  name: "conv1_2"
  type: "Convolution"
  bottom: "conv1_1"
  top: "conv1_2"
  param {
    lr_mult: 1
    decay_mult: 1
  }
  param {
    lr_mult: 2
    decay_mult: 0
  }
  convolution_param {
    num_output: 64
    pad: 1
    kernel_size: 3
    stride: 1
    weight_filler {
      type: "xavier"
    }
  }
}
layer {
  name: "relu1_2"
  type: "ReLU"
  bottom: "conv1_2"
  top: "conv1_2"
}
layer {
  name: "pool1"
  type: "Pooling"
  bottom: "conv1_2"
  top: "pool1"
  pooling_param {
    pool: MAX
    kernel_size: 2
    stride: 2
  }
}
layer {
  name: "conv2_1"
  type: "Convolution"
  bottom: "pool1"
  top: "conv2_1"
  param {
    lr_mult: 1
    decay_mult: 1
  }
  param {
    lr_mult: 2
    decay_mult: 0
  }
  convolution_param {
    num_output: 128
    pad: 1
    kernel_size: 3
    stride: 1
    weight_filler {
      type: "xavier"
    }
  }
}
layer {
  name: "relu2_1"
  type: "ReLU"
  bottom: "conv2_1"
  top: "conv2_1"
}
layer {
  name: "conv2_2"
  type: "Convolution"
  bottom: "conv2_1"
  top: "conv2_2"
  param {
    lr_mult: 1
    decay_mult: 1
  }
  param {
    lr_mult: 2
    decay_mult: 0
  }
  convolution_param {
    num_output: 128
    pad: 1
    kernel_size: 3
    stride: 1
    weight_filler {
      type: "xavier"
    }
  }
}
layer {
  name: "relu2_2"
  type: "ReLU"
  bottom: "conv2_2"
  top: "conv2_2"
}
layer {
  name: "pool2"
  type: "Pooling"
  bottom: "conv2_2"
  top: "pool2"
  pooling_param {
    pool: MAX
    kernel_size: 2
    stride: 2
  }
}
layer {
  name: "conv3_1"
  type: "Convolution"
  bottom: "pool2"
  top: "conv3_1"
  param {
    lr_mult: 1
    decay_mult: 1
  }
  param {
    lr_mult: 2
    decay_mult: 0
  }
  convolution_param {
    num_output: 256
    pad: 1
    kernel_size: 3
    stride: 1
    weight_filler {
      type: "xavier"
    }
  }
}
layer {
  name: "relu3_1"
  type: "ReLU"
  bottom: "conv3_1"
  top: "conv3_1"
}
layer {
  name: "conv3_2"
  type: "Convolution"
  bottom: "conv3_1"
  top: "conv3_2"
  param {
    lr_mult: 1
    decay_mult: 1
  }
  param {
    lr_mult: 2
    decay_mult: 0
  }
  convolution_param {
    num_output: 256
    pad: 1
    kernel_size: 3
    stride: 1
    weight_filler {
      type: "xavier"
    }
  }
}
layer {
  name: "relu3_2"
  type: "ReLU"
  bottom: "conv3_2"
  top: "conv3_2"
}
layer {
  name: "conv3_3"
  type: "Convolution"
  bottom: "conv3_2"
  top: "conv3_3"
  param {
    lr_mult: 1
    decay_mult: 1
  }
  param {
    lr_mult: 2
    decay_mult: 0
  }
  convolution_param {
    num_output: 256
    pad: 1
    kernel_size: 3
    stride: 1
    weight_filler {
      type: "xavier"
    }
  }
}
layer {
  name: "relu3_3"
  type: "ReLU"
  bottom: "conv3_3"
  top: "conv3_3"
}
layer {
  name: "pool3"
  type: "Pooling"
  bottom: "conv3_3"
  top: "pool3"
  pooling_param {
    pool: MAX
    kernel_size: 2
    stride: 2
  }
}
layer {
  name: "conv4_1"
  type: "Convolution"
  bottom: "pool3"
  top: "conv4_1"
  param {
    lr_mult: 1
    decay_mult: 1
  }
  param {
    lr_mult: 2
    decay_mult: 0
  }
  convolution_param {
    num_output: 512
    pad: 1
    kernel_size: 3
    stride: 1
    weight_filler {
      type: "xavier"
    }
  }
}
layer {
  name: "relu4_1"
  type: "ReLU"
  bottom: "conv4_1"
  top: "conv4_1"
}
layer {
  name: "conv4_2"
  type: "Convolution"
  bottom: "conv4_1"
  top: "conv4_2"
  param {
    lr_mult: 1
    decay_mult: 1
  }
  param {
    lr_mult: 2
    decay_mult: 0
  }
  convolution_param {
    num_output: 512
    pad: 1
    kernel_size: 3
    stride: 1
    weight_filler {
      type: "xavier"
    }
  }
}
layer {
  name: "relu4_2"
  type: "ReLU"
  bottom: "conv4_2"
  top: "conv4_2"
}
layer {
  name: "conv4_3"
  type: "Convolution"
  bottom: "conv4_2"
  top: "conv4_3"
  param {
    lr_mult: 1
    decay_mult: 1
  }
  param {
    lr_mult: 2
    decay_mult: 0
  }
  convolution_param {
    num_output: 512
    pad: 1
    kernel_size: 3
    stride: 1
    weight_filler {
      type: "xavier"
    }
  }
}
layer {
  name: "relu4_3"
  type: "ReLU"
  bottom: "conv4_3"
  top: "conv4_3"
}
layer {
  name: "pool4"
  type: "Pooling"
  bottom: "conv4_3"
  top: "pool4"
  pooling_param {
    pool: MAX
    kernel_size: 2
    stride: 2
  }
}
layer {
  name: "conv5_1"
  type: "Convolution"
  bottom: "pool4"
  top: "conv5_1"
  param {
    lr_mult: 1
    decay_mult: 1
  }
  param {
    lr_mult: 2
    decay_mult: 0
  }
  convolution_param {
    num_output: 512
    pad: 1
    kernel_size: 3
    stride: 1
    weight_filler {
      type: "xavier"
    }
  }
}
layer {
  name: "relu5_1"
  type: "ReLU"
  bottom: "conv5_1"
  top: "conv5_1"
}
layer {
  name: "conv5_2"
  type: "Convolution"
  bottom: "conv5_1"
  top: "conv5_2"
  param {
    lr_mult: 1
    decay_mult: 1
  }
  param {
    lr_mult: 2
    decay_mult: 0
  }
  convolution_param {
    num_output: 512
    pad: 1
    kernel_size: 3
    stride: 1
    weight_filler {
      type: "xavier"
    }
  }
}
layer {
  name: "relu5_2"
  type: "ReLU"
  bottom: "conv5_2"
  top: "conv5_2"
}
layer {
  name: "conv5_3"
  type: "Convolution"
  bottom: "conv5_2"
  top: "conv5_3"
  param {
    lr_mult: 1
    decay_mult: 1
  }
  param {
    lr_mult: 2
    decay_mult: 0
  }
  convolution_param {
    num_output: 512
    pad: 1
    kernel_size: 3
    stride: 1
    weight_filler {
      type: "xavier"
    }
  }
}
layer {
  name: "relu5_3"
  type: "ReLU"
  bottom: "conv5_3"
  top: "conv5_3"
}
layer {
  name: "pool5"
  type: "Pooling"
  bottom: "conv5_3"
  top: "pool5"
  pooling_param {
    pool: MAX
    kernel_size: 2
    stride: 2
  }
}
layer {
  name: "fc6"
  type: "Convolution"
  bottom: "pool5"
  top: "fc6"
  param {
    lr_mult: 1
    decay_mult: 1
  }
  param {
    lr_mult: 2
    decay_mult: 0
  }
  convolution_param {
    num_output: 4096
    pad: 0
    kernel_size: 7
    stride: 1
    weight_filler {
      type: "xavier"
    }
  }
}
layer {
  name: "relu6"
  type: "ReLU"
  bottom: "fc6"
  top: "fc6"
}
layer {
  name: "drop6"
  type: "Dropout"
  bottom: "fc6"
  top: "fc6"
  dropout_param {
    dropout_ratio: 0.5
  }
}
layer {
  name: "fc7"
  type: "Convolution"
  bottom: "fc6"
  top: "fc7"
  param {
    lr_mult: 1
    decay_mult: 1
  }
  param {
    lr_mult: 2
    decay_mult: 0
  }
  convolution_param {
    num_output: 4096
    pad: 0
    kernel_size: 1
    stride: 1
    weight_filler {
      type: "xavier"
    }
  }
}
layer {
  name: "relu7"
  type: "ReLU"
  bottom: "fc7"
  top: "fc7"
}
layer {
  name: "drop7"
  type: "Dropout"
  bottom: "fc7"
  top: "fc7"
  dropout_param {
    dropout_ratio: 0.5
  }
}
layer {
  name: "score_fr"
  type: "Convolution"
  bottom: "fc7"
  top: "score_fr"
  param {
    lr_mult: 1
    decay_mult: 1
  }
  param {
    lr_mult: 2
    decay_mult: 0
  }
  convolution_param {
    num_output: 6
    pad: 0
    kernel_size: 1
    weight_filler {
      type: "xavier"
    }
  }
}
layer {
  name: "upscore2"
  type: "Deconvolution"
  bottom: "score_fr"
  top: "upscore2"
  param {
    lr_mult: 0
  }
  convolution_param {
    num_output: 6
    bias_term: false
    kernel_size: 4
    stride: 2
    weight_filler {
      type: "xavier"
    }
  }
}
layer {
  name: "scale_pool4"
  type: "Scale"
  bottom: "pool4"
  top: "scale_pool4"
  param {
    lr_mult: 0
  }
  scale_param {
    filler {
      type: "constant"
      value: 0.01
    }
  }
}
layer {
  name: "score_pool4"
  type: "Convolution"
  bottom: "scale_pool4"
  top: "score_pool4"
  param {
    lr_mult: 1
    decay_mult: 1
  }
  param {
    lr_mult: 2
    decay_mult: 0
  }
  convolution_param {
    num_output: 6
    pad: 0
    kernel_size: 1
    weight_filler {
      type: "xavier"
    }
  }
}
layer {
  name: "score_pool4c"
  type: "Crop"
  bottom: "score_pool4"
  bottom: "upscore2"
  top: "score_pool4c"
  crop_param {
    axis: 2
    offset: 5
  }
}
layer {
  name: "fuse_pool4"
  type: "Eltwise"
  bottom: "upscore2"
  bottom: "score_pool4c"
  top: "fuse_pool4"
  eltwise_param {
    operation: SUM
  }
}
layer {
  name: "upscore_pool4"
  type: "Deconvolution"
  bottom: "fuse_pool4"
  top: "upscore_pool4"
  param {
    lr_mult: 0
  }
  convolution_param {
    num_output: 6
    bias_term: false
    kernel_size: 4
    stride: 2
    weight_filler {
      type: "xavier"
    }
  }
}
layer {
  name: "scale_pool3"
  type: "Scale"
  bottom: "pool3"
  top: "scale_pool3"
  param {
    lr_mult: 0
  }
  scale_param {
    filler {
      type: "constant"
      value: 0.0001
    }
  }
}
layer {
  name: "score_pool3"
  type: "Convolution"
  bottom: "scale_pool3"
  top: "score_pool3"
  param {
    lr_mult: 1
    decay_mult: 1
  }
  param {
    lr_mult: 2
    decay_mult: 0
  }
  convolution_param {
    num_output: 6
    pad: 0
    kernel_size: 1
    weight_filler {
      type: "xavier"
    }
  }
}
layer {
  name: "score_pool3c"
  type: "Crop"
  bottom: "score_pool3"
  bottom: "upscore_pool4"
  top: "score_pool3c"
  crop_param {
    axis: 2
    offset: 9
  }
}
layer {
  name: "fuse_pool3"
  type: "Eltwise"
  bottom: "upscore_pool4"
  bottom: "score_pool3c"
  top: "fuse_pool3"
  eltwise_param {
    operation: SUM
  }
}
layer {
  name: "upscore8"
  type: "Deconvolution"
  bottom: "fuse_pool3"
  top: "upscore8"
  param {
    lr_mult: 0
  }
  convolution_param {
    num_output: 6
    bias_term: false
    kernel_size: 16
    stride: 8
    weight_filler {
      type: "xavier"
    }
  }
}
layer {
  name: "score"
  type: "Crop"
  bottom: "upscore8"
  bottom: "data"
  top: "score"
  crop_param {
    axis: 2
    offset: 31
  }
}
layer {
  name: "loss"
  type: "SoftmaxWithLoss"
  bottom: "score"
  bottom: "label"
  top: "loss"
  loss_param {
    ignore_label: 255
    normalize: false
  }
}
I0125 13:12:40.296051  1998 layer_factory.hpp:77] Creating layer data
I0125 13:12:40.297701  1998 net.cpp:100] Creating Layer data
I0125 13:12:40.297719  1998 net.cpp:408] data -> data
I0125 13:12:40.297736  1998 net.cpp:408] data -> label
I0125 13:12:40.348928  1998 net.cpp:150] Setting up data
I0125 13:12:40.348973  1998 net.cpp:157] Top shape: 1 3 375 500 (562500)
I0125 13:12:40.348981  1998 net.cpp:157] Top shape: 1 1 375 500 (187500)
I0125 13:12:40.348985  1998 net.cpp:165] Memory required for data: 3000000
I0125 13:12:40.348995  1998 layer_factory.hpp:77] Creating layer data_data_0_split
I0125 13:12:40.349020  1998 net.cpp:100] Creating Layer data_data_0_split
I0125 13:12:40.349026  1998 net.cpp:434] data_data_0_split <- data
I0125 13:12:40.349037  1998 net.cpp:408] data_data_0_split -> data_data_0_split_0
I0125 13:12:40.349050  1998 net.cpp:408] data_data_0_split -> data_data_0_split_1
I0125 13:12:40.349089  1998 net.cpp:150] Setting up data_data_0_split
I0125 13:12:40.349097  1998 net.cpp:157] Top shape: 1 3 375 500 (562500)
I0125 13:12:40.349102  1998 net.cpp:157] Top shape: 1 3 375 500 (562500)
I0125 13:12:40.349107  1998 net.cpp:165] Memory required for data: 7500000
I0125 13:12:40.349110  1998 layer_factory.hpp:77] Creating layer conv1_1
I0125 13:12:40.349133  1998 net.cpp:100] Creating Layer conv1_1
I0125 13:12:40.349136  1998 net.cpp:434] conv1_1 <- data_data_0_split_0
I0125 13:12:40.349158  1998 net.cpp:408] conv1_1 -> conv1_1
I0125 13:12:40.527308  1998 net.cpp:150] Setting up conv1_1
I0125 13:12:40.527359  1998 net.cpp:157] Top shape: 1 64 573 698 (25597056)
I0125 13:12:40.527364  1998 net.cpp:165] Memory required for data: 109888224
I0125 13:12:40.527384  1998 layer_factory.hpp:77] Creating layer relu1_1
I0125 13:12:40.527400  1998 net.cpp:100] Creating Layer relu1_1
I0125 13:12:40.527405  1998 net.cpp:434] relu1_1 <- conv1_1
I0125 13:12:40.527412  1998 net.cpp:395] relu1_1 -> conv1_1 (in-place)
I0125 13:12:40.527766  1998 net.cpp:150] Setting up relu1_1
I0125 13:12:40.527781  1998 net.cpp:157] Top shape: 1 64 573 698 (25597056)
I0125 13:12:40.527786  1998 net.cpp:165] Memory required for data: 212276448
I0125 13:12:40.527791  1998 layer_factory.hpp:77] Creating layer conv1_2
I0125 13:12:40.527806  1998 net.cpp:100] Creating Layer conv1_2
I0125 13:12:40.527812  1998 net.cpp:434] conv1_2 <- conv1_1
I0125 13:12:40.527818  1998 net.cpp:408] conv1_2 -> conv1_2
I0125 13:12:40.530573  1998 net.cpp:150] Setting up conv1_2
I0125 13:12:40.530591  1998 net.cpp:157] Top shape: 1 64 573 698 (25597056)
I0125 13:12:40.530596  1998 net.cpp:165] Memory required for data: 314664672
I0125 13:12:40.530607  1998 layer_factory.hpp:77] Creating layer relu1_2
I0125 13:12:40.530616  1998 net.cpp:100] Creating Layer relu1_2
I0125 13:12:40.530619  1998 net.cpp:434] relu1_2 <- conv1_2
I0125 13:12:40.530628  1998 net.cpp:395] relu1_2 -> conv1_2 (in-place)
I0125 13:12:40.530984  1998 net.cpp:150] Setting up relu1_2
I0125 13:12:40.530997  1998 net.cpp:157] Top shape: 1 64 573 698 (25597056)
I0125 13:12:40.531002  1998 net.cpp:165] Memory required for data: 417052896
I0125 13:12:40.531007  1998 layer_factory.hpp:77] Creating layer pool1
I0125 13:12:40.531020  1998 net.cpp:100] Creating Layer pool1
I0125 13:12:40.531025  1998 net.cpp:434] pool1 <- conv1_2
I0125 13:12:40.531033  1998 net.cpp:408] pool1 -> pool1
I0125 13:12:40.531082  1998 net.cpp:150] Setting up pool1
I0125 13:12:40.531090  1998 net.cpp:157] Top shape: 1 64 287 349 (6410432)
I0125 13:12:40.531093  1998 net.cpp:165] Memory required for data: 442694624
I0125 13:12:40.531097  1998 layer_factory.hpp:77] Creating layer conv2_1
I0125 13:12:40.531108  1998 net.cpp:100] Creating Layer conv2_1
I0125 13:12:40.531113  1998 net.cpp:434] conv2_1 <- pool1
I0125 13:12:40.531122  1998 net.cpp:408] conv2_1 -> conv2_1
I0125 13:12:40.533418  1998 net.cpp:150] Setting up conv2_1
I0125 13:12:40.533433  1998 net.cpp:157] Top shape: 1 128 287 349 (12820864)
I0125 13:12:40.533438  1998 net.cpp:165] Memory required for data: 493978080
I0125 13:12:40.533449  1998 layer_factory.hpp:77] Creating layer relu2_1
I0125 13:12:40.533460  1998 net.cpp:100] Creating Layer relu2_1
I0125 13:12:40.533465  1998 net.cpp:434] relu2_1 <- conv2_1
I0125 13:12:40.533471  1998 net.cpp:395] relu2_1 -> conv2_1 (in-place)
I0125 13:12:40.533677  1998 net.cpp:150] Setting up relu2_1
I0125 13:12:40.533689  1998 net.cpp:157] Top shape: 1 128 287 349 (12820864)
I0125 13:12:40.533694  1998 net.cpp:165] Memory required for data: 545261536
I0125 13:12:40.533699  1998 layer_factory.hpp:77] Creating layer conv2_2
I0125 13:12:40.533712  1998 net.cpp:100] Creating Layer conv2_2
I0125 13:12:40.533717  1998 net.cpp:434] conv2_2 <- conv2_1
I0125 13:12:40.533725  1998 net.cpp:408] conv2_2 -> conv2_2
I0125 13:12:40.536229  1998 net.cpp:150] Setting up conv2_2
I0125 13:12:40.536245  1998 net.cpp:157] Top shape: 1 128 287 349 (12820864)
I0125 13:12:40.536250  1998 net.cpp:165] Memory required for data: 596544992
I0125 13:12:40.536258  1998 layer_factory.hpp:77] Creating layer relu2_2
I0125 13:12:40.536267  1998 net.cpp:100] Creating Layer relu2_2
I0125 13:12:40.536272  1998 net.cpp:434] relu2_2 <- conv2_2
I0125 13:12:40.536279  1998 net.cpp:395] relu2_2 -> conv2_2 (in-place)
I0125 13:12:40.536633  1998 net.cpp:150] Setting up relu2_2
I0125 13:12:40.536645  1998 net.cpp:157] Top shape: 1 128 287 349 (12820864)
I0125 13:12:40.536649  1998 net.cpp:165] Memory required for data: 647828448
I0125 13:12:40.536665  1998 layer_factory.hpp:77] Creating layer pool2
I0125 13:12:40.536674  1998 net.cpp:100] Creating Layer pool2
I0125 13:12:40.536679  1998 net.cpp:434] pool2 <- conv2_2
I0125 13:12:40.536686  1998 net.cpp:408] pool2 -> pool2
I0125 13:12:40.536731  1998 net.cpp:150] Setting up pool2
I0125 13:12:40.536741  1998 net.cpp:157] Top shape: 1 128 144 175 (3225600)
I0125 13:12:40.536744  1998 net.cpp:165] Memory required for data: 660730848
I0125 13:12:40.536748  1998 layer_factory.hpp:77] Creating layer conv3_1
I0125 13:12:40.536759  1998 net.cpp:100] Creating Layer conv3_1
I0125 13:12:40.536763  1998 net.cpp:434] conv3_1 <- pool2
I0125 13:12:40.536770  1998 net.cpp:408] conv3_1 -> conv3_1
I0125 13:12:40.539861  1998 net.cpp:150] Setting up conv3_1
I0125 13:12:40.539877  1998 net.cpp:157] Top shape: 1 256 144 175 (6451200)
I0125 13:12:40.539882  1998 net.cpp:165] Memory required for data: 686535648
I0125 13:12:40.539893  1998 layer_factory.hpp:77] Creating layer relu3_1
I0125 13:12:40.539901  1998 net.cpp:100] Creating Layer relu3_1
I0125 13:12:40.539906  1998 net.cpp:434] relu3_1 <- conv3_1
I0125 13:12:40.539913  1998 net.cpp:395] relu3_1 -> conv3_1 (in-place)
I0125 13:12:40.540266  1998 net.cpp:150] Setting up relu3_1
I0125 13:12:40.540279  1998 net.cpp:157] Top shape: 1 256 144 175 (6451200)
I0125 13:12:40.540283  1998 net.cpp:165] Memory required for data: 712340448
I0125 13:12:40.540288  1998 layer_factory.hpp:77] Creating layer conv3_2
I0125 13:12:40.540300  1998 net.cpp:100] Creating Layer conv3_2
I0125 13:12:40.540305  1998 net.cpp:434] conv3_2 <- conv3_1
I0125 13:12:40.540316  1998 net.cpp:408] conv3_2 -> conv3_2
I0125 13:12:40.545532  1998 net.cpp:150] Setting up conv3_2
I0125 13:12:40.545548  1998 net.cpp:157] Top shape: 1 256 144 175 (6451200)
I0125 13:12:40.545553  1998 net.cpp:165] Memory required for data: 738145248
I0125 13:12:40.545562  1998 layer_factory.hpp:77] Creating layer relu3_2
I0125 13:12:40.545572  1998 net.cpp:100] Creating Layer relu3_2
I0125 13:12:40.545577  1998 net.cpp:434] relu3_2 <- conv3_2
I0125 13:12:40.545583  1998 net.cpp:395] relu3_2 -> conv3_2 (in-place)
I0125 13:12:40.545778  1998 net.cpp:150] Setting up relu3_2
I0125 13:12:40.545789  1998 net.cpp:157] Top shape: 1 256 144 175 (6451200)
I0125 13:12:40.545794  1998 net.cpp:165] Memory required for data: 763950048
I0125 13:12:40.545799  1998 layer_factory.hpp:77] Creating layer conv3_3
I0125 13:12:40.545816  1998 net.cpp:100] Creating Layer conv3_3
I0125 13:12:40.545821  1998 net.cpp:434] conv3_3 <- conv3_2
I0125 13:12:40.545828  1998 net.cpp:408] conv3_3 -> conv3_3
I0125 13:12:40.551018  1998 net.cpp:150] Setting up conv3_3
I0125 13:12:40.551034  1998 net.cpp:157] Top shape: 1 256 144 175 (6451200)
I0125 13:12:40.551039  1998 net.cpp:165] Memory required for data: 789754848
I0125 13:12:40.551048  1998 layer_factory.hpp:77] Creating layer relu3_3
I0125 13:12:40.551055  1998 net.cpp:100] Creating Layer relu3_3
I0125 13:12:40.551060  1998 net.cpp:434] relu3_3 <- conv3_3
I0125 13:12:40.551066  1998 net.cpp:395] relu3_3 -> conv3_3 (in-place)
I0125 13:12:40.551426  1998 net.cpp:150] Setting up relu3_3
I0125 13:12:40.551440  1998 net.cpp:157] Top shape: 1 256 144 175 (6451200)
I0125 13:12:40.551445  1998 net.cpp:165] Memory required for data: 815559648
I0125 13:12:40.551450  1998 layer_factory.hpp:77] Creating layer pool3
I0125 13:12:40.551460  1998 net.cpp:100] Creating Layer pool3
I0125 13:12:40.551463  1998 net.cpp:434] pool3 <- conv3_3
I0125 13:12:40.551472  1998 net.cpp:408] pool3 -> pool3
I0125 13:12:40.551517  1998 net.cpp:150] Setting up pool3
I0125 13:12:40.551525  1998 net.cpp:157] Top shape: 1 256 72 88 (1622016)
I0125 13:12:40.551529  1998 net.cpp:165] Memory required for data: 822047712
I0125 13:12:40.551533  1998 layer_factory.hpp:77] Creating layer pool3_pool3_0_split
I0125 13:12:40.551542  1998 net.cpp:100] Creating Layer pool3_pool3_0_split
I0125 13:12:40.551547  1998 net.cpp:434] pool3_pool3_0_split <- pool3
I0125 13:12:40.551551  1998 net.cpp:408] pool3_pool3_0_split -> pool3_pool3_0_split_0
I0125 13:12:40.551558  1998 net.cpp:408] pool3_pool3_0_split -> pool3_pool3_0_split_1
I0125 13:12:40.551601  1998 net.cpp:150] Setting up pool3_pool3_0_split
I0125 13:12:40.551609  1998 net.cpp:157] Top shape: 1 256 72 88 (1622016)
I0125 13:12:40.551614  1998 net.cpp:157] Top shape: 1 256 72 88 (1622016)
I0125 13:12:40.551616  1998 net.cpp:165] Memory required for data: 835023840
I0125 13:12:40.551621  1998 layer_factory.hpp:77] Creating layer conv4_1
I0125 13:12:40.551632  1998 net.cpp:100] Creating Layer conv4_1
I0125 13:12:40.551636  1998 net.cpp:434] conv4_1 <- pool3_pool3_0_split_0
I0125 13:12:40.551645  1998 net.cpp:408] conv4_1 -> conv4_1
I0125 13:12:40.561913  1998 net.cpp:150] Setting up conv4_1
I0125 13:12:40.561933  1998 net.cpp:157] Top shape: 1 512 72 88 (3244032)
I0125 13:12:40.561939  1998 net.cpp:165] Memory required for data: 847999968
I0125 13:12:40.561947  1998 layer_factory.hpp:77] Creating layer relu4_1
I0125 13:12:40.561957  1998 net.cpp:100] Creating Layer relu4_1
I0125 13:12:40.561962  1998 net.cpp:434] relu4_1 <- conv4_1
I0125 13:12:40.561969  1998 net.cpp:395] relu4_1 -> conv4_1 (in-place)
I0125 13:12:40.562336  1998 net.cpp:150] Setting up relu4_1
I0125 13:12:40.562350  1998 net.cpp:157] Top shape: 1 512 72 88 (3244032)
I0125 13:12:40.562355  1998 net.cpp:165] Memory required for data: 860976096
I0125 13:12:40.562360  1998 layer_factory.hpp:77] Creating layer conv4_2
I0125 13:12:40.562371  1998 net.cpp:100] Creating Layer conv4_2
I0125 13:12:40.562376  1998 net.cpp:434] conv4_2 <- conv4_1
I0125 13:12:40.562386  1998 net.cpp:408] conv4_2 -> conv4_2
I0125 13:12:40.579211  1998 net.cpp:150] Setting up conv4_2
I0125 13:12:40.579236  1998 net.cpp:157] Top shape: 1 512 72 88 (3244032)
I0125 13:12:40.579241  1998 net.cpp:165] Memory required for data: 873952224
I0125 13:12:40.579255  1998 layer_factory.hpp:77] Creating layer relu4_2
I0125 13:12:40.579264  1998 net.cpp:100] Creating Layer relu4_2
I0125 13:12:40.579269  1998 net.cpp:434] relu4_2 <- conv4_2
I0125 13:12:40.579278  1998 net.cpp:395] relu4_2 -> conv4_2 (in-place)
I0125 13:12:40.579471  1998 net.cpp:150] Setting up relu4_2
I0125 13:12:40.579481  1998 net.cpp:157] Top shape: 1 512 72 88 (3244032)
I0125 13:12:40.579485  1998 net.cpp:165] Memory required for data: 886928352
I0125 13:12:40.579489  1998 layer_factory.hpp:77] Creating layer conv4_3
I0125 13:12:40.579502  1998 net.cpp:100] Creating Layer conv4_3
I0125 13:12:40.579507  1998 net.cpp:434] conv4_3 <- conv4_2
I0125 13:12:40.579515  1998 net.cpp:408] conv4_3 -> conv4_3
I0125 13:12:40.596421  1998 net.cpp:150] Setting up conv4_3
I0125 13:12:40.596451  1998 net.cpp:157] Top shape: 1 512 72 88 (3244032)
I0125 13:12:40.596456  1998 net.cpp:165] Memory required for data: 899904480
I0125 13:12:40.596465  1998 layer_factory.hpp:77] Creating layer relu4_3
I0125 13:12:40.596474  1998 net.cpp:100] Creating Layer relu4_3
I0125 13:12:40.596480  1998 net.cpp:434] relu4_3 <- conv4_3
I0125 13:12:40.596487  1998 net.cpp:395] relu4_3 -> conv4_3 (in-place)
I0125 13:12:40.596853  1998 net.cpp:150] Setting up relu4_3
I0125 13:12:40.596866  1998 net.cpp:157] Top shape: 1 512 72 88 (3244032)
I0125 13:12:40.596870  1998 net.cpp:165] Memory required for data: 912880608
I0125 13:12:40.596875  1998 layer_factory.hpp:77] Creating layer pool4
I0125 13:12:40.596886  1998 net.cpp:100] Creating Layer pool4
I0125 13:12:40.596891  1998 net.cpp:434] pool4 <- conv4_3
I0125 13:12:40.596899  1998 net.cpp:408] pool4 -> pool4
I0125 13:12:40.596951  1998 net.cpp:150] Setting up pool4
I0125 13:12:40.596957  1998 net.cpp:157] Top shape: 1 512 36 44 (811008)
I0125 13:12:40.596961  1998 net.cpp:165] Memory required for data: 916124640
I0125 13:12:40.596966  1998 layer_factory.hpp:77] Creating layer pool4_pool4_0_split
I0125 13:12:40.596972  1998 net.cpp:100] Creating Layer pool4_pool4_0_split
I0125 13:12:40.596977  1998 net.cpp:434] pool4_pool4_0_split <- pool4
I0125 13:12:40.596984  1998 net.cpp:408] pool4_pool4_0_split -> pool4_pool4_0_split_0
I0125 13:12:40.596992  1998 net.cpp:408] pool4_pool4_0_split -> pool4_pool4_0_split_1
I0125 13:12:40.597030  1998 net.cpp:150] Setting up pool4_pool4_0_split
I0125 13:12:40.597048  1998 net.cpp:157] Top shape: 1 512 36 44 (811008)
I0125 13:12:40.597054  1998 net.cpp:157] Top shape: 1 512 36 44 (811008)
I0125 13:12:40.597057  1998 net.cpp:165] Memory required for data: 922612704
I0125 13:12:40.597061  1998 layer_factory.hpp:77] Creating layer conv5_1
I0125 13:12:40.597074  1998 net.cpp:100] Creating Layer conv5_1
I0125 13:12:40.597079  1998 net.cpp:434] conv5_1 <- pool4_pool4_0_split_0
I0125 13:12:40.597085  1998 net.cpp:408] conv5_1 -> conv5_1
I0125 13:12:40.613802  1998 net.cpp:150] Setting up conv5_1
I0125 13:12:40.613828  1998 net.cpp:157] Top shape: 1 512 36 44 (811008)
I0125 13:12:40.613833  1998 net.cpp:165] Memory required for data: 925856736
I0125 13:12:40.613842  1998 layer_factory.hpp:77] Creating layer relu5_1
I0125 13:12:40.613850  1998 net.cpp:100] Creating Layer relu5_1
I0125 13:12:40.613855  1998 net.cpp:434] relu5_1 <- conv5_1
I0125 13:12:40.613864  1998 net.cpp:395] relu5_1 -> conv5_1 (in-place)
I0125 13:12:40.614228  1998 net.cpp:150] Setting up relu5_1
I0125 13:12:40.614241  1998 net.cpp:157] Top shape: 1 512 36 44 (811008)
I0125 13:12:40.614245  1998 net.cpp:165] Memory required for data: 929100768
I0125 13:12:40.614250  1998 layer_factory.hpp:77] Creating layer conv5_2
I0125 13:12:40.614264  1998 net.cpp:100] Creating Layer conv5_2
I0125 13:12:40.614269  1998 net.cpp:434] conv5_2 <- conv5_1
I0125 13:12:40.614277  1998 net.cpp:408] conv5_2 -> conv5_2
I0125 13:12:40.631510  1998 net.cpp:150] Setting up conv5_2
I0125 13:12:40.631537  1998 net.cpp:157] Top shape: 1 512 36 44 (811008)
I0125 13:12:40.631542  1998 net.cpp:165] Memory required for data: 932344800
I0125 13:12:40.631551  1998 layer_factory.hpp:77] Creating layer relu5_2
I0125 13:12:40.631559  1998 net.cpp:100] Creating Layer relu5_2
I0125 13:12:40.631566  1998 net.cpp:434] relu5_2 <- conv5_2
I0125 13:12:40.631574  1998 net.cpp:395] relu5_2 -> conv5_2 (in-place)
I0125 13:12:40.631767  1998 net.cpp:150] Setting up relu5_2
I0125 13:12:40.631778  1998 net.cpp:157] Top shape: 1 512 36 44 (811008)
I0125 13:12:40.631781  1998 net.cpp:165] Memory required for data: 935588832
I0125 13:12:40.631786  1998 layer_factory.hpp:77] Creating layer conv5_3
I0125 13:12:40.631806  1998 net.cpp:100] Creating Layer conv5_3
I0125 13:12:40.631811  1998 net.cpp:434] conv5_3 <- conv5_2
I0125 13:12:40.631819  1998 net.cpp:408] conv5_3 -> conv5_3
I0125 13:12:40.648844  1998 net.cpp:150] Setting up conv5_3
I0125 13:12:40.648867  1998 net.cpp:157] Top shape: 1 512 36 44 (811008)
I0125 13:12:40.648872  1998 net.cpp:165] Memory required for data: 938832864
I0125 13:12:40.648881  1998 layer_factory.hpp:77] Creating layer relu5_3
I0125 13:12:40.648890  1998 net.cpp:100] Creating Layer relu5_3
I0125 13:12:40.648895  1998 net.cpp:434] relu5_3 <- conv5_3
I0125 13:12:40.648903  1998 net.cpp:395] relu5_3 -> conv5_3 (in-place)
I0125 13:12:40.649438  1998 net.cpp:150] Setting up relu5_3
I0125 13:12:40.649452  1998 net.cpp:157] Top shape: 1 512 36 44 (811008)
I0125 13:12:40.649456  1998 net.cpp:165] Memory required for data: 942076896
I0125 13:12:40.649461  1998 layer_factory.hpp:77] Creating layer pool5
I0125 13:12:40.649471  1998 net.cpp:100] Creating Layer pool5
I0125 13:12:40.649476  1998 net.cpp:434] pool5 <- conv5_3
I0125 13:12:40.649484  1998 net.cpp:408] pool5 -> pool5
I0125 13:12:40.649535  1998 net.cpp:150] Setting up pool5
I0125 13:12:40.649543  1998 net.cpp:157] Top shape: 1 512 18 22 (202752)
I0125 13:12:40.649546  1998 net.cpp:165] Memory required for data: 942887904
I0125 13:12:40.649551  1998 layer_factory.hpp:77] Creating layer fc6
I0125 13:12:40.649564  1998 net.cpp:100] Creating Layer fc6
I0125 13:12:40.649569  1998 net.cpp:434] fc6 <- pool5
I0125 13:12:40.649575  1998 net.cpp:408] fc6 -> fc6
I0125 13:12:41.364852  1998 net.cpp:150] Setting up fc6
I0125 13:12:41.364900  1998 net.cpp:157] Top shape: 1 4096 12 16 (786432)
I0125 13:12:41.364907  1998 net.cpp:165] Memory required for data: 946033632
I0125 13:12:41.364917  1998 layer_factory.hpp:77] Creating layer relu6
I0125 13:12:41.364940  1998 net.cpp:100] Creating Layer relu6
I0125 13:12:41.364948  1998 net.cpp:434] relu6 <- fc6
I0125 13:12:41.364956  1998 net.cpp:395] relu6 -> fc6 (in-place)
I0125 13:12:41.365325  1998 net.cpp:150] Setting up relu6
I0125 13:12:41.365339  1998 net.cpp:157] Top shape: 1 4096 12 16 (786432)
I0125 13:12:41.365344  1998 net.cpp:165] Memory required for data: 949179360
I0125 13:12:41.365347  1998 layer_factory.hpp:77] Creating layer drop6
I0125 13:12:41.365366  1998 net.cpp:100] Creating Layer drop6
I0125 13:12:41.365371  1998 net.cpp:434] drop6 <- fc6
I0125 13:12:41.365377  1998 net.cpp:395] drop6 -> fc6 (in-place)
I0125 13:12:41.365414  1998 net.cpp:150] Setting up drop6
I0125 13:12:41.365422  1998 net.cpp:157] Top shape: 1 4096 12 16 (786432)
I0125 13:12:41.365425  1998 net.cpp:165] Memory required for data: 952325088
I0125 13:12:41.365429  1998 layer_factory.hpp:77] Creating layer fc7
I0125 13:12:41.365445  1998 net.cpp:100] Creating Layer fc7
I0125 13:12:41.365449  1998 net.cpp:434] fc7 <- fc6
I0125 13:12:41.365456  1998 net.cpp:408] fc7 -> fc7
I0125 13:12:41.483649  1998 net.cpp:150] Setting up fc7
I0125 13:12:41.483700  1998 net.cpp:157] Top shape: 1 4096 12 16 (786432)
I0125 13:12:41.483705  1998 net.cpp:165] Memory required for data: 955470816
I0125 13:12:41.483718  1998 layer_factory.hpp:77] Creating layer relu7
I0125 13:12:41.483731  1998 net.cpp:100] Creating Layer relu7
I0125 13:12:41.483737  1998 net.cpp:434] relu7 <- fc7
I0125 13:12:41.483747  1998 net.cpp:395] relu7 -> fc7 (in-place)
I0125 13:12:41.483958  1998 net.cpp:150] Setting up relu7
I0125 13:12:41.483968  1998 net.cpp:157] Top shape: 1 4096 12 16 (786432)
I0125 13:12:41.483973  1998 net.cpp:165] Memory required for data: 958616544
I0125 13:12:41.483978  1998 layer_factory.hpp:77] Creating layer drop7
I0125 13:12:41.483986  1998 net.cpp:100] Creating Layer drop7
I0125 13:12:41.483990  1998 net.cpp:434] drop7 <- fc7
I0125 13:12:41.483999  1998 net.cpp:395] drop7 -> fc7 (in-place)
I0125 13:12:41.484033  1998 net.cpp:150] Setting up drop7
I0125 13:12:41.484040  1998 net.cpp:157] Top shape: 1 4096 12 16 (786432)
I0125 13:12:41.484045  1998 net.cpp:165] Memory required for data: 961762272
I0125 13:12:41.484048  1998 layer_factory.hpp:77] Creating layer score_fr
I0125 13:12:41.484062  1998 net.cpp:100] Creating Layer score_fr
I0125 13:12:41.484067  1998 net.cpp:434] score_fr <- fc7
I0125 13:12:41.484073  1998 net.cpp:408] score_fr -> score_fr
I0125 13:12:41.485433  1998 net.cpp:150] Setting up score_fr
I0125 13:12:41.485450  1998 net.cpp:157] Top shape: 1 6 12 16 (1152)
I0125 13:12:41.485455  1998 net.cpp:165] Memory required for data: 961766880
I0125 13:12:41.485463  1998 layer_factory.hpp:77] Creating layer upscore2
I0125 13:12:41.485476  1998 net.cpp:100] Creating Layer upscore2
I0125 13:12:41.485481  1998 net.cpp:434] upscore2 <- score_fr
I0125 13:12:41.485491  1998 net.cpp:408] upscore2 -> upscore2
I0125 13:12:41.485714  1998 net.cpp:150] Setting up upscore2
I0125 13:12:41.485724  1998 net.cpp:157] Top shape: 1 6 26 34 (5304)
I0125 13:12:41.485728  1998 net.cpp:165] Memory required for data: 961788096
I0125 13:12:41.485743  1998 layer_factory.hpp:77] Creating layer upscore2_upscore2_0_split
I0125 13:12:41.485751  1998 net.cpp:100] Creating Layer upscore2_upscore2_0_split
I0125 13:12:41.485755  1998 net.cpp:434] upscore2_upscore2_0_split <- upscore2
I0125 13:12:41.485762  1998 net.cpp:408] upscore2_upscore2_0_split -> upscore2_upscore2_0_split_0
I0125 13:12:41.485769  1998 net.cpp:408] upscore2_upscore2_0_split -> upscore2_upscore2_0_split_1
I0125 13:12:41.485810  1998 net.cpp:150] Setting up upscore2_upscore2_0_split
I0125 13:12:41.485817  1998 net.cpp:157] Top shape: 1 6 26 34 (5304)
I0125 13:12:41.485822  1998 net.cpp:157] Top shape: 1 6 26 34 (5304)
I0125 13:12:41.485826  1998 net.cpp:165] Memory required for data: 961830528
I0125 13:12:41.485831  1998 layer_factory.hpp:77] Creating layer scale_pool4
I0125 13:12:41.485842  1998 net.cpp:100] Creating Layer scale_pool4
I0125 13:12:41.485846  1998 net.cpp:434] scale_pool4 <- pool4_pool4_0_split_1
I0125 13:12:41.485867  1998 net.cpp:408] scale_pool4 -> scale_pool4
I0125 13:12:41.485981  1998 net.cpp:150] Setting up scale_pool4
I0125 13:12:41.485991  1998 net.cpp:157] Top shape: 1 512 36 44 (811008)
I0125 13:12:41.485994  1998 net.cpp:165] Memory required for data: 965074560
I0125 13:12:41.485999  1998 layer_factory.hpp:77] Creating layer score_pool4
I0125 13:12:41.486014  1998 net.cpp:100] Creating Layer score_pool4
I0125 13:12:41.486019  1998 net.cpp:434] score_pool4 <- scale_pool4
I0125 13:12:41.486026  1998 net.cpp:408] score_pool4 -> score_pool4
I0125 13:12:41.487277  1998 net.cpp:150] Setting up score_pool4
I0125 13:12:41.487292  1998 net.cpp:157] Top shape: 1 6 36 44 (9504)
I0125 13:12:41.487296  1998 net.cpp:165] Memory required for data: 965112576
I0125 13:12:41.487304  1998 layer_factory.hpp:77] Creating layer score_pool4c
I0125 13:12:41.487315  1998 net.cpp:100] Creating Layer score_pool4c
I0125 13:12:41.487321  1998 net.cpp:434] score_pool4c <- score_pool4
I0125 13:12:41.487326  1998 net.cpp:434] score_pool4c <- upscore2_upscore2_0_split_0
I0125 13:12:41.487336  1998 net.cpp:408] score_pool4c -> score_pool4c
I0125 13:12:41.487370  1998 net.cpp:150] Setting up score_pool4c
I0125 13:12:41.487378  1998 net.cpp:157] Top shape: 1 6 26 34 (5304)
I0125 13:12:41.487382  1998 net.cpp:165] Memory required for data: 965133792
I0125 13:12:41.487386  1998 layer_factory.hpp:77] Creating layer fuse_pool4
I0125 13:12:41.487401  1998 net.cpp:100] Creating Layer fuse_pool4
I0125 13:12:41.487406  1998 net.cpp:434] fuse_pool4 <- upscore2_upscore2_0_split_1
I0125 13:12:41.487411  1998 net.cpp:434] fuse_pool4 <- score_pool4c
I0125 13:12:41.487416  1998 net.cpp:408] fuse_pool4 -> fuse_pool4
I0125 13:12:41.487447  1998 net.cpp:150] Setting up fuse_pool4
I0125 13:12:41.487454  1998 net.cpp:157] Top shape: 1 6 26 34 (5304)
I0125 13:12:41.487457  1998 net.cpp:165] Memory required for data: 965155008
I0125 13:12:41.487462  1998 layer_factory.hpp:77] Creating layer upscore_pool4
I0125 13:12:41.487473  1998 net.cpp:100] Creating Layer upscore_pool4
I0125 13:12:41.487476  1998 net.cpp:434] upscore_pool4 <- fuse_pool4
I0125 13:12:41.487484  1998 net.cpp:408] upscore_pool4 -> upscore_pool4
I0125 13:12:41.487687  1998 net.cpp:150] Setting up upscore_pool4
I0125 13:12:41.487695  1998 net.cpp:157] Top shape: 1 6 54 70 (22680)
I0125 13:12:41.487699  1998 net.cpp:165] Memory required for data: 965245728
I0125 13:12:41.487704  1998 layer_factory.hpp:77] Creating layer upscore_pool4_upscore_pool4_0_split
I0125 13:12:41.487711  1998 net.cpp:100] Creating Layer upscore_pool4_upscore_pool4_0_split
I0125 13:12:41.487715  1998 net.cpp:434] upscore_pool4_upscore_pool4_0_split <- upscore_pool4
I0125 13:12:41.487721  1998 net.cpp:408] upscore_pool4_upscore_pool4_0_split -> upscore_pool4_upscore_pool4_0_split_0
I0125 13:12:41.487728  1998 net.cpp:408] upscore_pool4_upscore_pool4_0_split -> upscore_pool4_upscore_pool4_0_split_1
I0125 13:12:41.487768  1998 net.cpp:150] Setting up upscore_pool4_upscore_pool4_0_split
I0125 13:12:41.487774  1998 net.cpp:157] Top shape: 1 6 54 70 (22680)
I0125 13:12:41.487781  1998 net.cpp:157] Top shape: 1 6 54 70 (22680)
I0125 13:12:41.487783  1998 net.cpp:165] Memory required for data: 965427168
I0125 13:12:41.487787  1998 layer_factory.hpp:77] Creating layer scale_pool3
I0125 13:12:41.487795  1998 net.cpp:100] Creating Layer scale_pool3
I0125 13:12:41.487799  1998 net.cpp:434] scale_pool3 <- pool3_pool3_0_split_1
I0125 13:12:41.487807  1998 net.cpp:408] scale_pool3 -> scale_pool3
I0125 13:12:41.487912  1998 net.cpp:150] Setting up scale_pool3
I0125 13:12:41.487920  1998 net.cpp:157] Top shape: 1 256 72 88 (1622016)
I0125 13:12:41.487923  1998 net.cpp:165] Memory required for data: 971915232
I0125 13:12:41.487929  1998 layer_factory.hpp:77] Creating layer score_pool3
I0125 13:12:41.487939  1998 net.cpp:100] Creating Layer score_pool3
I0125 13:12:41.487944  1998 net.cpp:434] score_pool3 <- scale_pool3
I0125 13:12:41.487951  1998 net.cpp:408] score_pool3 -> score_pool3
I0125 13:12:41.489168  1998 net.cpp:150] Setting up score_pool3
I0125 13:12:41.489188  1998 net.cpp:157] Top shape: 1 6 72 88 (38016)
I0125 13:12:41.489193  1998 net.cpp:165] Memory required for data: 972067296
I0125 13:12:41.489200  1998 layer_factory.hpp:77] Creating layer score_pool3c
I0125 13:12:41.489210  1998 net.cpp:100] Creating Layer score_pool3c
I0125 13:12:41.489215  1998 net.cpp:434] score_pool3c <- score_pool3
I0125 13:12:41.489222  1998 net.cpp:434] score_pool3c <- upscore_pool4_upscore_pool4_0_split_0
I0125 13:12:41.489228  1998 net.cpp:408] score_pool3c -> score_pool3c
I0125 13:12:41.489261  1998 net.cpp:150] Setting up score_pool3c
I0125 13:12:41.489269  1998 net.cpp:157] Top shape: 1 6 54 70 (22680)
I0125 13:12:41.489272  1998 net.cpp:165] Memory required for data: 972158016
I0125 13:12:41.489276  1998 layer_factory.hpp:77] Creating layer fuse_pool3
I0125 13:12:41.489284  1998 net.cpp:100] Creating Layer fuse_pool3
I0125 13:12:41.489287  1998 net.cpp:434] fuse_pool3 <- upscore_pool4_upscore_pool4_0_split_1
I0125 13:12:41.489292  1998 net.cpp:434] fuse_pool3 <- score_pool3c
I0125 13:12:41.489300  1998 net.cpp:408] fuse_pool3 -> fuse_pool3
I0125 13:12:41.489327  1998 net.cpp:150] Setting up fuse_pool3
I0125 13:12:41.489334  1998 net.cpp:157] Top shape: 1 6 54 70 (22680)
I0125 13:12:41.489337  1998 net.cpp:165] Memory required for data: 972248736
I0125 13:12:41.489341  1998 layer_factory.hpp:77] Creating layer upscore8
I0125 13:12:41.489351  1998 net.cpp:100] Creating Layer upscore8
I0125 13:12:41.489356  1998 net.cpp:434] upscore8 <- fuse_pool3
I0125 13:12:41.489362  1998 net.cpp:408] upscore8 -> upscore8
I0125 13:12:41.489620  1998 net.cpp:150] Setting up upscore8
I0125 13:12:41.489629  1998 net.cpp:157] Top shape: 1 6 440 568 (1499520)
I0125 13:12:41.489632  1998 net.cpp:165] Memory required for data: 978246816
I0125 13:12:41.489645  1998 layer_factory.hpp:77] Creating layer score
I0125 13:12:41.489653  1998 net.cpp:100] Creating Layer score
I0125 13:12:41.489657  1998 net.cpp:434] score <- upscore8
I0125 13:12:41.489662  1998 net.cpp:434] score <- data_data_0_split_1
I0125 13:12:41.489668  1998 net.cpp:408] score -> score
I0125 13:12:41.489694  1998 net.cpp:150] Setting up score
I0125 13:12:41.489701  1998 net.cpp:157] Top shape: 1 6 375 500 (1125000)
I0125 13:12:41.489706  1998 net.cpp:165] Memory required for data: 982746816
I0125 13:12:41.489709  1998 layer_factory.hpp:77] Creating layer loss
I0125 13:12:41.489722  1998 net.cpp:100] Creating Layer loss
I0125 13:12:41.489727  1998 net.cpp:434] loss <- score
I0125 13:12:41.489730  1998 net.cpp:434] loss <- label
I0125 13:12:41.489738  1998 net.cpp:408] loss -> loss
I0125 13:12:41.489749  1998 layer_factory.hpp:77] Creating layer loss
…
I0125 13:12:41.492928  1998 net.cpp:283] Network initialization done.
I0125 13:12:41.494086  1998 solver.cpp:181] Creating test net (#0) specified by test_net file: val.prototxt
I0125 13:12:41.494453  1998 net.cpp:58] Initializing net from parameters: 
state {
  phase: TEST
}
layer {
  name: "data"
  type: "Python"
  top: "data"
  top: "label"
  python_param {
    module: "voc_layers"
    layer: "PartialVOCSegDataLayer"
    param_str: "{\'voc_dir\': \'../data/pascal-obfuscated/VOC2011\', \'seed\': 1337, \'split\': \'seg11valid5\', \'mean\': (104.00699, 116.66877, 122.67892)}"
  }
}
layer {
  name: "conv1_1"
  type: "Convolution"
  bottom: "data"
  top: "conv1_1"
  param {
    lr_mult: 1
    decay_mult: 1
  }
  param {
    lr_mult: 2
    decay_mult: 0
  }
  convolution_param {
    num_output: 64
    pad: 100
    kernel_size: 3
    stride: 1
    weight_filler {
      type: "xavier"
    }
  }
}
layer {
  name: "relu1_1"
  type: "ReLU"
  bottom: "conv1_1"
  top: "conv1_1"
}
layer {
  name: "conv1_2"
  type: "Convolution"
  bottom: "conv1_1"
  top: "conv1_2"
  param {
    lr_mult: 1
    decay_mult: 1
  }
  param {
    lr_mult: 2
    decay_mult: 0
  }
  convolution_param {
    num_output: 64
    pad: 1
    kernel_size: 3
    stride: 1
    weight_filler {
      type: "xavier"
    }
  }
}
layer {
  name: "relu1_2"
  type: "ReLU"
  bottom: "conv1_2"
  top: "conv1_2"
}
layer {
  name: "pool1"
  type: "Pooling"
  bottom: "conv1_2"
  top: "pool1"
  pooling_param {
    pool: MAX
    kernel_size: 2
    stride: 2
  }
}
layer {
  name: "conv2_1"
  type: "Convolution"
  bottom: "pool1"
  top: "conv2_1"
  param {
    lr_mult: 1
    decay_mult: 1
  }
  param {
    lr_mult: 2
    decay_mult: 0
  }
  convolution_param {
    num_output: 128
    pad: 1
    kernel_size: 3
    stride: 1
    weight_filler {
      type: "xavier"
    }
  }
}
layer {
  name: "relu2_1"
  type: "ReLU"
  bottom: "conv2_1"
  top: "conv2_1"
}
layer {
  name: "conv2_2"
  type: "Convolution"
  bottom: "conv2_1"
  top: "conv2_2"
  param {
    lr_mult: 1
    decay_mult: 1
  }
  param {
    lr_mult: 2
    decay_mult: 0
  }
  convolution_param {
    num_output: 128
    pad: 1
    kernel_size: 3
    stride: 1
    weight_filler {
      type: "xavier"
    }
  }
}
layer {
  name: "relu2_2"
  type: "ReLU"
  bottom: "conv2_2"
  top: "conv2_2"
}
layer {
  name: "pool2"
  type: "Pooling"
  bottom: "conv2_2"
  top: "pool2"
  pooling_param {
    pool: MAX
    kernel_size: 2
    stride: 2
  }
}
layer {
  name: "conv3_1"
  type: "Convolution"
  bottom: "pool2"
  top: "conv3_1"
  param {
    lr_mult: 1
    decay_mult: 1
  }
  param {
    lr_mult: 2
    decay_mult: 0
  }
  convolution_param {
    num_output: 256
    pad: 1
    kernel_size: 3
    stride: 1
    weight_filler {
      type: "xavier"
    }
  }
}
layer {
  name: "relu3_1"
  type: "ReLU"
  bottom: "conv3_1"
  top: "conv3_1"
}
layer {
  name: "conv3_2"
  type: "Convolution"
  bottom: "conv3_1"
  top: "conv3_2"
  param {
    lr_mult: 1
    decay_mult: 1
  }
  param {
    lr_mult: 2
    decay_mult: 0
  }
  convolution_param {
    num_output: 256
    pad: 1
    kernel_size: 3
    stride: 1
    weight_filler {
      type: "xavier"
    }
  }
}
layer {
  name: "relu3_2"
  type: "ReLU"
  bottom: "conv3_2"
  top: "conv3_2"
}
layer {
  name: "conv3_3"
  type: "Convolution"
  bottom: "conv3_2"
  top: "conv3_3"
  param {
    lr_mult: 1
    decay_mult: 1
  }
  param {
    lr_mult: 2
    decay_mult: 0
  }
  convolution_param {
    num_output: 256
    pad: 1
    kernel_size: 3
    stride: 1
    weight_filler {
      type: "xavier"
    }
  }
}
layer {
  name: "relu3_3"
  type: "ReLU"
  bottom: "conv3_3"
  top: "conv3_3"
}
layer {
  name: "pool3"
  type: "Pooling"
  bottom: "conv3_3"
  top: "pool3"
  pooling_param {
    pool: MAX
    kernel_size: 2
    stride: 2
  }
}
layer {
  name: "conv4_1"
  type: "Convolution"
  bottom: "pool3"
  top: "conv4_1"
  param {
    lr_mult: 1
    decay_mult: 1
  }
  param {
    lr_mult: 2
    decay_mult: 0
  }
  convolution_param {
    num_output: 512
    pad: 1
    kernel_size: 3
    stride: 1
    weight_filler {
      type: "xavier"
    }
  }
}
layer {
  name: "relu4_1"
  type: "ReLU"
  bottom: "conv4_1"
  top: "conv4_1"
}
layer {
  name: "conv4_2"
  type: "Convolution"
  bottom: "conv4_1"
  top: "conv4_2"
  param {
    lr_mult: 1
    decay_mult: 1
  }
  param {
    lr_mult: 2
    decay_mult: 0
  }
  convolution_param {
    num_output: 512
    pad: 1
    kernel_size: 3
    stride: 1
    weight_filler {
      type: "xavier"
    }
  }
}
layer {
  name: "relu4_2"
  type: "ReLU"
  bottom: "conv4_2"
  top: "conv4_2"
}
layer {
  name: "conv4_3"
  type: "Convolution"
  bottom: "conv4_2"
  top: "conv4_3"
  param {
    lr_mult: 1
    decay_mult: 1
  }
  param {
    lr_mult: 2
    decay_mult: 0
  }
  convolution_param {
    num_output: 512
    pad: 1
    kernel_size: 3
    stride: 1
    weight_filler {
      type: "xavier"
    }
  }
}
layer {
  name: "relu4_3"
  type: "ReLU"
  bottom: "conv4_3"
  top: "conv4_3"
}
layer {
  name: "pool4"
  type: "Pooling"
  bottom: "conv4_3"
  top: "pool4"
  pooling_param {
    pool: MAX
    kernel_size: 2
    stride: 2
  }
}
layer {
  name: "conv5_1"
  type: "Convolution"
  bottom: "pool4"
  top: "conv5_1"
  param {
    lr_mult: 1
    decay_mult: 1
  }
  param {
    lr_mult: 2
    decay_mult: 0
  }
  convolution_param {
    num_output: 512
    pad: 1
    kernel_size: 3
    stride: 1
    weight_filler {
      type: "xavier"
    }
  }
}
layer {
  name: "relu5_1"
  type: "ReLU"
  bottom: "conv5_1"
  top: "conv5_1"
}
layer {
  name: "conv5_2"
  type: "Convolution"
  bottom: "conv5_1"
  top: "conv5_2"
  param {
    lr_mult: 1
    decay_mult: 1
  }
  param {
    lr_mult: 2
    decay_mult: 0
  }
  convolution_param {
    num_output: 512
    pad: 1
    kernel_size: 3
    stride: 1
    weight_filler {
      type: "xavier"
    }
  }
}
layer {
  name: "relu5_2"
  type: "ReLU"
  bottom: "conv5_2"
  top: "conv5_2"
}
layer {
  name: "conv5_3"
  type: "Convolution"
  bottom: "conv5_2"
  top: "conv5_3"
  param {
    lr_mult: 1
    decay_mult: 1
  }
  param {
    lr_mult: 2
    decay_mult: 0
  }
  convolution_param {
    num_output: 512
    pad: 1
    kernel_size: 3
    stride: 1
    weight_filler {
      type: "xavier"
    }
  }
}
layer {
  name: "relu5_3"
  type: "ReLU"
  bottom: "conv5_3"
  top: "conv5_3"
}
layer {
  name: "pool5"
  type: "Pooling"
  bottom: "conv5_3"
  top: "pool5"
  pooling_param {
    pool: MAX
    kernel_size: 2
    stride: 2
  }
}
layer {
  name: "fc6"
  type: "Convolution"
  bottom: "pool5"
  top: "fc6"
  param {
    lr_mult: 1
    decay_mult: 1
  }
  param {
    lr_mult: 2
    decay_mult: 0
  }
  convolution_param {
    num_output: 4096
    pad: 0
    kernel_size: 7
    stride: 1
    weight_filler {
      type: "xavier"
    }
  }
}
layer {
  name: "relu6"
  type: "ReLU"
  bottom: "fc6"
  top: "fc6"
}
layer {
  name: "drop6"
  type: "Dropout"
  bottom: "fc6"
  top: "fc6"
  dropout_param {
    dropout_ratio: 0.5
  }
}
layer {
  name: "fc7"
  type: "Convolution"
  bottom: "fc6"
  top: "fc7"
  param {
    lr_mult: 1
    decay_mult: 1
  }
  param {
    lr_mult: 2
    decay_mult: 0
  }
  convolution_param {
    num_output: 4096
    pad: 0
    kernel_size: 1
    stride: 1
    weight_filler {
      type: "xavier"
    }
  }
}
layer {
  name: "relu7"
  type: "ReLU"
  bottom: "fc7"
  top: "fc7"
}
layer {
  name: "drop7"
  type: "Dropout"
  bottom: "fc7"
  top: "fc7"
  dropout_param {
    dropout_ratio: 0.5
  }
}
layer {
  name: "score_fr"
  type: "Convolution"
  bottom: "fc7"
  top: "score_fr"
  param {
    lr_mult: 1
    decay_mult: 1
  }
  param {
    lr_mult: 2
    decay_mult: 0
  }
  convolution_param {
    num_output: 6
    pad: 0
    kernel_size: 1
    weight_filler {
      type: "xavier"
    }
  }
}
layer {
  name: "upscore2"
  type: "Deconvolution"
  bottom: "score_fr"
  top: "upscore2"
  param {
    lr_mult: 0
  }
  convolution_param {
    num_output: 6
    bias_term: false
    kernel_size: 4
    stride: 2
    weight_filler {
      type: "xavier"
    }
  }
}
layer {
  name: "scale_pool4"
  type: "Scale"
  bottom: "pool4"
  top: "scale_pool4"
  param {
    lr_mult: 0
  }
  scale_param {
    filler {
      type: "constant"
      value: 0.01
    }
  }
}
layer {
  name: "score_pool4"
  type: "Convolution"
  bottom: "scale_pool4"
  top: "score_pool4"
  param {
    lr_mult: 1
    decay_mult: 1
  }
  param {
    lr_mult: 2
    decay_mult: 0
  }
  convolution_param {
    num_output: 6
    pad: 0
    kernel_size: 1
    weight_filler {
      type: "xavier"
    }
  }
}
layer {
  name: "score_pool4c"
  type: "Crop"
  bottom: "score_pool4"
  bottom: "upscore2"
  top: "score_pool4c"
  crop_param {
    axis: 2
    offset: 5
  }
}
layer {
  name: "fuse_pool4"
  type: "Eltwise"
  bottom: "upscore2"
  bottom: "score_pool4c"
  top: "fuse_pool4"
  eltwise_param {
    operation: SUM
  }
}
layer {
  name: "upscore_pool4"
  type: "Deconvolution"
  bottom: "fuse_pool4"
  top: "upscore_pool4"
  param {
    lr_mult: 0
  }
  convolution_param {
    num_output: 6
    bias_term: false
    kernel_size: 4
    stride: 2
    weight_filler {
      type: "xavier"
    }
  }
}
layer {
  name: "scale_pool3"
  type: "Scale"
  bottom: "pool3"
  top: "scale_pool3"
  param {
    lr_mult: 0
  }
  scale_param {
    filler {
      type: "constant"
      value: 0.0001
    }
  }
}
layer {
  name: "score_pool3"
  type: "Convolution"
  bottom: "scale_pool3"
  top: "score_pool3"
  param {
    lr_mult: 1
    decay_mult: 1
  }
  param {
    lr_mult: 2
    decay_mult: 0
  }
  convolution_param {
    num_output: 6
    pad: 0
    kernel_size: 1
    weight_filler {
      type: "xavier"
    }
  }
}
layer {
  name: "score_pool3c"
  type: "Crop"
  bottom: "score_pool3"
  bottom: "upscore_pool4"
  top: "score_pool3c"
  crop_param {
    axis: 2
    offset: 9
  }
}
layer {
  name: "fuse_pool3"
  type: "Eltwise"
  bottom: "upscore_pool4"
  bottom: "score_pool3c"
  top: "fuse_pool3"
  eltwise_param {
    operation: SUM
  }
}
layer {
  name: "upscore8"
  type: "Deconvolution"
  bottom: "fuse_pool3"
  top: "upscore8"
  param {
    lr_mult: 0
  }
  convolution_param {
    num_output: 6
    bias_term: false
    kernel_size: 16
    stride: 8
    weight_filler {
      type: "xavier"
    }
  }
}
layer {
  name: "score"
  type: "Crop"
  bottom: "upscore8"
  bottom: "data"
  top: "score"
  crop_param {
    axis: 2
    offset: 31
  }
}
layer {
  name: "loss"
  type: "SoftmaxWithLoss"
  bottom: "score"
  bottom: "label"
  top: "loss"
  loss_param {
    ignore_label: 255
    normalize: false
  }
}
I0125 13:12:41.494678  1998 layer_factory.hpp:77] Creating layer data
I0125 13:12:41.494794  1998 net.cpp:100] Creating Layer data
I0125 13:12:41.494804  1998 net.cpp:408] data -> data
I0125 13:12:41.494812  1998 net.cpp:408] data -> label
I0125 13:12:41.512265  1998 net.cpp:150] Setting up data
I0125 13:12:41.512286  1998 net.cpp:157] Top shape: 1 3 335 500 (502500)
I0125 13:12:41.512293  1998 net.cpp:157] Top shape: 1 1 335 500 (167500)
I0125 13:12:41.512297  1998 net.cpp:165] Memory required for data: 2680000
I0125 13:12:41.512302  1998 layer_factory.hpp:77] Creating layer data_data_0_split
I0125 13:12:41.512311  1998 net.cpp:100] Creating Layer data_data_0_split
I0125 13:12:41.512315  1998 net.cpp:434] data_data_0_split <- data
I0125 13:12:41.512322  1998 net.cpp:408] data_data_0_split -> data_data_0_split_0
I0125 13:12:41.512331  1998 net.cpp:408] data_data_0_split -> data_data_0_split_1
I0125 13:12:41.512372  1998 net.cpp:150] Setting up data_data_0_split
I0125 13:12:41.512378  1998 net.cpp:157] Top shape: 1 3 335 500 (502500)
I0125 13:12:41.512383  1998 net.cpp:157] Top shape: 1 3 335 500 (502500)
I0125 13:12:41.512387  1998 net.cpp:165] Memory required for data: 6700000
I0125 13:12:41.512392  1998 layer_factory.hpp:77] Creating layer conv1_1
I0125 13:12:41.512401  1998 net.cpp:100] Creating Layer conv1_1
I0125 13:12:41.512406  1998 net.cpp:434] conv1_1 <- data_data_0_split_0
I0125 13:12:41.512413  1998 net.cpp:408] conv1_1 -> conv1_1
I0125 13:12:41.514554  1998 net.cpp:150] Setting up conv1_1
I0125 13:12:41.514572  1998 net.cpp:157] Top shape: 1 64 533 698 (23810176)
I0125 13:12:41.514577  1998 net.cpp:165] Memory required for data: 101940704
I0125 13:12:41.514590  1998 layer_factory.hpp:77] Creating layer relu1_1
I0125 13:12:41.514597  1998 net.cpp:100] Creating Layer relu1_1
I0125 13:12:41.514602  1998 net.cpp:434] relu1_1 <- conv1_1
I0125 13:12:41.514608  1998 net.cpp:395] relu1_1 -> conv1_1 (in-place)
I0125 13:12:41.514801  1998 net.cpp:150] Setting up relu1_1
I0125 13:12:41.514811  1998 net.cpp:157] Top shape: 1 64 533 698 (23810176)
I0125 13:12:41.514816  1998 net.cpp:165] Memory required for data: 197181408
I0125 13:12:41.514820  1998 layer_factory.hpp:77] Creating layer conv1_2
I0125 13:12:41.514832  1998 net.cpp:100] Creating Layer conv1_2
I0125 13:12:41.514837  1998 net.cpp:434] conv1_2 <- conv1_1
I0125 13:12:41.514842  1998 net.cpp:408] conv1_2 -> conv1_2
I0125 13:12:41.517101  1998 net.cpp:150] Setting up conv1_2
I0125 13:12:41.517117  1998 net.cpp:157] Top shape: 1 64 533 698 (23810176)
I0125 13:12:41.517122  1998 net.cpp:165] Memory required for data: 292422112
I0125 13:12:41.517133  1998 layer_factory.hpp:77] Creating layer relu1_2
I0125 13:12:41.517141  1998 net.cpp:100] Creating Layer relu1_2
I0125 13:12:41.517145  1998 net.cpp:434] relu1_2 <- conv1_2
I0125 13:12:41.517153  1998 net.cpp:395] relu1_2 -> conv1_2 (in-place)
I0125 13:12:41.517513  1998 net.cpp:150] Setting up relu1_2
I0125 13:12:41.517527  1998 net.cpp:157] Top shape: 1 64 533 698 (23810176)
I0125 13:12:41.517532  1998 net.cpp:165] Memory required for data: 387662816
I0125 13:12:41.517537  1998 layer_factory.hpp:77] Creating layer pool1
I0125 13:12:41.517545  1998 net.cpp:100] Creating Layer pool1
I0125 13:12:41.517550  1998 net.cpp:434] pool1 <- conv1_2
I0125 13:12:41.517556  1998 net.cpp:408] pool1 -> pool1
I0125 13:12:41.517607  1998 net.cpp:150] Setting up pool1
I0125 13:12:41.517616  1998 net.cpp:157] Top shape: 1 64 267 349 (5963712)
I0125 13:12:41.517619  1998 net.cpp:165] Memory required for data: 411517664
I0125 13:12:41.517623  1998 layer_factory.hpp:77] Creating layer conv2_1
I0125 13:12:41.517632  1998 net.cpp:100] Creating Layer conv2_1
I0125 13:12:41.517642  1998 net.cpp:434] conv2_1 <- pool1
I0125 13:12:41.517650  1998 net.cpp:408] conv2_1 -> conv2_1
I0125 13:12:41.519830  1998 net.cpp:150] Setting up conv2_1
I0125 13:12:41.519846  1998 net.cpp:157] Top shape: 1 128 267 349 (11927424)
I0125 13:12:41.519851  1998 net.cpp:165] Memory required for data: 459227360
I0125 13:12:41.519863  1998 layer_factory.hpp:77] Creating layer relu2_1
I0125 13:12:41.519871  1998 net.cpp:100] Creating Layer relu2_1
I0125 13:12:41.519876  1998 net.cpp:434] relu2_1 <- conv2_1
I0125 13:12:41.519882  1998 net.cpp:395] relu2_1 -> conv2_1 (in-place)
I0125 13:12:41.520259  1998 net.cpp:150] Setting up relu2_1
I0125 13:12:41.520273  1998 net.cpp:157] Top shape: 1 128 267 349 (11927424)
I0125 13:12:41.520277  1998 net.cpp:165] Memory required for data: 506937056
I0125 13:12:41.520282  1998 layer_factory.hpp:77] Creating layer conv2_2
I0125 13:12:41.520294  1998 net.cpp:100] Creating Layer conv2_2
I0125 13:12:41.520298  1998 net.cpp:434] conv2_2 <- conv2_1
I0125 13:12:41.520306  1998 net.cpp:408] conv2_2 -> conv2_2
I0125 13:12:41.522853  1998 net.cpp:150] Setting up conv2_2
I0125 13:12:41.522871  1998 net.cpp:157] Top shape: 1 128 267 349 (11927424)
I0125 13:12:41.522876  1998 net.cpp:165] Memory required for data: 554646752
I0125 13:12:41.522884  1998 layer_factory.hpp:77] Creating layer relu2_2
I0125 13:12:41.522891  1998 net.cpp:100] Creating Layer relu2_2
I0125 13:12:41.522897  1998 net.cpp:434] relu2_2 <- conv2_2
I0125 13:12:41.522902  1998 net.cpp:395] relu2_2 -> conv2_2 (in-place)
I0125 13:12:41.523092  1998 net.cpp:150] Setting up relu2_2
I0125 13:12:41.523102  1998 net.cpp:157] Top shape: 1 128 267 349 (11927424)
I0125 13:12:41.523105  1998 net.cpp:165] Memory required for data: 602356448
I0125 13:12:41.523110  1998 layer_factory.hpp:77] Creating layer pool2
I0125 13:12:41.523118  1998 net.cpp:100] Creating Layer pool2
I0125 13:12:41.523123  1998 net.cpp:434] pool2 <- conv2_2
I0125 13:12:41.523128  1998 net.cpp:408] pool2 -> pool2
I0125 13:12:41.523178  1998 net.cpp:150] Setting up pool2
I0125 13:12:41.523185  1998 net.cpp:157] Top shape: 1 128 134 175 (3001600)
I0125 13:12:41.523190  1998 net.cpp:165] Memory required for data: 614362848
I0125 13:12:41.523193  1998 layer_factory.hpp:77] Creating layer conv3_1
I0125 13:12:41.523203  1998 net.cpp:100] Creating Layer conv3_1
I0125 13:12:41.523208  1998 net.cpp:434] conv3_1 <- pool2
I0125 13:12:41.523216  1998 net.cpp:408] conv3_1 -> conv3_1
I0125 13:12:41.526502  1998 net.cpp:150] Setting up conv3_1
I0125 13:12:41.526520  1998 net.cpp:157] Top shape: 1 256 134 175 (6003200)
I0125 13:12:41.526525  1998 net.cpp:165] Memory required for data: 638375648
I0125 13:12:41.526535  1998 layer_factory.hpp:77] Creating layer relu3_1
I0125 13:12:41.526549  1998 net.cpp:100] Creating Layer relu3_1
I0125 13:12:41.526554  1998 net.cpp:434] relu3_1 <- conv3_1
I0125 13:12:41.526561  1998 net.cpp:395] relu3_1 -> conv3_1 (in-place)
I0125 13:12:41.526917  1998 net.cpp:150] Setting up relu3_1
I0125 13:12:41.526931  1998 net.cpp:157] Top shape: 1 256 134 175 (6003200)
I0125 13:12:41.526935  1998 net.cpp:165] Memory required for data: 662388448
I0125 13:12:41.526940  1998 layer_factory.hpp:77] Creating layer conv3_2
I0125 13:12:41.526952  1998 net.cpp:100] Creating Layer conv3_2
I0125 13:12:41.526957  1998 net.cpp:434] conv3_2 <- conv3_1
I0125 13:12:41.526963  1998 net.cpp:408] conv3_2 -> conv3_2
I0125 13:12:41.532217  1998 net.cpp:150] Setting up conv3_2
I0125 13:12:41.532234  1998 net.cpp:157] Top shape: 1 256 134 175 (6003200)
I0125 13:12:41.532239  1998 net.cpp:165] Memory required for data: 686401248
I0125 13:12:41.532248  1998 layer_factory.hpp:77] Creating layer relu3_2
I0125 13:12:41.532255  1998 net.cpp:100] Creating Layer relu3_2
I0125 13:12:41.532260  1998 net.cpp:434] relu3_2 <- conv3_2
I0125 13:12:41.532268  1998 net.cpp:395] relu3_2 -> conv3_2 (in-place)
I0125 13:12:41.532459  1998 net.cpp:150] Setting up relu3_2
I0125 13:12:41.532469  1998 net.cpp:157] Top shape: 1 256 134 175 (6003200)
I0125 13:12:41.532474  1998 net.cpp:165] Memory required for data: 710414048
I0125 13:12:41.532479  1998 layer_factory.hpp:77] Creating layer conv3_3
I0125 13:12:41.532490  1998 net.cpp:100] Creating Layer conv3_3
I0125 13:12:41.532495  1998 net.cpp:434] conv3_3 <- conv3_2
I0125 13:12:41.532502  1998 net.cpp:408] conv3_3 -> conv3_3
I0125 13:12:41.537775  1998 net.cpp:150] Setting up conv3_3
I0125 13:12:41.537792  1998 net.cpp:157] Top shape: 1 256 134 175 (6003200)
I0125 13:12:41.537797  1998 net.cpp:165] Memory required for data: 734426848
I0125 13:12:41.537806  1998 layer_factory.hpp:77] Creating layer relu3_3
I0125 13:12:41.537813  1998 net.cpp:100] Creating Layer relu3_3
I0125 13:12:41.537818  1998 net.cpp:434] relu3_3 <- conv3_3
I0125 13:12:41.537825  1998 net.cpp:395] relu3_3 -> conv3_3 (in-place)
I0125 13:12:41.538012  1998 net.cpp:150] Setting up relu3_3
I0125 13:12:41.538022  1998 net.cpp:157] Top shape: 1 256 134 175 (6003200)
I0125 13:12:41.538027  1998 net.cpp:165] Memory required for data: 758439648
I0125 13:12:41.538031  1998 layer_factory.hpp:77] Creating layer pool3
I0125 13:12:41.538039  1998 net.cpp:100] Creating Layer pool3
I0125 13:12:41.538043  1998 net.cpp:434] pool3 <- conv3_3
I0125 13:12:41.538051  1998 net.cpp:408] pool3 -> pool3
I0125 13:12:41.538102  1998 net.cpp:150] Setting up pool3
I0125 13:12:41.538110  1998 net.cpp:157] Top shape: 1 256 67 88 (1509376)
I0125 13:12:41.538115  1998 net.cpp:165] Memory required for data: 764477152
I0125 13:12:41.538118  1998 layer_factory.hpp:77] Creating layer pool3_pool3_0_split
I0125 13:12:41.538125  1998 net.cpp:100] Creating Layer pool3_pool3_0_split
I0125 13:12:41.538130  1998 net.cpp:434] pool3_pool3_0_split <- pool3
I0125 13:12:41.538136  1998 net.cpp:408] pool3_pool3_0_split -> pool3_pool3_0_split_0
I0125 13:12:41.538142  1998 net.cpp:408] pool3_pool3_0_split -> pool3_pool3_0_split_1
I0125 13:12:41.538183  1998 net.cpp:150] Setting up pool3_pool3_0_split
I0125 13:12:41.538189  1998 net.cpp:157] Top shape: 1 256 67 88 (1509376)
I0125 13:12:41.538194  1998 net.cpp:157] Top shape: 1 256 67 88 (1509376)
I0125 13:12:41.538198  1998 net.cpp:165] Memory required for data: 776552160
I0125 13:12:41.538203  1998 layer_factory.hpp:77] Creating layer conv4_1
I0125 13:12:41.538213  1998 net.cpp:100] Creating Layer conv4_1
I0125 13:12:41.538218  1998 net.cpp:434] conv4_1 <- pool3_pool3_0_split_0
I0125 13:12:41.538225  1998 net.cpp:408] conv4_1 -> conv4_1
I0125 13:12:41.547334  1998 net.cpp:150] Setting up conv4_1
I0125 13:12:41.547353  1998 net.cpp:157] Top shape: 1 512 67 88 (3018752)
I0125 13:12:41.547358  1998 net.cpp:165] Memory required for data: 788627168
I0125 13:12:41.547365  1998 layer_factory.hpp:77] Creating layer relu4_1
I0125 13:12:41.547374  1998 net.cpp:100] Creating Layer relu4_1
I0125 13:12:41.547379  1998 net.cpp:434] relu4_1 <- conv4_1
I0125 13:12:41.547392  1998 net.cpp:395] relu4_1 -> conv4_1 (in-place)
I0125 13:12:41.547762  1998 net.cpp:150] Setting up relu4_1
I0125 13:12:41.547775  1998 net.cpp:157] Top shape: 1 512 67 88 (3018752)
I0125 13:12:41.547780  1998 net.cpp:165] Memory required for data: 800702176
I0125 13:12:41.547785  1998 layer_factory.hpp:77] Creating layer conv4_2
I0125 13:12:41.547796  1998 net.cpp:100] Creating Layer conv4_2
I0125 13:12:41.547801  1998 net.cpp:434] conv4_2 <- conv4_1
I0125 13:12:41.547809  1998 net.cpp:408] conv4_2 -> conv4_2
I0125 13:12:41.564790  1998 net.cpp:150] Setting up conv4_2
I0125 13:12:41.564815  1998 net.cpp:157] Top shape: 1 512 67 88 (3018752)
I0125 13:12:41.564820  1998 net.cpp:165] Memory required for data: 812777184
I0125 13:12:41.564833  1998 layer_factory.hpp:77] Creating layer relu4_2
I0125 13:12:41.564842  1998 net.cpp:100] Creating Layer relu4_2
I0125 13:12:41.564847  1998 net.cpp:434] relu4_2 <- conv4_2
I0125 13:12:41.564854  1998 net.cpp:395] relu4_2 -> conv4_2 (in-place)
I0125 13:12:41.565050  1998 net.cpp:150] Setting up relu4_2
I0125 13:12:41.565060  1998 net.cpp:157] Top shape: 1 512 67 88 (3018752)
I0125 13:12:41.565065  1998 net.cpp:165] Memory required for data: 824852192
I0125 13:12:41.565069  1998 layer_factory.hpp:77] Creating layer conv4_3
I0125 13:12:41.565080  1998 net.cpp:100] Creating Layer conv4_3
I0125 13:12:41.565085  1998 net.cpp:434] conv4_3 <- conv4_2
I0125 13:12:41.565093  1998 net.cpp:408] conv4_3 -> conv4_3
I0125 13:12:41.582305  1998 net.cpp:150] Setting up conv4_3
I0125 13:12:41.582331  1998 net.cpp:157] Top shape: 1 512 67 88 (3018752)
I0125 13:12:41.582337  1998 net.cpp:165] Memory required for data: 836927200
I0125 13:12:41.582346  1998 layer_factory.hpp:77] Creating layer relu4_3
I0125 13:12:41.582355  1998 net.cpp:100] Creating Layer relu4_3
I0125 13:12:41.582361  1998 net.cpp:434] relu4_3 <- conv4_3
I0125 13:12:41.582368  1998 net.cpp:395] relu4_3 -> conv4_3 (in-place)
I0125 13:12:41.582574  1998 net.cpp:150] Setting up relu4_3
I0125 13:12:41.582586  1998 net.cpp:157] Top shape: 1 512 67 88 (3018752)
I0125 13:12:41.582589  1998 net.cpp:165] Memory required for data: 849002208
I0125 13:12:41.582594  1998 layer_factory.hpp:77] Creating layer pool4
I0125 13:12:41.582603  1998 net.cpp:100] Creating Layer pool4
I0125 13:12:41.582608  1998 net.cpp:434] pool4 <- conv4_3
I0125 13:12:41.582615  1998 net.cpp:408] pool4 -> pool4
I0125 13:12:41.582670  1998 net.cpp:150] Setting up pool4
I0125 13:12:41.582679  1998 net.cpp:157] Top shape: 1 512 34 44 (765952)
I0125 13:12:41.582682  1998 net.cpp:165] Memory required for data: 852066016
I0125 13:12:41.582686  1998 layer_factory.hpp:77] Creating layer pool4_pool4_0_split
I0125 13:12:41.582695  1998 net.cpp:100] Creating Layer pool4_pool4_0_split
I0125 13:12:41.582698  1998 net.cpp:434] pool4_pool4_0_split <- pool4
I0125 13:12:41.582705  1998 net.cpp:408] pool4_pool4_0_split -> pool4_pool4_0_split_0
I0125 13:12:41.582711  1998 net.cpp:408] pool4_pool4_0_split -> pool4_pool4_0_split_1
I0125 13:12:41.582753  1998 net.cpp:150] Setting up pool4_pool4_0_split
I0125 13:12:41.582759  1998 net.cpp:157] Top shape: 1 512 34 44 (765952)
I0125 13:12:41.582764  1998 net.cpp:157] Top shape: 1 512 34 44 (765952)
I0125 13:12:41.582768  1998 net.cpp:165] Memory required for data: 858193632
I0125 13:12:41.582772  1998 layer_factory.hpp:77] Creating layer conv5_1
I0125 13:12:41.582783  1998 net.cpp:100] Creating Layer conv5_1
I0125 13:12:41.582787  1998 net.cpp:434] conv5_1 <- pool4_pool4_0_split_0
I0125 13:12:41.582795  1998 net.cpp:408] conv5_1 -> conv5_1
I0125 13:12:41.599768  1998 net.cpp:150] Setting up conv5_1
I0125 13:12:41.599792  1998 net.cpp:157] Top shape: 1 512 34 44 (765952)
I0125 13:12:41.599797  1998 net.cpp:165] Memory required for data: 861257440
I0125 13:12:41.599805  1998 layer_factory.hpp:77] Creating layer relu5_1
I0125 13:12:41.599815  1998 net.cpp:100] Creating Layer relu5_1
I0125 13:12:41.599820  1998 net.cpp:434] relu5_1 <- conv5_1
I0125 13:12:41.599828  1998 net.cpp:395] relu5_1 -> conv5_1 (in-place)
I0125 13:12:41.600205  1998 net.cpp:150] Setting up relu5_1
I0125 13:12:41.600219  1998 net.cpp:157] Top shape: 1 512 34 44 (765952)
I0125 13:12:41.600224  1998 net.cpp:165] Memory required for data: 864321248
I0125 13:12:41.600229  1998 layer_factory.hpp:77] Creating layer conv5_2
I0125 13:12:41.600239  1998 net.cpp:100] Creating Layer conv5_2
I0125 13:12:41.600244  1998 net.cpp:434] conv5_2 <- conv5_1
I0125 13:12:41.600253  1998 net.cpp:408] conv5_2 -> conv5_2
I0125 13:12:41.617276  1998 net.cpp:150] Setting up conv5_2
I0125 13:12:41.617298  1998 net.cpp:157] Top shape: 1 512 34 44 (765952)
I0125 13:12:41.617303  1998 net.cpp:165] Memory required for data: 867385056
I0125 13:12:41.617312  1998 layer_factory.hpp:77] Creating layer relu5_2
I0125 13:12:41.617322  1998 net.cpp:100] Creating Layer relu5_2
I0125 13:12:41.617327  1998 net.cpp:434] relu5_2 <- conv5_2
I0125 13:12:41.617334  1998 net.cpp:395] relu5_2 -> conv5_2 (in-place)
I0125 13:12:41.617528  1998 net.cpp:150] Setting up relu5_2
I0125 13:12:41.617539  1998 net.cpp:157] Top shape: 1 512 34 44 (765952)
I0125 13:12:41.617543  1998 net.cpp:165] Memory required for data: 870448864
I0125 13:12:41.617547  1998 layer_factory.hpp:77] Creating layer conv5_3
I0125 13:12:41.617564  1998 net.cpp:100] Creating Layer conv5_3
I0125 13:12:41.617568  1998 net.cpp:434] conv5_3 <- conv5_2
I0125 13:12:41.617576  1998 net.cpp:408] conv5_3 -> conv5_3
I0125 13:12:41.637212  1998 net.cpp:150] Setting up conv5_3
I0125 13:12:41.637253  1998 net.cpp:157] Top shape: 1 512 34 44 (765952)
I0125 13:12:41.637259  1998 net.cpp:165] Memory required for data: 873512672
I0125 13:12:41.637271  1998 layer_factory.hpp:77] Creating layer relu5_3
I0125 13:12:41.637286  1998 net.cpp:100] Creating Layer relu5_3
I0125 13:12:41.637295  1998 net.cpp:434] relu5_3 <- conv5_3
I0125 13:12:41.637303  1998 net.cpp:395] relu5_3 -> conv5_3 (in-place)
I0125 13:12:41.637506  1998 net.cpp:150] Setting up relu5_3
I0125 13:12:41.637516  1998 net.cpp:157] Top shape: 1 512 34 44 (765952)
I0125 13:12:41.637521  1998 net.cpp:165] Memory required for data: 876576480
I0125 13:12:41.637526  1998 layer_factory.hpp:77] Creating layer pool5
I0125 13:12:41.637537  1998 net.cpp:100] Creating Layer pool5
I0125 13:12:41.637542  1998 net.cpp:434] pool5 <- conv5_3
I0125 13:12:41.637552  1998 net.cpp:408] pool5 -> pool5
I0125 13:12:41.637609  1998 net.cpp:150] Setting up pool5
I0125 13:12:41.637616  1998 net.cpp:157] Top shape: 1 512 17 22 (191488)
I0125 13:12:41.637621  1998 net.cpp:165] Memory required for data: 877342432
I0125 13:12:41.637625  1998 layer_factory.hpp:77] Creating layer fc6
I0125 13:12:41.637645  1998 net.cpp:100] Creating Layer fc6
I0125 13:12:41.637650  1998 net.cpp:434] fc6 <- pool5
I0125 13:12:41.637658  1998 net.cpp:408] fc6 -> fc6
I0125 13:12:42.379753  1998 net.cpp:150] Setting up fc6
I0125 13:12:42.379813  1998 net.cpp:157] Top shape: 1 4096 11 16 (720896)
I0125 13:12:42.379818  1998 net.cpp:165] Memory required for data: 880226016
I0125 13:12:42.379832  1998 layer_factory.hpp:77] Creating layer relu6
I0125 13:12:42.379848  1998 net.cpp:100] Creating Layer relu6
I0125 13:12:42.379854  1998 net.cpp:434] relu6 <- fc6
I0125 13:12:42.379863  1998 net.cpp:395] relu6 -> fc6 (in-place)
I0125 13:12:42.380259  1998 net.cpp:150] Setting up relu6
I0125 13:12:42.380272  1998 net.cpp:157] Top shape: 1 4096 11 16 (720896)
I0125 13:12:42.380277  1998 net.cpp:165] Memory required for data: 883109600
I0125 13:12:42.380281  1998 layer_factory.hpp:77] Creating layer drop6
I0125 13:12:42.380292  1998 net.cpp:100] Creating Layer drop6
I0125 13:12:42.380297  1998 net.cpp:434] drop6 <- fc6
I0125 13:12:42.380305  1998 net.cpp:395] drop6 -> fc6 (in-place)
I0125 13:12:42.380352  1998 net.cpp:150] Setting up drop6
I0125 13:12:42.380359  1998 net.cpp:157] Top shape: 1 4096 11 16 (720896)
I0125 13:12:42.380363  1998 net.cpp:165] Memory required for data: 885993184
I0125 13:12:42.380368  1998 layer_factory.hpp:77] Creating layer fc7
I0125 13:12:42.380383  1998 net.cpp:100] Creating Layer fc7
I0125 13:12:42.380388  1998 net.cpp:434] fc7 <- fc6
I0125 13:12:42.380421  1998 net.cpp:408] fc7 -> fc7
I0125 13:12:42.532155  1998 net.cpp:150] Setting up fc7
I0125 13:12:42.532212  1998 net.cpp:157] Top shape: 1 4096 11 16 (720896)
I0125 13:12:42.532217  1998 net.cpp:165] Memory required for data: 888876768
I0125 13:12:42.532227  1998 layer_factory.hpp:77] Creating layer relu7
I0125 13:12:42.532241  1998 net.cpp:100] Creating Layer relu7
I0125 13:12:42.532248  1998 net.cpp:434] relu7 <- fc7
I0125 13:12:42.532255  1998 net.cpp:395] relu7 -> fc7 (in-place)
I0125 13:12:42.532466  1998 net.cpp:150] Setting up relu7
I0125 13:12:42.532476  1998 net.cpp:157] Top shape: 1 4096 11 16 (720896)
I0125 13:12:42.532480  1998 net.cpp:165] Memory required for data: 891760352
I0125 13:12:42.532485  1998 layer_factory.hpp:77] Creating layer drop7
I0125 13:12:42.532495  1998 net.cpp:100] Creating Layer drop7
I0125 13:12:42.532500  1998 net.cpp:434] drop7 <- fc7
I0125 13:12:42.532507  1998 net.cpp:395] drop7 -> fc7 (in-place)
I0125 13:12:42.532547  1998 net.cpp:150] Setting up drop7
I0125 13:12:42.532555  1998 net.cpp:157] Top shape: 1 4096 11 16 (720896)
I0125 13:12:42.532559  1998 net.cpp:165] Memory required for data: 894643936
I0125 13:12:42.532563  1998 layer_factory.hpp:77] Creating layer score_fr
I0125 13:12:42.532577  1998 net.cpp:100] Creating Layer score_fr
I0125 13:12:42.532582  1998 net.cpp:434] score_fr <- fc7
I0125 13:12:42.532590  1998 net.cpp:408] score_fr -> score_fr
I0125 13:12:42.535131  1998 net.cpp:150] Setting up score_fr
I0125 13:12:42.535148  1998 net.cpp:157] Top shape: 1 6 11 16 (1056)
I0125 13:12:42.535153  1998 net.cpp:165] Memory required for data: 894648160
I0125 13:12:42.535161  1998 layer_factory.hpp:77] Creating layer upscore2
I0125 13:12:42.535174  1998 net.cpp:100] Creating Layer upscore2
I0125 13:12:42.535179  1998 net.cpp:434] upscore2 <- score_fr
I0125 13:12:42.535188  1998 net.cpp:408] upscore2 -> upscore2
I0125 13:12:42.535454  1998 net.cpp:150] Setting up upscore2
I0125 13:12:42.535464  1998 net.cpp:157] Top shape: 1 6 24 34 (4896)
I0125 13:12:42.535467  1998 net.cpp:165] Memory required for data: 894667744
I0125 13:12:42.535485  1998 layer_factory.hpp:77] Creating layer upscore2_upscore2_0_split
I0125 13:12:42.535495  1998 net.cpp:100] Creating Layer upscore2_upscore2_0_split
I0125 13:12:42.535498  1998 net.cpp:434] upscore2_upscore2_0_split <- upscore2
I0125 13:12:42.535506  1998 net.cpp:408] upscore2_upscore2_0_split -> upscore2_upscore2_0_split_0
I0125 13:12:42.535514  1998 net.cpp:408] upscore2_upscore2_0_split -> upscore2_upscore2_0_split_1
I0125 13:12:42.535560  1998 net.cpp:150] Setting up upscore2_upscore2_0_split
I0125 13:12:42.535567  1998 net.cpp:157] Top shape: 1 6 24 34 (4896)
I0125 13:12:42.535573  1998 net.cpp:157] Top shape: 1 6 24 34 (4896)
I0125 13:12:42.535576  1998 net.cpp:165] Memory required for data: 894706912
I0125 13:12:42.535580  1998 layer_factory.hpp:77] Creating layer scale_pool4
I0125 13:12:42.535593  1998 net.cpp:100] Creating Layer scale_pool4
I0125 13:12:42.535596  1998 net.cpp:434] scale_pool4 <- pool4_pool4_0_split_1
I0125 13:12:42.535604  1998 net.cpp:408] scale_pool4 -> scale_pool4
I0125 13:12:42.535738  1998 net.cpp:150] Setting up scale_pool4
I0125 13:12:42.535748  1998 net.cpp:157] Top shape: 1 512 34 44 (765952)
I0125 13:12:42.535751  1998 net.cpp:165] Memory required for data: 897770720
I0125 13:12:42.535758  1998 layer_factory.hpp:77] Creating layer score_pool4
I0125 13:12:42.535769  1998 net.cpp:100] Creating Layer score_pool4
I0125 13:12:42.535774  1998 net.cpp:434] score_pool4 <- scale_pool4
I0125 13:12:42.535781  1998 net.cpp:408] score_pool4 -> score_pool4
I0125 13:12:42.537152  1998 net.cpp:150] Setting up score_pool4
I0125 13:12:42.537166  1998 net.cpp:157] Top shape: 1 6 34 44 (8976)
I0125 13:12:42.537171  1998 net.cpp:165] Memory required for data: 897806624
I0125 13:12:42.537179  1998 layer_factory.hpp:77] Creating layer score_pool4c
I0125 13:12:42.537189  1998 net.cpp:100] Creating Layer score_pool4c
I0125 13:12:42.537194  1998 net.cpp:434] score_pool4c <- score_pool4
I0125 13:12:42.537217  1998 net.cpp:434] score_pool4c <- upscore2_upscore2_0_split_0
I0125 13:12:42.537225  1998 net.cpp:408] score_pool4c -> score_pool4c
I0125 13:12:42.537263  1998 net.cpp:150] Setting up score_pool4c
I0125 13:12:42.537271  1998 net.cpp:157] Top shape: 1 6 24 34 (4896)
I0125 13:12:42.537276  1998 net.cpp:165] Memory required for data: 897826208
I0125 13:12:42.537279  1998 layer_factory.hpp:77] Creating layer fuse_pool4
I0125 13:12:42.537289  1998 net.cpp:100] Creating Layer fuse_pool4
I0125 13:12:42.537293  1998 net.cpp:434] fuse_pool4 <- upscore2_upscore2_0_split_1
I0125 13:12:42.537299  1998 net.cpp:434] fuse_pool4 <- score_pool4c
I0125 13:12:42.537304  1998 net.cpp:408] fuse_pool4 -> fuse_pool4
I0125 13:12:42.537338  1998 net.cpp:150] Setting up fuse_pool4
I0125 13:12:42.537343  1998 net.cpp:157] Top shape: 1 6 24 34 (4896)
I0125 13:12:42.537348  1998 net.cpp:165] Memory required for data: 897845792
I0125 13:12:42.537351  1998 layer_factory.hpp:77] Creating layer upscore_pool4
I0125 13:12:42.537360  1998 net.cpp:100] Creating Layer upscore_pool4
I0125 13:12:42.537364  1998 net.cpp:434] upscore_pool4 <- fuse_pool4
I0125 13:12:42.537371  1998 net.cpp:408] upscore_pool4 -> upscore_pool4
I0125 13:12:42.537621  1998 net.cpp:150] Setting up upscore_pool4
I0125 13:12:42.537628  1998 net.cpp:157] Top shape: 1 6 50 70 (21000)
I0125 13:12:42.537632  1998 net.cpp:165] Memory required for data: 897929792
I0125 13:12:42.537644  1998 layer_factory.hpp:77] Creating layer upscore_pool4_upscore_pool4_0_split
I0125 13:12:42.537653  1998 net.cpp:100] Creating Layer upscore_pool4_upscore_pool4_0_split
I0125 13:12:42.537657  1998 net.cpp:434] upscore_pool4_upscore_pool4_0_split <- upscore_pool4
I0125 13:12:42.537664  1998 net.cpp:408] upscore_pool4_upscore_pool4_0_split -> upscore_pool4_upscore_pool4_0_split_0
I0125 13:12:42.537672  1998 net.cpp:408] upscore_pool4_upscore_pool4_0_split -> upscore_pool4_upscore_pool4_0_split_1
I0125 13:12:42.537717  1998 net.cpp:150] Setting up upscore_pool4_upscore_pool4_0_split
I0125 13:12:42.537724  1998 net.cpp:157] Top shape: 1 6 50 70 (21000)
I0125 13:12:42.537729  1998 net.cpp:157] Top shape: 1 6 50 70 (21000)
I0125 13:12:42.537734  1998 net.cpp:165] Memory required for data: 898097792
I0125 13:12:42.537737  1998 layer_factory.hpp:77] Creating layer scale_pool3
I0125 13:12:42.537746  1998 net.cpp:100] Creating Layer scale_pool3
I0125 13:12:42.537751  1998 net.cpp:434] scale_pool3 <- pool3_pool3_0_split_1
I0125 13:12:42.537758  1998 net.cpp:408] scale_pool3 -> scale_pool3
I0125 13:12:42.537883  1998 net.cpp:150] Setting up scale_pool3
I0125 13:12:42.537890  1998 net.cpp:157] Top shape: 1 256 67 88 (1509376)
I0125 13:12:42.537894  1998 net.cpp:165] Memory required for data: 904135296
I0125 13:12:42.537899  1998 layer_factory.hpp:77] Creating layer score_pool3
I0125 13:12:42.537914  1998 net.cpp:100] Creating Layer score_pool3
I0125 13:12:42.537919  1998 net.cpp:434] score_pool3 <- scale_pool3
I0125 13:12:42.537925  1998 net.cpp:408] score_pool3 -> score_pool3
I0125 13:12:42.539242  1998 net.cpp:150] Setting up score_pool3
I0125 13:12:42.539257  1998 net.cpp:157] Top shape: 1 6 67 88 (35376)
I0125 13:12:42.539261  1998 net.cpp:165] Memory required for data: 904276800
I0125 13:12:42.539269  1998 layer_factory.hpp:77] Creating layer score_pool3c
I0125 13:12:42.539278  1998 net.cpp:100] Creating Layer score_pool3c
I0125 13:12:42.539283  1998 net.cpp:434] score_pool3c <- score_pool3
I0125 13:12:42.539290  1998 net.cpp:434] score_pool3c <- upscore_pool4_upscore_pool4_0_split_0
I0125 13:12:42.539297  1998 net.cpp:408] score_pool3c -> score_pool3c
I0125 13:12:42.539333  1998 net.cpp:150] Setting up score_pool3c
I0125 13:12:42.539341  1998 net.cpp:157] Top shape: 1 6 50 70 (21000)
I0125 13:12:42.539345  1998 net.cpp:165] Memory required for data: 904360800
I0125 13:12:42.539348  1998 layer_factory.hpp:77] Creating layer fuse_pool3
I0125 13:12:42.539357  1998 net.cpp:100] Creating Layer fuse_pool3
I0125 13:12:42.539362  1998 net.cpp:434] fuse_pool3 <- upscore_pool4_upscore_pool4_0_split_1
I0125 13:12:42.539376  1998 net.cpp:434] fuse_pool3 <- score_pool3c
I0125 13:12:42.539383  1998 net.cpp:408] fuse_pool3 -> fuse_pool3
I0125 13:12:42.539415  1998 net.cpp:150] Setting up fuse_pool3
I0125 13:12:42.539422  1998 net.cpp:157] Top shape: 1 6 50 70 (21000)
I0125 13:12:42.539427  1998 net.cpp:165] Memory required for data: 904444800
I0125 13:12:42.539430  1998 layer_factory.hpp:77] Creating layer upscore8
I0125 13:12:42.539440  1998 net.cpp:100] Creating Layer upscore8
I0125 13:12:42.539445  1998 net.cpp:434] upscore8 <- fuse_pool3
I0125 13:12:42.539453  1998 net.cpp:408] upscore8 -> upscore8
I0125 13:12:42.539759  1998 net.cpp:150] Setting up upscore8
I0125 13:12:42.539768  1998 net.cpp:157] Top shape: 1 6 408 568 (1390464)
I0125 13:12:42.539772  1998 net.cpp:165] Memory required for data: 910006656
I0125 13:12:42.539777  1998 layer_factory.hpp:77] Creating layer score
I0125 13:12:42.539785  1998 net.cpp:100] Creating Layer score
I0125 13:12:42.539789  1998 net.cpp:434] score <- upscore8
I0125 13:12:42.539794  1998 net.cpp:434] score <- data_data_0_split_1
I0125 13:12:42.539801  1998 net.cpp:408] score -> score
I0125 13:12:42.539832  1998 net.cpp:150] Setting up score
I0125 13:12:42.539839  1998 net.cpp:157] Top shape: 1 6 335 500 (1005000)
I0125 13:12:42.539842  1998 net.cpp:165] Memory required for data: 914026656
I0125 13:12:42.539846  1998 layer_factory.hpp:77] Creating layer loss
I0125 13:12:42.539855  1998 net.cpp:100] Creating Layer loss
I0125 13:12:42.539860  1998 net.cpp:434] loss <- score
I0125 13:12:42.539865  1998 net.cpp:434] loss <- label
I0125 13:12:42.539871  1998 net.cpp:408] loss -> loss
I0125 13:12:42.539880  1998 layer_factory.hpp:77] Creating layer loss
…
