…
test_initialization: false
average_loss: 20
iter_size: 1
I0119 04:17:57.801110 21211 solver.cpp:81] Creating training net from train_net file: train.prototxt
I0119 04:17:57.802438 21211 net.cpp:58] Initializing net from parameters: 
state {
  phase: TRAIN
}
layer {
  name: "data"
  type: "Python"
  top: "data"
  top: "label"
  python_param {
    module: "voc_layers"
    layer: "PartialSBDDSegDataLayer"
    param_str: "{\'sbdd_dir\': \'../data/sbdd/dataset\', \'seed\': 1337, \'split\': \'train5\', \'mean\': (104.00699, 116.66877, 122.67892)}"
  }
}
layer {
  name: "conv1_1"
  type: "Convolution"
  bottom: "data"
  top: "conv1_1"
  param {
    lr_mult: 1
    decay_mult: 1
  }
  param {
    lr_mult: 2
    decay_mult: 0
  }
  convolution_param {
    num_output: 64
    pad: 100
    kernel_size: 3
    stride: 1
    weight_filler {
      type: "xavier"
    }
  }
}
layer {
  name: "relu1_1"
  type: "ReLU"
  bottom: "conv1_1"
  top: "conv1_1"
}
layer {
  name: "conv1_2"
  type: "Convolution"
  bottom: "conv1_1"
  top: "conv1_2"
  param {
    lr_mult: 1
    decay_mult: 1
  }
  param {
    lr_mult: 2
    decay_mult: 0
  }
  convolution_param {
    num_output: 64
    pad: 1
    kernel_size: 3
    stride: 1
    weight_filler {
      type: "xavier"
    }
  }
}
layer {
  name: "relu1_2"
  type: "ReLU"
  bottom: "conv1_2"
  top: "conv1_2"
}
layer {
  name: "pool1"
  type: "Pooling"
  bottom: "conv1_2"
  top: "pool1"
  pooling_param {
    pool: MAX
    kernel_size: 2
    stride: 2
  }
}
layer {
  name: "conv2_1"
  type: "Convolution"
  bottom: "pool1"
  top: "conv2_1"
  param {
    lr_mult: 1
    decay_mult: 1
  }
  param {
    lr_mult: 2
    decay_mult: 0
  }
  convolution_param {
    num_output: 128
    pad: 1
    kernel_size: 3
    stride: 1
    weight_filler {
      type: "xavier"
    }
  }
}
layer {
  name: "relu2_1"
  type: "ReLU"
  bottom: "conv2_1"
  top: "conv2_1"
}
layer {
  name: "conv2_2"
  type: "Convolution"
  bottom: "conv2_1"
  top: "conv2_2"
  param {
    lr_mult: 1
    decay_mult: 1
  }
  param {
    lr_mult: 2
    decay_mult: 0
  }
  convolution_param {
    num_output: 128
    pad: 1
    kernel_size: 3
    stride: 1
    weight_filler {
      type: "xavier"
    }
  }
}
layer {
  name: "relu2_2"
  type: "ReLU"
  bottom: "conv2_2"
  top: "conv2_2"
}
layer {
  name: "pool2"
  type: "Pooling"
  bottom: "conv2_2"
  top: "pool2"
  pooling_param {
    pool: MAX
    kernel_size: 2
    stride: 2
  }
}
layer {
  name: "conv3_1"
  type: "Convolution"
  bottom: "pool2"
  top: "conv3_1"
  param {
    lr_mult: 1
    decay_mult: 1
  }
  param {
    lr_mult: 2
    decay_mult: 0
  }
  convolution_param {
    num_output: 256
    pad: 1
    kernel_size: 3
    stride: 1
    weight_filler {
      type: "xavier"
    }
  }
}
layer {
  name: "relu3_1"
  type: "ReLU"
  bottom: "conv3_1"
  top: "conv3_1"
}
layer {
  name: "conv3_2"
  type: "Convolution"
  bottom: "conv3_1"
  top: "conv3_2"
  param {
    lr_mult: 1
    decay_mult: 1
  }
  param {
    lr_mult: 2
    decay_mult: 0
  }
  convolution_param {
    num_output: 256
    pad: 1
    kernel_size: 3
    stride: 1
    weight_filler {
      type: "xavier"
    }
  }
}
layer {
  name: "relu3_2"
  type: "ReLU"
  bottom: "conv3_2"
  top: "conv3_2"
}
layer {
  name: "conv3_3"
  type: "Convolution"
  bottom: "conv3_2"
  top: "conv3_3"
  param {
    lr_mult: 1
    decay_mult: 1
  }
  param {
    lr_mult: 2
    decay_mult: 0
  }
  convolution_param {
    num_output: 256
    pad: 1
    kernel_size: 3
    stride: 1
    weight_filler {
      type: "xavier"
    }
  }
}
layer {
  name: "relu3_3"
  type: "ReLU"
  bottom: "conv3_3"
  top: "conv3_3"
}
layer {
  name: "pool3"
  type: "Pooling"
  bottom: "conv3_3"
  top: "pool3"
  pooling_param {
    pool: MAX
    kernel_size: 2
    stride: 2
  }
}
layer {
  name: "conv4_1"
  type: "Convolution"
  bottom: "pool3"
  top: "conv4_1"
  param {
    lr_mult: 1
    decay_mult: 1
  }
  param {
    lr_mult: 2
    decay_mult: 0
  }
  convolution_param {
    num_output: 512
    pad: 1
    kernel_size: 3
    stride: 1
    weight_filler {
      type: "xavier"
    }
  }
}
layer {
  name: "relu4_1"
  type: "ReLU"
  bottom: "conv4_1"
  top: "conv4_1"
}
layer {
  name: "conv4_2"
  type: "Convolution"
  bottom: "conv4_1"
  top: "conv4_2"
  param {
    lr_mult: 1
    decay_mult: 1
  }
  param {
    lr_mult: 2
    decay_mult: 0
  }
  convolution_param {
    num_output: 512
    pad: 1
    kernel_size: 3
    stride: 1
    weight_filler {
      type: "xavier"
    }
  }
}
layer {
  name: "relu4_2"
  type: "ReLU"
  bottom: "conv4_2"
  top: "conv4_2"
}
layer {
  name: "conv4_3"
  type: "Convolution"
  bottom: "conv4_2"
  top: "conv4_3"
  param {
    lr_mult: 1
    decay_mult: 1
  }
  param {
    lr_mult: 2
    decay_mult: 0
  }
  convolution_param {
    num_output: 512
    pad: 1
    kernel_size: 3
    stride: 1
    weight_filler {
      type: "xavier"
    }
  }
}
layer {
  name: "relu4_3"
  type: "ReLU"
  bottom: "conv4_3"
  top: "conv4_3"
}
layer {
  name: "pool4"
  type: "Pooling"
  bottom: "conv4_3"
  top: "pool4"
  pooling_param {
    pool: MAX
    kernel_size: 2
    stride: 2
  }
}
layer {
  name: "conv5_1"
  type: "Convolution"
  bottom: "pool4"
  top: "conv5_1"
  param {
    lr_mult: 1
    decay_mult: 1
  }
  param {
    lr_mult: 2
    decay_mult: 0
  }
  convolution_param {
    num_output: 512
    pad: 1
    kernel_size: 3
    stride: 1
    weight_filler {
      type: "xavier"
    }
  }
}
layer {
  name: "relu5_1"
  type: "ReLU"
  bottom: "conv5_1"
  top: "conv5_1"
}
layer {
  name: "conv5_2"
  type: "Convolution"
  bottom: "conv5_1"
  top: "conv5_2"
  param {
    lr_mult: 1
    decay_mult: 1
  }
  param {
    lr_mult: 2
    decay_mult: 0
  }
  convolution_param {
    num_output: 512
    pad: 1
    kernel_size: 3
    stride: 1
    weight_filler {
      type: "xavier"
    }
  }
}
layer {
  name: "relu5_2"
  type: "ReLU"
  bottom: "conv5_2"
  top: "conv5_2"
}
layer {
  name: "conv5_3"
  type: "Convolution"
  bottom: "conv5_2"
  top: "conv5_3"
  param {
    lr_mult: 1
    decay_mult: 1
  }
  param {
    lr_mult: 2
    decay_mult: 0
  }
  convolution_param {
    num_output: 512
    pad: 1
    kernel_size: 3
    stride: 1
    weight_filler {
      type: "xavier"
    }
  }
}
layer {
  name: "relu5_3"
  type: "ReLU"
  bottom: "conv5_3"
  top: "conv5_3"
}
layer {
  name: "pool5"
  type: "Pooling"
  bottom: "conv5_3"
  top: "pool5"
  pooling_param {
    pool: MAX
    kernel_size: 2
    stride: 2
  }
}
layer {
  name: "fc6"
  type: "Convolution"
  bottom: "pool5"
  top: "fc6"
  param {
    lr_mult: 1
    decay_mult: 1
  }
  param {
    lr_mult: 2
    decay_mult: 0
  }
  convolution_param {
    num_output: 4096
    pad: 0
    kernel_size: 7
    stride: 1
    weight_filler {
      type: "xavier"
    }
  }
}
layer {
  name: "relu6"
  type: "ReLU"
  bottom: "fc6"
  top: "fc6"
}
layer {
  name: "drop6"
  type: "Dropout"
  bottom: "fc6"
  top: "fc6"
  dropout_param {
    dropout_ratio: 0.5
  }
}
layer {
  name: "fc7"
  type: "Convolution"
  bottom: "fc6"
  top: "fc7"
  param {
    lr_mult: 1
    decay_mult: 1
  }
  param {
    lr_mult: 2
    decay_mult: 0
  }
  convolution_param {
    num_output: 4096
    pad: 0
    kernel_size: 1
    stride: 1
    weight_filler {
      type: "xavier"
    }
  }
}
layer {
  name: "relu7"
  type: "ReLU"
  bottom: "fc7"
  top: "fc7"
}
layer {
  name: "drop7"
  type: "Dropout"
  bottom: "fc7"
  top: "fc7"
  dropout_param {
    dropout_ratio: 0.5
  }
}
layer {
  name: "score_fr"
  type: "Convolution"
  bottom: "fc7"
  top: "score_fr"
  param {
    lr_mult: 1
    decay_mult: 1
  }
  param {
    lr_mult: 2
    decay_mult: 0
  }
  convolution_param {
    num_output: 6
    pad: 0
    kernel_size: 1
    weight_filler {
      type: "xavier"
    }
  }
}
layer {
  name: "upscore2"
  type: "Deconvolution"
  bottom: "score_fr"
  top: "upscore2"
  param {
    lr_mult: 0
  }
  convolution_param {
    num_output: 6
    bias_term: false
    kernel_size: 4
    stride: 2
    weight_filler {
      type: "xavier"
    }
  }
}
layer {
  name: "scale_pool4"
  type: "Scale"
  bottom: "pool4"
  top: "scale_pool4"
  param {
    lr_mult: 0
  }
  scale_param {
    filler {
      type: "constant"
      value: 0.01
    }
  }
}
layer {
  name: "score_pool4"
  type: "Convolution"
  bottom: "scale_pool4"
  top: "score_pool4"
  param {
    lr_mult: 1
    decay_mult: 1
  }
  param {
    lr_mult: 2
    decay_mult: 0
  }
  convolution_param {
    num_output: 6
    pad: 0
    kernel_size: 1
    weight_filler {
      type: "xavier"
    }
  }
}
layer {
  name: "score_pool4c"
  type: "Crop"
  bottom: "score_pool4"
  bottom: "upscore2"
  top: "score_pool4c"
  crop_param {
    axis: 2
    offset: 5
  }
}
layer {
  name: "fuse_pool4"
  type: "Eltwise"
  bottom: "upscore2"
  bottom: "score_pool4c"
  top: "fuse_pool4"
  eltwise_param {
    operation: SUM
  }
}
layer {
  name: "upscore_pool4"
  type: "Deconvolution"
  bottom: "fuse_pool4"
  top: "upscore_pool4"
  param {
    lr_mult: 0
  }
  convolution_param {
    num_output: 6
    bias_term: false
    kernel_size: 4
    stride: 2
    weight_filler {
      type: "xavier"
    }
  }
}
layer {
  name: "scale_pool3"
  type: "Scale"
  bottom: "pool3"
  top: "scale_pool3"
  param {
    lr_mult: 0
  }
  scale_param {
    filler {
      type: "constant"
      value: 0.0001
    }
  }
}
layer {
  name: "score_pool3"
  type: "Convolution"
  bottom: "scale_pool3"
  top: "score_pool3"
  param {
    lr_mult: 1
    decay_mult: 1
  }
  param {
    lr_mult: 2
    decay_mult: 0
  }
  convolution_param {
    num_output: 6
    pad: 0
    kernel_size: 1
    weight_filler {
      type: "xavier"
    }
  }
}
layer {
  name: "score_pool3c"
  type: "Crop"
  bottom: "score_pool3"
  bottom: "upscore_pool4"
  top: "score_pool3c"
  crop_param {
    axis: 2
    offset: 9
  }
}
layer {
  name: "fuse_pool3"
  type: "Eltwise"
  bottom: "upscore_pool4"
  bottom: "score_pool3c"
  top: "fuse_pool3"
  eltwise_param {
    operation: SUM
  }
}
layer {
  name: "upscore8"
  type: "Deconvolution"
  bottom: "fuse_pool3"
  top: "upscore8"
  param {
    lr_mult: 0
  }
  convolution_param {
    num_output: 6
    bias_term: false
    kernel_size: 16
    stride: 8
    weight_filler {
      type: "xavier"
    }
  }
}
layer {
  name: "score"
  type: "Crop"
  bottom: "upscore8"
  bottom: "data"
  top: "score"
  crop_param {
    axis: 2
    offset: 31
  }
}
layer {
  name: "loss"
  type: "SoftmaxWithLoss"
  bottom: "score"
  bottom: "label"
  top: "loss"
  loss_param {
    ignore_label: 255
    normalize: false
  }
}
I0119 04:17:57.802686 21211 layer_factory.hpp:77] Creating layer data
I0119 04:17:57.803236 21211 net.cpp:100] Creating Layer data
I0119 04:17:57.803251 21211 net.cpp:408] data -> data
I0119 04:17:57.803269 21211 net.cpp:408] data -> label
I0119 04:17:57.844780 21211 net.cpp:150] Setting up data
I0119 04:17:57.844817 21211 net.cpp:157] Top shape: 1 3 375 500 (562500)
I0119 04:17:57.844825 21211 net.cpp:157] Top shape: 1 1 375 500 (187500)
I0119 04:17:57.844828 21211 net.cpp:165] Memory required for data: 3000000
I0119 04:17:57.844837 21211 layer_factory.hpp:77] Creating layer data_data_0_split
I0119 04:17:57.844861 21211 net.cpp:100] Creating Layer data_data_0_split
I0119 04:17:57.844866 21211 net.cpp:434] data_data_0_split <- data
I0119 04:17:57.844876 21211 net.cpp:408] data_data_0_split -> data_data_0_split_0
I0119 04:17:57.844887 21211 net.cpp:408] data_data_0_split -> data_data_0_split_1
I0119 04:17:57.844925 21211 net.cpp:150] Setting up data_data_0_split
I0119 04:17:57.844933 21211 net.cpp:157] Top shape: 1 3 375 500 (562500)
I0119 04:17:57.844938 21211 net.cpp:157] Top shape: 1 3 375 500 (562500)
I0119 04:17:57.844941 21211 net.cpp:165] Memory required for data: 7500000
I0119 04:17:57.844945 21211 layer_factory.hpp:77] Creating layer conv1_1
I0119 04:17:57.844966 21211 net.cpp:100] Creating Layer conv1_1
I0119 04:17:57.844970 21211 net.cpp:434] conv1_1 <- data_data_0_split_0
I0119 04:17:57.844985 21211 net.cpp:408] conv1_1 -> conv1_1
I0119 04:17:58.023499 21211 net.cpp:150] Setting up conv1_1
I0119 04:17:58.023540 21211 net.cpp:157] Top shape: 1 64 573 698 (25597056)
I0119 04:17:58.023545 21211 net.cpp:165] Memory required for data: 109888224
I0119 04:17:58.023564 21211 layer_factory.hpp:77] Creating layer relu1_1
I0119 04:17:58.023578 21211 net.cpp:100] Creating Layer relu1_1
I0119 04:17:58.023584 21211 net.cpp:434] relu1_1 <- conv1_1
I0119 04:17:58.023591 21211 net.cpp:395] relu1_1 -> conv1_1 (in-place)
I0119 04:17:58.023958 21211 net.cpp:150] Setting up relu1_1
I0119 04:17:58.023972 21211 net.cpp:157] Top shape: 1 64 573 698 (25597056)
I0119 04:17:58.023977 21211 net.cpp:165] Memory required for data: 212276448
I0119 04:17:58.023983 21211 layer_factory.hpp:77] Creating layer conv1_2
I0119 04:17:58.023998 21211 net.cpp:100] Creating Layer conv1_2
I0119 04:17:58.024003 21211 net.cpp:434] conv1_2 <- conv1_1
I0119 04:17:58.024009 21211 net.cpp:408] conv1_2 -> conv1_2
I0119 04:17:58.026664 21211 net.cpp:150] Setting up conv1_2
I0119 04:17:58.026681 21211 net.cpp:157] Top shape: 1 64 573 698 (25597056)
I0119 04:17:58.026686 21211 net.cpp:165] Memory required for data: 314664672
I0119 04:17:58.026697 21211 layer_factory.hpp:77] Creating layer relu1_2
I0119 04:17:58.026705 21211 net.cpp:100] Creating Layer relu1_2
I0119 04:17:58.026710 21211 net.cpp:434] relu1_2 <- conv1_2
I0119 04:17:58.026715 21211 net.cpp:395] relu1_2 -> conv1_2 (in-place)
I0119 04:17:58.027070 21211 net.cpp:150] Setting up relu1_2
I0119 04:17:58.027083 21211 net.cpp:157] Top shape: 1 64 573 698 (25597056)
I0119 04:17:58.027088 21211 net.cpp:165] Memory required for data: 417052896
I0119 04:17:58.027092 21211 layer_factory.hpp:77] Creating layer pool1
I0119 04:17:58.027104 21211 net.cpp:100] Creating Layer pool1
I0119 04:17:58.027108 21211 net.cpp:434] pool1 <- conv1_2
I0119 04:17:58.027115 21211 net.cpp:408] pool1 -> pool1
I0119 04:17:58.027160 21211 net.cpp:150] Setting up pool1
I0119 04:17:58.027168 21211 net.cpp:157] Top shape: 1 64 287 349 (6410432)
I0119 04:17:58.027173 21211 net.cpp:165] Memory required for data: 442694624
I0119 04:17:58.027176 21211 layer_factory.hpp:77] Creating layer conv2_1
I0119 04:17:58.027185 21211 net.cpp:100] Creating Layer conv2_1
I0119 04:17:58.027190 21211 net.cpp:434] conv2_1 <- pool1
I0119 04:17:58.027196 21211 net.cpp:408] conv2_1 -> conv2_1
I0119 04:17:58.029479 21211 net.cpp:150] Setting up conv2_1
I0119 04:17:58.029494 21211 net.cpp:157] Top shape: 1 128 287 349 (12820864)
I0119 04:17:58.029498 21211 net.cpp:165] Memory required for data: 493978080
I0119 04:17:58.029510 21211 layer_factory.hpp:77] Creating layer relu2_1
I0119 04:17:58.029518 21211 net.cpp:100] Creating Layer relu2_1
I0119 04:17:58.029522 21211 net.cpp:434] relu2_1 <- conv2_1
I0119 04:17:58.029530 21211 net.cpp:395] relu2_1 -> conv2_1 (in-place)
I0119 04:17:58.029716 21211 net.cpp:150] Setting up relu2_1
I0119 04:17:58.029729 21211 net.cpp:157] Top shape: 1 128 287 349 (12820864)
I0119 04:17:58.029733 21211 net.cpp:165] Memory required for data: 545261536
I0119 04:17:58.029738 21211 layer_factory.hpp:77] Creating layer conv2_2
I0119 04:17:58.029748 21211 net.cpp:100] Creating Layer conv2_2
I0119 04:17:58.029753 21211 net.cpp:434] conv2_2 <- conv2_1
I0119 04:17:58.029760 21211 net.cpp:408] conv2_2 -> conv2_2
I0119 04:17:58.032217 21211 net.cpp:150] Setting up conv2_2
I0119 04:17:58.032233 21211 net.cpp:157] Top shape: 1 128 287 349 (12820864)
I0119 04:17:58.032238 21211 net.cpp:165] Memory required for data: 596544992
I0119 04:17:58.032246 21211 layer_factory.hpp:77] Creating layer relu2_2
I0119 04:17:58.032254 21211 net.cpp:100] Creating Layer relu2_2
I0119 04:17:58.032258 21211 net.cpp:434] relu2_2 <- conv2_2
I0119 04:17:58.032265 21211 net.cpp:395] relu2_2 -> conv2_2 (in-place)
I0119 04:17:58.032618 21211 net.cpp:150] Setting up relu2_2
I0119 04:17:58.032631 21211 net.cpp:157] Top shape: 1 128 287 349 (12820864)
I0119 04:17:58.032636 21211 net.cpp:165] Memory required for data: 647828448
I0119 04:17:58.032649 21211 layer_factory.hpp:77] Creating layer pool2
I0119 04:17:58.032656 21211 net.cpp:100] Creating Layer pool2
I0119 04:17:58.032661 21211 net.cpp:434] pool2 <- conv2_2
I0119 04:17:58.032667 21211 net.cpp:408] pool2 -> pool2
I0119 04:17:58.032711 21211 net.cpp:150] Setting up pool2
I0119 04:17:58.032717 21211 net.cpp:157] Top shape: 1 128 144 175 (3225600)
I0119 04:17:58.032721 21211 net.cpp:165] Memory required for data: 660730848
I0119 04:17:58.032726 21211 layer_factory.hpp:77] Creating layer conv3_1
I0119 04:17:58.032735 21211 net.cpp:100] Creating Layer conv3_1
I0119 04:17:58.032739 21211 net.cpp:434] conv3_1 <- pool2
I0119 04:17:58.032745 21211 net.cpp:408] conv3_1 -> conv3_1
I0119 04:17:58.035846 21211 net.cpp:150] Setting up conv3_1
I0119 04:17:58.035863 21211 net.cpp:157] Top shape: 1 256 144 175 (6451200)
I0119 04:17:58.035867 21211 net.cpp:165] Memory required for data: 686535648
I0119 04:17:58.035878 21211 layer_factory.hpp:77] Creating layer relu3_1
I0119 04:17:58.035887 21211 net.cpp:100] Creating Layer relu3_1
I0119 04:17:58.035892 21211 net.cpp:434] relu3_1 <- conv3_1
I0119 04:17:58.035898 21211 net.cpp:395] relu3_1 -> conv3_1 (in-place)
I0119 04:17:58.036267 21211 net.cpp:150] Setting up relu3_1
I0119 04:17:58.036281 21211 net.cpp:157] Top shape: 1 256 144 175 (6451200)
I0119 04:17:58.036286 21211 net.cpp:165] Memory required for data: 712340448
I0119 04:17:58.036290 21211 layer_factory.hpp:77] Creating layer conv3_2
I0119 04:17:58.036303 21211 net.cpp:100] Creating Layer conv3_2
I0119 04:17:58.036308 21211 net.cpp:434] conv3_2 <- conv3_1
I0119 04:17:58.036315 21211 net.cpp:408] conv3_2 -> conv3_2
I0119 04:17:58.041529 21211 net.cpp:150] Setting up conv3_2
I0119 04:17:58.041545 21211 net.cpp:157] Top shape: 1 256 144 175 (6451200)
I0119 04:17:58.041550 21211 net.cpp:165] Memory required for data: 738145248
I0119 04:17:58.041558 21211 layer_factory.hpp:77] Creating layer relu3_2
I0119 04:17:58.041566 21211 net.cpp:100] Creating Layer relu3_2
I0119 04:17:58.041570 21211 net.cpp:434] relu3_2 <- conv3_2
I0119 04:17:58.041579 21211 net.cpp:395] relu3_2 -> conv3_2 (in-place)
I0119 04:17:58.041771 21211 net.cpp:150] Setting up relu3_2
I0119 04:17:58.041784 21211 net.cpp:157] Top shape: 1 256 144 175 (6451200)
I0119 04:17:58.041787 21211 net.cpp:165] Memory required for data: 763950048
I0119 04:17:58.041792 21211 layer_factory.hpp:77] Creating layer conv3_3
I0119 04:17:58.041805 21211 net.cpp:100] Creating Layer conv3_3
I0119 04:17:58.041810 21211 net.cpp:434] conv3_3 <- conv3_2
I0119 04:17:58.041821 21211 net.cpp:408] conv3_3 -> conv3_3
I0119 04:17:58.047021 21211 net.cpp:150] Setting up conv3_3
I0119 04:17:58.047039 21211 net.cpp:157] Top shape: 1 256 144 175 (6451200)
I0119 04:17:58.047042 21211 net.cpp:165] Memory required for data: 789754848
I0119 04:17:58.047050 21211 layer_factory.hpp:77] Creating layer relu3_3
I0119 04:17:58.047060 21211 net.cpp:100] Creating Layer relu3_3
I0119 04:17:58.047065 21211 net.cpp:434] relu3_3 <- conv3_3
I0119 04:17:58.047070 21211 net.cpp:395] relu3_3 -> conv3_3 (in-place)
I0119 04:17:58.047441 21211 net.cpp:150] Setting up relu3_3
I0119 04:17:58.047453 21211 net.cpp:157] Top shape: 1 256 144 175 (6451200)
I0119 04:17:58.047458 21211 net.cpp:165] Memory required for data: 815559648
I0119 04:17:58.047462 21211 layer_factory.hpp:77] Creating layer pool3
I0119 04:17:58.047472 21211 net.cpp:100] Creating Layer pool3
I0119 04:17:58.047477 21211 net.cpp:434] pool3 <- conv3_3
I0119 04:17:58.047483 21211 net.cpp:408] pool3 -> pool3
I0119 04:17:58.047530 21211 net.cpp:150] Setting up pool3
I0119 04:17:58.047538 21211 net.cpp:157] Top shape: 1 256 72 88 (1622016)
I0119 04:17:58.047541 21211 net.cpp:165] Memory required for data: 822047712
I0119 04:17:58.047545 21211 layer_factory.hpp:77] Creating layer pool3_pool3_0_split
I0119 04:17:58.047551 21211 net.cpp:100] Creating Layer pool3_pool3_0_split
I0119 04:17:58.047555 21211 net.cpp:434] pool3_pool3_0_split <- pool3
I0119 04:17:58.047561 21211 net.cpp:408] pool3_pool3_0_split -> pool3_pool3_0_split_0
I0119 04:17:58.047569 21211 net.cpp:408] pool3_pool3_0_split -> pool3_pool3_0_split_1
I0119 04:17:58.047610 21211 net.cpp:150] Setting up pool3_pool3_0_split
I0119 04:17:58.047617 21211 net.cpp:157] Top shape: 1 256 72 88 (1622016)
I0119 04:17:58.047622 21211 net.cpp:157] Top shape: 1 256 72 88 (1622016)
I0119 04:17:58.047626 21211 net.cpp:165] Memory required for data: 835023840
I0119 04:17:58.047631 21211 layer_factory.hpp:77] Creating layer conv4_1
I0119 04:17:58.047642 21211 net.cpp:100] Creating Layer conv4_1
I0119 04:17:58.047646 21211 net.cpp:434] conv4_1 <- pool3_pool3_0_split_0
I0119 04:17:58.047653 21211 net.cpp:408] conv4_1 -> conv4_1
I0119 04:17:58.057905 21211 net.cpp:150] Setting up conv4_1
I0119 04:17:58.057926 21211 net.cpp:157] Top shape: 1 512 72 88 (3244032)
I0119 04:17:58.057931 21211 net.cpp:165] Memory required for data: 847999968
I0119 04:17:58.057940 21211 layer_factory.hpp:77] Creating layer relu4_1
I0119 04:17:58.057947 21211 net.cpp:100] Creating Layer relu4_1
I0119 04:17:58.057952 21211 net.cpp:434] relu4_1 <- conv4_1
I0119 04:17:58.057958 21211 net.cpp:395] relu4_1 -> conv4_1 (in-place)
I0119 04:17:58.058336 21211 net.cpp:150] Setting up relu4_1
I0119 04:17:58.058351 21211 net.cpp:157] Top shape: 1 512 72 88 (3244032)
I0119 04:17:58.058354 21211 net.cpp:165] Memory required for data: 860976096
I0119 04:17:58.058359 21211 layer_factory.hpp:77] Creating layer conv4_2
I0119 04:17:58.058372 21211 net.cpp:100] Creating Layer conv4_2
I0119 04:17:58.058377 21211 net.cpp:434] conv4_2 <- conv4_1
I0119 04:17:58.058384 21211 net.cpp:408] conv4_2 -> conv4_2
I0119 04:17:58.075383 21211 net.cpp:150] Setting up conv4_2
I0119 04:17:58.075412 21211 net.cpp:157] Top shape: 1 512 72 88 (3244032)
I0119 04:17:58.075417 21211 net.cpp:165] Memory required for data: 873952224
I0119 04:17:58.075431 21211 layer_factory.hpp:77] Creating layer relu4_2
I0119 04:17:58.075443 21211 net.cpp:100] Creating Layer relu4_2
I0119 04:17:58.075449 21211 net.cpp:434] relu4_2 <- conv4_2
I0119 04:17:58.075458 21211 net.cpp:395] relu4_2 -> conv4_2 (in-place)
I0119 04:17:58.075645 21211 net.cpp:150] Setting up relu4_2
I0119 04:17:58.075655 21211 net.cpp:157] Top shape: 1 512 72 88 (3244032)
I0119 04:17:58.075659 21211 net.cpp:165] Memory required for data: 886928352
I0119 04:17:58.075664 21211 layer_factory.hpp:77] Creating layer conv4_3
I0119 04:17:58.075678 21211 net.cpp:100] Creating Layer conv4_3
I0119 04:17:58.075682 21211 net.cpp:434] conv4_3 <- conv4_2
I0119 04:17:58.075690 21211 net.cpp:408] conv4_3 -> conv4_3
I0119 04:17:58.092677 21211 net.cpp:150] Setting up conv4_3
I0119 04:17:58.092706 21211 net.cpp:157] Top shape: 1 512 72 88 (3244032)
I0119 04:17:58.092711 21211 net.cpp:165] Memory required for data: 899904480
I0119 04:17:58.092721 21211 layer_factory.hpp:77] Creating layer relu4_3
I0119 04:17:58.092732 21211 net.cpp:100] Creating Layer relu4_3
I0119 04:17:58.092737 21211 net.cpp:434] relu4_3 <- conv4_3
I0119 04:17:58.092746 21211 net.cpp:395] relu4_3 -> conv4_3 (in-place)
I0119 04:17:58.093135 21211 net.cpp:150] Setting up relu4_3
I0119 04:17:58.093148 21211 net.cpp:157] Top shape: 1 512 72 88 (3244032)
I0119 04:17:58.093153 21211 net.cpp:165] Memory required for data: 912880608
I0119 04:17:58.093158 21211 layer_factory.hpp:77] Creating layer pool4
I0119 04:17:58.093168 21211 net.cpp:100] Creating Layer pool4
I0119 04:17:58.093171 21211 net.cpp:434] pool4 <- conv4_3
I0119 04:17:58.093180 21211 net.cpp:408] pool4 -> pool4
I0119 04:17:58.093230 21211 net.cpp:150] Setting up pool4
I0119 04:17:58.093238 21211 net.cpp:157] Top shape: 1 512 36 44 (811008)
I0119 04:17:58.093242 21211 net.cpp:165] Memory required for data: 916124640
I0119 04:17:58.093246 21211 layer_factory.hpp:77] Creating layer pool4_pool4_0_split
I0119 04:17:58.093253 21211 net.cpp:100] Creating Layer pool4_pool4_0_split
I0119 04:17:58.093257 21211 net.cpp:434] pool4_pool4_0_split <- pool4
I0119 04:17:58.093263 21211 net.cpp:408] pool4_pool4_0_split -> pool4_pool4_0_split_0
I0119 04:17:58.093269 21211 net.cpp:408] pool4_pool4_0_split -> pool4_pool4_0_split_1
I0119 04:17:58.093309 21211 net.cpp:150] Setting up pool4_pool4_0_split
I0119 04:17:58.093324 21211 net.cpp:157] Top shape: 1 512 36 44 (811008)
I0119 04:17:58.093329 21211 net.cpp:157] Top shape: 1 512 36 44 (811008)
I0119 04:17:58.093333 21211 net.cpp:165] Memory required for data: 922612704
I0119 04:17:58.093338 21211 layer_factory.hpp:77] Creating layer conv5_1
I0119 04:17:58.093350 21211 net.cpp:100] Creating Layer conv5_1
I0119 04:17:58.093355 21211 net.cpp:434] conv5_1 <- pool4_pool4_0_split_0
I0119 04:17:58.093364 21211 net.cpp:408] conv5_1 -> conv5_1
I0119 04:17:58.110373 21211 net.cpp:150] Setting up conv5_1
I0119 04:17:58.110399 21211 net.cpp:157] Top shape: 1 512 36 44 (811008)
I0119 04:17:58.110404 21211 net.cpp:165] Memory required for data: 925856736
I0119 04:17:58.110412 21211 layer_factory.hpp:77] Creating layer relu5_1
I0119 04:17:58.110422 21211 net.cpp:100] Creating Layer relu5_1
I0119 04:17:58.110429 21211 net.cpp:434] relu5_1 <- conv5_1
I0119 04:17:58.110435 21211 net.cpp:395] relu5_1 -> conv5_1 (in-place)
I0119 04:17:58.110806 21211 net.cpp:150] Setting up relu5_1
I0119 04:17:58.110822 21211 net.cpp:157] Top shape: 1 512 36 44 (811008)
I0119 04:17:58.110826 21211 net.cpp:165] Memory required for data: 929100768
I0119 04:17:58.110831 21211 layer_factory.hpp:77] Creating layer conv5_2
I0119 04:17:58.110842 21211 net.cpp:100] Creating Layer conv5_2
I0119 04:17:58.110847 21211 net.cpp:434] conv5_2 <- conv5_1
I0119 04:17:58.110857 21211 net.cpp:408] conv5_2 -> conv5_2
I0119 04:17:58.128064 21211 net.cpp:150] Setting up conv5_2
I0119 04:17:58.128092 21211 net.cpp:157] Top shape: 1 512 36 44 (811008)
I0119 04:17:58.128096 21211 net.cpp:165] Memory required for data: 932344800
I0119 04:17:58.128106 21211 layer_factory.hpp:77] Creating layer relu5_2
I0119 04:17:58.128120 21211 net.cpp:100] Creating Layer relu5_2
I0119 04:17:58.128126 21211 net.cpp:434] relu5_2 <- conv5_2
I0119 04:17:58.128134 21211 net.cpp:395] relu5_2 -> conv5_2 (in-place)
I0119 04:17:58.128324 21211 net.cpp:150] Setting up relu5_2
I0119 04:17:58.128334 21211 net.cpp:157] Top shape: 1 512 36 44 (811008)
I0119 04:17:58.128337 21211 net.cpp:165] Memory required for data: 935588832
I0119 04:17:58.128342 21211 layer_factory.hpp:77] Creating layer conv5_3
I0119 04:17:58.128361 21211 net.cpp:100] Creating Layer conv5_3
I0119 04:17:58.128366 21211 net.cpp:434] conv5_3 <- conv5_2
I0119 04:17:58.128381 21211 net.cpp:408] conv5_3 -> conv5_3
I0119 04:17:58.145272 21211 net.cpp:150] Setting up conv5_3
I0119 04:17:58.145297 21211 net.cpp:157] Top shape: 1 512 36 44 (811008)
I0119 04:17:58.145301 21211 net.cpp:165] Memory required for data: 938832864
I0119 04:17:58.145309 21211 layer_factory.hpp:77] Creating layer relu5_3
I0119 04:17:58.145321 21211 net.cpp:100] Creating Layer relu5_3
I0119 04:17:58.145328 21211 net.cpp:434] relu5_3 <- conv5_3
I0119 04:17:58.145334 21211 net.cpp:395] relu5_3 -> conv5_3 (in-place)
I0119 04:17:58.145910 21211 net.cpp:150] Setting up relu5_3
I0119 04:17:58.145925 21211 net.cpp:157] Top shape: 1 512 36 44 (811008)
I0119 04:17:58.145928 21211 net.cpp:165] Memory required for data: 942076896
I0119 04:17:58.145933 21211 layer_factory.hpp:77] Creating layer pool5
I0119 04:17:58.145944 21211 net.cpp:100] Creating Layer pool5
I0119 04:17:58.145949 21211 net.cpp:434] pool5 <- conv5_3
I0119 04:17:58.145956 21211 net.cpp:408] pool5 -> pool5
I0119 04:17:58.146008 21211 net.cpp:150] Setting up pool5
I0119 04:17:58.146016 21211 net.cpp:157] Top shape: 1 512 18 22 (202752)
I0119 04:17:58.146019 21211 net.cpp:165] Memory required for data: 942887904
I0119 04:17:58.146024 21211 layer_factory.hpp:77] Creating layer fc6
I0119 04:17:58.146035 21211 net.cpp:100] Creating Layer fc6
I0119 04:17:58.146040 21211 net.cpp:434] fc6 <- pool5
I0119 04:17:58.146046 21211 net.cpp:408] fc6 -> fc6
I0119 04:17:58.845839 21211 net.cpp:150] Setting up fc6
I0119 04:17:58.845881 21211 net.cpp:157] Top shape: 1 4096 12 16 (786432)
I0119 04:17:58.845886 21211 net.cpp:165] Memory required for data: 946033632
I0119 04:17:58.845901 21211 layer_factory.hpp:77] Creating layer relu6
I0119 04:17:58.845923 21211 net.cpp:100] Creating Layer relu6
I0119 04:17:58.845930 21211 net.cpp:434] relu6 <- fc6
I0119 04:17:58.845938 21211 net.cpp:395] relu6 -> fc6 (in-place)
I0119 04:17:58.846318 21211 net.cpp:150] Setting up relu6
I0119 04:17:58.846333 21211 net.cpp:157] Top shape: 1 4096 12 16 (786432)
I0119 04:17:58.846338 21211 net.cpp:165] Memory required for data: 949179360
I0119 04:17:58.846343 21211 layer_factory.hpp:77] Creating layer drop6
I0119 04:17:58.846355 21211 net.cpp:100] Creating Layer drop6
I0119 04:17:58.846359 21211 net.cpp:434] drop6 <- fc6
I0119 04:17:58.846365 21211 net.cpp:395] drop6 -> fc6 (in-place)
I0119 04:17:58.846405 21211 net.cpp:150] Setting up drop6
I0119 04:17:58.846412 21211 net.cpp:157] Top shape: 1 4096 12 16 (786432)
I0119 04:17:58.846416 21211 net.cpp:165] Memory required for data: 952325088
I0119 04:17:58.846421 21211 layer_factory.hpp:77] Creating layer fc7
I0119 04:17:58.846433 21211 net.cpp:100] Creating Layer fc7
I0119 04:17:58.846437 21211 net.cpp:434] fc7 <- fc6
I0119 04:17:58.846446 21211 net.cpp:408] fc7 -> fc7
I0119 04:17:58.961894 21211 net.cpp:150] Setting up fc7
I0119 04:17:58.961933 21211 net.cpp:157] Top shape: 1 4096 12 16 (786432)
I0119 04:17:58.961940 21211 net.cpp:165] Memory required for data: 955470816
I0119 04:17:58.961951 21211 layer_factory.hpp:77] Creating layer relu7
I0119 04:17:58.961966 21211 net.cpp:100] Creating Layer relu7
I0119 04:17:58.961971 21211 net.cpp:434] relu7 <- fc7
I0119 04:17:58.961979 21211 net.cpp:395] relu7 -> fc7 (in-place)
I0119 04:17:58.962188 21211 net.cpp:150] Setting up relu7
I0119 04:17:58.962198 21211 net.cpp:157] Top shape: 1 4096 12 16 (786432)
I0119 04:17:58.962201 21211 net.cpp:165] Memory required for data: 958616544
I0119 04:17:58.962205 21211 layer_factory.hpp:77] Creating layer drop7
I0119 04:17:58.962215 21211 net.cpp:100] Creating Layer drop7
I0119 04:17:58.962219 21211 net.cpp:434] drop7 <- fc7
I0119 04:17:58.962225 21211 net.cpp:395] drop7 -> fc7 (in-place)
I0119 04:17:58.962261 21211 net.cpp:150] Setting up drop7
I0119 04:17:58.962268 21211 net.cpp:157] Top shape: 1 4096 12 16 (786432)
I0119 04:17:58.962272 21211 net.cpp:165] Memory required for data: 961762272
I0119 04:17:58.962276 21211 layer_factory.hpp:77] Creating layer score_fr
I0119 04:17:58.962288 21211 net.cpp:100] Creating Layer score_fr
I0119 04:17:58.962292 21211 net.cpp:434] score_fr <- fc7
I0119 04:17:58.962299 21211 net.cpp:408] score_fr -> score_fr
I0119 04:17:58.963687 21211 net.cpp:150] Setting up score_fr
I0119 04:17:58.963702 21211 net.cpp:157] Top shape: 1 6 12 16 (1152)
I0119 04:17:58.963707 21211 net.cpp:165] Memory required for data: 961766880
I0119 04:17:58.963714 21211 layer_factory.hpp:77] Creating layer upscore2
I0119 04:17:58.963729 21211 net.cpp:100] Creating Layer upscore2
I0119 04:17:58.963734 21211 net.cpp:434] upscore2 <- score_fr
I0119 04:17:58.963743 21211 net.cpp:408] upscore2 -> upscore2
I0119 04:17:58.963974 21211 net.cpp:150] Setting up upscore2
I0119 04:17:58.963982 21211 net.cpp:157] Top shape: 1 6 26 34 (5304)
I0119 04:17:58.963986 21211 net.cpp:165] Memory required for data: 961788096
I0119 04:17:58.963999 21211 layer_factory.hpp:77] Creating layer upscore2_upscore2_0_split
I0119 04:17:58.964009 21211 net.cpp:100] Creating Layer upscore2_upscore2_0_split
I0119 04:17:58.964012 21211 net.cpp:434] upscore2_upscore2_0_split <- upscore2
I0119 04:17:58.964020 21211 net.cpp:408] upscore2_upscore2_0_split -> upscore2_upscore2_0_split_0
I0119 04:17:58.964027 21211 net.cpp:408] upscore2_upscore2_0_split -> upscore2_upscore2_0_split_1
I0119 04:17:58.964066 21211 net.cpp:150] Setting up upscore2_upscore2_0_split
I0119 04:17:58.964071 21211 net.cpp:157] Top shape: 1 6 26 34 (5304)
I0119 04:17:58.964077 21211 net.cpp:157] Top shape: 1 6 26 34 (5304)
I0119 04:17:58.964082 21211 net.cpp:165] Memory required for data: 961830528
I0119 04:17:58.964085 21211 layer_factory.hpp:77] Creating layer scale_pool4
I0119 04:17:58.964099 21211 net.cpp:100] Creating Layer scale_pool4
I0119 04:17:58.964103 21211 net.cpp:434] scale_pool4 <- pool4_pool4_0_split_1
I0119 04:17:58.964120 21211 net.cpp:408] scale_pool4 -> scale_pool4
I0119 04:17:58.964233 21211 net.cpp:150] Setting up scale_pool4
I0119 04:17:58.964241 21211 net.cpp:157] Top shape: 1 512 36 44 (811008)
I0119 04:17:58.964246 21211 net.cpp:165] Memory required for data: 965074560
I0119 04:17:58.964251 21211 layer_factory.hpp:77] Creating layer score_pool4
I0119 04:17:58.964262 21211 net.cpp:100] Creating Layer score_pool4
I0119 04:17:58.964267 21211 net.cpp:434] score_pool4 <- scale_pool4
I0119 04:17:58.964272 21211 net.cpp:408] score_pool4 -> score_pool4
I0119 04:17:58.965562 21211 net.cpp:150] Setting up score_pool4
I0119 04:17:58.965576 21211 net.cpp:157] Top shape: 1 6 36 44 (9504)
I0119 04:17:58.965581 21211 net.cpp:165] Memory required for data: 965112576
I0119 04:17:58.965590 21211 layer_factory.hpp:77] Creating layer score_pool4c
I0119 04:17:58.965601 21211 net.cpp:100] Creating Layer score_pool4c
I0119 04:17:58.965606 21211 net.cpp:434] score_pool4c <- score_pool4
I0119 04:17:58.965612 21211 net.cpp:434] score_pool4c <- upscore2_upscore2_0_split_0
I0119 04:17:58.965618 21211 net.cpp:408] score_pool4c -> score_pool4c
I0119 04:17:58.965664 21211 net.cpp:150] Setting up score_pool4c
I0119 04:17:58.965674 21211 net.cpp:157] Top shape: 1 6 26 34 (5304)
I0119 04:17:58.965678 21211 net.cpp:165] Memory required for data: 965133792
I0119 04:17:58.965682 21211 layer_factory.hpp:77] Creating layer fuse_pool4
I0119 04:17:58.965692 21211 net.cpp:100] Creating Layer fuse_pool4
I0119 04:17:58.965697 21211 net.cpp:434] fuse_pool4 <- upscore2_upscore2_0_split_1
I0119 04:17:58.965701 21211 net.cpp:434] fuse_pool4 <- score_pool4c
I0119 04:17:58.965710 21211 net.cpp:408] fuse_pool4 -> fuse_pool4
I0119 04:17:58.965741 21211 net.cpp:150] Setting up fuse_pool4
I0119 04:17:58.965747 21211 net.cpp:157] Top shape: 1 6 26 34 (5304)
I0119 04:17:58.965751 21211 net.cpp:165] Memory required for data: 965155008
I0119 04:17:58.965755 21211 layer_factory.hpp:77] Creating layer upscore_pool4
I0119 04:17:58.965768 21211 net.cpp:100] Creating Layer upscore_pool4
I0119 04:17:58.965773 21211 net.cpp:434] upscore_pool4 <- fuse_pool4
I0119 04:17:58.965780 21211 net.cpp:408] upscore_pool4 -> upscore_pool4
I0119 04:17:58.965986 21211 net.cpp:150] Setting up upscore_pool4
I0119 04:17:58.965993 21211 net.cpp:157] Top shape: 1 6 54 70 (22680)
I0119 04:17:58.965996 21211 net.cpp:165] Memory required for data: 965245728
I0119 04:17:58.966002 21211 layer_factory.hpp:77] Creating layer upscore_pool4_upscore_pool4_0_split
I0119 04:17:58.966008 21211 net.cpp:100] Creating Layer upscore_pool4_upscore_pool4_0_split
I0119 04:17:58.966013 21211 net.cpp:434] upscore_pool4_upscore_pool4_0_split <- upscore_pool4
I0119 04:17:58.966018 21211 net.cpp:408] upscore_pool4_upscore_pool4_0_split -> upscore_pool4_upscore_pool4_0_split_0
I0119 04:17:58.966025 21211 net.cpp:408] upscore_pool4_upscore_pool4_0_split -> upscore_pool4_upscore_pool4_0_split_1
I0119 04:17:58.966063 21211 net.cpp:150] Setting up upscore_pool4_upscore_pool4_0_split
I0119 04:17:58.966070 21211 net.cpp:157] Top shape: 1 6 54 70 (22680)
I0119 04:17:58.966075 21211 net.cpp:157] Top shape: 1 6 54 70 (22680)
I0119 04:17:58.966079 21211 net.cpp:165] Memory required for data: 965427168
I0119 04:17:58.966083 21211 layer_factory.hpp:77] Creating layer scale_pool3
I0119 04:17:58.966091 21211 net.cpp:100] Creating Layer scale_pool3
I0119 04:17:58.966095 21211 net.cpp:434] scale_pool3 <- pool3_pool3_0_split_1
I0119 04:17:58.966101 21211 net.cpp:408] scale_pool3 -> scale_pool3
I0119 04:17:58.966205 21211 net.cpp:150] Setting up scale_pool3
I0119 04:17:58.966212 21211 net.cpp:157] Top shape: 1 256 72 88 (1622016)
I0119 04:17:58.966215 21211 net.cpp:165] Memory required for data: 971915232
I0119 04:17:58.966222 21211 layer_factory.hpp:77] Creating layer score_pool3
I0119 04:17:58.966233 21211 net.cpp:100] Creating Layer score_pool3
I0119 04:17:58.966236 21211 net.cpp:434] score_pool3 <- scale_pool3
I0119 04:17:58.966244 21211 net.cpp:408] score_pool3 -> score_pool3
I0119 04:17:58.968736 21211 net.cpp:150] Setting up score_pool3
I0119 04:17:58.968756 21211 net.cpp:157] Top shape: 1 6 72 88 (38016)
I0119 04:17:58.968761 21211 net.cpp:165] Memory required for data: 972067296
I0119 04:17:58.968770 21211 layer_factory.hpp:77] Creating layer score_pool3c
I0119 04:17:58.968777 21211 net.cpp:100] Creating Layer score_pool3c
I0119 04:17:58.968782 21211 net.cpp:434] score_pool3c <- score_pool3
I0119 04:17:58.968787 21211 net.cpp:434] score_pool3c <- upscore_pool4_upscore_pool4_0_split_0
I0119 04:17:58.968796 21211 net.cpp:408] score_pool3c -> score_pool3c
I0119 04:17:58.968828 21211 net.cpp:150] Setting up score_pool3c
I0119 04:17:58.968835 21211 net.cpp:157] Top shape: 1 6 54 70 (22680)
I0119 04:17:58.968838 21211 net.cpp:165] Memory required for data: 972158016
I0119 04:17:58.968842 21211 layer_factory.hpp:77] Creating layer fuse_pool3
I0119 04:17:58.968852 21211 net.cpp:100] Creating Layer fuse_pool3
I0119 04:17:58.968855 21211 net.cpp:434] fuse_pool3 <- upscore_pool4_upscore_pool4_0_split_1
I0119 04:17:58.968860 21211 net.cpp:434] fuse_pool3 <- score_pool3c
I0119 04:17:58.968866 21211 net.cpp:408] fuse_pool3 -> fuse_pool3
I0119 04:17:58.968894 21211 net.cpp:150] Setting up fuse_pool3
I0119 04:17:58.968900 21211 net.cpp:157] Top shape: 1 6 54 70 (22680)
I0119 04:17:58.968904 21211 net.cpp:165] Memory required for data: 972248736
I0119 04:17:58.968909 21211 layer_factory.hpp:77] Creating layer upscore8
I0119 04:17:58.968917 21211 net.cpp:100] Creating Layer upscore8
I0119 04:17:58.968921 21211 net.cpp:434] upscore8 <- fuse_pool3
I0119 04:17:58.968930 21211 net.cpp:408] upscore8 -> upscore8
I0119 04:17:58.969187 21211 net.cpp:150] Setting up upscore8
I0119 04:17:58.969194 21211 net.cpp:157] Top shape: 1 6 440 568 (1499520)
I0119 04:17:58.969198 21211 net.cpp:165] Memory required for data: 978246816
I0119 04:17:58.969203 21211 layer_factory.hpp:77] Creating layer score
I0119 04:17:58.969210 21211 net.cpp:100] Creating Layer score
I0119 04:17:58.969214 21211 net.cpp:434] score <- upscore8
I0119 04:17:58.969219 21211 net.cpp:434] score <- data_data_0_split_1
I0119 04:17:58.969225 21211 net.cpp:408] score -> score
I0119 04:17:58.969254 21211 net.cpp:150] Setting up score
I0119 04:17:58.969259 21211 net.cpp:157] Top shape: 1 6 375 500 (1125000)
I0119 04:17:58.969264 21211 net.cpp:165] Memory required for data: 982746816
I0119 04:17:58.969267 21211 layer_factory.hpp:77] Creating layer loss
I0119 04:17:58.969277 21211 net.cpp:100] Creating Layer loss
I0119 04:17:58.969281 21211 net.cpp:434] loss <- score
I0119 04:17:58.969286 21211 net.cpp:434] loss <- label
I0119 04:17:58.969293 21211 net.cpp:408] loss -> loss
I0119 04:17:58.969305 21211 layer_factory.hpp:77] Creating layer loss
…
I0119 04:17:58.972326 21211 net.cpp:283] Network initialization done.
I0119 04:17:58.973438 21211 solver.cpp:181] Creating test net (#0) specified by test_net file: val.prototxt
I0119 04:17:58.973809 21211 net.cpp:58] Initializing net from parameters: 
state {
  phase: TEST
}
layer {
  name: "data"
  type: "Python"
  top: "data"
  top: "label"
  python_param {
    module: "voc_layers"
    layer: "PartialVOCSegDataLayer"
    param_str: "{\'voc_dir\': \'../data/pascal-obfuscated/VOC2011\', \'seed\': 1337, \'split\': \'seg11valid5\', \'mean\': (104.00699, 116.66877, 122.67892)}"
  }
}
layer {
  name: "conv1_1"
  type: "Convolution"
  bottom: "data"
  top: "conv1_1"
  param {
    lr_mult: 1
    decay_mult: 1
  }
  param {
    lr_mult: 2
    decay_mult: 0
  }
  convolution_param {
    num_output: 64
    pad: 100
    kernel_size: 3
    stride: 1
    weight_filler {
      type: "xavier"
    }
  }
}
layer {
  name: "relu1_1"
  type: "ReLU"
  bottom: "conv1_1"
  top: "conv1_1"
}
layer {
  name: "conv1_2"
  type: "Convolution"
  bottom: "conv1_1"
  top: "conv1_2"
  param {
    lr_mult: 1
    decay_mult: 1
  }
  param {
    lr_mult: 2
    decay_mult: 0
  }
  convolution_param {
    num_output: 64
    pad: 1
    kernel_size: 3
    stride: 1
    weight_filler {
      type: "xavier"
    }
  }
}
layer {
  name: "relu1_2"
  type: "ReLU"
  bottom: "conv1_2"
  top: "conv1_2"
}
layer {
  name: "pool1"
  type: "Pooling"
  bottom: "conv1_2"
  top: "pool1"
  pooling_param {
    pool: MAX
    kernel_size: 2
    stride: 2
  }
}
layer {
  name: "conv2_1"
  type: "Convolution"
  bottom: "pool1"
  top: "conv2_1"
  param {
    lr_mult: 1
    decay_mult: 1
  }
  param {
    lr_mult: 2
    decay_mult: 0
  }
  convolution_param {
    num_output: 128
    pad: 1
    kernel_size: 3
    stride: 1
    weight_filler {
      type: "xavier"
    }
  }
}
layer {
  name: "relu2_1"
  type: "ReLU"
  bottom: "conv2_1"
  top: "conv2_1"
}
layer {
  name: "conv2_2"
  type: "Convolution"
  bottom: "conv2_1"
  top: "conv2_2"
  param {
    lr_mult: 1
    decay_mult: 1
  }
  param {
    lr_mult: 2
    decay_mult: 0
  }
  convolution_param {
    num_output: 128
    pad: 1
    kernel_size: 3
    stride: 1
    weight_filler {
      type: "xavier"
    }
  }
}
layer {
  name: "relu2_2"
  type: "ReLU"
  bottom: "conv2_2"
  top: "conv2_2"
}
layer {
  name: "pool2"
  type: "Pooling"
  bottom: "conv2_2"
  top: "pool2"
  pooling_param {
    pool: MAX
    kernel_size: 2
    stride: 2
  }
}
layer {
  name: "conv3_1"
  type: "Convolution"
  bottom: "pool2"
  top: "conv3_1"
  param {
    lr_mult: 1
    decay_mult: 1
  }
  param {
    lr_mult: 2
    decay_mult: 0
  }
  convolution_param {
    num_output: 256
    pad: 1
    kernel_size: 3
    stride: 1
    weight_filler {
      type: "xavier"
    }
  }
}
layer {
  name: "relu3_1"
  type: "ReLU"
  bottom: "conv3_1"
  top: "conv3_1"
}
layer {
  name: "conv3_2"
  type: "Convolution"
  bottom: "conv3_1"
  top: "conv3_2"
  param {
    lr_mult: 1
    decay_mult: 1
  }
  param {
    lr_mult: 2
    decay_mult: 0
  }
  convolution_param {
    num_output: 256
    pad: 1
    kernel_size: 3
    stride: 1
    weight_filler {
      type: "xavier"
    }
  }
}
layer {
  name: "relu3_2"
  type: "ReLU"
  bottom: "conv3_2"
  top: "conv3_2"
}
layer {
  name: "conv3_3"
  type: "Convolution"
  bottom: "conv3_2"
  top: "conv3_3"
  param {
    lr_mult: 1
    decay_mult: 1
  }
  param {
    lr_mult: 2
    decay_mult: 0
  }
  convolution_param {
    num_output: 256
    pad: 1
    kernel_size: 3
    stride: 1
    weight_filler {
      type: "xavier"
    }
  }
}
layer {
  name: "relu3_3"
  type: "ReLU"
  bottom: "conv3_3"
  top: "conv3_3"
}
layer {
  name: "pool3"
  type: "Pooling"
  bottom: "conv3_3"
  top: "pool3"
  pooling_param {
    pool: MAX
    kernel_size: 2
    stride: 2
  }
}
layer {
  name: "conv4_1"
  type: "Convolution"
  bottom: "pool3"
  top: "conv4_1"
  param {
    lr_mult: 1
    decay_mult: 1
  }
  param {
    lr_mult: 2
    decay_mult: 0
  }
  convolution_param {
    num_output: 512
    pad: 1
    kernel_size: 3
    stride: 1
    weight_filler {
      type: "xavier"
    }
  }
}
layer {
  name: "relu4_1"
  type: "ReLU"
  bottom: "conv4_1"
  top: "conv4_1"
}
layer {
  name: "conv4_2"
  type: "Convolution"
  bottom: "conv4_1"
  top: "conv4_2"
  param {
    lr_mult: 1
    decay_mult: 1
  }
  param {
    lr_mult: 2
    decay_mult: 0
  }
  convolution_param {
    num_output: 512
    pad: 1
    kernel_size: 3
    stride: 1
    weight_filler {
      type: "xavier"
    }
  }
}
layer {
  name: "relu4_2"
  type: "ReLU"
  bottom: "conv4_2"
  top: "conv4_2"
}
layer {
  name: "conv4_3"
  type: "Convolution"
  bottom: "conv4_2"
  top: "conv4_3"
  param {
    lr_mult: 1
    decay_mult: 1
  }
  param {
    lr_mult: 2
    decay_mult: 0
  }
  convolution_param {
    num_output: 512
    pad: 1
    kernel_size: 3
    stride: 1
    weight_filler {
      type: "xavier"
    }
  }
}
layer {
  name: "relu4_3"
  type: "ReLU"
  bottom: "conv4_3"
  top: "conv4_3"
}
layer {
  name: "pool4"
  type: "Pooling"
  bottom: "conv4_3"
  top: "pool4"
  pooling_param {
    pool: MAX
    kernel_size: 2
    stride: 2
  }
}
layer {
  name: "conv5_1"
  type: "Convolution"
  bottom: "pool4"
  top: "conv5_1"
  param {
    lr_mult: 1
    decay_mult: 1
  }
  param {
    lr_mult: 2
    decay_mult: 0
  }
  convolution_param {
    num_output: 512
    pad: 1
    kernel_size: 3
    stride: 1
    weight_filler {
      type: "xavier"
    }
  }
}
layer {
  name: "relu5_1"
  type: "ReLU"
  bottom: "conv5_1"
  top: "conv5_1"
}
layer {
  name: "conv5_2"
  type: "Convolution"
  bottom: "conv5_1"
  top: "conv5_2"
  param {
    lr_mult: 1
    decay_mult: 1
  }
  param {
    lr_mult: 2
    decay_mult: 0
  }
  convolution_param {
    num_output: 512
    pad: 1
    kernel_size: 3
    stride: 1
    weight_filler {
      type: "xavier"
    }
  }
}
layer {
  name: "relu5_2"
  type: "ReLU"
  bottom: "conv5_2"
  top: "conv5_2"
}
layer {
  name: "conv5_3"
  type: "Convolution"
  bottom: "conv5_2"
  top: "conv5_3"
  param {
    lr_mult: 1
    decay_mult: 1
  }
  param {
    lr_mult: 2
    decay_mult: 0
  }
  convolution_param {
    num_output: 512
    pad: 1
    kernel_size: 3
    stride: 1
    weight_filler {
      type: "xavier"
    }
  }
}
layer {
  name: "relu5_3"
  type: "ReLU"
  bottom: "conv5_3"
  top: "conv5_3"
}
layer {
  name: "pool5"
  type: "Pooling"
  bottom: "conv5_3"
  top: "pool5"
  pooling_param {
    pool: MAX
    kernel_size: 2
    stride: 2
  }
}
layer {
  name: "fc6"
  type: "Convolution"
  bottom: "pool5"
  top: "fc6"
  param {
    lr_mult: 1
    decay_mult: 1
  }
  param {
    lr_mult: 2
    decay_mult: 0
  }
  convolution_param {
    num_output: 4096
    pad: 0
    kernel_size: 7
    stride: 1
    weight_filler {
      type: "xavier"
    }
  }
}
layer {
  name: "relu6"
  type: "ReLU"
  bottom: "fc6"
  top: "fc6"
}
layer {
  name: "drop6"
  type: "Dropout"
  bottom: "fc6"
  top: "fc6"
  dropout_param {
    dropout_ratio: 0.5
  }
}
layer {
  name: "fc7"
  type: "Convolution"
  bottom: "fc6"
  top: "fc7"
  param {
    lr_mult: 1
    decay_mult: 1
  }
  param {
    lr_mult: 2
    decay_mult: 0
  }
  convolution_param {
    num_output: 4096
    pad: 0
    kernel_size: 1
    stride: 1
    weight_filler {
      type: "xavier"
    }
  }
}
layer {
  name: "relu7"
  type: "ReLU"
  bottom: "fc7"
  top: "fc7"
}
layer {
  name: "drop7"
  type: "Dropout"
  bottom: "fc7"
  top: "fc7"
  dropout_param {
    dropout_ratio: 0.5
  }
}
layer {
  name: "score_fr"
  type: "Convolution"
  bottom: "fc7"
  top: "score_fr"
  param {
    lr_mult: 1
    decay_mult: 1
  }
  param {
    lr_mult: 2
    decay_mult: 0
  }
  convolution_param {
    num_output: 6
    pad: 0
    kernel_size: 1
    weight_filler {
      type: "xavier"
    }
  }
}
layer {
  name: "upscore2"
  type: "Deconvolution"
  bottom: "score_fr"
  top: "upscore2"
  param {
    lr_mult: 0
  }
  convolution_param {
    num_output: 6
    bias_term: false
    kernel_size: 4
    stride: 2
    weight_filler {
      type: "xavier"
    }
  }
}
layer {
  name: "scale_pool4"
  type: "Scale"
  bottom: "pool4"
  top: "scale_pool4"
  param {
    lr_mult: 0
  }
  scale_param {
    filler {
      type: "constant"
      value: 0.01
    }
  }
}
layer {
  name: "score_pool4"
  type: "Convolution"
  bottom: "scale_pool4"
  top: "score_pool4"
  param {
    lr_mult: 1
    decay_mult: 1
  }
  param {
    lr_mult: 2
    decay_mult: 0
  }
  convolution_param {
    num_output: 6
    pad: 0
    kernel_size: 1
    weight_filler {
      type: "xavier"
    }
  }
}
layer {
  name: "score_pool4c"
  type: "Crop"
  bottom: "score_pool4"
  bottom: "upscore2"
  top: "score_pool4c"
  crop_param {
    axis: 2
    offset: 5
  }
}
layer {
  name: "fuse_pool4"
  type: "Eltwise"
  bottom: "upscore2"
  bottom: "score_pool4c"
  top: "fuse_pool4"
  eltwise_param {
    operation: SUM
  }
}
layer {
  name: "upscore_pool4"
  type: "Deconvolution"
  bottom: "fuse_pool4"
  top: "upscore_pool4"
  param {
    lr_mult: 0
  }
  convolution_param {
    num_output: 6
    bias_term: false
    kernel_size: 4
    stride: 2
    weight_filler {
      type: "xavier"
    }
  }
}
layer {
  name: "scale_pool3"
  type: "Scale"
  bottom: "pool3"
  top: "scale_pool3"
  param {
    lr_mult: 0
  }
  scale_param {
    filler {
      type: "constant"
      value: 0.0001
    }
  }
}
layer {
  name: "score_pool3"
  type: "Convolution"
  bottom: "scale_pool3"
  top: "score_pool3"
  param {
    lr_mult: 1
    decay_mult: 1
  }
  param {
    lr_mult: 2
    decay_mult: 0
  }
  convolution_param {
    num_output: 6
    pad: 0
    kernel_size: 1
    weight_filler {
      type: "xavier"
    }
  }
}
layer {
  name: "score_pool3c"
  type: "Crop"
  bottom: "score_pool3"
  bottom: "upscore_pool4"
  top: "score_pool3c"
  crop_param {
    axis: 2
    offset: 9
  }
}
layer {
  name: "fuse_pool3"
  type: "Eltwise"
  bottom: "upscore_pool4"
  bottom: "score_pool3c"
  top: "fuse_pool3"
  eltwise_param {
    operation: SUM
  }
}
layer {
  name: "upscore8"
  type: "Deconvolution"
  bottom: "fuse_pool3"
  top: "upscore8"
  param {
    lr_mult: 0
  }
  convolution_param {
    num_output: 6
    bias_term: false
    kernel_size: 16
    stride: 8
    weight_filler {
      type: "xavier"
    }
  }
}
layer {
  name: "score"
  type: "Crop"
  bottom: "upscore8"
  bottom: "data"
  top: "score"
  crop_param {
    axis: 2
    offset: 31
  }
}
layer {
  name: "loss"
  type: "SoftmaxWithLoss"
  bottom: "score"
  bottom: "label"
  top: "loss"
  loss_param {
    ignore_label: 255
    normalize: false
  }
}
I0119 04:17:58.974032 21211 layer_factory.hpp:77] Creating layer data
I0119 04:17:58.974107 21211 net.cpp:100] Creating Layer data
I0119 04:17:58.974114 21211 net.cpp:408] data -> data
I0119 04:17:58.974123 21211 net.cpp:408] data -> label
I0119 04:17:58.991112 21211 net.cpp:150] Setting up data
I0119 04:17:58.991134 21211 net.cpp:157] Top shape: 1 3 335 500 (502500)
I0119 04:17:58.991142 21211 net.cpp:157] Top shape: 1 1 335 500 (167500)
I0119 04:17:58.991145 21211 net.cpp:165] Memory required for data: 2680000
I0119 04:17:58.991150 21211 layer_factory.hpp:77] Creating layer data_data_0_split
I0119 04:17:58.991160 21211 net.cpp:100] Creating Layer data_data_0_split
I0119 04:17:58.991164 21211 net.cpp:434] data_data_0_split <- data
I0119 04:17:58.991171 21211 net.cpp:408] data_data_0_split -> data_data_0_split_0
I0119 04:17:58.991180 21211 net.cpp:408] data_data_0_split -> data_data_0_split_1
I0119 04:17:58.991222 21211 net.cpp:150] Setting up data_data_0_split
I0119 04:17:58.991230 21211 net.cpp:157] Top shape: 1 3 335 500 (502500)
I0119 04:17:58.991235 21211 net.cpp:157] Top shape: 1 3 335 500 (502500)
I0119 04:17:58.991238 21211 net.cpp:165] Memory required for data: 6700000
I0119 04:17:58.991242 21211 layer_factory.hpp:77] Creating layer conv1_1
I0119 04:17:58.991252 21211 net.cpp:100] Creating Layer conv1_1
I0119 04:17:58.991257 21211 net.cpp:434] conv1_1 <- data_data_0_split_0
I0119 04:17:58.991263 21211 net.cpp:408] conv1_1 -> conv1_1
I0119 04:17:58.993402 21211 net.cpp:150] Setting up conv1_1
I0119 04:17:58.993418 21211 net.cpp:157] Top shape: 1 64 533 698 (23810176)
I0119 04:17:58.993423 21211 net.cpp:165] Memory required for data: 101940704
I0119 04:17:58.993435 21211 layer_factory.hpp:77] Creating layer relu1_1
I0119 04:17:58.993443 21211 net.cpp:100] Creating Layer relu1_1
I0119 04:17:58.993448 21211 net.cpp:434] relu1_1 <- conv1_1
I0119 04:17:58.993454 21211 net.cpp:395] relu1_1 -> conv1_1 (in-place)
I0119 04:17:58.993651 21211 net.cpp:150] Setting up relu1_1
I0119 04:17:58.993664 21211 net.cpp:157] Top shape: 1 64 533 698 (23810176)
I0119 04:17:58.993669 21211 net.cpp:165] Memory required for data: 197181408
I0119 04:17:58.993674 21211 layer_factory.hpp:77] Creating layer conv1_2
I0119 04:17:58.993685 21211 net.cpp:100] Creating Layer conv1_2
I0119 04:17:58.993690 21211 net.cpp:434] conv1_2 <- conv1_1
I0119 04:17:58.993695 21211 net.cpp:408] conv1_2 -> conv1_2
I0119 04:17:58.995954 21211 net.cpp:150] Setting up conv1_2
I0119 04:17:58.995970 21211 net.cpp:157] Top shape: 1 64 533 698 (23810176)
I0119 04:17:58.995975 21211 net.cpp:165] Memory required for data: 292422112
I0119 04:17:58.995986 21211 layer_factory.hpp:77] Creating layer relu1_2
I0119 04:17:58.995993 21211 net.cpp:100] Creating Layer relu1_2
I0119 04:17:58.995998 21211 net.cpp:434] relu1_2 <- conv1_2
I0119 04:17:58.996004 21211 net.cpp:395] relu1_2 -> conv1_2 (in-place)
I0119 04:17:58.996382 21211 net.cpp:150] Setting up relu1_2
I0119 04:17:58.996397 21211 net.cpp:157] Top shape: 1 64 533 698 (23810176)
I0119 04:17:58.996400 21211 net.cpp:165] Memory required for data: 387662816
I0119 04:17:58.996405 21211 layer_factory.hpp:77] Creating layer pool1
I0119 04:17:58.996413 21211 net.cpp:100] Creating Layer pool1
I0119 04:17:58.996418 21211 net.cpp:434] pool1 <- conv1_2
I0119 04:17:58.996424 21211 net.cpp:408] pool1 -> pool1
I0119 04:17:58.996474 21211 net.cpp:150] Setting up pool1
I0119 04:17:58.996482 21211 net.cpp:157] Top shape: 1 64 267 349 (5963712)
I0119 04:17:58.996486 21211 net.cpp:165] Memory required for data: 411517664
I0119 04:17:58.996490 21211 layer_factory.hpp:77] Creating layer conv2_1
I0119 04:17:58.996500 21211 net.cpp:100] Creating Layer conv2_1
I0119 04:17:58.996503 21211 net.cpp:434] conv2_1 <- pool1
I0119 04:17:58.996510 21211 net.cpp:408] conv2_1 -> conv2_1
I0119 04:17:58.998719 21211 net.cpp:150] Setting up conv2_1
I0119 04:17:58.998736 21211 net.cpp:157] Top shape: 1 128 267 349 (11927424)
I0119 04:17:58.998741 21211 net.cpp:165] Memory required for data: 459227360
I0119 04:17:58.998751 21211 layer_factory.hpp:77] Creating layer relu2_1
I0119 04:17:58.998760 21211 net.cpp:100] Creating Layer relu2_1
I0119 04:17:58.998764 21211 net.cpp:434] relu2_1 <- conv2_1
I0119 04:17:58.998770 21211 net.cpp:395] relu2_1 -> conv2_1 (in-place)
I0119 04:17:58.999166 21211 net.cpp:150] Setting up relu2_1
I0119 04:17:58.999179 21211 net.cpp:157] Top shape: 1 128 267 349 (11927424)
I0119 04:17:58.999184 21211 net.cpp:165] Memory required for data: 506937056
I0119 04:17:58.999189 21211 layer_factory.hpp:77] Creating layer conv2_2
I0119 04:17:58.999199 21211 net.cpp:100] Creating Layer conv2_2
I0119 04:17:58.999204 21211 net.cpp:434] conv2_2 <- conv2_1
I0119 04:17:58.999212 21211 net.cpp:408] conv2_2 -> conv2_2
I0119 04:17:59.001762 21211 net.cpp:150] Setting up conv2_2
I0119 04:17:59.001780 21211 net.cpp:157] Top shape: 1 128 267 349 (11927424)
I0119 04:17:59.001785 21211 net.cpp:165] Memory required for data: 554646752
I0119 04:17:59.001793 21211 layer_factory.hpp:77] Creating layer relu2_2
I0119 04:17:59.001801 21211 net.cpp:100] Creating Layer relu2_2
I0119 04:17:59.001806 21211 net.cpp:434] relu2_2 <- conv2_2
I0119 04:17:59.001811 21211 net.cpp:395] relu2_2 -> conv2_2 (in-place)
I0119 04:17:59.002001 21211 net.cpp:150] Setting up relu2_2
I0119 04:17:59.002010 21211 net.cpp:157] Top shape: 1 128 267 349 (11927424)
I0119 04:17:59.002015 21211 net.cpp:165] Memory required for data: 602356448
I0119 04:17:59.002019 21211 layer_factory.hpp:77] Creating layer pool2
I0119 04:17:59.002027 21211 net.cpp:100] Creating Layer pool2
I0119 04:17:59.002032 21211 net.cpp:434] pool2 <- conv2_2
I0119 04:17:59.002038 21211 net.cpp:408] pool2 -> pool2
I0119 04:17:59.002089 21211 net.cpp:150] Setting up pool2
I0119 04:17:59.002095 21211 net.cpp:157] Top shape: 1 128 134 175 (3001600)
I0119 04:17:59.002099 21211 net.cpp:165] Memory required for data: 614362848
I0119 04:17:59.002104 21211 layer_factory.hpp:77] Creating layer conv3_1
I0119 04:17:59.002113 21211 net.cpp:100] Creating Layer conv3_1
I0119 04:17:59.002117 21211 net.cpp:434] conv3_1 <- pool2
I0119 04:17:59.002123 21211 net.cpp:408] conv3_1 -> conv3_1
I0119 04:17:59.005404 21211 net.cpp:150] Setting up conv3_1
I0119 04:17:59.005419 21211 net.cpp:157] Top shape: 1 256 134 175 (6003200)
I0119 04:17:59.005424 21211 net.cpp:165] Memory required for data: 638375648
I0119 04:17:59.005435 21211 layer_factory.hpp:77] Creating layer relu3_1
I0119 04:17:59.005450 21211 net.cpp:100] Creating Layer relu3_1
I0119 04:17:59.005455 21211 net.cpp:434] relu3_1 <- conv3_1
I0119 04:17:59.005460 21211 net.cpp:395] relu3_1 -> conv3_1 (in-place)
I0119 04:17:59.005841 21211 net.cpp:150] Setting up relu3_1
I0119 04:17:59.005856 21211 net.cpp:157] Top shape: 1 256 134 175 (6003200)
I0119 04:17:59.005861 21211 net.cpp:165] Memory required for data: 662388448
I0119 04:17:59.005866 21211 layer_factory.hpp:77] Creating layer conv3_2
I0119 04:17:59.005875 21211 net.cpp:100] Creating Layer conv3_2
I0119 04:17:59.005880 21211 net.cpp:434] conv3_2 <- conv3_1
I0119 04:17:59.005887 21211 net.cpp:408] conv3_2 -> conv3_2
I0119 04:17:59.011121 21211 net.cpp:150] Setting up conv3_2
I0119 04:17:59.011137 21211 net.cpp:157] Top shape: 1 256 134 175 (6003200)
I0119 04:17:59.011142 21211 net.cpp:165] Memory required for data: 686401248
I0119 04:17:59.011149 21211 layer_factory.hpp:77] Creating layer relu3_2
I0119 04:17:59.011157 21211 net.cpp:100] Creating Layer relu3_2
I0119 04:17:59.011162 21211 net.cpp:434] relu3_2 <- conv3_2
I0119 04:17:59.011169 21211 net.cpp:395] relu3_2 -> conv3_2 (in-place)
I0119 04:17:59.011354 21211 net.cpp:150] Setting up relu3_2
I0119 04:17:59.011364 21211 net.cpp:157] Top shape: 1 256 134 175 (6003200)
I0119 04:17:59.011368 21211 net.cpp:165] Memory required for data: 710414048
I0119 04:17:59.011373 21211 layer_factory.hpp:77] Creating layer conv3_3
I0119 04:17:59.011385 21211 net.cpp:100] Creating Layer conv3_3
I0119 04:17:59.011389 21211 net.cpp:434] conv3_3 <- conv3_2
I0119 04:17:59.011397 21211 net.cpp:408] conv3_3 -> conv3_3
I0119 04:17:59.016621 21211 net.cpp:150] Setting up conv3_3
I0119 04:17:59.016638 21211 net.cpp:157] Top shape: 1 256 134 175 (6003200)
I0119 04:17:59.016644 21211 net.cpp:165] Memory required for data: 734426848
I0119 04:17:59.016651 21211 layer_factory.hpp:77] Creating layer relu3_3
I0119 04:17:59.016659 21211 net.cpp:100] Creating Layer relu3_3
I0119 04:17:59.016664 21211 net.cpp:434] relu3_3 <- conv3_3
I0119 04:17:59.016670 21211 net.cpp:395] relu3_3 -> conv3_3 (in-place)
I0119 04:17:59.016857 21211 net.cpp:150] Setting up relu3_3
I0119 04:17:59.016867 21211 net.cpp:157] Top shape: 1 256 134 175 (6003200)
I0119 04:17:59.016871 21211 net.cpp:165] Memory required for data: 758439648
I0119 04:17:59.016876 21211 layer_factory.hpp:77] Creating layer pool3
I0119 04:17:59.016883 21211 net.cpp:100] Creating Layer pool3
I0119 04:17:59.016888 21211 net.cpp:434] pool3 <- conv3_3
I0119 04:17:59.016896 21211 net.cpp:408] pool3 -> pool3
I0119 04:17:59.016947 21211 net.cpp:150] Setting up pool3
I0119 04:17:59.016954 21211 net.cpp:157] Top shape: 1 256 67 88 (1509376)
I0119 04:17:59.016958 21211 net.cpp:165] Memory required for data: 764477152
I0119 04:17:59.016963 21211 layer_factory.hpp:77] Creating layer pool3_pool3_0_split
I0119 04:17:59.016969 21211 net.cpp:100] Creating Layer pool3_pool3_0_split
I0119 04:17:59.016973 21211 net.cpp:434] pool3_pool3_0_split <- pool3
I0119 04:17:59.016979 21211 net.cpp:408] pool3_pool3_0_split -> pool3_pool3_0_split_0
I0119 04:17:59.016986 21211 net.cpp:408] pool3_pool3_0_split -> pool3_pool3_0_split_1
I0119 04:17:59.017026 21211 net.cpp:150] Setting up pool3_pool3_0_split
I0119 04:17:59.017032 21211 net.cpp:157] Top shape: 1 256 67 88 (1509376)
I0119 04:17:59.017038 21211 net.cpp:157] Top shape: 1 256 67 88 (1509376)
I0119 04:17:59.017041 21211 net.cpp:165] Memory required for data: 776552160
I0119 04:17:59.017045 21211 layer_factory.hpp:77] Creating layer conv4_1
I0119 04:17:59.017055 21211 net.cpp:100] Creating Layer conv4_1
I0119 04:17:59.017060 21211 net.cpp:434] conv4_1 <- pool3_pool3_0_split_0
I0119 04:17:59.017067 21211 net.cpp:408] conv4_1 -> conv4_1
I0119 04:17:59.026134 21211 net.cpp:150] Setting up conv4_1
I0119 04:17:59.026154 21211 net.cpp:157] Top shape: 1 512 67 88 (3018752)
I0119 04:17:59.026159 21211 net.cpp:165] Memory required for data: 788627168
I0119 04:17:59.026166 21211 layer_factory.hpp:77] Creating layer relu4_1
I0119 04:17:59.026175 21211 net.cpp:100] Creating Layer relu4_1
I0119 04:17:59.026180 21211 net.cpp:434] relu4_1 <- conv4_1
I0119 04:17:59.026193 21211 net.cpp:395] relu4_1 -> conv4_1 (in-place)
I0119 04:17:59.026576 21211 net.cpp:150] Setting up relu4_1
I0119 04:17:59.026588 21211 net.cpp:157] Top shape: 1 512 67 88 (3018752)
I0119 04:17:59.026593 21211 net.cpp:165] Memory required for data: 800702176
I0119 04:17:59.026598 21211 layer_factory.hpp:77] Creating layer conv4_2
I0119 04:17:59.026609 21211 net.cpp:100] Creating Layer conv4_2
I0119 04:17:59.026614 21211 net.cpp:434] conv4_2 <- conv4_1
I0119 04:17:59.026621 21211 net.cpp:408] conv4_2 -> conv4_2
I0119 04:17:59.043488 21211 net.cpp:150] Setting up conv4_2
I0119 04:17:59.043512 21211 net.cpp:157] Top shape: 1 512 67 88 (3018752)
I0119 04:17:59.043517 21211 net.cpp:165] Memory required for data: 812777184
I0119 04:17:59.043531 21211 layer_factory.hpp:77] Creating layer relu4_2
I0119 04:17:59.043541 21211 net.cpp:100] Creating Layer relu4_2
I0119 04:17:59.043546 21211 net.cpp:434] relu4_2 <- conv4_2
I0119 04:17:59.043553 21211 net.cpp:395] relu4_2 -> conv4_2 (in-place)
I0119 04:17:59.043746 21211 net.cpp:150] Setting up relu4_2
I0119 04:17:59.043756 21211 net.cpp:157] Top shape: 1 512 67 88 (3018752)
I0119 04:17:59.043761 21211 net.cpp:165] Memory required for data: 824852192
I0119 04:17:59.043764 21211 layer_factory.hpp:77] Creating layer conv4_3
I0119 04:17:59.043776 21211 net.cpp:100] Creating Layer conv4_3
I0119 04:17:59.043781 21211 net.cpp:434] conv4_3 <- conv4_2
I0119 04:17:59.043787 21211 net.cpp:408] conv4_3 -> conv4_3
I0119 04:17:59.060746 21211 net.cpp:150] Setting up conv4_3
I0119 04:17:59.060771 21211 net.cpp:157] Top shape: 1 512 67 88 (3018752)
I0119 04:17:59.060776 21211 net.cpp:165] Memory required for data: 836927200
I0119 04:17:59.060786 21211 layer_factory.hpp:77] Creating layer relu4_3
I0119 04:17:59.060794 21211 net.cpp:100] Creating Layer relu4_3
I0119 04:17:59.060801 21211 net.cpp:434] relu4_3 <- conv4_3
I0119 04:17:59.060807 21211 net.cpp:395] relu4_3 -> conv4_3 (in-place)
I0119 04:17:59.061010 21211 net.cpp:150] Setting up relu4_3
I0119 04:17:59.061020 21211 net.cpp:157] Top shape: 1 512 67 88 (3018752)
I0119 04:17:59.061025 21211 net.cpp:165] Memory required for data: 849002208
I0119 04:17:59.061029 21211 layer_factory.hpp:77] Creating layer pool4
I0119 04:17:59.061038 21211 net.cpp:100] Creating Layer pool4
I0119 04:17:59.061043 21211 net.cpp:434] pool4 <- conv4_3
I0119 04:17:59.061050 21211 net.cpp:408] pool4 -> pool4
I0119 04:17:59.061105 21211 net.cpp:150] Setting up pool4
I0119 04:17:59.061111 21211 net.cpp:157] Top shape: 1 512 34 44 (765952)
I0119 04:17:59.061115 21211 net.cpp:165] Memory required for data: 852066016
I0119 04:17:59.061120 21211 layer_factory.hpp:77] Creating layer pool4_pool4_0_split
I0119 04:17:59.061126 21211 net.cpp:100] Creating Layer pool4_pool4_0_split
I0119 04:17:59.061131 21211 net.cpp:434] pool4_pool4_0_split <- pool4
I0119 04:17:59.061136 21211 net.cpp:408] pool4_pool4_0_split -> pool4_pool4_0_split_0
I0119 04:17:59.061143 21211 net.cpp:408] pool4_pool4_0_split -> pool4_pool4_0_split_1
I0119 04:17:59.061185 21211 net.cpp:150] Setting up pool4_pool4_0_split
I0119 04:17:59.061192 21211 net.cpp:157] Top shape: 1 512 34 44 (765952)
I0119 04:17:59.061197 21211 net.cpp:157] Top shape: 1 512 34 44 (765952)
I0119 04:17:59.061200 21211 net.cpp:165] Memory required for data: 858193632
I0119 04:17:59.061204 21211 layer_factory.hpp:77] Creating layer conv5_1
I0119 04:17:59.061215 21211 net.cpp:100] Creating Layer conv5_1
I0119 04:17:59.061220 21211 net.cpp:434] conv5_1 <- pool4_pool4_0_split_0
I0119 04:17:59.061228 21211 net.cpp:408] conv5_1 -> conv5_1
I0119 04:17:59.078037 21211 net.cpp:150] Setting up conv5_1
I0119 04:17:59.078059 21211 net.cpp:157] Top shape: 1 512 34 44 (765952)
I0119 04:17:59.078064 21211 net.cpp:165] Memory required for data: 861257440
I0119 04:17:59.078073 21211 layer_factory.hpp:77] Creating layer relu5_1
I0119 04:17:59.078083 21211 net.cpp:100] Creating Layer relu5_1
I0119 04:17:59.078088 21211 net.cpp:434] relu5_1 <- conv5_1
I0119 04:17:59.078095 21211 net.cpp:395] relu5_1 -> conv5_1 (in-place)
I0119 04:17:59.078485 21211 net.cpp:150] Setting up relu5_1
I0119 04:17:59.078498 21211 net.cpp:157] Top shape: 1 512 34 44 (765952)
I0119 04:17:59.078502 21211 net.cpp:165] Memory required for data: 864321248
I0119 04:17:59.078507 21211 layer_factory.hpp:77] Creating layer conv5_2
I0119 04:17:59.078518 21211 net.cpp:100] Creating Layer conv5_2
I0119 04:17:59.078523 21211 net.cpp:434] conv5_2 <- conv5_1
I0119 04:17:59.078531 21211 net.cpp:408] conv5_2 -> conv5_2
I0119 04:17:59.095386 21211 net.cpp:150] Setting up conv5_2
I0119 04:17:59.095410 21211 net.cpp:157] Top shape: 1 512 34 44 (765952)
I0119 04:17:59.095414 21211 net.cpp:165] Memory required for data: 867385056
I0119 04:17:59.095424 21211 layer_factory.hpp:77] Creating layer relu5_2
I0119 04:17:59.095433 21211 net.cpp:100] Creating Layer relu5_2
I0119 04:17:59.095439 21211 net.cpp:434] relu5_2 <- conv5_2
I0119 04:17:59.095446 21211 net.cpp:395] relu5_2 -> conv5_2 (in-place)
I0119 04:17:59.095638 21211 net.cpp:150] Setting up relu5_2
I0119 04:17:59.095649 21211 net.cpp:157] Top shape: 1 512 34 44 (765952)
I0119 04:17:59.095652 21211 net.cpp:165] Memory required for data: 870448864
I0119 04:17:59.095656 21211 layer_factory.hpp:77] Creating layer conv5_3
I0119 04:17:59.095672 21211 net.cpp:100] Creating Layer conv5_3
I0119 04:17:59.095677 21211 net.cpp:434] conv5_3 <- conv5_2
I0119 04:17:59.095685 21211 net.cpp:408] conv5_3 -> conv5_3
I0119 04:17:59.113486 21211 net.cpp:150] Setting up conv5_3
I0119 04:17:59.113512 21211 net.cpp:157] Top shape: 1 512 34 44 (765952)
I0119 04:17:59.113517 21211 net.cpp:165] Memory required for data: 873512672
I0119 04:17:59.113526 21211 layer_factory.hpp:77] Creating layer relu5_3
I0119 04:17:59.113535 21211 net.cpp:100] Creating Layer relu5_3
I0119 04:17:59.113540 21211 net.cpp:434] relu5_3 <- conv5_3
I0119 04:17:59.113548 21211 net.cpp:395] relu5_3 -> conv5_3 (in-place)
I0119 04:17:59.113754 21211 net.cpp:150] Setting up relu5_3
I0119 04:17:59.113766 21211 net.cpp:157] Top shape: 1 512 34 44 (765952)
I0119 04:17:59.113770 21211 net.cpp:165] Memory required for data: 876576480
I0119 04:17:59.113775 21211 layer_factory.hpp:77] Creating layer pool5
I0119 04:17:59.113783 21211 net.cpp:100] Creating Layer pool5
I0119 04:17:59.113788 21211 net.cpp:434] pool5 <- conv5_3
I0119 04:17:59.113795 21211 net.cpp:408] pool5 -> pool5
I0119 04:17:59.113852 21211 net.cpp:150] Setting up pool5
I0119 04:17:59.113859 21211 net.cpp:157] Top shape: 1 512 17 22 (191488)
I0119 04:17:59.113863 21211 net.cpp:165] Memory required for data: 877342432
I0119 04:17:59.113867 21211 layer_factory.hpp:77] Creating layer fc6
I0119 04:17:59.113879 21211 net.cpp:100] Creating Layer fc6
I0119 04:17:59.113883 21211 net.cpp:434] fc6 <- pool5
I0119 04:17:59.113890 21211 net.cpp:408] fc6 -> fc6
I0119 04:18:00.061960 21211 net.cpp:150] Setting up fc6
I0119 04:18:00.062023 21211 net.cpp:157] Top shape: 1 4096 11 16 (720896)
I0119 04:18:00.062032 21211 net.cpp:165] Memory required for data: 880226016
I0119 04:18:00.062054 21211 layer_factory.hpp:77] Creating layer relu6
I0119 04:18:00.062079 21211 net.cpp:100] Creating Layer relu6
I0119 04:18:00.062093 21211 net.cpp:434] relu6 <- fc6
I0119 04:18:00.062105 21211 net.cpp:395] relu6 -> fc6 (in-place)
I0119 04:18:00.062626 21211 net.cpp:150] Setting up relu6
I0119 04:18:00.062645 21211 net.cpp:157] Top shape: 1 4096 11 16 (720896)
I0119 04:18:00.062652 21211 net.cpp:165] Memory required for data: 883109600
I0119 04:18:00.062661 21211 layer_factory.hpp:77] Creating layer drop6
I0119 04:18:00.062676 21211 net.cpp:100] Creating Layer drop6
I0119 04:18:00.062683 21211 net.cpp:434] drop6 <- fc6
I0119 04:18:00.062693 21211 net.cpp:395] drop6 -> fc6 (in-place)
I0119 04:18:00.062762 21211 net.cpp:150] Setting up drop6
I0119 04:18:00.062773 21211 net.cpp:157] Top shape: 1 4096 11 16 (720896)
I0119 04:18:00.062779 21211 net.cpp:165] Memory required for data: 885993184
I0119 04:18:00.062786 21211 layer_factory.hpp:77] Creating layer fc7
I0119 04:18:00.062805 21211 net.cpp:100] Creating Layer fc7
I0119 04:18:00.062813 21211 net.cpp:434] fc7 <- fc6
I0119 04:18:00.062839 21211 net.cpp:408] fc7 -> fc7
I0119 04:18:00.256855 21211 net.cpp:150] Setting up fc7
I0119 04:18:00.256907 21211 net.cpp:157] Top shape: 1 4096 11 16 (720896)
I0119 04:18:00.256916 21211 net.cpp:165] Memory required for data: 888876768
I0119 04:18:00.256932 21211 layer_factory.hpp:77] Creating layer relu7
I0119 04:18:00.256952 21211 net.cpp:100] Creating Layer relu7
I0119 04:18:00.256959 21211 net.cpp:434] relu7 <- fc7
I0119 04:18:00.256973 21211 net.cpp:395] relu7 -> fc7 (in-place)
I0119 04:18:00.257261 21211 net.cpp:150] Setting up relu7
I0119 04:18:00.257275 21211 net.cpp:157] Top shape: 1 4096 11 16 (720896)
I0119 04:18:00.257282 21211 net.cpp:165] Memory required for data: 891760352
I0119 04:18:00.257289 21211 layer_factory.hpp:77] Creating layer drop7
I0119 04:18:00.257302 21211 net.cpp:100] Creating Layer drop7
I0119 04:18:00.257308 21211 net.cpp:434] drop7 <- fc7
I0119 04:18:00.257320 21211 net.cpp:395] drop7 -> fc7 (in-place)
I0119 04:18:00.257374 21211 net.cpp:150] Setting up drop7
I0119 04:18:00.257385 21211 net.cpp:157] Top shape: 1 4096 11 16 (720896)
I0119 04:18:00.257391 21211 net.cpp:165] Memory required for data: 894643936
I0119 04:18:00.257400 21211 layer_factory.hpp:77] Creating layer score_fr
I0119 04:18:00.257416 21211 net.cpp:100] Creating Layer score_fr
I0119 04:18:00.257423 21211 net.cpp:434] score_fr <- fc7
I0119 04:18:00.257437 21211 net.cpp:408] score_fr -> score_fr
I0119 04:18:00.260646 21211 net.cpp:150] Setting up score_fr
I0119 04:18:00.260668 21211 net.cpp:157] Top shape: 1 6 11 16 (1056)
I0119 04:18:00.260675 21211 net.cpp:165] Memory required for data: 894648160
I0119 04:18:00.260689 21211 layer_factory.hpp:77] Creating layer upscore2
I0119 04:18:00.260706 21211 net.cpp:100] Creating Layer upscore2
I0119 04:18:00.260715 21211 net.cpp:434] upscore2 <- score_fr
I0119 04:18:00.260726 21211 net.cpp:408] upscore2 -> upscore2
I0119 04:18:00.261096 21211 net.cpp:150] Setting up upscore2
I0119 04:18:00.261111 21211 net.cpp:157] Top shape: 1 6 24 34 (4896)
I0119 04:18:00.261116 21211 net.cpp:165] Memory required for data: 894667744
I0119 04:18:00.261144 21211 layer_factory.hpp:77] Creating layer upscore2_upscore2_0_split
I0119 04:18:00.261157 21211 net.cpp:100] Creating Layer upscore2_upscore2_0_split
I0119 04:18:00.261164 21211 net.cpp:434] upscore2_upscore2_0_split <- upscore2
I0119 04:18:00.261174 21211 net.cpp:408] upscore2_upscore2_0_split -> upscore2_upscore2_0_split_0
I0119 04:18:00.261185 21211 net.cpp:408] upscore2_upscore2_0_split -> upscore2_upscore2_0_split_1
I0119 04:18:00.261251 21211 net.cpp:150] Setting up upscore2_upscore2_0_split
I0119 04:18:00.261262 21211 net.cpp:157] Top shape: 1 6 24 34 (4896)
I0119 04:18:00.261270 21211 net.cpp:157] Top shape: 1 6 24 34 (4896)
I0119 04:18:00.261277 21211 net.cpp:165] Memory required for data: 894706912
I0119 04:18:00.261284 21211 layer_factory.hpp:77] Creating layer scale_pool4
I0119 04:18:00.261299 21211 net.cpp:100] Creating Layer scale_pool4
I0119 04:18:00.261307 21211 net.cpp:434] scale_pool4 <- pool4_pool4_0_split_1
I0119 04:18:00.261317 21211 net.cpp:408] scale_pool4 -> scale_pool4
I0119 04:18:00.261508 21211 net.cpp:150] Setting up scale_pool4
I0119 04:18:00.261521 21211 net.cpp:157] Top shape: 1 512 34 44 (765952)
I0119 04:18:00.261528 21211 net.cpp:165] Memory required for data: 897770720
I0119 04:18:00.261536 21211 layer_factory.hpp:77] Creating layer score_pool4
I0119 04:18:00.261553 21211 net.cpp:100] Creating Layer score_pool4
I0119 04:18:00.261559 21211 net.cpp:434] score_pool4 <- scale_pool4
I0119 04:18:00.261570 21211 net.cpp:408] score_pool4 -> score_pool4
I0119 04:18:00.263417 21211 net.cpp:150] Setting up score_pool4
I0119 04:18:00.263439 21211 net.cpp:157] Top shape: 1 6 34 44 (8976)
I0119 04:18:00.263447 21211 net.cpp:165] Memory required for data: 897806624
I0119 04:18:00.263459 21211 layer_factory.hpp:77] Creating layer score_pool4c
I0119 04:18:00.263471 21211 net.cpp:100] Creating Layer score_pool4c
I0119 04:18:00.263479 21211 net.cpp:434] score_pool4c <- score_pool4
I0119 04:18:00.263499 21211 net.cpp:434] score_pool4c <- upscore2_upscore2_0_split_0
I0119 04:18:00.263511 21211 net.cpp:408] score_pool4c -> score_pool4c
I0119 04:18:00.263562 21211 net.cpp:150] Setting up score_pool4c
I0119 04:18:00.263573 21211 net.cpp:157] Top shape: 1 6 24 34 (4896)
I0119 04:18:00.263581 21211 net.cpp:165] Memory required for data: 897826208
I0119 04:18:00.263587 21211 layer_factory.hpp:77] Creating layer fuse_pool4
I0119 04:18:00.263598 21211 net.cpp:100] Creating Layer fuse_pool4
I0119 04:18:00.263605 21211 net.cpp:434] fuse_pool4 <- upscore2_upscore2_0_split_1
I0119 04:18:00.263613 21211 net.cpp:434] fuse_pool4 <- score_pool4c
I0119 04:18:00.263622 21211 net.cpp:408] fuse_pool4 -> fuse_pool4
I0119 04:18:00.263667 21211 net.cpp:150] Setting up fuse_pool4
I0119 04:18:00.263677 21211 net.cpp:157] Top shape: 1 6 24 34 (4896)
I0119 04:18:00.263684 21211 net.cpp:165] Memory required for data: 897845792
I0119 04:18:00.263690 21211 layer_factory.hpp:77] Creating layer upscore_pool4
I0119 04:18:00.263703 21211 net.cpp:100] Creating Layer upscore_pool4
I0119 04:18:00.263710 21211 net.cpp:434] upscore_pool4 <- fuse_pool4
I0119 04:18:00.263720 21211 net.cpp:408] upscore_pool4 -> upscore_pool4
I0119 04:18:00.264070 21211 net.cpp:150] Setting up upscore_pool4
I0119 04:18:00.264083 21211 net.cpp:157] Top shape: 1 6 50 70 (21000)
I0119 04:18:00.264089 21211 net.cpp:165] Memory required for data: 897929792
I0119 04:18:00.264098 21211 layer_factory.hpp:77] Creating layer upscore_pool4_upscore_pool4_0_split
I0119 04:18:00.264109 21211 net.cpp:100] Creating Layer upscore_pool4_upscore_pool4_0_split
I0119 04:18:00.264117 21211 net.cpp:434] upscore_pool4_upscore_pool4_0_split <- upscore_pool4
I0119 04:18:00.264125 21211 net.cpp:408] upscore_pool4_upscore_pool4_0_split -> upscore_pool4_upscore_pool4_0_split_0
I0119 04:18:00.264137 21211 net.cpp:408] upscore_pool4_upscore_pool4_0_split -> upscore_pool4_upscore_pool4_0_split_1
I0119 04:18:00.264200 21211 net.cpp:150] Setting up upscore_pool4_upscore_pool4_0_split
I0119 04:18:00.264210 21211 net.cpp:157] Top shape: 1 6 50 70 (21000)
I0119 04:18:00.264219 21211 net.cpp:157] Top shape: 1 6 50 70 (21000)
I0119 04:18:00.264225 21211 net.cpp:165] Memory required for data: 898097792
I0119 04:18:00.264232 21211 layer_factory.hpp:77] Creating layer scale_pool3
I0119 04:18:00.264243 21211 net.cpp:100] Creating Layer scale_pool3
I0119 04:18:00.264250 21211 net.cpp:434] scale_pool3 <- pool3_pool3_0_split_1
I0119 04:18:00.264261 21211 net.cpp:408] scale_pool3 -> scale_pool3
I0119 04:18:00.264430 21211 net.cpp:150] Setting up scale_pool3
I0119 04:18:00.264441 21211 net.cpp:157] Top shape: 1 256 67 88 (1509376)
I0119 04:18:00.264448 21211 net.cpp:165] Memory required for data: 904135296
I0119 04:18:00.264456 21211 layer_factory.hpp:77] Creating layer score_pool3
I0119 04:18:00.264472 21211 net.cpp:100] Creating Layer score_pool3
I0119 04:18:00.264479 21211 net.cpp:434] score_pool3 <- scale_pool3
I0119 04:18:00.264490 21211 net.cpp:408] score_pool3 -> score_pool3
I0119 04:18:00.266278 21211 net.cpp:150] Setting up score_pool3
I0119 04:18:00.266297 21211 net.cpp:157] Top shape: 1 6 67 88 (35376)
I0119 04:18:00.266305 21211 net.cpp:165] Memory required for data: 904276800
I0119 04:18:00.266317 21211 layer_factory.hpp:77] Creating layer score_pool3c
I0119 04:18:00.266330 21211 net.cpp:100] Creating Layer score_pool3c
I0119 04:18:00.266337 21211 net.cpp:434] score_pool3c <- score_pool3
I0119 04:18:00.266346 21211 net.cpp:434] score_pool3c <- upscore_pool4_upscore_pool4_0_split_0
I0119 04:18:00.266357 21211 net.cpp:408] score_pool3c -> score_pool3c
I0119 04:18:00.266407 21211 net.cpp:150] Setting up score_pool3c
I0119 04:18:00.266417 21211 net.cpp:157] Top shape: 1 6 50 70 (21000)
I0119 04:18:00.266423 21211 net.cpp:165] Memory required for data: 904360800
I0119 04:18:00.266430 21211 layer_factory.hpp:77] Creating layer fuse_pool3
I0119 04:18:00.266443 21211 net.cpp:100] Creating Layer fuse_pool3
I0119 04:18:00.266449 21211 net.cpp:434] fuse_pool3 <- upscore_pool4_upscore_pool4_0_split_1
I0119 04:18:00.266464 21211 net.cpp:434] fuse_pool3 <- score_pool3c
I0119 04:18:00.266475 21211 net.cpp:408] fuse_pool3 -> fuse_pool3
I0119 04:18:00.266518 21211 net.cpp:150] Setting up fuse_pool3
I0119 04:18:00.266530 21211 net.cpp:157] Top shape: 1 6 50 70 (21000)
I0119 04:18:00.266535 21211 net.cpp:165] Memory required for data: 904444800
I0119 04:18:00.266542 21211 layer_factory.hpp:77] Creating layer upscore8
I0119 04:18:00.266556 21211 net.cpp:100] Creating Layer upscore8
I0119 04:18:00.266563 21211 net.cpp:434] upscore8 <- fuse_pool3
I0119 04:18:00.266574 21211 net.cpp:408] upscore8 -> upscore8
I0119 04:18:00.267019 21211 net.cpp:150] Setting up upscore8
I0119 04:18:00.267031 21211 net.cpp:157] Top shape: 1 6 408 568 (1390464)
I0119 04:18:00.267038 21211 net.cpp:165] Memory required for data: 910006656
I0119 04:18:00.267047 21211 layer_factory.hpp:77] Creating layer score
I0119 04:18:00.267057 21211 net.cpp:100] Creating Layer score
I0119 04:18:00.267065 21211 net.cpp:434] score <- upscore8
I0119 04:18:00.267072 21211 net.cpp:434] score <- data_data_0_split_1
I0119 04:18:00.267083 21211 net.cpp:408] score -> score
I0119 04:18:00.267124 21211 net.cpp:150] Setting up score
I0119 04:18:00.267135 21211 net.cpp:157] Top shape: 1 6 335 500 (1005000)
I0119 04:18:00.267141 21211 net.cpp:165] Memory required for data: 914026656
I0119 04:18:00.267148 21211 layer_factory.hpp:77] Creating layer loss
I0119 04:18:00.267160 21211 net.cpp:100] Creating Layer loss
I0119 04:18:00.267168 21211 net.cpp:434] loss <- score
I0119 04:18:00.267175 21211 net.cpp:434] loss <- label
I0119 04:18:00.267184 21211 net.cpp:408] loss -> loss
I0119 04:18:00.267199 21211 layer_factory.hpp:77] Creating layer loss
…
