…
test_initialization: false
average_loss: 20
iter_size: 1
I1121 09:50:32.843027  1766 solver.cpp:81] Creating training net from train_net file: train.prototxt
I1121 09:50:32.844399  1766 net.cpp:58] Initializing net from parameters: 
state {
  phase: TRAIN
}
layer {
  name: "data"
  type: "Python"
  top: "data"
  top: "label"
  python_param {
    module: "voc_layers"
    layer: "PartialSBDDSegDataLayer"
    param_str: "{\'sbdd_dir\': \'../data/sbdd/dataset\', \'seed\': 1337, \'split\': \'train5\', \'mean\': (104.00699, 116.66877, 122.67892)}"
  }
}
layer {
  name: "conv1_1"
  type: "Convolution"
  bottom: "data"
  top: "conv1_1"
  param {
    lr_mult: 1
    decay_mult: 1
  }
  param {
    lr_mult: 2
    decay_mult: 0
  }
  convolution_param {
    num_output: 64
    pad: 100
    kernel_size: 3
    stride: 1
    weight_filler {
      type: "xavier"
    }
  }
}
layer {
  name: "relu1_1"
  type: "ReLU"
  bottom: "conv1_1"
  top: "conv1_1"
}
layer {
  name: "conv1_2"
  type: "Convolution"
  bottom: "conv1_1"
  top: "conv1_2"
  param {
    lr_mult: 1
    decay_mult: 1
  }
  param {
    lr_mult: 2
    decay_mult: 0
  }
  convolution_param {
    num_output: 64
    pad: 1
    kernel_size: 3
    stride: 1
    weight_filler {
      type: "xavier"
    }
  }
}
layer {
  name: "relu1_2"
  type: "ReLU"
  bottom: "conv1_2"
  top: "conv1_2"
}
layer {
  name: "pool1"
  type: "Pooling"
  bottom: "conv1_2"
  top: "pool1"
  pooling_param {
    pool: MAX
    kernel_size: 2
    stride: 2
  }
}
layer {
  name: "conv2_1"
  type: "Convolution"
  bottom: "pool1"
  top: "conv2_1"
  param {
    lr_mult: 1
    decay_mult: 1
  }
  param {
    lr_mult: 2
    decay_mult: 0
  }
  convolution_param {
    num_output: 128
    pad: 1
    kernel_size: 3
    stride: 1
    weight_filler {
      type: "xavier"
    }
  }
}
layer {
  name: "relu2_1"
  type: "ReLU"
  bottom: "conv2_1"
  top: "conv2_1"
}
layer {
  name: "conv2_2"
  type: "Convolution"
  bottom: "conv2_1"
  top: "conv2_2"
  param {
    lr_mult: 1
    decay_mult: 1
  }
  param {
    lr_mult: 2
    decay_mult: 0
  }
  convolution_param {
    num_output: 128
    pad: 1
    kernel_size: 3
    stride: 1
    weight_filler {
      type: "xavier"
    }
  }
}
layer {
  name: "relu2_2"
  type: "ReLU"
  bottom: "conv2_2"
  top: "conv2_2"
}
layer {
  name: "pool2"
  type: "Pooling"
  bottom: "conv2_2"
  top: "pool2"
  pooling_param {
    pool: MAX
    kernel_size: 2
    stride: 2
  }
}
layer {
  name: "conv3_1"
  type: "Convolution"
  bottom: "pool2"
  top: "conv3_1"
  param {
    lr_mult: 1
    decay_mult: 1
  }
  param {
    lr_mult: 2
    decay_mult: 0
  }
  convolution_param {
    num_output: 256
    pad: 1
    kernel_size: 3
    stride: 1
    weight_filler {
      type: "xavier"
    }
  }
}
layer {
  name: "relu3_1"
  type: "ReLU"
  bottom: "conv3_1"
  top: "conv3_1"
}
layer {
  name: "conv3_2"
  type: "Convolution"
  bottom: "conv3_1"
  top: "conv3_2"
  param {
    lr_mult: 1
    decay_mult: 1
  }
  param {
    lr_mult: 2
    decay_mult: 0
  }
  convolution_param {
    num_output: 256
    pad: 1
    kernel_size: 3
    stride: 1
    weight_filler {
      type: "xavier"
    }
  }
}
layer {
  name: "relu3_2"
  type: "ReLU"
  bottom: "conv3_2"
  top: "conv3_2"
}
layer {
  name: "conv3_3"
  type: "Convolution"
  bottom: "conv3_2"
  top: "conv3_3"
  param {
    lr_mult: 1
    decay_mult: 1
  }
  param {
    lr_mult: 2
    decay_mult: 0
  }
  convolution_param {
    num_output: 256
    pad: 1
    kernel_size: 3
    stride: 1
    weight_filler {
      type: "xavier"
    }
  }
}
layer {
  name: "relu3_3"
  type: "ReLU"
  bottom: "conv3_3"
  top: "conv3_3"
}
layer {
  name: "pool3"
  type: "Pooling"
  bottom: "conv3_3"
  top: "pool3"
  pooling_param {
    pool: MAX
    kernel_size: 2
    stride: 2
  }
}
layer {
  name: "conv4_1"
  type: "Convolution"
  bottom: "pool3"
  top: "conv4_1"
  param {
    lr_mult: 1
    decay_mult: 1
  }
  param {
    lr_mult: 2
    decay_mult: 0
  }
  convolution_param {
    num_output: 512
    pad: 1
    kernel_size: 3
    stride: 1
    weight_filler {
      type: "xavier"
    }
  }
}
layer {
  name: "relu4_1"
  type: "ReLU"
  bottom: "conv4_1"
  top: "conv4_1"
}
layer {
  name: "conv4_2"
  type: "Convolution"
  bottom: "conv4_1"
  top: "conv4_2"
  param {
    lr_mult: 1
    decay_mult: 1
  }
  param {
    lr_mult: 2
    decay_mult: 0
  }
  convolution_param {
    num_output: 512
    pad: 1
    kernel_size: 3
    stride: 1
    weight_filler {
      type: "xavier"
    }
  }
}
layer {
  name: "relu4_2"
  type: "ReLU"
  bottom: "conv4_2"
  top: "conv4_2"
}
layer {
  name: "conv4_3"
  type: "Convolution"
  bottom: "conv4_2"
  top: "conv4_3"
  param {
    lr_mult: 1
    decay_mult: 1
  }
  param {
    lr_mult: 2
    decay_mult: 0
  }
  convolution_param {
    num_output: 512
    pad: 1
    kernel_size: 3
    stride: 1
    weight_filler {
      type: "xavier"
    }
  }
}
layer {
  name: "relu4_3"
  type: "ReLU"
  bottom: "conv4_3"
  top: "conv4_3"
}
layer {
  name: "pool4"
  type: "Pooling"
  bottom: "conv4_3"
  top: "pool4"
  pooling_param {
    pool: MAX
    kernel_size: 2
    stride: 2
  }
}
layer {
  name: "conv5_1"
  type: "Convolution"
  bottom: "pool4"
  top: "conv5_1"
  param {
    lr_mult: 1
    decay_mult: 1
  }
  param {
    lr_mult: 2
    decay_mult: 0
  }
  convolution_param {
    num_output: 512
    pad: 1
    kernel_size: 3
    stride: 1
    weight_filler {
      type: "xavier"
    }
  }
}
layer {
  name: "relu5_1"
  type: "ReLU"
  bottom: "conv5_1"
  top: "conv5_1"
}
layer {
  name: "conv5_2"
  type: "Convolution"
  bottom: "conv5_1"
  top: "conv5_2"
  param {
    lr_mult: 1
    decay_mult: 1
  }
  param {
    lr_mult: 2
    decay_mult: 0
  }
  convolution_param {
    num_output: 512
    pad: 1
    kernel_size: 3
    stride: 1
    weight_filler {
      type: "xavier"
    }
  }
}
layer {
  name: "relu5_2"
  type: "ReLU"
  bottom: "conv5_2"
  top: "conv5_2"
}
layer {
  name: "conv5_3"
  type: "Convolution"
  bottom: "conv5_2"
  top: "conv5_3"
  param {
    lr_mult: 1
    decay_mult: 1
  }
  param {
    lr_mult: 2
    decay_mult: 0
  }
  convolution_param {
    num_output: 512
    pad: 1
    kernel_size: 3
    stride: 1
    weight_filler {
      type: "xavier"
    }
  }
}
layer {
  name: "relu5_3"
  type: "ReLU"
  bottom: "conv5_3"
  top: "conv5_3"
}
layer {
  name: "pool5"
  type: "Pooling"
  bottom: "conv5_3"
  top: "pool5"
  pooling_param {
    pool: MAX
    kernel_size: 2
    stride: 2
  }
}
layer {
  name: "fc6"
  type: "Convolution"
  bottom: "pool5"
  top: "fc6"
  param {
    lr_mult: 1
    decay_mult: 1
  }
  param {
    lr_mult: 2
    decay_mult: 0
  }
  convolution_param {
    num_output: 4096
    pad: 0
    kernel_size: 7
    stride: 1
    weight_filler {
      type: "xavier"
    }
  }
}
layer {
  name: "relu6"
  type: "ReLU"
  bottom: "fc6"
  top: "fc6"
}
layer {
  name: "drop6"
  type: "Dropout"
  bottom: "fc6"
  top: "fc6"
  dropout_param {
    dropout_ratio: 0.5
  }
}
layer {
  name: "fc7"
  type: "Convolution"
  bottom: "fc6"
  top: "fc7"
  param {
    lr_mult: 1
    decay_mult: 1
  }
  param {
    lr_mult: 2
    decay_mult: 0
  }
  convolution_param {
    num_output: 4096
    pad: 0
    kernel_size: 1
    stride: 1
    weight_filler {
      type: "xavier"
    }
  }
}
layer {
  name: "relu7"
  type: "ReLU"
  bottom: "fc7"
  top: "fc7"
}
layer {
  name: "drop7"
  type: "Dropout"
  bottom: "fc7"
  top: "fc7"
  dropout_param {
    dropout_ratio: 0.5
  }
}
layer {
  name: "score_fr"
  type: "Convolution"
  bottom: "fc7"
  top: "score_fr"
  param {
    lr_mult: 1
    decay_mult: 1
  }
  param {
    lr_mult: 2
    decay_mult: 0
  }
  convolution_param {
    num_output: 6
    pad: 0
    kernel_size: 1
    weight_filler {
      type: "xavier"
    }
  }
}
layer {
  name: "upscore2"
  type: "Deconvolution"
  bottom: "score_fr"
  top: "upscore2"
  param {
    lr_mult: 0
  }
  convolution_param {
    num_output: 6
    bias_term: false
    kernel_size: 4
    stride: 2
    weight_filler {
      type: "xavier"
    }
  }
}
layer {
  name: "scale_pool4"
  type: "Scale"
  bottom: "pool4"
  top: "scale_pool4"
  param {
    lr_mult: 0
  }
  scale_param {
    filler {
      type: "constant"
      value: 0.01
    }
  }
}
layer {
  name: "score_pool4"
  type: "Convolution"
  bottom: "scale_pool4"
  top: "score_pool4"
  param {
    lr_mult: 1
    decay_mult: 1
  }
  param {
    lr_mult: 2
    decay_mult: 0
  }
  convolution_param {
    num_output: 6
    pad: 0
    kernel_size: 1
    weight_filler {
      type: "xavier"
    }
  }
}
layer {
  name: "score_pool4c"
  type: "Crop"
  bottom: "score_pool4"
  bottom: "upscore2"
  top: "score_pool4c"
  crop_param {
    axis: 2
    offset: 5
  }
}
layer {
  name: "fuse_pool4"
  type: "Eltwise"
  bottom: "upscore2"
  bottom: "score_pool4c"
  top: "fuse_pool4"
  eltwise_param {
    operation: SUM
  }
}
layer {
  name: "upscore_pool4"
  type: "Deconvolution"
  bottom: "fuse_pool4"
  top: "upscore_pool4"
  param {
    lr_mult: 0
  }
  convolution_param {
    num_output: 6
    bias_term: false
    kernel_size: 4
    stride: 2
    weight_filler {
      type: "xavier"
    }
  }
}
layer {
  name: "scale_pool3"
  type: "Scale"
  bottom: "pool3"
  top: "scale_pool3"
  param {
    lr_mult: 0
  }
  scale_param {
    filler {
      type: "constant"
      value: 0.0001
    }
  }
}
layer {
  name: "score_pool3"
  type: "Convolution"
  bottom: "scale_pool3"
  top: "score_pool3"
  param {
    lr_mult: 1
    decay_mult: 1
  }
  param {
    lr_mult: 2
    decay_mult: 0
  }
  convolution_param {
    num_output: 6
    pad: 0
    kernel_size: 1
    weight_filler {
      type: "xavier"
    }
  }
}
layer {
  name: "score_pool3c"
  type: "Crop"
  bottom: "score_pool3"
  bottom: "upscore_pool4"
  top: "score_pool3c"
  crop_param {
    axis: 2
    offset: 9
  }
}
layer {
  name: "fuse_pool3"
  type: "Eltwise"
  bottom: "upscore_pool4"
  bottom: "score_pool3c"
  top: "fuse_pool3"
  eltwise_param {
    operation: SUM
  }
}
layer {
  name: "upscore8"
  type: "Deconvolution"
  bottom: "fuse_pool3"
  top: "upscore8"
  param {
    lr_mult: 0
  }
  convolution_param {
    num_output: 6
    bias_term: false
    kernel_size: 16
    stride: 8
    weight_filler {
      type: "xavier"
    }
  }
}
layer {
  name: "score"
  type: "Crop"
  bottom: "upscore8"
  bottom: "data"
  top: "score"
  crop_param {
    axis: 2
    offset: 31
  }
}
layer {
  name: "loss"
  type: "SoftmaxWithLoss"
  bottom: "score"
  bottom: "label"
  top: "loss"
  loss_param {
    ignore_label: 255
    normalize: false
  }
}
I1121 09:50:32.844658  1766 layer_factory.hpp:77] Creating layer data
I1121 09:50:32.845662  1766 net.cpp:100] Creating Layer data
I1121 09:50:32.845679  1766 net.cpp:408] data -> data
I1121 09:50:32.845695  1766 net.cpp:408] data -> label
I1121 09:50:32.894139  1766 net.cpp:150] Setting up data
I1121 09:50:32.894191  1766 net.cpp:157] Top shape: 1 3 375 500 (562500)
I1121 09:50:32.894197  1766 net.cpp:157] Top shape: 1 1 375 500 (187500)
I1121 09:50:32.894201  1766 net.cpp:165] Memory required for data: 3000000
I1121 09:50:32.894212  1766 layer_factory.hpp:77] Creating layer data_data_0_split
I1121 09:50:32.894237  1766 net.cpp:100] Creating Layer data_data_0_split
I1121 09:50:32.894244  1766 net.cpp:434] data_data_0_split <- data
I1121 09:50:32.894255  1766 net.cpp:408] data_data_0_split -> data_data_0_split_0
I1121 09:50:32.894268  1766 net.cpp:408] data_data_0_split -> data_data_0_split_1
I1121 09:50:32.894311  1766 net.cpp:150] Setting up data_data_0_split
I1121 09:50:32.894320  1766 net.cpp:157] Top shape: 1 3 375 500 (562500)
I1121 09:50:32.894325  1766 net.cpp:157] Top shape: 1 3 375 500 (562500)
I1121 09:50:32.894330  1766 net.cpp:165] Memory required for data: 7500000
I1121 09:50:32.894335  1766 layer_factory.hpp:77] Creating layer conv1_1
I1121 09:50:32.894353  1766 net.cpp:100] Creating Layer conv1_1
I1121 09:50:32.894358  1766 net.cpp:434] conv1_1 <- data_data_0_split_0
I1121 09:50:32.894379  1766 net.cpp:408] conv1_1 -> conv1_1
I1121 09:50:33.074405  1766 net.cpp:150] Setting up conv1_1
I1121 09:50:33.074461  1766 net.cpp:157] Top shape: 1 64 573 698 (25597056)
I1121 09:50:33.074466  1766 net.cpp:165] Memory required for data: 109888224
I1121 09:50:33.074487  1766 layer_factory.hpp:77] Creating layer relu1_1
I1121 09:50:33.074503  1766 net.cpp:100] Creating Layer relu1_1
I1121 09:50:33.074509  1766 net.cpp:434] relu1_1 <- conv1_1
I1121 09:50:33.074517  1766 net.cpp:395] relu1_1 -> conv1_1 (in-place)
I1121 09:50:33.074877  1766 net.cpp:150] Setting up relu1_1
I1121 09:50:33.074890  1766 net.cpp:157] Top shape: 1 64 573 698 (25597056)
I1121 09:50:33.074895  1766 net.cpp:165] Memory required for data: 212276448
I1121 09:50:33.074900  1766 layer_factory.hpp:77] Creating layer conv1_2
I1121 09:50:33.074916  1766 net.cpp:100] Creating Layer conv1_2
I1121 09:50:33.074923  1766 net.cpp:434] conv1_2 <- conv1_1
I1121 09:50:33.074930  1766 net.cpp:408] conv1_2 -> conv1_2
I1121 09:50:33.077778  1766 net.cpp:150] Setting up conv1_2
I1121 09:50:33.077798  1766 net.cpp:157] Top shape: 1 64 573 698 (25597056)
I1121 09:50:33.077803  1766 net.cpp:165] Memory required for data: 314664672
I1121 09:50:33.077814  1766 layer_factory.hpp:77] Creating layer relu1_2
I1121 09:50:33.077823  1766 net.cpp:100] Creating Layer relu1_2
I1121 09:50:33.077828  1766 net.cpp:434] relu1_2 <- conv1_2
I1121 09:50:33.077834  1766 net.cpp:395] relu1_2 -> conv1_2 (in-place)
I1121 09:50:33.078205  1766 net.cpp:150] Setting up relu1_2
I1121 09:50:33.078219  1766 net.cpp:157] Top shape: 1 64 573 698 (25597056)
I1121 09:50:33.078223  1766 net.cpp:165] Memory required for data: 417052896
I1121 09:50:33.078228  1766 layer_factory.hpp:77] Creating layer pool1
I1121 09:50:33.078243  1766 net.cpp:100] Creating Layer pool1
I1121 09:50:33.078248  1766 net.cpp:434] pool1 <- conv1_2
I1121 09:50:33.078255  1766 net.cpp:408] pool1 -> pool1
I1121 09:50:33.078306  1766 net.cpp:150] Setting up pool1
I1121 09:50:33.078315  1766 net.cpp:157] Top shape: 1 64 287 349 (6410432)
I1121 09:50:33.078318  1766 net.cpp:165] Memory required for data: 442694624
I1121 09:50:33.078322  1766 layer_factory.hpp:77] Creating layer conv2_1
I1121 09:50:33.078335  1766 net.cpp:100] Creating Layer conv2_1
I1121 09:50:33.078339  1766 net.cpp:434] conv2_1 <- pool1
I1121 09:50:33.078348  1766 net.cpp:408] conv2_1 -> conv2_1
I1121 09:50:33.080716  1766 net.cpp:150] Setting up conv2_1
I1121 09:50:33.080732  1766 net.cpp:157] Top shape: 1 128 287 349 (12820864)
I1121 09:50:33.080737  1766 net.cpp:165] Memory required for data: 493978080
I1121 09:50:33.080749  1766 layer_factory.hpp:77] Creating layer relu2_1
I1121 09:50:33.080759  1766 net.cpp:100] Creating Layer relu2_1
I1121 09:50:33.080763  1766 net.cpp:434] relu2_1 <- conv2_1
I1121 09:50:33.080772  1766 net.cpp:395] relu2_1 -> conv2_1 (in-place)
I1121 09:50:33.080974  1766 net.cpp:150] Setting up relu2_1
I1121 09:50:33.080986  1766 net.cpp:157] Top shape: 1 128 287 349 (12820864)
I1121 09:50:33.080989  1766 net.cpp:165] Memory required for data: 545261536
I1121 09:50:33.080993  1766 layer_factory.hpp:77] Creating layer conv2_2
I1121 09:50:33.081010  1766 net.cpp:100] Creating Layer conv2_2
I1121 09:50:33.081015  1766 net.cpp:434] conv2_2 <- conv2_1
I1121 09:50:33.081024  1766 net.cpp:408] conv2_2 -> conv2_2
I1121 09:50:33.083596  1766 net.cpp:150] Setting up conv2_2
I1121 09:50:33.083613  1766 net.cpp:157] Top shape: 1 128 287 349 (12820864)
I1121 09:50:33.083618  1766 net.cpp:165] Memory required for data: 596544992
I1121 09:50:33.083628  1766 layer_factory.hpp:77] Creating layer relu2_2
I1121 09:50:33.083637  1766 net.cpp:100] Creating Layer relu2_2
I1121 09:50:33.083642  1766 net.cpp:434] relu2_2 <- conv2_2
I1121 09:50:33.083648  1766 net.cpp:395] relu2_2 -> conv2_2 (in-place)
I1121 09:50:33.084012  1766 net.cpp:150] Setting up relu2_2
I1121 09:50:33.084025  1766 net.cpp:157] Top shape: 1 128 287 349 (12820864)
I1121 09:50:33.084029  1766 net.cpp:165] Memory required for data: 647828448
I1121 09:50:33.084045  1766 layer_factory.hpp:77] Creating layer pool2
I1121 09:50:33.084056  1766 net.cpp:100] Creating Layer pool2
I1121 09:50:33.084061  1766 net.cpp:434] pool2 <- conv2_2
I1121 09:50:33.084067  1766 net.cpp:408] pool2 -> pool2
I1121 09:50:33.084120  1766 net.cpp:150] Setting up pool2
I1121 09:50:33.084127  1766 net.cpp:157] Top shape: 1 128 144 175 (3225600)
I1121 09:50:33.084131  1766 net.cpp:165] Memory required for data: 660730848
I1121 09:50:33.084136  1766 layer_factory.hpp:77] Creating layer conv3_1
I1121 09:50:33.084147  1766 net.cpp:100] Creating Layer conv3_1
I1121 09:50:33.084151  1766 net.cpp:434] conv3_1 <- pool2
I1121 09:50:33.084163  1766 net.cpp:408] conv3_1 -> conv3_1
I1121 09:50:33.087292  1766 net.cpp:150] Setting up conv3_1
I1121 09:50:33.087311  1766 net.cpp:157] Top shape: 1 256 144 175 (6451200)
I1121 09:50:33.087316  1766 net.cpp:165] Memory required for data: 686535648
I1121 09:50:33.087327  1766 layer_factory.hpp:77] Creating layer relu3_1
I1121 09:50:33.087335  1766 net.cpp:100] Creating Layer relu3_1
I1121 09:50:33.087340  1766 net.cpp:434] relu3_1 <- conv3_1
I1121 09:50:33.087347  1766 net.cpp:395] relu3_1 -> conv3_1 (in-place)
I1121 09:50:33.087713  1766 net.cpp:150] Setting up relu3_1
I1121 09:50:33.087728  1766 net.cpp:157] Top shape: 1 256 144 175 (6451200)
I1121 09:50:33.087733  1766 net.cpp:165] Memory required for data: 712340448
I1121 09:50:33.087736  1766 layer_factory.hpp:77] Creating layer conv3_2
I1121 09:50:33.087751  1766 net.cpp:100] Creating Layer conv3_2
I1121 09:50:33.087756  1766 net.cpp:434] conv3_2 <- conv3_1
I1121 09:50:33.087764  1766 net.cpp:408] conv3_2 -> conv3_2
I1121 09:50:33.093052  1766 net.cpp:150] Setting up conv3_2
I1121 09:50:33.093070  1766 net.cpp:157] Top shape: 1 256 144 175 (6451200)
I1121 09:50:33.093073  1766 net.cpp:165] Memory required for data: 738145248
I1121 09:50:33.093081  1766 layer_factory.hpp:77] Creating layer relu3_2
I1121 09:50:33.093091  1766 net.cpp:100] Creating Layer relu3_2
I1121 09:50:33.093094  1766 net.cpp:434] relu3_2 <- conv3_2
I1121 09:50:33.093103  1766 net.cpp:395] relu3_2 -> conv3_2 (in-place)
I1121 09:50:33.093296  1766 net.cpp:150] Setting up relu3_2
I1121 09:50:33.093305  1766 net.cpp:157] Top shape: 1 256 144 175 (6451200)
I1121 09:50:33.093310  1766 net.cpp:165] Memory required for data: 763950048
I1121 09:50:33.093314  1766 layer_factory.hpp:77] Creating layer conv3_3
I1121 09:50:33.093329  1766 net.cpp:100] Creating Layer conv3_3
I1121 09:50:33.093334  1766 net.cpp:434] conv3_3 <- conv3_2
I1121 09:50:33.093343  1766 net.cpp:408] conv3_3 -> conv3_3
I1121 09:50:33.098623  1766 net.cpp:150] Setting up conv3_3
I1121 09:50:33.098639  1766 net.cpp:157] Top shape: 1 256 144 175 (6451200)
I1121 09:50:33.098644  1766 net.cpp:165] Memory required for data: 789754848
I1121 09:50:33.098652  1766 layer_factory.hpp:77] Creating layer relu3_3
I1121 09:50:33.098662  1766 net.cpp:100] Creating Layer relu3_3
I1121 09:50:33.098667  1766 net.cpp:434] relu3_3 <- conv3_3
I1121 09:50:33.098675  1766 net.cpp:395] relu3_3 -> conv3_3 (in-place)
I1121 09:50:33.099042  1766 net.cpp:150] Setting up relu3_3
I1121 09:50:33.099056  1766 net.cpp:157] Top shape: 1 256 144 175 (6451200)
I1121 09:50:33.099061  1766 net.cpp:165] Memory required for data: 815559648
I1121 09:50:33.099066  1766 layer_factory.hpp:77] Creating layer pool3
I1121 09:50:33.099076  1766 net.cpp:100] Creating Layer pool3
I1121 09:50:33.099081  1766 net.cpp:434] pool3 <- conv3_3
I1121 09:50:33.099087  1766 net.cpp:408] pool3 -> pool3
I1121 09:50:33.099140  1766 net.cpp:150] Setting up pool3
I1121 09:50:33.099148  1766 net.cpp:157] Top shape: 1 256 72 88 (1622016)
I1121 09:50:33.099153  1766 net.cpp:165] Memory required for data: 822047712
I1121 09:50:33.099156  1766 layer_factory.hpp:77] Creating layer pool3_pool3_0_split
I1121 09:50:33.099164  1766 net.cpp:100] Creating Layer pool3_pool3_0_split
I1121 09:50:33.099169  1766 net.cpp:434] pool3_pool3_0_split <- pool3
I1121 09:50:33.099176  1766 net.cpp:408] pool3_pool3_0_split -> pool3_pool3_0_split_0
I1121 09:50:33.099190  1766 net.cpp:408] pool3_pool3_0_split -> pool3_pool3_0_split_1
I1121 09:50:33.099236  1766 net.cpp:150] Setting up pool3_pool3_0_split
I1121 09:50:33.099246  1766 net.cpp:157] Top shape: 1 256 72 88 (1622016)
I1121 09:50:33.099251  1766 net.cpp:157] Top shape: 1 256 72 88 (1622016)
I1121 09:50:33.099254  1766 net.cpp:165] Memory required for data: 835023840
I1121 09:50:33.099258  1766 layer_factory.hpp:77] Creating layer conv4_1
I1121 09:50:33.099268  1766 net.cpp:100] Creating Layer conv4_1
I1121 09:50:33.099273  1766 net.cpp:434] conv4_1 <- pool3_pool3_0_split_0
I1121 09:50:33.099282  1766 net.cpp:408] conv4_1 -> conv4_1
I1121 09:50:33.109730  1766 net.cpp:150] Setting up conv4_1
I1121 09:50:33.109756  1766 net.cpp:157] Top shape: 1 512 72 88 (3244032)
I1121 09:50:33.109761  1766 net.cpp:165] Memory required for data: 847999968
I1121 09:50:33.109771  1766 layer_factory.hpp:77] Creating layer relu4_1
I1121 09:50:33.109779  1766 net.cpp:100] Creating Layer relu4_1
I1121 09:50:33.109784  1766 net.cpp:434] relu4_1 <- conv4_1
I1121 09:50:33.109793  1766 net.cpp:395] relu4_1 -> conv4_1 (in-place)
I1121 09:50:33.110168  1766 net.cpp:150] Setting up relu4_1
I1121 09:50:33.110183  1766 net.cpp:157] Top shape: 1 512 72 88 (3244032)
I1121 09:50:33.110186  1766 net.cpp:165] Memory required for data: 860976096
I1121 09:50:33.110191  1766 layer_factory.hpp:77] Creating layer conv4_2
I1121 09:50:33.110204  1766 net.cpp:100] Creating Layer conv4_2
I1121 09:50:33.110210  1766 net.cpp:434] conv4_2 <- conv4_1
I1121 09:50:33.110219  1766 net.cpp:408] conv4_2 -> conv4_2
I1121 09:50:33.127499  1766 net.cpp:150] Setting up conv4_2
I1121 09:50:33.127528  1766 net.cpp:157] Top shape: 1 512 72 88 (3244032)
I1121 09:50:33.127533  1766 net.cpp:165] Memory required for data: 873952224
I1121 09:50:33.127550  1766 layer_factory.hpp:77] Creating layer relu4_2
I1121 09:50:33.127560  1766 net.cpp:100] Creating Layer relu4_2
I1121 09:50:33.127566  1766 net.cpp:434] relu4_2 <- conv4_2
I1121 09:50:33.127573  1766 net.cpp:395] relu4_2 -> conv4_2 (in-place)
I1121 09:50:33.127774  1766 net.cpp:150] Setting up relu4_2
I1121 09:50:33.127786  1766 net.cpp:157] Top shape: 1 512 72 88 (3244032)
I1121 09:50:33.127790  1766 net.cpp:165] Memory required for data: 886928352
I1121 09:50:33.127795  1766 layer_factory.hpp:77] Creating layer conv4_3
I1121 09:50:33.127809  1766 net.cpp:100] Creating Layer conv4_3
I1121 09:50:33.127813  1766 net.cpp:434] conv4_3 <- conv4_2
I1121 09:50:33.127821  1766 net.cpp:408] conv4_3 -> conv4_3
I1121 09:50:33.145035  1766 net.cpp:150] Setting up conv4_3
I1121 09:50:33.145064  1766 net.cpp:157] Top shape: 1 512 72 88 (3244032)
I1121 09:50:33.145069  1766 net.cpp:165] Memory required for data: 899904480
I1121 09:50:33.145079  1766 layer_factory.hpp:77] Creating layer relu4_3
I1121 09:50:33.145089  1766 net.cpp:100] Creating Layer relu4_3
I1121 09:50:33.145095  1766 net.cpp:434] relu4_3 <- conv4_3
I1121 09:50:33.145104  1766 net.cpp:395] relu4_3 -> conv4_3 (in-place)
I1121 09:50:33.145473  1766 net.cpp:150] Setting up relu4_3
I1121 09:50:33.145486  1766 net.cpp:157] Top shape: 1 512 72 88 (3244032)
I1121 09:50:33.145490  1766 net.cpp:165] Memory required for data: 912880608
I1121 09:50:33.145495  1766 layer_factory.hpp:77] Creating layer pool4
I1121 09:50:33.145505  1766 net.cpp:100] Creating Layer pool4
I1121 09:50:33.145510  1766 net.cpp:434] pool4 <- conv4_3
I1121 09:50:33.145519  1766 net.cpp:408] pool4 -> pool4
I1121 09:50:33.145571  1766 net.cpp:150] Setting up pool4
I1121 09:50:33.145579  1766 net.cpp:157] Top shape: 1 512 36 44 (811008)
I1121 09:50:33.145583  1766 net.cpp:165] Memory required for data: 916124640
I1121 09:50:33.145587  1766 layer_factory.hpp:77] Creating layer pool4_pool4_0_split
I1121 09:50:33.145597  1766 net.cpp:100] Creating Layer pool4_pool4_0_split
I1121 09:50:33.145601  1766 net.cpp:434] pool4_pool4_0_split <- pool4
I1121 09:50:33.145608  1766 net.cpp:408] pool4_pool4_0_split -> pool4_pool4_0_split_0
I1121 09:50:33.145615  1766 net.cpp:408] pool4_pool4_0_split -> pool4_pool4_0_split_1
I1121 09:50:33.145658  1766 net.cpp:150] Setting up pool4_pool4_0_split
I1121 09:50:33.145675  1766 net.cpp:157] Top shape: 1 512 36 44 (811008)
I1121 09:50:33.145681  1766 net.cpp:157] Top shape: 1 512 36 44 (811008)
I1121 09:50:33.145684  1766 net.cpp:165] Memory required for data: 922612704
I1121 09:50:33.145689  1766 layer_factory.hpp:77] Creating layer conv5_1
I1121 09:50:33.145702  1766 net.cpp:100] Creating Layer conv5_1
I1121 09:50:33.145707  1766 net.cpp:434] conv5_1 <- pool4_pool4_0_split_0
I1121 09:50:33.145716  1766 net.cpp:408] conv5_1 -> conv5_1
I1121 09:50:33.162797  1766 net.cpp:150] Setting up conv5_1
I1121 09:50:33.162828  1766 net.cpp:157] Top shape: 1 512 36 44 (811008)
I1121 09:50:33.162832  1766 net.cpp:165] Memory required for data: 925856736
I1121 09:50:33.162842  1766 layer_factory.hpp:77] Creating layer relu5_1
I1121 09:50:33.162853  1766 net.cpp:100] Creating Layer relu5_1
I1121 09:50:33.162858  1766 net.cpp:434] relu5_1 <- conv5_1
I1121 09:50:33.162865  1766 net.cpp:395] relu5_1 -> conv5_1 (in-place)
I1121 09:50:33.163241  1766 net.cpp:150] Setting up relu5_1
I1121 09:50:33.163256  1766 net.cpp:157] Top shape: 1 512 36 44 (811008)
I1121 09:50:33.163260  1766 net.cpp:165] Memory required for data: 929100768
I1121 09:50:33.163265  1766 layer_factory.hpp:77] Creating layer conv5_2
I1121 09:50:33.163283  1766 net.cpp:100] Creating Layer conv5_2
I1121 09:50:33.163288  1766 net.cpp:434] conv5_2 <- conv5_1
I1121 09:50:33.163296  1766 net.cpp:408] conv5_2 -> conv5_2
I1121 09:50:33.180620  1766 net.cpp:150] Setting up conv5_2
I1121 09:50:33.180652  1766 net.cpp:157] Top shape: 1 512 36 44 (811008)
I1121 09:50:33.180656  1766 net.cpp:165] Memory required for data: 932344800
I1121 09:50:33.180666  1766 layer_factory.hpp:77] Creating layer relu5_2
I1121 09:50:33.180675  1766 net.cpp:100] Creating Layer relu5_2
I1121 09:50:33.180680  1766 net.cpp:434] relu5_2 <- conv5_2
I1121 09:50:33.180687  1766 net.cpp:395] relu5_2 -> conv5_2 (in-place)
I1121 09:50:33.180888  1766 net.cpp:150] Setting up relu5_2
I1121 09:50:33.180899  1766 net.cpp:157] Top shape: 1 512 36 44 (811008)
I1121 09:50:33.180903  1766 net.cpp:165] Memory required for data: 935588832
I1121 09:50:33.180907  1766 layer_factory.hpp:77] Creating layer conv5_3
I1121 09:50:33.180927  1766 net.cpp:100] Creating Layer conv5_3
I1121 09:50:33.180932  1766 net.cpp:434] conv5_3 <- conv5_2
I1121 09:50:33.180940  1766 net.cpp:408] conv5_3 -> conv5_3
I1121 09:50:33.198150  1766 net.cpp:150] Setting up conv5_3
I1121 09:50:33.198176  1766 net.cpp:157] Top shape: 1 512 36 44 (811008)
I1121 09:50:33.198181  1766 net.cpp:165] Memory required for data: 938832864
I1121 09:50:33.198190  1766 layer_factory.hpp:77] Creating layer relu5_3
I1121 09:50:33.198202  1766 net.cpp:100] Creating Layer relu5_3
I1121 09:50:33.198207  1766 net.cpp:434] relu5_3 <- conv5_3
I1121 09:50:33.198215  1766 net.cpp:395] relu5_3 -> conv5_3 (in-place)
I1121 09:50:33.198765  1766 net.cpp:150] Setting up relu5_3
I1121 09:50:33.198779  1766 net.cpp:157] Top shape: 1 512 36 44 (811008)
I1121 09:50:33.198783  1766 net.cpp:165] Memory required for data: 942076896
I1121 09:50:33.198788  1766 layer_factory.hpp:77] Creating layer pool5
I1121 09:50:33.198799  1766 net.cpp:100] Creating Layer pool5
I1121 09:50:33.198804  1766 net.cpp:434] pool5 <- conv5_3
I1121 09:50:33.198812  1766 net.cpp:408] pool5 -> pool5
I1121 09:50:33.198868  1766 net.cpp:150] Setting up pool5
I1121 09:50:33.198875  1766 net.cpp:157] Top shape: 1 512 18 22 (202752)
I1121 09:50:33.198879  1766 net.cpp:165] Memory required for data: 942887904
I1121 09:50:33.198884  1766 layer_factory.hpp:77] Creating layer fc6
I1121 09:50:33.198896  1766 net.cpp:100] Creating Layer fc6
I1121 09:50:33.198900  1766 net.cpp:434] fc6 <- pool5
I1121 09:50:33.198909  1766 net.cpp:408] fc6 -> fc6
I1121 09:50:33.920568  1766 net.cpp:150] Setting up fc6
I1121 09:50:33.920624  1766 net.cpp:157] Top shape: 1 4096 12 16 (786432)
I1121 09:50:33.920629  1766 net.cpp:165] Memory required for data: 946033632
I1121 09:50:33.920642  1766 layer_factory.hpp:77] Creating layer relu6
I1121 09:50:33.920670  1766 net.cpp:100] Creating Layer relu6
I1121 09:50:33.920675  1766 net.cpp:434] relu6 <- fc6
I1121 09:50:33.920683  1766 net.cpp:395] relu6 -> fc6 (in-place)
I1121 09:50:33.921066  1766 net.cpp:150] Setting up relu6
I1121 09:50:33.921080  1766 net.cpp:157] Top shape: 1 4096 12 16 (786432)
I1121 09:50:33.921084  1766 net.cpp:165] Memory required for data: 949179360
I1121 09:50:33.921089  1766 layer_factory.hpp:77] Creating layer drop6
I1121 09:50:33.921108  1766 net.cpp:100] Creating Layer drop6
I1121 09:50:33.921113  1766 net.cpp:434] drop6 <- fc6
I1121 09:50:33.921121  1766 net.cpp:395] drop6 -> fc6 (in-place)
I1121 09:50:33.921160  1766 net.cpp:150] Setting up drop6
I1121 09:50:33.921169  1766 net.cpp:157] Top shape: 1 4096 12 16 (786432)
I1121 09:50:33.921171  1766 net.cpp:165] Memory required for data: 952325088
I1121 09:50:33.921175  1766 layer_factory.hpp:77] Creating layer fc7
I1121 09:50:33.921190  1766 net.cpp:100] Creating Layer fc7
I1121 09:50:33.921195  1766 net.cpp:434] fc7 <- fc6
I1121 09:50:33.921203  1766 net.cpp:408] fc7 -> fc7
I1121 09:50:34.040572  1766 net.cpp:150] Setting up fc7
I1121 09:50:34.040627  1766 net.cpp:157] Top shape: 1 4096 12 16 (786432)
I1121 09:50:34.040632  1766 net.cpp:165] Memory required for data: 955470816
I1121 09:50:34.040644  1766 layer_factory.hpp:77] Creating layer relu7
I1121 09:50:34.040658  1766 net.cpp:100] Creating Layer relu7
I1121 09:50:34.040665  1766 net.cpp:434] relu7 <- fc7
I1121 09:50:34.040675  1766 net.cpp:395] relu7 -> fc7 (in-place)
I1121 09:50:34.040886  1766 net.cpp:150] Setting up relu7
I1121 09:50:34.040897  1766 net.cpp:157] Top shape: 1 4096 12 16 (786432)
I1121 09:50:34.040901  1766 net.cpp:165] Memory required for data: 958616544
I1121 09:50:34.040905  1766 layer_factory.hpp:77] Creating layer drop7
I1121 09:50:34.040916  1766 net.cpp:100] Creating Layer drop7
I1121 09:50:34.040921  1766 net.cpp:434] drop7 <- fc7
I1121 09:50:34.040927  1766 net.cpp:395] drop7 -> fc7 (in-place)
I1121 09:50:34.040966  1766 net.cpp:150] Setting up drop7
I1121 09:50:34.040973  1766 net.cpp:157] Top shape: 1 4096 12 16 (786432)
I1121 09:50:34.040977  1766 net.cpp:165] Memory required for data: 961762272
I1121 09:50:34.040982  1766 layer_factory.hpp:77] Creating layer score_fr
I1121 09:50:34.040994  1766 net.cpp:100] Creating Layer score_fr
I1121 09:50:34.040999  1766 net.cpp:434] score_fr <- fc7
I1121 09:50:34.041008  1766 net.cpp:408] score_fr -> score_fr
I1121 09:50:34.042385  1766 net.cpp:150] Setting up score_fr
I1121 09:50:34.042400  1766 net.cpp:157] Top shape: 1 6 12 16 (1152)
I1121 09:50:34.042405  1766 net.cpp:165] Memory required for data: 961766880
I1121 09:50:34.042413  1766 layer_factory.hpp:77] Creating layer upscore2
I1121 09:50:34.042431  1766 net.cpp:100] Creating Layer upscore2
I1121 09:50:34.042436  1766 net.cpp:434] upscore2 <- score_fr
I1121 09:50:34.042444  1766 net.cpp:408] upscore2 -> upscore2
I1121 09:50:34.042665  1766 net.cpp:150] Setting up upscore2
I1121 09:50:34.042675  1766 net.cpp:157] Top shape: 1 6 26 34 (5304)
I1121 09:50:34.042678  1766 net.cpp:165] Memory required for data: 961788096
I1121 09:50:34.042695  1766 layer_factory.hpp:77] Creating layer upscore2_upscore2_0_split
I1121 09:50:34.042704  1766 net.cpp:100] Creating Layer upscore2_upscore2_0_split
I1121 09:50:34.042709  1766 net.cpp:434] upscore2_upscore2_0_split <- upscore2
I1121 09:50:34.042716  1766 net.cpp:408] upscore2_upscore2_0_split -> upscore2_upscore2_0_split_0
I1121 09:50:34.042724  1766 net.cpp:408] upscore2_upscore2_0_split -> upscore2_upscore2_0_split_1
I1121 09:50:34.042768  1766 net.cpp:150] Setting up upscore2_upscore2_0_split
I1121 09:50:34.042776  1766 net.cpp:157] Top shape: 1 6 26 34 (5304)
I1121 09:50:34.042781  1766 net.cpp:157] Top shape: 1 6 26 34 (5304)
I1121 09:50:34.042785  1766 net.cpp:165] Memory required for data: 961830528
I1121 09:50:34.042789  1766 layer_factory.hpp:77] Creating layer scale_pool4
I1121 09:50:34.042801  1766 net.cpp:100] Creating Layer scale_pool4
I1121 09:50:34.042806  1766 net.cpp:434] scale_pool4 <- pool4_pool4_0_split_1
I1121 09:50:34.042829  1766 net.cpp:408] scale_pool4 -> scale_pool4
I1121 09:50:34.042946  1766 net.cpp:150] Setting up scale_pool4
I1121 09:50:34.042955  1766 net.cpp:157] Top shape: 1 512 36 44 (811008)
I1121 09:50:34.042959  1766 net.cpp:165] Memory required for data: 965074560
I1121 09:50:34.042965  1766 layer_factory.hpp:77] Creating layer score_pool4
I1121 09:50:34.042978  1766 net.cpp:100] Creating Layer score_pool4
I1121 09:50:34.042982  1766 net.cpp:434] score_pool4 <- scale_pool4
I1121 09:50:34.042991  1766 net.cpp:408] score_pool4 -> score_pool4
I1121 09:50:34.044271  1766 net.cpp:150] Setting up score_pool4
I1121 09:50:34.044287  1766 net.cpp:157] Top shape: 1 6 36 44 (9504)
I1121 09:50:34.044292  1766 net.cpp:165] Memory required for data: 965112576
I1121 09:50:34.044301  1766 layer_factory.hpp:77] Creating layer score_pool4c
I1121 09:50:34.044313  1766 net.cpp:100] Creating Layer score_pool4c
I1121 09:50:34.044319  1766 net.cpp:434] score_pool4c <- score_pool4
I1121 09:50:34.044325  1766 net.cpp:434] score_pool4c <- upscore2_upscore2_0_split_0
I1121 09:50:34.044332  1766 net.cpp:408] score_pool4c -> score_pool4c
I1121 09:50:34.044371  1766 net.cpp:150] Setting up score_pool4c
I1121 09:50:34.044379  1766 net.cpp:157] Top shape: 1 6 26 34 (5304)
I1121 09:50:34.044383  1766 net.cpp:165] Memory required for data: 965133792
I1121 09:50:34.044386  1766 layer_factory.hpp:77] Creating layer fuse_pool4
I1121 09:50:34.044397  1766 net.cpp:100] Creating Layer fuse_pool4
I1121 09:50:34.044401  1766 net.cpp:434] fuse_pool4 <- upscore2_upscore2_0_split_1
I1121 09:50:34.044406  1766 net.cpp:434] fuse_pool4 <- score_pool4c
I1121 09:50:34.044415  1766 net.cpp:408] fuse_pool4 -> fuse_pool4
I1121 09:50:34.044450  1766 net.cpp:150] Setting up fuse_pool4
I1121 09:50:34.044456  1766 net.cpp:157] Top shape: 1 6 26 34 (5304)
I1121 09:50:34.044461  1766 net.cpp:165] Memory required for data: 965155008
I1121 09:50:34.044464  1766 layer_factory.hpp:77] Creating layer upscore_pool4
I1121 09:50:34.044472  1766 net.cpp:100] Creating Layer upscore_pool4
I1121 09:50:34.044477  1766 net.cpp:434] upscore_pool4 <- fuse_pool4
I1121 09:50:34.044486  1766 net.cpp:408] upscore_pool4 -> upscore_pool4
I1121 09:50:34.044692  1766 net.cpp:150] Setting up upscore_pool4
I1121 09:50:34.044701  1766 net.cpp:157] Top shape: 1 6 54 70 (22680)
I1121 09:50:34.044705  1766 net.cpp:165] Memory required for data: 965245728
I1121 09:50:34.044710  1766 layer_factory.hpp:77] Creating layer upscore_pool4_upscore_pool4_0_split
I1121 09:50:34.044720  1766 net.cpp:100] Creating Layer upscore_pool4_upscore_pool4_0_split
I1121 09:50:34.044724  1766 net.cpp:434] upscore_pool4_upscore_pool4_0_split <- upscore_pool4
I1121 09:50:34.044730  1766 net.cpp:408] upscore_pool4_upscore_pool4_0_split -> upscore_pool4_upscore_pool4_0_split_0
I1121 09:50:34.044739  1766 net.cpp:408] upscore_pool4_upscore_pool4_0_split -> upscore_pool4_upscore_pool4_0_split_1
I1121 09:50:34.044778  1766 net.cpp:150] Setting up upscore_pool4_upscore_pool4_0_split
I1121 09:50:34.044785  1766 net.cpp:157] Top shape: 1 6 54 70 (22680)
I1121 09:50:34.044790  1766 net.cpp:157] Top shape: 1 6 54 70 (22680)
I1121 09:50:34.044795  1766 net.cpp:165] Memory required for data: 965427168
I1121 09:50:34.044798  1766 layer_factory.hpp:77] Creating layer scale_pool3
I1121 09:50:34.044806  1766 net.cpp:100] Creating Layer scale_pool3
I1121 09:50:34.044811  1766 net.cpp:434] scale_pool3 <- pool3_pool3_0_split_1
I1121 09:50:34.044817  1766 net.cpp:408] scale_pool3 -> scale_pool3
I1121 09:50:34.044926  1766 net.cpp:150] Setting up scale_pool3
I1121 09:50:34.044935  1766 net.cpp:157] Top shape: 1 256 72 88 (1622016)
I1121 09:50:34.044939  1766 net.cpp:165] Memory required for data: 971915232
I1121 09:50:34.044945  1766 layer_factory.hpp:77] Creating layer score_pool3
I1121 09:50:34.044956  1766 net.cpp:100] Creating Layer score_pool3
I1121 09:50:34.044961  1766 net.cpp:434] score_pool3 <- scale_pool3
I1121 09:50:34.044970  1766 net.cpp:408] score_pool3 -> score_pool3
I1121 09:50:34.046191  1766 net.cpp:150] Setting up score_pool3
I1121 09:50:34.046212  1766 net.cpp:157] Top shape: 1 6 72 88 (38016)
I1121 09:50:34.046217  1766 net.cpp:165] Memory required for data: 972067296
I1121 09:50:34.046226  1766 layer_factory.hpp:77] Creating layer score_pool3c
I1121 09:50:34.046234  1766 net.cpp:100] Creating Layer score_pool3c
I1121 09:50:34.046239  1766 net.cpp:434] score_pool3c <- score_pool3
I1121 09:50:34.046246  1766 net.cpp:434] score_pool3c <- upscore_pool4_upscore_pool4_0_split_0
I1121 09:50:34.046254  1766 net.cpp:408] score_pool3c -> score_pool3c
I1121 09:50:34.046288  1766 net.cpp:150] Setting up score_pool3c
I1121 09:50:34.046298  1766 net.cpp:157] Top shape: 1 6 54 70 (22680)
I1121 09:50:34.046301  1766 net.cpp:165] Memory required for data: 972158016
I1121 09:50:34.046305  1766 layer_factory.hpp:77] Creating layer fuse_pool3
I1121 09:50:34.046313  1766 net.cpp:100] Creating Layer fuse_pool3
I1121 09:50:34.046316  1766 net.cpp:434] fuse_pool3 <- upscore_pool4_upscore_pool4_0_split_1
I1121 09:50:34.046322  1766 net.cpp:434] fuse_pool3 <- score_pool3c
I1121 09:50:34.046329  1766 net.cpp:408] fuse_pool3 -> fuse_pool3
I1121 09:50:34.046358  1766 net.cpp:150] Setting up fuse_pool3
I1121 09:50:34.046365  1766 net.cpp:157] Top shape: 1 6 54 70 (22680)
I1121 09:50:34.046368  1766 net.cpp:165] Memory required for data: 972248736
I1121 09:50:34.046372  1766 layer_factory.hpp:77] Creating layer upscore8
I1121 09:50:34.046382  1766 net.cpp:100] Creating Layer upscore8
I1121 09:50:34.046387  1766 net.cpp:434] upscore8 <- fuse_pool3
I1121 09:50:34.046396  1766 net.cpp:408] upscore8 -> upscore8
I1121 09:50:34.046659  1766 net.cpp:150] Setting up upscore8
I1121 09:50:34.046669  1766 net.cpp:157] Top shape: 1 6 440 568 (1499520)
I1121 09:50:34.046672  1766 net.cpp:165] Memory required for data: 978246816
I1121 09:50:34.046679  1766 layer_factory.hpp:77] Creating layer score
I1121 09:50:34.046689  1766 net.cpp:100] Creating Layer score
I1121 09:50:34.046694  1766 net.cpp:434] score <- upscore8
I1121 09:50:34.046699  1766 net.cpp:434] score <- data_data_0_split_1
I1121 09:50:34.046705  1766 net.cpp:408] score -> score
I1121 09:50:34.046732  1766 net.cpp:150] Setting up score
I1121 09:50:34.046739  1766 net.cpp:157] Top shape: 1 6 375 500 (1125000)
I1121 09:50:34.046743  1766 net.cpp:165] Memory required for data: 982746816
I1121 09:50:34.046747  1766 layer_factory.hpp:77] Creating layer loss
I1121 09:50:34.046757  1766 net.cpp:100] Creating Layer loss
I1121 09:50:34.046762  1766 net.cpp:434] loss <- score
I1121 09:50:34.046769  1766 net.cpp:434] loss <- label
I1121 09:50:34.046777  1766 net.cpp:408] loss -> loss
I1121 09:50:34.046790  1766 layer_factory.hpp:77] Creating layer loss
…
I1121 09:50:34.050022  1766 net.cpp:283] Network initialization done.
I1121 09:50:34.051254  1766 solver.cpp:181] Creating test net (#0) specified by test_net file: val.prototxt
I1121 09:50:34.051630  1766 net.cpp:58] Initializing net from parameters: 
state {
  phase: TEST
}
layer {
  name: "data"
  type: "Python"
  top: "data"
  top: "label"
  python_param {
    module: "voc_layers"
    layer: "PartialVOCSegDataLayer"
    param_str: "{\'voc_dir\': \'../data/pascal-obfuscated/VOC2011\', \'seed\': 1337, \'split\': \'seg11valid5\', \'mean\': (104.00699, 116.66877, 122.67892)}"
  }
}
layer {
  name: "conv1_1"
  type: "Convolution"
  bottom: "data"
  top: "conv1_1"
  param {
    lr_mult: 1
    decay_mult: 1
  }
  param {
    lr_mult: 2
    decay_mult: 0
  }
  convolution_param {
    num_output: 64
    pad: 100
    kernel_size: 3
    stride: 1
    weight_filler {
      type: "xavier"
    }
  }
}
layer {
  name: "relu1_1"
  type: "ReLU"
  bottom: "conv1_1"
  top: "conv1_1"
}
layer {
  name: "conv1_2"
  type: "Convolution"
  bottom: "conv1_1"
  top: "conv1_2"
  param {
    lr_mult: 1
    decay_mult: 1
  }
  param {
    lr_mult: 2
    decay_mult: 0
  }
  convolution_param {
    num_output: 64
    pad: 1
    kernel_size: 3
    stride: 1
    weight_filler {
      type: "xavier"
    }
  }
}
layer {
  name: "relu1_2"
  type: "ReLU"
  bottom: "conv1_2"
  top: "conv1_2"
}
layer {
  name: "pool1"
  type: "Pooling"
  bottom: "conv1_2"
  top: "pool1"
  pooling_param {
    pool: MAX
    kernel_size: 2
    stride: 2
  }
}
layer {
  name: "conv2_1"
  type: "Convolution"
  bottom: "pool1"
  top: "conv2_1"
  param {
    lr_mult: 1
    decay_mult: 1
  }
  param {
    lr_mult: 2
    decay_mult: 0
  }
  convolution_param {
    num_output: 128
    pad: 1
    kernel_size: 3
    stride: 1
    weight_filler {
      type: "xavier"
    }
  }
}
layer {
  name: "relu2_1"
  type: "ReLU"
  bottom: "conv2_1"
  top: "conv2_1"
}
layer {
  name: "conv2_2"
  type: "Convolution"
  bottom: "conv2_1"
  top: "conv2_2"
  param {
    lr_mult: 1
    decay_mult: 1
  }
  param {
    lr_mult: 2
    decay_mult: 0
  }
  convolution_param {
    num_output: 128
    pad: 1
    kernel_size: 3
    stride: 1
    weight_filler {
      type: "xavier"
    }
  }
}
layer {
  name: "relu2_2"
  type: "ReLU"
  bottom: "conv2_2"
  top: "conv2_2"
}
layer {
  name: "pool2"
  type: "Pooling"
  bottom: "conv2_2"
  top: "pool2"
  pooling_param {
    pool: MAX
    kernel_size: 2
    stride: 2
  }
}
layer {
  name: "conv3_1"
  type: "Convolution"
  bottom: "pool2"
  top: "conv3_1"
  param {
    lr_mult: 1
    decay_mult: 1
  }
  param {
    lr_mult: 2
    decay_mult: 0
  }
  convolution_param {
    num_output: 256
    pad: 1
    kernel_size: 3
    stride: 1
    weight_filler {
      type: "xavier"
    }
  }
}
layer {
  name: "relu3_1"
  type: "ReLU"
  bottom: "conv3_1"
  top: "conv3_1"
}
layer {
  name: "conv3_2"
  type: "Convolution"
  bottom: "conv3_1"
  top: "conv3_2"
  param {
    lr_mult: 1
    decay_mult: 1
  }
  param {
    lr_mult: 2
    decay_mult: 0
  }
  convolution_param {
    num_output: 256
    pad: 1
    kernel_size: 3
    stride: 1
    weight_filler {
      type: "xavier"
    }
  }
}
layer {
  name: "relu3_2"
  type: "ReLU"
  bottom: "conv3_2"
  top: "conv3_2"
}
layer {
  name: "conv3_3"
  type: "Convolution"
  bottom: "conv3_2"
  top: "conv3_3"
  param {
    lr_mult: 1
    decay_mult: 1
  }
  param {
    lr_mult: 2
    decay_mult: 0
  }
  convolution_param {
    num_output: 256
    pad: 1
    kernel_size: 3
    stride: 1
    weight_filler {
      type: "xavier"
    }
  }
}
layer {
  name: "relu3_3"
  type: "ReLU"
  bottom: "conv3_3"
  top: "conv3_3"
}
layer {
  name: "pool3"
  type: "Pooling"
  bottom: "conv3_3"
  top: "pool3"
  pooling_param {
    pool: MAX
    kernel_size: 2
    stride: 2
  }
}
layer {
  name: "conv4_1"
  type: "Convolution"
  bottom: "pool3"
  top: "conv4_1"
  param {
    lr_mult: 1
    decay_mult: 1
  }
  param {
    lr_mult: 2
    decay_mult: 0
  }
  convolution_param {
    num_output: 512
    pad: 1
    kernel_size: 3
    stride: 1
    weight_filler {
      type: "xavier"
    }
  }
}
layer {
  name: "relu4_1"
  type: "ReLU"
  bottom: "conv4_1"
  top: "conv4_1"
}
layer {
  name: "conv4_2"
  type: "Convolution"
  bottom: "conv4_1"
  top: "conv4_2"
  param {
    lr_mult: 1
    decay_mult: 1
  }
  param {
    lr_mult: 2
    decay_mult: 0
  }
  convolution_param {
    num_output: 512
    pad: 1
    kernel_size: 3
    stride: 1
    weight_filler {
      type: "xavier"
    }
  }
}
layer {
  name: "relu4_2"
  type: "ReLU"
  bottom: "conv4_2"
  top: "conv4_2"
}
layer {
  name: "conv4_3"
  type: "Convolution"
  bottom: "conv4_2"
  top: "conv4_3"
  param {
    lr_mult: 1
    decay_mult: 1
  }
  param {
    lr_mult: 2
    decay_mult: 0
  }
  convolution_param {
    num_output: 512
    pad: 1
    kernel_size: 3
    stride: 1
    weight_filler {
      type: "xavier"
    }
  }
}
layer {
  name: "relu4_3"
  type: "ReLU"
  bottom: "conv4_3"
  top: "conv4_3"
}
layer {
  name: "pool4"
  type: "Pooling"
  bottom: "conv4_3"
  top: "pool4"
  pooling_param {
    pool: MAX
    kernel_size: 2
    stride: 2
  }
}
layer {
  name: "conv5_1"
  type: "Convolution"
  bottom: "pool4"
  top: "conv5_1"
  param {
    lr_mult: 1
    decay_mult: 1
  }
  param {
    lr_mult: 2
    decay_mult: 0
  }
  convolution_param {
    num_output: 512
    pad: 1
    kernel_size: 3
    stride: 1
    weight_filler {
      type: "xavier"
    }
  }
}
layer {
  name: "relu5_1"
  type: "ReLU"
  bottom: "conv5_1"
  top: "conv5_1"
}
layer {
  name: "conv5_2"
  type: "Convolution"
  bottom: "conv5_1"
  top: "conv5_2"
  param {
    lr_mult: 1
    decay_mult: 1
  }
  param {
    lr_mult: 2
    decay_mult: 0
  }
  convolution_param {
    num_output: 512
    pad: 1
    kernel_size: 3
    stride: 1
    weight_filler {
      type: "xavier"
    }
  }
}
layer {
  name: "relu5_2"
  type: "ReLU"
  bottom: "conv5_2"
  top: "conv5_2"
}
layer {
  name: "conv5_3"
  type: "Convolution"
  bottom: "conv5_2"
  top: "conv5_3"
  param {
    lr_mult: 1
    decay_mult: 1
  }
  param {
    lr_mult: 2
    decay_mult: 0
  }
  convolution_param {
    num_output: 512
    pad: 1
    kernel_size: 3
    stride: 1
    weight_filler {
      type: "xavier"
    }
  }
}
layer {
  name: "relu5_3"
  type: "ReLU"
  bottom: "conv5_3"
  top: "conv5_3"
}
layer {
  name: "pool5"
  type: "Pooling"
  bottom: "conv5_3"
  top: "pool5"
  pooling_param {
    pool: MAX
    kernel_size: 2
    stride: 2
  }
}
layer {
  name: "fc6"
  type: "Convolution"
  bottom: "pool5"
  top: "fc6"
  param {
    lr_mult: 1
    decay_mult: 1
  }
  param {
    lr_mult: 2
    decay_mult: 0
  }
  convolution_param {
    num_output: 4096
    pad: 0
    kernel_size: 7
    stride: 1
    weight_filler {
      type: "xavier"
    }
  }
}
layer {
  name: "relu6"
  type: "ReLU"
  bottom: "fc6"
  top: "fc6"
}
layer {
  name: "drop6"
  type: "Dropout"
  bottom: "fc6"
  top: "fc6"
  dropout_param {
    dropout_ratio: 0.5
  }
}
layer {
  name: "fc7"
  type: "Convolution"
  bottom: "fc6"
  top: "fc7"
  param {
    lr_mult: 1
    decay_mult: 1
  }
  param {
    lr_mult: 2
    decay_mult: 0
  }
  convolution_param {
    num_output: 4096
    pad: 0
    kernel_size: 1
    stride: 1
    weight_filler {
      type: "xavier"
    }
  }
}
layer {
  name: "relu7"
  type: "ReLU"
  bottom: "fc7"
  top: "fc7"
}
layer {
  name: "drop7"
  type: "Dropout"
  bottom: "fc7"
  top: "fc7"
  dropout_param {
    dropout_ratio: 0.5
  }
}
layer {
  name: "score_fr"
  type: "Convolution"
  bottom: "fc7"
  top: "score_fr"
  param {
    lr_mult: 1
    decay_mult: 1
  }
  param {
    lr_mult: 2
    decay_mult: 0
  }
  convolution_param {
    num_output: 6
    pad: 0
    kernel_size: 1
    weight_filler {
      type: "xavier"
    }
  }
}
layer {
  name: "upscore2"
  type: "Deconvolution"
  bottom: "score_fr"
  top: "upscore2"
  param {
    lr_mult: 0
  }
  convolution_param {
    num_output: 6
    bias_term: false
    kernel_size: 4
    stride: 2
    weight_filler {
      type: "xavier"
    }
  }
}
layer {
  name: "scale_pool4"
  type: "Scale"
  bottom: "pool4"
  top: "scale_pool4"
  param {
    lr_mult: 0
  }
  scale_param {
    filler {
      type: "constant"
      value: 0.01
    }
  }
}
layer {
  name: "score_pool4"
  type: "Convolution"
  bottom: "scale_pool4"
  top: "score_pool4"
  param {
    lr_mult: 1
    decay_mult: 1
  }
  param {
    lr_mult: 2
    decay_mult: 0
  }
  convolution_param {
    num_output: 6
    pad: 0
    kernel_size: 1
    weight_filler {
      type: "xavier"
    }
  }
}
layer {
  name: "score_pool4c"
  type: "Crop"
  bottom: "score_pool4"
  bottom: "upscore2"
  top: "score_pool4c"
  crop_param {
    axis: 2
    offset: 5
  }
}
layer {
  name: "fuse_pool4"
  type: "Eltwise"
  bottom: "upscore2"
  bottom: "score_pool4c"
  top: "fuse_pool4"
  eltwise_param {
    operation: SUM
  }
}
layer {
  name: "upscore_pool4"
  type: "Deconvolution"
  bottom: "fuse_pool4"
  top: "upscore_pool4"
  param {
    lr_mult: 0
  }
  convolution_param {
    num_output: 6
    bias_term: false
    kernel_size: 4
    stride: 2
    weight_filler {
      type: "xavier"
    }
  }
}
layer {
  name: "scale_pool3"
  type: "Scale"
  bottom: "pool3"
  top: "scale_pool3"
  param {
    lr_mult: 0
  }
  scale_param {
    filler {
      type: "constant"
      value: 0.0001
    }
  }
}
layer {
  name: "score_pool3"
  type: "Convolution"
  bottom: "scale_pool3"
  top: "score_pool3"
  param {
    lr_mult: 1
    decay_mult: 1
  }
  param {
    lr_mult: 2
    decay_mult: 0
  }
  convolution_param {
    num_output: 6
    pad: 0
    kernel_size: 1
    weight_filler {
      type: "xavier"
    }
  }
}
layer {
  name: "score_pool3c"
  type: "Crop"
  bottom: "score_pool3"
  bottom: "upscore_pool4"
  top: "score_pool3c"
  crop_param {
    axis: 2
    offset: 9
  }
}
layer {
  name: "fuse_pool3"
  type: "Eltwise"
  bottom: "upscore_pool4"
  bottom: "score_pool3c"
  top: "fuse_pool3"
  eltwise_param {
    operation: SUM
  }
}
layer {
  name: "upscore8"
  type: "Deconvolution"
  bottom: "fuse_pool3"
  top: "upscore8"
  param {
    lr_mult: 0
  }
  convolution_param {
    num_output: 6
    bias_term: false
    kernel_size: 16
    stride: 8
    weight_filler {
      type: "xavier"
    }
  }
}
layer {
  name: "score"
  type: "Crop"
  bottom: "upscore8"
  bottom: "data"
  top: "score"
  crop_param {
    axis: 2
    offset: 31
  }
}
layer {
  name: "loss"
  type: "SoftmaxWithLoss"
  bottom: "score"
  bottom: "label"
  top: "loss"
  loss_param {
    ignore_label: 255
    normalize: false
  }
}
I1121 09:50:34.051859  1766 layer_factory.hpp:77] Creating layer data
I1121 09:50:34.051939  1766 net.cpp:100] Creating Layer data
I1121 09:50:34.051949  1766 net.cpp:408] data -> data
I1121 09:50:34.051956  1766 net.cpp:408] data -> label
I1121 09:50:34.069303  1766 net.cpp:150] Setting up data
I1121 09:50:34.069324  1766 net.cpp:157] Top shape: 1 3 335 500 (502500)
I1121 09:50:34.069330  1766 net.cpp:157] Top shape: 1 1 335 500 (167500)
I1121 09:50:34.069334  1766 net.cpp:165] Memory required for data: 2680000
I1121 09:50:34.069340  1766 layer_factory.hpp:77] Creating layer data_data_0_split
I1121 09:50:34.069350  1766 net.cpp:100] Creating Layer data_data_0_split
I1121 09:50:34.069353  1766 net.cpp:434] data_data_0_split <- data
I1121 09:50:34.069360  1766 net.cpp:408] data_data_0_split -> data_data_0_split_0
I1121 09:50:34.069370  1766 net.cpp:408] data_data_0_split -> data_data_0_split_1
I1121 09:50:34.069412  1766 net.cpp:150] Setting up data_data_0_split
I1121 09:50:34.069422  1766 net.cpp:157] Top shape: 1 3 335 500 (502500)
I1121 09:50:34.069427  1766 net.cpp:157] Top shape: 1 3 335 500 (502500)
I1121 09:50:34.069430  1766 net.cpp:165] Memory required for data: 6700000
I1121 09:50:34.069434  1766 layer_factory.hpp:77] Creating layer conv1_1
I1121 09:50:34.069445  1766 net.cpp:100] Creating Layer conv1_1
I1121 09:50:34.069449  1766 net.cpp:434] conv1_1 <- data_data_0_split_0
I1121 09:50:34.069456  1766 net.cpp:408] conv1_1 -> conv1_1
I1121 09:50:34.071702  1766 net.cpp:150] Setting up conv1_1
I1121 09:50:34.071720  1766 net.cpp:157] Top shape: 1 64 533 698 (23810176)
I1121 09:50:34.071725  1766 net.cpp:165] Memory required for data: 101940704
I1121 09:50:34.071738  1766 layer_factory.hpp:77] Creating layer relu1_1
I1121 09:50:34.071746  1766 net.cpp:100] Creating Layer relu1_1
I1121 09:50:34.071751  1766 net.cpp:434] relu1_1 <- conv1_1
I1121 09:50:34.071758  1766 net.cpp:395] relu1_1 -> conv1_1 (in-place)
I1121 09:50:34.071954  1766 net.cpp:150] Setting up relu1_1
I1121 09:50:34.071965  1766 net.cpp:157] Top shape: 1 64 533 698 (23810176)
I1121 09:50:34.071969  1766 net.cpp:165] Memory required for data: 197181408
I1121 09:50:34.071974  1766 layer_factory.hpp:77] Creating layer conv1_2
I1121 09:50:34.071985  1766 net.cpp:100] Creating Layer conv1_2
I1121 09:50:34.071990  1766 net.cpp:434] conv1_2 <- conv1_1
I1121 09:50:34.071997  1766 net.cpp:408] conv1_2 -> conv1_2
I1121 09:50:34.074295  1766 net.cpp:150] Setting up conv1_2
I1121 09:50:34.074312  1766 net.cpp:157] Top shape: 1 64 533 698 (23810176)
I1121 09:50:34.074316  1766 net.cpp:165] Memory required for data: 292422112
I1121 09:50:34.074328  1766 layer_factory.hpp:77] Creating layer relu1_2
I1121 09:50:34.074337  1766 net.cpp:100] Creating Layer relu1_2
I1121 09:50:34.074342  1766 net.cpp:434] relu1_2 <- conv1_2
I1121 09:50:34.074348  1766 net.cpp:395] relu1_2 -> conv1_2 (in-place)
I1121 09:50:34.074717  1766 net.cpp:150] Setting up relu1_2
I1121 09:50:34.074730  1766 net.cpp:157] Top shape: 1 64 533 698 (23810176)
I1121 09:50:34.074734  1766 net.cpp:165] Memory required for data: 387662816
I1121 09:50:34.074739  1766 layer_factory.hpp:77] Creating layer pool1
I1121 09:50:34.074748  1766 net.cpp:100] Creating Layer pool1
I1121 09:50:34.074753  1766 net.cpp:434] pool1 <- conv1_2
I1121 09:50:34.074760  1766 net.cpp:408] pool1 -> pool1
I1121 09:50:34.074812  1766 net.cpp:150] Setting up pool1
I1121 09:50:34.074821  1766 net.cpp:157] Top shape: 1 64 267 349 (5963712)
I1121 09:50:34.074825  1766 net.cpp:165] Memory required for data: 411517664
I1121 09:50:34.074829  1766 layer_factory.hpp:77] Creating layer conv2_1
I1121 09:50:34.074839  1766 net.cpp:100] Creating Layer conv2_1
I1121 09:50:34.074844  1766 net.cpp:434] conv2_1 <- pool1
I1121 09:50:34.074851  1766 net.cpp:408] conv2_1 -> conv2_1
I1121 09:50:34.077128  1766 net.cpp:150] Setting up conv2_1
I1121 09:50:34.077147  1766 net.cpp:157] Top shape: 1 128 267 349 (11927424)
I1121 09:50:34.077152  1766 net.cpp:165] Memory required for data: 459227360
I1121 09:50:34.077162  1766 layer_factory.hpp:77] Creating layer relu2_1
I1121 09:50:34.077172  1766 net.cpp:100] Creating Layer relu2_1
I1121 09:50:34.077177  1766 net.cpp:434] relu2_1 <- conv2_1
I1121 09:50:34.077183  1766 net.cpp:395] relu2_1 -> conv2_1 (in-place)
I1121 09:50:34.077570  1766 net.cpp:150] Setting up relu2_1
I1121 09:50:34.077584  1766 net.cpp:157] Top shape: 1 128 267 349 (11927424)
I1121 09:50:34.077589  1766 net.cpp:165] Memory required for data: 506937056
I1121 09:50:34.077594  1766 layer_factory.hpp:77] Creating layer conv2_2
I1121 09:50:34.077605  1766 net.cpp:100] Creating Layer conv2_2
I1121 09:50:34.077610  1766 net.cpp:434] conv2_2 <- conv2_1
I1121 09:50:34.077618  1766 net.cpp:408] conv2_2 -> conv2_2
I1121 09:50:34.080201  1766 net.cpp:150] Setting up conv2_2
I1121 09:50:34.080219  1766 net.cpp:157] Top shape: 1 128 267 349 (11927424)
I1121 09:50:34.080224  1766 net.cpp:165] Memory required for data: 554646752
I1121 09:50:34.080232  1766 layer_factory.hpp:77] Creating layer relu2_2
I1121 09:50:34.080240  1766 net.cpp:100] Creating Layer relu2_2
I1121 09:50:34.080245  1766 net.cpp:434] relu2_2 <- conv2_2
I1121 09:50:34.080252  1766 net.cpp:395] relu2_2 -> conv2_2 (in-place)
I1121 09:50:34.080445  1766 net.cpp:150] Setting up relu2_2
I1121 09:50:34.080456  1766 net.cpp:157] Top shape: 1 128 267 349 (11927424)
I1121 09:50:34.080459  1766 net.cpp:165] Memory required for data: 602356448
I1121 09:50:34.080464  1766 layer_factory.hpp:77] Creating layer pool2
I1121 09:50:34.080472  1766 net.cpp:100] Creating Layer pool2
I1121 09:50:34.080476  1766 net.cpp:434] pool2 <- conv2_2
I1121 09:50:34.080483  1766 net.cpp:408] pool2 -> pool2
I1121 09:50:34.080535  1766 net.cpp:150] Setting up pool2
I1121 09:50:34.080543  1766 net.cpp:157] Top shape: 1 128 134 175 (3001600)
I1121 09:50:34.080548  1766 net.cpp:165] Memory required for data: 614362848
I1121 09:50:34.080551  1766 layer_factory.hpp:77] Creating layer conv3_1
I1121 09:50:34.080561  1766 net.cpp:100] Creating Layer conv3_1
I1121 09:50:34.080565  1766 net.cpp:434] conv3_1 <- pool2
I1121 09:50:34.080574  1766 net.cpp:408] conv3_1 -> conv3_1
I1121 09:50:34.083905  1766 net.cpp:150] Setting up conv3_1
I1121 09:50:34.083922  1766 net.cpp:157] Top shape: 1 256 134 175 (6003200)
I1121 09:50:34.083927  1766 net.cpp:165] Memory required for data: 638375648
I1121 09:50:34.083938  1766 layer_factory.hpp:77] Creating layer relu3_1
I1121 09:50:34.083955  1766 net.cpp:100] Creating Layer relu3_1
I1121 09:50:34.083961  1766 net.cpp:434] relu3_1 <- conv3_1
I1121 09:50:34.083966  1766 net.cpp:395] relu3_1 -> conv3_1 (in-place)
I1121 09:50:34.084329  1766 net.cpp:150] Setting up relu3_1
I1121 09:50:34.084343  1766 net.cpp:157] Top shape: 1 256 134 175 (6003200)
I1121 09:50:34.084348  1766 net.cpp:165] Memory required for data: 662388448
I1121 09:50:34.084353  1766 layer_factory.hpp:77] Creating layer conv3_2
I1121 09:50:34.084364  1766 net.cpp:100] Creating Layer conv3_2
I1121 09:50:34.084369  1766 net.cpp:434] conv3_2 <- conv3_1
I1121 09:50:34.084378  1766 net.cpp:408] conv3_2 -> conv3_2
I1121 09:50:34.089691  1766 net.cpp:150] Setting up conv3_2
I1121 09:50:34.089709  1766 net.cpp:157] Top shape: 1 256 134 175 (6003200)
I1121 09:50:34.089714  1766 net.cpp:165] Memory required for data: 686401248
I1121 09:50:34.089722  1766 layer_factory.hpp:77] Creating layer relu3_2
I1121 09:50:34.089730  1766 net.cpp:100] Creating Layer relu3_2
I1121 09:50:34.089735  1766 net.cpp:434] relu3_2 <- conv3_2
I1121 09:50:34.089742  1766 net.cpp:395] relu3_2 -> conv3_2 (in-place)
I1121 09:50:34.089929  1766 net.cpp:150] Setting up relu3_2
I1121 09:50:34.089941  1766 net.cpp:157] Top shape: 1 256 134 175 (6003200)
I1121 09:50:34.089944  1766 net.cpp:165] Memory required for data: 710414048
I1121 09:50:34.089948  1766 layer_factory.hpp:77] Creating layer conv3_3
I1121 09:50:34.089962  1766 net.cpp:100] Creating Layer conv3_3
I1121 09:50:34.089967  1766 net.cpp:434] conv3_3 <- conv3_2
I1121 09:50:34.089975  1766 net.cpp:408] conv3_3 -> conv3_3
I1121 09:50:34.095283  1766 net.cpp:150] Setting up conv3_3
I1121 09:50:34.095300  1766 net.cpp:157] Top shape: 1 256 134 175 (6003200)
I1121 09:50:34.095305  1766 net.cpp:165] Memory required for data: 734426848
I1121 09:50:34.095314  1766 layer_factory.hpp:77] Creating layer relu3_3
I1121 09:50:34.095322  1766 net.cpp:100] Creating Layer relu3_3
I1121 09:50:34.095327  1766 net.cpp:434] relu3_3 <- conv3_3
I1121 09:50:34.095335  1766 net.cpp:395] relu3_3 -> conv3_3 (in-place)
I1121 09:50:34.095528  1766 net.cpp:150] Setting up relu3_3
I1121 09:50:34.095540  1766 net.cpp:157] Top shape: 1 256 134 175 (6003200)
I1121 09:50:34.095543  1766 net.cpp:165] Memory required for data: 758439648
I1121 09:50:34.095547  1766 layer_factory.hpp:77] Creating layer pool3
I1121 09:50:34.095556  1766 net.cpp:100] Creating Layer pool3
I1121 09:50:34.095561  1766 net.cpp:434] pool3 <- conv3_3
I1121 09:50:34.095568  1766 net.cpp:408] pool3 -> pool3
I1121 09:50:34.095621  1766 net.cpp:150] Setting up pool3
I1121 09:50:34.095629  1766 net.cpp:157] Top shape: 1 256 67 88 (1509376)
I1121 09:50:34.095633  1766 net.cpp:165] Memory required for data: 764477152
I1121 09:50:34.095638  1766 layer_factory.hpp:77] Creating layer pool3_pool3_0_split
I1121 09:50:34.095645  1766 net.cpp:100] Creating Layer pool3_pool3_0_split
I1121 09:50:34.095649  1766 net.cpp:434] pool3_pool3_0_split <- pool3
I1121 09:50:34.095656  1766 net.cpp:408] pool3_pool3_0_split -> pool3_pool3_0_split_0
I1121 09:50:34.095664  1766 net.cpp:408] pool3_pool3_0_split -> pool3_pool3_0_split_1
I1121 09:50:34.095706  1766 net.cpp:150] Setting up pool3_pool3_0_split
I1121 09:50:34.095715  1766 net.cpp:157] Top shape: 1 256 67 88 (1509376)
I1121 09:50:34.095719  1766 net.cpp:157] Top shape: 1 256 67 88 (1509376)
I1121 09:50:34.095723  1766 net.cpp:165] Memory required for data: 776552160
I1121 09:50:34.095727  1766 layer_factory.hpp:77] Creating layer conv4_1
I1121 09:50:34.095738  1766 net.cpp:100] Creating Layer conv4_1
I1121 09:50:34.095743  1766 net.cpp:434] conv4_1 <- pool3_pool3_0_split_0
I1121 09:50:34.095752  1766 net.cpp:408] conv4_1 -> conv4_1
I1121 09:50:34.104951  1766 net.cpp:150] Setting up conv4_1
I1121 09:50:34.104970  1766 net.cpp:157] Top shape: 1 512 67 88 (3018752)
I1121 09:50:34.104975  1766 net.cpp:165] Memory required for data: 788627168
I1121 09:50:34.104984  1766 layer_factory.hpp:77] Creating layer relu4_1
I1121 09:50:34.104992  1766 net.cpp:100] Creating Layer relu4_1
I1121 09:50:34.104997  1766 net.cpp:434] relu4_1 <- conv4_1
I1121 09:50:34.105012  1766 net.cpp:395] relu4_1 -> conv4_1 (in-place)
I1121 09:50:34.105387  1766 net.cpp:150] Setting up relu4_1
I1121 09:50:34.105401  1766 net.cpp:157] Top shape: 1 512 67 88 (3018752)
I1121 09:50:34.105406  1766 net.cpp:165] Memory required for data: 800702176
I1121 09:50:34.105410  1766 layer_factory.hpp:77] Creating layer conv4_2
I1121 09:50:34.105422  1766 net.cpp:100] Creating Layer conv4_2
I1121 09:50:34.105427  1766 net.cpp:434] conv4_2 <- conv4_1
I1121 09:50:34.105437  1766 net.cpp:408] conv4_2 -> conv4_2
I1121 09:50:34.122679  1766 net.cpp:150] Setting up conv4_2
I1121 09:50:34.122709  1766 net.cpp:157] Top shape: 1 512 67 88 (3018752)
I1121 09:50:34.122714  1766 net.cpp:165] Memory required for data: 812777184
I1121 09:50:34.122728  1766 layer_factory.hpp:77] Creating layer relu4_2
I1121 09:50:34.122738  1766 net.cpp:100] Creating Layer relu4_2
I1121 09:50:34.122745  1766 net.cpp:434] relu4_2 <- conv4_2
I1121 09:50:34.122751  1766 net.cpp:395] relu4_2 -> conv4_2 (in-place)
I1121 09:50:34.122951  1766 net.cpp:150] Setting up relu4_2
I1121 09:50:34.122962  1766 net.cpp:157] Top shape: 1 512 67 88 (3018752)
I1121 09:50:34.122967  1766 net.cpp:165] Memory required for data: 824852192
I1121 09:50:34.122972  1766 layer_factory.hpp:77] Creating layer conv4_3
I1121 09:50:34.122983  1766 net.cpp:100] Creating Layer conv4_3
I1121 09:50:34.122988  1766 net.cpp:434] conv4_3 <- conv4_2
I1121 09:50:34.122997  1766 net.cpp:408] conv4_3 -> conv4_3
I1121 09:50:34.140602  1766 net.cpp:150] Setting up conv4_3
I1121 09:50:34.140642  1766 net.cpp:157] Top shape: 1 512 67 88 (3018752)
I1121 09:50:34.140647  1766 net.cpp:165] Memory required for data: 836927200
I1121 09:50:34.140657  1766 layer_factory.hpp:77] Creating layer relu4_3
I1121 09:50:34.140668  1766 net.cpp:100] Creating Layer relu4_3
I1121 09:50:34.140674  1766 net.cpp:434] relu4_3 <- conv4_3
I1121 09:50:34.140682  1766 net.cpp:395] relu4_3 -> conv4_3 (in-place)
I1121 09:50:34.140893  1766 net.cpp:150] Setting up relu4_3
I1121 09:50:34.140904  1766 net.cpp:157] Top shape: 1 512 67 88 (3018752)
I1121 09:50:34.140908  1766 net.cpp:165] Memory required for data: 849002208
I1121 09:50:34.140913  1766 layer_factory.hpp:77] Creating layer pool4
I1121 09:50:34.140923  1766 net.cpp:100] Creating Layer pool4
I1121 09:50:34.140928  1766 net.cpp:434] pool4 <- conv4_3
I1121 09:50:34.140935  1766 net.cpp:408] pool4 -> pool4
I1121 09:50:34.140992  1766 net.cpp:150] Setting up pool4
I1121 09:50:34.141000  1766 net.cpp:157] Top shape: 1 512 34 44 (765952)
I1121 09:50:34.141005  1766 net.cpp:165] Memory required for data: 852066016
I1121 09:50:34.141008  1766 layer_factory.hpp:77] Creating layer pool4_pool4_0_split
I1121 09:50:34.141017  1766 net.cpp:100] Creating Layer pool4_pool4_0_split
I1121 09:50:34.141021  1766 net.cpp:434] pool4_pool4_0_split <- pool4
I1121 09:50:34.141028  1766 net.cpp:408] pool4_pool4_0_split -> pool4_pool4_0_split_0
I1121 09:50:34.141036  1766 net.cpp:408] pool4_pool4_0_split -> pool4_pool4_0_split_1
I1121 09:50:34.141082  1766 net.cpp:150] Setting up pool4_pool4_0_split
I1121 09:50:34.141088  1766 net.cpp:157] Top shape: 1 512 34 44 (765952)
I1121 09:50:34.141093  1766 net.cpp:157] Top shape: 1 512 34 44 (765952)
I1121 09:50:34.141098  1766 net.cpp:165] Memory required for data: 858193632
I1121 09:50:34.141101  1766 layer_factory.hpp:77] Creating layer conv5_1
I1121 09:50:34.141113  1766 net.cpp:100] Creating Layer conv5_1
I1121 09:50:34.141119  1766 net.cpp:434] conv5_1 <- pool4_pool4_0_split_0
I1121 09:50:34.141126  1766 net.cpp:408] conv5_1 -> conv5_1
I1121 09:50:34.158429  1766 net.cpp:150] Setting up conv5_1
I1121 09:50:34.158458  1766 net.cpp:157] Top shape: 1 512 34 44 (765952)
I1121 09:50:34.158464  1766 net.cpp:165] Memory required for data: 861257440
I1121 09:50:34.158473  1766 layer_factory.hpp:77] Creating layer relu5_1
I1121 09:50:34.158484  1766 net.cpp:100] Creating Layer relu5_1
I1121 09:50:34.158490  1766 net.cpp:434] relu5_1 <- conv5_1
I1121 09:50:34.158499  1766 net.cpp:395] relu5_1 -> conv5_1 (in-place)
I1121 09:50:34.158890  1766 net.cpp:150] Setting up relu5_1
I1121 09:50:34.158903  1766 net.cpp:157] Top shape: 1 512 34 44 (765952)
I1121 09:50:34.158907  1766 net.cpp:165] Memory required for data: 864321248
I1121 09:50:34.158912  1766 layer_factory.hpp:77] Creating layer conv5_2
I1121 09:50:34.158926  1766 net.cpp:100] Creating Layer conv5_2
I1121 09:50:34.158931  1766 net.cpp:434] conv5_2 <- conv5_1
I1121 09:50:34.158939  1766 net.cpp:408] conv5_2 -> conv5_2
I1121 09:50:34.176254  1766 net.cpp:150] Setting up conv5_2
I1121 09:50:34.176283  1766 net.cpp:157] Top shape: 1 512 34 44 (765952)
I1121 09:50:34.176288  1766 net.cpp:165] Memory required for data: 867385056
I1121 09:50:34.176298  1766 layer_factory.hpp:77] Creating layer relu5_2
I1121 09:50:34.176308  1766 net.cpp:100] Creating Layer relu5_2
I1121 09:50:34.176314  1766 net.cpp:434] relu5_2 <- conv5_2
I1121 09:50:34.176322  1766 net.cpp:395] relu5_2 -> conv5_2 (in-place)
I1121 09:50:34.176522  1766 net.cpp:150] Setting up relu5_2
I1121 09:50:34.176533  1766 net.cpp:157] Top shape: 1 512 34 44 (765952)
I1121 09:50:34.176537  1766 net.cpp:165] Memory required for data: 870448864
I1121 09:50:34.176542  1766 layer_factory.hpp:77] Creating layer conv5_3
I1121 09:50:34.176559  1766 net.cpp:100] Creating Layer conv5_3
I1121 09:50:34.176564  1766 net.cpp:434] conv5_3 <- conv5_2
I1121 09:50:34.176573  1766 net.cpp:408] conv5_3 -> conv5_3
I1121 09:50:34.193826  1766 net.cpp:150] Setting up conv5_3
I1121 09:50:34.193856  1766 net.cpp:157] Top shape: 1 512 34 44 (765952)
I1121 09:50:34.193861  1766 net.cpp:165] Memory required for data: 873512672
I1121 09:50:34.193871  1766 layer_factory.hpp:77] Creating layer relu5_3
I1121 09:50:34.193881  1766 net.cpp:100] Creating Layer relu5_3
I1121 09:50:34.193886  1766 net.cpp:434] relu5_3 <- conv5_3
I1121 09:50:34.193894  1766 net.cpp:395] relu5_3 -> conv5_3 (in-place)
I1121 09:50:34.194095  1766 net.cpp:150] Setting up relu5_3
I1121 09:50:34.194106  1766 net.cpp:157] Top shape: 1 512 34 44 (765952)
I1121 09:50:34.194110  1766 net.cpp:165] Memory required for data: 876576480
I1121 09:50:34.194114  1766 layer_factory.hpp:77] Creating layer pool5
I1121 09:50:34.194124  1766 net.cpp:100] Creating Layer pool5
I1121 09:50:34.194128  1766 net.cpp:434] pool5 <- conv5_3
I1121 09:50:34.194136  1766 net.cpp:408] pool5 -> pool5
I1121 09:50:34.194195  1766 net.cpp:150] Setting up pool5
I1121 09:50:34.194203  1766 net.cpp:157] Top shape: 1 512 17 22 (191488)
I1121 09:50:34.194206  1766 net.cpp:165] Memory required for data: 877342432
I1121 09:50:34.194211  1766 layer_factory.hpp:77] Creating layer fc6
I1121 09:50:34.194223  1766 net.cpp:100] Creating Layer fc6
I1121 09:50:34.194227  1766 net.cpp:434] fc6 <- pool5
I1121 09:50:34.194234  1766 net.cpp:408] fc6 -> fc6
I1121 09:50:34.913132  1766 net.cpp:150] Setting up fc6
I1121 09:50:34.913189  1766 net.cpp:157] Top shape: 1 4096 11 16 (720896)
I1121 09:50:34.913194  1766 net.cpp:165] Memory required for data: 880226016
I1121 09:50:34.913206  1766 layer_factory.hpp:77] Creating layer relu6
I1121 09:50:34.913221  1766 net.cpp:100] Creating Layer relu6
I1121 09:50:34.913228  1766 net.cpp:434] relu6 <- fc6
I1121 09:50:34.913236  1766 net.cpp:395] relu6 -> fc6 (in-place)
I1121 09:50:34.913633  1766 net.cpp:150] Setting up relu6
I1121 09:50:34.913648  1766 net.cpp:157] Top shape: 1 4096 11 16 (720896)
I1121 09:50:34.913652  1766 net.cpp:165] Memory required for data: 883109600
I1121 09:50:34.913657  1766 layer_factory.hpp:77] Creating layer drop6
I1121 09:50:34.913667  1766 net.cpp:100] Creating Layer drop6
I1121 09:50:34.913672  1766 net.cpp:434] drop6 <- fc6
I1121 09:50:34.913679  1766 net.cpp:395] drop6 -> fc6 (in-place)
I1121 09:50:34.913722  1766 net.cpp:150] Setting up drop6
I1121 09:50:34.913729  1766 net.cpp:157] Top shape: 1 4096 11 16 (720896)
I1121 09:50:34.913733  1766 net.cpp:165] Memory required for data: 885993184
I1121 09:50:34.913738  1766 layer_factory.hpp:77] Creating layer fc7
I1121 09:50:34.913750  1766 net.cpp:100] Creating Layer fc7
I1121 09:50:34.913754  1766 net.cpp:434] fc7 <- fc6
I1121 09:50:34.913780  1766 net.cpp:408] fc7 -> fc7
I1121 09:50:35.032249  1766 net.cpp:150] Setting up fc7
I1121 09:50:35.032305  1766 net.cpp:157] Top shape: 1 4096 11 16 (720896)
I1121 09:50:35.032310  1766 net.cpp:165] Memory required for data: 888876768
I1121 09:50:35.032322  1766 layer_factory.hpp:77] Creating layer relu7
I1121 09:50:35.032337  1766 net.cpp:100] Creating Layer relu7
I1121 09:50:35.032344  1766 net.cpp:434] relu7 <- fc7
I1121 09:50:35.032353  1766 net.cpp:395] relu7 -> fc7 (in-place)
I1121 09:50:35.032564  1766 net.cpp:150] Setting up relu7
I1121 09:50:35.032575  1766 net.cpp:157] Top shape: 1 4096 11 16 (720896)
I1121 09:50:35.032579  1766 net.cpp:165] Memory required for data: 891760352
I1121 09:50:35.032584  1766 layer_factory.hpp:77] Creating layer drop7
I1121 09:50:35.032593  1766 net.cpp:100] Creating Layer drop7
I1121 09:50:35.032598  1766 net.cpp:434] drop7 <- fc7
I1121 09:50:35.032604  1766 net.cpp:395] drop7 -> fc7 (in-place)
I1121 09:50:35.032646  1766 net.cpp:150] Setting up drop7
I1121 09:50:35.032655  1766 net.cpp:157] Top shape: 1 4096 11 16 (720896)
I1121 09:50:35.032658  1766 net.cpp:165] Memory required for data: 894643936
I1121 09:50:35.032663  1766 layer_factory.hpp:77] Creating layer score_fr
I1121 09:50:35.032675  1766 net.cpp:100] Creating Layer score_fr
I1121 09:50:35.032680  1766 net.cpp:434] score_fr <- fc7
I1121 09:50:35.032687  1766 net.cpp:408] score_fr -> score_fr
I1121 09:50:35.034982  1766 net.cpp:150] Setting up score_fr
I1121 09:50:35.034998  1766 net.cpp:157] Top shape: 1 6 11 16 (1056)
I1121 09:50:35.035003  1766 net.cpp:165] Memory required for data: 894648160
I1121 09:50:35.035013  1766 layer_factory.hpp:77] Creating layer upscore2
I1121 09:50:35.035024  1766 net.cpp:100] Creating Layer upscore2
I1121 09:50:35.035029  1766 net.cpp:434] upscore2 <- score_fr
I1121 09:50:35.035037  1766 net.cpp:408] upscore2 -> upscore2
I1121 09:50:35.035316  1766 net.cpp:150] Setting up upscore2
I1121 09:50:35.035327  1766 net.cpp:157] Top shape: 1 6 24 34 (4896)
I1121 09:50:35.035332  1766 net.cpp:165] Memory required for data: 894667744
I1121 09:50:35.035346  1766 layer_factory.hpp:77] Creating layer upscore2_upscore2_0_split
I1121 09:50:35.035356  1766 net.cpp:100] Creating Layer upscore2_upscore2_0_split
I1121 09:50:35.035361  1766 net.cpp:434] upscore2_upscore2_0_split <- upscore2
I1121 09:50:35.035367  1766 net.cpp:408] upscore2_upscore2_0_split -> upscore2_upscore2_0_split_0
I1121 09:50:35.035375  1766 net.cpp:408] upscore2_upscore2_0_split -> upscore2_upscore2_0_split_1
I1121 09:50:35.035425  1766 net.cpp:150] Setting up upscore2_upscore2_0_split
I1121 09:50:35.035434  1766 net.cpp:157] Top shape: 1 6 24 34 (4896)
I1121 09:50:35.035439  1766 net.cpp:157] Top shape: 1 6 24 34 (4896)
I1121 09:50:35.035442  1766 net.cpp:165] Memory required for data: 894706912
I1121 09:50:35.035446  1766 layer_factory.hpp:77] Creating layer scale_pool4
I1121 09:50:35.035457  1766 net.cpp:100] Creating Layer scale_pool4
I1121 09:50:35.035461  1766 net.cpp:434] scale_pool4 <- pool4_pool4_0_split_1
I1121 09:50:35.035470  1766 net.cpp:408] scale_pool4 -> scale_pool4
I1121 09:50:35.035598  1766 net.cpp:150] Setting up scale_pool4
I1121 09:50:35.035609  1766 net.cpp:157] Top shape: 1 512 34 44 (765952)
I1121 09:50:35.035612  1766 net.cpp:165] Memory required for data: 897770720
I1121 09:50:35.035619  1766 layer_factory.hpp:77] Creating layer score_pool4
I1121 09:50:35.035629  1766 net.cpp:100] Creating Layer score_pool4
I1121 09:50:35.035634  1766 net.cpp:434] score_pool4 <- scale_pool4
I1121 09:50:35.035642  1766 net.cpp:408] score_pool4 -> score_pool4
I1121 09:50:35.036972  1766 net.cpp:150] Setting up score_pool4
I1121 09:50:35.036988  1766 net.cpp:157] Top shape: 1 6 34 44 (8976)
I1121 09:50:35.036993  1766 net.cpp:165] Memory required for data: 897806624
I1121 09:50:35.037000  1766 layer_factory.hpp:77] Creating layer score_pool4c
I1121 09:50:35.037009  1766 net.cpp:100] Creating Layer score_pool4c
I1121 09:50:35.037015  1766 net.cpp:434] score_pool4c <- score_pool4
I1121 09:50:35.037034  1766 net.cpp:434] score_pool4c <- upscore2_upscore2_0_split_0
I1121 09:50:35.037042  1766 net.cpp:408] score_pool4c -> score_pool4c
I1121 09:50:35.037081  1766 net.cpp:150] Setting up score_pool4c
I1121 09:50:35.037089  1766 net.cpp:157] Top shape: 1 6 24 34 (4896)
I1121 09:50:35.037093  1766 net.cpp:165] Memory required for data: 897826208
I1121 09:50:35.037097  1766 layer_factory.hpp:77] Creating layer fuse_pool4
I1121 09:50:35.037107  1766 net.cpp:100] Creating Layer fuse_pool4
I1121 09:50:35.037111  1766 net.cpp:434] fuse_pool4 <- upscore2_upscore2_0_split_1
I1121 09:50:35.037117  1766 net.cpp:434] fuse_pool4 <- score_pool4c
I1121 09:50:35.037123  1766 net.cpp:408] fuse_pool4 -> fuse_pool4
I1121 09:50:35.037158  1766 net.cpp:150] Setting up fuse_pool4
I1121 09:50:35.037164  1766 net.cpp:157] Top shape: 1 6 24 34 (4896)
I1121 09:50:35.037168  1766 net.cpp:165] Memory required for data: 897845792
I1121 09:50:35.037173  1766 layer_factory.hpp:77] Creating layer upscore_pool4
I1121 09:50:35.037181  1766 net.cpp:100] Creating Layer upscore_pool4
I1121 09:50:35.037186  1766 net.cpp:434] upscore_pool4 <- fuse_pool4
I1121 09:50:35.037194  1766 net.cpp:408] upscore_pool4 -> upscore_pool4
I1121 09:50:35.037441  1766 net.cpp:150] Setting up upscore_pool4
I1121 09:50:35.037449  1766 net.cpp:157] Top shape: 1 6 50 70 (21000)
I1121 09:50:35.037453  1766 net.cpp:165] Memory required for data: 897929792
I1121 09:50:35.037459  1766 layer_factory.hpp:77] Creating layer upscore_pool4_upscore_pool4_0_split
I1121 09:50:35.037467  1766 net.cpp:100] Creating Layer upscore_pool4_upscore_pool4_0_split
I1121 09:50:35.037472  1766 net.cpp:434] upscore_pool4_upscore_pool4_0_split <- upscore_pool4
I1121 09:50:35.037478  1766 net.cpp:408] upscore_pool4_upscore_pool4_0_split -> upscore_pool4_upscore_pool4_0_split_0
I1121 09:50:35.037487  1766 net.cpp:408] upscore_pool4_upscore_pool4_0_split -> upscore_pool4_upscore_pool4_0_split_1
I1121 09:50:35.037533  1766 net.cpp:150] Setting up upscore_pool4_upscore_pool4_0_split
I1121 09:50:35.037540  1766 net.cpp:157] Top shape: 1 6 50 70 (21000)
I1121 09:50:35.037545  1766 net.cpp:157] Top shape: 1 6 50 70 (21000)
I1121 09:50:35.037549  1766 net.cpp:165] Memory required for data: 898097792
I1121 09:50:35.037554  1766 layer_factory.hpp:77] Creating layer scale_pool3
I1121 09:50:35.037562  1766 net.cpp:100] Creating Layer scale_pool3
I1121 09:50:35.037566  1766 net.cpp:434] scale_pool3 <- pool3_pool3_0_split_1
I1121 09:50:35.037575  1766 net.cpp:408] scale_pool3 -> scale_pool3
I1121 09:50:35.037696  1766 net.cpp:150] Setting up scale_pool3
I1121 09:50:35.037705  1766 net.cpp:157] Top shape: 1 256 67 88 (1509376)
I1121 09:50:35.037709  1766 net.cpp:165] Memory required for data: 904135296
I1121 09:50:35.037714  1766 layer_factory.hpp:77] Creating layer score_pool3
I1121 09:50:35.037725  1766 net.cpp:100] Creating Layer score_pool3
I1121 09:50:35.037729  1766 net.cpp:434] score_pool3 <- scale_pool3
I1121 09:50:35.037737  1766 net.cpp:408] score_pool3 -> score_pool3
I1121 09:50:35.039049  1766 net.cpp:150] Setting up score_pool3
I1121 09:50:35.039064  1766 net.cpp:157] Top shape: 1 6 67 88 (35376)
I1121 09:50:35.039069  1766 net.cpp:165] Memory required for data: 904276800
I1121 09:50:35.039077  1766 layer_factory.hpp:77] Creating layer score_pool3c
I1121 09:50:35.039086  1766 net.cpp:100] Creating Layer score_pool3c
I1121 09:50:35.039091  1766 net.cpp:434] score_pool3c <- score_pool3
I1121 09:50:35.039098  1766 net.cpp:434] score_pool3c <- upscore_pool4_upscore_pool4_0_split_0
I1121 09:50:35.039105  1766 net.cpp:408] score_pool3c -> score_pool3c
I1121 09:50:35.039144  1766 net.cpp:150] Setting up score_pool3c
I1121 09:50:35.039151  1766 net.cpp:157] Top shape: 1 6 50 70 (21000)
I1121 09:50:35.039155  1766 net.cpp:165] Memory required for data: 904360800
I1121 09:50:35.039160  1766 layer_factory.hpp:77] Creating layer fuse_pool3
I1121 09:50:35.039168  1766 net.cpp:100] Creating Layer fuse_pool3
I1121 09:50:35.039172  1766 net.cpp:434] fuse_pool3 <- upscore_pool4_upscore_pool4_0_split_1
I1121 09:50:35.039191  1766 net.cpp:434] fuse_pool3 <- score_pool3c
I1121 09:50:35.039201  1766 net.cpp:408] fuse_pool3 -> fuse_pool3
I1121 09:50:35.039237  1766 net.cpp:150] Setting up fuse_pool3
I1121 09:50:35.039244  1766 net.cpp:157] Top shape: 1 6 50 70 (21000)
I1121 09:50:35.039248  1766 net.cpp:165] Memory required for data: 904444800
I1121 09:50:35.039252  1766 layer_factory.hpp:77] Creating layer upscore8
I1121 09:50:35.039261  1766 net.cpp:100] Creating Layer upscore8
I1121 09:50:35.039266  1766 net.cpp:434] upscore8 <- fuse_pool3
I1121 09:50:35.039273  1766 net.cpp:408] upscore8 -> upscore8
I1121 09:50:35.039580  1766 net.cpp:150] Setting up upscore8
I1121 09:50:35.039590  1766 net.cpp:157] Top shape: 1 6 408 568 (1390464)
I1121 09:50:35.039594  1766 net.cpp:165] Memory required for data: 910006656
I1121 09:50:35.039599  1766 layer_factory.hpp:77] Creating layer score
I1121 09:50:35.039608  1766 net.cpp:100] Creating Layer score
I1121 09:50:35.039613  1766 net.cpp:434] score <- upscore8
I1121 09:50:35.039618  1766 net.cpp:434] score <- data_data_0_split_1
I1121 09:50:35.039625  1766 net.cpp:408] score -> score
I1121 09:50:35.039656  1766 net.cpp:150] Setting up score
I1121 09:50:35.039664  1766 net.cpp:157] Top shape: 1 6 335 500 (1005000)
I1121 09:50:35.039667  1766 net.cpp:165] Memory required for data: 914026656
I1121 09:50:35.039671  1766 layer_factory.hpp:77] Creating layer loss
I1121 09:50:35.039680  1766 net.cpp:100] Creating Layer loss
I1121 09:50:35.039685  1766 net.cpp:434] loss <- score
I1121 09:50:35.039690  1766 net.cpp:434] loss <- label
I1121 09:50:35.039697  1766 net.cpp:408] loss -> loss
I1121 09:50:35.039707  1766 layer_factory.hpp:77] Creating layer loss
…
